results/bandwidth_predictor/run_20250307_100618/MLP_best.pth (torch, 62444 bytes, 19 tensors)

network.0.weight f4 [128, 18]
00000000: 585d f13d b572 52be f7a6 a1bd 9ecc abbd
00000010: 494b a93d 5911 1c3e 51cd 673e 0e85 59be
00000020: 6510 7a3e ba09 f2bd 8e6d a23d 96a0 803b
00000030: e835 6bbe fa61 6d3c 036d a63d 4f74 31be
00000040: 29ca b83d 2c2e fabd b083 eabd 3f86 433e
00000050: 1e5b 453e f75d 083e 8966 1e3b abfe bcbd
00000060: a08a 073c f2e8 02bd 0a2a 21be 18f8 1bbe
00000070: 6c07 553e 14b5 0bbd d4f6 a6bd c1e7 08bd
00000080: 2be3 c03d fce8 40bd ed59 cebc 2279 423e
00000090: 42c9 313e 9725 39be 82e6 043e 2ab6 18be
000000a0: 9e56 68be 847e 04be e0cc 83be e091 91bb
000000b0: 7e40 253d a8bc d63c 38f8 313e 4dae 63be
000000c0: 441a cb3c 961b 99bd b3e8 47bb 3424 1cbc
000000d0: f83d 48bd 019e 3dbe 7e75 493c b482 953e
000000e0: 138f ee3c 2d55 063e 3149 2a3e 9feb 593e
000000f0: 9694 a63d 483a b93c 2b55 4cbd 04ea 1c3e
00000100: 3b1c 283e 138f 363e 8ec7 49be 34b0 63be
00000110: 47a4 9b3d 45d4 38bd 6290 0fbe c53b fb3d
00000120: cc5e 16be f676 88bd d72c 70be 462a d2bd
00000130: 1bdc 2bbd 2cc0 2d3e ae81 a6bd b019 7b3e
00000140: d237 e53d 71d7 fd3c 0b43 cebc e108 333e
00000150: 122a d63d dc07 0cbd 31ab 0e3e cd08 4dbc
00000160: 83dc e63c 5584 42be e492 9d3d c82f d93d
00000170: ff8a 353c 6f5d 643d ebb1 e03d 7d6f a9bd
00000180: cc7f 1ebe 48b0 8abc 5e56 f83d d45c 5b3e
00000190: 767b 54be 5a0b fa3b 36c3 72bd 5ed8 e6bd
000001a0: 6b18 32be e3e3 5abe 1b0c 88bd b329 b5bd
000001b0: 2328 4cbe 1a2a 123e ae13 d53d c416 dbbd
000001c0: 7844 a13d c376 d8bd 1aec 72be d1f7 623e
000001d0: 29a3 5cbd d573 3dbe 588a 4f3e 1ede ee3d
000001e0: 2654 68be 539b 6cbd bafb e4bd 9415 043d
000001f0: 3000 f53b c0a3 373d 8853 243d 7ec6 683c
00000200: fd7d b0bd e4ea f9bc a869 233e 2adb fe3d
00000210: 3b64 1f3e 0d9e 3bbe a82a 233e a13c 893d
00000220: 18fc 7f3e bf18 7e3d 33e9 92bd 2517 c53d
00000230: 4c4c 0cbe 1aa9 19bd 3231 1dbe 71f5 423e
00000240: e91e 723d 5d72 53be 50eb f73c d037 933d
00000250: 1dd6 153e 4c47 903d 1bf8 153d 28a3 f43d
00000260: a073 df3d 9d71 713e e6fa 143e bf22 e83d
00000270: c61e d5b8 d048 78be 9fdf 1abe 39ed fb3d
00000280: 6322 633d 5fa9 d43b 7c46 5b3e febf 16be
00000290: a75b 24bd 1a14 553d 2827 aebd 8c0d a53d
000002a0: 37ec 733c 46b4 283d 1cd3 0ebe ca43 0b3e
000002b0: 2b2a 3d3e d3c8 2bbe de75 273c b041 373d
000002c0: a493 0cbe 007b 1fbe e031 6cbd 7b1f 383d
000002d0: 2b4e 123d 5940 413e 7c29 39bd 7c36 08bd
000002e0: e149 1bbe f070 043e 5ec6 363e 3dd8 563d
000002f0: 7b34 4abe b7e3 cbbc 9ab2 38be d4b2 6e3e
00000300: 4cd5 66be 71d8 8bbc 4a41 2a3d 6d0d 0cbe
00000310: bd37 21bd 62a0 0c3e 7f3d 6dbd c176 67bd
00000320: 9c3b 52be 2133 23be 9fe1 7ebe fa8b c3bc
00000330: c394 e0bd 9231 5f3d e03b 533d 792b 34be
00000340: 38a0 fe3d 3562 933d 87ec cebd c438 c63d
00000350: ad43 60be 4ae8 84bd 5639 52be 1f9b 6d3e
00000360: 0a79 f0bc af2f 0e3e b39d 53be c199 f0bd
00000370: a5df febd 92e2 22be 0b4b 693d 0800 e83d
00000380: 8f39 5ebe 716e 713e d217 01bc 8a27 083d
00000390: 122b de3d dc76 56be 09d7 a03d 8a86 2a3c
000003a0: a6c9 2bbe 0cf2 41be 4774 6d3a 25e8 7e3e
000003b0: 0ddc 50be 883d dc3d 2ff7 bbbc 5fc9 c7bd
000003c0: 6a43 febd d28b 383e 5521 9e3d 7c79 2cbe
000003d0: 8068 893e 5668 9f3c be28 183e cee2 6c3e
000003e0: 3ae4 55bd 18b0 253e 2453 a4bd ad87 213d
000003f0: 205c 293e 990b 023e b3af 283e 995b 3fbe
0.11785382 -0.2055157 -0.07893174 -0.08388637 0.08266313 0.15240993 0.22636916 -0.21242163
0.24420317 -0.118182614 0.07931052 0.0039253933 -0.22969782 0.014488691 0.08126261 -0.17329524
0.09022934 -0.12215838 -0.11450899 0.1909418 0.1927304 0.13317095 0.0024170002 -0.092282616
0.008272797 -0.031960435 -0.15738693 -0.15231359 0.20803612 -0.034108236 -0.081525475 -0.033424143
0.09418329 -0.04709719 -0.025189364 0.18991521 0.1736193 -0.18080746 0.12978557 -0.1491324
-0.22689292 -0.12938887 -0.25742245 -0.0044424385 0.040344708 0.026213005 0.17379844 -0.22234459
0.024792798 -0.07475965 -0.003050369 -0.009530116 -0.048887223 -0.18517305 0.012296079 0.2920128
0.029120957 0.1311843 0.16629483 0.21281289 0.08133809 0.022610798 -0.04988591 0.15323645
0.16417019 0.17828016 -0.1970503 -0.22235185 0.07599693 -0.04512431 -0.14019921 0.122672595
-0.146846 -0.06663315 -0.23454605 -0.10261969 -0.041957956 0.16967839 -0.08130203 0.24521518
0.111922875 0.03098652 -0.025178453 0.17483856 0.10457243 -0.034187183 0.13932492 -0.012514305
0.02818132 -0.18995793 0.07694033 0.10604817 0.0110805025 0.055753168 0.10971435 -0.08273218
-0.15478438 -0.01692976 0.12125848 0.2142213 -0.20750222 0.0076307477 -0.0592682 -0.112717375
-0.17392127 -0.21375994 -0.06642934 -0.08845844 -0.19937186 0.14273873 0.10404144 -0.106977016
0.078743875 -0.10569527 -0.23722878 0.22164847 -0.05386654 -0.18501218 0.20267618 0.11663459
-0.2268835 -0.057765316 -0.111808255 0.03224714 0.007476829 0.0448339 0.040118724 0.0142074805
-0.0861778 -0.030507512 0.15958273 0.12444146 0.15565579 -0.1832201 0.15934241 0.06701017
0.2499851 0.06203532 -0.071733855 0.09623555 -0.1370098 -0.037514783 -0.15350798 0.19038941
0.05911151 -0.20649095 0.030263573 0.0718838 0.14632459 0.07044849 0.036613565 0.11945182
0.109107256 0.23578496 0.14548835 0.11334752 -0.000101623635 -0.24246526 -0.15124367 0.12301106
0.055452716 0.006489917 0.21413606 -0.14721677 -0.04012647 0.052021123 -0.08503562 0.080592245
0.014887861 0.041187547 -0.1394772 0.13600078 0.18473117 -0.16775827 0.010220973 0.04474038
-0.13728195 -0.15574265 -0.057664752 0.044951897 0.035719078 0.18872203 -0.04520558 -0.033255085
-0.15164901 0.12933707 0.17849109 0.052452315 -0.19746582 -0.024888856 -0.18036881 0.23310405
-0.22542304 -0.01707098 0.04156617 -0.13676997 -0.039359797 0.13733056 -0.057919975 -0.056509737
-0.20530552 -0.15937473 -0.24890755 -0.023870457 -0.10965874 0.054490633 0.051570773 -0.17594709
0.12432903 0.07196466 -0.10103708 0.09678796 -0.21900816 -0.06489618 -0.20529684 0.23203705
-0.02935459 0.13885377 -0.20665626 -0.11748076 -0.124450006 -0.15906742 0.056956332 0.11328131
-0.21701644 0.23577286 -0.007879214 0.033240832 0.10848059 -0.20943779 0.07853515 0.010408053
-0.16776142 -0.1893999 0.0009058159 0.24893244 -0.20396443 0.10753924 -0.022945015 -0.09755205
-0.12415202 0.18022087 0.07721201 -0.16843218 0.2683754 0.019458931 0.14859292 0.23133394
-0.052219607 0.16180456 -0.0802367 0.03943603 0.16539049 0.12699737 0.16473274 -0.18687285

network.0.bias f4 [128]
00000000: 233a 7539 c58a 4bbc ecf7 20b8 24b0 9db6
00000010: 0c6d 90ba e7e8 7fbc 159e 46bc 4406 92b8
00000020: 4348 9533 92b8 8036 4f42 123c 6cf8 39bc
00000030: f273 a3bb d4cf d9bc 3da4 b7b7 3d5e db37
00000040: 2bd0 333b f559 21bc 7bd8 9bb6 010b 8fbc
00000050: f4b0 ff37 34f6 c837 e5f6 74bb 2dac c53c
00000060: 59e6 c9b6 2a28 f636 3a86 873c 2bcb 13bc
00000070: 5abe 90bc b188 3cb7 6cc8 be3c 932e 003b
00000080: b725 af3a 52e3 22b7 9dec 7ab7 bbe2 dcb7
00000090: 7f21 e0bc 1a29 893c d59a 5cbc d4f6 6abb
000000a0: 26c7 4bbc ae05 9ebc ba01 08ba 52c7 1136
000000b0: 9501 023c 5bd4 83b5 8df8 2337 15ad a238
000000c0: 4bfa b5ba 2c1c 6c3a bbba 96b7 5a15 f234
000000d0: e858 9f3c fbfb 993c 12f7 2936 9041 073c
000000e0: 7f9f 6b3b cd4d ec39 6cd7 503c c612 aab9
000000f0: 921c a33a 7dc3 d2b8 e048 2cbb 4980 113b
00000100: 6adb 61b7 e198 77ba 171e 653a 2848 03b8
00000110: e468 9fb5 cf32 7eb6 5713 14b9 2e06 02b6
00000120: cbba 263c d27f 78b7 15c2 bdbc 086e 5636
00000130: 4569 8236 4954 b535 f11b 5437 c771 efbc
00000140: 1b27 243a db60 a13a 4632 c2ba e312 ecbc
00000150: b286 afb6 ac55 8b37 4c72 4fbc 33d9 36ba
00000160: 1316 323a 0f49 b937 7701 44b7 894e e236
00000170: 417f 0a36 23b0 3b3a afa1 9fbb aff6 1336
00000180: a0d3 2a37 db03 f139 793d a6bc 6cfc 2ab7
00000190: dc1c 87b7 ed5f 0137 fdaa b036 f2b4 25b8
000001a0: 033a 3dbc be65 133c c661 543a e965 28bb
000001b0: 7663 333b ff60 353c e4fb 43bc e3e2 dfbb
000001c0: 6645 7eb9 2d37 22bb 2f04 e4bc c463 743b
000001d0: 4e9c 803c d1d8 69bc 9c43 1a3c f90f a036
000001e0: 763a abb5 6bc8 21b7 2942 67b7 5d6f 68bc
000001f0: 9f9f 10bc a1a2 ec35 5ec0 8a37 c00a 8abc
0.00023386678 -0.012423222 -3.8377868e-05 -4.69947e-06 -0.0011018827 -0.015619493 -0.012122651 -6.9629896e-05
6.9514975e-08 3.836184e-06 0.008926942 -0.011350732 -0.004988187 -0.026588358 -2.189178e-05 2.6150718e-05
0.002743731 -0.009848108 -4.6445616e-06 -0.017461302 3.0480769e-05 2.3956505e-05 -0.0037378606 0.024129951
-6.017083e-06 7.336047e-06 0.016543496 -0.009020607 -0.017668892 -1.1237499e-05 0.023288928 0.001955901
0.001336268 -9.70888e-06 -1.4956252e-05 -2.6331623e-05 -0.027359722 0.016743232 -0.013464649 -0.0035852687
-0.012437617 -0.019289818 -0.00051882456 2.1722703e-06 0.0079349475 -9.822064e-07 9.773427e-06 7.757001e-05
-0.0013883797 0.00090068835 -1.7968347e-05 4.5091548e-07 0.019451573 0.018796911 2.5326776e-06 0.008255377
0.0035953221 0.00045071394 0.012746673 -0.00032438914 0.0012444428 -0.00010049993 -0.0026288554 0.0022201708
-1.3462131e-05 -0.0009445083 0.00087401405 -3.1300035e-05 -1.187695e-06 -3.7878524e-06 -0.00014121585 -1.9375107e-06
0.010176371 -1.4811712e-05 -0.023163835 3.1952532e-06 3.886557e-06 1.3510081e-06 1.264269e-05 -0.029229058
0.00062619307 0.001231219 -0.0014816008 -0.0288176 -5.231087e-06 1.6609985e-05 -0.012661528 -0.0006975114
0.00067934504 2.208774e-05 -1.1682851e-05 6.7444676e-06 2.0637674e-06 0.00071597303 -0.004871569 2.2048296e-06
1.0182062e-05 0.00045969975 -0.020292984 -1.0191561e-05 -1.6106693e-05 7.711334e-06 5.2651144e-06 -3.9507584e-05
-0.011549476 0.008996425 0.00081017276 -0.0025695509 0.0027372516 0.011070489 -0.011961911 -0.006832467
-0.0002424918 -0.0024752126 -0.027834026 0.003729091 0.015699532 -0.0142728845 0.009415533 4.770231e-06
-1.2757507e-06 -9.643011e-06 -1.3784077e-05 -0.014186707 -0.008827119 1.7630701e-06 1.654046e-05 -0.01685083

network.1.weight f4 [128]
00000000: b3f0 763f 3e9c 843f 27a6 773f 6f83 7c3f
00000010: ab68 813f e3f5 7d3f 2130 7e3f 597d 813f
00000020: 43c7 763f 7958 7d3f 97c6 783f f0d7 773f
00000030: 297b 743f c058 823f d968 7d3f 9e16 813f
00000040: 0a95 8e3f bf86 723f 6964 7f3f 43b8 7f3f
00000050: 6f3d 763f 2c9f 853f 53e0 7b3f efe5 783f
00000060: 788b 793f 5847 823f b702 783f 1a9a 803f
00000070: 3985 763f 6df1 823f 9105 783f 913e 843f
00000080: 958e 7d3f 72cb 843f a64b 7b3f e3ba 773f
00000090: c7bf 733f 883b 763f a4f5 783f b6ec 7d3f
000000a0: 9327 753f 59e2 843f a7b3 823f d336 783f
000000b0: c979 7e3f bb87 793f 7dab 863f 201b 833f
000000c0: 75ce 7a3f 89d8 7a3f 6d83 823f 7328 7d3f
000000d0: 8c1e 7f3f 71df 7a3f 2256 843f f472 743f
000000e0: 2f5d 743f 9a70 7d3f 1353 803f 2b73 813f
000000f0: aa54 7f3f bfce 7f3f 76c9 893f 7d51 803f
00000100: 9728 823f 3a21 773f 2586 733f 8a4b 813f
00000110: b53c 773f 6131 7a3f db37 823f 78cf 7a3f
00000120: 73ee 893f 5515 743f ed14 7e3f 35f4 7a3f
00000130: 5036 793f 3009 753f b020 7c3f fdfd 823f
00000140: a163 7f3f 436a 773f 4c09 823f 4243 7e3f
00000150: 0b6e 7a3f c161 7e3f 6f1f 803f adcc 753f
00000160: f778 803f 6011 813f 6f6d 7a3f e181 793f
00000170: f232 7c3f 6687 7d3f 9e40 823f a174 7f3f
00000180: e0ed 7d3f a96b 873f ba55 853f c44d 793f
00000190: f28a 7c3f af6f 8b3f 74e7 823f 68ef 803f
000001a0: 9198 813f 333c 803f 3791 803f 80c1 803f
000001b0: 9b89 823f b1ec 853f f5e3 853f 2c8b 893f
000001c0: 38be 743f bccb 823f 6e03 813f 268f 843f
000001d0: 01af 7b3f 413b 743f f19f 813f 286d 7e3f
000001e0: 4fe3 753f d228 823f b203 7a3f b356 793f
000001f0: 3fd9 843f 617e 7b3f b778 853f 8710 743f
0.9646103 1.0360181 0.96737903 0.9863805 1.0110067 0.9920332 0.9929219 1.0116378
0.963978 0.98963124 0.97178024 0.9681387 0.9550043 1.0183334 0.9898811 1.0085027
1.1139233 0.94736856 0.9976259 0.99890536 0.9618749 1.04392 0.98389167 0.9722585
0.9747844 1.0178022 0.9687914 1.0047028 0.9629703 1.0229927 0.96883494 1.0331594
0.9904569 1.0374587 0.98162305 0.9676954 0.95214504 0.9618459 0.9724982 0.9918932
0.9576351 1.0381576 1.0211076 0.96958655 0.9940458 0.97472733 1.0521084 1.0242653
0.9797128 0.97986656 1.0196358 0.98889846 0.99655986 0.97997195 1.0338786 0.95487905
0.95454687 0.9899994 1.0025352 1.0113271 0.9973856 0.99924845 1.0764606 1.0024868
1.0168637 0.96535075 0.95126563 1.0101178 0.96577007 0.97731596 1.0173296 0.9797282
1.0775894 0.9534505 0.9925068 0.9802888 0.973485 0.95717144 0.9848738 1.0233761
0.99761397 0.9664652 1.0159087 0.9932138 0.9782416 0.9936791 1.0009593 0.96015435
1.0036916 1.0083427 0.9782323 0.97463804 0.98515236 0.99034727 1.017597 0.99787337
0.99191093 1.057973 1.0416787 0.97384286 0.98649514 1.0893458 1.0226884 1.0073061
1.0124685 1.0018371 1.0044316 1.0059052 1.0198244 1.0462857 1.0460192 1.0745597
0.9560275 1.0218425 1.0079172 1.0356185 0.9831391 0.95402914 1.0126935 0.9938531
0.9604997 1.0168707 0.9766189 0.9739792 1.0378798 0.98239714 1.0427464 0.9533772

network.1.bias f4 [128]
00000000: 92af 07bd 7bc4 103d 7ca4 79bb 1984 18bc
00000010: 21f5 be3c 7d60 b63b 21af 26bc 98c7 de3c
00000020: 21a9 c8bc be9b 863c cbd9 2abd 5623 1bbd
00000030: 3444 94bc 3716 f33b 40e4 dabc 53b7 913d
00000040: 655a 973d 373b e6bc 5e7c ba3c 1b7f 653c
00000050: 0056 2abc fb3f db3c 3349 febb 2500 623b
00000060: c666 15bc eb0d 093d 70d1 8ebc 7484 423d
00000070: d5f3 40bd 3315 863c ec26 e3bc d8be 233d
00000080: c652 75bc abfb 153c 328e 10bd 2271 f2bb
00000090: 1b15 1bbd 99b2 4dbd 2bb2 e2bc d69c bb3b
000000a0: 2e47 87bc 0554 4f3d a79f 913c 286c 51bc
000000b0: e842 053b d9f5 f1ba b749 6a3c cb78 ef3c
000000c0: da68 90ba d6a9 babc 6e17 7c3c 8583 be3b
000000d0: 0342 023d 67fa aabb 6a89 313d 0f2f e5bc
000000e0: 8013 10bc c66f b23c 0686 8ebc 963c 3c3c
000000f0: e82a 193d 24be b5bb a0fe 723d 15fb ff3c
00000100: bb14 543d 2cc1 2abc 06a8 e0bc 2aaf c23b
00000110: 32e9 0cbd 5733 4aba 25f7 d63c 5da0 4fbc
00000120: 40c5 9a3d 51a2 b4bc 6d1a 1e3c fa48 8ebb
00000130: ba5b 30bd abe9 2fbd 6561 883c fd7d cf3c
00000140: 6f27 7d3d a948 a4bd 1193 fc3c 96c8 82bb
00000150: 80bf cebc ec42 92bc f733 f63b a65b afbc
00000160: 5ab3 60bc a833 183c 0d25 af38 ffde 03bc
00000170: 1b0d 9fbc a018 46bc 7a21 613d 782d 023d
00000180: a092 d93c d2a6 ae3c 1d2b 653d f707 2cbd
00000190: f0d7 32bc 5ae3 843d fae4 eb3c 5b4b 0fbc
000001a0: 7bc5 a93c 2bcd e4bc 6024 903b 00ae a03c
000001b0: dfef 863d ff0c 7c3c 959c ab3d 97db 9e3d
000001c0: c9fe 1abd 286a 813b 4a53 0ebb 9bf4 e23c
000001d0: 9af2 11bb eb89 e5bc 922f 573d 0412 fbbb
000001e0: b082 c8bc 70ba 403d 7a70 bcbc c4b6 97bb
000001f0: 3d31 253d a130 c5bc 4efa 6c3d 81fb 0dbd
-0.03312642 0.03534363 -0.0038092425 -0.009308838 0.023310246 0.0055657015 -0.01017359 0.027194783
-0.02449471 0.016431686 -0.04171161 -0.037875496 -0.018098928 0.0074184197 -0.026720166 0.071150444
0.07390288 -0.028104408 0.022764381 0.014007355 -0.010396481 0.026763907 -0.007760191 0.003448495
-0.009118741 0.03346054 -0.017433852 0.0474896 -0.047107536 0.01636753 -0.02772852 0.039976925
-0.014973348 0.009154241 -0.035291858 -0.0073987404 -0.037861925 -0.050219152 -0.027672848 0.0057254834
-0.016513433 0.050617237 0.017776323 -0.012782134 0.0020334069 -0.0018460109 0.014299802 0.029232403
-0.0011017576 -0.022786062 0.015386445 0.005814018 0.031801235 -0.0052178386 0.04334394 -0.02797654
-0.008793712 0.021781813 -0.017397892 0.011489054 0.037394434 -0.005546348 0.05932486 0.031247655
0.051777583 -0.010422032 -0.02742387 0.0059412913 -0.03440208 -0.0007713339 0.026240895 -0.012672511
0.07557154 -0.022050055 0.009649855 -0.0043421956 -0.043056227 -0.042947453 0.016648004 0.02532863
0.061805185 -0.08021671 0.030831845 -0.003991197 -0.025237799 -0.017854176 0.007513519 -0.021406006
-0.013714636 0.00928966 8.3515515e-05 -0.008048772 -0.019415429 -0.012090832 0.054963566 0.031781644
0.026559174 0.02131978 0.05594932 -0.041999783 -0.010915741 0.06488676 0.028795708 -0.0087459935
0.020724049 -0.027929863 0.0043988675 0.01961422 0.065887205 0.015383958 0.08379475 0.07756727
-0.03784064 0.0039494224 -0.0021717125 0.027704528 -0.0022269846 -0.028019866 0.0525356 -0.0076620597
-0.02447638 0.0470528 -0.023002852 -0.0046299417 0.04033016 -0.02407104 0.057855897 -0.03466368

network.1.running_mean f4 [128]
00000000: 6749 a5bb 1de6 9cbd f492 4abc 4669 ab3c
00000010: d7c6 cf3b 08f6 f5bb fdff 0abe 1767 083d
00000020: a883 0a3d b373 7c3a bc7a c53c 90c5 4dbd
00000030: 8aac 9c3c 7044 b8bd 3d8b bcbc 0312 6e3c
00000040: d0fa 6ebd d704 b5bc c92b c0bb ae49 4cbd
00000050: 43ea 583b 0e9c 9ebd d08b 9dbc 54de 833d
00000060: 0cfa 613c 81a3 6dbc 2da4 9b3d bc7e 16bd
00000070: d683 ea3c 9179 2cbc 6c0d 0c3b 877d 41bb
00000080: b42f f93b e2cf 2fbd a342 59bd fabd d33d
00000090: 2895 5bbd 1c9b d3bc 02f1 b0bc ac93 3c3d
000000a0: baff efbb 4ab0 84bd 17b8 4c3c f897 e53c
000000b0: f330 98bc 1ebe 2a3d 9464 e6bc 1e20 7bbd
000000c0: 8970 bf3d 8b2b b03c 50c7 76bc 4ef5 c43d
000000d0: 8f4a 25bd fa77 073d c640 54bd 0f50 d3bc
000000e0: f79d 713d bd65 043d 0b82 48bc 534a ebbb
000000f0: e6d8 763d d316 973b b084 86bc d9e6 723d
00000100: 7c36 443d 5b95 cb3d 89ef a83d 0e23 5dbc
00000110: 06c5 62bc 6872 bb3b 8fee b43b 9981 aa3d
00000120: 5c37 21bd 3c16 d8bc 2531 cbbd dec7 4e3d
00000130: 31ad 203c 5748 863d 89ad 20bd 8ef9 e5bc
00000140: aab6 b13b aac2 15bd 2dcf 73ba 00ed 023c
00000150: cbdb 913c 8059 a33c b353 26bc a2ab 133d
00000160: 58e4 bebc c91f adbb d1e3 203c 9233 733b
00000170: 9cce 843d 7de8 23bd 3450 8f3d 6d0a 0cbc
00000180: 60fd 253c d0ef b6bd 9f6a 6ebd 3c1d 95bd
00000190: d433 3c3d 4b00 2bbd 22be 953c 2dc4 5fbd
000001a0: a285 6b3d 4fff 193d 32ca 3ebd 6c52 9f3d
000001b0: 8a28 253d cfbe a13b 3169 9dbd 0373 73bd
000001c0: db55 403c 5497 f4bc ef8f 40bd 306f d3bd
000001d0: 295e 473d a8a4 463d 550d e23c 1bea d53c
000001e0: c541 a63d cac0 8a3c 7cbc 263d c9d7 b1bc
000001f0: a075 81bd ab73 843c e2d0 c2bc 1cc0 5abc
-0.0050441506 -0.07661078 -0.012364138 0.020924222 0.006340842 -0.007506136 -0.13574214 0.03330144
0.033816963 0.00096302776 0.024106376 -0.05023724 0.019125242 -0.089974284 -0.023015613 0.0145306615
-0.058344662 -0.022097034 -0.0058645946 -0.049874954 0.0033098615 -0.07744609 -0.019231707 0.0643889
0.013792526 -0.014504314 0.075996734 -0.036741957 0.028627317 -0.010527031 0.0021370305 -0.0029524283
0.0076045636 -0.042922862 -0.053042065 0.103389695 -0.053609043 -0.025830798 -0.021599296 0.04603927
-0.007324186 -0.06478937 0.012495062 0.028026566 -0.018578028 0.041685216 -0.028124131 -0.061309926
0.09347636 0.021505138 -0.015062168 0.09617101 -0.040354308 0.033073403 -0.051819585 -0.02579501
0.058988538 0.032323588 -0.012238036 -0.007180491 0.060265444 0.004610875 -0.016420692 0.059302185
0.047903523 0.09940597 0.08248813 -0.013497127 -0.013840919 0.0057204254 0.0055216025 0.083255
-0.039359435 -0.02637779 -0.09921483 0.050483577 0.009806917 0.065567665 -0.039227996 -0.028073099
0.0054233866 -0.0365626 -0.0009300586 0.0079910755 0.017805 0.019940138 -0.010151791 0.036052354
-0.023302242 -0.00528333 0.009819941 0.0037109596 0.0648472 -0.04001664 0.069977194 -0.008547408
0.01013121 -0.08932459 -0.05820715 -0.07280967 0.045947865 -0.041748326 0.018279139 -0.054630447
0.05750049 0.037596997 -0.046579547 0.077793926 0.040321864 0.0049360762 -0.07686079 -0.059435856
0.01173922 -0.029857315 -0.047012266 -0.10323942 0.048673782 0.048496872 0.027594248 0.026112607
0.08118013 0.016937632 0.040707096 -0.02170934 -0.06321263 0.016168436 -0.023781244 -0.0133514665

network.1.running_var f4 [128]
00000000: 9a48 b43e f02c 1a3f 5562 9e3e 5564 ef3e
00000010: 4f24 a73e 7694 233e ba62 053f 8ee6 0c3e
00000020: 68b4 003f 3e3c fd3d 063a a23e dc4f 9c3f
00000030: afc7 003f 47d3 dd3e e869 d23e 7c89 bb3d
00000040: 4a26 e83d ee73 543e b176 803e b4f4 353f
00000050: 9f32 223e 9d6b fa3e 60cb 883e 3f21 a43f
00000060: 0c69 ed3e 176a c03e a0f5 163f fb21 943e
00000070: 7ed3 943f e2b2 8f3e 06f7 1b3f 883e 913e
00000080: ba56 a43e db8b 023e d48a c43e be51 8a3e
00000090: 4834 813f d3cd 083e ec37 963e 7ee3 1e3f
000000a0: 69af e33e b985 0f3e e7ec c33e 194e 9e3f
000000b0: 99e1 c03d 548e f83e 993e 4f3e caca 913e
000000c0: 537c dd3e 62c1 033e 9553 b33e 3abb a93f
000000d0: c132 883f bf51 043e 06ca ca3e 01ac 883e
000000e0: a79a db3e 53ba 0d3f 9109 7b3e f4a1 c33d
000000f0: 32a6 a03e df40 fd3e 7f76 133f 77b7 cb3e
00000100: 6ab7 8b3d ed39 c03e a2a0 4e3f 6d69 4f3f
00000110: 5ddc 093f 128d a83e ab4d b53e ff8e 533f
00000120: 769b 693e e693 ed3e 0a13 7c3e 1ed1 033f
00000130: bfa0 303f 9e48 d83e cf7b 493e 1e97 ec3e
00000140: ddd0 dc3e 1694 ef3e 1e18 b73d bde7 2f3e
00000150: 5a2a 233e ee5b 1c3e 5e02 4d3e 365a 3e3e
00000160: c926 213e f335 453e c2af 0b3e 8aea fa3e
00000170: 6f61 c43e 287d 9a3e 8210 c43e eb4f 173e
00000180: 063d 513e dd90 bc3e 89a8 053f f47f 753e
00000190: ebd7 dc3d b09b ab3e e907 633f 3a89 813e
000001a0: b8d6 c83e b234 863e 1578 fd3e 5101 f33e
000001b0: 4af6 8c3e d240 983e 12bf 323e 204d af3e
000001c0: b027 0a3f 6e49 203e 7dd0 743e 8e7e 083f
000001d0: bac7 c03e 0f64 313f b30f 643e 75db 863d
000001e0: 722e 213f ccc8 5e3e d883 4e3e d55d a63e
000001f0: 1372 013f 7959 6c3f 630a 303e 2a37 b43e
0.3521164 0.6022482 0.30934396 0.46756235 0.3264489 0.15974602 0.5210377 0.13759825
0.5027528 0.12365006 0.31684893 1.2211871 0.50304693 0.43325254 0.41096425 0.091570824
0.11335428 0.20747349 0.25090554 0.7107651 0.15839623 0.48910227 0.26717663 1.2822646
0.46369207 0.3758094 0.58968544 0.28932175 1.1627042 0.28066164 0.609238 0.2836802
0.32097417 0.12748663 0.38387167 0.2701549 1.009408 0.13359766 0.2933954 0.62065876
0.44469765 0.14015855 0.3826668 1.2367584 0.09418029 0.48546088 0.20238723 0.28475028
0.43258914 0.12866738 0.35024706 1.3260262 1.0640489 0.12921809 0.39607257 0.2669373
0.42891428 0.55362433 0.24515368 0.095523745 0.31376797 0.49463555 0.57602686 0.3978841
0.06822093 0.37544194 0.80713856 0.8102024 0.5385187 0.32920128 0.35410818 0.8264007
0.2281321 0.464019 0.24616638 0.5149096 0.6899528 0.42242903 0.19676135 0.46209043
0.431281 0.46792668 0.08940147 0.17178245 0.15934125 0.15269443 0.20020434 0.185891
0.15737452 0.19258861 0.13641265 0.49007064 0.38355586 0.30173612 0.38293844 0.1477658
0.20433435 0.36829272 0.5221029 0.23974591 0.107833706 0.33517218 0.88683945 0.25300008
0.39226317 0.26212078 0.49505678 0.47461942 0.27531654 0.29736954 0.174557 0.3423853
0.5396681 0.15653011 0.23907657 0.5331811 0.3765238 0.692933 0.22271614 0.06584827
0.62961495 0.21756285 0.20167482 0.32493463 0.5056469 0.92324024 0.17191462 0.35198337

network.4.weight f4 [64, 128]
00000000: 1016 603d c3c2 083d d826 663d 1cd9 39bc
00000010: 9165 8c3c d020 363d d655 df3c c177 6d3d
00000020: 791c 17bd 9382 b0bc 5354 c83c 427d 06bd
00000030: 12d4 c2bd 6b82 c0bd f71d 7bbd 0de6 9dbd
00000040: e2b4 1fbd 32e7 6a3d 8dba f9bb e28b 273d
00000050: d187 823d 8f92 ba3d 2399 523d fe02 1fbd
00000060: fcea 0d3c 2189 07b9 68ae 8f3d 5527 c53c
00000070: 738e 6e3d 5c11 05bd 9085 553d ef32 363b
00000080: 06fc 99bd 75fa 123d 019a abbd 5452 84bc
00000090: f42d 693c bdd4 ddbc 88a5 bbbd a929 42bd
000000a0: 3760 7f3d d547 aa3c d1d9 cf3b c980 6fbd
000000b0: cc04 13bc 5bde e0bc 36f2 b03d 9686 6e3d
000000c0: db11 f3bb 09dc 84bc 7b54 cfbc 78bc a43b
000000d0: c21b 203d bce0 afbd 693d b5bc a686 a83d
000000e0: 83ea 373d fba2 293d 3c3c ec3d 89ef c63d
000000f0: 40c1 203d c317 df3c 5696 a13d b4e3 05bb
00000100: 9337 c0bc 25c3 b53c 39a6 6abd df5c d73b
00000110: c9e5 85bd bca0 b93c c2b0 2d3d 6ee8 80bd
00000120: 6b9f 52bd 7232 153d eca3 993d d0e3 593d
00000130: 879f aebd 15d7 0cbc 52fd 1fbd c85d e8bc
00000140: fbb5 5f3b bc40 83bd 5636 2f3a a2ba b7bd
00000150: 1bdd 28bd 9592 a43d 918c 293c 58f7 cf3d
00000160: 889b 2bbd db98 07bc fa16 7a3d 1bf5 733d
00000170: af4c 903c a802 9b3d 4b59 53bd 9d24 95bc
00000180: bd99 2bbd b08f 953d fe63 0b3c e722 6dbd
00000190: c0a1 073d fceb 8b3d 7db1 5439 d77c 40bc
000001a0: dc09 96b8 4db7 533c f3f4 e7bc 1e60 7d3c
000001b0: 5f2f c1bb ca44 653d 6629 cd3d 762e b03d
000001c0: a936 bdbc 483c 533d a86d 013d 8622 14bd
000001d0: 2f17 a4bd 9987 e5bb 144b 7a3d 1799 f9bd
000001e0: 2dc3 1d3d 8448 8b3c af07 61bd 7f44 2bbc
000001f0: 9be4 d63c f104 cb3c 625e 4dbd dc06 a4bd
00000200: fc3a 64bb 2acf 77bc 98e5 47bc 0835 263d
00000210: 5376 53bd 5986 88bd ba8f 5f3d 97e6 66bd
00000220: 2cff 83bd 3167 893d b232 79bd 7af7 893d
00000230: 8ad6 72bd 4126 b1bc 4c30 973d 0e82 353d
00000240: 592d 093e 9392 05bb 262c 3d3d 8f75 523d
00000250: 9ce4 713c 45b3 3e3d 4053 97bd 353f 853c
00000260: 937a 33bb 059f 6bbd d952 dfbd a697 d23c
00000270: c7ea 1a3d 06fc 42bd 3b6b 2bbc 0065 57bd
00000280: b47c b3bd e481 fa3d 819f 99bd fb11 8f3d
00000290: ee20 ae3b 785b 393d 56b3 133c 7d1b 183d
000002a0: 6321 6a3c 7f69 1fbd d2c9 9dbc 2c03 48bd
000002b0: b141 52bb c4da 9abc 6d4f 3b3d 53c9 163c
000002c0: b96b 5dbd f4dc 42bd 8998 b7bd 494e 8cbd
000002d0: fd03 debb eaa5 b13c efca 7cbd 0e7e 2b3d
000002e0: 7e19 793d a52d 14bc 94e4 8e3d 6e02 323c
000002f0: 3cac 8bbd efb1 973d 76f9 2ebd dc71 50bc
00000300: d83f a6bd cac8 653d b076 8abd 283a 6bbd
00000310: 8aef 8abd f1da 303d 5298 ad3c 6aaf e23c
00000320: 25e5 b63d b58d 0fbd bfe3 16bb 9871 233d
00000330: 21b8 3abd c68c 4c3a 0072 603d cce3 05bd
00000340: 1a96 81bd 6ab9 6dbd d5a6 d0bd 4b0b e1bc
00000350: f7a7 513d 339b 663d af99 bcbd ec50 1e3c
00000360: 49e0 81bc a899 2a3d ffe3 0d3d 514a 8c3d
00000370: 6d5c d2bc 5ccf 56bd 1291 06bc d8c2 993c
00000380: 89e9 863c 2267 d93d 9ea6 9a3c 8168 003d
00000390: 9ec7 0bbd 003a 4fbd 5cd4 8ebd 4064 b13d
000003a0: 038b 9fbd fd6e 93bd 2b9f 2fbd f05c 9abd
000003b0: 9810 a0bd 9af2 3fbd f565 dc3d fe3d c13d
000003c0: 89ce 1dbd bfcf a1bd e064 883d 43c6 1abc
000003d0: 739c 65bc bcf1 2c3c b948 b7bd c692 8f3b
000003e0: 07f2 c5b9 aaec a0bc fbaa 85bd d000 d0bd
000003f0: ff30 f43c 8125 9c3d d52f 3bbc cdc2 17bd
0.05470854 0.033388864 0.056189388 -0.011343267 0.017138274 0.044464886 0.02726261 0.057975534
-0.036892388 -0.021546638 0.024454271 -0.0328343 -0.095131055 -0.09399875 -0.061307874 -0.07709894
-0.038990863 0.05734939 -0.0076211155 0.040904887 0.06373561 0.09109985 0.051415574 -0.038821213
0.008661982 -0.00012925688 0.07015687 0.024066607 0.05824132 -0.03248726 0.05212933 0.0027801355
-0.07518773 0.035883386 -0.08378983 -0.016152538 0.0142321475 -0.02707898 -0.09162432 -0.04740301
0.062347617 0.020786205 0.0063431044 -0.05847243 -0.008973312 -0.027449777 0.08639948 0.05823382
-0.0074179 -0.016218202 -0.025308838 0.00502735 0.039088972 -0.085877866 -0.02212401 0.08228807
0.044901382 0.041415196 0.11534926 0.097136565 0.039246798 0.02723301 0.078900024 -0.002042991
-0.023464 0.022187779 -0.05728743 0.0065723504 -0.06537969 0.022659652 0.042404898 -0.062943324
-0.051421564 0.03642506 0.07501969 0.053195775 -0.08526521 -0.008596201 -0.039059944 -0.02836503
0.0034135568 -0.064088315 0.0006683817 -0.08971144 -0.041226488 0.08035771 0.010348455 0.10154599
-0.041896373 -0.00827619 0.06105707 0.059559923 0.01761469 0.07568866 -0.05159883 -0.018205935
-0.041894663 0.07302797 0.008507727 -0.057894614 0.03311324 0.0683212 0.00020284015 -0.011748514
-7.154394e-05 0.01292212 -0.028315043 0.015464811 -0.0058955397 0.055973805 0.10017662 0.08602612
-0.023097353 0.05157116 0.031598717 -0.036165737 -0.080122344 -0.00700469 0.061106756 -0.12187403
0.038516212 0.017002352 -0.05493897 -0.010453342 0.026232054 0.02478263 -0.05013884 -0.08009121
-0.0034825196 -0.015125075 -0.0122007355 0.04057792 -0.051626515 -0.0666625 0.054580428 -0.05637225
-0.064451545 0.06709135 -0.060839362 0.067366555 -0.05928663 -0.021624686 0.07382259 0.044313483
0.13396205 -0.0020381554 0.04618468 0.051381644 0.014763977 0.046557683 -0.073889256 0.016265491
-0.0027386292 -0.0575247 -0.10904474 0.025707077 0.037821557 -0.04760363 -0.010462577 -0.052586555
-0.087640196 0.12231806 -0.07501126 0.069858514 0.005313984 0.045253247 0.009014925 0.03713559
0.014290187 -0.03891897 -0.019261274 -0.04883115 -0.0032082612 -0.018903144 0.045730043 0.009203273
-0.05405781 -0.047574 -0.08964641 -0.06850869 -0.006775378 0.02168556 -0.06171697 0.041868262
0.060815327 -0.009044086 0.069771916 0.010864837 -0.068199605 0.07406985 -0.042718373 -0.012722459
-0.08117646 0.05609969 -0.06760919 -0.05742851 -0.0678397 0.04317755 0.021190796 0.027671535
0.089304246 -0.03504725 -0.002302393 0.039903253 -0.045585755 0.00078029593 0.05479622 -0.032687947
-0.06327458 -0.058038153 -0.10188071 -0.027471205 0.051185574 0.056300353 -0.09209 0.009662848
-0.015854018 0.041650444 0.034641262 0.06850112 -0.025678838 -0.052443847 -0.008213298 0.018769667
0.01646878 0.10615374 0.018878277 0.031349663 -0.034125917 -0.050592422 -0.06974098 0.08661699
-0.07790186 -0.07198904 -0.042876404 -0.07537258 -0.07815665 -0.046862222 0.10761634 0.09435652
-0.038527045 -0.079009525 0.066598654 -0.009446683 -0.014014351 0.010555681 -0.089494176 0.0043815104
-0.00037755092 -0.0196441 -0.065267526 -0.10156405 0.02980852 0.07624341 -0.011424978 -0.03705101

network.4.bias f4 [64]
00000000: 81e7 d735 8cb3 bcb7 6edf 8ab7 4893 3237
00000010: 356b a8b6 def2 3eb7 f6c9 34b8 99ff b7b7
00000020: 0dbd 5637 9374 4436 223a a137 3173 dab6
00000030: fe4c d137 1ffd de35 1767 3fb7 ac4a a136
00000040: 5b5b 5c37 469a 50b6 3b89 de35 5a4a deb7
00000050: 49e8 4a37 f642 d535 e3e3 79b6 568d 22b7
00000060: e066 0a38 563a b737 461b ceb6 a1b9 6036
00000070: 31df c6b7 2623 1237 63a6 0636 4479 87b7
00000080: 6f05 0f35 1ee0 3937 b819 7937 42ba e9b6
00000090: 52cd dd36 e75c eab7 03a9 bd36 a584 0cb7
000000a0: e5aa 1337 b3de 5637 03d6 6ab7 b5f8 38b8
000000b0: b155 0737 8a56 8bb6 e004 e736 16a7 55b7
000000c0: dbca a1b7 961a bd35 7745 0b37 aa5e be36
000000d0: 843f d1b7 a802 c8b6 8875 3937 a8e9 61b8
000000e0: 38a1 3537 a2c1 6638 6e49 3fb7 9cbc 1336
000000f0: 5a29 a3b7 eaa6 8536 5240 8ab7 c1c8 8533
1.6086125e-06 -2.2494954e-05 -1.6554925e-05 1.0643918e-05 -5.0192707e-06 -1.1381429e-05 -4.3103435e-05 -2.1934322e-05
1.2799411e-05 2.927413e-06 1.9219766e-05 -6.5103163e-06 2.4950594e-05 1.6613957e-06 -1.140849e-05 4.806867e-06
1.3134292e-05 -3.1084214e-06 1.6580228e-06 -2.6499085e-05 1.2094221e-05 1.5889225e-06 -3.723654e-06 -9.68886e-06
3.2997574e-05 2.1842465e-05 -6.1424535e-06 3.3486651e-06 -2.3707371e-05 8.710462e-06 2.0064406e-06 -1.6149723e-05
5.327956e-07 1.1079041e-05 1.4847545e-05 -6.9656244e-06 6.6102157e-06 -2.7938235e-05 5.6523145e-06 -8.375534e-06
8.801672e-06 1.2807245e-05 -1.3997315e-05 -4.4100645e-05 8.066579e-06 -4.1525973e-06 6.884904e-06 -1.2734692e-05
-1.9287158e-05 1.4089335e-06 8.301219e-06 5.6734616e-06 -2.4944318e-05 -5.9607737e-06 1.1054224e-05 -5.386179e-05
1.0825977e-05 5.5016608e-05 -1.1401584e-05 2.2014492e-06 -1.945037e-05 3.9831402e-06 -1.6480833e-05 6.229812e-08

network.5.weight f4 [64]
00000000: 4548 873f e553 843f 38b8 793f c6e5 7f3f
00000010: 4f66 813f 4b98 803f 20bf 803f 9073 7e3f
00000020: c608 7b3f 71e4 6d3f fffa 793f 03fd 823f
00000030: ad12 803f dfbf 7a3f 369b 763f 7333 743f
00000040: 9746 7e3f 45cc 773f 1d83 7b3f 92f3 793f
00000050: 9ec8 793f 2f52 823f 71d8 803f b6b4 7e3f
00000060: 733b 7b3f e02c 803f 98cc 813f 607f 7b3f
00000070: 91af 7a3f f54e 7c3f 444a 7f3f 5085 813f
00000080: da90 873f 7cf9 873f f11d 763f dafb 823f
00000090: 35ac 753f 8f12 6f3f dc81 733f 273c 823f
000000a0: 1c98 773f fa81 8b3f 38f0 733f 8dcc 833f
000000b0: e79c 8c3f f207 853f 6556 743f 8c66 803f
000000c0: 2eff 863f ef94 813f b10a 803f 224f 823f
000000d0: 3088 7b3f fcf1 803f 290d 853f d66d 743f
000000e0: e488 753f c874 7e3f 5867 863f 2d8e 833f
000000f0: 5133 873f 6d99 773f 71fd 813f f3e2 803f
1.056893 1.0338103 0.9754672 0.9995998 1.0109347 1.0046476 1.0058327 0.99395084
0.9806026 0.929267 0.97648615 1.0233463 1.0005699 0.9794902 0.96330583 0.95391005
0.9932646 0.96796066 0.9824694 0.97637284 0.9757174 1.018133 1.0066053 0.99494493
0.9813759 1.0013695 1.0140562 0.98241234 0.97924143 0.9855798 0.99722695 1.0118809
1.059108 1.0623012 0.96139437 1.0233109 0.9596589 0.93387693 0.95120025 1.0174607
0.96716475 1.0899041 0.9528842 1.0296799 1.0985383 1.039305 0.9544433 1.0031295
1.0546625 1.0123576 1.0003263 1.01804 0.9825468 1.0073848 1.0394641 0.95480096
0.95912004 0.99396944 1.0500288 1.0277764 1.0562536 0.96718484 1.0155469 1.006926

network.5.bias f4 [64]
00000000: 5036 713d a305 993c 351c 6ebb bfbe 323b
00000010: 29a4 843c d649 b9bb 123d 153d 4b6c 933b
00000020: 4367 2abb a1be 7dbc c8d3 57bb 0f08 7e3d
00000030: b669 f33c 8b90 afb9 81ee f8bb 54a3 3fbd
00000040: 0937 dc3c 218d c53b be07 4a3d 615f 29bc
00000050: 7d86 f4bb f2ee fb3c ab81 ee3c 5ae0 f03b
00000060: f225 d33c 3373 b43c 26aa c83b a6df e1bc
00000070: 9b10 79bc da71 093d 386e 47bb c0f7 d43c
00000080: 3228 dc3c cef8 d93c b25d 2fbd 126e 5b3c
00000090: 175c 6cbc 60d1 b1bc 5878 23bd f179 033d
000000a0: 547a 86bc f59c 813d 7a4c 0abd 0fde e23c
000000b0: b2e3 a63d 9436 203d 6ae6 f8bc ac15 a23c
000000c0: 0e56 b73b 5f30 4a3d 3d59 c33c b4c8 263d
000000d0: ca6e fb3c 37e6 313d d69f f33c 86e9 99bc
000000e0: 589a 39bd a165 afbc 982a b93c 3a6d 9f3d
000000f0: 7ae4 223d a90e d0bc 2f47 9d3d 7fd0 bf3c
0.058889687 0.018679446 -0.003633273 0.0027274338 0.016191559 -0.005654554 0.036435194 0.0044989935
-0.002600149 -0.015487344 -0.0032932628 0.062019404 0.029713493 -0.00033486294 -0.0075967913 -0.04678662
0.026881712 0.006028787 0.04932379 -0.0103376815 -0.0074623213 0.030753586 0.029114565 0.0073509635
0.02577493 0.022027588 0.006123799 -0.027572464 -0.015201713 0.033555843 -0.0030430686 0.025997043
0.026874635 0.026607897 -0.042813964 0.013392942 -0.014426253 -0.021706283 -0.03990969 0.032098714
-0.016415752 0.06328765 -0.03376434 0.027693776 0.08148898 0.03911455 -0.030383307 0.019785725
0.0055949753 0.049362537 0.023846263 0.04071875 0.030692477 0.04343244 0.029739302 -0.01878811
-0.04531321 -0.021410765 0.022603318 0.07784505 0.039768673 -0.025397616 0.07679593 0.023414848

network.5.running_mean f4 [64]
00000000: c81d 6a3e 228b 8bbe 87e7 3b3e b111 f53d
00000010: e113 37bf 9c60 3cbe 85b4 90be 8349 bbbe
00000020: 069e bb3e f443 64be efd7 eebe 5776 07bf
00000030: 51c9 6f3d 7842 3c3d 11bd 32bf dab5 333e
00000040: cd84 44be 79a2 0abf 58b7 36be 035c 61bf
00000050: 3c6a 19bf b15f e83d af9d 533e 4081 4dbf
00000060: 9805 c2be 5b77 02be c22d 5ebf c813 213e
00000070: ebcd 0e3e 21f8 4ebe d67c 1dbe df06 e5bd
00000080: 7f79 333e 12c7 843e 0ac6 94be 5e6d 74be
00000090: 3960 25bf 060d d3be 3921 c03e e6dc 42bf
000000a0: 5470 adbe 0231 e7bd 2111 2cbf 04b1 36bf
000000b0: 6796 c1bd ef6b 553e 0f0b 8fbf a808 15bf
000000c0: cfe4 6c3e e80c 493e 7621 95bd a319 adbe
000000d0: 7bf7 debe 55eb 23bd 0ced f0be f0b2 10bf
000000e0: 3e69 4f3d 432a aabd 70f2 a23d 4409 e2be
000000f0: b327 893e abe5 03bf cc33 39bf ccf3 ecbd
0.22862923 -0.27254587 0.1835004 0.11966265 -0.7151471 -0.18396229 -0.28262725 -0.36579522
0.36644 -0.22291547 -0.4664912 -0.5291495 0.0585416 0.045961827 -0.6981974 0.1754984
-0.19191284 -0.54154164 -0.17843378 -0.88031024 -0.59927726 0.11346377 0.2066562 -0.80275345
-0.37894893 -0.12740843 -0.8678857 0.15730202 0.13945739 -0.20211841 -0.15379652 -0.11182951
0.17526816 0.2593313 -0.29057342 -0.23869845 -0.6459995 -0.41220874 0.37525347 -0.76118314
-0.33874762 -0.112886444 -0.67213637 -0.71363854 -0.09452515 0.20841955 -1.117525 -0.58216333
0.23134159 0.1963383 -0.07281773 -0.33808622 -0.43548188 -0.040019352 -0.47055852 -0.56523037
0.050637476 -0.08308842 0.079563975 -0.44147694 0.267881 -0.5152232 -0.7234466 -0.11569938

network.5.running_var f4 [64]
00000000: 9567 283f a908 723f 3a7f 633f 9d20 2e3f
00000010: 25ae 643f fed4 1d3f c29c 883f f428 123f
00000020: edcd ec3e 30f1 933e ab6a 1e3f 7201 7a3f
00000030: 6703 873f 03e6 d23e 6f32 1f3f 5a53 e83e
00000040: 94d8 8e3f edd8 113f ed88 813f 2724 ba3e
00000050: f42e 583f cb20 533f 1b53 5a3f d44f 0a3f
00000060: adbd 443f a16a 393f 2437 6f3f a07c 133f
00000070: 745e cf3e 4a66 d83e 4521 3c3f 58ed 713f
00000080: 3083 5f3f cf1a 7c3f fa2f 483f abb1 113f
00000090: 0f22 2f3f 99ee ec3e aea7 e83e e6d6 153f
000000a0: b7c3 aa3e 854e c83f 4a9c cb3e 0e0f 5b3f
000000b0: cee0 5a3f c166 723f b9db 453f f823 2c3f
000000c0: e784 853f b313 823f ed92 5a3f 8f6e 643f
000000d0: f690 4a3f e5ec a83f 2fa5 d33e c869 cd3e
000000e0: cdb9 b33e dfbb 153f 3e03 7a3f be2f f93f
000000f0: c369 a53f f754 273f 73cc 763f d5f3 f13e
0.65783054 0.94544464 0.8886601 0.68018514 0.89328223 0.61653125 1.0672839 0.5709374
0.4625086 0.2889495 0.6188151 0.97658455 1.0547913 0.4119111 0.6218633 0.45376092
1.1159844 0.5697163 1.0119911 0.36355707 0.84446645 0.82471913 0.8528306 0.5402806
0.7685192 0.7242833 0.9344351 0.5761204 0.4050175 0.4226554 0.73488265 0.9450278
0.8730955 0.98478407 0.78198206 0.56911725 0.68411344 0.46275786 0.4544043 0.58531034
0.33352444 1.5648962 0.39767677 0.85569847 0.85499275 0.9468804 0.77288395 0.67242384
1.0431184 1.0162262 0.8538044 0.892312 0.7912744 1.3197294 0.41336963 0.40119767
0.35102692 0.58489794 0.976612 1.9467695 1.2922901 0.6536402 0.96405715 0.47256342

network.8.weight f4 [32, 64]
00000000: 49e7 d3bc eff5 c3bd 94b6 3cbd d9af fa3d
00000010: dc53 ccbd 5e67 453d 4ef1 ba3d 59bb c23d
00000020: ccf4 a4bb 90b0 abbc ab9f 883d 3020 ca3c
00000030: fb32 e6bd 2673 923b b9af 9f3d 52c6 bcbd
00000040: 5d74 c43c a1fd fcbc cd68 b7bd 7c2e 65bd
00000050: 857a edbd b874 3abd d7c0 ed3d 53e4 03bd
00000060: 5b91 0c3b f5a7 1c3d 6ee5 833d 14e2 ff3d
00000070: fcfd 8f3d bf2a 1f3d 247f 71bd 1ab2 a0bc
00000080: 2cac c53d ba4f d83d 8223 963d 2196 62bd
00000090: 802d be3d eb37 02be 7941 f3bd e150 00bd
000000a0: 36db 623d 9ef0 943d fc25 843c 29ae debc
000000b0: 329e 043e d372 2c3e 1cb9 56bd 30e3 033c
000000c0: 4db9 293d 6888 04be 60e5 7c3d 6d1e 1bba
000000d0: 2896 72bd b00e 0d3d 20ab 853c 9763 d73d
000000e0: 853c 4abd 791d a93d baba 173d 707f 80bd
000000f0: 43b8 213e ecd6 793d 00a2 8abd 8f93 fbbd
00000100: 4a44 08be f02f 5abe f071 6dbd f609 7d3d
00000110: b124 95bb 3e30 e03c e0c5 083c b279 bd3d
00000120: a21f efbc b55d f83b 179f 2c3c 7f8c 683d
00000130: d3b6 a63c 3d4a aebd cfe0 ad3d 8e92 33bb
00000140: 2845 ff3b 44f8 b6bd 84a8 fb3c 8813 983d
00000150: 9205 8cbc 0b9d 3fbb 0f93 183d 5f73 80bc
00000160: 12f5 953d 31c8 b8bd 498d c53d 6100 9ebd
00000170: 1d63 95bd bc22 9d3d 9928 9c3d 4ac7 c3ba
00000180: 858e ccbd 19c7 14be 0c2d 20bd 8d64 4c3d
00000190: 1b3a 233c ba2a 3bbd a3e5 913d 2581 f93c
000001a0: 54e4 753d e03c d6bc d784 6e3d 3113 29be
000001b0: 6280 e53c 6fd3 2a3d 61e8 84bd 4043 0d3d
000001c0: 04c5 e6bd 0fdd 7abd 4c2b 623d 3cdd 93bd
000001d0: 88d7 2f3d cc63 26be 9c1f cabd bbab aa3c
000001e0: 5797 103c f669 3b3d f31b 99bd 6ea5 bb3d
000001f0: 8b3b 40be 1deb c63c 95c7 4f3d 57f9 d0bb
00000200: 0c95 16bd ec03 45bd 2774 26bd a132 8c3c
00000210: c98e 8cbd e981 b0bd 439b 47bd 606c ae3d
00000220: aae7 6dbd f3db 693c 97e3 603d 4024 00be
00000230: 7dcb 5e3c 5d61 d33c f2da 693c 5b70 5cbc
00000240: 0055 05be f3f8 723d f26a 3ebc 4a24 b63d
00000250: 9f58 c4bd 85ac 8f3d feb5 edbd 1366 acbd
00000260: 5f7b 51bd bb97 383d 2aea debd c63e f1bd
00000270: c622 23bd fba8 173e 50cc c2bc 7b89 453c
00000280: b541 913d d0dc aebd 568b 8a3d bd43 96bd
00000290: 0c78 8dbd 7c6c ad3d ca6c cbbd 96b4 ccbd
000002a0: f242 663d c143 c2bd e55d 803d 7bdd b9bc
000002b0: b024 f8bd a5c0 b33c 9b85 1abe 8c09 0cbe
000002c0: a617 d7bd 3086 0f3d 62b9 b4bc 6541 1a3d
000002d0: 7543 c23c 2c54 8e3d 2cf5 07be b698 5dbd
000002e0: 58e6 8abc 0219 693d 2ac4 543d aae3 28be
000002f0: d151 02bd 38dd fbbd ff85 cdbd da95 833d
00000300: 09d7 3a3d d0b3 9a3c 50ee 5fbd 1c63 63bd
00000310: 59f9 07bd f882 89bd 2477 32bd 1dff e3bd
00000320: 0b45 1abe 208b c53b 9f62 7abb e81b 683d
00000330: 4fd9 bd3d e6db cebc bcdc 973d fb98 613d
00000340: 35da cbbd 68f5 35bd 0187 00bd 2c9d 97bc
00000350: 7881 dd3c 9cf2 dfbd 02ba 553c b53e be3c
00000360: 93cf 02be eb26 593c db8f d7bc 0949 073d
00000370: a069 cc3d 7877 9eba 45fc c23d 1bbc 84bc
00000380: 6eaa 18bd da6e ca3d a3af 03bd f79f 173d
00000390: a495 b6bd a0ab 07bc 1da2 36bd 0dba ad3c
000003a0: 9b52 ab3d a482 9a3d ed7c 9cbd 8ce5 23bc
000003b0: f15b 9abd 72f4 d8bd c8db 313d ae3a c43d
000003c0: 191f 87bc c921 dfbc e5c0 9dbd 8906 1c3d
000003d0: ef0e e73d c038 e93d 1093 963d 9d7b 9ebd
000003e0: fb85 783d d47d a53c ba6e d2bc 888d c2bc
000003f0: 9612 99bd fd8d 083d 196c a2bd e79a 323d
-0.025867121 -0.095683925 -0.046072558 0.122405715 -0.099769324 0.04819428 0.091280565 0.0950839
-0.005034065 -0.020958215 0.06671079 0.024673551 -0.112401925 0.004469293 0.07797188 -0.09217514
0.023981268 -0.030882658 -0.08955536 -0.055952534 -0.11595634 -0.045521468 0.11609047 -0.03220017
0.0021448943 0.038246114 0.064402446 0.12494293 0.070308656 0.038859125 -0.05895914 -0.019616175
0.0965198 0.10562082 0.07330991 -0.055318955 0.09286022 -0.12716644 -0.11877722 -0.031327132
0.055384837 0.072724566 0.016131394 -0.027182655 0.12950972 0.16840677 -0.052422628 0.008049771
0.041436482 -0.1294266 0.061742187 -0.00059173146 -0.05922523 0.034437835 0.01631695 0.10517042
-0.049374122 0.082575746 0.03704331 -0.06274307 0.15792947 0.06099598 -0.0676918 -0.12284004
-0.133073 -0.21307349 -0.057969987 0.061777078 -0.004551493 0.027366754 0.008347958 0.09251727
-0.029189888 0.00757953 0.010535977 0.056774613 0.02035085 -0.085102536 0.084901445 -0.0027400586
0.0077902265 -0.08934072 0.030720003 0.074256 -0.0170925 -0.0029237892 0.03724962 -0.015680013
0.07322134 -0.090225585 0.09646089 -0.07714916 -0.07294295 0.07672641 0.07624931 -0.0014936712
-0.09988121 -0.14529075 -0.03910546 0.04990058 0.009962584 -0.045695044 0.07123878 0.030457089
0.060032204 -0.026152074 0.058232155 -0.16511227 0.02801532 0.041705545 -0.06489635 0.034487963
-0.112680465 -0.061245974 0.055217072 -0.072199315 0.042930156 -0.16249007 -0.0986931 0.02083384
0.008825145 0.04575535 -0.07476034 0.091624126 -0.18772714 0.024282033 0.050727446 -0.00637738
-0.036763236 -0.048099443 -0.040638115 0.017113985 -0.068631716 -0.086185284 -0.048732053 0.08516765
-0.05808226 0.014273631 0.054904547 -0.12513828 0.01359832 0.025803262 0.014273392 -0.013454522
-0.13020706 0.059319448 -0.011622177 0.0889364 -0.09587216 0.07015327 -0.11606978 -0.084179066
-0.051143046 0.045066576 -0.10884507 -0.11779551 -0.039828084 0.14810555 -0.023779064 0.012056704
0.07092611 -0.085382104 0.067648575 -0.07337139 -0.06907663 0.084679574 -0.09932859 -0.099953815
0.056216188 -0.09485579 0.06267909 -0.022688618 -0.121163726 0.021942446 -0.15090029 -0.13675517
-0.105025575 0.03504008 -0.022061054 0.03766002 0.023713807 0.06949648 -0.1327712 -0.054100715
-0.01695554 0.056908615 0.05194489 -0.16493097 -0.031816307 -0.122980535 -0.10035323 0.06425066
0.04561523 0.01888457 -0.054670632 -0.05551444 -0.03319678 -0.067144334 -0.043570653 -0.11132643
-0.150654 0.006028548 -0.0038205755 0.05666724 0.09269964 -0.02525134 0.074151486 0.055077534
-0.09953729 -0.04442349 -0.03137875 -0.018507563 0.027039275 -0.10934946 0.013044836 0.02322326
-0.12774496 0.013253908 -0.026313713 0.033028636 0.09981084 -0.0012090048 0.09520773 -0.016202977
-0.03727191 0.098844245 -0.032149922 0.03701779 -0.089152604 -0.008280665 -0.044588197 0.02120688
0.08365365 0.07544449 -0.07641015 -0.010003459 -0.07537068 -0.10593499 0.04342249 0.09581505
-0.01649432 -0.02723779 -0.07702807 0.03809217 0.11282145 0.11387777 0.07352269 -0.07738421
0.06067465 0.020201601 -0.025687564 -0.023749128 -0.07474248 0.033338536 -0.07930774 0.043604758

network.8.bias f4 [32]
00000000: bff3 c4b6 36f8 1937 bcf5 03b9 fb6b b038
00000010: fb1d 8138 5baf 8834 5b73 4937 7d1f 1c36
00000020: a716 9635 82c3 5638 e037 b4b8 d115 10b7
00000030: 6c17 1736 ed92 b839 3730 efb8 cc7b 85b7
00000040: 760d 5a38 9179 7bb7 be97 d837 a494 7b39
00000050: caae 2bb9 2ce4 97b8 0d47 d938 1a55 1438
00000060: 0d88 86b6 33e0 0438 fb01 9b39 74af 7439
00000070: b899 a138 7e51 40b7 988b a0b7 8c35 dfb6
-5.869631e-06 9.177302e-06 -0.00012584677 8.412447e-05 6.156784e-05 2.5459562e-07 1.2007392e-05 2.326414e-06
1.1182464e-06 5.1203657e-05 -8.5934764e-05 -8.588148e-06 2.2514387e-06 0.00035204683 -0.00011405389 -1.5912483e-05
5.1987787e-05 -1.498907e-05 2.5819867e-05 0.00023992598 -0.00016372945 -7.2427414e-05 0.000103606006 3.5365207e-05
-4.0093496e-06 3.1680054e-05 0.0002956538 0.00023335015 7.7057106e-05 -1.1463066e-05 -1.913849e-05 -6.6521516e-06

network.9.weight f4 [32]
00000000: ce49 7f3f 2d89 a63f 82b5 ab3f 1dd3 623f
00000010: b9e4 a43f 4279 a93f fcf6 ab3f b9de 753f
00000020: 7b24 623f 1d28 a93f 852d 6f3f 34d3 843f
00000030: e4f9 853f 9730 a63f efd2 a73f cfab a63f
00000040: c747 a63f bec1 a53f d4f3 a93f 5143 9e3f
00000050: 9237 ab3f 81bd a53f b309 a53f f54c a53f
00000060: dba4 ae3f fa69 a53f 46dd a43f eb46 a23f
00000070: 3b81 ab3f 254b 973f a272 ae3f 844a a43f
0.9972199 1.3010613 1.3414767 0.88603383 1.2882301 1.324013 1.3434749 0.9604297
0.88336915 1.3215367 0.9342883 1.0376954 1.0466886 1.2983578 1.3111247 1.3021182
1.2990655 1.294975 1.3277535 1.2364293 1.3376334 1.2948457 1.2893585 1.291411
1.364406 1.2922966 1.2880027 1.2677892 1.3398813 1.1819807 1.3628733 1.283524

network.9.bias f4 [32]
00000000: 6fbc e6bb 86dc a13e a8ce bb3e 4401 e0bd
00000010: d67a 943e e02c b03e 1cca b43e 5e2a 1abd
00000020: 63f4 e9bd 33aa a93e 4b1a 68bd d84e 033d
00000030: 1261 233d fb0b 9d3e 1408 ad3e ce67 9e3e
00000040: d958 a93e 604b a13e 9c9f ad3e e367 6d3e
00000050: c64a bf3e 7f17 a13e 84f8 923e d656 943e
00000060: 668a c63e 96d8 973e 8e1d 993e de44 883e
00000070: 1a48 bb3e 8fa0 323e 938a c23e a5c6 9d3e
-0.007041506 0.3161356 0.36681104 -0.109377414 0.28999966 0.34409237 0.35310447 -0.03763806
-0.11423566 0.33137664 -0.0566657 0.032057613 0.039887495 0.30673203 0.33795226 0.30938572
0.33075598 0.3150282 0.33910835 0.23184161 0.37361735 0.3146324 0.28705227 0.289725
0.38777465 0.2965743 0.2990536 0.26615041 0.36578447 0.1744406 0.3799635 0.30815616

network.9.running_mean f4 [32]
00000000: a5a8 803e a60d afbe 9650 3fbf d569 0dbe
00000010: 16aa 0dbf 6a8f 6cbf ae39 7abf 5666 363e
00000020: ef23 ee3d ca3b 21bf b030 2d3d 3934 453e
00000030: 77ec ffbe da7d 14bf 4450 58bf c673 febe
00000040: 1f7c bcbe aa24 0bbf aa08 24be 62fb 21be
00000050: 8b7b 2cbf 4c7c 19bf 1ea8 dfbe 07d9 0cbe
00000060: c561 47bf ce77 03bf 366c 13bf c14b 4bbe
00000070: f2e7 77bf cf45 f0be 342e 7dbf 999a d9be
0.25128666 -0.341901 -0.7473234 -0.13809903 -0.55337656 -0.9240633 -0.9774426 0.17812476
0.116279475 -0.62981856 0.04228276 0.19258203 -0.49985096 -0.58004534 -0.84497476 -0.49697703
-0.36813447 -0.5435282 -0.1601893 -0.15818551 -0.6737601 -0.59955287 -0.4368295 -0.13754664
-0.7788356 -0.5135468 -0.5758699 -0.19853117 -0.96838295 -0.4692826 -0.98898625 -0.4250076

network.9.running_var f4 [32]
00000000: 8663 ea3e 8be4 d03f 2510 603e fa3b fc3d
00000010: 0f1c 943f bdac 423f 1a23 0940 e38e 0f3f
00000020: d961 093e a582 dc3f 3b23 533e 56af a13f
00000030: 010b 383f 8b55 043f 9fc0 0b3f 9e4a 843f
00000040: 1230 2b3f f84a 6c3f eb6c 8a3f 909e da3f
00000050: 2221 8d3e 1fae 2b3f 033b c03f 67c2 0d40
00000060: 2859 f63e 924f e13f bb83 8d3f 9a6a 7a3f
00000070: 5b5d a03e 8399 933f f6f9 893f b14c 733f
0.45779055 1.6319746 0.21881159 0.12316127 1.1571063 0.7604483 2.1427674 0.560774
0.13416232 1.722737 0.20618908 1.2631633 0.7189179 0.5169303 0.5459079 1.0335271
0.66870224 0.92301893 1.0814489 1.707964 0.2756434 0.6706256 1.5018009 2.2149904
0.48114896 1.7602408 1.1055826 0.9781891 0.31321225 1.1531223 1.0779407 0.95038897

network.11.weight f4 [1, 32]
00000000: 1c9a e73d a2ae b23e aeba 983e 80d4 3d3d
00000010: f2a9 d03e 39bb a33e ec08 863e 0dd7 c53d
00000020: f039 283d 9d9b 9f3e f9e6 9c3d ecbf 073e
00000030: 9469 0d3e 9bd3 e63e b374 b43e 6552 7d3e
00000040: 7b50 b83e 69c1 cc3e 8929 ac3e a68b 603e
00000050: 5bc9 923e 5c73 d43e 8154 763e 99cc ca3e
00000060: b50d 8e3e a501 cd3e a6cb d63e 67b8 6d3e
00000070: ccbd 863e e98e 463e ac83 8a3e 002a de3e
0.11308691 0.3489886 0.29829925 0.046345234 0.40754658 0.31978777 0.26178682 0.09660158
0.04107088 0.3117341 0.07661242 0.13256806 0.13809806 0.45083317 0.35245284 0.24738462
0.35998902 0.3999131 0.3362544 0.21928272 0.28669247 0.41494262 0.24055673 0.3960922
0.27744833 0.40040317 0.41952246 0.23214875 0.2631668 0.19390453 0.27053583 0.43391418
