XGBoost/best_model_densenet100_k12.pth (torch, 121426 bytes, 47 tensors)

model_embedding.weight f4 [32, 12]
00000000: 3919 0e3e 74aa 613e afef ef25 86ba 8a3e
00000010: cfa5 923e 9db4 f7bd c068 4cbe e681 68bd
00000020: 0f6e 363e f57b 443e 4f70 8ebd 1dc2 2e3d
00000030: 2e5c 2a3d 07b6 5f3e 3180 db2f ca69 e23d
00000040: b673 54be 5213 fbbd ddc4 333e d3c3 0e3c
00000050: bd62 143e 268c d8bc f9b6 663e 26fc 92be
00000060: 3319 dbbd 5173 813c 0092 9539 d46c a8be
00000070: 40af 10bd 5d0d 593e 600e a73d 9054 983e
00000080: 531e 003e fe4f 073d 6115 4fbe c8ec b43e
00000090: 8dd3 70be b211 5dbd 9936 a933 8d89 d4bd
000000a0: f8f5 ab3d 7899 903d 133e e43d 35f1 bbbd
000000b0: bd12 7bbe c347 8b3d c936 ef3d cd56 923e
000000c0: d5ee 783e 72b1 903e 5c0f adbc 9e92 9b3e
000000d0: 0090 b6bd 2e7e ffbd a42c da3d 9fbc 5cbd
000000e0: 2bcb 2ebe b83b 493e cc62 36be a7a1 de3d
000000f0: e5e4 453e 5cc2 a2bd f5a2 aa3b 59e9 3f3e
00000100: ce95 57be dd4c 983d 8a4c 653e 40db 38be
00000110: 4eaf 44be 1a48 623e 2747 1cbe b69f 6e3d
00000120: aa7d 06be 7970 7b3e e960 cf37 5c98 96bd
00000130: 9012 5ebe 2b74 723e aeba 0a3e 1c95 d1bd
00000140: 11db 81be f3a4 c73d c455 dabc 0e23 1d3d
00000150: e16c 1f3e 5196 21bd 8344 193b 9715 72be
00000160: fc58 a6be aea6 6bbe 7caf 213c 4dcd 65be
00000170: 1de0 dd3d dcd4 7f3e 4c18 6cbd ba49 d13d
00000180: 10d9 a5bd 705e 723c cf22 f73b 7ddd c7be
00000190: a75d 3f3e ff11 e83d 6599 6d3e 64aa e73d
000001a0: add0 1ebe f69b dbbd e403 46be 471f 7f3e
000001b0: 3c9a d0bd e235 ae3d 73eb 90bb f648 b33d
000001c0: cf28 903e 63e3 36be 44c6 a1ba a821 9c3e
000001d0: cedd fabc db64 3ebe 2ec0 7cbe b21b afbe
000001e0: 2485 0f3e 14e5 a9bd 14b0 3e3c ed81 a03e
000001f0: aa6c 21bc a4dd 1b3e 7be2 6abe 1d6b 89bc
00000200: 3cd8 af3d 5ee1 673e eec4 703e 2fa0 b63d
00000210: 0bd5 77be 920b 273d b916 8b2c ba6c a13e
00000220: 2c68 0cbe 06f4 8ebe 71c5 503e 4d5e b83c
00000230: 8b50 50be 8c24 f63d 2b95 84bd 2254 5e3e
00000240: 1f42 4dbe d07c cf3d 0fec cd26 2708 61bc
00000250: f7b4 0fbe 1ba7 843e a697 debd 9a84 233e
00000260: 81c1 793e fba6 5dbe 869c 35be f03a 033e
00000270: 1a9e d53c 790a 19be 62d8 8baf 0da7 403e
00000280: 6a54 903e d0f3 5a3c 69b5 0b3e dcf6 153e
00000290: 8adc 07be 2922 6bbc c836 36be ad69 92be
000002a0: 6115 6f3c e489 833c 71f4 cd2b 77be f23d
000002b0: f9e1 3b3e 7ab7 11bd a45b 62be 8f96 13bd
000002c0: 0e7d 9e3d 368c 483e bbd7 8dbe 2338 1abe
000002d0: a1c7 e4bd c568 113e fd2a 523b 1345 6cbe
000002e0: 43f9 423d c144 a2bc e66d 853e 6970 7fbe
000002f0: b47b 4e3d 800b 04be 6ceb b6bd 7077 37be
00000300: 30bf f53d 2567 bebc f74d a43a 352b cdbd
00000310: dce2 823e 6710 923e 53dc 1b3e 79cd 3d3e
00000320: 829c c4bd 297d a93e cc05 87bb 9bcf 663c
00000330: 5ba8 443e cb65 4fbd b00b 0732 19b8 703d
00000340: c8dc 22bc dbdc c63d ccef b0bd a3ea 613d
00000350: 1844 e9bc 9f42 65be 9c6a 5b3e 4a82 a5be
00000360: 00fc 1e3e cfbc 2ebe 918d 40bb c4a8 68bd
00000370: 6cf3 153d 748c 743e 8625 783e 8606 ce3a
00000380: ed2f 223e b661 9dbe dda4 6a3e 23b0 843e
00000390: a7b7 db3c ad24 6cbe c0a2 e626 5a46 923e
000003a0: ed3c 423e 03ff 7c3e d558 d8bc a530 4bbe
000003b0: da08 963d be7a 2cbc 21ea 683e 82f8 39be
000003c0: 95cb 57bc 12b3 fc3d f66e fab9 fbaa aabe
000003d0: 76ee 9e3e 571f e0ba 4f09 53bd 9c63 9fbd
000003e0: 732a 0b3e e69a 8bbe e2e1 72bd df81 febd
000003f0: 55d1 243e 55f8 9a3d 0049 8eb1 0df4 f63c
0.13876809 0.22037679 4.1622307e-16 0.2709543 0.28642127 -0.12094996 -0.19961834 -0.056764506
0.17815422 0.19187911 -0.06955015 0.04266559 0.041591816 0.21846782 3.9926953e-10 0.11055334
-0.20747265 -0.122595444 0.17555566 0.00871368 0.1449079 -0.026434015 0.22530736 -0.28708
-0.10698166 0.015802057 0.00028528273 -0.3289553 -0.03532338 0.21196504 0.08157039 0.29752016
0.12511568 0.03303527 -0.20222999 0.353369 -0.235182 -0.053971954 7.879607e-08 -0.10377798
0.08396524 0.07060522 0.11144652 -0.09176866 -0.24518867 0.06800797 0.11680371 0.2858185
0.24309857 0.2826038 -0.021125488 0.30385298 -0.089141846 -0.12475239 0.10653046 -0.05389082
-0.1706969 0.19651687 -0.17811126 0.108706765 0.19325598 -0.07947227 0.0052074143 0.18741359
-0.2105324 0.074365355 0.22392479 -0.18052387 -0.19207498 0.22097817 -0.15261517 0.05825778
-0.13133875 0.24554624 2.472145e-05 -0.07353279 -0.21686769 0.23677127 0.13547775 -0.102335185
-0.25362447 0.097482584 -0.026652224 0.03836351 0.15568878 -0.039449994 0.0023386783 -0.23641048
-0.32489765 -0.23012802 0.009868499 -0.22441597 0.10833762 0.24983543 -0.05764036 0.1021914
-0.08098042 0.0147930235 0.0075419913 -0.3903617 0.1868807 0.113315575 0.23203047 0.11311796
-0.15509291 -0.107231066 -0.19337422 0.24914275 -0.10185668 0.08506371 -0.004422599 0.087541506
0.28156134 -0.17860179 -0.0012342413 0.30494428 -0.030623343 -0.18593161 -0.24682686 -0.34200817
0.14015633 -0.08295646 0.01163866 0.31349126 -0.009852568 0.15221268 -0.22937958 -0.016774708
0.08586165 0.22644565 0.23512623 0.08917271 -0.24202363 0.04078252 3.9531403e-12 0.31528264
-0.13711613 -0.2792055 0.20387818 0.022505904 -0.20343225 0.120186895 -0.06473764 0.21711782
-0.20044754 0.10131228 1.4288716e-15 -0.013734854 -0.14033876 0.2590874 -0.108687684 0.15968552
0.24390222 -0.21645729 -0.1773549 0.12815452 0.026076365 -0.14945401 -2.5437702e-10 0.18813725
0.28189403 0.0133637935 0.13643421 0.1464495 -0.13267723 -0.014351406 -0.17794335 -0.2859625
0.0145924995 0.016056962 1.4633972e-12 0.118527345 0.1834792 -0.035575368 -0.2210527 -0.036032256
0.07738696 0.19584736 -0.27703652 -0.15060477 -0.11170889 0.14200123 0.003206908 -0.23073225
0.047600996 -0.019808175 0.26060408 -0.24945225 0.05041094 -0.12895012 -0.08931622 -0.17916656
0.11999357 -0.023242543 0.0012535442 -0.10018007 0.25563705 0.2852814 0.15220766 0.18535413
-0.09600164 0.33103302 -0.004120564 0.014087583 0.19204848 -0.050634187 7.860692e-09 0.05876932
-0.009940334 0.097100936 -0.086394876 0.055155408 -0.028474852 -0.22388695 0.21427387 -0.32325965
0.15525818 -0.17064212 -0.0029381255 -0.056801572 0.0366091 0.23881704 0.24233064 0.0015718497
0.15838595 -0.3073861 0.22914453 0.25915632 0.02682097 -0.23060866 1.6003569e-15 0.285693
0.18968554 0.24706654 -0.026409546 -0.19842775 0.07325907 -0.010527311 0.22745563 -0.18161204
-0.013171096 0.123388425 -0.00047766388 -0.33333573 0.31041306 -0.0017099184 -0.05152255 -0.07782671
0.13590412 -0.27266616 -0.05929745 -0.12427115 0.16095479 0.07566897 -4.141043e-09 0.03014567

model_embedding.bias f4 [32]
00000000: c7c2 c236 8381 26b7 28e2 3c3c bc0d db36
00000010: fb51 b2bb c44d f636 976d e8b5 c4d6 2db5
00000020: c12d a83c 7c2a fcbb 7725 fa36 56e7 38b7
00000030: abc1 94ba bd12 71b9 f858 95b6 f73d acbb
00000040: 60a1 75b4 ad1e 7a3c ac56 7eb7 187c a63a
00000050: 04d4 743a e312 933c a010 8c36 b536 21b6
00000060: b3df 75bb a32f e7b6 523f 8ebb de23 60bb
00000070: 1a5c cfb5 a72a 04bc 0733 3cb7 1739 4837
5.8043256e-06 -9.924525e-06 0.011528529 6.5283075e-06 -0.0054419017 7.3404244e-06 -1.7317242e-06 -6.476005e-07
0.02052963 -0.007695494 7.454942e-06 -1.1021117e-05 -0.0011349221 -0.00022990532 -4.4509034e-06 -0.00525641
-2.2876111e-07 0.015266103 -1.515976e-05 0.0012701778 0.0009339454 0.017953342 4.1742605e-06 -2.4022713e-06
-0.0037517368 -6.889882e-06 -0.0043410445 -0.0034201066 -1.5449507e-06 -0.00806681 -1.1217554e-05 1.1934221e-05

dataset_embedding.weight f4 [16, 3]
00000000: 4f20 023e 00a6 583e 463f a43d 6bdb 31bf
00000010: f7ee 50be c925 88be 9c76 e6be 2d13 113f
00000020: 8ba9 f73e 8fe8 ae3e 4266 1cbf a05b 02bf
00000030: f0c6 093f cab2 03bd d289 87be ce95 18be
00000040: 21fc 0dbf d322 c0be 3f7e 18bf 3b3f 78be
00000050: d706 ed3e e3ff 2ebe ccb9 003f 0053 583d
00000060: afd3 c0be 6cd5 2bbe 73ac fb3e c6cb 12bf
00000070: 7a7a f4be df98 12bd 7f4f e73e 54be e0be
00000080: 712a cf3e f9e1 53be b229 06bf 55d2 083e
00000090: fbf1 003f ad2b 9bbd a99b e9be 89de 2abf
000000a0: 7492 fb3d 091e 053f 0511 1e3f ebfd a2bd
000000b0: 993c f2be 6192 c43d 03fd 253f 9970 2abd
0.12707637 0.21157074 0.08019881 -0.6947543 -0.20403658 -0.26591328 -0.45012367 0.56669885
0.4837154 0.34161803 -0.61093533 -0.5092106 0.5381918 -0.03215293 -0.26472336 -0.14900896
-0.55462843 -0.3752657 -0.59567636 -0.2424287 0.4629428 -0.170898 0.50283504 0.05281353
-0.37661502 -0.16780633 0.49155006 -0.57342184 -0.47749692 -0.03579032 0.45177838 -0.4389521
0.40462068 -0.2069167 -0.5240737 0.13361485 0.5036923 -0.0757669 -0.45626572 -0.6674581
0.12283793 0.51998955 0.6174472 -0.07958587 -0.47311857 0.09598232 0.6483919 -0.041611288

dataset_embedding.bias f4 [16]
00000000: 7c1d 7d3c bce4 f73d 54f9 5cbd 645a b936
00000010: 52d6 8fbd 5e36 46be bc9c 5b3a 8e30 69b8
00000020: f8d7 3cbe 1cb8 c43d b511 deb6 4835 a23c
00000030: 1b49 063d aac9 443e 0b74 5bba 7831 2237
0.015448924 0.121041745 -0.053948715 5.5239525e-06 -0.070233 -0.19356677 0.0008377542 -5.559675e-05
-0.1844176 0.096054286 -6.618177e-06 0.019800797 0.032784563 0.19217554 -0.0008371479 9.66747e-06

tensor_network.0.weight f4 [16, 1]
00000000: decd f23e 7a9b 093f cb79 39bc 88f6 b5be
00000010: 5fe4 67bd a760 253e a512 f4be e549 153f
00000020: c618 c13e b7f0 963b 0b9a 8e3c a63a 00bf
00000030: 1b42 143f eadc e33e bdc5 14be 8771 1a3e
0.4742269 0.53752863 -0.011320542 -0.3553965 -0.056614276 0.16150151 -0.47670475 0.5831588
0.37714213 0.004606332 0.017407438 -0.5008949 0.5791337 0.44504482 -0.14528556 0.1508237

tensor_network.0.bias f4 [16]
00000000: 6804 91bc b07e 7bbe 896d 72bc 90d6 173e
00000010: b5c5 3f3f 0339 12bd 27ab 7a3e 77b2 a8bd
00000020: 6846 aabe f834 4b3f aa4d 78bf 6fc4 623f
00000030: 80fe e63c 00a8 acbe 9206 4e3f 76d2 9b3d
-0.017702296 -0.24560046 -0.014796623 0.14827943 0.7491105 -0.0356989 0.24479352 -0.082371645
-0.3325684 0.793777 -0.96993506 0.88580984 0.028197527 -0.33721924 0.80478776 0.076085016

tensor_network.2.weight f4 [16]
00000000: 1ef2 7e3f f8e4 7d3f 487a 7e3f 12b1 793f
00000010: 9bf7 863f 4f06 7d3f 7a45 773f 47c0 7a3f
00000020: 89a2 7a3f e28f 7b3f 09ad 7e3f 252d 763f
00000030: dc35 6c3f 6be2 733f de5e 843f fd52 7b3f
0.9958819 0.99177504 0.99405336 0.9753581 1.0544313 0.9883775 0.9659039 0.9794964
0.9790426 0.9826642 0.9948278 0.96162635 0.9226968 0.9526736 1.0341451 0.98173505

tensor_network.2.bias f4 [16]
00000000: 14b1 63b4 a9d7 7637 aa06 11b7 ab8a 1eb7
00000010: ae81 be36 c3be 0537 a382 2c37 2c76 5435
00000020: 0a2e ca36 059d 6cb7 c739 ce36 c0b9 a336
00000030: dbff b0b7 af13 0938 841b 5036 4892 1bb7
-2.1205443e-07 1.4712955e-05 -8.644225e-06 -9.44982e-06 5.677538e-06 7.971833e-06 1.0282415e-05 7.9148117e-07
6.025429e-06 -1.4103255e-05 6.1460046e-06 4.8794027e-06 -2.1099977e-05 3.2681677e-05 3.1010431e-06 -9.272779e-06

tensor_network.2.running_mean f4 [16]
00000000: 7846 5543 3255 7143 5efd ce23 268e 8a3d
00000010: e3c5 e43e ebf1 9042 708b e43d 6a12 8343
00000020: ff2a 2943 9817 3740 32be ed40 3f29 d03e
00000030: 5435 8243 5cc4 4743 6621 d53e 8735 8842
213.27527 241.3328 2.244187e-17 0.06765394 0.44682226 72.472496 0.11159408 262.14386
169.16795 2.860815 7.429467 0.40656468 260.41663 199.76703 0.41627043 68.104546

tensor_network.2.running_var f4 [16]
00000000: 4244 c648 9118 fe48 efbd 2426 f25e b83b
00000010: a5a0 ea3d 5f39 3747 5bd3 7a3c 01cd 1549
00000020: f6ef 7948 a38c 1842 c68a 0244 b81e 4a3e
00000030: 73c1 1349 eb37 ae48 ce48 173e ae5d 2147
406050.06 520388.53 5.715634e-16 0.0056265527 0.11456422 46905.37 0.01530918 613584.06
255935.84 38.13734 522.16833 0.19738281 605207.2 356799.34 0.14773867 41309.68

worker_network.0.weight f4 [16, 1]
00000000: 3227 163f 58d3 a63d b180 08bf 37bc 983c
00000010: 7f48 04bf 833c 993c 332e 5e3d 82da 07bf
00000020: dce8 893c 55cc f0be 7913 ef3e 1609 14bf
00000030: 4c8a da26 9f69 133f 2451 b9bb 603b 473f
0.5865356 0.08145779 -0.5332137 0.018644435 -0.5167312 0.018705612 0.054243278 -0.5306779
0.016834669 -0.47030893 0.46694544 -0.57826364 1.5164274e-15 0.5758304 -0.0056554247 0.77824974

worker_network.0.bias f4 [16]
00000000: b666 88be 5bd2 883c 4263 c43d 6291 8f3e
00000010: 9844 213e 48ea 2abc c37e bcbd 9439 43bb
00000020: 7a40 f03d 8668 b33e 56b4 0e3f fb50 013f
00000030: 7a49 5fbe f4d0 0e3f f0a6 edbd a87c edbe
-0.26640862 0.016701868 0.095892444 0.28040606 0.15748823 -0.010431834 -0.092038654 -0.0029788958
0.11731048 0.35040683 0.5574392 0.5051419 -0.21805373 0.5578759 -0.116041064 -0.46384168

worker_network.2.weight f4 [16]
00000000: 96a3 783f cf6c 7e3f e23f 793f 4b0c 7a3f
00000010: 5c53 7c3f db7f 7a3f be38 793f eba5 173f
00000020: c703 7f3f 7dae 7c3f 67d4 733f 118d 763f
00000030: eba5 173f f1ff 703f eba5 173f f4b9 733f
0.9712461 0.9938478 0.973631 0.9767501 0.98564696 0.9785134 0.97352207 0.59237546
0.9961514 0.9870375 0.95245975 0.96309 0.59237546 0.94140536 0.59237546 0.95205617

worker_network.2.bias f4 [16]
00000000: d8e1 a137 38f5 02b7 962d 94b6 a577 c2b6
00000010: 4259 2ab7 e2cc 76b6 96de 71b7 f6da 06aa
00000020: cc96 3337 25cd 2ab7 4430 4ab7 9d29 f9b7
00000030: 8929 82a9 a2ea 5037 b4e2 e829 1539 7336
1.9297862e-05 -7.805698e-06 -4.4160506e-06 -5.795579e-06 -1.0153572e-05 -3.6776114e-06 -1.4416544e-05 -1.1977558e-13
1.0704342e-05 -1.01805535e-05 -1.2051376e-05 -2.970249e-05 -5.780365e-14 1.2452396e-05 1.03421964e-13 3.6243048e-06

worker_network.2.running_mean f4 [16]
00000000: 1dd2 0c40 4a82 b03e 4343 333d 4493 b63e
00000010: fed5 923d c1b5 8d3d 31ac 2a3e 0000 0000
00000020: 3ac3 3d3e db9b 233e 797a 1b40 5dc1 6b3e
00000030: 0000 0000 d75f 3740 0000 0000 46f5 3640
2.2003243 0.34474403 0.043765318 0.3565923 0.07169722 0.069194324 0.16667248 0.0
0.18531504 0.15977423 2.4293501 0.23022981 0.0 2.8652246 0.0 2.8587203

worker_network.2.running_var f4 [16]
00000000: 18f5 0e41 a3ee 3d3e 884f 1a3b b719 203c
00000010: c912 cf3b 8d12 133c f8c5 843d 0424 1613
00000020: 832c 003c 838a 003d 024e c140 6c73 853d
00000030: 0424 1613 a3e1 1241 0424 1613 cadc 7641
8.934837 0.18548064 0.002354594 0.009771756 0.006319378 0.008976591 0.06483072 1.8950419e-27
0.007823112 0.031382095 6.0407724 0.065161556 1.8950419e-27 9.180087 1.8950419e-27 15.428904

batch_network.0.weight f4 [16, 1]
00000000: 7bb6 2ebc 4ef5 363d 6680 0b3f 02f2 c73e
00000010: 2c8f 08be e029 613e c25c c93e 7677 1b3f
00000020: b73b 3cbe bff5 0d3f d339 77be ce37 893d
00000030: 2689 d43d da78 223e df8c 033f a271 5bbc
-0.010663624 0.044667535 0.54492795 0.39051825 -0.13335866 0.2198863 0.3932858 0.6072916
-0.18382154 0.55453104 -0.24143152 0.06700097 0.103777215 0.15866414 0.5138683 -0.013393791

batch_network.0.bias f4 [16]
00000000: c1dc 233f 913e 913e 29ac 1fbf 0d3a 13bf
00000010: 2960 1f3f b60c 10bf 268f 9c36 18e4 1ebf
00000020: 78b7 863e ed38 29bf 2ef7 4abd 4538 31bf
00000030: 50c3 b33e fd75 0138 ddd3 1fbf cd6c 71bc
0.6400872 0.28368047 -0.6237207 -0.57510453 0.62256104 -0.56269395 4.665827e-06 -0.62066793
0.2631185 -0.66102487 -0.049552135 -0.69226485 0.3510995 3.0865882e-05 -0.6243265 -0.014735413

batch_network.2.weight f4 [16]
00000000: d202 8d3f 2b3b 773f 672c 7f3f dc3a 7b3f
00000010: 1e19 763f 2777 7d3f 04ac 753f 14ee 713f
00000020: 5f9d 7a3f 4d7e 793f eba5 173f cd03 6c3f
00000030: 980d 7b3f 1bcb 7a3f a71e 7c3f 6841 803f
1.1016486 0.9657466 0.9967713 0.9813669 0.96132076 0.9900994 0.959656 0.94503903
0.9789638 0.97458345 0.59237546 0.921933 0.9806762 0.97966164 0.9848427 1.001996

batch_network.2.bias f4 [16]
00000000: 057b c537 5ccd 1cb6 2c61 93b7 6119 1237
00000010: 3429 33b7 5d61 9636 2d78 fe36 972f c0b7
00000020: acf1 acb6 e77f a736 65f6 342a d349 88b7
00000030: 8175 4e37 6e01 77b7 3c2f 9ab5 4330 80b7
2.3541515e-05 -2.3365346e-06 -1.7569015e-05 8.708187e-06 -1.0678825e-05 4.481683e-06 7.58378e-06 -2.2910344e-05
-5.1541338e-06 4.9918776e-06 1.6072697e-13 -1.624684e-05 1.2305915e-05 -1.472268e-05 -1.1487641e-06 -1.5281263e-05

batch_network.2.running_mean f4 [16]
00000000: 599f d93e cc04 7541 9244 3643 9084 0243
00000010: 3fd8 ad3e de8e 9242 11f9 0343 d022 4b43
00000020: 3155 133e 6585 3943 0000 0000 cbb2 b041
00000030: 173d 0d42 007c 5542 6cb4 2b43 03bf a725
0.42504385 15.313671 182.26785 130.51782 0.33954045 73.27904 131.97292 203.13599
0.14387967 185.52107 0.0 22.087301 35.309658 53.371094 171.70477 2.9099317e-16

batch_network.2.running_var f4 [16]
00000000: 2878 9f3d 26f3 3545 bb96 d148 6e1b 5748
00000010: a6f4 c93d 5cf6 8747 162b 5b48 0a1f 0249
00000020: b40b 913c b92a d948 0424 1613 c555 c945
00000030: 891f 7646 fe67 0f47 6604 ba48 0ca8 9e28
0.0778659 2911.1968 429237.84 220269.72 0.09861116 69612.72 224428.34 532976.6
0.017705776 444757.78 1.8950419e-27 6442.721 15751.884 36711.992 380963.2 1.7614403e-14

ps_network.0.weight f4 [8, 1]
00000000: 9acc 293e ef32 62be 05ee 7b3e 4b95 a5be
00000010: b16b 4bbe e770 423e 28b9 93be 479b 1e3e
0.16581956 -0.22089742 0.24602516 -0.32340464 -0.198653 0.18988381 -0.288522 0.15488921

ps_network.0.bias f4 [8]
00000000: 74b2 0838 96c8 fd3e 914c a33e 1a6e b1be
00000010: 1e18 823e 11e2 323d 01e0 503e 7568 b13d
3.2591124e-05 0.49567097 0.31894353 -0.34654313 0.25409025 0.043672625 0.2039795 0.08662502

ps_network.2.weight f4 [8]
00000000: 7f61 773f b322 7d3f aa39 793f eba5 173f
00000010: 5153 793f 8f54 7d3f 5439 753f b174 793f
0.9663314 0.9888107 0.97353613 0.59237546 0.97392756 0.9895715 0.957906 0.9744368

ps_network.2.bias f4 [8]
00000000: a79d 32b7 117a c236 e4f7 27b6 47b5 1429
00000010: 264d 5136 3a12 6c37 77f6 5037 01ec b936
-1.0646333e-05 5.795861e-06 -2.502923e-06 3.3019835e-14 3.1188333e-06 1.407094e-05 1.2455151e-05 5.540904e-06

ps_network.2.running_mean f4 [8]
00000000: 2eeb 9a3d afd0 ca3e 414c dd3e 0000 0000
00000010: e75c 283e b3ad 053e 0b23 e43d 0768 213e
0.07564388 0.39612338 0.4322224 0.0 0.1644169 0.13054542 0.111394964 0.1576234

ps_network.2.running_var f4 [8]
00000000: e049 e63b 0ff6 4b3c 2606 7e3c 0424 1613
00000010: eb45 253c 3391 163c ede5 2d3c a0ab c73b
0.0070278496 0.012448802 0.015504396 1.8950419e-27 0.0100874705 0.009189892 0.010613901 0.0060934573

main_network.0.weight f4 [128, 104]
00000000: 6a4b bd3d e7c2 45bc b491 a93a 7600 08bd
00000010: b7f2 083e 8211 163e 745a e53d f650 de3d
00000020: e7b5 4b3d 8ec4 82bd 0395 363d 7853 933d
00000030: 5fd1 d6bd 1de0 ffbc 858d 21bd 5cf2 59bc
00000040: 53f7 803d 2783 f63c 477a b3bd 7aa4 583d
00000050: 1210 9abd 59c0 90bc 2d64 bbbd 5023 9d3a
00000060: f71d 313d e9ce 17bc fbb6 28bd 8c1e 45bd
00000070: fc86 6d3d 5b7c 9fbb b4be 2abd d18c 63bd
00000080: 0fd8 0dbc 49c9 43bc ac04 bebc 13a3 abbc
00000090: 13f4 d2bc d8e1 b3bd 34ba 683d 0a6c bf3d
000000a0: 7753 2a3c ae7e 353d 2564 f4bc 13d8 19bd
000000b0: e599 b0bd 56e4 c53d 64fd 7a3c 91d4 b43c
000000c0: 009d bdbd 1117 9abd fbbb a13d 7978 793c
000000d0: 1316 80bd b068 243c d78a 88bd ccd7 67bd
000000e0: 12b5 72bc 1ed8 ccbd a486 aebd 0eaf 873d
000000f0: 3940 773d 45b0 8a3c cb43 89bd 6c91 4dbd
00000100: 9a91 94bd 18e6 793c 79c7 b23d 006a 103d
00000110: 5f99 ba3c 2307 253c 9cc3 d23d fed5 5ca8
00000120: f9c1 db3b 602b a0bc e3a4 8dbd 8243 863d
00000130: 6cf6 9c24 2a29 64bd ab66 a223 64a2 acbd
00000140: 5ec7 cb3c 186e 073d 344a f53c 05d8 df3d
00000150: e555 c73d 5b1c 14bc a111 923c fb7e 923c
00000160: a76d 6ebd 48b2 bf3d c335 992f 26d6 393d
00000170: 3bc4 6dbd 785d 89bd 5cbd 953d aa19 a53d
00000180: 5083 a0bd 797a 6dbd 86a2 52bd 785e 10ab
00000190: 6246 0c3c 121b cbbd d52a b93c 22f5 f1bc
000001a0: 9eec c13d 2776 d2bc 6420 523d 600b 493b
000001b0: 06be 12bd 6998 67bd 52d6 d0bc dc07 413d
000001c0: 063d 8e3c 094d ac3b e287 57bd 868a a33c
000001d0: 49ff a0bd 2c8d a0bd 87e6 d33d 0558 923b
000001e0: 04ad f23c 5efa 7fbc a5f5 acbd dc5b a0bd
000001f0: 805c c7bc cd16 a1bd b7e5 acbd 2f2b dbbd
00000200: fb85 d9b9 7b7d cfbd 6929 993d 65a4 213d
00000210: efea 2e3d 7252 febc a89f 04bd 77ce 02bd
00000220: da3a a93d 40c6 11bc 3bf4 bf3d e0e9 99bd
00000230: 502e 39bd 57c0 e23c 6194 f93c 0532 973c
00000240: c047 a2bc 3321 a63d 9423 a7bd 79aa ba3d
00000250: de39 ee3c 86fb a3bc 05fc 353d 48bb a7bc
00000260: c190 df3b 4b44 ef3d 9a04 9cbb 354d 573c
00000270: c00d 1c3d 7a90 4fbd 747e 59bd a36c 90bd
00000280: 6f74 8cbd 53a0 b5bd dd11 5d3d bfe3 c8bd
00000290: 73cf a4bc f28a c23c 76a2 633d 3038 513d
000002a0: f924 72bd de92 a43c ce4f 6dbd 8db4 0dbd
000002b0: 48f1 1ebd 1bd3 22bd 5abc 53bd 8fbf b62a
000002c0: c772 a4bb 0c8e 8fbd 413a 163d 305f 843c
000002d0: 8bef baa2 eb32 00bd 042d 1826 da38 89bd
000002e0: 39a4 43bb 270b eabd a5cc 79bc 6044 d5bd
000002f0: a2fb c2bc 530e 45bd 9b8c 07bd b204 e13b
00000300: 8179 233d 8128 bfbb c210 1426 eb46 c3bb
00000310: ba37 9fbd 79d9 5bbd e96e 293d fc3f ad3c
00000320: 9991 d4bd 1e1f 8f3d 183d 33bd cf00 0aa6
00000330: e89c fa3d 2166 28bd 3045 06bd 8b0c edbb
00000340: 3a17 f13c 73d8 013d af75 bd3d 6c1f 56bd
00000350: 92c7 afbd 08ab 0a3d 3eb3 c8bc 59b0 273d
00000360: 2446 8fbc 8658 3cbd bf86 2abd fcbb db3c
00000370: d70c 98bd 6762 e33c 1e11 903d f6a2 dabb
00000380: 570a 96bc 627f 9b3d 0f36 62bd 667a 13bd
00000390: 43a9 db3c f8be f83c b4e5 2cbd 0f41 68ba
000003a0: 270a c5bd d986 1b3d 8c97 34bd 0785 a73d
000003b0: e043 89b8 ef3d 37bd 831d acbd 1dc1 5c3c
000003c0: 7d2b aa3c 331a b3bd 9659 35bd 085d 71bc
000003d0: 0cd5 7fbd 4520 28bc 777d d1bd 2b7e 27bd
000003e0: 3d2e 863d 6ac4 d9bb 61ff a63d a2c1 8e3d
000003f0: 8d77 173d e1e0 a73d efc5 a5bc cc8f 1e3b
0.092429 -0.012070394 0.00129371 -0.033203565 0.13373838 0.14655116 0.11198893 0.10855286
0.049734022 -0.06385146 0.044575702 0.07193655 -0.10489153 -0.031234795 -0.039441604 -0.013302412
0.06297173 0.030091835 -0.08763557 0.052891232 -0.075225964 -0.017669844 -0.091499664 0.0011988673
0.043241467 -0.00926564 -0.04119013 -0.048124835 0.05799006 -0.0048671192 -0.041685775 -0.055554215
-0.008657469 -0.011949846 -0.023195587 -0.020951783 -0.02575115 -0.08783311 0.056818202 0.09346779
0.010395876 0.044310264 -0.029832909 -0.03755958 -0.08623103 0.09662692 0.015319202 0.022074016
-0.09258461 -0.07523931 0.078971826 0.015226477 -0.0625421 0.010034725 -0.066671066 -0.056602284
-0.014813678 -0.100021586 -0.085217744 0.06625186 0.060363982 0.016929755 -0.067023836 -0.050187513
-0.07254334 0.0152526125 0.08729453 0.03525734 0.022778211 0.010072502 0.10291216 -1.22588554e-14
0.006706473 -0.019551933 -0.06916215 0.06555845 6.807167e-17 -0.05570332 1.7607557e-17 -0.08429411
0.02487534 0.033063978 0.02994261 0.10929874 0.0973318 -0.009039964 0.017830672 0.017882815
-0.05821004 0.09360176 2.7868738e-10 0.045370243 -0.058048468 -0.06707281 0.07311508 0.08061536
-0.07837546 -0.057978127 -0.051424526 -5.129018e-13 0.008561702 -0.099172726 0.022603432 -0.029535834
0.09468959 -0.025691105 0.05130042 0.0030676946 -0.03582575 -0.056541834 -0.02549282 0.047126636
0.017363083 0.0052582067 -0.052619822 0.019963514 -0.07861192 -0.078394264 0.10346704 0.004466059
0.029623516 -0.015623657 -0.084452905 -0.07830021 -0.0243361 -0.07865677 -0.08442252 -0.10701596
-0.0004148929 -0.101313554 0.074786015 0.03946342 0.04270452 -0.031045172 -0.032378823 -0.03193518
0.08263178 -0.008897364 0.09372755 -0.07515311 -0.045210183 0.027679605 0.03046626 0.018456468
-0.019809604 0.08111801 -0.08161083 0.09114546 0.029080328 -0.020017397 0.044429798 -0.020475045
0.006822676 0.11682948 -0.0047612907 0.013140966 0.03809905 -0.050674893 -0.05309911 -0.07051971
-0.068581454 -0.0886847 0.053972114 -0.09809064 -0.02011845 0.023747895 0.055574857 0.051078975
-0.05911729 0.020089563 -0.057937436 -0.034596015 -0.038804322 -0.039752107 -0.051693298 3.2462615e-13
-0.0050185653 -0.07009515 0.03667665 0.01615867 -5.0669027e-18 -0.03129856 5.27966e-16 -0.06700297
-0.0029852523 -0.114279084 -0.015246545 -0.10413432 -0.023801629 -0.048109364 -0.033093076 0.006867015
0.039910797 -0.005833686 5.1370526e-16 -0.005959382 -0.07774301 -0.053674195 0.041365538 0.021148674
-0.10379333 0.06988357 -0.043759435 -4.7879464e-16 0.12236959 -0.041113023 -0.032780826 -0.0072341613
0.02943002 0.031700563 0.09250962 -0.05227606 -0.08582987 0.033854514 -0.024499532 0.040939663
-0.0174895 -0.04598286 -0.04163241 0.026823036 -0.07424324 0.027756883 0.07034515 -0.0066722585
-0.018315477 0.07592656 -0.055227336 -0.0360054 0.026814109 0.030364498 -0.04221125 -0.0008859792
-0.09621077 0.037970398 -0.04408984 0.0817967 -6.545312e-05 -0.0447368 -0.084040664 0.013473776
0.02077269 -0.087452315 -0.04427489 -0.014731653 -0.062459037 -0.0102616 -0.10229009 -0.040891808
0.06551788 -0.006645729 0.081541784 0.06970526 0.036979247 0.08197189 -0.020235984 0.0024194596

main_network.0.bias f4 [128]
00000000: d7c1 ebb4 2ba2 cab5 74ba ddb5 e364 1636
00000010: be9f a736 4752 bbb6 1917 98b5 75ee 02b6
00000020: f4f1 49b5 20ba 5db5 fe59 5c34 ac39 d636
00000030: def8 5435 48d0 9ab5 cb09 46b6 555e 2db7
00000040: cc35 53b6 1fe6 89b7 8df2 4db7 45d6 2635
00000050: 1373 9237 55cc cdb6 c06a 5436 0fdf aab6
00000060: 2832 ccb5 a697 8fb6 f419 4c36 1e77 5e36
00000070: 4bd6 0432 c008 ca36 7bdb a8b5 3b1c bcb4
00000080: 943a d8b6 64b7 b434 603d edb5 0272 cf36
00000090: cf1c 1536 bd35 5e35 8914 fd36 ccc5 7933
000000a0: 5a32 24b6 a40b 6f35 8c0f 35b7 a59a 81b2
000000b0: 65b9 ed35 3284 10b6 549e ef35 4870 24b6
000000c0: 7c9f 0737 a502 1e34 a6af 0db5 4c8c 32b6
000000d0: e175 f735 2bef 18b5 88dc 6f34 eb5f e3b2
000000e0: e2b4 be36 be29 6635 3680 6636 eefd 2c37
000000f0: e785 a135 3588 cc35 3b1b f2b4 5047 e2b6
00000100: 99fc 16b7 9985 2536 623c 73b6 68d4 da36
00000110: b565 c1b6 7e63 e636 8b40 3db6 4988 7bb5
00000120: 1577 f3b4 c5d9 9235 f8d1 ee36 5200 f734
00000130: 0a68 f5b5 1d31 c235 e7aa 3bb6 63ea 1ab1
00000140: 57ed 5135 5f1c 15b6 b0a5 dfb4 9642 50b6
00000150: c111 18b6 0c52 6636 406a d5b5 329f 9e36
00000160: 5c73 2836 9b74 b0b4 6eac b535 1833 93b5
00000170: f936 5ab6 be08 b235 ffc0 bd36 f929 e936
00000180: 4b3c 0536 cf52 8ab4 4532 03b6 ea93 c2b5
00000190: 61a6 2eb5 cfde ecb5 56fb 0b36 2cbe 0636
000001a0: 3f61 8436 c638 3036 c7eb 53b6 8924 93b1
000001b0: c981 8b36 8b1f 8636 e89b db35 98b4 4836
000001c0: d7c9 9436 5afd 41b5 0022 3135 964f 6ab7
000001d0: 9c9f 1f35 54d4 0935 0c01 88b6 cfa8 f235
000001e0: f8fa b136 e312 9836 6086 ab36 4845 9b35
000001f0: 67ff d036 a149 bbb3 78c4 9db3 85a7 bfb6
-4.3913198e-07 -1.509737e-06 -1.6520048e-06 2.2410466e-06 4.9955843e-06 -5.5826126e-06 -1.1331605e-06 -1.951031e-06
-7.5230423e-07 -8.2599763e-07 2.0521836e-07 6.384411e-06 7.9338304e-07 -1.1534512e-06 -2.951e-06 -1.0333567e-05
-3.1472764e-06 -1.6438831e-05 -1.2275425e-05 6.215162e-07 1.7458142e-05 -6.1332635e-06 3.1652598e-06 -5.0923622e-06
-1.5213782e-06 -4.2793863e-06 3.0413476e-06 3.3149913e-06 7.732136e-09 6.0210878e-06 -1.2580853e-06 -3.503827e-07
-6.444121e-06 3.3661047e-07 -1.7675738e-06 6.182353e-06 2.22195e-06 8.2779644e-07 7.542378e-06 5.8154725e-08
-2.4467213e-06 8.905138e-07 -1.07920605e-05 -1.50879e-08 1.7711833e-06 -2.153462e-06 1.7852967e-06 -2.450326e-06
8.08376e-06 1.4715859e-07 -5.2782195e-07 -2.660573e-06 1.8437241e-06 -5.697245e-07 2.2338838e-07 -2.6469896e-08
5.683499e-06 8.574242e-07 3.43473e-06 1.03111215e-05 1.2034405e-06 1.5238826e-06 -4.5095825e-07 -6.7436267e-06
-8.999509e-06 2.466468e-06 -3.624497e-06 6.5216336e-06 -5.7636885e-06 6.8661166e-06 -2.8200764e-06 -9.370311e-07
-4.534892e-07 1.0941227e-06 7.1173963e-06 4.6007568e-07 -1.8284202e-06 1.446842e-06 -2.796465e-06 -2.2543183e-09
7.820394e-07 -2.2219244e-06 -4.165754e-07 -3.1033173e-06 -2.26601e-06 3.4320428e-06 -1.590066e-06 4.7272997e-06
2.5101099e-06 -3.2867396e-07 1.3535735e-06 -1.0967224e-06 -3.251653e-06 1.3264578e-06 5.6551066e-06 6.9488274e-06
1.985364e-06 -2.5764754e-07 -1.9549782e-06 -1.4497175e-06 -6.5062164e-07 -1.7648216e-06 2.085891e-06 2.007825e-06
3.9452275e-06 2.625909e-06 -3.157869e-06 -4.2824166e-09 4.157632e-06 3.9971833e-06 1.6362146e-06 2.9907442e-06
4.434241e-06 -7.226678e-07 6.5987115e-07 -1.3966017e-05 5.946438e-07 5.1345455e-07 -4.0532377e-06 1.8079535e-06
5.3042277e-06 4.5321517e-06 5.1118404e-06 1.1568563e-06 6.228616e-06 -8.721259e-08 -7.34662e-08 -5.7117454e-06

main_network.1.weight f4 [128]
00000000: a3df 7c3f 4725 763f bb08 713f 1cf0 7c3f
00000010: 260e 853f 59a4 7f3f beb1 7e3f 805c 7a3f
00000020: 2627 853f 9b0d 803f 2d16 833f 5796 7c3f
00000030: 71f7 7b3f 2fa1 823f 51e1 763f 2c32 743f
00000040: b060 843f 283c 893f c8f7 883f 1540 773f
00000050: bd65 813f b2e2 7d3f 401a 7d3f fa54 783f
00000060: b141 863f 4add 863f 7323 833f 40e7 7a3f
00000070: b7b0 7a3f 18fe 7c3f ca6f 753f 1e2e 763f
00000080: d098 7f3f a3d0 7a3f 1857 7f3f 6882 863f
00000090: d028 863f 26c7 813f 84d0 833f d7f9 7a3f
000000a0: f5a7 7a3f a577 7d3f e282 853f d4ec 7c3f
000000b0: 913b 813f 9c09 7b3f d920 733f 7f8e 6e3f
000000c0: 3511 7b3f 9664 823f f019 813f e373 853f
000000d0: 44e5 773f cf53 813f 33b0 773f 5f60 7b3f
000000e0: a694 843f 7f9c 723f 5c11 793f b3cd 853f
000000f0: f4f1 773f e6e3 7a3f a7c9 7d3f b1ff 873f
00000100: 8bab 743f 1a33 753f 83f5 803f d6fa 803f
00000110: 8bea 753f 0dd4 823f 8f8e 7a3f ba54 7b3f
00000120: 89e6 7d3f 6b9e 823f 5646 893f 778f 7b3f
00000130: d805 753f b50b 7c3f 5c9a 813f 540e 803f
00000140: e60f 773f 2863 7a3f 584c 823f cfea 7f3f
00000150: 7614 853f 998f 843f 4fd8 733f 2d42 843f
00000160: c60b 7e3f fb06 823f 75de 823f d059 713f
00000170: 5b8f 823f 85f0 753f 8bcc 7b3f d733 7a3f
00000180: 39a8 7f3f 6afa 813f 3d29 843f 9e83 7b3f
00000190: ed5c 823f 4378 7f3f 227a 7d3f 36c9 853f
000001a0: 5aa4 7b3f 2bba 823f 29f1 803f 7f69 733f
000001b0: f585 803f fa97 823f 4957 7e3f 0cae 703f
000001c0: 50a9 763f bb1e 7b3f 144b 753f 7405 843f
000001d0: a21d 853f 8ea0 793f dbe8 823f 8f8e 7f3f
000001e0: cba2 7e3f fd79 823f 13c4 703f 4fe2 773f
000001f0: 9af2 823f 9026 793f 21eb 7c3f 6a73 7f3f
0.9877874 0.9615063 0.94153947 0.9880388 1.0394943 0.9986015 0.99489963 0.97797394
1.0402572 1.0004152 1.0241143 0.986669 0.9842444 1.0205439 0.96437556 0.95389056
1.0342007 1.0721483 1.0700617 0.96582156 1.0109173 0.99174035 0.9886818 0.97004664
1.0488797 1.0536282 1.0245193 0.9800911 0.97925895 0.98825216 0.958737 0.9616412
0.9984255 0.97974604 0.9974227 1.0508547 1.0481205 1.01389 1.0298009 0.98037475
0.9791253 0.9901069 1.0430567 0.9879887 1.0096303 0.9806154 0.94971997 0.9318618
0.9807313 1.0186946 1.008604 1.0425991 0.96834207 1.0103701 0.96753234 0.98193926
1.0357864 0.94770044 0.97292113 1.04534 0.96853566 0.98003995 0.9913582 1.0624906
0.95574254 0.957811 1.0074924 1.0076549 0.9606101 1.0220963 0.9787378 0.9817616
0.99179894 1.0204595 1.072459 0.98265785 0.9571204 0.98455364 1.0125232 1.0004373
0.96508634 0.9780755 1.0179548 0.99967664 1.0396869 1.0356323 0.95251936 1.0332695
0.99236715 1.015838 1.0224138 0.9427767 1.0199999 0.9607013 0.9835898 0.9773535
0.9986606 1.0154545 1.0325085 0.98247707 1.0184609 0.9979288 0.99014485 1.045203
0.98297656 1.0213064 1.0073596 0.9508285 1.004088 1.020263 0.99351937 0.94015574
0.963521 0.98093766 0.95817685 1.0314164 1.0399668 0.9751061 1.0227312 0.998269
0.9946715 1.0193478 0.94049186 0.96829695 1.0230286 0.97324467 0.9879628 0.9978548

main_network.1.bias f4 [128]
00000000: eab7 58bc 920c 42bd 6e96 3fbd 0bcb 13bc
00000010: f9a8 5b3d 63ae 9cbc c2cf 32bc 1e83 08bc
00000020: 5863 9f3c 8ccd cdbc 77a4 44bc 6711 f6bb
00000030: 78be 283c 0fab 053c 6f16 0bbd 02f2 d5bc
00000040: bf0c d33c 95ed 8b3d 8990 a53c 7182 b2bc
00000050: bd39 f03b 7d42 b2bb 9713 c13c 45ef 87bd
00000060: c9b4 70bb 97c3 c73c 5382 283d 29dc eeba
00000070: 568d 02bd 9a7c a1bc 67fa dcbc 9720 f3bc
00000080: ddcd 9cbc 3a23 a6bc 5d21 6f3b 8e40 a2bb
00000090: 3677 323d f884 9f3c 61ce edbc 7feb 81bc
000000a0: 815d c3bb e12c dbbc ce31 033d 12a7 1e3b
000000b0: 3829 cf3b 32bb 2abc fb22 afbc 27c1 74bd
000000c0: 4a4d e5ba ee7e 08bc 492a 343d 7f23 353d
000000d0: 1cc3 5fbc c218 a53c 0f73 49bc 6d93 e2b9
000000e0: 1273 343d 4c22 8fbd eac1 e8bc 58f2 3a3d
000000f0: 1b9f 16bd 84af b3bc 3427 953c a2f9 853d
00000100: dd86 5bbd d579 aebc f67b 033d c3ab 533c
00000110: a310 16bd 98d8 c03c 22f7 15ba 36bf 4b3c
00000120: 0e40 ba3c a4c9 293d 9658 9d3d 117c 89bc
00000130: 8671 90bc 6c3e aabc 1137 f53b 286a ff3b
00000140: ff0f 6abd 161b bcbc 99ea 5a3c 11c3 123d
00000150: 398c 813d 0ae7 9b3c 1054 4ebd 5ec3 283d
00000160: 2e3e 87bb 60ee c3bb d91b b9b9 ded9 29bd
00000170: 83cb 1fbb 1d0b 19bd 7285 a4bc a900 04bd
00000180: 4edf 933c ae1e 623b 5e8c 6e3d fab9 0ebc
00000190: b006 e23c df86 c8bb 5414 0cbb ab4d 1b3d
000001a0: c35a c4bc b840 453c ce6b 3abc 50bd 05bd
000001b0: d516 67bb 1ac0 74bc 269b 02bc 788e 4bbd
000001c0: 253a 1bbd f72d dc39 4807 27bd f779 2c3c
000001d0: ed30 8c3d 8dc9 0dbd 369a 3bbc f5f7 85bb
000001e0: d54b 30bc b6e9 de3c 9b02 fabc aa90 853a
000001f0: 649b 413b 81bc b8bb e3bc 4dbb f520 59bc
-0.013227442 -0.04737527 -0.04677432 -0.009020577 0.05362794 -0.019126123 -0.010913791 -0.008332042
0.01945655 -0.025122426 -0.012002102 -0.0075093987 0.010299318 0.008158459 -0.03395694 -0.026116375
0.025762914 0.068324246 0.020210521 -0.021790715 0.0073311017 -0.005440055 0.023568911 -0.06637434
-0.003672885 0.024385257 0.04113991 -0.0018223572 -0.03187307 -0.019712735 -0.02697487 -0.029678626
-0.019141132 -0.02028047 0.0036488392 -0.004951543 0.04357072 0.019472584 -0.029029073 -0.015859364
-0.0059620743 -0.026754798 0.03202992 0.0024208468 0.0063220523 -0.010420607 -0.021378985 -0.059754517
-0.0017494347 -0.008331044 0.04398564 0.044223305 -0.013657358 0.020153407 -0.0122954985 -0.0004321592
0.044055052 -0.069889635 -0.028412778 0.045641273 -0.03677283 -0.021934278 0.01820717 0.06541754
-0.053595413 -0.021298328 0.03210064 0.012919369 -0.03663696 0.02354078 -0.00057207246 0.012435725
0.022735622 0.041452065 0.07682912 -0.016782792 -0.017632257 -0.020781718 0.007483371 0.0077946372
-0.05714416 -0.022962134 0.0133615965 0.03583056 0.063255735 0.019031066 -0.050373137 0.04120194
-0.0041272854 -0.0059793442 -0.00035306698 -0.04146754 -0.0024382777 -0.037364114 -0.020083163 -0.032227192
0.018050816 0.003450315 0.058239333 -0.008711332 0.02759108 -0.0061195935 -0.0021374421 0.037915867
-0.02396906 0.012039356 -0.011378242 -0.032651246 -0.0035261412 -0.014938379 -0.007971561 -0.049696416
-0.037897248 0.00041995916 -0.04077843 0.010527126 0.06845269 -0.034616042 -0.011450341 -0.0040883967
-0.010760267 0.027211051 -0.03051882 0.0010190208 0.0029542083 -0.005637706 -0.0031393103 -0.0132524865

main_network.1.running_mean f4 [128]
00000000: 115b 413d 65cb 81bd c8f5 4d3c a419 20bd
00000010: 1591 c7bd c7a6 abbd 54c3 a3bc 3dc2 42bd
00000020: d384 343c 7357 283d 0561 f23d 315e 21bd
00000030: cc52 103b e118 a43c 5cdf d5bd b635 36bd
00000040: 01f5 d7bd 0f6b eabb 159c babc aceb d03d
00000050: eb6c 19bc a74e 103e 66d0 403d f540 a0bc
00000060: 1b84 fd3c fb4f cd3c fbac d03a 402c f5bd
00000070: 95f4 bc3d d1ee 653d b6f0 84bd 0529 73bb
00000080: 1eb2 d5bc 273c bf3d af10 1d3e 7900 99bb
00000090: 8c1a 863d 0768 0ebd 4064 933d 8ab4 113d
000000a0: 51f9 d03d 42f2 0d3d 3e2f 5f3c 4ff1 23bb
000000b0: 0190 383d a71a b9bc 60f8 19be a002 28bb
000000c0: 35bb 6a3c a767 24bd fd00 0e3e 88b6 fe3b
000000d0: 93d0 503d 6b20 48bc 22c3 96bc 796c 44bc
000000e0: d56b a43c 4768 0dbe ec1a 4c3d 87c3 4cbd
000000f0: 9f92 7cbd 1248 9f3d 137f 0bbd 953c 983c
00000100: 6bdc f13c 291e b43d fa89 db3c 930d 023d
00000110: 4b54 863d af7d 03bd c59e f73d ab2e 31bc
00000120: 1b6d 82bd 7c97 f23c 1b43 103d 65ed 653d
00000130: b642 9f3c 6102 efbc 6cca 81bd 5b2b dabd
00000140: 27ca 273d e5b9 443e 2290 203a c544 32bc
00000150: 52e3 e53d 561e 8a3c 2278 00bd 068e 663d
00000160: 1c55 fcbd c389 98bd a0c7 373d 0bc6 8cbc
00000170: fcc3 38bc 1a1b 2abd 4fad 003d 750e 4fbc
00000180: f020 753d 35eb fdbd 7036 813d e102 1a3d
00000190: 0d09 dcbd e2e7 c23d 5465 ac3d 742d cabc
000001a0: b1b4 01be 7b4a 103d 7def a7bc b4c4 e6bd
000001b0: 6df2 c3bc a3c8 e23d 0087 713b 8d9f 42bd
000001c0: 357a dfbd 5222 b0bd c95a e93c 110a 503d
000001d0: f214 a8bd 3a7e 573d a96e 9b3d ac68 81bd
000001e0: c0fc 1d3d 0797 973d 58a7 db3c 2ab7 81bd
000001f0: 27a2 893d 713d f53c 1ada 323d 5a3f a5bd
0.04720599 -0.063376226 0.012570806 -0.039086953 -0.09744469 -0.0838142 -0.0199906 -0.04754852
0.011017996 0.041099023 0.11834911 -0.03939647 0.0022022007 0.020031394 -0.10442993 -0.044484816
-0.10544778 -0.0071538757 -0.022779504 0.10201201 -0.009364347 0.14092503 0.047073744 -0.019562224
0.030946782 0.025062552 0.0015920693 -0.11971331 0.09226338 0.056135956 -0.064912245 -0.0037103307
-0.02608591 0.09337645 0.15338396 -0.004669246 0.06548032 -0.034767177 0.071968555 0.035572566
0.10203803 0.034654863 0.013622103 -0.0025015657 0.045059208 -0.022595717 -0.15036154 -0.002563633
0.01432686 -0.040137913 0.13867564 0.0077732243 0.050980162 -0.01221476 -0.018403593 -0.0119887525
0.02007095 -0.1380931 0.049830362 -0.049991157 -0.061663266 0.07777418 -0.034056734 0.018583575
0.029524049 0.08794815 0.02679919 0.031751227 0.06559046 -0.032102283 0.1209083 -0.010814349
-0.063684665 0.029613249 0.035220247 0.0561346 0.01944099 -0.029175939 -0.06337437 -0.10652801
0.040964272 0.19211538 0.0006124993 -0.010880654 0.112249985 0.016860168 -0.031364568 0.056287788
-0.12320921 -0.07448151 0.04486811 -0.017184278 -0.011277195 -0.041529752 0.03141528 -0.012637724
0.059845865 -0.12398378 0.06309211 0.0376004 -0.10743914 0.095168844 0.08417764 -0.024679877
-0.12666585 0.03522728 -0.02049994 -0.11267987 -0.023919309 0.11073425 0.0036854148 -0.04751544
-0.10911981 -0.08600296 0.028485673 0.05079085 -0.0820712 0.052610613 0.07589466 -0.06318793
0.03857112 0.07401853 0.026813194 -0.06333764 0.06720381 0.029936524 0.04366503 -0.08068724

main_network.1.running_var f4 [128]
00000000: 527c 8b3e 1a74 013f 90dd c33e 1541 c73e
00000010: 7ea9 a33e a721 2a3d 2224 173f 84f7 183f
00000020: 6b02 dc3e 11ba b53e 0a68 273e c343 073f
00000030: 97b2 143f f5c0 8c3d 073d 423e fc87 563e
00000040: 13a9 b83e 5bc1 8f3e bdda 053f ec6b 963f
00000050: a3d7 823d b088 1d3f 272e 523f 0f91 0b3f
00000060: 78da 603e cb5a c83e d669 3b3f 5034 e13f
00000070: 6747 933e 43ec d43d ebf9 c93e a1d7 d33e
00000080: 5167 8a3e 352c 683f cd64 e83e aaf2 5f3e
00000090: 2b33 d33e decb 7d3e 86b7 383e e18e 1a3e
000000a0: 3b34 fa3e d252 1e3e 09f9 253e 3229 813f
000000b0: d1e7 bf3e e3d8 cc3e f60d eb3e 2cd4 833e
000000c0: 252c 213f 7c20 6d3e 16b1 c73e a9d7 8c3e
000000d0: 9c49 ee3e accf f13e 3b69 163f c0ae eb3e
000000e0: e7cb 883e 381a 363f 0510 193f f987 703e
000000f0: fdf1 ca3e f917 a33e d731 2f3f 0dae 5c3e
00000100: 5df1 933e 10ce 893e 96e2 8b3e 9b6d 3c3e
00000110: 92b6 9a3e 6e47 923e 441a 543e af10 7a3f
00000120: 5a8e 073f 0f5d d23f ec0d ad3e 9484 663f
00000130: c8d3 9c3e d7e0 033f 7d3c eb3e d4b3 003f
00000140: 52f4 363e be05 823f 49e6 de3e 4919 953e
00000150: 62f0 2c3f ff3d 673f a508 4c3e 1c1f 333e
00000160: 753e b43e e498 033f 5f25 f23e 0284 fc3e
00000170: 6fae 1e3e 0d34 6d3e bd64 a13e 6dc7 163e
00000180: 4aeb f83e f49d 2e3e 9491 a03e 50bc a23e
00000190: ebfd 363f ffc6 c63d 2ae9 083f ec09 1e3e
000001a0: b0ba c53e 53cc 803e 00ed 923e cfed 3f3f
000001b0: 1cb1 403f 441d 7c3e e6db 813e 386d 273f
000001c0: a091 533e 6cb9 823e 6569 c83e 47f9 b23e
000001d0: 2923 843e 3726 173f d0e1 c53e 3d3f 843e
000001e0: e895 723e fa3c dd3d b483 de3e 19a5 e63e
000001f0: c6b2 973e dd8c 2b3f 7c8e 5b3f b952 563e
0.27243286 0.5056778 0.38254976 0.3891684 0.3196525 0.041536 0.5903951 0.5975268
0.42970595 0.3549352 0.16348282 0.5283777 0.58085006 0.06872741 0.18968593 0.20950311
0.36066493 0.28077206 0.52286893 1.1751685 0.06388786 0.61536694 0.8210167 0.54518217
0.21958339 0.3913177 0.7320837 1.759409 0.28765413 0.10396626 0.39448485 0.4137545
0.2703195 0.90692455 0.45389405 0.21869913 0.41249976 0.247848 0.18038759 0.15093566
0.48867974 0.15461281 0.1620828 1.0090697 0.3748155 0.4000922 0.4590909 0.25747812
0.62957984 0.23156923 0.39002293 0.27508286 0.46540534 0.47228754 0.5875432 0.4603176
0.26718065 0.71133757 0.5979007 0.2348937 0.39637747 0.31854227 0.68435425 0.2155077
0.28895083 0.26915026 0.2732131 0.18401186 0.30217415 0.28570122 0.20713145 0.9768171
0.52951586 1.6434649 0.33799684 0.9004605 0.30630326 0.51514953 0.45944586 0.50274396
0.17866638 1.0158002 0.4353507 0.29120854 0.67554295 0.90328974 0.19925173 0.17492336
0.352039 0.5140517 0.47294137 0.49319464 0.15496229 0.23164387 0.3152217 0.14724512
0.4861701 0.17052442 0.31361067 0.31784296 0.714812 0.09705924 0.5348078 0.15433472
0.38618994 0.25155887 0.28696442 0.7497224 0.7527025 0.24620539 0.25363082 0.6540103
0.2066102 0.2553209 0.3914291 0.3495581 0.25808075 0.59042686 0.38648844 0.25829497
0.23689997 0.10802646 0.43459857 0.45047835 0.2962858 0.67011815 0.8576429 0.20929994

main_network.4.weight f4 [64, 128]
00000000: 0132 fcba d513 1b3d 9309 d0ba fbb9 0f3c
00000010: 92ed 6fbc c90c ac3c 3056 bbbd e2ee 5e3d
00000020: fe74 36bd 933f 98bc 77f5 d5bd fb84 d43d
00000030: 868d dfbc c536 883c 6331 4fbd adeb 84bc
00000040: 165c a7bd 66b9 d2bd 8dac 22bd 807d 1c3d
00000050: d73d ef3c 3523 c3bc e248 173d 341c 26bc
00000060: 5141 ccbd e434 aebd 9c68 5bbc 5e01 d8bc
00000070: 8c54 ad3d 0926 9dbb df4c b2bd aa8a 88bc
00000080: 8a96 943d 1e0b 91bb bfa7 66bc 3d17 48bd
00000090: 3bb4 45bd f608 9abd 9afe a7bd a6c0 713d
000000a0: a8ba a23c bc19 45bc 0250 6fbd 8ba0 abbd
000000b0: 5fb9 abbd 5d1d 4fbc 2a49 24bd 9fc9 91bd
000000c0: 365d c0bd 775a 51bd d2d4 aa3d 6c22 7ebc
000000d0: 45cf 9e3d a598 f53b 1378 f53c 20bd debd
000000e0: 01b4 84bb b856 37bd 023e eb3b 5e1d 0a3d
000000f0: 4842 99bc 85b0 513d 68f3 653d 265e d43c
00000100: fb2f 9fbd 10a1 7dbd 4218 623d 53d8 19bd
00000110: 7aed 813d d4ad 98bd 1809 da3d e609 6abd
00000120: 8382 6dbd 7ef4 303c 3948 f3bd f4b8 043d
00000130: 3c9d c73d bad7 6f3d a946 80bc 8c04 27bc
00000140: 6e4b ce3c 520a bb3d 8ff1 a43c 48c3 d93b
00000150: 8e61 01bc e680 8fbd 0862 1bbd c6ad 063c
00000160: 0bcc be3d d7cd 1039 8809 aebd dc2f 8f3d
00000170: 6753 073d fcd2 38bd 29dd d23c edab 3e3d
00000180: ed4a d03d c9d7 ffbc 119e 763c 1f2b a7bc
00000190: f11d 0c3c 0a62 c6bd 1fea 96bd 6ab5 403d
000001a0: 86b0 f33c f72a 383d bcfb b4bd b04c 43bc
000001b0: 066b 6a3b 52e2 83bd 02b7 643d 6978 b2bd
000001c0: 9d2f 66bd d376 c8bd fba0 aa3d 1af6 21bc
000001d0: 26ad 953d 25c1 75bb b1a2 4a3d 16e8 cdbd
000001e0: 7b53 c93c bc7e b1bc 5b13 9bbb 1401 fc3c
000001f0: 86f7 c2bc d368 71bc 5f8e 19bc 4849 d73c
00000200: 96d1 a4bb 0452 14bd edc5 9cbd 1bd5 55bd
00000210: 019c 88bd 436f 903b 9bb3 323c 5d8c 70bd
00000220: 0028 a63d 481e b7bd c0d7 7a3c ecc0 d13d
00000230: e6cd 81bc 051f c0bd fb6a df3d 3fbc 493d
00000240: 6b97 f8bd 479a b0bd 7f6c 4a3d 2bc2 d43d
00000250: d679 8d3c 4f82 383b bd5f 9c3d 83b8 233d
00000260: 602c fe3b 9d1a 4e3b 3f40 32bd 9e63 2dbc
00000270: 569f 4d3d 4b36 e13c 1ccf 90bc ab36 eabc
00000280: 6783 c83c fa53 8d3c 6edf c1bd d0ab 8e3d
00000290: 8be7 c83c 7cfc d6bd 4351 8dbd 0c76 373d
000002a0: 07f4 4e3d 4da0 a23c 4184 f9bc 89d7 c63d
000002b0: bb5d e5bc 3854 7abd 5e0c cf3c fe2a 2abd
000002c0: 5da8 6a3d 54c4 3dbd b706 80bc d96c 083d
000002d0: 4f88 9fbc cbdc e9bd 3bd8 8fba 54b7 b03c
000002e0: 01e1 c93c 4cb5 29bd a011 f33c 6fc8 af3d
000002f0: 9d90 81bd 08a9 4d3d aae2 6cbd 4168 d7bd
00000300: a730 0a3c 9b5e a0bd d149 9ebc 7d0a 423d
00000310: 8b42 013b dc9d ebbd 6730 613d ae89 02bc
00000320: 99d9 9dbd 3143 afbc f80a c7bd 766f 943b
00000330: 9d4a 1cbd bba6 3ebd 175a 873d b1de 62bd
00000340: d6c0 bdbd b62b 37bd d329 cebd 8fd7 07bd
00000350: cd57 3abd a3cc 05bd f211 8c3d faf8 d93c
00000360: c7bd 243b 207a f73d 682b 533d 6c74 c33c
00000370: 610a 6e3d 81cb d13d 5eeb 8e3c b092 cbbd
00000380: 47d7 083d 8133 d43d 3d79 dcbd 3340 393d
00000390: fe20 2cbc bdb0 1ebd bbb5 663d 24de 29bd
000003a0: 458e 4dbd fac4 093d 0fa1 19bd 5ae0 933d
000003b0: db93 9ebc e2da 09bc e02f 83bd a208 3cbd
000003c0: 31bf 493d 65ad 02bd f946 5ebd 53fe 95bb
000003d0: 2d4d 2cbc 3f5b 86bd ba5e 033c d5d9 5cbc
000003e0: 4f2d 2abd 5195 c9bd bad9 89bc 1fc7 1abd
000003f0: 6212 f53c b7a3 80bd 6f99 50bc 237d 38ba
-0.0019240977 0.03786071 -0.0015871994 0.008772369 -0.0146440435 0.02100219 -0.09147298 0.054427035
-0.044545166 -0.018585002 -0.10447209 0.103769265 -0.027289163 0.016627679 -0.05058421 -0.01622566
-0.08171861 -0.10289268 -0.03971534 0.038205624 0.029204292 -0.023820499 0.03693474 -0.01013856
-0.099733956 -0.08506182 -0.01339164 -0.02636784 0.08463392 -0.004795794 -0.08706068 -0.016667683
0.072552755 -0.004426374 -0.01407808 -0.048850287 -0.048267584 -0.075212404 -0.08202858 0.059021614
0.019864395 -0.012030061 -0.05842591 -0.083802305 -0.08384966 -0.012641278 -0.040108837 -0.07118534
-0.093927786 -0.051111665 0.083413735 -0.0155111365 0.07754377 0.0074950033 0.029964482 -0.108759165
-0.0040497785 -0.044760436 0.0071790228 0.033719413 -0.018708363 0.051193733 0.056140333 0.0259238
-0.077728234 -0.06192118 0.055198915 -0.03755982 0.06344123 -0.0745503 0.10646266 -0.057138346
-0.057985794 0.010800479 -0.1187901 0.032402948 0.09746787 0.058555342 -0.015658693 -0.010193955
0.025182452 0.09132828 0.020134715 0.006645594 -0.007896794 -0.07007007 -0.037935287 0.008220142
0.09316262 0.00013809591 -0.08497912 0.0699155 0.033038523 -0.045123085 0.025740223 0.04655068
0.10170541 -0.031230824 0.015052334 -0.020406304 0.00855206 -0.09686668 -0.07368874 0.04704801
0.029747259 0.04496285 -0.08837077 -0.011920139 0.0035769357 -0.064396515 0.055838592 -0.08714373
-0.05619775 -0.09788289 0.08331486 -0.009885335 0.07308416 -0.0037499156 0.04947156 -0.100540325
0.02457594 -0.021666877 -0.004732532 0.030762233 -0.023799669 -0.014734465 -0.009372323 0.02628006
-0.0050298674 -0.03621103 -0.07654939 -0.052205186 -0.066703804 0.0044077947 0.010907079 -0.05872761
0.08113098 -0.089413226 0.015310228 0.10241875 -0.01584525 -0.093809165 0.10909077 0.04925179
-0.12138256 -0.08623176 0.049419876 0.10388597 0.01727001 0.0028153842 0.07635448 0.039970886
0.0077567548 0.0031448968 -0.0435183 -0.010582833 0.050200783 0.02749171 -0.017676882 -0.02859052
0.02447672 0.017251957 -0.09466444 0.069663644 0.02452447 -0.10497376 -0.06900265 0.044790313
0.05052569 0.019851828 -0.030458571 0.09709079 -0.027998796 -0.061115474 0.025274452 -0.041544907
0.05728947 -0.04632981 -0.015628202 0.03330693 -0.019474177 -0.11419066 -0.0010974476 0.021571793
0.024643423 -0.041432664 0.02967149 0.085831515 -0.06326411 0.05021003 -0.05783335 -0.10517932
0.008434451 -0.078305446 -0.019322308 0.047373284 0.00197235 -0.11504719 0.0549778 -0.007967396
-0.07707519 -0.021394344 -0.09718889 0.0045298887 -0.038157094 -0.046545725 0.0660898 -0.055388156
-0.09265296 -0.04471942 -0.10066571 -0.033164557 -0.04549389 -0.03266586 0.0683936 0.02660798
0.002513753 0.1208384 0.051555067 0.023859225 0.058115367 0.102438934 0.017446216 -0.09940088
0.03340843 0.10361386 -0.10765312 0.04522724 -0.010505913 -0.03874277 0.056325655 -0.041471615
-0.050184507 0.033635117 -0.037507113 0.07220526 -0.019357612 -0.008414002 -0.06405616 -0.04590667
0.0492546 -0.031903643 -0.054266904 -0.004577437 -0.010516447 -0.065603726 0.00801819 -0.01347967
-0.041547116 -0.09842933 -0.016827453 -0.037787553 0.029915992 -0.06281226 -0.012731894 -0.000703769

main_network.4.bias f4 [64]
00000000: 61f4 3836 ef56 d035 8ba6 1f36 9377 a0b5
00000010: b368 4db6 0cf2 77b6 f8b2 6d35 045a ffb6
00000020: 636a c5b7 c9fa aab6 2b62 7836 9e69 c336
00000030: 5980 2636 6a8d 57b7 516d 14b6 d5df 9fb6
00000040: b9a3 f7b5 ed3b 8436 5d54 0037 cab7 d336
00000050: 0400 2537 68b9 1e37 c11d cc36 b4be 3537
00000060: 1391 2836 0075 d636 7a3d 99b5 f7c9 b4b6
00000070: c027 24b7 c9b2 18b6 4382 71b6 cc7f 6037
00000080: 7d7a 0a37 a0e2 a5b6 b22f 4636 a1ac e0b3
00000090: b4c0 cc35 8cb4 2536 d603 c4b6 db74 c837
000000a0: 1522 43b6 5a68 cd35 499f 0eb5 aa2a 91b6
000000b0: 1363 04b7 6e59 f9b5 5d37 9536 8f10 2136
000000c0: 8c41 e1b5 612c 0db4 8cbc bb36 527b 00b7
000000d0: d694 9336 73ed d3b6 f0be d8b6 ca3e 8b36
000000e0: 9ff6 1036 9e0d 5437 ca82 c736 a0fa 54b5
000000f0: d084 81b7 f7dd d8b6 a668 7cb4 2bf2 3835
2.7560384e-06 1.5522509e-06 2.3789787e-06 -1.195573e-06 -3.0608323e-06 -3.6946758e-06 8.8549814e-07 -7.6100714e-06
-2.353377e-05 -5.09559e-06 3.701202e-06 5.8237483e-06 2.4810636e-06 -1.2847924e-05 -2.211735e-06 -4.7646267e-06
-1.8450584e-06 3.940883e-06 7.649037e-06 6.309686e-06 9.83477e-06 9.460702e-06 6.0831376e-06 1.0832842e-05
2.5118395e-06 6.3913176e-06 -1.141728e-06 -5.38793e-06 -9.784417e-06 -2.2753832e-06 -3.598762e-06 1.33811955e-05
8.25396e-06 -4.943766e-06 2.9532061e-06 -1.0462214e-07 1.5255268e-06 2.4692008e-06 -5.8417017e-06 2.3896273e-05
-2.9077103e-06 1.530406e-06 -5.313091e-07 -4.3263035e-06 -7.890881e-06 -1.8577973e-06 4.446991e-06 2.4000508e-06
-1.6782883e-06 -1.3147793e-07 5.594984e-06 -7.658107e-06 4.398268e-06 -6.3159328e-06 -6.4595297e-06 4.1498324e-06
2.1601224e-06 1.2639355e-05 5.945888e-06 -7.934086e-07 -1.5439844e-05 -6.4631417e-06 -2.35074e-07 6.889774e-07

main_network.5.weight f4 [64]
00000000: 869d 803f 7b65 813f 71da 7d3f 954e 833f
00000010: cf16 833f 6002 823f b152 723f e0cf 7d3f
00000020: 17d2 843f 3c44 873f 9fb6 803f 8112 823f
00000030: ecc9 713f f036 7b3f 6915 863f 9a22 853f
00000040: 3af3 753f 04b6 863f 8e84 803f 7013 833f
00000050: f393 783f b304 813f 5cac 823f a784 7c3f
00000060: 539b 783f aaf4 853f b921 7c3f 9883 733f
00000070: ea58 823f 8f06 7d3f c2a4 723f adf6 823f
00000080: e284 7b3f 15bd 823f 2d1f 803f 8920 833f
00000090: 8cc1 813f 2f46 833f 7e6b 833f 8331 823f
000000a0: 7770 763f c110 7c3f 919c 743f 6d67 723f
000000b0: add2 803f 1daa 783f 9dbd 843f 9cb0 843f
000000c0: f2fa 853f 7b22 873f 2dd2 823f e27c 863f
000000d0: e6ed 7b3f d337 713f 6e67 7c3f 58e1 853f
000000e0: 4274 703f d87d 883f de5e 7e3f 0bed 813f
000000f0: aa5b 813f 5602 833f 40bf 7a3f 493e 683f
1.0048072 1.0109094 0.9916144 1.0258356 1.0241336 1.0156975 0.9465743 0.9914532
1.0376614 1.0567698 1.0055732 1.0161897 0.94448733 0.981307 1.0475284 1.0401185
0.9607426 1.0524297 1.0040452 1.0240307 0.9710075 1.0079559 1.020885 0.9863991
0.97112006 1.046529 0.98488957 0.9512267 1.0183384 0.9883813 0.9478265 1.023153
0.9824964 1.0213953 1.0009514 1.0244304 1.0137191 1.0255793 1.0267179 1.017136
0.9626536 0.98463064 0.955514 0.94689065 1.0064293 0.9713457 1.0370365 1.0366397
1.0467207 1.0557398 1.022039 1.0506861 0.9840988 0.94225806 0.9859532 1.0459394
0.93927395 1.0663404 0.99363506 1.0150465 1.0106099 1.0235088 0.97948074 0.9072004

main_network.5.bias f4 [64]
00000000: 793d 0f3c b3ed 863c c267 ce3c d7bb dc3c
00000010: 8b21 b03b 747c 833d f25f 1ebd fff3 c1bc
00000020: 3fe5 873d 09d4 033d c1dd 483c c4c0 9f3d
00000030: ba63 07bd fa9a 96bc 903d 633d 5084 673d
00000040: 8645 e0bc c7a4 013d 8e68 12bd 2c83 493d
00000050: b385 a43a 086b a2bc 9960 103d 53fd 5f3a
00000060: e2fe 9e3b 0b54 423d 5663 b2ba fb4f 92bc
00000070: 21f4 1b3d 1a3e 30bc 7b9d 87bc c29c 923c
00000080: 772e ce3b ee68 b33c a883 8a3c d5ea fd3c
00000090: 4468 023d 3b5b cebb 9f21 d43c b0ee d5bc
000000a0: 50b9 02bd b40b 2dbc f973 e0bb 8f9c fbbc
000000b0: dfbd c0bc be91 b63c 120a eabb 0428 9c3c
000000c0: b5ca fd3c bdf4 023d 5895 d83c c1f7 f93b
000000d0: da28 303c cf55 24bd 6513 06bd 5dda ad3c
000000e0: 5dc7 8cbd 6199 893d e170 703c 0ec4 b2bb
000000f0: 9277 083d e494 de3c d00f edbc 19f0 a2bd
0.008742684 0.016470766 0.02519596 0.026945038 0.0053750924 0.06420222 -0.03866572 -0.023675917
0.06635522 0.032184634 0.0122599015 0.07800439 -0.03305409 -0.018384445 0.055478632 0.056522667
-0.027376901 0.031651285 -0.035744242 0.04919736 0.0012552053 -0.019826427 0.035248373 0.0008544523
0.0048521617 0.04744343 -0.0013609927 -0.017860403 0.038074616 -0.010756994 -0.016554585 0.017897014
0.00629216 0.02190062 0.016908482 0.030995766 0.031837717 -0.0062974966 0.025894938 -0.026114792
-0.03191501 -0.010561872 -0.0068497625 -0.030714301 -0.023528038 0.022286292 -0.0071423138 0.01906205
0.030980447 0.031971682 0.0264384 0.0076284115 0.010751927 -0.040120896 -0.03273334 0.021222288
-0.06873963 0.06718708 0.01467535 -0.0054555004 0.033317156 0.027170606 -0.028938204 -0.07955951
