XGBoost/best_model_alexnet.pth (torch, 120890 bytes, 47 tensors)

model_embedding.weight f4 [32, 12]
000000 74 d7 cf 3a c6 b8 7e 3e 6b a4 3a bc 6d c7 5e 3e
       0.0015857057 0.24875173 -0.011391739 0.21755762
000010 cb 19 33 bb 01 8e 30 3e 5d e9 11 3d 07 05 2a bd
       -0.0027328606 0.1724167 0.035622943 -0.0415087
000020 3f a0 1f 3c 3f 52 cf bd 8c 44 52 3c de 76 9a 3d
       0.0097427955 -0.10123109 0.012833726 0.07542203
000030 05 4b 23 bc 30 c1 58 3e 95 c8 9e 3e 92 61 a5 be
       -0.0099666165 0.21167445 0.31012407 -0.32301003
000040 4e 6d 68 3e 35 a0 79 be 4f 45 55 3e 4e 11 87 3e
       0.22697946 -0.2437752 0.2082722 0.2638039
000050 2b 95 86 3d 77 ac 0c b9 81 92 9a bd 41 f4 aa bc
       0.0657142 -0.00013415689 -0.07547475 -0.020868422
000060 82 e4 bc 3b e8 d4 4d 3e 53 dc 62 3d 4d f6 8c 3e
       0.005764545 0.20100749 0.0553859 0.27531663
000070 bd 36 49 3c 0c 0b 9b 3e e2 f2 6c be dd c4 14 3d
       0.012281117 0.30281866 -0.23139527 0.036320556
000080 4d 9c 61 bd 9f ec b5 bd ec 4b 23 3e 9a bc 05 3d
       -0.0550807 -0.088830225 0.1594693 0.032650568
000090 a6 12 25 b9 a7 82 1c be 4a c2 6f be 74 ae d7 3d
       -0.00015742573 -0.15284215 -0.23413959 0.10531321
0000a0 bd ac 84 3e 1c 37 74 3e ab 5d 97 be cd 4f aa be
       0.2591304 0.23849148 -0.2956365 -0.33264008
0000b0 e0 db 12 bd 4b be 5e bd bb 8a a5 3d 0c d2 96 bb
       -0.03585422 -0.054380696 0.08083101 -0.0046026763
0000c0 0c ec d1 3c 74 02 08 be f4 9b 22 be e3 5d 64 be
       0.025625251 -0.13282186 -0.15879804 -0.2230144
0000d0 ea 0b b3 3e 7f 15 80 3e 60 18 8f be b4 1a 1e 3e
       0.34970027 0.250164 -0.27948284 0.15439874
0000e0 78 55 97 3e f7 5f 9f be 30 e6 82 be 83 71 88 be
       0.29557395 -0.31127903 -0.25566244 -0.26649103
0000f0 a3 84 21 3c 0d dd 4b be 63 21 00 be a3 fd f0 3d
       0.009858283 -0.19908543 -0.12512736 0.11767127
000100 d7 0a 4f be 12 6a 45 3e 27 79 69 3c 09 19 9b be
       -0.20218979 0.19278744 0.014250076 -0.30292538
000110 25 65 d9 3d 45 e0 51 3e 66 0e 17 be f3 18 4f be
       0.10614995 0.20495708 -0.14751586 -0.20224361
000120 27 8b 0b bd 99 d9 29 3e d0 4d ea bd 60 8c 88 3e
       -0.034068253 0.16586913 -0.11440623 0.26669598
000130 3e 5b 96 3e 36 ae e7 3c b4 71 69 3e 5b 07 f9 3d
       0.29366487 0.028281312 0.2279728 0.12159606
000140 c7 5e e9 3d 54 a4 46 bd 7f ee c3 bd 00 5d e3 bc
       0.113950305 -0.04849656 -0.09566974 -0.027754307
000150 51 f2 87 bb 92 de 76 bd ae 00 4c 3e a7 85 92 bd
       -0.0041487594 -0.060270853 0.19922134 -0.071543984
000160 88 5c 83 3d ef b9 12 3e 6c 13 16 bd 64 d2 da bd
       0.06414133 0.1432874 -0.036639616 -0.1068466
000170 6d 31 97 be 6d f4 d1 3c 90 47 18 bb 38 5a 32 3e
       -0.29529896 0.025629247 -0.0023236014 0.17417228
000180 f2 90 ff 3a 67 e2 4e bb 22 64 72 3e 23 f0 05 3e
       0.0019498153 -0.0031568052 0.2367101 0.13079886
000190 8a 7e 67 be c6 97 cf bd 79 0a 8e be 18 5e 66 3e
       -0.22606865 -0.1013637 -0.27742365 0.22496831
0001a0 2d 46 4b 3e 66 a3 f2 3d 43 f7 97 3e e1 d4 bb 3d
       0.19850989 0.11847572 0.29680833 0.09171463
0001b0 69 e5 2f b9 f1 76 82 be 66 cb 6d 3d 28 d6 9f 3e
       -0.00016774762 -0.2548137 0.058055304 0.31218076
0001c0 2c 11 97 be 3c d8 f8 3c 5b d3 ae 3d f2 f2 03 3e
       -0.2950529 0.030376546 0.085364066 0.12885645
0001d0 fb 46 2f 3e 5a 3c 7f bd 0a 40 15 be 2e 63 b6 bd
       0.1711692 -0.062313415 -0.1457521 -0.08905636
0001e0 00 79 c1 b8 04 63 9d 3c 91 a1 be 3e 48 97 b3 be
       -9.225495e-05 0.019212253 0.3723264 -0.35076356
0001f0 60 5f b1 3d 55 32 96 3c c2 15 42 3c e2 db f2 3d
       0.086607695 0.018334547 0.011846008 0.118583456
000200 7a 03 fc 3d 31 e4 5d 3d d8 cf 5a 3d be 76 5e be
       0.123053506 0.0541727 0.05342087 -0.21724984
000210 28 8d 24 bb 4f 81 22 3e 4f 2d d9 bd 84 7a 29 bd
       -0.002510855 0.1586964 -0.10604345 -0.041376606
000220 ac 05 29 be c0 91 21 3e 00 00 21 be ba c1 3a be
       -0.1650607 0.15778255 -0.15722656 -0.18237963
000230 e3 4b 84 3e af 4f ea 3d 77 5c 8f 3d 23 cb 96 be
       0.25839147 0.1144098 0.07000058 -0.29451856
000240 09 c2 97 af e7 07 80 be 29 f3 35 bd b1 df 67 3e
       -2.760461e-10 -0.2500603 -0.04442135 0.22643925
000250 e0 67 85 3e 4d ec 15 3c f2 2f 08 bd 51 49 7d 3e
       0.26055813 0.009150577 -0.03324885 0.24734999
000260 d6 ce 8b bd a9 c9 b4 bc 52 91 2f 3e 46 0b 5b be
       -0.0682656 -0.022068815 0.17145279 -0.21391019
000270 b9 a2 ac 3c 64 87 61 3d 99 38 45 be f1 75 02 be
       0.021073686 0.05506076 -0.19259872 -0.12740304
000280 a3 9c 04 be d2 b8 b2 3d 9a df 3a 3e e5 6f ae bc
       -0.12950377 0.08726658 0.1824936 -0.02129359
000290 58 d6 26 3e 99 84 64 3e 95 8e 3f be 36 71 81 be
       0.16292703 0.22316207 -0.18706734 -0.25281686
0002a0 55 35 13 39 45 c8 ea bd 2d cf 5a be 97 cf d6 bd
       0.0001403888 -0.1146398 -0.21368094 -0.10488813
0002b0 5c df 95 3d 99 81 df bd 42 d5 25 bb 9f 85 75 bd
       0.07317993 -0.10913391 -0.0025304114 -0.059941884
0002c0 8f c0 45 3e 4a 3c 88 3e c1 29 5a be 59 2a 9a 3e
       0.19311737 0.26608497 -0.2130499 0.30110434
0002d0 6e 93 06 3d 7b a4 34 3d 64 94 a0 bd 77 19 b3 3e
       0.032855444 0.044102173 -0.07840803 0.34980366
0002e0 8a 20 40 be 13 d5 9f 3d 1b 18 9b bd 0e ba b2 bd
       -0.18762413 0.078043126 -0.07572957 -0.08726893
0002f0 8e 08 3d 3e c9 93 d0 bc bc 90 6d bc cb a2 fa bd
       0.18460295 -0.025461094 -0.014499839 -0.122380815
000300 ca 07 eb bc 40 ea 9f be 11 b2 ad 3d 7d 2d 0d be
       -0.028690238 -0.31233406 0.08481229 -0.13786884
000310 bb e1 00 be 3f a4 7a 3e 59 6b de 3d e5 6b 8f 3e
       -0.1258611 0.24476717 0.10860319 0.28012004
000320 c2 95 23 3e a9 67 26 3e 9d 97 ff 3d 80 fb 7e be
       0.15975097 0.1625048 0.1248009 -0.24900627
000330 de 84 86 33 55 ce 74 be 3f 2c 0b 3e 78 c7 6a 3d
       6.26403e-08 -0.23906834 0.13591097 0.057319134
000340 2b a0 94 3c 04 9f f1 bd f9 50 63 be c5 6a b4 3d
       0.01814278 -0.11797908 -0.22198857 0.08809427
000350 ce 27 3b be d4 44 a3 bd 4a b5 3d 3e 94 d2 b2 3d
       -0.18276903 -0.07972112 0.18526188 0.08731571
000360 34 30 e2 3b 91 b0 1c 3e db 3f 2b 3d e5 db 7d 3e
       0.006902719 0.1530173 0.041808944 0.24790914
000370 8e 23 b6 bd d6 2b 45 be 5d b4 05 be fd 52 48 3e
       -0.088935 -0.19255003 -0.13057084 0.19562908
000380 fa 1d 52 3d 18 1b de 3c e1 eb 80 3e 63 35 13 3e
       0.05129812 0.027112529 0.2517996 0.14375834
000390 58 7f bd 3c 87 c1 94 3e e1 dc 8f bd 60 e9 b8 be
       0.023132011 0.290539 -0.07024551 -0.3611555
0003a0 47 42 e8 3d d0 cd f8 bd 04 7d b4 3d f2 35 08 be
       0.113407664 -0.121486306 0.08812907 -0.13301829
0003b0 e1 35 93 3c 04 de 81 3e 1a b8 47 3e e1 be 61 bd
       0.017970027 0.25364697 0.19503823 -0.055113677
0003c0 d9 9e 9a ab a3 20 84 3e eb 39 24 be dc b6 0a 3e
       -1.0986447e-12 0.2580615 -0.16037719 0.13546318
0003d0 b9 85 04 be 7b e1 51 3e 39 39 9b 3e c3 df 12 be
       -0.12941636 0.2049617 0.30317095 -0.14343171
0003e0 3e e6 6e be a9 15 6f 3e 80 57 5e 3d ab a1 fd bd
       -0.23330018 0.23348106 0.054282665 -0.12384351
0003f0 54 3b be b1 a8 ac 42 3e 5a 08 5d 3e 88 28 93 3d
       -5.5364726e-09 0.19011176 0.21585217 0.07185465

model_embedding.bias f4 [32]
000000 53 da f1 bc 3c c9 05 bd 66 75 a0 37 e6 e5 15 bd
       -0.02952305 -0.032662615 1.9128154e-05 -0.0365962
000010 83 0e 9d 3c af 59 68 3b 65 a8 36 bb d6 2e fc 33
       0.019171959 0.0035453846 -0.0027871367 1.1743184e-07
000020 86 dd 06 37 4c 27 84 36 05 9c 64 b6 77 dd 8e bc
       8.0386e-06 3.9384813e-06 -3.4065463e-06 -0.017439587
000030 cc e8 14 bc 86 aa 80 bb f4 0e 88 35 b7 a0 6d ba
       -0.009088706 -0.003926578 1.0137142e-06 -0.0009064781
000040 9b 37 a3 bb 1b 85 32 bb 0e 94 a5 36 84 6c 86 3a
       -0.004980994 -0.0027239982 4.934619e-06 0.0010255729
000050 16 b4 9c bc a5 a0 26 b7 41 0b 1f 3a e5 05 c7 36
       -0.01912884 -9.931774e-06 0.00060670456 5.9313484e-06
000060 09 d9 90 b6 d5 bd b7 b9 07 f5 83 b6 9d 80 80 36
       -4.3168006e-06 -0.00035045916 -3.932629e-06 3.82967e-06
000070 c0 c7 db bc 14 49 22 b9 8c 8b 4a bb 14 8c 85 3c
       -0.026828647 -0.00015476748 -0.003090593 0.016302146

dataset_embedding.weight f4 [16, 3]
000000 2d 96 8d be eb 11 bd 3e d9 2a ef 3e ac d6 e6 be
       -0.27653638 0.36927733 0.46712378 -0.45085657
000010 d6 3a a3 3e 37 bc 9b bd 38 02 15 3f 31 52 68 3e
       0.31880826 -0.076042585 0.5820651 0.22687604
000020 ca 56 07 3f 9f 57 19 3f 46 e9 19 3e ab 00 55 be
       0.52866805 0.59899324 0.15030393 -0.20801036
000030 a7 f9 d0 3d cb c4 b7 3e 6e 18 fd be cd db 25 bf
       0.102038674 0.3589233 -0.494327 -0.64788514
000040 b5 fb 12 3f 22 05 0d 3f 70 81 25 bf da 25 ea 3d
       0.57415324 0.5508596 -0.6465063 0.11433001
000050 4a d8 7e be 44 73 78 bc 75 0d 41 be 76 0f 06 3f
       -0.24887195 -0.0151642 -0.1885279 0.5236734
000060 c9 67 12 bf 57 21 82 be ff 44 d8 bd 54 e0 ae be
       -0.57189614 -0.2541606 -0.10560035 -0.34155524
000070 f0 2e 58 bd c4 c8 ee be a5 a3 d5 3e 32 33 9d be
       -0.052779138 -0.46637547 0.41726413 -0.3070312
000080 3c 14 aa 3e 3b c9 08 bf bd 1a 02 3f 2d b9 ea be
       0.33218563 -0.53432053 0.5082205 -0.45844403
000090 aa 12 22 3f ae 3f 62 bd 84 fa 74 bd c6 99 b9 be
       0.6330973 -0.05523651 -0.059809223 -0.36250132
0000a0 02 5b e7 be 79 7c 44 bd 29 e0 cd 3e 3a a2 ba 3e
       -0.4518662 -0.04797027 0.40210083 0.36451894
0000b0 43 6e e6 be 95 b2 b6 bd 64 90 ef be 57 24 bd 3e
       -0.45005998 -0.089207806 -0.4678985 0.36941788

dataset_embedding.bias f4 [16]
000000 4e 1d 5a 3c 70 c6 2c ba 3c 9e df 3d ca 28 b5 b8
       0.013312651 -0.0006590849 0.10918853 -8.63835e-05
000010 ef 01 10 3e 17 37 89 3d fe b0 96 bc 8e c0 c4 3d
       0.14063238 0.06699961 -0.018394943 0.096070394
000020 a4 49 37 bc 4f db 21 bd 01 b0 3e 3d b5 ab db 3c
       -0.011186991 -0.03951579 0.04655457 0.026815275
000030 f3 5f 27 3e fa 9e 4c bc 93 72 9d 36 19 2d 31 bc
       0.16345195 -0.012489075 4.692303e-06 -0.010813975

tensor_network.0.weight f4 [16, 1]
000000 82 f1 62 3e 67 f4 f0 be 11 e4 bf 3b 66 c8 8d 3e
       0.2216244 -0.47061464 0.005856045 0.27691954
000010 82 56 68 3e 5c 8e 06 3f ab aa 3e 3f e9 ea 75 be
       0.2268925 0.52560973 0.7447917 -0.24015392
000020 20 07 09 3f 2a b7 84 3e 29 6e bb 3e d5 ff 20 be
       0.53526497 0.25920993 0.36607483 -0.15722592
000030 4e 50 50 3e 27 a8 84 3c 95 cc 4f 3e 35 94 f9 3e
       0.20343134 0.016193463 0.20292886 0.48745885

tensor_network.0.bias f4 [16]
000000 72 e9 db 3e f8 39 9e be db 3e 84 bd 2a cd 01 3f
       0.42951542 -0.30903602 -0.06457301 0.5070368
000010 1b 85 61 3e 80 b5 fc bd 8a 64 3f bf 34 b2 5a 3d
       0.22023432 -0.12339306 -0.74762785 0.053392604
000020 62 1a 6f bd 4c 21 21 bf fb 78 db be 7f a8 3c 3e
       -0.05837477 -0.6294143 -0.42865738 0.18423651
000030 af 6a 36 bf f3 43 ef 3d e2 0d a0 be bf 18 15 38
       -0.71256536 0.11682882 -0.31260592 3.5547415e-05

tensor_network.2.weight f4 [16]
000000 ed be 7b 3f 96 60 25 3f e0 a3 5e 3f 8b 94 7b 3f
       0.98338205 0.64600503 0.86968803 0.98273534
000010 7e 59 7b 3f f2 a9 79 3f 1e 0f 7b 3f eb af 7e 3f
       0.9818343 0.9752494 0.9806994 0.9948718
000020 9b 26 78 3f ee 2c 7b 3f ff de 7c 3f 3e fd 7b 3f
       0.9693391 0.9811543 0.98777765 0.9843329
000030 77 d9 7b 3f fd 04 7b 3f 33 31 80 3f f1 b6 77 3f
       0.983787 0.98054487 1.0015014 0.9676352

tensor_network.2.bias f4 [16]
000000 83 38 0f 37 53 fd 15 ad 57 ba cb b7 2c 0a 57 b7
       8.536622e-06 -8.525919e-12 -2.4286257e-05 -1.2817367e-05
000010 01 ed 81 37 66 8b 0a 37 5c 50 0e 38 f8 95 74 37
       1.5488362e-05 8.257897e-06 3.393028e-05 1.4578451e-05
000020 a9 ce 83 b7 56 4d c7 36 62 b4 cc b6 e0 7b cd 36
       -1.571265e-05 5.9396652e-06 -6.100673e-06 6.123897e-06
000030 0e 9c 44 36 e2 bb 50 37 5b bd 9c b6 e8 55 19 b7
       2.9297112e-06 1.2441511e-05 -4.671206e-06 -9.139512e-06

tensor_network.2.running_mean f4 [16]
000000 f2 27 d4 42 00 00 00 00 f3 6e 2f 40 51 5d 04 43
       106.07802 0.0 2.7411468 132.36452
000010 8b bb d8 42 f3 58 79 43 b8 42 b0 43 d6 45 c3 3c
       108.366295 249.34746 352.52124 0.023837011
000020 51 26 7e 43 af 6b f4 42 49 12 2d 43 5b 71 a5 3d
       254.14967 122.21032 173.07143 0.080782615
000030 74 da bf 42 fd 95 f9 40 5c ae bf 42 97 8e 67 43
       95.92667 7.799559 95.840546 231.55699

tensor_network.2.running_var f4 [16]
000000 8e e2 b2 47 a8 cf 53 1e f9 d5 7a 42 34 4f 0b 48
       91589.11 1.1213189e-20 62.708958 142652.81
000010 1a 71 bb 47 d5 24 f9 48 7a 5f 79 49 f1 69 3d 3a
       95970.2 510246.66 1.0214316e+06 0.00072255643
000020 2a 63 01 49 36 6d f0 47 30 80 70 48 19 e4 07 3c
       529970.6 123098.42 246272.75 0.008294129
000030 c2 6e 94 47 56 fa f1 43 e6 9b 93 47 4b c5 d6 48
       75997.516 483.95575 75575.8 439850.34

worker_network.0.weight f4 [16, 1]
000000 6e cc 50 3f 7b d8 49 3f 6a 82 44 bd 95 4c 02 bf
       0.81561935 0.7884595 -0.047975935 -0.50898105
000010 01 53 74 be e5 7d fd 3e 97 01 31 3f 48 c8 1b bf
       -0.23859788 0.49510112 0.6914305 -0.6085248
000020 cc cc eb be 1d 8d ea 3e 5c 8f e1 be 2a 4e ca 3e
       -0.46054685 0.45810786 -0.44054687 0.3951276
000030 60 d3 ed 3e ac e1 12 be 66 8b f0 3e ab 81 2e 3f
       0.4645033 -0.143439 0.46981353 0.6816661

worker_network.0.bias f4 [16]
000000 8c 88 2b bf 6d 7f 8b bd 7b d7 87 3e 4f 6e 05 3e
       -0.6700523 -0.06811414 0.26531586 0.1303036
000010 20 1f 47 3f dd 7d 15 3f 60 b5 2b be f7 96 20 bf
       0.7778187 0.5839518 -0.16768408 -0.62730354
000020 ca 4b 30 bc 6a 94 3e 3c 1b 55 61 3e a6 49 b0 3e
       -0.010760257 0.011632064 0.22005121 0.3443119
000030 fe d0 fb 3a c3 33 d2 be ef 87 f4 be 9b 93 72 bf
       0.0019212065 -0.41055116 -0.4775996 -0.9475648

worker_network.2.weight f4 [16]
000000 14 83 7e 3f a9 92 77 3f 75 b9 81 3f 58 aa 7d 3f
       0.9941876 0.9670816 1.0134722 0.9908805
000010 95 d4 7d 3f c1 23 81 3f 14 4d 7e 3f 96 60 25 3f
       0.991525 1.0089036 0.9933636 0.64600503
000020 a3 0d 59 3f f0 84 7a 3f fe 04 7e 3f 58 cb 73 3f
       0.84786433 0.97859097 0.9922637 0.9523215
000030 c3 50 7c 3f 96 60 25 3f 7d 3f 73 3f 20 04 7e 3f
       0.9856073 0.64600503 0.9501875 0.99225044

worker_network.2.bias f4 [16]
000000 87 94 a1 b5 e3 6b 8d b6 d4 b4 f1 37 d4 85 47 37
       -1.2038662e-06 -4.214687e-06 2.8813643e-05 1.1892484e-05
000010 9e f0 ce 37 ff 6c ca b7 eb 60 67 b7 9c 37 c0 ab
       2.466916e-05 -2.4131032e-05 -1.3791238e-05 -1.3657855e-12
000020 0f 36 f1 b4 f4 8c d5 36 97 3d a4 b7 5f 11 27 38
       -4.492908e-07 6.3643038e-06 -1.9579003e-05 3.983208e-05
000030 c9 20 ad b7 cb 0d 43 2b 61 2c ba 36 01 e0 a7 35
       -2.0638474e-05 6.929706e-13 5.5483983e-06 1.2507663e-06

worker_network.2.running_mean f4 [16]
000000 3e b3 3b 40 12 54 4a 40 dc 6d 18 3e 91 a4 6a 3d
       2.932815 3.1613812 0.14885658 0.05728585
000010 31 c5 cc 3e 2d 92 26 40 49 a0 2d 40 00 00 00 00
       0.39994195 2.6026719 2.712908 0.0
000020 a8 ba e4 30 bd 6a f0 3f e3 84 c6 3d d6 7f fa 3f
       1.6642234e-09 1.8782574 0.09693315 1.9570262
000030 9f 75 f2 3f 00 00 00 00 8e d6 d1 3f 2e 2a 0f 40
       1.8942145 0.0 1.6393602 2.2369494

worker_network.2.running_var f4 [16]
000000 2e f3 81 41 76 b8 85 41 73 3d 67 3c bb a4 88 3b
       16.24374 16.715069 0.014113772 0.004170028
000010 1c d2 fb 3d 54 de d6 40 9d a8 49 41 a8 cf 53 1e
       0.122959346 6.7146397 12.603665 1.1213189e-20
000020 19 a4 ee 2c ca 11 b8 40 3e a5 43 3c 69 19 89 40
       6.7825853e-12 5.7521715 0.011941252 4.284352
000030 87 39 bd 40 a8 cf 53 1e ad 70 a8 40 d5 34 29 41
       5.9132724 1.1213189e-20 5.2637544 10.575398

batch_network.0.weight f4 [16, 1]
000000 6b 3c f0 3e 1b ba 23 3f 5b e5 14 bd 18 aa b2 be
       0.46921095 0.6395585 -0.036351543 -0.34895396
000010 41 16 c1 3e 93 51 09 bf 15 e1 1f bd 12 98 a5 3e
       0.3771229 -0.536401 -0.039033014 0.32342583
000020 b3 5f bb 3e be f3 35 3f 39 8b c0 bd 18 7a de be
       0.3659645 0.71075046 -0.094015546 -0.43452525
000030 99 6e 61 bd bd af d6 be 50 7c 21 3f 26 77 ef 3d
       -0.055037115 -0.41930953 0.6308031 0.11692648

batch_network.0.bias f4 [16]
000000 3a e0 21 3f 8b c5 f2 3b d0 44 78 be 6c 47 09 bb
       0.6323277 0.007408803 -0.24245 -0.0020947112
000010 1c a9 f3 3d 35 2c ab bb d1 bc bb be 22 69 ef 3e
       0.118974894 -0.0052237757 -0.36667493 0.46759897
000020 29 da e6 be 44 8c 2c bf 44 2f d3 3e af a3 d6 bb
       -0.45088318 -0.6740153 0.41246998 -0.0065502743
000030 33 b3 55 bd 34 15 79 3d 47 37 3f bf 15 c2 cf 3d
       -0.05217285 0.060811237 -0.7469372 0.1014444

batch_network.2.weight f4 [16]
000000 87 7d 79 3f 33 b6 7b 3f 96 60 25 3f 96 60 25 3f
       0.97457165 0.9832489 0.64600503 0.64600503
000010 fc 42 78 3f ec 81 42 3f 96 60 25 3f 8d 62 76 3f
       0.9697721 0.75979495 0.64600503 0.96244127
000020 bc 35 78 3f 6c 5f 7c 3f 94 27 7b 3f 96 60 25 3f
       0.9695699 0.985831 0.98107266 0.64600503
000030 96 60 25 3f bd ed 7b 3f 0b 48 7e 3f 6d aa 7d 3f
       0.64600503 0.98409635 0.9932868 0.99088174

batch_network.2.bias f4 [16]
000000 08 5a 0b 37 d9 fc b6 b6 b5 88 85 2b 61 cf 95 ac
       8.306008e-06 -5.453458e-06 9.488162e-13 -4.2578584e-12
000010 be ce 4d 37 41 8c 80 34 87 61 32 ab cc b3 b8 b7
       1.2267088e-05 2.3943906e-07 -6.337365e-13 -2.2018234e-05
000020 7a 27 39 36 5f 1a fb b7 f8 9d 36 37 b7 e5 fa ac
       2.7590127e-06 -2.9933812e-05 1.0884825e-05 -7.130931e-12
000030 4f e2 54 2c 88 43 9c 37 ef 8b 82 b7 6a e2 1d 34
       3.0252639e-12 1.8628096e-05 -1.556237e-05 1.4704133e-07

batch_network.2.running_mean f4 [16]
000000 f2 18 28 43 c2 04 64 43 00 00 00 00 00 00 00 00
       168.09744 228.01859 0.0 0.0
000010 a7 d6 06 43 16 81 37 1f 00 00 00 00 48 2d e8 42
       134.83849 3.8858535e-20 0.0 116.08844
000020 19 eb 01 43 df 6f 7c 43 0e 71 6e 3e 00 00 00 00
       129.91835 252.437 0.23285314 0.0
000030 00 00 00 00 34 70 0c 3d e6 1a 60 43 5e 98 28 42
       0.0 0.034286693 224.10507 42.148796

batch_network.2.running_var f4 [16]
000000 8d 9d ac 48 50 02 20 49 a8 cf 53 1e a8 cf 53 1e
       353516.4 655397.0 1.1213189e-20 1.1213189e-20
000010 e6 69 5f 48 68 2a 54 1e a8 cf 53 1e 35 8d 24 48
       228775.6 1.1231956e-20 1.1213189e-20 168500.83
000020 45 64 50 48 99 91 44 49 fd ce 2b 3d a8 cf 53 1e
       213393.08 805145.56 0.041945446 1.1213189e-20
000030 a8 cf 53 1e 91 49 6e 3a 3c ff 1a 49 5f 11 ae 46
       1.1213189e-20 0.0009089942 634867.75 22280.686

ps_network.0.weight f4 [8, 1]
000000 d9 b1 1d be ac c2 13 be 49 4c 88 bd c9 83 b1 bd
       -0.15399875 -0.1442973 -0.06655175 -0.08667714
000010 12 3b 64 bb f6 fd 3a 3c c1 4e 97 be 50 f5 e3 bd
       -0.0034825248 0.011413088 -0.29552272 -0.11130774

ps_network.0.bias f4 [8]
000000 2a d7 05 3f 4f 2f db 3e 38 ae 21 3d 09 63 9f be
       0.5228144 0.4280953 0.03947279 -0.31130245
000010 4a 81 f3 be 61 73 5d 3e 10 6b b6 be d6 c6 dc 3e
       -0.47559577 0.21626045 -0.35628557 0.4312045

ps_network.2.weight f4 [8]
000000 be e5 7b 3f d9 29 77 3f f7 62 77 3f 96 60 25 3f
       0.98397434 0.9654823 0.96635383 0.64600503
000010 96 60 25 3f 13 38 74 3f 96 60 25 3f 3d b0 7e 3f
       0.64600503 0.9539806 0.64600503 0.9948767

ps_network.2.bias f4 [8]
000000 68 83 59 b7 86 62 a2 37 6a 48 00 b7 d2 84 b1 2c
       -1.2964803e-05 1.9357783e-05 -7.646255e-06 5.0453886e-12
000010 21 79 21 2c f3 ec d4 b7 07 42 ff ac 38 14 19 b7
       2.2946716e-12 -2.5382707e-05 -7.2548664e-12 -9.124218e-06

ps_network.2.running_mean f4 [8]
000000 20 5c ea 3e 2f 9e bb 3e 21 49 c1 3c 00 00 00 00
       0.4577341 0.36644122 0.02359444 0.0
000010 00 00 00 00 d8 32 64 3e 00 00 00 00 68 fc c4 3e
       0.0 0.2228502 0.0 0.3847382

ps_network.2.running_var f4 [8]
000000 6a 3c bd 3b 43 eb a9 3b 72 ab e6 39 a8 cf 53 1e
       0.005775024 0.005185516 0.00043996755 1.1213189e-20
000010 a8 cf 53 1e 91 2b fc 37 a8 cf 53 1e 28 9b 45 3b
       1.1213189e-20 3.0061028e-05 1.1213189e-20 0.0030152295

main_network.0.weight f4 [128, 104]
000000 4e 28 80 3d 32 c5 33 bb 0e 74 02 bd b7 dc 16 bd
       0.062576875 -0.002743077 -0.03184896 -0.036831584
000010 95 40 39 3d 4b 4d cb 3c 63 c4 51 3d 22 be 98 bd
       0.045227606 0.02481713 0.05121268 -0.0745814
000020 44 a0 13 bc 24 8e b3 3d 1e b9 8e 3c dd f2 6d bc
       -0.009010378 0.087673455 0.017422255 -0.014523235
000030 35 b6 3f 3d f1 5d 91 bd 31 7a bb 3b 29 19 af 3c
       0.046804626 -0.07097996 0.0057213535 0.021374302
000040 f0 f4 8b 3d f0 61 56 3c 2e bd 84 3d 3e 37 8a 3d
       0.068338275 0.013084874 0.06481396 0.06748818
000050 14 f8 91 bc db 9d 77 3c 5e 79 22 bd 90 a7 df bc
       -0.017818488 0.015113319 -0.039666526 -0.02730158
000060 20 98 54 bc 49 62 2e 3d 40 e0 fd 3b eb 54 a8 3d
       -0.012975723 0.0425742 0.00774768 0.08219322
000070 6a f5 86 3d 8a 98 a3 3d bf 63 51 3a a0 8a 43 bd
       0.06589778 0.07988079 0.00079875806 -0.047739625
000080 f2 aa 30 bd 8f 67 cc bd 38 6e 1b 3d a5 f4 14 3d
       -0.043131776 -0.0998069 0.03794691 0.036366124
000090 82 9c a0 bd c0 7f 1a bd 5d e3 59 bd 5f d5 3e 3d
       -0.078423515 -0.03771949 -0.053195346 0.046590205
0000a0 18 b6 9c bd b3 1e 76 bc e2 7c 18 3d 96 a5 8a 3c
       -0.07651919 -0.015021968 0.037228473 0.01692466
0000b0 c4 1e 00 3e 1c 5a 65 bd 84 2d ee 3d 48 5e 5f 3d
       0.12511736 -0.055994138 0.11629775 0.054533273
0000c0 d4 f0 70 3d 73 af db 2c f7 84 ad bc 10 30 90 3d
       0.05882342 6.243833e-12 -0.021181567 0.07040417
0000d0 74 4d bc bd a9 a5 e2 bd ca 99 e6 bd ca e6 cf 3d
       -0.091944605 -0.110667534 -0.11259802 0.101514414
0000e0 0a c9 35 3d 0c d2 54 bd f0 c1 75 bd e6 ba bc bd
       0.04438118 -0.05195813 -0.059999406 -0.092153355
0000f0 a8 92 8f 3c f3 df 59 3b f3 64 df bd c6 d8 5c bc
       0.017525986 0.0033245056 -0.109079264 -0.013479417
000100 09 1e 02 bd d1 ac 97 bd f0 d9 84 3d df 1e ae 3d
       -0.031766925 -0.07406009 0.06486881 0.08501982
000110 86 f1 63 3d 16 1f 64 bd ac d9 7c 3c 06 25 79 ac
       0.055650257 -0.05569371 0.015432756 -3.540558e-12
000120 e0 06 a6 bc c7 06 77 bd 67 ad e4 3a 73 1d 44 3d
       -0.02026695 -0.060309198 0.0017446697 0.047879647
000130 fc c7 62 3d 07 bb 26 2d ef ae 48 bd a6 ba 99 bd
       0.0553665 9.477536e-12 -0.048994955 -0.075063035
000140 8c 83 11 bd 64 b9 56 bd 14 c4 0f ac 0a 40 d3 ab
       -0.035525844 -0.052422896 -2.0430367e-12 -1.5010226e-12
000150 42 97 61 bd 97 23 38 3b 1c 2b a8 ac a0 7a a7 bc
       -0.05507589 0.0028097385 -4.7796333e-12 -0.020444214
000160 e9 0f ae 3d 0a 92 2c bc 0d d7 72 bd f3 ea 50 2e
       0.08499128 -0.010532865 -0.05928712 4.75024e-11
000170 a0 5d ce af f5 e4 bf bc 72 4d a9 bd 28 dc fe bb
       -3.7537706e-10 -0.023424605 -0.08266725 -0.0077777095
000180 b9 51 0c 3d 2b 3a ab 3d 2f 0c bf 3d cd be 13 b3
       0.034257624 0.08360704 0.09328496 -3.4399637e-08
000190 08 a2 66 2b de 46 80 bd 8a 04 80 ad b0 9d 45 bd
       8.193728e-13 -0.06263517 -1.4553931e-11 -0.048246086
0001a0 80 5c 08 3d 96 61 b9 3c 68 d9 d2 bd 89 f7 9b bd
       0.03329134 0.02262954 -0.10295373 -0.07615573
0001b0 69 da 9b bc af 44 4e 3d a8 04 89 bd 3f 51 19 bd
       -0.019025045 0.05035847 -0.06690341 -0.037430998
0001c0 b5 97 fe bd c5 7f 84 3c e8 57 9a 3d ac c5 f3 bc
       -0.124312796 0.016174207 0.07536298 -0.029757343
0001d0 17 e4 b2 bb a0 b2 8b 3d 76 95 2d bd 9f 15 b6 bd
       -0.0054593193 0.068211794 -0.042378865 -0.08890843
0001e0 c9 1a 93 bd 13 96 5e bd bd 80 c4 bd 99 e2 98 3b
       -0.07182843 -0.05434234 -0.095948674 0.0046656844
0001f0 e5 dc b1 bd d0 a0 8c 3d c3 76 d3 bd fc b1 e3 bd
       -0.086847104 0.0686661 -0.103253864 -0.11117932
000200 46 74 2f bd 1f 09 18 bd 3d 6e ed bb 45 70 a6 bd
       -0.042835496 -0.037118074 -0.0072458074 -0.081268825
000210 bf 46 41 bd 6f a8 9c 3b e8 88 8a 3c af ec 13 bc
       -0.04718661 0.004780821 0.016910985 -0.009028598
000220 1f 54 46 bd 57 60 49 bd f7 fe 3f 3d 59 64 6b bc
       -0.048420068 -0.049164142 0.046874013 -0.014367186
000230 77 26 9b 3b fe fb 53 bb c8 35 09 3e 60 48 ff 3c
       0.00473481 -0.0032346244 0.13399422 0.03116244
000240 8c 9f b5 3d e3 4b 7b 3d 01 da 9a bd 1d a9 fd 3d
       0.08868322 0.061351668 -0.07561112 0.123857714
000250 54 dd 40 bc ec e5 12 bd 8d f1 c5 bd 5b 15 aa 3d
       -0.011771519 -0.0358638 -0.09665213 0.083048545
000260 c2 29 58 3d 69 70 88 2c 88 85 a8 bc be 7c 64 3d
       0.0527742 3.8778325e-12 -0.020571485 0.055783026
000270 21 0b 8e bc 3e 2f b5 3d b8 f6 cc bc b8 9b 03 bd
       -0.017339291 0.08846901 -0.025019988 -0.032130927
000280 e5 c9 1e bc 1b 44 a6 3d 6a 9b ad 3d 25 ac 53 bd
       -0.00969169 0.08118459 0.084769085 -0.05167784
000290 c3 df e4 bc ff 98 ea 3c d0 f4 49 bd f1 1e 0e bd
       -0.02793873 0.028637407 -0.049305737 -0.034697477
0002a0 e4 67 db 3c 81 ee a5 bc 5e 1f 55 3d 57 12 0a bd
       0.026782937 -0.02025533 0.052031867 -0.033708896
0002b0 cb ce 6b bd d4 dc 4d bd 2c 4d af 3d ab 12 8e b3
       -0.05757026 -0.050259426 0.08559641 -6.615786e-08
0002c0 73 33 f4 bc ea a0 47 bd 8c b9 78 bd f3 d3 6f bd
       -0.02980969 -0.048737444 -0.060723826 -0.05855174
0002d0 06 3f a2 bd 36 37 28 af 4d 23 a7 3d f3 81 a3 3d
       -0.07922177 -1.5299126e-10 0.0816103 0.0798377
0002e0 31 85 c7 3c 5a 87 cd 3b c8 3e 43 ac 5c 6c 90 b1
       0.024355503 0.0062722387 -2.7746017e-12 -4.2032706e-09
0002f0 6b c9 33 3c dc 78 c6 3c af a3 0c ac ee 1b 91 3d
       0.010973315 0.024227552 -1.998606e-12 0.07085405
000300 20 58 8c bd 42 d6 8f bb 90 0a 7f bd f5 34 59 b3
       -0.06852746 -0.004389555 -0.062265933 -5.0572414e-08
000310 3e a9 d3 ac 57 cc 0e bd 40 17 90 bd a9 48 46 bd
       -6.0157703e-12 -0.034862842 -0.070356846 -0.048409138
000320 d3 e2 3b bb cc de a6 3d fe af 81 3d 18 0e 02 ac
       -0.0028669133 0.08147964 0.06332396 -1.8481935e-12
000330 55 e2 99 af c3 0c 9f 3d 35 1b 4c b0 99 de 5e bd
       -2.7991356e-10 0.07766106 -7.425343e-10 -0.054411504
000340 42 09 e3 3c 1d 72 81 bd c3 d2 cd 3c 33 3e dc 3c
       0.027714375 -0.063205935 0.025124913 0.026885128
000350 7b 0b 68 bc 84 9d d0 3a 54 51 08 3d b0 cc 85 bd
       -0.014162893 0.0015916084 0.033280686 -0.06533182
000360 f4 87 67 bd 55 7a db bc be d7 9b bd b5 58 b1 3d
       -0.05652614 -0.02679173 -0.07609509 0.08659498
000370 30 86 4c 3d 29 d1 b1 bd 32 3e c7 3c 04 99 c5 3d
       0.04993266 -0.08682472 0.02432165 0.09648326
000380 cc d2 20 3d 6c fa 8c bc f0 c1 a1 ba 66 a7 ac 3d
       0.03926353 -0.017209254 -0.0012341123 0.08430366
000390 ed bd 9a bb 18 32 9f 3d 3b b6 db bd 45 84 f3 39
       -0.004722348 0.077732265 -0.10728117 0.0004644712
0003a0 5a 07 7f bc d9 55 aa bc 37 15 83 3d 04 e2 d0 bd
       -0.015565718 -0.020792888 0.06400531 -0.10199359
0003b0 4c ae 36 bd 85 bc 7b 3d be d3 e1 3b 12 75 95 3b
       -0.044599816 0.061459083 0.0068916967 0.004561075
0003c0 c4 d4 b8 3d d9 c9 cf 3b f7 4f ad 3a c8 d6 75 3d
       0.09024957 0.006341201 0.0013222684 0.060019284
0003d0 16 bb a0 bd 6d 7e a7 3d d4 dc ad 3d 51 91 a3 3d
       -0.07848184 0.08178411 0.08489385 0.07986701
0003e0 5e fe a6 bd 0f ff 02 bd 6a 55 89 3d b0 fd 0c bc
       -0.081539854 -0.031981524 0.067057446 -0.008605406
0003f0 45 12 c6 3d de 0b 85 bd 6f 12 de bd e1 70 4e 3d
       0.096714534 -0.06496404 -0.1084336 0.05040062

main_network.0.bias f4 [128]
000000 ca 93 f7 34 b7 43 d1 b5 1e d0 2b b6 b7 a0 b1 36
       4.6114866e-07 -1.5591421e-06 -2.5602126e-06 5.2937207e-06
000010 00 2d 93 37 49 32 68 35 65 25 c1 36 c2 ee 86 35
       1.754472e-05 8.649991e-07 5.7562015e-06 1.0053266e-06
000020 12 48 e4 34 a1 a7 23 36 ec 66 c0 35 59 4a 83 35
       4.2520747e-07 2.4386466e-06 1.4335069e-06 9.781899e-07
000030 3e 46 aa 36 c5 e1 71 36 7b ee 13 b7 7c f2 0e b6
       5.074572e-06 3.6043214e-06 -8.817408e-06 -2.1300793e-06
000040 48 1c d5 36 e0 90 c1 37 b0 31 a3 b6 58 d8 32 33
       6.351187e-06 2.3074856e-05 -4.863563e-06 4.1640618e-08
000050 69 86 1b b6 8f 07 e3 b5 3c 52 8e b6 88 d5 88 b5
       -2.3175037e-06 -1.6915018e-06 -4.241503e-06 -1.0194935e-06
000060 9a d2 96 36 0b 92 95 37 a6 f1 4f b7 2d bc 4c b5
       4.4948656e-06 1.783019e-05 -1.2394425e-05 -7.6269754e-07
000070 81 8a 00 35 29 36 e8 b6 70 00 71 b5 7a 6f d6 33
       4.7885266e-07 -6.920444e-06 -8.978013e-07 9.985429e-08
000080 29 73 13 36 b2 a6 39 b6 9f b0 1c b6 d3 7b e5 36
       2.197174e-06 -2.7664178e-06 -2.3348618e-06 6.839147e-06
000090 db d4 ae b6 1b 5a 38 b6 2d 43 aa 35 cc 1e 95 36
       -5.2103837e-06 -2.7470585e-06 1.2685538e-06 4.4441313e-06
0000a0 8c 25 90 37 e7 a8 58 36 b2 a1 c6 35 92 a6 3d b7
       1.7183622e-05 3.2284822e-06 1.4799209e-06 -1.13040605e-05
0000b0 f6 83 b8 36 40 b6 b0 b6 4d 18 71 b6 2b 0d 1b 37
       5.4989896e-06 -5.2664254e-06 -3.5925943e-06 9.241786e-06
0000c0 36 34 0a 36 c7 27 01 b7 39 ac 2e 36 f7 48 00 b6
       2.0593993e-06 -7.698261e-06 2.6028267e-06 -1.9115957e-06
0000d0 b9 f6 9e b4 0a f3 2b b5 1f f0 81 b7 f2 d6 23 34
       -2.9609308e-07 -6.405613e-07 -1.5489813e-05 1.5258755e-07
0000e0 9b 19 6b 37 b4 5b d9 b6 a2 b2 35 b5 18 37 46 36
       1.4013053e-05 -6.4777796e-06 -6.76877e-07 2.9536368e-06
0000f0 9a 22 d9 b5 ae e2 17 b7 37 ca 95 b7 71 07 85 37
       -1.617783e-06 -9.053079e-06 -1.7856348e-05 1.58583e-05
000100 11 50 6b b7 62 1f 9c 36 e0 50 4d b6 12 5a 32 b7
       -1.4025733e-05 4.6528157e-06 -3.0594456e-06 -1.0630598e-05
000110 20 a0 bb 36 cc 65 81 37 6c a6 20 b6 ed a8 1b b7
       5.5916753e-06 1.5425401e-05 -2.3938728e-06 -9.278051e-06
000120 2b f9 09 35 29 e7 47 b6 5c d0 63 b6 ec f0 75 37
       5.1399064e-07 -2.9787864e-06 -3.3946917e-06 1.4659232e-05
000130 59 26 5c 36 17 b3 84 b6 3e fb 01 37 95 56 7d 35
       3.2804876e-06 -3.9547554e-06 7.747496e-06 9.437584e-07
000140 df 75 32 b7 b9 12 61 b7 53 4e a1 37 f5 dd b5 36
       -1.0637071e-05 -1.3415404e-05 1.9229168e-05 5.4200596e-06
000150 5e 02 0f 36 bd cf 6f b6 31 51 37 b6 b1 00 f7 b6
       2.1310038e-06 -3.5734695e-06 -2.7316385e-06 -7.361254e-06
000160 64 6e a0 36 32 f0 db b6 03 d8 66 b6 f7 95 37 b7
       4.7812227e-06 -6.554671e-06 -3.4398406e-06 -1.0942566e-05
000170 42 24 02 36 2d bc 55 b5 e5 c3 80 36 4e 91 50 36
       1.9392614e-06 -7.9622515e-07 3.8375024e-06 3.1078994e-06
000180 5b 82 5e b4 e5 84 95 b7 34 7b 68 b5 d1 69 68 b6
       -2.0722784e-07 -1.7824068e-05 -8.660602e-07 -3.4632287e-06
000190 8b 9e a7 b7 7a 1e 1d b7 d2 b3 02 35 ea 37 9b 37
       -1.9981779e-05 -9.365025e-06 4.8690447e-07 1.8503477e-05
0001a0 b4 97 9b b6 db 5f 71 b6 91 b1 1b 36 f9 6a 0b b6
       -4.6370205e-06 -3.5967594e-06 2.3200157e-06 -2.077488e-06
0001b0 74 18 0a 36 80 fc d4 b6 1a 47 5d 34 16 03 b8 b5
       2.0577836e-06 -6.347487e-06 2.0608095e-07 -1.3709966e-06
0001c0 84 9c b4 35 40 99 4a b6 8a c8 95 37 46 c9 19 37
       1.3456597e-06 -3.0189549e-06 1.7855567e-05 9.166373e-06
0001d0 b7 e5 2b 37 7f d2 67 37 0c f2 a1 36 a0 9c 1c b6
       1.0245879e-05 1.3817683e-05 4.826352e-06 -2.333698e-06
0001e0 80 95 d0 36 25 65 37 36 17 95 d4 36 8b 7b 8d b5
       6.216287e-06 2.7327999e-06 6.3354487e-06 -1.0541274e-06
0001f0 e3 6a 49 37 1a 2e 5c 37 17 4a 8d b6 96 d3 0d b7
       1.200542e-05 1.3123756e-05 -4.2107526e-06 -8.453519e-06

main_network.1.weight f4 [128]
000000 c4 df 82 3f 83 a1 79 3f 62 15 7d 3f 4d 60 85 3f
       1.0224538 0.9751207 0.9886075 1.0420014
000010 7b 03 76 3f 71 46 79 3f 13 26 84 3f 7d 98 7c 3f
       0.9609906 0.9737311 1.0324119 0.9867018
000020 64 0c 80 3f d3 ba 82 3f 4a e8 77 3f 96 98 7e 3f
       1.0003781 1.0213264 0.9683882 0.9945158
000030 1f bd 82 3f 5e 80 78 3f 0f bd 7c 3f 64 6a 83 3f
       1.0213965 0.9707087 0.9872598 1.0266843
000040 db a3 81 3f fd fe 7c 3f 2a c0 80 3f 38 96 79 3f
       1.012813 0.9882658 1.0058644 0.9749484
000050 9a 26 7d 3f a3 1b 89 3f cb b3 7e 3f 3e f8 75 3f
       0.98887026 1.0711559 0.9949309 0.9608191
000060 9c 8a 76 3f 8e bf 82 3f 82 04 89 3f f0 1a 76 3f
       0.9630525 1.0214708 1.0704501 0.96134853
000070 99 f3 81 3f a3 7d 82 3f c7 ff 80 3f 7c 7c 7b 3f
       1.0152465 1.0194591 1.0078057 0.98236823
000080 88 e3 7e 3f aa c2 73 3f 21 fe 81 3f 5b f5 6d 3f
       0.99565935 0.9521891 1.0155679 0.9295251
000090 9e 51 7d 3f 7f 9d 7a 3f 83 9c 73 3f a2 5e 80 3f
       0.9895266 0.9789657 0.9516069 1.002888
0000a0 64 cd 7b 3f ad e9 7b 3f 61 4e 87 3f c8 5a 82 3f
       0.98360276 0.98403436 1.0570794 1.0183954
0000b0 72 2f 79 3f eb f6 76 3f b9 9b 83 3f 61 46 88 3f
       0.9733802 0.96470517 1.0281898 1.0646478
0000c0 f5 73 82 3f 89 fc 80 3f 01 62 7e 3f cd c8 7a 3f
       1.0191637 1.0077068 0.9936829 0.9796265
0000d0 37 6d 79 3f 4a 75 6e 3f 88 d0 84 3f ab 71 6f 3f
       0.97432274 0.9314772 1.0376139 0.9353282
0000e0 2a 17 88 3f df 4a 7e 3f 70 c8 7c 3f 33 dc 73 3f
       1.0632069 0.99332994 0.98743343 0.9525787
0000f0 4b e5 76 3f 35 ca 81 3f 8c a8 7b 3f 0e 70 79 3f
       0.96443623 1.0139834 0.9830406 0.97436607
000100 51 9d 79 3f 0b 1c 82 3f 50 e8 81 3f 2f 90 74 3f
       0.9750567 1.0164808 1.0149021 0.95532507
000110 19 5f 7a 3f 6d 2f 81 3f 02 03 7b 3f b3 0f 82 3f
       0.9780136 1.0092598 0.98051465 1.0161041
000120 1b e2 76 3f 76 5f 74 3f d0 ff 87 3f 96 ad 87 3f
       0.9643876 0.9545816 1.0624943 1.0599849
000130 0d f4 7c 3f 5e 47 7a 3f fa 75 7a 3f da d6 80 3f
       0.9880989 0.9776515 0.9783627 1.0065567
000140 bc 9f 7f 3f 2f 74 84 3f ef c5 7a 3f 75 34 86 3f
       0.9985311 1.0347956 0.9795827 1.0484759
000150 80 f6 86 3f 58 2b 7b 3f 5e 69 75 3f 01 ce 76 3f
       1.0543976 0.9811301 0.958639 0.96408087
000160 b1 0b 7e 3f 22 7b 7b 3f ec c0 82 3f ee eb 82 3f
       0.9923659 0.9823476 1.0215125 1.022825
000170 e2 71 7c 3f 1f 9d 79 3f f5 e6 81 3f b9 a9 82 3f
       0.9861127 0.9750537 1.0148607 1.0208045
000180 4d 69 82 3f c4 73 8c 3f 49 14 7d 3f 99 e1 84 3f
       1.0188385 1.0972829 0.9885908 1.0381347
000190 8e fa 82 3f f3 ed 80 3f 31 4e 80 3f 8f 53 83 3f
       1.0232713 1.0072616 1.0023862 1.0259875
0001a0 33 a6 7a 3f a8 bf 7d 3f 91 ba 77 3f 9f 98 7d 3f
       0.9790985 0.9912057 0.9676905 0.99061006
0001b0 a0 c4 80 3f 86 76 76 3f 6a 40 7c 3f 4f 53 84 3f
       1.0060005 0.962746 0.9853579 1.0337924
0001c0 ea 31 80 3f fe 10 77 3f 34 a3 80 3f 25 5a 83 3f
       1.0015233 0.96510303 1.0049806 1.0261885
0001d0 7d bd 84 3f 01 80 82 3f b3 99 84 3f 49 0e 75 3f
       1.0370327 1.0195314 1.0359405 0.9572492
0001e0 a7 f4 7a 3f 21 f3 76 3f 55 3b 86 3f c2 f7 80 3f
       0.9802956 0.96464735 1.0486857 1.007561
0001f0 39 ca 7f 3f cb ea 8d 3f 95 d3 78 3f 0d 04 80 3f
       0.9991794 1.1087278 0.9719785 1.0001236

main_network.1.bias f4 [128]
000000 b5 7a 05 3d 49 0f 8e 3c e7 ce 4e bc 1e 06 e2 3c
       0.032587726 0.017341273 -0.012622572 0.027590808
000010 12 7b 38 bd 97 e4 04 bc d1 d5 b4 3c 5b 20 1d bc
       -0.045039244 -0.008111141 0.022074612 -0.009590234
000020 c0 59 40 3c e7 97 0f 3d 1f c2 fc bc 36 96 39 3c
       0.011740148 0.035056975 -0.030854283 0.011327317
000030 41 c3 fd 3c 3d db de 3b 35 d7 32 bc ce 9b 94 3c
       0.030976893 0.0068010376 -0.010915567 0.0181407
000040 aa 2c ac bb 3f b8 db bb 66 44 02 3d 35 28 ac 3b
       -0.005254348 -0.0067053135 0.03180351 0.0052538165
000050 64 ef 08 bc 2e 42 ad 3d d5 e6 09 3d 0e fa b6 bc
       -0.008357856 0.084598884 0.033667404 -0.022336032
000060 69 73 a7 bc 3e 85 e3 3c 4f bb 42 3d b8 e7 ca bc
       -0.020440774 0.027773496 0.047541913 -0.024768695
000070 3c 81 9c 3c 20 8c 71 3d 97 fb 10 3a 11 f3 2c 3a
       0.019104593 0.058971524 0.0005530654 0.0006597499
000080 1c 74 81 3b 25 4d 82 bc 56 2c db 3c 9a 8f 51 bd
       0.003950609 -0.015905926 0.02675454 -0.05116234
000090 4d 18 4b bc a7 7a a0 bc 12 3f 43 ba 34 df 92 3c
       -0.0123959305 -0.019589735 -0.0007448058 0.017928697
0000a0 2e 39 fd bb 9a 6a a6 3c 74 b1 07 3d 06 8f 15 3d
       -0.0077277636 0.020314503 0.033128217 0.03651335
0000b0 23 bf 2d bc a2 51 4b bd 01 c9 48 3c e6 dc fc bc
       -0.010604653 -0.049638398 0.012254954 -0.030867051
0000c0 55 e9 3f 3c ea 24 c9 3c ec 48 90 3c 76 56 be bc
       0.011713346 0.024553735 0.017612897 -0.023234587
0000d0 8a 9b 74 bc 82 2c 85 bd 04 62 19 3d 16 28 09 bd
       -0.0149296615 -0.0650263 0.03744699 -0.033485495
0000e0 82 32 57 3d 7c c4 76 39 df a3 76 bc ed b8 c1 bc
       0.052538402 0.00023533584 -0.015053718 -0.02364775
0000f0 06 93 28 bc 1a c5 05 3d 25 0c db b9 07 d4 df 3b
       -0.010288959 0.032658674 -0.00041779983 0.0068306956
000100 88 5e eb bb fe e3 0f 3c c8 be 9b ba dd ea b8 bc
       -0.0071829 0.008782385 -0.0011882419 -0.022572929
000110 4f be b0 3c 15 53 14 3c d7 7c 87 bc 47 76 4f 3b
       0.021575121 0.009053011 -0.01653902 0.0031656192
000120 3e 4e 16 bc d0 2a 62 bd 77 9e 1f 3b 61 24 d7 3c
       -0.009173928 -0.05521661 0.0024355927 0.026262464
000130 c9 da 34 bb 12 e1 98 bc c0 e6 2a bc eb 1e a9 3c
       -0.0027596226 -0.01866201 -0.010430992 0.020644626
000140 ca d0 c1 bb 9b d7 a2 3c 0a 4e fb 36 80 6f 35 3d
       -0.005914782 0.0198782 7.489468e-06 0.044295788
000150 87 1f 98 3b 06 f0 0a bc 6b 61 38 bd 0f 67 b0 bc
       0.00464243 -0.008480078 -0.04501478 -0.021533517
000160 70 2f 3d 3c 0a 59 58 bb 7c 97 8d 3c 4f 0f 1a 3d
       0.0115469545 -0.0033012056 0.017284147 0.037612256
000170 38 f7 9e bc 6b 8e 98 bc 02 b6 da 3c e4 5b dc 3c
       -0.019404992 -0.018622598 0.026698116 0.026899286
000180 3e 74 b7 3b 30 d4 0d 3d 8f f2 a1 3c a4 02 11 3d
       0.005598574 0.034626186 0.019768981 0.03540291
000190 1a 5a 9a 3c 4c 09 b4 3b 4d fa 27 3c 57 13 50 3c
       0.018841792 0.0054942723 0.010252547 0.0126999235
0001a0 52 27 06 bd d9 a1 d1 bb d3 73 b1 bb 5a fc 88 bc
       -0.032752343 -0.0063974676 -0.0054154187 -0.016721893
0001b0 e1 b6 9a 3c 74 b0 25 bd 07 03 10 3d be 6b 44 3d
       0.018886032 -0.040451482 0.035159137 0.047954313
0001c0 5a 62 05 bd 6d 0a 05 bd e5 d6 b2 bb 8b 75 83 3c
       -0.0325645 -0.032480646 -0.0054577463 0.01604726
0001d0 49 81 6d 3c 95 5f cd 3c 11 2e 1a 3d 76 9b 07 bd
       0.014496156 0.025069991 0.03764159 -0.033107243
0001e0 0d 4d 5a bb 7e a7 ce bc c0 62 57 3d d5 16 e9 3c
       -0.0033310086 -0.02522635 0.05258441 0.02845327
0001f0 da 34 2c bb eb 13 99 3d ab 5d d6 38 9d 00 e3 3c
       -0.002627662 0.07474502 0.00010221762 0.027710253

main_network.1.running_mean f4 [128]
000000 18 68 3d 3e a6 58 19 be b2 71 65 3d f1 8f 8c 3e
       0.1849674 -0.14975223 0.05601663 0.2745357
000010 70 b7 f6 3b 4d d8 d4 bc 56 c3 45 3e 39 1d 49 bc
       0.0075291917 -0.025982046 0.19312796 -0.012275034
000020 31 d5 dc 3c a0 e1 12 be ec 24 95 3d 0a 18 56 bd
       0.026957126 -0.14343882 0.07282433 -0.05226902
000030 1b 45 cf 3d 0c c4 8d bc 4d de a4 3d ee ea ae 3d
       0.10120603 -0.017305396 0.08050213 0.08540903
000040 12 5f b7 3c eb c6 30 be d2 97 8e bd 24 d0 26 3b
       0.0223842 -0.17263381 -0.06962551 0.0025453651
000050 e9 79 10 be 7f d0 f2 bd 3b 5c 7a be d1 e1 2d 3e
       -0.14109005 -0.11856174 -0.24449246 0.16980673
000060 32 a9 29 3d 84 07 b9 3d e0 40 08 3e a0 67 15 be
       0.041421123 0.090346366 0.13305998 -0.14590311
000070 ba 0b 16 3e d3 bb 30 be e0 46 3d 3e 6b 8c bd 3d
       0.14652911 -0.17259149 0.18484068 0.09255298
000080 eb ff 62 be 3c 87 33 be 5e 51 e3 3d 13 8e 34 bd
       -0.22167937 -0.17532057 0.11099504 -0.044080805
000090 f1 be 51 be d6 0f de 3c cc ab e7 bd a3 b8 b9 bc
       -0.20482995 0.02710716 -0.113120645 -0.02267105
0000a0 92 80 7a be 01 be 80 be 96 52 7a 3d ca bb 34 bd
       -0.24463108 -0.2514496 0.061113916 -0.044124402
0000b0 8b ba 05 3b da d2 62 bd fd 7b 59 bb f1 f2 24 3e
       0.0020405378 -0.055376865 -0.0033185475 0.161083
0000c0 23 bb cb bd 94 b7 0e be ec 2d 34 3e 75 82 e3 3d
       -0.09947803 -0.13937217 0.17595643 0.11108867
0000d0 92 c4 0b bd ef 90 87 bd a3 37 42 3d 17 f0 35 bd
       -0.03412301 -0.06619441 0.04741634 -0.04441842
0000e0 8b 52 d1 3d 0f 6a 17 3c bc 2a ac bd 52 72 8c bc
       0.10220822 0.009241595 -0.084065884 -0.017144356
0000f0 e8 36 0e bd 06 d8 9a bd ba 14 c9 bd 69 8d 5c 3c
       -0.03472033 -0.075607345 -0.098184064 0.013461449
000100 13 f7 50 be 38 3b 18 3e 08 1d 47 3e 70 2a 62 3d
       -0.20406751 0.1486634 0.19444668 0.055216253
000110 59 f0 a2 bd fb fd 97 3b 0a 77 5b 3d 80 9b ed 3d
       -0.07955999 0.004638431 0.05358032 0.11601925
000120 14 ad c5 bd 05 d4 4b bd c1 40 99 3d 35 56 07 3d
       -0.09652153 -0.049762744 0.07483054 0.033041198
000130 c4 e4 0f 3c dc a0 b1 bc 11 67 98 be d9 4d 0e 3e
       0.008782569 -0.021683149 -0.29766133 0.13896884
000140 58 b6 ad 3d 07 7b b5 3d 7c 0c 12 be e8 37 f4 bc
       0.08482045 0.08861356 -0.14262575 -0.029811814
000150 1a 0e 27 3d c8 4e 78 3c 63 93 0e 3d 5a 85 99 bd
       0.040784933 0.015155502 0.034808528 -0.07496138
000160 8b 5a ae bc f1 8b 9f bd 0a 26 25 3e c0 c8 95 3d
       -0.021283409 -0.077903636 0.16127792 0.07313681
000170 2c 21 16 be f9 39 f1 3c 9d 92 08 3e 59 d1 da bb
       -0.14661092 0.029446589 0.13337179 -0.006677788
000180 50 21 1d 3e 51 a3 67 3e f6 36 21 be d7 98 5a 3e
       0.15344739 0.22620894 -0.15743622 0.21347366
000190 1b f7 ab 3b 8f 40 a6 3d 2a 1e 83 3c 27 29 85 bd
       0.005247963 0.08117782 0.016005594 -0.0650199
0001a0 51 bd 6c 3e 4c 30 dc 3d ce d2 be bd c8 48 a3 3d
       0.23119093 0.107513994 -0.093175516 0.07972866
0001b0 4b 60 fb bc 16 8a d1 3d 45 25 76 ba 61 ca 93 bc
       -0.030685565 0.10231416 -0.0009389709 -0.018040838
0001c0 cc ba 94 3d d4 ed 0a bd 4e 1c 3e 3e ee 9d ad 3d
       0.07262191 -0.033918217 0.18565485 0.08477388
0001d0 a5 d1 65 3d 99 4e 0a 3e f7 63 f3 3c 21 06 0f bd
       0.056108136 0.13506545 0.029710753 -0.034917954
0001e0 04 d0 f5 3c e7 1b 23 bb 87 98 73 3e a2 3f 1a be
       0.030006416 -0.0024888457 0.23788653 -0.15063336
0001f0 dd ee 9d 3d b8 9d 2e 3e 03 d3 9c bc 55 07 10 be
       0.07711575 0.17052352 -0.019143587 -0.14065297

main_network.1.running_var f4 [128]
000000 5c 2c e3 3e 4e e3 05 3e 50 67 e2 3e 38 b4 80 3e
       0.4436978 0.13074991 0.44219446 0.25137496
000010 7f c5 4a 3e 1b b4 25 3f 0a a7 3a 3e cf f8 0f 3f
       0.19801901 0.64727944 0.18227783 0.56239027
000020 11 b0 f9 3d da 4c 5f 3e 41 b1 c2 3e 14 44 22 3e
       0.12191785 0.2180666 0.3802586 0.15846282
000030 23 d4 60 3e 80 03 4a 3f 53 6e 3c 3e 7a 95 a4 3e
       0.21955924 0.7891159 0.1840146 0.32145292
000040 37 1d 38 3e 23 73 49 3e d2 c7 90 3e 3f aa 77 3f
       0.17979895 0.19672827 0.2827745 0.9674415
000050 f1 df b6 3d 3b 38 a3 3d ec 76 05 3e 2e 81 6e 3f
       0.08929432 0.079697095 0.13033646 0.9316586
000060 f7 2e 86 3e f3 9a 12 3e 45 6e 99 3e 3e 1f fa 3e
       0.26207706 0.14316921 0.2996694 0.4885196
000070 8e 77 83 3e bf 3e f7 3e 2c 13 21 3f c2 ee b9 3e
       0.2567715 0.4829006 0.6291988 0.3631497
000080 e4 21 2a 3e 0a c8 1e 3e 1c 76 34 3f 60 2a 57 3e
       0.16614491 0.15505996 0.7049272 0.21012259
000090 7c 8e c4 3e 5d 8b 32 3f 9e 1d ae 3e 71 8e 51 3f
       0.38389957 0.697439 0.3400697 0.81857973
0000a0 f4 06 a0 3e fe c3 4b 3e 9c 83 3b 3e 87 1c 35 3e
       0.31255305 0.19898984 0.18311924 0.17686664
0000b0 2a 98 75 3e 2d 6a 38 3e c9 af 16 3e 91 3c 7f 3e
       0.23983827 0.18009253 0.14715494 0.24925448
0000c0 7d 74 38 3e 37 be 03 3e 36 4c 88 3e 6c 80 84 3f
       0.18013187 0.1286553 0.26620644 1.0351691
0000d0 19 b6 93 3e e4 4b cd 3e e9 ba eb 3e 3c e6 c1 3e
       0.28849867 0.40096962 0.4604104 0.37870967
0000e0 ae e5 87 3e c1 07 34 3e 70 e3 d8 3e 60 bb 0a 3f
       0.2654242 0.17581083 0.4236102 0.5419216
0000f0 cb 3e 70 3e c8 1b d3 3d ee b6 4f 3e f2 5e 13 3e
       0.23461454 0.10308033 0.20284626 0.14391688
000100 2d 4d af 3d 90 c9 9b 3e 87 11 85 3e 2c 62 71 3e
       0.08559642 0.30427217 0.25989935 0.23572606
000110 86 7e 5d 3e 82 72 89 3e cf 2d 27 3f 56 3e 4b 3e
       0.21630296 0.26845175 0.65304273 0.19847998
000120 f2 df 37 3f aa 64 a5 3e 75 13 c3 3d 89 21 8b 3e
       0.7182609 0.32303363 0.095251955 0.27174023
000130 e0 b9 56 3e d6 db e3 3e 96 f3 d8 3e bc cd e3 3e
       0.20969343 0.4450366 0.4237334 0.444929
000140 06 98 1c 3e 67 15 f5 3d 57 4d b7 3e 96 3e b0 3e
       0.15292367 0.11966973 0.35801193 0.3442275
000150 13 b3 13 3e d6 5b 69 3f a8 65 34 3e 43 83 13 3f
       0.1442378 0.91155756 0.17616904 0.57622164
000160 12 74 4a 3f 9a 64 de 3e c0 3c 6c 3e 60 e3 14 3f
       0.7908336 0.43436128 0.2307005 0.58159447
000170 67 90 db 3e 76 90 af 3e cf 8d 79 3e 4a d3 c3 3e
       0.42883608 0.34289902 0.24370502 0.38247138
000180 7e 09 07 3e e7 cd 02 3e fe 82 68 3f 14 aa ad 3e
       0.13187215 0.12773858 0.9082488 0.33918822
000190 cd 06 6f 3e 89 e0 33 3e d7 69 e4 3e d9 f5 8e 3e
       0.23342438 0.17566122 0.44612 0.27921942
0001a0 8b 71 04 3f 4c b8 8e 3f ba ed 5f 3e f8 12 d5 3e
       0.5173575 1.1149993 0.21868029 0.41616035
0001b0 e0 27 2e 3f 83 d8 04 3e 09 07 7f 3d 1b 70 95 3e
       0.68029594 0.12973218 0.06226257 0.29187092
0001c0 38 92 30 3e 5f ce e2 3e 54 9b c9 3d 20 db 49 3e
       0.17243278 0.44298074 0.098440796 0.19712496
0001d0 70 ae ca 3d e0 b2 9c 3e db 07 b9 3e c4 7b 08 3f
       0.098965526 0.3060522 0.36138806 0.5331385
0001e0 56 59 57 3f ac 86 96 3f da 44 bc 3e 24 3c ea 3e
       0.8412069 1.1759849 0.3677128 0.4574901
0001f0 5b db eb 3d 5f ea 34 3e 01 32 30 3e 5c 92 b4 3e
       0.11516448 0.1766753 0.17206575 0.35267913
