XGBoost/best_model_bert.pth (torch, 120713 bytes, 47 tensors)

model_embedding.weight f4 [32, 12]
0	0x3e8e2da4	0.27769196
1	0xac16af61	-2.1413637e-12
2	0xbe2c7d1e	-0.16844603
3	0x3df851cc	0.121249765
4	0xbe5e59e5	-0.2171398
5	0xbb9bc46f	-0.0047536413
6	0xbd08714e	-0.03331118
7	0x3d465c5d	0.04842793
8	0xbe51c7a0	-0.20486307
9	0x3dc33309	0.095312186
10	0x3ddd67c3	0.108108066
11	0x3e880b2d	0.26571026
12	0x3d799b42	0.06093908
13	0xbb5e7185	-0.0033942175
14	0x3b24bb0c	0.0025135903
15	0x3ead4462	0.33841234
16	0xbdc75426	-0.09732847
17	0x3d20ebba	0.039287306
18	0x3d8fb9b6	0.070178434
19	0xbe33dc9a	-0.17564622
20	0x3ccd8ebc	0.025092475
21	0xbc7f290c	-0.015573751
22	0x3c5b4e8d	0.013385427
23	0xbe70c54f	-0.23512767
24	0xbd4a61be	-0.04940962
25	0x33c992da	9.386504e-08
26	0x3dc4b843	0.09605458
27	0xbeaf9827	-0.3429577
28	0xbdfff856	-0.12498538
29	0xbe6d1bf1	-0.2315519
30	0xbcf72683	-0.030169731
31	0x3e8a6ed6	0.27037686
32	0x3d535443	0.05159403
33	0xbe2ed0b4	-0.17071801
34	0xbe675288	-0.22590077
35	0xbdf8cd54	-0.12148538
36	0x3e694187	0.22778903
37	0x28c23d78	2.1564984e-14
38	0x3e46ddd3	0.19420557
39	0xbe9adcdc	-0.30246627
40	0x3e0a643d	0.135148
41	0xbba435bf	-0.00501129
42	0xbe5f20ab	-0.21789806
43	0x3e546228	0.20740569
44	0xbdaa2b35	-0.08309022
45	0xbe5338ef	-0.20627187
46	0xbe0c31a3	-0.1369081
47	0x3d07f8e2	0.033196338
48	0xbdac614d	-0.08416996
49	0x2817ab2b	8.4193e-15
50	0xbe740db5	-0.23833354
51	0x3e2696e9	0.16268505
52	0xbe55b58a	-0.20870033
53	0x3e801a76	0.25020188
54	0x3dabef53	0.08395257
55	0xbdbcc3d6	-0.0921704
56	0x3e0afe4b	0.13573568
57	0x3e37283d	0.17886443
58	0xbdcb79df	-0.099353544
59	0x3e477bac	0.19480771
60	0xbe208b5c	-0.15678161
61	0xabfed196	-1.8105957e-12
62	0xbe2d083c	-0.16897672
63	0xbe8158f6	-0.25263184
64	0x3e4c3560	0.19942236
65	0x3e26e57b	0.16298477
66	0x3d4762e8	0.04867831
67	0xbe8fc7aa	-0.2808202
68	0xbdca1931	-0.09868086
69	0x3e8fd8bd	0.28095046
70	0xbde51485	-0.111855544
71	0x3e59aa7c	0.21256441
72	0xbc8c7a8b	-0.017148277
73	0xb25a6940	-1.2713201e-08
74	0xbe25053f	-0.16115282
75	0x3c0dd681	0.008657099
76	0xbd8a0f0c	-0.06741151
77	0x3e3d2fc5	0.18475254
78	0xbe892190	-0.2678342
79	0x3ddd4715	0.108045734
80	0xbdf87754	-0.12132135
81	0xbda3fd12	-0.08007254
82	0xbdd68cfb	-0.10476109
83	0x3e56a2ec	0.20960587
84	0xbdee0e4d	-0.116238214
85	0xba4c219f	-0.00077869924
86	0xbb8a352e	-0.0042177653
87	0xbde7a263	-0.1131027
88	0x3eb52281	0.35377887
89	0xbdcf78f5	-0.101304926
90	0x3d22304e	0.03959685
91	0x3e462e22	0.19353536
92	0x3d899daf	0.06719529
93	0x3e1fb5e7	0.15596734
94	0xbe2118d8	-0.15732133
95	0xbe2b1418	-0.16706884
96	0xbda69397	-0.08133619
97	0xb285a55f	-1.555844e-08
98	0xbd763a90	-0.060114443
99	0x3ea7c50a	0.32767516
100	0xbd21f023	-0.039535653
101	0x3e80bd06	0.25144213
102	0xbe562632	-0.20913008
103	0xbdc0f73d	-0.09422157
104	0x3e27d6a5	0.16390474
105	0xbe07caa6	-0.13260898
106	0x3e042360	0.1290412
107	0xbe498cb7	-0.19682585
108	0x3e06306c	0.13104409
109	0x26b8d615	1.2825592e-15
110	0xbe9fbfcc	-0.31201017
111	0xbd66ff1c	-0.056395635
112	0xbded3cce	-0.11583863
113	0x3e3c26b8	0.18374145
114	0xbe0b64ed	-0.13612719
115	0xbd8d4a99	-0.06898994
116	0xbcb16021	-0.021652283
117	0xbe914669	-0.2837403
118	0x3e507007	0.20355235
119	0x3e14d651	0.1453488
120	0xbdcad195	-0.09903256
121	0xa041f263	-1.6427935e-19
122	0x3e3a180e	0.18173239
123	0xbea182fb	-0.31545243
124	0xbe552f4e	-0.20818827
125	0xbe520f83	-0.2051373
126	0x3e612bb2	0.21989325
127	0xbe2b4ef4	-0.16729337
128	0x3d8dde5c	0.06927177
129	0xbe7e7984	-0.24851042
130	0x3dcb3f77	0.09924214
131	0xbe004409	-0.12525953
132	0xbe949528	-0.29020047
133	0xa940b6b8	-4.2791047e-14
134	0xbea48ad3	-0.32137164
135	0x3e21a3a0	0.15785074
136	0x3e3c1ecd	0.18371125
137	0x3e4d0abd	0.20023628
138	0x3db353f3	0.087562464
139	0xbe939f93	-0.28832683
140	0xbe7900f1	-0.24316765
141	0xbe07076f	-0.1318643
142	0x3e04cbc4	0.12968355
143	0x3e0ab856	0.13546881
144	0xbe5be3e6	-0.21473655
145	0xad871be0	-1.5360102e-11
146	0xbdf00911	-0.11720479
147	0xbd532e1b	-0.05155764
148	0xbeade1c4	-0.33961308
149	0x3e28ebdd	0.16496225
150	0x3e629b8e	0.22129652
151	0x3bea4fe5	0.0071506375
152	0x3e7f552d	0.24934836
153	0x3d837451	0.0641867
154	0xbd2779c5	-0.040887613
155	0x3e8e4ca8	0.2779286
156	0x3e2de471	0.16981675
157	0x31504fb5	3.0313292e-09
158	0xbdbf4025	-0.093384065
159	0xbea162d1	-0.31520703
160	0x3e7e4275	0.24830039
161	0x3e3c943e	0.18415925
162	0xbe6d295d	-0.2316031
163	0xbd1691b6	-0.036760055
164	0xbded7549	-0.11594636
165	0x3e15f30a	0.14643493
166	0xbc033578	-0.008008353
167	0x3e9a5c98	0.30148768
168	0x3dd4a957	0.103838615
169	0x3c3d88fc	0.011568304
170	0x3d617121	0.05503953
171	0x3e80ae84	0.25133145
172	0xbe6564a5	-0.22401674
173	0xbd9b945a	-0.07596655
174	0x3dacf479	0.08445067
175	0xbde68530	-0.11255872
176	0x3e785268	0.24250185
177	0xbe527765	-0.20553358
178	0x3e1ed4a3	0.15510802
179	0x3df4f5ce	0.11960946
180	0xbe46e2c7	-0.19422446
181	0x3a08eb95	0.0005223093
182	0x3d5118f7	0.0510492
183	0x3e8a9115	0.27063814
184	0x3ea09498	0.31363368
185	0xbe927785	-0.2860681
186	0xbd38a35b	-0.045077663
187	0x3e3d87a8	0.1850878
188	0x3dfe83c6	0.124274775
189	0xbe80586b	-0.25067458
190	0x3e0bd98d	0.13657208
191	0xbe11f062	-0.14251855
192	0xbe04ee07	-0.12981425
193	0x389494b2	7.0848866e-05
194	0x3e2d997d	0.16953082
195	0x3e7ccd99	0.24687804
196	0xbd922b67	-0.071371846
197	0xbe8f47e4	-0.27984536
198	0x3cdae25e	0.026719268
199	0x3e209c45	0.15684612
200	0x3e91caba	0.2847498
201	0xbe88bfcd	-0.26708832
202	0x3d8e8de0	0.06960654
203	0xbd9b914a	-0.07596071
204	0x3e64acba	0.22331515
205	0xab0187a0	-4.6018224e-13
206	0xbe814ec3	-0.25255403
207	0x3e724821	0.23660327
208	0x3e611148	0.21979249
209	0xbe3a8a3e	-0.18216798
210	0x3df55ccd	0.11980591
211	0x3e623eb2	0.22094229
212	0x3dd1d26b	0.10245212
213	0xbcc577a2	-0.024104897
214	0xbe5af483	-0.21382336
215	0xbd818db8	-0.06325859
216	0xbd5199b0	-0.05117196
217	0xb919296c	-0.00014606648
218	0xbdb4d526	-0.08829717
219	0x3ea964e0	0.33084774
220	0xbe104d00	-0.14091873
221	0x3e2edcef	0.17076467
222	0xbe6e5fe4	-0.23278767
223	0xbe2f812c	-0.17139119
224	0x3bda9564	0.006670641
225	0xbe978620	-0.29594517
226	0x3e32a3c4	0.17445284
227	0xbe4400bb	-0.19140904
228	0xbce730fa	-0.028221596
229	0xbc439591	-0.011937515
230	0x3e1b0d73	0.15141849
231	0x3e6660af	0.2249782
232	0xbe178979	-0.14798535
233	0xbd7c6804	-0.061622635
234	0x3e2a6519	0.16640128
235	0xbe7b333f	-0.24531268
236	0x3deca1b3	0.11554279
237	0x3e21a7a7	0.1578661
238	0x3e20bfdc	0.15698189
239	0x3e67471c	0.2258572
240	0x3c043e0f	0.008071437
241	0x3c6c2708	0.014413603
242	0x3df3a3fd	0.11896513
243	0xbc0ec133	-0.0087130545
244	0x3d5e4b29	0.054270897
245	0xbe76a92a	-0.24087968
246	0x3e03bdf4	0.1286543
247	0x3e1b51b3	0.15167885
248	0xbe34bf53	-0.1765111
249	0x39785a79	0.00023684827
250	0x3e25b89a	0.16183701
251	0x3d29a47f	0.04141664
252	0x3e512559	0.20424403
253	0xb9d8f91b	-0.00041384329
254	0xbbd1ea9d	-0.006406142
255	0xbe81655f	-0.25272653

model_embedding.bias f4 [32]
0	0x3b454bec	0.0030105067
1	0x3b7b5f33	0.0038356304
2	0x36c55c59	5.881808e-06
3	0xb788be0f	-1.6300966e-05
4	0xb689db7a	-4.1084686e-06
5	0xbb29df0b	-0.0025920297
6	0xb71cbff0	-9.3430135e-06
7	0xb68949a2	-4.09149e-06
8	0x375005e2	1.2399136e-05
9	0x3c2a4ba2	0.010394009
10	0x3ca0840e	0.019594219
11	0xb788c69a	-1.6304944e-05
12	0x3b8a9639	0.0042293337
13	0xbb81b57c	-0.003958402
14	0x3c6ec3a2	0.01457301
15	0xbbc40112	-0.005981573
16	0xb6fb4759	-7.488689e-06
17	0xb95f9694	-0.00021323032
18	0xb8cf2269	-9.8769386e-05
19	0xbca4072a	-0.020022947
20	0x38f17d62	0.0001151513
21	0x3761b34d	1.3452792e-05
22	0xb6f4e2e3	-7.2981798e-06
23	0x36c7060d	5.9313666e-06
24	0xbc1f061d	-0.009706047
25	0x37a64bee	1.98241e-05
26	0x3b13974a	0.0022520595
27	0xb6929856	-4.3688733e-06
28	0x3b3d0b67	0.0028845908
29	0x3cd7723b	0.026299587
30	0x3ad1e84f	0.0016014668
31	0xba202c03	-0.0006110074

dataset_embedding.weight f4 [16, 3]
0	0x3f0b8c47	0.5451092
1	0x3f058060	0.5214901
2	0xbe4ec0dc	-0.20190758
3	0xbe5de705	-0.21670158
4	0xbf1ac8c9	-0.60462624
5	0xbdb33de6	-0.087520406
6	0xbed3978f	-0.41326568
7	0xbe290404	-0.16505438
8	0xbe073c31	-0.13206555
9	0xbe15d990	-0.14633775
10	0xbf11b716	-0.5691999
11	0x3e28960b	0.16463487
12	0xbecbd061	-0.39807418
13	0x3f0e73b4	0.556453
14	0x3ec625e1	0.38700774
15	0xbe945f5f	-0.28979012
16	0x3e9925e4	0.2991172
17	0x3e3db2f7	0.18525301
18	0xbe0b0b6b	-0.13578574
19	0x3dae5dba	0.08513971
20	0x3e809800	0.25115967
21	0xbf024efe	-0.5090178
22	0x3db78648	0.08961159
23	0xbeb57ad0	-0.3544526
24	0x3e9e7fb2	0.309568
25	0xbdb5f086	-0.08883767
26	0x3e0908f6	0.13382325
27	0x3f03f643	0.5154764
28	0xbee7a92a	-0.4524625
29	0x3efee701	0.49785617
30	0x3e01b1ad	0.12665434
31	0x3ca8b8eb	0.020595988
32	0x3efdc693	0.49565563
33	0xbf1ad620	-0.6048298
34	0x3e0487c1	0.12942411
35	0xbedf8cb8	-0.43662047
36	0xbedacae8	-0.4273293
37	0x3eb2d680	0.34929276
38	0x3f01763e	0.5057105
39	0x3ea9788b	0.3309978
40	0xbea81200	-0.32826233
41	0x3eccb131	0.39978936
42	0xbf0ffe2f	-0.5624723
43	0xbdccdef7	-0.10003465
44	0x3e9660d0	0.29370737
45	0x3d96dd76	0.07366459
46	0xbee8a320	-0.45436954
47	0x3e0552fe	0.1301994

dataset_embedding.bias f4 [16]
0	0xbe42f654	-0.19039279
1	0x372c9919	1.0287645e-05
2	0x3e31d992	0.17368153
3	0xbe077784	-0.13229185
4	0x3e692adf	0.2277026
5	0x3af6dde8	0.0018834444
6	0xbe55f90d	-0.20895787
7	0x3d2a50dc	0.04158102
8	0x3d7aaa28	0.06119743
9	0x3b18ee5a	0.0023335428
10	0x36189e7d	2.2742017e-06
11	0xbe7329be	-0.23746392
12	0xb8824ba0	-6.212969e-05
13	0xbdcb5056	-0.09927432
14	0xba382239	-0.00070241425
15	0x3d45e14a	0.048310556

tensor_network.0.weight f4 [16, 1]
0	0xbe9c8a8b	-0.3057445
1	0xbf05ac24	-0.5221579
2	0xbf06b9c8	-0.5262723
3	0x3f43c96d	0.76479226
4	0x3c83de81	0.016097309
5	0xbeb21e18	-0.34788585
6	0x3e3ab106	0.18231592
7	0x3da69cdf	0.081353895
8	0xbe3150b2	-0.17315939
9	0x3f2449b7	0.6417498
10	0x3e9f6ef0	0.31139326
11	0xbc596590	-0.013268843
12	0xbc69fdc7	-0.014281697
13	0x3eb44e9e	0.3521623
14	0x3efb3565	0.49064174
15	0x3ed986ee	0.42485756

tensor_network.0.bias f4 [16]
0	0xbea4c7c1	-0.3218365
1	0xbecc761f	-0.3993387
2	0xbef9ecec	-0.4881357
3	0xbe9af927	-0.30268213
4	0x3ef54634	0.47905123
5	0xbd5f2d30	-0.054486454
6	0x3d2d5287	0.042315032
7	0x3dd342db	0.10315486
8	0x3e11420c	0.14185351
9	0xbf6f9b47	-0.9359631
10	0xbdb91111	-0.09036458
11	0x3e022cd6	0.12712416
12	0xbec5c073	-0.3862339
13	0x3d62d938	0.055382937
14	0xbf22e45b	-0.6362969
15	0x3a0fde39	0.0005488131

tensor_network.2.weight f4 [16]
0	0x3f20dd71	0.6283789
1	0x3f20dd71	0.6283789
2	0x3f20dd71	0.6283789
3	0x3f7ef632	0.99594414
4	0x3f726bc9	0.9469572
5	0x3f20dd71	0.6283789
6	0x3f8082f0	1.0039959
7	0x3f7d60ba	0.9897572
8	0x3f79e5d8	0.9761634
9	0x3f793869	0.973517
10	0x3f7622f1	0.96147066
11	0x3f7b4835	0.98157054
12	0x3f20dd71	0.6283789
13	0x3f73dec4	0.9526179
14	0x3f7d48aa	0.98939
15	0x3f72edff	0.94894403

tensor_network.2.bias f4 [16]
0	0xab25a6aa	-5.885107e-13
1	0xabe69be0	-1.6385747e-12
2	0xabdd11b8	-1.5707912e-12
3	0xb72430aa	-9.786492e-06
4	0xb800f306	-3.074391e-05
5	0xab8ba8df	-9.923415e-13
6	0x371e8e3e	9.450652e-06
7	0x363876c5	2.748727e-06
8	0x36e2d3a0	6.7599613e-06
9	0x36a61703	4.9498644e-06
10	0xb7017c3a	-7.717923e-06
11	0xb6c6d509	-5.9256604e-06
12	0xaab45391	-3.203241e-13
13	0xb5ee6d19	-1.7764133e-06
14	0x37223ff3	9.670842e-06
15	0xb6c0e9d4	-5.749267e-06

tensor_network.2.running_mean f4 [16]
0	0x00000000	0.0
1	0x00000000	0.0
2	0x00000000	0.0
3	0x437340cf	243.25316
4	0x40b36379	5.6058927
5	0x00000000	0.0
6	0x42692b86	58.292503
7	0x41d16008	26.17189
8	0x3d8c1026	0.068390176
9	0x434b941a	203.57852
10	0x42c5f8cc	98.98593
11	0x3d9a4d31	0.07534254
12	0x00000000	0.0
13	0x42e0bf9e	112.37425
14	0x431bb1ef	155.69505
15	0x43077353	135.45049

tensor_network.2.running_var f4 [16]
0	0x14eb4829	2.3757398e-26
1	0x14eb4829	2.3757398e-26
2	0x14eb4829	2.3757398e-26
3	0x495c2e0a	901856.6
4	0x43c7fb68	399.9641
5	0x14eb4829	2.3757398e-26
6	0x4749c755	51655.332
7	0x4621a88f	10346.14
8	0x3ba521a9	0.005039413
9	0x491ab6d0	633709.0
10	0x4811c9f5	149287.83
11	0x3b5be9f4	0.0033556195
12	0x14eb4829	2.3757398e-26
13	0x483b8c4e	192049.22
14	0x48b4e646	370482.2
15	0x4888600f	279296.47

worker_network.0.weight f4 [16, 1]
0	0xbe7f1fb2	-0.24914435
1	0x3e72d082	0.23712352
2	0xbeb7e4e2	-0.3591681
3	0xbea91008	-0.33020043
4	0xbea90d23	-0.33017835
5	0x3eb32976	0.3499257
6	0x3e7d6d51	0.24748732
7	0xbe919239	-0.28431872
8	0xbf179cf6	-0.5922388
9	0xbe464f49	-0.19366182
10	0x3efa4d02	0.48886877
11	0x3f348f47	0.70531124
12	0x3ea9cd96	0.33164662
13	0x3c77f9b5	0.015135218
14	0x3f6bc36b	0.9209506
15	0xbdc14e19	-0.09438724

worker_network.0.bias f4 [16]
0	0x3c3ef9eb	0.011656265
1	0x3f057bb8	0.52141905
2	0x3f1905a2	0.5977422
3	0xbea8e675	-0.32988325
4	0xbf050be9	-0.519713
5	0x3c96dbaf	0.0184153
6	0xbb8d9cbf	-0.004321664
7	0x3f0dbcb0	0.5536604
8	0xb7b5e291	-2.1682385e-05
9	0x3e065d0c	0.13121432
10	0x3c87c482	0.016573194
11	0xbe2ad7c1	-0.16683866
12	0x3ea711c3	0.3263074
13	0x3da3bbeb	0.07994827
14	0xbf4fab44	-0.81120706
15	0x3f11c14b	0.56935567

worker_network.2.weight f4 [16]
0	0x3f75d49f	0.9602756
1	0x3f770843	0.9649698
2	0x3f7b207f	0.9809646
3	0x3f20dd71	0.6283789
4	0x3f20dd71	0.6283789
5	0x3f809336	1.0044925
6	0x3f7de06f	0.99170583
7	0x3f7cd7b2	0.98766625
8	0x3f20dd71	0.6283789
9	0x3f763ebb	0.9618947
10	0x3f7ea889	0.99475914
11	0x3f7f639c	0.99761367
12	0x3f792a23	0.9732992
13	0x3f750331	0.95707995
14	0x3f73cab7	0.95231193
15	0x3f820a6a	1.0159428

worker_network.2.bias f4 [16]
0	0xb7458df1	-1.1775163e-05
1	0x3742c883	1.1609986e-05
2	0x370b73be	8.311994e-06
3	0xaa698bf8	-2.0743119e-13
4	0x2b10bab4	5.141818e-13
5	0x3658d18a	3.2308476e-06
6	0xb69cf0e0	-4.677204e-06
7	0xb7732b26	-1.4493975e-05
8	0x2a02fce1	1.1634054e-13
9	0xb7107608	-8.61055e-06
10	0xb2d69018	-2.4978405e-08
11	0x376b29e6	1.4016847e-05
12	0x37d100f4	2.4915185e-05
13	0x3500121c	4.771007e-07
14	0xb75642fa	-1.2770988e-05
15	0x3761123b	1.341529e-05

worker_network.2.running_mean f4 [16]
0	0x3bb93b75	0.00565284
1	0x3fb82c57	1.4388531
2	0x3e93ccb0	0.28867102
3	0x00000000	0.0
4	0x00000000	0.0
5	0x3faf5498	1.3697691
6	0x3f733aa7	0.9501137
7	0x3e88a959	0.26691702
8	0x00000000	0.0
9	0x3d81a4c9	0.063302584
10	0x3ff399d2	1.9031317
11	0x40283662	2.6283193
12	0x3fcdd1f2	1.6079695
13	0x3e0c0a67	0.13675843
14	0x40481da1	3.1268084
15	0x3eae050d	0.33988228

worker_network.2.running_var f4 [16]
0	0x381079c1	3.4445668e-05
1	0x3fc5ffa4	1.546864
2	0x3db7e6ec	0.08979592
3	0x14eb4829	2.3757398e-26
4	0x14eb4829	2.3757398e-26
5	0x40573a4b	3.362933
6	0x3fd5696f	1.6672801
7	0x3d9d37be	0.076766476
8	0x14eb4829	2.3757398e-26
9	0x3b8d7c5b	0.004317803
10	0x40d1c41f	6.5551906
11	0x415249c3	13.143008
12	0x40416040	3.0214996
13	0x3bbf8599	0.0058447835
14	0x41a43aa0	20.528625
15	0x3d897888	0.06712443

batch_network.0.weight f4 [16, 1]
0	0xbe942634	-0.28935397
1	0x3db8eb3f	0.09029245
2	0x3efd65ff	0.4949188
3	0xbd2b976e	-0.04189246
4	0xbf063444	-0.524235
5	0xbdf06f4b	-0.117399774
6	0xbef42c1a	-0.47689897
7	0xbe2f9b1c	-0.17149013
8	0x3b8abac9	0.0042336923
9	0xbe185669	-0.14876713
10	0x3e76f520	0.24116945
11	0x3f211aed	0.6293171
12	0xbc037c87	-0.008025295
13	0xbf0068fb	-0.5016019
14	0xbc7732ef	-0.015087827
15	0xbeb3b022	-0.35095316

batch_network.0.bias f4 [16]
0	0x3ee6e34b	0.45095286
1	0xbd7cf853	-0.061760258
2	0xbf1fd125	-0.62428504
3	0x3e4796f6	0.19491181
4	0xbeeaaf24	-0.45836747
5	0x3e120a8c	0.14261836
6	0xbc2a9ff2	-0.0104141105
7	0x3e26744a	0.16255298
8	0x3e6e434a	0.23267856
9	0x3cf53de2	0.029936735
10	0xbe4ca612	-0.19985226
11	0xbe16defe	-0.14733502
12	0xbf0790b0	-0.5295515
13	0x3ea8f72a	0.3300107
14	0x3f89e277	1.0772237
15	0xbf067050	-0.52515125

batch_network.2.weight f4 [16]
0	0x3f7a2e3e	0.9772681
1	0x3f77affd	0.9675291
2	0x3f7a26fd	0.9771574
3	0x3f7cbf9c	0.9872987
4	0x3f20dd71	0.6283789
5	0x3f7b7a90	0.9823389
6	0x3f20dd73	0.62837905
7	0x3f75a367	0.9595246
8	0x3f7cdddb	0.98776025
9	0x3f79a85e	0.9752253
10	0x3f8059ee	1.0027444
11	0x3f78158b	0.9690787
12	0x3f20dd71	0.6283789
13	0x3f798741	0.97472006
14	0x3f869209	1.0513316
15	0x3f20dd71	0.6283789

batch_network.2.bias f4 [16]
0	0xb7ca0f04	-2.4087269e-05
1	0x378f0ca3	1.7052813e-05
2	0x360db494	2.1115748e-06
3	0x345dde38	2.0663072e-07
4	0x2acef348	3.676176e-13
5	0x36ba4036	5.550707e-06
6	0xae843289	-6.011642e-11
7	0x36d39407	6.3055227e-06
8	0x369c212d	4.6530245e-06
9	0x36be92e8	5.6795434e-06
10	0x3714f523	8.878563e-06
11	0x374bcdeb	1.2147687e-05
12	0x29850e9b	5.90892e-14
13	0x355bf56b	8.194099e-07
14	0xb6b2c223	-5.327414e-06
15	0x284bb933	1.1308922e-14

batch_network.2.running_mean f4 [16]
0	0x3e6fb070	0.2340715
1	0x42018ad1	32.385563
2	0x433196b1	177.58864
3	0x3dced981	0.10100079
4	0x00000000	0.0
5	0x3d973bc5	0.07384447
6	0x14d7c879	2.1788525e-26
7	0x3dace0fa	0.084413484
8	0x4000acc3	2.0105445
9	0x3c7b843a	0.0153513495
10	0x42ad27e2	86.577896
11	0x43628908	226.53528
12	0x00000000	0.0
13	0x3e2f9043	0.17144875
14	0x3f331188	0.69948626
15	0x00000000	0.0

batch_network.2.running_var f4 [16]
0	0x3d516d9c	0.051129922
1	0x464a2d34	12939.301
2	0x48be3d79	389611.78
3	0x3c1bfa74	0.009520162
4	0x14eb4829	2.3757398e-26
5	0x3ba6c109	0.0050889296
6	0x14eb4842	2.3757437e-26
7	0x3bd9e8c5	0.0066500627
8	0x421d4b39	39.32346
9	0x3966b243	0.00022000917
10	0x47b4ab9f	92503.24
11	0x491a5ec0	632300.0
12	0x14eb4829	2.3757398e-26
13	0x3ce0b709	0.027431028
14	0x3e5c7792	0.21529987
15	0x14eb4829	2.3757398e-26

ps_network.0.weight f4 [8, 1]
0	0x3e12c0d1	0.14331366
1	0xbed54610	-0.41655016
2	0x39b37e9d	0.00034235875
3	0xbefe4117	-0.49659035
4	0x3e99a0cc	0.3000549
5	0x3e86434c	0.26223218
6	0x3ebbfc74	0.36716044
7	0x3e31ca1e	0.17362258

ps_network.0.bias f4 [8]
0	0x3c9220e0	0.017837942
1	0x3ea54545	0.3227941
2	0xbdda6068	-0.10662919
3	0xbb665f58	-0.0035152044
4	0x3ef823bc	0.48464763
5	0xbdadccd7	-0.08486336
6	0x3ad3baf3	0.0016153738
7	0x3eded9c0	0.43525505

ps_network.2.weight f4 [8]
0	0x3f7ba40c	0.9829719
1	0x3f7dc9bc	0.9913595
2	0x3f20dd71	0.6283789
3	0x3f7b5e96	0.981912
4	0x3f7d566d	0.9896
5	0x3f800eca	1.0004513
6	0x3f74d1f1	0.95632845
7	0x3f76f922	0.96473897

ps_network.2.bias f4 [8]
0	0xb7bc6d0e	-2.2462129e-05
1	0x379f150b	1.8964076e-05
2	0x2baf97f3	1.2476672e-12
3	0xb6863773	-3.9999663e-06
4	0xb7b94311	-2.2084949e-05
5	0xb78555ab	-1.5894728e-05
6	0x3693df69	4.4069498e-06
7	0xb686c2fa	-4.0162095e-06

ps_network.2.running_mean f4 [8]
0	0x3db2c065	0.087281026
1	0x3e2b9283	0.16755109
2	0x00000000	0.0
3	0x1964d04e	1.18293905e-23
4	0x3f217656	0.6307119
5	0x3daee193	0.085391186
6	0x3e377963	0.17917399
7	0x3f050762	0.5196439

ps_network.2.running_var f4 [8]
0	0x3ba90ea9	0.0051592183
1	0x3cd69da0	0.026198208
2	0x14eb4829	2.3757398e-26
3	0x1547a05a	4.0314225e-26
4	0x3cb99605	0.022654543
5	0x3c00ba7e	0.007856963
6	0x3d0b1934	0.033959582
7	0x3bf5354a	0.007483159

main_network.0.weight f4 [128, 104]
0	0x3d2616de	0.04054915
1	0xbdf05fe9	-0.117370434
2	0x3e01f6a8	0.12691748
3	0xbcf0c9c2	-0.02939308
4	0xbd87d568	-0.06632501
5	0xbda050ea	-0.07827933
6	0xbd3c704e	-0.04600554
7	0x3d533c7e	0.05157136
8	0x3d595f04	0.05306913
9	0xbd49645f	-0.049167987
10	0x3d39d661	0.045370463
11	0xbde2807b	-0.11059662
12	0xbd58393c	-0.052788958
13	0xbd497485	-0.049183387
14	0x3d7e85d0	0.062139332
15	0x3d46d044	0.04853846
16	0x3db53090	0.08847153
17	0xbbe367d0	-0.0069398656
18	0xbc887f1c	-0.016662173
19	0x3d3152aa	0.043291725
20	0xbc4b05fb	-0.012391563
21	0xbcfab239	-0.030602561
22	0xbdafd920	-0.08586335
23	0x3d96a76a	0.073561504
24	0x3d75168a	0.059835948
25	0x3c53d696	0.012929579
26	0x3b674a2c	0.0035292013
27	0xbb453463	-0.003009104
28	0x3dfbec68	0.1230095
29	0x3ced46a5	0.02896435
30	0xbdbf677d	-0.09345911
31	0xbd03c203	-0.032167446
32	0xbddc09aa	-0.10744031
33	0xbc1dc45c	-0.009629335
34	0x3cbbac2b	0.022909245
35	0x3cde5f84	0.027145155
36	0xbbe4bfc5	-0.0069808685
37	0x3c2041d3	0.009781319
38	0xbc87a67c	-0.016558878
39	0x3d7f957a	0.06239841
40	0x3d832f09	0.064054556
41	0xbd481e77	-0.04885718
42	0x3b3b2f20	0.0028562024
43	0x3d933f54	0.07189813
44	0xbda97b61	-0.08275486
45	0x3d2590f8	0.040421456
46	0x3c49f10b	0.0123255355
47	0xbd8ad075	-0.06778041
48	0xb036b3b2	-6.6466577e-10
49	0x281b5d3f	8.624448e-15
50	0x261fa557	5.5388284e-16
51	0xba2240a0	-0.00061894394
52	0xbd13ec30	-0.036113918
53	0xa5546257	-1.8421388e-16
54	0x3dbe93f3	0.09305563
55	0xbcf69e3c	-0.030104749
56	0x3bc40ed8	0.005983215
57	0x3a275153	0.00063826627
58	0xbd0eb2b1	-0.034838382
59	0x3dadc934	0.08485642
60	0xa9f87723	-1.1034079e-13
61	0x3d63566d	0.055502344
62	0x3c7b816b	0.01535068
63	0x3d19d918	0.037560552
64	0xbce2b1bc	-0.027672641
65	0xbdbc8c5f	-0.09206461
66	0xbde9bb83	-0.11412718
67	0xb30dd2de	-3.3020903e-08
68	0x29f779e8	1.0990151e-13
69	0xbd9a065e	-0.07520746
70	0xbdc3f132	-0.09567489
71	0x3bfa5568	0.0076395757
72	0x25841bc2	2.291716e-16
73	0x3d27480d	0.040840197
74	0xbc53de49	-0.012931415
75	0x3d521d00	0.051297188
76	0x3c923c94	0.017851152
77	0x3d98aa5b	0.07454368
78	0xbd062221	-0.03274739
79	0xbda5f8cd	-0.081040956
80	0x3dec04f2	0.11524381
81	0xbdbf0954	-0.09327951
82	0xbddbdd9b	-0.10735627
83	0x3de4865f	0.11158442
84	0xb1208456	-2.3358289e-09
85	0x3d90c993	0.07069697
86	0xa994760f	-6.593e-14
87	0xbcb05bc6	-0.021528136
88	0xbd9067a2	-0.070510164
89	0xbd39ee02	-0.045392998
90	0xbc28184c	-0.010259699
91	0x3da1e1c9	0.07904393
92	0xb0d399f6	-1.5396029e-09
93	0x3d88bcb6	0.06676619
94	0x3d3cef8d	0.04612689
95	0x2da18f8d	1.836733e-11
96	0xbdc18221	-0.09448648
97	0x3d85203d	0.065002896
98	0x280aa7c5	7.696918e-15
99	0xbcc150a5	-0.023598025
100	0xbcc7956c	-0.024363242
101	0x3bd26c0d	0.006421572
102	0xbdb37d1c	-0.08764097
103	0x3d04e739	0.032447074
104	0xbd80d5f8	-0.06290811
105	0x3e38fafc	0.18064493
106	0xbc06ec17	-0.008234999
107	0xbd15a621	-0.036535386
108	0x3d8ba293	0.06818118
109	0x3d1814c2	0.03712917
110	0xbd9bf21a	-0.076145366
111	0xbd186508	-0.037205726
112	0x3d976874	0.0739297
113	0xbbceb2e3	-0.006307946
114	0xbd428c95	-0.04749735
115	0x3d371a23	0.04470266
116	0xbd6685ea	-0.056280054
117	0xbd56912b	-0.052384537
118	0x3d274942	0.04084135
119	0x3d3b0bab	0.045665424
120	0xbd33e7a4	-0.04392208
121	0x3e122263	0.1427093
122	0xbcb18ff9	-0.021675097
123	0xbd1ccfca	-0.0382841
124	0xbd5cf861	-0.05394781
125	0x3bedd7b1	0.0072583784
126	0xbd94f131	-0.07272566
127	0x3c613776	0.013746133
128	0x3dfdb79e	0.12388538
129	0x3d41462d	0.047186065
130	0x3b3abacb	0.0028492685
131	0x3c311d07	0.010810143
132	0xbdd80fb5	-0.10549871
133	0x3da13665	0.07871703
134	0x3d594cd5	0.05305179
135	0x3c5db55c	0.013532009
136	0x3d93b481	0.07212163
137	0x3cf2e014	0.029647864
138	0x3cddece4	0.027090497
139	0x3cbbb66f	0.02291414
140	0x3d4a1982	0.049340732
141	0xbdae50cf	-0.08511507
142	0xbcb06009	-0.021530168
143	0x3d64d763	0.05586947
144	0x3d8b5087	0.06802469
145	0xbc2c6e30	-0.010524318
146	0x3d8561ea	0.06512816
147	0xbdb11168	-0.08645898
148	0xbdeae709	-0.11469848
149	0xbd4cf8c5	-0.050041933
150	0xbd2bd5c0	-0.041951895
151	0x3df13868	0.11778337
152	0x32253de0	9.618333e-09
153	0xade98d76	-2.6551854e-11
154	0xae15d019	-3.4063505e-11
155	0xbd909e59	-0.070614524
156	0xbd80c2d7	-0.06287163
157	0xa893cd3d	-1.6409286e-14
158	0xbd4346ee	-0.047675066
159	0x3c980ce0	0.018560827
160	0x3d6f22cc	0.058382794
161	0x3d0c6268	0.034273535
162	0xbd0e4ac2	-0.034739263
163	0x3c6866c7	0.01418466
164	0xafe73fe6	-4.2064058e-10
165	0xbd9ff356	-0.078100845
166	0xbda475b8	-0.080302656
167	0xbdac38e1	-0.08409286
168	0xbd46e686	-0.048559688
169	0xbc18b55f	-0.009320586
170	0x3d28f006	0.04124453
171	0x31f77537	7.201972e-09
172	0xa6aed446	-1.2131212e-15
173	0x3dc3fbac	0.09569487
174	0x3d6c18d5	0.05764087
175	0x3da45c90	0.080254674
176	0xab356213	-6.4440223e-13
177	0xbd1f79ba	-0.038934447
178	0xbdad759c	-0.08469698
179	0x3d0e9ada	0.034815647
180	0x3d9f0b7f	0.077658646
181	0xbd868a26	-0.065693185
182	0x3d859051	0.06521667
183	0xbdb8deb3	-0.090268515
184	0x3b74b83c	0.0037341258
185	0x3d0e2492	0.034702845
186	0x3d211819	0.039329622
187	0xbd0f9127	-0.035050537
188	0x265cfeab	7.667297e-16
189	0x3ce52c43	0.027975207
190	0xace7be0d	-6.5865148e-12
191	0x3cbf7ab6	0.023373943
192	0xbd9a40ca	-0.07531889
193	0xbd9fb675	-0.07798473
194	0xbc34c2a5	-0.011032735
195	0x3d45abff	0.04825973
196	0xb00a6334	-5.0345084e-10
197	0xbda6ee55	-0.08150927
198	0xbce180be	-0.02752721
199	0xaa46644f	-1.7620734e-13
200	0x3d093bc4	0.033504263
201	0xbc4f26c8	-0.0126435235
202	0xb2f31f2e	-2.8303102e-08
203	0x3ce44ab4	0.027867652
204	0xbd8cd1d7	-0.06875961
205	0x3d112380	0.035434246
206	0x3c01971a	0.007909561
207	0x3c3b4f5f	0.011432498
208	0x3d9e794e	0.07737981
209	0xbdbcdf94	-0.09222332
210	0x3d25dcfc	0.04049395
211	0x3d5e3a7c	0.054254994
212	0xbce8606d	-0.028366292
213	0xbd9b2c20	-0.075767756
214	0xbd9cced4	-0.07656637
215	0x3d100c5a	0.03516803
216	0xbc727d7a	-0.014800424
217	0xbd7a7c07	-0.061153438
218	0xbc25ba0f	-0.010115161
219	0xbdd1e855	-0.10249392
220	0xbd8f28f0	-0.0699023
221	0x3cad7cdd	0.021177704
222	0x3d87b6f7	0.06626695
223	0x3bf4bd84	0.007468881
224	0x3dbd65c4	0.09247926
225	0x3d8abb27	0.06773978
226	0xbd43da4b	-0.047815602
227	0xbd2d0413	-0.042240214
228	0xbdb59363	-0.088660024
229	0x3db8ee5d	0.09029839
230	0xbcbb598b	-0.022869846
231	0x3d218a2d	0.039438415
232	0xbdf4447c	-0.11927125
233	0x3cb096bf	0.021556256
234	0x3c999577	0.018748028
235	0xbd63f2f9	-0.05565164
236	0x3db67094	0.08908191
237	0x3d439169	0.047746096
238	0xbd48e414	-0.049045637
239	0x3d9c5679	0.07633681
240	0xbb72badc	-0.0037037646
241	0x3daaa7a9	0.0833276
242	0xbe0173b9	-0.12641801
243	0x3d467e75	0.048460443
244	0x3c1aa602	0.009438993
245	0x3ce7123c	0.028206937
246	0x3cb9b077	0.022667153
247	0xbdd10b66	-0.10207252
248	0x3e27db53	0.1639226
249	0x3db3ce01	0.087795265
250	0xbb9d06fd	-0.004792093
251	0xbdab080b	-0.083511434
252	0xbe057d83	-0.1303616
253	0x3b2a8ea8	0.002602497
254	0x3d33b532	0.043873973
255	0x3e10fc40	0.14158726

main_network.0.bias f4 [128]
0	0x325e3c18	1.29357645e-08
1	0x3714e34e	8.874411e-06
2	0x35f2e760	1.8097744e-06
3	0xb5098c7d	-5.1240914e-07
4	0xb626af2c	-2.483789e-06
5	0xb54f2c8b	-7.717833e-07
6	0x33db6f96	1.02182796e-07
7	0x34bbcba9	3.4979647e-07
8	0x33b70a71	8.523501e-08
9	0x350e6c9b	5.3057164e-07
10	0x36a410ba	4.889528e-06
11	0xb77718db	-1.4728134e-05
12	0xb5b36017	-1.3364505e-06
13	0x36fcb194	7.530858e-06
14	0xb699c498	-4.582642e-06
15	0x36968e04	4.486881e-06
16	0x3620137a	2.3853195e-06
17	0xb630b351	-2.633042e-06
18	0x35ac0dc1	1.2819002e-06
19	0xb656f71a	-3.2032317e-06
20	0xb5e89f4c	-1.7331708e-06
21	0x32ae00de	2.025666e-08
22	0x35afc18f	1.3094849e-06
23	0xb6c1a2a2	-5.770781e-06
24	0x370a2422	8.233854e-06
25	0x36688008	3.4645218e-06
26	0x355df017	8.267829e-07
27	0x3777854d	1.4753384e-05
28	0x3538e266	6.8874795e-07
29	0xb7993402	-1.826324e-05
30	0x3507ea9b	5.0632815e-07
31	0x36e5d2fc	6.8492936e-06
32	0x371a0d71	9.182245e-06
33	0x366d7870	3.5385856e-06
34	0x36b23106	5.3105205e-06
35	0xb6bd7e7b	-5.647363e-06
36	0x35dbc8de	1.6375232e-06
37	0x36b771e7	5.467085e-06
38	0x361401bf	2.2054735e-06
39	0x35d53663	1.5885565e-06
40	0x3595b7bc	1.1154839e-06
41	0xb4ed6d56	-4.4224242e-07
42	0x35c5d854	1.4740604e-06
43	0xb6650a0f	-3.4129514e-06
44	0xb5a2d0c5	-1.21307e-06
45	0xb7995193	-1.8277007e-05
46	0x35aa9d1d	1.2711713e-06
47	0x36173e74	2.2537106e-06
48	0x36f95feb	7.4319446e-06
49	0x36b6b092	5.444578e-06
50	0x35f43c0d	1.8196894e-06
51	0x37859437	1.5923853e-05
52	0xb7049478	-7.902381e-06
53	0x364786ac	2.97317e-06
54	0xb7db6467	-2.6153588e-05
55	0x3384765a	6.168257e-08
56	0x35eed75e	1.7795062e-06
57	0xb3ea92d3	-1.0923181e-07
58	0xb6420a9b	-2.8914426e-06
59	0x33581984	5.0314625e-08
60	0xb6c06764	-5.734082e-06
61	0x3665ca4d	3.4241414e-06
62	0x3779cdd9	1.4889484e-05
63	0xb3d533f9	-9.928039e-08
64	0xb710b727	-8.625712e-06
65	0x37380982	1.0969468e-05
66	0xb6b07ff6	-5.2601054e-06
67	0xb72026ec	-9.545805e-06
68	0x370d2949	8.413867e-06
69	0xb69bcee1	-4.643444e-06
70	0x3613a281	2.1999297e-06
71	0xb60c5679	-2.091196e-06
72	0x3576375a	9.172269e-07
73	0xb73fd158	-1.1433229e-05
74	0xb55f947f	-8.3290064e-07
75	0x35902ed0	1.074246e-06
76	0x371ac1f9	9.224278e-06
77	0x36108a73	2.153826e-06
78	0x36818c42	3.8608277e-06
79	0xb73ce0b1	-1.1257988e-05
80	0xb5a64efb	-1.239095e-06
81	0x3626c50d	2.4850626e-06
82	0xb4d5b11c	-3.9803206e-07
83	0x3682d096	3.8985845e-06
84	0x348d374a	2.6303525e-07
85	0xb66823f2	-3.4591617e-06
86	0xb5844644	-9.855216e-07
87	0xb6dcfd41	-6.5859936e-06
88	0x37e22c43	2.696191e-05
89	0x3578856b	9.258135e-07
90	0x364e7697	3.076542e-06
91	0x370dc09f	8.449103e-06
92	0xb63906b5	-2.7571052e-06
93	0x34fe57ca	4.7375062e-07
94	0x36371b99	2.728519e-06
95	0xb5d4f796	-1.5867288e-06
96	0x358b1985	1.0363734e-06
97	0x372266a2	9.6798485e-06
98	0x36f54d5e	7.3105757e-06
99	0xb598b1c0	-1.1376615e-06
100	0xb62a2e29	-2.5358843e-06
101	0xb613af65	-2.20068e-06
102	0x363c347a	2.8044728e-06
103	0x366346e9	3.386691e-06
104	0x36ed0ce7	7.0646524e-06
105	0x3636af5a	2.7222181e-06
106	0xb71b3394	-9.250729e-06
107	0xb6683f37	-3.460749e-06
108	0x363b4e1f	2.7910644e-06
109	0x36930f03	4.382689e-06
110	0x359c30b7	1.1637084e-06
111	0x3616a83c	2.2449667e-06
112	0x35b70e6a	1.3638758e-06
113	0x351ffae4	5.959721e-07
114	0x3596fd3c	1.1249572e-06
115	0x36bedacf	5.687914e-06
116	0x348822e1	2.5357352e-07
117	0x370b9435	8.319553e-06
118	0xb4907114	-2.6904365e-07
119	0xb5522dee	-7.829793e-07
120	0x36660926	3.4277996e-06
121	0x378f287e	1.7065784e-05
122	0xb6abf31f	-5.1245e-06
123	0x36c3828f	5.826652e-06
124	0x36baabaa	5.5632163e-06
125	0x35356a43	6.7582386e-07
126	0x34cc39aa	3.8039917e-07
127	0x3720b428	9.578689e-06

main_network.1.weight f4 [128]
0	0x3f7e21c8	0.99270296
1	0x3f7be9de	0.9840373
2	0x3f7da90a	0.9908606
3	0x3f76ee37	0.96457237
4	0x3f80e847	1.0070885
5	0x3f7b46fd	0.98155195
6	0x3f75e7f0	0.96057034
7	0x3f809f8f	1.0048693
8	0x3f82b92c	1.021276
9	0x3f7c4c83	0.9855425
10	0x3f758442	0.95904934
11	0x3f8710e5	1.0552031
12	0x3f7d37ac	0.98913074
13	0x3f7bfa0e	0.9842843
14	0x3f7688b2	0.9630233
15	0x3f80de5e	1.0067861
16	0x3f7a3dca	0.9775053
17	0x3f80848f	1.0040454
18	0x3f792c6a	0.97333395
19	0x3f6a47ff	0.9151611
20	0x3f79e35b	0.9761254
21	0x3f76edcd	0.96456605
22	0x3f815ed2	1.0107062
23	0x3f763e95	0.9618924
24	0x3f801dab	1.0009054
25	0x3f784b27	0.96989673
26	0x3f8382df	1.0274314
27	0x3f79be09	0.97555596
28	0x3f795d6f	0.97408193
29	0x3f880502	1.0626528
30	0x3f800b49	1.0003444
31	0x3f722474	0.94586873
32	0x3f7fbc0b	0.99896306
33	0x3f7c71ae	0.9861096
34	0x3f750ed6	0.9572576
35	0x3f7963d9	0.9741798
36	0x3f7ef063	0.9958555
37	0x3f8a0f0d	1.0785843
38	0x3f863be9	1.0487033
39	0x3f739b5e	0.95158947
40	0x3f7b1661	0.9808102
41	0x3f78f27a	0.9724499
42	0x3f789cc4	0.97114205
43	0x3f820bd7	1.0159863
44	0x3f8490d9	1.0356704
45	0x3f866430	1.0499325
46	0x3f7ac7dd	0.9796122
47	0x3f7c0d63	0.98457927
48	0x3f782483	0.9693071
49	0x3f7ab6e7	0.97935337
50	0x3f732cf4	0.9499047
51	0x3f8926cb	1.0714964
52	0x3f769a57	0.96329254
53	0x3f7a56a2	0.9778844
54	0x3f7d13be	0.9885825
55	0x3f8121c5	1.0088431
56	0x3f8394d6	1.0279796
57	0x3f732444	0.9497721
58	0x3f81e500	1.014801
59	0x3f838321	1.0274392
60	0x3f86c417	1.0528592
61	0x3f877fa8	1.0585833
62	0x3f84dd54	1.0380044
63	0x3f7c956b	0.98665494
64	0x3f854247	1.0410851
65	0x3f7ecac6	0.9952816
66	0x3f7b90fb	0.982681
67	0x3f6f8fe7	0.9357895
68	0x3f7d9f04	0.99070764
69	0x3f7ec134	0.99513555
70	0x3f831196	1.0239742
71	0x3f811fb8	1.0087805
72	0x3f8012ec	1.0005774
73	0x3f845d14	1.0340905
74	0x3f784606	0.9698185
75	0x3f83c9ff	1.0296019
76	0x3f80d98e	1.0066392
77	0x3f75974f	0.95934004
78	0x3f7fefb4	0.9997513
79	0x3f88a49b	1.0675234
80	0x3f8100d8	1.0078382
81	0x3f772528	0.9654107
82	0x3f7f6a41	0.99771506
83	0x3f82b231	1.021063
84	0x3f793a23	0.97354335
85	0x3f825dc4	1.0184865
86	0x3f7afa4a	0.9803816
87	0x3f869d89	1.0516826
88	0x3f89a709	1.07541
89	0x3f75aea6	0.9596962
90	0x3f862562	1.0480158
91	0x3f78b5e0	0.9715252
92	0x3f862e42	1.0482867
93	0x3f771ca3	0.9652807
94	0x3f7a29b1	0.97719866
95	0x3f7c9252	0.9866077
96	0x3f7ca5d8	0.9869056
97	0x3f81373e	1.0094984
98	0x3f81433c	1.0098643
99	0x3f815351	1.0103551
100	0x3f80eda7	1.0072526
101	0x3f82d86d	1.0222298
102	0x3f7ac9b7	0.9796404
103	0x3f77d6a6	0.968119
104	0x3f73ef39	0.952869
105	0x3f78080f	0.96887296
106	0x3f7733f8	0.96563673
107	0x3f847831	1.034918
108	0x3f8321f0	1.0244732
109	0x3f77fe1e	0.9687213
110	0x3f85e658	1.046092
111	0x3f7fd3bd	0.9993246
112	0x3f7d5d52	0.9897052
113	0x3f77d6b3	0.9681198
114	0x3f796f62	0.9743558
115	0x3f72f977	0.94911903
116	0x3f7e7749	0.99400765
117	0x3f81368d	1.0094773
118	0x3f839cc3	1.0282215
119	0x3f809544	1.0045552
120	0x3f7e17ec	0.9925525
121	0x3f78110d	0.9690102
122	0x3f7e3b51	0.9930926
123	0x3f7c7819	0.98620754
124	0x3f7a2f8a	0.9772879
125	0x3f87d4c6	1.0611808
126	0x3f88b785	1.0681006
127	0x3f7c5e2b	0.9858119

main_network.1.bias f4 [128]
0	0xbc53e341	-0.0129325995
1	0xb99f4291	-0.0003037644
2	0xbc682ec2	-0.014171304
3	0xbd2dc8e8	-0.042427927
4	0xbc84bf94	-0.016204633
5	0x3cba80a8	0.022766426
6	0xbcbd9932	-0.023144338
7	0x3d7b0a12	0.0612889
8	0x3cdca9d6	0.026936453
9	0x3c8f6986	0.017506372
10	0xbb9f67cb	-0.004864668
11	0x3d33a945	0.0438626
12	0x3bad1986	0.0052825836
13	0xbcc0d51f	-0.023539124
14	0xbd20b366	-0.039233588
15	0x3bc0ccd0	0.0058837906
16	0xbcc26c87	-0.02373339
17	0x3bbf7efe	0.005843996
18	0xbcbc9c9a	-0.023023892
19	0xbd9dae8e	-0.07699309
20	0xbc0bfdbf	-0.0085443845
21	0xbc036fcd	-0.008022261
22	0xbbfa7415	-0.0076432326
23	0xbca9a471	-0.020708295
24	0x3c292ed6	0.010326108
25	0xbd1971e5	-0.037462134
26	0x3ce94862	0.028476898
27	0xbcd8a46f	-0.026445596
28	0xbc65394b	-0.0139907105
29	0xbb4279cc	-0.0029674647
30	0x3c751a29	0.01495985
31	0xbd2531d2	-0.040330715
32	0xbc165950	-0.009176567
33	0x3c05d98b	0.008169542
34	0xbcf21ada	-0.02955382
35	0x3cee77a5	0.029109785
36	0xbb86be7f	-0.0041120644
37	0x3d7423aa	0.059604324
38	0x3cbfb648	0.023402348
39	0xbd11385d	-0.035454143
40	0xbca8f14b	-0.02062287
41	0xbc97f1b3	-0.018547868
42	0xbd0bc923	-0.034127366
43	0xbcb5b785	-0.022182235
44	0x3d166ea2	0.0367266
45	0x3d32609f	0.043549176
46	0x3c7cf0eb	0.015438299
47	0xbd030ce9	-0.031994734
48	0x3c14797b	0.009062166
49	0x3c887957	0.016659422
50	0xbd3922b5	-0.045199115
51	0x3c886650	0.016650349
52	0xbcec2140	-0.028824449
53	0xbd1c6c7e	-0.038189404
54	0xbc67b760	-0.014142841
55	0xbafe290e	-0.0019390897
56	0xba114ffa	-0.00055432285
57	0xbd25e254	-0.040499046
58	0x3cf5d252	0.030007515
59	0x3d0acc04	0.03388597
60	0x3c5490a5	0.012973939
61	0xbd0db93e	-0.03460049
62	0x3d0b1f78	0.033965558
63	0x39cf4af2	0.00039537955
64	0x3d001c5e	0.031277053
65	0x3d34d6e9	0.044150267
66	0xb9384b68	-0.00017575698
67	0xbd716d15	-0.05894192
68	0xbc2e1e69	-0.0106273675
69	0x3c89eb6b	0.016835889
70	0x3c357603	0.0110754995
71	0x3cc24ec9	0.023719208
72	0x3c8160ec	0.015793286
73	0x3c2535fb	0.010083671
74	0xbc9b5ff2	-0.018966649
75	0x3d515c2e	0.0511133
76	0xbb9a9d88	-0.004718486
77	0xbc96abfd	-0.018392557
78	0xbc80ded6	-0.015731256
79	0x3cfab2f4	0.03060291
80	0x3c45f885	0.012083177
81	0xbcae9f28	-0.021316126
82	0xbbbc23f9	-0.005741593
83	0x3cd02c4a	0.025411744
84	0xbc99083e	-0.018680688
85	0xbb141108	-0.002259316
86	0xbcde8158	-0.027161285
87	0x3c9cc8dd	0.019138748
88	0x3ccbe39d	0.024888808
89	0xbc3f13cb	-0.011662434
90	0x3bfb0ec9	0.0076616746
91	0xbc607f21	-0.013702185
92	0x3d6328e7	0.05545893
93	0xbcff48c7	-0.031162633
94	0xbcdb3023	-0.026756352
95	0x3c236b30	0.009974286
96	0xbb3a1b3a	-0.0028397576
97	0xbc1bb580	-0.009503722
98	0x3d1bda05	0.038049717
99	0xbbe08c7a	-0.0068526836
100	0x3c2fba4b	0.010725568
101	0xbc68817a	-0.014191026
102	0xba8d733a	-0.0010791786
103	0x3ca0a4ef	0.019609896
104	0xbca506b0	-0.02014479
105	0xbd2a555c	-0.04158531
106	0xbcea24f7	-0.02858208
107	0x3d0ea497	0.034824934
108	0x3be2672f	0.006909273
109	0xbcea0106	-0.028564941
110	0x3d8045ad	0.062632896
111	0x3ca99bb0	0.02070412
112	0x3c8203c7	0.015870942
113	0xbc9482ad	-0.018128717
114	0x3c84af73	0.016196942
115	0xbc804174	-0.01565621
116	0xbb5cc8f9	-0.0033689125
117	0x3c821e4a	0.015883584
118	0x3d23f643	0.040029775
119	0x3c0bce75	0.00853311
120	0xbb9197d2	-0.004443147
121	0xbd0e2100	-0.03469944
122	0xbd8e1ae3	-0.06938722
123	0xbcbedec5	-0.023299584
124	0xbc76de65	-0.015067671
125	0x3d53268e	0.05155044
126	0x3ca1adc6	0.019736182
127	0xbbd7e8a1	-0.006589011

main_network.1.running_mean f4 [128]
0	0xbd9e1fb2	-0.07720889
1	0x3db5e2fb	0.08881184
2	0x3da2fb5c	0.07958099
3	0xbc1d20bf	-0.009590327
4	0xbd54e595	-0.05197676
5	0xbd1e1714	-0.038596228
6	0x3d0bba5c	0.034113273
7	0xbd842b7f	-0.06453609
8	0x3befd598	0.0073191635
9	0x3de760b4	0.112977415
10	0xbc749d13	-0.014930028
11	0x3d0d1490	0.034443438
12	0xbdf914fd	-0.12162206
13	0xbd2d0d50	-0.042249024
14	0x3cb1202b	0.021621784
15	0xbdd68791	-0.10475076
16	0x3bd5465c	0.0065086316
17	0x3d75bb53	0.0599931
18	0x3d3898b4	0.045067504
19	0xbd931dfc	-0.071834534
20	0x3c082e18	0.008311771
21	0xbdbeff2c	-0.09326014
22	0x3e0715c1	0.13191892
23	0x3e3288ea	0.17435041
24	0x3dd853a3	0.105628274
25	0x3d544c52	0.051830597
26	0xbd190bc8	-0.03736475
27	0x3c122e49	0.008922168
28	0x3b15e53c	0.002287223
29	0x3d00e6e6	0.031470202
30	0x3dfe0b99	0.12404556
31	0xbceb98e9	-0.028759437
32	0x3abb3ee2	0.0014285708
33	0x3c522198	0.012825392
34	0x3d10f49e	0.035389535
35	0xb98996c2	-0.00026243
36	0xbda4cd0e	-0.080469236
37	0x3de27d2d	0.11059032
38	0x3d1c29f1	0.038125936
39	0x3c9dbce8	0.019255117
40	0xbdae1a09	-0.085010596
41	0xbd0aff1e	-0.033934705
42	0xbccb0c39	-0.024786102
43	0x3d111c85	0.03542759
44	0x3dbb8d19	0.091577716
45	0x3d51c672	0.051214643
46	0x3d1de110	0.038544714
47	0xbde62ef0	-0.11239421
48	0x3e349c35	0.17637713
49	0xbe2e62ba	-0.17029849
50	0x3c8294bd	0.015940065
51	0x3d051bec	0.03249733
52	0xbe11b2d1	-0.1422837
53	0x3db98aa8	0.0905965
54	0x3d9d7012	0.07687391
55	0xbcac39b6	-0.021023612
56	0x3de67922	0.11253573
57	0x3d9e8908	0.077409804
58	0xbd87ff85	-0.06640533
59	0xbd9b5cb2	-0.075860396
60	0x3dc54662	0.09632565
61	0x3d83bd4a	0.064325884
62	0x3db86196	0.09002988
63	0xbd0005fe	-0.031255715
64	0x3d789070	0.06068462
65	0xbdc64838	-0.096817434
66	0xbdfda356	-0.123846695
67	0xbcd933bb	-0.026513925
68	0xbc29a6b4	-0.0103546865
69	0xbd1d0a23	-0.038339745
70	0x3cf82ec2	0.030295733
71	0x3e10da68	0.14145815
72	0x3da755ef	0.081706874
73	0x3df6105d	0.1201484
74	0x3dea7ad4	0.11449209
75	0xbd21585c	-0.039390907
76	0x3d010c35	0.031505782
77	0x3c3db670	0.011579141
78	0xbc4b6ec4	-0.012416545
79	0x3d9b6d14	0.075891644
80	0xbc0eb057	-0.008709035
81	0x3de01118	0.109407604
82	0xbc964043	-0.01834119
83	0xbcacb536	-0.021082502
84	0xbcb65df6	-0.022261601
85	0xbd423c72	-0.047420926
86	0xbd120939	-0.035653327
87	0x3de4a383	0.11164
88	0xbbb18b7b	-0.0054182387
89	0xbdb19a09	-0.08671958
90	0x3e390be5	0.18070944
91	0xbdcd0c84	-0.10012153
92	0x3dad9399	0.08475418
93	0xbd4724bd	-0.04861902
94	0xbdd9a5ca	-0.10627325
95	0x3ae58dca	0.001751357
96	0xbb8cfa34	-0.0043022875
97	0x3cfd47c4	0.03091801
98	0x3de995af	0.11405503
99	0xbcbe2e94	-0.02321557
100	0x3caf6343	0.021409636
101	0x3e50515c	0.20343536
102	0xbd813131	-0.06308211
103	0xbb767e83	-0.0037612028
104	0xbe0778d1	-0.13229682
105	0xbd0dc663	-0.034613024
106	0xbc5424f2	-0.012948262
107	0xbd536c42	-0.051616915
108	0x3dfcdb0c	0.123464674
109	0x3df6713f	0.12033319
110	0x3d936ec8	0.07198864
111	0xbd4ab033	-0.049484443
112	0xbcbb980a	-0.022899646
113	0xbd9ed6cb	-0.07755812
114	0xbd8d2a4c	-0.06892833
115	0x3d941f74	0.07232562
116	0x3cae0174	0.021240927
117	0x3cfdfd0f	0.031004457
118	0xbdfd7686	-0.12376122
119	0x3da64c63	0.08120038
120	0xbdc20b6b	-0.09474834
121	0x3d31b46d	0.043384958
122	0xba899619	-0.0010497003
123	0xbdd5c1ee	-0.1043738
124	0x3ca27635	0.019831756
125	0x3da73858	0.081650436
126	0x3cc162c2	0.023606662
127	0xbda6a18b	-0.081362806

main_network.1.running_var f4 [128]
0	0x3ef812df	0.48451898
1	0x3e9119af	0.28339908
2	0x3e1040c2	0.14087203
3	0x3df23652	0.11826767
4	0x3e1eebe0	0.15519667
5	0x3e8c5a99	0.2741287
6	0x3ee25188	0.44202828
7	0x3d9fadca	0.077968195
8	0x3fab4e78	1.3383322
9	0x3f3675f5	0.7127374
10	0x3e82f170	0.25574827
11	0x3e357e02	0.1772385
12	0x3e65c12c	0.2243697
13	0x3e06bb48	0.1315738
14	0x3ea27b85	0.31734863
15	0x3e910768	0.28325963
16	0x3d86250d	0.065500356
17	0x3f82a7d6	1.020747
18	0x3eb9aea2	0.36266047
19	0x3e8859f5	0.26631132
20	0x3e0b2a0b	0.13590257
21	0x3f1c9625	0.611666
22	0x3e54a3bb	0.20765583
23	0x3f06a85a	0.52600634
24	0x3ebfe041	0.3747578
25	0x3e787a3d	0.2426538
26	0x3d8a26bb	0.067456685
27	0x3e34d85a	0.17660657
28	0x3ea490c3	0.32141694
29	0x3d9da763	0.07697942
30	0x3e842fad	0.25817624
31	0x3ddfb7e3	0.109237455
32	0x3c974b8a	0.018468637
33	0x3e33dde9	0.17565121
34	0x3de41c76	0.11138241
35	0x3e063bed	0.13108797
36	0x3e679f00	0.22619247
37	0x3e3eb425	0.18623407
38	0x3e54f630	0.20797038
39	0x3f09e0d4	0.53858685
40	0x3e5b2681	0.21401407
41	0x3f0fbe4e	0.56149757
42	0x3eaec1f8	0.3413236
43	0x3e37cd9f	0.17949532
44	0x3f0c9a66	0.54923093
45	0x3dc362cb	0.09540328
46	0x3f051a1e	0.51992977
47	0x3e875318	0.26430583
48	0x3e53bbec	0.20677155
49	0x3e681370	0.22663665
50	0x3e33067a	0.1748294
51	0x3db70c57	0.089379005
52	0x3d4904bd	0.049076784
53	0x3f048e99	0.51780087
54	0x3cbf5f00	0.02336073
55	0x3dc8ae71	0.09798897
56	0x3ed48bea	0.41512996
57	0x3eb15ba2	0.34640223
58	0x3ee52b8d	0.4475979
59	0x3f1bc784	0.6085131
60	0x3e8b2578	0.27177024
61	0x3e8b9b83	0.27267084
62	0x3e80368b	0.25041613
63	0x3e876997	0.26447746
64	0x3e265492	0.16243199
65	0x3e31be69	0.17357792
66	0x3da3c6e4	0.0799692
67	0x3d19a2c8	0.037508756
68	0x3def8202	0.11694719
69	0x3e60eadd	0.21964593
70	0x3e925745	0.28582206
71	0x3f634ea6	0.88791883
72	0x3ed8e1ff	0.4235992
73	0x3ea701c0	0.32618523
74	0x3ea87a7f	0.32905957
75	0x3e33940d	0.17536946
76	0x3ef784b6	0.48343438
77	0x3d8f300c	0.06991586
78	0x3e61af99	0.22039641
79	0x3daf10ab	0.08548101
80	0x3f90293a	1.1262581
81	0x3f2c9ed1	0.67429835
82	0x3ea0a1d9	0.3137348
83	0x3e0cb747	0.1374179
84	0x3f4b227d	0.793495
85	0x3e83ab0d	0.2571644
86	0x3e49f3e5	0.19721945
87	0x3eaf43b1	0.34231332
88	0x3d6ffda4	0.0585915
89	0x3ebe39f1	0.3715358
90	0x3ebbb376	0.36660355
91	0x3e9799d2	0.29609543
92	0x3e4b7877	0.19870172
93	0x3e2a9c1a	0.1666111
94	0x3f3e64d7	0.7437262
95	0x3eaf99eb	0.34297118
96	0x3e96a440	0.29422188
97	0x3e2c14fc	0.1680488
98	0x3e57e9cb	0.21085279
99	0x3e4904e7	0.19630776
100	0x3e078f5d	0.13238283
101	0x3e139542	0.14412406
102	0x3f081f33	0.53172606
103	0x3e3ac70b	0.18239991
104	0x3e0b01de	0.13574931
105	0x3da1a16b	0.07892116
106	0x3ed31461	0.41226485
107	0x3e4ac4be	0.19801614
108	0x3e9fc9a7	0.31208536
109	0x3eaa0b39	0.33211687
110	0x3e106f0a	0.14104858
111	0x3e120e9a	0.14263383
112	0x3f3fb5dd	0.74886876
113	0x3f8a80a5	1.0820509
114	0x3e4ef850	0.20211911
115	0x3e438bf0	0.1909635
116	0x3ecf080c	0.40435827
117	0x3ee314fe	0.44351953
118	0x3e0ef816	0.13961825
119	0x3e8eced8	0.27892184
120	0x3dad16a5	0.08451585
121	0x3e573e0d	0.21019764
122	0x3e1b2fc7	0.15154944
123	0x3e74b353	0.23896532
124	0x3ea59bda	0.32345468
125	0x3e5cdd63	0.21568827
126	0x3dd84607	0.10560232
127	0x3e130702	0.14358142

main_network.4.weight f4 [64, 128]
0	0xbc965c98	-0.018354699
1	0x3d22f1b8	0.039781302
2	0x3cebc616	0.028780978
3	0xbd0af92c	-0.033929035
4	0x3d629022	0.055313237
5	0xbd750807	-0.05982211
6	0x3b4cc7c2	0.0031246995
7	0xbd8c8612	-0.068615094
8	0xbc4298e4	-0.011877272
9	0x3d696de4	0.056989565
10	0xbd721dec	-0.059110567
11	0x3d889e1b	0.06670781
12	0x3df964be	0.12177418
13	0xbd83c491	-0.064339764
14	0xbd13f707	-0.036124256
15	0x3c51c0ae	0.012802286
16	0xbc59fbbc	-0.013304647
17	0xbd14c956	-0.03632482
18	0x3d0299b5	0.031884868
19	0x3d82a1fc	0.06378552
20	0xbc83127d	-0.016000027
21	0xbdbefb01	-0.09325219
22	0x3da2af95	0.07943646
23	0xbc8554e5	-0.016275832
24	0xbd76de04	-0.060270324
25	0x3df31b28	0.11870414
26	0xbdef8816	-0.11695878
27	0x3dc7b31b	0.097509585
28	0x3d3c13f6	0.045917474
29	0x3db7df15	0.089780964
30	0x3d7d0f1e	0.061781995
31	0xbda98214	-0.082767636
32	0xbdcaf8ca	-0.09910734
33	0xbdae1f9b	-0.08502122
34	0xbd29d8ee	-0.041466646
35	0x37d6d2b7	2.560891e-05
36	0x3d6a1263	0.05714644
37	0x3d08c306	0.033389114
38	0x3cf1fb75	0.02953885
39	0x3d3b4e5f	0.045729037
40	0xbd9c4dde	-0.076320395
41	0x3d374cce	0.04475098
42	0xbd387f06	-0.045043014
43	0xbc82fe3a	-0.015990365
44	0xbcc14e73	-0.023596978
45	0x3ce71e29	0.028212624
46	0xbd92f45e	-0.071755156
47	0x3d65a124	0.05606188
48	0xbd245d25	-0.040127892
49	0xbd5d84c7	-0.054081704
50	0x3d399b7d	0.0453143
51	0xbc18619e	-0.0093006175
52	0x3d257fee	0.040405206
53	0x3d5eb634	0.05437298
54	0x3c597a8d	0.013273847
55	0x3d63c374	0.05560632
56	0xbcd4dd3a	-0.025984395
57	0x3d98af26	0.07455282
58	0xbdc136e4	-0.09434298
59	0xbd10e236	-0.03537198
60	0x3d9643c9	0.07337148
61	0x3d5d046b	0.05395929
62	0x3cd210b1	0.025642725
63	0xbdacc8da	-0.08436747
64	0xbde07ef5	-0.10961715
65	0xbdccea16	-0.10005586
66	0x3c318359	0.010834538
67	0xbccea656	-0.0252258
68	0x3d3e305d	0.04643284
69	0xbde75817	-0.11296099
70	0x3d8de71b	0.069288455
71	0xbc620ffb	-0.013797755
72	0x3cc42d3b	0.023947349
73	0x3d3fe49c	0.04684888
74	0x3bf99099	0.0076161143
75	0xbd3af684	-0.045645252
76	0xbcac4105	-0.021027097
77	0xbbaa9627	-0.005205888
78	0x3d3b9431	0.045795623
79	0xbd6bd80f	-0.057579096
80	0x3d11b90c	0.035576865
81	0xbd4c1d18	-0.049832433
82	0xbd191ed9	-0.037382934
83	0x3d6cc29e	0.05780279
84	0x3c3b486c	0.011430841
85	0x3c9e8ecf	0.019355206
86	0x3cb6132a	0.022225935
87	0x3d7635a8	0.060109764
88	0x3cf78816	0.030216258
89	0xbd2598b4	-0.040428832
90	0x3dd32d51	0.10311378
91	0xbd36cf3b	-0.044631224
92	0x3c2f8520	0.010712892
93	0xbd917fc9	-0.07104451
94	0x3c481c1d	0.012213734
95	0x3caf0047	0.021362437
96	0x3cfa0119	0.030518102
97	0x3c845495	0.016153613
98	0x3ccb3bd6	0.024808805
99	0xbd7d57b9	-0.061851237
100	0xbd1d366b	-0.038381975
101	0xbd0effaf	-0.034911808
102	0xbd8a0d27	-0.0674079
103	0xbd8fd0ba	-0.07022233
104	0x3cecfd50	0.028929383
105	0xbd88616f	-0.06659209
106	0x3d1a785e	0.037712447
107	0xbda1fee7	-0.07909947
108	0x3d7bbdb8	0.061460227
109	0x3db59511	0.08866323
110	0x3c39dfd2	0.011344867
111	0xbd8c915a	-0.06863661
112	0x3d79a024	0.060943738
113	0x3d745457	0.059650745
114	0xbb11cdb0	-0.0022247843
115	0x3d0f5b9a	0.034999467
116	0x3df46762	0.11933781
117	0xbd4ceeb9	-0.05003235
118	0x3d2917e4	0.04128255
119	0xbda93bae	-0.08263336
120	0xbd956e06	-0.07296376
121	0xbc88998b	-0.016674777
122	0x3dc574dc	0.0964143
123	0x3cb2e8ff	0.021839617
124	0x3d354d33	0.044263076
125	0x3d6490df	0.055802222
126	0x3c7b4b3d	0.015337762
127	0xbb384491	-0.002811704
128	0x3dbf2512	0.093332425
129	0xbdaa2dcc	-0.08309516
130	0x3c714259	0.014725291
131	0x3cea40ae	0.028595295
132	0xbc5b69a3	-0.013391885
133	0xbd686905	-0.05674078
134	0x3dc52f12	0.096281186
135	0xbb2d29d2	-0.0026422632
136	0x3d5badab	0.05363242
137	0x3d7ff510	0.06248957
138	0xbd10eedc	-0.035384044
139	0xbd991c61	-0.07476116
140	0x3d9af8de	0.07566999
141	0x3d42eeee	0.047591142
142	0xbd9cfb72	-0.07665147
143	0xbd5953cf	-0.05305844
144	0x3c152a60	0.009104341
145	0xbd9edfc0	-0.07757521
146	0xbd3c9e8e	-0.046049647
147	0xbd6effe7	-0.058349516
148	0xbd9edfcc	-0.077575296
149	0xbd146187	-0.03622582
150	0xbced4ca0	-0.028967202
151	0x3d70b6af	0.05876797
152	0x3c156df6	0.009120455
153	0xbc582c26	-0.01319412
154	0xbafd61ef	-0.0019331555
155	0xbbd5ca3c	-0.0065243524
156	0xbd49c744	-0.0492623
157	0xbdc4434b	-0.095831476
158	0xbd006d8c	-0.031354472
159	0x3c613351	0.013745145
160	0xbd895022	-0.06704737
161	0x3d796fe3	0.06089772
162	0x3d4fe177	0.05075213
163	0x3b91ba32	0.004447245
164	0x3db2596e	0.087084636
165	0xbd6e91bb	-0.05824445
166	0x3d2206ed	0.039557386
167	0xbdc1d982	-0.094653144
168	0xbda4a997	-0.08040159
169	0xbd95122a	-0.07278855
170	0x3d59fe32	0.053220935
171	0xbdae544a	-0.085121706
172	0xbd2df409	-0.04246906
173	0xbcfa35aa	-0.030543167
174	0x3d09e7b6	0.033668242
175	0xbd8f77d0	-0.07005274
176	0xbd938899	-0.07203788
177	0x3c111ea9	0.008857408
178	0xbcf071cd	-0.02935114
179	0xbdc13c8a	-0.09435375
180	0x3dbcc12d	0.09216533
181	0x3d7aa6fb	0.0611944
182	0xbc76c909	-0.015062579
183	0xbd39b13a	-0.045335032
184	0xbc6593a8	-0.014012255
185	0x3c49b56a	0.012311319
186	0xbd3e0cb9	-0.046398852
187	0xbd7c3685	-0.06157543
188	0xbdaedd77	-0.08538335
189	0xbd9d9d19	-0.076959796
190	0xbc88cf9f	-0.016700564
191	0x3d49fd90	0.04931408
192	0xbd0eb907	-0.034844425
193	0x3c9acf25	0.018897602
194	0x3d278e51	0.040907208
195	0xbd6d6ac2	-0.05796314
196	0xbda9331d	-0.08261702
197	0x3d017742	0.031607874
198	0x3d89593b	0.067064725
199	0xbced8e99	-0.02899866
200	0xbbe4ba34	-0.006980205
201	0x3d37e542	0.04489637
202	0xbcf41258	-0.029793903
203	0xbd3aca8a	-0.045603313
204	0xbccfc541	-0.025362613
205	0x3d33c173	0.04388566
206	0x3d202450	0.03909713
207	0x3d004792	0.031318255
208	0x3d1ff30a	0.03905014
209	0xbcfc2d6d	-0.03078338
210	0xbd44022f	-0.047853645
211	0x3da1f62e	0.07908283
212	0xbcaf1c1e	-0.021375712
213	0xb92249dd	-0.0001547704
214	0xbd16c6a0	-0.036810517
215	0xbda6bb8e	-0.08141242
216	0x3cfda7e3	0.030963844
217	0x3c94f7af	0.018184511
218	0xbcb58140	-0.022156358
219	0xbcbded03	-0.023184305
220	0x3d975fdc	0.073913306
221	0xbc83fcf8	-0.016111836
222	0x3d01c41b	0.03168116
223	0xbd792283	-0.06082393
224	0x3d5e17b8	0.05422184
225	0x3d282823	0.041053902
226	0xbd94d66b	-0.072674595
227	0x3d94c4d7	0.07264107
228	0x3ccccb83	0.024999386
229	0xbd8ab576	-0.06772892
230	0xbd2e114e	-0.04249697
231	0x3d117ac7	0.03551748
232	0x3c0509ec	0.008120041
233	0xbcf5e011	-0.03001407
234	0x3cf73be1	0.03017992
235	0xbe00bfda	-0.12573186
236	0xbd130ad8	-0.035899013
237	0xbbca3d65	-0.0061718696
238	0xbd9dd922	-0.077074304
239	0x3bf34a79	0.0074246493
240	0xbdd80834	-0.105484396
241	0xbd6a00fd	-0.05712985
242	0x3dbbee53	0.09176316
243	0x3d21e168	0.039521605
244	0xbdaa9684	-0.0832949
245	0x3d8215b5	0.063517965
246	0xbd0013da	-0.031268932
247	0xbd9e664e	-0.07734357
248	0xbd9092c4	-0.07059243
249	0xbd94fb67	-0.07274514
250	0xbd351725	-0.044211525
251	0x3cf96c53	0.03044716
252	0xbd83b311	-0.064306386
253	0xbd5b1330	-0.053485096
254	0xbc15d4e2	-0.0091449935
255	0x3d556da2	0.052106507

main_network.4.bias f4 [64]
0	0x370ca96e	8.384099e-06
1	0x37547cf1	1.2665275e-05
2	0xb566cfc8	-8.598404e-07
3	0xb6d14c0c	-6.2375384e-06
4	0x372d9826	1.0347028e-05
5	0x35ccb35a	1.5251383e-06
6	0x3697b23f	4.5209013e-06
7	0xb5b6e6fd	-1.3627283e-06
8	0xb5af7bb7	-1.3074522e-06
9	0xb5c582d3	-1.4715719e-06
10	0xb6d610a4	-6.379634e-06
11	0xb6d4f2c6	-6.346355e-06
12	0xb5e44ca2	-1.7009627e-06
13	0xb6883553	-4.0593236e-06
14	0xb7097f51	-8.1954795e-06
15	0x34e1e3cb	4.2075257e-07
16	0x35da9378	1.6285185e-06
17	0xb5228d13	-6.0554993e-07
18	0xb7acbe2b	-2.0592552e-05
19	0xb64dfbfb	-3.0694052e-06
20	0x3748b0f9	1.1962134e-05
21	0xb4423cdc	-1.8089798e-07
22	0xb64282ba	-2.8984346e-06
23	0xb6a50303	-4.917734e-06
24	0x3600939d	1.9159409e-06
25	0x373006f2	1.0492035e-05
26	0xb7399a65	-1.1062807e-05
27	0xb576f814	-9.200314e-07
28	0xb59b517e	-1.1572117e-06
29	0xb55ce709	-8.2292587e-07
30	0x36871438	4.0256673e-06
31	0xb583a664	-9.808687e-07
32	0xb662b348	-3.378098e-06
33	0x375a1577	1.299881e-05
34	0x36befb38	5.691687e-06
35	0x36bceb4d	5.630229e-06
36	0x35950534	1.1102879e-06
37	0x3527d038	6.2515346e-07
38	0x3721b11b	9.637583e-06
39	0xb68b87ad	-4.1583176e-06
40	0x34860738	2.4964697e-07
41	0x36ae579b	5.1958027e-06
42	0x3515c87b	5.5798563e-07
43	0xb5c9a486	-1.502355e-06
44	0x37345daf	1.07506485e-05
45	0x36686e3b	3.4634857e-06
46	0xb510e62b	-5.397912e-07
47	0xb61b5dd4	-2.3151415e-06
48	0xb6197339	-2.2865845e-06
49	0x3683578c	3.914296e-06
50	0x3722d469	9.705408e-06
51	0x35e90d68	1.7363755e-06
52	0x3634154f	2.6834493e-06
53	0xb64369fc	-2.9118955e-06
54	0x36cb3bdd	6.0568404e-06
55	0x36b77859	5.4678353e-06
56	0x365b33f9	3.2663795e-06
57	0xb60192e9	-1.930801e-06
58	0xb691823a	-4.336497e-06
59	0xb6f5552d	-7.3114848e-06
60	0xb50aa997	-5.165579e-07
61	0xb724966b	-9.810184e-06
62	0x36db0601	6.5274075e-06
63	0xb72f4772	-1.04474475e-05
