XGBoost/best_model_vgg16.pth (torch, 120772 bytes, 47 tensors)

model_embedding.weight f4 [32, 12]
00000000: e032 903e e118 9b3c f837 b83e 3f5f 19be
00000010: 742f 55be 1d64 92be 7cc6 13be 6282 713e
00000020: 122f 42be 9939 783e 80e7 ffbd c1c6 b5bc
00000030: 20da 543a bbbb 81be a1a1 18be b27c 4fbe
00000040: 6ded 3c3e 67da 32be bb09 5bbe 52d1 0bbd
00000050: 8839 233e f2a6 9cbe 6e01 cfbd 20b2 30bd
00000060: 757b 47be 6a75 263c 55a0 95be a7ef cf3c
00000070: 337a ff3d d84e 07be 9822 bebd 6e3c 073d
00000080: b2fc 343d eadc 9dbe 9fd0 debd c226 2ab3
00000090: 81bd 823e 73ca 43be efd4 4c3e 0439 5c3e
000000a0: e362 713d d19c fabd 3f14 84be 8f83 b23c
000000b0: 0c8e b03d f862 a03c 63c0 f23c 41c8 013a
000000c0: 5dac 6e3c dbbb a0be 728c 8dbd 466e c13e
000000d0: 04ae 3d3d 7339 04bd 7041 b4bd 18ce 123e
000000e0: 0c01 36be 92ee 48be 9308 23be 0698 4d3d
000000f0: 99cc 3abe 611d 44be 8bc7 633d 929f df3d
00000100: 91a3 763e 67f2 5c3d f072 8cbe af1a 633e
00000110: 6cbc 9d3e 11ad 4bbe a1d5 8e3e edb5 4dbc
00000120: 4201 56be 6b27 64be 23c6 4abd 6949 813d
00000130: fae8 33be bd01 543e bcf6 3cbd f231 3f3e
00000140: 4d96 013d a3e6 77be 9e69 5f3e 4b7e b1bc
00000150: 3073 923e c670 d3bd a480 9bbd 63e1 ec3d
00000160: fd9f 48bd 4f23 8e3e dee7 b73b e90f d03c
00000170: c18a 293e e3de 1f3d 54e7 5a3e 0d84 55ba
00000180: 5723 05be 1938 603e 4fea 75be ebea 0f3e
00000190: 3ad8 25be ade1 66bd 7b1b a03d d74c 83be
000001a0: 1473 16bd 6504 043d 8422 94be 5629 90af
000001b0: 9bc6 66be 5ce8 8bbe e181 6a3e 40c4 073e
000001c0: 0e48 38be 3cae 73be 9d26 c7bd 74e5 34bc
000001d0: e9a2 a53d cb76 90be 5db5 953d fc43 523c
000001e0: ebea 3ebe 9b61 1c3e e555 8b3d 57bd 943e
000001f0: f8e1 cc3d a7e0 6a3e 45d1 3abe ef79 13be
00000200: afe0 9c3c c77b 113e 833b dabd 69b1 8ebb
00000210: d54b 733e 0e47 843c 5f49 34be a497 8cbe
00000220: 3477 8a3e e301 5e3e 33f3 993d d9d9 75be
00000230: 8aa6 1d3e d155 863e 6b15 2a3d 59fb a7bc
00000240: 0098 7ebe a649 aabc 65dd 84be e901 d73d
00000250: 7eb3 223e f11e 68be 6c93 2f3e 6ba9 b73d
00000260: 2f5c 8abd d1f7 9fbd f0d6 4bbd c7e6 913c
00000270: 940c e7bd 4fe0 913e d616 e73d e8db aabe
00000280: a558 a8bb dcfa 843e 8fa0 4d3e f929 2a3e
00000290: a92b 69be 9c3e 223e 67a7 173e 3a4e d13b
000002a0: 62b4 173e a21a 353e 8981 0e3e 2300 af3d
000002b0: d331 67be 879a 4b3e ff65 dfbd f080 583e
000002c0: 810d 43bd 4179 1c3d edaa 75be 0562 ce38
000002d0: 7a10 1e3e c6a4 0a3e a60a abbd d26a ca3d
000002e0: fa54 873e 51e0 90bd 75d8 b93c 9cd7 6cbe
000002f0: 62c1 013e e720 e0bc 4cec ea3d debe ce37
00000300: 7946 07bd efcc 933e b8ec 513d 0b75 83be
00000310: 3724 9b3e d244 0cbe 88d8 8a3d c7d5 123d
00000320: 7e73 0abe 59d3 93bc e82c 813d 23df 783b
00000330: 1a8c f53d b092 5ebe d957 9cbd 1318 a8bd
00000340: 0ef8 a2be 8908 ce3d df5c 603e 5bb1 10be
00000350: b3bd eb3d f822 79bc 0c94 be3d 9953 e7ba
00000360: f9d2 91be 0d16 debd 763a 18be 4ef8 7b3e
00000370: 0f8d 903e 615a 4ebd 8318 66be dbb4 1e3e
00000380: 0e97 333c 8344 f7bd 1691 643c 3afa 9aba
00000390: 8dd6 aa3d 8cef 363e 779c 763d c3a2 91be
000003a0: 73ad f4bc d9c6 26bd 197a a8bd dfe3 493e
000003b0: 03fb 27bd e0ab 9abd ede5 03bc e136 213d
000003c0: db5e 5c3e 927e 883e 6a56 a33c 1c7a 67be
000003d0: ea7f 89be 3f77 78bd 9f4f 49bd 95c7 803e
000003e0: 26b5 04bd 9572 2dbd 2ee2 6fbd 3509 b6bb
000003f0: 90c3 3b3e c009 463d 621a eb3d eef2 2e3d
0.28163815 0.018932762 0.359802 -0.1497774 -0.20818883 -0.28592005 -0.14431185 0.23584893
-0.18963268 0.24240722 -0.12495327 -0.0221895 0.00081196614 -0.2533854 -0.14905407 -0.20262411
0.18449946 -0.17466126 -0.2139043 -0.03413517 0.15939915 -0.3059612 -0.101076946 -0.043138623
-0.19480689 0.01015983 -0.29223886 0.02538283 0.124744795 -0.1321367 -0.09283942 0.033016615
0.0441863 -0.30832607 -0.10879635 -3.961646e-08 0.25535205 -0.19120197 0.20003103 0.21506125
0.058932196 -0.122369416 -0.25796697 0.021791248 0.08620843 0.019578442 0.029632753 0.00049507996
0.014567462 -0.31393322 -0.069115534 0.37779444 0.046308532 -0.03228135 -0.08801544 0.14336431
-0.17773837 -0.19622257 -0.1592124 0.05019381 -0.1824211 -0.19151832 0.05561022 0.109191075
0.24085833 0.05394211 -0.2743144 0.22178148 0.30807817 -0.19890238 0.2789736 -0.0125555815
-0.20898917 -0.22280662 -0.049505364 0.0631283 -0.17569342 0.20703788 -0.04613374 0.18671396
0.03163748 -0.24209075 0.21817634 -0.021666666 0.28603506 -0.10324244 -0.075928956 0.115664266
-0.0489807 0.27761313 0.0056123575 0.025398212 0.16556837 0.03903092 0.21377307 -0.0008144982
-0.13001762 0.218964 -0.24015163 0.14054458 -0.16195765 -0.056367565 0.078177415 -0.25644562
-0.03673084 0.032230753 -0.28932583 -2.6222818e-10 -0.225367 -0.27325714 0.22901107 0.13258457
-0.17996237 -0.23796934 -0.09724162 -0.011041034 0.08087713 -0.28215632 0.07309983 0.012833592
-0.18644302 0.15271609 0.068034925 0.29050705 0.100040376 0.2293726 -0.18243892 -0.14401983
0.019150106 0.14207374 -0.10655882 -0.004354645 0.23759396 0.016147163 -0.17606114 -0.27459443
0.2704407 0.21680407 0.0751709 -0.24008884 0.15395561 0.26237348 0.041524332 -0.020505594
-0.24862671 -0.020787071 -0.2595016 0.10498411 0.15888783 -0.22668053 0.1714608 0.08967861
-0.06755864 -0.07810939 -0.049765527 0.017810239 -0.11281696 0.28491446 0.112836525 -0.333709
-0.0051375204 0.2597264 0.2008078 0.16617574 -0.22770561 0.15844196 0.14809953 0.006387499
0.14814904 0.17685941 0.13916601 0.08544948 -0.225776 0.19883166 -0.10908126 0.21142936
-0.0476203 0.038201574 -0.23990984 9.841103e-05 0.15435973 0.13539419 -0.083516404 0.098836556
0.2643202 -0.07074035 0.022686223 -0.23129123 0.12671426 -0.027359439 0.11470851 2.4645993e-05
-0.033026192 0.2886729 0.051251143 -0.25675234 0.30301067 -0.13698128 0.06779581 0.035848405
-0.1352062 -0.018045114 0.06307393 0.0037974797 0.11989613 -0.21735644 -0.07633943 -0.08207717
-0.31829876 0.10060222 0.21910428 -0.14130156 0.11510792 -0.015206091 0.093055815 -0.0017648815
-0.28481272 -0.108440496 -0.14866051 0.2460644 0.2823262 -0.05037916 -0.22470288 0.15498678
0.010961307 -0.120736144 0.013950607 -0.0011823841 0.083417036 0.17864817 0.06020781 -0.2844449
-0.029867863 -0.04071698 -0.08226413 0.19715832 -0.041010868 -0.07552314 -0.008050424 0.039358977
0.2152056 0.26659065 0.019938666 -0.22605175 -0.26855403 -0.060660597 -0.0491482 0.2515227
-0.03239932 -0.042345602 -0.05856531 -0.005555297 0.1833632 0.048349142 0.114796415 0.042712145

model_embedding.bias f4 [32]
00000000: 5435 26bb 292e 13b8 9037 df36 a070 9c3b
00000010: 57a0 19bc 2949 b137 161a eabb 6816 42bb
00000020: 04fd 2f38 f959 1b3d a8b1 febc 60d8 793c
00000030: 81f9 45bb 682f 763a db5c d336 730d 7ebc
00000040: a0a4 1439 5f19 d6ba c76e bcb7 7428 4cbd
00000050: ab3f 66b7 d102 84b6 5c75 a23b f50d 663c
00000060: 123e e5b6 1474 f4bb d9b4 1fbb f77a 90bc
00000070: cdde 0eb7 5da3 dfb9 649c bfba f403 ecbb
-0.0025361376 -3.509052e-05 6.652386e-06 0.004774168 -0.009376607 2.1134112e-05 -0.007144223 -0.0029615406
4.195889e-05 0.0379276 -0.031090572 0.015249342 -0.003020853 0.00093912194 6.2991e-06 -0.015506136
0.00014175707 -0.0016334465 -2.2462931e-05 -0.049843267 -1.3723892e-05 -3.9342344e-06 0.004957838 0.014041414
-6.8319578e-06 -0.0074601267 -0.0024369268 -0.01763676 -8.515734e-06 -0.0004265559 -0.0014618752 -0.0072026197

dataset_embedding.weight f4 [16, 3]
00000000: 7bb4 edbe efb4 ca3d 8c4f c6be 2998 81be
00000010: bbaa c4be 6f03 c73d 4a06 41be 23a6 b3be
00000020: aed9 05bf 094b af3e df71 debe ab2b 863e
00000030: a5f3 273f a0ca 15bf f2a3 bc3e 232d 97bd
00000040: 74e6 bebc 60d3 dc3e 6ce0 43be 7a76 ee3e
00000050: b2e0 853d 45ab a1be e1e5 973a 68b2 4c3e
00000060: bff4 853d deb9 1d3f ba59 4e3e 5921 cebe
00000070: 60db 5bbe f1c1 f0be 99ff 163f 2db9 ffbe
00000080: a547 78be 4f39 0b3f 5d55 273d 143c 4abe
00000090: f15b 773d a5e6 223c 3cd4 90bc fea6 013f
000000a0: 0738 c6be 8573 493e f626 083f 2b7c 0dbf
000000b0: a8e8 dd3e ece6 12be 0a8b bb3e 4348 b43e
-0.46426758 0.098977916 -0.38732564 -0.253114 -0.38411507 0.09717452 -0.18850055 -0.3508769
-0.5228528 0.34236935 -0.43446252 0.2620519 0.6560615 -0.58512306 0.3684383 -0.07381656
-0.023303248 0.43130016 -0.19128579 0.46574765 0.06536998 -0.3157598 0.0011588895 0.19989932
0.06540822 0.61611736 0.20151415 -0.40259817 -0.21470404 -0.47022966 0.5898376 -0.49945965
-0.2424608 0.5438432 0.040852893 -0.1974948 0.060390417 0.009942685 -0.017679326 0.50645435
-0.3871462 0.19672973 0.5318445 -0.5526759 0.43341565 -0.14345902 0.36629516 0.3521138

dataset_embedding.bias f4 [16]
00000000: 6cf0 19b8 38b2 0b3d 1647 73b7 dc76 fc3b
00000010: d750 9f36 3fc9 923a 421d 86be 0e29 083e
00000020: c234 833e 883c f737 bc44 233d 0961 253d
00000030: 404f dbbd 0f83 ddbc 4f41 013e 8b02 3437
-3.6701953e-05 0.03410551 -1.450048e-05 0.007704599 4.7479803e-06 0.0011198892 -0.26194197 0.13296911
0.2562619 2.9472882e-05 0.039860472 0.040375743 -0.10708475 -0.027040033 0.1262257 1.0729428e-05

tensor_network.0.weight f4 [16, 1]
00000000: d97f debe 194e ec3e c119 a83c 7ddf 033f
00000010: 9107 883c 1007 383f 7c41 773d 50d0 d23e
00000020: b83d ecbd 646d 683d 0546 ea3d 8de3 933c
00000030: 2159 ebbe 4a9a 81b4 0a9c 213f d229 b1be
-0.43456915 0.46153334 0.020520093 0.5151289 0.01660517 0.71885777 0.060365185 0.41174555
-0.115352094 0.056744948 0.114391364 0.01805284 -0.45966437 -2.4140382e-07 0.6312872 -0.3460222

tensor_network.0.bias f4 [16]
00000000: a978 003f a66a 083f 563a f63c 4d20 b9bd
00000010: bd1c 8c3d 61dd dabe 0cfe d536 7b66 d9be
00000020: 4abc 533d 72a2 913e acb3 4bbf 009b 003f
00000030: 9766 003f f76f 57be 81ab 033f 82d6 07bf
0.5018411 0.5328773 0.030057114 -0.09039364 0.06841419 -0.42747024 6.3774696e-06 -0.42461
0.05169324 0.28444248 -0.7957103 0.5023651 0.5015654 -0.21038805 0.5143357 -0.5306169

tensor_network.2.weight f4 [16]
00000000: 5d3a 7c3f eff6 773f 1fe5 783f 23ad 7e3f
00000010: 7f00 7e3f e33a 7c3f 2853 7a3f 73c0 793f
00000020: 62a5 803f 67a5 783f 6c69 773f c9ba 793f
00000030: 01cb 783f 9a08 2f3f c9d9 7d3f 9a08 2f3f
0.98526555 0.96861166 0.9722461 0.99482936 0.99219507 0.98527354 0.97783136 0.9755928
1.0050471 0.97127384 0.96645236 0.97550637 0.9718476 0.683725 0.9916044 0.683725

tensor_network.2.bias f4 [16]
00000000: b42c d6b7 5ed7 2837 6283 0cb7 fc1e 4238
00000010: 4eae 50b7 0fca 81b8 c75b feb7 abdd 50b8
00000020: c453 86b7 6f77 af37 7b63 93b7 ac0a af37
00000030: 7ae5 b338 f65c c02f cb2b 5f37 ca8e cdae
-2.5531604e-05 1.0063724e-05 -8.37524e-06 4.628206e-05 -1.243835e-05 -6.188836e-05 -3.0321897e-05 -4.979751e-05
-1.6013051e-05 2.0917241e-05 -1.757009e-05 2.0866595e-05 8.5781285e-05 3.499065e-10 1.3302032e-05 -9.347685e-11

tensor_network.2.running_mean f4 [16]
00000000: 4006 673e 0ece 4d43 64a3 1041 6878 6243
00000010: 05cf 0541 a568 9d43 0638 e041 4338 3443
00000020: eb28 bb3c f780 d541 ce99 4742 595d 0e41
00000030: c2d2 663e 0000 0000 2524 8c43 0000 0000
0.22560978 205.8049 9.03989 226.47034 8.363042 314.81754 28.027355 180.21977
0.02284666 26.687971 49.9002 8.89779 0.22541335 0.0 280.28238 0.0

tensor_network.2.running_var f4 [16]
00000000: b524 883d fe4b cd48 0d35 4a44 68cc f948
00000010: c135 3044 df85 7149 4858 f645 8275 9e48
00000020: 2ecd 323a b298 da45 3c95 c446 38c1 3044
00000030: 3fe8 873d 5384 5125 2b9e 3e49 5384 5125
0.06647626 420447.94 808.8289 511587.25 704.8399 989277.94 7883.035 324524.06
0.0006820735 6995.087 25162.617 707.01904 0.06636094 1.8172694e-16 780770.7 1.8172694e-16

worker_network.0.weight f4 [16, 1]
00000000: f3e7 183f 8e32 b2be c4de c7be 0a15 0bbf
00000010: 38b9 d0bd 77c1 5dbe e938 05bf 8007 70be
00000020: 631c 2dbc 5a74 143f 7c59 903e b08d 4d3d
00000030: 7c4a afbd e64b b43d 5936 b6be 5e42 3c3f
0.59728926 -0.34804195 -0.39037144 -0.5432898 -0.10191578 -0.21655832 -0.52039963 -0.23440361
-0.01056585 0.5799004 0.2819327 0.05018395 -0.08559129 0.08803539 -0.3558834 0.7353877

worker_network.0.bias f4 [16]
00000000: 2187 d9be de3c 73be a843 be3e e724 10bf
00000010: 226c ce3c 3b3f 3a3e fdae eaba 8621 44bc
00000020: 25a6 743d c0ad 0e3d 2e33 06bf 4b80 11bf
00000030: 85dd 623e debb 66bc a609 2cbf 8077 48bf
-0.42485908 -0.23753688 0.37160993 -0.5630631 0.025198046 0.18188183 -0.0017904934 -0.011970883
0.05972876 0.03483367 -0.52421844 -0.56836385 0.22154815 -0.014082877 -0.6720222 -0.7830734

worker_network.2.weight f4 [16]
00000000: d138 803f 9a08 2f3f 2522 7e3f 9a08 2f3f
00000010: df0f 793f c6ca 7e3f 9a08 2f3f 8908 2f3f
00000020: 3e5c 773f f547 7f3f 92c0 813f c462 7e3f
00000030: e47c 773f 8970 7a3f 9a08 2f3f 8e09 803f
1.0017339 0.683725 0.9927085 0.683725 0.9728984 0.9952816 0.683725 0.683724
0.96625125 0.9971917 1.0136893 0.99369454 0.9667494 0.97827965 0.683725 1.0002916

worker_network.2.bias f4 [16]
00000000: 1567 3338 5f44 f6ae 710d b3b7 200c f2af
00000010: adde f337 1295 1bb8 3d2b 6530 fe89 10b1
00000020: d9a4 3938 10d6 0eb8 c060 fcb7 9442 2b37
00000030: 4caa a7b8 3ef5 46b8 a0dc c0ae 6e22 9cb7
4.277293e-05 -1.119893e-10 -2.1344722e-05 -4.402816e-10 2.9071549e-05 -3.7093712e-05 8.337116e-10 -2.1033197e-09
4.4260963e-05 -3.40548e-05 -3.0085794e-05 1.0207896e-05 -7.994901e-05 -4.743528e-05 -8.77034e-11 -1.8612682e-05

worker_network.2.running_mean f4 [16]
00000000: bd3e 0b40 0000 0000 b2e6 2b3e 0000 0000
00000010: d85c 383c 1cd6 a53d 0000 0000 3ead b625
00000020: 20f0 093d d9de 1940 3933 573f 1c1c af3c
00000030: dee9 d63d 0885 b43e 0000 0000 2be8 2140
2.1757042 0.0 0.16787222 0.0 0.011252604 0.08097479 0.0 3.168936e-16
0.033676267 2.4042265 0.84062535 0.021375708 0.104938254 0.35257745 0.0 2.5297954

worker_network.2.running_var f4 [16]
00000000: 7667 0f41 5384 5125 b7c0 163d 5384 5125
00000010: 5674 2d39 c753 0c3c 5384 5125 a784 5125
00000020: 1078 433a 8b2e 1841 2aa3 d83f 13f4 513b
00000030: c84b 343c ca62 5c3e 5384 5125 4f9d 4e41
8.962759 1.8172694e-16 0.03680488 1.8172694e-16 0.00016541904 0.008564896 1.8172694e-16 1.8172805e-16
0.00074565504 9.511363 1.6924794 0.0032036349 0.011004396 0.2152206 1.8172694e-16 12.913405

batch_network.0.weight f4 [16, 1]
00000000: cfb5 c33e f9c9 abbe abce 1abf 8d5f 173f
00000010: 9ca5 8fbe 1e69 fa3c b0c1 22bf 9bf0 efbe
00000020: 85a0 ac3e eef8 74be aac0 cd3c c476 23bf
00000030: 013c 273f 2369 103f 8ee0 01bf 05c2 473e
0.38224646 -0.3355253 -0.604716 0.59130174 -0.28056037 0.030567702 -0.63576794 -0.46863255
0.33716217 -0.23923084 0.025116283 -0.63853097 0.65325934 0.56410426 -0.5073327 0.19507606

batch_network.0.bias f4 [16]
00000000: a640 523c 4a4e 21bf 396d 49be 80e0 013f
00000010: 8204 a13e 846b 783e 169a 17bf afd7 25b9
00000020: 6259 c33e 3aff 1c3f cdeb b23b f942 a83e
00000030: ba12 01bf 9e67 923e 084d 25bf ced7 ffbd
0.012832796 -0.63010085 -0.19670571 0.50733185 0.31448752 0.24259764 -0.5921949 -0.00015815975
0.3815413 0.61326945 0.0054602385 0.32863596 -0.504192 0.2859468 -0.64570665 -0.12492333

batch_network.2.weight f4 [16]
00000000: 44c6 7c3f 9a08 2f3f 9a08 2f3f 8756 7a3f
00000010: 1425 7b3f 92c9 7e3f 9a08 2f3f 9a08 2f3f
00000020: 7695 7d3f eee4 7e3f 7fb2 773f 501d 7a3f
00000030: 153c 803f 65d1 7c3f 9a08 2f3f c0d1 7b3f
0.9874003 0.683725 0.683725 0.9778828 0.9810345 0.9952632 0.683725 0.683725
0.99056184 0.9956807 0.9675674 0.9770098 1.0018336 0.9875701 0.683725 0.9836693

batch_network.2.bias f4 [16]
00000000: 8c55 1038 a55a 3030 dc2b 5a2f 2845 5838
00000010: ec47 d9b7 0dc2 1938 d943 a1af b2a0 2eaf
00000020: 4a14 6338 74be 1335 47a1 3437 56d2 a4b8
00000030: 275c 0937 d233 f736 393c c0b0 d202 a6b7
3.4411947e-05 6.415724e-10 1.9842566e-10 5.156282e-05 -2.5901907e-05 3.6658766e-05 -2.9333938e-10 -1.5882298e-10
5.4139913e-05 5.5038913e-07 1.0766386e-05 -7.8593075e-05 8.187292e-06 7.3672063e-06 -1.3986955e-09 -1.9790055e-05

batch_network.2.running_mean f4 [16]
00000000: 98ad 2942 0000 0000 0000 0000 8d72 8342
00000010: 00d6 383e 6eba 7940 0000 0000 0000 0000
00000020: 4779 1742 3e6a b13e 7bb4 4140 5c10 3e3e
00000030: 9b45 8e42 f925 7a42 0000 0000 9afd aa41
42.419525 0.0 0.0 65.72373 0.18050385 3.9020038 0.0 0.0
37.868435 0.3465137 3.0266407 0.18560928 71.13595 62.537083 0.0 21.373829

batch_network.2.running_var f4 [16]
00000000: cbbe 4c46 5384 5125 5384 5125 46f9 f146
00000010: 4ad8 db3c 55b6 c442 5384 5125 5384 5125
00000020: eff7 1f46 8d4f ca3d 32df 8642 f42c e83c
00000030: dea5 1047 827b dc46 5384 5125 d3ce 5045
13103.698 1.8172694e-16 1.8172694e-16 30972.637 0.026836533 98.35612 1.8172694e-16 1.8172694e-16
10237.983 0.09878454 67.43593 0.028341748 37029.867 28221.754 1.8172694e-16 3340.9265

ps_network.0.weight f4 [8, 1]
00000000: 4852 bc3d fb3d 1a3c 469b 36bd 1380 ecbe
00000010: 5e13 43be b379 56bb 8cae abbd ace0 673e
0.091953814 0.009414191 -0.044581674 -0.46191463 -0.19050357 -0.0032726347 -0.083829015 0.226443

ps_network.0.bias f4 [8]
00000000: d627 c5be 5eda 6bbe 69cb 30bc 5abe e13e
00000010: dae4 72bb d2e8 aebd 818f fa3d 5258 943a
-0.38506955 -0.23032519 -0.010790684 0.4409054 -0.0037062676 -0.08540501 0.122344024 0.0011317825

ps_network.2.weight f4 [8]
00000000: 9a08 2f3f 9a08 2f3f 9908 2f3f 38f0 7d3f
00000010: 9a08 2f3f 9a08 2f3f 15ae 753f 6c8e 813f
0.683725 0.683725 0.68372494 0.9919467 0.683725 0.683725 0.95968753 1.0121589

ps_network.2.bias f4 [8]
00000000: c5f3 c3b0 2ce3 49af 8f9c a62f 3687 3137
00000010: 2234 d32d 5640 852f 8eda 4537 1384 1db8
-1.4257401e-09 -1.8361551e-10 3.0306466e-10 1.0581503e-05 2.4011074e-11 2.4238273e-10 1.1793001e-05 -3.755472e-05

ps_network.2.running_mean f4 [8]
00000000: 0000 0000 0000 0000 dfd2 8822 91ea 7f3e
00000010: 0000 0000 0000 0000 f271 b93d f445 d33d
0.0 0.0 3.7086142e-18 0.24991824 0.0 0.0 0.090549365 0.10316077

ps_network.2.running_var f4 [8]
00000000: 5384 5125 5384 5125 5384 5125 1f84 523d
00000010: 5384 5125 5384 5125 31a3 eb3a 4753 5f3c
1.8172694e-16 1.8172694e-16 1.8172694e-16 0.05139553 1.8172694e-16 1.8172694e-16 0.0017977712 0.013630695

main_network.0.weight f4 [128, 104]
00000000: e8ab ecbd 8a34 893d 9d0f 3dbd c8af 223e
00000010: 60cc 1b3e b5ee dd3d eb65 bfbd 46d9 52bd
00000020: b28a f83d 59ae cc3d 8860 1bbc e906 b7bd
00000030: 4312 a43c 4ffa 81bc 13fe 2f3d fec6 1fbd
00000040: 9569 b03b 234d c8bd 93a4 8d3d 82f7 20be
00000050: e32b adbd edef 9cbc 29b7 49bc 99dd 603d
00000060: a9a4 1dbd 03c5 70bc 2f66 41bd be73 633b
00000070: 75e5 473d bc83 023d d4ac 613d 3c57 fc3d
00000080: fbb5 143d 7e14 d03a b1d8 95bc 02a4 d6bc
00000090: b287 813d 70e5 b73c 6a96 633d b773 fdbd
000000a0: a4aa c0bd de8a 95bd a2d1 f63d f7e1 f33d
000000b0: 4892 60bd 7c44 903d 2710 c83a e7a1 c2bc
000000c0: eccf a63d 2476 8b3a 1754 1cbd a54b cb3d
000000d0: 7909 623d 6c55 01bd c87a f9bb 884e b5bd
000000e0: f1ac 1bbd 209a 4fbd 6547 77bd e1d3 81bd
000000f0: 593e c3bd b51f 6e2e 240d a2bd 294d f22f
00000100: 6adc eb3c 372b cf2e f4d3 673a de1e d32d
00000110: 2107 85bd 7500 2b3d 2d6c 7831 598c 0035
00000120: f5b6 8f3d 9e69 9abd 8a61 643d 0502 50bc
00000130: e936 ad3c 9412 75bd a43b 8230 edc1 d93d
00000140: 9b95 c8bd e77a 0b2e 2e83 5eae 6ac6 94bd
00000150: d2bf 0cbc 5064 a1bd a917 9eae ee85 f6b2
00000160: 5582 af3c 9cfd d6bc 4ab3 793d 57f5 813d
00000170: f7c3 303d 0abb d1bd f0f8 862f 474b d73c
00000180: 2f4d 9f30 74b3 e8ae 0671 e831 37d5 d83d
00000190: 0824 3730 b70f aead fa4a 04bc 8d2d 3bbd
000001a0: eb87 0abd 7004 9dba 4bca 993b ffdd 14bc
000001b0: 02d5 2ebb b401 07bd 10a9 11bd 838f bcbd
000001c0: bc8c ddbd 1553 d23c 8a9e a23d f18d 913d
000001d0: 8cf8 babd 2b75 22ba eaea 103d 1032 fabc
000001e0: 6472 85bd d545 913d e633 c53d c8c1 14bb
000001f0: 43c7 113c 1384 ad3d c1a7 1fbd 6987 933d
00000200: 2828 a63d 7c8b 103d d186 0ebd 41dd e6bc
00000210: 36a2 1bbd 0a9d a5bc 7783 07bd 91e6 1fbd
00000220: cd2c ff3c 5fbb 1a3d 3e57 323c 41a0 7cbd
00000230: a789 8cbd 3dde 8bbd 529b 9fbd ee58 0dbd
00000240: b066 a3bd 73f6 5fbd e24d 543d 04e5 cbbc
00000250: d8cc 873b 8eac 62bd bf46 aabd 6d1e b3bd
00000260: bb0b de3b 015e 6abd e8ed 763d 1639 583d
00000270: 5dc7 febc da03 08bd ab68 f23a a6f2 14bc
00000280: 972c 8e3c 9553 b63d 1b34 b7bd 0956 d6bc
00000290: 04c6 893d 635e 44af a595 f63c 6567 ad30
000002a0: 4b5d 843d a2a1 c92f 5545 c7bd ac82 4e30
000002b0: 50ae 343d 4062 93bc 475f 76af c717 d5b4
000002c0: 78b4 183c be2c 29bd e0c1 46bd 65fe db3b
000002d0: 9c23 313c 94be 4d3c 7a00 842e c788 87bd
000002e0: 04dd 4cbb ef4f 56b0 94ce c134 36a7 c43c
000002f0: ec51 e33b 9c73 ac3d 8c49 02b0 abec eb2f
00000300: 10de d53d 7a9d eb3d c12f c03c 2fdd 65bd
00000310: bee0 683d d897 b73d e90f 5ab2 6bbf db3d
00000320: b07c ae31 dfa8 81b2 8fd2 39b3 dcc0 803d
00000330: 06ff ad2f 1513 7b2f 81f1 7ebd 2606 e5bd
00000340: 13bf 37bd 71eb 1cbd a33c ce3d a829 b6bd
00000350: befe 39bd 47a9 dd3d 08cf 5f3d a794 9f3d
00000360: bb64 10bd 7733 643d 6feb 7f3d 3f50 c33d
00000370: 694a c53d 1f11 8cbd 0e42 6d3c 081c 62bc
00000380: 821b 713d d5c7 423c 8433 b73c 4aba 90bc
00000390: 7589 96bd 6252 343d 6617 1ebd 33ab 80bb
000003a0: e328 a43d d5a9 93bd 64bf e2bb 512a df3c
000003b0: b6bc 3e3d c373 0d3d 171b d23d e3eb 59bd
000003c0: 5bf8 813d e5c1 033d af98 a1bc 2d48 9fbd
000003d0: bfb7 59bd cff6 0ebd 9559 9f3d 5041 55bd
000003e0: fdf4 853d 07e2 913d e2e0 56bd af70 8bbd
000003f0: 5193 2dbd ae4e 053d 25be ef3c f0b8 d7bd
-0.11556226 0.06699474 -0.046157468 0.15887368 0.15214682 0.108365454 -0.09345611 -0.05147674
0.12135829 0.09994192 -0.009483464 -0.08936865 0.02002824 -0.015866427 0.042966913 -0.039008133
0.00538368 -0.09780338 0.06916156 -0.15719417 -0.08455636 -0.019157374 -0.012311735 0.054898832
-0.03848711 -0.014695409 -0.04721659 0.003470644 0.04880281 0.031863913 0.055096462 0.12321326
0.036306363 0.0015875248 -0.018291803 -0.026201252 0.0632471 0.022448272 0.055563368 -0.123755865
-0.09407547 -0.073018774 0.12051703 0.11908334 -0.054827005 0.07044312 0.0015263603 -0.023758842
0.08145127 0.0010640067 -0.03816613 0.099265374 0.055184815 -0.031575605 -0.0076135136 -0.08852869
-0.038006727 -0.050684094 -0.06037082 -0.06339241 -0.09533376 5.4143096e-11 -0.079126626 4.407437e-10
0.028791625 9.420947e-11 0.0008843534 2.400163e-11 -0.064955 0.041748483 3.615024e-09 4.788795e-07
0.07017318 -0.07539676 0.055757083 -0.012695794 0.021144347 -0.05983217 9.475696e-10 0.106326915
-0.0979416 3.17141e-11 -5.0593467e-11 -0.07264407 -0.008590655 -0.07880461 -7.189211e-11 -2.8699073e-08
0.021424452 -0.026243977 0.060962 0.06345623 0.043155637 -0.10240753 2.455134e-10 0.026281012
1.159071e-09 -1.0582016e-10 6.764938e-09 0.105875425 6.6626216e-10 -1.9788489e-11 -0.008074516 -0.045697737
-0.033821028 -0.0011979472 0.0046933047 -0.009086131 -0.0026677256 -0.03296061 -0.03556162 -0.0920706
-0.108178586 0.025674382 0.07940395 0.07107151 -0.09129438 -0.0006197269 0.03538028 -0.03054145
-0.06515959 0.070933975 0.096290395 -0.002269851 0.008897605 0.08472457 -0.038978342 0.07203562
0.08113128 0.035289273 -0.03479654 -0.028181674 -0.037996493 -0.020216484 -0.03308436 -0.039038245
0.031149292 0.037776347 0.010885058 -0.061676268 -0.068621926 -0.06829498 -0.07793297 -0.034508638
-0.079785705 -0.05467839 0.051832087 -0.024889477 0.0041442923 -0.055340342 -0.08314275 -0.08746038
0.0067763007 -0.057218555 0.06028548 0.052788816 -0.031100923 -0.033206798 0.0018494328 -0.009091055
0.017355246 0.08902661 -0.08945485 -0.026164072 0.067272216 -1.7859629e-10 0.030100653 1.2616793e-09
0.06463107 3.6676534e-10 -0.09730021 7.512806e-10 0.04411155 -0.017991185 -2.2407419e-10 -3.9691642e-07
0.009320371 -0.041302435 -0.048524737 0.006713676 0.010811713 0.012557644 6.00275e-11 -0.06617885
-0.0031259665 -7.796634e-10 3.6099357e-07 0.024005514 0.006937256 0.08420488 -4.739824e-10 4.2914414e-10
0.10442746 0.11504646 0.02346027 -0.05611914 0.056854956 0.08964509 -1.2692888e-08 0.107298695
5.078242e-09 -1.509437e-08 -4.326517e-08 0.06286785 3.1649722e-10 2.2835096e-10 -0.062242035 -0.11182813
-0.044859957 -0.038310472 0.10070159 -0.08894664 -0.045408957 0.10823303 0.0546408 0.07792025
-0.035252314 0.055713143 0.062480386 0.0953679 0.09633333 -0.06839203 0.014481081 -0.0138006285
0.058864124 0.011888464 0.022363432 -0.017666955 -0.073504366 0.04402388 -0.038596533 -0.0039266585
0.08015611 -0.07210127 -0.006919788 0.027241858 0.046566688 0.034534227 0.10259073 -0.053203475
0.06346198 0.032167334 -0.019726126 -0.07777438 -0.05315375 -0.034903344 0.07780758 -0.05206424
0.065408684 0.071231894 -0.05246056 -0.06808602 -0.04237682 0.032545738 0.029265473 -0.10533321

main_network.0.bias f4 [128]
00000000: b33c 0837 7702 9436 ac78 80b5 4a1f 1f34
00000010: e67e 4337 b1ad 35b6 04f0 e1b7 eaf7 4636
00000020: 42a7 e2b6 3de7 3036 1e4e 40b6 0ae1 19b7
00000030: 94d2 6e36 d431 b0b5 d3ef c3b6 103b a9b6
00000040: d5af e0b4 d2a0 a1b7 30d5 a736 8869 4337
00000050: 7213 85b6 66bb 98b6 b70c e9b5 94d8 61b6
00000060: e0f1 3d37 43c7 59b7 0352 f036 bf22 f335
00000070: 65e5 4cb6 e828 e036 8ae3 0b36 0477 29b7
00000080: 8ebe b636 4fe6 5435 95b4 7cb6 32d1 9337
00000090: d5c6 22b7 6280 f6b5 7bde 9935 cb46 27b7
000000a0: d983 88b7 ccb9 ba37 7c8a 4737 0eaf 4a37
000000b0: aba7 b636 e7b1 ab34 2eee f436 109a 9536
000000c0: 1e4a 4fb6 1b1d a7b6 7c32 ebb6 1da8 e636
000000d0: 6f39 f9b5 4c03 1637 0678 3336 fa7e 20b7
000000e0: 92d2 ae36 43a7 e6b6 9c91 7cb5 2caf 8bb7
000000f0: 3e5a 88b7 cd21 de36 9aed 9fb6 9f0d 96b5
00000100: 0241 74b6 e830 1736 5b1e 48b5 8d6b 4b36
00000110: 581d ccb6 2920 46b6 7d22 afb6 7f55 dcb6
00000120: 86df 8735 9333 b3b6 b350 b735 ec21 a537
00000130: 6bba b335 a8ea 70b5 f501 a2b7 6e9e 2cb7
00000140: 0cc1 3436 12d3 90b6 2396 3f37 c150 c7b4
00000150: d1ed 0e36 edf1 4b37 3014 8d37 f854 9bb5
00000160: 86a3 27b7 1077 f1b5 ed5f 1036 2227 b236
00000170: b612 a136 cb80 00b7 afe7 8b36 85cc d336
00000180: 41f3 a535 8b16 bb35 14b2 9136 5d24 cbb6
00000190: 3ba1 2836 c8d0 4736 e2ed 2637 ff1f 6d36
000001a0: 0c37 95b7 a10d 22b7 aa20 56b7 7195 69b7
000001b0: ff68 ac36 f7c1 99b7 ef20 1936 0311 7936
000001c0: 5ba2 6835 67b3 d3b6 569d cd36 992b 13b6
000001d0: 03b1 8834 3275 9ab6 714a b436 0a14 9e35
000001e0: 6665 a637 96c4 7336 4560 b9b6 2941 0835
000001f0: 698b f6b5 8513 4836 f3c7 0eb7 780e abb4
8.120364e-06 4.4110307e-06 -9.571863e-07 1.4819412e-07 1.1652452e-05 -2.7072203e-06 -2.6933856e-05 2.9648604e-06
-6.7547962e-06 2.6360642e-06 -2.86557e-06 -9.171907e-06 3.5587336e-06 -1.3127524e-06 -5.839372e-06 -5.0434683e-06
-4.1851186e-07 -1.9267583e-05 5.001806e-06 1.1647477e-05 -3.9659726e-06 -4.551769e-06 -1.7363553e-06 -3.3653678e-06
1.1321594e-05 -1.2980602e-05 7.162105e-06 1.8115023e-06 -3.0531894e-06 6.6804823e-06 2.084506e-06 -1.0100895e-05
5.446206e-06 7.93113e-07 -3.7656039e-06 1.762118e-05 -9.702247e-06 -1.8365793e-06 1.1464139e-06 -9.970458e-06
-1.627386e-05 2.2259446e-05 1.1893568e-05 1.2080896e-05 5.443542e-06 3.1980673e-07 7.2994944e-06 4.4584813e-06
-3.0888546e-06 -4.980376e-06 -7.009423e-06 6.874105e-06 -1.8568661e-06 8.941464e-06 2.6742941e-06 -9.566307e-06
5.2101177e-06 -6.874006e-06 -9.4089205e-07 -1.6651662e-05 -1.6254486e-05 6.6200505e-06 -4.7662297e-06 -1.1179835e-06
-3.6396673e-06 2.252922e-06 -7.454998e-07 3.031196e-06 -6.08309e-06 -2.9523019e-06 -5.2194214e-06 -6.566464e-06
1.0123338e-06 -5.3406197e-06 1.3658049e-06 1.9685329e-05 1.3390794e-06 -8.9748437e-07 -1.9312816e-05 -1.0288886e-05
2.6934458e-06 -4.3161062e-06 1.1419444e-05 -3.7125395e-07 2.1298076e-06 1.2156071e-05 1.681791e-05 -1.1573129e-06
-9.992049e-06 -1.7990551e-06 2.1513508e-06 5.309369e-06 4.800352e-06 -7.6593815e-06 4.1694943e-06 6.3120992e-06
1.2364254e-06 1.3939147e-06 4.3420678e-06 -6.0541047e-06 2.51278e-06 2.9774837e-06 9.949757e-06 3.5334376e-06
-1.7787817e-05 -9.659126e-06 -1.2762999e-05 -1.3922677e-05 5.1382226e-06 -1.8329343e-05 2.2817947e-06 3.7113793e-06
8.6662993e-07 -6.309175e-06 6.1277924e-06 -2.1930084e-06 2.5460767e-07 -4.603201e-06 5.373084e-06 1.177775e-06
1.983596e-05 3.632425e-06 -5.524637e-06 5.075877e-07 -1.8369002e-06 2.9813684e-06 -8.510414e-06 -3.186176e-07

main_network.1.weight f4 [128]
00000000: 9c5d 8a3f df33 793f ee50 803f 37c3 753f
00000010: 8975 7f3f bfca 763f 7db9 843f 6e7f 7b3f
00000020: d9de 773f afd4 803f 0160 823f 1988 7b3f
00000030: 3986 7c3f 35d9 7d3f ae76 813f 8fd2 813f
00000040: 984f 7e3f c8d1 813f a69c 703f d0c8 7c3f
00000050: 9164 7c3f 6a3f 863f 9874 7d3f 0996 713f
00000060: 965d 743f ca42 7c3f fe1e 783f dcb3 733f
00000070: 68c0 7b3f 0989 873f d745 783f 47f2 7c3f
00000080: 2f5f 823f 2187 783f 828d 853f 8f64 823f
00000090: 14f5 843f 5daf 823f 4072 7a3f 2741 7f3f
000000a0: ef0b 813f ec86 8a3f d10c 823f 7458 893f
000000b0: f7ac 833f 4431 7d3f 86e4 813f 9217 7e3f
000000c0: 329a 823f 73d8 843f f7dd 883f 3731 803f
000000d0: abae 793f ca54 783f 5187 783f 1094 7e3f
000000e0: c0d4 763f 2588 793f 4389 7e3f 3962 843f
000000f0: c150 7c3f f677 8a3f b196 7b3f bfce 803f
00000100: ed96 833f 6add 793f e546 7a3f e292 7b3f
00000110: f8a1 803f 6abb 823f cb63 833f d32d 7f3f
00000120: ccbe 823f 3e4d 813f 8b9f 7a3f 542a 803f
00000130: a71b 823f 0eaf 7b3f d6ca 7a3f ea0f 7a3f
00000140: dd5b 783f 4fa1 793f f558 7e3f a9c3 813f
00000150: 5b2d 803f 899c 793f 3459 7f3f 0343 823f
00000160: dd37 7d3f f9db 763f 3d72 783f 09a7 873f
00000170: 58d3 7d3f ac68 873f c6bc 8e3f 5179 813f
00000180: 28e4 723f 29fb 7d3f e5f3 823f 908f 813f
00000190: 0ab8 783f 63bf 783f 56cb 7c3f a016 853f
000001a0: ab28 7b3f b97e 873f 363f 743f 5ba4 7e3f
000001b0: b4e0 7a3f 6818 843f 58d0 763f 1b91 793f
000001c0: bf6f 813f 2a41 7e3f e642 773f 9462 7b3f
000001d0: e38b 753f 3644 783f 4603 773f 58dc 843f
000001e0: 5c5e 7f3f df29 803f a86f 823f e303 7b3f
000001f0: c844 703f fab8 7f3f 441e 773f 18ee 773f
1.0809817 0.97344774 1.0024698 0.96001 0.9978872 0.96403116 1.0369107 0.9824132
0.96824414 1.0064906 1.0185548 0.98254544 0.9864231 0.99159557 1.0114343 1.0142382
0.993402 1.0142145 0.93989027 0.98743916 0.9859095 1.0488102 0.9900603 0.9436956
0.954553 0.9853941 0.9692229 0.9519632 0.98340464 1.0588695 0.9698157 0.98807186
1.0185298 0.9708119 1.043381 1.0186938 1.0387292 1.0209767 0.9783058 0.9970879
1.0081767 1.0822425 1.0160161 1.0730119 1.028716 0.989033 1.0147865 0.99254715
1.0203307 1.0378555 1.0692738 1.0015019 0.9753215 0.9700438 0.97081476 0.99444675
0.9641838 0.97473365 0.99428195 1.0342475 0.9856072 1.0817859 0.9827681 1.0063094
1.0280434 0.97603476 0.97764426 0.98271 1.0049429 1.0213444 1.0264829 0.996793
1.0214477 1.0101697 0.97899693 1.0012918 1.0164689 0.9831399 0.97965753 0.9768053
0.9701517 0.9751176 0.9935449 1.0137836 1.0013841 0.9750448 0.9974549 1.01767
0.98913366 0.964294 0.97049314 1.059785 0.9915061 1.0578818 1.1151359 1.0115148
0.9487939 0.99211365 1.0230681 1.0121937 0.9715582 0.9716703 0.98747766 1.039753
0.9810893 1.0585548 0.9540895 0.99469537 0.9799912 1.0319948 0.9641166 0.9748704
1.0112227 0.9931818 0.96586454 0.98197293 0.95916575 0.9697908 0.9648937 1.0379744
0.99753356 1.0012778 1.0190325 0.98052806 0.9385495 0.99891627 0.96530557 0.9684768

main_network.1.bias f4 [128]
00000000: 967f 503d de4e 66bd 5793 753d f14f 4dbd
00000010: 04e7 073d 0d42 22bd 178f 013d 15da 96bc
00000020: de81 cfbc bb99 9a3a 8fc2 0d3c a13d 6cbc
00000030: 0afc 23bd ffde f939 91e6 9b3c dd3b 053d
00000040: 80f5 70bd 1467 05bc 3394 85bd 5b30 b6bc
00000050: c315 c5bb 924d de3c 9b87 a9bc 39cd 77bd
00000060: 659d 14bd 49f7 d8bc b1eb 98bc 04fe 20bd
00000070: a8c6 08ba 781e b73b e033 f13c 32d7 923c
00000080: 0019 e23b b85a 36bd 65c9 f33c c64a 813a
00000090: efe7 213d 008d dd3b c243 253a 5594 43bb
000000a0: c330 743d 9bc9 773d 5faf e83c 00ea 613d
000000b0: c0b4 053d 5cde 0b3c 56e9 153d 8436 9ebc
000000c0: 40be a83c 3f54 6a3d 7954 a63c 0fed d1bb
000000d0: 6b10 43bc 0497 a93b e88f 77bc 57fa 293d
000000e0: 1650 14bd d51e 04bc 1d8e ddbb e0c9 7b3d
000000f0: a581 713c 8e8c 6f3d 58e0 93bb 06f3 92bc
00000100: 8622 de3c a77e cfbc 2bd7 bbbc f6f8 ab3b
00000110: e1d8 a93c 1985 8a3c 025f cabc 4e29 65bb
00000120: a320 ef3c 8712 e13b 3faf 603b 99d1 35bc
00000130: e834 e23c 46cb 813b e452 8cbc a9dc 7cbc
00000140: 0b3f 8f39 60e9 3bbc 4be1 a1bc eaee fe39
00000150: d524 b2bc 1861 653c e2bf 873c aab2 f23c
00000160: e7a5 7aba b445 96bc a742 abbc 48fb cc3c
00000170: b979 743c a204 053d c149 393d 15de 983c
00000180: 2a98 ccbc 6d78 153c c2f8 403c 9daa 94bc
00000190: 07cb 93bc 60a4 b43a f5d6 96bb ac59 b23c
000001a0: cf76 76bc 3020 ce3c 3609 44bc c375 95bc
000001b0: adac 43bc f465 3f3d 58da 84bc 11cf a7bc
000001c0: fc77 d03c a73d db3c c57e 16bd 9d6e 3cbc
000001d0: 2eb2 06bd 5ca7 b2bc 6010 34bc b34b e13b
000001e0: fa6a ff3c dbff 7c3d 8df3 313b 04b1 eebc
000001f0: 4275 76bd 3889 c9bc e9e8 13bd a08a 32bd
0.050902925 -0.056227557 0.059954967 -0.050125066 0.033179298 -0.039613772 0.0316306 -0.018414536
-0.02533048 0.0011795083 0.008652343 -0.01441899 -0.040035285 0.00047659126 0.019030841 0.032527793
-0.058827877 -0.0081422515 -0.065224074 -0.022239855 -0.006014557 0.027136598 -0.020694545 -0.06049845
-0.036282916 -0.026485102 -0.018667074 -0.03930475 -0.00052175904 0.005588349 0.029443681 0.017924879
0.006899953 -0.04452011 0.029759118 0.0009864203 0.03952783 0.0067611933 0.0006304347 -0.0029843051
0.059616815 0.060495 0.028403936 0.0551548 0.03264308 0.008536901 0.03659948 -0.019313104
0.02059853 0.05720925 0.020303952 -0.0064064334 -0.01190577 0.005175473 -0.0151099935 0.04149851
-0.03620919 -0.008063992 -0.006761326 0.06147182 0.014740382 0.058483653 -0.004512828 -0.017938148
0.027116071 -0.025328947 -0.022929749 0.0052481843 0.020733299 0.016909169 -0.024703506 -0.0034967246
0.029190367 0.0068686637 0.0034284142 -0.011097335 0.027613118 0.0039609997 -0.01712937 -0.015433469
0.00027322056 -0.011469215 -0.019760748 0.0004862466 -0.021746079 0.0140002 0.016570989 0.02962621
-0.00095614645 -0.018343784 -0.020905806 0.025022164 0.014921599 0.03247512 0.045236353 0.018660584
-0.024974901 0.00912295 0.0117780585 -0.018147761 -0.018041147 0.0013781898 -0.0046032616 0.021771275
-0.015042975 0.025161833 -0.011965087 -0.01824463 -0.011943025 0.04672809 -0.016217396 -0.02048448
0.025447838 0.026762797 -0.03674199 -0.011500982 -0.03288477 -0.021808319 -0.010990232 0.006875479
0.03117894 0.06176744 0.0027153224 -0.029137142 -0.06017042 -0.024601564 -0.036110792 -0.043589234

main_network.1.running_mean f4 [128]
00000000: ca38 273d 2ba7 aabd e235 94bd e2c9 19bd
00000010: 2035 53bd 2b4f f8bc 653b ee3c 85a6 f9bc
00000020: 001f 563d 0090 813d f5c6 e3bd 0742 073c
00000030: fdde 7f3d 9cd3 413d 7c93 4a3e 35ab 943d
00000040: bd7b a23c f8cc b3bb 8139 a9bd 94d4 5d3b
00000050: 50a3 05bc 1507 303b fe0e a33d f788 ffbd
00000060: 316c 6a3b 92b4 a53d a8f2 cabd b573 f1bc
00000070: b07c 923c 9d91 57bd 5c72 b5bd 097c b93d
00000080: 7484 9cbd c80c e83c f5ca 3c3e 5368 27be
00000090: ea4a 523d f1fc cb3c 54cc 0abd 2394 943c
000000a0: 02be 56bc 3249 753e 0ea4 c03d 9ef7 803d
000000b0: 9f5a ddbd baa0 e8bc 9c26 6d3d d7dd 8bbd
000000c0: eb6d 0b3b 1932 25be 3965 af3d ce1e 7339
000000d0: 937b 37bd 0bb0 b7bd 8b48 cebc bcf8 1bbe
000000e0: 9255 9abd c50b 5d3d 4ce6 503c f7ef a2bd
000000f0: 0443 d53c e820 4f3d 99b9 653c ee7d c6bb
00000100: c858 adbd c44b bcbc ca57 0fbd fe03 183d
00000110: abc3 e3bd d589 a53b bde1 1f3e 8428 003d
00000120: ca78 023e cb26 9dbd 40ee 64bd 86e2 bd3d
00000130: 7923 bebd 8f63 e13d a801 f1bd ab77 f33d
00000140: d04f c83c 00e8 123d 26bd cc3d 81c9 f13c
00000150: 3e01 e43d 9ebb f83b 5474 efbc edd3 03bd
00000160: 6f3b 1e3d f033 453d b8ec 6ebd 09f3 363d
00000170: aa5c 2abd 7ce1 1f3e fc28 3d3e 6abd 343d
00000180: 7335 62bd eb7c 89bd bb94 3e3d 2020 923c
00000190: bd0a dfbc f940 c5bd 02a6 7d3d 8812 1f3d
000001a0: 9289 f3bb 3928 053e 0611 003d 5720 2a3d
000001b0: 4737 38bd b001 11be 5815 b8bd 003d 53bc
000001c0: e8ea 2a3d 1414 c63c e2e1 04be 88a6 4abe
000001d0: b805 083d b002 5d3d 9bff 313d 2562 973d
000001e0: 3a3e f93c 4865 babd efab 563d 8b57 09be
000001f0: e305 80bd 4949 6fbd 28fd c53d 5146 83bd
0.040825643 -0.08332666 -0.0723684 -0.037546046 -0.051564336 -0.030311188 0.029081056 -0.03047491
0.052275658 0.06326294 -0.111219324 0.008255488 0.062468518 0.047320947 0.19782823 0.07259218
0.019834394 -0.0054870807 -0.08262921 0.003384863 -0.0081566125 0.002685969 0.07961844 -0.12477296
0.0035770054 0.08091082 -0.09909564 -0.029474119 0.017881721 -0.052629102 -0.08859703 0.09056861
-0.07642451 0.028326407 0.18436797 -0.1634839 0.051340975 0.024900885 -0.03388627 0.018137043
-0.013106825 0.23953703 0.09406291 0.06297229 -0.108083 -0.028396953 0.05789815 -0.06829422
0.0021275233 -0.16132392 0.085642286 0.00023185762 -0.044795584 -0.089691244 -0.025181076 -0.15231603
-0.075358525 0.053966302 0.01275022 -0.07955926 0.026032932 0.05056849 0.014021301 -0.0060574925
-0.08464199 -0.022985347 -0.03499583 0.037113182 -0.11121305 0.0050518312 0.15613456 0.03128864
0.1274139 -0.07673415 -0.055891275 0.092717215 -0.092841096 0.110053174 -0.11767894 0.11888059
0.02445212 0.035865784 0.09997015 0.02951503 0.111330494 0.007590725 -0.029230274 -0.03218453
0.0386309 0.048145235 -0.05833122 0.04466537 -0.041592278 0.15613359 0.18472666 0.04412595
-0.055226754 -0.06713279 0.04652856 0.017837584 -0.0272268 -0.09631533 0.061925896 0.038836032
-0.007432171 0.13003625 0.031266235 0.041534748 -0.04497459 -0.141608 -0.08988446 -0.0128929615
0.04172793 0.024179496 -0.12976792 -0.19790089 0.03320858 0.05395764 0.043456655 0.073917665
0.03042518 -0.09101349 0.052410062 -0.13412301 -0.06251123 -0.0584195 0.09667426 -0.06409896

main_network.1.running_var f4 [128]
00000000: c5f9 7b3e d77c 6b3e c261 8c3e 1b22 713e
00000010: 8ba2 863e d424 ee3e a734 873e 939f 0b3e
00000020: a9b5 8d3e e431 9b3e f60d 353e 2450 223e
00000030: 1cf5 923e 1d49 7f3e 2ddc ec3e 3fe3 1d3f
00000040: ac24 203e ac93 8f3e 3ae4 383e 1fa4 883e
00000050: 296b 513f c48e 083e 4800 7d3e 009c f43d
00000060: 1177 ca3e 71c3 083e 4bc4 8e3e 90e4 5c3f
00000070: c7ce 963f e425 5c3d 6698 ec3e 6312 6c3e
00000080: 79bf f53e d78b b73e 11f0 c03e aae5 8e3e
00000090: 0027 c93e d8c5 c63e d1c4 ba3e 993d 843e
000000a0: 5a56 803e a474 a33e 038c 363e 55e0 363e
000000b0: d39c c83e 9028 983e 55e1 903e 3eb8 7a3e
000000c0: 4705 d73e 1969 be3d 99d8 6b3e 3ba6 273f
000000d0: f066 643e 2540 933e d91a e43e 89bd c83e
000000e0: 459a b43e d918 8d3e 0a5b 9b3e 71da 253e
000000f0: 8a6d 103e 09d7 b33e 7da7 0b3e e3bf c53e
00000100: 9ef6 ee3d 310f f33e 9eec d13e 6ee8 603f
00000110: c797 8b3e 6ed9 043f 3a06 b23e 43d0 623e
00000120: 14fb ab3e 24cc 4e3e 34dc 9c3e 88cd 8a3e
00000130: ea07 993d dbb0 273e cb6c ae3e 321e 2a3e
00000140: a33e 003e 7705 1c3f 9c23 473e a04b 493e
00000150: 9f23 c13e f958 743e b54e 943e 374d 103e
00000160: 9ee2 9e3e 1148 f33e 6600 8a3e 751c 9b3e
00000170: c222 9b3e f08e 5d3e 0881 123e 42e5 b63e
00000180: d048 a93e 6e35 373e fe47 823e ec5a 343e
00000190: 3826 f93e 845d 513f 36ce 7c3e ad2a 893d
000001a0: 8442 393e 01a1 2e3e dd5b 543d 0fb1 ae3e
000001b0: 30bb c83e 2886 c63e 6459 103e 5413 a23e
000001c0: f68b ab3e f07d 223e 0b93 7d3e 4201 b23e
000001d0: fb3c 953e bff0 073e d7a7 4e3e 7905 6b3e
000001e0: 86dc 813e 571c fd3d 4d0a ce3e b6ea 5f3e
000001f0: 8ad3 e63e e4b4 3e3e c82b 6c3e 33c7 bf3e
0.24606998 0.22996841 0.27418333 0.23548166 0.26295885 0.46512473 0.26407358 0.13635091
0.27677658 0.303115 0.17681107 0.15850884 0.2870263 0.24930234 0.4626173 0.61674875
0.15638989 0.28042352 0.18055812 0.26687714 0.8180414 0.13335711 0.24707139 0.11943817
0.39543965 0.13355805 0.27884135 0.8628626 1.1781853 0.053747073 0.4621002 0.23053889
0.47997645 0.35848877 0.37683156 0.27909595 0.39287567 0.38822818 0.36478284 0.25828245
0.2506588 0.31924927 0.17826848 0.17859013 0.39182147 0.29718447 0.28296915 0.24484345
0.41996214 0.092973895 0.23031844 0.6548802 0.22304893 0.28759876 0.44551733 0.39207104
0.35273948 0.2755802 0.30342895 0.1619661 0.14104286 0.35124996 0.1363811 0.3862296
0.11668132 0.47472528 0.41000837 0.8785466 0.27264234 0.5189427 0.34770375 0.22149758
0.33589995 0.20195061 0.30636752 0.27109933 0.074722126 0.16376059 0.34067377 0.16613081
0.12523894 0.6094584 0.19447178 0.19657755 0.3772249 0.23862065 0.289663 0.14091955
0.3103227 0.4751592 0.2695343 0.30295148 0.30299956 0.21636558 0.14307034 0.35721785
0.33063364 0.17891476 0.2544555 0.17612809 0.4866197 0.8178332 0.24688038 0.06697593
0.1809178 0.17053606 0.05184542 0.3411946 0.39205313 0.38774228 0.140966 0.3165537
0.3350522 0.15868354 0.24763124 0.34766585 0.29148087 0.13275431 0.20181213 0.22951306
0.2536356 0.12358921 0.40242234 0.21866879 0.45083266 0.18623692 0.23063576 0.37456664

main_network.4.weight f4 [64, 128]
00000000: 9fce 8ebd b70d 893d b080 b93d d317 543d
00000010: c188 53bd e07d 85bc 27ca af3c 788e 7b3d
00000020: 147f f0bc f113 5f3d 5a71 6b3c 2ccd 9e3d
00000030: 6309 c3bb 55a5 f33c c850 ba3c 8eb2 9abd
00000040: 2ca9 3a3d 5622 7a3d 1709 1d3d ad60 14bd
00000050: 580f c2bd a9dc cabd c50f b7bd 88b3 683d
00000060: 6679 9a3d 287e 253c a939 883d 3a2c eebc
00000070: 4a97 b7bc de09 8fbd 7466 523d e715 723c
00000080: 3044 f13c 72e4 d7bb 0585 c4bd 7076 9c3b
00000090: 47d4 66bc c582 ea3c 9d4a 963d 921a 193c
000000a0: 6902 56bd a221 f2bd 56a4 ab3c fbf1 d9bd
000000b0: 9360 31bd 62a3 143d 9028 053d 2d60 af3c
000000c0: 3f72 5cbc f1ed a23d b3e5 fbbd f682 1abd
000000d0: 9e6d 37bd 2465 50bd f7ca 86bd 843b 9e3d
000000e0: 7de4 013d 1dbc 73bc 98c3 00bd 2614 84bc
000000f0: 4b17 b5bd cfd9 84bd cdb8 ad3c a490 35bd
00000100: 3499 263d d221 a13d 990c ac3d 10c7 5d3d
00000110: 6202 c3bc 204b 92bd c137 a8bd e59d 12bc
00000120: ecfd a53c 4b41 36bd e9c2 313d 625e 8cbd
00000130: 1ea0 8dbc 301d eabd fcdb 8fbc 0dc6 4abd
00000140: 15c5 583c 05a0 b8bd ea1f b73c a826 ad3c
00000150: 50c8 69bd 6d61 243a 2852 ca3c acbc fe3d
00000160: ddba 583d 62f2 903d 44fd 25bd 0f3b 003c
00000170: 1818 063d 4161 9abd fdcf 1bbe 27a4 d2bc
00000180: 441f 843d 4ec5 d53b 22c3 86bd ac59 543d
00000190: 5d91 5cbd 962f bebd 9ad4 abbd 03a5 4d3d
000001a0: 83f7 8f3c 5583 0a3d 5e10 2bbd dc71 283d
000001b0: 7eef bcbd e90c 6f3d 45e0 c93b 785e 843d
000001c0: 0a9c debd 8fc8 44bd 95e4 60bd 2d42 673d
000001d0: 9dcc e3bc c11e 293d ed4e 4abd 5ae9 cebd
000001e0: ce8f 4fbd 1d74 883d d72f 2ebd 3558 fcbc
000001f0: 2956 10bd a48e 5c3d 6f59 54bd ac90 c2bc
00000200: 9ecc 063d 5a5e ea3b 2850 e1bb c8ac 863d
00000210: 3d96 843d 5a48 04bd ea3c 803d 5436 9439
00000220: 77cb 7e3d 7a84 b03c 8053 78bd 3cc2 b23d
00000230: 89bd 90bd 014d 0fbd 69dc 8fbc fb5b cd3d
00000240: 6f31 d0bd 6c49 cebd 6cdd 7b3d bce3 91bd
00000250: 1f85 4bbd 24fc b6bd 2a0e 18bd b634 0bbd
00000260: eee8 82bd 0259 5b3c 5d95 653b b42d 503d
00000270: ee2e 993b d40b 37bd b01e 353d a140 883d
00000280: 4d79 e5bd 272b a33d e878 06bd c48d c3bd
00000290: a847 c9bd 9cf0 57bc f480 71bd c8f7 bcbd
000002a0: 436f 90bd 481f 9bbc 767d 14bd 7c14 8bbb
000002b0: f67b c2bb a035 dfbd b809 4bbd 8009 e23c
000002c0: c359 ab3d e9e3 aabd e989 c9bd ce7b 8ebc
000002d0: e3df 6e3d bd47 2a3d a384 07bc 2a8a a4bd
000002e0: 1904 253d c535 e73b bb25 91bd e2c8 8cbd
000002f0: 2212 273d 81d6 d33c 6d2e b2bd 7dc8 d53c
00000300: f67e 1dbc dfd9 a9bc 5cf6 323d 895d 8bbd
00000310: bc07 573d 622f c5bc a884 66bc ef1c 92bd
00000320: 9fe7 823d 28d2 b83c a316 b73a b1c5 6a3c
00000330: cc86 c63b b3f9 3e3d 5444 243d 518a a1bc
00000340: 763f e2bd b29a b43d d2d1 c23d 1f9c 81bd
00000350: 4882 d7bd 2318 653d 864a 91bd 2e4f d4bd
00000360: 04a4 843d 1769 2cbc 3a2e 1c3d c381 523d
00000370: 69fd 2a3d a1a9 30bb 4e27 3fbd c087 2dbd
00000380: 13ce b0bd 1981 adbd f4a7 c6bc 00cf 483c
00000390: 3534 52bc 3b2b 403d 4783 80bb c559 9abc
000003a0: 6488 c23c 25be e33c 41fa bc3b 8641 20bd
000003b0: 837a 6b3d d0c8 a8bc 74d7 19bd 5cf2 84bd
000003c0: cead 453b 3ed9 8d3c 9158 003d 75ef d8bb
000003d0: 28c8 57bd eef1 27bd 6966 b93c d906 ea3b
000003e0: de1d 623d b807 543d 8f5d a1bd 4772 423b
000003f0: eabd f5bc d203 71bd 5e98 d5bd 6c76 803d
-0.069730036 0.06692069 0.09057748 0.051780533 -0.05164409 -0.016295373 0.021458698 0.061415166
-0.02935747 0.054462377 0.014370287 0.07753977 -0.0059520467 0.029741922 0.022743598 -0.07553588
0.04557149 0.0610679 0.038338747 -0.03622501 -0.09475583 -0.09905369 -0.08938555 0.05681184
0.07542686 0.010100879 0.06651623 -0.029073823 -0.022411007 -0.06984304 0.05136724 0.01477573
0.02945146 -0.006588512 -0.09595684 0.004774861 -0.014088697 0.028626809 0.0733845 0.009344714
-0.052248392 -0.11822821 0.020952385 -0.10641857 -0.04330499 0.036288626 0.032509387 0.021408165
-0.013454973 0.0795554 -0.12299671 -0.03772255 -0.044782273 -0.050877705 -0.06581681 0.077261955
0.031712044 -0.014876393 -0.031436533 -0.016122889 -0.088423334 -0.06486856 0.021206284 -0.044327393
0.04067345 0.07867779 0.0840084 0.05414492 -0.023804847 -0.07143235 -0.08213759 -0.008948778
0.020262681 -0.044495862 0.04339877 -0.068539396 -0.017288264 -0.11431348 -0.017560951 -0.049505282
0.013230582 -0.09014896 0.022354085 0.021136597 -0.0570758 0.0006270621 0.024697378 0.1243833
0.05291258 0.07077481 -0.040524736 0.007826581 0.03273782 -0.07538081 -0.1521606 -0.02571304
0.06451276 0.0065237647 -0.065801874 0.05184333 -0.053849567 -0.0928642 -0.0839016 0.050206196
0.017574077 0.033816654 -0.041763656 0.04112421 -0.09225367 0.05836192 0.006160768 0.06463331
-0.10869606 -0.04804283 -0.054905493 0.056459595 -0.027807528 0.041289095 -0.049391676 -0.10103102
-0.050674252 0.06662772 -0.042526092 -0.03080378 -0.03523842 0.05384697 -0.051843103 -0.023750626
0.032909982 0.007152361 -0.0068760104 0.06575924 0.06473968 -0.032295562 0.062616184 0.00028269237
0.062205758 0.021547545 -0.060626507 0.087284535 -0.07067401 -0.034985546 -0.017561154 0.100273095
-0.10165679 -0.10072598 0.06149046 -0.07123515 -0.0496875 -0.08934811 -0.037122883 -0.033985816
-0.06392084 0.01338792 0.0035031654 0.050824836 0.004674784 -0.044689015 0.04421872 0.06652952
-0.11204777 0.07967215 -0.03283015 -0.09548524 -0.098281205 -0.013179924 -0.05896087 -0.09226948
-0.070524715 -0.018935814 -0.03625246 -0.0042443853 -0.0059351875 -0.108989 -0.049569815 0.02759242
0.0836673 -0.08344252 -0.098407574 -0.017393019 0.058318984 0.04157232 -0.008271369 -0.08034165
0.04028711 0.0070559704 -0.07087275 -0.06874253 0.040788777 0.02585912 -0.08700261 0.026096577
-0.009612789 -0.020733772 0.043691978 -0.0680495 0.05249761 -0.024070445 -0.014069714 -0.07134425
0.063918345 0.022561148 0.0013968538 0.01432936 0.0060585495 0.04662485 0.040104225 -0.019719275
-0.110472605 0.08818568 0.09512676 -0.06328606 -0.10522896 0.05593122 -0.07094292 -0.10366665
0.06476596 -0.010523102 0.038130023 0.05139328 0.041745577 -0.0026956575 -0.046668343 -0.04236579
-0.086330555 -0.08471889 -0.024250008 0.012256384 -0.01282983 0.046916228 -0.0039218995 -0.018841634
0.023746677 0.027800629 0.0057671373 -0.039124988 0.057489883 -0.020603567 -0.037558988 -0.06491539
0.003016341 0.017315503 0.031334464 -0.0066203424 -0.05268112 -0.041002207 0.02263184 0.0071419296
0.055204265 0.051765174 -0.07879173 0.0029670165 -0.029997785 -0.058841534 -0.10429452 0.06272587

main_network.4.bias f4 [64]
00000000: b149 d237 7c5a c037 1db2 82b7 53c9 4cb5
00000010: 3379 0db9 4162 0d37 4881 2336 3965 2f36
00000020: b025 54b6 1565 0837 e0e9 85b6 23f1 b335
00000030: a157 2937 69a3 14b7 19fa fc36 5fbb 9c37
00000040: 2f70 92b7 196e f336 d65c 9336 aed3 c1b6
00000050: 5e4d be36 d457 4437 9835 06b7 04c6 0a37
00000060: d946 1137 db95 3336 1085 bc36 07e9 b536
00000070: b8cf 5ab6 2433 f0b6 267b 2c37 f997 ba35
00000080: 74ac b3b7 e1eb 0cb6 db8f c1b7 809d b736
00000090: 2b7a 9a36 46fe 9037 ddfc 9438 6265 fc36
000000a0: 0fb5 9d37 e85b 1637 d42e 21b7 b161 a337
000000b0: ad99 3935 9bf0 3737 d1b8 f436 b024 be37
000000c0: 7dea 67b8 2366 26b7 128b cdb7 a627 b8b6
000000d0: 6fe9 4234 b543 91b6 b534 08b8 8c68 45b5
000000e0: 5687 a731 3ea1 85b5 0589 2cb6 e5b8 2fb7
000000f0: bd4c ad37 6d9f 2037 e9b2 6e36 6e6e 4437
2.5068266e-05 2.2930319e-05 -1.5580148e-05 -7.628889e-07 -0.00013491958 8.427131e-06 2.4364144e-06 2.6135951e-06
-3.1612399e-06 8.129767e-06 -3.9909355e-06 1.3406719e-06 1.0093588e-05 -8.859534e-06 7.5393004e-06 1.86839e-05
-1.7456796e-05 7.2547814e-06 4.391749e-06 -5.776491e-06 5.671448e-06 1.17029595e-05 -7.999501e-06 8.271545e-06
8.659169e-06 2.6760306e-06 5.618327e-06 5.4213483e-06 -3.260544e-06 -7.158511e-06 1.0280672e-05 1.390231e-06
-2.1418768e-05 -2.0998925e-06 -2.307438e-05 5.4721604e-06 4.60378e-06 1.7284543e-05 7.1042894e-05 7.5219878e-06
1.880017e-05 8.962095e-06 -9.607251e-06 1.9476605e-05 6.91415e-07 1.096367e-05 7.293282e-06 2.2666849e-05
-5.5293076e-05 -9.918152e-06 -2.4502664e-05 -5.488243e-06 1.815258e-07 -4.329219e-06 -3.2474014e-05 -7.3540355e-07
4.8757256e-09 -9.9562e-07 -2.5709753e-06 -1.0473862e-05 2.0658941e-05 9.573862e-06 3.5568903e-06 1.1708222e-05

main_network.5.weight f4 [64]
00000000: 9c79 7b3f 0d01 743f b5d8 7e3f c1d7 743f
00000010: 0ab9 853f 3048 793f b881 763f 59b0 713f
00000020: 8c9c 7d3f f2d8 773f 346a 663f fbe5 723f
00000030: 2bd5 843f 6a89 863f b22d 6e3f e68a 7f3f
00000040: 7a9e 833f 6d27 823f 4e58 843f 3a65 7f3f
00000050: a99a 843f f842 713f 21f2 6f3f f6ec 7f3f
00000060: 9cb0 743f d502 7f3f 87be 763f 403e 8b3f
00000070: 6c8e 7c3f 34f5 853f e1c7 773f f46c 6e3f
00000080: 4664 873f adba 783f 7b47 8d3f 7f5c 793f
00000090: f146 7d3f b9da 803f ac3d 803f 5e38 833f
000000a0: a119 863f 0149 803f 14ee 763f 5cbe 833f
000000b0: d689 823f ae2b 833f 53a1 813f d271 823f
000000c0: b85b 863f add7 693f 8f6e 7a3f 2344 833f
000000d0: b1de 753f de9f 6f3f 3649 683f 3172 873f
000000e0: cbdb 853f c645 883f d936 803f a0e0 813f
000000f0: b4ba 8b3f e1b7 7d3f 545a 853f d82a 843f
0.98232436 0.95314103 0.9954942 0.95641714 1.0447094 0.97375774 0.96291685 0.9440971
0.99066997 0.9681541 0.90005803 0.9488217 1.0377554 1.0510685 0.93038476 0.9982132
1.0282738 1.0168282 1.0339448 0.99763834 1.0359699 0.9424281 0.93728834 0.9997095
0.95581985 0.99613696 0.9638447 1.0878372 0.9865482 1.0465455 0.96789366 0.93135
1.0577476 0.97159845 1.1037439 0.9740676 0.98936373 1.0066749 1.0018821 1.0251577
1.0476571 1.0022279 0.9645703 1.0292468 1.0198314 1.0247705 1.0127357 1.0190985
1.049674 0.9134472 0.9782495 1.0255169 0.96042925 0.9360331 0.9073671 1.0581723
1.04577 1.0646293 1.0016738 1.0146675 1.0916352 0.991087 1.0418191 1.0325575

main_network.5.bias f4 [64]
00000000: 2b05 9b3c c4e7 49bc aa9e 153d c12c 90bc
00000010: 5d85 1b3d 082d 99bc bbed 363d 04e5 a9bc
00000020: 1e1c 9c3c d4f4 023d 0f71 88bd 396d 8ebc
00000030: e4c0 b63c 2b94 c83d 0eb0 6cbd 6e35 4d3d
00000040: c903 0e3d 007a 193d 3d0d d23c 4e43 a03b
00000050: 27c9 643c a4ea 93bc 34b0 e8bc 6ebd 373d
00000060: bfa2 363c 4ab1 e2bb 2ac9 32bb 86e9 133d
00000070: 0c7d f13b c8b9 2f3d f902 a73c 68aa 61bd
00000080: e659 613d d9ff a7bc bcd1 b13d 8680 1dbd
00000090: 7676 083d b5e3 cdbb 45b7 3c3c 5e79 863d
000000a0: 8eaa a83d 879b 913c 144a eabc b629 873c
000000b0: e666 033d 46bc b53c f2b5 0d3d 06be f43c
000000c0: fe72 193d ea18 a4bd 39dd 5a3c 35ec 863c
000000d0: 27d9 35bd c8c2 3dbc 5f6e 4ebd cf45 0f3d
000000e0: 9633 263d 6f88 ba3c 848c a63c a1cb 033d
000000f0: 00f3 863d c6e3 d7bc c561 7a3d 274a 2e3c
0.018923363 -0.012323324 0.036528267 -0.017599465 0.037968982 -0.01869823 0.04466031 -0.020739086
0.019056376 0.031971768 -0.06662189 -0.017386066 0.022308774 0.09793886 -0.057785086 0.050099783
0.03467158 0.037469864 0.025641078 0.004890836 0.013963974 -0.018056221 -0.028404333 0.04485839
0.0111472 -0.006918107 -0.0027280548 0.036111377 0.007369643 0.042901784 0.02038716 -0.055094153
0.055017374 -0.02050774 0.08682582 -0.038452648 0.0333161 -0.0062832483 0.011518304 0.06566118
0.08235656 0.017774357 -0.028599776 0.016499382 0.032080553 0.022184502 0.034597345 0.029875766
0.03746318 -0.080125645 0.013358408 0.016470054 -0.044396546 -0.011582084 -0.050398227 0.034978684
0.04057654 0.022770135 0.020330675 0.032176618 0.06589317 -0.026353728 0.061128397 0.0106377965
