XGBoost/best_model_gpt2.pth (torch, 120713 bytes, 47 tensors)

model_embedding.weight f4 [32, 12]
0	0xbe365cee	-0.17808887
1	0x3e935b3d	0.28780547
2	0x3e721470	0.23640609
3	0x3e613ccf	0.21995853
4	0xbd81287f	-0.06306552
5	0x35dbd06d	1.6377431e-06
6	0x3bd5dfb3	0.006526911
7	0xbe326b79	-0.1742381
8	0xbd217c7e	-0.039425366
9	0xbcaca970	-0.021076888
10	0xbdacc21f	-0.08435463
11	0x3ccae7dd	0.024768764
12	0xbea625dc	-0.3245076
13	0xbda905ed	-0.082530834
14	0xbe4e66cc	-0.20156401
15	0x3e1a4454	0.15065128
16	0x3e854da0	0.26035786
17	0xb24e567c	-1.2010442e-08
18	0xbe5e1fff	-0.21691893
19	0x3e5ff1cd	0.21869583
20	0x3e5d9f64	0.21642834
21	0x3a337d21	0.0006846954
22	0x3dac07e2	0.08399941
23	0x3e3f90d6	0.18707594
24	0x38f85d91	0.000118429896
25	0xbe78d1f4	-0.24298841
26	0x3e937336	0.28798836
27	0xbd572979	-0.052529786
28	0xbdd340bb	-0.10315081
29	0xa814b7ba	-8.25549e-15
30	0x3d841424	0.06449154
31	0x3e29ac1c	0.16569561
32	0xbe3cc057	-0.18432747
33	0x3df451a7	0.119296364
34	0x3e835e41	0.25657848
35	0x3c7c8468	0.0154124275
36	0xbca5f929	-0.02026041
37	0xbd85c53c	-0.0653176
38	0x3da39042	0.07986499
39	0x3e468b9b	0.19389193
40	0xbea517c6	-0.322447
41	0x2fc47533	3.5735467e-10
42	0xbe630ac0	-0.2217207
43	0xbd1bb903	-0.038018238
44	0x3c90bb31	0.017667385
45	0xbd8fccda	-0.07021494
46	0x3da78a47	0.08180671
47	0x3dd8fd5d	0.105952
48	0x3da4bdb5	0.08043996
49	0xbe0077a5	-0.12545641
50	0xbe99971c	-0.299981
51	0x3ec2aa41	0.38020518
52	0xbd328ce8	-0.04359141
53	0x3250f8a2	1.2163726e-08
54	0x3e62cde2	0.2214885
55	0x3e20a439	0.15687646
56	0x3e939c82	0.28830343
57	0xbd0e2200	-0.034700394
58	0x3e50c4a2	0.2038751
59	0xbdf77e12	-0.12084593
60	0x3e4bdc19	0.1990818
61	0x3e35135c	0.17683166
62	0xbe67fcd8	-0.22655046
63	0x3e35b0d4	0.17743236
64	0x3e191931	0.14951016
65	0x299727e3	6.712666e-14
66	0xbe44436d	-0.19166346
67	0xbe8e0521	-0.27738288
68	0xbe3a4c56	-0.18193182
69	0x3dad6232	0.08465995
70	0xbcff312d	-0.031151379
71	0x3e4497dd	0.19198556
72	0x3dc570de	0.09640668
73	0xbe78dc0e	-0.24302694
74	0x3e6c7508	0.23091519
75	0x3df7495f	0.12074541
76	0x3c99baa2	0.018765751
77	0xae23f891	-3.728268e-11
78	0xbdd38649	-0.10328347
79	0x3e492bc9	0.19645609
80	0x3eae0c33	0.33993682
81	0x3d90a50e	0.07062732
82	0x3e71cc42	0.23613074
83	0x3df430ca	0.11923368
84	0x3e2bfaaa	0.1679484
85	0x3ca49a49	0.0200931
86	0x3e416ae2	0.18888429
87	0xbe40f29b	-0.18842547
88	0x3de00213	0.109378956
89	0x2ef23993	1.1015113e-10
90	0xbdd7ac34	-0.10530892
91	0xbe84c940	-0.25934792
92	0xbded5040	-0.11587572
93	0x3e256cc9	0.1615478
94	0xbde41e69	-0.11138613
95	0x3d8d782d	0.06907687
96	0x3de44b39	0.1114716
97	0x3e9cab39	0.30599383
98	0xbdb008fa	-0.08595462
99	0xbd82d54a	-0.06388338
100	0xbd0da328	-0.034579426
101	0xbc6746b6	-0.01411598
102	0x3e89d4e3	0.26920232
103	0x3d493107	0.04911902
104	0xbc7a48a2	-0.015276106
105	0xbcba3197	-0.022728724
106	0x3c354577	0.011063925
107	0xbe98272c	-0.29717386
108	0xbe086331	-0.13319089
109	0xbe777245	-0.24164684
110	0xbdd440af	-0.103639
111	0xbe99b123	-0.30017957
112	0xbe7c31c8	-0.24628365
113	0xabbfb3e0	-1.3621292e-12
114	0x3e9dd53b	0.30826744
115	0x3e8660c3	0.26245698
116	0x3cb9bd7c	0.022673361
117	0x3e30af0e	0.17254278
118	0xbe9abaea	-0.3022073
119	0x3e91a40f	0.2844548
120	0xbccaf38e	-0.024774339
121	0x3e4161aa	0.18884912
122	0x3d9159c4	0.070971996
123	0x3ec30e33	0.3809677
124	0x3c1367d0	0.008996919
125	0x38d7b274	0.000102852384
126	0xbe455a90	-0.19272828
127	0x3d9f7b4b	0.07787188
128	0xbe49244b	-0.19642751
129	0x3ddfe144	0.10931638
130	0x3d8645f6	0.06556313
131	0x3dbabd9c	0.09118196
132	0xbdf7bfa3	-0.12097099
133	0x3cd49cd4	0.025953688
134	0x3e1a630f	0.1507685
135	0x3e7f10f2	0.24908808
136	0xbeb1fd91	-0.34763768
137	0xa700086c	-1.7768134e-15
138	0xbda238c0	-0.079209805
139	0x3d29f271	0.041490976
140	0xbe21b558	-0.15791833
141	0xbe90ec77	-0.28305408
142	0xbe5dde19	-0.21666755
143	0x3df57923	0.119859956
144	0xbcfd0b08	-0.03088905
145	0x3e2c6a66	0.16837463
146	0xbc9dec75	-0.01927779
147	0xbbe52239	-0.006992605
148	0x3dfe7ef7	0.1242656
149	0xbb843203	-0.004034282
150	0x3dedba6f	0.11607825
151	0xbe2617b1	-0.16219975
152	0x3da87d79	0.08227057
153	0xbe6d7a1e	-0.23191115
154	0xbe952212	-0.29127556
155	0x3e9d135f	0.3067884
156	0x3e548684	0.20754439
157	0x3d5b37fd	0.05352019
158	0x3e1504e4	0.14552647
159	0xbeb93271	-0.36171296
160	0x3df041d8	0.11731309
161	0x37e93691	2.7801174e-05
162	0x3e05f2a1	0.13080837
163	0xbd1ccc29	-0.03828064
164	0xbd5f911a	-0.05458174
165	0x3e2564d0	0.16151738
166	0x3da27f40	0.07934427
167	0xbe82125f	-0.2540464
168	0x3d9d5149	0.076815195
169	0x3e016764	0.12637097
170	0x3c19590b	0.009359608
171	0x3e6ab3df	0.22920178
172	0xbe2a387e	-0.16623113
173	0x27714120	3.3480773e-15
174	0xbe6cbbc0	-0.23118496
175	0xbd798a01	-0.060922626
176	0x3e7aacbb	0.24479954
177	0x3d315b79	0.043300126
178	0x3e8246d5	0.25444666
179	0xbe474445	-0.19459637
180	0xbe8b607b	-0.27222046
181	0x3dd59f18	0.10430735
182	0xbe6551d6	-0.22394499
183	0xbe75afa3	-0.23992781
184	0x3d96eb44	0.07369092
185	0x381cb9ba	3.736627e-05
186	0x3d4e4823	0.050361764
187	0xbd884029	-0.066528626
188	0xbd528037	-0.051391806
189	0xbda55790	-0.08073342
190	0xbe2935f8	-0.16524494
191	0x3e626857	0.22110115
192	0x3d51d9eb	0.051233213
193	0x3e870030	0.2636733
194	0x3df84d03	0.12124064
195	0xbe4f6ad2	-0.20255592
196	0xbd7235ac	-0.059133217
197	0xba1357bb	-0.0005620678
198	0x3e825171	0.2545276
199	0x3b8e5898	0.0043440573
200	0xbe268a88	-0.16263783
201	0xbe6df82a	-0.23239198
202	0x3e0f8cf9	0.1401862
203	0x3e00cd55	0.12578328
204	0x3c3983a6	0.011322891
205	0xbd77c754	-0.06049283
206	0xbe284258	-0.16431558
207	0xbe936fbb	-0.2879618
208	0x3e931c50	0.28732538
209	0x3b06b0fe	0.0020552273
210	0xbe81c414	-0.25344908
211	0xbd5f223a	-0.054476
212	0xbd42f126	-0.04759326
213	0xbde44830	-0.11146581
214	0x3e2ad6ed	0.1668355
215	0xbe440567	-0.19142686
216	0x3ce74eb1	0.028235765
217	0xbc882cf3	-0.016622996
218	0x3e5c5ec8	0.21520531
219	0xbebccee0	-0.36876583
220	0xbe071e25	-0.13195093
221	0xa891ce44	-1.6187687e-14
222	0xbc2aaa9d	-0.010416654
223	0x3e8e51f4	0.277969
224	0x3e08c58f	0.13356613
225	0x3e6163a5	0.22010668
226	0x3e579948	0.21054566
227	0xbe1a878a	-0.15090767
228	0x3e09a23d	0.13440795
229	0x3e714463	0.23561244
230	0xbd2afd45	-0.041745443
231	0xbeb413c3	-0.35171327
232	0xbe653129	-0.22382034
233	0x2b2e7b7a	6.1988576e-13
234	0xbe28886a	-0.16458288
235	0x3ce3f1ee	0.027825322
236	0x3e876df7	0.26451084
237	0x3e967f23	0.29393873
238	0x3dc7dc74	0.09758845
239	0x3e7cfa6a	0.247049
240	0xbd34d787	-0.044150855
241	0x3d68ae3d	0.05680679
242	0x3d04365a	0.032278396
243	0x3cef9393	0.029245174
244	0x3e943193	0.28944072
245	0xb5cfa2bc	-1.5470064e-06
246	0xbe101ca4	-0.14073426
247	0xbdd1cf1d	-0.10244582
248	0x3dd2bbd3	0.10289731
249	0x3e8703e9	0.2637017
250	0x3cc9d8a7	0.02463944
251	0xbe867596	-0.26261586
252	0xbe81f53d	-0.25382414
253	0xbe229110	-0.1587565
254	0x3e491bc1	0.19639494
255	0xbe011c87	-0.12608539

model_embedding.bias f4 [32]
0	0xba465ccb	-0.0007566928
1	0xb7ed70b9	-2.8305092e-05
2	0xb9b74bd5	-0.0003496098
3	0x36e133b1	6.71154e-06
4	0x35f7db20	1.8466708e-06
5	0xbb4cb66f	-0.0031236669
6	0xb68f46c3	-4.26997e-06
7	0x369d7c00	4.6934e-06
8	0x36f32a5c	7.2468956e-06
9	0xbcac5822	-0.021038119
10	0xb71ca472	-9.3366125e-06
11	0xba8bcbad	-0.0010665559
12	0xb738075b	-1.0968967e-05
13	0x3c58c228	0.013229884
14	0xb71d6a28	-9.382646e-06
15	0xb79fe56d	-1.9061112e-05
16	0x3bf9dd8e	0.0076252883
17	0xbcd11307	-0.025521768
18	0x34d5db6d	3.9833995e-07
19	0xbc361bfe	-0.011115072
20	0x35f5fd1a	1.8327585e-06
21	0x3ca4a0ea	0.020096261
22	0xb62f00f6	-2.6077591e-06
23	0xb95934d7	-0.00020714417
24	0xbbf09cec	-0.0073429253
25	0x3bc6ed04	0.006070735
26	0xb57b9e49	-9.373512e-07
27	0xb955e237	-0.00020397535
28	0x3b5951ba	0.0033160285
29	0xbcbcdf78	-0.023055777
30	0xbcc7e62c	-0.024401747
31	0xb54d0669	-7.637778e-07

dataset_embedding.weight f4 [16, 3]
0	0x3db00a98	0.085957706
1	0x3e883663	0.26603994
2	0xbdcaf5a5	-0.09910134
3	0xbf1374c8	-0.5760007
4	0xbea2d738	-0.31804824
5	0x3e857128	0.26062894
6	0x3f03c031	0.51465136
7	0x3e0ed058	0.13946664
8	0xbde41b60	-0.11138034
9	0xbee26479	-0.4421728
10	0x3f03a773	0.5142738
11	0xbeb5742a	-0.3544019
12	0xbee34ae2	-0.4439307
13	0x3db0baed	0.08629403
14	0xbead0d00	-0.3379898
15	0xbeb55f00	-0.35424042
16	0x3ec449c2	0.38337523
17	0xbf128c1a	-0.5724503
18	0xbe69b997	-0.22824703
19	0x3f243d9e	0.6415652
20	0xbeb47250	-0.35243464
21	0x3f2834d9	0.6570564
22	0xbed82066	-0.42212218
23	0xbe111523	-0.1416822
24	0x3eb90ebc	0.36144054
25	0x3ee7e645	0.4529287
26	0xbe58d656	-0.21175513
27	0x3dff450d	0.12464342
28	0xbe9906b5	-0.2988793
29	0xbe59d116	-0.21271166
30	0xbf027595	-0.50960666
31	0x3e6916ba	0.22762576
32	0x3f110679	0.566505
33	0xbe979227	-0.29603693
34	0x3eda6f7d	0.42663184
35	0xbf06952e	-0.5257138
36	0xbda9a09e	-0.082825884
37	0x3e9131a4	0.28358185
38	0x3f079019	0.5295425
39	0xbe4f6a9c	-0.20255512
40	0x3e5aa6b2	0.21352652
41	0xbecf7997	-0.40522453
42	0xbeeb8b2b	-0.46004614
43	0x3e2a2b01	0.16617967
44	0xbee949ec	-0.4556421
45	0x3f103c2c	0.56341815
46	0x3e055ab0	0.13022876
47	0x3e77445d	0.24147172

dataset_embedding.bias f4 [16]
0	0x3e617381	0.22016717
1	0x3e03ad26	0.1285902
2	0x3e149801	0.1451111
3	0x3e30a79d	0.1725144
4	0xb72de6db	-1.0365354e-05
5	0x3df0864c	0.11744365
6	0xb844dde3	-4.693669e-05
7	0x3ba4b93a	0.0050269635
8	0xbb6d7252	-0.003623147
9	0xbd47944a	-0.048725404
10	0xb77e409c	-1.5154623e-05
11	0x3de11c38	0.109917104
12	0xbe527083	-0.20550732
13	0x3e0fe654	0.14052707
14	0xbd053bba	-0.032527663
15	0xb7315bac	-1.0571366e-05

tensor_network.0.weight f4 [16, 1]
0	0x3f326a78	0.6969371
1	0x3ec92960	0.3928938
2	0xbc130b05	-0.008974795
3	0xbe3aa5b6	-0.18227276
4	0xbee76c85	-0.4519998
5	0xbefe6892	-0.49689156
6	0xbeed581d	-0.46356288
7	0x3e604aea	0.21903577
8	0x3ed78e39	0.42100695
9	0x3e60fdf2	0.21971872
10	0xbf063e56	-0.5243887
11	0x3ee4c873	0.4468418
12	0xbe837245	-0.25673118
13	0x3f34e890	0.7066736
14	0x3e7b5c25	0.24546869
15	0xbc05673e	-0.008142291

tensor_network.0.bias f4 [16]
0	0xbf2a4276	-0.6650766
1	0x3c4086f7	0.011750928
2	0xbbe2fed3	-0.00692735
3	0x3f825387	1.018174
4	0x3f81542d	1.0103813
5	0xbacb6e89	-0.0015520613
6	0x3e53cea8	0.20684302
7	0x3d585a15	0.052820284
8	0x3f061e14	0.52389646
9	0xbeb8ea60	-0.36116314
10	0xbee38979	-0.4444082
11	0xbd832793	-0.064040326
12	0x3e05cdd6	0.13066801
13	0xbf24df25	-0.6440299
14	0x3a81caa5	0.0009902312
15	0x3c13cf1b	0.009021546

tensor_network.2.weight f4 [16]
0	0x3f73d2ca	0.95243514
1	0x3f75bf3b	0.9599492
2	0x3f1b420d	0.6064766
3	0x3f83eda7	1.0306901
4	0x3f7f976a	0.99840415
5	0x3f1af518	0.60530233
6	0x3f796e09	0.97433525
7	0x3f759e41	0.959446
8	0x3f7310ce	0.94947517
9	0x3f7721a3	0.965357
10	0x3f1af518	0.60530233
11	0x3f782da3	0.96944636
12	0x3f7795a8	0.9671273
13	0x3f786c86	0.97040594
14	0x3f7efeae	0.9960736
15	0x3f74900f	0.95532316

tensor_network.2.bias f4 [16]
0	0xb6aaa08b	-5.0850845e-06
1	0x379e80e8	1.8895094e-05
2	0x36036739	1.9580605e-06
3	0xb8520417	-5.007171e-05
4	0x37a9f134	2.0258689e-05
5	0x2af6cb99	4.3839653e-13
6	0x37b2f668	2.1333995e-05
7	0xb7979cbc	-1.8073588e-05
8	0x37a21dd3	1.9325793e-05
9	0x345a1201	2.0309382e-07
10	0x2aecc92f	4.206162e-13
11	0xb7d80634	-2.5752095e-05
12	0x37d9d09d	2.5965559e-05
13	0xb74f571d	-1.2358444e-05
14	0x35cf0f03	1.5427071e-06
15	0xb781e1f3	-1.5483214e-05

tensor_network.2.running_mean f4 [16]
0	0x42db628e	109.69249
1	0x42793a5f	62.307003
2	0x11dc71c7	3.478e-28
3	0x3f0aa54c	0.54158473
4	0x3ef97604	0.4872285
5	0x00000000	0.0
6	0x3dc918e3	0.098192
7	0x420b77e1	34.86707
8	0x42868640	67.26221
9	0x4209d406	34.457054
10	0x00000000	0.0
11	0x428d1841	70.54737
12	0x3d7dde35	0.06197949
13	0x42de821c	111.25412
14	0x421bed58	38.98178
15	0x3b8e267e	0.0043380847

tensor_network.2.running_var f4 [16]
0	0x47f0f7ee	123375.86
1	0x471a8ded	39565.926
2	0x16b85a31	2.9783722e-25
3	0x3e72a3d0	0.23695302
4	0x3e82d8fc	0.2555617
5	0x16b85a31	2.9783722e-25
6	0x3c351c43	0.011054101
7	0x4641186e	12358.107
8	0x47316076	45408.46
9	0x463f01dc	12224.465
10	0x16b85a31	2.9783722e-25
11	0x47465cc5	50780.77
12	0x3b90522c	0.004404327
13	0x47f7d13b	126882.46
14	0x4672152f	15493.296
15	0x399de11e	0.000301131

worker_network.0.weight f4 [16, 1]
0	0x3d25b562	0.040456183
1	0x3ed51650	0.41618586
2	0xbf06709d	-0.52515584
3	0xbe634550	-0.2219441
4	0xbf138578	-0.5762553
5	0x3f0c3c50	0.5477953
6	0xbdde5cb4	-0.108575255
7	0xbdd2bf25	-0.10290364
8	0x3ebfe556	0.37479657
9	0xba3663fd	-0.00069576484
10	0xbe971bfd	-0.2951354
11	0x25e84ab3	4.0296203e-16
12	0x3e45c78e	0.19314405
13	0x3ea46545	0.32108513
14	0x3f4635dd	0.7742594
15	0x3eaaa489	0.33328655

worker_network.0.bias f4 [16]
0	0x3c188a98	0.009310387
1	0xbe28228d	-0.1641943
2	0xbb6476ad	-0.0034860775
3	0x3e09d91a	0.13461724
4	0xbba6214f	-0.0050698887
5	0x38a640b3	7.927548e-05
6	0x3f26c11a	0.651384
7	0x3f34053f	0.70320505
8	0x3edffdf4	0.43748438
9	0xbef9fc26	-0.48825186
10	0xbbaefd8b	-0.0053402833
11	0xbe3430b8	-0.1759671
12	0x3c613abe	0.013746915
13	0xbe2c874c	-0.16848487
14	0xbeadf8f4	-0.33979
15	0xbede8c4c	-0.43466413

worker_network.2.weight f4 [16]
0	0x3f8007ce	1.0002382
1	0x3f7b4707	0.98155254
2	0x3f1af518	0.60530233
3	0x3f77cc8f	0.96796507
4	0x3f35db5a	0.7103783
5	0x3f7773ba	0.9666096
6	0x3f7c80ce	0.9863404
7	0x3f785828	0.97009516
8	0x3f7a5a8f	0.9779443
9	0x3f1af518	0.60530233
10	0x3f1e64a3	0.6187231
11	0x3f1af518	0.60530233
12	0x3f7d0c7e	0.98847187
13	0x3f7b939c	0.9827211
14	0x3f805485	1.0025793
15	0x3f7d8ee7	0.99046177

worker_network.2.bias f4 [16]
0	0x379e0978	1.8839477e-05
1	0x37272994	9.963656e-06
2	0xa9482f7c	-4.4450107e-14
3	0x3796bd13	1.7969438e-05
4	0x366b4f8e	3.5064036e-06
5	0xb5d842fb	-1.6112748e-06
6	0xb707ac46	-8.086738e-06
7	0xb7aa84d4	-2.0327432e-05
8	0x381c2ea8	3.723675e-05
9	0xac07cdff	-1.9299005e-12
10	0xb59c5de6	-1.1650234e-06
11	0xaa56fae1	-1.9094059e-13
12	0x380362fa	3.1325013e-05
13	0x37f6bc59	2.9413191e-05
14	0x384032c8	4.582366e-05
15	0x375a23cb	1.3002146e-05

worker_network.2.running_mean f4 [16]
0	0x3e2a9dc3	0.16661744
1	0x3fc14aab	1.5100912
2	0x00000000	0.0
3	0x3d82e463	0.063912176
4	0x0e88209b	3.3557986e-30
5	0x4006d71d	2.1068795
6	0x3ec63848	0.38714814
7	0x3ee0dd3f	0.43918797
8	0x3ff0f8d2	1.8825934
9	0x00000000	0.0
10	0x0e894ae3	3.384522e-30
11	0x00000000	0.0
12	0x3f4272c7	0.75956386
13	0x3f922ba9	1.1419574
14	0x40328162	2.789147
15	0x3f85ecce	1.0462892

worker_network.2.running_var f4 [16]
0	0x3d3a6635	0.04550763
1	0x408e1471	4.4399953
2	0x16b85a31	2.9783722e-25
3	0x3b9978b4	0.0046835784
4	0x16b85a31	2.9783722e-25
5	0x410291d9	8.160607
6	0x3db08d6b	0.08620723
7	0x3db7690f	0.08955585
8	0x4075195c	3.8296728
9	0x16b85a31	2.9783722e-25
10	0x16b85a31	2.9783722e-25
11	0x16b85a31	2.9783722e-25
12	0x3f82ea84	1.0227818
13	0x4025e1b4	2.5919008
14	0x41740cbe	15.253111
15	0x40204660	2.5042953

batch_network.0.weight f4 [16, 1]
0	0xbba6fe54	-0.0050962362
1	0xbea7b23a	-0.32753164
2	0xbc48fced	-0.012267333
3	0xbe44d018	-0.19220006
4	0x3f175ab4	0.59122777
5	0xbde80eb1	-0.11330927
6	0x3c618449	0.013764449
7	0xbecd834e	-0.4013924
8	0x3e3f8050	0.18701291
9	0x3c85531c	0.016274981
10	0x3183aa5f	3.8319707e-09
11	0xbf1a6087	-0.6030354
12	0x3e0aa804	0.13540655
13	0x3ee23779	0.44182947
14	0x3ef932a7	0.48671457
15	0x3ebe08cf	0.37116095

batch_network.0.bias f4 [16]
0	0xbebc56bd	-0.36784926
1	0x3e3ea5f0	0.18617988
2	0xbc8710aa	-0.016487438
3	0x3e4505d4	0.19240505
4	0xbf36af2b	-0.71361035
5	0x3f0ddbd9	0.55413586
6	0x3e4f46a4	0.20241791
7	0xbee750b0	-0.45178747
8	0xbe83c044	-0.25732625
9	0x3f130a24	0.5743735
10	0xbb669148	-0.003518181
11	0x3d3bbe67	0.04583588
12	0x3eccc0c2	0.39990813
13	0xbea3abd7	-0.3196704
14	0xbf30a964	-0.6900847
15	0x3dc7c261	0.09753872

batch_network.2.weight f4 [16]
0	0x3f1af518	0.60530233
1	0x3f7b3e89	0.98142296
2	0x3f1af6ba	0.60532725
3	0x3f7d659f	0.98983186
4	0x3f7a92e9	0.9788042
5	0x3f776476	0.96637666
6	0x3f7b4e98	0.981668
7	0x3f1af518	0.60530233
8	0x3f7996ec	0.97495914
9	0x3f7a93a8	0.97881556
10	0x3f1af518	0.60530233
11	0x3f7553d8	0.9583106
12	0x3f734cda	0.9503914
13	0x3f727ac9	0.94718605
14	0x3f79b064	0.97534776
15	0x3f7dc9bb	0.9913594

batch_network.2.bias f4 [16]
0	0x2b8354cf	9.331649e-13
1	0xb6ce18fc	-6.142187e-06
2	0x3700d978	7.680028e-06
3	0xb79d0f7c	-1.8723069e-05
4	0x369e0fbd	4.710599e-06
5	0xb67cac82	-3.765134e-06
6	0x387340c0	5.7996018e-05
7	0xabcb2c77	-1.4436359e-12
8	0xb70bda1b	-8.335827e-06
9	0x36913f4e	4.3287064e-06
10	0x2aa9b85d	3.0148358e-13
11	0xb79f8a84	-1.9018778e-05
12	0x365db72b	3.3038184e-06
13	0x37c5f909	2.3600196e-05
14	0x38687f54	5.5431694e-05
15	0x37072dc9	8.057287e-06

batch_network.2.running_mean f4 [16]
0	0x00000000	0.0
1	0x3dc970f4	0.09835997
2	0x1bec3b44	3.9081224e-22
3	0x3dd063af	0.10175263
4	0x43468e22	198.5552
5	0x3e95971e	0.29216856
6	0x409bef7b	4.8729835
7	0x00000000	0.0
8	0x427a871f	62.631954
9	0x40c4b659	6.147259
10	0x00000000	0.0
11	0x3cc586bb	0.024112096
12	0x42395c07	46.33987
13	0x431469d3	148.41338
14	0x43233a18	163.22693
15	0x42fadb5f	125.42846

batch_network.2.running_var f4 [16]
0	0x16b85a31	2.9783722e-25
1	0x3c122fe3	0.00892255
2	0x19242417	8.4858896e-24
3	0x3c1c7303	0.009548905
4	0x48f48b23	500825.1
5	0x3da138c8	0.07872158
6	0x438a295a	276.32306
7	0x16b85a31	2.9783722e-25
8	0x4742b378	49843.47
9	0x43c4e1aa	393.763
10	0x16b85a31	2.9783722e-25
11	0x3a0c8e4c	0.000536178
12	0x46d0efbe	26743.871
13	0x488872b3	279445.6
14	0x48a55693	338612.6
15	0x48425198	198982.38

ps_network.0.weight f4 [8, 1]
0	0x3e2679ef	0.16257451
1	0xbd63f24f	-0.055651005
2	0x3d7bcea3	0.06147636
3	0xbe2f66fb	-0.17129128
4	0xbf060fd5	-0.5236791
5	0x3f174852	0.5909473
6	0x3f188922	0.5958425
7	0x3efffd23	0.49997815

ps_network.0.bias f4 [8]
0	0xbe4bd3ab	-0.19904964
1	0xb608d49a	-2.038933e-06
2	0xbeba4429	-0.36380127
3	0x3e3b5c23	0.18296866
4	0x3e1b4725	0.15163858
5	0xbbe5051c	-0.0069891345
6	0x3992c1a6	0.0002799157
7	0xbf031235	-0.51199657

ps_network.2.weight f4 [8]
0	0x3f1af518	0.60530233
1	0x3f1af518	0.60530233
2	0x3f1af518	0.60530233
3	0x3f7b7e14	0.98239255
4	0x3f765518	0.9622359
5	0x3f7d5f31	0.98973376
6	0x3f7d2272	0.98880684
7	0x3f1af518	0.60530233

ps_network.2.bias f4 [8]
0	0x2ab11450	3.145561e-13
1	0x2b15d44c	5.3230055e-13
2	0x2a375353	1.6282574e-13
3	0x3819e624	3.6692378e-05
4	0x375ebf72	1.32768055e-05
5	0xb6a8c28e	-5.0294393e-06
6	0x37a81675	2.0037618e-05
7	0xab86a4f4	-9.567056e-13

ps_network.2.running_mean f4 [8]
0	0x00000000	0.0
1	0x00000000	0.0
2	0x00000000	0.0
3	0x3dd4042d	0.10352359
4	0x3da34c4a	0.07973535
5	0x3e8db4e1	0.27677062
6	0x3e90e472	0.2829929
7	0x00000000	0.0

ps_network.2.running_var f4 [8]
0	0x16b85a31	2.9783722e-25
1	0x16b85a31	2.9783722e-25
2	0x16b85a31	2.9783722e-25
3	0x3bf5e323	0.0075038834
4	0x3bc01c09	0.005862717
5	0x3db3de0c	0.087825865
6	0x3dbba20a	0.09161766
7	0x16b85a31	2.9783722e-25

main_network.0.weight f4 [128, 104]
0	0xbd2e9669	-0.04262391
1	0xbe131600	-0.14363861
2	0x3d86305f	0.06552195
3	0xbd4feb6f	-0.050761636
4	0xbd4af4d2	-0.049549885
5	0xbe14122b	-0.14460056
6	0xbd970556	-0.073740646
7	0x3c904dad	0.017615164
8	0x3bb701e4	0.005584942
9	0x3e089067	0.13336335
10	0x3d6a2aad	0.057169605
11	0xbdbd1ec7	-0.09234386
12	0xbdd0834f	-0.10181295
13	0x3d8f94a7	0.07010775
14	0xbd059433	-0.032612037
15	0xbb25953b	-0.002526595
16	0x3e0a43cd	0.13502426
17	0x3b64db17	0.0034920627
18	0x3d18e8eb	0.037331503
19	0xbce68245	-0.02813829
20	0x3d98c256	0.07458942
21	0x3a8fee18	0.0010980992
22	0xbc17d9c9	-0.009268233
23	0x3e07d669	0.13265385
24	0xbd065b07	-0.032801654
25	0xbc151ab8	-0.0091006085
26	0xbc983879	-0.018581616
27	0xbdcf284e	-0.101151094
28	0x3cfb2eab	0.030661901
29	0xbc887ba8	-0.016660526
30	0x3d4cff01	0.05004788
31	0x3da6b2f9	0.08139605
32	0x3db97e01	0.090572365
33	0xbd98ce2e	-0.07461201
34	0xbd9a7457	-0.07541721
35	0x3beae60d	0.0071685375
36	0xbd2e9b07	-0.042628314
37	0x3dc3c401	0.09558869
38	0x3d76abbf	0.060222384
39	0x3d9b6925	0.07588414
40	0xbd0bcb8f	-0.034129675
41	0x3cbe5313	0.023232972
42	0xbc83f9a6	-0.016110253
43	0xbcdda9db	-0.027058532
44	0xbbaa38b5	-0.0051947483
45	0x3d138b5b	0.03602157
46	0xbd902992	-0.07039179
47	0x3ce57518	0.028009936
48	0xbd42bb8a	-0.047542132
49	0x3d7e7301	0.062121395
50	0x3a9f02bd	0.0012131553
51	0x3d475894	0.04866846
52	0x3dba2a6d	0.09090123
53	0x2b936b2c	1.0474724e-12
54	0x3dcab4eb	0.098977886
55	0xbde9dd2e	-0.1141914
56	0xbc901f14	-0.017592944
57	0x3d159998	0.03652343
58	0xa9992b30	-6.802057e-14
59	0x3b1154a6	0.0022175699
60	0x3dca3c5c	0.09874794
61	0x3d85070c	0.06495485
62	0xbd5e57ab	-0.054282825
63	0xbdd2ffc1	-0.103026874
64	0x3d55dfc4	0.052215353
65	0x3d864c90	0.06557572
66	0x26136bd6	5.1147015e-16
67	0xbd589641	-0.05287767
68	0xb9c4002d	-0.00037384164
69	0xbd6eed3f	-0.058331724
70	0x3d541467	0.05177727
71	0x3cc73cdc	0.024321012
72	0xbc8310e2	-0.015999261
73	0xa7202408	-2.2223993e-15
74	0xb634e662	-2.695619e-06
75	0x28b8ef51	2.053189e-14
76	0xbd90faae	-0.07079063
77	0xbb05748a	-0.0020363652
78	0x3c502c5b	0.012705888
79	0xbdad33a8	-0.08457118
80	0x27c4d0ce	5.4627315e-15
81	0xbdc9d95d	-0.09855912
82	0x398af56d	0.00026504268
83	0x3d31fb8a	0.043452777
84	0xbc014fcd	-0.007892561
85	0xbd1d9e9d	-0.038481344
86	0xbc01db79	-0.0079258615
87	0xae6f3aa7	-5.4394402e-11
88	0x3d682c04	0.0566826
89	0x3d38c73e	0.045111887
90	0xa9887b4a	-6.0610005e-14
91	0x3cb8dd8a	0.022566576
92	0x3ba7b0d0	0.0051175132
93	0xbd5c9d1d	-0.053860772
94	0xbcb05091	-0.021522792
95	0x3add270c	0.0016872599
96	0xa7f207c8	-6.717693e-15
97	0x2c3ef3c1	2.7135935e-12
98	0x2b0121eb	4.5877077e-13
99	0xbdab3613	-0.08359923
100	0x3d70009e	0.05859434
101	0x3dd7d8d4	0.105394036
102	0x3be36a8e	0.0069401925
103	0xa9b9cb56	-8.2509235e-14
104	0x3d9899d3	0.07451215
105	0xbc383277	-0.0112425005
106	0x3cf8d143	0.030373221
107	0x3d99cf1e	0.075102076
108	0x3da61a8c	0.08110532
109	0x3d2f70ef	0.04283231
110	0x3d9c6640	0.0763669
111	0x3cff5231	0.031167122
112	0xbcbe7645	-0.023249755
113	0xbdbdaec1	-0.09261847
114	0xbd95eec9	-0.07320935
115	0x3d80533b	0.06265875
116	0x3c1d2030	0.009590194
117	0xbdb8ea62	-0.0902908
118	0x3e18f5e1	0.14937545
119	0x3d13252d	0.035924125
120	0xbdeba0de	-0.11505292
121	0x3df8cbde	0.121482596
122	0xbd5c0ea8	-0.053724915
123	0x3dc71a25	0.097217835
124	0x3da407f4	0.080093294
125	0x3dc75f3e	0.09734963
126	0xbc53879f	-0.012910753
127	0xbb848317	-0.0040439474
128	0x3d962e59	0.07333059
129	0x3d0fa3c2	0.03506828
130	0x3db9c74f	0.09071218
131	0xbce4804f	-0.027893214
132	0x3c1ad873	0.00945102
133	0x3ce29ed6	0.02766363
134	0xbda970ff	-0.082735054
135	0xbd950560	-0.07276416
136	0xbc744859	-0.014909827
137	0xbd832309	-0.06403167
138	0x3d1ce4cd	0.03830414
139	0xbd8dc06c	-0.06921467
140	0x3cc4c55a	0.024019886
141	0x3cbc2529	0.022966938
142	0xbd9e2e9d	-0.077237345
143	0xbbf0cb32	-0.0073484415
144	0x3d061b59	0.032740925
145	0x3c39cb10	0.011339918
146	0xbc77838f	-0.01510705
147	0xbca66227	-0.020310475
148	0xbe140ac2	-0.14457229
149	0xbdf18b0b	-0.117940985
150	0xbde88d64	-0.11355093
151	0x3df32e00	0.11874008
152	0xbd9409fb	-0.07228466
153	0xbcc25234	-0.023720838
154	0xbd15e0eb	-0.03659145
155	0xbc9dfac0	-0.019284606
156	0xbc2f83da	-0.010712588
157	0xb176760d	-3.5864816e-09
158	0xbd1c71d3	-0.03819449
159	0xbc1b88cc	-0.009493064
160	0x3d812c1e	0.06307243
161	0x3d454da5	0.04816975
162	0xaa062044	-1.1912785e-13
163	0xbd60890a	-0.05481819
164	0xbc38aafc	-0.011271235
165	0xbdab27a8	-0.08357173
166	0x3dd12b84	0.10213378
167	0xbd053e78	-0.032530278
168	0xbdf2852e	-0.11841808
169	0xba8282ac	-0.0009957156
170	0xafbfe374	-3.4904313e-10
171	0x3de2f623	0.11082103
172	0xbb6d7241	-0.003623143
173	0xbc96a513	-0.01838926
174	0xbcb982c7	-0.022645367
175	0xbd67d391	-0.05659825
176	0xbce018a0	-0.027355492
177	0xa79e7451	-4.397992e-15
178	0x38a00e58	7.632066e-05
179	0x28b95ca8	2.057931e-14
180	0x3c9c9a46	0.019116532
181	0xbd3484cb	-0.044071954
182	0xbde52ef0	-0.11190593
183	0x3d4eff8e	0.050536685
184	0x27cd8073	5.7038195e-15
185	0x3d1b1023	0.037857186
186	0xbc33b551	-0.010968522
187	0x3d32eed3	0.04368479
188	0x3c8c1324	0.01709897
189	0x3d3c216e	0.04593032
190	0xbda0cfbe	-0.07852124
191	0x32460d46	1.1528135e-08
192	0xbd8becac	-0.06832251
193	0xbdc9dc60	-0.09856486
194	0x29da8492	9.704142e-14
195	0x3c0060c0	0.007835567
196	0x3cb18ea5	0.021674464
197	0xbd48685c	-0.04892765
198	0xbdd940a3	-0.106080316
199	0xbc894538	-0.016756639
200	0xa7c37d1c	-5.4259016e-15
201	0xab4ed624	-7.348308e-13
202	0x264a1a45	7.011843e-16
203	0xbcfea2db	-0.031083515
204	0xbdc6f3c4	-0.09714463
205	0xbd6f0877	-0.058357682
206	0x3dc7028a	0.09717281
207	0xb243349f	-1.13624585e-08
208	0xbc6ae956	-0.014337858
209	0xbc33bb0f	-0.010969891
210	0x3dde46e9	0.10853369
211	0x3d3fba18	0.046808332
212	0xbd40b630	-0.047048748
213	0x3c2ea1c8	0.010658689
214	0xbd4d1f5c	-0.050078735
215	0xbcecd663	-0.028910821
216	0x3c412fd3	0.011791187
217	0x3d16ac92	0.03678567
218	0xbbaad62d	-0.00521352
219	0x3db3520c	0.087558836
220	0x3dbdf6fd	0.09275625
221	0x3876b9fb	5.882418e-05
222	0xbd8c9b06	-0.06865506
223	0x3c244450	0.010026053
224	0xbcaae79a	-0.02086239
225	0xbd43ad70	-0.047772825
226	0x3c4b81da	0.012421096
227	0x3d3e05d7	0.046392288
228	0x3cd2b6e9	0.025721984
229	0x3d6c51d7	0.057695236
230	0x3d2bb237	0.041918006
231	0x3d416eba	0.047224738
232	0xbcce111a	-0.025154639
233	0xbc9ed317	-0.019387765
234	0xbdd27c23	-0.102775835
235	0xbc876af1	-0.016530486
236	0xbd8acbac	-0.067771286
237	0xbdbb3aea	-0.09142096
238	0xbd27d272	-0.04097218
239	0xbe00ff5b	-0.1259741
240	0x3dc57851	0.09642089
241	0xbb83bd03	-0.0040203347
242	0xbd419bb0	-0.047267616
243	0x3dbcfcc4	0.09227899
244	0xbb135b0e	-0.0022484693
245	0x3b0474a1	0.0020211118
246	0x3d770c41	0.06031442
247	0xbc7cb7c2	-0.015424671
248	0x3cfc26fa	0.030780304
249	0xbc3a51b0	-0.011372015
250	0xbc155dfb	-0.009116645
251	0x3dee477e	0.1163473
252	0xbd9f6821	-0.07783533
253	0x3dd91fad	0.10601745
254	0xbcfcd56e	-0.03086349
255	0xbc1efda0	-0.009704024

main_network.0.bias f4 [128]
0	0xb4f07df0	-4.4795115e-07
1	0xb71b25fd	-9.247565e-06
2	0xb5c2e574	-1.4520906e-06
3	0x33141ef9	3.4487105e-08
4	0xb6820d7b	-3.8758712e-06
5	0xb552f8c1	-7.859308e-07
6	0xb6c06b18	-5.7345133e-06
7	0x35c7b574	1.4879465e-06
8	0xb667e580	-3.455527e-06
9	0x341c1c99	1.4539036e-07
10	0x379e4429	1.8866807e-05
11	0xb6a85a71	-5.017319e-06
12	0x37102c01	8.593314e-06
13	0xb6b0820e	-5.260349e-06
14	0xb5bb21b5	-1.3942396e-06
15	0x379f6d00	1.9005034e-05
16	0x35d697cf	1.5988425e-06
17	0xb6aee2a4	-5.2119885e-06
18	0x36d5e10e	6.3740945e-06
19	0xb71f5bec	-9.498541e-06
20	0xb6bd870c	-5.6483605e-06
21	0x37309694	1.0525477e-05
22	0x364f65ec	3.090473e-06
23	0xb52ffbb8	-6.555888e-07
24	0xb6b7b22a	-5.474566e-06
25	0x35eee80c	1.7799916e-06
26	0x36b6000e	5.424029e-06
27	0xb7966d93	-1.7932418e-05
28	0x3596bef3	1.1231444e-06
29	0x362b8ed9	2.5564134e-06
30	0x3487f6b0	2.5325198e-07
31	0x379eb5b6	1.8919683e-05
32	0xb71c3530	-9.310708e-06
33	0x351a0554	5.7377224e-07
34	0xb64168f0	-2.8820323e-06
35	0x3663046b	3.3828208e-06
36	0x363b0c53	2.7872345e-06
37	0xb4a3c909	-3.0507388e-07
38	0xb6c5f246	-5.899262e-06
39	0x36c15c7e	5.7626157e-06
40	0x36801ad2	3.8178196e-06
41	0xb6133d89	-2.1940525e-06
42	0xb4e48781	-4.2566901e-07
43	0xb59de21e	-1.176322e-06
44	0xb66d18cf	-3.5330193e-06
45	0x35e11718	1.6770528e-06
46	0x368e0212	4.232171e-06
47	0x356148c4	8.392492e-07
48	0x37856222	1.5900532e-05
49	0x35f63f31	1.8346819e-06
50	0xb5bc42bd	-1.4026515e-06
51	0xb702d394	-7.797866e-06
52	0xb62d9801	-2.5867487e-06
53	0xb66d8aae	-3.5396474e-06
54	0xb617a019	-2.2593943e-06
55	0xb3084df7	-3.1735876e-08
56	0x36fbc038	7.50276e-06
57	0x36406bad	2.8672905e-06
58	0xb691e330	-4.347785e-06
59	0x3498ba29	2.8447656e-07
60	0x348a357d	2.574342e-07
61	0x3641fe49	2.8907255e-06
62	0xb5cc3cc7	-1.5216873e-06
63	0xb6f48373	-7.2870694e-06
64	0x35282e01	6.265182e-07
65	0xb624fc46	-2.4584747e-06
66	0xb6cd8ad4	-6.125638e-06
67	0x37078610	8.077841e-06
68	0xb710dc11	-8.634307e-06
69	0x36834246	3.9118195e-06
70	0x36b62993	5.4288626e-06
71	0x357040a1	8.9501015e-07
72	0xb7ac8d06	-2.0569667e-05
73	0x3648c34a	2.9915996e-06
74	0xb6195fa7	-2.2854454e-06
75	0xb61b4a41	-2.3140021e-06
76	0x37010c2f	7.691836e-06
77	0xb567ade0	-8.630723e-07
78	0xb6ccdcd8	-6.1053834e-06
79	0x375936fa	1.2947008e-05
80	0x37ed3c53	2.8280692e-05
81	0xb67c500a	-3.7597515e-06
82	0x36026b9a	1.9434142e-06
83	0xb69615f9	-4.4729063e-06
84	0x36eed0bc	7.1172526e-06
85	0xb68cb9b8	-4.1939456e-06
86	0x3710552c	8.6028995e-06
87	0x3578032b	9.239181e-07
88	0xb75e1229	-1.3236459e-05
89	0x3606db00	2.009503e-06
90	0x353fbe87	7.14303e-07
91	0x362c3525	2.5660931e-06
92	0xb61df922	-2.3539837e-06
93	0x36942a2f	4.4156545e-06
94	0xb5067730	-5.009233e-07
95	0xb69d9908	-4.69678e-06
96	0xb655dd10	-3.1868149e-06
97	0xb5b5eb05	-1.355395e-06
98	0x35cb518e	1.5148414e-06
99	0xb61b2f30	-2.3124267e-06
100	0x35d9358b	1.6183343e-06
101	0xb643181f	-2.9071305e-06
102	0x355c5eb0	8.2094175e-07
103	0x368e2b13	4.2369443e-06
104	0x3715d099	8.92966e-06
105	0x369eae5b	4.7290646e-06
106	0xb452211b	-1.9569818e-07
107	0xb6154a70	-2.2246059e-06
108	0x37610546	1.3412273e-05
109	0x36c5031d	5.87142e-06
110	0x351385c9	5.495645e-07
111	0x35915818	1.082898e-06
112	0x33a89f63	7.852102e-08
113	0xb5014a32	-4.8164213e-07
114	0x348a44c7	2.5754545e-07
115	0xb4d92002	-4.0442688e-07
116	0xb5b41c53	-1.3419289e-06
117	0xb6d853a3	-6.4470382e-06
118	0xb61ca7a2	-2.3343387e-06
119	0xb3e4b3c7	-1.0649779e-07
120	0xb62cc228	-2.574301e-06
121	0xb6a51b9d	-4.920598e-06
122	0xb6332962	-2.6697167e-06
123	0xb6ce9546	-6.156656e-06
124	0x3685644f	3.9753863e-06
125	0xb6b5ab78	-5.414182e-06
126	0x37b2d424	2.131804e-05
127	0xb2a814dd	-1.9567262e-08

main_network.1.weight f4 [128]
0	0x3f74cef6	0.956283
1	0x3f83c03c	1.029304
2	0x3f7a8238	0.9785495
3	0x3f7dee4f	0.99191755
4	0x3f85afb0	1.044424
5	0x3f80e50e	1.0069902
6	0x3f839d94	1.0282464
7	0x3f7bda17	0.98379654
8	0x3f810ba3	1.0081676
9	0x3f82b395	1.0211054
10	0x3f85938c	1.0435653
11	0x3f7b15d4	0.9808018
12	0x3f825eb8	1.0185156
13	0x3f83b3cf	1.0289248
14	0x3f78559b	0.97005624
15	0x3f79efda	0.9763161
16	0x3f8401e7	1.031308
17	0x3f7f90e1	0.9983044
18	0x3f7ba16c	0.98293185
19	0x3f85b94a	1.0447171
20	0x3f854c35	1.0413882
21	0x3f70a0f6	0.93995607
22	0x3f82644f	1.0186862
23	0x3f847c3a	1.0350411
24	0x3f82c28b	1.021562
25	0x3f7cfafb	0.98820466
26	0x3f86a1ec	1.0518165
27	0x3f88b311	1.0679647
28	0x3f80827f	1.0039824
29	0x3f78f5e6	0.9725021
30	0x3f79969c	0.97495437
31	0x3f7c1adc	0.98478484
32	0x3f7d5b46	0.989674
33	0x3f75c5a0	0.96004677
34	0x3f80af0f	1.0053424
35	0x3f7d62a3	0.9897863
36	0x3f7e78bf	0.99402994
37	0x3f85356d	1.0406929
38	0x3f7bfba7	0.98430866
39	0x3f7d9558	0.99056005
40	0x3f808a14	1.0042138
41	0x3f781fdb	0.9692361
42	0x3f7b5785	0.9818042
43	0x3f7d255f	0.9888515
44	0x3f751fcf	0.9575166
45	0x3f83fa2c	1.0310721
46	0x3f83106b	1.0239385
47	0x3f81e02b	1.0146536
48	0x3f7ab7fa	0.97936976
49	0x3f7bf751	0.9842425
50	0x3f80ba26	1.0056808
51	0x3f6ed1c2	0.93288815
52	0x3f7915e0	0.97299004
53	0x3f746a31	0.95474535
54	0x3f7de140	0.9917183
55	0x3f7edf1b	0.9955918
56	0x3f7b77f0	0.98229885
57	0x3f813b61	1.0096246
58	0x3f78823f	0.9707374
59	0x3f750782	0.9571458
60	0x3f7f15d0	0.9964266
61	0x3f739025	0.9514182
62	0x3f85bb43	1.0447773
63	0x3f762dac	0.9616344
64	0x3f7ddbaa	0.99163306
65	0x3f821ee0	1.0165672
66	0x3f757b6c	0.9589145
67	0x3f7f2abc	0.9967458
68	0x3f7d3d85	0.98921996
69	0x3f802878	1.001235
70	0x3f7e37ed	0.99304086
71	0x3f88e813	1.0695823
72	0x3f8a3fef	1.0800761
73	0x3f79c199	0.9756103
74	0x3f847c07	1.035035
75	0x3f7a67ee	0.97814834
76	0x3f7af087	0.98023266
77	0x3f7fbd9f	0.99898714
78	0x3f778049	0.9668012
79	0x3f7edbf2	0.9955436
80	0x3f826164	1.0185971
81	0x3f7e8287	0.9941792
82	0x3f7a2ccf	0.9772462
83	0x3f7ffe6a	0.9999758
84	0x3f80d2bf	1.0064315
85	0x3f814f84	1.0102391
86	0x3f8276e6	1.0192535
87	0x3f81486a	1.0100224
88	0x3f83b64a	1.0290005
89	0x3f7e7e49	0.99411446
90	0x3f816038	1.0107489
91	0x3f8049cc	1.0022521
92	0x3f858f04	1.043427
93	0x3f80eb0f	1.0071734
94	0x3f7d50f7	0.9895167
95	0x3f72fb3d	0.9491461
96	0x3f72f0cd	0.9489868
97	0x3f8459d7	1.0339917
98	0x3f8b1bf4	1.0867906
99	0x3f7f8180	0.99806976
100	0x3f802732	1.0011961
101	0x3f772222	0.9653646
102	0x3f81f805	1.0153815
103	0x3f6bbe9d	0.9208773
104	0x3f7b2d1f	0.98115724
105	0x3f758eeb	0.959212
106	0x3f791151	0.9729205
107	0x3f86f826	1.0544479
108	0x3f818776	1.0119464
109	0x3f827501	1.0191957
110	0x3f80b30a	1.0054638
111	0x3f82cf27	1.0219468
112	0x3f7b3cc3	0.9813959
113	0x3f739057	0.9514212
114	0x3f7eabbd	0.994808
115	0x3f7e267c	0.9927747
116	0x3f6e66bf	0.9312553
117	0x3f85c461	1.0450555
118	0x3f7b231b	0.9810044
119	0x3f779161	0.96706206
120	0x3f7197eb	0.94372433
121	0x3f7e07fe	0.99230945
122	0x3f769983	0.9632799
123	0x3f81723b	1.0112985
124	0x3f7cd705	0.98765594
125	0x3f7a0af3	0.9767296
126	0x3f866b8c	1.0501571
127	0x3f73f501	0.9529572

main_network.1.bias f4 [128]
0	0xbbdb68d4	-0.006695846
1	0xbcc41dc8	-0.023939982
2	0xbb8c6d06	-0.0042854575
3	0xbc8dba38	-0.01730071
4	0x3c31f3dd	0.010861364
5	0xbc511a6d	-0.012762648
6	0x3d6e27e5	0.058143515
7	0xbd12fd4f	-0.035886105
8	0x3d1ac5cd	0.037786294
9	0x3bd24de4	0.0064179767
10	0x3c622ae0	0.0138041675
11	0x3b924725	0.0044640475
12	0xbc72e861	-0.014825911
13	0x3cd49e4d	0.02595439
14	0xbca750b5	-0.020424226
15	0xbd2537fc	-0.040336594
16	0x3c337347	0.010952777
17	0x3c82f34b	0.015985152
18	0xbcbb2971	-0.02284691
19	0x3cbe2bdb	0.023214271
20	0x3cb0d755	0.021587053
21	0xbd6223d0	-0.055209935
22	0x3c9272a8	0.017876938
23	0x3d8b5592	0.068034306
24	0x3d3ad253	0.045610737
25	0xbbb39dce	-0.0054814583
26	0x3d86f699	0.065900035
27	0x3b87d6fb	0.0041455007
28	0x3ccba451	0.024858626
29	0x3c7048f2	0.014665829
30	0xbc00f698	-0.0078712925
31	0xbc5da548	-0.013528176
32	0xbcb5b8a6	-0.022182774
33	0xbd1934ff	-0.037404057
34	0x3bba02ec	0.005676618
35	0x3ce2793c	0.0276457
36	0x3c09bdc5	0.008407061
37	0x39a12e8c	0.00030742993
38	0x3bd90544	0.006622942
39	0xbb076b56	-0.0020663342
40	0x3c998f8b	0.018745204
41	0x3c42e2ac	0.011894863
42	0xbc988c88	-0.018621698
43	0xbc5c253a	-0.01343661
44	0xbc9f640c	-0.019456886
45	0x3ab5b4ed	0.0013863124
46	0x3b4fac3a	0.0031688348
47	0x3ca062a2	0.019578282
48	0xbca576df	-0.020198284
49	0x3c39ba3a	0.011335904
50	0x3be2348b	0.0069032363
51	0xbd783d79	-0.0606055
52	0x3c98c559	0.01864879
53	0xbcced2f9	-0.025247084
54	0xbb56a92a	-0.0032754638
55	0x3bee7ec1	0.007278294
56	0xbc629ba0	-0.013831049
57	0x3ab29c8a	0.0013626975
58	0xbc4ae3cc	-0.012383413
59	0xbc6a2899	-0.014291906
60	0xbcb1cb70	-0.021703452
61	0xbd705685	-0.05867626
62	0x3bece679	0.007229623
63	0xbd274f29	-0.040846977
64	0xbc58c34e	-0.013230158
65	0xbccd98e8	-0.025097325
66	0xbd3ac520	-0.04559815
67	0x3cd13476	0.02553771
68	0xbc4c88f7	-0.012483827
69	0xbbc4c524	-0.0060049463
70	0xbb30c8ca	-0.0026975148
71	0xbbc388b8	-0.005967226
72	0x3d70db36	0.058802806
73	0xbc85612c	-0.016281687
74	0xbd19fd5c	-0.037595138
75	0xbbcd8764	-0.0062722433
76	0xbb3f321c	-0.0029174155
77	0x3ccb3adc	0.02480834
78	0xbc8dac46	-0.01729406
79	0xbb0cbffb	-0.0021476734
80	0x3c13cc39	0.009020858
81	0xba8a904f	-0.0010571572
82	0xbaadef20	-0.0013270117
83	0xbb7c1fa7	-0.0038471015
84	0x3ca8e6b3	0.020617818
85	0x3ce6595c	0.028118782
86	0xbb12babf	-0.0022389141
87	0xbc920599	-0.017824935
88	0x3c029f44	0.007972542
89	0xba45a737	-0.00075398706
90	0x3a2fd6f0	0.00067077484
91	0x3c74e21f	0.01494649
92	0xbc3e5431	-0.0116167525
93	0xbc01e3e5	-0.007927869
94	0x3b96af9a	0.00459857
95	0xbc90d34b	-0.017678877
96	0xbd299b15	-0.041407663
97	0x3cbf331d	0.023339802
98	0x3d51876e	0.051154546
99	0xbc3fc413	-0.011704463
100	0x3b71741b	0.0036842886
101	0xbcfe4f8c	-0.03104379
102	0x3c828513	0.015932595
103	0xbd2ff2bf	-0.04295611
104	0xbcc9bac7	-0.024625195
105	0xbd406471	-0.04697079
106	0x3b130cd0	0.0022438057
107	0x3c53ed33	0.012934971
108	0x3c8034f5	0.015650252
109	0x3d8cd55d	0.06876633
110	0x3cb57e92	0.02215508
111	0x3d5506b6	0.052008353
112	0x3d4ed3ac	0.050494835
113	0xbd27e414	-0.040988997
114	0x3d08b97d	0.03338002
115	0x3c608dfb	0.013705726
116	0xbd609635	-0.05483075
117	0x3d0ba443	0.0340922
118	0xbbbd74b8	-0.005781736
119	0xbd0dc6fa	-0.034613587
120	0xbd8a2df3	-0.06747045
121	0xbbcef32d	-0.00631561
122	0xbc03cad6	-0.008043965
123	0xbd0303b7	-0.031985965
124	0x3cea4137	0.02859555
125	0xbd517fdc	-0.051147327
126	0xbba9fed9	-0.005187851
127	0xbd05249c	-0.032505617

main_network.1.running_mean f4 [128]
0	0x3d64a796	0.055823885
1	0x3dd99140	0.10623407
2	0x3d81c3aa	0.06336148
3	0x3a1b4b1b	0.00059239723
4	0x3d26161d	0.040548433
5	0x3d37938b	0.044818442
6	0x3d827565	0.063700475
7	0x3d291ee3	0.04128922
8	0xbd79fa78	-0.06102988
9	0x3d4a1a02	0.04934121
10	0x3d88f9d2	0.066882744
11	0x3c5caee1	0.013469429
12	0x3dc7b330	0.09750974
13	0x3d719491	0.058979575
14	0x3ce1ffae	0.027587738
15	0x3cd707c3	0.026248818
16	0x3e2b86d4	0.16750652
17	0x3d65d262	0.05610884
18	0xbd8bd001	-0.06826783
19	0x3dc5f8ba	0.096665815
20	0x3c602f2a	0.01368312
21	0xbd4b276b	-0.04959814
22	0x3cafff5b	0.021484068
23	0xbe063f1e	-0.13110015
24	0xbdfc894d	-0.123308755
25	0x3dd805b5	0.105479635
26	0xbdede821	-0.11616541
27	0x3d4fe0ea	0.050751604
28	0xbd573301	-0.052538875
29	0xbdb08fa0	-0.08621144
30	0xbc89de21	-0.016829552
31	0xbdd0e9bb	-0.102008305
32	0x3e1b75d3	0.15181665
33	0xbd7d18c0	-0.06179118
34	0xbd7c9835	-0.061668593
35	0xbe1d8385	-0.15382202
36	0xbbb9f143	-0.0056745126
37	0x3de13a76	0.10997479
38	0xbd980f04	-0.07424739
39	0x3dc90f2b	0.09817346
40	0x3cd6ddfe	0.026228901
41	0xbd4b7b1c	-0.049677953
42	0x3cbef0c9	0.023308175
43	0xbd102f08	-0.035201102
44	0xbc962266	-0.01832695
45	0x3d7ccacc	0.06171684
46	0xbcd253ea	-0.025674779
47	0x3d6966ed	0.056982923
48	0x3ca98d85	0.020697365
49	0xbd5085dd	-0.050908912
50	0xbd9a414c	-0.07531986
51	0x3d9d0ffe	0.07669066
52	0xbcd5dddf	-0.026106773
53	0x3d076a98	0.03306064
54	0xbddb62d4	-0.10712209
55	0xbe148f73	-0.14507847
56	0xbde2639a	-0.11054154
57	0x3dd5fe2d	0.10448871
58	0x3d26ed39	0.040753577
59	0x3e412692	0.1886237
60	0xbc03091f	-0.00799778
61	0xbdf261f9	-0.11835093
62	0x3e4f1a16	0.20224795
63	0xbd910704	-0.07081416
64	0x3e17eb51	0.1483586
65	0x3d93a13e	0.07208489
66	0x3dd93349	0.10605485
67	0x3de57fc5	0.11206011
68	0x3d5e5275	0.054277856
69	0x3e2f09f4	0.1709364
70	0x3ca13b5f	0.01968163
71	0xbc85cf4b	-0.016334197
72	0xbcc8ae4e	-0.024497177
73	0xbda11cdf	-0.07866835
74	0x3d2b1f1c	0.041777715
75	0x3d1c13a4	0.03810467
76	0x3db1a1c1	0.0867343
77	0x3db7f707	0.089826636
78	0xbe851056	-0.25989026
79	0x3de4b355	0.11167017
80	0x3d3bf133	0.045884322
81	0xbe0e73f2	-0.13911417
82	0xbd33a4f7	-0.043858495
83	0x3dec8b95	0.11550061
84	0x3d2a46eb	0.04157154
85	0x3d9bbc8f	0.07604324
86	0xbb7744a4	-0.0037730122
87	0x3d09b307	0.033618
88	0x3e1d9919	0.15390433
89	0x3d176af7	0.036967244
90	0x3d3540e0	0.044251323
91	0xbd248d06	-0.040173553
92	0x3db28720	0.08717179
93	0x3e0e2b3d	0.13883682
94	0xbc5fe0d6	-0.013664445
95	0xbcaec943	-0.021336203
96	0x3c631bc6	0.013861602
97	0x3e054876	0.13015923
98	0x3e2212e2	0.15827516
99	0x3def2adb	0.11678096
100	0xbd625a3b	-0.05526183
101	0xbac8a49d	-0.0015307848
102	0x3cd57f0a	0.026061554
103	0x3d80e9e4	0.06294611
104	0x3ba98517	0.0051733362
105	0xbddc5426	-0.107582375
106	0x3db8a22f	0.09015309
107	0x3d85bd80	0.06530285
108	0x3d52316d	0.051316667
109	0xbdfb1569	-0.12259943
110	0xbd90e6d6	-0.070752785
111	0xbddeaa32	-0.10872306
112	0x3d5b457f	0.053533074
113	0x3dee80d9	0.116456695
114	0xbd29eadd	-0.04148375
115	0xbdb963a6	-0.090522096
116	0x3e80c21d	0.25148097
117	0x3e2de02d	0.16980048
118	0xbd173461	-0.036915187
119	0x3d805d80	0.06267834
120	0xbcbf609e	-0.0233615
121	0xbba4a71d	-0.0050248043
122	0x3e33cacb	0.17557828
123	0x3dd496cc	0.10380325
124	0xbd75e4b5	-0.060032565
125	0x3d407bfd	0.046993244
126	0x3d802ee8	0.06258947
127	0x3caf0047	0.021362437

main_network.1.running_var f4 [128]
0	0x3ec884ed	0.39163914
1	0x3e918f70	0.28429747
2	0x3e6cd9a8	0.23129904
3	0x3e1ccbf6	0.1531218
4	0x3e9dcf91	0.30822423
5	0x3f44f946	0.7694286
6	0x3e8d3b85	0.27584472
7	0x3e4a9deb	0.19786803
8	0x3e5005a1	0.20314647
9	0x3eab880b	0.3350223
10	0x3f05301e	0.52026546
11	0x3f59e4c5	0.851147
12	0x3eea7514	0.4579245
13	0x3edc5dff	0.43040463
14	0x3dfe0419	0.12403125
15	0x3e363953	0.17795305
16	0x3eb8ea0d	0.36116067
17	0x3e3530cb	0.17694394
18	0x3ec45d24	0.3835231
19	0x3e1bd9e8	0.15219843
20	0x3dc666af	0.09687554
21	0x3e9fecf3	0.31235465
22	0x3e4f8e15	0.20269044
23	0x3ed5c6fb	0.41753373
24	0x3e92f378	0.28701377
25	0x3f9636e3	1.17355
26	0x3da4e070	0.080506206
27	0x3e1b80a8	0.15185797
28	0x3e76e3b7	0.24110304
29	0x3ebd1901	0.3693314
30	0x3f720502	0.9453889
31	0x3e40bb39	0.1882142
32	0x3da3f4bf	0.08005666
33	0x3e522f9a	0.20525971
34	0x3db7ca5b	0.08974143
35	0x3dc87508	0.09787947
36	0x3f02058e	0.50789726
37	0x3e968cf8	0.29404426
38	0x3e91e79b	0.28497013
39	0x3f44e646	0.7691387
40	0x3e187698	0.1488899
41	0x3e6f2fd6	0.23358092
42	0x3e9f5b79	0.31124476
43	0x3ef17e59	0.47166708
44	0x3e2c723b	0.1684045
45	0x3e355327	0.17707501
46	0x3e12c470	0.14332747
47	0x3e5c68df	0.2152438
48	0x3dbf12ca	0.093297556
49	0x3ed035ce	0.4066605
50	0x3e555405	0.20832832
51	0x3ed3f1bb	0.41395363
52	0x3ec14cf3	0.3775402
53	0x3ef02218	0.4690101
54	0x3f4d3768	0.8016267
55	0x3e9f9666	0.31169432
56	0x3ec4a966	0.3841049
57	0x3eba5b78	0.3639791
58	0x3e91c105	0.28467575
59	0x3ed09b84	0.4074365
60	0x3e54a729	0.20766892
61	0x3e9394ef	0.28824565
62	0x3e7602e7	0.24024545
63	0x3e4e3fd0	0.2014153
64	0x3dda0f1b	0.106474124
65	0x3eb2b215	0.3490149
66	0x3f45a6f1	0.7720786
67	0x3ecce480	0.40018082
68	0x3f1684b3	0.5879623
69	0x3e518f00	0.20464706
70	0x3e207433	0.15669326
71	0x3e10be50	0.14135098
72	0x3eab2b27	0.3343136
73	0x3e33f181	0.17572595
74	0x3dd64110	0.104616284
75	0x3f1afa73	0.60538405
76	0x3e1a340e	0.1505892
77	0x3e764848	0.2405101
78	0x3ee01bcb	0.43771204
79	0x3effc7c9	0.4995711
80	0x3e29d639	0.16585626
81	0x3f45157f	0.76985925
82	0x3e9b1a09	0.302933
83	0x3ec12f8d	0.3773159
84	0x3e4ee85c	0.20205826
85	0x3fa74354	1.3067422
86	0x3f07c647	0.5303692
87	0x3ecd3c5c	0.40085113
88	0x3eb7fd1a	0.3593529
89	0x3f8f560f	1.1198138
90	0x3e8a37b4	0.26995623
91	0x3e232b84	0.15934569
92	0x3e86c099	0.26318815
93	0x3e0596b3	0.13045768
94	0x3e4642b2	0.1936138
95	0x3eec1190	0.4610715
96	0x3f332f2e	0.69993865
97	0x3ee0a9b2	0.43879467
98	0x3edd1ebe	0.43187517
99	0x3e9533c5	0.2914106
100	0x3ea8051a	0.32816392
101	0x3dc36649	0.09540994
102	0x3f1e1073	0.6174385
103	0x3e2d3981	0.16916467
104	0x3ecca316	0.39968175
105	0x3ece7968	0.40327
106	0x3f32ffb6	0.69921434
107	0x3e188e3b	0.14898007
108	0x3ed0e4af	0.40799472
109	0x3e46dec9	0.19420923
110	0x3e246fb6	0.1605824
111	0x3e4639ed	0.19358034
112	0x3e7fe3f8	0.24989307
113	0x3e6a5472	0.22883776
114	0x3e4f8a2b	0.2026755
115	0x3e798437	0.24366842
116	0x3e8082d4	0.25099814
117	0x3eb9a4a9	0.36258438
118	0x3ea33ce0	0.3188238
119	0x3e86f7f8	0.2636106
120	0x3f059c50	0.5219164
121	0x3ebfabe4	0.3743583
122	0x3e2457f3	0.16049175
123	0x3e1423eb	0.14466827
124	0x3e6485f1	0.2231672
125	0x3e6ab8ff	0.22922133
126	0x3da9983d	0.0828099
127	0x3ee96f9d	0.45592967

main_network.4.weight f4 [64, 128]
0	0xbcee3d68	-0.029082015
1	0xbad41570	-0.0016180705
2	0x3c88af2b	0.01668509
3	0x3c63a048	0.0138931945
4	0xbcd0b1f6	-0.025475483
5	0x3dd8dbd5	0.10588805
6	0xbc7650f8	-0.015033953
7	0x3dada9cd	0.084796526
8	0xbd2fa23a	-0.04287932
9	0x3c56c8dc	0.013109412
10	0x3d0d26f7	0.034460988
11	0x3b74aca9	0.0037334359
12	0x3deff7e7	0.117172055
13	0xbd580530	-0.052739322
14	0xbdc398cb	-0.09550627
15	0x3d3f0965	0.04663982
16	0x3da87b08	0.08226591
17	0x3d27148f	0.04079109
18	0x3d8b8135	0.06811754
19	0x3e130231	0.14356305
20	0x3d5aeec5	0.053450365
21	0xbd806744	-0.06269696
22	0x3d7cb22a	0.061693348
23	0xbc6587d3	-0.014009434
24	0xbcc57b3f	-0.02410662
25	0x3ddf5290	0.109044194
26	0xbd35a69f	-0.044348355
27	0xb9266c62	-0.0001587137
28	0xba78f05e	-0.0009496267
29	0xbcfd65d0	-0.030932337
30	0x3c2a3e05	0.010390763
31	0x3d85ac04	0.0652695
32	0x3bea01e6	0.0071413396
33	0xbd3b0f13	-0.045668673
34	0x3d195bb3	0.037440967
35	0xbd599148	-0.053117067
36	0xbcf9f33a	-0.030511487
37	0x3dc0a745	0.09406904
38	0x3b84e9d9	0.004056197
39	0xbda6f2c4	-0.081517726
40	0x3d3fdf95	0.046844084
41	0x3d0ae843	0.03391291
42	0xbd440d75	-0.047864396
43	0x3d57c874	0.0526814
44	0x3d3062c1	0.04306293
45	0x3da4cec5	0.08047251
46	0xbd12430b	-0.03570847
47	0x3dcb615c	0.09930679
48	0xbdab28bb	-0.08357378
49	0x3cd4ce88	0.025977388
50	0xbc13b1e6	-0.009014582
51	0x3dd6d3d6	0.10489623
52	0xbd83ac98	-0.06429404
53	0x3c092e77	0.0083728945
54	0x3d99bc01	0.07506562
55	0xbd052151	-0.032502476
56	0xbc4d7630	-0.012540385
57	0xbd4fbe9f	-0.0507189
58	0x3d6700d6	0.05639728
59	0xbd43eba2	-0.04783214
60	0x3d4883cb	0.048953813
61	0xbcc0d2b8	-0.023537979
62	0xbc514f6b	-0.012775282
63	0xbce5299e	-0.027973946
64	0x3d80497d	0.06264017
65	0x3d1bd714	0.03804691
66	0x3d21a8f7	0.039467778
67	0xbd857acb	-0.065175615
68	0xbd118600	-0.035528183
69	0x3dd46dde	0.10372518
70	0xbc3053d9	-0.010762178
71	0xbd166168	-0.036713988
72	0xbdae5362	-0.08511998
73	0x3d485e89	0.04891828
74	0x3e024f13	0.12725477
75	0xbd70eba2	-0.058818467
76	0x3d326b88	0.04355958
77	0xbd6938fe	-0.056939118
78	0xbd6c0b46	-0.05762794
79	0xb99adbc5	-0.0002953691
80	0x3de95374	0.113928705
81	0xbd4d28b9	-0.050087664
82	0xbc137437	-0.008999876
83	0x3da902d0	0.082524896
84	0xbc5f23bd	-0.0136193605
85	0x3dc34a0d	0.095356084
86	0x3d56a127	0.05239978
87	0x3d185d4e	0.037198357
88	0x3da06a1f	0.07832741
89	0x3d309de3	0.043119323
90	0xbd3aef0a	-0.04563812
91	0x3d12a2ba	0.03579972
92	0x3d6165c8	0.055028707
93	0xbd9678be	-0.073472485
94	0x3d17d2c7	0.037066247
95	0x3c944b29	0.018102245
96	0xbcf81da9	-0.03028758
97	0x3d8376f7	0.06419175
98	0xbd0531c3	-0.03251816
99	0x3d18fb91	0.037349287
100	0x3d16df15	0.03683384
101	0x3d03e9ff	0.032205578
102	0x3a6261dd	0.00086357986
103	0xbc9c60fe	-0.019089218
104	0x3d3eb465	0.046558756
105	0xbdea4b70	-0.1144017
106	0x3d6f05c9	0.058355127
107	0xbc3a396f	-0.011366232
108	0x3d22c21d	0.039735902
109	0x3d1b28cc	0.037880704
110	0x3d3f2feb	0.046676558
111	0xbd888ed8	-0.0666787
112	0x3d59163b	0.052999716
113	0x3c45d230	0.012074038
114	0xbdca222d	-0.098698
115	0x3c8ed5ee	0.017435994
116	0x3d0d7608	0.03453639
117	0x3d62a531	0.05533332
118	0xbd8718d6	-0.06596534
119	0xbd0c1fb2	-0.034209915
120	0x3dc4a39e	0.0960152
121	0xbd621c12	-0.05520255
122	0xbcb93850	-0.02260986
123	0x3d5bf2f1	0.053698484
124	0x3c126823	0.008935961
125	0x3da85bac	0.0822061
126	0xbd965c4c	-0.07341823
127	0xbb3dc807	-0.0028958337
128	0xbde74535	-0.11292497
129	0xbda64bd2	-0.0811993
130	0xbd36e666	-0.04465332
131	0x3d92ba07	0.07164388
132	0xbd8c8b7a	-0.068625405
133	0x3d9bbe48	0.07604653
134	0x3cc157b8	0.023601398
135	0xbd42e9dd	-0.04758631
136	0x3da464d6	0.080270454
137	0xbd1e5802	-0.03865815
138	0xbdd5a9db	-0.10432788
139	0x3d634c46	0.055492662
140	0xbcf77eb3	-0.030211782
141	0xbd9bab35	-0.076010145
142	0x3c74e319	0.014946722
143	0xbd90c5fd	-0.07069013
144	0x3d4f5d68	0.05062619
145	0x3d0e958b	0.034810584
146	0x3c7212c8	0.014774986
147	0xbc2e0737	-0.010621837
148	0xbb28f291	-0.0025779346
149	0xbcccf0a0	-0.025017083
150	0xbd14a745	-0.036292333
151	0x3d24e6ba	0.0402591
152	0x3d5ebbb9	0.054378245
153	0xbd28519a	-0.041093446
154	0xbcac128c	-0.021004938
155	0x3d61691b	0.055031877
156	0x39bcba0b	0.00035996767
157	0x3d3de012	0.04635627
158	0x39a9acc2	0.00032362906
159	0xbb8d60c6	-0.004314515
160	0xbd8727c8	-0.065993845
161	0x3c9a8c7c	0.018865816
162	0x3d4c6201	0.04989815
163	0xbc9f835e	-0.01947182
164	0x3db87d5e	0.09008287
165	0xbbe3406f	-0.0069351713
166	0x3b721138	0.0036936533
167	0xbd5f3521	-0.054494027
168	0x3d9299b6	0.07158224
169	0xbd8dec36	-0.06929819
170	0x3bdb7e12	0.0066983784
171	0x3d90ed80	0.070765495
172	0x3d9ef836	0.07762186
173	0x3d7b9a17	0.06142625
174	0xbc701195	-0.014652629
175	0xbcb7d9ce	-0.022442725
176	0xbb86a420	-0.0041089207
177	0x3dd55072	0.10415734
178	0xbdca8197	-0.098879986
179	0x3d0fbe6e	0.035093717
180	0x3da2c4da	0.07947703
181	0xbd6c7f35	-0.0577385
182	0xbdc54899	-0.096329875
183	0xbd4b7b12	-0.049677916
184	0xbd96f2c9	-0.07370526
185	0x3cb4e721	0.022082867
186	0x3dae3ec3	0.085080646
187	0x3c7822c7	0.01514501
188	0xbda25541	-0.07926417
189	0xbd0b9a71	-0.034082834
190	0x3d5c3d34	0.053769305
191	0x3daf9199	0.085726924
192	0x3d0a11e5	0.03370847
193	0xbd1f3b71	-0.038875047
194	0xbdd9fbaf	-0.10643708
195	0x3d79e721	0.061011437
196	0xbd7a4aa9	-0.061106358
197	0xbd09796a	-0.033563055
198	0xbc44cfbb	-0.012012417
199	0xbc07b9c5	-0.008284037
200	0xbd456d34	-0.048199847
201	0xbc91afa4	-0.017783947
202	0x3ca89b60	0.020581901
203	0x3d92326b	0.07138523
204	0x3d8e4827	0.06947356
205	0x3ddc5d36	0.10759966
206	0xbc9114b5	-0.01771007
207	0xbca50321	-0.020143094
208	0x3cc382f1	0.023866149
209	0x3dbb83ca	0.09155996
210	0xbdbb175e	-0.09135316
211	0xbd1b3eb7	-0.037901606
212	0x3c86518a	0.016396303
213	0x3cc29dc9	0.023756878
214	0x3d2aaee6	0.041670702
215	0x3d5af02a	0.053451695
216	0xbda08784	-0.078383476
217	0xbda7f70d	-0.08201418
218	0x3d0ed81d	0.03487407
219	0x3d23cbb1	0.039989177
220	0xbdcff8a4	-0.10154846
221	0xbd2ce12d	-0.04220693
222	0xbd16201c	-0.036651716
223	0x3d54c984	0.051949993
224	0xbc7ecc57	-0.015551648
225	0x3c1d01ed	0.009582979
226	0xbdb63712	-0.088972226
227	0xbdae2feb	-0.085052334
228	0xbdc0f589	-0.09421832
229	0xbd8b34cf	-0.06797182
230	0xbc9e49a7	-0.01932223
231	0xbabf3635	-0.0014588299
232	0xbd95c422	-0.073128
233	0xbd11b3f9	-0.035572026
234	0x3daa184d	0.08305416
235	0x3d19cd86	0.037549518
236	0xbd929f39	-0.071592756
237	0xbc231b89	-0.009955295
238	0x3d4ff7d8	0.05077347
239	0x3da8f88d	0.08250532
240	0xbc779b3d	-0.015112695
241	0x3cc178ea	0.023617227
242	0xbb13269e	-0.0022453438
243	0xbc853e69	-0.016265111
244	0xbd6cef16	-0.057845198
245	0x3d5c9d97	0.053861227
246	0xbd82f3c5	-0.063941516
247	0xbd849690	-0.0647403
248	0x3c82bc88	0.01595904
249	0xbd130059	-0.035889003
250	0x3d131515	0.035908777
251	0x3c6511a6	0.0139812585
252	0x3c3db8a3	0.011579665
253	0x3c83bb88	0.016080633
254	0xbc9e3d65	-0.019316385
255	0xbd49a787	-0.049232032

main_network.4.bias f4 [64]
0	0x3713c086	8.806708e-06
1	0x36578369	3.2113987e-06
2	0xb6331db1	-2.6690361e-06
3	0x36020542	1.937457e-06
4	0x37756576	1.4626761e-05
5	0xb66596ba	-3.4211394e-06
6	0xb6c24230	-5.789356e-06
7	0xb6ddd9a6	-6.611651e-06
8	0x35996089	1.1427484e-06
9	0x376fad9d	1.4285933e-05
10	0xb708c161	-8.151256e-06
11	0x36c2a2ae	5.800589e-06
12	0xb6bcf83d	-5.6317353e-06
13	0xb539fc8e	-6.9285386e-07
14	0x37a8b11b	2.0109632e-05
15	0xb6e90d50	-6.945491e-06
16	0xb599f286	-1.1469972e-06
17	0xb70bd611	-8.334887e-06
18	0x35fb17f5	1.870793e-06
19	0xb6f55ef5	-7.3126234e-06
20	0x34e28684	4.2193653e-07
21	0x35993e15	1.1417457e-06
22	0x378047d7	1.5292242e-05
23	0xb758651a	-1.2898143e-05
24	0xb787eb9b	-1.6202966e-05
25	0xb586f58c	-1.0055242e-06
26	0x36fc544c	7.5199987e-06
27	0x370f5960	8.544273e-06
28	0xb5851701	-9.915967e-07
29	0xb75d2022	-1.3180108e-05
30	0x3742763e	1.15908315e-05
31	0x376c974e	1.41019245e-05
32	0xb6f397e0	-7.259645e-06
33	0x37c1a177	2.308258e-05
34	0xb7238563	-9.746614e-06
35	0xb53e1a21	-7.081854e-07
36	0xb6bfa5dc	-5.711552e-06
37	0xb68d6952	-4.2143884e-06
38	0xb6bf80a2	-5.7072184e-06
39	0x36294b82	2.5226914e-06
40	0xb5b115a4	-1.3193826e-06
41	0xb743c018	-1.1667631e-05
42	0x37979bfa	1.8073235e-05
43	0x367a7e8c	3.7326563e-06
44	0xb61f99a2	-2.3782272e-06
45	0x36174465	2.2540564e-06
46	0xb74e65b2	-1.2302235e-05
47	0xb617f331	-2.264231e-06
48	0xb71c16c3	-9.303624e-06
49	0xb7145535	-8.841326e-06
50	0x36c2f3c9	5.810031e-06
51	0x36bb1654	5.5756336e-06
52	0xb6e5c2fc	-6.847431e-06
53	0xb60fd865	-2.1434619e-06
54	0xb5b7342d	-1.3649748e-06
55	0x36c1498d	5.7604107e-06
56	0xb7221a9e	-9.66215e-06
57	0x3795fea2	1.7880757e-05
58	0xb5884011	-1.0151435e-06
59	0x373e1241	1.1329133e-05
60	0x368a5368	4.1224303e-06
61	0x376d53c6	1.4145806e-05
62	0x354ee9ee	7.708139e-07
63	0x366cb9b3	3.5274832e-06
