XGBoost/best_model_inception3.pth (torch, 121067 bytes, 47 tensors)

model_embedding.weight f4 [32, 12]
0	0x3dbb4154	0.0914332
1	0xbdb84e38	-0.08999294
2	0x3e30209a	0.17199937
3	0x3df3898f	0.118914716
4	0x3e3980dc	0.18115562
5	0xbdff98a0	-0.12480283
6	0x2e32524d	4.0545612e-11
7	0xbd9b5878	-0.075852334
8	0x3dbccc8a	0.092187
9	0xbb145582	-0.0022633974
10	0x3de9b5c9	0.11411626
11	0xbe8da1a7	-0.27662393
12	0x3dff0856	0.12452762
13	0x3cf03c5d	0.029325658
14	0xbd51aa04	-0.05118753
15	0xbc62b9fc	-0.013838287
16	0xbe6a45ab	-0.22878139
17	0xbdc34127	-0.09533911
18	0xbd1b8471	-0.037968103
19	0x3e1c4f40	0.15264606
20	0xbe4cf6c4	-0.20016009
21	0xbe054ec8	-0.13018334
22	0x3e1079e8	0.14109004
23	0x3e821754	0.25408423
24	0xbdfd587d	-0.123703934
25	0xbd039c48	-0.032131463
26	0xbe2f0355	-0.17091115
27	0xbd384736	-0.044989787
28	0x3e7d4c24	0.24736077
29	0xbdd50cfa	-0.10402866
30	0xbab55f22	-0.0013837556
31	0xbe5af6d3	-0.21383218
32	0x3d1dde69	0.038542185
33	0xbdb4e56b	-0.088328205
34	0xbda0a54c	-0.07844028
35	0x3e2adc88	0.16685688
36	0x3ea7a56a	0.32743388
37	0xbe2a5f1b	-0.16637842
38	0x3deb9e76	0.115048334
39	0xbe1d0636	-0.153344
40	0x3e1638dd	0.14670129
41	0xbe7806e0	-0.24221373
42	0xadcca493	-2.32652e-11
43	0x3e6b9a07	0.23007976
44	0xbcdc016e	-0.02685615
45	0xbe30323b	-0.17206661
46	0x3e916724	0.28399003
47	0x3e5f75f5	0.21822341
48	0x3d7821fa	0.060579278
49	0x3e8ce81a	0.2752083
50	0x3e48033b	0.19532482
51	0xbe1dfeea	-0.15429273
52	0x3e0ae6bc	0.1356458
53	0x3de6418e	0.11242972
54	0x3cc21e5e	0.02369612
55	0xbe52bc8f	-0.20579742
56	0xbc1093ed	-0.008824331
57	0x3e6b0605	0.22951515
58	0xbd6dc833	-0.058052253
59	0x3ddf626c	0.10907444
60	0x3df610f3	0.120149516
61	0x3df4aacb	0.11946639
62	0xbd555838	-0.052086085
63	0x3eb51ed5	0.35375085
64	0x3dcdd269	0.10049898
65	0x3e03487c	0.1282062
66	0xbcda2fb3	-0.026634073
67	0xbe640679	-0.22268094
68	0x3e9454f4	0.28971064
69	0x3e70db51	0.23521163
70	0x3e4e61da	0.20154515
71	0xbe9019d1	-0.28144696
72	0x3e428afc	0.18998331
73	0x3e28a84c	0.1647045
74	0xbe88b533	-0.26700744
75	0xbdb919cd	-0.09038124
76	0xbe024784	-0.12722594
77	0x3e83a927	0.2571499
78	0xbb2b0433	-0.0026095032
79	0x3e7aa38a	0.24476448
80	0xbe4b14b6	-0.1983212
81	0xbe263c67	-0.16233979
82	0x3da5a1a5	0.08087472
83	0xbdd10a0e	-0.10206996
84	0x3d0f2119	0.034943674
85	0x3e530212	0.20606259
86	0x3e2c8ad7	0.16849838
87	0x3e98235a	0.2971447
88	0x3ca24691	0.01980904
89	0x3e7dba84	0.24778181
90	0x3b1f1928	0.002427647
91	0xbe8729e8	-0.2639916
92	0xbd9f74d4	-0.07785955
93	0xbea19e42	-0.31566054
94	0x3c508f2a	0.0127294455
95	0xbe6764d4	-0.22597057
96	0x3e0b3680	0.13595009
97	0xbb6601f8	-0.0035096388
98	0x3bb7c78d	0.005608505
99	0xbe54ef2c	-0.20794362
100	0xbcbc1fcf	-0.022964386
101	0xbe38cf26	-0.18047771
102	0xb45fe7ca	-2.0852818e-07
103	0xbe854044	-0.26025593
104	0x3e0c60db	0.13708822
105	0x3e949a64	0.2902404
106	0x3cf52f70	0.029929847
107	0x3e1c9848	0.15292466
108	0x3e21d44e	0.15803644
109	0xbbcd9659	-0.0062740264
110	0x3e942aa0	0.2893877
111	0xbeb340fe	-0.35010523
112	0xbe69a045	-0.22815044
113	0xbe109a7c	-0.14121431
114	0x382426fc	3.9136954e-05
115	0x3e533bca	0.20628276
116	0x3e2a649b	0.1663994
117	0xbd0f6b46	-0.035014413
118	0xbe14be40	-0.145257
119	0x3ddbfad2	0.107411996
120	0x3dbb6b9c	0.09151384
121	0x3e441aa0	0.19150782
122	0xbde43c1c	-0.111442775
123	0xbecbf04f	-0.39831778
124	0x3cac98bb	0.021068921
125	0x3e0a9928	0.13534987
126	0x3a0f3dfe	0.00054642546
127	0x3e770dfc	0.24126428
128	0xbe2b0f2e	-0.1670501
129	0x3dc22eee	0.094816074
130	0x3d9d78e2	0.07689072
131	0x3ca2cadc	0.019872122
132	0xbc4725b6	-0.012154987
133	0xbe30248b	-0.1720144
134	0x3bd277f8	0.006422993
135	0xbd6f02cb	-0.058352273
136	0xbbdb20a5	-0.006687241
137	0xbe1bf90b	-0.15231721
138	0x39ea0e69	0.00044642694
139	0x3e805d06	0.2507097
140	0x3dca59d5	0.09880415
141	0x3d6ad5a0	0.057332635
142	0x3d52671e	0.05136787
143	0xbd7e31f3	-0.062059354
144	0xbe4c51df	-0.19953106
145	0xbda9bd33	-0.0828804
146	0xbe2ab827	-0.16671811
147	0xbeb67462	-0.35635668
148	0xbe170ea8	-0.14751685
149	0xbd3ab17f	-0.04557943
150	0xba191fbf	-0.00058412174
151	0xbd466e10	-0.048444808
152	0xbe7c4f06	-0.2463952
153	0x3e9c9fc3	0.3059064
154	0x3d01de2c	0.03170602
155	0xbdd28f50	-0.10281241
156	0x3e61b3b4	0.22041208
157	0xbe5ba9c5	-0.2145148
158	0xbd7517a3	-0.059836995
159	0xbe18a2c4	-0.1490584
160	0x3e995e8a	0.2995494
161	0xbd1f1c11	-0.038845126
162	0xb33d3d22	-4.406059e-08
163	0xbe5994dc	-0.21248192
164	0xbe547b21	-0.20750095
165	0xbe9e05b0	-0.30863714
166	0x3e8efb49	0.2792609
167	0xbd811563	-0.06302907
168	0x3e8e0314	0.27736723
169	0x3dae92b4	0.08524075
170	0x3e9fad69	0.3118699
171	0xbe9a4d8c	-0.3013729
172	0x3caf6e7e	0.021414991
173	0x3e22c7ec	0.15896577
174	0xb09a6049	-1.1232341e-09
175	0x3e17678c	0.14785594
176	0x3dc7a3ea	0.09748061
177	0xbde24047	-0.11047416
178	0xbe4c5e16	-0.19957766
179	0xbe44f4bd	-0.19233985
180	0x3ceabbcf	0.028654007
181	0x3de810e6	0.11331348
182	0x3eac01c7	0.33595106
183	0xbdaaf85f	-0.08348154
184	0xbe7bda56	-0.24595007
185	0xbd41171d	-0.047141183
186	0x2f9d550c	2.8618563e-10
187	0x3dca5f7d	0.09881494
188	0xbddbdca2	-0.10735442
189	0x3cd23c36	0.025663476
190	0x3de74b2a	0.11293633
191	0x3e6aed29	0.22942032
192	0xbd595be9	-0.053066168
193	0x3e96b812	0.2943731
194	0xbe143279	-0.14472379
195	0xbd825b96	-0.06365125
196	0x3e123def	0.14281438
197	0x3e33b71a	0.17550316
198	0xbac29cd7	-0.0014847767
199	0xbe39b1a4	-0.18134171
200	0xbd03b3d0	-0.032153904
201	0x3e77c790	0.24197221
202	0xbd2c4b8c	-0.042064235
203	0x3de6ee98	0.11275977
204	0x3de25b06	0.110525176
205	0xbe7ed093	-0.24884252
206	0xbd63b531	-0.05559272
207	0xbd11bb16	-0.03557881
208	0x3e3c356b	0.18379752
209	0x3e89bab0	0.26900244
210	0xbc52d831	-0.012868927
211	0xbe611081	-0.21978952
212	0xbe665260	-0.22492361
213	0x3d3106b6	0.04321929
214	0x3e46b843	0.19406228
215	0xbd3a3e23	-0.045469414
216	0xbe104d88	-0.14092076
217	0xbe4d39fa	-0.20041648
218	0x3e121740	0.14266682
219	0x3d59dcc9	0.053189073
220	0xbe89078d	-0.26763573
221	0xbe8dab7d	-0.27669898
222	0xbb4c96bc	-0.0031217774
223	0xbe97e58e	-0.29667324
224	0x3d5741d4	0.052553013
225	0x3cf49f5c	0.029861145
226	0xbe5b21d5	-0.21399625
227	0x3e65788a	0.22409263
228	0xba8655e2	-0.0010248984
229	0xbdc0cf27	-0.09414511
230	0x3e3eaf05	0.18621452
231	0x3e816584	0.25272763
232	0xbda1bae7	-0.07896977
233	0xbe0b2d57	-0.13591515
234	0x3a88a2d9	0.0010424509
235	0xbd6460d3	-0.0557564
236	0x3d4f4ae8	0.050608546
237	0xbe9988b1	-0.299871
238	0x3dae27fe	0.08503722
239	0x3d00f1e9	0.031480704
240	0xbe0876e5	-0.13326605
241	0xbe84f235	-0.2596604
242	0x3e208323	0.15675025
243	0xbe38216d	-0.17981501
244	0x3cd42523	0.025896614
245	0x3e8551a4	0.2603885
246	0x38fa7406	0.0001194254
247	0x3dd83795	0.105574764
248	0x3d979457	0.074013405
249	0x3e04228c	0.12903804
250	0x3e3cb9cf	0.18430255
251	0x3e5937b4	0.21212655
252	0x3cd691cd	0.02619257
253	0x3e89adc8	0.26890397
254	0x3e9e4c22	0.3091746
255	0xbeaaf9a3	-0.33393583

model_embedding.bias f4 [32]
0	0x3b0dd37f	0.0021640954
1	0x3cfcf060	0.030876338
2	0xb64af979	-3.0245558e-06
3	0x3c5b2410	0.013375297
4	0x3bf9aa89	0.0076192063
5	0xbad430e6	-0.0016188889
6	0xb6c0c1a8	-5.7445905e-06
7	0xbb750e30	-0.003739249
8	0xb7c81107	-2.3849787e-05
9	0x3728c4f7	1.005944e-05
10	0xbd203f1c	-0.039122686
11	0x3653b563	3.154703e-06
12	0x3a58d719	0.0008271798
13	0x36dff273	6.6741427e-06
14	0xb881da04	-6.191808e-05
15	0x3d059b50	0.03261882
16	0xb79e9510	-1.890448e-05
17	0x372c7bd0	1.0280826e-05
18	0xb787a0d5	-1.6168147e-05
19	0x3d007ca8	0.03136888
20	0x37737b72	1.45126705e-05
21	0x39bb477d	0.00035720682
22	0x3cccf673	0.02501986
23	0xbb9067b3	-0.004406893
24	0x3b802906	0.0039111404
25	0x3ca75434	0.020425893
26	0xbaf9ac55	-0.0019048551
27	0xb718e88a	-9.114048e-06
28	0xb83db526	-4.522982e-05
29	0x3c0f1614	0.008733291
30	0xb9c96e3f	-0.00038419847
31	0x3c3d941c	0.011570957

dataset_embedding.weight f4 [16, 3]
0	0x3ef06dcb	0.46958765
1	0xbea730b8	-0.32654357
2	0xbee27b07	-0.44234487
3	0x3ef27a5f	0.47358987
4	0xbe8b6700	-0.2722702
5	0xbe1c781e	-0.15280196
6	0xbecab5b3	-0.3959175
7	0x3d8681d3	0.06567731
8	0x3d5f4195	0.054505903
9	0xbd4db98c	-0.05022578
10	0x3efdb5c8	0.4955275
11	0xbea63b2e	-0.32467026
12	0x3f209cd0	0.62739277
13	0x3e8a54f5	0.27017942
14	0xbec2c143	-0.38038072
15	0xbe890d8b	-0.26768145
16	0x3ec840aa	0.39111835
17	0x3dfad08e	0.1224681
18	0xbea125bf	-0.3147411
19	0x3e177050	0.14788938
20	0x3f169504	0.5882113
21	0xbe0dd334	-0.13850099
22	0xbf18cbc4	-0.5968592
23	0xbd52994f	-0.051415738
24	0xbef9e910	-0.48810625
25	0xbd8f9921	-0.07011629
26	0xbe942d44	-0.28940785
27	0xbe7c84bc	-0.24660009
28	0x3f127850	0.5721483
29	0x3eb8b150	0.3607278
30	0x3f0fa2ed	0.5610798
31	0x3ef5c15e	0.4799909
32	0x3ddff9f6	0.10936348
33	0xbdb9ddb1	-0.090754874
34	0xbc96e2a1	-0.018418612
35	0x3edc5f6a	0.43041545
36	0xbe70d207	-0.23517619
37	0x3f13a542	0.5767404
38	0xbe74f35f	-0.23920964
39	0x3f22ad4a	0.6354567
40	0xbcb51402	-0.022104267
41	0xbe5e61d1	-0.21717001
42	0x3eb039bc	0.34419048
43	0xbe85d0c1	-0.2613583
44	0x3e8557cd	0.2604355
45	0xbebd54c6	-0.3697874
46	0xbd9f4398	-0.07776564
47	0x3e571295	0.21003182

dataset_embedding.bias f4 [16]
0	0x3d65ab0f	0.056071337
1	0x3ccae0a8	0.024765328
2	0xbd5d94be	-0.05409693
3	0xbc04d58e	-0.008107556
4	0xbca5d75a	-0.02024429
5	0xbcf159be	-0.029461738
6	0x37ccbb09	2.440579e-05
7	0xbe32edf8	-0.1747359
8	0x3e88e73e	0.26738924
9	0xbe784999	-0.24246825
10	0x3b17b87c	0.0023150733
11	0xbe06b62b	-0.13155429
12	0xbc1e86d4	-0.0096757
13	0x3ca9920d	0.020699525
14	0xb8249f52	-3.9249026e-05
15	0xbccc1a13	-0.024914777

tensor_network.0.weight f4 [16, 1]
0	0x3ed76c37	0.4207475
1	0xbd8d7a8e	-0.06908141
2	0x3ec77945	0.3895971
3	0x3dc4dffb	0.096130334
4	0xbc5c66bf	-0.013452231
5	0x3dce1d8f	0.100642316
6	0xbea03d37	-0.31296703
7	0x3ea4c984	0.32184994
8	0xbebaa939	-0.36457232
9	0xbf0e5a9e	-0.5560702
10	0xbe77d515	-0.24202378
11	0xbe9ffd81	-0.31248096
12	0xbda6826c	-0.08130345
13	0xbe749b40	-0.23887348
14	0x3eecc80f	0.46246383
15	0x3eb9de4a	0.36302406

tensor_network.0.bias f4 [16]
0	0xbd5c70a9	-0.05381838
1	0xbecfdfda	-0.40600473
2	0x3ebf0327	0.37307093
3	0x37b82519	2.1951784e-05
4	0xbc55afae	-0.013042374
5	0xbe865024	-0.26233017
6	0x3f440982	0.7657701
7	0x3bccfde5	0.0062558525
8	0xbe8c59f7	-0.27412388
9	0x3e4696ee	0.19393513
10	0xbe066844	-0.13125712
11	0xbcac1876	-0.021007758
12	0xbe9578cb	-0.2919372
13	0xbb8125b7	-0.0039412635
14	0x3cf4cdc2	0.02988327
15	0xbf05279b	-0.5201356

tensor_network.2.weight f4 [16]
0	0x3f78c81a	0.9718033
1	0x3f29fa42	0.6639749
2	0x3f7b8ca8	0.982615
3	0x3f73d5ba	0.95247996
4	0x3f7b7a3e	0.982334
5	0x3f7c2f3c	0.98509574
6	0x3f7e126e	0.9924687
7	0x3f79c1c3	0.9756128
8	0x3f29fa42	0.6639749
9	0x3f7a0255	0.9765981
10	0x3f29fa42	0.6639749
11	0x3f29fa42	0.6639749
12	0x3f29fa42	0.6639749
13	0x3f78b1fe	0.97146595
14	0x3f7c05c4	0.984463
15	0x3f7ccd2e	0.9875058

tensor_network.2.bias f4 [16]
0	0xb7c47c02	-2.3422766e-05
1	0xaf828add	-2.374553e-10
2	0xb68d8adb	-4.2182924e-06
3	0x37f43553	2.9111898e-05
4	0xb808f688	-3.2654527e-05
5	0x37cb1a69	2.4211784e-05
6	0xb8a103e6	-7.6778044e-05
7	0xb89914ab	-7.299458e-05
8	0xaf949543	-2.70271e-10
9	0xb77321ff	-1.4491844e-05
10	0x2dc39114	2.2233361e-11
11	0x30293630	6.1558847e-10
12	0xad896bcc	-1.5622968e-11
13	0x3860284c	5.344329e-05
14	0xb75efce8	-1.32911155e-05
15	0x37c00088	2.2888431e-05

tensor_network.2.running_mean f4 [16]
0	0x43337285	179.44734
1	0x00000000	0.0
2	0x43275cd4	167.36261
3	0x4229be55	42.43587
4	0x3347352b	4.6381654e-08
5	0x422a1e10	42.529358
6	0x3eb8d75d	0.3610181
7	0x430a5e55	138.36848
8	0x00000000	0.0
9	0x3dba8e71	0.091092
10	0x00000000	0.0
11	0x00000000	0.0
12	0x00000000	0.0
13	0x2c9819bc	4.322957e-12
14	0x4345c396	197.764
15	0x4318c5e0	152.77295

tensor_network.2.running_var f4 [16]
0	0x489621bb	307469.84
1	0x2385b302	1.4495702e-17
2	0x488203a9	266269.28
3	0x4686cf58	17255.672
4	0x35c000d1	1.4305352e-06
5	0x46879d22	17358.566
6	0x3e13afcd	0.14422531
7	0x48329473	182865.8
8	0x2385b302	1.4495702e-17
9	0x3c22be1b	0.00993302
10	0x2385b302	1.4495702e-17
11	0x2385b302	1.4495702e-17
12	0x2385b302	1.4495702e-17
13	0x2814aca2	8.253084e-15
14	0x48b64451	373282.53
15	0x485a1858	223329.38

worker_network.0.weight f4 [16, 1]
0	0xbcea5380	-0.028604269
1	0x3e885200	0.2662506
2	0x3e89adb9	0.26890352
3	0x3e9b7f5a	0.303706
4	0xbd83d132	-0.06436385
5	0x3f2c2e7a	0.6725842
6	0xbf1464e4	-0.57966447
7	0xbe827999	-0.25483397
8	0x3f372eb2	0.71555626
9	0x3f2322c3	0.6372492
10	0xbe5bb1ff	-0.21454619
11	0xbee06ce7	-0.43833086
12	0x3d47a7d3	0.048744034
13	0x3f3bb20e	0.73318565
14	0xbf17e81b	-0.5933854
15	0xbe3fa607	-0.18715678

worker_network.0.bias f4 [16]
0	0xbdf74064	-0.120728284
1	0x3e90e0a9	0.28296402
2	0xbea5387b	-0.32269654
3	0x3e093e1d	0.134026
4	0xbef624e6	-0.48075026
5	0xbd5e3127	-0.054246094
6	0x3f147b6f	0.58000845
7	0x3e2daef2	0.16961268
8	0xbe4c9e4e	-0.19982263
9	0x3e904a34	0.28181612
10	0x3df9a2b8	0.12189239
11	0x3ede3527	0.43399927
12	0x3e16720b	0.14691941
13	0xbe44becc	-0.19213408
14	0xbe7c6bdc	-0.2465052
15	0x3f64b217	0.89334244

worker_network.2.weight f4 [16]
0	0x3f29fa42	0.6639749
1	0x3f797e3d	0.9745825
2	0x3f7ab181	0.979271
3	0x3f7a7f07	0.9785008
4	0x3f29fa42	0.6639749
5	0x3f7811c5	0.96902114
6	0x3f7cfabf	0.9882011
7	0x3f75d58f	0.9602899
8	0x3f7d1c96	0.98871744
9	0x3f7c36b3	0.98520964
10	0x3f7cfc8e	0.9882287
11	0x3f7ee2be	0.9956473
12	0x3f808ed9	1.0043594
13	0x3f7bae09	0.9831243
14	0x3f29fa42	0.6639749
15	0x3f819a4e	1.0125215

worker_network.2.bias f4 [16]
0	0xaf4a333c	-1.8389995e-10
1	0xb8081188	-3.2441254e-05
2	0x380ba847	3.3296903e-05
3	0xb808b7bc	-3.2596043e-05
4	0x2db9c431	2.1119191e-11
5	0xb6d7bc8c	-6.429449e-06
6	0x38a69a42	7.9442296e-05
7	0xb7e2557c	-2.6981106e-05
8	0x37f31937	2.8979599e-05
9	0x3803ae5c	3.139522e-05
10	0xb78c1862	-1.6700655e-05
11	0x3720f8f5	9.594708e-06
12	0x383d940c	4.519899e-05
13	0x38b2177f	8.492078e-05
14	0x2fe3f85f	4.1467538e-10
15	0xb2aba0a0	-1.9980064e-08

worker_network.2.running_mean f4 [16]
0	0x00000000	0.0
1	0x3facf9d7	1.3513745
2	0x3f60f2e8	0.87870646
3	0x3fac7c29	1.3475391
4	0x00000000	0.0
5	0x40266211	2.5997355
6	0x3e8b39f9	0.27192667
7	0x3da18c12	0.078880444
8	0x402b7ca7	2.6794832
9	0x40330d19	2.7976744
10	0x3d62d1b4	0.05537577
11	0x3e510361	0.20411445
12	0x3eadaef9	0.33922556
13	0x40302c3e	2.7527003
14	0x00000000	0.0
15	0x3f018fc9	0.50610024

worker_network.2.running_var f4 [16]
0	0x2385b302	1.4495702e-17
1	0x4000bdaf	2.0115774
2	0x3fd70af2	1.6800215
3	0x4026bd9d	2.605323
4	0x2385b302	1.4495702e-17
5	0x41431e0e	12.194838
6	0x3db53a14	0.08848968
7	0x3bf3ebac	0.0074438658
8	0x41557f4a	13.343576
9	0x4133c249	11.234933
10	0x3b70134c	0.0036632596
11	0x3d4c47a3	0.049873006
12	0x3d7f2df0	0.06229967
13	0x4160c0d1	14.047074
14	0x2385b302	1.4495702e-17
15	0x3e2a08fc	0.1660499

batch_network.0.weight f4 [16, 1]
0	0x3ed677a1	0.41888145
1	0xbe894de0	-0.26817226
2	0xbe2c4556	-0.16823325
3	0x3e9dc0d0	0.30811167
4	0x3d9d65d3	0.07685437
5	0x3f1fd45f	0.6243343
6	0xbea84c1f	-0.32870576
7	0x3d9bf96d	0.076159336
8	0xbf01b974	-0.50673604
9	0xbdf0e4b0	-0.11762369
10	0x3e9c3607	0.3050997
11	0xbf180a69	-0.59390885
12	0xbea2adbc	-0.31773174
13	0xbbfceb8b	-0.0077185086
14	0x3e90de06	0.2829439
15	0x3bda1dc0	0.0066563785

batch_network.0.bias f4 [16]
0	0x3b5bde5a	0.003354928
1	0x3e0ce86b	0.13760535
2	0x3e2de9c6	0.16983709
3	0xbf1bcb3d	-0.6085699
4	0x3e85fe26	0.26170462
5	0x3c1f54cf	0.00972481
6	0xbed9c573	-0.42533454
7	0xbdea797f	-0.11448955
8	0x3ee494c7	0.44644758
9	0xbd88cc5f	-0.06679606
10	0x3ef5eb47	0.48031065
11	0xbeb549ce	-0.3540787
12	0xbf296534	-0.6617005
13	0xbe6b7449	-0.22993578
14	0xbd39b48d	-0.045338202
15	0x3a98fa71	0.0011671317

batch_network.2.weight f4 [16]
0	0x3f7b9e59	0.98288494
1	0x3f787fe3	0.9707014
2	0x3f7cf4f8	0.9881129
3	0x3f71d31f	0.9446277
4	0x3f788e51	0.9709216
5	0x3f7dd9d6	0.99160516
6	0x3f29fa42	0.6639749
7	0x3f79b068	0.975348
8	0x3f7a7ea9	0.9784952
9	0x3f29fa42	0.6639749
10	0x3f7bd4af	0.98371404
11	0x3f29fa42	0.6639749
12	0x3f29fa42	0.6639749
13	0x3f29fa42	0.6639749
14	0x3f7524f6	0.9575952
15	0x3f76277b	0.9615399

batch_network.2.bias f4 [16]
0	0xb7bed7d0	-2.275026e-05
1	0xb75a43b3	-1.3009575e-05
2	0x38960a44	7.1544695e-05
3	0xb83a8b39	-4.4475517e-05
4	0x36d3b89d	6.309782e-06
5	0xb861af6f	-5.3807566e-05
6	0x2fd724d3	3.9134437e-10
7	0xb894b7a9	-7.091399e-05
8	0xb8fe61b9	-0.00012129866
9	0x2e1e8bf0	3.604933e-11
10	0xb81987f8	-3.6604673e-05
11	0xaf31d58b	-1.6173922e-10
12	0xac3fad40	-2.7238906e-12
13	0xae2030cb	-3.6423125e-11
14	0xb7535d1e	-1.2598261e-05
15	0xb7bb1993	-2.2304046e-05

batch_network.2.running_mean f4 [16]
0	0x4302d6f2	130.83963
1	0x3d985cab	0.0743955
2	0x3dbd970c	0.092573255
3	0x42bb4323	93.63113
4	0x41c94b24	25.16169
5	0x43420cdb	194.05022
6	0x00000000	0.0
7	0x41b68a55	22.817545
8	0x3e79d018	0.24395788
9	0x00000000	0.0
10	0x42c08120	96.2522
11	0x00000000	0.0
12	0x00000000	0.0
13	0x00000000	0.0
14	0x42af3a0f	87.613396
15	0x404f48f4	3.2388277

batch_network.2.running_var f4 [16]
0	0x487d75c3	259543.05
1	0x3ba076f1	0.0048969914
2	0x3bf86074	0.0075798575
3	0x4802480e	133408.22
4	0x461381c7	9440.444
5	0x490b4e18	570593.5
6	0x2385b302	1.4495702e-17
7	0x45f72441	7908.5317
8	0x3d57a4da	0.05264745
9	0x2385b302	1.4495702e-17
10	0x4807dbb6	139118.84
11	0x2385b302	1.4495702e-17
12	0x2385b302	1.4495702e-17
13	0x2385b302	1.4495702e-17
14	0x47e34001	116352.01
15	0x43300f27	176.05919

ps_network.0.weight f4 [8, 1]
0	0xbd104ee3	-0.035231482
1	0xbeb6bd30	-0.35691214
2	0xbd2dff24	-0.04247965
3	0x3e791d56	0.24327597
4	0xb10f2816	-2.0832025e-09
5	0x3eb321ff	0.34986874
6	0xbe83f2db	-0.25771222
7	0x3f1b1283	0.6057512

ps_network.0.bias f4 [8]
0	0xbe726c1d	-0.23674054
1	0xbe17cad3	-0.14823465
2	0x3ed78a28	0.42097592
3	0xbc90e37f	-0.017686604
4	0xbeee4537	-0.46537182
5	0xbd806d56	-0.06270854
6	0xbee5c2c0	-0.44875145
7	0x3e849471	0.25894502

ps_network.2.weight f4 [8]
0	0x3f29fa42	0.6639749
1	0x3f29fa42	0.6639749
2	0x3f78d032	0.9719268
3	0x3f7ba042	0.9829141
4	0x3f29fa42	0.6639749
5	0x3f7f75fa	0.9978939
6	0x3f29fa42	0.6639749
7	0x3f7be47c	0.98395514

ps_network.2.bias f4 [8]
0	0x2dc378e3	2.2222618e-11
1	0x2fcc6465	3.7178718e-10
2	0x3765a263	1.3687272e-05
3	0x3829e2e9	4.0504066e-05
4	0xafcb8fb8	-3.7027603e-10
5	0xb726e51f	-9.947717e-06
6	0x2f2b3d52	1.5574145e-10
7	0x38806f1b	6.1242106e-05

ps_network.2.running_mean f4 [8]
0	0x00000000	0.0
1	0x00000000	0.0
2	0x3ed0f598	0.40812373
3	0x3de3b9df	0.111194365
4	0x00000000	0.0
5	0x3e0cbec3	0.13744645
6	0x00000000	0.0
7	0x3f0ca40c	0.54937816

ps_network.2.running_var f4 [8]
0	0x2385b302	1.4495702e-17
1	0x2385b302	1.4495702e-17
2	0x3a029ffd	0.00049829466
3	0x3c73836c	0.014862876
4	0x2385b302	1.4495702e-17
5	0x3cb9958c	0.022654317
6	0x2385b302	1.4495702e-17
7	0x3dc558cf	0.096360795

main_network.0.weight f4 [128, 104]
0	0xbca08459	-0.019594358
1	0xbd959cb5	-0.0730528
2	0x3c11ffb8	0.008911066
3	0xbcf6eb7e	-0.030141588
4	0xbbec85fc	-0.0072181206
5	0x3d0034a9	0.03130022
6	0xbc8195f6	-0.015818577
7	0x3d8b0980	0.06788921
8	0xbc8cee80	-0.01720357
9	0xbdcfe9ff	-0.10152053
10	0xbd52ccdf	-0.05146491
11	0x3d340313	0.043948244
12	0xbd0ee725	-0.034888405
13	0xbd066798	-0.03281364
14	0xbdd092ae	-0.10184227
15	0xbe2e9660	-0.17049551
16	0x3d3f8751	0.046759907
17	0x3db36937	0.087603025
18	0x3c651087	0.013980991
19	0x3ce02d1b	0.027365258
20	0xbd1dc2f4	-0.038516
21	0xbe012bc2	-0.12614349
22	0x3d7bf71f	0.06151497
23	0xbdeb0824	-0.11476162
24	0x3d2e9d23	0.042630326
25	0xbda94d53	-0.082667015
26	0xbca4e723	-0.020129746
27	0xbd73de72	-0.059538312
28	0x3d4bf6a2	0.049795754
29	0xbb91f934	-0.004454756
30	0xbe03b8a2	-0.128634
31	0x3d7a81b4	0.06115885
32	0xbd549087	-0.051895645
33	0xbd540122	-0.051758893
34	0xbda061c8	-0.0783115
35	0x3cfa35d9	0.030543255
36	0x3cfc0ce0	0.030767858
37	0xbd5fd62c	-0.05464761
38	0xbdb188d9	-0.0866868
39	0x3d5d7d36	0.05407449
40	0xbdd43e64	-0.103634626
41	0x3c6534f3	0.013989675
42	0x3db7ac8a	0.08968456
43	0xbc3e6368	-0.01162038
44	0xbdae7c6b	-0.085198246
45	0x3d62c774	0.055365995
46	0x3cfc3103	0.03078509
47	0xbd915c4b	-0.070976816
48	0xbbf49dae	-0.007465086
49	0xaf5814ae	-1.9652432e-10
50	0xbd66f699	-0.056387518
51	0xbcd454e5	-0.025919387
52	0x3cd49426	0.025949549
53	0x3d4ec440	0.050480127
54	0xbd8454d0	-0.06461489
55	0x3d9ec80b	0.07752999
56	0x2d407ff4	1.0942348e-11
57	0xbd8cbad7	-0.06871574
58	0xb308d8fe	-3.186232e-08
59	0xaf159df3	-1.3607586e-10
60	0xaeb178f1	-8.0705116e-11
61	0x3d4cac3a	0.049968936
62	0x3db8a80e	0.09016429
63	0x3d9dbe88	0.077023566
64	0xad8690b7	-1.5298303e-11
65	0xbd2d1f1d	-0.042266
66	0x39443a05	0.0001871363
67	0xbdd8ff71	-0.105955966
68	0x31c36289	5.686449e-09
69	0x3a98209a	0.0011606396
70	0xbdb8b7b5	-0.09019414
71	0xbd8006fd	-0.06251333
72	0xbd0862f8	-0.03329751
73	0xbdaa9929	-0.08329994
74	0x3dbd2a85	0.092366256
75	0xbd81f164	-0.0634487
76	0xbd0d5249	-0.0345023
77	0x3b935663	0.004496382
78	0x2e17fe5a	3.4559335e-11
79	0xbd604863	-0.054756533
80	0x3d9e7e2a	0.07738908
81	0x3ce028b3	0.027363157
82	0x3dc9376a	0.098250225
83	0x3d6015c7	0.05470827
84	0x3db0bb34	0.08629456
85	0x3d2ecf26	0.04267802
86	0x335e4275	5.1748845e-08
87	0x3b388296	0.0028154007
88	0xbc923863	-0.017849153
89	0x2f98ece7	2.7816968e-10
90	0x3d3b7cac	0.045773193
91	0xafacd28f	-3.143623e-10
92	0xb118133b	-2.2129842e-09
93	0x301a8502	5.621389e-10
94	0xbced09e0	-0.028935373
95	0x3c6abb76	0.014326921
96	0x30920505	1.0624325e-09
97	0x328f4a67	1.6681225e-08
98	0x3d10329e	0.035204522
99	0xbdbc3ce5	-0.09191302
100	0x2cfb68d9	7.1454895e-12
101	0xbd0b9fda	-0.034087993
102	0x2e21b56c	3.6768297e-11
103	0xbd0af84a	-0.033928193
104	0xbda1a7b5	-0.07893316
105	0x3d27fc53	0.04101212
106	0x3c6065a4	0.013696108
107	0xbd6fe503	-0.058568012
108	0x3d98ad38	0.07454914
109	0xbd91b450	-0.0711447
110	0x3cb19dd3	0.021681702
111	0x3da172f5	0.078832544
112	0xbd20f039	-0.039291594
113	0xbd7f958d	-0.062398482
114	0x3de0303b	0.10946699
115	0xbcaa54c8	-0.02079238
116	0x3d8487ac	0.0647119
117	0xbce87e5b	-0.028380563
118	0xbcc33b42	-0.023831967
119	0x3dced2a1	0.10098768
120	0x3d4bb3ad	0.0497319
121	0x3dd78541	0.10523463
122	0xbd54a2a8	-0.051912934
123	0xbcbcde9f	-0.023055373
124	0x3d2bf48f	0.041981276
125	0x3d049813	0.03237159
126	0xbdb41ec3	-0.0879493
127	0x3d409def	0.047025617
128	0x3dc43291	0.09579957
129	0xbd07bdd2	-0.03314001
130	0xbc91d76e	-0.01780292
131	0x3ccdc70f	0.025119333
132	0x3cb25590	0.021769315
133	0xbb260dc1	-0.0025337788
134	0xbc42376f	-0.011854037
135	0xbe027ce1	-0.1274295
136	0xbdb16e0e	-0.086635694
137	0xbd37e984	-0.044900432
138	0x3d2fc0ce	0.042908482
139	0xbbe9e786	-0.0071381954
140	0x3c93fc10	0.018064529
141	0xbd556f2c	-0.052107975
142	0x3ce83fdd	0.028350765
143	0xbc9d1922	-0.019177023
144	0x3d3a3148	0.045457155
145	0x3de0011a	0.1093771
146	0xbbb6c600	-0.0055778027
147	0x3cc6872c	0.024234377
148	0xbdaac3a2	-0.08338095
149	0x3d8d4cad	0.0689939
150	0x3d66a382	0.056308277
151	0xbd915c1c	-0.070976466
152	0x3db9c201	0.090702064
153	0x2e369c5a	4.1520877e-11
154	0x3d212fcb	0.03935222
155	0x3dab9417	0.08377855
156	0x3d9ccd0f	0.07656299
157	0x3d98eab7	0.07466643
158	0xbcee67a1	-0.029102148
159	0x3da4bba9	0.08043606
160	0xb20d43b8	-8.222678e-09
161	0x3dc1d6a4	0.094647676
162	0x2f2b3d34	1.5574103e-10
163	0xacb34833	-5.0955017e-12
164	0xacc4df8c	-5.5954737e-12
165	0x3d74a192	0.059724398
166	0x3d032950	0.03202182
167	0x3d25a63c	0.040441737
168	0x2d86a03b	1.5305193e-11
169	0x3d30e60b	0.043188136
170	0xbdcb9b84	-0.099417716
171	0x3db39975	0.08769504
172	0x2da23092	1.8438837e-11
173	0xbd2bb790	-0.041923106
174	0x3cec221e	0.028824862
175	0xbd52453c	-0.05133556
176	0x3d8e2db4	0.06942311
177	0xbdbf12fe	-0.09329794
178	0xbce0a059	-0.02742021
179	0xbd9520eb	-0.07281669
180	0x3d77b4da	0.060475208
181	0x3c86f683	0.016474968
182	0x30a757fb	1.2175855e-09
183	0xbd3455d3	-0.04402716
184	0x3db66dba	0.089076474
185	0x3c395407	0.011311538
186	0x3b998d87	0.004686061
187	0x3ccf664c	0.025317334
188	0x3d07e258	0.033174843
189	0x3dded20f	0.10879909
190	0xad8de182	-1.612999e-11
191	0xbbf4d2e4	-0.007471429
192	0x3d2c53d1	0.04207212
193	0x300b1923	5.0603627e-10
194	0xbc930da3	-0.017950838
195	0x2e9824c0	6.918688e-11
196	0xafcc0aab	-3.7114964e-10
197	0x2d37092f	1.0404385e-11
198	0xbc22a7b7	-0.009927682
199	0x3dfa05e4	0.12208155
200	0xb04f260a	-7.536022e-10
201	0x308606d4	9.751724e-10
202	0x3ca2e3b6	0.019883972
203	0xbd44773a	-0.047965266
204	0x334f01b1	4.819748e-08
205	0x3da973f8	0.082740724
206	0x3067c0c8	8.431127e-10
207	0xbd3a5f61	-0.045501117
208	0xbdbdb49c	-0.09262964
209	0xbdcc93ad	-0.099891044
210	0xbd7d364a	-0.061819352
211	0x3c7c5e69	0.0154033685
212	0x3cf91801	0.030406954
213	0xbde7c850	-0.113175035
214	0x3bc8eab1	0.006131493
215	0x3cfd23d9	0.030900883
216	0xbd737a82	-0.059443004
217	0x3d8419f8	0.06450266
218	0x3cab46ad	0.020907724
219	0x3dc9c112	0.09851278
220	0x3d5792ec	0.05263035
221	0x3d8c8a85	0.06862358
222	0x3da5e338	0.08099979
223	0x3d895abc	0.06706759
224	0x3dc2345d	0.09482644
225	0xbd6b47db	-0.057441574
226	0xbde3fbfb	-0.11132046
227	0xbc052bd2	-0.008128123
228	0x3c9205ec	0.01782509
229	0x3c81cc11	0.015844377
230	0x3b85ac05	0.004079344
231	0xbd9890b2	-0.074494734
232	0x3c2361bf	0.009972035
233	0x3d710603	0.058843624
234	0xbdd44842	-0.103653446
235	0xbd94b3a0	-0.07260823
236	0xbc403056	-0.011730274
237	0xbc385fe1	-0.011253328
238	0xbcf0948d	-0.02936771
239	0xbcbf45a8	-0.023348644
240	0xbca84369	-0.020539956
241	0xbdfe90fb	-0.124299966
242	0x3e0552c2	0.13019851
243	0x3d9c9ff1	0.07647694
244	0xbdb249c1	-0.08705474
245	0x3d82326e	0.06357275
246	0x3d26415c	0.040589675
247	0x3bb5a088	0.0055428185
248	0x3d04412b	0.03228871
249	0x3ceba610	0.028765708
250	0xbdb24d35	-0.08706132
251	0x3d484058	0.048889488
252	0x3e0896c5	0.13338764
253	0xbd84d0dd	-0.0648515
254	0xbd9e789e	-0.0773785
255	0x3ca56a11	0.020192178

main_network.0.bias f4 [128]
0	0xb63067cd	-2.6286464e-06
1	0x36dd77d4	6.600263e-06
2	0x3889edb4	6.576945e-05
3	0xb591314f	-1.0817693e-06
4	0x36dfc1bb	6.668471e-06
5	0xb7610610	-1.3412457e-05
6	0xb7d46eca	-2.532396e-05
7	0xb66fcd17	-3.5733153e-06
8	0xb761df54	-1.3463043e-05
9	0xb629ada4	-2.5284035e-06
10	0xb6e9db86	-6.969497e-06
11	0x3694ad7f	4.4309413e-06
12	0xb74f1f5d	-1.2345464e-05
13	0xb693d330	-4.405527e-06
14	0xb5e7f6ae	-1.7282634e-06
15	0x37343b59	1.0742654e-05
16	0xb72fd928	-1.04813735e-05
17	0x369410bc	4.412692e-06
18	0xb6717b7f	-3.5983683e-06
19	0xb77abd5e	-1.4945252e-05
20	0xb84b762b	-4.8509024e-05
21	0xb6f684b7	-7.3468213e-06
22	0x380dfea6	3.385418e-05
23	0x3644e8be	2.934175e-06
24	0xb79506b4	-1.7765306e-05
25	0x36b1ac4a	5.295068e-06
26	0xb6a475ad	-4.90128e-06
27	0xb7511731	-1.246277e-05
28	0x37c5cf4e	2.3580764e-05
29	0xb673cd6c	-3.6329393e-06
30	0x37049858	7.903283e-06
31	0x372113f7	9.600996e-06
32	0x36a04e3a	4.7774784e-06
33	0x3788e813	1.6320531e-05
34	0x381c2d75	3.7235633e-05
35	0x37440077	1.1682619e-05
36	0xb5f303b1	-1.8105985e-06
37	0xb70d4d67	-8.422277e-06
38	0x37ef26dd	2.8509117e-05
39	0xb5282266	-6.2634933e-07
40	0xb70ae79e	-8.279369e-06
41	0x358dae22	1.0555998e-06
42	0xb7b99cf6	-2.212681e-05
43	0x375b752a	1.3080697e-05
44	0xb826cfc9	-3.9771e-05
45	0x373092bc	1.0524582e-05
46	0xb7e695cd	-2.7487893e-05
47	0xb6932415	-4.385142e-06
48	0x36af4797	5.2237406e-06
49	0x37290b78	1.0075855e-05
50	0x377ba221	1.4998514e-05
51	0xb605497f	-1.9861325e-06
52	0x36d8df80	6.4633205e-06
53	0x3694bbff	4.4326293e-06
54	0x37c929f3	2.3980601e-05
55	0xb4fe9001	-4.7415963e-07
56	0x3655fc9f	3.1886518e-06
57	0xb5c14f84	-1.4402763e-06
58	0xb64fdc38	-3.0973588e-06
59	0x38b05ee4	8.410009e-05
60	0x37140795	8.823253e-06
61	0xb50cffa7	-5.252609e-07
62	0x36596d2c	3.2399066e-06
63	0xb7101653	-8.588267e-06
64	0x35c0ec68	1.4373918e-06
65	0x36e13071	6.711162e-06
66	0x3718e2c1	9.112701e-06
67	0xb69cb62a	-4.670369e-06
68	0xb77283a5	-1.4454975e-05
69	0x36881139	4.055121e-06
70	0xb66cf613	-3.5309974e-06
71	0x378abcab	1.6538737e-05
72	0x38a19d52	7.7063814e-05
73	0x36c29a18	5.7995894e-06
74	0xb60b66c1	-2.0772425e-06
75	0xb64dac4e	-3.0647675e-06
76	0xb4506f33	-1.9411964e-07
77	0x352102b4	5.998111e-07
78	0x37a7a8a8	1.9986488e-05
79	0xb760fe3f	-1.3410637e-05
80	0x34a67022	3.1001497e-07
81	0x35937b8a	1.0988308e-06
82	0xb7b73b72	-2.1842981e-05
83	0xb6be2557	-5.666788e-06
84	0x37066370	8.0101745e-06
85	0x35d1a48e	1.5619605e-06
86	0xb7328cbe	-1.0642396e-05
87	0xb58fa3c8	-1.0701997e-06
88	0xb3a1299c	-7.5047154e-08
89	0x372f32df	1.0442657e-05
90	0xb789570d	-1.6372209e-05
91	0xb45fdfa8	-2.0849859e-07
92	0xb6254ecc	-2.4632782e-06
93	0xb78933ff	-1.6355885e-05
94	0x353bcd7e	6.996196e-07
95	0x359c338e	1.163791e-06
96	0xb8c77d02	-9.512344e-05
97	0xb6c79ebe	-5.949142e-06
98	0xb6b6ade3	-5.4442658e-06
99	0xb7307bde	-1.0519258e-05
100	0xb6ea94fb	-6.991087e-06
101	0xb695e561	-4.4672493e-06
102	0x3615be3d	2.2313463e-06
103	0xb6141451	-2.2065544e-06
104	0x349152c4	2.7068575e-07
105	0x359f61f9	1.1874937e-06
106	0x3686bed3	4.015726e-06
107	0x35a4b518	1.2271657e-06
108	0x36d6620b	6.3891107e-06
109	0x3685c677	3.986813e-06
110	0xb5eaca46	-1.7493228e-06
111	0x361887a9	2.272873e-06
112	0xb6a86473	-5.018484e-06
113	0x371d3293	9.3697045e-06
114	0x372b9a9c	1.0228392e-05
115	0x369e704e	4.721841e-06
116	0xb6d50119	-6.3480225e-06
117	0x37703a61	1.4318707e-05
118	0x35421c37	7.231169e-07
119	0x37104191	8.598335e-06
120	0x3734b414	1.0770764e-05
121	0xb4b95124	-3.4517973e-07
122	0x363e5e0c	2.8366949e-06
123	0xb70fc8a4	-8.5701795e-06
124	0x35747035	9.1060366e-07
125	0xb515fdef	-5.587635e-07
126	0xb61fd419	-2.3816303e-06
127	0x3553bc2b	7.8877446e-07

main_network.1.weight f4 [128]
0	0x3f7dd9f8	0.9916072
1	0x3f7c81de	0.9863566
2	0x3f7cb419	0.9871231
3	0x3f8120f2	1.0088179
4	0x3f808f31	1.0043699
5	0x3f7c0773	0.98448867
6	0x3f8024b8	1.0011206
7	0x3f806c10	1.0032978
8	0x3f784d0f	0.9699258
9	0x3f7a14a0	0.9768772
10	0x3f79e47f	0.9761428
11	0x3f84a339	1.0362312
12	0x3f7b96d4	0.9827702
13	0x3f768d5f	0.96309465
14	0x3f802e5c	1.0014148
15	0x3f7aad51	0.9792071
16	0x3f7b5c37	0.98187584
17	0x3f8939f8	1.0720816
18	0x3f80aefa	1.0053399
19	0x3f7ecc7b	0.9953076
20	0x3f7bf3b3	0.9841873
21	0x3f892dd3	1.071711
22	0x3f7b3c7c	0.98139167
23	0x3f8599d2	1.0437567
24	0x3f7dd589	0.99153954
25	0x3f78e559	0.97224957
26	0x3f76f81d	0.9647234
27	0x3f792c0d	0.9733284
28	0x3f8bf6e2	1.0934718
29	0x3f8224c4	1.016747
30	0x3f81b1a4	1.0132337
31	0x3f7f2d08	0.9967809
32	0x3f7d6916	0.98988473
33	0x3f78eb42	0.97233975
34	0x3f80a291	1.0049611
35	0x3f8053fe	1.0025632
36	0x3f743756	0.95396936
37	0x3f8410a6	1.0317581
38	0x3f83daef	1.0301188
39	0x3f75b514	0.9597943
40	0x3f792a1b	0.9732987
41	0x3f780806	0.9688724
42	0x3f8453d5	1.0338084
43	0x3f7de1dc	0.9917276
44	0x3f709dc5	0.9399074
45	0x3f823b20	1.0174294
46	0x3f846997	1.0344723
47	0x3f8124be	1.0089338
48	0x3f7e7f66	0.99413145
49	0x3f855e23	1.0419353
50	0x3f8634fd	1.0484921
51	0x3f7d4f89	0.98949486
52	0x3f7ac0ff	0.9795074
53	0x3f74f223	0.9568197
54	0x3f8ce908	1.1008615
55	0x3f7b3a8e	0.9813622
56	0x3f80ef5e	1.0073049
57	0x3f7c895a	0.9864708
58	0x3f801dcc	1.0009093
59	0x3f8a8486	1.0821693
60	0x3f78dfa8	0.9721627
61	0x3f80d1f5	1.0064074
62	0x3f803edd	1.0019184
63	0x3f7a9250	0.97879505
64	0x3f812e22	1.0092204
65	0x3f80d8d8	1.0066175
66	0x3f742b2d	0.9537838
67	0x3f826efd	1.0190121
68	0x3f81d315	1.0142542
69	0x3f79df6a	0.9760653
70	0x3f80832a	1.0040028
71	0x3f82fd9d	1.0233647
72	0x3f78bc23	0.97162074
73	0x3f826233	1.0186218
74	0x3f7ab688	0.9793477
75	0x3f6f7080	0.93531036
76	0x3f80b1ba	1.0054238
77	0x3f74edad	0.95675164
78	0x3f78b056	0.9714407
79	0x3f84e44b	1.038217
80	0x3f777de5	0.96676475
81	0x3f82e8bb	1.0227274
82	0x3f818c1b	1.0120882
83	0x3f74ec34	0.9567292
84	0x3f7d6fdf	0.98998827
85	0x3f737656	0.9510244
86	0x3f81f870	1.0153942
87	0x3f7efa8a	0.9960104
88	0x3f7d4c7b	0.98944825
89	0x3f8045a8	1.0021257
90	0x3f828a91	1.0198537
91	0x3f7c0344	0.9844248
92	0x3f87223a	1.055732
93	0x3f81037f	1.0079192
94	0x3f783a0b	0.96963567
95	0x3f7daa9b	0.9908845
96	0x3f7da439	0.9907871
97	0x3f7a9273	0.97879714
98	0x3f7ee8af	0.99573797
99	0x3f83bee7	1.0292634
100	0x3f833f13	1.0253624
101	0x3f7b1389	0.98076683
102	0x3f845a17	1.0339993
103	0x3f84cb3d	1.0374523
104	0x3f7b8af1	0.9825888
105	0x3f802578	1.0011435
106	0x3f81efcc	1.0151305
107	0x3f75006d	0.95703775
108	0x3f7a6e05	0.97824126
109	0x3f86d69d	1.0534245
110	0x3f802085	1.0009924
111	0x3f7b3111	0.98121744
112	0x3f71e62d	0.94491845
113	0x3f82f76f	1.0231761
114	0x3f7f6cb3	0.99775237
115	0x3f7951a8	0.9739022
116	0x3f7a4d5e	0.977743
117	0x3f82f228	1.023015
118	0x3f81c0cf	1.0136966
119	0x3f817b89	1.0115825
120	0x3f79fc8d	0.97650987
121	0x3f818956	1.0120037
122	0x3f794b5b	0.9738061
123	0x3f79518d	0.9739006
124	0x3f837078	1.0268698
125	0x3f7896f7	0.97105354
126	0x3f875f68	1.0575991
127	0x3f7b3c88	0.9813924

main_network.1.bias f4 [128]
0	0xbc5b6600	-0.013391018
1	0xbcbd8a17	-0.023137135
2	0x3cbeb19c	0.02327805
3	0x3c581d1f	0.013190537
4	0x3d04b920	0.03240311
5	0xbc037d76	-0.008025518
6	0xbc142906	-0.009042984
7	0x3ab18525	0.0013543708
8	0xbcf53bcd	-0.029935742
9	0xbc819c3b	-0.015821567
10	0xbb652e4a	-0.0034970217
11	0x3cee9d03	0.029127603
12	0x3cdb6b87	0.026784671
13	0xbc9a9e0a	-0.018874187
14	0x3c093633	0.0083747385
15	0xbca96a2f	-0.020680515
16	0xbac73cd5	-0.0015200624
17	0x3d38f3e4	0.045154467
18	0x3d110941	0.035409216
19	0x3d02f497	0.03197154
20	0xbc9143b6	-0.017732482
21	0x3d0408a5	0.032234807
22	0xbc8db1af	-0.01729664
23	0x3d070c36	0.03297063
24	0x3ba06ff3	0.004896158
25	0xbd1b1f9f	-0.037871953
26	0xbcf3db5b	-0.029767683
27	0xbc4da06d	-0.0125504555
28	0x3cd65c8b	0.026167175
29	0x3cc1d098	0.023659036
30	0xbadbc1a4	-0.0016766083
31	0x3b7643dc	0.0037577068
32	0xbc2eef37	-0.01067715
33	0xbd010954	-0.031503037
34	0xbb4ac2f2	-0.003093895
35	0x3c15243c	0.009102877
36	0xbd591c63	-0.053005587
37	0x3ae3ba42	0.0017374235
38	0x3b8098c7	0.0039244625
39	0xbd2f9c76	-0.042873822
40	0xbd6917e6	-0.056907557
41	0xbd246d8e	-0.040143542
42	0x3cf95f11	0.030440839
43	0xbbfce011	-0.0077171405
44	0xbd0a122e	-0.033708744
45	0x3c2c2a26	0.010508096
46	0xb8e9a422	-0.00011140878
47	0xbc29d155	-0.01036485
48	0x3cb73925	0.022366116
49	0x3d17da58	0.037073463
50	0xbb1857df	-0.0023245735
51	0xbad57b06	-0.0016287274
52	0xbcabca96	-0.020970624
53	0xbcee0fc8	-0.02906026
54	0x3d580bd8	0.05274567
55	0xbbdbd703	-0.006708981
56	0x3b83c217	0.00402094
57	0xbbdcb098	-0.006734919
58	0x3c4a59bb	0.012350495
59	0x3d5c30f0	0.053757608
60	0x3c2089df	0.009798496
61	0x3c918c4c	0.017767094
62	0x3ba38640	0.004990369
63	0x3ab24fa5	0.0013604058
64	0x3c091cad	0.008368653
65	0x3b9254d5	0.004465679
66	0xbc889099	-0.016670512
67	0x3d497775	0.04918619
68	0xbce7712c	-0.028252207
69	0xbb2cb0f0	-0.002635058
70	0xbd248442	-0.040165193
71	0x3c8f2609	0.017474191
72	0xbc97fff2	-0.018554661
73	0x3c82f72e	0.015987005
74	0xbd1f8311	-0.038943354
75	0xbd73bf5a	-0.05950866
76	0x3bfc1f26	0.007694143
77	0xbd034c55	-0.032055218
78	0xbc850210	-0.016236335
79	0x3cf553fa	0.02994727
80	0xbd167830	-0.036735713
81	0x3cea157f	0.028574703
82	0x3c596053	0.013267594
83	0xbcf27bdd	-0.029600078
84	0xbd062857	-0.032753315
85	0xbd5c24ae	-0.053745918
86	0xbc887a54	-0.016659893
87	0x3ca2abaa	0.019857246
88	0xbcaf909c	-0.02143126
89	0xbc1be28b	-0.009514461
90	0x3c1c7952	0.009550409
91	0x3bc8702f	0.006116889
92	0x3d09fd39	0.033688758
93	0xbca7f9b5	-0.020504812
94	0xbc181e4a	-0.009284565
95	0x3ca3c80b	0.019992849
96	0xbc11d6ae	-0.008901281
97	0xbc5499a5	-0.012976085
98	0xbaed6490	-0.0018111635
99	0x3cf9ed6a	0.030508716
100	0xbcfb3f97	-0.03066997
101	0xbcb6696c	-0.022267066
102	0x3d3380ec	0.04382412
103	0x3d997902	0.074937835
104	0x3b05026d	0.0020295635
105	0x3d188a35	0.03724118
106	0x3b4ad284	0.003094823
107	0xbcb7260e	-0.022357013
108	0xbc6050a5	-0.013691102
109	0xbbebb354	-0.0071930084
110	0xbae58b36	-0.0017512802
111	0xbcf8b9ca	-0.030362029
112	0xbd8042a6	-0.06262712
113	0x3d16412a	0.03668324
114	0x3c18cb36	0.009325793
115	0xbba6df15	-0.0050925114
116	0xbd31c5e0	-0.0434016
117	0x3ce7ffff	0.02832031
118	0xbca03b42	-0.019559506
119	0x3d86ba23	0.065784715
120	0x3c55f10a	0.0130579565
121	0x3ba3f870	0.0050039813
122	0xbc81cc44	-0.015844472
123	0xbc5a5262	-0.013325306
124	0x3d6a5e0d	0.0572186
125	0xbb8f6d7c	-0.004377065
126	0x3cf5b3f3	0.029993033
127	0xbcc13699	-0.023585605

main_network.1.running_mean f4 [128]
0	0x3d5b5afd	0.05355357
1	0xbc9b041a	-0.018922854
2	0xbe52bb77	-0.20579325
3	0x3e40b2a9	0.18818153
4	0xbe3bbc7c	-0.1833362
5	0xbc97008f	-0.018432884
6	0xbd867301	-0.06564904
7	0x3c05011d	0.008117941
8	0xbe05b517	-0.13057362
9	0x3d769f0e	0.06021028
10	0x3da41216	0.08011262
11	0x3d2d18b6	0.042259894
12	0xbdf6fc5b	-0.12059852
13	0x3e02e9d5	0.12784512
14	0xbe25113c	-0.16119856
15	0x3d546e6a	0.05186311
16	0x3c95b36b	0.01827403
17	0x3dae049e	0.084969744
18	0xbe5a3a24	-0.21311241
19	0x3da51244	0.080601245
20	0xbdb7d653	-0.08976426
21	0x3dbeba8c	0.09312925
22	0xbe310dd1	-0.17290427
23	0x3e25324a	0.16132465
24	0x3c8a8cb1	0.01691279
25	0x3da50d13	0.08059134
26	0xbd0e026c	-0.03467028
27	0xbd115ed3	-0.035490822
28	0x3dd257d9	0.10270662
29	0xbdac1bd9	-0.08403749
30	0x3d814a5e	0.063130125
31	0xbd63ac89	-0.055584464
32	0x3d34a3d6	0.04410156
33	0xbdc5de37	-0.09661525
34	0x3d1175b9	0.03551266
35	0xbcb530a9	-0.02211793
36	0xbd9f312b	-0.0777305
37	0x3ce728d9	0.02821772
38	0x3e3f1416	0.18660006
39	0xbe07f5e6	-0.13277397
40	0xbd1773f2	-0.03697581
41	0xbd105706	-0.035239242
42	0x3c21609a	0.009849692
43	0xbb97ae57	-0.004628937
44	0xbc5c833d	-0.013459024
45	0x3e1bcf08	0.15215695
46	0x3e311eb5	0.1729687
47	0x3e592ed5	0.21209271
48	0x3ba231a4	0.0049497653
49	0x3e1e4b10	0.15458322
50	0x3de75aec	0.11296639
51	0xbe329706	-0.17440423
52	0xbe40d566	-0.18831405
53	0x3bfbe281	0.0076869135
54	0x3e06cffb	0.13165276
55	0xbde4051f	-0.11133789
56	0xbcd7ca3a	-0.026341546
57	0x3da8c99f	0.08241581
58	0xbd7d7b6d	-0.061885286
59	0x3dd123b4	0.10211888
60	0xbe13e4e5	-0.14442785
61	0x3d70f861	0.058830623
62	0xbe087ec0	-0.13329601
63	0xbd9a67ac	-0.07539305
64	0x3e16de54	0.14733249
65	0xbb3ac6e0	-0.0028499886
66	0xbdeebf02	-0.116575256
67	0xbe078fac	-0.132384
68	0x3db772f4	0.089574724
69	0x3d87ae10	0.06624997
70	0x3d08503a	0.033279635
71	0x3bde96e4	0.00679289
72	0x3c35be2a	0.011092702
73	0x3d553eae	0.05206173
74	0xbca2901d	-0.01984411
75	0x3d2269f2	0.03965182
76	0x3ce3f62e	0.027827349
77	0x3d4f88db	0.050667625
78	0xbd30a3a4	-0.04312481
79	0x3d182eae	0.037153892
80	0x3cf9a8a0	0.030475914
81	0x3db04696	0.08607213
82	0x3db70a77	0.08937543
83	0xbcb02bb2	-0.02150521
84	0x3dd370bb	0.10324236
85	0x3dda98d7	0.10673683
86	0x3d267400	0.04063797
87	0x3c99cee0	0.018775403
88	0x3d724bd1	0.059154335
89	0x3dc29578	0.09501165
90	0x3dcdbdc4	0.100459605
91	0x3d34bd0e	0.04412561
92	0x3d5ce9b7	0.053933825
93	0xbe3dc204	-0.18531042
94	0xbddc9810	-0.10771191
95	0x3d7eb4ee	0.062184267
96	0x3c618ba3	0.013766202
97	0xbd8eeee9	-0.06979162
98	0x3d491e74	0.049101308
99	0x3e91ca69	0.2847474
100	0x3e050a26	0.12992153
101	0x3cb7ee23	0.02245242
102	0x3d62eb1b	0.055399995
103	0xbe143b27	-0.1447569
104	0xbd30da9a	-0.043177225
105	0xbe2f954b	-0.17146794
106	0x3e14769d	0.14498372
107	0xbd96a6e7	-0.07356053
108	0xbd23a657	-0.039953556
109	0x3e31b16d	0.17352839
110	0x3d5d8d82	0.05409003
111	0x3d33d5eb	0.04390518
112	0x3da86206	0.082218215
113	0xbc030d08	-0.007998712
114	0x3cdfc618	0.027316138
115	0xbe0f7fa8	-0.1401354
116	0xbe3d49e7	-0.18485223
117	0x3d75f822	0.06005109
118	0x3e8a0569	0.26957253
119	0xbda2715b	-0.07931777
120	0x3c9ea063	0.019363588
121	0x3e4a935e	0.19782779
122	0xbcc0666a	-0.023486335
123	0xbe0e45e7	-0.13893853
124	0xbdc844e3	-0.09778764
125	0x3be56004	0.0069999713
126	0x3e312ccf	0.1730225
127	0xbc587e30	-0.013213679

main_network.1.running_var f4 [128]
0	0x3e6cabe0	0.2311244
1	0x3ed7adef	0.42124888
2	0x3eadc298	0.33937526
3	0x3ed908ce	0.4238953
4	0x3e6b1006	0.22955331
5	0x3d926344	0.0714784
6	0x3e87a2d4	0.26491416
7	0x3f8a071b	1.0783418
8	0x3e1816b0	0.14852405
9	0x3e6ddb8a	0.23228279
10	0x3ed9c9e1	0.42536834
11	0x3e1c69bd	0.15274711
12	0x3dc2bdbf	0.095088474
13	0x3f18007e	0.5937575
14	0x3e4be47b	0.19911377
15	0x3e712020	0.23547411
16	0x3f59126d	0.8479374
17	0x3e8d1f4a	0.27562934
18	0x3e8d6c22	0.2762156
19	0x3e8c4815	0.27398744
20	0x3e0c2d1c	0.13689083
21	0x3ecc84ad	0.39944974
22	0x3e51aec1	0.2047682
23	0x3ee803cf	0.45315406
24	0x3e1050f6	0.14093384
25	0x3e349691	0.17635562
26	0x3db52cfd	0.088464715
27	0x3ecd6b17	0.40120766
28	0x3e9cb17f	0.3060417
29	0x3f166923	0.58754176
30	0x3eaae068	0.33374333
31	0x3e8b339d	0.27187815
32	0x3ea4efd4	0.32214224
33	0x3e34f92a	0.17673174
34	0x3ec919b1	0.39277413
35	0x3d89c25b	0.067265235
36	0x3e605397	0.21906887
37	0x3ee5bd5d	0.44871035
38	0x3e4642e9	0.19361462
39	0x3eaaab5b	0.3333386
40	0x3e8ea7b7	0.2786233
41	0x3e3a0a2b	0.18167941
42	0x3f19a150	0.6001177
43	0x3e238148	0.15967286
44	0x3e800589	0.25004223
45	0x3e21b932	0.15793303
46	0x3e5ce8d6	0.21573195
47	0x3ef28dcb	0.47373804
48	0x3e80db8e	0.25167507
49	0x3e307c06	0.17234811
50	0x3de0b7d4	0.109725624
51	0x3dfb02a5	0.12256364
52	0x3ebd91f5	0.3702542
53	0x3e0ed21f	0.13947342
54	0x3e21b36f	0.15791105
55	0x3e5137d6	0.20431456
56	0x3e81476d	0.25249806
57	0x3e19ec09	0.15031447
58	0x3e8b48cf	0.27203986
59	0x3d942e73	0.07235422
60	0x3f1e2927	0.61781543
61	0x3e4f575f	0.20248173
62	0x3e55a20e	0.208626
63	0x3eccea21	0.40022376
64	0x3e34671d	0.1761746
65	0x3ee32be1	0.44369414
66	0x3def81d0	0.11694682
67	0x3e11b9cc	0.14231032
68	0x3ebdd953	0.37079868
69	0x3e43c954	0.1911977
70	0x3e9f73b1	0.31142953
71	0x3dac72bd	0.08420322
72	0x3e052b29	0.13004746
73	0x3eba4a53	0.3638483
74	0x3ef12f61	0.4710646
75	0x3ea8314f	0.3285012
76	0x3f970369	1.1797916
77	0x3e828ee8	0.25499654
78	0x3ee13feb	0.43994078
79	0x3e0bda64	0.13657528
80	0x3e8e3833	0.27777252
81	0x3e460e16	0.19341311
82	0x3e77b9ff	0.24192046
83	0x3e85ebcb	0.26156458
84	0x3e766dcf	0.24065326
85	0x3e874ad0	0.26424265
86	0x3e03b080	0.12860298
87	0x3eda44b4	0.4263054
88	0x3e56b48d	0.20967312
89	0x3e8433c4	0.25820744
90	0x3e8977de	0.26849264
91	0x3f66c0db	0.90138024
92	0x3e919381	0.2843285
93	0x3e87bfd7	0.2651355
94	0x3ee249a2	0.44196802
95	0x3f29ef83	0.6638109
96	0x3d912483	0.07087042
97	0x3ecf80a5	0.40527835
98	0x3efa402b	0.4887708
99	0x3e4f015e	0.20215365
100	0x3e5ff1d2	0.21869591
101	0x3e2caec5	0.16863544
102	0x3e58e91e	0.21182677
103	0x3ec32d45	0.38120475
104	0x3e93cf77	0.2886922
105	0x3dbb980b	0.09159859
106	0x3ec91c97	0.39279625
107	0x3e77ec6f	0.24211286
108	0x3e8d5ad0	0.27608347
109	0x3e39359f	0.18086861
110	0x3eb4d736	0.35320443
111	0x3ecc6e33	0.39927825
112	0x3f1da906	0.61586034
113	0x3ee2d043	0.44299516
114	0x3e0dc920	0.13846254
115	0x3f3f3467	0.74689335
116	0x3ebdbaf5	0.370567
117	0x3e930948	0.2871802
118	0x3e66ed4d	0.2255146
119	0x3dd7e3f4	0.105415255
120	0x3ecbd42e	0.39810318
121	0x3e6b97a4	0.23007065
122	0x3e98e766	0.29864043
123	0x3e08c4b3	0.13356285
124	0x3ddfb251	0.10922683
125	0x3e1c8e21	0.15288593
126	0x3e9f177a	0.310726
127	0x3f4dee0f	0.80441374

main_network.4.weight f4 [64, 128]
0	0xbb677376	-0.0035316623
1	0x3d80d73f	0.06291055
2	0xbd4b1a70	-0.04958576
3	0xbdb36479	-0.08759398
4	0x3ca670e9	0.020317512
5	0x3dcae1ee	0.09906374
6	0x3d4e2001	0.05032349
7	0xbc9ac441	-0.01889241
8	0x3dd1a5b7	0.10236686
9	0x3da912f7	0.082555704
10	0xbd243377	-0.040088143
11	0xbd1d3499	-0.03838024
12	0x3cd00b9d	0.025396163
13	0xbc59bbac	-0.013289373
14	0x3d9fc8d4	0.07801977
15	0x3d092c4a	0.033489503
16	0xbda4e8ce	-0.080522165
17	0xbb7e7e15	-0.0038832475
18	0x3d6ff0af	0.058579143
19	0xbd26b077	-0.040695634
20	0xbde220ec	-0.110414356
21	0xbdb629b8	-0.08894676
22	0x391f9a9f	0.00015221022
23	0x3d101122	0.03517259
24	0xbcb3f657	-0.02196805
25	0xbd6df640	-0.05809617
26	0xbd9f18cc	-0.077684015
27	0xbc0c13d3	-0.008549648
28	0xbddaa800	-0.10676575
29	0xbd791656	-0.060812317
30	0x3d273e6a	0.040831007
31	0x3c55587a	0.013021583
32	0xbda5a57f	-0.080882065
33	0x3cf2018d	0.029541755
34	0xbce40e7e	-0.027838942
35	0x3b95eb63	0.0045751794
36	0x3cbd9779	0.023143517
37	0xbd51608b	-0.05111746
38	0xbdb18b0e	-0.08669101
39	0xbd190e74	-0.0373673
40	0x3d5b889f	0.05359709
41	0xbb4ac188	-0.0030938108
42	0xbdbe9e46	-0.09307532
43	0xbd94f8d4	-0.07274023
44	0x3d6ae51f	0.057347413
45	0x3d9f2c8d	0.07772169
46	0xbd983994	-0.07432857
47	0xba8dfd4d	-0.0010832936
48	0xbd6a1d65	-0.05715694
49	0xbd818cd9	-0.06325693
50	0xbe01b87e	-0.12668034
51	0xbcadacce	-0.021200564
52	0x3cb0504e	0.021522667
53	0xbd115bc9	-0.035487924
54	0xbdfea648	-0.124340594
55	0x3d87c038	0.0662846
56	0xbdcb68b3	-0.09932079
57	0x3cd4fe20	0.026000082
58	0x3c936c46	0.017995965
59	0xbbc3af88	-0.0059718527
60	0xbd10daaf	-0.035364803
61	0xbc7136a6	-0.014722502
62	0xbd0672e2	-0.032824405
63	0x3c34d25b	0.011036481
64	0x3d91afdb	0.0711362
65	0xbda71e9c	-0.08160135
66	0x3cddcca3	0.027075117
67	0x3d2bd37b	0.04194973
68	0x3d8c2809	0.068435736
69	0x3d91ced7	0.0711953
70	0x3dbf9d94	0.093562275
71	0xbd1411bd	-0.03614973
72	0x3d483f65	0.048888583
73	0x3be1c7f4	0.0068902913
74	0xbc9637b0	-0.0183371
75	0x3cd4c7e0	0.025974214
76	0x3d67abfc	0.0565605
77	0x3d2d9263	0.042375933
78	0x3b8edeae	0.0043600416
79	0xbd526845	-0.05136897
80	0x3c8c10c0	0.01709783
81	0x3d692190	0.056916773
82	0xbda90ed7	-0.082547836
83	0xbda89853	-0.082321785
84	0xbd9d0abb	-0.07668062
85	0xbd3761bb	-0.044770937
86	0x3d139589	0.03603128
87	0x3c98472c	0.018588625
88	0xbd62d63c	-0.05538009
89	0x3c98b026	0.018638682
90	0x3c31deb2	0.010856317
91	0x3d26be4d	0.04070883
92	0xbc63c3f0	-0.013901696
93	0x3d47c72f	0.04877394
94	0x3ca56065	0.020187566
95	0x3c702f92	0.014659779
96	0x3db93e03	0.09045031
97	0xbda52d87	-0.08065324
98	0x3ce7028f	0.028199462
99	0xbdbaa09a	-0.091126636
100	0x3a28b9cf	0.0006436379
101	0x3c077342	0.008267226
102	0xbd8c3a7f	-0.06847095
103	0x3da3bccb	0.07994994
104	0xbd02309f	-0.03178465
105	0xbdec0ed7	-0.11526268
106	0x3d2c991a	0.042138197
107	0xbd6b389e	-0.05742704
108	0x3d1786da	0.03699384
109	0xbdc3906f	-0.09549033
110	0xbdc2fd76	-0.09521
111	0x3d003a47	0.031305578
112	0xbcc5495d	-0.024082834
113	0xbdb4bf3c	-0.088255376
114	0x3d37f63c	0.04491256
115	0xbda99f26	-0.08282308
116	0x3d590c0b	0.05299
117	0xbd3bc8fe	-0.045845978
118	0xbd36e6ab	-0.044653576
119	0xbd3849ba	-0.044992186
120	0x3d193994	0.037408426
121	0x3d14afd7	0.036300506
122	0x3b8860cb	0.0041619292
123	0xbd3d9fc6	-0.04629495
124	0x3da1b2f7	0.07895463
125	0xbd789520	-0.06068909
126	0xbd11d7f6	-0.035606347
127	0xbd6b995e	-0.05751931
128	0x3d38f904	0.045159355
129	0xbd15ea46	-0.036600374
130	0x3db5467f	0.08851337
131	0x3c02ebfd	0.007990834
132	0xbe059260	-0.13044119
133	0xbdbcec14	-0.09224716
134	0xbdcfd790	-0.10148537
135	0x3d482332	0.04886169
136	0xbd9399ac	-0.07207045
137	0xbd0af904	-0.033928886
138	0x3d4750f9	0.048661206
139	0x3ddc4855	0.10755984
140	0x3b8cc26b	0.0042956374
141	0x3d8d3638	0.06895107
142	0xbdd1ac6d	-0.10237966
143	0x3c41bf38	0.011825375
144	0xbd4ca16e	-0.04995864
145	0x3c237f08	0.009979017
146	0x3cf06129	0.029343205
147	0xbce5f67d	-0.028071636
148	0xbd85f394	-0.065405995
149	0xbc9bff3d	-0.019042606
150	0x3c78c78a	0.015184293
151	0x3d8404ca	0.06446226
152	0x3d287988	0.041131526
153	0x3d38b3f5	0.045093495
154	0xbd0aeff9	-0.033920262
155	0xbcae94be	-0.02131116
156	0x3dbf648b	0.09345349
157	0xbdae6238	-0.085148275
158	0x3c9f58ec	0.019451581
159	0x3db20317	0.086919956
160	0xbd21c417	-0.039493646
161	0xbdab795b	-0.08372756
162	0xbca5e8f3	-0.02025268
163	0xbbe5d6b9	-0.0070141223
164	0xbd7d100d	-0.061782885
165	0x3d91a358	0.071112335
166	0xbd30dc59	-0.04317889
167	0xbcaddb70	-0.0212228
168	0xbd6bd113	-0.057572436
169	0x3ca9c987	0.020725979
170	0xbc25330d	-0.010082972
171	0x3c68a565	0.014199589
172	0x3c12d969	0.008962967
173	0xbb8def82	-0.00433153
174	0xb8ce5562	-9.838749e-05
175	0xbd43288f	-0.0476461
176	0x3d298bd1	0.041393105
177	0xb8521a80	-5.009258e-05
178	0x3d9a5adb	0.075368606
179	0x3ca0f46e	0.019647803
180	0xbce6e209	-0.028183954
181	0xbccaf88c	-0.02477672
182	0x3d909a85	0.07060722
183	0x3c9fc217	0.019501729
184	0xbc86521f	-0.01639658
185	0x3d6ef9f6	0.05834385
186	0xbdcff7da	-0.10154696
187	0x3cff797d	0.03118586
188	0x3bb33615	0.0054690936
189	0x3d4ad7fc	0.049522385
190	0xbdc3a268	-0.09552461
191	0xbdb20fd2	-0.08694424
192	0x3c394906	0.011308914
193	0x3c0d0889	0.008607992
194	0x3d8d310e	0.06894122
195	0x3d0b45be	0.03400206
196	0x3dd7d6f8	0.10539049
197	0xbc8d57cc	-0.017253779
198	0x3d65dc4c	0.056118295
199	0xbbe83398	-0.0070862286
200	0xbd0ce808	-0.03440097
201	0xbc0ebc98	-0.008711956
202	0xbd7934c9	-0.060841355
203	0xbb8db4ea	-0.004324545
204	0x3d369e08	0.044584304
205	0xbd282791	-0.04105336
206	0x3d8128d8	0.063066185
207	0xbd3820b3	-0.04495306
208	0x3d6fa500	0.058506966
209	0x3d60ce84	0.05488445
210	0xbc9a6d4d	-0.018850947
211	0x3d19fa72	0.03759236
212	0x3da53ab0	0.080678344
213	0x3d7e32ec	0.06206028
214	0xbda3661b	-0.079784594
215	0x3bc203c8	0.005920861
216	0x3dc1c909	0.094621725
217	0x3d9f4dbe	0.077785
218	0xbd5a6859	-0.05332217
219	0x3d0cb8d6	0.03435596
220	0x3d533232	0.05156154
221	0xbd34e08d	-0.04415946
222	0xbbb8f77b	-0.0056447363
223	0xbd0704d0	-0.032963574
224	0xbd083c22	-0.033260472
225	0x3d2df191	0.042466704
226	0x3dde6ec9	0.10860974
227	0x3d7cee1e	0.061750524
228	0x3cf0ec23	0.029409474
229	0x3d325456	0.04353746
230	0xbcf6153e	-0.030039426
231	0xbe09b1ab	-0.13446681
232	0x3bf3bf33	0.007438564
233	0xbcf90847	-0.030399455
234	0x3da4a581	0.0803938
235	0xbdfffe87	-0.12499719
236	0x3d92b7d7	0.07163971
237	0x3d9352f2	0.07193555
238	0xbc951afc	-0.018201344
239	0xbc438e40	-0.0119357705
240	0xbcbd4c3b	-0.023107639
241	0x3d81ce76	0.063382074
242	0xbd803557	-0.06260174
243	0xbd2b1e6a	-0.041777052
244	0x3d3d14ba	0.046162345
245	0x3cca40c3	0.024689084
246	0x3dab616e	0.083681926
247	0xbd226fb8	-0.039657325
248	0xbd368a88	-0.044565707
249	0x3d218ec1	0.03944278
250	0x3cf7bb8a	0.030240793
251	0x3c666d53	0.014064151
252	0xbce74944	-0.028233178
253	0xbd8cfa79	-0.06883711
254	0x3df7a976	0.12092869
255	0x3bec1991	0.007205196

main_network.4.bias f4 [64]
0	0xb6f928f8	-7.4255477e-06
1	0x380ced43	3.359957e-05
2	0xb69f8854	-4.75444e-06
3	0xb86e4b58	-5.681379e-05
4	0xb6b3cbed	-5.358356e-06
5	0xb7cbb4e8	-2.4283727e-05
6	0xb7ed35e3	-2.8277695e-05
7	0xb6a03aa2	-4.7751973e-06
8	0xb76ff2d3	-1.4302047e-05
9	0x3704d1da	7.916673e-06
10	0xb67bddd7	-3.7531042e-06
11	0x36f333fc	7.248016e-06
12	0xb70a8e3f	-8.25856e-06
13	0xb8262968	-3.9616047e-05
14	0xb6308d11	-2.6308155e-06
15	0x372987aa	1.0104772e-05
16	0xb7035f53	-7.830403e-06
17	0x376d64fa	1.4149811e-05
18	0x3521b6b0	6.024302e-07
19	0x36b0ac7e	5.2652895e-06
20	0x370dd726	8.454348e-06
21	0xb5e593d3	-1.7104852e-06
22	0xb608968c	-2.035321e-06
23	0xb5c2b20d	-1.4505946e-06
24	0x3845446b	4.703218e-05
25	0x32022c34	7.5770465e-09
26	0xb85441ce	-5.0606024e-05
27	0xb7a60450	-1.979075e-05
28	0xb653fed7	-3.1589786e-06
29	0xb6d68f3d	-6.394372e-06
30	0xb766512b	-1.3727967e-05
31	0x37085f6d	8.12845e-06
32	0x36940a07	4.411911e-06
33	0x373a554d	1.1106325e-05
34	0x36525784	3.134338e-06
35	0x36f2f3cc	7.2405437e-06
36	0x36985c60	4.540707e-06
37	0x36615a30	3.3580109e-06
38	0xb712b41b	-8.744212e-06
39	0x3611a630	2.1703418e-06
40	0x37bb4baf	2.232738e-05
41	0xb66b23f2	-3.5038652e-06
42	0x3758a373	1.2912659e-05
43	0xb736c0aa	-1.0892903e-05
44	0x35133e65	5.4852563e-07
45	0xb840d5e2	-4.597556e-05
46	0x37458eb8	1.1775344e-05
47	0xb75438e9	-1.2649435e-05
48	0x389df401	7.531793e-05
49	0xb6bd56a3	-5.642725e-06
50	0x368ce8a1	4.1994067e-06
51	0xb757288d	-1.282444e-05
52	0xb62f007d	-2.6077316e-06
53	0x37050e5f	7.930764e-06
54	0xb7fdece7	-3.0270267e-05
55	0xb6b2b3a5	-5.3257268e-06
56	0xb7c857f8	-2.3882822e-05
57	0xb75d4ed4	-1.319098e-05
58	0xb7868547	-1.6036107e-05
59	0xb795d9a3	-1.786353e-05
60	0x35ef7232	1.7840123e-06
61	0x37c58ba0	2.3549248e-05
62	0xb55c21bf	-8.2005494e-07
63	0x359827cc	1.1336465e-06
