XGBoost/best_model_resnet50.pth (torch, 120949 bytes, 47 tensors)

model_embedding.weight f4 [32, 12]
000000 48 f1 9d 3d 33 fe 2b 3a 5f 23 85 be cc 19 92 3d
       0.07712036 0.0006561011 -0.26003549 0.071338266
000010 c5 60 ad 3d 83 bd 7e 3e 4a ab dd bd 5e 4a 5d bb
       0.08465723 0.2487698 -0.108236864 -0.003376625
000020 bb 7c 05 3e df 81 1e bd 88 42 42 3c 09 dd 44 be
       0.13035862 -0.038698073 0.011856683 -0.19224943
000030 f0 9e c2 bd db 5a cd 3b 88 51 8c be 89 09 85 3e
       -0.09502971 0.0062669343 -0.27405953 0.25983837
000040 9d 6a f1 3d 0d fe 9c 3d 23 03 4b be 4f 07 e9 3d
       0.11787913 0.07665644 -0.19825415 0.11378347
000050 c6 84 cb bd d9 3e 83 b1 b7 cc 33 be c5 2f 32 3e
       -0.09937434 -3.8197467e-09 -0.17558561 0.17401035
000060 55 60 c7 bd f6 80 ec 3d 43 ac 94 3e c6 b6 d7 3b
       -0.09735171 0.11548035 0.29037675 0.0065830676
000070 91 7f 90 3e 90 d9 b3 3d 90 96 72 3e d2 77 ff 3c
       0.28222325 0.08781731 0.23690248 0.031185064
000080 6a 51 44 ba 89 dd c2 bb f3 4b 61 be 2e f1 2a be
       -0.0007488938 -0.005946819 -0.22001629 -0.16693565
000090 fc 5b cb 3d 46 ab 08 3e 99 12 00 be af b3 91 3e
       0.09929654 0.13346586 -0.12507094 0.284574
0000a0 a3 33 9e bc cc 5b ef bd f1 52 04 be 03 d5 17 3e
       -0.019311732 -0.11687431 -0.12922265 0.14827351
0000b0 9c 93 84 3e 16 11 d2 bb 50 43 47 3e d9 47 46 bd
       0.25893867 -0.006410728 0.19459271 -0.048408363
0000c0 e9 21 6b 3e a3 c1 68 3e be 61 43 3e 84 13 2c 3e
       0.22962154 0.22730117 0.19080254 0.1680432
0000d0 48 af 85 3b 0f 86 44 3e 58 61 8b 3e 54 29 6e bd
       0.004079733 0.19191764 0.27222705 -0.058144882
0000e0 2e 6a 82 bd 1f ae 98 31 a8 3d fa 3d 84 27 38 3e
       -0.063679084 4.4435775e-09 0.12218791 0.17983824
0000f0 eb 84 31 be 3a f2 c3 3d af 18 02 be 2d a5 99 bd
       -0.1733586 0.095676854 -0.12704729 -0.07502208
000100 b1 cf 1b 3e b0 fc 9c 3c 34 8f f5 bd f0 0e af bc
       0.15215947 0.01916346 -0.119902045 -0.021369427
000110 45 93 43 bd 06 02 89 bc 36 e8 ed bd c9 80 a9 be
       -0.04774787 -0.016724598 -0.11616556 -0.33106068
000120 a0 68 27 be 58 16 cc bc 93 a1 22 3e f3 f5 a2 bd
       -0.16348505 -0.024912998 0.15881948 -0.07957067
000130 0e 13 81 be 67 f7 a4 bc 37 f6 93 3d d0 0d 44 3e
       -0.2520985 -0.020137502 0.07224696 0.19145894
000140 67 24 91 3d 44 a4 60 b0 c3 ed e9 bd cd 35 cd 3d
       0.07087021 -8.172416e-10 -0.114223026 0.10020027
000150 71 55 9d 3e d6 f4 6b 3e a1 7e 0f be f9 1d ca bd
       0.3072925 0.23042616 -0.14013149 -0.09868998
000160 0f 6f 88 3d 34 d5 0b 3e ca a2 92 3e 48 73 ff 3d
       0.06661808 0.1365555 0.28639823 0.1247316
000170 0b 12 70 bd 42 8c 4e 3b a8 95 58 3e a5 0f 21 3e
       -0.058610957 0.0031516706 0.2115084 0.15728624
000180 48 be 21 3e d6 1a 5c 3e 7d 49 18 3e fa 2f a5 3e
       0.15795243 0.21494612 0.14871784 0.32263166
000190 e4 ce 3f 3e 58 00 89 3d 3e 5f 99 3d d6 d3 a1 bd
       0.18731266 0.06689519 0.07488869 -0.079017326
0001a0 ad 6d 4b 3e 2a 2c 6d bc ea 7d 09 3e b6 99 b8 bd
       0.19866057 -0.014475862 0.13426939 -0.09013693
0001b0 66 cb 3a bd 89 3c 46 3e 66 4a 32 be 40 29 18 3e
       -0.045604132 0.1935903 -0.17411193 0.14859486
0001c0 7e 4e 11 be 02 70 85 3e 75 ea 2a 3e a3 68 1c be
       -0.14190099 0.26062018 0.16691001 -0.1527429
0001d0 be 19 b7 3c 69 76 9d 38 c2 a7 8b be 8e 19 aa bd
       0.022351142 7.508399e-05 -0.27276427 -0.083056554
0001e0 f5 29 f6 bc eb 53 3d 3e 74 cc 9d 3c 3e f3 7b bd
       -0.030049304 0.18489043 0.01926253 -0.06151127
0001f0 08 d9 ce bd 24 52 0a be 9e 23 3d 3e 42 72 1f be
       -0.10099989 -0.13507897 0.18470618 -0.1557093
000200 ba d4 b4 bd 8c 9a 0a bd a3 72 c4 bc 4e 8f 54 be
       -0.08829637 -0.033838794 -0.023980444 -0.20757791
000210 92 01 77 3d 41 b8 95 bb c6 4e d4 3d 15 f9 e5 3d
       0.060304232 -0.004569084 0.10366587 0.11229149
000220 a2 37 a3 be 9d a4 bc bc 5a d4 89 3e e4 b0 8d 3e
       -0.31878382 -0.023027712 0.26919824 0.2767402
000230 5d b0 25 3e f5 53 3c 3c 14 e2 4e 3e 03 b2 11 3d
       0.16180559 0.011494626 0.2020343 0.035570156
000240 54 e5 2f 3e 2c 3c bc 3c 4a e4 73 3e 36 75 6f be
       0.17177325 0.022977911 0.23817554 -0.23384556
000250 9a 7d 43 be 4c 96 34 3d 5a 18 13 3e 9d 0a 6c 3e
       -0.19090882 0.044088647 0.14364758 0.23050924
000260 15 d9 1c be 1c 71 0f 37 1f e3 85 be 06 fa 69 be
       -0.15317185 8.5497995e-06 -0.26149842 -0.22849283
000270 1f 29 bf bd 92 7e 0f be 87 d5 34 be 38 b1 fb bd
       -0.09334015 -0.14013126 -0.17659579 -0.12289661
000280 d4 d2 6a bd 04 dc 6f 3c 92 b8 7b 3d f7 3e 91 be
       -0.057329968 0.014639858 0.061455317 -0.2836835
000290 4f 85 cd bb 82 20 b8 3a c1 5b 3c 3e 3f 69 68 3e
       -0.006271995 0.0014047774 0.18394376 0.22696398
0002a0 6d 99 2f 3e 50 f8 2a be ba d2 4b be 5e 5d a9 3d
       0.17148371 -0.16696286 -0.19904605 0.082697615
0002b0 72 ca 36 be 57 93 09 3e 01 ce 41 be a3 ec 85 3e
       -0.17850664 0.13435112 -0.1892624 0.26157102
0002c0 2d ad 8c be 5e 5c 0d b0 df 83 e4 bd bb af 8b bd
       -0.27475873 -5.1426763e-10 -0.11157965 -0.06820627
0002d0 80 77 87 3e e9 27 4b 3e 70 1e 6f 3e 7f 2d 8b 3e
       0.2645836 0.19839443 0.23351455 0.27183148
0002e0 51 55 df bd 09 a7 56 3d b6 b0 2e bc ad 95 b4 bc
       -0.10904945 0.05240539 -0.010662248 -0.022044027
0002f0 0b 5c 15 3e ec 17 d4 3c 53 96 36 3e fd e9 40 be
       0.14585893 0.025890313 0.17830782 -0.1883926
000300 24 92 b8 bc 0b 25 7a 3e 4a 75 31 3e 2a 58 aa be
       -0.022530623 0.24428193 0.17329898 -0.3327039
000310 d7 2d 5e be 2a b1 dd 3d 9a 2d 01 bd 76 68 47 be
       -0.21697174 0.10824807 -0.03153763 -0.19473442
000320 18 b5 4a be 98 60 15 bb b8 3c 8e be 77 13 39 bd
       -0.19795644 -0.002279317 -0.277807 -0.04518458
000330 84 9d b2 bb 0b c6 3c bd cf bd c2 3c 9e 8c 9c be
       -0.005450906 -0.046087306 0.023772148 -0.30576032
000340 35 0d c7 bd d0 29 1f be 52 00 08 be 59 01 37 3e
       -0.09719316 -0.15543294 -0.13281372 0.17871608
000350 bb f7 a1 bd c4 b3 0e 30 39 4c 98 3d c0 f4 af bd
       -0.07908579 5.191476e-10 0.07436413 -0.08591604
000360 d1 a8 91 3d 54 db d0 b8 55 15 54 3e 2e 13 5b 3e
       0.07112277 -9.959066e-05 0.20711263 0.21394035
000370 5a fa 02 3e e7 c1 68 be ad d4 87 be 1e b5 8a 3e
       0.12790814 -0.22730218 -0.26529446 0.27091306
000380 b5 91 02 3c b1 0a 55 3b ad 3e 40 be 05 cf bb 3c
       0.00796931 0.0032507593 -0.18773909 0.022925863
000390 5d 41 83 bd 40 58 f0 bc 26 a9 cf bd 97 59 1c 3e
       -0.064089514 -0.029338956 -0.101396844 0.15268551
0003a0 03 e9 26 be 88 b2 14 be 82 9b 43 be 1b 96 7f be
       -0.16299824 -0.1452123 -0.1910229 -0.24959604
0003b0 39 79 32 be b9 be e0 bb 1d 8f 1f bc 9e dd 22 be
       -0.17429055 -0.0068586734 -0.009738711 -0.15904853
0003c0 06 dc e1 3c ba f8 17 3e 80 d5 82 3e e0 bf c9 3d
       0.027570736 0.14840975 0.25553513 0.098510504
0003d0 77 de 06 3e 46 0e 17 be 04 13 06 be eb 4b ca 3c
       0.13170801 -0.14751539 -0.13093191 0.024694404
0003e0 da c4 75 be a5 46 1c b2 a5 bd 8c 3e 5a 8b 80 3e
       -0.24000874 -9.096458e-09 0.27488437 0.25106317
0003f0 94 f8 4e be 20 d5 4d be 82 7c 54 3a 47 a8 b1 3d
       -0.20212013 -0.20100832 0.00081057113 0.086746745

model_embedding.bias f4 [32]
000000 c8 6c 96 bc b2 b5 ba b4 38 f3 0b 3a 9d 19 9a b6
       -0.018362418 -3.47774e-07 0.00053386716 -4.5925394e-06
000010 32 2e 6f bb 7b f4 99 37 9f e7 9f 3b 95 0b af 39
       -0.003649604 1.8352866e-05 0.0048799063 0.0003338723
000020 94 2e 31 bc f8 2a 71 35 1e 88 eb b6 e7 13 9b 3c
       -0.010814328 8.9842024e-07 -7.019392e-06 0.018930389
000030 a0 76 ca bc 0c 73 6a 37 c9 f0 ea 3a 23 9e 1c bc
       -0.024714768 1.3974273e-05 0.0017924543 -0.009559187
000040 2f 04 91 37 4c 27 49 3b 85 b4 ba 3b dc f4 52 bd
       1.7287295e-05 0.0030693589 0.005697789 -0.051503047
000050 1b 4a 0c b8 97 9a be 3c 56 70 2b bd 24 ce 82 b7
       -3.3447617e-05 0.023267074 -0.04185518 -1.55932e-05
000060 51 54 fb b4 40 15 d5 bc 80 e1 04 37 a7 80 11 b8
       -4.6813742e-07 -0.02601111 7.920316e-06 -3.469051e-05
000070 9a 49 07 37 ec cb 1d b8 99 f9 29 38 c8 a7 30 3d
       8.063764e-06 -3.7621634e-05 4.0525196e-05 0.04312876

dataset_embedding.weight f4 [16, 3]
000000 9c 29 96 bc a9 fd 0f be 8f 0b 77 3d 3b 28 61 be
       -0.018330388 -0.14061607 0.060313758 -0.21988003
000010 46 e9 95 3e 48 51 e3 3e 5a 61 00 3f 3e cd d0 3e
       0.29279536 0.4439795 0.50148547 0.40781587
000020 85 57 95 be cb 7f 21 3e 68 cf 15 bf f1 76 cf 3e
       -0.29168335 0.15771405 -0.585196 0.40520433
000030 2e 10 04 3f 8d 11 22 bf e0 8c 26 3e 51 c8 1a 3f
       0.5158719 -0.6330803 0.16264677 0.6046191
000040 76 10 89 bd f3 d4 28 be 77 2a c6 3e 4b 2d 9a 3e
       -0.06692593 -0.16487484 0.38704273 0.3011268
000050 d2 ed e3 bd 1e 7e b5 3e f9 03 65 bd 07 12 0a bf
       -0.11129345 0.35447782 -0.05591199 -0.5393376
000060 b4 be 76 be f8 a7 9f bc 3b 6c 9a 3e 1d 75 9c bd
       -0.24096185 -0.019489273 0.30160698 -0.07639525
000070 b7 fb f0 3e d9 e9 b7 3e 58 ba 0b 3e 54 79 bb be
       0.47067043 0.359206 0.13645303 -0.36616004
000080 8f b4 fc be 98 5d ba be e2 03 09 bf 9e 9f ef be
       -0.49356505 -0.3639953 -0.5352155 -0.46801466
000090 38 55 af be 37 e4 10 3f 36 dd 01 bf 0c c2 eb bd
       -0.34244704 0.5659823 -0.50728166 -0.11511621
0000a0 dd a0 c2 3e 7b c8 da 3e 50 de 0d 3f 13 ed fe 3d
       0.38013354 0.4273108 0.55417347 0.12447562
0000b0 28 b4 c1 3d 22 84 80 bc e2 59 1b 3f 45 dc a9 bc
       0.0945819 -0.015688006 0.60684025 -0.020734916

dataset_embedding.bias f4 [16]
000000 a3 4a 0e bd 7c e4 8c 3e a7 a4 f6 bc a2 20 4e be
       -0.034739148 0.2751807 -0.03010781 -0.20129636
000010 61 c0 34 3d 5d c6 8e 3e 1c 23 08 be 64 d6 4c bd
       0.04412878 0.27885714 -0.13294643 -0.050009146
000020 7d 0e 0c 3d 24 c7 7e bc fd 5b 0b 37 5f 68 e3 3d
       0.034193505 -0.0155504085 8.306463e-06 0.111038916
000030 6b fe 8e 3e a3 16 1a be 0d 83 7d bd fc 2d 5b bd
       0.2792848 -0.15047698 -0.061892558 -0.05351065

tensor_network.0.weight f4 [16, 1]
000000 2b 83 19 be 22 80 0d bf bf 1d df bd c8 e1 8a 3e
       -0.14991443 -0.5527364 -0.108943455 0.27125382
000010 2a dc 2b bf 51 3f 18 3f 9e 54 c8 3e 84 3b 97 bd
       -0.6713282 0.59471613 0.39127058 -0.073843986
000020 ce 77 8b be c6 b8 0c bd c8 64 d4 3e 0b a4 0c 3f
       -0.2723984 -0.0343559 0.4148314 0.5493781
000030 98 0b 72 3e 81 53 d8 3d 43 de 1e 3f 9e be 06 3d
       0.23637235 0.10562802 0.62057894 0.03289663

tensor_network.0.bias f4 [16]
000000 f2 a7 42 3e b6 8e c2 be e7 a0 4d be af 36 07 bf
       0.19009379 -0.37999505 -0.2008091 -0.52817816
000010 42 95 06 be 04 86 9b be 93 d7 2d 3d 6c 23 37 3f
       -0.13142875 -0.30375683 0.042441916 0.71538424
000020 6c c1 df 3d e0 82 39 bc 16 0e db 3e 2c c7 3b bf
       0.10925564 -0.011322707 0.42784184 -0.7335079
000030 e1 7e 2c 3e 91 b0 4a 39 a9 06 08 bd 58 d0 01 3f
       0.16845275 0.00019329997 -0.033209477 0.5070853

tensor_network.2.weight f4 [16]
000000 23 e7 7f 3f 6b 29 31 3f 6b 29 31 3f b5 db 7c 3f
       0.9996206 0.69203824 0.69203824 0.98772746
000010 6b 29 31 3f 01 12 7a 3f 77 02 79 3f 6a 44 81 3f
       0.69203824 0.9768372 0.97269386 1.0099003
000020 5e 04 82 3f 61 29 31 3f 13 19 78 3f 73 5c 78 3f
       1.0157583 0.69203764 0.9691326 0.97016066
000030 6d b8 7d 3f e6 00 7b 3f 72 0b 77 3f cc f4 7a 3f
       0.99109536 0.98048246 0.9650184 0.9802978

tensor_network.2.bias f4 [16]
000000 dc 48 05 37 e0 d9 07 2f f0 82 51 30 75 8c df 37
       7.944382e-06 1.2355583e-10 7.621983e-10 2.6649077e-05
000010 1f 87 fa af b9 4b 25 b8 f4 ae 4c 38 e1 78 e8 37
       -4.5570744e-10 -3.9409588e-05 4.8800328e-05 2.7712844e-05
000020 5d 62 09 38 d1 40 ac 33 1c 04 c1 b7 82 b1 2f 37
       3.2754953e-05 8.021164e-08 -2.3009306e-05 1.0472142e-05
000030 70 1e 5f 37 d8 3b 2d b8 eb 42 c6 36 fa fd 31 37
       1.3298923e-05 -4.1302148e-05 5.90865e-06 1.0609156e-05

tensor_network.2.running_mean f4 [16]
000000 79 f4 af 3d 00 00 00 00 00 00 00 00 0a 64 f0 42
       0.08591551 0.0 0.0 120.19539
000010 00 00 00 00 1e eb 83 43 16 84 2f 43 b8 be ca 3e
       0.0 263.83685 175.51596 0.39598632
000020 a7 14 47 3d 55 fd 2d 24 88 63 3a 43 9a af 73 43
       0.04860368 3.7727976e-17 186.3888 243.68594
000030 77 4b d5 42 fc 1a 40 42 48 9d 8a 43 f2 57 72 41
       106.64739 48.026352 277.22876 15.146471

tensor_network.2.running_var f4 [16]
000000 20 4f 18 3c 59 61 b4 24 59 61 b4 24 79 14 03 48
       0.009296209 7.822747e-17 7.822747e-17 134225.89
000010 59 61 b4 24 d1 65 1d 49 68 17 8b 48 3e 5d e0 3d
       7.822747e-17 644701.06 284859.25 0.109552845
000020 0c e2 42 3b 86 61 b4 24 96 35 9c 48 a2 84 06 49
       0.0029736785 7.822777e-17 319916.7 550986.1
000030 b2 e0 cc 47 73 ca a6 46 10 9b 2d 49 2a ae f7 44
       104897.39 21349.225 711089.0 1981.4426

worker_network.0.weight f4 [16, 1]
000000 87 11 d2 be d3 06 1a 3d f3 0d 78 3d ca 82 55 be
       -0.41028997 0.037604164 0.060560178 -0.20850673
000010 51 9f 4c 3d ec eb 9e 3d fc 3c e4 bd 84 72 fa be
       0.049956623 0.07759842 -0.11144444 -0.48915493
000020 ce 78 93 b1 0f a5 2d 3f 7c 2b 22 bf 89 92 52 be
       -4.291997e-09 0.67829984 -0.633476 -0.20563711
000030 7f ed 42 3f cd 6f 4e be ca 01 82 3d 8f a1 75 be
       0.7614364 -0.20159836 0.063479975 -0.23987411

worker_network.0.bias f4 [16]
000000 0b 4c 05 3f 0e 6d d6 3d be cc 81 3e 19 37 74 3e
       0.5206916 0.10470019 0.25351518 0.23849143
000010 67 fe 5d 3e e9 65 ec 3d b9 d6 12 3f 6c 6a cb bd
       0.21679078 0.11542875 0.5735889 -0.09932408
000020 47 57 9c b7 e6 5a da 3e 63 5f 92 3e ec f0 3c 3f
       -1.863729e-05 0.42647475 0.285884 0.7380512
000030 a1 f6 1c bf fe a2 44 3f 5a ae 25 bf 6d 5c 74 be
       -0.61313826 0.76811206 -0.64719164 -0.23863383

worker_network.2.weight f4 [16]
000000 1d 56 7b 3f 15 6f 78 3f 5a 42 80 3f 53 d8 82 3f
       0.98178273 0.970445 1.0020249 1.0222267
000010 a5 3c 80 3f 61 99 77 3f 18 ee 7b 3f 6b 29 31 3f
       1.0018507 0.9671841 0.9841018 0.69203824
000020 6b 29 31 3f 0e 9b 7c 3f d0 f3 78 3f 27 0e 80 3f
       0.69203824 0.98674095 0.9724703 1.0004319
000030 f0 3e 84 3f b8 68 82 3f 30 31 76 3f 6b 29 31 3f
       1.0331707 1.0188208 0.96168804 0.69203824

worker_network.2.bias f4 [16]
000000 1a ee 3d b8 33 e8 f2 b7 66 ef b7 b6 0d 8a ac 37
       -4.528286e-05 -2.8956774e-05 -5.4816946e-06 2.0568283e-05
000010 87 be 96 37 cf 0b a4 36 36 16 e4 36 37 ab 0c 30
       1.7970115e-05 4.8889556e-06 6.797515e-06 5.1175014e-10
000020 fa 95 7f 2e ae 48 40 38 5b c5 49 36 e6 68 29 37
       5.8113493e-11 4.5844055e-05 3.006621e-06 1.00976085e-05
000030 1d b9 97 38 55 66 be b7 bd 9c 0f b8 d3 ca 99 af
       7.234721e-05 -2.2697417e-05 -3.423983e-05 -2.7974653e-10

worker_network.2.running_mean f4 [16]
000000 39 a3 70 3e 5a 75 88 3e 59 b6 04 3f 5f 2e dc 3d
       0.23499765 0.26652032 0.5184074 0.10751032
000010 37 bb df 3e 9c 8a e5 3e 3e f2 a2 3e 00 00 00 00
       0.4369752 0.44832313 0.3182544 0.0
000020 00 00 00 00 52 bd 52 40 f2 48 04 3e e5 45 c6 3e
       0.0 3.2928052 0.12918451 0.387252
000030 65 1d 37 40 cc c6 d0 3e 0a be 45 3d 00 00 00 00
       2.861169 0.4077667 0.04827694 0.0

worker_network.2.running_var f4 [16]
000000 84 63 8e 3d 77 5a 21 3d 75 e0 d8 3d 33 66 6e 3c
       0.06952575 0.039392915 0.10589687 0.014550733
000010 9e 43 95 3d 25 2c 2d 3e 7c 02 8a 3d 59 61 b4 24
       0.072882876 0.16911371 0.06738755 7.822747e-17
000020 59 61 b4 24 80 4d 4b 41 23 22 ac 3c 15 b3 e6 3d
       7.822747e-17 12.706421 0.021012371 0.11264626
000030 bc 8f 63 41 8f ca f8 3d 5b bf 0e 3c 59 61 b4 24
       14.222591 0.1214801 0.008712615 7.822747e-17

batch_network.0.weight f4 [16, 1]
000000 da bb e6 3e 01 7b b7 be f4 13 45 bd 71 a0 f0 3b
       0.45065194 -0.35836032 -0.048114732 0.007343345
000010 42 7d 0d bb b6 94 54 bc 89 a1 38 3e 21 80 98 bc
       -0.0021589552 -0.012974909 0.18030371 -0.018615784
000020 48 d7 1f 3f bf 3e 95 be a9 56 37 3f 77 5c 47 3e
       0.6243787 -0.29149434 0.7161661 0.19468866
000030 2a 61 d5 3b 35 84 db bd 8d 5f c6 3d e5 80 d2 3e
       0.006511827 -0.10718576 0.096861936 0.41113964

batch_network.0.bias f4 [16]
000000 d4 b4 8c be 4c 60 d3 3e a4 a7 1c bf 77 95 93 3e
       -0.2748171 0.41284406 -0.611933 0.2882497
000010 b3 d2 06 bf 5a d8 6b bc df a1 ac 3e 41 80 3e 3f
       -0.5266525 -0.014394844 0.33717248 0.7441445
000020 bf 25 1c 3f 20 bc f7 bb ab ea 4d bf 43 ee 13 bf
       0.60995096 -0.007560268 -0.804362 -0.57785434
000030 2b 38 57 3c af dd 97 be 61 9a 1c 3f 4a ab 5b be
       0.01313595 -0.2966132 0.61173064 -0.2145206

batch_network.2.weight f4 [16]
000000 0e 09 7a 3f 94 9b 7d 3f 6b 29 31 3f 2c 7e 79 3f
       0.97670066 0.9906552 0.69203824 0.9745815
000010 6b 29 31 3f 28 89 7a 3f 9d 17 76 3f a3 a7 84 3f
       0.69203824 0.97865534 0.9612978 1.0363659
000020 3c 22 7d 3f 10 0e 32 3f 42 2a 80 3f 36 5b 7d 3f
       0.9888036 0.6955271 1.0012896 0.989673
000030 2a 2b 7d 3f 6b 29 31 3f e6 27 78 3f ba 9e 7a 3f
       0.9889399 0.69203824 0.9693588 0.9789845

batch_network.2.bias f4 [16]
000000 fd 82 57 b8 38 bc cd b7 12 10 dd 2e 7a 32 22 37
       -5.1381987e-05 -2.452555e-05 1.0052771e-10 9.667705e-06
000010 5b a0 a8 2f 70 1f 18 38 fc d0 7c 38 e9 dc 47 38
       3.0672961e-10 3.6268902e-05 6.0276114e-05 4.7651036e-05
000020 3e 30 d2 37 3d c3 a7 36 ce 12 7e b6 a6 35 8e b6
       2.5056415e-05 4.9997166e-06 -3.7859895e-06 -4.2381753e-06
000030 f9 cb 2a 38 1f 2b d2 2c fd 88 8c 38 ce f8 28 38
       4.0721123e-05 5.9733464e-12 6.701236e-05 4.028604e-05

batch_network.2.running_mean f4 [16]
000000 b2 4f 14 43 7c b8 6b 3e 00 00 00 00 27 bb 3d 40
       148.31131 0.23019594 0.0 2.9645479
000010 00 00 00 00 c2 95 45 32 0d 2a 73 42 b1 b3 ed 3e
       0.0 1.150096e-08 60.791065 0.46426156
000020 6a ed 4f 43 11 84 02 37 fb 37 6c 43 21 cd 7e 42
       207.9274 7.779353e-06 236.21867 63.70032
000030 98 bb 73 40 00 00 00 00 a5 5b 05 42 8d 64 07 43
       3.8083248 0.0 33.339497 135.39278

batch_network.2.running_var f4 [16]
000000 a2 ff a4 48 f0 c8 33 3d 59 61 b4 24 54 e1 db 42
       337917.06 0.0438928 7.822747e-17 109.940094
000010 59 61 b4 24 a7 05 1e 35 3a 7c 5a 47 44 17 ea 3d
       7.822747e-17 5.886781e-07 55932.227 0.11430219
000020 0a c7 20 49 7c 40 3b 32 be 76 51 49 a1 11 75 47
       658544.6 1.0899495e-08 857963.9 62737.63
000030 a4 3f 69 43 59 61 b4 24 37 ee 7f 46 b2 77 89 48
       233.2486 7.822747e-17 16379.554 281533.56

ps_network.0.weight f4 [8, 1]
000000 13 22 6d be f7 cb 22 ac 57 4f 6b be 81 da 8d 3d
       -0.2315753 -2.3134808e-12 -0.22979484 0.06926442
000010 65 a9 9f be a5 90 bf 3e 01 66 b2 3e 08 c7 8a bb
       -0.31183925 0.37415043 0.34843448 -0.004235152

ps_network.0.bias f4 [8]
000000 b7 62 1c 3f d7 cd 3b be 97 23 ef 3e f8 5f 7d be
       0.61088127 -0.1834024 0.4670684 -0.2474364
000010 82 99 a3 be 9a b4 df bc 7c a5 25 be 14 78 2e be
       -0.31953055 -0.027307797 -0.16176409 -0.17037994

ps_network.2.weight f4 [8]
000000 d6 07 80 3f 6b 29 31 3f dc ff 7d 3f 6b 29 31 3f
       1.0002391 0.69203824 0.99218535 0.69203824
000010 6b 29 31 3f 5e 8b 7c 3f 45 56 7e 3f 6b 29 31 3f
       0.69203824 0.9865016 0.99350387 0.69203824

ps_network.2.bias f4 [8]
000000 a1 a2 7e 37 59 2d a7 af 42 a5 ac b7 8b 8c c5 b0
       1.5177445e-05 -3.0409344e-10 -2.0580952e-05 -1.4373581e-09
000010 f7 19 7a 2f 2a e0 71 36 22 6a c7 b7 25 0e 76 2d
       2.2746592e-10 3.604228e-06 -2.377207e-05 1.3986622e-11

ps_network.2.running_mean f4 [8]
000000 78 c6 02 3f 00 00 00 00 14 87 bc 3e 00 00 00 00
       0.5108409 0.0 0.36821806 0.0
000010 00 00 00 00 17 dc 20 3e 5c 1f ad 3d 00 00 00 00
       0.0 0.15708958 0.08453247 0.0

ps_network.2.running_var f4 [8]
000000 a9 27 60 3c 59 61 b4 24 f1 3c 5a 3c 59 61 b4 24
       0.013681331 7.822747e-17 0.013320194 7.822747e-17
000010 59 61 b4 24 2a 89 fe 3c a1 66 13 3c 59 61 b4 24
       7.822747e-17 0.031071264 0.008996637 7.822747e-17

main_network.0.weight f4 [128, 104]
000000 89 4f 79 3d 75 e3 9a 3d 41 7e cf bd fe f8 cb bd
       0.060866866 0.07562915 -0.10131503 -0.09959601
000010 ca 5f 4b 3c 80 92 0c be e9 72 37 3d b7 af 7a 3d
       0.012412975 -0.1372776 0.04478732 0.06120273
000020 df 2d 22 3d e2 53 b2 bd ab 81 52 3d 0a a8 b9 bd
       0.039594527 -0.087074056 0.051393192 -0.09065254
000030 2f 78 60 3d 72 a1 f2 3d 0a 54 c8 bb 51 da 02 3d
       0.054802116 0.118471995 -0.006113534 0.031946484
000040 cd 6f af bd c9 49 a8 bc 5e 4c 7d 3d 34 d3 12 bd
       -0.08566246 -0.020542996 0.061840408 -0.03584595
000050 5f 53 9a bc fb 63 a0 3d af 66 17 3c 5f 7b 7a 3d
       -0.018838583 0.0783157 0.00924079 0.061152812
000060 31 3e d8 bc 01 bd 88 bd 88 44 cd bd 1f 51 ee 3c
       -0.026396843 -0.06676675 -0.10022837 0.029091416
000070 93 31 81 3d 76 3d da 3d e4 06 ba bc c5 90 6f bd
       0.06308284 0.10656254 -0.022708364 -0.058487672
000080 d4 f4 85 bd b3 50 87 ba 65 e5 2f bc a9 b3 fc bd
       -0.06540838 -0.0010323733 -0.010735844 -0.12338955
000090 af dd 49 bc f6 6a b9 bd 62 56 0e 3c f4 6f aa 3d
       -0.01232092 -0.09053604 0.008687587 0.083221346
0000a0 d6 7c e4 3b 69 69 6b bd df 15 99 3c 49 c1 30 bc
       0.0069728894 -0.057473574 0.018687187 -0.01078827
0000b0 26 13 cc 3d e2 17 1b 3c b1 3f 81 bc d9 01 f4 3d
       0.0996459 0.009466143 -0.01577744 0.11914415
0000c0 1c 50 65 3d 9a b1 43 33 83 dc af b5 1c 11 c9 bc
       0.0559846 4.5563503e-08 -1.3102693e-06 -0.024544291
0000d0 c2 a0 8d 2e 80 a9 1f 3d 38 fd 7c 3d 22 7b ad bd
       6.440494e-11 0.038980007 0.061764926 -0.08470751
0000e0 6d 35 b2 3d ad 65 36 b4 a1 c0 93 3d 1b 26 1a bd
       0.087015964 -1.698706e-07 0.072144754 -0.037633996
0000f0 3b 84 4f bd dc 6d 3c 3d b2 e7 8a 3d 19 0b 9a 3d
       -0.050663214 0.046003208 0.067824736 0.07521648
000100 b5 1f 8b 3d ad 2f be 3d 91 13 0d 3d 8f 47 4d bc
       0.06793157 0.09286437 0.034442488 -0.012529268
000110 68 69 93 bd 56 03 c9 3d 0a bb 46 3d d6 2f 36 af
       -0.07197839 0.098150894 0.048518218 -1.6569798e-10
000120 83 b0 17 2e 63 81 29 3c 02 dd c4 3d 71 20 1f bb
       3.44902e-11 0.01034579 0.096124664 -0.0024280811
000130 07 55 be 3c ae 7f 88 bd b1 cd 95 bd f3 2c d9 34
       0.023233904 -0.06664978 -0.07314623 4.0452105e-07
000140 0d f7 3a 3b 99 5f 8c 3d 0c 31 b8 b0 e5 16 54 bd
       0.0028528601 0.06854171 -1.3401702e-09 -0.051779646
000150 20 4b 83 32 eb cd 51 bd 9e 1f 3a 3d 2e 09 cc bd
       1.528457e-08 -0.05122177 0.04544031 -0.099626884
000160 40 ea 6c bd 3f 7d bd bb 44 d5 af 3c a8 2c a9 3d
       -0.057840586 -0.0057827528 0.021463998 0.08260471
000170 91 9b 3d 3d e9 5c 2e 2f ac 41 9e bc 2f 4f 3b 3d
       0.046290938 1.5858216e-10 -0.019318424 0.045729812
000180 69 fd 37 3d e7 5e e1 34 b7 02 a5 bd af 96 80 35
       0.044919405 4.1978566e-07 -0.080571584 9.580598e-07
000190 98 22 31 ae 27 01 49 3d 26 b6 aa bc b9 84 5d 2d
       -4.0275866e-11 0.049073365 -0.020838808 1.2591866e-11
0001a0 90 33 67 3c 06 6d ed bd c5 b4 dd bd 28 8a 74 bd
       0.014111415 -0.1159306 -0.10825495 -0.05970207
0001b0 9b 3b 89 bd 15 8c af 3c 54 f5 ab 3d 13 89 40 bd
       -0.06700822 0.021429101 0.08396402 -0.047005724
0001c0 6e 1a 84 bd 5a 8e 67 bd 97 26 a4 bd c7 49 16 bd
       -0.064503536 -0.05653224 -0.08015173 -0.036691453
0001d0 78 b2 a6 bd a1 13 7a 3d 6c be 27 bd be 40 4c 3d
       -0.08139509 0.061053876 -0.040953085 0.04986643
0001e0 78 b7 36 bc e5 7f 06 3e 25 8b 58 3c e4 83 36 bc
       -0.011152141 0.13134725 0.013216768 -0.011139844
0001f0 6d 72 a9 bb 32 e2 e4 bd 56 fd 14 bd 06 0d b7 3d
       -0.0051711113 -0.11175956 -0.036374412 0.08938031
000200 9c b3 09 bd c5 72 7d bd 11 99 6a 3c ce 7e b8 bc
       -0.033618554 -0.06187703 0.01431872 -0.022521403
000210 35 51 81 bd 4b 34 87 3d 87 4e 77 3c 8d 8c 99 bd
       -0.06314317 0.06601771 0.015094406 -0.07497511
000220 b7 a1 5a 3c 10 3d 98 bd c6 51 de bc 89 09 b4 3c
       0.01334422 -0.07433522 -0.027138602 0.021977203
000230 21 f3 d8 3d 1a 73 ba 3d 73 3c 85 bd 01 af 3f 3d
       0.10593248 0.09103985 -0.065056704 0.046797756
000240 41 74 a6 bc 0e 3e d5 bc 40 af 7b 3d 48 6a 6e bc
       -0.020319106 -0.026030567 0.06144643 -0.014551707
000250 f2 fc d7 3c 8e 99 9f bd 82 30 cd bc f3 69 c7 bd
       0.02636573 -0.0779296 -0.025047544 -0.09737005
000260 74 b4 3b 3d b8 a1 45 b1 2a 3d db 2e 20 6e 3f bc
       0.04582639 -2.87592e-09 9.969832e-11 -0.011683971
000270 84 b0 8e 2e 7b 8e 1e 3c 88 77 01 bd 63 3c 1e 3d
       6.488768e-11 0.009677525 -0.031608135 0.038631808
000280 b8 96 33 bd a9 e7 95 b2 0a ca 37 bd cd 1f d3 3c
       -0.04384491 -1.745123e-08 -0.044870414 0.025772
000290 87 6f bd bc e5 d5 67 bd 0a 1f 78 bc f0 3a c2 bd
       -0.02312447 -0.05660047 -0.015144119 -0.09483898
0002a0 49 c3 34 bd 5d 79 77 bd 8c d6 6d 3d 36 7a b0 bc
       -0.04413155 -0.060418475 0.058065936 -0.02154265
0002b0 bb eb 8f 3d 4b 1d 81 3c 0c 71 a2 3d 3d 5d e6 2b
       0.07027384 0.015761038 0.07931718 1.6368362e-12
0002c0 eb 4b 8c 35 31 90 87 3d 64 7d eb 3d 00 87 96 3d
       1.0452908e-06 0.06619299 0.11498526 0.07349968
0002d0 3d 3b 18 3c 36 16 68 3c 8b 49 40 bd d6 41 7e 2f
       0.009291467 0.014165452 -0.046945136 2.3124555e-10
0002e0 a0 fd c4 bc 04 9d 56 3c 95 27 45 2f 9a 72 ab 3d
       -0.02404672 0.013098959 1.7931108e-10 0.08371468
0002f0 0e 58 42 af d7 86 50 bd aa 5b 59 3d 58 94 0d be
       -1.767548e-10 -0.050909843 0.053065933 -0.1382612
000300 f1 df 32 bb 87 52 2a bc d5 02 ec 3c 52 7c 60 bc
       -0.0027294124 -0.010395653 0.028809944 -0.013701515
000310 06 f0 9c 3d 72 82 79 2f 54 a3 67 3d 13 dd ad 3c
       0.07662968 2.2692762e-10 0.056552246 0.02122358
000320 44 27 2b bd f9 4f 98 af a4 6d 12 bd c8 1e 9d b3
       -0.041785493 -2.7705463e-10 -0.035749093 -7.316481e-08
000330 28 f3 45 ae 86 02 b4 bc 13 c0 73 bb d4 7f 0d ab
       -4.500858e-11 -0.02197386 -0.0037193343 -5.027066e-13
000340 47 52 5a 3d a2 a3 8b 3d af 11 d0 bd 90 32 99 3d
       0.053301122 0.0681832 -0.10159623 0.07480347
000350 73 dd 22 3d 32 00 f4 bd 15 23 4b 3d 2b 94 7a 3b
       0.03976197 -0.119141 0.049594004 0.0038235288
000360 a2 48 4e 3d 17 99 e1 3d 41 08 72 bd 5e 6b 2d 3b
       0.050362237 0.11015528 -0.059089903 0.00264617
000370 49 5c b6 3c a3 ca 06 3d bd b7 5b 3d 3b 62 89 3d
       0.022260802 0.032908093 0.053642023 0.06708189
000380 72 44 58 3d e8 c3 22 3d 95 85 8a b9 7d bd 23 bd
       0.05279965 0.039737612 -0.00026420938 -0.039975632
000390 d3 88 fd 3b 81 3a c3 bc e3 62 4a bd be e2 b2 3d
       0.007737258 -0.023831608 -0.049410712 0.08734654
0003a0 63 c0 bc bd e6 20 b3 3c cb 29 96 3c eb ce 96 bc
       -0.09216382 0.021866273 0.018330475 -0.018409213
0003b0 98 6e f2 bd 16 95 46 bd 60 0e 6a bd d3 de c6 bc
       -0.118375 -0.048482023 -0.057142615 -0.024276173
0003c0 f2 fd cb bb e2 c4 e0 3d 99 59 37 3d 1d a7 6b 3d
       -0.006225341 0.109750524 0.04476318 0.05753242
0003d0 4d 3d c1 3c 99 40 69 bd e9 bf 2c 3d 92 3f 70 bd
       0.0235888 -0.05694637 0.042175207 -0.058654375
0003e0 74 6a 47 bc 6d 26 a0 3d 80 a1 28 bd 69 3e 50 bd
       -0.0121713765 0.07819829 -0.041169643 -0.05084077
0003f0 30 69 1f bd b9 c6 f4 3b ad e7 a6 3c 31 3e b3 3d
       -0.038918674 0.0074699786 0.020374143 0.087520964

main_network.0.bias f4 [128]
000000 d2 a0 bd b2 da 8d c9 36 c7 7b ee b6 0b db bb b4
       -2.2075628e-08 6.0067805e-06 -7.1073623e-06 -3.499084e-07
000010 17 fb 39 b7 33 09 58 b6 c6 00 64 b7 70 bd 1b b7
       -1.1085321e-05 -3.2191863e-06 -1.3590039e-05 -9.282827e-06
000020 98 4a 91 36 e7 be 3b 37 7c 7c e9 b5 06 1b 62 37
       4.3300206e-06 1.11905165e-05 -1.7396083e-06 1.3476942e-05
000030 bc 16 e6 36 75 d6 47 b4 d5 c9 32 37 52 cd c8 b6
       6.857181e-06 -1.8611338e-07 1.0656619e-05 -5.984367e-06
000040 ba 3a a8 b6 b1 60 32 37 f9 9d 82 b6 06 dc fd 36
       -5.013627e-06 1.06321395e-05 -3.8926923e-06 7.5656017e-06
000050 f2 7f 61 b6 67 ca 88 b8 1c ef 30 36 c3 d7 0b b6
       -3.3602087e-06 -6.522686e-05 2.6365224e-06 -2.0838204e-06
000060 24 1d 8c 35 02 e1 8f b6 85 5f 3a b6 96 f0 80 36
       1.0439294e-06 -4.2879265e-06 -2.777176e-06 3.842705e-06
000070 50 b6 b0 35 a0 3b 5b b6 3d 76 4d 36 7a ca a9 b6
       1.3166082e-06 -3.266825e-06 3.0616204e-06 -5.060164e-06
000080 f0 4d d7 b6 cd e7 0f 36 fd c3 bd 36 69 c6 94 b6
       -6.4165724e-06 2.1443586e-06 5.655455e-06 -4.4338417e-06
000090 19 c8 9c 36 10 ad e2 b3 4f 03 d0 b7 18 4a b5 36
       4.6724567e-06 -1.0555425e-07 -2.4797073e-05 5.402846e-06
0000a0 7b a3 0a b7 5a 6d 84 36 03 02 cb 37 af 53 1e 37
       -8.263504e-06 3.9466368e-06 2.4200423e-05 9.437018e-06
0000b0 ec 1c ca 36 67 94 34 b6 28 ce c1 b6 75 6a de 37
       6.023436e-06 -2.6908472e-06 -5.775848e-06 2.6514035e-05
0000c0 93 34 97 b5 d0 26 6c 36 01 02 cf 36 a2 97 09 b6
       -1.1265678e-06 3.5189332e-06 6.169314e-06 -2.0502853e-06
0000d0 e0 99 88 36 63 06 f6 b6 fe 79 a3 b7 0b 86 df 37
       4.0710293e-06 -7.332115e-06 -1.9487921e-05 2.664609e-05
0000e0 d0 4b e3 b4 94 4b f2 35 67 fc 95 36 bd d4 b2 b6
       -4.2337206e-07 1.8052401e-06 4.4699295e-06 -5.3295794e-06
0000f0 09 eb 5d b5 ca 9a d7 b6 3f 85 0d b6 41 6c 39 37
       -8.2670937e-07 -6.425519e-06 -2.1088197e-06 1.1052064e-05
000100 ce cb c6 37 ac d4 61 36 1f 1c 97 36 86 db 11 36
       2.3698343e-05 3.3651404e-06 4.5034244e-06 2.1734463e-06
000110 49 99 57 b6 0e 68 27 36 5d ed 99 36 37 7e 0f 36
       -3.212672e-06 2.4945507e-06 4.587388e-06 2.1382127e-06
000120 4f 23 5b 37 89 01 e4 36 64 ae 45 36 98 59 57 36
       1.3061638e-05 6.795108e-06 2.9456796e-06 3.2089647e-06
000130 87 2c b6 b2 c7 24 7f 36 15 a4 b5 b6 8d 0e d4 35
       -2.1207837e-08 3.8019368e-06 -5.413322e-06 1.5799466e-06
000140 97 d4 a0 b6 f4 2e 98 b5 64 4b 07 36 39 11 96 37
       -4.7931203e-06 -1.1338548e-06 2.016045e-06 1.7889413e-05
000150 80 dd 87 b7 6b db 05 b7 32 0e fd b6 6b a0 ae b6
       -1.6196398e-05 -7.978505e-06 -7.54164e-06 -5.204279e-06
000160 02 7e e3 b5 50 fd b7 b7 dd 91 c1 36 f3 3a 29 37
       -1.6949491e-06 -2.1933258e-05 5.768829e-06 1.008691e-05
000170 7c bb b5 b6 0c 9d b4 b6 0c 8b d8 35 88 a2 e6 b5
       -5.4160464e-06 -5.3827007e-06 1.6133722e-06 -1.7183638e-06
000180 6c 6d 64 b5 79 1b 98 b6 60 d5 40 b5 ce 6c 55 36
       -8.509585e-07 -4.5331512e-06 -7.1836075e-07 3.1802806e-06
000190 d0 d6 32 b6 5d a8 29 37 ef 17 ad b6 c1 b2 0c 36
       -2.6649104e-06 1.0112385e-05 -5.158588e-06 2.0965674e-06
0001a0 24 b9 87 36 c5 8b 08 37 9a fa 7d 37 14 c9 16 b6
       4.0448667e-06 8.138774e-06 1.5138323e-05 -2.2468785e-06
0001b0 14 9f ba 35 d2 63 c7 b5 8b bd 97 b6 b6 a3 2b 36
       1.3904378e-06 -1.4855707e-06 -4.5222164e-06 2.5576278e-06
0001c0 16 13 56 36 e7 69 e1 36 83 94 6b 37 62 0c 32 36
       3.1899594e-06 6.717851e-06 1.404167e-05 2.6531275e-06
0001d0 f4 a0 25 37 36 6b a5 36 66 f9 3d b4 32 ec e4 b7
       9.872241e-06 4.929864e-06 -1.7692727e-07 -2.7289705e-05
0001e0 6d 42 1c b8 ad e8 6c b6 16 1a 83 b5 7c c3 eb b7
       -3.7255162e-05 -3.5302176e-06 -9.767853e-07 -2.8105213e-05
0001f0 72 74 a9 b6 40 23 54 36 dc 61 1b 35 ba 51 93 36
       -5.0501485e-06 3.161098e-06 5.7884404e-07 4.3904556e-06

main_network.1.weight f4 [128]
000000 1e d3 80 3f 01 1a 81 3f c1 1d 78 3f a4 b7 80 3f
       1.0064428 1.0086061 0.969204 1.0056043
000010 ad 8c 80 3f 9c 72 83 3f b3 de 7c 3f 5c 30 85 3f
       1.0042931 1.0269351 0.9877731 1.0405383
000020 90 4d 84 3f 01 74 7d 3f 8b 1d 7e 3f 2e 6d 7c 3f
       1.033617 0.9900513 0.9926383 0.98604095
000030 00 d1 78 3f 15 ad 74 3f c7 71 86 3f cf 1b 79 3f
       0.9719391 0.955766 1.0503472 0.9730806
000040 a2 7b 7e 3f ab 44 80 3f 56 0a 71 3f 10 d9 82 3f
       0.994074 1.0020956 0.94156396 1.0222492
000050 63 6b 76 3f 94 c8 80 3f f7 cf 7a 3f 95 13 76 3f
       0.9625761 1.0061212 0.9797358 0.9612363
000060 e1 bd 80 3f 9a ea 7d 3f 68 f9 79 3f ec 9f 81 3f
       1.0057946 0.991861 0.9764619 1.0126929
000070 9d d0 7c 3f 11 59 7c 3f 16 2c 82 3f da a5 81 3f
       0.9875582 0.98573405 1.0169704 1.0128739
000080 c9 96 80 3f 12 3f 76 3f 23 4c 7b 3f 85 9e 7f 3f
       1.0046016 0.9618999 0.9816305 0.99851257
000090 02 20 7c 3f 46 3f 80 3f e5 cc 81 3f 52 91 80 3f
       0.9848634 1.001931 1.0140654 1.0044348
0000a0 fc 40 80 3f 3a c9 81 3f d5 0a 86 3f 09 e4 7e 3f
       1.0019832 1.0139534 1.0472056 0.99566704
0000b0 a5 3c 81 3f f5 d5 82 3f b0 36 76 3f 19 50 82 3f
       1.0096632 1.0221545 0.96177197 1.0180694
0000c0 0b fd 7b 3f 5c 37 7f 3f 63 6f 7c 3f b4 a7 7f 3f
       0.9843299 0.99693847 0.9860746 0.9986527
0000d0 f0 27 80 3f 25 35 7b 3f 9c 69 74 3f 8c 24 7d 3f
       1.0012188 0.9812797 0.9547365 0.9888389
0000e0 c8 69 76 3f 4c 15 77 3f f0 a9 80 3f 1e f6 80 3f
       0.9625516 0.9651687 1.0051861 1.0075109
0000f0 ed 8c 7b 3f 1b ae 78 3f 49 54 7a 3f ed 99 89 3f
       0.9826191 0.97140664 0.9778486 1.07501
000100 c4 77 84 3f f8 e7 7b 3f 3d 09 85 3f 9c 5b 88 3f
       1.034905 0.9840083 1.0393444 1.0652957
000110 95 86 7c 3f 73 a2 7f 3f 1d fc 7f 3f fd 6b 79 3f
       0.98642856 0.9985725 0.9999407 0.974304
000120 13 c4 87 3f 68 f1 7c 3f 7b ec 7b 3f ee 9d 83 3f
       1.0606712 0.98805857 0.98407716 1.0282571
000130 c6 01 7c 3f 97 a0 84 3f ac dd 79 3f da 48 7c 3f
       0.98440206 1.0361508 0.9760387 0.9854866
000140 dc 98 7d 3f 46 a2 73 3f 08 73 7f 3f b0 8b 81 3f
       0.9906137 0.95169485 0.997849 1.0120754
000150 4c 09 83 3f 14 84 7d 3f 36 90 83 3f 36 e1 7c 3f
       1.0237212 0.9902966 1.0278385 0.98781145
000160 59 0a 80 3f 5a da 86 3f 48 34 87 3f 80 ad 80 3f
       1.0003158 1.0535386 1.056283 1.0052948
000170 2b b5 86 3f 8d 30 7b 3f b9 33 7d 3f 46 24 7d 3f
       1.0524038 0.9812096 0.9890705 0.98883474
000180 16 ba 7b 3f e3 ae 6f 3f 31 1a 81 3f d2 3e 83 3f
       0.9833082 0.9362623 1.0086118 1.0253546
000190 f6 9d 7f 3f 21 c9 73 3f 02 72 7e 3f c4 bd 78 3f
       0.99850404 0.95228773 0.9939271 0.9716456
0001a0 93 ad 80 3f b5 c1 7f 3f f3 1d 84 3f a4 81 7e 3f
       1.0052971 0.9990495 1.032164 0.99416566
0001b0 af c5 76 3f 7f c6 74 3f cc 33 7e 3f a9 37 89 3f
       0.9639539 0.9561538 0.99297786 1.0720111
0001c0 19 f0 7c 3f b0 79 82 3f d4 09 87 3f 8a 95 74 3f
       0.9880386 1.0193386 1.0549874 0.9554068
0001d0 b2 83 82 3f e4 13 79 3f 8a 40 80 3f 18 09 83 3f
       1.019644 0.97295976 1.0019696 1.023715
0001e0 11 96 88 3f 43 a3 81 3f 8c d4 78 3f 57 93 7f 3f
       1.0670797 1.0127949 0.9719932 0.998342
0001f0 ee 9a 80 3f 3e 09 80 3f bb 37 7f 3f bb d9 7c 3f
       1.0047281 1.000282 0.9969441 0.9876973

main_network.1.bias f4 [128]
000000 c5 1d 4c ba cb d0 c4 3c 36 c1 ae bc a5 f2 0a 3d
       -0.00077864184 0.024025341 -0.021332365 0.03392281
000010 57 43 4f 3b 11 8d a7 3b cf eb b0 3a 10 72 4a 3c
       0.003162583 0.005113252 0.0013498011 0.012356296
000020 1c eb 6a 3c 54 ce f5 bc 3f e3 83 3c 1f 64 9d bc
       0.014338281 -0.030005611 0.01609957 -0.01921278
000030 90 dc 33 bd 87 ef 8b 3a ee f1 a1 3c 50 8e c9 bc
       -0.043911517 0.0010676243 0.019768681 -0.024603993
000040 88 d5 3f bd f8 ab f9 3c 8d ad 10 bd 1c dd 26 3d
       -0.0468345 0.030477509 -0.03532176 0.04073821
000050 57 24 07 bd 12 b7 4d 3c c6 66 d0 bc b5 d3 be bc
       -0.03299364 0.012555854 -0.025439631 -0.02329431
000060 26 e0 77 3d d2 51 2d bc 49 78 4a 3b 50 86 80 3c
       0.0605165 -0.0105785895 0.003089445 0.015689045
000070 86 d9 4b bc e3 5e 8f bc 6e 30 41 3d 95 16 5a bb
       -0.012441998 -0.0175013 0.047165327 -0.003327762
000080 0c 49 98 3b 68 36 21 bd 84 9f ab bc c9 26 10 ba
       0.0046473797 -0.039358526 -0.020950086 -0.00054989435
000090 09 53 08 bd 98 24 16 bc 7a f6 48 3b 2c e5 37 bc
       -0.033282313 -0.009163998 0.003066449 -0.011224072
0000a0 c9 ac 20 3b ad b9 fa bc 94 7b 71 3b b7 c1 c8 3c
       0.002451705 -0.030606115 0.003684734 0.024506433
0000b0 21 31 a7 3c f2 d9 b8 3b 75 93 c3 bc db f7 66 3d
       0.020409169 0.0056412155 -0.023874024 0.056388717
0000c0 7f 12 74 3c 24 a4 e5 bb 39 76 03 3d a3 23 88 bc
       0.014896988 -0.0070080925 0.032095168 -0.016618555
0000d0 da f1 92 bb 1e d9 1c bd 59 40 08 bd 6d a2 86 bc
       -0.0044843974 -0.038292997 -0.03326449 -0.016434873
0000e0 fb 16 06 bd ce e0 e5 bc 9b 68 ea 3c 41 fb 25 3d
       -0.03273676 -0.028061297 0.028614333 0.040522818
0000f0 e9 f8 b3 bb 05 f6 3b bc 44 87 0c bc 8c c2 2c 3d
       -0.005492319 -0.01147223 -0.008577172 0.04217772
000100 e2 15 03 3d 5b e7 0a bc 83 c6 2d 3c 47 c5 4f 3d
       0.03200329 -0.008478011 0.010606411 0.050725248
000110 98 fb 59 3c ef 85 0b 3d a6 34 a3 3b 46 d8 13 3c
       0.0133046135 0.034063276 0.0049806414 0.009023732
000120 b9 d3 24 3d c7 01 6c bc 9d d7 34 3c c8 58 39 3d
       0.040240977 -0.014404721 0.011037734 0.045250684
000130 df 4c ac bc 33 64 6f 3b 95 f6 83 bc 10 81 a7 bb
       -0.021032749 0.003652823 -0.01610879 -0.005111821
000140 e2 ac 92 3c 47 7a d0 bc 58 eb 0c bd 11 67 68 bc
       0.017904703 -0.025448931 -0.03440413 -0.014184729
000150 dd f2 ef 3c 7f 22 07 bd 3d 37 fd 3a 0f d9 4b bc
       0.02929061 -0.032991882 0.001931883 -0.0124418875
000160 cb f1 16 3d d8 35 8b bb 0b b7 c6 3c 2e 6b 57 3c
       0.036851685 -0.004248362 0.024257204 0.013148112
000170 9c 59 06 3d 7e 11 ba 3b f0 c4 66 3c c1 31 64 3c
       0.032800302 0.0056783548 0.0140850395 0.013927878
000180 85 0d a9 bc 2e 95 96 bd 1b 12 fe 3c 53 da b7 bb
       -0.02063633 -0.073526725 0.031014493 -0.005610743
000190 4e 01 02 3c b7 5a 9b bc c5 1d 6a bc ae 8d ff bb
       0.007934881 -0.018964155 -0.014289324 -0.007798872
0001a0 30 9f 23 bc e6 f1 96 3c 04 62 a9 3c 16 d7 eb 3c
       -0.009986684 0.018425893 0.02067662 0.028789084
0001b0 6e 67 99 bc 8a 6b 3c bc 91 23 a8 3c e0 0e 28 3d
       -0.018726077 -0.011500249 0.020524772 0.04102981
0001c0 b6 1b 26 bc 85 c0 93 3c 7f 15 bf 3c bd 53 56 bd
       -0.010138443 0.018036136 0.02332568 -0.052325953
0001d0 f7 f4 d6 3c ef 26 32 bd 5c fb 9a bc bb da 87 3b
       0.026239855 -0.04349416 -0.018918686 0.0041459478
0001e0 78 c8 36 3c d0 5b d2 3c dc 27 66 bc 57 b3 86 bc
       0.011156194 0.025678545 -0.014047589 -0.016442938
0001f0 f1 fc 8b 3c 06 40 af 3c a5 5a 30 bb 55 db 21 3b
       0.017088385 0.021392833 -0.0026909497 0.0024697382

main_network.1.running_mean f4 [128]
000000 44 ff fc 3b e5 59 fa bb a0 b6 7a 3d 54 e3 85 bd
       0.0077208597 -0.007640111 0.06120932 -0.065375
000010 e1 92 a0 3d c9 43 87 bc dc 9e 58 3d 23 76 b1 bc
       0.07840515 -0.016511815 0.052885875 -0.021662777
000020 41 5a db 3d e2 8d 5b 3d 93 3d e5 3d 5a 14 49 bd
       0.10710574 0.053602107 0.11193385 -0.049091674
000030 9f f4 62 bd 75 b2 a2 3c 5c b9 15 3d 8c e1 c3 3d
       -0.05540907 0.019860486 0.036553726 0.09564504
000040 90 93 91 3d bd e2 98 bc e7 06 cb 3c 93 dd 86 3d
       0.071082234 -0.018662805 0.024783565 0.06585231
000050 98 98 da 3c f1 6c b6 bc 0a e9 e3 3b 80 26 dc 3c
       0.02668409 -0.022268744 0.0069552707 0.026873827
000060 2c 02 9e bd 1a 7c 61 bb 93 9e 0c be 8b be 59 bd
       -0.07715258 -0.0034406246 -0.13732366 -0.05316023
000070 bd 2b 65 bc 5e 77 83 3d f0 29 88 3d 26 5f b8 3c
       -0.013987479 0.06419252 0.06648624 0.022506308
000080 be cb 98 3c c4 50 7b 3d 35 76 04 bc 5f 55 66 bd
       0.01865184 0.06135632 -0.008084823 -0.05623376
000090 06 65 82 3c 35 ac 31 bc ee 19 5b 3d 33 5f 01 bd
       0.015917312 -0.01084428 0.053491525 -0.03158493
0000a0 20 3d b7 3d 56 88 2b 3e 9b 7c 42 3d c8 c2 6b 3b
       0.089472055 0.16751227 0.047482114 0.0035974253
0000b0 72 0f bf bc 36 84 44 be 29 f3 60 3d e3 a3 26 bc
       -0.023322795 -0.1919106 0.054919396 -0.01017091
0000c0 68 9e ba 3c 8a 21 05 3d 82 bb d7 bd 81 c8 25 3d
       0.022780612 0.03250269 -0.10533811 0.04047442
0000d0 08 e5 bb 3d bb ad e2 3d 35 aa be bd 5a f3 17 bd
       0.091745436 0.11068293 -0.09309808 -0.037097313
0000e0 b0 c8 89 3c 9e c6 b9 3c a5 68 f2 3c 42 dc d0 3d
       0.016819328 0.022677716 0.029590914 0.10198261
0000f0 c1 43 d1 3d 2d b5 e8 3c 6f 4c 18 bc e1 10 5d 3d
       0.10218001 0.028406704 -0.009295567 0.053971175
000100 02 74 13 3d e1 b7 2c 3d 6c 76 3a 3c 35 c5 60 bd
       0.035999306 0.042167548 0.011380773 -0.05487557
000110 b2 f1 92 bd d7 3e 29 be b1 26 cc 3c 38 3a 01 3e
       -0.07175006 -0.16527878 0.024920793 0.12619865
000120 9f 0d 77 3d d7 40 d6 3c 86 8f 02 3c df 07 95 3d
       0.060315724 0.026153965 0.007968789 0.07276892
000130 69 da 9d bd cd 6c 60 3c d7 80 26 3d db 07 84 3c
       -0.07707674 0.013697815 0.040650215 0.016117027
000140 61 be e1 3a 9a 50 91 bc 68 c0 87 3d 0c 84 25 3d
       0.0017222875 -0.01773863 0.066284955 0.040409133
000150 1e 9e 5a bd 63 b0 80 3d 53 22 06 3d d6 23 44 3d
       -0.05337345 0.06283643 0.032747578 0.04788574
000160 3d 8d 7c 3d 12 7c 46 bd 5a 17 c3 3d 9b a3 1d bc
       0.061658133 -0.048458166 0.09525938 -0.009621526
000170 30 ee 7e bd 4a 3d 5c bd b2 de 22 ba 43 f8 67 bc
       -0.062238872 -0.053769387 -0.0006212994 -0.014158311
000180 11 d0 c3 3c 73 04 be 3c 8d 52 23 bd 80 ad ad 3d
       0.023902925 0.02319548 -0.03987365 0.08480358
000190 99 d3 fc 3c 93 78 47 3d 94 3b 9a 3c 34 95 0d be
       0.030862616 0.048698973 0.018827237 -0.13826448
0001a0 2e bd 74 3d 00 b9 79 3b 34 36 87 3d d0 06 6d bd
       0.05975073 0.0038104653 0.06602135 -0.057867825
0001b0 4e 46 b5 bd c7 de 81 3d f8 7a b8 3d 97 ca 53 3c
       -0.088513 0.063413195 0.090078294 0.012926719
0001c0 d3 bd 0f 3c 9a 81 ef bc ff db 54 bc 90 1a cf 3d
       0.008773285 -0.029236604 -0.012991904 0.10112488
0001d0 c3 74 ca bb 53 a4 24 3c f2 94 fa bc 1b 53 db bb
       -0.00617847 0.010048944 -0.0305886 -0.0066932566
0001e0 e2 aa f7 3d 2f bc 61 bd d9 bc b4 bd 77 6b 8e 3c
       0.1209314 -0.055111106 -0.08825082 0.017385228
0001f0 25 44 08 3d b8 58 34 3d d1 c0 41 bd 90 d3 5c bd
       0.033268113 0.04402992 -0.047303025 -0.0539127

main_network.1.running_var f4 [128]
000000 72 d9 21 3e ca 62 e9 3e 00 91 02 3f 74 da 9c 3d
       0.15805605 0.45583183 0.510025 0.07658854
000010 c2 9c ba 3e 8a c7 02 3f 55 2a 23 3f d5 93 43 3e
       0.36447722 0.5108572 0.6373647 0.19099362
000020 60 13 19 3e 2f 1c 3c 3e c3 8c 0f 3f a3 df bb 3d
       0.14948797 0.18370126 0.5607416 0.09173515
000030 0a e1 3f 3e 34 58 5a 3e 60 25 b6 3e 14 e5 66 3e
       0.1873819 0.2132271 0.3557539 0.22548324
000040 a1 db 43 3e fd 56 8c 3e 8e 79 0a 3f a0 56 ac 3d
       0.1912675 0.27410117 0.5409173 0.0841496
000050 3c b5 f4 3e 05 e8 74 3d 6f 48 cc 3e 95 c1 a4 3e
       0.4779452 0.059791584 0.39899012 0.3217894
000060 b4 b0 bc 3d 1a ab 28 3f 25 08 80 3f e8 7f 17 3e
       0.09213391 0.6588608 1.0002486 0.14794886
000070 92 20 fd 3e 76 ef 31 3e 63 8d b5 3e 84 13 23 3e
       0.49438912 0.17376503 0.35459432 0.15925413
000080 73 ca 52 3e 33 4c 5e 3f d5 17 3f 3e 3f 70 66 3e
       0.20585041 0.8683502 0.18661435 0.22503756
000090 b5 5e fc 3e 13 d6 06 3e 06 a9 84 3e 2c 3f 34 3e
       0.49291006 0.131676 0.25910205 0.17602223
0000a0 60 44 de 3e 1e 4f 87 3e 67 2a 29 3e 2c f3 38 3e
       0.4341154 0.2642755 0.16520081 0.18061513
0000b0 75 26 04 3f 3a 7b 0c 3e 3b 40 e0 3e 99 5f f1 3d
       0.5162118 0.13718882 0.43799004 0.11785812
0000c0 7f d3 1d 3f da 7e 3e 3e 79 38 c5 3d 84 76 09 3e
       0.6165084 0.18603078 0.09629912 0.13424116
0000d0 56 e3 a1 3e d1 b2 9d 3e 02 ba 0d 3e 75 94 8a 3e
       0.31618756 0.3080049 0.13840488 0.2706639
0000e0 10 7e 0a 3f 37 4b 3d 3e fc 87 98 3e 77 3d be 3e
       0.54098606 0.18485723 0.29791248 0.3715627
0000f0 95 bb 77 3e 41 a2 d4 3d 3f 47 96 3e 9f d4 57 3e
       0.2419265 0.1038251 0.2935123 0.21077202
000100 e7 72 8a 3e de 50 e4 3d 0c 7e 57 3e ea 1f 99 3e
       0.2704079 0.11148237 0.21044177 0.2990716
000110 3e 27 bf 3e 86 30 0c 3f ca 8e 77 3e 3d 89 23 3f
       0.37334627 0.5476154 0.24175563 0.63881284
000120 6a fe 0f 3e cd 0c f5 3d 65 71 78 3e 02 d0 cf 3e
       0.14061895 0.11965332 0.24262007 0.40588385
000130 93 8d fb 3e f5 2b 8f 3d 91 cb 52 3e d6 ac 8d 3e
       0.4913145 0.06990806 0.20585467 0.27670926
000140 6f 69 57 3e b4 c4 81 3e b8 d4 cd 3d 49 2e 20 3e
       0.21036313 0.25345385 0.100503385 0.15642656
000150 85 b0 aa 3e 14 5e c5 3e 09 a4 26 3e c1 f9 36 3e
       0.333378 0.38548338 0.16273512 0.17868711
000160 35 cc 47 3f 3e eb 89 3e a5 35 15 3e 4c d5 bc 3e
       0.7804597 0.26937288 0.14571245 0.36881483
000170 5e e8 26 3f d7 43 bb 3e 4d b6 5d 3e 9c 5d 5b 3e
       0.65198314 0.36575195 0.21651573 0.21422428
000180 2b bb 60 3e 51 e2 b6 3e 58 80 12 3e 35 d7 71 3e
       0.21946399 0.3571954 0.14306772 0.23617251
000190 86 1e 07 3f 53 04 29 3e 43 d8 8f 3e 07 3a 9a 3e
       0.5278095 0.16505556 0.28094682 0.30122396
0001a0 a3 ec 3d 3e 99 53 d3 3e d9 7e 24 3e a4 dc 67 3e
       0.18547301 0.41274717 0.16064014 0.22642761
0001b0 5d dd 04 3f 18 cd 13 3f 3e ba df 3e 22 35 86 3e
       0.51900274 0.57734823 0.4369678 0.26212412
0001c0 3e 7e ca 3e 4c da 6a 3e 16 1c 5d 3e 24 a7 33 3f
       0.3954944 0.22934836 0.21592745 0.7017691
0001d0 ec 49 8c 3e 5a 1c 1a 3e b1 2c e4 3e 06 38 df 3d
       0.27400148 0.15049878 0.44565347 0.108993575
0001e0 38 9f 05 3e e9 aa 3a 3e ff 70 89 3e 04 93 49 3e
       0.13049018 0.1822926 0.26844022 0.19684988
0001f0 01 60 8a 3f 81 78 3c 3f 5f 77 8f 3e 19 6a 1a 3f
       1.0810548 0.73621374 0.2802076 0.6031814
