XGBoost/best_model_resnet44.pth (torch, 120949 bytes, 47 tensors)

model_embedding.weight f4 [32, 12]
000000 e9 dd 99 3e 7f 37 8f 3d 1c f0 34 be 65 cc d4 3d
       0.30052117 0.06993007 -0.1766972 0.10390548
000010 4c 81 01 be d1 e7 2c 3d d5 34 8d be c5 65 db 3c
       -0.12646979 0.042213265 -0.2757937 0.026781926
000020 9c 84 9e 3c d3 67 05 be 75 5b 54 3e 7b 86 43 3e
       0.019350342 -0.13027887 0.20738013 0.19094269
000030 b2 37 97 3e 44 de 39 3e 1d db 61 bd 06 11 2b 3c
       0.2953468 0.18151194 -0.055140603 0.01044107
000040 84 a9 84 be 06 1a 77 be b7 f3 33 be 51 61 85 bd
       -0.2591058 -0.24131021 -0.17573439 -0.06512702
000050 c8 26 71 bb 1a 0a 36 be 92 00 01 3e d8 a5 2a 3e
       -0.0036796797 -0.17777291 0.12597874 0.16664827
000060 53 9b 26 3e 91 ac 3d 3e 58 8d 89 3e ed bf a7 be
       0.16270189 0.1852286 0.2686565 -0.32763615
000070 9a b4 6c 3e d4 6e ed bd 22 51 c0 3c da 04 84 3e
       0.23115769 -0.115934044 0.023476187 0.2578495
000080 bb 12 16 b8 a4 67 91 be ed 7c 3b bd 78 48 01 be
       -3.578023e-05 -0.28399384 -0.045773435 -0.12625301
000090 03 ef 6e bd 9a 68 79 3e 0e 46 3c 3e 25 3a 58 3e
       -0.058333408 0.24356309 0.18386099 0.2111593
0000a0 be cc 7f be 1d 09 68 be a4 12 56 bc 28 2b 55 3e
       -0.24980447 -0.22659726 -0.013065968 0.20817244
0000b0 d0 c9 97 bb 7e b0 27 bd bb 38 9a bd ef ef 07 3e
       -0.004632212 -0.0409398 -0.07530352 0.13275121
0000c0 6a ae 15 be 46 d7 46 be 00 ec 2b bd ac f5 88 3e
       -0.14617315 -0.19418058 -0.041973114 0.26749933
0000d0 73 94 08 3d 5b 3a 4f bd 27 92 5c be 77 41 33 bd
       0.033344697 -0.05059276 -0.21540128 -0.043763604
0000e0 55 fb 30 b2 17 a3 68 be de e6 74 be f9 55 04 3e
       -1.0301695e-08 -0.22718464 -0.23916194 0.12923421
0000f0 3b a4 7c 3e a7 3b 84 be af f2 9e 3c 44 74 cb bc
       0.24672024 -0.2582676 0.01940283 -0.024835713
000100 09 c8 65 be c3 bf b8 bd 72 a7 89 be 0d ec ed 3d
       -0.22439589 -0.09020951 -0.26885563 0.11617289
000110 58 28 47 38 88 a9 94 3d 86 3f 18 3e d4 02 92 3e
       4.748287e-05 0.07258898 0.14867982 0.28517783
000120 a4 5e 8a 3c c0 49 8a 3a ee 10 80 be 73 59 46 3e
       0.016890831 0.0010550544 -0.25012916 0.1937006
000130 8a 28 02 be 39 d8 02 3e e5 a0 1d 3e bd da 61 3e
       -0.12710777 0.12777795 0.15393408 0.22056098
000140 60 2d 01 3b ec 4b 93 3e d9 f6 0e be 8b 02 03 3d
       0.0019710883 0.2876886 -0.13961352 0.031984847
000150 26 0e 77 3d 18 68 36 be c8 9f f2 bd bd 53 42 3e
       0.060316227 -0.17813146 -0.11846882 0.18977256
000160 6b b5 a6 be 24 bc 99 3e b7 12 82 3e de 1e 0c 3d
       -0.32560286 0.30026352 0.25404903 0.034209125
000170 b8 0c 8b ba bf 02 2c 3e 5f ea aa 3d b9 65 a6 bd
       -0.0010608649 0.16797923 0.08345484 -0.08124871
000180 3c 25 d2 bd cc 0f ca 3b 5a 04 e0 3c d8 bd c2 3c
       -0.10261008 0.006166434 0.027345825 0.023772165
000190 0c 4b b3 bd f2 c6 84 be e3 c6 8e be 60 55 58 3e
       -0.087545484 -0.25933033 -0.27886114 0.21126318
0001a0 88 14 c1 af a5 bf 90 be 98 c7 e2 bd 4d f4 35 bd
       -3.5121084e-10 -0.28271213 -0.11073226 -0.044422437
0001b0 84 14 6d bd 7b 1f 29 be a3 14 cb bd 5a e5 ea bd
       -0.057880893 -0.16515915 -0.099160455 -0.114695266
0001c0 5b 1c 2c be 07 4c ed 3d 02 56 17 be f5 ac 5d be
       -0.16807692 0.11586767 -0.14778903 -0.21648009
0001d0 64 e2 29 3c 81 02 aa bd d6 9d 60 3e 56 e1 b8 3d
       0.010368917 -0.08301259 0.2193521 0.090273544
0001e0 f5 5a 99 bd fb ff 93 be a3 77 07 bd 4f b9 49 3d
       -0.07488052 -0.28906235 -0.03307308 0.04924899
0001f0 c1 71 35 3e 50 a4 3f 3e 01 ef a3 3d 71 c5 b8 bc
       0.17719175 0.18715024 0.08004571 -0.022555085
000200 ef a6 20 31 f4 fe 8f be 2a 4e e7 bd 08 f4 55 be
       2.3377955e-09 -0.281242 -0.112942055 -0.20893872
000210 85 97 22 3e 5a 2b 58 bd cd d1 47 bd e7 bb b5 3e
       0.15878113 -0.05277572 -0.048784066 0.3549492
000220 ac 0d be 3d 27 41 bb bd 97 2c 68 3e 2e 28 78 bd
       0.092799515 -0.09143286 0.2267326 -0.060585193
000230 5c 5d de 38 0d af 75 bb 95 95 b4 3d 17 6a 93 be
       0.000106031745 -0.0037488372 0.08817593 -0.28791878
000240 25 00 60 3e ad 72 30 3e e6 c7 1d be 0b 64 45 be
       0.21875055 0.17231245 -0.15408286 -0.19276445
000250 fc 14 9c be 7a 60 01 be 4c fb 5c 3e d1 fb 38 3e
       -0.3048476 -0.12634459 0.21580237 0.1806481
000260 e1 1e c8 2f 69 3c 20 3c 97 11 1a be d4 57 97 3d
       3.640173e-10 0.009780028 -0.15045772 0.07389799
000270 21 db 4d be 1f ad 65 bd 21 b0 33 3e 64 3b 33 bd
       -0.20103122 -0.056073304 0.17547657 -0.04375781
000280 56 65 ba bd a1 98 00 be 51 a2 48 be 40 5c f5 bd
       -0.091013595 -0.12558223 -0.19593169 -0.11980486
000290 22 73 9d 3a 8b 63 78 be 09 b8 27 3e 88 f8 eb bd
       0.0012012462 -0.24256723 0.16378798 -0.11522013
0002a0 62 ba 79 3e 2a 54 8b 3e 22 1c 61 be df 1d 66 bd
       0.24387506 0.2721265 -0.21983388 -0.05618083
0002b0 42 91 0a 3e 33 7e 6d 3e 88 e7 7f 3e ed f8 84 3d
       0.13531974 0.23192672 0.24990666 0.06492791
0002c0 50 4b ec bc 06 8a de 3d 67 11 75 3d d6 63 5b be
       -0.028844506 0.1086617 0.05983105 -0.21424803
0002d0 8c 99 df 3d 8d 24 1e 3e 09 77 41 3e bc 65 db 3d
       0.109179586 0.1544363 0.18893065 0.10712764
0002e0 2f 85 cb bc b2 96 81 be bb 85 b7 bd 68 35 fa bd
       -0.02484378 -0.25310284 -0.08961054 -0.12217218
0002f0 66 f0 ca 32 53 47 40 3e 12 ea 83 3e 5d 2a fb 3d
       2.3625216e-08 0.18777208 0.2576452 0.122639395
000300 d0 b0 14 bd 28 cc e4 3c c7 6a 3d be fb 47 ae 3e
       -0.036301434 0.02792938 -0.18497764 0.34039292
000310 9d df 9f 3e 28 69 10 bd f8 30 79 3d d7 c5 83 be
       0.3122529 -0.035256535 0.060837716 -0.25736877
000320 c0 63 69 30 16 cd 4f 3d b9 f3 8a be 9b 82 a6 be
       8.490666e-10 0.050732695 -0.2713907 -0.3252152
000330 53 0c 21 3e 5d fc e0 bd 24 62 89 3e 23 5a 21 3e
       0.15727358 -0.109856345 0.26832688 0.1575704
000340 96 ce 2b bd 0e 3b 20 3e 3b 0a 88 3e 27 65 04 be
       -0.041945063 0.15647528 0.26570305 -0.12929212
000350 04 c2 6c 2f 93 0c ce 3c db b7 87 be 90 58 43 be
       2.1533003e-10 0.02515248 -0.26507458 -0.19076753
000360 f4 b2 4a 3e a8 fc 84 bc 15 12 5e 3e 83 a2 bb bd
       0.19794828 -0.016233757 0.21686585 -0.09161856
000370 0e fa 15 3e 2b 44 55 be 1e 62 01 3e b1 85 98 3e
       0.1464617 -0.20826785 0.12635085 0.29789498
000380 ea 52 5a b0 2d e6 d7 3d 82 ea 02 3d ac e4 89 bd
       -7.9425766e-10 0.105419494 0.031961925 -0.06733069
000390 5b 3d 26 3e 4d fe 76 bc 2b a4 89 bd e0 06 c0 be
       0.16234343 -0.0150752785 -0.06720766 -0.37505245
0003a0 4b 61 42 be ef d1 2b 3e ac ba 74 3e 9f 9d c8 bd
       -0.18982427 0.16779302 0.23899335 -0.09795689
0003b0 53 a4 ca bc 9d bc b7 3c 57 4c 2f bc e8 9a 56 3e
       -0.024736559 0.022428805 -0.010699353 0.2095753
0003c0 8c 9b 7d 3c 0c f1 60 bd a8 fe 61 bd 74 73 a5 3a
       0.01547898 -0.05491738 -0.0551745 0.0012622909
0003d0 de a7 a8 bb 42 3a d8 3d 54 fa 92 3d 87 6b 80 3e
       -0.0051469645 0.10557987 0.071766526 0.25082037
0003e0 a6 cd 53 bc d9 3e 09 be fe 6c 31 3e f7 f4 86 3d
       -0.012927448 -0.1340288 0.17326733 0.06589692
0003f0 8c d0 63 3d 48 7c af bd ed 3e 9e be db 96 be 3e
       0.055618808 -0.08568627 -0.30907384 0.3722447

model_embedding.bias f4 [32]
000000 5d ff 1d b8 30 37 16 37 1e b8 c9 b7 60 a1 31 3d
       -3.7669543e-05 8.953546e-06 -2.4046803e-05 0.04336679
000010 28 45 13 37 e1 1b 19 38 49 8c 44 bc d5 62 f6 36
       8.7779845e-06 3.6504007e-05 -0.011996337 7.342877e-06
000020 2c ad 3f b6 93 c4 fe 37 a4 fb c2 b7 6c 50 2a bd
       -2.8562017e-06 3.0370697e-05 -2.3243781e-05 -0.041580603
000030 12 52 0e bb 24 a7 a8 36 4c c0 f7 bc bf d8 a1 ba
       -0.0021716398 5.026248e-06 -0.030243061 -0.001234792
000040 33 de d7 39 6c 77 84 b7 5a 8d 25 bd 1a 97 07 38
       0.00041173547 -1.5791236e-05 -0.040418006 3.2327232e-05
000050 70 c4 96 3c 86 e3 df bc 51 a1 00 3b df be 15 bc
       0.018404216 -0.027330171 0.0019627402 -0.0091397455
000060 76 bf ed bb 0c 99 fc 37 bd 8a a3 bc 4e 5d 91 3c
       -0.00725549 3.0112009e-05 -0.019963617 0.017744686
000070 af b4 3b bb fd 97 cc bc 6c ca 96 3b 3a 6f 16 b8
       -0.0028641631 -0.024974817 0.0046017673 -3.5866375e-05

dataset_embedding.weight f4 [16, 3]
000000 21 31 22 3f 0e 31 3c bd bb b0 bb 3e f8 9e d6 3e
       0.63356215 -0.04594522 0.36658272 0.4191816
000010 36 63 16 bf bc b4 b4 be 4b 41 24 be d9 7e 1e 3f
       -0.58745134 -0.3529414 -0.16040532 0.61912304
000020 35 f2 d4 3e 17 57 9b be cf 07 af 3e d8 12 8d 3e
       0.4159104 -0.30339882 0.34185645 0.2755344
000030 72 55 d2 be 14 55 e0 3e 40 b1 07 bf 60 a7 08 bf
       -0.41080815 0.4381491 -0.5300484 -0.53380394
000040 95 a9 ec 3e ef 16 9f bc 06 56 cf be a4 5c e0 3e
       0.4622313 -0.019420115 -0.40495318 0.4382068
000050 fc bb da 3d 76 17 bb 3e 60 80 77 3d 10 2d 15 3f
       0.106803864 0.36541337 0.060425162 0.58271885
000060 1c 6a e1 3e cf a7 11 3e 20 34 ee be d6 24 49 be
       0.44026268 0.1422417 -0.46524143 -0.19642958
000070 7a 73 c4 3e 19 f5 06 be c7 24 18 3f 18 86 00 bd
       0.38369352 -0.13179435 0.5943112 -0.03137788
000080 61 98 3a bd ea d5 2a bd f7 a4 cc be bd c5 c6 3e
       -0.045555476 -0.04170791 -0.39969608 0.38822737
000090 a8 5d 88 be 68 7c 69 3e 97 03 f3 3e 75 ec ad 3e
       -0.26633954 0.22801363 0.47463676 0.33969465
0000a0 e2 d2 52 bd 18 97 84 be 89 08 b8 be b9 f3 52 3d
       -0.051470645 -0.25896525 -0.35944012 0.051501963
0000b0 cc 65 af be 10 23 98 bd 58 4a c4 3e 77 49 df be
       -0.34257352 -0.07428563 0.3833797 -0.43610737

dataset_embedding.bias f4 [16]
000000 3b bc 81 b5 9d 93 21 3d 6d bf 15 3d 5f 48 8e be
       -9.666031e-07 0.039447416 0.03655951 -0.2778959
000010 a6 04 54 be 78 bf 79 be 42 b1 ff bd ad c7 a3 3c
       -0.20704898 -0.24389446 -0.12484981 0.019992674
000020 95 7f b6 3d 21 2d 9f 36 02 73 ca bb bc e1 80 3d
       0.08911053 4.743823e-06 -0.006178261 0.062930554
000030 97 5a 4e b8 ad aa 6b bc 96 af a0 b7 33 09 22 be
       -4.9198596e-05 -0.014383954 -1.915525e-05 -0.15823822

tensor_network.0.weight f4 [16, 1]
000000 fd 0b 48 b8 1f 12 62 bb 31 23 08 bb b8 be 93 bd
       -4.769488e-05 -0.0034495664 -0.002077293 -0.07214111
000010 ac e0 68 3c 76 3a 9f b2 55 50 85 3e 92 58 f4 bd
       0.014213722 -1.8536621e-08 0.2603785 -0.11930956
000020 89 89 dc 3d c4 8d b2 3e 3c 69 2d be 79 13 0f 3e
       0.1076842 0.34873784 -0.16934675 0.13972272
000030 c6 d0 47 bd 6f 72 77 be 9b 56 00 3c b8 67 a4 3e
       -0.048783086 -0.24164747 0.007833148 0.3211038

tensor_network.0.bias f4 [16]
000000 6d 0c 81 bb 4c ff 2f be 0d 6d 2b bf 05 8b 40 3f
       -0.003938249 -0.17187232 -0.66963273 0.75212127
000010 78 8b 27 3e 12 3c b5 be 1c fb 1a 3c 99 87 27 bf
       0.16361797 -0.35397393 0.009459283 -0.6544128
000020 4a 8d 04 bf 05 a3 ba 3e 42 9d 29 3f 93 77 56 bf
       -0.5177809 0.364525 0.6625558 -0.83776206
000030 a6 29 db 3c bb 41 1a bd e0 a4 44 39 66 87 fe be
       0.026753258 -0.03766034 0.00018753437 -0.49712676

tensor_network.2.weight f4 [16]
000000 78 2f 2e 3f 78 2f 2e 3f 78 2f 2e 3f ab 45 81 3f
       0.6804118 0.6804118 0.6804118 1.0099386
000010 16 ff 74 3f 78 2f 2e 3f 5c 94 7a 3f 78 2f 2e 3f
       0.9570173 0.6804118 0.9788263 0.6804118
000020 e2 da 77 3f 50 e7 7c 3f 0d aa 7a 3f 19 70 7c 3f
       0.96818364 0.98790455 0.97915727 0.9860855
000030 07 45 79 3f 78 2f 2e 3f 4a 6d 79 3f b5 c9 7c 3f
       0.9737095 0.6804118 0.97432387 0.9874528

tensor_network.2.bias f4 [16]
000000 96 2d 5a 30 a4 bf e1 2e 06 d6 e2 2f 03 d9 35 37
       7.937272e-10 1.02658576e-10 4.1261233e-10 1.0838968e-05
000010 82 c2 79 b7 1e c0 1f 2f 15 ce 06 b7 88 27 95 af
       -1.4886844e-05 1.452922e-10 -8.035005e-06 -2.713103e-10
000020 87 dc 9d 37 b0 47 f2 37 b1 33 20 b7 4b 36 73 b8
       1.881855e-05 2.888203e-05 -9.5487785e-06 -5.798628e-05
000030 da b5 3f b8 43 12 89 ae db 35 e2 b7 5c 07 31 b8
       -4.570731e-05 -6.2332826e-11 -2.6966378e-05 -4.2206942e-05

tensor_network.2.running_mean f4 [16]
000000 00 00 00 00 00 00 00 00 00 00 00 00 5f 2b ce 3e
       0.0 0.0 0.0 0.40267465
000010 33 b2 d0 40 00 00 00 00 58 1f ef 42 00 00 00 00
       6.521753 0.0 119.56122 0.0
000020 a7 8d 40 42 ae af 1f 43 d5 4c a0 3e 18 fd 75 42
       48.138332 159.68625 0.31308618 61.49716
000030 22 0a 42 3c 00 00 00 00 ef 31 4d 40 f0 f8 0d 43
       0.011843236 0.0 3.2061727 141.97241

tensor_network.2.running_var f4 [16]
000000 ca 76 09 25 ca 76 09 25 ca 76 09 25 10 79 00 3e
       1.1923103e-16 1.1923103e-16 1.1923103e-16 0.12546182
000010 a5 65 b0 43 ca 76 09 25 80 ef f3 47 ca 76 09 25
       352.7941 1.1923103e-16 124895.0 1.1923103e-16
000020 2f a5 9f 46 11 86 58 48 c0 87 d7 3d 22 83 02 47
       20434.592 221720.27 0.10523939 33411.133
000030 eb d4 3d 39 ca 76 09 25 04 47 ba 42 3b 5c 2c 48
       0.00018103763 1.1923103e-16 93.1387 176496.92

worker_network.0.weight f4 [16, 1]
000000 44 7d 2d 3f 36 da 51 be 43 ac 8e be 7a 04 b5 3e
       0.67769265 -0.20493397 -0.278658 0.35354978
000010 aa 8e 61 3f 89 61 38 3f 80 28 61 3f a1 61 5f be
       0.88108313 0.72023827 0.87952423 -0.21814586
000020 a2 95 5b bc 3f a3 ea be 4a ef 42 3d 11 cb 78 bd
       -0.013402374 -0.45827672 0.047591485 -0.060740534
000030 f3 26 29 3f 46 92 0f 3f cb 68 95 be e2 0c c1 3d
       0.66075057 0.5608257 -0.29181513 0.09426285

worker_network.0.bias f4 [16]
000000 73 19 54 bf fd 6f bf 3e 4c 94 a2 bb 9f d2 1f 3f
       -0.8285133 0.37390128 -0.004961526 0.6243076
000010 0c 91 7f be 39 4b 75 be a8 11 11 be ce 2e 15 3f
       -0.24957675 -0.23954476 -0.14166892 0.58274543
000020 01 0a bc bc 5d 1a ac be 6f 4b 8f 3d 7c 6f 12 bf
       -0.022953989 -0.33613864 0.0699681 -0.5720136
000030 04 81 b5 bc 72 cf b6 3e 8a bc df be b4 af 3a be
       -0.022156246 0.35705143 -0.4369853 -0.18231088

worker_network.2.weight f4 [16]
000000 39 c3 78 3f 6b 0d 7b 3f b4 73 3f 3f b2 e6 7a 3f
       0.97172886 0.9806735 0.74785924 0.98008263
000010 ca 47 7d 3f 87 63 78 3f 7c 2e 7b 3f 72 60 77 3f
       0.98937666 0.97026867 0.98117805 0.9663154
000020 78 2f 2e 3f 78 2f 2e 3f 43 59 7a 3f 78 2f 2e 3f
       0.6804118 0.6804118 0.9779245 0.6804118
000030 d7 f2 7a 3f ef ce 7a 3f 78 2f 2e 3f 23 31 78 3f
       0.98026794 0.97972006 0.6804118 0.96949977

worker_network.2.bias f4 [16]
000000 a3 a0 31 b7 40 04 8a b8 f2 2f 8f b7 e5 bc 18 38
       -1.0587423e-05 -6.5811444e-05 -1.7069255e-05 3.6415546e-05
000010 3b 62 a2 37 69 d9 ef 37 3c 39 16 38 5c 04 2b b7
       1.9357647e-05 2.859226e-05 3.581609e-05 -1.0193409e-05
000020 9f d2 66 af 5f e6 55 ae 46 95 2a b8 6e b6 c3 af
       -2.0993206e-10 -4.8635204e-11 -4.067018e-05 -3.5599917e-10
000030 36 de 3a b7 d9 97 05 b8 53 68 47 b0 e3 1d 29 37
       -1.1138201e-05 -3.185109e-05 -7.254403e-10 1.00801435e-05

worker_network.2.running_mean f4 [16]
000000 d7 99 13 40 5c 25 2a 3e fb ac d5 1c 93 35 07 40
       2.3062646 0.16615814 1.4139872e-21 2.112645
000010 a5 48 5e 40 f6 80 34 40 35 12 61 40 ea ce 92 3e
       3.4731839 2.8203712 3.5167363 0.28673488
000020 00 00 00 00 00 00 00 00 bd 34 8c 3e 00 00 00 00
       0.0 0.0 0.27383986 0.0
000030 e0 df 2b 40 7a a5 2c 40 00 00 00 00 ff 7f 92 3e
       2.6855392 2.6976 0.0 0.28613278

worker_network.2.running_var f4 [16]
000000 8b 52 32 41 b7 d2 11 3d ca 76 09 25 ce dc 6e 40
       11.145152 0.035601344 1.1923103e-16 3.7322268
000010 28 89 ab 41 f9 ed 63 41 03 cf ac 41 b0 e3 99 3d
       21.44197 14.245599 21.60108 0.07514131
000020 ca 76 09 25 ca 76 09 25 7c 26 8b 3d ca 76 09 25
       1.1923103e-16 1.1923103e-16 0.0679445 1.1923103e-16
000030 4a f3 45 41 87 6a 14 41 ca 76 09 25 90 b8 4c 3e
       12.371897 9.276008 1.1923103e-16 0.1999228

batch_network.0.weight f4 [16, 1]
000000 b9 66 97 3d cf 66 be be a8 b9 95 3c bc d4 d2 3e
       0.0739264 -0.37187812 0.018277004 0.41177928
000010 39 e1 89 3c 2a b6 c9 be 1c 79 37 3f 95 57 10 3f
       0.016831027 -0.39396793 0.71669173 0.5638364
000020 b9 95 77 bd 8d e9 fb bc 44 24 06 be b4 3a 35 be
       -0.06044552 -0.030751014 -0.13099772 -0.17698175
000030 34 51 e0 bd 59 70 50 bd 98 97 6f bd 1e cb ca 3e
       -0.10952988 -0.050888393 -0.05849418 0.3960809

batch_network.0.bias f4 [16]
000000 ed df 39 3e 86 c1 8e be ba a2 8e 39 11 28 4e bf
       0.18151827 -0.27882022 0.0002720559 -0.80529886
000010 70 c9 75 3d 14 c8 cb 3e 73 6d 25 bf 78 7f ca 3c
       0.06000656 0.39801085 -0.6462013 0.024718985
000020 b2 17 12 bf d4 0b 6d ba 31 b4 5a bc 91 f8 98 3e
       -0.57067406 -0.0009042595 -0.013348625 0.2987714
000030 26 cc 3e 3e c6 20 7a b8 a3 38 15 bf 6c fb 22 bf
       0.18632564 -5.9635167e-05 -0.58289546 -0.6366489

batch_network.2.weight f4 [16]
000000 e5 90 7b 3f 78 2f 2e 3f e6 0c 82 3f 10 d9 7d 3f
       0.98267967 0.6804118 1.0160186 0.99159336
000010 4f f3 73 3f e8 5a 7e 3f 71 ea 73 3f bf d9 7e 3f
       0.95293134 0.9935746 0.95279604 0.99551004
000020 78 2f 2e 3f 78 2f 2e 3f 78 2f 2e 3f d3 de 79 3f
       0.6804118 0.6804118 0.6804118 0.9760563
000030 c9 f6 7f 3f 78 2f 2e 3f 78 2f 2e 3f 3f 81 7f 3f
       0.9998594 0.6804118 0.6804118 0.9980659

batch_network.2.bias f4 [16]
000000 cf b7 89 b8 63 2e 05 af b6 36 0a 38 59 d4 e4 36
       -6.566906e-05 -1.211276e-10 3.2952717e-05 6.81965e-06
000010 16 ce 66 38 3f 82 6d b7 49 99 96 b8 5b 16 59 b7
       5.5028206e-05 -1.4156626e-05 -7.181109e-05 -1.2939413e-05
000020 e0 9b 96 ae 43 bd 5e af cc d7 25 af 9c 41 54 38
       -6.848899e-11 -2.0258022e-10 -1.5083329e-10 5.0605842e-05
000030 dc a6 4c b7 4f ec 26 b0 bd ed 56 2f 96 88 42 38
       -1.21981975e-05 -6.0726263e-10 1.9547648e-10 4.638041e-05

batch_network.2.running_mean f4 [16]
000000 c1 2d d5 41 00 00 00 00 5c f8 c6 40 0d b3 0b 43
       26.64734 0.0 6.2178173 139.69942
000010 a0 49 ce 40 4d de 66 3e f9 cb 72 43 f4 0a 41 43
       6.4464874 0.22545739 242.79677 193.04279
000020 00 00 00 00 00 00 00 00 00 00 00 00 03 71 2e 3e
       0.0 0.0 0.0 0.17035298
000030 be 7f d1 3d 00 00 00 00 00 00 00 00 85 3b 06 43
       0.10229443 0.0 0.0 134.2325

batch_network.2.running_var f4 [16]
000000 f5 13 07 46 ca 76 09 25 4d 27 ed 43 f0 e7 6a 48
       8644.989 1.1923103e-16 474.30704 240543.75
000010 7b 88 fe 43 4b 7a 2b 3d 95 ea 30 49 33 52 df 48
       509.06625 0.041864675 724649.3 457361.6
000020 ca 76 09 25 ca 76 09 25 ca 76 09 25 ff c9 c3 3c
       1.1923103e-16 1.1923103e-16 1.1923103e-16 0.02390003
000030 f5 3d 0d 3c ca 76 09 25 ca 76 09 25 52 ad 58 48
       0.008620729 1.1923103e-16 1.1923103e-16 221877.28

ps_network.0.weight f4 [8, 1]
000000 a6 50 c7 30 42 cb af 3c e0 8c ae be db 23 8b be
       1.4502077e-09 0.021459226 -0.34091854 -0.27175793
000010 14 22 44 be 44 5f 0b bf 64 d5 06 3f 96 58 9e b7
       -0.19153625 -0.5444224 0.5266936 -1.8876319e-05

ps_network.0.bias f4 [8]
000000 db aa 1e bf e1 6a 08 bf 7a 43 96 be be 59 a5 be
       -0.61979455 -0.53288084 -0.29348356 -0.3229503
000010 3a 4b 93 3c 78 c6 50 3e 94 c7 34 3b af b5 a4 bd
       0.017980207 0.2038821 0.0027584778 -0.08042466

ps_network.2.weight f4 [8]
000000 78 2f 2e 3f 78 2f 2e 3f 78 2f 2e 3f 78 2f 2e 3f
       0.6804118 0.6804118 0.6804118 0.6804118
000010 9e d4 76 3f 27 1b 75 3f d7 d6 7b 3f 78 2f 2e 3f
       0.9641818 0.95744556 0.98374695 0.6804118

ps_network.2.bias f4 [8]
000000 cd 1e 2c b0 21 cc 9b 2f c2 cc d9 2e b5 37 8a 30
       -6.2617006e-10 2.8339378e-10 9.90439e-11 1.0056654e-09
000010 73 58 e2 b7 58 b0 42 b8 fe cd 9c b6 c6 36 52 2f
       -2.6982487e-05 -4.6417437e-05 -4.673143e-06 1.9118848e-10

ps_network.2.running_mean f4 [8]
000000 00 00 00 00 00 00 00 00 00 00 00 00 00 00 00 00
       0.0 0.0 0.0 0.0
000010 b3 4f 25 3c d2 d8 ee 3d 84 a7 76 3e 00 00 00 00
       0.010089803 0.11662449 0.2408734 0.0

ps_network.2.running_var f4 [8]
000000 ca 76 09 25 ca 76 09 25 ca 76 09 25 ca 76 09 25
       1.1923103e-16 1.1923103e-16 1.1923103e-16 1.1923103e-16
000010 3b d8 af 38 47 87 37 3c 6f f4 94 3d ca 76 09 25
       8.384926e-05 0.011201686 0.072731845 1.1923103e-16

main_network.0.weight f4 [128, 104]
000000 7e 32 88 3d a5 95 82 3d 21 2d 60 bd 07 4f 27 bd
       0.066502556 0.06376199 -0.05473054 -0.04084685
000010 88 e6 40 3d 4e 50 9a bd 14 27 b9 3d a1 da 64 3d
       0.04709485 -0.07534848 0.09040657 0.055872563
000020 d3 67 5e 3c c6 9b 57 3d c3 9f 8a 3d 5e 1d 42 bd
       0.013574558 0.05263879 0.067687534 -0.047391288
000030 6c fa 32 bd 8f ce 8d bd 58 ab ff bc f5 72 d1 3d
       -0.043695852 -0.069241636 -0.031209633 0.102270044
000040 7c e1 84 bd 52 cc 45 bd 24 a4 5b bc 15 fa 32 bc
       -0.0648832 -0.04829056 -0.013405833 -0.010923882
000050 5f 93 bb bd 10 65 75 3d 2f 58 e5 bd 16 66 35 3d
       -0.09158968 0.059910834 -0.1119846 0.04428681
000060 73 bb df 3c 35 55 c3 bc 58 ac 88 bd 95 cb 29 3d
       0.027311062 -0.02384434 -0.06673497 0.041453917
000070 b9 38 b3 3d db 8a 60 3d 2c a1 b5 bd 8d ed d3 bd
       0.08751053 0.054819923 -0.08868632 -0.103480436
000080 7d ed 32 bc a1 ee ce bd e9 68 fc 3c 5b 1d ae bc
       -0.010920879 -0.101041086 0.030811744 -0.021254232
000090 28 09 99 3d 24 bd 88 bd ad 5e f3 bb e8 ad 1f 3d
       0.074724495 -0.06676701 -0.0074270577 0.03898421
0000a0 b8 e5 18 bd 7a 64 4d 3d 5f d9 f5 3c ec 21 3a bb
       -0.037328452 0.05014465 0.030010877 -0.0028401567
0000b0 65 96 36 bd 5b 70 ac 3d 02 df b0 3d e5 a0 9b 3c
       -0.04457702 0.084198676 0.08636285 0.018997619
0000c0 1d 50 92 2f 86 87 30 32 ff 2e c4 b4 e7 9c 95 3c
       2.661417e-10 1.0275363e-08 -3.654204e-07 0.018263293
0000d0 20 04 d4 bd 9b 26 3e 2f 71 6e 19 bd be 29 aa ae
       -0.10352349 1.7294115e-10 -0.03745884 -7.73812e-11
0000e0 3a da c2 bd 6f c8 ef 3b 6a 36 9b bd 50 64 17 3c
       -0.0951428 0.0073175947 -0.07578738 0.009240225
0000f0 bc d5 82 bd 04 25 92 30 76 05 7d bd 6b 26 d8 bd
       -0.06388423 1.0633419e-09 -0.061772786 -0.10554203
000100 59 47 c5 bd 30 66 bd 3d 32 70 0c bd 42 f7 13 3d
       -0.09632749 0.09248006 -0.034286685 0.036124475
000110 21 88 ca bc 70 00 cb bd 55 45 b7 bd 54 d7 9a bd
       -0.024723114 -0.09912193 -0.08948771 -0.07560602
000120 dc f7 a1 34 b4 8b 89 2e 2d 27 12 bd b5 8e 3a b3
       3.0168928e-07 6.254855e-11 -0.035681892 -4.343629e-08
000130 37 a7 c6 bd 67 53 88 bd e2 8f 0f b1 f9 b7 32 bd
       -0.096998625 -0.06656533 -2.0891027e-09 -0.04363248
000140 24 d2 89 3c e5 c9 9b b1 08 5c 52 3d 00 23 6f 3d
       0.016823836 -4.5340465e-09 0.0513573 0.058382988
000150 31 b9 8f bd c8 f3 8e 3d e6 0f 6c bd b7 6f 00 3d
       -0.07017744 0.06980091 -0.05763235 0.03135654
000160 00 21 c8 34 a3 fe d6 af 5d 5d a5 b1 5c 0b 35 3d
       3.7276914e-07 -3.9107304e-10 -4.812746e-09 0.044200286
000170 a8 d4 22 bd 40 e3 0c b0 51 19 12 31 dc 11 40 3d
       -0.039753586 -5.1254645e-10 2.1260187e-09 0.046892032
000180 6d 30 7e 30 ed 68 77 2f fc f6 1c b1 31 78 d7 ae
       9.247348e-10 2.2501796e-10 -2.2841382e-09 -9.798418e-11
000190 52 ca ca 3c cf 6a 35 bd 2d 17 a8 3d 44 cb 1b 31
       0.024754677 -0.044291314 0.082075454 2.2671012e-09
0001a0 48 75 45 3d bf 38 5c 3d a7 71 1c 3d e6 c1 13 3d
       0.04820755 0.053765055 0.038194325 0.036073588
0001b0 46 cc dd 3c 97 d2 27 bd 42 36 27 3c 95 cc cb bd
       0.027074944 -0.04097232 0.010205807 -0.0995113
0001c0 7e 48 a7 3c b1 b7 3c 3d a1 6c c4 bc a4 04 97 3c
       0.02042031 0.04607362 -0.02397758 0.01843483
0001d0 41 b0 c1 bc c3 61 c8 bd 5e 13 87 bc ef 95 70 3d
       -0.023643615 -0.097842716 -0.016488727 0.058736738
0001e0 ee 02 fd bd 33 c3 54 bd 0e 25 a6 3d 76 b2 15 3e
       -0.123540744 -0.05194397 0.08112536 0.14618859
0001f0 01 14 70 ba 1e d7 42 3d 99 e2 6d 3d 73 7d 84 bc
       -0.0009158254 0.047568433 0.05807743 -0.0161731
000200 67 41 74 bc a7 4a 81 bd 61 ac 1c be db de 02 bd
       -0.014908171 -0.06313067 -0.15300132 -0.031950813
000210 34 27 d7 bd 60 7e 4b 3c 15 67 e7 3d 36 cd 88 3b
       -0.10505524 0.012420267 0.11298958 0.0041748537
000220 e4 ea c0 3b 4b 69 56 bd 3b af 35 bc 7b 18 8b 3d
       0.005887376 -0.05234651 -0.0110891415 0.06791779
000230 1a ed 92 3c 31 e4 07 3e e1 95 69 3d a5 96 e6 bd
       0.017935324 0.13270642 0.0570277 -0.11259202
000240 b4 d7 08 bd 6d 85 ba bc 2b d7 cc bb df 9c a2 bd
       -0.033408836 -0.0227687 -0.006251236 -0.07940077
000250 fc 9c a0 bc 38 8f 4f 3d c9 99 87 bd 8b 84 b4 bc
       -0.019606106 0.050673693 -0.06621129 -0.022035858
000260 39 a9 84 2f c9 18 99 2f 0f 4e c8 34 f3 2e 0a 3c
       2.41309e-10 2.784815e-10 3.7309698e-07 0.008434045
000270 66 7f 5c bd b0 a6 13 30 b1 d5 f1 3c a7 c8 85 2f
       -0.053832434 5.3715166e-10 0.029520841 2.433513e-10
000280 c9 75 86 3d 2e 5b 24 3d 43 07 55 bc cb 17 c2 3c
       0.065654345 0.04012602 -0.01300222 0.023692986
000290 f5 7c 13 bd c1 0a a9 2e 3f 45 e7 3b 1e 10 8b bc
       -0.03600784 7.6871405e-11 0.0070578153 -0.016975459
0002a0 e0 a1 25 bd a8 6f 9e bd 8a 7a 10 bd 65 87 9c 3c
       -0.04043758 -0.077361405 -0.035273112 0.01910753
0002b0 cc ea 49 bd 79 02 39 bd 5d 37 46 3d 43 28 9e bd
       -0.049296185 -0.045168374 0.048392642 -0.07722523
0002c0 15 09 b6 2f 5f 8b 3a 2f b8 47 a1 3d d9 e8 42 33
       3.311206e-10 1.6966116e-10 0.078750074 4.538092e-08
0002d0 f3 1a 02 bd 44 83 2e 3d 58 9f 17 af c4 e1 61 3d
       -0.031763982 0.042605653 -1.378998e-10 0.055146948
0002e0 25 7f 46 3d 6d 91 4a af 15 a1 1a 3d 3d 62 92 3d
       0.0484611 -1.8423459e-10 0.037751276 0.07147644
0002f0 63 61 ad 3d e4 e0 0f 3c 87 3c cd 3d 12 74 9d 3d
       0.08465841 0.008781645 0.1002131 0.07688154
000300 0d 86 8c ae 16 2f c0 30 ff f2 58 2f 5d c9 95 3d
       -6.390275e-11 1.3983221e-09 1.9731415e-10 0.073137976
000310 b4 7c a2 3d b4 96 94 af 2f c3 3a 32 37 bc b2 bc
       0.079339415 -2.7028124e-10 1.08710045e-08 -0.021818263
000320 2a 6e 12 30 08 2d e2 ae 13 bf 25 b3 da 9b 46 b2
       5.3271043e-10 -1.0285289e-10 -3.8590837e-08 -1.1560553e-08
000330 9b 48 aa 3d cd f2 a6 3d f6 ac 05 bd 8f 96 00 32
       0.0831463 0.08151779 -0.03263565 7.484814e-09
000340 eb 24 3c 3d 76 0c 4e bd 84 1c 93 bc 37 47 00 3d
       0.045933645 -0.050304852 -0.017957933 0.031317916
000350 36 75 a2 3c 06 20 78 bd 88 52 44 3d 69 ac 01 3d
       0.019831281 -0.060577415 0.04793027 0.031658564
000360 76 0a 95 3d 68 75 af 3c 7b 99 3b 3d c2 9e f5 3b
       0.07277386 0.021418288 0.045800667 0.007495732
000370 ba 81 d5 3d 43 b2 d4 bd 00 1b 9a 3c 37 76 93 3d
       0.10425134 -0.10385563 0.018811703 0.07200282
000380 f6 16 65 3d d1 30 ed bd a4 ab 69 bd fa a4 ae 3d
       0.0559301 -0.115815766 -0.057048455 0.085275605
000390 d4 6b 7f 3d a9 45 af bc e8 53 a8 3d c4 bf a1 bd
       0.062358692 -0.021395521 0.08219129 -0.078979045
0003a0 50 f8 c0 3d fc e9 09 be 0a 19 0e bd b7 98 ca bc
       0.09422362 -0.13468164 -0.034691848 -0.024731023
0003b0 16 51 ba bc cb cf 47 3d 46 68 18 3c ba 65 0b 3c
       -0.022743743 0.04878215 0.0093022045 0.00850814
0003c0 66 ce ec bc ee 9b 08 be 2d 2c de 3c d6 6f 9a bc
       -0.028907012 -0.13340732 0.027120674 -0.018852156
0003d0 c4 a2 c9 3d 78 25 a3 3d 68 a7 1a 3e 5e f8 67 bb
       0.09845498 0.07966131 0.15102923 -0.003539584
0003e0 e0 83 e6 bc 90 c8 9d 3c d7 4a b5 bd 37 bb 88 bd
       -0.028139055 0.019260675 -0.08852165 -0.066763334
0003f0 c1 b7 d5 3d 47 7a b7 bd 4a 12 fc 3d 1a a4 76 bd
       0.10435439 -0.089588694 0.12308176 -0.060215093

main_network.0.bias f4 [128]
000000 63 95 09 b7 4f f2 fe b4 08 f5 41 37 86 e5 6f b7
       -8.200618e-06 -4.748749e-07 1.1560747e-05 -1.429895e-05
000010 57 24 0f b6 ff f4 b8 37 1f 70 90 37 21 b6 31 b7
       -2.1329813e-06 2.2048594e-05 1.7218348e-05 -1.0592427e-05
000020 32 09 ad b6 67 08 00 b7 3a 46 8d 36 06 8e dc 37
       -5.1568722e-06 -7.631351e-06 4.210303e-06 2.6292179e-05
000030 88 60 c5 37 ea e1 84 37 68 a5 9f 36 61 7d 5e 37
       2.352918e-05 1.5840826e-05 4.757825e-06 1.3261423e-05
000040 77 95 65 b7 ec aa 10 34 b9 c6 35 38 79 83 88 35
       -1.3684264e-05 1.3473226e-07 4.3338838e-05 1.0171053e-06
000050 66 20 f6 b6 fd 4c ca 36 50 e1 c3 b6 76 39 be 37
       -7.335143e-06 6.0290317e-06 -5.8376827e-06 2.2676522e-05
000060 a8 d7 77 b6 2d 42 b3 b7 c6 4e e5 b5 dd 87 49 b7
       -3.6931397e-06 -2.1369278e-05 -1.7084756e-06 -1.2012167e-05
000070 b7 98 1e b7 59 f0 90 b5 15 87 61 b7 8b 80 a0 b6
       -9.453091e-06 -1.0798786e-06 -1.3442496e-05 -4.783336e-06
000080 86 4a 8c 36 59 cb 77 37 13 ed ee b6 d5 14 70 b6
       4.181001e-06 1.4769693e-05 -7.120552e-06 -3.5774913e-06
000090 46 7a d5 b5 13 7d 2a b7 29 6f 80 b6 85 d7 bb b5
       -1.5905323e-06 -1.0161911e-05 -3.827638e-06 -1.399531e-06
0000a0 a1 da 1d 37 3d c5 ab 36 ba 27 7c 37 b3 0c 84 35
       9.408833e-06 5.1191587e-06 1.502962e-05 9.838462e-07
0000b0 be 38 35 b7 ae f6 10 36 53 fc ea b6 77 63 db b7
       -1.0801652e-05 2.1601259e-06 -7.003118e-06 -2.6153151e-05
0000c0 d2 33 41 36 86 c5 5a 36 cf 67 64 34 c8 30 c8 37
       2.8789404e-06 3.2599505e-06 2.127192e-07 2.3864573e-05
0000d0 3d 41 42 36 43 f4 9a b6 48 16 d0 b6 39 3e 56 37
       2.8946226e-06 -4.6179935e-06 -6.201477e-06 1.2769881e-05
0000e0 a1 05 be b7 1c 00 a0 b6 53 17 a7 b6 4e 0b 1a b7
       -2.2652386e-05 -4.7683843e-06 -4.979703e-06 -9.181747e-06
0000f0 7f 0b 38 b5 cc 2f af b7 b8 af 63 b7 b7 61 83 b4
       -6.856207e-07 -2.0883883e-05 -1.3571167e-05 -2.4471748e-07
000100 53 be 00 b7 29 0b 2a 37 9d fa d0 b6 d5 67 01 36
       -7.673708e-06 1.0135388e-05 -6.2280583e-06 1.9282936e-06
000110 14 48 07 38 72 78 ff b6 10 3a 82 b6 3d 4f 77 b7
       3.2253636e-05 -7.613614e-06 -3.8810613e-06 -1.4740796e-05
000120 24 8f c8 b6 ae 01 47 37 ff 59 dc 36 8d 33 b8 36
       -5.9771282e-06 1.1861715e-05 6.566988e-06 5.4896286e-06
000130 48 0f 35 b7 b2 07 34 37 92 89 73 38 05 94 2c b7
       -1.0791999e-05 1.0730628e-05 5.8063837e-05 -1.0286462e-05
000140 ae c0 48 37 c7 73 4c 36 02 39 2b b7 58 06 8b b6
       1.1965791e-05 3.046576e-06 -1.0205667e-05 -4.1432613e-06
000150 8f bb aa b6 69 07 cc b6 e2 be ca b7 a1 df 65 b5
       -5.0882295e-06 -6.0805364e-06 -2.4169163e-05 -8.563457e-07
000160 11 7d a6 34 21 28 3a b6 ed 8f b7 b6 d7 16 20 36
       3.1010907e-07 -2.7739518e-06 -5.47058e-06 2.3855152e-06
000170 f8 75 04 37 54 0d 91 b6 f7 b1 15 36 c4 32 9b 35
       7.89528e-06 -4.3228883e-06 2.230632e-06 1.1563175e-06
000180 55 dd 67 36 5c 1d 0d b5 d5 ad 9e b7 08 29 91 35
       3.4550515e-06 -5.2569317e-07 -1.8916015e-05 1.0815284e-06
000190 90 57 e1 37 31 54 8a 37 7e 7b 2a 36 3d 20 bb b4
       2.6862865e-05 1.6490087e-05 2.5403856e-06 -3.485492e-07
0001a0 d7 91 8d b7 cf 8d a0 37 35 16 d4 b6 e2 35 88 36
       -1.6876422e-05 1.9139521e-05 -6.3206776e-06 4.0593886e-06
0001b0 e0 58 28 36 2f 4e 4a 38 a9 1b 98 b7 42 eb a0 36
       2.5085683e-06 4.8233367e-05 -1.8132692e-05 4.795759e-06
0001c0 6e fd 08 37 8f fe 87 b6 ba 43 b1 36 01 9f 91 36
       8.165238e-06 -4.052948e-06 5.2828955e-06 4.3398472e-06
0001d0 b1 49 e5 36 bc a5 95 b6 b5 fe c2 36 0e 71 9b 36
       6.8333106e-06 -4.45984e-06 5.8113023e-06 4.6325213e-06
0001e0 e8 aa 9e 37 7c 4a ef b6 78 ac ac 36 35 7d 76 b6
       1.8914652e-05 -7.131426e-06 5.1460775e-06 -3.6729737e-06
0001f0 e1 58 ad b7 88 ea 6c 36 59 59 03 37 87 68 3b 37
       -2.0664595e-05 3.5303256e-06 7.829011e-06 1.1170406e-05

main_network.1.weight f4 [128]
000000 fd be 80 3f 31 5c 6f 3f 48 53 7e 3f 16 20 80 3f
       1.0058285 0.9350005 0.9934583 1.0009792
000010 71 51 83 3f 28 b8 81 3f 5e 5f 80 3f 60 46 7f 3f
       1.0259229 1.0134325 1.0029104 0.9971676
000020 bf f7 79 3f 7c f4 7e 3f c7 9f 7e 3f b5 2f 85 3f
       0.97643656 0.99591804 0.9946255 1.0405184
000030 ba f5 84 3f c5 3c 79 3f f9 51 82 3f 34 d4 80 3f
       1.038749 0.9735835 1.0181266 1.0064759
000040 b1 d9 79 3f 68 66 77 3f ca 2d 7f 3f 35 1e 7f 3f
       0.97597796 0.96640635 0.99679244 0.9965547
000050 c0 7a 7f 3f 73 08 8e 3f d1 1d 75 3f 58 42 7d 3f
       0.99796677 1.1096328 0.9574862 0.9892936
000060 fb 8a 78 3f f3 30 82 3f 24 0c 7f 3f fb 45 89 3f
       0.9708707 1.0171188 0.996279 1.0724481
000070 49 89 82 3f 50 6c 85 3f 0d 27 7e 3f b0 d7 7b 3f
       1.0198146 1.0423679 0.99278337 0.9837599
000080 f1 03 8a 3f a7 59 79 3f ce e1 83 3f 40 9f 78 3f
       1.0782453 0.97402424 1.0303285 0.97117996
000090 23 a6 7b 3f 2c cc 81 3f cf 21 7e 3f c9 2b 77 3f
       0.9830038 1.0140433 0.9927034 0.96551186
0000a0 31 e1 8a 3f 97 44 7b 3f f2 b5 78 3f c4 af 7d 3f
       1.0849973 0.98151535 0.97152627 0.9909632
0000b0 1c b3 7f 3f ae c6 81 3f 66 95 76 3f 19 98 7c 3f
       0.99882674 1.0138757 0.96321714 0.9866958
0000c0 1a 64 7c 3f 9c 24 80 3f 66 e9 77 3f 64 8b 78 3f
       0.9859024 1.0011172 0.9684051 0.97087693
0000d0 b7 1e 87 3f da 15 76 3f 8b e5 7e 3f 69 6e 87 3f
       1.0556248 0.9612709 0.99569005 1.058057
0000e0 34 66 74 3f 4a e9 82 3f 07 b0 81 3f 33 a3 7e 3f
       0.9546845 1.0227444 1.0131844 0.9946777
0000f0 0a d8 7d 3f a0 63 80 3f 09 f0 7c 3f bb c0 7d 3f
       0.99157774 1.0030403 0.98803765 0.9912221
000100 6e 66 73 3f f5 00 77 3f 6d 4a 7f 3f 17 dd 78 3f
       0.9507817 0.96485835 0.9972294 0.97212356
000110 14 a4 81 3f 72 ed 78 3f ba f9 7f 3f a7 50 86 3f
       1.0128198 0.9723731 0.9999043 1.0493363
000120 89 87 7a 3f f7 b5 74 3f 46 ec 80 3f 4a a2 78 3f
       0.9786306 0.95590156 1.0072105 0.97122633
000130 98 0f 7f 3f 34 b5 82 3f 32 15 80 3f 4c 2c 7d 3f
       0.9963317 1.0211549 1.0006468 0.98895717
000140 b5 1a 72 3f 1a 4e 78 3f be 29 7d 3f c9 a8 81 3f
       0.94572 0.96994174 0.9889182 1.0129634
000150 4a 86 7a 3f 2f bc 7d 3f 52 58 83 3f da f9 79 3f
       0.9786116 0.9911527 1.0261328 0.9764687
000160 ce 57 78 3f 6c b5 81 3f 26 43 74 3f 44 4e 7e 3f
       0.9700898 1.013349 0.9541496 0.99338174
000170 92 e5 7a 3f c9 02 7c 3f 4e 6c 7a 3f 4c 5d 80 3f
       0.98006546 0.9844175 0.9782151 1.0028472
000180 84 33 82 3f f3 a3 79 3f 40 27 7a 3f c0 f1 7c 3f
       1.0171971 0.9751579 0.9771614 0.9880638
000190 9c 41 7f 3f fa 9a 7f 3f 8b b4 73 3f 10 d1 72 3f
       0.99709487 0.9984585 0.9519736 0.94850254
0001a0 9a 6e 80 3f d7 45 7a 3f 6b 42 87 3f 29 74 7d 3f
       1.0033753 0.9776282 1.0567144 0.9900537
0001b0 1d bb 7b 3f 99 45 8a 3f 34 1f 80 3f 38 db 72 3f
       0.9833239 1.080249 1.0009522 0.9486575
0001c0 9f de 7d 3f 1d d3 75 3f 02 a8 7d 3f fa 6c 73 3f
       0.9916782 0.9602526 0.99084485 0.9508816
0001d0 66 72 80 3f f3 b9 82 3f 33 a4 8d 3f 11 5b 85 3f
       1.0034912 1.0212997 1.1065735 1.0418416
0001e0 61 a0 82 3f da a6 75 3f 8f 1c 83 3f 6b 5b 7b 3f
       1.0205194 0.9595772 1.024309 0.9818637
0001f0 00 19 8a 3f 45 3c 7d 3f c9 f9 7d 3f 43 b2 77 3f
       1.0788879 0.9892009 0.99209267 0.9675638

main_network.1.bias f4 [128]
000000 de 10 18 3c f6 82 1d bd 56 10 4b 3c 08 70 fd 3c
       0.009281365 -0.038454972 0.0123940315 0.03093721
000010 a0 31 ab 3c 50 d4 15 3d ec 97 83 3c 66 3b ad 3b
       0.020897686 0.03657943 0.016063653 0.005286622
000020 85 34 f2 bc 6b 6d 25 3c 44 4a 9a bc 6d e8 49 3d
       -0.029566059 0.010096888 -0.01883424 0.049293924
000030 cd 75 82 3c 7e 24 c4 bc be 49 aa 3b eb da f7 bb
       0.015925312 -0.023943182 0.005196779 -0.007563939
000040 6f bd 34 bc ce 75 df bb cb 6e 96 bb fe 8a cc 3c
       -0.011031493 -0.0068194633 -0.0045908443 0.02496862
000050 69 86 d2 3b 4b 7b c3 3d 0b 81 dd bc 8e a5 8d bc
       0.0064247143 0.09545001 -0.027039072 -0.017290857
000060 e4 89 e0 3b 39 1e 3e 3d 43 ed 6b bc 48 0c 21 3c
       0.0068523753 0.04641554 -0.014399829 0.009829588
000070 a8 44 10 bc 7f 27 52 3d b1 a0 82 3d 56 5f bc 3a
       -0.008805431 0.051307198 0.06378306 0.0014371674
000080 37 06 89 3d a7 20 4d bb a1 e8 a0 3c 72 4b 55 bd
       0.066906385 -0.003129998 0.019642176 -0.052073903
000090 91 6d 37 bb 2a dd e6 bc 4e fd 42 3d 7d d4 ca bc
       -0.002798889 -0.028181631 0.04760485 -0.024759525
0000a0 55 0e 53 3d 44 e3 12 bc 9e b0 55 bc c8 00 8c 3b
       0.05152734 -0.008965317 -0.013042597 0.004272554
0000b0 5e 84 9f 3b 28 03 a4 3c a8 08 5f bc 64 53 cb bc
       0.0048680743 0.020021036 -0.013612904 -0.024820037
0000c0 b7 9c 30 3b 93 9c c0 3c 61 41 e9 3b 3a be 1c 3b
       0.0026948878 0.02351216 0.0071183895 0.0023917095
0000d0 e8 1a 15 3d 03 8b 19 bd 14 8b e2 3c 32 10 42 3d
       0.036402613 -0.037486088 0.027654208 0.047378726
0000e0 5a 7e 00 bd 00 4d b1 3d 27 12 08 3d 1c d0 7b bc
       -0.0313705 0.08657265 0.033220436 -0.015369441
0000f0 f6 04 65 bc 31 b0 f1 3c 41 fa 0c 3c 51 27 a3 3a
       -0.013978234 0.02950296 0.008604587 0.001244763
000100 86 d7 e7 bc 6d be 4a bd 2e 65 04 3c 27 66 02 bc
       -0.028301012 -0.04949801 0.008080764 -0.007958925
000110 20 e3 f6 3c ee bb 6c bc 00 7b f9 3c 19 73 d8 3c
       0.030137599 -0.014449103 0.030454159 0.02642207
000120 40 ac 26 bc a1 e6 ce bc f0 b2 61 3d 44 13 c8 bc
       -0.010172904 -0.025256457 0.05510229 -0.024423249
000130 9e 4d 0c 3c 91 18 05 3d 59 b0 bd bc e8 e4 fb 3c
       0.008563427 0.03249413 -0.023155378 0.0307488
000140 8d 87 d4 bc 34 28 12 bc 8e 91 bd 3b 25 e4 4d bb
       -0.025943542 -0.008920718 0.0057851737 -0.0031416502
000150 29 35 5b 3c c3 27 4f bc ce 05 3e bc 54 fd b8 bc
       0.013379374 -0.012643757 -0.011598064 -0.022581734
000160 88 27 d0 bc 13 33 70 3c 8e b5 06 bd fe d0 be bc
       -0.025409475 0.014660615 -0.032887988 -0.023293015
000170 62 b6 a1 bc c6 2b e2 bc c3 8d ca 3a bf 32 28 3d
       -0.019740287 -0.027608763 0.0015453625 0.04106402
000180 5d 27 87 3d ce 93 a4 3c 5d 63 49 bc 56 84 e4 bc
       0.06599305 0.02009001 -0.012291756 -0.027895134
000190 42 29 fb 3c 28 9a 33 3c 75 97 49 bc 4f ef 24 bd
       0.030659322 0.010962047 -0.012304177 -0.040267285
0001a0 c9 ed 1c 3d 73 f5 e2 bc c8 42 a5 3c 64 93 1e bc
       0.038312707 -0.02770493 0.020173445 -0.009678695
0001b0 8f 0d 65 bb 90 db 35 3d a8 3a 5e 3c 5c ba a9 bc
       -0.0034950709 0.044398844 0.013563789 -0.020718746
0001c0 13 85 18 3c b2 61 14 bd 00 db cc bb cd 84 e6 bc
       0.009309071 -0.036225982 -0.006251693 -0.028139496
0001d0 69 12 06 bb 01 9b 39 3b 2b 2c a4 3d c9 d9 66 3d
       -0.002045775 0.002832115 0.08016237 0.05636004
0001e0 76 c4 14 3d fb 13 12 bd c4 96 8d 3c 32 39 31 bd
       0.036320172 -0.035663586 0.017283805 -0.043267436
0001f0 46 4d 84 3d fd 74 06 bc ff 71 a8 3c c0 87 9d bc
       0.06460051 -0.008206603 0.02056217 -0.01922977

main_network.1.running_mean f4 [128]
000000 45 d8 77 bc 71 ae 89 bd 39 9d 16 be 5f 1d 1f bd
       -0.015127246 -0.06722725 -0.14708413 -0.03884637
000010 84 d7 21 bc 03 05 7c bd 38 bf de ba c4 c3 2e bd
       -0.009878043 -0.061528217 -0.0016994243 -0.042667165
000020 62 92 61 3d 65 7c 8b bd 4a 67 41 bd d8 e3 f8 3d
       0.055071242 -0.06810836 -0.047217645 0.12152833
000030 e6 65 e7 3d ac 88 19 bd 20 e5 f2 3a 4b 18 0a 3e
       0.112987325 -0.037483856 0.0018531419 0.1348583
000040 5b 3b b3 3d 8a 73 76 bb 63 b8 00 bd f2 c5 a3 bd
       0.087515555 -0.0037605488 -0.031425845 -0.079967394
000050 12 09 4c bd 21 da eb 3d 34 6a b1 bd fc c3 17 bd
       -0.049813338 0.11516214 -0.08662835 -0.03705214
000060 96 d8 08 be d2 55 05 be 1c c4 e6 3b ed 23 d5 3d
       -0.13363871 -0.13021019 0.007042421 0.10407243
000070 7a 0f 62 bb f5 fd a7 3d c0 d4 87 bc 4e d3 eb 3d
       -0.0034494088 0.08202735 -0.01658094 0.115149125
000080 bf a3 9e 3d c8 ae 8d bd 87 d9 2e 3e b3 ee bf bc
       0.07746076 -0.069181025 0.17075168 -0.02342925
000090 8e 54 9e bd 69 a7 e6 bc 99 f2 cc 3b ee 81 3f bc
       -0.07730971 -0.028156 0.006254506 -0.0116886925
0000a0 8b 6a f6 3d dd ee 30 3c ff 25 a6 bd 1e 8d 1e 3d
       0.1203204 0.010799137 -0.08112716 0.0387088
0000b0 a0 f0 11 be dd de 0c 3e 7d 89 68 bd 11 b7 fd bd
       -0.14251947 0.1375689 -0.056771744 -0.12388433
0000c0 67 b2 e8 3c a2 b2 12 be 7b e3 8b 3d 89 69 dd 3d
       0.028405381 -0.14325956 0.06830498 0.10811145
0000d0 ba 17 0e 3e a7 fd 9e bc fa 1a 9b bc 9b cd 01 3e
       0.13876238 -0.01940806 -0.018933762 0.12676089
0000e0 a8 08 45 bd 59 4d 6d bd aa 01 55 bd af a8 f0 3c
       -0.04810396 -0.057935093 -0.05200354 0.02937731
0000f0 a9 b7 42 3d f0 2d e3 bd 01 d9 ac bb 3d 33 2c bd
       0.047538433 -0.11092746 -0.0052748923 -0.042041052
000100 f1 c5 64 3c 3e 18 9a 3d 35 de f4 bd bf e9 ab bd
       0.0139632085 0.07524155 -0.11956445 -0.08394193
000110 6c 98 de 3d a0 55 2f 3d 14 9f 1e be 9b 1a 28 3e
       0.10868916 0.042806268 -0.15490371 0.16416399
000120 0d 63 55 3d 15 79 d9 bd d2 8a 11 be 82 a6 bf bc
       0.052096415 -0.10618798 -0.14213112 -0.023394827
000130 14 98 57 bd 69 b3 e7 3d cc 66 18 bc 40 94 ba bd
       -0.052635267 0.11313517 -0.009301852 -0.09110308
000140 0c 10 0c be 36 1d d0 3b 58 95 a4 bd cf 34 25 3e
       -0.13677996 0.0063511385 -0.080362976 0.16133426
000150 45 f4 8e 3d 16 b7 e6 3b f4 20 5c 3d 92 1e 10 3c
       0.069801845 0.0070408685 0.053742364 0.008796351
000160 ec 3e 6f 3d 04 47 21 3e bf 0b b8 3d 0e e2 fd 3d
       0.058409616 0.15749747 0.089866154 0.12396632
000170 25 37 da bd 51 c8 3b bd df 9b a5 3d 6d 7f 42 bd
       -0.10655049 -0.045845333 0.08086371 -0.047484804
000180 27 82 bf bc 42 77 53 be 0b 3a 6a 3d 6b 3d 81 3c
       -0.023377491 -0.20650962 0.05718426 0.015776357
000190 57 c7 77 bd 28 e9 53 3e ff d3 50 bd 19 be 2a bd
       -0.06049284 0.20694411 -0.050983425 -0.041685198
0001a0 ed af a6 bd 57 1f 71 3d 6a 0c f7 3c 40 0e dd 3d
       -0.08139024 0.05886778 0.030157287 0.107937336
0001b0 02 11 69 3d 85 23 0d 3e e5 27 97 3d 59 fb 1f bd
       0.056900986 0.13783081 0.07380656 -0.039058063
0001c0 03 d8 27 bd 5a ee b5 3d 85 8e b1 bc 21 17 ae 3c
       -0.04097749 0.088833526 -0.021674404 0.021251263
0001d0 88 37 c9 3d e7 d6 79 bd ef 15 be 3d bb b0 e8 bd
       0.09825045 -0.060995962 0.09281527 -0.11361834
0001e0 55 e1 df bd d1 f0 9f bc 6b 5c 37 3e 34 c0 e9 bd
       -0.109316505 -0.01952401 0.17906348 -0.11413613
0001f0 e8 41 34 3e cc f0 3a bc 53 5b 88 bd da dd 57 bc
       0.17603266 -0.0114099495 -0.06658044 -0.013175452

main_network.1.running_var f4 [128]
000000 31 aa 11 3f 5b 90 de 3e 30 55 8a 3e 2f 89 0e 3f
       0.56900316 0.4346951 0.27018118 0.55678076
000010 f5 47 0b 3f f0 c4 ab 3d 20 f8 6e 3d d8 60 3c 3e
       0.5440667 0.08387172 0.0583421 0.18396318
000020 1e 5e 87 3e eb dd 8d 3f bd 43 3d 3e 53 51 51 3e
       0.26438993 1.1083349 0.18482871 0.20441179
000030 4d fc 77 3e a3 dd 55 3e 0a d3 64 3e f3 5e 6a 3e
       0.24217339 0.20885329 0.2234613 0.22887783
000040 20 62 50 3f a6 de 92 3e c9 3c 16 3e e3 01 71 3e
       0.81399727 0.28685492 0.14671625 0.23535876
000050 74 13 af 3e 30 42 08 3e 78 81 49 3e 9f 8b df 3d
       0.3419453 0.13306499 0.19678295 0.109153025
000060 3c 9f 52 3e c5 27 bf 3e 3e fc 4f 3e 83 a3 88 3e
       0.20568556 0.3733503 0.20311067 0.2668725
000070 73 66 01 3e 4e d7 1c 3e 7e da 43 3e 4c 9d f1 3d
       0.12636738 0.15316507 0.19126317 0.1179758
000080 5c cf a3 3e 1f fd 5f 3e 5c 4f 79 3e db 40 89 3e
       0.3199414 0.21873902 0.2434668 0.26807293
000090 33 19 4a 3e cc 30 0d 3e 4b e9 06 3e 17 c0 dd 3e
       0.19736175 0.13788146 0.13174932 0.43310615
0000a0 b2 c2 aa 3e c9 de ff 3e f3 9b 8e 3e 28 d2 05 3f
       0.33351666 0.4997466 0.27853355 0.522738
0000b0 f1 cc 6d 3e c7 2f 1e 3f fc 2c 3b 3e 10 9b e5 3d
       0.2322271 0.6179165 0.18278879 0.112112164
0000c0 1e e3 22 3e 6b 3f 18 3e 18 bd cc 3e 8f 47 c4 3e
       0.15906951 0.14867942 0.39988017 0.38335845
0000d0 9f 9d 46 3e 53 65 d2 3d 78 72 c5 3e 7d 50 9e 3e
       0.19396065 0.10273232 0.38563895 0.30920783
0000e0 50 21 72 3e c7 d9 91 3e de e2 30 3e d0 a0 b3 3e
       0.2364552 0.28486463 0.17274043 0.35083628
0000f0 ee f6 4e 3e 41 ee f8 3d dc 17 eb 3d 69 64 12 3e
       0.20211384 0.12154818 0.1147916 0.14296116
000100 1d f9 be 3e 8e d1 18 3d 94 27 d2 3d e5 c6 a4 3e
       0.37299433 0.037309222 0.10261455 0.32182994
000110 30 28 22 3e 89 1c ba 3e 77 52 a2 3d b1 14 a0 3e
       0.15835643 0.36349896 0.07925885 0.31265786
000120 b0 e7 92 3e 71 43 08 3f 72 b4 a1 3e 25 aa 28 3f
       0.2869239 0.5322791 0.3158298 0.6588462
000130 9e f1 0d 3e 38 99 9e 3e 05 4c ca 3d 4e a6 a3 3e
       0.13861701 0.30976272 0.09877781 0.31962818
000140 00 58 33 3e 4d 09 cb 3e 70 61 36 3e 5a e8 00 3e
       0.17514038 0.39655533 0.17810607 0.12588635
000150 ab d3 0f 3e ef 1c 69 3e 4a 4b eb 3d 8a 8c d5 3e
       0.14045589 0.22764944 0.114889696 0.41708785
000160 0b 58 b4 3e b5 d0 95 3e 43 5e 2b 3f 83 fe 42 3e
       0.3522342 0.29260793 0.66940707 0.19042401
000170 50 f0 4b 3f 8a 6c 56 3e 9e 27 9d 3e 34 ff e8 3d
       0.7966356 0.20939842 0.30694288 0.11376801
000180 8a d2 17 3e e7 87 96 3d 20 c2 4c 3e a0 f6 c3 3e
       0.14826408 0.0735014 0.19995928 0.38274097
000190 60 ad 9d 3d 0c d5 7b 3e 96 09 dc 3d 16 f3 e8 3d
       0.07699084 0.2459299 0.10744016 0.1137449
0001a0 a5 06 fb 3d e0 af 39 3e 5a 66 ec 3d 3b 93 0f 3e
       0.12257127 0.18133497 0.115429595 0.14021008
0001b0 b0 f7 c7 3e 33 28 71 3e 50 63 29 3e 35 f6 a8 3d
       0.39056158 0.23550491 0.16541791 0.08250085
0001c0 b8 bf f6 3d e9 23 7b 3e f8 cc e4 3e a0 ce 51 3f
       0.12048286 0.24525417 0.4468763 0.8195591
0001d0 8e 96 b2 3d f3 d2 4b 3e e9 c6 24 3e 93 ee 91 3d
       0.08720122 0.1990469 0.16091503 0.071255825
0001e0 5d 3d 9b 3d 84 67 87 3e 21 38 8a 3e 43 12 02 3e
       0.075800635 0.26446164 0.26995948 0.12702279
0001f0 31 ee b3 3e 23 d3 ca 3d e5 6a 35 3e 5c 98 90 3e
       0.35142663 0.099035524 0.17716558 0.2824124
