XGBoost/best_model_resnet56.pth (torch, 120949 bytes, 47 tensors)

model_embedding.weight f4 [32, 12]
00000000: 2f43 8abe b642 59bd 15db 52be 2c77 63be
00000010: b2ce 743d badf 81be 886d 603e 8463 6f3e
00000020: 74ab 663e 364f 5abe a957 6cba 98e4 b53c
00000030: d27a 723d ae04 09be 0c05 d93d f1c4 993d
00000040: 07f0 513e fd82 393e 617a 2fbe 9652 2abd
00000050: a190 893e efd6 72be fed3 1e3d 2569 863d
00000060: 5063 3cbe dfc5 5b3d aeec 08bc efc6 2bbe
00000070: f45b febc 2676 92bd 8027 e43c 2f91 96bd
00000080: df17 29bc 206d 923d 124f 812e 2a91 8cbe
00000090: 099f 2dbe 837f 9dbe 64ce 12bd 47b4 a93e
000000a0: 0d3d a13e 090f 433e b882 d6bd d143 a9bd
000000b0: 9434 183e 3b33 c93d c22e 0ebc e900 8dbe
000000c0: 29ce 70be 2530 85be fe74 c0bd 5461 79be
000000d0: b389 8a3e f033 8b3e 7d85 7bbe 077c d93c
000000e0: 3888 57be d61e 16bd e021 003d c251 153c
000000f0: 2e2f 253e 2236 8dbd 2e78 843b 80d5 953e
00000100: 1719 04be c3ed d73d 4586 8ebe f257 763d
00000110: 3bd0 45be bc09 87be 30b0 213c d6ca 35be
00000120: b5d4 55be 71e0 32bd 1d56 8abe 1fb8 51be
00000130: d21a 243e 0eee b0bc bf12 913e ea54 81be
00000140: 4c13 76be 8791 a43e c2fc 71b8 db8d 723e
00000150: 48cb 1e3d f2c9 0ebe 2e43 353d 9ef2 63be
00000160: 74b4 87be e464 7a3e 1031 7b3d 04e4 5d3e
00000170: b553 42be df17 313e 81ce 193d 71b0 8a3e
00000180: ed0a 143c 3b39 7a3e 2222 02be 0f41 143e
00000190: 50db 8d3e e271 9ebd 1a09 02be 5c41 243e
000001a0: c37c f63d 6493 793e 00e8 aeb0 edc5 26be
000001b0: 830e 493e d110 42bd f9ee 023e 9198 6cbe
000001c0: ffda 543e 9fd6 84bd 3fc3 4e3e 60c4 4dbd
000001d0: 80f8 3cbe 35e4 eb3d fc54 d8bc cd3d 613e
000001e0: 121b fe3d 9561 e43d 2857 57be 9279 e63c
000001f0: 0479 473e e57e 8d3e 37c8 eabc ebcc 4c3e
00000200: 2207 8bbd ab6f 8ebe 3fee 1cb7 6ee6 44be
00000210: f8d3 0ebe c039 e4bc 12e4 1a3e a60a 693d
00000220: 4710 e43d 4143 e03d 02d4 d13d 3005 77bd
00000230: 38e3 4fbe ba86 313e 920c 00bc fa58 56be
00000240: 0514 a8bc d86b d43a 79c5 843e eedd cdbe
00000250: 8a5e 833d 1f64 3b3d 2cf5 5d3d 80e1 86be
00000260: 2a73 33be ff8f fc3d cb9c c9b7 7b7c 98bd
00000270: 3858 7fbe c871 753e 2618 3e3d bf46 a1be
00000280: 33f9 59be d7b6 f63d 19ae 823e 62ae cbbd
00000290: 261f 673e c25c 0c3d 2d9e 15bc 8e43 663e
000002a0: 76e4 98bd ad66 57be 878f 46be 9e60 403e
000002b0: 202e 87be ff3a 8cbe 1372 693d 8420 243e
000002c0: 9abd 563e 424a 693e 7790 3033 916a 973e
000002d0: 4c39 acbd 2a84 ce3d f780 93be 02d3 863d
000002e0: a3ea 64be f693 13be aec7 103e cbf2 163e
000002f0: 7735 7abd 408d ce3d 46a8 bdbc 374d 443e
00000300: 2123 41be 7e24 cc3d 52bf 0abe 167a b8be
00000310: 6757 1a3e 4d8d 4fbe 556e 2a3e 7b16 d5bd
00000320: 7a63 95be 5f1b 4f3e ceba e4bb 9df0 6abe
00000330: 37f4 dabd 7a05 893e 19ef 7d3e 3b9c 15be
00000340: db21 583e bef4 b33d 457a 81bd b0d4 163e
00000350: 5eda 5ebd 695f 103e 2e13 9432 9575 a5bd
00000360: 1777 a0bc 78cd 5bbd 009b 4a3e 46c5 c03e
00000370: b6f3 00be 3b4d e5ba 44e3 7abd cc20 303e
00000380: 4dd5 1f3e 5d7d 16be 4c31 d33c 8f0c 27be
00000390: b9fe 073e 8d9d 1e3e 7ecd d23c 9fec bc3e
000003a0: a739 993e 8928 2a3e 9bcb c73b 9842 3bbe
000003b0: 25db 833e 8057 393c 89a1 8a32 59a1 463e
000003c0: 7e80 923c bc2d 90be d072 733d 1e9b 76bd
000003d0: fc44 85be 9bba 88bd 16b5 10be d87e 59be
000003e0: 71b2 5cbe 7e4b ea3d 986f 1dbd 4446 253e
000003f0: d889 22be 677d 97bd 6562 dc3d 1bd2 9cbe
-0.27004382 -0.053042136 -0.20591386 -0.22213429 0.059767433 -0.25366002 0.21916783 0.23377806
0.22526342 -0.21319279 -0.0009015748 0.022203729 0.05919916 -0.13380691 0.10596666 0.07508267
0.2050172 0.18116374 -0.17136528 -0.041582666 0.26868156 -0.23714803 0.03877639 0.065630235
-0.1839726 0.0536555 -0.00835721 -0.16775106 -0.031049706 -0.07151441 0.027850866 -0.0735191
-0.010320633 0.0714972 5.8802865e-11 -0.274545 -0.16955198 -0.30761346 -0.03584136 0.33145353
0.3149189 0.19048704 -0.104741514 -0.08264888 0.14863807 0.098242246 -0.00867814 -0.27539757
-0.23516144 -0.26013294 -0.093973145 -0.24353534 0.2705818 0.27188063 -0.2456264 0.026548399
-0.21048057 -0.0366505 0.031282306 0.009113731 0.16131279 -0.06895091 0.004042647 0.2926445
-0.12900196 0.10543396 -0.27836815 0.060142465 -0.19317715 -0.26374614 0.0098686665 -0.17753157
-0.20881923 -0.043671075 -0.27018824 -0.20480393 0.16025856 -0.021597888 0.28334615 -0.25260097
-0.24030799 0.3214228 -5.7694277e-05 0.23686926 0.038768083 -0.13944224 0.04425352 -0.2226052
-0.26504862 0.24452549 0.061326087 0.21669012 -0.18977244 0.17294262 0.037550453 0.2708774
0.009035808 0.24435894 -0.12708333 0.14477943 0.27706385 -0.07736565 -0.12698784 0.16040558
0.12035515 0.24372631 -1.2726105e-09 -0.1628644 0.19634442 -0.04737932 0.12786473 -0.23105074
0.20786665 -0.06486248 0.20191668 -0.050236106 -0.1845417 0.115181364 -0.026407711 0.21996231
0.12407507 0.11151425 -0.21029341 0.028134141 0.19479758 0.27635875 -0.028659923 0.20000045
-0.0678847 -0.2781957 -9.353796e-06 -0.19228527 -0.13948047 -0.027859569 0.15126064 0.05689492
0.11135917 0.10950328 0.102455154 -0.06030768 -0.20301521 0.1733655 -0.007815497 -0.2093238
-0.020517359 0.0016206456 0.2593191 -0.4020838 0.06414516 0.04574978 0.054188892 -0.26343918
-0.175244 0.123321526 -2.403408e-05 -0.07445618 -0.24935997 0.23969185 0.04640975 -0.31499287
-0.21286468 0.12046593 0.2552345 -0.0994537 0.22570476 0.03426815 -0.00913195 0.22486708
-0.074654505 -0.21035261 -0.19390689 0.18786857 -0.26402378 -0.2738876 0.056993555 0.16028029
0.20970765 0.22782233 4.1109583e-08 0.2957349 -0.08409366 0.10083802 -0.2880933 0.06583215
-0.22355132 -0.14411911 0.14138672 0.14741056 -0.061086144 0.10085535 -0.023151528 0.1917008
-0.18861057 0.09967898 -0.13549545 -0.36030644 0.15072404 -0.20268746 0.16643651 -0.104046784
-0.29177457 0.20225285 -0.0069802767 -0.22943349 -0.106911115 0.2676199 0.2479824 -0.14610378
0.21106665 0.08786915 -0.06322149 0.14729571 -0.05440747 0.14098896 1.723819e-08 -0.080790676
-0.019588036 -0.053662747 0.1978569 0.37650508 -0.12592968 -0.001749433 -0.061251894 0.17200011
0.15608712 -0.1469626 0.025780343 -0.16313384 0.13280763 0.15489788 0.025732752 0.36899278
0.29926798 0.16617025 0.0060972697 -0.18287122 0.25753132 0.0113123655 1.6138772e-08 0.19397487
0.017883535 -0.28159893 0.059435666 -0.060206525 -0.26029193 -0.06676217 -0.14131579 -0.21239793
-0.21552445 0.1144018 -0.038436502 0.16140085 -0.15872896 -0.073969655 0.10760955 -0.30629048

model_embedding.bias f4 [32]
00000000: 1686 7cbb a431 d43a 5183 99b7 dc65 bf37
00000010: b57c 7e3b 6536 d4bc 5496 52b8 81c0 c33c
00000020: a1a7 6bbc 3b01 52bd eba4 b037 30cf ad3a
00000030: 834d 1a36 8d3b adb9 eac4 c037 e065 deb7
00000040: bc66 093c 5df4 8736 d3cc 23bc 9928 2bbd
00000050: 74a3 56bd 3b90 68b7 b595 fa37 12f0 b6ba
00000060: e12c 23bd 029d 3336 0887 ccb7 1c87 313d
00000070: 3176 9c3c 4648 1238 f220 023d 3563 16ba
-0.003853207 0.001618911 -1.830017e-05 2.2816406e-05 0.0038831655 -0.025904844 -5.0207906e-05 0.023895504
-0.014383228 -0.051270705 2.105763e-05 0.0013260599 2.2992906e-06 -0.000330415 2.2979879e-05 -2.6511902e-05
0.00838631 4.051761e-06 -0.009997564 -0.041786764 -0.052401975 -1.3861859e-05 2.9872035e-05 -0.0013957045
-0.03983772 2.676447e-06 -2.4381574e-05 0.04334174 0.019099327 3.4876422e-05 0.0317697 -0.0005736829

dataset_embedding.weight f4 [16, 3]
00000000: 2715 5d3b 1893 9ebe 84c0 46be f0fb 0e3f
00000010: 638b 9bbe 6b62 973e e448 4e3e 3262 18bf
00000020: e3b9 4c3e 6375 6dbe 165b d63e db5e fe3e
00000030: 47d6 a7be 716d fdbe 25c6 ef3e d249 273f
00000040: 8844 13bf 7153 933e 1a58 1abf 9607 973e
00000050: ecb2 c23e a135 ad3e b35e 953c d831 c73d
00000060: ecfc d33d 6d10 cd3e 745b b9be a466 263d
00000070: 5fc1 84bd 553f c73e e044 b4bd 4dd3 bc3e
00000080: 3056 1abe c5ef f33c f26e e3be c9c6 85bd
00000090: 00f0 fa3e b271 ef3e e312 933e b365 213f
000000a0: 8a55 5bbd ff83 76bd 6e90 34be 6722 8a3d
000000b0: 1dbb c5bd 266c 0fbf de2e 503d 3601 07bf
0.0033734532 -0.309716 -0.19409376 0.55853176 -0.3037978 0.29567274 0.20144993 -0.59524834
0.19992785 -0.2318931 0.41866368 0.49681744 -0.32780668 -0.4949756 0.4683086 0.65347016
-0.57526445 0.28774598 -0.6029068 0.29497975 0.38027132 0.33829978 0.018233633 0.09726304
0.103509754 0.40051594 -0.36202586 0.04062523 -0.06482195 0.38915506 -0.08802199 0.3687996
-0.1507194 0.029777417 -0.44420582 -0.06532056 0.4901123 0.4676643 0.28725347 0.63045806
-0.053548373 -0.060184475 -0.1763322 0.06744843 -0.0965483 -0.56024396 0.050825946 -0.5273622

dataset_embedding.bias f4 [16]
00000000: 902a 303d 96b8 4b3e bdaa 003e 976c 8537
00000010: 20df 623e 6467 77be 8cde cfbd fda7 abbd
00000020: f6ef 163e e600 1fbe 0caa 0d3a 02e7 3d3d
00000030: 7ba9 9335 88a6 b53c c812 a3bd 647f 063c
0.04300934 0.19894633 0.12565131 1.5905402e-05 0.22155428 -0.24160534 -0.10149869 -0.083816506
0.14739975 -0.15527686 0.0005404062 0.046362884 1.1001679e-06 0.022174135 -0.079625666 0.008209083

tensor_network.0.weight f4 [16, 1]
00000000: 26fd b4be 7e44 53bd 8e4a 1a3d 439f 023f
00000010: 201b c03e a481 af3e 5eaf 36bc e798 943e
00000020: 2cc4 b8be 8436 053f 77ee c63d ea24 16bf
00000030: 27b3 9d3e ea24 e1be 54ca 1ebf c959 333f
-0.35349387 -0.05157899 0.037668757 0.51024264 0.37520695 0.34278595 -0.011150209 0.29022905
-0.36087167 0.5203631 0.09713452 -0.58650076 0.30800745 -0.43973476 -0.6202748 0.70058876

tensor_network.0.bias f4 [16]
00000000: 1ac0 1fbf df02 053f 753e 043f 2070 55bf
00000010: f291 543d 16d0 ed3c eb5b 1e3c b168 c6bd
00000020: 02dd dcbe 45cc c8be b405 373e 78a6 74bc
00000030: 68ae 723e 3306 5e3e 4950 c73d 765b cbbe
-0.624025 0.51957506 0.516578 -0.83374214 0.051896997 0.029029887 0.00966547 -0.09687937
-0.43137366 -0.39218345 0.1787327 -0.014932267 0.23699343 0.21682052 0.0973211 -0.39718217

tensor_network.2.weight f4 [16]
00000000: 8ebc 303f 7bc7 823f ba4a 793f 5573 773f
00000010: 7d41 803f 333e 7e3f 02c2 6f3f 558e 7d3f
00000020: 8ebc 303f e6bc 7c3f 391f 793f 8ebc 303f
00000030: b107 7d3f e5d0 7e3f 40d9 7d3f 9b0b 7c3f
0.6903771 1.0217127 0.9737965 0.9666036 1.0019985 0.9931366 0.9365541 0.99045306
0.6903771 0.98725736 0.97313267 0.6903771 0.9883986 0.995375 0.9915962 0.9845521

tensor_network.2.bias f4 [16]
00000000: c5fe bfb0 510c 4c38 3342 95b7 4944 5238
00000010: 40d3 90b8 f478 d337 6086 15b8 fbd4 7738
00000020: 9940 0b30 aa1f 0536 686e 59b7 fa2f b131
00000030: 3751 4037 27c8 3f36 0da4 8fb7 82a5 9fb8
-1.3969489e-09 4.864886e-05 -1.779301e-05 5.0131497e-05 -6.9058035e-05 2.5209483e-05 -3.5649515e-05 5.9087743e-05
5.0659704e-10 1.9836975e-06 -1.2959914e-05 5.1568323e-09 1.1463001e-05 2.8577722e-06 -1.712332e-05 -7.612539e-05

tensor_network.2.running_mean f4 [16]
00000000: 0000 0000 ae99 8f3e 1378 8f41 874f 6943
00000010: 232d 2f43 a83d 2043 c084 9b3b 231c 0543
00000020: 0000 0000 f334 6e43 e155 3b42 1633 342b
00000030: 2d72 1043 7994 cd3d 473c 3b3d 24da a043
0.0 0.28046936 17.93363 233.31065 175.17632 160.24084 0.0047460496 133.10991
0.0 238.20683 46.833866 6.401974e-13 144.446 0.100380845 0.04571178 321.70422

tensor_network.2.running_var f4 [16]
00000000: 235c f325 9e01 7d3d 037e 1b45 4fc1 da48
00000010: 651f 7648 0e07 4e48 cf65 eb37 2408 0e48
00000020: 235c f325 26a0 e348 f452 8c46 2f5c f325
00000030: a8f3 2648 b7b2 4c3c 53e0 293b 3c8b 4f49
4.2216215e-16 0.06176912 2487.8757 448010.47 252029.58 210972.22 2.8061591e-05 145440.56
4.2216215e-16 466177.2 17961.477 4.2216246e-16 170958.62 0.012493781 0.0025921061 850099.75

worker_network.0.weight f4 [16, 1]
00000000: deb8 5e3f e2f7 5f3f f555 8abe 185d 453e
00000010: f370 673e 9ca2 463e e0bf 0fbf 51ba 2e3e
00000020: 256b cfba ac64 ea3e 3564 913e d7fb 213f
00000030: 6f91 29bf 375f b7b5 3847 4f3e 3c61 2bbf
0.87000835 0.87487614 -0.27018705 0.19273794 0.2260168 0.19397968 -0.56152153 0.17063262
-0.0015824778 0.45779932 0.28396764 0.632749 -0.6623754 -1.3662274e-06 0.20242012 -0.6694524

worker_network.0.bias f4 [16]
00000000: 0f6c 6dbf ffd9 96be 0395 11bf c206 4fbe
00000010: 144a e73e 5c00 0ebf 60d9 a8be ef24 ec3e
00000020: 1c12 19bb 9fc0 75be 8749 8bbc 13bf 13be
00000030: bcea 253f b855 bbbe 925b a23b 6fd5 6dbd
-0.9274301 -0.29463193 -0.56868 -0.20217422 0.45173705 -0.554693 -0.32978344 0.46121928
-0.0023356741 -0.2399926 -0.017002834 -0.14428358 0.648113 -0.36588836 0.0049547637 -0.058064874

worker_network.2.weight f4 [16]
00000000: eeae 743f ebb0 7b3f 8ebc 303f 52f4 7a3f
00000010: d9ab 7d3f d223 753f 8ebc 303f 7ad1 773f
00000020: 3216 683f e122 7c3f 38ef 803f 74b4 7b3f
00000030: 9051 7a3f 8ebc 303f 7b56 803f 8ebc 303f
0.9557942 0.9831683 0.6903771 0.98029053 0.99090344 0.9575778 0.6903771 0.9680401
0.9065887 0.9849072 1.0073004 0.98322225 0.97780704 0.6903771 1.0026392 0.6903771

worker_network.2.bias f4 [16]
00000000: d739 2938 47c4 c137 40e6 13b0 b648 15b6
00000010: 05b8 92b8 d412 d1b6 a547 992f a361 5bb7
00000020: 7362 c5b7 abd4 b938 acfe 8bb7 7c77 6f37
00000030: 59c2 7eb8 e305 f030 8570 85b8 de4a bbb0
4.0346607e-05 2.3098792e-05 -5.3805493e-10 -2.2245054e-06 -6.996099e-05 -6.2308773e-06 2.7881444e-10 -1.307615e-05
-2.3530074e-05 8.8611e-05 -1.6688682e-05 1.427333e-05 -6.073932e-05 1.7463971e-09 -6.3628926e-05 -1.3627319e-09

worker_network.2.running_mean f4 [16]
00000000: c71c 4040 ec1a 5740 0000 0000 a46e 2e3f
00000010: 03c7 b23f 23d7 013f 0000 0000 aa27 973f
00000020: 4d5a eb20 6303 da3f 3346 913f 63bf 1e40
00000030: d743 983e 0000 0000 c779 523f 0000 0000
3.0017564 3.3610182 0.0 0.68137574 1.3966984 0.507189 0.0 1.180898
3.9870305e-19 1.7032284 1.1349548 2.4804313 0.29739258 0.0 0.8221707 0.0

worker_network.2.running_var f4 [16]
00000000: b2a1 9241 41cf a241 235c f325 c12d 6f3f
00000010: 4298 c03f 1728 2f3f 235c f325 9e38 5e3f
00000020: 235c f325 8b64 ac40 a096 0e40 544e 2e41
00000030: 108f e03d 235c f325 17a2 923f 235c f325
18.328953 20.351198 4.2216215e-16 0.9342919 1.5046465 0.6842055 4.2216215e-16 0.8680514
4.2216215e-16 5.3872733 2.2279434 10.894123 0.10964787 4.2216215e-16 1.1455716 4.2216215e-16

batch_network.0.weight f4 [16, 1]
00000000: 54a4 8abd 4f18 813e 83fd c73e 1754 cebc
00000010: f26b 17bf e28f 65be ca1f 823e 80f9 0b3f
00000020: c74e 5abd 1d02 bbbe cb61 2d3e 1431 5b3e
00000030: 70fd f63e d99a 2fbd b7e7 6c3e 4594 c13e
-0.06769624 0.25213858 0.39060602 -0.025186582 -0.59149086 -0.22418168 0.25414878 0.5467758
-0.053297784 -0.3652505 0.16931836 0.2140544 0.48240232 -0.042872284 0.23135267 0.37808433

batch_network.0.bias f4 [16]
00000000: d689 fbb4 e3c8 a43e bbb1 9cbe 5259 c93d
00000010: 4583 d0bd 5bc6 28ba 39a3 9a3e de93 f63d
00000020: 5fa8 87bd 959d ec3e fdd0 cdbd 232c 4fbe
00000030: c59a 57bd cd7e f9be d5fe 6c3d 5789 4d3e
-4.6852682e-07 0.32184514 -0.30604348 0.098314896 -0.10181288 -0.00064382487 0.30202654 0.12039922
-0.06623911 0.46213976 -0.10049627 -0.2023168 -0.052637834 -0.48729554 0.057860214 0.20071922

batch_network.2.weight f4 [16]
00000000: 8ebc 303f 42a4 7d3f d145 753f 55e2 7b3f
00000010: 8ebc 303f 8ebc 303f 992d 813f 3698 743f
00000020: 8ebc 303f e60c 803f 197f 7e3f edea 7d3f
00000030: b6cf 7e3f 8ebc 303f 49fd 793f 8be5 7c3f
0.6903771 0.9907876 0.95809656 0.9839223 0.6903771 0.6903771 1.009204 0.95544755
0.6903771 1.0003936 0.99412686 0.99186593 0.9953569 0.6903771 0.9765211 0.98787755

batch_network.2.bias f4 [16]
00000000: 5af2 f130 5736 3fb7 3665 9c38 8d4a 4fb7
00000010: 756d f62f fbe7 b2af bd00 e0b7 b411 c436
00000020: bd75 f430 49d3 b2b8 bee4 e037 72e9 3938
00000030: f14e 9db7 427c 8e30 144a ba36 a096 6d38
1.7603938e-09 -1.1397139e-05 7.457512e-05 -1.2355519e-05 4.4824913e-10 -3.2542843e-10 -2.6703225e-05 5.843316e-06
1.77868e-09 -8.527056e-05 2.6809397e-05 4.432485e-05 -1.8752618e-05 1.0367176e-09 5.551856e-06 5.6645484e-05

batch_network.2.running_mean f4 [16]
00000000: 0000 0000 620e c042 86f0 1043 836d b43d
00000010: 0000 0000 0000 0000 2e83 c142 3f39 4d43
00000020: 0000 0000 bbaf 833e e88d 7842 8191 9b42
00000030: 9120 3543 0000 0000 fc07 b042 39bb 0e43
0.0 96.02809 144.93954 0.0880995 0.0 0.0 96.75621 205.22362
0.0 0.2572001 62.13858 77.78419 181.12721 0.0 88.015594 142.73134

batch_network.2.running_var f4 [16]
00000000: 235c f325 f0b3 de47 b601 8048 e961 c93f
00000010: 235c f325 235c f325 cf32 e247 e3c7 ff48
00000020: 235c f325 c687 663d 0c48 3c47 00c1 9347
00000030: aa87 c748 235c f325 9a1c bc47 a100 7748
4.2216215e-16 114023.875 262157.7 1.5733005 4.2216215e-16 4.2216215e-16 115813.62 523839.1
4.2216215e-16 0.056281827 48200.047 75650.0 408637.3 4.2216215e-16 96313.2 252930.52

ps_network.0.weight f4 [8, 1]
00000000: 7f23 02be 69e6 c13e 3496 093f 3a30 6d3d
00000010: 7276 6b3e 1515 4abc 1678 ceba 67e2 03bf
-0.12708853 0.37871101 0.53744817 0.05790732 0.22994402 -0.012334128 -0.0015752341 -0.5151734

ps_network.0.bias f4 [8]
00000000: c9e7 44bc cc59 a2bd adbc 7e3c 3f4a 00bf
00000010: 2b28 a537 a91d 243d 2bb0 10bf 4493 1bbf
-0.0120181525 -0.07927284 0.0155479135 -0.5011329 1.9688237e-05 0.04006735 -0.5651881 -0.60771585

ps_network.2.weight f4 [8]
00000000: 3556 593f acba 7b3f 8042 7c3f 8ebc 303f
00000010: 3e43 793f ee6f 7f3f 8ebc 303f 8ebc 303f
0.84897166 0.98331714 0.9853897 0.6903771 0.9736823 0.99780166 0.6903771 0.6903771

ps_network.2.bias f4 [8]
00000000: ed8d c836 8e93 8538 b927 08b8 cd94 902f
00000010: 09ac 5eb7 b819 7d37 e708 0b31 5191 f7b0
5.976987e-06 6.3694184e-05 -3.246192e-05 2.6299177e-10 -1.3272286e-05 1.5085963e-05 2.0232223e-09 -1.8012917e-09

ps_network.2.running_mean f4 [8]
00000000: 5294 202f 921d 0f3e 066d 873e 0000 0000
00000010: 7341 da3d 218a 1b3d 0000 0000 0000 0000
1.4604609e-10 0.13976124 0.26450366 0.0 0.10657015 0.037973527 0.0 0.0

ps_network.2.running_var f4 [8]
00000000: 8fcc 912a 2a6f c63c 2100 9b3d 235c f325
00000010: 7565 663c 9301 2338 235c f325 235c f325
2.5899115e-13 0.024222929 0.07568384 4.2216215e-16 0.014062275 3.8863694e-05 4.2216215e-16 4.2216215e-16

main_network.0.weight f4 [128, 104]
00000000: dd5b 6fbd faa3 ecb9 ab23 723d 6e67 983c
00000010: 1e4c 63bc e0af 863c 93d9 28bd 4245 c73c
00000020: 9116 833c e930 8ebd c32a fb3d c393 a4bd
00000030: 355e 62bd ffde b3bd 51a5 a83d 7090 193d
00000040: 0d4a c3bd 690e 843d 7562 9f3d afe3 663d
00000050: d744 b7bd fb6e 7bbd 0c3c 663c 8bc4 58bd
00000060: d347 943c 7b33 a3bd 552f 013d 2f4a 6dbd
00000070: 784a af3c e251 e4bc 8452 8ebc 0527 50bd
00000080: 2cda ec3d 9bef c43d 4a1c c03d 1005 9cbc
00000090: ac6f d3bc 20b7 9a3d 9539 c7bd cfe8 8f3d
000000a0: c289 323d b3aa b63d 55fc babd 1a0a b43d
000000b0: a78d d63d 21b0 d63c bbd0 2e3d c4d0 d3bd
000000c0: f73a 65b0 33aa 553d 9c9e 163c 1d02 2fbd
000000d0: fdb8 ecbd af8b c1bd 485c 76bd 432a 36bc
000000e0: d2fe da30 97d1 983d 761f 0fbd 5019 f133
000000f0: 89a4 0cbd 9865 4e3d 3a8a cf3c a8bf 51bd
00000100: fb95 4e3b 2504 a53d 13da b0ae d6db 973d
00000110: cc0e 52bd a2ef c93b 1f65 b02f 656a 933d
00000120: b631 8bbc 3531 923d f06b 793d 93aa c7bd
00000130: 2d4f 3cbd 0744 d5af 94ef a13d 38ce 8534
00000140: fa4e 5331 ab98 2cbd 3267 bd3d 2693 89bb
00000150: 1840 b72b 4324 082f 7468 8ebb 68f9 3fbd
00000160: c937 02b5 86d9 b43d 8572 3e3d 379f 3d3d
00000170: c946 f63c 6e20 812f df7d cb3d 94a0 dc3c
00000180: 72b5 8dbc 79f2 88bd 866d c6bc e780 8bb3
00000190: 454b b9bd 62c3 d2bc 9962 8d2c 699e 54b2
000001a0: a361 cbbd f6e3 bdbd d053 72bd f384 0e3d
000001b0: 5eb9 a3bd 70b7 473d 19ca 473c e43a 15bc
000001c0: c8d9 3f3c 7913 8a3d 4a48 a13d a5b7 34bd
000001d0: 6bd6 43bc 3bd4 e03c 4bc3 62bd 959e 85bd
000001e0: 4404 293d 3e58 643d df7f c63c cc00 a8bd
000001f0: 6dbf 9d3d 069b ebbc 6bcb 6b3d fe29 b23d
00000200: b42e 39bc 8ec8 4cbd bebf bebc a44d c0bd
00000210: b325 583d 125b f63c 98dd b7bc 983c 493d
00000220: 511f a4bd 29d1 a73d 1d13 78bc d42e ab3d
00000230: bc38 2fbd 39df b7bd 309c 1d3c 1745 44bc
00000240: 8bfd 243d b530 233c 3393 b9bd a489 063d
00000250: 34b3 acbc d9f2 40bd 002c be3d 6cfe 61bd
00000260: 1919 8e2f 4f63 65bc 4463 88bd 51b6 27bd
00000270: fe84 24bc 3718 a93d d852 4a3d 3171 6c3d
00000280: 9249 deaf 8a91 a73d 049d cc3d 4a62 0534
00000290: b6f2 8c3c 3e0d 0ebc 557b 95bd ac28 d23c
000002a0: 9dda 5fbd 0139 b3bd 00e0 44b1 ba21 a4bd
000002b0: dd49 b1bd e074 483d b544 10af 7fa2 d7bd
000002c0: 0d64 233d dc4f d43b 6ae2 9b3c 83c8 81bc
000002d0: 680f 84bd f33c 80b3 8444 9a3c 1a16 3a30
000002e0: 2f91 aeb0 8f1f ccbc 3efc 843d c495 df3c
000002f0: e4bd 5230 4b98 bb31 5dee ad3d 8402 853d
00000300: 6503 49b1 b7b0 5abd de54 7b3d 53a0 743c
00000310: d338 c23c 48f0 182f cea5 453d 24ae 82bd
00000320: 62f4 1dbc 74cf 823c b88a ce3d 9e8e b82d
00000330: ddbd 113b b1d2 ecbd f7db afb0 ff35 422f
00000340: 39bc ce3c 7e5a 3c3c 4f08 703d 2da0 83bd
00000350: d303 77bd 7084 a13d 89fe f1bc e6ad a73d
00000360: 18ee a73d fd8f 5f3d f784 533d 8b58 24bd
00000370: fb4f e1bc 44f2 c03d 9f16 aa3d b374 70bd
00000380: 79fb dfbc a666 7c3d a114 f1bc 7934 5dbc
00000390: b812 b73b fb08 863d ec14 803d 949b 003d
000003a0: a096 423d f79a f33c af16 44bd 1c48 1abd
000003b0: 831b 9d3d fff2 f93c e846 213d 5eb1 6f3d
000003c0: 125a a63b 05ae c5bc 8d88 6c3d 1877 da3d
000003d0: 15e8 b4bd b0a8 90bc 73fc da3d 2eee df3c
000003e0: 9338 8f3d 3304 163d 5561 fb3c 76b5 6abd
000003f0: 5891 54bb 57f4 7bbc e0a6 dd3c 5f13 8a3d
-0.058437217 -0.000451356 0.059116047 0.018604007 -0.013873128 0.016441286 -0.04122312 0.024325017
0.016001971 -0.069429226 0.122640155 -0.08035996 -0.055265624 -0.087827675 0.082346566 0.037491262
-0.095356084 0.06448061 0.07782451 0.05636948 -0.08948677 -0.061385136 0.014052402 -0.052921813
0.018100655 -0.079688035 0.03153928 -0.057932075 0.021397814 -0.027871076 -0.01737333 -0.050818462
0.115650505 0.096160136 0.09380396 -0.019045383 -0.025810085 0.075544596 -0.0972778 0.070268266
0.043588407 0.08919277 -0.0913016 0.08790989 0.10476237 0.026207032 0.04267953 -0.10342553
-8.339351e-10 0.052164268 0.009193089 -0.042726625 -0.11558721 -0.09450471 -0.0601466 -0.011118474
1.5934012e-09 0.07461851 -0.034942113 1.1227041e-07 -0.0343366 0.050389856 0.025334466 -0.05120817
0.00315225 0.08057431 -8.042291e-11 0.07414977 -0.051283643 0.0061625997 3.2086064e-10 0.071980275
-0.016991477 0.07138292 0.060893953 -0.09749331 -0.045973945 -3.879281e-10 0.07907024 2.4923224e-07
3.0749434e-09 -0.042137783 0.092481986 -0.0041984497 1.3020722e-12 1.2382011e-10 -0.004345948 -0.04686871
-4.850995e-07 0.08830552 0.046495933 0.046294417 0.03006305 2.3488006e-10 0.099361174 0.026932038
-0.017298434 -0.06686873 -0.024222147 -6.496139e-08 -0.0904756 -0.025727931 4.0184076e-12 -1.2376042e-08
-0.09930732 -0.09271996 -0.05916196 0.03479476 -0.0799434 0.048758924 0.01219418 -0.009108279
0.011709638 0.06741995 0.07875116 -0.04412045 -0.011952977 0.02744495 -0.055362027 -0.06524388
0.041263834 0.055748217 0.024230896 -0.08203277 0.07702527 -0.028760444 0.05756704 0.086994156
-0.011302639 -0.04999595 -0.02328479 -0.09389809 0.052770328 0.030072723 -0.022444531 0.049130052
-0.08013786 0.08194191 -0.015141276 0.08358541 -0.042778715 -0.08978123 0.0096197575 -0.011979363
0.04028086 0.009960343 -0.09061279 0.032846108 -0.021081544 -0.047106598 0.09285736 -0.055174276
2.5847482e-10 -0.014000728 -0.066595584 -0.040945355 -0.010041473 0.08256572 0.049395412 0.057725135
-4.043384e-10 0.08182056 0.09990886 1.2422348e-07 0.017205577 -0.008670149 -0.07298914 0.02565416
-0.054651845 -0.08751107 -2.8649083e-09 -0.08014245 -0.086566664 0.048939586 -1.3121133e-10 -0.105290405
0.039890338 0.0064792465 0.019028861 -0.015842682 -0.06448251 -5.971551e-08 0.018831499 6.7697814e-10
-1.270143e-09 -0.024917392 0.06493424 0.027293094 7.6667406e-10 5.45973e-09 0.0849273 0.064946204
-2.925128e-09 -0.053391185 0.061360233 0.014930802 0.023708737 1.3909685e-10 0.048253827 -0.06380871
-0.009640785 0.015968062 0.10085052 2.0981713e-11 0.0022238411 -0.11563624 -1.2795444e-09 1.766338e-10
0.025236236 0.011496184 0.058601674 -0.064270355 -0.06030638 0.078865886 -0.029540317 0.08187465
0.0819971 0.054580677 0.051640477 -0.040123504 -0.027503958 0.094212085 0.08305096 -0.058705043
-0.027341591 0.06162133 -0.029428782 -0.01350128 0.0055869482 0.06544682 0.062539905 0.03139837
0.04750693 0.029736979 -0.047873195 -0.037666425 0.07671263 0.030511377 0.039374262 0.05851876
0.005076655 -0.02413083 0.057747412 0.106672466 -0.08833329 -0.017658561 0.10692682 0.027335253
0.069932126 0.0366251 0.03068606 -0.05730196 -0.0032435264 -0.015378079 0.027057111 0.06741976

main_network.0.bias f4 [128]
00000000: 2cbf fd35 7ed3 0238 feb4 c837 5679 a837
00000010: 56de fdb5 1af1 50b8 3fbc f7b6 58f9 a6b7
00000020: 736d f7b6 4b25 3eb6 554b 3bb8 bee6 7036
00000030: 1667 ec35 c409 6537 2576 b736 b4f3 34b7
00000040: 22df e9b4 bc1c 1137 bdb7 c037 be81 2137
00000050: aff7 f037 ab3a 70b7 6382 9eb3 07b8 1637
00000060: d8ef a636 6652 1636 0d1b 94b3 102e 9eb5
00000070: afab f833 7886 c337 13f7 5536 e66b 6e37
00000080: 45a1 3735 c271 20b5 c1ef cb37 606a 5937
00000090: 8293 4e38 1ebc 3fb7 3432 9237 af71 a736
000000a0: c3c6 a3b5 e547 a7b6 9c3e c4b6 6a47 8936
000000b0: 9991 d9b5 ba34 1436 2d3b 9cb3 505d 79b5
000000c0: e67b cbb6 f9ce 61b7 4098 1d37 e617 3937
000000d0: 7c34 e1b7 b642 f536 96ba e936 432a 7e36
000000e0: 5237 b0b6 11a8 c6b4 3c90 87b5 1f8a 27b6
000000f0: 9e6e 0d38 d1da c2b5 c908 28b7 63c2 5db6
00000100: 3191 4137 ba4a f5b6 0ecf 0cb7 2daa 3d37
00000110: 25f3 1337 e449 3e37 a2b2 d2b5 debe 9136
00000120: 4764 91b7 be7f 2137 cd7f 43b7 c2ed b536
00000130: 55ef aab7 b793 4db6 84fe 12b6 e4c7 2438
00000140: 0371 0137 0253 9235 0357 57b7 e9d8 2538
00000150: 6d32 cbb7 19a4 b4b7 5ccb 48b7 d732 27b7
00000160: 6185 b4b7 9fc7 34b8 8d03 c435 bc3a b0b7
00000170: f8b7 05b7 09f5 e0b6 535c 5236 6884 9ab6
00000180: 51b7 80b7 a462 bb36 0a3f 28b6 7aff ffb6
00000190: e3c9 1ab6 aa91 22b8 0ab3 5a35 9110 0a37
000001a0: 5d2b 2237 cbfe 8437 6042 a936 e931 2437
000001b0: e58a 29b7 3b3e 08b5 cf57 59b6 762f 8137
000001c0: 104a 8b37 6874 cc36 d549 c736 2041 fa36
000001d0: a2f9 f738 32c0 63b7 a28c 93b6 7992 8636
000001e0: 4e07 8ab8 545e 0fb8 ed3f ba34 5c48 f1b7
000001f0: b2e7 8bb7 6f44 b335 f3a3 8a36 8227 cbb6
1.8905607e-06 3.1191383e-05 2.3926139e-05 2.0083662e-05 -1.8914677e-06 -4.9815608e-05 -7.3830884e-06 -1.9904852e-05
-7.373915e-06 -2.8333914e-06 -4.4654433e-05 3.5897096e-06 1.7613372e-06 1.3651737e-05 5.467579e-06 -1.0785578e-05
-4.3561982e-07 8.649364e-06 2.2973743e-05 9.626556e-06 2.8725566e-05 -1.4318774e-05 -7.3811655e-08 8.983544e-06
4.975107e-06 2.2399704e-06 -6.8967076e-08 -1.1785323e-06 1.1579629e-07 2.3308428e-05 3.188329e-06 1.42110275e-05
6.840749e-07 -5.9770184e-07 2.431113e-05 1.2958975e-05 4.9251605e-05 -1.1428287e-05 1.7427934e-05 4.9902224e-06
-1.2202294e-06 -4.9853575e-06 -5.848544e-06 4.091232e-06 -1.6210134e-06 2.208441e-06 -7.27508e-08 -9.2895516e-07
-6.064295e-06 -1.3459235e-05 9.393378e-06 1.1032424e-05 -2.684653e-05 7.309335e-06 6.9656626e-06 3.787355e-06
-5.251649e-06 -3.7002658e-07 -1.0100262e-06 -2.4965336e-06 3.372004e-05 -1.451781e-06 -1.0015626e-05 -3.3044714e-06
1.1537501e-05 -7.3102683e-06 -8.392859e-06 1.13049e-05 8.818494e-06 1.13420865e-05 -1.5698208e-06 4.3435566e-06
-1.7332042e-05 9.62609e-06 -1.1652662e-05 5.421899e-06 -2.0377027e-05 -3.0633362e-06 -2.1903843e-06 3.928681e-05
7.715312e-06 1.0902006e-06 -1.2835258e-05 3.954108e-05 -2.4222967e-05 -2.1534086e-05 -1.1968277e-05 -9.965813e-06
-2.1519782e-05 -4.3101256e-05 1.4604171e-06 -2.1008185e-05 -7.970251e-06 -6.704246e-06 3.1346178e-06 -4.6049718e-06
-1.5344152e-05 5.5845176e-06 -2.5070644e-06 -7.6293336e-06 -2.3065302e-06 -3.875947e-05 8.1471865e-07 8.229298e-06
9.666049e-06 1.5854273e-05 5.0443196e-06 9.786782e-06 -1.0105524e-05 -5.0754505e-07 -3.238663e-06 1.5400099e-05
1.660458e-05 6.0932252e-06 5.9392573e-06 7.458162e-06 0.000118243755 -1.3575003e-05 -4.397313e-06 4.010563e-06
-6.5817134e-05 -3.4181707e-05 3.4691712e-07 -2.8763134e-05 -1.6677983e-05 1.3356456e-06 4.1318067e-06 -6.0544708e-06

main_network.1.weight f4 [128]
00000000: 2df6 7e3f 7d23 773f 3360 713f db8f 893f
00000010: b7d3 823f 3b15 833f 73f1 823f 54a3 783f
00000020: 5ae2 7b3f f99a 7d3f 84a1 803f 062e 803f
00000030: 882d 773f 71bb 823f 25fe 7b3f f5e6 753f
00000040: 61f0 803f 8df8 803f 15fc 833f 98e1 803f
00000050: 891d 803f 7016 783f b797 7d3f fc63 803f
00000060: f783 7d3f af9d 773f 6aa3 833f c664 7b3f
00000070: 82d8 7d3f 496b 803f dff1 813f b882 813f
00000080: 186c 7e3f 3220 7f3f 8a34 783f da7c 813f
00000090: b833 853f 09d7 803f e3e5 7b3f a61a 7e3f
000000a0: e1c2 7d3f 7aab 7e3f 030b 783f 40ff 843f
000000b0: 1432 793f fab8 803f 8ceb 803f 6869 853f
000000c0: dab2 7c3f 83df 7a3f f24e 803f 3b75 7a3f
000000d0: 94f5 7a3f 4728 843f 69ab 7d3f a114 813f
000000e0: 7859 7d3f 91c3 813f 0a1a 7f3f 4354 783f
000000f0: eb17 883f 7bbe 833f c648 7c3f 77b6 7b3f
00000100: ed30 7f3f 6c19 7b3f 1858 733f 40b8 723f
00000110: 6353 803f 1215 783f 6574 843f 70c6 783f
00000120: de6c 753f c310 6f3f 4f51 7c3f a760 813f
00000130: 10bd 863f e835 843f 41d1 793f ee03 863f
00000140: a49e 713f a1d8 823f dee0 763f 67e6 7e3f
00000150: 45c6 813f 88de 7e3f d85d 763f 66aa 793f
00000160: 896a 7b3f e15d 893f f7c3 7f3f 4dc7 7d3f
00000170: 781c 803f f010 7e3f 57a1 873f 91ff 803f
00000180: c9ed 7f3f dfeb 7d3f b616 803f 54fa 813f
00000190: fe98 763f b2bf 863f 55a1 7c3f 36c6 7d3f
000001a0: 0f9d 813f f731 763f fab1 733f 32d1 7e3f
000001b0: 023e 783f 993d 7a3f 099f 7e3f e25f 863f
000001c0: 873c 7d3f 02e0 793f f7e1 6e3f c885 7c3f
000001d0: 0fe2 8c3f 30c3 7c3f 44aa 773f cbaa 853f
000001e0: aec7 843f 8f49 813f fbb1 823f 6f94 803f
000001f0: e298 793f 5796 803f 3bf3 7b3f 1f8c 7d3f
0.99594384 0.96538526 0.94287413 1.0747026 1.022086 1.0240854 1.0229934 0.9712422
0.9839226 0.99064595 1.0049291 1.0014045 0.9655385 1.0213453 0.9843467 0.9605554
1.0073358 1.0075852 1.0311304 1.0068846 1.0009013 0.96909237 0.99059623 1.0030513
0.9902949 0.9672498 1.0284245 0.98200643 0.9915849 1.0032741 1.0151938 1.0118017
0.9938369 0.996585 0.9695517 1.0116227 1.0406408 1.0065624 0.98397654 0.9925941
0.99125487 0.994804 0.968918 1.0390396 0.9734204 1.005645 1.0071883 1.0422792
0.98710406 0.979973 1.0024092 0.9783513 0.9803097 1.0324792 0.99089676 1.008442
0.98964643 1.0137807 0.9964911 0.97003573 1.0632299 1.0292505 0.98548543 0.98325294
0.9968403 0.98085666 0.95056295 0.94812393 1.0025448 0.9690715 1.0348021 0.9717779
0.95869243 0.9338495 0.9856157 1.0107621 1.0526447 1.0328951 0.9758492 1.0469949
0.9438269 1.022236 0.9643687 0.99570316 1.0138632 0.99558306 0.96236944 0.9752563
0.98209435 1.0731775 0.99908394 0.99132234 1.0008688 0.99244595 1.0596112 1.0077993
0.99972206 0.99188036 1.0006931 1.0154519 0.963272 1.0527251 0.98683673 0.9913057
1.0126055 0.9616999 0.95193446 0.99537957 0.96969616 0.9775024 0.9946142 1.0498011
0.9892048 0.97607434 0.93313545 0.98641634 1.1006488 0.9873533 0.9674418 1.0442747
1.0373437 1.0100573 1.0210565 1.0045298 0.97498906 1.004588 0.98418015 0.9904193

main_network.1.bias f4 [128]
00000000: 0053 e1bc 6621 25bc be54 11bd 8027 1e3d
00000010: 061a 1a3d 22b8 0c3c b5a7 a73a a386 20bc
00000020: a640 c63b 95af a83c 34f5 dabb 7d2d 103c
00000030: 0654 41bd 3692 023d 8a21 42bc 1ceb f1bc
00000040: 18a7 adbb e873 643c 4cfd f8bc cf12 92ba
00000050: 2bcd a13c d9fe 4abc 616c a23c 468f 303c
00000060: 53bf 78bb a8aa f5bc 8536 8c3c f825 713b
00000070: f914 e6bc 1517 2e3c f55f ba3c a98c fd3b
00000080: dcac f43b 6639 bbbb da66 ae3b 5778 80bc
00000090: 83ba 373d 7700 993c 1c86 a9ba 2cb7 d4bc
000000a0: ca58 d838 39aa c13c 7abb 76bc 95b2 823c
000000b0: f03c 68bd 5505 c63c d2b7 5f3c 93f1 813c
000000c0: 222c 9e3b 003e b6bc b268 2e3d 7758 08bc
000000d0: 38d0 b7bc da9e 713b 730a 5bbc 0aa8 2b3c
000000e0: 441d 90bb 792c 9e3a 6f30 c53a 833a c2bc
000000f0: bae5 b23d e98b 5a3d c1c2 d3bb 20c1 8a3b
00000100: 1769 073d eb06 0c3b b38d efbc 08e0 82bc
00000110: aec9 eb3c cd22 edbc 3f76 073d ca10 00bd
00000120: 336c 1bbc 192a 85bd 6fa9 8cbc c8e9 eab9
00000130: 4c89 173d fe4c 19ba bc83 f7bc 8a17 1abc
00000140: 08cb 37bd 3eb2 023d c64b 3539 d6b5 31bc
00000150: 62e0 5cbc e78d 403c 9f0a 90bc 0835 debb
00000160: 5089 a5bb 2fde 163c f50a 8a3b de9d 20bd
00000170: 13a3 003b 0d42 943c 76f6 a93c 6958 d43c
00000180: 825b 14bd 4386 683b ce80 57bb f2cd 3c3d
00000190: 574a c2bc 65ff c63c c26c c33a e4a9 28bc
000001a0: e657 9c3b 3f47 15bd 8259 09bd 34cc bb3b
000001b0: 8c0d 76bb 9fa1 e4bb 13e6 2b3c 19db 8d3c
000001c0: e7c9 1abc cc0d 3abd 78eb 5ebd a130 f6b9
000001d0: d02c 913d 391f 83bc d4ad a0bc 9a13 543c
000001e0: 1214 e13c a0b9 af3b 1779 6b3d d2a7 b23c
000001f0: d538 51bc 85d3 733c 7c6a f8bc 47c7 a8ba
-0.027505398 -0.010078764 -0.035481207 0.03861189 0.037622474 0.008588823 0.001279107 -0.009797725
0.006050187 0.020591537 -0.0066820625 0.008799908 -0.04719927 0.03187772 -0.011848817 -0.029531054
-0.00529946 0.01394365 -0.030394219 -0.0011144521 0.019751152 -0.012389862 0.01982707 0.010776347
-0.0037955835 -0.029988602 0.01711584 0.0036796313 -0.028086172 0.01062562 0.022750834 0.0077377153
0.0074668955 -0.0057136295 0.0053223195 -0.015682383 0.044855606 0.01867698 -0.0012933644 -0.02596625
0.00010316221 0.023640739 -0.015059346 0.015954295 -0.05669874 0.024172464 0.013654666 0.015862262
0.0048270384 -0.02224636 0.042580314 -0.008321873 -0.022438154 0.0036868365 -0.0133691905 0.010477075
-0.00439802 0.0012067697 0.0015044342 -0.023709541 0.08735223 0.053356085 -0.0064624255 0.004234448
0.033059206 0.0021366428 -0.029242372 -0.015975967 0.028782692 -0.028947258 0.033071753 -0.03126601
-0.009486246 -0.0650217 -0.017170636 -0.0004480614 0.03699617 -0.00058479595 -0.030214183 -0.009405026
-0.04487136 0.031908266 0.00017289733 -0.010846576 -0.013481231 0.011752582 -0.01758319 -0.006781224
-0.0050517693 0.009208246 0.004212732 -0.039213054 0.001962845 0.018097902 0.020747405 0.025921063
-0.03622008 0.0035480417 -0.003288317 0.046094842 -0.023717089 0.024291703 0.0014909732 -0.010294411
0.0047712205 -0.0364449 -0.033532627 0.00573113 -0.0037544696 -0.0069772745 0.010491866 0.017316388
-0.009447551 -0.045423314 -0.05442378 -0.00046957008 0.070886254 -0.016006099 -0.019614138 0.0129441265
0.02747539 0.0053627044 0.057488527 0.021808539 -0.0127698975 0.014881973 -0.030324213 -0.0012876772

main_network.1.running_mean f4 [128]
00000000: 8260 143e caa9 8b3c d039 f1bc ebeb 743d
00000010: 7d27 a2bd 0e6f 8d3d 81e3 8abd 613b b9bc
00000020: 4f0a b43d a229 50bd fc9e ccbd 7738 2c3d
00000030: 150b 5abd 82b4 cfbd b995 f73d b02d 04bd
00000040: e4c8 9e3d 67cb a93d c7b8 633d b3a5 8c3d
00000050: 44b7 493d c9a2 6d3d 12d6 d6bd 5dcc 86b9
00000060: 316e 163d 1a77 4cbd fefd 993c 6f37 dc3d
00000070: 6c27 59bc 4ea7 fa3d f436 0b3d 6165 a5bd
00000080: b50c 1fbe 7f74 e33d f49c 4cbc 01b3 023d
00000090: d315 d23d 2d23 35bd 9a96 05bc 71bd 113d
000000a0: 95e7 793c 7fac 313b d83d 3bbc 5da0 ad3d
000000b0: a2de d7bc fe94 43bd 7967 efbc 8f3c 953d
000000c0: 7bcf d73b 9fed 813c 7bd1 9ebd 5c62 4bbd
000000d0: 390f 5c3d c702 0d3e d38e 70bd e25e 30bd
000000e0: 05d0 d53c 34d8 873c 0275 6ebc 8d59 c23d
000000f0: 5f2e cebd 93e6 883c b0f5 98bd 4499 afbc
00000100: bb3a 12bd e99f 0b3d 7992 fc3c 55ce 3abd
00000110: b1de cd3d 98f6 8abc 212a af3c 2dae 41bc
00000120: 99e8 653d 4d2f 4ebc d1a2 3e3d 4190 973d
00000130: 624b ca3d 5436 993d 117d 24bd 8582 2b3e
00000140: f4df 96bc de80 5abd a3c0 883d d789 033e
00000150: 3ade 773d 054a 9bbd 055b d8bb fc00 4dbd
00000160: 8567 cfbd 6a7e e53d 6d2c 19bd bcb3 2a3d
00000170: 0df6 46b8 2eb1 98bd 6909 763d d862 c4bd
00000180: 1c20 483d 39cc 8cbc 3215 183d d77d e1bd
00000190: 4efb 0e3d b788 af3d c757 b5ba 8690 483d
000001a0: aad9 ed3d 89f2 8abc 46f4 6dbd b8d3 7f3d
000001b0: 06bd 4d3d 6e75 3dbd 0362 573d dba6 d93d
000001c0: 8e10 f93c e511 0cba ed6c 8e3d e3a2 12bd
000001d0: 93ab 363d 234b b23d a545 3cbd 5b82 773e
000001e0: 976f 8f3d fc10 dc3d e3f8 b5bd 228a 6c3d
000001f0: 39ae d0bd 5e57 d0bc 37de 0d3d 5147 a23d
0.1448994 0.017048735 -0.029446512 0.0597953 -0.07917688 0.069059476 -0.06781674 -0.022611322
0.08791029 -0.050820954 -0.09991261 0.042046037 -0.053233225 -0.10141851 0.12089104 -0.032270133
0.077531606 0.08290749 0.05559614 0.06867542 0.04924704 0.058016572 -0.104900494 -0.00025710734
0.03672618 -0.04991827 0.01879787 0.107527606 -0.013254028 0.12238942 0.033987954 -0.08075977
-0.15532191 0.11106204 -0.012488592 0.031908993 0.10258069 -0.044223 -0.008153582 0.035581056
0.015252967 0.0027110872 -0.011428319 0.084778525 -0.026351277 -0.047749512 -0.029224144 0.07286941
0.006586013 0.015860377 -0.07754799 -0.04965435 0.053725455 0.1377059 -0.058729958 -0.043059237
0.026100168 0.016582586 -0.014554264 0.09489737 -0.10067438 0.016711509 -0.07468736 -0.021435387
-0.03570054 0.03408805 0.030831562 -0.04560693 0.10052241 -0.016963288 0.021382393 -0.011821312
0.056130026 -0.01258452 0.046541993 0.07400561 0.098776594 0.074810654 -0.040158335 0.16749008
-0.018417336 -0.053345554 0.066773675 0.1284555 0.060514666 -0.075824775 -0.0066026472 -0.050049767
-0.10127167 0.11205752 -0.037395883 0.041675314 -4.743603e-05 -0.07455669 0.060067568 -0.095891654
0.048858747 -0.017187225 0.03712959 -0.1101033 0.03490763 0.08570998 -0.0013835364 0.048965953
0.11613782 -0.016961353 -0.058094285 0.06245777 0.050229095 -0.046254568 0.052583706 0.10627528
0.030403402 -0.00053432427 0.0695437 -0.035799872 0.04459722 0.087057374 -0.045964856 0.2417082
0.07003706 0.10745427 -0.08885362 0.05774892 -0.1018948 -0.025432285 0.03463575 0.07923759

main_network.1.running_var f4 [128]
00000000: 77f0 893e efeb ad3e b060 943e a00b 0a3e
00000010: 9fdf 523e cdba 183e fa9b 8c3d ca86 903e
00000020: 25d5 383f 34ab 253f f36f 003e 233e 9e3e
00000030: e029 b13e 00d7 ed3d b006 623f 999e 2a3f
00000040: 1bd8 e63d 5e7c 973e 6fe0 943d 02cc 7c3e
00000050: 8f4f d83e faa6 783e 814a 763e 79c5 913e
00000060: a2a1 103e b120 7a3e 8385 583e e309 8d3e
00000070: fda4 8a3e 4eba b03e 8f83 643e 8ea8 e63d
00000080: 6b57 b43d 2de3 053f b151 bb3e 5acb b03e
00000090: 3f16 c43d edb5 f63e 1e4c 0b3f 62cb 063e
000000a0: 986c d53e 670e 563e 152a 063f c035 b03d
000000b0: 7d58 ad3d e892 d83e f5b2 e33e 36f7 1f3e
000000c0: aeda 223f 25b3 503e d52c f93d e7fb a53e
000000d0: 6efe 303e 6b33 b23e b5c7 613e e4a5 bd3d
000000e0: 5756 3d3e b428 cd3e 00a6 503e 7d04 9a3e
000000f0: ec11 6c3d bde6 e53e 81a4 303e d218 093f
00000100: 72e4 223e cde4 d23e 4ecd 233e 592c 023e
00000110: 17fb 873e edd9 533e 6352 673e e7ba a93e
00000120: 0c94 863d 9810 803e 7465 c13d 4451 bb3e
00000130: 2718 2e3e 1794 2d3e 5452 d03e eb5d 7b3e
00000140: eb2e 093f 4b07 3f3e a3ad 993e a99a f53d
00000150: aa06 0a3e 8f3e 013e d13b 713d c1fc 593d
00000160: f805 043e 3f4d 183e 6837 073e ca80 3f3e
00000170: 6273 4b3f 6cf8 963e 6d19 fd3d da5c 7b3e
00000180: 2006 683e 6239 1b3f 0f04 b03e bedf 623e
00000190: 6874 da3e 9211 2d3e 7507 0c3f 6b1d 7e3e
000001a0: d9d9 bf3e 0c2b 0d3e e33b af3e fb01 8f3e
000001b0: 1aeb a83e f2df 503e 5d6e 973f a530 6e3e
000001c0: 7765 e53e 6a28 073e b5ea b23d 1f8c 803e
000001d0: 6a13 c93d 93f7 dd3d 66fc f13d fcf8 943e
000001e0: d832 a83d 85f9 853d 3030 e93d a612 853e
000001f0: c03e 253e a0c4 3c3f 5eea 213e e2a0 0b3f
0.26941273 0.33969066 0.28980017 0.13480997 0.20593117 0.14915009 0.06865688 0.28227836
0.7220023 0.6471436 0.12542705 0.30906782 0.3460226 0.116132736 0.88291454 0.6664825
0.112716876 0.29587072 0.0726937 0.24687198 0.42248198 0.24282447 0.24051858 0.28470972
0.14124158 0.24426533 0.2114468 0.27546605 0.27079 0.3451714 0.2231581 0.11262618
0.08805736 0.5229977 0.36585763 0.34530145 0.095745556 0.48185673 0.5441302 0.13163522
0.41684413 0.20903932 0.5240796 0.08604002 0.084641434 0.4229958 0.4447247 0.15621647
0.6361493 0.20380838 0.12166754 0.3241875 0.17284557 0.34804854 0.22048838 0.09260157
0.18489967 0.40070117 0.20375824 0.3008155 0.05763428 0.44902602 0.17250253 0.535535
0.15907457 0.41190186 0.15996286 0.1271223 0.26558754 0.20688601 0.22590022 0.33150408
0.065712065 0.2501266 0.09443179 0.36585438 0.17001401 0.16951023 0.4068781 0.24547546
0.53587216 0.18655126 0.30015287 0.1199239 0.13479105 0.1262152 0.058894936 0.05321956
0.12892902 0.14873217 0.1320473 0.18701473 0.79472935 0.29486406 0.12358365 0.24547139
0.22658587 0.60634434 0.34378096 0.22155663 0.42666936 0.16901234 0.5469888 0.2481591
0.37470892 0.13785952 0.34225377 0.27931198 0.32991868 0.20397928 1.1830555 0.23260744
0.44803974 0.1319901 0.08736173 0.25106904 0.09818156 0.10838237 0.11815719 0.2909621
0.08212823 0.06541733 0.11386144 0.2599079 0.16137218 0.73737526 0.1581206 0.5454236

main_network.4.weight f4 [64, 128]
00000000: 6a5e 953d 905f 4f3d d639 6ebd aa71 90bd
00000010: 246a 3d3d 9fc1 9b3d 3d6f 813d 01da fabc
00000020: 1b19 c0bc 7f7a 15bc 8d9d afbd 89e4 b73d
00000030: 14bb a1bc 0d82 ab3d 5fa1 b03c 4ce1 20bc
00000040: e642 6a3d 9637 79bb a96e 3abd a7d9 ff3c
00000050: 6dae 36bd 3cd9 6fbc 926d cebc 9266 86bd
00000060: c7cc ae3c ffd6 36bd 14a1 efbb 77de 84bd
00000070: c660 373d be6b 4e3d e697 bb3d 6b80 68bd
00000080: 9826 01bc 65ca 25bd 93c0 2b3d aa9c 323c
00000090: 5c10 a1bd f73b 2b3d 9469 12bd 1f0e 77bd
000000a0: 00ef 96ba 4be4 6fbd 3e55 ef3c cc73 523d
000000b0: 05af 743d 5c60 883c 62e3 f3bc d779 5abd
000000c0: 7861 2ebd 6641 75bd 20ea 97bd 9fb2 183d
000000d0: 1ebb 403d cd74 af3d dcf6 be3d f7f0 89bd
000000e0: febd 6dbd 06c8 5f3d a6d7 b53d 57e6 e6bd
000000f0: 699a 133d 4445 9f3d 4673 1ebd dfc4 1a3d
00000100: e8a4 723d 13d3 503d 7086 a8bd 78da 07bd
00000110: 0d8b 45bc 6404 153d dbb3 543d 5d22 b4bb
00000120: 453c aa3c d251 443d dd2f 9ebd 5902 dd3d
00000130: 32ae 64bb 9049 b0ba 73e1 a3bd f333 773d
00000140: c8d8 c73c 1ac0 9ebd 6ab8 0dbd 0745 86bd
00000150: fba1 633c 5493 acbc 6d22 23bd f238 fc3c
00000160: f3ca 163d 42fc 503c 8d0e 21bd 427e ccbd
00000170: 1d5d 15bb 5d25 24bd 27e3 1a3c c4dd 723d
00000180: fdf5 a23c 8030 1e3d 380b 833d c866 44bd
00000190: 5728 8dbc 45fc cfbd d740 933d b006 7b3d
000001a0: 921a 5a3d dd06 2d3d 994e c43d 09d1 6c3d
000001b0: 137d 8a3d d9d0 5a3d b255 1b3c 535f eabb
000001c0: b3c7 2b3d 91aa 0e3b d922 61bd 4597 b03c
000001d0: 6fd5 a13d 455b 1cbd 61f5 8ebd f391 413d
000001e0: d915 d5bd d366 dfbd aec6 bebd f4d2 4abb
000001f0: c1dd 793d 66f1 b43c 9805 94bd 1d45 753d
00000200: 53f3 5b3d 60f4 c0bd 6e0b 1abd 5975 8d3b
00000210: 69e8 a9bd bb8b 6f3d 37b1 6fbd acd7 9aba
00000220: b88f 243d de3b d7bb fe0a 08bc 91dc 72bd
00000230: 8da2 413b 99b7 f0bc 2767 a4bb 081d 3dbd
00000240: b20c 05bc 3a59 c4bd 7228 16bc 08f7 75bd
00000250: e043 93bd 584a 8fbd 759e c4bd 9b07 033d
00000260: b4ce 823d 165c 823c 43f0 a4bd 8702 323d
00000270: a5a3 ba3b bd51 7d3d 87a1 31bd 2c6d 353c
00000280: cfa0 8e3c ee88 9bbc 41c7 1b3d 3896 9e3d
00000290: 8c9c 533b 8c2a 2e3c 5bd1 813c 1f53 53bd
000002a0: 1a7a d2bb a6b0 87bc 3da5 43bb 8020 5fba
000002b0: 70d4 5e3d 1950 0dbd 1326 71bd d9d1 943d
000002c0: eb61 c83b 2c80 a8bd 9671 b6ba a1ee bebd
000002d0: d74c b5bd 7510 873d cb09 4bbd 1b03 48bd
000002e0: dbd2 9f3c 0539 e3b9 6ff6 923d 1e1a 953d
000002f0: 2f54 b5bd 3553 09bd fc8b 37bd a8e9 323d
00000300: 367a ea3c 8d9a e8ba 8cc3 45bd e917 7c3d
00000310: 7355 c8bc 373a 173d 3f9a 91bb bf38 b23c
00000320: 043a 0cbd 5502 433d 0eff bf3c e043 22bc
00000330: 0e29 8b3d 3e5f 003d 2f65 2cbb 06c9 da3b
00000340: 051b a1bd 5749 41bd caec 3cbd 7b21 b53d
00000350: 6c3a 923c 8b40 79bd 32f0 06bd ecbc 47ba
00000360: 6e19 8a3b 5944 6a3d cf40 b93c 016c 7bbb
00000370: 925c ad3d 6173 613a db6c c73d 24ac 923d
00000380: 0b78 f23d f55c b53c ea6b 913d 2c55 9fbd
00000390: 8d2e 80bc 01d6 b63d e31a 97bd 4d03 67bd
000003a0: 1312 ba3c f6ab a83d a49d 97bd a278 55bd
000003b0: bf7a f4bc 413a 28bb 5ac3 3f3d a3b6 683b
000003c0: 03a7 6fbd 8370 273a d03e 59bd c583 17bd
000003d0: b2c8 833d dcfc bcbc 5660 003d dc12 083d
000003e0: 2ada 38bc c2f5 a83d 0c75 a6bd 5576 053d
000003f0: 5829 3bbc 37b2 a43d 83e0 9abc 09e0 2b3b
0.07293399 0.050628245 -0.058160625 -0.0705293 0.0462438 0.0760529 0.06320045 -0.03062153
-0.023449471 -0.009123444 -0.08574972 0.089791365 -0.019742526 0.083744146 0.021561323 -0.00981934
0.057192706 -0.0038027517 -0.04551569 0.031231714 -0.04459994 -0.014639195 -0.025198732 -0.065625325
0.02133788 -0.04463863 -0.007312903 -0.06487744 0.044770025 0.05039572 0.09159832 -0.056763094
-0.007882737 -0.04047622 0.0419317 0.010901609 -0.078644484 0.041805234 -0.03574522 -0.0603162
-0.0011515319 -0.058567327 0.029215451 0.051379964 0.059737224 0.01664751 -0.02977151 -0.05333885
-0.042573422 -0.059876822 -0.07417703 0.03727972 0.04705345 0.085672 0.093244284 -0.067354135
-0.05804252 0.054634117 0.08879022 -0.112744026 0.03603593 0.07776883 -0.038684152 0.037785407
0.059239298 0.050982546 -0.08228767 -0.033167332 -0.012057078 0.03638114 0.051929336 -0.0054972605
0.020780692 0.047929592 -0.07723973 0.107914634 -0.0034893868 -0.0013449658 -0.080019854 0.060352277
0.024395362 -0.07751484 -0.0345997 -0.06556135 0.0138936 -0.021066345 -0.039827753 0.030788872
0.03681464 0.012755455 -0.039320517 -0.09985019 -0.0022791096 -0.040074695 0.009453571 0.059293523
0.019892687 0.038620472 0.06398624 -0.047949582 -0.01723115 -0.101555385 0.071901016 0.061285675
0.053247996 0.042242873 0.09585304 0.05781654 0.06762137 0.05342183 0.009480881 -0.007152477
0.041938495 0.0021769146 -0.054964874 0.021556506 0.07902037 -0.03817298 -0.06980396 0.04725833
-0.10404558 -0.10908284 -0.09315239 -0.0030948492 0.061002497 0.022087764 -0.072276294 0.059880365
0.05369885 -0.09421611 -0.037608556 0.0043169674 -0.08296282 0.058482867 -0.058518615 -0.0011813543
0.040176123 -0.006568416 -0.008303402 -0.05929238 0.002954635 -0.029384421 -0.0050171795 -0.046170264
-0.008120703 -0.09587331 -0.009164916 -0.06005004 -0.071906805 -0.06996602 -0.09600536 0.031989675
0.06387082 0.01591305 -0.08053639 0.04345944 0.0056957775 0.06184553 -0.043366935 0.011073392
0.017410664 -0.018986192 0.03803182 0.07743496 0.0032289354 0.010630261 0.015846899 -0.051592942
-0.006423247 -0.016563725 -0.0029853128 -0.0008511618 0.054401815 -0.034500215 -0.0588742 0.07266588
0.0061151884 -0.08227572 -0.0013919349 -0.093228586 -0.08852547 0.06594936 -0.049569886 -0.048831087
0.019509723 -0.00043339297 0.0717591 0.07280372 -0.08853947 -0.033526618 -0.044811234 0.043679863
0.028622728 -0.0017746255 -0.04828219 0.06154624 -0.024454808 0.036920752 -0.0044434364 0.021755574
-0.034235016 0.047609646 0.02343705 -0.009903878 0.0679494 0.03134083 -0.0026305427 0.006676796
-0.07866482 -0.047189083 -0.046124257 0.088442765 0.017850123 -0.06085257 -0.03294391 -0.0007619399
0.0042144572 0.057194088 0.022613911 -0.0038363936 0.08464922 0.00086002616 0.097375594 0.071617395
0.11839303 0.022139052 0.07100661 -0.07779917 -0.015647197 0.08927537 -0.07378175 -0.056399632
0.022713697 0.08235924 -0.074031144 -0.052116998 -0.029843686 -0.0025669488 0.04681716 0.003550925
-0.058508884 0.000638731 -0.05303842 -0.0369909 0.06434764 -0.023069791 0.031341873 0.03322111
-0.011282483 0.082499996 -0.08127794 0.032583553 -0.011423431 0.08041804 -0.018905884 0.0026226065

main_network.4.bias f4 [64]
00000000: 374f 0cb7 cd38 1c38 c9c9 a9b7 8214 57b3
00000010: 283d 0438 a45c 2237 fad6 0537 aee1 5536
00000020: e6d2 3d38 acba a037 585a 38b7 2f66 9136
00000030: 2891 06b7 df71 f5b5 640e b1b6 3eb1 8ab6
00000040: 555e 26b7 6b14 7ab6 159b 4337 c26a cab7
00000050: e589 d935 12bc f637 2c9e 3237 56fd 86b7
00000060: d68b 3536 652d ccb7 8d39 eab7 b54e 39b8
00000070: b599 a437 60eb 4937 9ed2 c736 9461 90b7
00000080: aeb5 3bb6 12b1 8437 d1dc 8cb7 ed1f 92b6
00000090: 110e 5837 6364 1db6 a52d 6d36 0407 5f37
000000a0: 6dfb d6b7 bc10 9bb7 4651 1ab7 ee50 a4b7
000000b0: e96c 1237 a8ef dfb6 6276 0db8 cb2c 6cb7
000000c0: cc0b 4237 f6ff 8736 2318 03b6 04c8 5fb7
000000d0: e0de f1b5 2145 45b7 c541 04b7 a4df fcb6
000000e0: 5111 c7b7 fd1c 49b7 8f3e 9037 7a24 5537
000000f0: 4ba4 a7b7 458e 8e38 85f4 2437 e705 90b6
-8.363094e-06 3.72462e-05 -2.0240333e-05 -5.007724e-08 3.152821e-05 9.677522e-06 7.977471e-06 3.1870836e-06
4.5257526e-05 1.9160412e-05 -1.0988289e-05 4.3332325e-06 -8.020819e-06 -1.8287063e-06 -5.2766864e-06 -4.133354e-06
-9.916334e-06 -3.7264788e-06 1.1659014e-05 -2.412999e-05 1.6207892e-06 2.9413062e-05 1.0646454e-05 -1.6092014e-05
2.7052497e-06 -2.4339834e-05 -2.7921773e-05 -4.418074e-05 1.9621899e-05 1.2035336e-05 5.955181e-06 -1.7211576e-05
-2.7970923e-06 1.5818081e-05 -1.6792126e-05 -4.3548557e-06 1.2877878e-05 -2.3453256e-06 3.534232e-06 1.3293469e-05
-2.5627867e-05 -1.8485232e-05 -9.198038e-06 -1.958801e-05 8.727636e-06 -6.6738176e-06 -3.3727272e-05 -1.4077125e-05
1.1566048e-05 4.0531113e-06 -1.953457e-06 -1.3338406e-05 -1.8020764e-06 -1.175821e-05 -7.883126e-06 -7.5362204e-06
-2.3730712e-05 -1.1987283e-05 1.7195269e-05 1.2704282e-05 -1.9984456e-05 6.7975874e-05 9.832093e-06 -4.2922215e-06

main_network.5.weight f4 [64]
00000000: 2933 7c3f 3539 853f 40e9 883f 1e5e 733f
00000010: 9390 863f 2d8b 7d3f 1c9c 793f add9 813f
00000020: 8aa3 803f a95c 773f 980d 733f 363b 873f
00000030: 8b83 7c3f 01a9 823f be0e 7c3f 0751 803f
00000040: 1b8e 833f ba95 843f b05d 803f 7782 783f
00000050: f498 873f 1057 803f ecdd 733f 3820 863f
00000060: d3eb 863f 496b 7a3f 34d4 843f a12b 763f
00000070: 5e23 823f 0eae 753f 84df 7e3f 2ae7 853f
00000080: 56f1 7f3f 64c6 733f 39c0 7e3f f390 823f
00000090: ab5d 843f 1897 7a3f c42f 813f 4b2e 853f
000000a0: 647f 793f fe99 833f 3689 723f 3ce1 7c3f
000000b0: a9e0 713f b172 7d3f b59f 853f ad76 803f
000000c0: b2b8 793f 3633 7a3f 199e 803f 0750 833f
000000d0: 2a65 743f 9fdc 783f c3ca 7f3f a4fb 813f
000000e0: 2d5c 7a3f 312e 873f 8608 873f e96b 803f
000000f0: e52c 783f 6c49 7a3f a028 733f 9876 763f
0.98515564 1.0408083 1.0696182 0.95065486 1.051287 0.9904049 0.9750383 1.0144554
1.0049908 0.96625763 0.9494262 1.0564945 0.9863822 1.0207826 0.98459995 1.0024728
1.0277742 1.0358193 1.0028591 0.97074074 1.0593553 1.0026569 0.952605 1.0478582
1.0540718 0.97819954 1.0377259 0.9616032 1.0167043 0.9596871 0.9955981 1.0461171
0.99977624 0.95224595 0.9951206 1.0200485 1.0341085 0.978868 1.0092702 1.0404752
0.9746001 1.028137 0.9474062 0.9878118 0.9448343 0.9900313 1.0439364 1.0036217
0.9754745 0.9773439 1.0048248 1.0258797 0.95466864 0.9721164 0.99918765 1.015492
0.977969 1.0560971 1.0549476 1.0032932 0.96943504 0.9776828 0.94983864 0.9627471

main_network.5.bias f4 [64]
00000000: 27dc d3ba 9086 d8bc 9e8b 4f3d d7a2 eeba
00000010: 5fe5 acbb 9d1e d5ba f75f b1bb c241 0c3d
00000020: d027 a9bc c24f e83c c9bd 50bd e548 233d
00000030: 4235 e33c e262 363c 21bd 363b 3dca abbb
00000040: 5cc3 1c3d bd83 eb3c 9b4b 8c3b 6ce9 93bd
00000050: d60a 653d 20a5 093d 5ff6 0fbd 351b 813b
00000060: 4253 ac3d 6aeb 1ebc f18f 663d 11a2 1e3b
00000070: 71ce ce3c a61e e4bb 51da 5fbc ee2c bd3c
00000080: 37c9 393c d605 45bd ffe3 f0bc b998 3a3d
00000090: ad25 95bb 3fb5 71bc af9b bdbb 8eb3 e93c
000000a0: 4684 a63c e557 a63d 9416 b5bc 8f7f f9bc
000000b0: 51f8 76bd 05f1 35bc 5441 0ebc 0d18 dfba
000000c0: 5c93 aebc 3f36 bfbc 63c1 c4bb b6bf 413d
000000d0: 9aa1 c5bb 5f23 39bd d541 0d3d b0c3 8f3d
000000e0: 1815 0dbd e10e 243d 4110 b63a d94c 9cbc
000000f0: 486b 52bd 2d03 8e3c 8003 d93a 174e b8bc
-0.0016163633 -0.026431352 0.05067026 -0.0018206489 -0.0052763666 -0.0016259734 -0.005413051 0.0342424
-0.020648867 0.028358344 -0.050962243 0.03986444 0.027735356 0.011131974 0.0027883726 -0.0052426145
0.038272247 0.028749341 0.004281474 -0.07222256 0.055918537 0.03360474 -0.035147067 0.003940011
0.08414318 -0.009699682 0.056289617 0.0024205486 0.025244923 -0.0069616614 -0.0136628905 0.023092713
0.011339477 -0.04810127 -0.029405592 0.045555804 -0.0045516104 -0.014752685 -0.005786381 0.028528001
0.020326745 0.08122233 -0.022105493 -0.030456332 -0.060295407 -0.011104827 -0.008682568 -0.0017020717
-0.0213105 -0.023341296 -0.006004499 0.04730197 -0.0060312273 -0.045199748 0.03448661 0.07019746
-0.034443945 0.040053252 0.0013890342 -0.019079613 -0.051371843 0.017335499 0.0016556829 -0.022498174
