XGBoost/best_model_resnet110.pth (torch, 121008 bytes, 47 tensors)

model_embedding.weight f4 [32, 12]
0	0x3e6a2042	0.22863868
1	0x3df6f9e4	0.120593816
2	0x3d72745a	0.059192993
3	0x3e9c0d79	0.3047903
4	0xbd9337dd	-0.071883895
5	0x3da0488a	0.07826336
6	0xbe850703	-0.25981912
7	0x3d1201c9	0.035646234
8	0xbc21f5c8	-0.009885259
9	0xbe6e0948	-0.23245728
10	0xbe83f112	-0.2576986
11	0xbe225247	-0.15851699
12	0x3e579ec8	0.21056664
13	0xbcfe7e15	-0.03106598
14	0x3e4a9697	0.19784008
15	0xbd41d81c	-0.04732524
16	0xbe96fd06	-0.29489917
17	0x3e7c5f50	0.24645734
18	0xbe1cba7f	-0.15305518
19	0x304efd66	7.5302464e-10
20	0xbe3e8fd8	-0.1860956
21	0xbe82928b	-0.25502428
22	0x3b173c12	0.0023076576
23	0xbe3ea532	-0.18617705
24	0xbe9283bd	-0.28616133
25	0xbe880e08	-0.26573205
26	0xbd8bd0c7	-0.068269305
27	0x3e127a26	0.14304408
28	0xbe899006	-0.26867694
29	0xbe8a7079	-0.27038935
30	0x3e745697	0.23861156
31	0x3ccfabbd	0.025350446
32	0xbd75242a	-0.05984894
33	0xbe2cc9e9	-0.16873898
34	0x3e045533	0.12923126
35	0x3d33c5ee	0.043889932
36	0x3dce4fd6	0.10073821
37	0x3e76d589	0.24104895
38	0xba8841e8	-0.0010395618
39	0xbe88c196	-0.26710194
40	0x3cd8fa31	0.026486488
41	0xbe5aaa4b	-0.21354024
42	0x3db65a5a	0.08903952
43	0x3d19014b	0.03735475
44	0xbe39afc0	-0.1813345
45	0x3eaa5192	0.33265358
46	0xbe968dcf	-0.29405066
47	0x3e48799d	0.19577642
48	0xbd4a0500	-0.049321175
49	0x3e88b3c1	0.2669964
50	0x3dc27750	0.09495413
51	0x3ea14656	0.31498975
52	0xbe42df5f	-0.19030522
53	0x3e17cfe9	0.14825405
54	0xbdf72489	-0.120675154
55	0xba527982	-0.00080289703
56	0x3dae3ba5	0.0850747
57	0xbdffa1e9	-0.12482054
58	0x3e4fbe88	0.20287526
59	0xbe6718f5	-0.22568114
60	0xbc958553	-0.01825205
61	0xbe855997	-0.26044914
62	0x3dba3bf1	0.09093464
63	0xbe9705b3	-0.29496536
64	0x3e0fe576	0.14052376
65	0x3e1824ab	0.14857738
66	0x3a6bb37b	0.0008991283
67	0xbd06c55e	-0.032903068
68	0xbe8c65ad	-0.27421322
69	0xbd756b27	-0.05991664
70	0xbc216dd0	-0.0098528415
71	0xbded1fae	-0.11578308
72	0x3e06534c	0.13117713
73	0x3e1cfe7e	0.15331456
74	0xbd8b9588	-0.0681563
75	0xbcd491fd	-0.025948519
76	0x3d88fe2a	0.06689103
77	0x3da7d798	0.08195418
78	0xbe18f4ed	-0.14937182
79	0x3d4a9ff8	0.049468964
80	0xbe22ca11	-0.15897395
81	0xbc43414e	-0.011917425
82	0x3e514375	0.20435889
83	0x3e2fd0f0	0.17169547
84	0xbe22e242	-0.15906623
85	0xbdb8d021	-0.090240724
86	0x3d147b6c	0.036250517
87	0xbd5fffaf	-0.0546872
88	0x3e2204c4	0.1582213
89	0xbe26f7c5	-0.16305454
90	0xbe02b81f	-0.12765549
91	0x3ce0b999	0.02743225
92	0x3e89745f	0.26846597
93	0x3e6943c4	0.22779757
94	0xbe2178c6	-0.15768728
95	0xbe8a0afe	-0.2696151
96	0xbd032c61	-0.032024745
97	0x3d1e9ca8	0.038723618
98	0x3eaf0600	0.34184265
99	0xbec9e1c4	-0.39430058
100	0xbde3f974	-0.11131564
101	0x3b734816	0.0037121824
102	0xbd2ddf16	-0.04244908
103	0xba5d5ecd	-0.00084446074
104	0xbda6071a	-0.08106823
105	0x3e5ab6c9	0.2135879
106	0x3e847dd0	0.25877237
107	0x3e1f9115	0.15582688
108	0xbe1a373a	-0.1506013
109	0x3dd175c7	0.10227542
110	0xbe33dd9a	-0.17565003
111	0x3e8b451b	0.2720116
112	0xbcad2c3c	-0.021139257
113	0xbd3e88df	-0.04651725
114	0xbab9c219	-0.0014172225
115	0x30bccbb8	1.3736701e-09
116	0x3d0c59ca	0.034265317
117	0xbd6fc5a7	-0.058538105
118	0xbdf14de5	-0.11782435
119	0x3d898da6	0.067164704
120	0xbd2e5ce1	-0.042569045
121	0xbdc1a133	-0.094545744
122	0x3c1baca8	0.009501614
123	0xbe8ad920	-0.27118778
124	0x3e8efce0	0.27927303
125	0xbe8374de	-0.256751
126	0x3da06f7a	0.078337625
127	0x30c8cd16	1.4610204e-09
128	0xbd44465d	-0.047918666
129	0xbdf382a2	-0.118901506
130	0x3d9c0d8f	0.076197736
131	0xbe706549	-0.23476137
132	0xbc130f35	-0.008975794
133	0xbe96cfbf	-0.29455373
134	0x3e962155	0.29322305
135	0x3e1d9f10	0.15392709
136	0xbe0b1a99	-0.13584365
137	0x3da6cfba	0.081450894
138	0x3de906d7	0.11378258
139	0xb589ae92	-1.0258102e-06
140	0x3e66d93f	0.2254381
141	0xbe6d289b	-0.23160021
142	0xbd9cfb55	-0.07665125
143	0xbd9ceb68	-0.07662088
144	0xbd782b45	-0.06058814
145	0x3d8850e7	0.06656056
146	0x3daab5d5	0.08335463
147	0xbdf9eefb	-0.12203785
148	0x3e913d4e	0.28367084
149	0x3e76bc9d	0.24095388
150	0xbe8f65f5	-0.28007475
151	0x33d9a784	1.0135321e-07
152	0x3e8afc8d	0.27145806
153	0x3dd438bd	0.103623845
154	0x3e1b36b8	0.15157592
155	0xbe5bd0ba	-0.21466342
156	0x3d7fa6ce	0.062414937
157	0xbe1b75ca	-0.15181652
158	0x3ea0ffbe	0.31445116
159	0xbe93c914	-0.28864348
160	0xbe618836	-0.22024617
161	0x3e59439b	0.21217196
162	0x3d26b371	0.040698472
163	0xb822f692	-3.8853446e-05
164	0xbe38f83b	-0.18063442
165	0x3d672e57	0.056440677
166	0xbc0d3b06	-0.008620029
167	0xbc8efd57	-0.017454786
168	0x3cc598b6	0.02412067
169	0x3e43bca5	0.19114931
170	0x3e6ebaac	0.23313397
171	0xbe53641f	-0.20643662
172	0x3d4b903c	0.0496981
173	0x3d929130	0.071565986
174	0x3e932618	0.2874
175	0x3bbc8f77	0.005754407
176	0x3e37e6c5	0.17959125
177	0xbe03b9fa	-0.12863913
178	0xbe147cce	-0.14500734
179	0xbe30234d	-0.17200966
180	0xbd7cf5d1	-0.061757866
181	0x3e7d7d26	0.24754772
182	0x3da23ad4	0.07921377
183	0xbb37cdeb	-0.002804632
184	0xbbcbcecb	-0.00621972
185	0xbe2fed65	-0.17180403
186	0x3e8ef9c4	0.2792493
187	0x3c60dc71	0.013724432
188	0xbdfab29d	-0.12241099
189	0x3e8a4da2	0.27012354
190	0xbd8d15a9	-0.06888897
191	0xbd5749d4	-0.052560642
192	0xbe883810	-0.26605272
193	0x3dd59c5b	0.10430213
194	0x3e87d7f1	0.26531938
195	0x3e9984fe	0.29984277
196	0xbd9c6055	-0.076355614
197	0xbd5efad5	-0.05443843
198	0x3e32996f	0.17441343
199	0x3c647d12	0.013945835
200	0x3e62abc8	0.22135842
201	0xbe81ca24	-0.25349534
202	0x3e335130	0.1751144
203	0xbdc2fe36	-0.09521143
204	0x3e4060d8	0.18786943
205	0x3e2c87c3	0.16848664
206	0xbd72fee3	-0.05932511
207	0xbe6ac402	-0.22926334
208	0xbd9b48dc	-0.07582256
209	0xbde2a8f3	-0.11067381
210	0xbe3b1186	-0.18268403
211	0xb28279bc	-1.518935e-08
212	0x3e419d09	0.1890756
213	0xbd07e5a3	-0.033177983
214	0x3e35b238	0.17743766
215	0x3b9e8f5d	0.0048388676
216	0xbe42838f	-0.18995498
217	0x3d0cd1f7	0.034379926
218	0x3e7e6d71	0.24846436
219	0xbe8b8955	-0.27253214
220	0xbe575758	-0.21029413
221	0x3e02b14e	0.12762949
222	0xbd0c38f0	-0.034233987
223	0x3d2bb315	0.041918833
224	0xbe428d58	-0.18999231
225	0x3e3ad31d	0.18244596
226	0x3d447c5b	0.047970157
227	0xbd0640d3	-0.032776665
228	0xbd8180fd	-0.06323431
229	0x3e89802a	0.26855594
230	0x3e518107	0.20459376
231	0xbd92e16c	-0.07171902
232	0xbd8c481f	-0.068496935
233	0xbdba1a19	-0.09087009
234	0x3e8546fb	0.26030716
235	0x2e112b8a	3.3007853e-11
236	0x3df02b9c	0.11727068
237	0x3d8b71cc	0.068088144
238	0xbd9d4ea9	-0.07681019
239	0x3d841de7	0.06451016
240	0xbc304229	-0.010757961
241	0x3e631a41	0.22177984
242	0xbe499da1	-0.19689037
243	0xbe9840ab	-0.29736838
244	0xbe485653	-0.1956418
245	0xbe8140c6	-0.2524473
246	0x3e7edb7d	0.24888416
247	0xb96097f7	-0.00021418916
248	0xbe38f0f6	-0.1806067
249	0xbda30ac9	-0.079610415
250	0xbe4bb83c	-0.19894499
251	0x3eb7c72b	0.3589414
252	0xbccfd538	-0.025370225
253	0xbd8d1ae4	-0.068898946
254	0xbcf30dbc	-0.029669635
255	0xbe2b688b	-0.16739099

model_embedding.bias f4 [32]
0	0x378ae955	1.6559536e-05
1	0xbcc67277	-0.024224503
2	0x3b30f5a7	0.002700189
3	0x3c39fdfa	0.011352057
4	0xbcb39ae5	-0.021924445
5	0xb90b9401	-0.00013311209
6	0xbd7368c8	-0.0594261
7	0xb79ffda2	-1.9072384e-05
8	0xbb47a78e	-0.003046486
9	0xbca7e5b7	-0.020495279
10	0xb49837f9	-2.8352932e-07
11	0xb729b106	-1.0114401e-05
12	0x384ce52a	4.8850816e-05
13	0x3d53955a	0.051656105
14	0xb83c1438	-4.4841523e-05
15	0xb7cb60ff	-2.4244653e-05
16	0xbd677712	-0.05651004
17	0x371577be	8.908972e-06
18	0xbb0af1c6	-0.0021201237
19	0xb8551df7	-5.0811064e-05
20	0xbcb8a2a3	-0.022538489
21	0xb6f7a3de	-7.3802503e-06
22	0xb822f125	-3.8848393e-05
23	0x3ccef1bd	0.025261754
24	0x3a58b97a	0.0008267384
25	0x371cd639	9.348202e-06
26	0x35b335bd	1.3352179e-06
27	0x3ad3d952	0.0016162789
28	0x38bc4ec4	8.97921e-05
29	0x3a10bb9d	0.00055211206
30	0xb6029fe0	-1.946457e-06
31	0xb98acf7c	-0.00026476

dataset_embedding.weight f4 [16, 3]
0	0x3ecd14c8	0.40054917
1	0xbef11d74	-0.47092783
2	0x3ef1a088	0.47192788
3	0xbe1d71bf	-0.15375422
4	0x3ef29fd9	0.4738758
5	0x3ea14808	0.31500268
6	0x3eda3a90	0.42622805
7	0xbeefbfaa	-0.46825916
8	0x3edc42be	0.4301967
9	0x3f294d4a	0.6613356
10	0x3d05f163	0.032700907
11	0x3eab3178	0.3343618
12	0xbe60afbe	-0.2194204
13	0xbe8c1a42	-0.27363783
14	0x3e481378	0.19538677
15	0x3f2c576a	0.67320883
16	0x3e4a400e	0.19750997
17	0xbf007c01	-0.50189215
18	0x3dd9ba33	0.10631218
19	0x3eb9c68b	0.3628429
20	0x3f11cb76	0.5695108
21	0x3e27dd48	0.16393006
22	0x3c591edd	0.013251987
23	0x3f050ff3	0.5197746
24	0xbee32a7b	-0.44368348
25	0xbedd9e7a	-0.4328497
26	0xbf14b44c	-0.5808761
27	0xbe9cc08d	-0.30615655
28	0x3e99ad00	0.300148
29	0x3ec08e1a	0.37608415
30	0xbe32fd5c	-0.17479461
31	0x3e2f5466	0.17122039
32	0xbe904245	-0.2817556
33	0xbe2cd5fc	-0.16878504
34	0x3e729296	0.2368873
35	0xbdaf18ab	-0.08549627
36	0xbe3014b5	-0.17195399
37	0x3ce03660	0.027369678
38	0x3ec4ddd4	0.3845049
39	0x3f024bdd	0.5089701
40	0xbeb2a244	-0.34889424
41	0x3ecc7439	0.3993242
42	0xbea851f6	-0.3287503
43	0x3e1b4a89	0.15165152
44	0x3d898fb7	0.067168646
45	0xbe9f0fb7	-0.31066677
46	0x3d476ab5	0.048685748
47	0x3f1dcb54	0.6163838

dataset_embedding.bias f4 [16]
0	0x381ddb04	3.763569e-05
1	0xbdfb5fdb	-0.12274142
2	0x3e87ec55	0.26547495
3	0xbddc5278	-0.10757917
4	0x3d81b502	0.063333526
5	0x3d34ca5f	0.04413831
6	0xbe97c731	-0.29644158
7	0x3d3c3503	0.045948993
8	0x3da3ef39	0.080046125
9	0xbd703e14	-0.058652952
10	0xbc840163	-0.016113942
11	0xb7a7bd8f	-1.9996221e-05
12	0x3b802226	0.003910321
13	0xbe9168eb	-0.2840036
14	0xbe06c3c6	-0.13160619
15	0x3cd18f92	0.025581155

tensor_network.0.weight f4 [16, 1]
0	0x3edb09b1	0.4278083
1	0x3e4f4b87	0.20243655
2	0x3c82c6b7	0.015963895
3	0xbf29688d	-0.66175157
4	0xbe2d2417	-0.16908298
5	0xbf189bb8	-0.5961261
6	0x3eab1f68	0.334224
7	0x3e866363	0.262477
8	0xbe3144f1	-0.17311455
9	0xbe9a7a2a	-0.3017133
10	0x3ed18e76	0.40929002
11	0x3e823deb	0.25437865
12	0xbe7f5e91	-0.24938418
13	0x3f2916f1	0.6605063
14	0x3ea9c65c	0.3315915
15	0x3c4631f7	0.0120968735

tensor_network.0.bias f4 [16]
0	0xbc92ac6c	-0.017904483
1	0x3ec8d04e	0.39221424
2	0xbea992af	-0.33119723
3	0x3de1ec9c	0.11031458
4	0x3ea800f5	0.3281323
5	0x3dd87116	0.105684444
6	0xbe2e3f44	-0.17016321
7	0xbdbc3c70	-0.09191215
8	0xbe0592d5	-0.13044293
9	0x3e38bb04	0.18040091
10	0xbd9b54f2	-0.075845614
11	0xbf20bf2b	-0.627917
12	0xbea7fe32	-0.32811123
13	0xbe01fd2f	-0.12694238
14	0x3d9ab754	0.07554498
15	0x3d023441	0.031788114

tensor_network.2.weight f4 [16]
0	0x3f7a7161	0.9782925
1	0x3f780c31	0.968936
2	0x3f7976d8	0.97446966
3	0x3f7a9049	0.9787641
4	0x3f7f7e71	0.9980231
5	0x3f7762cd	0.96635133
6	0x3f81964e	1.0123994
7	0x3f7c0c1f	0.98455995
8	0x3f350848	0.7071576
9	0x3f7f1e05	0.9965518
10	0x3f7f74e5	0.9978774
11	0x3f7ffc01	0.999939
12	0x3f350848	0.7071576
13	0x3f7a606c	0.9780338
14	0x3f743c85	0.95404845
15	0x3f79116e	0.9729222

tensor_network.2.bias f4 [16]
0	0x381ab06c	3.6880767e-05
1	0xb83139d4	-4.2253945e-05
2	0x36d904ae	6.4676487e-06
3	0xb8b8396c	-8.7844994e-05
4	0xb8924ae7	-6.975774e-05
5	0x38003d53	3.057469e-05
6	0x37028ae8	7.780945e-06
7	0x388b5d2d	6.645392e-05
8	0x30de6abc	1.6182962e-09
9	0x38b8f641	8.819672e-05
10	0x37bcce00	2.2507273e-05
11	0x382fa9be	4.1881336e-05
12	0xb0dc5912	-1.6032422e-09
13	0xb79227a0	-1.7423008e-05
14	0xb820a22e	-3.8298014e-05
15	0xb7c2fb83	-2.3243721e-05

tensor_network.2.running_mean f4 [16]
0	0x433f33f8	191.203
1	0x42b8b965	92.3621
2	0x40d9533d	6.791411
3	0x3d4f26f0	0.050574243
4	0x3e19b689	0.15011038
5	0x3d3f8b87	0.046763923
6	0x4314c88e	148.78342
7	0x42e77354	115.72525
8	0x00000000	0.0
9	0x3daf20ad	0.08551154
10	0x4337137a	183.07608
11	0x42e06b0a	112.20906
12	0x00000000	0.0
13	0x439315bd	294.16983
14	0x431539de	149.22604
15	0x40ab53e1	5.353989

tensor_network.2.running_var f4 [16]
0	0x48a7a827	343361.22
1	0x479b2be3	79447.77
2	0x43df45c8	446.54517
3	0x3b50db11	0.0031868855
4	0x3cde8882	0.027164701
5	0x3b326bcf	0.0027224903
6	0x484b3aa8	208106.62
7	0x47f5d834	125872.41
8	0x277a3669	3.4723965e-15
9	0x3c15526e	0.009113891
10	0x4899bf9e	314876.94
11	0x47e82c8c	118873.09
12	0x277a3669	3.4723965e-15
13	0x49467b3b	812979.7
14	0x484c04f4	208915.81
15	0x4384dd7b	265.73032

worker_network.0.weight f4 [16, 1]
0	0xbecf272d	-0.40459576
1	0xbe839544	-0.25699818
2	0x3d95dbe7	0.07317334
3	0xbf0d730b	-0.55253667
4	0x3ef79d06	0.48361987
5	0xbc82800d	-0.0159302
6	0x3f54aa0d	0.83071977
7	0x3e93cf87	0.28869268
8	0xbe6ff761	-0.23434211
9	0x3cf70cc2	0.03015745
10	0x3557561c	8.0219047e-07
11	0x350c86e7	5.2350373e-07
12	0x3ed8a341	0.42312053
13	0x3ed06ea2	0.40709406
14	0x3f5d7ca2	0.865183
15	0x3cb0ac88	0.021566644

worker_network.0.bias f4 [16]
0	0xbe4eaaac	-0.20182294
1	0x3e87d680	0.26530838
2	0x396a10b7	0.00022322206
3	0xbd522a23	-0.051309716
4	0x3dd6e05c	0.10492012
5	0xbe98442d	-0.29739514
6	0xbf782497	-0.9693083
7	0xbf03164c	-0.512059
8	0xbeb1f860	-0.34759808
9	0xbf2a8e64	-0.6662352
10	0xbe631c85	-0.22178848
11	0xbec44280	-0.38331985
12	0xbf1c24fd	-0.6099394
13	0xbef73d55	-0.4828898
14	0xbf64e1b3	-0.8940689
15	0x3e50f8ff	0.20407484

worker_network.2.weight f4 [16]
0	0x3f350848	0.7071576
1	0x3f7bdcb2	0.9838363
2	0x3f7fe543	0.999592
3	0x3f350848	0.7071576
4	0x3f81395b	1.0095628
5	0x3f350848	0.7071576
6	0x3f8079d6	1.0037181
7	0x3f81de2c	1.0145926
8	0x3f350848	0.7071576
9	0x3f74e4a8	0.956614
10	0x3f350848	0.7071576
11	0x3f350848	0.7071576
12	0x3f7acab1	0.9796553
13	0x3f7f1076	0.9963449
14	0x3f7a346b	0.97736233
15	0x3f79fde0	0.9765301

worker_network.2.bias f4 [16]
0	0xb18ecba1	-4.155894e-09
1	0x3851f2f1	5.005574e-05
2	0x388bbd70	6.663322e-05
3	0xb0a10c1c	-1.1717733e-09
4	0x38e45357	0.000108874105
5	0x2f92258e	2.658393e-10
6	0xb847eb0a	-4.7664194e-05
7	0x3676de87	3.6786384e-06
8	0xb108aab4	-1.9887638e-09
9	0xb8892744	-6.539983e-05
10	0xb14bcb71	-2.965603e-09
11	0xb09c6fb9	-1.1382247e-09
12	0x384f93c7	4.9490274e-05
13	0xb7b8f26c	-2.2047396e-05
14	0x3722d3ea	9.7052925e-06
15	0x38168906	3.58904e-05

worker_network.2.running_mean f4 [16]
0	0x00000000	0.0
1	0x3dfa5531	0.1222328
2	0x3e91ed76	0.2850148
3	0x00000000	0.0
4	0x40026be9	2.0378363
5	0x00000000	0.0
6	0x402e7ae6	2.7262511
7	0x3f58bc1b	0.84662026
8	0x00000000	0.0
9	0x3a008591	0.00049027154
10	0x00000000	0.0
11	0x00000000	0.0
12	0x3faabbd8	1.3338575
13	0x3faa0ac0	1.3284531
14	0x403987bf	2.8989103
15	0x3e974678	0.2954595

worker_network.2.running_var f4 [16]
0	0x277a3669	3.4723965e-15
1	0x3c986328	0.018601969
2	0x3e130e4a	0.1436092
3	0x277a3669	3.4723965e-15
4	0x40d2c6f8	6.586788
5	0x277a3669	3.4723965e-15
6	0x41802ecd	16.022852
7	0x3fe2584c	1.7683196
8	0x277a3669	3.4723965e-15
9	0x387c343c	6.013013e-05
10	0x277a3669	3.4723965e-15
11	0x277a3669	3.4723965e-15
12	0x40819c36	4.0503187
13	0x40749e6b	3.822169
14	0x418d44de	17.658627
15	0x3c511512	0.012761371

batch_network.0.weight f4 [16, 1]
0	0xbe6f52ec	-0.23371476
1	0x3e3e9eb5	0.1861523
2	0x3e4507d4	0.19241267
3	0x3eed7996	0.46381825
4	0xbe0bd719	-0.13656272
5	0xbebab717	-0.3646781
6	0xbbb4d27e	-0.0055182567
7	0xbc06bbf2	-0.008223521
8	0x3d55b568	0.052174956
9	0xbdbf8ba4	-0.09352806
10	0xbefc3e9b	-0.49266514
11	0x3eb03166	0.34412688
12	0x3f165867	0.5872864
13	0x3d71d981	0.05904532
14	0x3e5ec1f6	0.21753678
15	0x3ee0a367	0.43874666

batch_network.0.bias f4 [16]
0	0xbe7841c7	-0.24243842
1	0xbe34fdb7	-0.1767491
2	0xbed54b33	-0.41658935
3	0xbf2e6e60	-0.6813717
4	0x3f22ef6d	0.63646585
5	0xbed918a5	-0.42401615
6	0xbeda9eaf	-0.4269919
7	0x3d08362c	0.033254787
8	0xbe52ce0f	-0.20586418
9	0x3f5827f1	0.84435946
10	0x3e40c0f0	0.188236
11	0x3e89b14b	0.26893076
12	0xbedc1430	-0.42984152
13	0x3d2361cf	0.0398882
14	0xbefbd289	-0.49184063
15	0x3ebd39d3	0.3695818

batch_network.2.weight f4 [16]
0	0x3f350848	0.7071576
1	0x3f70ac2a	0.940127
2	0x3f7ca579	0.9868999
3	0x3f7ba117	0.9829268
4	0x3f79e74b	0.9761855
5	0x3f350848	0.7071576
6	0x3f7d16ba	0.98862803
7	0x3f80ba61	1.0056878
8	0x3f7fe9ac	0.9996593
9	0x3f7f0009	0.9960943
10	0x3f7c2cc3	0.985058
11	0x3f73c822	0.95227253
12	0x3f7893b5	0.97100383
13	0x3f76b6e2	0.9637281
14	0x3f782ea9	0.969462
15	0x3f7c6e4f	0.9860582

batch_network.2.bias f4 [16]
0	0xb071a1e7	-8.7905366e-10
1	0xb8129cf3	-3.4955283e-05
2	0xb886553c	-6.405494e-05
3	0xb88a9fac	-6.610094e-05
4	0x37152c6f	8.891438e-06
5	0x3109144d	1.9947664e-09
6	0xb8579718	-5.140071e-05
7	0xb759bb79	-1.2977857e-05
8	0x37da8ff4	2.6054659e-05
9	0xb802042a	-3.0998293e-05
10	0xb655b8dc	-3.1847076e-06
11	0x37b42754	2.1475986e-05
12	0x3806c7e1	3.213424e-05
13	0x38194556	3.6542617e-05
14	0x386c7b23	5.6381465e-05
15	0x38390406	4.4111184e-05

batch_network.2.running_mean f4 [16]
0	0x00000000	0.0
1	0x42713a2e	60.306816
2	0x427c5ec9	63.092564
3	0x4317faae	151.97922
4	0x3eb186f1	0.34673265
5	0x00000000	0.0
6	0x27e4fbb3	6.3555605e-15
7	0x3c94c389	0.018159645
8	0x4187db1a	16.981983
9	0x3eece644	0.4626943
10	0x3dd0e1a1	0.10199285
11	0x42e790ca	115.78279
12	0x43421dd4	194.11652
13	0x41a6d345	20.853159
14	0x428e4478	71.13373
15	0x43130c0e	147.04709

batch_network.2.running_var f4 [16]
0	0x277a3669	3.4723965e-15
1	0x47366319	46691.098
2	0x474886e2	51334.883
3	0x48912a34	297297.62
4	0x3dd666c5	0.104688205
5	0x277a3669	3.4723965e-15
6	0x29811763	5.732808e-14
7	0x3996c377	0.00028755862
8	0x456956ad	3733.4172
9	0x3e36a4f8	0.17836368
10	0x3c147373	0.009060728
11	0x482796d7	171611.36
12	0x48ec991b	484552.84
13	0x45afb1f1	5622.2427
14	0x477ee224	65250.14
15	0x48870687	276532.22

ps_network.0.weight f4 [8, 1]
0	0xbef70594	-0.48246443
1	0xbf07f66e	-0.53110397
2	0x3e2a222f	0.16614603
3	0xbf12a5aa	-0.57284033
4	0xbf1daba4	-0.6159003
5	0xbecfb060	-0.4056425
6	0x3ebeaa7f	0.37239453
7	0xbb2e84cd	-0.0026629448

ps_network.0.bias f4 [8]
0	0x3e3ed32f	0.18635248
1	0x3e57dad1	0.21079566
2	0x3a55c445	0.00081545516
3	0x3f34f702	0.70689404
4	0xbf056ce4	-0.5211928
5	0xbf0e6704	-0.5562594
6	0xbe6cb9dd	-0.23117776
7	0xba419c65	-0.00073856703

ps_network.2.weight f4 [8]
0	0x3f7afafb	0.98039216
1	0x3f78b149	0.97145516
2	0x3f79db77	0.976005
3	0x3f7ac53d	0.9795721
4	0x3f350848	0.7071576
5	0x3f350848	0.7071576
6	0x3f79572d	0.97398645
7	0x3f350848	0.7071576

ps_network.2.bias f4 [8]
0	0xb7880452	-1.6214475e-05
1	0xb7168aa3	-8.972976e-06
2	0xb788b2eb	-1.6295779e-05
3	0x38505851	4.9673316e-05
4	0x2f14a069	1.3517511e-10
5	0xb0ba4306	-1.355233e-09
6	0xb8a510ba	-7.870929e-05
7	0xb10074f9	-1.8692943e-09

ps_network.2.running_mean f4 [8]
0	0x3dd1917f	0.10232829
1	0x3de99892	0.114060536
2	0x3d9fb017	0.07797258
3	0x3ee6a9ce	0.45051426
4	0x00000000	0.0
5	0x00000000	0.0
6	0x3d81dad4	0.06340566
7	0x00000000	0.0

ps_network.2.running_var f4 [8]
0	0x3c155ac0	0.009115875
1	0x3c39b2e0	0.011334151
2	0x3bf17404	0.0073685665
3	0x3db2f09c	0.08737299
4	0x277a3669	3.4723965e-15
5	0x277a3669	3.4723965e-15
6	0x3ba408aa	0.0050059156
7	0x277a3669	3.4723965e-15

main_network.0.weight f4 [128, 104]
0	0xbdb6464a	-0.08900125
1	0x3d90237e	0.070380196
2	0xbdb3a525	-0.08771733
3	0x3c13f247	0.009029931
4	0x3dd4b986	0.10386948
5	0xbda4ccec	-0.08046898
6	0x3d9bf735	0.076155104
7	0x3c6c2552	0.014413195
8	0x3d221fd4	0.039581135
9	0xbcf1243b	-0.029436221
10	0x3b9395df	0.00450395
11	0x3d623a80	0.05523157
12	0xbd905217	-0.070469074
13	0x3c5d773c	0.013517197
14	0x3d64a8ff	0.05582523
15	0xbc0cb583	-0.008588198
16	0xbd8968d4	-0.067094475
17	0x3c14d899	0.009084844
18	0xbb329850	-0.002725143
19	0xbc1b8bc3	-0.009493771
20	0x3dc830c2	0.09774925
21	0x3da4c5b9	0.08045525
22	0xbac76756	-0.0015213292
23	0xbc8f9d69	-0.017531114
24	0xbc81996a	-0.015820224
25	0x3d5dd722	0.054160245
26	0x3e14f234	0.14545518
27	0xbc42ab78	-0.011881702
28	0xbe00efcf	-0.1259148
29	0x3c18bba6	0.009322083
30	0x3d0f46e5	0.03497972
31	0xbb8484c0	-0.0040441453
32	0x3cabfdb4	0.020994999
33	0xbd9d773c	-0.07688758
34	0xbd360205	-0.04443552
35	0x3d828b2d	0.06374202
36	0xbaf27fbe	-0.0018501205
37	0xbd5f49e7	-0.05451384
38	0x3bd0b187	0.006368819
39	0x3d8ef8fa	0.06981082
40	0xbdbc814a	-0.092043474
41	0xbda91fa2	-0.082579866
42	0x3d798d22	0.06092561
43	0xbd704b6f	-0.05866569
44	0x3cee2264	0.029069133
45	0x3db7f768	0.08982736
46	0xbdf2e8b7	-0.11860793
47	0x3c51ca4b	0.012804578
48	0x3cab7abc	0.020932548
49	0xbd61e941	-0.05515409
50	0x3dba5f1d	0.09100173
51	0x3cb3a37d	0.021928543
52	0xbddc2267	-0.10748749
53	0xbd0e760c	-0.034780547
54	0xbd606dba	-0.054792143
55	0x3c26fe8a	0.010192523
56	0x30194664	5.5761107e-10
57	0xbd7a4113	-0.061097216
58	0x3baf3238	0.0053465627
59	0x3b89c859	0.0042047915
60	0xb2188119	-8.876918e-09
61	0x3aa2eb3d	0.0012429726
62	0x3d2b5c9b	0.041836362
63	0xbd8a6597	-0.06757658
64	0x311b0ca5	2.2562656e-09
65	0xbd8856a0	-0.066571474
66	0x3cfb965e	0.03071135
67	0xb3ccd385	-9.5379654e-08
68	0xbd8e25af	-0.06940781
69	0xb22e57ea	-1.0148122e-08
70	0x3dc42b0e	0.095785245
71	0x3db4d00b	0.088287435
72	0xb3fc60ce	-1.1752273e-07
73	0x3d8633bf	0.065528385
74	0xb235f4b9	-1.059123e-08
75	0x35218ee5	6.018511e-07
76	0x3d13e77f	0.036109444
77	0xbc9c6777	-0.019092305
78	0x3d8a4ee9	0.06753332
79	0xbd124382	-0.03570891
80	0xb0ae425f	-1.267903e-09
81	0xbd7e81ee	-0.06213563
82	0xbd6b7ef4	-0.05749412
83	0x3db3ab51	0.087729104
84	0x3c62f94e	0.013853384
85	0x33920a93	6.800578e-08
86	0x3da3aa96	0.07991521
87	0x3d0d3938	0.034478396
88	0xbdb33943	-0.08751156
89	0x3d9b84ec	0.07593712
90	0x3c2d81e5	0.010590051
91	0xbca5caf8	-0.020238385
92	0x3d8b611d	0.06805632
93	0xbd8f986f	-0.07011496
94	0x3d66add6	0.056318127
95	0x3d8d9a18	0.06914157
96	0xbd7ef1ba	-0.062242247
97	0xbcc67e19	-0.02423005
98	0x3c2a00ea	0.0103761945
99	0xbcc3f122	-0.023918692
100	0xaf275045	-1.5217079e-10
101	0x2f6a55aa	2.131261e-10
102	0xbd7affee	-0.06127923
103	0xaf2a4306	-1.5485221e-10
104	0xbcb9b787	-0.02267052
105	0x3cbc02ba	0.022950519
106	0xbd3b1ea4	-0.045683518
107	0xbbf7990b	-0.007556086
108	0x3d191abc	0.03737901
109	0x3ac0aa66	0.001469922
110	0x3d0079d3	0.03136618
111	0x3d38f5fd	0.045156468
112	0xbdc95ef6	-0.098325655
113	0x3cda5839	0.026653396
114	0xbc898bcd	-0.016790295
115	0x3d97da85	0.07414726
116	0xbd49f575	-0.04930635
117	0xbdc2c8c3	-0.095109485
118	0x3c908dcb	0.017645737
119	0x3d904fcc	0.0704647
120	0x3d1457c8	0.036216527
121	0x3d43a847	0.047767904
122	0x3d9a1606	0.07523732
123	0xbd9d61cc	-0.07684669
124	0x3da64890	0.08119309
125	0x3de331c7	0.11093479
126	0xbd72e05d	-0.059296
127	0x3b894257	0.0041888165
128	0x3c5babdb	0.013407673
129	0xbd1a0031	-0.03759784
130	0x3d033468	0.0320324
131	0x3da6b334	0.08139649
132	0xbce85c14	-0.028364219
133	0x3bb9474a	0.0056542503
134	0xbce6038e	-0.028077867
135	0x3cf9d230	0.030495733
136	0xbd3018a0	-0.042992234
137	0xbd1fb314	-0.03898914
138	0xbd9302c4	-0.07178262
139	0xbda5e3fa	-0.08100124
140	0xbd80f4ed	-0.06296716
141	0xbdd8b7a0	-0.10581899
142	0x3dc5b265	0.09653167
143	0xbdeaa266	-0.11456756
144	0x3d1593b1	0.036517803
145	0xbd195850	-0.037437737
146	0x3c6d983f	0.01450163
147	0x3d8e7eaa	0.06957753
148	0xbada447c	-0.001665249
149	0xbdf1e30a	-0.118108824
150	0xbd595d14	-0.05306728
151	0xbd8aa2e2	-0.06769349
152	0xbd6f8102	-0.05847264
153	0xbdb4aaa4	-0.088216096
154	0xbd7e3f10	-0.06207186
155	0xbce9ac35	-0.028524498
156	0x3d2401a7	0.04004064
157	0x3d8b6ea6	0.06808214
158	0x3c9b6a30	0.018971533
159	0xbde595e2	-0.112102285
160	0x3087fb99	9.894051e-10
161	0xbbd29b73	-0.0064272224
162	0xbdaef46d	-0.08542714
163	0x3d5fb20b	0.054613154
164	0xaea35afb	-7.428543e-11
165	0xbd86aeef	-0.06576335
166	0xbd95501d	-0.07290671
167	0x3c8889d1	0.016667278
168	0xb5672efb	-8.612257e-07
169	0xbd5c65a4	-0.05380787
170	0x3c4d2bd1	0.012522654
171	0xaf0494d0	-1.2058199e-10
172	0x3d7fabc9	0.062419686
173	0xb29f97a4	-1.8578994e-08
174	0xbd03c0db	-0.032166343
175	0x3d08ddf4	0.033414796
176	0x30af3006	1.2746575e-09
177	0xbcb0af46	-0.021567952
178	0x302f0271	6.36681e-10
179	0xafb4013a	-3.274268e-10
180	0xbba6dc71	-0.0050921966
181	0xbc92ea38	-0.01793395
182	0x3d1212ea	0.03566257
183	0xbd737381	-0.059436325
184	0xb4ba3f72	-3.4691362e-07
185	0xbbcb9133	-0.0062123775
186	0x3d8db300	0.06918907
187	0xbd81faaf	-0.06346642
188	0xbc06ff7f	-0.008239626
189	0x2fbe789f	3.4646505e-10
190	0xbd15431a	-0.036440946
191	0xbde5e64f	-0.112255685
192	0xbda906d1	-0.08253253
193	0xbc0df93f	-0.008665382
194	0xbdb4a551	-0.08820594
195	0x3d9e5046	0.07730155
196	0x3d84ffda	0.06494112
197	0x3ca2c80b	0.019870779
198	0x3c1db6c2	0.009626092
199	0xbc1844f5	-0.009293784
200	0x3ce4e69e	0.027941998
201	0xbdd2bf2d	-0.1029037
202	0x3dae5839	0.08512921
203	0xbdae0061	-0.08496166
204	0xb3a30261	-7.590712e-08
205	0xaf2e53e3	-1.585501e-10
206	0x3dbb15e3	0.09135034
207	0xb1b70030	-5.3260223e-09
208	0x39db0812	0.00041776948
209	0xbdec5a6b	-0.11540683
210	0x3cddc67f	0.02707219
211	0x3d981953	0.07426705
212	0xbdd2b67f	-0.102887146
213	0x3cbd3a9a	0.023099232
214	0xbda65f11	-0.08123601
215	0xbd816d64	-0.06319693
216	0x3dd625d2	0.104564324
217	0xbb918302	-0.004440666
218	0xbc63042d	-0.013855976
219	0xbd9db25e	-0.077000365
220	0xbe00fecb	-0.12597196
221	0x3d3135f8	0.04326436
222	0x3c03329b	0.008007671
223	0xbc8b6e82	-0.017020468
224	0x3b289338	0.0025722515
225	0x3d57d005	0.052688617
226	0xbd27061b	-0.040777307
227	0x3dc13b4d	0.09435139
228	0x3bc5cf41	0.0060366695
229	0xbdb4c4d5	-0.08826605
230	0xbcbf17f5	-0.023326853
231	0xbc321782	-0.0108698625
232	0x3d0347ed	0.032051016
233	0x3d86d3e5	0.065833844
234	0xbc847ab0	-0.016171783
235	0x3dc46273	0.0958909
236	0xbd09ceda	-0.033644535
237	0x3d1ec2b1	0.03875989
238	0x3deda566	0.11603813
239	0x3da3e891	0.08003343
240	0xbd583232	-0.052782245
241	0x3d68c3a8	0.056827217
242	0x3c9f5702	0.019450668
243	0xbe01b831	-0.1266792
244	0x3c687339	0.0141876275
245	0xbd81516c	-0.06314358
246	0x3b7e584e	0.0038809958
247	0x3cbf5782	0.023357157
248	0xbd034913	-0.03205211
249	0x3e1794b4	0.1480282
250	0x3e1817d9	0.14852847
251	0x3d1e6f8d	0.038680602
252	0x3c5dd48e	0.0135394465
253	0xbdd922dc	-0.10602352
254	0x3dec606b	0.11541828
255	0x3d8ab37e	0.06772517

main_network.0.bias f4 [128]
0	0x377c1038	1.5024147e-05
1	0x376cf143	1.4122869e-05
2	0xb6ff8729	-7.615327e-06
3	0x3735630c	1.0811502e-05
4	0xb391cb09	-6.7890205e-08
5	0xb5c54f18	-1.4700663e-06
6	0xb72153f3	-9.615894e-06
7	0xb7139f4d	-8.798973e-06
8	0x3627408f	2.4922517e-06
9	0x36c14400	5.7597645e-06
10	0x37a386de	1.9493917e-05
11	0x37723961	1.4437684e-05
12	0x37b3e019	2.1442816e-05
13	0x36bb94e5	5.590368e-06
14	0x3818a57d	3.6393747e-05
15	0x362bf41e	2.562308e-06
16	0xb78879a0	-1.62691e-05
17	0x359ec22d	1.182843e-06
18	0xb6efdabd	-7.1482195e-06
19	0x36cffdf0	6.198643e-06
20	0x38aa3d3d	8.117638e-05
21	0x3593ff3d	1.1026638e-06
22	0x378e837a	1.6988943e-05
23	0xb6c4992b	-5.8590863e-06
24	0xb6da34e5	-6.503064e-06
25	0x3584363e	9.850553e-07
26	0xb6f78cbf	-7.3775586e-06
27	0xb757c348	-1.2860466e-05
28	0xb70ee2aa	-8.516634e-06
29	0xb6dda329	-6.6053076e-06
30	0x372990a7	1.01068645e-05
31	0xb6605c2d	-3.3432254e-06
32	0xb6a3b3e1	-4.878719e-06
33	0x374aebf9	1.209508e-05
34	0x37e8f46a	2.777037e-05
35	0xb5a81244	-1.2522291e-06
36	0xb687c84e	-4.046632e-06
37	0x378178e4	1.5434292e-05
38	0xb6c17e50	-5.766553e-06
39	0x36cab74d	6.041408e-06
40	0xb736e6a6	-1.0901747e-05
41	0x3646ee41	2.9642981e-06
42	0xb6b8ec96	-5.5111695e-06
43	0xb65a6636	-3.2544026e-06
44	0xb5b2c254	-1.331859e-06
45	0xb5c86b4d	-1.493239e-06
46	0xb73f5300	-1.1403812e-05
47	0xb6b4a6e4	-5.3838467e-06
48	0xb5f88443	-1.8515933e-06
49	0x37048b20	7.900206e-06
50	0xb739ed0a	-1.1082049e-05
51	0x3723c57e	9.761539e-06
52	0x36e0e83a	6.702755e-06
53	0xb5cdb3fd	-1.5326074e-06
54	0xb73d3ad0	-1.1278971e-05
55	0xb6b1a6da	-5.294435e-06
56	0x3608ff59	2.041421e-06
57	0x3676642d	3.6715167e-06
58	0x3578db04	9.270591e-07
59	0x36bc10d3	5.604795e-06
60	0x36cc191a	6.082596e-06
61	0xb6e50843	-6.8256936e-06
62	0xb629321f	-2.5212137e-06
63	0xb691e9a0	-4.3485343e-06
64	0x36e01989	6.678693e-06
65	0x37985e23	1.8163648e-05
66	0xb7503216	-1.2409428e-05
67	0xb6be6d40	-5.6751596e-06
68	0xb86fb3af	-5.7149384e-05
69	0xb752c367	-1.2562471e-05
70	0xb6a62ba9	-4.9522682e-06
71	0x3542a114	7.250503e-07
72	0xb5373b5c	-6.825919e-07
73	0xb72ee492	-1.0424426e-05
74	0xb573b1c1	-9.078322e-07
75	0xb6073c81	-2.0151786e-06
76	0xb617629a	-2.2558147e-06
77	0xb7a18c39	-1.9257992e-05
78	0xb5bee04f	-1.4221386e-06
79	0xb7db1af3	-2.6119384e-05
80	0x36c7e118	5.9568665e-06
81	0x36f3bf70	7.2642506e-06
82	0x3712bbed	8.746033e-06
83	0x37d3f194	2.5265654e-05
84	0xb689a08a	-4.1016074e-06
85	0x36a8425d	5.014516e-06
86	0x3815e885	3.574092e-05
87	0xb8e95e3d	-0.00011127859
88	0x37f22202	2.8864484e-05
89	0x37bc1a5e	2.2423625e-05
90	0x37106ff8	8.609139e-06
91	0x35a89d2c	1.2562718e-06
92	0x38093065	3.2708416e-05
93	0x37c57ca2	2.3542267e-05
94	0xb827cdf4	-4.000771e-05
95	0xb7794afa	-1.4859013e-05
96	0xb643faf4	-2.9203338e-06
97	0xb64f3de8	-3.0881438e-06
98	0xb5834f5f	-9.783361e-07
99	0x37639493	1.3564847e-05
100	0x36f7bd35	7.3832e-06
101	0x36017c88	1.9294985e-06
102	0xb795551c	-1.7801816e-05
103	0x37b94108	2.2084001e-05
104	0x37a4f0e9	1.9662506e-05
105	0x3632f8c1	2.666886e-06
106	0x3717e8c1	9.054494e-06
107	0x356b18f7	8.758065e-07
108	0xb732090d	-1.0611734e-05
109	0x36fd4e6a	7.549116e-06
110	0x35bba0cf	1.3979387e-06
111	0xb6a0d86b	-4.793566e-06
112	0x35dcf148	1.6461499e-06
113	0xb755ffed	-1.2755377e-05
114	0x34832b5e	2.4432205e-07
115	0xb7068795	-8.01859e-06
116	0xb82fc96c	-4.191084e-05
117	0x35a327ab	1.2155991e-06
118	0x36a23123	4.8336965e-06
119	0x3553a0e0	7.883773e-07
120	0x36b8cd29	5.507511e-06
121	0x371e4c7a	9.43534e-06
122	0xb64a0cf5	-3.0107888e-06
123	0x376f9712	1.4280684e-05
124	0x3640a16b	2.8704187e-06
125	0x364525ae	2.937722e-06
126	0xb5a8438d	-1.2536635e-06
127	0xb6e53f7d	-6.832123e-06

main_network.1.weight f4 [128]
0	0x3f796470	0.9741888
1	0x3f790f20	0.97288704
2	0x3f7d5cc5	0.9896968
3	0x3f8243b3	1.017691
4	0x3f83174c	1.0241485
5	0x3f854e64	1.0414548
6	0x3f787a08	0.97061205
7	0x3f80c2c5	1.0059439
8	0x3f872245	1.0557333
9	0x3f866110	1.0498371
10	0x3f83d519	1.0299407
11	0x3f7f565b	0.99741143
12	0x3f82dc6b	1.0223516
13	0x3f75f6dc	0.960798
14	0x3f876b34	1.0579591
15	0x3f7c1a2d	0.9847744
16	0x3f7d8bd7	0.99041504
17	0x3f7c2565	0.9849456
18	0x3f82a39d	1.0206181
19	0x3f80f130	1.0073605
20	0x3f84b343	1.0367206
21	0x3f80c710	1.0060749
22	0x3f7edec1	0.99558645
23	0x3f7fee14	0.99972653
24	0x3f7f8975	0.9981912
25	0x3f7ade73	0.9799568
26	0x3f7a21fc	0.97708106
27	0x3f82be3a	1.0214303
28	0x3f865d49	1.0497218
29	0x3f83bdb7	1.0292271
30	0x3f8079ce	1.0037172
31	0x3f7a0419	0.976625
32	0x3f755867	0.95838016
33	0x3f7bc693	0.98349875
34	0x3f856c98	1.0423765
35	0x3f7e7b3d	0.99406797
36	0x3f79d484	0.975899
37	0x3f80d0b6	1.0063694
38	0x3f7addd3	0.97994727
39	0x3f833b8e	1.025255
40	0x3f75645e	0.95856273
41	0x3f78fe29	0.9726282
42	0x3f7fb335	0.99882823
43	0x3f7b2113	0.9809734
44	0x3f7c36fc	0.985214
45	0x3f7e07bc	0.9923055
46	0x3f7c3aa3	0.9852697
47	0x3f7b8a8c	0.9825828
48	0x3f7f2fc5	0.99682266
49	0x3f7a6725	0.97813636
50	0x3f81cc20	1.0140419
51	0x3f7ef5b5	0.9959367
52	0x3f816dad	1.0111595
53	0x3f7d9a9f	0.9906406
54	0x3f7fdd7f	0.9994735
55	0x3f825eb0	1.0185146
56	0x3f7d5ed1	0.98972803
57	0x3f777a01	0.9667054
58	0x3f80bf24	1.0058331
59	0x3f72cd83	0.94844836
60	0x3f7f0d3e	0.9962958
61	0x3f77992d	0.967181
62	0x3f8270dc	1.0190692
63	0x3f831aba	1.0242531
64	0x3f84fa9e	1.0388982
65	0x3f7a7fdf	0.97851366
66	0x3f7a7056	0.9782766
67	0x3f7d8dbc	0.99044394
68	0x3f80e03c	1.0068431
69	0x3f817005	1.0112311
70	0x3f795e18	0.974092
71	0x3f7b6490	0.9820032
72	0x3f81a4d2	1.0128424
73	0x3f7a22dc	0.9770944
74	0x3f7e7ed2	0.9941226
75	0x3f79c523	0.9756643
76	0x3f7c91d8	0.9866004
77	0x3f7ec8e0	0.9952526
78	0x3f842150	1.0322666
79	0x3f7f1621	0.9964314
80	0x3f7b05ac	0.9805553
81	0x3f82614a	1.018594
82	0x3f7ce822	0.98791707
83	0x3f7dd69c	0.9915559
84	0x3f7dd7d4	0.9915745
85	0x3f79814c	0.97462916
86	0x3f883c21	1.064335
87	0x3f7b33af	0.9812574
88	0x3f88d04c	1.0688567
89	0x3f78ede0	0.9723797
90	0x3f7d88ec	0.9903705
91	0x3f832018	1.0244169
92	0x3f886c51	1.0658056
93	0x3f7b1e9d	0.9809359
94	0x3f825e6e	1.0185068
95	0x3f78fd26	0.97261274
96	0x3f7824b5	0.9693101
97	0x3f7d5125	0.9895194
98	0x3f7b3c32	0.98138726
99	0x3f7eb7eb	0.99499387
100	0x3f8a313c	1.0796275
101	0x3f847e98	1.0351133
102	0x3f8487e1	1.0353967
103	0x3f8368f3	1.0266403
104	0x3f810bf4	1.0081773
105	0x3f8026d9	1.0011855
106	0x3f80cabd	1.0061871
107	0x3f799d4b	0.97505635
108	0x3f7738b2	0.96570885
109	0x3f8243df	1.0176963
110	0x3f7b05ca	0.9805571
111	0x3f7a866e	0.97861373
112	0x3f7bcfa2	0.983637
113	0x3f7c6548	0.9859204
114	0x3f7a9ec1	0.9789849
115	0x3f8470c7	1.0346917
116	0x3f8545e8	1.0411959
117	0x3f782de7	0.9694504
118	0x3f7a6a17	0.9781813
119	0x3f78fc63	0.9726011
120	0x3f7f2032	0.996585
121	0x3f7edb3f	0.99553293
122	0x3f7abc24	0.9794333
123	0x3f82658b	1.0187238
124	0x3f7415b7	0.95345634
125	0x3f7a5d9f	0.97799104
126	0x3f780605	0.96884185
127	0x3f7a4773	0.9776527

main_network.1.bias f4 [128]
0	0x3b80dc87	0.003932539
1	0xbbf95e21	-0.007610098
2	0xbd010086	-0.03149464
3	0x3c70b1f4	0.014690865
4	0xbc0e91b4	-0.0087017305
5	0xbb008c6d	-0.001961495
6	0x3cb9da76	0.022687178
7	0xbcfc5462	-0.030801956
8	0x3d145c9a	0.036221124
9	0x3d257866	0.040398024
10	0x3cf22305	0.029557714
11	0x3c8f9765	0.017528245
12	0x3cff20be	0.031143542
13	0xbc6c6ecb	-0.014430712
14	0x3caf15a3	0.021372622
15	0xbc05a3dc	-0.008156743
16	0xbbb9c6e3	-0.005669461
17	0x3bc0b79d	0.0058812634
18	0x3d220ec5	0.039564867
19	0x3c5130e5	0.012768005
20	0xbc3eaaa5	-0.0116373645
21	0x3d035758	0.03206572
22	0x3bf7436d	0.0075458796
23	0xbba24fa1	-0.00495334
24	0x3cf2c5e2	0.029635374
25	0x3b67e0e8	0.0035381857
26	0x3c0e61dd	0.008690325
27	0x3c27811e	0.010223655
28	0x3d6ab54c	0.057301804
29	0x3d437645	0.047720212
30	0x3c9ebf6f	0.019378392
31	0xbd05eb10	-0.032694876
32	0xbd445c95	-0.047939856
33	0xbbb4d2f5	-0.005518312
34	0x3d03ebdf	0.032207366
35	0x39ff7eb6	0.00048731797
36	0x3b435f37	0.002981139
37	0x3bdeccc6	0.0067993132
38	0x3cbe78b7	0.02325092
39	0x3cabca59	0.02097051
40	0xbd2cc59f	-0.042180654
41	0xbc9672e0	-0.018365324
42	0x3cb26159	0.021774935
43	0x3b96e190	0.004604526
44	0x3c0635ae	0.008191509
45	0x3b28df40	0.0025767833
46	0xbbb3594d	-0.005473292
47	0x3c04ffd1	0.008117632
48	0x3ccad692	0.024760518
49	0xbbd8d575	-0.006617243
50	0x3cfa3e19	0.030547189
51	0x3c89e45d	0.016832525
52	0x3bbbdb2a	0.0057329135
53	0x3d0fecd2	0.03513796
54	0x3c16d6b1	0.00920646
55	0x3cfc5104	0.03080035
56	0x3c4fbdf0	0.012679562
57	0xbc8ba1d1	-0.017044934
58	0xbb33ce25	-0.0027436104
59	0xbd47f7ec	-0.04882042
60	0x3cf8a779	0.030353295
61	0xbb3f9f92	-0.0029239398
62	0xbcd6a200	-0.026200294
63	0x3d8733e8	0.06601697
64	0x3c317f78	0.010833614
65	0xbbc5024c	-0.0060122367
66	0x3c536910	0.012903467
67	0xbb17e73b	-0.0023178596
68	0x3d178260	0.03698957
69	0x3d7af577	0.06126925
70	0xbbf9e5d4	-0.0076262746
71	0x3b09b53b	0.0021012563
72	0x3cb5893f	0.02216017
73	0xbadf16f7	-0.0017020394
74	0x3c8d1b22	0.017224852
75	0xbbf6c3c3	-0.007530661
76	0x3c4da0d4	0.012550551
77	0xbc0dc283	-0.008652332
78	0x3d907c1a	0.070549205
79	0x3bebfb42	0.007201583
80	0xbce031aa	-0.027367432
81	0x3c8457da	0.016155172
82	0xbcb0f82a	-0.021602709
83	0xbac69f64	-0.0015153703
84	0x3b8ab4c3	0.0042329743
85	0xbd0c8a64	-0.034311667
86	0x3d230572	0.039800115
87	0xbcf93e31	-0.030425163
88	0x3d06805e	0.032837264
89	0xbb68a7da	-0.0035500438
90	0x3a4bb0ee	0.00077702
91	0x3d2a1ff9	0.041534398
92	0x3c77274b	0.015085052
93	0xbb3bcc1e	-0.00286556
94	0x3c2cd88f	0.0105496785
95	0x3b533a14	0.0032230662
96	0xbcf45fc9	-0.02983083
97	0xbbc3cbb4	-0.005975211
98	0xbc82b42c	-0.015955053
99	0x3ba82f86	0.0051326184
100	0x3cb8e632	0.022570703
101	0x3c9e3f29	0.019317226
102	0x3c8c4385	0.01712204
103	0x3c42a9cb	0.011881302
104	0xbc154977	-0.009111754
105	0x3c36cdc0	0.011157453
106	0x3cacf82c	0.021114431
107	0xbd0c152c	-0.03419988
108	0xbc693566	-0.014233923
109	0x3d3ebd8e	0.046567492
110	0xbbc01eb2	-0.005863034
111	0xbbfc8e83	-0.0077074184
112	0xbc299807	-0.010351188
113	0xbc95e083	-0.018295532
114	0xbbfa4e64	-0.0076387394
115	0x3d08fac3	0.03344227
116	0x3ca356da	0.019938875
117	0x3c96d880	0.018413782
118	0xbba7b1cd	-0.005117631
119	0xbc9d20d3	-0.01918069
120	0xbcd03f1d	-0.02542072
121	0x3be492e2	0.0069755176
122	0x3bb1b030	0.0054226145
123	0xbcf47707	-0.029841913
124	0xbce572af	-0.028008787
125	0xbd06f6d8	-0.032950252
126	0xbcc63be0	-0.024198472
127	0x3bcaadad	0.0061852545

main_network.1.running_mean f4 [128]
0	0x3d5e18ae	0.054222755
1	0xbdfbc69a	-0.122937396
2	0xbd5f14b3	-0.0544631
3	0x3b26424d	0.0025369108
4	0x3db69703	0.08915522
5	0x3dacaeae	0.08431755
6	0xbd5a127a	-0.053240277
7	0x3d729195	0.05922087
8	0x3d8a62aa	0.067571
9	0x3dc5a7f6	0.09651177
10	0xbc1eff54	-0.00970443
11	0xbd639f95	-0.05557211
12	0x3de91e09	0.11382682
13	0xbdddd137	-0.1083092
14	0x3d885555	0.06656901
15	0x3d465aca	0.048426427
16	0xbd318336	-0.043338023
17	0xbdb6a762	-0.089186445
18	0xbddd1bd3	-0.10796323
19	0x3c9e4514	0.019320048
20	0x3d602bec	0.054729387
21	0xbe0c0c46	-0.13676557
22	0xbc8689ee	-0.016423192
23	0xbd5f76d1	-0.05455667
24	0xbc5c9a3d	-0.013464508
25	0xbd903df2	-0.07043065
26	0xbd552947	-0.05204132
27	0xbd0e8167	-0.034791376
28	0x3cd13405	0.0255375
29	0xbd2ec71a	-0.042670347
30	0x3c1ee36f	0.009697779
31	0xbe231e31	-0.15929486
32	0xbd454783	-0.048163902
33	0xbd19bec6	-0.03753545
34	0x3dfb917b	0.122836076
35	0xbda05e22	-0.078304544
36	0xbdc1deae	-0.09466301
37	0xbd299409	-0.041400943
38	0xbc308429	-0.010773697
39	0xbd8d44fc	-0.06897923
40	0xbaeb1dc1	-0.0017937945
41	0xbd2adf68	-0.041716963
42	0x3e40d348	0.18830597
43	0xbd9e1f6d	-0.07720838
44	0xbd20038d	-0.039065886
45	0xbd967788	-0.073470175
46	0xbd86db8b	-0.06584843
47	0xbd17016e	-0.036866598
48	0xbda2a0a7	-0.07940798
49	0x3be2ab95	0.006917427
50	0xbdbec178	-0.09314245
51	0xbdda5ef4	-0.10662642
52	0xbc3ab986	-0.011396771
53	0x3bf6abc7	0.0075278017
54	0xbcb29a06	-0.02180196
55	0x3dbf95c4	0.093547374
56	0xbdbfc104	-0.09362987
57	0xbe123031	-0.14276196
58	0x3db18f02	0.08669855
59	0x3d0fb977	0.035088982
60	0xbd47edec	-0.048810884
61	0xbd435bc9	-0.047694955
62	0x3c7e1ad7	0.015509329
63	0xbdf09fb1	-0.11749209
64	0x3e06786b	0.13131873
65	0xbdb6a536	-0.0891823
66	0x3dcd52fe	0.10025595
67	0x3ce67bb5	0.02813516
68	0x3b8e3aac	0.0043404903
69	0xbe1b40b8	-0.15161407
70	0x3d51b02c	0.0511934
71	0xbd53bd35	-0.051694114
72	0xbc588d6d	-0.013217312
73	0xbd51142a	-0.05104462
74	0xbdadcbbf	-0.08486127
75	0x3cea8f4b	0.02863278
76	0xbda191c1	-0.078891285
77	0xbde39e52	-0.111141816
78	0x3da88aaa	0.08229573
79	0xbcf16406	-0.02946664
80	0x3dc1706f	0.09445273
81	0x3de1105e	0.1098945
82	0x3c8ecca1	0.017431559
83	0xbd684170	-0.05670303
84	0x3d02bb30	0.031916797
85	0x3cd472f4	0.02593372
86	0x3e3cdd4c	0.18443793
87	0xbd1ed024	-0.038772717
88	0x3dcb79f6	0.099353716
89	0xbdad32d0	-0.08456957
90	0xbcca8752	-0.024722729
91	0xbc7ed6db	-0.015554155
92	0x3e0b9d2c	0.13634175
93	0xbd14509c	-0.036209688
94	0x3d46ed35	0.048566062
95	0xbd78e85e	-0.060768478
96	0xbd4fb339	-0.05070803
97	0x3d90141a	0.07035084
98	0xbacb1d6b	-0.0015496438
99	0xbd273d08	-0.04082969
100	0x3dd48201	0.10376359
101	0x3db313d4	0.08744016
102	0x3db75e98	0.08953589
103	0x3e1785bd	0.14797111
104	0xbce70ba8	-0.0282038
105	0xbd92f9b2	-0.07176532
106	0x3de17cd4	0.11010137
107	0x3d9df450	0.077126145
108	0xbd8f07f5	-0.069839396
109	0xbd93d51a	-0.0721838
110	0x3d245701	0.040122036
111	0xbd1068d7	-0.035256233
112	0x3d450863	0.0481037
113	0x3ccdb5e0	0.025111139
114	0xbd9cdab2	-0.076589
115	0x3df277d9	0.118392654
116	0x3db8be7a	0.090207055
117	0xbd665ea2	-0.056242593
118	0x3daeeedf	0.08541655
119	0x3b7b6c33	0.0038364052
120	0xbdaf2f37	-0.085539274
121	0xbdd0fc55	-0.102043785
122	0xbdd4d221	-0.103916414
123	0xbcd60c61	-0.02612895
124	0xbdaa6e78	-0.083218515
125	0x3d163088	0.036667377
126	0xbd0f8f49	-0.035048757
127	0xbdb29584	-0.08719924

main_network.1.running_var f4 [128]
0	0x3e70b969	0.23508228
1	0x3f4d8e19	0.8029495
2	0x3ec3f36e	0.3827166
3	0x3e5884eb	0.21144454
4	0x3e4e31fe	0.20136258
5	0x3e138bb8	0.14408767
6	0x3e85cf55	0.26134744
7	0x3e479d72	0.19493654
8	0x3e0c8f1e	0.1372647
9	0x3e174ee6	0.14776191
10	0x3f1001f1	0.5625296
11	0x3edfaa96	0.43684834
12	0x3e1e6f2f	0.154721
13	0x3e5ae64f	0.21376918
14	0x3df1ffa6	0.11816339
15	0x3ee8ba95	0.4545485
16	0x3e8ac3c8	0.27102494
17	0x3e5ba2f1	0.21448876
18	0x3dcf3530	0.101175666
19	0x3ed7464e	0.42045826
20	0x3e1437d1	0.14474417
21	0x3e8819fb	0.26582322
22	0x3f26b766	0.65123594
23	0x3dc99211	0.09842313
24	0x3e2fbf80	0.17162895
25	0x3f7d74e9	0.99006516
26	0x3e6c0cc2	0.23051742
27	0x3e3a342e	0.18183967
28	0x3e928f90	0.28625154
29	0x3ebeb82d	0.3724989
30	0x3ea261d8	0.31715274
31	0x3e8d03b0	0.27541876
32	0x3ea686bb	0.32524666
33	0x3ef67db6	0.48142785
34	0x3e4746c1	0.19460584
35	0x3f3e66de	0.7437571
36	0x3f1a9fe3	0.6040022
37	0x3dae740e	0.085182294
38	0x3e206ba0	0.15666056
39	0x3d88cbf8	0.06679529
40	0x3f0a9f71	0.5414954
41	0x3f528f68	0.8225007
42	0x3f2858f9	0.6576076
43	0x3e544966	0.20731124
44	0x3e75a474	0.23988515
45	0x3ebf6ff2	0.37390095
46	0x3dff606d	0.12469564
47	0x3e70e674	0.23525411
48	0x3e0d37ab	0.13790767
49	0x3e864fce	0.2623276
50	0x3ed7612e	0.4206633
51	0x3e9e289b	0.30890355
52	0x3f657bed	0.8964222
53	0x3e805dab	0.25071463
54	0x3ed7cf8f	0.42150542
55	0x3e62134d	0.22077675
56	0x3ef9d168	0.48792577
57	0x3df31402	0.118690506
58	0x3e90674d	0.28203812
59	0x3ebd1cb3	0.36935958
60	0x3e11338a	0.14179817
61	0x3e556fbc	0.20843405
62	0x3d97ad9d	0.07406161
63	0x3e656668	0.22402346
64	0x3dcece66	0.10097961
65	0x3f2344c6	0.63776815
66	0x3edb15e1	0.4279013
67	0x3d161531	0.036641303
68	0x3e2be64d	0.16787072
69	0x3ec01e28	0.37523007
70	0x3ebd3f9b	0.3696259
71	0x3e715700	0.23568344
72	0x3e3ec91a	0.18631402
73	0x3e41fb05	0.18943413
74	0x3e9aace2	0.30210024
75	0x3f18e23c	0.59720206
76	0x3e9c2436	0.30496377
77	0x3e28c5bd	0.16481681
78	0x3e9ec282	0.31007773
79	0x3e896880	0.2683754
80	0x3e9a38fb	0.30121598
81	0x3e6ca0e6	0.23108253
82	0x3e87a4bf	0.2649288
83	0x3e876613	0.26445064
84	0x3e62be64	0.22142941
85	0x3e1539c2	0.14572814
86	0x3e6b93f0	0.23005652
87	0x3d98b715	0.07456795
88	0x3e1b0302	0.15137866
89	0x3de7aa02	0.11311723
90	0x3e296dc7	0.16545783
91	0x3f348163	0.7050993
92	0x3e631c54	0.22178775
93	0x3e199598	0.14998472
94	0x3e9208b3	0.28522262
95	0x3e0347cf	0.12820362
96	0x3e10a4e0	0.14125395
97	0x3e55c093	0.20874242
98	0x3ec6461b	0.3872536
99	0x3e5a467f	0.21315955
100	0x3e2dec4e	0.16984674
101	0x3e36835c	0.17823547
102	0x3ea1f02a	0.31628543
103	0x3e36633c	0.17811292
104	0x3d9f4bd3	0.07778134
105	0x3e7c6c76	0.2465075
106	0x3e1662fa	0.14686194
107	0x3edc8f4c	0.43078077
108	0x3eaf5ad7	0.34248993
109	0x3ec2e027	0.3806164
110	0x3f69c0cf	0.9130983
111	0x3e8f9cdc	0.28049362
112	0x3ec162d7	0.3777072
113	0x3ea3370b	0.31877932
114	0x3df22ca1	0.118249185
115	0x3dd7d4cf	0.10538637
116	0x3e6f63ae	0.23377869
117	0x3eb5a6b5	0.3547875
118	0x3f1db559	0.6160484
119	0x3e8daa55	0.27669016
120	0x3dfc08d8	0.12306374
121	0x3ed480a7	0.41504404
122	0x3e31a3c2	0.17347625
123	0x3d720c23	0.059093606
124	0x3f05a2b6	0.522014
125	0x3e15a5ad	0.14613982
126	0x3f03bc42	0.51459134
127	0x3e964657	0.2935054

main_network.4.weight f4 [64, 128]
0	0x3d59d238	0.053178996
1	0x3d54f271	0.051989023
2	0x3d30dc72	0.043178983
3	0x3cd9d6f4	0.026591755
4	0xbc454400	-0.012040138
5	0x3db17119	0.0866415
6	0x3d763aa7	0.06011453
7	0xbc020bba	-0.007937366
8	0x3d99147b	0.074746095
9	0x3ab4a5f0	0.0013782363
10	0x3d24ef3c	0.040267214
11	0x3c11485e	0.008867351
12	0xbce94e03	-0.028479582
13	0xbd560784	-0.05225326
14	0x3d996be7	0.07491284
15	0xbb01fe52	-0.0019835425
16	0x3d8f8bce	0.070090875
17	0xbd5b391d	-0.053521264
18	0xbd440fee	-0.047866754
19	0x3d126f41	0.03575063
20	0x3d912fca	0.07089193
21	0xbcb961ad	-0.022629583
22	0x3d5eaeeb	0.054366034
23	0x3d996e0a	0.074916914
24	0xbda42e87	-0.08016687
25	0x3cdf4126	0.027252745
26	0xbd2afc85	-0.041744728
27	0xbd196900	-0.03745365
28	0x3d93b05f	0.072113745
29	0xbd619298	-0.055071443
30	0xbc833e96	-0.016021054
31	0xbd12880e	-0.035774283
32	0xbd6dd91c	-0.05806838
33	0xbc1f50a2	-0.009723814
34	0xbd39e04f	-0.045379933
35	0x3c294532	0.010331439
36	0xbca66503	-0.020311838
37	0x3d719d7a	0.058988072
38	0xbc87f48c	-0.016596101
39	0xbd99fb4b	-0.075186335
40	0xbc824985	-0.015904197
41	0x3d285571	0.04109711
42	0xbc185a1c	-0.0092988275
43	0x3d8210ee	0.06350885
44	0xbd114f62	-0.035476096
45	0x3d853287	0.06503778
46	0xbdba85fd	-0.091075875
47	0xbd4e53b8	-0.05037281
48	0xbdc7e6d4	-0.09760824
49	0xbc59b6d3	-0.013288218
50	0x3c896c79	0.016775357
51	0xbdb7cc53	-0.089745186
52	0xbd1e649f	-0.03867018
53	0x3c154e4f	0.0091129085
54	0x3dc1771e	0.09446548
55	0x3d90f485	0.070778884
56	0x3c8c2791	0.01710871
57	0xbb52a99a	-0.0032144547
58	0x3c757921	0.014982493
59	0xbc6f2e8c	-0.0145985
60	0xbd0ac81d	-0.03388225
61	0xbc3b904d	-0.011447978
62	0x3dc6b8e9	0.097032376
63	0x3d45d1fc	0.04829596
64	0xbd145541	-0.036214117
65	0x3d4c6803	0.04990388
66	0xbcf5f559	-0.030024217
67	0xbd98e591	-0.07465661
68	0x3d23139d	0.039813627
69	0xbdb21291	-0.086949475
70	0xbd39e3aa	-0.045383133
71	0xbd9df4f9	-0.077127405
72	0xbd77c69b	-0.06049214
73	0xbc88aed7	-0.016684933
74	0xbd9ec92c	-0.07753214
75	0x3cdbd81d	0.02683645
76	0xbd6924a0	-0.056919694
77	0xbb24efa6	-0.0025167256
78	0xbd2540ac	-0.04034488
79	0x3d94f04c	0.072723955
80	0x3d3c5caa	0.04598681
81	0xbc534324	-0.012894426
82	0xbd7e04d0	-0.06201631
83	0x3cd24962	0.025669757
84	0x3c597a11	0.013273732
85	0xbd0df91f	-0.03466141
86	0x3d763966	0.060113333
87	0xbc950c04	-0.018194206
88	0x3daca800	0.08430481
89	0x3d03fe1e	0.032224767
90	0x3d363da2	0.04449237
91	0xbcdae60c	-0.026721023
92	0x3dc006dc	0.09376308
93	0x3d91eeca	0.071256235
94	0xbbe0a33c	-0.0068553966
95	0xbd5ae9ac	-0.053445503
96	0xbd87d611	-0.06632627
97	0x3d84a4ad	0.06476722
98	0xbd3fb7b0	-0.046806037
99	0x3d602382	0.054721363
100	0x3d6c2925	0.057656426
101	0x3d9af587	0.07566362
102	0x3dd39df4	0.103328615
103	0xbcde7ab9	-0.027158128
104	0xbcc54116	-0.024078887
105	0xbd922670	-0.071362376
106	0x3d9f70c9	0.07785184
107	0x3be68c32	0.0070357556
108	0xbdb10af6	-0.08644669
109	0xbce8f33a	-0.028436292
110	0xbd36c1b2	-0.044618316
111	0xbb3526b2	-0.0027641472
112	0x3d947b24	0.0725005
113	0xbd7c6bd4	-0.06162627
114	0xbcc519f6	-0.02406023
115	0x3c48b182	0.012249352
116	0x3b2a211b	0.0025959674
117	0x3c44a440	0.012002051
118	0x3cf1aa31	0.029500099
119	0xbc5a7ba7	-0.013335145
120	0x3d8c165e	0.06840204
121	0x3c1f03b3	0.009705472
122	0xbcdf8597	-0.02728538
123	0x3db76003	0.0895386
124	0xbd500aaf	-0.05079144
125	0x3d9c0988	0.076190054
126	0xbb475316	-0.0030414513
127	0x3cca7957	0.024716062
128	0x3cf556ca	0.02994861
129	0xbdb18557	-0.08668011
130	0x3da482f4	0.0803279
131	0x3dcc844e	0.099861726
132	0xbc01dfdc	-0.007926907
133	0x3db0626e	0.08612524
134	0x3c69f581	0.014279724
135	0x3d703447	0.058643606
136	0x3d33ec1e	0.04392635
137	0x3d37a362	0.04483355
138	0x3c8089d4	0.015690722
139	0x39f2ddd8	0.00046323123
140	0x3d6740fb	0.056458455
141	0xbd6b5bf0	-0.057460725
142	0xbaa85dc1	-0.0012845324
143	0x3d8cbaef	0.06871592
144	0xbd78f9e5	-0.060785193
145	0xbd86019b	-0.06543275
146	0xbaef67ee	-0.0018265226
147	0x3cee7bb8	0.029111728
148	0x3c8a1501	0.016855719
149	0xbd95249e	-0.07282375
150	0x3d58e41d	0.05295192
151	0xbd8494ae	-0.06473671
152	0x3d0ed0b0	0.03486699
153	0xbd2324ae	-0.039829902
154	0xbd8143c1	-0.06311751
155	0xbd0766c3	-0.033056986
156	0xbd8f3ad1	-0.0699364
157	0x3ce17c12	0.027524982
158	0xbd8726ae	-0.065991744
159	0x3c9f4d79	0.019446122
160	0x3c89fdc0	0.01684463
161	0x3d76d1e4	0.06025876
162	0x3d78e47a	0.060764767
163	0x3c7d9a08	0.015478618
164	0xbc0346aa	-0.008012453
165	0xbdc519c2	-0.096240535
166	0xbcc7548d	-0.02433231
167	0xbd338da4	-0.04383625
168	0xbd7a8a97	-0.061167326
169	0x3b85d5db	0.0040843314
170	0x3d70cec1	0.058790926
171	0xbd9dd124	-0.07705906
172	0x3bc45c00	0.0059924126
173	0x3d3c29f6	0.045938455
174	0xbdd45860	-0.10368419
175	0xbc9712d9	-0.018441604
176	0x3b215575	0.0024617587
177	0xbc9ea4f5	-0.019365767
178	0x3b6fae7c	0.0036572507
179	0x3cf475e7	0.029841376
180	0xbdc3ae3c	-0.09554717
181	0xbd6eb95b	-0.058282237
182	0x3d6b9b9c	0.057521448
183	0xbd806415	-0.06269089
184	0x3dbb6d19	0.09151668
185	0xbd0dfd80	-0.034665585
186	0x3d3aaa68	0.04557267
187	0x3c027100	0.007961512
188	0x3d0d0d5f	0.03443658
189	0xbcba4ac0	-0.022740722
190	0xbcd06ba5	-0.025441954
191	0x3cdcc2b3	0.026948309
192	0x3e173466	0.14766082
193	0xbdb9633a	-0.09052129
194	0x3b5f767d	0.0034097724
195	0xbd7f9353	-0.06239636
196	0x3dba6bf2	0.0910262
197	0xbdcf0760	-0.101088285
198	0xbd8222c6	-0.06354289
199	0x3c53f1e3	0.012936088
200	0xbd996a13	-0.07490935
201	0x3d4dfb6f	0.050288614
202	0xbc20fec5	-0.009826367
203	0x3d53e354	0.05173047
204	0xbdc015bc	-0.093791455
205	0xbdc12498	-0.09430808
206	0xbdfa47e8	-0.12220746
207	0xbd9a5597	-0.07535856
208	0x3d4147f2	0.047187753
209	0x3d5aa151	0.0533765
210	0xbcf73a72	-0.030179236
211	0x3d502b56	0.05082258
212	0x3d1924eb	0.037388723
213	0xbba2af47	-0.0049647423
214	0x3db50206	0.088382766
215	0x3d1b63e8	0.037937075
216	0xbd8171da	-0.063205436
217	0x3cd732b3	0.026269292
218	0x3b84b6cd	0.004050112
219	0xbb7b13f8	-0.0038311463
220	0x3d0a21ef	0.033723768
221	0x3d8592f5	0.065221705
222	0xbd0f6346	-0.035006784
223	0x3db6faab	0.0893453
224	0xbbc5d69a	-0.0060375454
225	0x3d6dcb16	0.058055006
226	0x3da7b695	0.08189122
227	0xbc4f627f	-0.012657761
228	0x3db2c48d	0.08728895
229	0x3e0aaefb	0.13543312
230	0xbafd0d7e	-0.0019306389
231	0x3d9c841c	0.07642385
232	0xbdc60e9a	-0.09670754
233	0xbbc33d63	-0.0059582456
234	0xbae617de	-0.001755472
235	0xbc1bd63d	-0.009511528
236	0xbd4f288f	-0.05057579
237	0xbd9a3918	-0.07530421
238	0xbd289a07	-0.041162517
239	0x3dd3d06b	0.10342487
240	0xbd087b2a	-0.033320583
241	0x3b9a6565	0.004711794
242	0x3c25f4e0	0.0101291835
243	0xbc6e546a	-0.014546493
244	0x3ce948ff	0.02847719
245	0xbd53632a	-0.051608242
246	0xbd2ce50b	-0.04221062
247	0x3d26949b	0.040669065
248	0xbba241e7	-0.004951704
249	0x3d36e2a3	0.04464973
250	0x3c7a14e3	0.015263769
251	0x3da6c586	0.08143143
252	0xbda1139f	-0.078650706
253	0x3b00544f	0.0019581502
254	0xbd659948	-0.056054384
255	0x3d66677e	0.05625104

main_network.4.bias f4 [64]
0	0x379a95a2	1.8427909e-05
1	0xb6b0726d	-5.2585297e-06
2	0xb83af597	-4.457458e-05
3	0x36080678	2.0269345e-06
4	0x3787522e	1.6131522e-05
5	0x35cb0884	1.5127157e-06
6	0x37142039	8.82899e-06
7	0xb6dc6a2f	-6.5688723e-06
8	0xb82f478b	-4.178988e-05
9	0x36209710	2.3929788e-06
10	0x373c0ed5	1.1209127e-05
11	0xb6ce9527	-6.156642e-06
12	0x36ba38c9	5.5498426e-06
13	0xb7a04234	-1.9104315e-05
14	0x364122d3	2.8779511e-06
15	0xb54280c8	-7.2458033e-07
16	0x344a45ff	1.883818e-07
17	0x35ad67be	1.2919697e-06
18	0x371addd7	9.230766e-06
19	0xb72c83f8	-1.0282725e-05
20	0xb61d2657	-2.341714e-06
21	0x371b13e3	9.24335e-06
22	0xb7da2979	-2.6006937e-05
23	0x37748989	1.4575556e-05
24	0x37309769	1.052567e-05
25	0x366de684	3.544993e-06
26	0x37655e87	1.36714725e-05
27	0x3540c57c	7.181295e-07
28	0xb65abafc	-3.259337e-06
29	0x36a924e0	5.0408853e-06
30	0x356bdf79	8.786952e-07
31	0x37618ca0	1.3443787e-05
32	0x3806dd59	3.2154236e-05
33	0x36d6bd9b	6.39977e-06
34	0xb6ca8b92	-6.0363172e-06
35	0xb71bdf43	-9.290702e-06
36	0xb674be5f	-3.6469644e-06
37	0x364df273	3.0688504e-06
38	0xb6e11653	-6.7081214e-06
39	0xb7082abf	-8.116184e-06
40	0x371ab43e	9.221081e-06
41	0x37f7a7d6	2.952285e-05
42	0xb6f43574	-7.2779894e-06
43	0xb6ccf629	-6.1083306e-06
44	0xb6a92e52	-5.041985e-06
45	0xb52cd31a	-6.4382186e-07
46	0xb7917025	-1.7337568e-05
47	0xb8474bb4	-4.75158e-05
48	0x36cd3cdf	6.1165624e-06
49	0x36a3a6fb	4.8772176e-06
50	0xb5b6b170	-1.3611698e-06
51	0x374d3f97	1.2233758e-05
52	0x361f3cd1	2.3728246e-06
53	0x33f8e731	1.15904534e-07
54	0x383f8a67	4.5666846e-05
55	0x36f70e31	7.3628257e-06
56	0xb7356266	-1.0811351e-05
57	0xb71cf0f7	-9.354429e-06
58	0xb81aa280	-3.68678e-05
59	0xb7b209de	-2.1223848e-05
60	0xb7b62832	-2.1714808e-05
61	0xb5ed91d1	-1.7700314e-06
62	0x370add6d	8.276996e-06
63	0xb7e9a5c2	-2.7852951e-05
