XGBoost/best_model_densenet40_k12.pth (torch, 121367 bytes, 47 tensors)

model_embedding.weight f4 [32, 12]
00000000: e8f6 7dbd e90d 5b3d 106b b33d 9cf3 cebc
00000010: f72c 503e 2f39 463e 4c2f 7b3c 839b 8fbd
00000020: 852d 11bd ea3b 9abe 7b76 71be db32 96bd
00000030: a651 90be fb82 223e fbf3 04be 24fe ab3a
00000040: a8b5 8bbd 60b1 733e d056 40bd 6543 5fbe
00000050: ae07 343d beb2 6d3e ad3a bcbb 06fb c2bd
00000060: 2189 ad3d 1664 073e 18ae 423e b8b5 8d33
00000070: 9e00 b5be 1b4c ae3d dd9b 283e 7698 5d3d
00000080: 780c acbe 15f2 c93d c3f5 30be c530 9a3e
00000090: e839 563e f9ef 693e 92cb 2b3e 0b8f aa2e
000000a0: 3b1a 31bd 0a57 69be 4b4b 473d 92b8 863e
000000b0: 8106 5bbd 1707 f8bd db4e 12be 569a e7bd
000000c0: d04b 3e3e 8dd2 873d 460b d4bd 8062 9636
000000d0: 4769 6ebe 79af eb3d 61c8 5dbe 8d4f 41be
000000e0: 2820 6ebd d7d2 fbbd aeee 0d3c 1550 d33c
000000f0: a071 b4bd be06 2d3e ab14 11be 1c25 64bb
00000100: 049b c3bd 72ee 49bd 64dc f43d 79ae 123d
00000110: 084a 85bd 051f a9bd 8527 52be 171d 6b3e
00000120: 3421 e2bd 74fe 5ebe 54a2 843e 5453 b7ab
00000130: 5aa1 823e 89c6 8fbe 5d97 54be 5dfb 88be
00000140: f98e 79be d66c 0a3e bf98 43bd ddce edbd
00000150: 2fb4 f63b c4f5 46be 6a7e 643e 4850 e2b3
00000160: 3257 65be 63b7 9b3d 653c 463d 7769 813e
00000170: 67a6 913c c9a8 5d3d d246 613e fa1d 5d3e
00000180: fe6c 99bb 66b5 d0bd 9efa 923d 1361 7336
00000190: 9153 8d3e e768 21be 1d11 733e e4ef 55be
000001a0: 6136 3cbe 07db 12be 7c68 7e3e 0f94 94be
000001b0: c89d 2cbe c0b0 1f3d 828d fabd f37d 33af
000001c0: bc04 063e b08a 7bbd 2954 d53c 3e7d 713e
000001d0: c6aa 18be e8ae 72be 6691 8b3e d782 343e
000001e0: 1d5c 1a3c e07d b33c acbd 8e3d 86ba a03b
000001f0: 4737 8fbe 4927 86be f6a0 513d f2d6 67bc
00000200: 850c 733e b2cb 3a3e 5c74 18be 82c2 ebbd
00000210: 029b 533e 9505 7e3c 50e9 693e 5769 912c
00000220: ba8e a13e 33aa e23d 58d7 923d 1d8e abbd
00000230: e652 2e3e 4d67 5e3c bddb f33d 51ca 4fbd
00000240: f408 a23d 8796 f1bb 9878 44be 8b3d 2cb9
00000250: 7e32 3d3d 18f1 2fbb d741 263e c370 d93d
00000260: 6490 a43d 49f9 6abe fdd7 633b 1812 0ebc
00000270: a0e5 50be 0039 073e d2c8 05bc 3756 47b2
00000280: 8584 313e d261 87be 37ae ba3d 08e1 ebbc
00000290: 3021 2bbd 137a 893e 3d95 00be cc92 aabd
000002a0: d6c6 3cbd cd84 773d 7298 213e 033a 2332
000002b0: d33a 7abe 8ea4 63be 246c 8fbe 2ac5 6d3e
000002c0: d2a7 8c3e 639d 2b3e dc04 193d 503d 3cbd
000002d0: 681e 803e f61a 5f3d de2e 81bc 5625 96bb
000002e0: 2b9f 94be 8b37 b7bc 09c1 62be 5427 353e
000002f0: bb02 09bd be4f 913d b58a ffbd c04d 053e
00000300: c59d 463e 4918 12be 04f8 59bc 01b4 293c
00000310: 238f 9bbe a38e 7e3e 70d6 70be 22fc a2bc
00000320: 46d8 06be 3df3 2ebe 01ab 883e 4b20 0d3d
00000330: bfb3 0bbe 95b7 683c f3fa 9a3d c807 35b1
00000340: a144 4cbe 108e fe3d f545 90be 082b cbbd
00000350: 3f2a 37bd 9c36 02be 6f6d 65be 8108 04be
00000360: f1db 933e 2b6f f4bc cea2 e1bd 1b5a 1fba
00000370: 97de c0bd ba1f f23b 87ae 05be 7525 8abd
00000380: 71ec c93d 99b0 9cbe 1589 2dbc b03e a3be
00000390: 29a8 3d3e 33c9 63bd 082d bb3d e01a faba
000003a0: 39fc b9bd 0b41 abbc 8d55 b93c 3c1d 5cbd
000003b0: 0149 283e 9b12 66be 0bec 85be dd95 9f3e
000003c0: 543c 0ebe 1b22 f3bc be7d 96be 23e6 f2b8
000003d0: 23f3 703e 2522 d43b 778a 91bd 78c1 1bbe
000003e0: 7d2c 713e 38c8 893e 2cda d0bd b865 1fbd
000003f0: 0e0e 443e b65a ca3d 1d8c 533c 4aad 343c
-0.062003046 0.053480063 0.08760655 -0.025262646 0.20329653 0.19357751 0.015331101 -0.070120834
-0.0354438 -0.30123836 -0.23580353 -0.07333919 -0.28187293 0.15870278 -0.12983696 0.0013122004
-0.068217576 0.23798132 -0.04695779 -0.21803053 0.043952636 0.23212716 -0.0057442994 -0.09520535
0.08473421 0.13221774 0.19011724 6.5988786e-08 -0.35352033 0.0851061 0.16465707 0.054100476
-0.33603263 0.098606266 -0.1728125 0.30115333 0.20920527 0.22845449 0.16776875 7.7561145e-11
-0.043237906 -0.22787109 0.04865579 0.2631269 -0.053473 -0.12110727 -0.14287893 -0.11308734
0.18583608 0.06631956 -0.10353713 4.4818153e-06 -0.23282348 0.11508078 -0.2165847 -0.18878002
-0.058136135 -0.12296074 0.008662863 0.025795022 -0.08810735 0.16897103 -0.1416804 -0.0034812158
-0.09551051 -0.049299665 0.11956099 0.03581092 -0.06508261 -0.0825787 -0.20522888 0.22960316
-0.11041489 -0.21776754 0.25905097 -1.302606e-12 0.25513726 -0.28081158 -0.20760866 -0.26754275
-0.24370946 0.1351808 -0.047753092 -0.11611722 0.007528804 -0.1942969 0.22313848 -1.0538548e-07
-0.22396544 0.076033376 0.04839744 0.25275776 0.017779542 0.054116044 0.21999672 0.21593466
-0.0046821823 -0.10190849 0.07176708 3.6266326e-06 0.2760282 -0.15762673 0.23736997 -0.20892292
-0.18380119 -0.14341365 0.24844545 -0.2901921 -0.16857064 0.03898692 -0.12234022 -1.6324701e-10
0.13087744 -0.06141156 0.026041107 0.23582932 -0.14908895 -0.23699534 0.27259368 0.17628036
0.009421376 0.021910608 0.06969771 0.004905048 -0.2797186 -0.26201847 0.051178895 -0.014150368
0.23735245 0.18241766 -0.14888138 -0.11511709 0.206646 0.015504261 0.22842908 4.132843e-12
0.31554204 0.11067619 0.0716998 -0.08376715 0.1702381 0.0135744335 0.11907146 -0.050730053
0.07911864 -0.0073726806 -0.19186628 -0.00016426125 0.04619073 -0.0026846584 0.16236053 0.10617211
0.08035353 -0.22946657 0.003476619 -0.008671306 -0.20400095 0.13205338 -0.008165555 -1.16029275e-08
0.17335708 -0.26441818 0.0911526 -0.028793827 -0.041779697 0.26850948 -0.1255693 -0.083287805
-0.046088062 0.060429383 0.1578081 9.501039e-09 -0.24436502 -0.22230741 -0.28012192 0.23219743
0.27471787 0.16759257 0.03735815 -0.04595691 0.25023198 0.05446907 -0.015769418 -0.0045820875
-0.29027686 -0.022365352 -0.2214395 0.17690784 -0.03344987 0.07095288 -0.12477628 0.1301794
0.19396122 -0.14267077 -0.01330376 0.010357858 -0.30382642 0.24859099 -0.23519301 -0.019895617
-0.1316844 -0.17084976 0.26692966 0.034454625 -0.13642786 0.014203926 0.07567396 -2.634339e-09
-0.19948055 0.1242944 -0.28178373 -0.09920317 -0.044718023 -0.12716144 -0.22405027 -0.12893869
0.2887874 -0.029838165 -0.11017381 -0.00060787954 -0.09417456 0.007389036 -0.13054858 -0.067454256
0.09859551 -0.30603483 -0.010591765 -0.31883764 0.1852118 -0.0556118 0.091394484 -0.0019081496
-0.09081311 -0.020905038 0.022623802 -0.053738818 0.16434099 -0.22468035 -0.2615665 0.31169024
-0.13890201 -0.029679349 -0.2939281 -0.000115823255 0.2353025 0.006473797 -0.07106488 -0.15210521
0.23552127 0.26910567 -0.10197863 -0.038915366 0.19145986 0.09880583 0.012911824 0.011027643

model_embedding.bias f4 [32]
00000000: a2d1 ee35 f270 9e38 e07f 81bc f6c4 6f37
00000010: b670 f636 17c8 38bc 7067 21b7 6643 a037
00000020: 24be 4a35 f387 15bd 8a08 aeb6 dca9 af37
00000030: 2be7 84b8 fedd 44b7 79b4 35b4 e836 8eb8
00000040: b0b0 7d37 d25d 64bc b727 d1ba bb1a 79b7
00000050: a464 103c 340d e23b d913 edb6 b32a b13c
00000060: d471 153d a997 84b7 ec53 49bc 0ff5 0ebd
00000070: 51be a2bc 90de 223b 6dfb ea38 d467 92b9
1.7793393e-06 7.555065e-05 -0.015808046 1.4291369e-05 7.3444926e-06 -0.011278174 -9.620431e-06 1.9104871e-05
7.5527555e-07 -0.036506604 -5.186598e-06 2.0940723e-05 -6.337309e-05 -1.1734197e-05 -1.6922594e-07 -6.781315e-05
1.5121113e-05 -0.013938384 -0.001595727 -1.484778e-05 0.008813057 0.0068985466 -7.065461e-06 0.021626806
0.036485508 -1.5806248e-05 -0.012288075 -0.034901675 -0.01986614 0.0024851896 0.00011204821 -0.00027924648

dataset_embedding.weight f4 [16, 3]
00000000: eacf ad3e 8d90 b4bb cfc8 5ebe 59eb 26bf
00000010: 989b 123f de30 6abe 8dd1 4cbe 739d 2a3e
00000020: 1fc6 5abc c563 253e 5c65 253e 2406 0cbf
00000030: 47b6 9fbe 6450 7dbe 4254 a83e a9af 293f
00000040: cbbe 23bf 484c 98bc 9b88 28bf 7670 e83e
00000050: ad47 e93e b58d 893e 0a6f 8bbe 3e47 9e3e
00000060: 5956 4dbe 1667 f1be 42c6 19bf 148c bfbe
00000070: f72d eebe 7c2c 943e 0dcf 02bf fc8f a3be
00000080: ed89 2dbe 6270 a2be 4b40 debd bd97 a23e
00000090: 154c c6bd d2a8 0a3e fafe 64be 7460 ffbd
000000a0: d355 233c dfff 06bf c5d3 d8be 7501 b23e
000000b0: ecb1 8bbe 1e6e 0ebf 7ecb c83d 5dc4 acbd
0.33947688 -0.005510396 -0.2175629 -0.6520286 0.5726867 -0.22870204 -0.20001812 0.16661625
-0.0133529 0.1615134 0.16151947 -0.5469687 -0.31193754 -0.24737698 0.32876784 0.6628366
-0.63963 -0.018591061 -0.65833443 0.453983 0.45562497 0.26865926 -0.27233154 0.30913728
-0.2005247 -0.4714896 -0.6006814 -0.3741156 -0.46519443 0.2894019 -0.51097184 -0.3194579
-0.16947146 -0.31726366 -0.10852107 0.31756392 -0.0968248 0.13540962 -0.22362891 -0.12469569
0.009969193 -0.5273418 -0.42349067 0.34766737 -0.2728418 -0.55636775 0.09804438 -0.08435891

dataset_embedding.bias f4 [16]
00000000: 851c 6b3e f97f 3a3b cb10 f5b6 d1cc 30be
00000010: 4384 4cb7 e3a1 6e3e eb39 78ba 196f 773c
00000020: 26f5 423e 3fac c8ba dd13 00be 7087 a83d
00000030: eb81 58b7 b209 c5b6 d2b4 f9b7 caf7 1ebe
0.22960098 0.0028457625 -7.303524e-06 -0.17265631 -1.2190142e-05 0.23303942 -0.00094690797 0.015102171
0.19038829 -0.0015310122 -0.12507577 0.08228958 -1.2904852e-05 -5.872186e-06 -2.9767314e-05 -0.15524212

tensor_network.0.weight f4 [16, 1]
00000000: f9a1 0cbf 2941 5abd e27e 93be b694 77be
00000010: 3696 10bf 12dc e63e 2286 8abe af07 ac3e
00000020: bd24 fbbc b2ef 16bf 570c b53c 2623 3fbe
00000030: 4d02 3b3e 305d a33d a5af cfbe 4d5a e5be
-0.5493465 -0.053284798 -0.2880774 -0.24177822 -0.56479204 0.45089775 -0.2705546 0.33599612
-0.030657167 -0.58959496 0.02210061 -0.18665752 0.18262596 0.079767585 -0.40563694 -0.44795457

tensor_network.0.bias f4 [16]
00000000: 5ecb a6be 37f4 dfbb dac1 3c3e 9b78 e2bd
00000010: 8d65 07bf e041 6ebe d74f c1bc 863c b53b
00000020: d056 3b3c 0ae5 0abb 79a6 093e 63f4 513e
00000030: 95a6 f33b cbf3 113e 2c02 193f a1f3 f83e
-0.32577032 -0.0068345326 0.18433324 -0.1105816 -0.5288933 -0.23267317 -0.02359764 0.0055308966
0.011434272 -0.0021193647 0.1344241 0.20503382 0.0074356296 0.14253156 0.5976894 0.48623374

tensor_network.2.weight f4 [16]
00000000: 4800 253f 4800 253f 2dba 7a3f 4800 253f
00000010: 4800 253f 287d 7c3f 9e02 2c3f 4ce0 783f
00000020: 5201 793f 64fa 6f3f 7b60 783f 49b9 813f
00000030: 697a 753f 6ffa 713f d1d9 783f bb84 7e3f
0.64453554 0.64453554 0.9794033 0.64453554 0.64453554 0.98628473 0.67191494 0.9721725
0.9726764 0.9374144 0.9702222 1.013467 0.9588991 0.94522756 0.9720736 0.9942128

tensor_network.2.bias f4 [16]
00000000: 3b33 1f2d 77fb 75ad 3674 4b38 7016 b6ad
00000010: 5657 c5ac d0a2 9a36 afea a636 d323 e637
00000020: 724c a2b8 c050 23b8 1e98 4537 7f6a 08b8
00000030: 3e0a 15b6 fa89 1537 56f7 2bb7 4f9d f1b7
9.049479e-12 -1.3982474e-11 4.85072e-05 -2.0700969e-11 -5.608773e-12 4.6085115e-06 4.9745063e-06 2.7434819e-05
-7.739001e-05 -3.8937433e-05 1.1777533e-05 -3.252411e-05 -2.2208692e-06 8.913217e-06 -1.0249982e-05 -2.8802691e-05

tensor_network.2.running_mean f4 [16]
00000000: 0000 0000 0000 0000 0167 ae3d 0000 0000
00000010: 0000 0000 ae47 4343 ca6d 3737 2a80 1343
00000020: c442 9c3b 82c8 ce34 ec46 2841 5554 c33d
00000030: 5923 a242 0218 1142 f16e 8e3e 3868 683e
0.0 0.0 0.0851574 0.0 0.0 195.28 1.0933212e-05 147.50064
0.0047687013 3.851638e-07 10.517315 0.095375694 81.06904 36.273445 0.27819017 0.22696006

tensor_network.2.running_var f4 [16]
00000000: a3a2 aa21 a3a2 aa21 6d78 0f3c a3a2 aa21
00000010: a3a2 aa21 c0c4 a848 8048 8733 9383 4048
00000020: 5f58 f537 c120 e02f 7024 7644 e90d 343c
00000030: 20d8 6847 c86d 3946 1f7b bf3d 20f4 7e3d
1.1562698e-18 1.1562698e-18 0.008756739 1.1562698e-18 1.1562698e-18 345638.0 6.299615e-08 197134.3
2.9247427e-05 4.0768636e-10 984.56934 0.010989645 59608.125 11867.445 0.09349655 0.062244534

worker_network.0.weight f4 [16, 1]
00000000: 444e 7fbe 56ea 913e 4269 783e c2fd ee3e
00000010: 5eed 473f 8ab0 a3bd fdba 05bf 8b10 d63e
00000020: 9fa0 7a3e 9786 24bf b4f1 7ebe b2d2 4abe
00000030: 55c1 3d30 c4f4 92bd f356 1fbf 77a8 ca3c
-0.249322 0.28499097 0.24258903 0.46677977 0.7809657 -0.079926565 -0.52238446 0.41809496
0.24475335 -0.6426787 -0.2489689 -0.19806936 6.903254e-10 -0.071755916 -0.6224205 0.024738533

worker_network.0.bias f4 [16]
00000000: 743f 23be c317 40bf cc91 a43c 26a8 043f
00000010: 6e98 0abf dc9e 4d3e 3be7 15bf a4a0 5ebf
00000020: a0e3 2e3e a9e4 8dbd 379b aa3e 1b07 9d3e
00000030: 72e8 8ebe 6f34 22be 7022 453e 285d 153d
-0.15942174 -0.7503626 0.020089053 0.51819074 -0.5413884 0.20080131 -0.58555955 -0.8696387
0.1707902 -0.06928379 0.33321545 0.30669484 -0.27911717 -0.15840314 0.19251418 0.036465794

worker_network.2.weight f4 [16]
00000000: 4800 253f deb7 753f b959 743f 53cb 793f
00000010: 83e3 843f 41da 793f 4800 253f 4c6d 7b3f
00000020: ed70 823f 4800 253f b875 7d3f ff0f 803f
00000030: 4800 253f 4800 253f b716 7b3f 2bca 7c3f
0.64453554 0.95983684 0.95449406 0.97575873 1.0381931 0.97598654 0.64453554 0.9821365
1.0190712 0.64453554 0.9900775 1.0004882 0.64453554 0.64453554 0.98081535 0.98745984

worker_network.2.bias f4 [16]
00000000: a494 452c 2a67 d1b3 8fb2 6a37 74ef b2b7
00000010: da44 dd37 63b6 7e37 6ca6 b72d 1235 6538
00000020: d77f 7e38 4aa8 452e 1f8d 5db7 eacb 5bb8
00000030: 80a2 de2c 28e2 02ae 616b 6737 2fc5 2f38
2.8077896e-12 -9.751086e-08 1.3989061e-05 -2.1330758e-05 2.6377314e-05 1.5182045e-05 2.0878597e-11 5.464728e-05
6.067738e-05 4.4942085e-11 -1.3205484e-05 -5.240358e-05 6.3276606e-12 -2.9759445e-11 1.3793674e-05 4.1906893e-05

worker_network.2.running_mean f4 [16]
00000000: 0000 0000 8dc5 433f 73f1 823f 3cab 1b40
00000010: 8cab 3640 b633 c93d 0000 0000 6f62 9a3f
00000020: e9d4 973f 0000 0000 0869 203e a206 133e
00000030: 0000 0000 0000 0000 f83e b73d 62c2 063e
0.0 0.76473314 1.0229934 2.4323263 2.8542204 0.09824316 0.0 1.206129
1.186185 0.0 0.15665066 0.14357999 0.0 0.0 0.08947557 0.13160089

worker_network.2.running_var f4 [16]
00000000: a3a2 aa21 9bbc c53f 4219 e33f 30fc cd40
00000010: 6cf8 7e41 891b 163c a3a2 aa21 2fd2 6b40
00000020: 2f17 e73f a3a2 aa21 2d10 f33c c021 cc3c
00000030: a3a2 aa21 a3a2 aa21 ce78 1e3c 2312 7b3c
1.1562698e-18 1.5448183 1.7742083 6.4370346 15.93565 0.009161838 1.1562698e-18 3.6847036
1.805395 1.1562698e-18 0.0296708 0.024918437 1.1562698e-18 1.1562698e-18 0.009672357 0.015324148

batch_network.0.weight f4 [16, 1]
00000000: 420e 823b 77da 3d3e 23ff 043f 0b26 01bf
00000010: c7ca 15bf 504e ffbe fb8d 923b bee8 1f3f
00000020: 1a00 243f 86f0 38be f757 b1bd 94da b5bb
00000030: 2f86 d5be 57b7 05bf 155d 7dbc 0f21 ce3d
0.003968985 0.18540369 0.5195181 -0.50448674 -0.5851254 -0.49864435 0.004472492 0.6246451
0.64062655 -0.18060502 -0.08659356 -0.005549738 -0.41703936 -0.5223288 -0.015464087 0.10064899

batch_network.0.bias f4 [16]
00000000: e20d 5a3e 9559 e73d 78b1 973e 25e6 ed3e
00000010: 0d36 533d 7df3 e3be a096 0cbf 50d5 80be
00000020: 2d3e 29bf 3d00 a73c 49e9 533f 95e1 e23e
00000030: 98fd 6fb5 998a 483e 32b5 d13c 1454 dbbe
0.21294358 0.11296383 0.29627585 0.4646465 0.05156522 -0.44521704 -0.54917336 -0.25162745
-0.661105 0.020385856 0.8277784 0.4431273 -8.9403466e-07 0.19584121 0.025599096 -0.42837584

batch_network.2.weight f4 [16]
00000000: 8fbb 7a3f d0b2 753f 327a 7d3f 21d3 7b3f
00000010: 6fbc 7f3f 4800 253f c0d1 733f 4479 7a3f
00000020: 2aa4 7f3f ce37 7f3f 4218 7b3f 9ac5 873f
00000030: 4800 253f ae3f 773f bb9a 783f 3ca9 7f3f
0.9794244 0.9597597 0.9901458 0.9836903 0.998969 0.64453554 0.9524193 0.97841287
0.9985987 0.99694526 0.9808389 1.0607178 0.64453554 0.9658154 0.971111 0.99867606

batch_network.2.bias f4 [16]
00000000: 394c 2a38 6379 2437 84d3 5335 89a1 cd37
00000010: e78e 4fb8 f9f3 1e2e 7833 0d36 27bd a037
00000020: ec3c 5f37 f18e ea37 f20d 22b7 be12 5c38
00000030: 85c7 762e 757d 5337 bae5 e1b6 eac7 4eb6
4.0602146e-05 9.803424e-06 7.891142e-07 2.4513125e-05 -4.9485734e-05 3.6141732e-11 2.1040596e-06 1.9161567e-05
1.330602e-05 2.7961536e-05 -9.659199e-06 5.2469542e-05 5.6111133e-11 1.260579e-05 -6.7322662e-06 -3.0812757e-06

batch_network.2.running_mean f4 [16]
00000000: 52e5 8c40 5c3c 8d42 e69b 4243 4bcc 823e
00000010: 0083 e33c 0000 0000 e360 0240 b48f 6943
00000020: 558a 6b43 37a3 333c a923 e53e 2781 973e
00000030: 0000 0000 0cc3 dd3d 3ac8 633c 4de4 0e42
4.402993 70.61789 194.60898 0.25546488 0.027772427 0.0 2.0371635 233.56134
235.54036 0.010964206 0.4475377 0.29590723 0.0 0.10828218 0.013902718 35.72295

batch_network.2.running_var f4 [16]
00000000: 83d1 6943 6dbd 6e47 66ac e248 fe1a 693d
00000010: 9180 303a a3a2 aa21 6276 7342 66ea 2349
00000020: 07ec 2649 5f0d dc38 97ec 323e 3234 123d
00000030: a3a2 aa21 3092 273c 4bd8 f939 109d 7746
233.8184 61117.426 464227.2 0.056910507 0.0006733025 1.1562698e-18 60.86561 671398.4
683712.44 0.00010492908 0.17473064 0.03569431 1.1562698e-18 0.010227725 0.00047654132 15847.266

ps_network.0.weight f4 [8, 1]
00000000: 1dfc ab3e 97ce 203f 7444 dcbd c0fd 0e3e
00000010: ab6d dd3d e310 bebe a4ea e5bc 33e1 b9be
0.33590785 0.6281523 -0.10755244 0.13963985 0.10811933 -0.3712226 -0.028065987 -0.36304626

ps_network.0.bias f4 [8]
00000000: 5750 38be e982 d53e dc31 ae3e c3de 9e39
00000010: edff 463e 5e1e 3f3e d9de abbe ccb1 3e3e
-0.17999397 0.4170144 0.34022415 0.0003030208 0.19433565 0.18663928 -0.33568457 0.18622512

ps_network.2.weight f4 [8]
00000000: 232c 7b3f 09a9 793f cd38 803f 7875 773f
00000010: fc5f 7c3f 0ab3 7c3f 4800 253f f5f2 783f
0.9811422 0.9752355 1.0017334 0.9666362 0.9858396 0.9871069 0.64453554 0.97245723

ps_network.2.bias f4 [8]
00000000: 12cc c736 4977 f4b7 3fa4 3db7 b95b 0db8
00000010: 5af3 2038 9b85 ae37 ca9a 7ead 9d26 ef37
5.954419e-06 -2.9142613e-05 -1.1303519e-05 -3.3702443e-05 3.837361e-05 2.0804631e-05 -1.44725985e-11 2.8509001e-05

ps_network.2.running_mean f4 [8]
00000000: e140 953d d67a 373f 8bd1 983e f2e7 833d
00000010: 226f 7f3e f681 d33d 0000 0000 6d6a d33d
0.07287765 0.7167181 0.2984737 0.064407244 0.24944738 0.103275225 0.0 0.103230335

ps_network.2.running_var f4 [8]
00000000: ef3e d23b fe62 d33d 7548 3c3b aa01 a23b
00000010: 56e7 3e3b 1d5e 183c a3a2 aa21 6c45 183c
0.0064161937 0.10321616 0.0028729711 0.004944046 0.0029129586 0.009299782 1.1562698e-18 0.009293895

main_network.0.weight f4 [128, 104]
00000000: 8649 093d 8e82 9c3c c8d5 12be 6ad5 bb3c
00000010: b318 6e3d 0785 8cbd eef9 b2bc 486b 5bbd
00000020: 197a b7bd 1409 5d3d 6527 afbb 48c8 a5bd
00000030: b0f8 953d 21b3 cbbd fc69 cabc 238e 793d
00000040: a34c 0ebd 6375 48bd eda1 e53c bbf3 6f3d
00000050: 8266 abbc b01f b83d 1477 17bd ac58 923d
00000060: 8d00 adbd 0ced 00be 1e38 803d 34ef 06bd
00000070: aace 0d3d 72db 62bd 496c 1d3d e912 993d
00000080: 2041 ff3d 9dd2 79bd 873d 863a 55dd cfbb
00000090: 0a40 e1bd cfbe 353d 84b8 61bd 687b 923c
000000a0: 35da 083e 915f cf3d 10ae 88bc 8b8c a7bd
000000b0: b06e 12bc fd1f 013d f084 22be c69e 13be
000000c0: d798 3d2e f3d3 4d2f cb1a 643c f5c9 7a2e
000000d0: 1399 ad30 49b9 9f3d eb21 1cbc ecf2 42bd
000000e0: 371a d63c a90e a73b a971 71bd 9201 273d
000000f0: da7c 9bbd 1bb9 eebd 8577 913d 80c8 0fbd
00000100: a2aa 42b2 dc48 40bd e3ae 82bd f70c 183d
00000110: 3cf3 23bd 1be1 88bd 945f afae 97b4 cc3d
00000120: 4ad4 51bd e858 d92d 76de 7fbd b130 343d
00000130: 94d3 19af 01e9 a4af fb71 08bb 5d94 663c
00000140: 2a09 4c3d 6faf a13d e51f 603d 591b 0fbd
00000150: a08f 433d e3ad 34af cd94 5cbd 43b3 3f3d
00000160: 384a c9bd db6e 8b3b 5c03 1cbb 75f1 883d
00000170: 1313 6130 b9e4 7b3d 519b 68bd be68 b0bd
00000180: f40d 5dbd de66 413b 2699 913d 6956 fd3c
00000190: 441e 983d 05ad 1c3d fde8 002f 6329 34bd
000001a0: c6d6 873d 9ad7 82bd f86a e63d 6a5c 6fbd
000001b0: 4757 02be d4ba 2a3e 720f a23c 20ee 253d
000001c0: fff1 adbb 33b0 7d3d f45a 183d aec4 b0bd
000001d0: dee3 b63d adb1 d83d 5712 a63c 5d3a ae3c
000001e0: 105e 043d e4a7 0fbc 9f81 40bc 419a db3d
000001f0: 3a04 823c e98a 86bd 55fb 773d 993f 00bd
00000200: d921 b13d 771e 283d 66a1 283b 462e 833d
00000210: b22e 0e3d 188c 8bbd 9835 9dbd c933 593d
00000220: 9f30 bfbd f1d1 9b3d 667a 0a3e 8e30 5e3c
00000230: 8214 3c3b 3fbe dfbd 720b 8d3d d5e1 f13c
00000240: 1e39 643c bb93 9abd 7c15 6abd 0680 e63c
00000250: 6cfa 19bc 9197 143e 905b a93d eff5 fb3d
00000260: eb9f c22f 8f25 432e ebcf de3d 26dd 9733
00000270: 140a 282f e858 37bd 13da 52bc 3964 bebc
00000280: 6d4b 7abd 557f 5bbd e8dc aabc 3dca c03d
00000290: d505 c83c 2752 be3c 394f d83d 7ec5 1fbc
000002a0: 9f9a 0aaf 2bf6 57bd d817 21bd a75f b73d
000002b0: 3560 4c3d 5b4a cc3d e1b5 e5af 8b43 f53c
000002c0: c7ed 993d ac6f b1b2 e68c 363d 6cd6 623d
000002d0: 8dc5 e12d fa15 2e31 bc4d 89bd 9d1f 083d
000002e0: 2688 ddbc 417b c1bd 0cff a4bd 6462 61bc
000002f0: be7c 9cbb 8878 fdb2 0c60 c3bc 91aa 1bbd
00000300: d569 6ebd 59ea bfbd 6caa 0abd cd94 5f3d
00000310: 1a49 c52e e3f2 353d 8cb3 413d 7139 80bc
00000320: 0a42 943b 4e75 6abd 0827 4dbd c70b a63d
00000330: e233 b53d da27 723d 3dac c52b 7d40 633d
00000340: 2da1 4fbd ec46 b33d d24c 31bd 4b45 a83d
00000350: 5a08 adbd d82c fabb 98cf 3ebd 2bdf a03c
00000360: 5757 f2bd 65f6 60bd 6728 79bd 4494 9abd
00000370: 1e25 75bc f03b 8f3d 4a12 7bbc 0be8 aa3b
00000380: fa51 9c3d fb88 a63d 65f5 19bd 2009 983d
00000390: 61aa 4c3d 5e9c b2bd cc14 d8bc 6845 b13c
000003a0: 3f32 1c3d 264e 18bc 59b2 afbd af4c 5f3d
000003b0: c7b7 fdbd 581d 96bd c3d9 afbd 5a0a ddbd
000003c0: 1334 ee3c 0fc6 ea3d 398e c53d 1e05 a1bd
000003d0: 7df1 9c3d d9ea bebd d7aa 5a3d db67 973d
000003e0: a08c ddbd 2aeb db3d cf35 613d 74a2 4abc
000003f0: 79d6 b9bd 3a3d 763d 9398 9e3c 0c14 f73d
0.033517383 0.019105222 -0.14339364 0.022928912 0.058129024 -0.068613105 -0.021847691 -0.05356911
-0.08958835 0.053963736 -0.0053452724 -0.08094841 0.07322824 -0.099462755 -0.02470874 0.060926568
-0.034741055 -0.048940074 0.028031314 0.05858205 -0.020922903 0.08990419 -0.036978796 0.07145819
-0.08447371 -0.12590426 0.062607035 -0.032942966 0.03462092 -0.05538506 0.038433347 0.0747431
0.124635935 -0.060991872 0.0010241725 -0.0063435235 -0.109985426 0.044371422 -0.05510761 0.01788111
0.1336449 0.1012565 -0.016684562 -0.08181103 -0.008937523 0.031524647 -0.15871024 -0.14416036
4.3109374e-11 1.8719941e-10 0.013922404 5.7022793e-11 1.2630913e-09 0.07799012 -0.009529571 -0.04759495
0.026135547 0.005098183 -0.058946285 0.040772982 -0.07592173 -0.116564 0.07102875 -0.03510332
-1.1331084e-08 -0.046944484 -0.06381013 0.03712174 -0.04002689 -0.066835605 -7.975057e-11 0.09995382
-0.051227845 2.4709526e-11 -0.062468015 0.04399175 -1.3990437e-10 -2.9996985e-10 -0.002081989 0.0140734585
0.049813427 0.078947894 0.054717917 -0.03493819 0.047744393 -1.6432682e-10 -0.053852845 0.046801817
-0.09828609 0.0042551584 -0.0023805713 0.06686679 8.188163e-10 0.061497424 -0.056788746 -0.08613728
-0.053968385 0.0029510777 0.07109289 0.030924993 0.07427648 0.03825094 1.1724306e-10 -0.043984782
0.06632762 -0.06388779 0.112508714 -0.058437742 -0.12728606 0.16672832 0.019782756 0.040510297
-0.005308389 0.061935615 0.037196115 -0.08631264 0.08930181 0.10580764 0.020272417 0.021268064
0.032316267 -0.008768056 -0.011749654 0.10722781 0.015871156 -0.06569464 0.060542423 -0.03131065
0.08649034 0.04104468 0.0025730967 0.0640531 0.0347125 -0.0681383 -0.07676238 0.0530279
-0.093354456 0.076084025 0.13523254 0.013561381 0.0028698747 -0.109249584 0.06886949 0.02952663
0.013929633 -0.075477086 -0.057149395 0.028137218 -0.009398084 0.14510943 0.08269417 0.123027675
3.5402023e-10 4.4371225e-11 0.10879501 7.071712e-08 1.5283091e-10 -0.044762522 -0.012869376 -0.02324115
-0.061107088 -0.05358823 -0.02085729 0.09413574 0.024416843 0.023232533 0.105619855 -0.009751676
-1.260596e-10 -0.052725 -0.03932938 0.08953791 0.049896438 0.0997512 -4.178409e-10 0.029939434
0.075160556 -2.0656294e-08 0.044567965 0.05538027 2.5667269e-11 2.5332825e-09 -0.0670428 0.033233274
-0.02704246 -0.09447337 -0.08056459 -0.013756368 -0.0047756126 -2.9507888e-08 -0.02384951 -0.03800446
-0.058206398 -0.0937087 -0.033853933 0.054585267 8.971508e-11 0.044421088 0.04729037 -0.01565239
0.004524474 -0.057240777 -0.05008605 0.08107715 0.088477865 0.059120037 1.4045498e-12 0.055481423
-0.05069082 0.08753762 -0.043286152 0.082163416 -0.084488586 -0.0076347403 -0.046584696 0.019637665
-0.11833065 -0.05492248 -0.060829546 -0.07547811 -0.014962463 0.06993854 -0.015324185 0.00521565
0.07632823 0.08131596 -0.037587542 0.074236155 0.049967173 -0.08721231 -0.026377104 0.02163954
0.038133856 -0.009295976 -0.08578939 0.05451649 -0.12388568 -0.073298156 -0.085864566 -0.1079299
0.029077565 0.11463558 0.096462674 -0.07862304 0.07663248 -0.093221374 0.05338558 0.07392856
-0.10817838 0.10738213 0.054982956 -0.012367833 -0.090741105 0.060116984 0.019359862 0.120643705

main_network.0.bias f4 [128]
00000000: 3f20 f135 0339 d335 18c1 0fb7 1c22 2436
00000010: 5248 b2b5 26b9 1937 7139 0137 5170 33b6
00000020: 3c9f c935 9135 72b5 9068 1036 2723 08b7
00000030: bd8b 81b6 02de 5035 0c47 f4b5 8d76 47b6
00000040: 2c45 5c35 19b5 ef36 d2b7 44b6 97fb f8b7
00000050: 170a 63b7 69ea 2136 a3c5 1c37 df24 2e34
00000060: f7b5 b7b5 e791 12b4 7040 f8b4 b071 45b6
00000070: a4ec 5cb7 fce2 89b6 dbee cc35 b396 0936
00000080: bc5b 1f37 b558 5335 bdf0 0cb6 2313 0937
00000090: 6f63 4037 c742 8db5 1d07 21b6 a356 8eb7
000000a0: b001 dbb6 560d c6b4 0934 2a38 a030 6037
000000b0: a7ec 0036 3e92 5837 83ed f7b5 eb0c 6ab7
000000c0: f98c 22b7 871a 2a36 e553 12b7 d617 8036
000000d0: f947 bab7 7238 1138 ca5d 7336 745c c4b6
000000e0: 0be6 7d37 c9db b636 414f ab34 1ee6 0d36
000000f0: d04d 9136 db4c 6c36 1ea0 c9b5 47c7 4a37
00000100: fb1c 76b6 209a 0237 2d9f 2037 d9e9 d9b2
00000110: 662b 37b7 26f7 4fb6 20ca 19b7 6274 d6b6
00000120: 2e60 efb6 fa1c b236 b995 6336 a26d 85b6
00000130: d97f ff36 dc04 4eb6 9484 05b6 958f b636
00000140: f77e fdb6 e8b3 25b7 e5d7 6236 8f54 9eb7
00000150: 910c 1737 1e17 60b6 bdca 0537 1163 b237
00000160: 591f 9c37 e64b fa36 848c 07b8 b700 0f38
00000170: 674c 9036 ae43 4a35 b63a 0137 7c23 8036
00000180: b26a 38b7 29a5 1fb7 f04d db36 a13f 4636
00000190: 57df 2836 5bad 35b5 d165 b2b6 8a38 b8b7
000001a0: 3aed c835 2333 0036 8ded 5737 e969 8eb6
000001b0: c0d1 9ab6 50e8 5ab6 5f5e 94b7 f1d0 f1b6
000001c0: 6ad9 8736 c4cb 34b7 1818 9936 6dab 2f36
000001d0: 4294 22b5 3b33 5c36 cf83 99b7 b6e1 8736
000001e0: b5f8 7bb5 c3e5 1536 d2bc e436 13af c335
000001f0: 0e63 2238 5fd4 f435 a563 0b37 515e 9d38
1.7965284e-06 1.5737318e-06 -8.568422e-06 2.4457759e-06 -1.3283081e-06 9.162619e-06 7.702373e-06 -2.6738455e-06
1.502201e-06 -9.0229975e-07 2.1518536e-06 -8.114416e-06 -3.8607673e-06 7.78091e-07 -1.8200094e-06 -2.9722316e-06
8.2057045e-07 7.1438376e-06 -2.9313273e-06 -2.968106e-05 -1.3532604e-05 2.4127314e-06 9.3443405e-06 1.6218426e-07
-1.3687521e-06 -1.3650389e-07 -4.6240484e-07 -2.9421462e-06 -1.3168119e-05 -4.1093426e-06 1.52687e-06 2.050231e-06
9.498497e-06 7.873271e-07 -2.1001754e-06 8.170292e-06 1.1467243e-05 -1.0524753e-06 -2.399501e-06 -1.6968062e-05
-6.526905e-06 -3.6890077e-07 4.057962e-05 1.3362762e-05 1.9211236e-06 1.2908653e-05 -1.8472059e-06 -1.3950495e-05
-9.688775e-06 2.5347415e-06 -8.721811e-06 3.817472e-06 -2.2206443e-05 3.4623263e-05 3.6264414e-06 -5.852018e-06
1.5133536e-05 5.449609e-06 3.1908897e-07 2.1144583e-06 4.3303953e-06 3.5211476e-06 -1.5022267e-06 1.2086536e-05
-3.6673725e-06 7.784489e-06 9.573804e-06 -2.5368466e-08 -1.09177545e-05 -3.0989263e-06 -9.1665715e-06 -6.3912457e-06
-7.133952e-06 5.3081867e-06 3.3912786e-06 -3.976472e-06 7.6144756e-06 -3.069922e-06 -1.9895715e-06 5.440738e-06
-7.554768e-06 -9.876654e-06 3.3802291e-06 -1.8874443e-05 9.003227e-06 -3.3392057e-06 7.974621e-06 2.1265385e-05
1.8611247e-05 7.4594163e-06 -3.2317374e-05 3.4094523e-05 4.300429e-06 7.534935e-07 7.702669e-06 3.818828e-06
-1.0992097e-05 -9.515593e-06 6.5357817e-06 2.9541336e-06 2.5163952e-06 -6.768002e-07 -5.3166664e-06 -2.1960837e-05
1.4970203e-06 1.9103252e-06 1.2870308e-05 -4.2442593e-06 -4.6139758e-06 -3.2619755e-06 -1.768692e-05 -7.2066837e-06
4.048624e-06 -1.0776279e-05 4.56256e-06 2.6176815e-06 -6.0565446e-07 3.2812375e-06 -1.83004e-05 4.0495897e-06
-9.3866703e-07 2.233647e-06 6.816911e-06 1.4579585e-06 3.871606e-05 1.8241225e-06 8.308246e-06 7.503911e-05

main_network.1.weight f4 [128]
00000000: c6a9 873f 0528 7f3f e894 7f3f d7d8 783f
00000010: 434b 7a3f 2dbd 7f3f 806d 893f da5d 803f
00000020: 00e4 823f 5b4e 7b3f facd 753f 7a95 7f3f
00000030: 1989 7a3f 6304 823f 659f 813f 0b92 7a3f
00000040: 1fc7 7a3f 1957 803f b74c 813f 5ca4 743f
00000050: 0b4d 7e3f a560 803f 9092 7b3f 849a 723f
00000060: 96c5 763f de2e 7f3f cf5b 813f 1d0f 7c3f
00000070: 9b20 8a3f 7f0f 793f b5be 813f a3a6 7d3f
00000080: a95f 803f afdf 7a3f 2e2e 803f 3dbc 823f
00000090: a1a1 813f a0b5 743f 7c24 7e3f 108a 803f
000000a0: d659 793f ac95 823f 475a 803f 59b9 8c3f
000000b0: 9a1d 773f 1870 7f3f 4aa1 843f 1fe1 813f
000000c0: 95e0 763f 93e4 863f 90e3 803f bd49 813f
000000d0: b741 823f aaf3 763f c898 753f dbc0 813f
000000e0: b7cb 843f 8c11 7d3f 91e3 7a3f 1460 803f
000000f0: f067 773f b9cd 783f 01ee 803f 74e4 803f
00000100: 849e 793f fa53 7c3f fee9 7a3f 96b9 7b3f
00000110: bfd0 7a3f f4b5 783f 529b 753f 4ef2 7b3f
00000120: 5504 7d3f 74f9 833f 7a40 823f c12a 7a3f
00000130: 3788 803f 337a 7f3f 5775 7b3f 6cb3 7d3f
00000140: 81a3 7b3f bbce 7e3f a79d 823f 72f0 803f
00000150: ae30 803f e6b8 7f3f 3855 863f 301e 833f
00000160: 2d6c 7c3f 5a4f 813f 9441 833f a965 893f
00000170: 289a 753f 3366 7c3f 53de 7c3f 57df 853f
00000180: bed3 803f 1c40 823f acab 783f 2450 793f
00000190: aeb6 743f 5824 7b3f 8217 743f 5c83 863f
000001a0: 6f8f 7b3f 82b3 803f ac36 8a3f 80cb 783f
000001b0: 3887 7b3f f227 763f dbec 7f3f 16ff 753f
000001c0: e119 803f 6301 7e3f 3db5 7e3f dbf8 723f
000001d0: 41e9 793f 5458 743f 5bb8 803f a33e 783f
000001e0: ed07 7e3f 39b5 7a3f 84ff 863f cd17 7a3f
000001f0: 24d4 813f a423 7f3f e6e8 7a3f 1c52 853f
1.0598686 0.9967044 0.9983659 0.9720587 0.9777109 0.99898034 1.0736542 1.0028641
1.022583 0.98166436 0.9601742 0.9983746 0.97865444 1.0157589 1.0126768 0.97879094
0.97960085 1.002658 1.0101537 0.9556329 0.9933631 1.0029494 0.9827051 0.9476702
0.9639524 0.9968089 1.0106143 0.9846056 1.07912 0.9728927 1.0136324 0.9908239
1.0029193 0.97997564 1.0014093 1.0213696 1.012745 0.9558964 0.9927442 1.0042133
0.97402704 1.0201926 1.002755 1.0994064 0.96529543 0.99780416 1.0361722 1.0146827
0.96436435 1.0538505 1.0069447 1.0100628 1.0176305 0.9646555 0.9593625 1.013698
1.0374669 0.988549 0.9800349 1.0029321 0.9664297 0.9718891 1.0072633 1.0069718
0.975075 0.9856564 0.98013294 0.98330057 0.9797477 0.9715264 0.95940125 0.984166
0.98834735 1.0310502 1.0175927 0.9772149 1.004157 0.99795836 0.9822592 0.991019
0.9829636 0.99534196 1.0204362 1.0073378 1.0014856 0.9989151 1.0494757 1.0243587
0.98602563 1.0102341 1.0254388 1.0734149 0.9593835 0.98593444 0.9877674 1.0458783
1.0064619 1.0175815 0.9713695 0.9738791 0.9559125 0.9810233 0.9534837 1.0508838
0.9826574 1.0054781 1.0797935 0.97185516 0.982532 0.961547 0.9997079 0.96092355
1.0007898 0.99220866 0.994953 0.94910973 0.9762154 0.9544728 1.0056261 0.96970576
0.99230844 0.97932774 1.0546727 0.9769257 1.0142865 0.9966376 0.98011625 1.0415683

main_network.1.bias f4 [128]
00000000: 94d4 3e3d 7372 2c3d 3f62 02bb a156 4dbc
00000010: c333 48b8 6a55 08bc 1c23 b93d a0bb c93b
00000020: efd2 043c 00d9 1ebd 3263 18bd 3dc0 77bb
00000030: 5285 16bc 11df 0c3c 203c f93c 1c81 b13c
00000040: b2ad 92bb 95c0 cd3c c02b 283c 6240 57bc
00000050: 0b1d 9ebc 12db 623b b8db f7bc 7078 30bd
00000060: d049 b0bc 872c ab3b 21f1 d13c 14da abbb
00000070: fdc7 2d3d 54ad 453c 670a bc3c 0c70 87bb
00000080: fb33 e239 9286 36bc 4bf4 c83c 5809 803d
00000090: a4dd 5ebc 439e 0cbd 6d02 2cbc fcf6 8f3c
000000a0: 57bd efbc f160 2d3d be71 053b fd1d 8c3d
000000b0: 0040 f7bc e28f 2bbc 4bc4 1e3d 668d 02bd
000000c0: a222 f7bc d822 9b3c f3e6 3a3c 6dc6 d23b
000000d0: 3d8c 213d e06d cfbc d69f 4bbd 130f a13c
000000e0: 88ea 0e3d 5310 aa38 4b38 a0bc c11d 28bc
000000f0: b8ca b4bc fa32 81bc 29cf 323d 8d7a 5ebb
00000100: 3ec6 b3bc bd31 a4bc ca62 f03b bd07 8fbc
00000110: bb03 60bc de19 29bd f0d7 0dbd eb77 acbc
00000120: b63b 23bc d7bd 32bc c988 d5b9 3cb8 19bd
00000130: d117 273c 8a32 d43b febc 043c 3214 a1bb
00000140: 35ff 173c 6edc 60bc f808 503c 5a86 8bbc
00000150: c4d7 f33c 2472 9fbc 9551 973d 9782 1c3c
00000160: ea06 a33b dc56 873c b4b3 9b3c 4315 503d
00000170: 98c7 89bc 127b 8dbb d1b6 3b3c 2f24 153d
00000180: 2c36 b93c 7915 f63c f9f2 11bd 7e81 8fbb
00000190: 6d70 5abd af54 403c 6ff7 40bd bf23 253d
000001a0: e7d3 87bc ab58 acbb 777c 763d cec7 c7bc
000001b0: f1bc 9ebc 1626 0fbd 37d7 ec3c 59b4 77bc
000001c0: c6ac 10bb efc3 22bc b5cd f63a 34cf 26bd
000001d0: deb2 ffbc cd98 eebc 3200 623c 998e e0bc
000001e0: 4d63 8e3c 3801 9cbc 2345 fa3c ef1f 0fbc
000001f0: 5be6 613c 8fa4 113b 4d34 75bc d088 0e3d
0.04658945 0.042101335 -0.0019894985 -0.012532861 -4.7731923e-05 -0.008321146 0.090399 0.0061564
0.008106931 -0.038781166 -0.037203975 -0.0037803792 -0.0091870595 0.008598105 0.030424178 0.02166801
-0.0044762725 0.025116244 0.010264337 -0.013137909 -0.019300958 0.003461544 -0.030256137 -0.04308361
-0.021519572 0.005223814 0.025627675 -0.005244503 0.04242705 0.01206525 0.022954179 -0.00413323
0.00043144808 -0.0111404825 0.02453055 0.06251782 -0.013602648 -0.034330618 -0.010498625 0.017573826
-0.029265089 0.04232878 0.0020361985 0.06841657 -0.030181885 -0.010471316 0.03876142 -0.03187313
-0.030167881 0.018937513 0.011407602 0.0064323456 0.039440382 -0.025320947 -0.04971298 0.019660508
0.034891635 8.109272e-05 -0.019558093 -0.010261 -0.02206932 -0.015771378 0.043654595 -0.0033947558
-0.021945115 -0.020043248 0.0073359953 -0.017459745 -0.013672764 -0.041284434 -0.034629762 -0.021053275
-0.009962967 -0.010909519 -0.0004072844 -0.037529215 0.010198549 0.0064757513 0.0081017 -0.0049157375
0.009277155 -0.0137244295 0.012697451 -0.017031837 0.029765971 -0.019463606 0.073886074 0.009552619
0.0049751895 0.01652091 0.019006588 0.050801527 -0.016818807 -0.0043176496 0.011457161 0.03641146
0.022608839 0.030039536 -0.035632107 -0.0043794503 -0.053329874 0.01173894 -0.04711097 0.040317293
-0.016580535 -0.0052595935 0.060177293 -0.024387266 -0.019377204 -0.03494843 0.028911216 -0.015118682
-0.0022075637 -0.0099344095 0.0018829616 -0.040724948 -0.03121322 -0.029125595 0.013793992 -0.027411746
0.017381335 -0.01904355 0.030550545 -0.008735641 0.013787831 0.0022223329 -0.014966083 0.034798443

main_network.1.running_mean f4 [128]
00000000: 7073 013e 88a8 15be 06f4 26be de1e 7ebe
00000010: 8cf0 a73d 8963 86bd 96a6 603e d220 673e
00000020: 5e02 e63d fe74 37bd c769 a8ba 3ec1 3bbc
00000030: 3b6f 1bbc 41e0 82bd 140b ca3d 3c24 633d
00000040: b95b 92bd a4e3 8bbd f535 723d 8ad4 8d3d
00000050: 89b4 88bc 470f b0bd 973b c6bc 71cd 913c
00000060: c690 61bd 4cb2 0a3d 5464 7b3c 123e 0b3e
00000070: 536d 373e caf3 9fbc 3532 93bb 9e2d 73bd
00000080: 79d9 663d 34f3 e53d 8708 30bc dbde 78bd
00000090: a070 06be a80d ea3d 8b03 0ebe e86b 6e3d
000000a0: e481 ecbd dd0c f5bc 1eb2 783d 4902 393e
000000b0: 5965 033d 52a2 e1bb 08ca 6cbb cbdc 6dbd
000000c0: d8cd 2ebd 1c9e e33d 75f8 073e 4f17 0cbe
000000d0: d1e9 4fbd af64 673c 28ed 78bc b03c 35bc
000000e0: bae6 e03d af23 803d 15fd 9fbc 848d 7a3d
000000f0: 23d0 c5bd 7043 e63d 3fa3 2bbe cd52 2f3e
00000100: c6fd 873d 233c 0cbe efa7 45bd f7b2 063d
00000110: cc34 e83c 8fbd a53d f91e 283d 3438 813d
00000120: 13e5 e93d 2d51 0f3d 2a8a 8f3d 6c0a 273b
00000130: 6d89 6e3d 34e2 ecbc 57d8 bbbd 6de2 303b
00000140: 8815 91bd 753d 59bd cc44 ce3d 14e1 1a3c
00000150: 1cf7 b63d dc2a c43d 3317 34be 7b3c c03d
00000160: 216b afbc 8743 113e caca 5ebd b274 963d
00000170: 7c04 963d 30e5 013e 1d08 bf3c b5cc 94bd
00000180: 5ec3 99bd 4ed8 453d c207 adbb 5d86 cdbd
00000190: e524 fb3d 9a93 28be 8b58 493c a784 813d
000001a0: 745d 1dbe 44ad ca3d d7a7 353e c90f 0e3e
000001b0: 54dd ed3d 272b 7abb 07e8 9ebb 1015 6fbd
000001c0: 92d3 943d 0fe5 74bd ff0f 8bbd 8932 7d3d
000001d0: 60a7 323e e088 193d 3a17 303c 2848 3b3d
000001e0: ef44 b4bd 01be 653d d53a d3bc f33b 98bd
000001f0: 185e 0e3e 8195 953d f265 65bd 57d3 b43d
0.12641692 -0.14615071 -0.16304025 -0.24816462 0.082001776 -0.065619536 0.21938547 0.22571114
0.1123092 -0.044789307 -0.0012848907 -0.011459647 -0.009486969 -0.06390429 0.09865394 0.055454478
-0.07146401 -0.068305284 0.05913349 0.06925304 -0.016687648 -0.08596664 -0.024198337 0.017798157
-0.055069707 0.033861443 0.015343744 0.13597897 0.17912798 -0.019525427 -0.004492069 -0.059369676
0.05635974 0.11228028 -0.010744221 -0.060759407 -0.131289 0.11428386 -0.13868539 0.058208376
-0.11548212 -0.02991336 0.06071674 0.18067278 0.032079075 -0.006885805 -0.0036131162 -0.058071893
-0.042676777 0.11114141 0.13278373 -0.13680767 -0.050760094 0.014123126 -0.015193261 -0.011061832
0.109815076 0.06256806 -0.019529859 0.061170116 -0.096588396 0.112433314 -0.16761492 0.1712143
0.066402 -0.13694815 -0.048255857 0.032885518 0.028345488 0.08092796 0.041045163 0.06309548
0.114206456 0.034989525 0.070087746 0.002548839 0.05823653 -0.028916456 -0.09172123 0.002699043
-0.07084185 -0.053037126 0.10071716 0.009453077 0.08933851 0.09578487 -0.17586975 0.09386536
-0.021413388 0.14185916 -0.054392613 0.073464766 0.07325074 0.12685084 0.023319298 -0.07265607
-0.075079665 0.048301987 -0.005280466 -0.100353934 0.122628964 -0.16462556 0.012289177 0.063241296
-0.15367681 0.09896329 0.17739807 0.13873209 0.116144806 -0.0038172693 -0.004849437 -0.058369696
0.07266916 -0.05978876 -0.067901604 0.061815772 0.17446661 0.03748405 0.010747725 0.04572311
-0.088022105 0.056089405 -0.02578489 -0.074333094 0.13903081 0.07303906 -0.056005426 0.088293724

main_network.1.running_var f4 [128]
00000000: c937 423e a955 f73d 6d4b f23d 4bd7 733e
00000010: d078 263f 5474 523e 17df 143e c958 973e
00000020: bab7 243e 109f a13e 069f d23e d5d8 6c3e
00000030: cc66 a23e cd3b 073e 592e 9c3f e057 5e3e
00000040: 7c16 0d3f cbdb 533e 4641 163e 730b b33d
00000050: ade8 e93e 20c9 b53e e5df 6e3e a6fc e73e
00000060: 516e 023f a219 3d3f 9e45 0b3f 2373 ba3e
00000070: dd5c a83d 7d6b 183f 0873 083f 5f8b 713e
00000080: b81b 393f 2105 c23e 2dd2 e53e e547 633e
00000090: 84c7 f33d af33 c93e 080b a23e 2a18 a73e
000000a0: cbfe c83f 72a8 613e ab79 a33d 8718 983e
000000b0: 699e cc3e d36b 0d3f 537d 8b3e ed96 693e
000000c0: a231 a73e a4dc 443e 7856 933e be66 953d
000000d0: d2a2 f13d 2ac6 da3d 87a4 133f 6dd2 f23d
000000e0: ea13 373e 16c9 183e b97f 083f df07 4d3f
000000f0: bca3 923f 86b5 8f3e 534f 2d3e 5d17 863e
00000100: 225b d43e 3851 853e ce3b e23d 72ca 943f
00000110: 1ad3 e23e 27e6 8b3e 3458 463e b3f2 1d3f
00000120: 8a0a b43e 1043 f13d 6716 a53e 613c 7c3d
00000130: d9ad a93e 0537 273e 00ed 853f c93b 0d3e
00000140: 4aec 723e d286 f73e 5f57 9e3e 7042 fc3d
00000150: 539a 6c3e 477c b33e 609a 173e f3c0 3d3e
00000160: 860d 6c3e c652 453e c9ae dc3e 43ee a93d
00000170: f817 f83d 8b1b 0b3e 0d85 8b3e b7de 0d3f
00000180: dd7c 103e 4757 e83e 1c2b 7d3e d3a0 f33e
00000190: 0938 bd3e d68a 1b3e d62d 883e 1b1a bc3d
000001a0: 414f 233f bf89 f03d bb4d 0b3e cc05 8d3f
000001b0: ada4 623e d86d 463e 107a 623e cb59 bc3e
000001c0: 8e64 8e3f 98d2 473e 4501 1f3e 59c4 a63e
000001d0: 4d90 0e3e e57b 003f 53c3 473e b7be 8f3e
000001e0: 52d0 593e 781a a03f 4a60 0f3e 5239 203f
000001f0: b64e 533e 487b 0f3f 2dcf 493e ed34 073e
0.18966593 0.12076885 0.118307926 0.23812596 0.65028095 0.20552188 0.14538227 0.29559925
0.16085711 0.31566668 0.4113695 0.2312959 0.31719053 0.13206406 1.2201644 0.21713209
0.55112433 0.20689313 0.14673337 0.08742418 0.4568533 0.3550501 0.23327596 0.45309943
0.5094958 0.7386724 0.544031 0.36415967 0.08220837 0.59539014 0.53300524 0.23588322
0.7230792 0.37894538 0.44886914 0.22195394 0.11903289 0.39297244 0.3164904 0.32635623
1.5702757 0.22036913 0.07982191 0.29706213 0.39964607 0.5524265 0.27244052 0.2281148
0.32655054 0.19224793 0.28776908 0.07294987 0.11798634 0.10682328 0.57672924 0.11856542
0.1787869 0.14920458 0.5331989 0.80090135 1.1456218 0.2806818 0.16924791 0.261897
0.4147578 0.26038527 0.11046563 1.1624281 0.44301683 0.2732403 0.19369584 0.61698455
0.3516429 0.11780369 0.32243654 0.06158102 0.33140448 0.16329582 1.0462952 0.13792337
0.2372295 0.48345047 0.30926034 0.123173594 0.23105745 0.35055754 0.14804983 0.18530636
0.23052034 0.19269857 0.431021 0.08297398 0.12113947 0.13584726 0.27249947 0.5541796
0.14110132 0.45379087 0.24723476 0.47583637 0.36956814 0.1518968 0.2659747 0.09184667
0.63792807 0.11745023 0.1360387 1.1017394 0.22133131 0.1937784 0.22116876 0.36787257
1.1124437 0.19513929 0.15527828 0.32571676 0.13922234 0.5018905 0.19508104 0.2807519
0.21270874 1.2508078 0.14001575 0.62587464 0.20635495 0.5604749 0.19707938 0.13203783

main_network.4.weight f4 [64, 128]
00000000: aee6 c4bd 23ff e33a 2316 ecbc bcce 41bd
00000010: bf57 92bd f408 2b3d fde8 74bd 6010 ca3c
00000020: c83c 9abd 2943 d23d a8a3 6a3d 4ed0 083d
00000030: b92a 9bbd f0eb 373b 0429 72bd f854 143d
00000040: 4c06 323d 3a70 f13c ae09 cabb 6800 5d3d
00000050: ee74 b83d fd63 9c3c 7bec a3bd 7595 d53c
00000060: 1753 273b 77ef 9ebd 5045 173d 3e40 edbc
00000070: 823f 6ebd 94f5 c23d 0b3b 5dbd 23ad 32bd
00000080: 62e8 e8bd 02a1 f8bc 274b 233d 6c87 693c
00000090: 3875 4bbd 31f4 de3d ab11 423d 0bbc aebd
000000a0: 4cbf a8bc de25 8a3c 46b4 7f3d f708 a3bd
000000b0: d32d 393d d3b8 cdbc 0de6 363d 2ebc c73b
000000c0: 914b b93d e81d 81bd 1784 4bbd 7360 e4bc
000000d0: b473 973d 47a2 8cbd 467e 6e3d 983a 04bd
000000e0: 32c7 e4bc 7e15 223c d28d 293d 8c15 06be
000000f0: 0be6 663d 14a4 edbc f28f fcbc 28a2 94bd
00000100: 35de 383c 58c8 2cbc 8124 5abd 19a4 b6bd
00000110: ac90 453d 8cbd 033d 3f2f 9dbd 1489 34bd
00000120: 0509 ebbd b185 2f3b fe55 363d 653d cabd
00000130: 57af 10bd 9d51 88bd 4ed6 b73c 482b b4bd
00000140: cf64 f2bd 33df 44bc 232e 653d 44ff 2cbd
00000150: 3a6e b73b 8310 26bc 8e57 a6bc d491 0ebe
00000160: 4b2c 06bd 61a4 523d 8cb5 8c3b 4442 18bd
00000170: d433 ca3c 119e 503d 5d56 0fbc 79df 413d
00000180: f928 b83d 645e a83d 80de b1bb dba9 873d
00000190: fe36 07bd d3ce 163d 7830 89bd 2ff0 cfbd
000001a0: eb05 1ebd 45a9 bf3d d50c 49bb 69a4 18bd
000001b0: 720d a7ba 7e51 8a3d f00f 4f3d 401a 1bbc
000001c0: 256d 6fbd e791 573d bc23 253d b672 9ebd
000001d0: 65a4 893b a6eb d73c de3b 733d 80dc 7239
000001e0: 77b2 69bd 9a90 34bc eff9 08be 828e 233d
000001f0: 298e adbd ff82 b8bd 66b0 913d 8ed7 4c3c
00000200: 1e4e 693d 986e c83b 15d5 4f3d dd44 f43c
00000210: 848f e8bc 5a23 a7bd 8533 853d 1fb8 2cbd
00000220: f6c7 a0bd 7118 c43c 8aaf a83d 991b 613c
00000230: e231 403c b576 88bd 4d8b 273d 5633 693d
00000240: d795 943c 649a 203c 1445 61bd d187 17bd
00000250: 5c2e 12bd ffb5 a53c 9476 c33c f8d9 df3c
00000260: ad91 353d 1a7a 2a3d c454 ea3c 44cc b83d
00000270: 23db 003b 96f4 933c f5e4 44bd 2345 e6bc
00000280: a696 57bd d12c a93d b5dd e93b e9a9 f43b
00000290: 5c65 313d 2205 59bd 4289 1b3d 622d 75bd
000002a0: 991a 37bc 1e08 89bc ab6e 873d 2a1b edbd
000002b0: 3537 6b3b fff4 60bc bf33 54bd 7780 df3d
000002c0: 3e7e 323d 243e 443a 62b1 143d 2a0d 293c
000002d0: 3cbd a63d b28e 57bd b93f 3a3d 5a58 003d
000002e0: dc4c 8f3d 0e80 66bd 6b29 d33d ef21 d83d
000002f0: c018 983d d3f4 7dbd dea2 9d3d 4f96 15bd
00000300: 664d c4bc 5e33 1f3d 7684 e9bb 84e8 973d
00000310: f918 113d a091 a9bd 1718 66bd f380 b13d
00000320: 6fe2 8b3d beb7 f4bb e8d7 6abd 2144 a3bd
00000330: fff4 743d 1d8f c33d 8a25 733d 80d8 853d
00000340: 813b b83d 2e84 3ebd 9be5 8dbd b23d 9739
00000350: 5387 90bc 7bdb d3bd a0b4 863d 539c a0bd
00000360: dc3a a6bd 5ed4 28bd 60c7 95bd aaf4 413d
00000370: 600f 6c3c f1cc a63d 4899 aabc 6ab3 bdbd
00000380: 6a94 663c e0a8 5dbd a81c b7bd 8e94 6abd
00000390: 6d01 0d3d 4ae3 e23c 42ca 50bd 33cb 3c3d
000003a0: 44a8 c73c bdc5 12bb a02a 24bd 80c8 2ebd
000003b0: ec9e bdbd 2092 80bd d3e6 e53c 9f4c 4f3d
000003c0: aea1 483d c57f 9bbd a8c8 47bd 944b 20bd
000003d0: fb32 7ebd 85aa 96bc 0448 703d c5cb 1d3d
000003e0: 9ea8 973d de58 413d 3376 7dbd eea8 243d
000003f0: a535 b13b 4d2c d8ba 9639 08bb 05b2 a8bd
-0.09614311 0.0017394762 -0.02881915 -0.047316298 -0.071456425 0.041756585 -0.059792507 0.024666011
-0.07531124 0.10266716 0.05728498 0.03340178 -0.07576508 0.0028064214 -0.059121147 0.036213845
0.043463036 0.02947246 -0.0061657047 0.053955466 0.090066776 0.019090647 -0.080040894 0.026072243
0.0025531703 -0.07760518 0.036931336 -0.028961297 -0.058166035 0.095194966 -0.054011386 -0.043622147
-0.113724485 -0.030350212 0.039866593 0.0142534785 -0.049672335 0.108864196 0.04738013 -0.0853196
-0.02059903 0.01686376 0.06242778 -0.07960694 0.045209717 -0.025112545 0.044652987 0.006095431
0.09047616 -0.06304532 -0.049686518 -0.027878022 0.073951155 -0.068668894 0.058225892 -0.03228244
-0.027927015 0.009892819 0.041395016 -0.13094157 0.05637173 -0.029008903 -0.030830357 -0.07257491
0.011283447 -0.010545813 -0.05325747 -0.08918018 0.048233673 0.032163188 -0.07675027 -0.04407604
-0.1147633 0.0026782567 0.044515602 -0.09874991 -0.035323467 -0.066561915 0.022441056 -0.08797318
-0.11835634 -0.012016105 0.055952203 -0.042235628 0.005597857 -0.010135773 -0.020305421 -0.13922817
-0.032757085 0.051426295 0.004294103 -0.03717257 0.024682917 0.050931994 -0.008748618 0.04733226
0.0899219 0.082211286 -0.0054281354 0.06624194 -0.03301143 0.036818337 -0.06698698 -0.10153233
-0.038579863 0.093584575 -0.0030677815 -0.03726617 -0.0012745096 0.06753825 0.05055231 -0.009466708
-0.058453698 0.052629378 0.040317282 -0.07736723 0.0042005056 0.026357483 0.059383266 0.00023161061
-0.057054963 -0.011020804 -0.13376592 0.039930828 -0.084743805 -0.090093605 0.071137235 0.012502564
0.056959264 0.0061166994 0.05074032 0.029817993 -0.028388746 -0.0816104 0.06503967 -0.04216778
-0.078506395 0.023937436 0.082366064 0.01373949 0.011730643 -0.066632666 0.040904332 0.056933723
0.018137855 0.009802435 -0.05499752 -0.03699476 -0.035688743 0.020228384 0.023860253 0.027325615
0.04432838 0.04162035 0.028604873 0.090233356 0.0019661866 0.018060964 -0.048069913 -0.028109139
-0.052633904 0.08260501 0.0071370252 0.007466544 0.043309554 -0.05298341 0.037972696 -0.059857734
-0.011175775 -0.016727503 0.06612905 -0.11577447 0.003589106 -0.013730287 -0.05180716 0.109131746
0.043577425 0.00074860663 0.036301978 0.01031808 0.08141562 -0.05262632 0.045470927 0.03133426
0.06997082 -0.056274466 0.10310634 0.10553347 0.07426596 -0.06200106 0.0769708 -0.0365203
-0.023962688 0.038867347 -0.0071263863 0.07417396 0.035424206 -0.08279729 -0.056175318 0.08667173
0.06830298 -0.007468193 -0.05733481 -0.07971979 0.05980396 0.09548781 0.059361972 0.06535435
0.089957245 -0.046512775 -0.069285594 0.0002884693 -0.017642653 -0.10344597 0.0657742 -0.078423165
-0.08116695 -0.041218154 -0.073134184 0.04735247 0.014407963 0.08144558 -0.020825043 -0.09262736
0.014073471 -0.05411613 -0.089410126 -0.05727058 0.034425188 0.02769627 -0.050974138 0.046092223
0.024372227 -0.0022395693 -0.040079713 -0.04267168 -0.092588276 -0.06277871 0.028064167 0.05061018
0.048982315 -0.075927295 -0.048775345 -0.039134577 -0.062060338 -0.018391857 0.05866243 0.038524408
0.07405208 0.04720389 -0.0618803 0.040200166 0.0054080063 -0.0016492695 -0.0020786277 -0.082370795

main_network.4.bias f4 [64]
00000000: a573 aab6 8998 b1b5 b96c 2eb7 ea28 f137
00000010: f599 5d36 f35d e2b4 1940 85b7 9069 aeb5
00000020: 7837 a7b6 e3bb 0bb6 c236 b5b7 55bf 7f35
00000030: 9967 95b5 9424 8bb5 9c50 bb36 1658 e8b6
00000040: fe07 5537 c09d 3a36 69e5 dfb6 3354 e4b6
00000050: f7db c734 7bc2 b8b6 bfb3 7238 b0c4 4437
00000060: f0b1 e535 581a 97b6 405d 9636 1a35 bfb6
00000070: 6a81 c437 4a6b 27b7 9c78 0537 f8ba 5637
00000080: 93c1 1438 db0e 02b8 3599 9ab6 ea44 9f33
00000090: a295 04b6 d2e4 8336 ab3c e836 8663 44b7
000000a0: e6ec cc37 2335 1cb7 86b7 3eb6 49b7 ca34
000000b0: 9ec8 da36 b7a6 7db7 6d48 fa36 cb6d 9937
000000c0: bf23 6d37 fb70 c337 bea4 fe36 d667 01b7
000000d0: 68d8 4636 39bf 2736 8345 bd37 a1a8 2336
000000e0: 6dbc d0b6 4b3e e136 e1b5 6a37 d18a ba36
000000f0: a370 9eb6 a4e6 f1b6 3a2f 97b5 11ac dc35
-5.0798576e-06 -1.3231921e-06 -1.0396522e-05 2.874849e-05 3.302118e-06 -4.2164137e-07 -1.5884683e-05 -1.2994733e-06
-4.9834453e-06 -2.0821979e-06 -2.160238e-05 9.527333e-07 -1.1131516e-06 -1.0366953e-06 5.5824185e-06 -6.9243933e-06
1.269765e-05 2.7807982e-06 -6.6726247e-06 -6.8047316e-06 3.7226684e-07 -5.506268e-06 5.7864698e-05 1.1728305e-05
1.7113616e-06 -4.5032175e-06 4.481204e-06 -5.6984254e-06 2.3425284e-05 -9.978956e-06 7.955499e-06 1.2798926e-05
3.546623e-05 -3.100825e-05 -4.6073933e-06 7.41655e-08 -1.975663e-06 3.9307424e-06 6.9212015e-06 -1.17056825e-05
2.442901e-05 -9.310696e-06 -2.841903e-06 3.775879e-07 6.520261e-06 -1.5118791e-05 7.459012e-06 1.8290148e-05
1.4134624e-05 2.3298422e-05 7.5889684e-06 -7.713175e-06 2.9630264e-06 2.4996245e-06 2.2562925e-05 2.4387048e-06
-6.2208187e-06 6.7127744e-06 1.3989834e-05 5.5593923e-06 -4.7218796e-06 -7.20921e-06 -1.1264121e-06 1.6441355e-06

main_network.5.weight f4 [64]
00000000: 4461 743f db0d 773f b3a7 803f 8061 813f
00000010: 9907 863f d44d 813f 5e0a 843f 6735 883f
00000020: 4f8e 803f ce99 693f cd59 813f 69ea 813f
00000030: cb6a 683f 98e8 7f3f 8267 7e3f 7652 873f
00000040: b201 883f 6eeb 803f 6f34 803f 3a16 763f
00000050: bd11 813f e7e3 7d3f 62ca 793f 16e4 793f
00000060: c602 833f ef75 8e3f acec 803f 69d3 783f
00000070: 7b3b 783f 3e15 883f ac2b 803f 3466 8a3f
00000080: 0e57 8a3f 7e61 703f 4603 703f fee6 853f
00000090: de83 793f c391 7c3f 53a0 743f b12d 863f
000000a0: d0c4 7f3f 6f29 783f 0ab0 833f e8d4 803f
000000b0: 7b5a 7f3f 4124 843f 672c 793f 1d10 813f
000000c0: a555 763f 17a1 823f 0488 833f f075 803f
000000d0: 48de 723f 246f 7d3f 0f5f 7f3f c542 873f
000000e0: b783 703f 7265 813f 962f 693f 88de 723f
000000f0: 2468 823f c65d 873f 3b6f 6a3f e8a4 833f
0.95460916 0.96505517 1.0051178 1.010788 1.0471069 1.0101876 1.0315664 1.0641297
1.0043429 0.9125031 1.010553 1.0149661 0.90787953 0.99964285 0.9937669 1.057204
1.0625517 1.0071847 1.0016001 0.96127665 1.0083538 0.99175876 0.97574437 0.97613657
1.0235221 1.112974 1.0072227 0.97197586 0.9696576 1.0631483 1.0013328 1.081244
1.0807817 0.9389876 0.93754995 1.0461118 0.9746684 0.98659915 0.95557135 1.0482694
0.9990969 0.9693822 1.0288098 1.0064974 0.9974744 1.0323564 0.9733338 1.0083042
0.96224433 1.0205411 1.0275884 1.0035992 0.94870424 0.9899771 0.9975442 1.0567251
0.9395098 1.0109084 0.91088235 0.94870806 1.0188031 1.0575492 0.91575974 1.02847

main_network.5.bias f4 [64]
00000000: 2856 713b a61f cabc f241 093c 37c6 d13b
00000010: 0416 7a3c 4bbc e7bb b61e a83d e334 a53d
00000020: 059d cb3b 868e 60bd 58ac 203d f334 3a3d
00000030: bcc4 86bd e00a cf3c a126 2f3d 8e9c 8e3d
00000040: 42cc 4a3d bd5b 2cbb 0fcf 103d 8816 ba3c
00000050: dd3b 123c bc77 8f3c ec90 173d dc67 04bd
00000060: 9be1 133c 2983 dd3d 58c1 683d 22ed fd38
00000070: 6207 493c 5997 a73c 6a31 61bc c96f bd3d
00000080: ced5 713d b58c 72bd 8d4a e23b 2951 333d
00000090: a7a1 9f3c f2bf 563c 16f0 20bb ef32 593d
000000a0: 448e f53c d87a 58bd 6f28 2f3c ce5e 7d3b
000000b0: ee55 eebc 8207 1f3d b69f 143c b68f 1b3d
000000c0: c8cc 93bc d15b bd3d c8da 963d f974 a33c
000000d0: 3e56 1fbd e8fa 9f3a 3910 20bd b63b 903d
000000e0: b9ec a2bc eb16 163d 1308 95bd 2656 123c
000000f0: f997 6c3c b29b 3f3c c89a 84bc 53e0 d53c
0.0036825035 -0.024673294 0.008377539 0.006401803 0.015264038 -0.007072007 0.08208983 0.08066728
0.0062137865 -0.05482342 0.03922686 0.045460653 -0.06580493 0.02527374 0.04276145 0.06963454
0.0495112 -0.0026299797 0.035353716 0.022715822 0.008925405 0.017513148 0.037003443 -0.03232561
0.0090259565 0.108160324 0.056825012 0.000121081495 0.012269827 0.02045791 -0.013744691 0.09249837
0.05904179 -0.05921622 0.00690586 0.043778572 0.019486262 0.013107287 -0.0024557165 0.05302709
0.029975064 -0.052851528 0.010690792 0.0038661244 -0.029093709 0.03882552 0.009071281 0.03797885
-0.018041983 0.09246028 0.07365948 0.019953238 -0.038900606 0.0012205513 -0.03907797 0.07042639
-0.019888269 0.03664295 -0.07276931 0.008931672 0.01444053 0.0116948355 -0.016187087 0.026107943
