XGBoost/best_model_googlenet.pth (torch, 121008 bytes, 47 tensors)

model_embedding.weight f4 [32, 12]
-0.15476122 0.18139221 -0.15571015 -0.22006288 -2.8342217e-08 -0.15412825 -0.29648983 0.026410174
0.064026766 -0.06555837 0.2282849 0.19198711 -0.09370949 0.076525375 0.18087032 0.19900918
9.603607e-12 0.00876209 0.22897036 0.165373 0.12602802 -0.05911148 0.11131147 0.23452422
-0.24578604 0.084117375 -0.25822246 0.03243836 -0.023970842 0.20542905 -0.1061643 -0.17853516
0.060032368 0.11492946 -0.08269705 -0.16231121 -0.12757912 -0.17361346 0.08003129 0.015408717
-2.9089947e-13 -0.19322637 -0.18160912 -0.12185276 0.19586341 -0.29327133 0.18725221 0.2535482
-0.26492834 -0.24569488 0.13807699 -0.38652003 -0.0010125164 -0.13922572 0.106082104 0.07311732
0.067342795 0.043149855 -0.0085344035 0.14632207 -0.01985958 -0.025869302 -0.14507888 -0.15248595
0.0004425811 0.13926429 -0.18725199 0.23059267 -0.26036498 0.18894808 0.090850905 0.15510431
-0.010990725 -0.26228344 -0.23138916 0.28969958 -3.9504042e-13 0.19198486 0.005000926 -0.06437064
-0.24424699 -0.08782937 0.055468157 0.032065857 0.17944336 0.22196333 -0.21026619 0.30241668
1.013413e-08 0.25118396 0.03218922 -0.061322108 -0.20755897 -0.13086085 0.026705366 0.22463728
-0.111038245 0.03170552 -0.017574873 0.21813464 0.0036735714 -0.04735428 -0.12244278 -0.27905446
0.055583186 -0.24709913 -0.20004311 -0.23023152 -0.16621028 -0.23413388 0.13140307 0.09592348
1.0107459e-10 0.25149116 -0.2715691 0.11287921 0.18897536 -0.25939685 -0.16218929 -0.016140033
-0.123758785 0.30344027 -0.14099443 -0.26686138 4.6167137e-12 0.2541259 -0.17622285 -0.22867656
-0.24077266 0.0117819095 -0.17125082 -0.16866726 0.3139379 -0.09570961 -0.23767863 -0.083875455
9.764552e-13 -0.08291304 0.267451 -0.025633171 -0.024391117 0.084320694 -0.19744441 0.2975121
-0.23398831 0.265772 -0.113254555 0.20308809 0.0041394373 0.14605244 0.19275564 0.118006796
0.090965755 0.1650174 -0.05587721 0.32599336 -0.022276442 0.20320983 0.032600686 -0.022771986
-0.00018623575 0.10233133 -0.0063464646 0.09304263 -0.047869682 0.015156854 0.1890691 -0.26171756
0.18915118 -0.06733006 0.0417949 0.35506997 0.000104628605 -0.2871784 0.21166587 0.25804615
0.19661972 -0.16062653 -0.05994148 -0.32427198 -0.001614343 -0.10387812 0.31196445 0.037259895
1.0198491e-11 0.12774327 0.08143953 0.23062195 0.008671276 -0.21424899 -0.22806385 0.16937044
0.23418453 0.23111808 -0.03198877 0.2482587 -3.1111838e-10 -0.26220688 -0.12986384 -0.053584866
-0.2106609 -0.14458513 0.031111548 -0.2081888 0.27407956 -0.06845535 0.1050915 0.11452034
0.008805877 -0.17946415 0.15739365 0.021139147 -0.17067157 -0.24917613 -0.22880118 -0.22899044
0.11177738 -0.026765527 0.008155471 -0.28125829 -0.00249501 0.26844808 0.010102934 0.26551265
0.26448938 0.31175423 0.27908292 -0.26205584 -0.038448203 0.09913605 0.014762872 0.17919889
-0.0031315791 0.1554867 -0.038434118 -0.18181947 0.0069919727 -0.028799929 -0.23038045 0.18193951
0.17176782 -0.019204842 -0.092460096 0.04426095 0.0029166418 0.23797506 -0.19348958 -0.07879022
0.15466084 -0.23949724 0.030487098 0.15708086 -0.22801143 -0.19058669 -0.2329468 -0.14965966
00000000: ba79 1ebe e1be 393e 7b72 1fbe 2a58 61be
00000010: 3275 f3b2 ccd3 1dbe 84cd 97be 265a d83c
00000020: 7720 833d 7743 86bd 84c3 693e 4598 443e
00000030: c3ea bfbd 56b9 9c3d 1236 393e 10c9 4b3e
00000040: cdf2 282d de8e 0f3c 3577 6a3e 8a57 293e
00000050: 7d0d 013e e11e 72bd 45f7 e33d 1e27 703e
00000060: 56af 7bbe bb45 ac3d bc35 84be 16de 043d
00000070: 805e c4bc fe5b 523e ab6c d9bd ecd1 36be
00000080: 80e4 753d 2360 eb3d 125d a9bd e934 26be
00000090: 1aa4 02be bac7 31be 72e7 a33d d874 7c3c
000000a0: 08c3 a3aa 22dd 45be bef7 39be f18d f9bd
000000b0: 6b90 483e a927 96be 0bbf 3f3e 12d1 813e
000000c0: b0a4 87be 7097 7bbe 0e64 0d3e f4e5 c5be
000000d0: 6ab6 84ba 3091 0ebe 9341 d93d 89be 953d
000000e0: 05eb 893d e7bd 303d e2d3 0bbc 74d5 153e
000000f0: 8fb0 a2bc dceb d3bc 8f8f 14be 4725 1cbe
00000100: 3b0a e839 4c9b 0e3e fcbe 3fbe 7c20 6c3e
00000110: 8f4e 85be 9b7b 413e 0a10 ba3d aad3 1e3e
00000120: 7112 34bc 044a 86be 48f1 6cbe 8153 943e
00000130: 5363 deaa ae97 443e cfde a33b c1d4 83bd
00000140: e21b 7abe e2df b3bd 9432 633d 7d57 033d
00000150: 00c0 373e 5b4a 633e 0550 57be 5cd6 9a3e
00000160: 601a 2e32 2f9b 803e d8d8 033d e42c 7bbd
00000170: 578a 54be 6300 06be 36c5 da3c 5107 663e
00000180: 0568 e3bd a6dd 013d 2ef9 8fbc b05e 5f3e
00000190: 4dc0 703b 90f6 41bd 48c3 fabd 3ae0 8ebe
000001a0: 32ab 633d 8e07 7dbe 1ad8 4cbe d0c1 6bbe
000001b0: 0733 2abe cbc0 6fbe 878e 063e 8873 c43d
000001c0: f043 de2e 73c3 803e 1b0b 8bbe 372d e73d
000001d0: c282 413e aacf 84be f314 26be 1a38 84bc
000001e0: 3f75 fdbd 865c 9b3e d860 10be 0ea2 88be
000001f0: a96f a22c ca1c 823e c373 34be 302a 6abe
00000200: 1c8d 76be e908 413c 605c 2fbe 1cb7 2cbe
00000210: 78bc a03e 6603 c4bd 0762 73be e5c6 abbd
00000220: 826c 892b 50ce a9bd 56ef 883e a8fc d1bc
00000230: e1cf c7bc 54b0 ac3d de2e 4abe 8253 983e
00000240: a29a 6fbe 4513 883e 01f2 e7bd 53f6 4f3e
00000250: 1ea4 873b c58e 153e bc61 453e 8cad f13d
00000260: 414c ba3d 52fa 283e 80df 64bd 9ae8 a63e
00000270: 167d b6bc 3d16 503e 4c88 053d 518c babc
00000280: 4748 43b9 1793 d13d 01f6 cfbb 228d be3d
00000290: 0013 44bd 7454 783c 559b 413e d8ff 85be
000002a0: d9b0 413e 58e4 89bd 2131 2b3d bbcb b53e
000002b0: 0e6c db38 0c09 93be f0be 583e a01e 843e
000002c0: ae56 493e 487b 24be 3385 75bd fa06 a6be
000002d0: 5d98 d3ba 0dbe d4bd ceb9 9f3e d59d 183d
000002e0: ec69 332d 22cf 023e c5c9 a63d 2928 6c3e
000002f0: f811 0e3c 1664 5bbe 9289 69be 726f 2d3e
00000300: 12ce 6f3e 38aa 6c3e a806 03bd 8737 7e3e
00000310: 050a abaf fb3f 86be 07fb 04be ce7b 5bbd
00000320: 7eb7 57be 200e 14be a5dd fe3c 722f 55be
00000330: 2854 8c3e 5232 8cbd 363a d73d a489 ea3d
00000340: 8646 103c 73c5 37be cd2b 213e 012c ad3c
00000350: 87c4 2ebe 0728 7fbe db4a 6abe 787c 6abe
00000360: 8aeb e43d 6143 dbbc 869e 053c 1601 90be
00000370: 5283 23bb 0772 893e c786 253c 46f1 873e
00000380: 276b 873e 409e 9f3e f5e3 8e3e 2f2c 86be
00000390: dd7b 1dbd d707 cb3d f9df 713c ea7f 373e
000003a0: 2e3b 4dbb e837 1f3e 186d 1dbd e22e 3abe
000003b0: eb1c e53b d4ed ebbc dae8 6bbe 5a4e 3a3e
000003c0: e7e3 2f3e 7953 9dbc b85b bdbd f84a 353d
000003d0: 2125 3f3b bcaf 733e 2222 46be c45c a1bd
000003e0: 695f 1e3e c43e 75be 14c0 f93c ced9 203e
000003f0: d47b 69be 2829 43be 9b89 6ebe 6240 19be

model_embedding.bias f4 [32]
3.8555936e-06 -8.303431e-06 -1.0481396e-05 0.0249494 -6.1393155e-07 -0.0050258767 1.6490766e-07 -0.0005997383
3.394395e-06 7.3508545e-06 -0.0048712976 5.351428e-06 -0.023316894 2.5376407e-06 0.014998336 9.878864e-06
-0.01691054 -3.0496318e-05 0.0053538517 2.2413412e-06 0.01188787 1.3852469e-05 -0.0025927448 0.010423118
-8.332727e-06 0.005124867 -0.018555075 -7.7743977e-07 0.0010605697 -2.006983e-05 -0.015047743 -0.00018198293
00000000: 4c5f 8136 f74e 0bb7 41d9 2fb7 af62 cc3c
00000010: 0ecd 24b5 1cb0 a4bb 7911 3134 c237 1dba
00000020: 43cb 6336 5ca7 f636 689f 9fbb 6b90 b336
00000030: 1203 bfbc 564c 2a36 95bb 753c 66bd 2537
00000040: f987 8abc 58d2 ffb7 5d6f af3b f369 1636
00000050: 57c5 423c e767 6837 0aeb 29bb bac5 2a3c
00000060: cacc 0bb7 80ee a73b d000 98bc 41b1 50b5
00000070: d002 8b3a a25b a8b7 cf8a 76bc acd2 3eb9

dataset_embedding.weight f4 [16, 3]
0.34604988 -0.6120051 -0.25052622 0.4789903 0.3688984 -0.36317053 0.028684432 -0.39313376
0.2657841 0.2580993 0.48868614 0.1391822 0.18804038 0.49585924 0.49176252 0.3268599
-0.41951364 -0.019811997 -0.06309617 0.5583005 0.07992202 -0.54900295 0.5054004 -0.47666
-0.06455066 -0.53395134 0.4976386 0.0037973106 -0.009268927 0.48349857 0.7068646 -0.36758763
-0.1109467 -0.6277768 0.3258716 -0.18099998 -0.050282646 0.3414065 0.33010012 -0.44329086
0.27067894 0.2917066 0.4877387 0.33478567 -0.11618026 -0.40465286 0.48164552 0.59756047
00000000: 732d b13e 5eac 1cbf f944 80be 373e f53e
00000010: 40e0 bc3e 7df1 b9be 9dfb ea3c d448 c9be
00000020: db14 883e 9725 843e 1235 fa3e c785 0e3e
00000030: a88d 403e 43e1 fd3e 4cc8 fb3e 2e5a a73e
00000040: 7eca d6be c54c a2bc 9138 81bd c8ec 0e3f
00000050: 28ae a33d 758b 0cbf ec61 013f c80c f4be
00000060: 2333 84bd 09b1 08bf 7dca fe3e 4ddc 783b
00000070: b3dc 17bc 208d f73e 14f5 343f 7234 bcbe
00000080: 0638 e3bd fbb5 20bf a4d8 a63e 0f58 39be
00000090: 2df5 4dbd d5cc ae3e e202 a93e 05f7 e2be
000000a0: 6e96 8a3e 915a 953e e3b8 f93e 0769 ab3e
000000b0: ebef edbd a92e cfbe 3e9a f63e b9f9 183f

dataset_embedding.bias f4 [16]
-0.000572849 0.0057229362 0.0858391 0.15132558 0.072485864 -6.076897e-06 0.059379887 0.006640822
-0.015570873 8.926386e-06 0.01991753 -0.014348486 0.035414267 8.345267e-06 -1.3719996e-05 0.0023133054
00000000: 3f2b 16ba 7887 bb3b 69cc af3d 18f5 1a3e
00000010: 7873 943d 26e8 cbb6 5338 733d 419b d93b
00000020: fa1c 7fbc 89c2 1537 162a a33c ea15 6bbc
00000030: 8d0e 113d a602 0c37 ef2e 66b7 d39a 173b

tensor_network.0.weight f4 [16, 1]
-0.38623357 -0.07973787 0.38551265 0.009233976 0.7937742 0.57760566 0.07933125 -0.03589645
-0.10773124 -0.47923142 -0.13219395 0.5044293 2.7814555e-09 -0.15247543 0.12174106 0.27329415
00000000: 68c0 c5be 9c4d a3bd ea61 c53e 1a4a 173c
00000010: c934 4b3f f7dd 133f 6c78 a23d 2808 13bd
00000020: 32a2 dcbd d25d f5be da5d 07be 4722 013f
00000030: e223 3f31 8522 1cbe 6053 f93d 36ed 8b3e

tensor_network.0.bias f4 [16]
0.013056382 0.8105917 -0.14461516 0.5467194 -0.3712285 -0.93989867 0.003592727 -0.0010345187
-0.22207846 -0.45308253 0.6997444 0.46486193 -0.0036415914 0.1983406 0.0017135927 -0.6784306
00000000: 6fea 553c f082 4f3f ff15 14be cdf5 0b3f
00000010: a911 bebe 339d 70bf f573 6b3b b098 87ba
00000020: 8968 63be 6ffa e7be 7322 333f 6202 ee3e
00000030: c4a7 6ebb cc19 4b3e a19a e03a a1ad 2dbf

tensor_network.2.weight f4 [16]
0.9821947 1.0047508 0.9873757 0.99627846 0.9752647 1.0142045 0.95632315 0.617195
0.617195 0.617195 0.9895295 0.9970163 0.617195 0.9877531 0.97015846 0.96259946
00000000: 1d71 7b3f ad9b 803f a7c4 7c3f 1b0c 7f3f
00000010: f3aa 793f 74d1 813f 98d1 743f 7e00 1e3f
00000020: 7e00 1e3f 7e00 1e3f ce51 7d3f 763c 7f3f
00000030: 7e00 1e3f 63dd 7c3f 4e5c 783f eb6c 763f

tensor_network.2.bias f4 [16]
5.5902623e-05 -2.0602436e-05 -1.6650267e-05 3.3523756e-05 -2.9820267e-05 1.025871e-05 2.9054097e-05 1.7085753e-12
1.992686e-12 1.9769301e-12 1.6172688e-05 -5.6912602e-05 -5.018449e-13 -2.4765508e-05 -6.665342e-06 3.1348492e-05
00000000: fc78 6a38 65d3 acb7 2dac 8bb7 dc9b 0c38
00000010: 8926 fab7 d31c 2c37 33b9 f337 ea75 f02b
00000020: 0a39 0c2c 351d 0b2c 95aa 8737 71b5 6eb8
00000030: bc41 0dab 86bf cfb7 daa6 dfb6 307c 0338

tensor_network.2.running_mean f4 [16]
0.0062984093 0.4578778 175.37473 5.884719 361.1391 261.27536 36.988033 0.0
0.0 0.0 0.3543327 231.25917 0.0 0.09052756 56.39086 122.84549
00000000: e362 ce3b f66e ea3e ee5f 2f43 9e4f bc40
00000010: ce91 b443 3fa3 8243 bff3 1342 0000 0000
00000020: 0000 0000 0000 0000 186b b53e 5942 6743
00000030: 0000 0000 8366 b93d 3e90 6142 e4b0 f542

tensor_network.2.running_var f4 [16]
4.9218208e-05 0.14060807 275351.9 269.29443 1.167853e+06 612851.0 12240.617 1.0874244e-22
1.0874244e-22 1.0874244e-22 0.114283785 476469.4 1.0874244e-22 0.0101423375 28448.854 135742.2
00000000: a66f 4e38 90fb 0f3e fd72 8648 b0a5 8643
00000010: 688f 8e49 309f 1549 7842 3f46 2876 031b
00000020: 2876 031b 2876 031b 9e0d ea3d ada6 e848
00000030: 2876 031b 0c2c 263c b541 de46 8d8f 0448

worker_network.0.weight f4 [16, 1]
0.21075858 -0.0013191588 -0.2686143 6.6651865e-13 0.47607356 0.57445234 0.10091334 -0.10699457
0.06808188 0.072068356 0.44657087 0.1707457 0.36051407 0.046675652 0.48810178 -2.7139347e-05
00000000: 19d1 573e a0e7 acba d087 89be bb9b 3b2b
00000010: eabf f33e 4f0f 133f a7ab ce3d f81f dbbd
00000020: 836e 8b3d 9398 933d f0a4 e43e f6d7 2e3e
00000030: 4d95 b83e f82e 3f3d 7ae8 f93e 4ea9 e3b7

worker_network.0.bias f4 [16]
-0.3584352 -0.3702609 0.51478446 -1.1597949e-05 -0.19335505 0.53130513 0.2741447 -0.35159874
-0.695488 -0.43469733 0.10028204 0.0071392884 -0.048343956 -0.3376104 -0.96852845 -0.52691317
00000000: d284 b7be d692 bdbe eac8 033f d094 42b7
00000010: defe 45be 9d03 083f b25c 8c3e c004 b4be
00000020: 800b 32bf a690 debe ac60 cd3d b1f0 e93b
00000030: 5004 46bd 45db acbe 7bf1 77bf c8e3 06bf

worker_network.2.weight f4 [16]
0.9759494 0.617195 0.963914 0.617195 1.005285 0.9714782 0.99473387 0.617195
0.9850792 0.97300595 0.9937941 0.9758402 0.987259 1.0026428 0.9721711 0.617195
00000000: d2d7 793f 7e00 1e3f 11c3 763f 7e00 1e3f
00000010: 2ead 803f ccb2 783f e1a6 7e3f 7e00 1e3f
00000020: 272e 7c3f eb16 793f 4a69 7e3f aad0 793f
00000030: 01bd 7c3f 9956 803f 35e0 783f 7e00 1e3f

worker_network.2.bias f4 [16]
3.3417757e-05 8.138351e-13 1.1934894e-06 -7.1338297e-13 3.7070764e-05 6.8269383e-06 -2.6194868e-05 4.0994504e-14
-2.873858e-05 3.3245678e-06 -2.6805597e-05 8.654519e-06 2.4826868e-05 1.2047538e-05 1.6699898e-05 1.0922306e-12
00000000: 0b2a 0c38 0013 652b fc2f a035 a9cc 48ab
00000010: 6e7c 1b38 f412 e536 0dbd dbb7 729f 3829
00000020: a113 f1b7 a41b 5f36 95dc e0b7 e032 1137
00000030: 4b43 d037 c81f 4a37 c216 8c37 c1b7 992b

worker_network.2.running_mean f4 [16]
0.6521991 0.0 0.23507574 0.0 1.8129084 2.8647435 0.6911494 0.0
0.046615805 0.10443254 1.9162427 0.70567703 1.4294798 0.057533134 1.4357463 0.0
00000000: 85f6 263f 0000 0000 b2b7 703e 0000 0000
00000010: 620d e83f f557 3740 2bef 303f 0000 0000
00000020: 37f0 3e3d bae0 d53d 7147 f53f 40a7 343f
00000030: 32f9 b63f dda7 6b3d 89c6 b73f 0000 0000

worker_network.2.running_var f4 [16]
0.93358207 1.0874244e-22 0.06839197 1.0874244e-22 5.6893344 8.870589 0.2800205 1.0874244e-22
0.009669753 0.04853008 5.377398 0.7979744 3.4003031 0.014730747 4.8299108 1.0874244e-22
00000000: 3cff 6e3f 2876 031b 1711 8c3d 2876 031b
00000010: 070f b640 efed 0d41 d95e 8f3e 2876 031b
00000020: e26d 1e3c 7ac7 463d a513 ac40 0d48 4c3f
00000030: 919e 5940 3b59 713c a18e 9a40 2876 031b

batch_network.0.weight f4 [16, 1]
0.37514982 0.36003584 -0.011747816 0.68880606 -0.20041221 -0.16475189 0.7363365 -0.08559435
0.32026052 -0.47143653 0.003817522 0.59183407 0.35693893 -0.549564 0.5829178 -0.093825735
00000000: a313 c03e 9e56 b83e e979 40bc 9855 303f
00000010: dc38 4dbe b8b4 28be 8d80 3c3f 174c afbd
00000020: 30f9 a33e 2160 f1be 642f 7a3b 7082 173f
00000030: b3c0 b63e 3ab0 0cbf 1a3a 153f b527 c0bd

batch_network.0.bias f4 [16]
-0.33058017 0.008309325 0.9741651 -0.5026928 -0.38289225 -0.19014232 -0.69470245 -0.14779185
-0.56198436 0.44213986 0.5131197 -0.6056604 0.5309155 -0.39713463 -0.3054226 0.43131745
00000000: ce41 a9be d623 083c e262 793f 7ab0 00bf
00000010: 740a c4be abb4 42be 05d8 31bf bf56 17be
00000020: 35de 0fbf 2860 e23e d05b 033f 8f0c 1bbf
00000030: 14ea 073f 3b55 cbbe 5a60 9cbe a4d5 dc3e

batch_network.2.weight f4 [16]
0.9752384 0.99301237 1.1138784 0.9679465 0.617195 0.617195 0.9739002 0.617195
0.98853606 0.9552143 1.0010861 0.96334475 0.9482383 0.617195 0.95795304 0.95470154
00000000: 39a9 793f 0f36 7e3f 9193 8e3f 58cb 773f
00000010: 7e00 1e3f 7e00 1e3f 8651 793f 7e00 1e3f
00000020: b310 7d3f ed88 743f 9723 803f c39d 763f
00000030: bfbf 723f 7e00 1e3f 693c 753f 5267 743f

batch_network.2.bias f4 [16]
-2.9639172e-05 -9.15424e-06 5.3040385e-05 -1.7034676e-05 -5.825705e-13 5.100003e-12 -3.090811e-05 -4.647894e-12
-1.2102983e-05 2.6738799e-05 2.4518626e-05 -2.5424486e-05 -3.253661e-05 1.1850998e-12 -2.047801e-05 3.6806257e-05
00000000: a3a1 f8b7 2995 19b7 ae77 5e38 b0e5 8eb7
00000010: a1fa 23ab be70 b32c 55a3 01b8 8288 a3ac
00000020: eb0d 4bb7 224d e037 59ad cd37 ab46 d5b7
00000030: eb77 08b8 b8c9 a62b 31c8 abb7 6b60 1a38

batch_network.2.running_mean f4 [16]
130.94609 126.19921 0.68537474 239.78035 0.0 0.0 256.87512 0.0
110.799194 0.2436093 1.7807306 206.45433 125.64736 0.0 201.8925 0.2362102
00000000: 33f2 0243 ff65 fc42 b874 2f3f c5c7 6f43
00000010: 0000 0000 0000 0000 0470 8043 0000 0000
00000020: 3099 dd42 b774 793e fbee e33f 4f74 4e43
00000030: 734b fb42 0000 0000 7be4 4943 16e1 713e

batch_network.2.running_var f4 [16]
223988.39 207518.1 0.15805824 750988.6 1.0874244e-22 1.0874244e-22 862165.25 1.0874244e-22
160911.02 0.050518263 27.092766 556985.8 203987.16 1.0874244e-22 532481.06 0.04750315
00000000: 19bd 5a48 86a7 4a48 05da 213e ca58 3749
00000010: 2876 031b 2876 031b 547d 5249 2876 031b
00000020: c123 1d48 3dec 4e3d fcbd d841 9dfb 0749
00000030: ca34 4748 2876 031b 1100 0249 aa92 423d

ps_network.0.weight f4 [8, 1]
-0.1504834 -0.41342595 0.10055735 -0.09852019 -0.5448126 -0.12847175 0.347584 -0.20036547
00000000: 5218 1abe 91ac d3be 03f1 cd3d f4c4 c9bd
00000010: d778 0bbf 198e 03be 88f6 b13e 9b2c 4dbe

ps_network.0.bias f4 [8]
0.1484123 -0.3021646 0.6104882 0.6048499 -0.013338097 -0.51807034 0.05644119 0.584299
00000000: 65f9 173e 52b5 9abe f448 1c3f 71d7 1a3f
00000010: 0988 5abc 42a0 04bf e12e 673d 9f94 153f

ps_network.2.weight f4 [8]
0.9866699 0.617195 0.9435824 0.9618733 0.6171951 0.617195 0.9958816 0.9802825
00000000: 6696 7c3f 7e00 1e3f 9e8e 713f 543d 763f
00000010: 8000 1e3f 7e00 1e3f 19f2 7e3f cbf3 7a3f

ps_network.2.bias f4 [8]
-1.984611e-05 -8.760796e-13 -1.726962e-05 -3.605221e-05 -8.181453e-12 1.7478297e-12 -3.8836597e-06 -1.4748397e-05
00000000: 327b a6b7 3098 76ab 3ade 90b7 c436 17b8
00000010: fded 0fad 34fc f52b 6250 82b6 e26f 77b7

ps_network.2.running_mean f4 [8]
0.080282606 0.0 0.66061586 0.5633237 1.8072925e-21 0.0 0.21713278 0.49716914
00000000: 356b a43d 0000 0000 1f1e 293f fb35 103f
00000010: 1f8e 081d 0000 0000 0e58 5e3e f48c fe3e

ps_network.2.running_var f4 [8]
0.005481546 1.0874244e-22 0.002632429 0.002565369 1.0874272e-22 1.0874244e-22 0.031286918 0.010270248
00000000: 8a9e b33b 2876 031b d484 2c3b c01f 283b
00000010: 3e76 031b 2876 031b b626 003d 8b44 283c

main_network.0.weight f4 [128, 104]
0.007858827 0.012805691 0.03350452 -0.03049151 -0.11486946 0.008034469 -0.08308408 -0.04595623
0.020228716 0.09500952 -0.07399615 0.062567346 -0.07679928 0.013115722 -0.047362763 -0.028985368
0.013611461 -0.0059467144 -0.047788028 0.04038758 -0.056791995 0.07645225 -0.031921584 0.05718413
-0.10423117 -0.07008103 -0.026504938 -0.0860695 -0.017463837 0.025403164 -0.011546988 -0.05052269
-0.032639522 0.057903383 0.10051195 -0.11052829 -0.10121314 0.076988675 -0.1296534 -0.03704172
0.10595316 -0.09854398 0.019687792 0.041510954 0.02631978 -0.07195526 -0.008647998 -0.04170911
0.040387217 -0.015749492 -0.03615054 0.035552137 -0.061297026 0.008113657 -0.04431227 4.770264e-14
2.364566e-13 1.1212762e-12 0.038269076 -0.06682431 -5.6289e-14 -0.018519135 0.027643794 0.026675422
-0.04477562 2.6451721e-14 0.072560474 -6.1837487e-13 -0.06970481 -0.030723358 0.07113356 -9.121475e-11
0.08753505 -0.017590111 -0.024248619 -0.0621686 0.025843978 0.02100366 -0.09800402 -4.2546272e-13
-0.07701346 -0.045197763 0.046296526 0.044387735 -4.474973e-11 -1.0504509e-10 -0.1243905 1.2804715e-12
-0.08558294 -0.022801511 -0.04613952 -0.11826185 -0.017414507 -6.734386e-13 -0.08589688 0.00012313302
0.06174574 -1.2017612e-12 -0.07658849 -0.0019837487 -3.1338658e-09 6.2741945e-13 -0.0045918496 0.067404605
0.0018344872 -0.023513269 0.08572676 0.014540716 -0.02614729 0.09619876 0.05832389 -0.04725282
0.07067025 0.04902768 0.05063974 0.017797437 -0.0602574 0.010974512 -0.064557135 -0.008256581
-0.054999895 0.016128728 -0.03898104 0.08441306 0.11664552 0.014835833 -0.043414548 0.017751513
-0.07820086 0.057297178 0.004119809 0.08742356 0.033776272 0.004213089 -0.0021754326 0.030738637
0.09562399 0.08670589 0.041121364 -0.03911414 -0.09236381 0.07557679 -0.062139276 -0.03179597
0.039217427 0.06417378 0.066649854 -0.09820149 -0.0020927729 -0.066406935 0.03261376 -0.03519128
0.080227904 -0.07318153 -0.0040912437 -0.029560598 0.0034354785 -0.021888738 0.03234965 8.015033e-09
4.3960816e-12 -6.663419e-16 -0.07211019 0.022816861 3.6369215e-13 0.0665587 0.075285025 0.052022204
-0.024139985 -2.7655072e-12 0.10418926 7.9419476e-14 -0.08959429 -0.008461819 0.042499773 -3.0988585e-13
0.028959591 -0.048600893 -0.08157775 0.056551572 -0.0058046347 -0.0117413625 -0.03240917 9.748438e-10
-0.07870961 -0.05575767 0.036336154 0.04231694 1.1247051e-12 -3.1978532e-13 7.216843e-05 4.274146e-12
-0.052592922 0.07793859 -0.08863124 -0.005380876 -0.0148721775 6.1817092e-12 0.04543333 -0.08838685
-0.011702516 -1.0452253e-10 0.085903406 -0.027939856 -4.0681587e-11 -2.2010575e-12 -0.04244263 -0.021198515
-0.10734192 0.055514477 0.005358184 0.081240386 -0.13062866 0.064296536 0.04540037 -0.08332278
0.08668402 -0.023290085 -0.056816358 -0.050372876 -0.13286513 -0.021136355 -0.0065515577 0.10362791
0.07199161 -0.045411423 0.028023563 0.046480205 0.00363628 0.014162416 -0.10208175 -0.033669446
-0.07383353 -0.04539825 0.055935457 -0.07968513 -0.0750722 0.084098406 -0.010100377 0.07133158
-0.022954343 -0.09304982 0.09492872 0.060132906 -0.053139705 0.009320785 -0.04335625 -0.01882244
-0.020989964 0.028273238 -0.032968566 -0.11800812 0.046250436 -0.014756868 0.03686724 0.007591973
00000000: 4fc2 003c f6ce 513c 093c 093d 55c9 f9bc
00000010: ae40 ebbd 01a3 033c fc27 aabd 9a3c 3cbd
00000020: b1b6 a53c 5a94 c23d 4b8b 97bd 4f23 803d
00000030: f148 9dbd 53e3 563c 75ff 41bd b972 edbc
00000040: 9b02 5f3c a8dc c2bb 61bd 43bd 726d 253d
00000050: b99e 68bd ff92 9c3d 35c0 02bd e839 6a3d
00000060: 2777 d5bd a586 8fbd e220 d9bc 3545 b0bd
00000070: 5210 8fbc 4c1a d03c 942f 3dbc e1f0 4ebd
00000080: 05b1 05bd 192c 6d3d 36d9 cd3d a85c e2bd
00000090: d648 cfbd 3dac 9d3d dcc3 04be 0fb9 17bd
000000a0: f8fd d83d 6dd1 c9bd 4b48 a13c 6407 2a3d
000000b0: 949c d73c 485d 93bd 55b0 0dbc 2cd7 2abd
000000c0: 116d 253d 1405 81bc 9712 14bd 1e9f 113d
000000d0: 9712 7bbd 25ef 043c c880 35bd 66d5 5629
000000e0: fd1c 852a 3cce 9d2b 09c0 1c3d 2fdb 88bd
000000f0: cc80 7da9 71b5 97bc 3d75 e23c 6a86 da3c
00000100: a466 37bd 8441 ee28 969a 943d 9b0e 2eab
00000110: 65c1 8ebd 8daf fbbc 79ae 913d 5795 c8ae
00000120: 9445 b33d 2319 90bc 0aa5 c6bc 80a4 7ebd
00000130: c0b6 d33c de0f ac3c 55b6 c8bd a483 efaa
00000140: 3cb9 9dbd 4a21 39bd 6da1 3d3d eacf 353d
00000150: b8cf 44ae 21ff e6ae 72c0 febd d935 b42b
00000160: 1c46 afbd 3cca babc cbfc 3cbd 4533 f2bd
00000170: dea8 8ebc 5e8e 3dab b4ea afbd 451d 0139
00000180: 1ae9 7c3d 0322 a9ab 6dda 9cbd c801 02bb
00000190: 8d5b 57b1 569a 302b 3a77 96bb 6d0b 8a3d
000001a0: 2d73 f03a e69e c0bc 8391 af3d 2f3c 6e3c
000001b0: d732 d6bc db03 c53d 08e5 6e3d 2c8c 41bd
000001c0: 90bb 903d 40d1 483d 9e6b 4f3d eecb 913c
000001d0: 77d0 76bd 71ce 333c 8836 84bd 9c46 07bc
000001e0: 9247 61bd 6520 843c 95aa 1fbd c1e0 ac3d
000001f0: d9e3 ee3d fe11 733c 74d3 31bd 9f6b 913c
00000200: c627 a0bd 72b0 6a3d 76ff 863b 200b b33d
00000210: fd58 0a3d f40d 8a3b b491 0ebb 98cf fb3c
00000220: 83d6 c33d dc92 b13d e06e 283d 2636 20bd
00000230: 3d29 bdbd 01c8 9a3d c185 7ebd 7e3c 02bd
00000240: 74a2 203d 8b6d 833d b87f 883d dd1d c9bd
00000250: e726 09bb 5c00 88bd 0296 053d bb24 10bd
00000260: 874e a43d 33e0 95bd d70f 86bb 1129 f2bc
00000270: c425 613b 0350 b3bc 1181 043d 7db2 0932
00000280: 62ac 9a2c 5b0f 40a6 82ae 93bd 6dea ba3c
00000290: 90bd cc2a ed4f 883d 092f 9a3d 3c15 553d
000002a0: 38c1 c5bc f39a 42ac 2e61 d53d 36d6 b229
000002b0: 367d b7bd 71a3 0abc 3e14 2e3d 4273 aeaa
000002c0: aa3c ed3c bb11 47bd 3c12 a7bd 9fa2 673d
000002d0: ce34 bebb d85e 40bc 7abf 04bd 44fb 8530
000002e0: 8132 a1bd 2862 64bd 38d5 143d 8754 2d3d
000002f0: c649 9e2b ec05 b4aa 2159 9738 1662 962c
00000300: ad6b 57bd 449e 9f3d 4c84 b5bd 0f52 b0bb
00000310: 6faa 73bc e37f d92c 4d18 3a3d 2a04 b5bd
00000320: e9bb 3fbc f4d8 e5ae 20ee af3d 20e2 e4bc
00000330: 65eb 32ae bae2 1aac 53d8 2dbd 82a8 adbc
00000340: 15d6 dbbd 2663 633d b593 af3b 5c61 a63d
00000350: 85c3 05be e7ad 833d bdf5 393d 22a5 aabd
00000360: 6487 b13d d9ca bebc 45b8 68bd ca53 4ebd
00000370: cc0d 08be 2626 adbc 73ae d6bb df3a d43d
00000380: 5670 933d 5401 3abd ac91 e53c 0762 3e3d
00000390: a84e 6e3b 7a09 683c 3d10 d1bd f9e8 09bd
000003a0: 0936 97bd 84f3 39bd 941c 653d f531 a3bd
000003b0: 74bf 99bd c93b ac3d 0d7c 25bc 4b16 923d
000003c0: bf0a bcbc e790 bebd fd69 c23d ec4d 763d
000003d0: 05a9 59bd 35b6 183c 5396 31bd 8531 9abc
000003e0: 25f3 abbc 479d e73c 0c0a 07bd 3eae f1bd
000003f0: 1971 3d3d cac6 71bc 1a02 173d 16c6 f83b

main_network.0.bias f4 [128]
1.1475306e-05 3.447079e-06 3.6840052e-06 1.1450534e-06 -1.0105651e-05 -3.4198931e-06 3.639164e-06 -1.7160313e-06
3.903691e-06 6.9630033e-07 1.1622009e-06 -2.673724e-06 6.4114964e-08 3.913006e-06 4.851693e-08 -9.306564e-06
3.0254487e-06 2.9861858e-06 7.5255302e-06 -5.712432e-06 -3.141674e-06 2.7517808e-06 1.4860426e-05 -3.847663e-06
1.771193e-06 5.1892912e-05 2.8025664e-07 7.557415e-07 -1.053203e-06 2.5409902e-06 2.1353446e-06 2.185948e-06
8.648982e-06 -1.6976248e-05 5.8835412e-06 -4.0404034e-06 -6.967876e-05 6.426311e-06 6.8550294e-06 -3.0845047e-06
-9.823646e-06 4.075588e-06 -2.5384686e-06 -6.5544928e-06 -7.4683344e-06 -7.907846e-07 1.6505484e-06 -2.233103e-07
5.5980254e-06 -1.934297e-08 -1.2070166e-05 -5.81306e-06 -3.932336e-06 -6.268992e-06 -1.9786721e-06 -4.0432446e-06
4.8649895e-06 2.3654764e-05 3.7687987e-06 -3.0349018e-05 -1.8945575e-05 1.0385851e-06 -4.560248e-06 -6.846097e-07
-1.9688982e-06 -1.4509372e-07 4.3278956e-06 -6.22525e-06 -4.5472072e-05 -6.1272857e-07 4.6891273e-06 1.5802829e-06
-4.3171663e-06 1.2222472e-05 -4.2700976e-06 2.85831e-05 4.209221e-06 8.426175e-06 6.5277327e-06 -1.5792686e-05
-7.779748e-06 -1.0423289e-05 -3.2558535e-06 -3.1524332e-06 -5.726463e-06 -1.7286048e-06 8.639587e-06 8.310032e-06
-7.620874e-06 -6.0573566e-06 1.3985256e-06 -7.322491e-08 -1.066377e-06 -1.8370288e-06 -9.094579e-07 1.8242095e-05
-7.032372e-06 1.4488392e-06 1.700863e-05 1.5614143e-06 2.4396004e-06 2.9447806e-06 3.0092139e-07 -8.3028937e-07
-7.917801e-06 -5.384644e-06 5.2663445e-06 -2.598464e-06 3.381754e-06 -4.6487762e-07 1.3078838e-08 -2.0203755e-05
3.872356e-06 -1.21526455e-05 3.6104313e-06 -6.517992e-07 2.334959e-06 -1.1408755e-05 -2.2860258e-05 -4.3697358e-07
1.0688575e-05 1.300579e-06 2.792121e-06 -1.2959835e-06 -1.0901634e-06 -1.0907511e-05 -7.169035e-07 -5.450429e-06
00000000: 1086 4037 5e54 6736 ba3a 7736 bcaf 9935
00000010: 718b 29b7 5181 65b6 5d38 7436 6352 e6b5
00000020: 73fc 8236 65e9 3a35 ebfc 9b35 3b6e 33b6
00000030: 93af 8933 774c 8336 ee60 5033 6323 1cb7
00000040: d008 4b36 4866 4836 d083 fc36 6bad bfb6
00000050: 8cd5 52b6 3cab 3836 0b51 7937 2c1b 81b6
00000060: bab9 ed35 97a7 5938 2e76 9634 29de 4a35
00000070: c85b 8db5 e185 2a36 f14c 0f36 4db2 1236
00000080: 181b 1137 3768 8eb7 3c6b c536 cd92 87b6
00000090: 8020 92b8 97a1 d736 4104 e636 63ff 4eb6
000000a0: 3dd0 24b7 09c1 8836 8f5a 2ab6 aaee dbb6
000000b0: 8198 fab6 4e46 54b5 6988 dd35 11c7 6fb4
000000c0: acd6 bb36 a427 a6b2 f880 4ab7 ce0d c3b6
000000d0: 82f2 83b6 3b5a d2b6 54c9 04b6 35ab 87b6
000000e0: f13d a336 386e c637 78eb 7c36 0596 feb7
000000f0: 50ed 9eb7 8365 8b35 3b04 99b6 05c6 37b5
00000100: 6a21 04b6 0fcb 1bb4 5738 9136 7ee2 d0b6
00000110: 44b9 3eb8 637a 24b5 4c57 9d36 1b1a d435
00000120: 2ddc 90b6 1e0f 4d37 dc47 8fb6 bdc5 ef37
00000130: ef3c 8d36 255e 0d37 cc08 db36 897a 84b7
00000140: c385 02b7 afdf 2eb7 237f 5ab6 648e 53b6
00000150: f125 c0b6 6902 e8b5 bef2 1037 516b 0b37
00000160: cfb6 ffb6 4c40 cbb6 f9b4 bb35 d23f 9db3
00000170: 6f20 8fb5 d48f f6b5 7921 74b5 9a06 9937
00000180: 9ef7 ebb6 bc75 c235 c1ad 8e37 c991 d135
00000190: 04b8 2336 f29e 4536 528e a134 0de1 5eb5
000001a0: b2d6 04b7 bdad b4b6 8eb5 b036 4661 2eb6
000001b0: 17f2 6236 4b94 f9b4 56b1 6032 3c7b a9b7
000001c0: 49ef 8136 37e3 4bb7 bd4a 7236 4df7 2eb5
000001d0: 4ab2 1c36 3b68 3fb7 08c4 bfb7 3199 eab4
000001e0: 1453 3337 8e8f ae35 4660 3b36 a7f1 adb5
000001f0: bb51 92b5 67ff 36b7 3c71 40b5 d4e2 b6b6

main_network.1.weight f4 [128]
0.9807081 1.0234629 0.99807197 1.0572884 1.0609845 0.95929164 1.0289615 0.9544238
0.984253 0.95281094 0.9660465 0.9672951 0.9654223 1.0464655 0.98057234 1.0013131
1.0737197 0.9705725 1.0521932 0.98327214 0.96436006 1.0339305 1.0261552 0.9846603
0.9923271 1.0885837 1.0340428 0.9825128 0.9481394 0.9459643 1.1007072 1.0213265
1.0327619 1.0906811 0.98351985 1.0491301 1.0361707 0.9699823 0.9618938 0.9608662
1.0209173 0.9662327 1.0585195 1.0797638 1.0293925 0.98187757 1.0020001 1.120369
0.9960804 0.9644605 0.9957091 1.0104654 0.967843 0.9463879 0.9891191 0.95584756
0.9641016 1.007053 0.9811538 1.0692345 1.012725 0.97625846 0.9655324 1.0436594
0.9882685 1.0498345 0.94904625 0.9857576 1.0363352 1.0657082 0.96362895 0.93956417
0.9510626 0.96701616 1.0741022 1.0010196 0.9889279 1.0516 1.0026294 1.082696
0.96278644 0.97973615 0.97136205 0.956416 1.0038816 1.0177819 0.98613024 1.027928
0.9779142 0.9960196 0.95858747 0.99522674 0.9649272 0.97667843 0.97377604 0.9897027
1.0190834 0.9631896 0.9989654 1.0427028 1.0111644 0.9822527 0.96380115 0.9716358
1.00778 0.9677304 0.9769749 0.9724466 1.0051633 0.9225017 0.94838476 1.0005957
1.0126247 1.1553528 0.9901309 0.97813463 0.9976974 0.9963284 0.977623 0.9909102
1.0231568 1.0105411 1.0006273 0.9561887 0.9732633 0.9842503 0.97255504 0.97269696
00000000: b00f 7b3f d500 833f a581 7f3f 3a55 873f
00000010: 57ce 873f 2394 753f 03b5 833f 1e55 743f
00000020: 01f8 7b3f 6beb 733f d34e 773f a7a0 773f
00000030: ea25 773f 95f2 853f ca06 7b3f 072b 803f
00000040: a66f 893f 7077 783f 44ae 863f b9b7 7b3f
00000050: 4de0 763f d657 843f 0e59 833f b312 7c3f
00000060: 2609 7e3f b656 8b3f 845b 843f f585 7b3f
00000070: 44b9 723f b72a 723f f9e3 8c3f d4ba 823f
00000080: 8b31 843f 709b 8b3f f5c7 7b3f e549 863f
00000090: 3ea1 843f c350 783f ac3e 763f 54fb 753f
000000a0: 6bad 823f 075b 773f 917d 873f b335 8a3f
000000b0: 22c3 833f 545c 7b3f 8a41 803f 4068 8f3f
000000c0: 20ff 7e3f e2e6 763f cbe6 7e3f ee56 813f
000000d0: 8fc4 773f 7a46 723f e936 7d3f 6db2 743f
000000e0: 5dcf 763f 1de7 803f e52c 7b3f addc 883f
000000f0: f9a0 813f 13ec 793f 222d 773f a296 853f
00000100: 2aff 7c3f fa60 863f b2f4 723f 9c5a 7c3f
00000110: a2a6 843f 2069 883f 63b0 763f 4787 703f
00000120: d778 733f 5f8e 773f 2e7c 893f 6921 803f
00000130: 612a 7d3f d49a 863f 2956 803f c895 8a3f
00000140: 2c79 763f fdcf 7a3f 2fab 783f aed7 743f
00000150: 317f 803f ad46 823f 0873 7c3f 2593 833f
00000160: 9658 7a3f 24fb 7e3f fd65 753f 2ec7 7e3f
00000170: 7805 773f 9907 7a3f 6349 793f 285d 7d3f
00000180: 5371 823f 9893 763f 32bc 7f3f 4977 853f
00000190: d66d 813f ea74 7b3f acbb 763f 20bd 783f
000001a0: effe 803f 2ebd 773f 071b 7a3f 43f2 783f
000001b0: 31a9 803f 1229 6c3f 58c9 723f 8513 803f
000001c0: b09d 813f 9ae2 933f 3879 7d3f 0867 7a3f
000001d0: 1969 7f3f 610f 7f3f 8045 7a3f 4aac 7d3f
000001e0: cdf6 823f 6959 813f 8e14 803f c8c8 743f
000001f0: c927 793f d4f7 7b3f 5ef9 783f ab02 793f

main_network.1.bias f4 [128]
-0.015901923 0.012411054 -0.015153921 -0.0015298638 0.035804294 -0.03456086 0.037739035 -0.04439329
-0.014344476 -0.06419825 -0.013662212 -0.01585628 -0.0056950324 0.034783714 -0.029857997 0.011913951
0.053449877 -0.0128908 0.031763624 -0.017422631 -0.024155134 0.018948182 0.019592455 -0.011716168
0.026630426 0.026848262 0.006555719 0.000716007 -0.047122266 -0.07070276 0.08457613 0.0069423756
0.028101886 0.07919623 0.0077073905 0.035563737 0.014239428 -0.00054868445 -0.01684023 -0.0449055
-0.010355291 -0.04788176 0.025089402 0.050053343 -0.012624048 -0.027272772 0.0016103329 0.06184145
0.00070818857 -0.030013207 -0.020790195 -0.042440664 -0.0061482866 -0.04121017 -0.004579244 -0.043497823
-0.026976347 -0.0075824154 -0.010500773 -0.00091513427 0.050965328 -0.025527393 -0.027823389 0.016201422
0.014789424 0.014193789 -0.024728566 -0.026282081 0.025500283 0.04546226 -0.04510964 -0.060268134
-0.033048797 0.011282274 0.050516933 -0.016897244 -0.009885703 -0.003931749 0.055750825 0.046659328
-0.0384906 -0.0038761343 -0.01834148 -0.03347357 0.034226354 0.046959225 0.0015832754 0.012934825
-0.021827843 0.01168611 -0.026458077 -0.010108885 -0.043012224 -0.0024601077 -0.04007885 -0.013609078
0.028116388 -0.028006861 -0.008982472 0.011788205 -0.023174446 -0.008067539 -0.008754627 -0.025919668
0.044154275 -0.022326073 -0.016753355 -0.039738752 -0.008182011 -0.06118505 -0.046549644 -0.014876986
0.016985636 0.102704 -0.024055438 0.002914094 0.058128413 -0.019118037 0.003186738 -0.011574299
0.031479727 -0.018635599 -0.014001253 -0.042192414 -0.00796955 -0.0046364744 -0.034567706 -0.03674511
00000000: c044 82bc bc57 4b3c 2748 78bc b685 c8ba
00000010: 86a7 123d b08f 0dbd 3f94 1a3d bdd5 35bd
00000020: 1805 6bbc 5f7a 83bd 78d7 5fbc 08e5 81bc
00000030: 659d babb 5e79 0e3d c298 f4bc bb32 433c
00000040: 42ee 5a3d ef33 53bc 931a 023d e8b9 8ebc
00000050: fde0 c5bc 3839 9b3c 5b80 a03c 2cf5 3fbc
00000060: 0d28 da3c e3f0 db3c 5bd1 d63b 6bb2 3b3a
00000070: 4703 41bd 9ccc 90bd 4036 ad3d de7c e33b
00000080: ed35 e63c a231 a23d 478e fc3b 48ab 113d
00000090: 7d4c 693c 97d5 0fba 86f4 89bc d4ee 37bd
000000a0: 3da9 29bc aa1f 44bd 4a88 cd3c bc04 4d3d
000000b0: 18d5 4ebc 266b dfbc ce11 d33a 764d 7d3d
000000c0: bba5 393a 42de f5bc 3350 aabc 43d6 2dbd
000000d0: 9177 c9bb ffcb 28bd 7c0d 96bb c62a 32bd
000000e0: 80fd dcbc e975 f8bb 6f0b 2cbc 9fe5 6fba
000000f0: 05c1 503d d31e d1bc e0ed e3bc d8b8 843c
00000100: 574f 723c 118d 683c 9093 cabc 854d d7bc
00000110: f8e5 d03c a236 3a3d e3c4 38bd b8db 76bd
00000120: 2d5e 07bd 49d9 383c d8ea 4e3d 176c 8abc
00000130: a5f7 21bc e7d5 80bb fa5a 643d da1d 3f3d
00000140: 52a8 1dbd be06 7ebb df40 96bc 951b 09bd
00000150: ef30 0c3d 5158 403d e885 cf3a 97ec 533c
00000160: 4ed0 b2bc 1977 3f3c 9cbe d8bc bd9f 25bc
00000170: 962d 30bd c239 21bb b829 24bd 9cf8 5ebc
00000180: 5754 e63c a56e e5bc 382b 13bc 5123 413c
00000190: 56d8 bdbc b62d 04bc 916f 0fbc 7c55 d4bc
000001a0: 1ddb 343d 2be5 b6bc 553e 89bc 1ac5 22bd
000001b0: d70d 06bc 2d9d 7abd d7aa 3ebd 9abe 73bc
000001c0: 7625 8b3c 7a56 d23d e90f c5bc 62fa 3e3b
000001d0: 0f18 6e3d 6e9d 9cbc 97d8 503b 21a2 3dbc
000001e0: e3f0 003d afa9 98bc 8365 65bc f4d1 2cbd
000001f0: b792 02bc 91ed 97bb de96 0dbd 0a82 16bd

main_network.1.running_mean f4 [128]
-0.11242679 0.005529149 0.02422783 0.04870133 0.012666152 -0.030103251 -0.044412434 0.045582563
-0.09090484 0.0286276 -0.11141994 -0.011856929 0.01938541 0.025321705 0.016796373 0.10876344
-0.010029753 -0.006457699 0.089628756 -0.012671112 -0.0011824368 0.019283284 0.03356683 -0.13533305
-0.18845575 0.02030164 0.018696073 0.058343597 0.0076925647 -0.012589065 0.074419014 0.0070427675
-0.041612767 0.020036217 -0.06586248 -0.005749501 0.12739116 -0.03331247 0.014597362 -0.0902013
0.03813894 -0.008680979 0.037156187 0.0025792564 0.009890121 -0.036540937 0.058299534 0.0025976861
0.07117155 0.06902018 -0.018768808 0.0030793226 -0.002256502 0.10441485 0.0017203005 0.048799854
-0.002313787 0.055160616 0.011367285 0.027380677 -0.103504054 0.0578352 -0.019964678 0.13548225
-0.2510999 0.035565447 -0.08795041 -0.014321102 -0.031656962 0.05437324 -0.07703985 0.06070369
-0.02649237 -0.032737456 0.04307057 0.11438991 0.08602498 -0.050881635 0.010841164 -0.009971341
-0.0191985 -0.06693494 0.13421126 -0.087192975 -0.023515712 -0.0750144 0.05421467 0.084645204
0.044852886 -0.018216057 -0.069303505 -0.00037253866 -0.08629561 -0.05073793 0.046819855 -0.00866442
-0.0975206 0.014856079 -0.04912849 0.028926715 0.0756286 -0.038174145 -0.02738405 -0.009436578
-0.03211348 0.05226333 -0.05553084 0.16792011 -0.013542682 -0.044064607 -0.07605874 0.043963123
0.030455966 0.025610264 -0.017831136 -0.062249675 -0.03090432 0.004102571 -0.04814461 -0.0071479753
0.14247537 -0.064961486 -0.020966228 0.028785571 0.049702086 0.14505085 0.027892122 0.000927571
00000000: 0440 e6bd dd2d b53b 7179 c63c 0c7b 473d
00000010: b185 4f3c 189b f6bc d0e9 35bd c8b4 3a3d
00000020: 512c babd 6e84 ea3c 2330 e4bd 9143 42bc
00000030: 27ce 9e3c 776f cf3c 8c98 893c 5ebf de3d
00000040: d553 24bc 1b9b d3bb 488f b73d 7f9a 4fbc
00000050: fffb 9aba faf7 9d3c 5f7d 093d bf94 0abe
00000060: 8bfa 40be a04f a63c 8228 993c b2f9 6e3d
00000070: e911 fc3b 5e42 4ebc ff68 983d 04c7 e63b
00000080: 2672 2abd fe22 a43c e8e2 86bd 4f66 bcbb
00000090: d472 023e a872 08bd c629 6f3c 76bb b8bd
000000a0: 9437 1c3d aa3a 0ebc 1631 183d be08 293b
000000b0: 2d0a 223c f3ab 15bd 7ecb 6e3d f13d 2a3b
000000c0: 64c2 913d 745a 8d3d 0bc1 99bc 76ce 493b
000000d0: d2e1 13bb 74d7 d53d b57b e13a 5be2 473d
000000e0: e7a2 17bb 19f0 613d d93d 3a3c 714d e03c
000000f0: eff9 d3bd 9ae4 6c3d f78c a3bc dcbb 0a3e
00000100: 2b90 80be 13ad 113d 581f b4bd 0ea3 6abc
00000110: bbaa 01bd 79b6 5e3d 12c7 9dbd 6fa4 783d
00000120: 8706 d9bc b617 06bd c46a 303d 4245 ea3d
00000130: dd2d b03d 4369 50bd 239f 313c d65e 23bc
00000140: 2c46 9dbc 3015 89bd ad6e 093e 3b92 b2bd
00000150: 06a4 c0bc 26a1 99bd 3410 5e3d 775a ad3d
00000160: a9b7 373d d739 95bc ffee 8dbd 4b51 c3b9
00000170: c1bb b0bd 93d2 4fbd 2dc6 3f3d 36f5 0dbc
00000180: e1b8 c7bd e966 733c f53a 49bd b8f7 ec3c
00000190: 2be3 9a3d 7e5c 1cbd 8454 e0bc e09b 1abc
000001a0: 6d89 03bd 1312 563d 4e74 63bd 40f3 2b3e
000001b0: 20e2 5dbc 177d 34bd afc4 9bbd ad12 343d
000001c0: ca7e f93c 9ecc d13c 9a12 92bc 84f9 7ebd
000001d0: 0e2b fdbc dc6e 863b 4833 45bd 9039 eabb
000001e0: 10e5 113e 870a 85bd 5ec1 abbc b8cf eb3c
000001f0: 6a94 4b3d 3688 143e 057e e43c 3c28 733a

main_network.1.running_var f4 [128]
0.46513057 0.19405833 0.28618425 0.20661177 0.17385311 0.28629723 0.32879257 0.37488797
0.3954486 0.39951563 0.19434331 0.28620434 0.87453663 0.104180194 0.1482612 0.43704915
0.15516776 0.3357108 0.3538864 0.2717103 0.39152527 0.15143122 0.20780742 0.20205389
0.2596827 0.05063526 0.25099102 0.41616616 0.31867912 0.37015042 0.20506933 0.31364214
0.32141733 0.3663004 0.46139586 0.09696042 0.07931872 0.24723713 0.19137669 0.32011864
0.16017027 0.44422 0.20710613 0.09961945 0.15705366 0.13508324 0.32002115 0.2799577
0.23248251 0.42622492 0.24963716 0.23542784 0.3315187 0.14810842 0.20610371 0.25697216
0.43133286 0.14681669 0.35815173 0.10438094 0.16478145 0.49504736 0.13917735 0.26830932
0.42454872 0.341771 0.21154654 0.36142415 0.09410691 0.33582088 0.57897925 0.24959278
0.59549916 0.18560977 0.10290645 0.065267324 0.39947549 0.12919518 0.20188448 0.35348278
0.0916559 0.20021285 0.3597573 0.2681371 0.12820643 0.32580537 0.3437194 0.24994107
0.1997314 0.42604974 0.3594702 0.26713154 0.32261613 0.27466738 0.1526256 0.22794175
0.12912047 0.62112415 0.039614867 0.23458655 0.27522123 0.6811118 0.11323885 0.27037546
0.24116927 0.07677724 0.33516175 0.2578037 0.15814634 0.4347937 0.3017339 0.13058622
0.14915887 0.15454745 0.28287423 0.33036658 0.22007616 0.28971052 0.13345966 0.20614503
0.5964158 0.17697549 0.24557096 0.6439811 0.7812775 0.13921015 0.37692595 0.117342904
00000000: 9825 ee3e 3ab7 463e be86 923e 0992 533e
00000010: 8d06 323e 8d95 923e 8057 a83e 51f1 bf3e
00000020: 3d78 ca3e 508d cc3e ef01 473e 6089 923e
00000030: a2e1 5f3f 6d5c d53d c9d1 173e e8c4 df3e
00000040: 4ce4 1e3e 49e2 ab3e 9930 b53e 9d1d 8b3e
00000050: 0076 c83e c910 1b3e 78cb 543e 37e7 4e3e
00000060: 21f5 843e eb66 4f3d e581 803e bb13 d53e
00000070: e929 a33e 5b84 bd3e b2fd 513e b495 a03e
00000080: d090 a43e ba8b bb3e 143c ec3e 2f93 c63d
00000090: da71 a23d bb2b 7d3e 40f8 433e 97e6 a33e
000000a0: ad03 243e ce70 e33e a113 543e 4805 cc3d
000000b0: add2 203e 4353 0a3e d0d9 a33e 9e56 8f3e
000000c0: e50f 6e3e 273a da3e e2a0 7f3e ff13 713e
000000d0: d2bc a93e bca9 173e da0c 533e db91 833e
000000e0: a9d7 dc3e 1d57 163e aa5f b73e adc5 d53d
000000f0: 78bc 283e d976 fd3e 8284 0e3e d75f 893e
00000100: 735e d93e 9cfc ae3e a89f 583e 960c b93e
00000110: 20bb c03d b7f0 ab3e fc37 143f 4095 7f3e
00000120: a272 183f 7d10 3e3e 9ec0 d23d e0aa 853d
00000130: 0d88 cc3e be4b 043e ceba 4e3e b2fb b43e
00000140: 17b6 bb3d 9904 4d3e 1c32 b83e 4449 893e
00000150: 8c48 033e f6cf a63e fdfb af3e 8df0 7f3e
00000160: 6386 4c3e 3123 da3e 7a0c b83e 77c5 883e
00000170: f12d a53e 34a1 8c3e e349 1c3e 9069 693e
00000180: 2838 043e fe01 1f3f 3343 223d 7537 703e
00000190: cce9 8c3e 585d 2e3f c5e9 e73d a76e 8a3e
000001a0: 14f5 763e 633d 9d3d 529a ab3e d9fe 833e
000001b0: 1df1 213e 489d de3e de7c 9a3e 65b8 053e
000001c0: 1abd 183e b041 1e3e e4d4 903e cf25 a93e
000001d0: a55b 613e f054 943e a6a9 083e af17 533e
000001e0: b5ae 183f 1039 353e f476 7b3e f2db 243f
000001f0: cd01 483f 1b8d 0e3e 70fc c03e 7a51 f03d

main_network.4.weight f4 [64, 128]
0.039475974 -0.018619526 0.06813557 -0.08492643 -0.040426202 -0.009224089 0.04246939 -0.00858267
-0.09929991 0.04327221 -0.08295003 -0.024283502 0.0073299636 0.038274642 -0.085665196 0.036392525
-0.0789664 0.091138914 0.048490155 0.021604631 -0.07581185 -0.015640667 -0.0062214057 -0.033511333
-0.06092562 -0.07939759 0.03821461 0.016989091 -0.00063379214 0.03659995 0.031381793 0.026448624
-0.07643006 0.072190076 0.011390677 0.07356985 -0.04586049 0.06637065 -0.1355077 0.059654914
-0.046027236 -7.5406033e-06 -0.07646868 -0.009811433 -0.032016043 -0.04293423 -0.009627789 -0.0016210042
0.008940271 0.0029067136 0.0079947375 -0.022989675 -0.11198377 -0.066344455 -0.01964454 0.11326879
-0.055152487 0.111795776 0.04786395 -0.07474121 -0.08556183 -0.05000202 -0.0053592296 0.000611138
0.0064819483 -0.052427903 -0.08166772 -0.035791297 -0.018144157 -0.052980147 -0.0512638 -0.051659435
-0.04716286 -0.018050957 -0.04246287 -0.060078226 -0.068137154 -0.04911499 -0.0066383677 0.04810218
-0.008719473 -0.022459064 -0.019872503 -0.08970827 -0.11276229 0.0680262 0.024517257 0.087279476
0.07330498 0.017867178 0.042795148 0.05116535 0.037864715 -0.10069977 -0.07735996 0.072600625
0.013856922 -0.05385007 0.056239568 0.078417905 0.08619582 -0.0023391459 -0.017404962 0.0062634624
-0.095905766 0.030268641 -0.025179245 0.049738187 -0.12462788 0.038429525 0.063630894 -0.07799702
0.0033790206 0.018424323 0.0016994351 -0.12611994 -0.0689863 -0.0036583126 -0.04577611 0.034008868
0.08737026 -0.08058887 0.026928024 -0.101355314 -0.0030275083 0.114135884 -0.0054944423 -0.015626462
-0.10028284 -0.094212435 -0.043863066 -0.10367897 0.07648655 0.040930647 -0.072968334 0.027899653
0.112279736 0.04277408 0.03387722 0.11796718 0.06314283 -0.033818156 -0.0068902196 0.03738891
0.020555118 0.009936298 0.013766175 0.08061984 -0.059482887 -0.0881784 0.048710104 0.06576347
0.0055020736 0.031779915 0.018518427 -0.046719424 0.035101105 0.07323429 0.05689153 0.0069310507
0.061805617 0.0019984671 -0.07641348 -0.06485571 0.037221324 0.07422722 0.053842448 -0.039647207
-0.01003666 -0.072643094 -0.011158065 -0.09832048 -0.067145206 0.019617822 -0.082194515 -0.041296057
-0.04558819 -0.025789896 0.026957419 0.05529717 0.10158209 0.032492436 -0.011250054 0.040372048
0.04088143 0.011537361 0.053302225 -0.095978566 -0.018260008 0.051275518 0.011332423 -0.0559953
0.015840635 -0.08152907 0.072573416 -0.046940513 -0.00896178 -0.026004715 -0.10145325 -0.055614166
-0.05356757 0.07571664 -0.04609491 0.07495275 -0.031336434 0.07252943 -0.058566194 -0.08310658
-0.044019036 0.031933945 0.101313904 0.035228908 4.325175e-05 0.027919661 0.06965794 -0.04356015
-0.029327795 0.08579147 -0.07534009 0.013252107 0.045579873 0.07724968 -0.006147592 0.07992957
0.024967058 0.07305701 -0.074559286 -0.05192561 -0.058904152 0.056997236 0.08698357 0.075576514
0.030349556 -0.01818487 0.044305317 0.007061069 -0.0050189532 0.051051084 0.020504426 0.0009359376
0.08755368 -0.040773224 0.06471309 0.038836867 -0.080950305 -0.0011047889 -0.039753634 0.007675779
-0.11903624 0.037515283 -0.075378105 0.04724741 -0.046944167 0.06450305 0.03193508 -0.037572246
00000000: 8fb1 213d fa87 98bc a98a 8b3d e8ed adbd
00000010: f295 25bd a220 17bc 62f4 2d3d 549e 0cbc
00000020: c05d cbbd 333e 313d b5e1 a9bd 32ee c6bc
00000030: 3130 f03b dfc5 1c3d 3c71 afbd 5410 153d
00000040: 23b9 a1bd 0aa7 ba3d 9d9d 463d 32fc b03c
00000050: 3e43 9bbd db20 80bc efdc cbbb 2e43 09bd
00000060: 258d 79bd 349b a2bd ec86 1c3d b52c 8b3c
00000070: 1225 26ba d4e9 153d 328a 003d c9aa d83c
00000080: 5d87 9cbd 64d8 933d f69f 3a3c caab 963d
00000090: 36d8 3bbd 56ed 873d 88c2 0abe b658 743d
000000a0: 0e87 3cbd 4a05 fdb6 9c9b 9cbd 22c0 20bc
000000b0: 4123 03bd cedb 2fbd e0bd 1dbc e077 d4ba
000000c0: 377a 123c 907e 3e3b 5cfc 023c d854 bcbc
000000d0: bf57 e5bd 9adf 87bd 96ed a0bc 78f9 e73d
000000e0: 93e7 61bd 2ff5 e43d fd0c 443d eb11 99bd
000000f0: 0a3b afbd ebce 4cbd 7a9c afbb c734 203a
00000100: 8666 d43b a4be 56bd 6841 a7bd e599 12bd
00000110: 0ea3 94bc b601 59bd fef9 51bd d898 53bd
00000120: d82d 41bd 9adf 93bc 8ced 2dbd 9614 76bd
00000130: 7e8b 8bbd cd2c 49bd aa86 d9bb cb06 453d
00000140: 1fdc 0ebc 12fc b7bc a9cb a2bc f8b8 b7bd
00000150: eaef e6bd 5251 8b3d 6ad8 c83c 95bf b23d
00000160: ec20 963d 305e 923c f749 2f3d c292 513d
00000170: 0818 1b3d ae3b cebd e66e 9ebd a3af 943d
00000180: 2508 633c e491 5cbd 765b 663d 9199 a03d
00000190: 6f87 b03d 5b4c 19bb da94 8ebc bb3d cd3b
000001a0: 3e6a c4bd f1f5 f73c b444 cebc 45ba 4b3d
000001b0: e73c ffbd 4768 1d3d ea50 823d e7bc 9fbd
000001c0: 8f72 5d3b 9bee 963c 94bf de3a 9625 01be
000001d0: b048 8dbd 4dc0 6fbb bb7f 3bbd e24c 0b3d
000001e0: 2eef b23d c70b a5bd 2998 dc3c 6093 cfbd
000001f0: 2969 46bb 13c0 e93d b90a b4bb 1103 80bc
00000200: 1761 cdbd 73f2 c0bd c2a9 33bd a455 d4bd
00000210: fba4 9c3d e5a6 273d 6c70 95bd d08d e43c
00000220: ebf2 e53d e033 2f3d d7c2 0a3d c798 f13d
00000230: 0751 813d e884 0abd 5ac7 e1bb 1d25 193d
00000240: 3563 a83c dbcb 223c 868b 613c 041c a53d
00000250: 54a4 73bd e196 b4bd 3f84 473d 00af 863d
00000260: bd4a b43b a82b 023d f5b3 973c de5c 3fbd
00000270: 2dc6 0f3d dcfb 953d 1807 693d de1d e33b
00000280: e327 7d3d b7f8 023b ac7e 9cbd 12d3 84bd
00000290: 6375 183d 7104 983d e689 5c3d 1c65 22bd
000002a0: ce70 24bc e7c5 94bd 51d0 36bc 3f5c c9bd
000002b0: 6d83 89bd 8eb5 a03c 9955 a8bd 0e26 29bd
000002c0: afba 3abd 5545 d3bc ced5 dc3c 497f 623d
000002d0: 450a d03d ca16 053d 2652 38bc 295d 253d
000002e0: 4973 273d 3307 3d3c 6f53 5a3d 6990 c4bd
000002f0: 0396 95bc 4706 523d a1ab 393c 545b 65bd
00000300: 38c4 813c b7f8 a6bd 5fa1 943d b244 40bd
00000310: 6ed4 12bc d707 d5bc b9c6 cfbd aecb 63bd
00000320: ab69 5bbd 5311 9b3d 04ce 3cbd d480 993d
00000330: a25a 00bd 4f8a 943d 1be3 6fbd c833 aabd
00000340: 4e4d 34bd 2bcd 023d aa7d cf3d 304c 103d
00000350: 3769 3538 c6b7 e43c d2a8 8e3d 216c 32bd
00000360: d840 f0bc 70b3 af3d e84b 9abd 5e1f 593c
00000370: f6b1 3a3d 1535 9e3d bd71 c9bb 1db2 a33d
00000380: b787 cc3c ea9e 953d 8ab2 98bd f3af 54bd
00000390: 7b45 71bd ef75 693d 7124 b23d dcc7 9a3d
000003a0: a29f f83c 70f8 94bc 7e79 353d 8a60 e73b
000003b0: 0876 a4bb f11a 513d e6f8 a73c b659 753a
000003c0: 584f b33d d301 27bd 4c88 843d 6813 1f3d
000003d0: 46c9 a5bd 90ce 90ba b5d4 22bd 1a85 fb3b
000003e0: 46c9 f3bd a0a9 193d d65f 9abd 8086 413d
000003f0: 8748 40bd 2d1a 843d 5cce 023d 5be5 19bd

main_network.4.bias f4 [64]
1.1351012e-06 9.152016e-06 -7.785045e-06 3.3526335e-06 -1.9638099e-05 5.3918643e-06 7.262516e-06 1.5840131e-06
-3.837179e-06 5.2014266e-06 -1.0992117e-06 -2.68559e-05 -3.8772964e-06 9.318295e-07 -6.7994674e-06 2.3118387e-06
-7.0186893e-06 -5.558699e-06 -4.44896e-06 -2.6696478e-05 1.1661491e-05 6.685117e-06 5.860932e-06 3.5390854e-06
-1.3451153e-05 9.014641e-06 -3.6228207e-06 -3.6233228e-06 1.6821386e-05 -2.2028005e-05 1.7003318e-06 -1.5106572e-07
-4.7523995e-06 5.399481e-06 -3.548616e-06 7.3849587e-06 -6.590267e-06 -1.3662646e-05 -7.324544e-07 -2.6814882e-06
-1.5353118e-05 1.1258418e-05 -8.3305946e-07 -1.061638e-06 -3.0798535e-06 -3.2622954e-06 5.4423026e-06 -1.0571271e-05
-6.3014445e-06 1.4706298e-05 -3.2162877e-06 2.565942e-06 4.3821265e-06 3.9399026e-07 2.9812024e-06 9.123151e-06
-5.7736465e-06 6.9707407e-06 -2.5965142e-06 -1.0260944e-06 9.297317e-06 8.8066673e-07 3.1302886e-06 -2.175296e-05
00000000: c859 9835 9c8b 1937 849c 02b7 cefd 6036
00000010: 7fbc a4b7 c3eb b436 8ab0 f336 479a d435
00000020: 1ec1 80b6 ea87 ae36 a088 93b5 9b48 e1b7
00000030: b919 82b6 d622 7a35 fb26 e4b6 1625 1b36
00000040: 1582 ebb6 dc84 bab6 4748 95b6 40f2 dfb7
00000050: b9a5 4337 b850 e036 06a9 c436 0681 6d36
00000060: 43ac 61b7 973d 1737 961f 73b6 3628 73b6
00000070: a71b 8d37 c8c8 b8b7 f536 e435 a134 22b4
00000080: cd76 9fb6 302d b536 c224 6eb6 50cc f736
00000090: f621 ddb6 9e38 65b7 e29d 44b5 9ef3 33b6
000000a0: 92ca 80b7 8ae2 3c37 699f 5fb5 9b7d 8eb5
000000b0: 7baf 4eb6 cfed 5ab6 069d b636 435b 31b7
000000c0: ff70 d3b6 12bb 7637 67d7 57b6 8c32 2c36
000000d0: 2e0a 9336 9c85 d334 ab10 4836 a30f 1937
000000e0: 3fbb c1b6 35e6 e936 c63f 2eb6 56b8 89b5
000000f0: acfb 1b37 f566 6c35 f311 5236 207a b6b7

main_network.5.weight f4 [64]
1.0764521 0.95738107 1.0362805 0.99979234 1.0223297 0.9615126 1.0182374 0.9763789
0.94272375 0.95938814 0.95218766 0.96428573 1.0152892 1.0436555 0.94981754 0.94733894
0.98783845 0.9546077 0.9752312 1.0490589 1.0531342 0.95866925 1.0004237 0.9670481
1.082719 0.939574 0.99240416 0.9858306 1.1077497 0.9856798 0.954206 0.9988705
0.98160195 1.0397314 1.0374492 0.9918878 0.99655366 0.97452265 1.0926954 0.9234422
1.0203124 1.1088101 1.0057636 0.9505691 0.9423165 0.9645314 0.9899326 1.017683
1.0737666 1.0481848 1.1097491 1.0479604 0.9738634 0.96047527 0.9997855 0.9817591
1.0030749 0.93982273 1.0157394 0.977361 1.026429 1.0925404 0.99730575 0.9292624
00000000: 2fc9 893f ed16 753f d7a4 843f 64f2 7f3f
00000010: b3db 823f b125 763f 9a55 823f f8f3 793f
00000020: 5856 713f 769a 753f 92c2 733f 6edb 763f
00000030: fff4 813f 8196 853f 3e27 733f ce84 723f
00000040: fbe2 7c3f 2c61 743f c0a8 793f 9047 863f
00000050: 1acd 863f 596b 753f e20d 803f 7790 773f
00000060: 8996 8a3f ec87 703f 330e 7e3f 655f 7c3f
00000070: beca 8d3f 8355 7c3f d846 743f fab5 7f3f
00000080: 444a 7b3f eb15 853f 23cb 843f 5cec 7d3f
00000090: 241e 7f3f 517a 793f 71dd 8b3f b566 6c3f
000000a0: 9999 823f 7ded 8d3f ddbc 803f 7f58 733f
000000b0: a73b 713f 88eb 763f 396c 7d3f 7043 823f
000000c0: 2f71 893f eb2a 863f 420c 8e3f 9123 863f
000000d0: 1d4f 793f b5e1 753f f1f1 7f3f 9054 7b3f
000000e0: c264 803f 3998 703f c003 823f 5534 7a3f
000000f0: 0762 833f 5dd8 8b3f 6e4f 7f3f 24e4 6d3f

main_network.5.bias f4 [64]
0.08375721 -0.020743484 0.056341607 0.007905182 0.06930063 -0.012457721 0.038323164 -0.01439995
-0.00037602574 -0.06736423 -0.013882773 -0.0066019446 0.031502716 0.08538025 -0.021270085 0.004197266
0.039535396 0.0010533421 0.044154122 0.016338138 0.037667055 0.029178318 0.003761857 -0.008743482
0.09343668 -0.0018462057 0.031225102 0.03416287 0.10525446 0.07214994 -0.0065672705 0.030304542
0.011609292 -0.0026076997 0.031054461 0.014747649 -0.03522229 -0.036649086 0.12010049 -0.0149635775
-0.022432795 0.09802584 0.040120758 0.0066683404 -0.043312736 -0.01028212 0.04023906 0.048753116
0.063958935 0.022239733 0.083244845 0.034028664 0.045430966 -0.026069257 0.040821522 0.027546927
0.02280602 -0.009135199 0.026388688 -0.058302883 0.05538176 0.07144576 0.045012783 -0.044925064
00000000: e688 ab3d 3dee a9bc 75c6 663d bd84 013c
00000010: 7ded 8d3d 781b 4cbc c0f8 1c3d c5ed 6bbc
00000020: 5225 c5b9 42f6 89bd 9274 63bc 2055 d8bb
00000030: fe08 013d d7db ae3d 9a3e aebc 3889 893b
00000040: deef 213d 4c10 8a3a f4da 343d 8fd7 853c
00000050: c548 1a3d 5e07 ef3c 7d89 763b d240 0fbc
00000060: bb5b bf3d 62fc f1ba c9cb ff3c 5eee 0b3d
00000070: a68f d73d 59c3 933d 4232 d7bb 3b41 f83c
00000080: e634 3e3c f1e5 2abb ed65 fe3c 20a0 713c
00000090: 3f45 10bd 5a1d 16bd 3ff7 f53d cb29 75bc
000000a0: fbc4 b7bc c6c1 c83d aa55 243d 1882 da3b
000000b0: b268 31bd 5676 28bc b6d1 243d 59b1 473d
000000c0: e7fc 823d 1a30 b63c 467c aa3d a461 0b3d
000000d0: d215 3a3d 328f d5bc 7834 273d 18aa e13c
000000e0: b1d3 ba3c cdab 15bc 172d d83c 01cf 6ebd
000000f0: fcd7 623d 2852 923d 535f 383d 5803 38bd
