results/bandwidth_predictor/run_20250307_101114/MLP_best.pth (torch, 62444 bytes, 19 tensors)

network.0.weight f4 [128, 18]
00000000: f639 13bb bdf0 763e e71a 3cbc e862 b03c
00000010: f624 02be 0c69 5b3e b9bd bd3d c850 29bd
00000020: a966 323e 0b5a b6bc 43e0 30be 615a d7bd
00000030: bbcb 8b3c b862 803c f9ef 08be 44e6 373e
00000040: 6ae2 2cbe f411 4fbe f2d3 07be 35ff dc3c
00000050: e6e5 043e b7a4 d7bd 4cc2 3e3e 163f 1f3e
00000060: 614b 17bd f29f 273e d853 e6bd 3869 2bbe
00000070: d736 8e3d 6225 b33d e5e5 d7bd 861c 973d
00000080: 2770 b2bc 7039 7ebd ed39 3dbe 04ae 953d
00000090: faae 83be fdf4 023e 4b75 563e f7fc a43d
000000a0: aa2a ac3d bb39 4a3d 7cbd d6bd 3027 1e3e
000000b0: 4848 7b3e ea95 f1bd 3cda dfbd d093 323e
000000c0: dcdd 353d 9879 5a3e eee7 d23d 5e15 d5bd
000000d0: dcf6 ecbd 3c60 8f3e 1149 ec3d b161 10be
000000e0: 0ffe 75be ec7d 123e 6a53 25be 6af6 563e
000000f0: 9993 17bb 03cd 01be 18de 123e 4a58 7f3d
00000100: a1a9 b73d 1c34 943d 56cb e7bd f971 f8bd
00000110: 2af7 9cbd ab04 47bd 35d2 f93b 4abf 42bd
00000120: 0405 ebbd 4d73 c63d 8bee 1bbd 84d6 ddbd
00000130: 3252 7ebd 0a24 9fbd 6258 0ebe 6b4c e43b
00000140: 0769 31be fef9 2f3e 35d8 673e 1ce1 523e
00000150: 6ed7 103e 8fa5 fdbd 4334 85bc d455 5c3e
00000160: a024 583d 2224 4d3d ef05 b33d 1964 cabd
00000170: dfed 1cbd 4d3e 08be f3f6 13be 010b 00be
00000180: f7ec 37be 3131 0abe f35b f83c 9029 79be
00000190: b48a 4f3d ab71 d0bc 5154 1b3e 9371 4b3d
000001a0: 2a9f 32be cc88 5fbe dac7 d73a e13c e5bc
000001b0: d8d1 f63d c25c 833b 8c06 fa3c e349 71be
000001c0: cd05 0f3e e5b7 2b3e fcad 0bbe 8bde 6d3e
000001d0: 9e40 743e eee2 373e 044d 68be ce9e c8bd
000001e0: 62be 06bb 809f 6abe 46e1 a0bd d324 453d
000001f0: 9b8a 863d da17 cabd 8d0f 613e b432 683e
00000200: cbf9 c4bd 7889 2cbe bc00 02be 128b 6a3d
00000210: 37a2 4f3b 41fe 13be d94d e73d 7eed 243d
00000220: 5248 e5bc 644a 293d 8e96 5ebd bd72 b6bd
00000230: bbc7 fa3b 0250 26be a9e0 2cbe bded 1ebe
00000240: f962 c6bd 77f8 2c3e 812c 633e 1ec9 043e
00000250: 6e0c 1fbe f026 5d3e 4a9c f53d ead1 4b3e
00000260: c456 38be 7459 fabd e2d0 55be e561 42be
00000270: dcf4 be3c 592e ae3c 81fe 543e aacd 123e
00000280: 9079 2abe 99be 423d 770f 3b3e 001c 35be
00000290: a1e1 66be 5bfd 5dbe a353 24be ebf4 033e
000002a0: 0b19 3cbe b9a4 043e bfe5 363e ac40 45be
000002b0: 2043 ce3d 8420 57be b7f5 5abe e7df 063d
000002c0: 0f4d bbbd e7d8 413e 4fb2 96bd 4038 67bd
000002d0: 16cb eebd 6e42 2ebe 8667 c13d 8bc9 1e3d
000002e0: 923a 68bd db82 60be baca 38be 8e38 dc39
000002f0: 8630 d23d 98b5 223e caf4 0c3e dac7 013e
00000300: 420a 973c 7641 993d 44a7 0c3e 6481 29be
00000310: 96f0 3ebe 12db 4bbe 71f8 31bc 5b3e d6bd
00000320: cbbf 50be 133d edbd 7220 77bd d9a6 493e
00000330: 43b6 d6bc 1e32 8abd 1c94 3cbe 57f0 cb3d
00000340: b685 3cbe b12b 07be c1fc 03be 338a 5f3e
00000350: 655e 833e a008 fa3d 834e 5f3c 04d3 463e
00000360: ed0f d83c aa8d 5f3c 74f7 11be 6fd7 82bd
00000370: 764d 383d 16c2 37be bc6e e5bd aa5f 8ebd
00000380: ef98 d83d 6a4f 03be ecda f9bd 4edd 97bd
00000390: 39dd c43d 3388 1dbe 4b93 0bbe 3f65 50be
000003a0: c228 47be 5cfc bbbd bb76 57be c183 adbd
000003b0: 375d 643d 517f 2d3e 5999 b5bd e5de 323e
000003c0: e74d 88bd 04bd f93d 09f7 7cbe a1c1 5c3e
000003d0: bef4 efbc f63e 6a3e 2070 153e 7f4f e0bd
000003e0: d0f3 8fbd 6ce5 153e d36a 59bd fdad 57be
000003f0: 8c4d 41be c43b 4fbe 6dcf a4bd 6a2d cdbd
-0.0022464967 0.24115272 -0.011481023 0.021531537 -0.12709412 0.21426791 0.09264702 -0.041336805
0.17421974 -0.022259733 -0.17273049 -0.10515285 0.01706492 0.015672073 -0.13372792 0.17958933
-0.16883245 -0.20221692 -0.13264444 0.026977161 0.12978324 -0.10529464 0.18628806 0.15551409
-0.03693712 0.16369608 -0.11246461 -0.16739357 0.069440536 0.087473646 -0.10541896 0.07378487
-0.021781994 -0.062066495 -0.18479128 0.073085815 -0.25719434 0.12788768 0.20943181 0.08056062
0.08406575 0.049371462 -0.1048536 0.15444636 0.24539292 -0.11796172 -0.10930297 0.17439198
0.044401035 0.21335447 0.10298143 -0.10404466 -0.11570522 0.28003109 0.11537374 -0.14099766
-0.24022697 0.14305848 -0.16145101 0.20992437 -0.0023128747 -0.12675862 0.14342535 0.06234006
0.08967901 0.072365016 -0.1131808 -0.121311136 -0.0766433 -0.048588436 0.0076239356 -0.04754571
-0.11475566 0.09689961 -0.03806929 -0.10831931 -0.062090106 -0.07770546 -0.13900903 0.0069671175
-0.17325221 0.17185208 0.2264107 0.20593685 0.1414468 -0.123850934 -0.016260272 0.21517116
0.052769303 0.050083287 0.08741366 -0.09882373 -0.03831279 -0.13305016 -0.14449672 -0.12504198
-0.17961489 -0.13495328 0.030317282 -0.24332261 0.050669387 -0.025444826 0.15168883 0.04966886
-0.17443529 -0.21829528 0.0016462759 -0.02798313 0.12051743 0.0040088603 0.0305207 -0.23563342
0.13967057 0.16769369 -0.13640589 0.23229425 0.23852775 0.1795766 -0.22685629 -0.097959146
-0.0020560254 -0.22912407 -0.078554675 0.04813082 0.06569406 -0.098678306 0.21978588 0.22675592
-0.09617957 -0.16849315 -0.12695593 0.057261534 0.003168238 -0.14452459 0.11294145 0.040265553
-0.027988587 0.04133071 -0.0543428 -0.08908603 0.0076532043 -0.16241458 -0.16882576 -0.15520377
-0.09686846 0.16891657 0.22184946 0.12967345 -0.15532085 0.21596885 0.119927004 0.19904295
-0.18001848 -0.12224093 -0.20880464 -0.18982656 0.023310117 0.021262335 0.2080021 0.14336267
-0.16647935 0.04754505 0.18267618 -0.17686462 -0.22547008 -0.21678679 -0.1604753 0.12886398
-0.18368928 0.12953462 0.17861079 -0.19262952 0.10071397 -0.21008497 -0.21382795 0.032928374
-0.09145557 0.18930398 -0.073582284 -0.05645013 -0.11659829 -0.17017528 0.09443574 0.038766425
-0.056696482 -0.21924917 -0.18046084 0.00042003806 0.10263161 0.15889585 0.13765255 0.12673894
0.018437508 0.07483189 0.13735682 -0.16553265 -0.18646464 -0.19907787 -0.010862456 -0.10461112
-0.20385663 -0.115839146 -0.060333677 0.19692554 -0.026209956 -0.0674784 -0.18415874 0.099579506
-0.18410382 -0.1320026 -0.12889387 0.21830063 0.25657955 0.12208676 0.0136295585 0.19416434
0.026374782 0.013644615 -0.14254552 -0.06388747 0.044995748 -0.17945132 -0.112027615 -0.0695184
0.10576045 -0.12823263 -0.12199959 -0.074152574 0.096125074 -0.15383987 -0.13630407 -0.20351122
-0.19449142 -0.09178993 -0.21041386 -0.08472396 0.05575296 0.16943099 -0.08867139 0.1746784
-0.06655484 0.12194255 -0.24703611 0.21558239 -0.029291507 0.2287558 0.14593554 -0.10952663
-0.070289254 0.14638299 -0.05308039 -0.21062465 -0.18877238 -0.20237643 -0.08047376 -0.10018428

network.0.bias f4 [128]
00000000: 86f0 1e3a bce4 84b7 7a20 f1bb 0cf7 b4b5
00000010: efba 3034 0851 933b 0f35 a6bb 7c8e 263c
00000020: d4ba 1ab6 40fc 96bb 2e04 333b c8d4 5737
00000030: fc81 d53b 698a 1236 51f1 013a 1aef 91b6
00000040: 35b7 e9b6 a144 2d38 da78 e0b9 6333 c7b5
00000050: 7463 a2bb cd91 0936 201c 22b5 b28b ad3a
00000060: 153b 5b36 00d5 abbb db0d 44bb 1a28 5abb
00000070: cc2b 5438 bc6e f83a 3c0e 313c 8005 d53b
00000080: 3281 aebb 8111 a136 c146 0d38 c5ce 39b7
00000090: 7dc7 06b7 0644 71b6 d79d 0637 c838 99bb
000000a0: 3c72 b7ba c1e7 393a 977a e334 3bcb 0939
000000b0: e463 8b3b c8e3 61b5 1a33 e436 f87c 1bb5
000000c0: a497 e936 fa9d b9b6 8f1f a2ba f2c4 f837
000000d0: c69b 03b7 baf8 f3b6 20c1 01bc 9f0d 9d3a
000000e0: fb3a a636 3c37 3cb7 1236 4237 e1f0 b3bb
000000f0: 1784 7339 51a7 f03b 6c76 deb4 7c26 c63b
00000100: 14f1 15bc fce1 bcb5 06b5 393a 4bff 56ba
00000110: 2f41 ef37 f517 b136 fb7a f53b e58c 88b6
00000120: d4e2 09b7 d6b6 d7b7 6c89 ec36 d757 96b8
00000130: 57da 43b6 efc9 a4b6 ec3b a7b8 670f 98ba
00000140: 3c22 35b9 a785 25b6 d12e bf36 96d3 a3b8
00000150: 7b61 d03b 462c c23a 3b47 ccb6 0935 df39
00000160: d06b 9fbb 1ad4 77b7 6f69 2cba 5def 03b7
00000170: fba1 d537 ff5c 2a36 a451 4db7 2801 b9b6
00000180: a2d9 2cbc 796b 1ab8 3c28 44ba f59b 83bb
00000190: db3f 79b6 ba1e 223c e554 0437 3b26 273a
000001a0: 38f0 713a 3e26 c2b6 1bfc e7b6 cc90 a13a
000001b0: a94d 88b7 f1a4 d5b5 b86c 10b7 f6f9 ebb5
000001c0: c429 3fb7 6d15 c736 a753 853b 2097 3b3c
000001d0: 2b1e b8b4 8b59 f8b6 2d45 0638 1676 0837
000001e0: 07f2 c1b7 a63e d03b b18c d9bb 1c22 2437
000001f0: 86d2 e0b6 f4cd 9eb7 a384 00b9 0f5d c8b9
0.00060630625 -1.5842139e-05 -0.007358608 -1.3482945e-06 1.6459283e-07 0.0044957437 -0.005072243 0.010165807
-2.3056537e-06 -0.0046077073 0.0027315724 1.2864541e-05 0.0065157395 2.183626e-06 0.00049569184 -4.349172e-06
-6.965269e-06 4.131033e-05 -0.0004281465 -1.4841611e-06 -0.0049557034 2.0499458e-06 -6.039063e-07 0.0013240485
3.2667933e-06 -0.0052438974 -0.0029915485 -0.0033288063 5.0585528e-05 0.00189539 0.010806616 0.0065009
-0.00532546 4.8002116e-06 3.3682914e-05 -1.1075002e-05 -8.033469e-06 -3.5951393e-06 8.023772e-06 -0.0046759583
-0.0013995836 0.0007091724 4.237124e-07 0.00013141047 0.0042538512 -8.4150497e-07 6.8008785e-06 -5.7923853e-07
6.9615944e-06 -5.5318205e-06 -0.0012369024 2.9655614e-05 -7.844477e-06 -7.27092e-06 -0.00791958 0.0011982209
4.9540517e-06 -1.12185335e-05 1.157589e-05 -0.0054913615 0.00023223493 0.0073441644 -4.1436886e-07 0.006047068
-0.009151716 -1.4072862e-06 0.00070841645 -0.0008201494 2.8521374e-05 5.2778e-06 0.007491467 -4.069518e-06
-8.218649e-06 -2.5715137e-05 7.049346e-06 -7.168919e-05 -2.9184355e-06 -4.911089e-06 -7.974342e-05 -0.001160127
-0.00017274258 -2.4664712e-06 5.6976937e-06 -7.8118566e-05 0.006359277 0.001481422 -6.087966e-06 0.0004257339
-0.004865147 -1.4771731e-05 -0.000657699 -7.86394e-06 2.5467007e-05 2.5386105e-06 -1.2237961e-05 -5.5135642e-06
-0.010549935 -3.6816553e-05 -0.0007482802 -0.0040163943 -3.714106e-06 0.009895021 7.887579e-06 0.0006376241
0.0009229216 -5.7861025e-06 -6.9136854e-06 0.0012326478 -1.6248627e-05 -1.5917741e-06 -8.608382e-06 -1.7581613e-06
-1.13942115e-05 5.9331564e-06 0.00406881 0.011449605 -3.429462e-07 -7.4014e-06 3.2012515e-05 8.133726e-06
-2.3120096e-05 0.0063551245 -0.006639086 9.783103e-06 -6.7002284e-06 -1.8930972e-05 -0.00012256442 -0.00038216307

network.1.weight f4 [128]
00000000: 7aa5 813f 217f 853f e0a8 763f b714 7f3f
00000010: 7eee 893f da96 833f d7af 793f a22b 7b3f
00000020: 1552 7c3f 0d78 793f 1d96 823f f548 773f
00000030: 6f3a 843f 4956 7c3f 7688 733f 1777 813f
00000040: 1386 7c3f b0c6 7b3f 7641 743f 2e69 813f
00000050: fa5d 813f c4b1 723f deaf 6e3f f589 7d3f
00000060: 8137 763f f0cc 753f f732 883f 754f 7a3f
00000070: b585 833f f602 843f 6d5a 863f beec 7e3f
00000080: 4bce 743f 427d 843f bd0e 773f 6431 8b3f
00000090: a1cd 7b3f 2058 883f 1f4b 833f d343 863f
000000a0: 57d6 723f dda9 863f 429c 753f c012 7f3f
000000b0: 7bf3 853f ac94 843f 29b3 7f3f 2bca 713f
000000c0: 8c8c 893f 57f8 773f f9c0 753f 36c4 783f
000000d0: 14dc 763f 2664 813f e20f 793f 92e1 7e3f
000000e0: 3888 7b3f c803 813f 9e97 723f c75e 843f
000000f0: 781c 863f 7a9d 7b3f 275d 813f 850e 803f
00000100: d3bb 7f3f acd5 763f d86f 893f b266 753f
00000110: 595c 853f 96c8 793f 19ef 833f 391a 733f
00000120: b4b1 7f3f 06d5 7e3f 65d1 803f 3258 803f
00000130: 9edb 853f 7d3a 7a3f ab1c 783f 848a 863f
00000140: 6855 823f ebcc 743f 7552 753f 4ad8 7a3f
00000150: 994f 803f 31c1 793f 30fd 7d3f 0335 8a3f
00000160: 139f 793f 8018 773f 1a32 7d3f 00e1 793f
00000170: 0bbf 853f e2ca 803f 456b 7f3f 7a36 843f
00000180: 83d1 7f3f 9aac 813f e7ef 773f 0bda 7a3f
00000190: 34ee 7b3f 6060 6f3f 411c 7d3f 8b26 813f
000001a0: f6a6 7d3f 7d1d 893f e0bc 7b3f cf8f 803f
000001b0: 3110 763f c140 7f3f 072d 813f 5975 7e3f
000001c0: 9c4c 773f 083d 713f 929d 773f e30d 823f
000001d0: c0f3 803f 81cc 7b3f 2288 7f3f 8faf 803f
000001e0: 2081 7c3f 7d76 7a3f 620c 813f 1b98 823f
000001f0: 10a1 833f fdc6 833f 4f1d 753f 3c37 803f
1.0128624 1.0429422 0.9635143 0.99640983 1.0775907 1.0280411 0.97533935 0.98113453
0.9856275 0.9744881 1.0202061 0.965957 1.0330333 0.9856916 0.951301 1.0114468
0.9864208 0.9835005 0.95412385 1.0110223 1.0106804 0.948025 0.932371 0.9903863
0.9617844 0.96015835 1.0640553 0.9777749 1.0275179 1.0313404 1.0496346 0.9957999
0.9562728 1.0350726 0.96506864 1.0874448 0.9836064 1.0651894 1.02573 1.0489448
0.94858307 1.0520588 0.95941556 0.99637985 1.0464929 1.0357871 0.9988275 0.9444911
1.0746017 0.9686331 0.9599758 0.97174394 0.9642956 1.0108688 0.9728986 0.99562943
0.9825473 1.0079279 0.947626 1.0341424 1.0477438 0.98287165 1.0106553 1.0004431
0.9989597 0.9641979 1.0737257 0.95859826 1.0418807 0.97571695 1.0307342 0.9496189
0.9988053 0.995438 1.0063902 1.0026915 1.0457647 0.97745496 0.96918744 1.0511022
1.0182314 0.9562518 0.95828944 0.9798628 1.0024291 0.9756041 0.9921446 1.0797428
0.97508353 0.9652176 0.98904574 0.9760895 1.0448927 1.0061915 0.99773055 1.0329125
0.99929065 1.0130799 0.96850437 0.9798896 0.98410344 0.9350643 0.9887124 1.0089887
0.9908289 1.0712124 0.98335075 1.0043887 0.96118456 0.9970818 1.0091866 0.9939781
0.9660127 0.9423375 0.9672481 1.0160488 1.0074387 0.98358923 0.998171 1.0053576
0.9863453 0.9783705 1.0081904 1.0202669 1.0283527 1.0295101 0.95747846 1.0016856

network.1.bias f4 [128]
00000000: acff d43c e8f6 463d a714 64bb 8d75 dcbb
00000010: ab55 db3d 558a 623c b05e 96bb 595d a3bc
00000020: 50b0 8abc 3724 afbc 078b d33c 7f24 a6ba
00000030: d35f 393b 16b9 453a e3f4 a1bc 37cc f0bb
00000040: d690 36bd 1e62 53bc c7b8 a4bd 0302 683c
00000050: 6132 813d 0ab5 11bd 46f5 6abd 107e 03bc
00000060: d1ab 0bbd 0b5b 9dbc 1651 0d3d 43bd 67bc
00000070: d33e ec3c ae5c 843d 2e05 e23d 0f6e 513a
00000080: c41d 5cbd 49cd 553c 6da5 25bd 9aad a43d
00000090: 7b63 1bbb d7bf b23d 8a6f 3f3c 82e4 da3c
000000a0: e13f 95bd f5c5 ba3d 0433 00bd a602 a8bb
000000b0: e851 c13b 3d75 1e3a c33b 31bc 24b6 5dbd
000000c0: 053f 943d 9d10 d7bc a864 18bc c80a 27bd
000000d0: d457 1f3a 104f b3bb db98 24bd f415 3a3c
000000e0: c1ba 4abc 0fcd 853b 3c6b 04bd a644 0c3d
000000f0: 779e 8a3d 8ebd c1bc 9927 713d 2b6e 873c
00000100: de7e 6b3b 113a 17bc 7d85 f13c bfc0 15bd
00000110: e171 033c 82cd efbb 77ef d23c 15b6 48bd
00000120: 2d5e 3a3d 9c8b a5bc ee92 383d d89a 9e3c
00000130: 6f5c 3d3d 4574 2cbd 9c82 59bc 6d21 773b
00000140: b31f 8fbc 0b04 83bd 1b59 9abc 0bba 0cbc
00000150: 9257 53bc c156 83bb 8d6d 7abc 1fbf b93d
00000160: c26c 0ebc b1b7 66bd 10d1 9db9 9226 37bc
00000170: dc92 863c 7047 21bc 467f 503c 74e6 f83c
00000180: 27a4 a9bc 237a 27bc e309 54bd 5f85 2a3c
00000190: b896 0c3c d095 5ebd 50a3 e6bc 8a84 363c
000001a0: 5050 323c 8de2 1e3d a3b9 1cbd 4b0a bc3c
000001b0: f207 54bd 46ae c53b f947 e23c 5a9c 1dba
000001c0: d4be 99bc 7956 cdbc 6308 48bc 9c9c a03b
000001d0: 63af 1c3d 48b5 00bd 22ce a2bc f7fc 793c
000001e0: 6ed4 84bc 63c2 eb3b 8c7d 6ebb 7db2 75bc
000001f0: 550c 653c 851b a63d 9756 37bd c9d9 6b3c
0.02600082 0.048575312 -0.0034802349 -0.0067278803 0.10709699 0.013826926 -0.0045889243 -0.019941973
-0.016929775 -0.021379573 0.02582313 -0.0012675672 0.0028285875 0.00075425336 -0.019770091 -0.007348563
-0.04457172 -0.012901811 -0.08043056 0.014160636 0.06308437 -0.035573043 -0.057362817 -0.008025661
-0.034099404 -0.019208452 0.034501158 -0.014144245 0.02883855 0.0646299 0.11036144 0.00079891173
-0.053739324 0.013049432 -0.040440965 0.08040924 -0.0023710418 0.08727997 0.011684308 0.02672029
-0.072875746 0.091197886 -0.031298652 -0.005127269 0.0058996566 0.00060446915 -0.010817471 -0.05412878
0.072385825 -0.026253039 -0.009301342 -0.040781766 0.0006078456 -0.0054720715 -0.040184837 0.011357773
-0.012373627 0.004083283 -0.03232883 0.034245156 0.06768506 -0.023649957 0.058875654 0.016532024
0.0035933773 -0.009230153 0.029482597 -0.03656077 0.008022756 -0.0073181996 0.025748951 -0.049001772
0.04549997 -0.020208173 0.045061998 0.019360945 0.04623073 -0.04210307 -0.013275769 0.0037709132
-0.01747117 -0.063972555 -0.018841317 -0.008589278 -0.012899296 -0.0040081446 -0.015284908 0.090696566
-0.008692922 -0.056327526 -0.00030101137 -0.0111786295 0.01642745 -0.009843692 0.012725657 0.030383326
-0.020708157 -0.010221991 -0.05176724 0.010407775 0.008580856 -0.05434209 -0.028154045 0.011139998
0.010883406 0.038790274 -0.038262974 0.022954127 -0.05176539 0.006032738 0.02762221 -0.0006012373
-0.018767752 -0.025065647 -0.012209031 0.004901482 0.0382532 -0.031422883 -0.019873682 0.015258065
-0.016214576 0.0071948036 -0.003639075 -0.014996168 0.013979991 0.08110718 -0.044760313 0.014395186

network.1.running_mean f4 [128]
00000000: 2c6f 1e3d 83c5 12bd bbc4 abbc e2aa 543d
00000010: f7f8 b23c 79f8 88bb f59b 5f3c 17ec 783d
00000020: ec0b 95bb d0e7 18bc e539 e4bb 23aa 0f3d
00000030: a903 14bb e79a 643c aa12 52bc 5307 a03c
00000040: e013 0fba 0087 d3bc cc9f a13c 2487 043d
00000050: f0d9 c33c 10b6 f8bc dfe9 593c bf2b 04bc
00000060: 1623 753c 7f57 eebb 5260 c3bc 7ae8 88bd
00000070: 5123 91bd 7602 37bb b93a 123d 84b1 783d
00000080: 1123 b8bb da1b 403d ef15 fe3c 2bca d0bc
00000090: 59d3 2b3c 26ba f33c 2ab5 c73c 90b4 61bb
000000a0: 0dcf a23b 0c0d 77bc 0301 0dbd 99a2 293c
000000b0: 6127 37bd aa78 083d aa68 2a3b 7ec0 f8bc
000000c0: ff5b 793b 1b63 643d 80c5 1b3d 3a3c b6bc
000000d0: d4d0 01bd 6a9e 603c 45f1 05bc 152b 15bd
000000e0: 86e2 5e3c a297 12bd 5b02 963c f4be 413d
000000f0: ecb5 18bc 7ecc a43c 8f56 2d3c 6836 58bd
00000100: 2612 fabb 34f2 4cbc 5e05 03bb dcb1 0e3d
00000110: 8299 42bd ccc7 4f3c a98d a03a fc6e 093d
00000120: 143e 09bd 0966 963c 644f 8c3c fd34 293d
00000130: d823 44bb 4567 25bb ed33 4c3d 29e9 91bc
00000140: 86a3 013c b5cd 22bd eab1 6b3c 8408 1dbd
00000150: 791c 8a3c 7cca 1e3c f83d 45bd cfec 21bd
00000160: 7b26 21bd 31a6 383c 79d4 af3d 2f34 743c
00000170: 2e95 073c fbe3 173d f4ba 87bc d485 76bd
00000180: 612e 82bc 97f4 e23c f144 31bc a1eb adbc
00000190: eab4 413c 6b50 c03c 4426 453d 27f5 4f3d
000001a0: aa5e 41bb 648f 91bd 6c02 59bc b651 e53b
000001b0: 4fe4 12bd f8bb debb db77 62bc 7002 dfbc
000001c0: 0454 5e3d 8057 aabc 7d0d 3b3c ffa7 8ebc
000001d0: 07f1 8b3d 95bf ca3c 549b 4b3d 3f99 1ebb
000001e0: 1a71 e43c 5c09 57bb b159 89bd e91b 89bd
000001f0: a832 b8ba d6c8 6abc c84f 9cbd e34e a83d
0.03868024 -0.035832893 -0.020967832 0.05192078 0.021847231 -0.004180011 0.013648023 0.060772028
-0.0045485403 -0.009332612 -0.0069649094 0.035074364 -0.002258519 0.013952947 -0.012821833 0.019534742
-0.00054579787 -0.025821209 0.019729517 0.032355443 0.023907632 -0.030360252 0.013300388 -0.0080670705
0.014961978 -0.007273614 -0.02384964 -0.066849664 -0.07086814 -0.002792505 0.035700534 0.060716167
-0.0056194146 0.04690156 0.031016318 -0.025487026 0.010487401 0.029751848 0.024378378 -0.00344399
0.00496853 -0.015078794 -0.034424793 0.010353708 -0.04471529 0.0333182 0.0026002326 -0.030365225
0.0038049219 0.055758577 0.038030148 -0.022245515 -0.031693295 0.013709644 -0.008175199 -0.03641804
0.013603812 -0.03578914 0.01831167 0.047301248 -0.009320717 0.02011704 0.010579719 -0.05278626
-0.007631558 -0.012508918 -0.0019992213 0.03483759 -0.047509678 0.012681913 0.0012249249 0.03355311
-0.033506468 0.018359201 0.0171277 0.0413103 -0.002992859 -0.0025238555 0.049854208 -0.017811375
0.007912522 -0.03974696 0.01438568 -0.0383382 0.01685928 0.009691831 -0.0481548 -0.03953248
-0.03934334 0.011270092 0.08585448 0.01490502 0.008275313 0.037082653 -0.016568638 -0.060186222
-0.015891256 0.02770452 -0.01081966 -0.02123052 0.011822918 0.023475846 0.048132196 0.050770905
-0.0029505887 -0.07107428 -0.013245206 0.006998266 -0.035862263 -0.00679731 -0.013822521 -0.027222842
0.054279342 -0.020793676 0.01141679 -0.017414091 0.06833082 0.024749557 0.04970868 -0.0024200229
0.027885962 -0.0032811975 -0.067065604 -0.066947766 -0.0014053183 -0.01433011 -0.076324046 0.082181714

network.1.running_var f4 [128]
00000000: ab94 2c3e 25e3 0a3e c5ca 873f 920a bc3e
00000010: 0c17 a03e 46bf d93e 4feb 233f 479f 6b3e
00000020: 94a0 f13e 9d12 243f 6890 b73e ca80 973d
00000030: 1b03 423e 48be 103f 0baa b53e f593 8c3e
00000040: 2fbd b23e 7c10 9d3e 877b 803e 2e3f 203f
00000050: 0c33 993e f785 363e 542d bb3e d247 db3e
00000060: b270 8c3e 7586 a43e c77d 2d3e cc3c df3e
00000070: bf3d 9f3f 56ac 013f 823b e03e 1927 c53e
00000080: fc65 b43e 3146 a33e 1f4a 6f3e fb6a 013f
00000090: b79d 523f 1c09 f33d 3457 303f aa8a e73d
000000a0: 0647 173f 7a5d d33d 2451 b03f 07f7 013e
000000b0: 8456 0f3f 4d15 993e 7d00 f83d 8af2 d43e
000000c0: c83a a53e b683 163e 35f4 783e be0c 403e
000000d0: 9b80 323e 0cec 1b3f 960e 573e 2ae1 803e
000000e0: 5cac c03e 3a30 323e 8ed2 b73e 7025 7d3e
000000f0: 1dbc b03e c38a 2c3f d6d1 793e c91f 2f3e
00000100: bb18 8b3e 4e6e bf3f c089 9b3d 98ad 103e
00000110: 9f9e a03d 7467 123f 92bb 443f da77 e23e
00000120: 66a1 eb3e 7886 703e 6841 c13e d523 9e3e
00000130: a620 e83e 8a90 673e be4f 293f fe5a 823e
00000140: e3b2 ff3e 97bd 1f3e 5198 883e f8e5 403e
00000150: e55c 843e 3b2f 6f3f 308a 333e 947f 443f
00000160: a22f 343e bca6 cb3e b9f7 e13e 709b 753e
00000170: cecc 713e 7215 1f3e 5761 3b3e 37b2 003f
00000180: 7ce7 843e 277f 2b3e 24e2 793e fe4b 7a3e
00000190: 8c51 d63e c450 283f 4c45 eb3e 1e6c be3e
000001a0: 857d fa3d c4ec 183f 18c0 643f 1c2e c13d
000001b0: d548 af3e 885b c63d fe8c 1e3e 4ed0 4a3f
000001c0: 0eb7 de3e b0c0 333f 740b 7e3f 49a2 3d3e
000001d0: 2652 a63e 6910 443e 3099 ce3e 82f3 c53e
000001e0: be93 583e d159 b63d 2511 a13e 010e f43e
000001f0: 6b13 f73e cc1a 023e abbc f23e 3b65 423f
0.16853587 0.13563211 1.0608755 0.36726815 0.31267583 0.42528743 0.6403093 0.23009978
0.47192824 0.640909 0.3585236 0.073976114 0.18946497 0.56540346 0.35481295 0.27456632
0.3490996 0.3067664 0.25094244 0.62596405 0.29921758 0.17824541 0.3655802 0.42828232
0.2742973 0.32133833 0.16942511 0.43601072 1.2440718 0.5065359 0.437954 0.38506392
0.35234058 0.3188949 0.23368119 0.50553864 0.82271904 0.11866972 0.6888306 0.11305745
0.5909275 0.103205636 1.3774762 0.1269189 0.5599139 0.29899064 0.12109468 0.41591293
0.3227141 0.14698681 0.24311908 0.18754861 0.17431872 0.60907054 0.21001658 0.25171787
0.376315 0.1740121 0.35902828 0.24721313 0.3451852 0.67399234 0.24396452 0.17101969
0.27167305 1.4955537 0.07594633 0.14128721 0.078427546 0.57189107 0.7684871 0.44232064
0.46021575 0.23488796 0.37745214 0.30886713 0.4533741 0.22613731 0.661373 0.25460047
0.49941167 0.15599667 0.26678708 0.18837726 0.25852123 0.9343144 0.17533183 0.7675717
0.17596295 0.39775646 0.4413431 0.23985076 0.23613283 0.15535524 0.18298851 0.50271934
0.2595786 0.16747724 0.24402672 0.24443051 0.4185909 0.6574824 0.45951307 0.37191862
0.12230972 0.59736276 0.8935561 0.09432623 0.34235254 0.09685427 0.15483472 0.792241
0.43499035 0.7021589 0.99236226 0.18518938 0.3248455 0.19146885 0.40351248 0.38662344
0.21150109 0.0890385 0.31458393 0.47666934 0.48257002 0.12705535 0.47409567 0.75935715

network.4.weight f4 [64, 128]
00000000: 7759 a0bd 4bcc f43d 7288 86bc 6490 91bd
00000010: dd82 a3bd 669f 943c c01f 473c a864 acbd
00000020: 9a3e 2ebc 6c64 92bc 2540 b43c 447b 6bbc
00000030: 35bf a53b a9a2 e53c 01b5 fd3c 35db 073d
00000040: a113 a8bc 95ba fb3d 176d 783d 5507 77bd
00000050: 97fc 633c 17dc 30bd 71cf 00bd 3419 aebd
00000060: 49eb 98bd 7799 9b3d afb1 49bc 7996 8b3d
00000070: af70 1dbe 92dc 82bb 604f 7cbd 37e4 a9bc
00000080: cbf5 a33c 087b c0bd df6c a5bd b8ec e2bc
00000090: e39a 9d3d 6d2d 18bd 39d2 f43c b95e 5d3d
000000a0: d01c 9e3d 2c41 28bb fb5b 433d 3cbb 573d
000000b0: 70a1 b4bd eb24 d4bb 041a c8bd 6a58 9b3d
000000c0: 3584 913c 42b2 2f3c 119c fcbc 664d aa3c
000000d0: 7dcd b3bd eb13 f33c f60f df3b c342 503d
000000e0: 49fa 80bc c506 913d 7c40 a23d 94a9 953c
000000f0: 1521 903b 5d16 ab3c 6feb d63c 3907 073e
00000100: 24c7 b5bd 1eff 463d 86c8 fbbc a68a 69bc
00000110: 8627 ccbc aa19 c33b 8f62 903d 5eca 9e3d
00000120: 5293 3bbc 1d5f c3bc 8a6c 46bd 1818 3dbd
00000130: 4a0b c43d de2c 74bd 68bc 03bd f60d 3e3d
00000140: 16f7 b73d a6fc b6bd 09e1 b03c edb5 bc3c
00000150: 83ce 47bd df69 70bd c5e0 143d 49f1 cfbc
00000160: 03d4 6ebc e690 3ebd 1601 01bb 6858 5abc
00000170: a282 b23c 9981 1c3d fd43 8a3c b5cd ce3d
00000180: a378 b63d b307 dd3d 488c bf3c 1ea1 9abd
00000190: 4399 45bd aba6 d03c c5d8 563d 5f35 a63d
000001a0: ce5d 033d c9f6 e53a c184 c0bd aac0 8f3c
000001b0: bab5 393d 120e 45bd 45f4 08bd a3d2 83bd
000001c0: 3a13 a3bd d5d0 a43c 8970 b1bd 498c 133d
000001d0: b5cd a4bb f0c5 053d 8e5a 923c c5fc c2bd
000001e0: 510c 73bc 1458 893c 82b7 7ebd 20af b9bc
000001f0: 22e3 b83d 7549 2bbd 6785 763d 4c6e 8abd
00000200: 595e d83b c6e6 15bd fd65 a93c 1332 95bd
00000210: fce5 0d3d bdeb dcbd 21ce acbd 1b3f c63b
00000220: acd2 c83d 1b47 f53c e9c3 d2bd c632 7fba
00000230: 6987 13be ec3b 71bd 1cfd e0bd fceb 79bd
00000240: ee6f a63d 5f7f 89bd 24ed 94bd bc05 9cbd
00000250: f5e4 023d 639d 3e3d a8f6 b8bc 531c 2bbd
00000260: a7d8 ddbb 3110 cb3d 2b85 45bd c5a6 72bd
00000270: 5a9a ddbd ecf7 14bd a32d 8dbc a04b 79bd
00000280: 41b2 443d 122e 04bc 7a49 b93a 4c2f b9bd
00000290: f49d b93d 4f1d 863d 0595 2d3d 053f b9bd
000002a0: bca7 58bd 8661 92bc a3f3 19bc 6b07 d8bc
000002b0: a638 463d 4584 e23b b8f7 933c ac18 acbc
000002c0: d853 1e3d 3d5f ccbc a0fd 513d 2c5e 0dbc
000002d0: 5329 9bbd 9493 4f3c a557 843d adf3 883d
000002e0: acc1 a13b 3ff9 7f3d 5446 dc3c cc88 c6bd
000002f0: 8a04 4ebd 2e38 c23d a59c 703d 5de4 17bd
00000300: 6753 94bd acb7 c6bd 7a05 e8bb a3ae 40bd
00000310: 4815 83bc 0eb5 693d d617 883d 4eff 8dbc
00000320: b8d7 2bbd b51f 81bd 268c c5bd c4e2 5a3c
00000330: c84d 2abd 2d23 e0bd f170 713c 11c7 b0ba
00000340: 96c0 273c 5ce6 b23d 9e4e 37bd 99da 46bd
00000350: 7976 2ebd e838 ee3c f551 223b b9f7 bdbd
00000360: 44a5 6abd 30e2 a03d 691d 143c ef16 88bd
00000370: d542 5bbd eb69 34bd 9c55 5a3d 53f6 653c
00000380: 2fb5 2539 555c d2bc 7769 f13c 6881 a33d
00000390: 780b 48bd 95ac ed3c de81 f53c d085 7ebd
000003a0: 0f8b 283d 7dce febc a9e8 203d 33eb 733d
000003b0: d277 843b f699 ac3d 4a52 3fbd fe71 4bbd
000003c0: 1b2f 873d a5d8 6cbc a7b2 3fbd b5b4 77bc
000003d0: 5c91 393c 4235 0a3d a913 92bc 9f31 5cbd
000003e0: ab5c 813c 8781 5f3d fff5 a4bd 4f20 a0bd
000003f0: afe6 52bc cebb 00bc c78b 00bc 8dcd 17bd
-0.07829564 0.11953028 -0.016422484 -0.071076185 -0.079839446 0.018142413 0.012153566 -0.08417636
-0.010635043 -0.01787015 0.022003243 -0.0143726505 0.005058194 0.028031664 0.030970098 0.033168036
-0.020517172 0.12291447 0.06065091 -0.060309727 0.013915203 -0.043178644 -0.03144783 -0.08500901
-0.07466752 0.075976305 -0.0123104295 0.0681581 -0.15375017 -0.003993579 -0.061599135 -0.020738704
0.020014664 -0.09398466 -0.08077406 -0.027700767 0.07695558 -0.037152696 0.029885398 0.054045413
0.07720339 -0.002567361 0.04769514 0.052668795 -0.08819854 -0.0064741275 -0.09770587 0.07585223
0.017763237 0.010723652 -0.030836137 0.02078886 -0.08779428 0.029672584 0.0068073226 0.05084492
-0.015744345 0.07081369 0.07922456 0.018269338 0.004398475 0.020884687 0.02623531 0.13186349
-0.08875874 0.048583142 -0.030735265 -0.014254248 -0.02492119 0.005953987 0.070500486 0.07753442
-0.011448698 -0.023849064 -0.048443355 -0.046165556 0.09572466 -0.0596131 -0.0321621 0.046400033
0.08982675 -0.089349076 0.02159168 0.023035968 -0.04878093 -0.058694717 0.03634717 -0.025383608
-0.014576915 -0.046524905 -0.0019684485 -0.013326742 0.021790806 0.03820953 0.016878122 0.10097829
0.089097284 0.10792484 0.023382321 -0.07550262 -0.048241865 0.025470098 0.05245282 0.081156485
0.03207188 0.0017544861 -0.09400321 0.017547924 0.045339324 -0.04810912 -0.03343608 -0.0643666
-0.079626516 0.02011911 -0.086640425 0.03602246 -0.005029405 0.03265947 0.017865445 -0.09520868
-0.014834479 0.016765632 -0.062186725 -0.022666514 0.09027697 -0.0418181 0.060185816 -0.06759319
0.006603044 -0.036597036 0.020678515 -0.072849415 0.03464316 -0.10787151 -0.084377535 0.006050003
0.098058075 0.029941132 -0.10291273 -0.0009735044 -0.14407124 -0.058895037 -0.10985777 -0.061016068
0.08126818 -0.06713747 -0.072717935 -0.07618281 0.03195663 0.046536814 -0.022578552 -0.04177506
-0.0067702117 0.09915198 -0.048222702 -0.059241075 -0.10820456 -0.03636925 -0.017233675 -0.060863137
0.04802156 -0.008067625 0.0014136278 -0.09042224 0.0906333 0.06548559 0.042378444 -0.09045223
-0.05289434 -0.017868768 -0.009396466 -0.026370725 0.048393868 0.0069127404 0.018062457 -0.021007858
0.03865418 -0.024947757 0.051267266 -0.008628409 -0.07576241 0.012669463 0.06462029 0.066871025
0.0049364176 0.06249356 0.026889004 -0.09694061 -0.050297298 0.09483372 0.058743138 -0.03708302
-0.0724247 -0.097030014 -0.007080731 -0.047041547 -0.016001359 0.057057433 0.06645171 -0.017333653
-0.041953772 -0.06304876 -0.09645872 0.013359729 -0.041578084 -0.10944209 0.0147364 -0.0013487061
0.010238787 0.08735344 -0.04475271 -0.048548315 -0.042593453 0.02907987 0.0024768088 -0.09275765
-0.057286516 0.07855642 0.009040215 -0.06644999 -0.053530533 -0.044046324 0.0533043 0.014035779
0.00015803122 -0.025678793 0.029469235 0.07983667 -0.048839062 0.029012958 0.029969152 -0.062139332
0.04114824 -0.03110432 0.039284382 0.059550475 0.004042604 0.08427803 -0.046709336 -0.04966926
0.066007815 -0.014455949 -0.046801236 -0.0151187675 0.01132616 0.033742197 -0.01783164 -0.05375826
0.015791258 0.054566886 -0.080547325 -0.078186624 -0.012872382 -0.007857276 -0.0078458255 -0.037061263

network.4.bias f4 [64]
00000000: 4d41 9236 bf24 4db5 3558 1837 4ff8 09b7
00000010: a717 1db8 d5cf 5eb6 8f0f 1fb8 3c29 acb6
00000020: 14e4 bf37 a351 1cb7 16d2 82b6 09d1 7fb7
00000030: a531 9035 adbf ddb5 012c a7b6 ed62 9e36
00000040: 3804 8e36 4844 ecb5 3099 3935 9925 b8b7
00000050: 36e5 72b7 da30 a235 dbe1 8ab6 c446 be35
00000060: 11c4 6f37 f1d4 8836 bc65 5fb5 d9d8 0837
00000070: f358 0036 3fbc 43b7 8e74 57b4 87f6 30b8
00000080: 5005 4b35 e9b7 77b7 87e7 e237 e2bf d236
00000090: cc19 42b6 b234 7638 c97d 3136 991f 3c37
000000a0: 30f2 9736 ef30 ecb7 b0c3 a236 e86d 6bb7
000000b0: 8508 0737 87e1 9637 1565 2fb5 5168 2838
000000c0: 6996 f0b4 edab 1d38 97e6 b336 646b a4b6
000000d0: 3ac2 ea37 39e1 3ab7 8f78 31b5 372a bf35
000000e0: 8304 85b5 eeee 22b7 2373 4e37 904b f536
000000f0: 27ae c2b7 d587 67b7 8115 1bb7 d493 05b5
4.358741e-06 -7.6421924e-07 9.080443e-06 -8.22365e-06 -3.7453745e-05 -3.3201552e-06 -3.7923044e-05 -5.1307998e-06
2.2875181e-05 -9.317332e-06 -3.898759e-06 -1.5247854e-05 1.0743285e-06 -1.6521568e-06 -4.9821106e-06 4.7202834e-06
4.232421e-06 -1.7603243e-06 6.914079e-07 -2.1952017e-05 -1.4477691e-05 1.2084158e-06 -4.1390135e-06 1.4176699e-06
1.429116e-05 4.0779055e-06 -8.3222017e-07 8.1567205e-06 1.9125262e-06 -1.1666735e-05 -2.0065838e-07 -4.2191266e-05
7.5631124e-07 -1.4765167e-05 2.7049113e-05 6.280826e-06 -2.8923268e-06 5.8700047e-05 2.6448272e-06 1.121303e-05
4.528345e-06 -2.8156179e-05 4.8507573e-06 -1.4032681e-05 8.048611e-06 1.7986413e-05 -6.5339674e-07 4.0151474e-05
-4.481292e-07 3.7591835e-05 5.36146e-06 -4.900083e-06 2.7985418e-05 -1.1138903e-05 -6.6113074e-07 1.4242895e-06
-9.910585e-07 -9.711583e-06 1.2305364e-05 7.3103656e-06 -2.3207698e-05 -1.3800299e-05 -9.243727e-06 -4.976148e-07

network.5.weight f4 [64]
00000000: 8c19 863f 2bf2 763f 8858 6e3f c6d7 753f
00000010: 55f2 823f 71ce 7d3f 8a16 7b3f c347 853f
00000020: a4bd 843f 62d4 693f 05d4 713f af6d 7c3f
00000030: 43be 833f 0100 813f 1eed 793f 798a 843f
00000040: fdd0 893f 0b7a 813f 7779 773f 9657 853f
00000050: 3e2d 773f 024f 7e3f ff0a 793f 0f5c 7f3f
00000060: 5709 743f 92ac 813f 6571 893f 1a4f 853f
00000070: 298d 6b3f 1167 833f da8b 853f 4e73 6f3f
00000080: 333d 6b3f 8dea 863f 5e2e 743f 3e4b 773f
00000090: a42a 7c3f fe18 873f 9275 873f 6aa5 7c3f
000000a0: b0c3 873f 651b 843f 9181 6c3f 68f0 8b3f
000000b0: b47c 8a3f 06f3 6c3f 7297 803f d580 703f
000000c0: e715 6c3f 2101 803f 24af 713f 3d2d 773f
000000d0: 9b60 753f 7a30 833f 01d0 813f ca16 7a3f
000000e0: dddf 7c3f 5b96 813f 33cb 8b3f 6868 8c3f
000000f0: bb2e 813f 83ef 7d3f 7c42 7f3f a45f 823f
1.0476546 0.9646327 0.9310384 0.9603237 1.0230204 0.9914313 0.98081267 1.0412525
1.0370374 0.91339695 0.9446414 0.98604864 1.0292438 1.0078126 0.9762744 1.0354759
1.0766903 1.011537 0.96669716 1.0417354 0.9655341 0.99339306 0.97282404 0.99749845
0.9532675 1.0130789 1.073773 1.0414765 0.9201227 1.0265828 1.0433304 0.93535316
0.9189026 1.0540329 0.9538325 0.96599185 0.98502564 1.0554502 1.0582755 0.986899
1.0606594 1.032086 0.923852 1.0932741 1.0819306 0.92558324 1.0046217 0.9394658
0.9222092 1.0000345 0.9440787 0.96553403 0.95850533 1.0249169 1.0141603 0.97691023
0.9877909 1.012401 1.0921386 1.0969362 1.0092386 0.9919359 0.9971082 1.0185437

network.5.bias f4 [64]
00000000: 8bfa dcbc 84fc a2bc 7f9f 8cbd cfa8 4cbb
00000010: 0334 083d a724 90bc f483 67bc 9fd6 893d
00000020: c20a 923d 8b46 21bd 2510 2cbd fd2d db39
00000030: 89f6 fc3c eec5 00bc 850d bbbc 89f3 20bd
00000040: 6f27 4b3d 58bd 5d3c 087d 18bd 6af3 d93c
00000050: 1edd 92bb f788 583d 4d12 abbc d2e1 9b3b
00000060: b592 a8bc 70af c63c 43ff 1a3d 865d fb3c
00000070: b277 6ebd f7ec 1e3d 5dd3 2c3c 6793 79bc
00000080: 8cf0 58bd 2278 1f3d a54a dabc f30c e3bb
00000090: 3a4a c0bc b122 aa3d 7529 aa3c ca35 253d
000000a0: 71f1 11bd 0d89 6f3d 6a3a 60bd c150 d53c
000000b0: 9bd7 7b3d 56b0 44bd c832 da3c 9a7f 61bd
000000c0: f1a5 d0bd 357f af3c 4a8c dcbc 0244 7a39
000000d0: 279e 72bc 9d76 403d d161 5e3c 8447 3abc
000000e0: f49d 463d c4d5 1d3d bf1d 143d 18fb 843d
000000f0: 7fb7 a73c 1abc 2a3d baaf 5a3c 1be0 1f3d
-0.026974937 -0.0198958 -0.06866359 -0.0031228547 0.033252727 -0.017595602 -0.014130581 0.06730389
0.07130958 -0.039373916 -0.042007584 0.000418052 0.030879276 -0.00785969 -0.022833595 -0.039294753
0.049598154 0.013533913 -0.037228614 0.026605327 -0.0044819256 0.052864995 -0.02088275 0.0047571445
-0.020577768 0.024253577 0.037841093 0.030684244 -0.05821962 0.038800206 0.01054844 -0.015232897
-0.05296378 0.038932927 -0.026646921 -0.006929034 -0.023472894 0.08307398 0.020771721 0.0403345
-0.035630647 0.05848031 -0.054743208 0.026039483 0.061484914 -0.04801973 0.026635543 -0.05505333
-0.10187901 0.021422962 -0.026922364 0.00023867193 -0.014808214 0.04698812 0.013573126 -0.01136959
0.04849048 0.03853394 0.03616118 0.06493205 0.02047324 0.041683294 0.013347561 0.039032083

network.5.running_mean f4 [64]
00000000: 09f4 80bd 86e3 1dbf f29d bc3d a829 8d3d
00000010: 00f3 2e3d 9445 0d3e c52e 57bf 5429 21bf
00000020: 1662 37bf b10d b5bd eb26 37bf e64d 0e3e
00000030: 113f 3fbf 1b26 fc3e d46e a83e 05fa 4c3e
00000040: 6b86 53be 1d3d 1dbd ef6a 3b3c a3b4 0bbf
00000050: a5ab 15bf f194 bb3c 6c61 37bf 7943 a9be
00000060: 048e 29bf d662 253e d11a 83be 4ce0 79be
00000070: bf23 01bf bb83 b83e ab09 fbbe 50f1 8fbf
00000080: 96e2 7dbb ba75 f6bd 3b9f da3e e2ca 11be
00000090: 24ca d63d 0737 03bf 99da ffbe 61b0 99be
000000a0: f430 b03d 594d 4dbf 98c9 1bbe 7fb5 8abe
000000b0: 4d27 11bf d3ee 313d 4162 23be 1cfd 8cbe
000000c0: c5c7 3b3f 3d3a 70bf 1cde 72be a3a8 38bf
000000d0: d8d3 79bf 6b72 993c 10e9 373e 37c1 e73b
000000e0: b01b 53bf 96ea df3e cbd3 023e fd99 1cbf
000000f0: bb27 efbe 70c4 ccbe 6608 91be 558c 64be
-0.06296546 -0.616753 0.09209813 0.06892711 0.04271221 0.13796073 -0.8405574 -0.62953687
-0.7163404 -0.08840502 -0.7154376 0.13896903 -0.74705607 0.49247822 0.32897055 0.2001725
-0.20656745 -0.03838836 0.011439069 -0.54572505 -0.58465034 0.02289817 -0.7163303 -0.3305929
-0.66232324 0.16150984 -0.25606397 -0.24401969 -0.5044517 0.36038002 -0.49030814 -1.1245518
-0.0038739792 -0.12034173 0.42699608 -0.1423755 0.10487774 -0.5125584 -0.49971464 -0.3001738
0.08603087 -0.8019615 -0.1521362 -0.27091596 -0.56700593 0.04344065 -0.1595545 -0.27536857
0.733517 -0.93838865 -0.2371754 -0.7213232 -0.9758887 0.018731317 0.1796 0.0070725936
-0.8246412 0.43733662 0.12776105 -0.6117247 -0.4671 -0.3999362 -0.2832672 -0.22319157

network.5.running_var f4 [64]
00000000: 826c 373f 0766 423f 63cd 203f c8cc 223f
00000010: 9b66 043f 006a 813f 1b8e 1c3f 0bf7 d03f
00000020: 245b 703f 549a a83e a422 d23e 20a2 8c3f
00000030: 6b3b 553f 6ac8 403f 93b2 4d3f 5426 3f3f
00000040: 8036 b43f a9e6 473f 2cd8 303f 77fa 143f
00000050: 6567 213f a3d9 b83f 3846 423f c774 7e3f
00000060: 5c8e d23e 7078 553f 7f9a a53f bb35 af3f
00000070: 57d2 013f 734e 1e3f b12c 803f 3d75 2d3f
00000080: 6d67 343f 3db5 7c3f 3af0 283f 4e8f 623f
00000090: 8272 963f 4923 a93f 19d1 613f 4d28 ba3f
000000a0: 69f8 983f 14cb 7e3f d00b 813f 7339 bb3f
000000b0: 7d4b c03f e1ae b63e 585f a23f 27ff d13e
000000c0: 6ac2 ab3e 9e56 253f 9f74 cd3e c3a4 2f3f
000000d0: c50b ca3e 6825 e33e 36dd 983f c5bd 743f
000000e0: a1c3 8a3f 4655 483f b710 643f 7b8a da3f
000000f0: 4231 4a3f 8cf2 8a3f 0a8f 913f 8139 913f
0.71649945 0.7593693 0.62813395 0.6359372 0.51719064 1.0110474 0.61154336 1.6325392
0.9388907 0.32930243 0.41042054 1.0986977 0.8329379 0.7530581 0.8035061 0.7466786
1.4079132 0.78086334 0.6907985 0.5819468 0.6304839 1.4441417 0.75888395 0.9939694
0.41124237 0.833869 1.2937773 1.3688272 0.5071158 0.61838454 1.0013639 0.67757016
0.70470315 0.9871405 0.65991557 0.88499916 1.1753695 1.3213893 0.8820968 1.4543549
1.1950809 0.9952862 1.008173 1.4626907 1.5023037 0.35680297 1.2685347 0.41014978
0.33546764 0.6458529 0.40128037 0.6861078 0.39462104 0.44364476 1.1942508 0.95602065
1.0840951 0.78255117 0.89088005 1.7073511 0.7898141 1.085527 1.1371777 1.1345674

network.8.weight f4 [32, 64]
00000000: 7994 70bd 2c8f e2bc f51f 6abd 7a1b a5bc
00000010: 9bfc b13c 04aa 8abd ce21 b13c 83ad 84bd
00000020: aa1a aabd df79 fbbc a264 9cbd 1522 94bd
00000030: a3d0 c4bd 03b6 d1bc 1e4c f73d fe0c 903c
00000040: 2c29 21be 9fe6 963c 88b4 ad3c 7683 a0bd
00000050: bd4e ff3d 51fc 5dbd ae37 cdbd 3b5a 83bd
00000060: 4ba1 05be f829 b33d 4be0 97ba 83fa 953c
00000070: ca75 423d d632 743d 0408 2fbd a5ba a7bd
00000080: 948c 0f3a d748 773d 4601 50be bb32 7a3c
00000090: 7199 bd3c ebbf dd3c 1254 983d 0bb9 93bc
000000a0: 4ce7 2cbe ff9d 34bd 37ad b03b cc18 41bd
000000b0: e4c9 1cbe 31aa 92bd f5a6 12be 36d3 733d
000000c0: d585 263d 2901 053d 6390 303c d93f d13c
000000d0: f4a8 023e 408d cfbd 40f7 ec3c ed41 68bd
000000e0: 7bb4 d33c a115 b6bd 59fb 63bd 3a16 05bd
000000f0: c3fd 603d 6d8b ecbc 1cbf efbd c50f a3bd
00000100: 4b6e e23d 5b7c 673d 7da7 dabd 749c e3bb
00000110: acb4 29bc 05ad 5fbd 8a9f e93d 73c4 08be
00000120: defa 1f3d d544 a8bd 549c c6bc bad2 e3b8
00000130: 83a3 83bd c57b a0bc 59fa 01bd 80f7 f43d
00000140: b51a 303e 60d7 e2bd efc3 253d f2c0 84bd
00000150: dfab 313d af2b 18bd f33d a73d e176 b7bd
00000160: 53dc e6bb 702b 84bd 4610 493b fcb4 00be
00000170: 56ed 073c 96c1 4a3d 0a76 d63c 048a 7dbd
00000180: 972e 323d 5a43 b3bd 25e1 ec3d 2e89 ad3d
00000190: 1b1d 493d 81ed 11be a138 62bc e84b 28be
000001a0: a5ca db3c 2144 3ebe 18d7 203c d7a7 fa3d
000001b0: 14cd cf3b 89f5 cfbd 9399 e73d 9f4b 22bd
000001c0: 7258 b13d 2e15 a03d ef17 efbc 7cf4 ffbd
000001d0: e8e0 52bd 8bdb 07be f0ad 8b3d 5917 933d
000001e0: 56fe 9bbd f578 d7bd d07e aebc cdf8 6b3c
000001f0: 4d09 24bb 4a8c 19bd 2987 8bbd f5e1 20bd
00000200: be9a ad3d 6d27 0ebc 5914 0bbe c33c 803d
00000210: 1fcb e8bd 4e86 b4bc af81 d63d ae1d c5bc
00000220: 9b30 a9bd 1a58 59bd 1ccd 5f3d efec a13d
00000230: 2d46 253d dff0 d03b 8fef 72bd 945e e53d
00000240: 6ad0 0c3e 98eb 79bc dd2c 673d bd8b c83d
00000250: 04c9 843d 1268 d4bd 7399 01ba 21b0 3d3d
00000260: e4f3 9fbd 5387 e43d 941d 4b3e 563a 9e3c
00000270: 25ee 7abd 48d1 813d ca3c 85bc 5d0f 053d
00000280: e0f8 0dbd c008 47bd 75f0 e3bd 4ed2 02be
00000290: baf8 68bd 7d9e cbbd 2670 ff3d f12e 02bd
000002a0: 6125 a3bd 796e 62bd a67e 303d f540 403e
000002b0: 392b 103e d694 233d 038e 423d ddc2 8ebd
000002c0: f013 a1bc 99d4 ccbd 3529 63bd f895 abbc
000002d0: 7389 ea3c 7866 40bd dd32 5dbd 9391 9c3c
000002e0: 39a1 48bd ae2b b7bd 3442 013e f966 fbb9
000002f0: e380 b23d 6052 143c 5a38 7e3c 134a 49bd
00000300: c627 773d ba4d 0c3d 46c2 56bd 66c2 11bd
00000310: bd4c f7bd 7bb4 a6bd 9b3f 983d 3776 303c
00000320: 7638 c53d 0be0 163c 19cc 013d e344 113d
00000330: bbac c4bd 2c30 e1bb 644c 053e e170 27bd
00000340: 40b1 1e3e e962 02be f782 c1bb 101e f5ba
00000350: 4c2f 93bd 27c9 1bbd f26b 7e3d 4f15 8bb9
00000360: c07c 41bd 85f9 e33d b196 9c3d 10a6 33bd
00000370: 5a9b 8abd 54db 7bbd 42c1 d43d a664 343d
00000380: 7978 953b dfc9 a13d 4f13 0c3d 3a00 0cbe
00000390: d9c5 94bc a663 1ebe bb5b 4dbc 8bf6 5bbd
000003a0: 6b45 133e 31f6 13bd 2db8 203b afba 0c3e
000003b0: 03b3 2e3b 3829 413d 1177 a8bd 9587 40bd
000003c0: 6ab8 edbc e587 2c3d c6f3 85bd a9d9 fbbd
000003d0: f91e 633d b373 ecbb ac9d 21bd d44b 6cbd
000003e0: 7cf2 e4bd 282d efb9 f5bf 383e da9d 96bc
000003f0: 128e ae3d 52b2 2cbe bc60 a2bd 3bde eabd
-0.058735345 -0.02765616 -0.057159383 -0.020154703 0.021726897 -0.06770709 0.021622565 -0.06478407
-0.08305867 -0.030697761 -0.07636382 -0.07233063 -0.09610107 -0.025599485 0.12075065 0.01758432
-0.15738362 0.018420516 0.021204248 -0.07837574 0.1246619 -0.054195706 -0.10020386 -0.064136945
-0.1304981 0.08748239 -0.001158723 0.01830793 0.047475614 0.059618793 -0.042732254 -0.081898965
0.0005475965 0.0603722 -0.20312986 0.015270884 0.023144456 0.027069053 0.0743791 -0.018032571
-0.16885108 -0.04409599 0.0053917426 -0.04714279 -0.1531139 -0.07161368 -0.14321502 0.0595276
0.040654976 0.03247181 0.010776612 0.02554314 0.12759763 -0.10134363 0.028926492 -0.056703497
0.025842896 -0.08890844 -0.055659626 -0.0324919 0.054929506 -0.028875077 -0.11706373 -0.07961992
0.11056193 0.05651508 -0.10676477 -0.006946141 -0.010358017 -0.054608364 0.11407383 -0.1335619
0.039057605 -0.08216254 -0.024244465 -0.000108634544 -0.06427672 -0.019590268 -0.03173289 0.119612694
0.17197688 -0.11076236 0.04047006 -0.06482114 0.0433768 -0.037151035 0.08166113 -0.08958221
-0.0070453077 -0.064535975 0.0030679866 -0.1256904 0.008296331 0.049501024 0.026179332 -0.0618992
0.043501463 -0.08753081 0.115663804 0.084734306 0.049100023 -0.14250757 -0.013807447 -0.16435206
0.026830027 -0.18580677 0.009816907 0.12239044 0.006341586 -0.10154254 0.11308589 -0.0396229
0.08659448 0.0781654 -0.029186217 -0.124978036 -0.05148402 -0.13267343 0.06820285 0.071821876
-0.0761687 -0.105211176 -0.021300703 0.01440258 -0.0025029958 -0.037487306 -0.06812889 -0.03927799
0.0847678 -0.008676392 -0.13581981 0.062615894 -0.11366867 -0.022036698 0.10473954 -0.024062004
-0.08261224 -0.053062536 0.054638967 0.079065196 0.040350128 0.0063763703 -0.059310492 0.1119968
0.13751379 -0.015253924 0.05643927 0.09792278 0.06483653 -0.10371412 -0.0004943825 0.046310548
-0.0781019 0.111586235 0.19835502 0.019314926 -0.06126227 0.06338745 -0.016264338 0.032485355
-0.034661174 -0.04859233 -0.11129848 -0.12775537 -0.05687783 -0.099423386 0.124725625 -0.031783048
-0.07966114 -0.055281136 0.04308953 0.18774779 0.14078988 0.039936863 0.047498714 -0.06970761
-0.019662827 -0.10001487 -0.05545922 -0.020945534 0.028629994 -0.04697272 -0.054003585 0.019112384
-0.04898188 -0.08943878 0.1262291 -0.0004795117 0.087159894 0.009052843 0.015516365 -0.04914291
0.060340665 0.034253813 -0.052431367 -0.035585783 -0.120751835 -0.08139893 0.07434007 0.010770372
0.0962991 0.009208689 0.031688783 0.035466086 -0.09603258 -0.0068721976 0.13017422 -0.040879134
0.15497303 -0.12733044 -0.005905505 -0.0018700976 -0.071867555 -0.03803363 0.062114663 -0.00026528022
-0.04723811 0.111315764 0.076459296 -0.04385954 -0.06767912 -0.061488464 0.103884235 0.0440413
0.0045614806 0.07899832 0.0341981 -0.13671961 -0.018160747 -0.154677 -0.012534077 -0.05370192
0.1438195 -0.03612346 0.002452384 0.13743089 0.0026656992 0.04715845 -0.08225835 -0.0470043
-0.0290186 0.042121787 -0.06540637 -0.12297375 0.05544946 -0.007215941 -0.03945701 -0.057689503
-0.11179063 -0.00045619276 0.18041976 -0.018385816 0.085231915 -0.16864899 -0.07928607 -0.11468168

network.8.bias f4 [32]
00000000: a655 c136 c3f2 ceb7 a7f9 1237 eb26 8237
00000010: c019 0f38 dab3 4637 b1b9 4c39 1580 f937
00000020: 52f2 be37 2ee8 cfb8 ab54 b837 968f 2c37
00000030: 3f26 89b7 4c4f 7037 ee86 7938 f56f 1b39
00000040: 1045 fab9 23b8 09b8 f4b2 ee37 2c64 b038
00000050: 3077 8637 3268 51b7 2f5d 0338 be89 0638
00000060: 1301 9db6 4de4 36b6 dd66 1b38 d7aa f737
00000070: c6a4 63b6 e3ec e3b7 9f3f 7eb7 9d21 5db7
5.761819e-06 -2.4670158e-05 8.760405e-06 1.551533e-05 3.411784e-05 1.1843595e-05 0.00019524131 2.9742756e-05
2.2762604e-05 -9.913776e-05 2.1973936e-05 1.028543e-05 -1.6349482e-05 1.43235775e-05 5.949189e-05 0.00014823659
-0.0004773517 -3.2834836e-05 2.8455142e-05 8.4109925e-05 1.6029546e-05 -1.2481631e-05 3.1319618e-05 3.2076372e-05
-4.6790897e-06 -2.7253002e-06 3.705068e-05 2.9524248e-05 -3.3921547e-06 -2.7170818e-05 -1.5154393e-05 -1.3180453e-05

network.9.weight f4 [32]
00000000: c7fb a03f 0515 883f f2b8 8a3f f23b 8a3f
00000010: 69ac ac3f 7b40 ad3f 04c0 a73f 1435 8d3f
00000020: a1dc a43f 15a3 a83f cf30 ab3f d044 a53f
00000030: d6f7 a33f 2029 ac3f d9dd a23f ff5f a53f
00000040: 4a75 ac3f 2855 a43f 118d 973f 9740 a43f
00000050: 8e63 a13f 57a6 a33f b049 a63f 1c93 7a3f
00000060: 0c27 6b3f 5196 743f 4142 a43f f2e9 ad3f
00000070: ffed 8c3f cae5 9b3f ec05 a53f c8cc a43f
1.2576836 1.0631415 1.0837691 1.0799544 1.3490115 1.3535303 1.3105474 1.1031823
1.2879831 1.3174769 1.337427 1.2911625 1.2810009 1.345005 1.2723953 1.2919921
1.3473294 1.2838488 1.1839925 1.2832211 1.2608507 1.2785138 1.2991238 0.9788072
0.91856456 0.95541865 1.2832719 1.358702 1.1010131 1.2179501 1.2892432 1.2874994

network.9.bias f4 [32]
00000000: 9e30 9b3e 6ba3 8e3d fa5c 993d 4ed9 a13d
00000010: 7238 bc3e 4c85 c83e 1854 b03e 9761 c83d
00000020: 6f59 a13e 0e39 ba3e f9dd bf3e 4639 a13e
00000030: e3ec 973e a51e b23e 9c5c 9a3e 2645 a83e
00000040: ed26 c73e a910 8f3e 04a9 533e 5a41 9d3e
00000050: 3357 833e aaaa 9c3e a45d a33e 9dd7 90bc
00000060: 95a1 98bd 0ef4 0ebd c546 973e 7bf0 c83e
00000070: 2904 dd3d edf3 6b3e 2d4f 993e 1fca a63e
0.3031053 0.06964763 0.07488437 0.07902776 0.36761814 0.39164197 0.34439158 0.09784239
0.31513545 0.36371654 0.3747404 0.3148901 0.29672918 0.34789005 0.3014878 0.32865256
0.38896886 0.27942398 0.20669943 0.30713922 0.25652465 0.30598956 0.3190738 -0.017680937
-0.07452694 -0.034900717 0.2954618 0.39245972 0.10791809 0.23042269 0.2994322 0.3257608

network.9.running_mean f4 [32]
00000000: da6f 3ebf 31e7 c0be e560 3e3e ef06 0abe
00000010: 264c 7bbe c179 8cbf e532 73bf 2c93 fd3d
00000020: 824b 4abf 0bff 41bf b617 70be c3f4 91bd
00000030: cf99 30bf 7a17 93bd 8c66 5fbf 0379 84be
00000040: c7e6 6ebf 491d 943e 4384 66bf b242 dabe
00000050: 438f acbe 81f5 1fbf f933 ebbe d379 0fbe
00000060: 9dc2 99be fa91 29be 0f64 d3be 0c30 81bf
00000070: 9056 febd 0237 4dbe 35b2 35be 5011 e83d
-0.7438942 -0.37676385 0.1859165 -0.13479207 -0.24540767 -1.0974656 -0.94999534 0.123815864
-0.79021466 -0.7577979 -0.23446545 -0.07126763 -0.68984693 -0.07182212 -0.8726585 -0.25873575
-0.9332089 0.28928593 -0.90045565 -0.4262901 -0.3370305 -0.62483984 -0.4593809 -0.14011316
-0.3003129 -0.16559592 -0.41287276 -1.0092788 -0.12418854 -0.20040515 -0.17743762 0.11331427

network.9.running_var f4 [32]
00000000: 4a63 c03e 2fbe 213f d6a9 923f aa15 a03f
00000010: 4eed c03f 9c9a c03e e462 043f ea06 be3f
00000020: b7c0 1d3f 59b4 ad3e 8c7b 983f 3bab ac3f
00000030: 465b 943f e913 a43f b4da 333f 2968 823f
00000040: d39b b63e 68bf f63f 0f41 f73e e928 883f
00000050: 1ac7 0a40 cd1d 413f 90f8 213f 19b3 1f3f
00000060: e30a 873e 2968 4d3e 22a4 b43f 2585 be3e
00000070: e0d3 b93f 933f 923f 3d60 c03f 7674 4d3f
0.37575752 0.6318082 1.145808 1.2506611 1.507242 0.37617958 0.51713395 1.484586
0.61622185 0.33926657 1.1912704 1.3489755 1.1590354 1.2818576 0.7025559 1.0188037
0.3566576 1.9277163 0.48291823 1.0637485 2.1684022 0.754361 0.632699 0.62382656
0.26375493 0.20059265 1.4112589 0.37210956 1.4517784 1.1425651 1.502937 0.8025583

network.11.weight f4 [1, 32]
00000000: 0277 5f3e 475d 0f3e 56af 193e 3a36 193e
00000010: 046c 8b3e 324b 8e3e bc4e a83e 8f0e 213e
00000020: 8d04 cb3e b18c 9e3e 08e0 8d3e 392e c43e
00000030: 79a9 cb3e 97e6 a53e 5ea6 d13e ef21 b23e
00000040: 225c 883e c6dc 763e db70 423e 1439 c33e
00000050: 7eb9 6c3e 8aef cf3e d5d7 c23e d860 d83d
00000060: 5640 933d 9720 b63d 93a9 cd3e c49e 8f3e
00000070: 6b12 203e 0e99 523e 9a8a c43e de22 c03e
0.21822742 0.14000426 0.15008292 0.14962092 0.27230847 0.27791744 0.3287257 0.1572821
0.3965191 0.30966714 0.27709985 0.38316515 0.39777735 0.3240249 0.4094724 0.34791514
0.26632792 0.24107656 0.18988363 0.38129485 0.23117635 0.4061244 0.38055292 0.105653465
0.071900055 0.08892935 0.40168437 0.28050816 0.15632026 0.20566198 0.38386995 0.37526602
