MLP/best_model_alexnet.pth (torch, 120890 bytes, 47 tensors)

model_embedding.weight f4 [32, 12]
000000 2d 46 9a b5 51 07 d1 3d 79 ce 38 bd 86 61 a1 be
       -1.1494318e-06 0.102064736 -0.045118783 -0.31519717
000010 8f 31 cd 3d b8 3e d5 bd 57 de 9b 3e 70 13 c6 3c
       0.10019218 -0.10412353 0.3044307 0.02417919
000020 c7 91 e0 3d 1f af 8e 3d 90 5f 52 be 7e ce 90 3e
       0.10965305 0.069669954 -0.20544267 0.2828254
000030 6d dc ec ac 54 bb 5d 3d c4 65 64 be 28 8e 35 be
       -6.7319956e-12 0.05413373 -0.22304446 -0.1773001
000040 25 3e fb 3b ad f6 b3 bd 61 e3 12 3d 34 5e 88 be
       0.0076673203 -0.08787284 0.035861377 -0.2663437
000050 dd f0 2e be 68 ad 89 3e 7e 53 f4 3c b0 9c 8f 3e
       -0.1708407 0.2689011 0.029824968 0.2804923
000060 40 ee a1 ba 50 d4 94 3e db 05 0b be b9 aa 6b 3e
       -0.0012354329 0.29068232 -0.13576452 0.23014344
000070 36 ca 98 3e 6d df f9 bd 12 8d 0c be 82 57 81 3e
       0.29841775 -0.12200818 -0.13725689 0.25262076
000080 bc 0f 15 3c 4f b4 a5 3d 59 21 32 3d 4c d0 f2 3c
       0.00909799 0.08091032 0.043488834 0.02964034
000090 d7 26 87 3b 9b 8f 2c be a1 e7 b3 bd 7b d7 55 be
       0.004124503 -0.16851656 -0.08784414 -0.2088298
0000a0 fa 2d 98 be 58 8b 82 be c8 21 b9 bd 6d 8d a4 3d
       -0.29722577 -0.25496936 -0.090396464 0.08034787
0000b0 e4 48 9c be cb 5c 79 bb df e7 13 be 3b 61 3a 3d
       -0.3052436 -0.0038049694 -0.1444392 0.045502882
0000c0 e1 7e 4b 32 c8 0f 6a be f2 5f 69 bc 79 95 80 3e
       1.1845004e-08 -0.22857583 -0.014244067 0.2511404
0000d0 f6 fa 93 be 20 d9 59 be 9a 15 08 bd 9a 5e b8 3d
       -0.28902406 -0.21274233 -0.033223726 0.09002419
0000e0 5b bc a1 3e be 6e 90 3d a5 22 60 3e c4 f0 69 3e
       0.31589016 0.070523724 0.21888216 0.22845751
0000f0 c4 4c b3 bc 78 eb bf bd a5 d8 51 bd ec d1 a3 be
       -0.02188719 -0.09371084 -0.051232 -0.31996095
000100 15 83 d4 bd 85 2f 23 bd 30 3f 2f bd 5d b2 a7 3d
       -0.103765644 -0.03984024 -0.04278487 0.08188317
000110 cd 51 a5 3e 15 09 84 be 0c d2 77 3d 74 63 dc 3d
       0.32288972 -0.2578818 0.06050305 0.10761157
000120 72 ee d3 ab 4f 09 47 be 29 f0 c8 3c 43 84 22 3d
       -1.5058634e-12 -0.19437145 0.02452858 0.039676916
000130 15 f5 80 be 91 6a 36 be 15 42 63 3e e7 a0 15 3e
       -0.25186983 -0.1781409 0.22193177 0.1461216
000140 2f ea a1 3d 86 d3 d3 bd 61 71 69 be 81 9e b2 3d
       0.07905995 -0.10343079 -0.22797157 0.087216385
000150 2b 73 26 bc 26 49 4b 3e cb 85 40 be 00 3e cc 3d
       -0.010159294 0.19852123 -0.18801038 0.09972763
000160 3c 54 91 bb 07 1f 73 be 8f b4 63 be 37 3f 64 be
       -0.0044350903 -0.23742305 -0.22236846 -0.2228974
000170 86 7d 01 3e 05 ba d2 3b f3 52 7a be c4 58 b8 bc
       0.1264554 0.0064308667 -0.24445705 -0.022503264
000180 c5 96 94 aa 04 ec c5 3d 1f 03 74 3e 36 75 3a 3d
       -2.6394699e-13 0.09664157 0.23829316 0.045521937
000190 02 72 51 3d 24 8b dd 3d 29 e4 ea 3d d3 83 4e 3e
       0.051134117 0.108175546 0.11469299 0.20167474
0001a0 bc 31 f0 3d 95 bc 85 3e 0e 46 b7 bd be 71 e7 3d
       0.11728236 0.2612044 -0.08948909 0.113009915
0001b0 de 75 ea 3b 05 d0 36 3e 4c 3f 55 bd 2d 7a 9d 3e
       0.007155164 0.1785279 -0.052062318 0.30757275
0001c0 35 21 52 be 0e 98 6c 3e aa 07 a1 be 09 7e 06 be
       -0.2052048 0.2310488 -0.3145116 -0.13134016
0001d0 b2 4f 9f bc 3a 63 80 be a2 9e 91 be f5 f8 d8 bd
       -0.019447181 -0.25075704 -0.2844134 -0.1059436
0001e0 ef 41 07 2a fa b1 a1 3b 92 5b 4b bd be bf 94 be
       1.2013284e-13 0.0049345465 -0.049647875 -0.29052538
0001f0 bc 84 86 3e ac dd 89 be f3 0b 90 3e c9 52 27 3e
       0.26273143 -0.26926935 0.28134117 0.16340174
000200 a9 f0 c7 38 c0 68 b7 bd 14 e7 23 bd fa 1a 3a be
       9.533886e-05 -0.08955526 -0.040015295 -0.18174353
000210 27 2a c0 34 eb 54 24 3b 3d 74 82 bc ee ed 71 be
       3.5793457e-07 0.002507503 -0.015924567 -0.23625919
000220 44 88 f4 3d 0c ee 3e 3e bf 09 b0 3c 57 f4 16 be
       0.11940053 0.18645495 0.021489022 -0.14741646
000230 7a 01 fa bd 5d 02 61 3d 7e cf 66 3c 91 fd 4e 3e
       -0.12207313 0.054933894 0.014087556 0.20213915
000240 f0 ba ee b9 eb 64 b3 bd 39 91 48 bc d7 6e 34 3e
       -0.00045534177 -0.08759483 -0.012241655 0.17620407
000250 c5 91 8e bd 69 c5 36 be d4 1a 7d 3e 48 8d 87 be
       -0.06961397 -0.17848743 0.24717265 -0.26474977
000260 ea 1e 05 be e6 d3 d8 3d 88 8a e3 bd c2 c5 b0 3d
       -0.13000074 0.105872914 -0.11110407 0.08631469
000270 8e ab 47 bb 6f 5c f5 3d 03 45 24 be 67 63 72 bd
       -0.0030467245 0.11980521 -0.16041951 -0.05917683
000280 cf d1 fc 3d c9 19 00 be 9b 21 41 3e c1 f3 20 bc
       0.12344705 -0.12509836 0.18860476 -0.00982374
000290 76 1b 76 3e bf 0e 61 be b3 50 6f be 10 31 2b 3e
       0.24033913 -0.21978281 -0.23370628 0.16717935
0002a0 98 98 c5 ab 6d 0d 2b 3e 4e 36 83 bd fd 40 89 3e
       -1.4040045e-12 0.1670434 -0.06406842 0.26807395
0002b0 99 21 82 3c 05 ab 4a 3d f5 b4 81 bd 29 a9 3d 3d
       0.015885161 0.049479503 -0.06333343 0.0463039
0002c0 f0 7e 2c bd 46 7c 90 3e 79 1c 88 3c 51 53 d0 bd
       -0.042113245 0.28219813 0.01661514 -0.10172141
0002d0 61 69 33 ba 24 2a e6 3d e6 82 f0 bd a2 5e 99 be
       -0.0006844011 0.112385064 -0.11743717 -0.29955012
0002e0 7b 64 16 3c d9 b5 23 3d 41 56 09 bc d0 64 d9 3c
       0.00917923 0.039968345 -0.008382381 0.026537329
0002f0 a3 91 fd 3c 92 09 37 3e 9b 29 a9 bd 5f 6b 68 3e
       0.030953234 0.17874745 -0.08259889 0.22697209
000300 22 f4 ca aa 4f d1 6a 3e a9 be 78 bd de f9 20 be
       -3.605181e-13 0.22931407 -0.060728703 -0.15720317
000310 e4 c6 73 be 16 61 93 be 96 79 9e bd 07 5e 86 3e
       -0.2380634 -0.28785008 -0.077380344 0.26243612
000320 63 d3 3f be 7a e1 48 3e 2b 64 e2 3d 5b 79 8d be
       -0.18732981 0.19617262 0.11054262 -0.2763165
000330 94 61 93 bb 8a 64 8b 3e 67 7d 8a 3d 9d b0 2e 3d
       -0.004497716 0.27225143 0.067622 0.0426489
000340 f6 e6 a1 be 7a 11 22 bb 46 74 b1 bd ff c0 8d be
       -0.31621522 -0.0024729655 -0.086647555 -0.27686307
000350 90 d3 57 be fb e2 53 3d b3 20 01 be 1e 83 df 3d
       -0.21076798 0.051730137 -0.1261013 0.109136805
000360 2b c1 09 aa c9 a4 75 be 7b 75 7c be f1 ff 6f bd
       -1.2235063e-13 -0.23988642 -0.2465419 -0.058593694
000370 96 0c 60 be c7 d0 8a be c1 6b 5d 3e 26 11 60 be
       -0.21879801 -0.2711241 0.21623136 -0.21881542
000380 26 5c 2d be 02 c2 ad 3e 9c 27 c6 3d 4e d2 8e 3e
       -0.16929683 0.3393708 0.09675524 0.27894825
000390 5c 59 18 bb 42 5d 2c 3d 81 09 b2 3d cf 0b 52 3e
       -0.0023246622 0.042081125 0.08693219 0.20512317
0003a0 97 f0 0f 3e be 2f be 3d 38 1b 00 3e 01 e8 11 be
       0.14056621 0.0928645 0.12510383 -0.14248659
0003b0 22 cf 88 3c e5 e0 64 be 11 ce 6f be ee e9 ec 3d
       0.016700331 -0.22351415 -0.23418452 0.11568056
0003c0 d6 a8 29 bc 95 97 00 be 0a 9a 77 be 23 7a 16 bd
       -0.010355195 -0.12557824 -0.24179855 -0.036737572
0003d0 ee 24 22 3e 08 89 90 3e 4b 18 d9 bc b3 87 f1 3b
       0.158344 0.28229547 -0.026500842 0.007370913
0003e0 7c 94 40 be 51 50 18 3c 02 22 93 3d 93 b2 9f be
       -0.18806642 0.009296493 0.07184221 -0.3119093
0003f0 a0 72 52 3b f1 d4 6a 3e 5b bf 9c 3d 86 3f d0 3d
       0.003211178 0.22932793 0.07653686 0.10168366

model_embedding.bias f4 [32]
000000 f9 d9 5b 37 ea 2b 54 36 3f 17 4e bb 1e cd 1a bb
       1.3104168e-05 3.1616023e-06 -0.0031446961 -0.0023620795
000010 cf 59 ae b6 2b 8d 52 37 b4 e3 c4 b9 51 e1 5f b6
       -5.196059e-06 1.2549844e-05 -0.00037553685 -3.336074e-06
000020 d9 e6 54 b8 41 e0 ec 3c d3 c9 f5 b6 f4 25 98 b6
       -5.0759732e-05 0.028915526 -7.3250644e-06 -4.5343713e-06
000030 52 c6 33 bc e2 52 b4 b6 6e f7 5f 36 ad df b9 36
       -0.010972576 -5.374067e-06 3.3373612e-06 5.539469e-06
000040 7a 0b 88 3b 11 a8 a2 3c c5 8c 5d 3b 75 c5 3f b8
       0.0041517587 0.019855531 0.003380583 -4.5721845e-05
000050 3c 0c f7 3b a7 1d 13 3c 61 dc 23 bb e9 90 a7 39
       0.0075393002 0.008979238 -0.0025003182 0.0003196069
000060 0d 03 01 bd 3f 8b 08 3c 2a ad 42 b8 2c 33 d1 3c
       -0.03149705 0.00833398 -4.6414476e-05 0.025537096
000070 36 84 dc ba 07 cf 8b 38 3d 35 ce b7 11 48 e1 b7
       -0.001682407 6.666598e-05 -2.4581905e-05 -2.6855649e-05

dataset_embedding.weight f4 [16, 3]
000000 18 68 98 be a6 b4 ec bd e4 96 06 bc 7c 92 ce bd
       -0.29766917 -0.115578935 -0.008214686 -0.100865334
000010 52 79 f7 be ef d5 32 be c9 cf d6 3e ec c6 dc 3e
       -0.48334748 -0.17464422 0.41955402 0.43120515
000020 b0 cd ce 3d 92 60 c4 be 0c 82 e7 bc 95 bd cb be
       0.100978255 -0.38354927 -0.028260253 -0.39793077
000030 84 96 95 be ac fc 0e be 3b 58 4b 3d 80 21 64 be
       -0.29216397 -0.13963574 0.04964469 -0.22278404
000040 c0 6c db bd 36 d7 04 bf 0d 40 82 bb 0b 8c 8e 3e
       -0.10714102 -0.51890886 -0.0039749206 0.2784122
000050 63 ff 04 be e0 25 19 bf e4 00 a5 3d 7d bf 90 be
       -0.12988047 -0.5982342 0.080568105 -0.28271094
000060 4d 3d 8e 3d bf 26 bc 3e 3f 33 a8 bc f3 9c fe bd
       0.06945286 0.3674831 -0.020532249 -0.124322794
000070 0d 0d b9 3e 14 1d f3 be 9a 0a e9 3e 9f 07 83 3e
       0.3614277 -0.47483122 0.455159 0.25591752
000080 c3 1e cc 3e f4 33 bd 3d c3 26 8e 3e 44 52 98 3d
       0.3986722 0.09238425 0.27763948 0.07437566
000090 5a d8 c2 be a8 d1 2c be 2a 3c e7 3d 93 fc 09 3f
       -0.38055688 -0.16876853 0.11290772 0.5390102
0000a0 d4 a1 1a bf 86 61 3f 3e 7f af 19 bf 9a 68 96 be
       -0.6040318 0.18689546 -0.6003341 -0.2937668
0000b0 4b 2c 5e be 8f ae dd be a8 6f 0f 3f 79 f4 0e bf
       -0.21696584 -0.4329724 0.5602975 -0.55841786

dataset_embedding.bias f4 [16]
000000 6b 3c ce b5 5f 67 03 be 83 69 64 b7 71 0e 32 3c
       -1.536578e-06 -0.12832402 -1.3614425e-05 0.010867701
000010 a2 bb 0d be cd 7a 12 ba cd 28 9f 39 e7 41 36 be
       -0.13841107 -0.0005587757 0.00030357242 -0.17798577
000020 35 ff 5d b8 88 4f ab bd 29 62 5b bd 8a 97 06 3e
       -5.2928186e-05 -0.08364779 -0.05356041 0.13143745
000030 d1 c9 70 bd 9e cb b3 ba 8a 15 43 b8 4a ee 3c 3c
       -0.058786217 -0.0013717299 -4.6511683e-05 0.011531422

tensor_network.0.weight f4 [16, 1]
000000 6b ec 84 3e e1 4c 0f 3f c2 ac 08 2d 95 b7 0c be
       0.25961623 0.5597668 7.769065e-12 -0.13741906
000010 eb 09 9b 3e fc 06 c7 be 34 63 a9 3e 33 97 85 3e
       0.30281004 -0.38872516 0.33083498 0.26091918
000020 f3 46 02 3f df 4f 60 be a9 dd 01 ad 79 89 1a 3e
       0.5088951 -0.21905468 -7.3820195e-12 0.15091504
000030 84 25 83 be 9d 40 00 3f 85 19 28 be 64 ee ea bd
       -0.2561456 0.5009859 -0.16415985 -0.11471251

tensor_network.0.bias f4 [16]
000000 fc 3b 9a be 49 da 92 3e 0f 70 7f bc 5c 73 30 3f
       -0.3012389 0.28682163 -0.015590682 0.68926024
000010 39 d0 03 3f 05 98 23 3f dc 2c 7e bf 6e a2 6d 3e
       0.514896 0.6390384 -0.992872 0.23206493
000020 25 b0 2e be b3 45 21 ba 8b 34 fa be f0 2c ab 3d
       -0.17059381 -0.00061520486 -0.48868212 0.083581805
000030 c8 88 c8 2b 90 6d 2b be d4 c5 1e 3f c3 ab 7e bd
       1.4248819e-12 -0.16741014 0.6202061 -0.062175523

tensor_network.2.weight f4 [16]
000000 c3 83 84 3f 8b fe 79 3f 74 6c 20 3f c8 af 81 3f
       1.035271 0.97654027 0.62665486 1.0131769
000010 af c3 81 3f 3e e8 84 3f 9f f5 7a 3f fe 17 80 3f
       1.0137843 1.0383375 0.9803104 1.0007322
000020 0b 5d 82 3f 74 6c 20 3f 74 6c 20 3f ed a7 79 3f
       1.0184644 0.62665486 0.62665486 0.9752186
000030 74 6c 20 3f 32 83 81 3f 1d 64 87 3f 74 6c 20 3f
       0.62665486 1.0118163 1.0577427 0.62665486

tensor_network.2.bias f4 [16]
000000 29 ab 78 37 ab 24 3b b8 f6 c9 78 ac 9f 9e 9c 37
       1.4821803e-05 -4.4618424e-05 -3.535503e-12 1.8670513e-05
000010 4d 44 14 b8 72 15 87 b8 09 bd ab 37 20 45 01 b8
       -3.534956e-05 -6.441296e-05 2.0472815e-05 -3.0820374e-05
000020 84 85 91 38 5b 80 29 2b 3b b5 3e 2b c5 77 06 b7
       6.939008e-05 6.021899e-13 6.775307e-13 -8.014908e-06
000030 71 d2 ac ac 38 e9 86 b7 74 42 81 36 34 dd 97 ac
       -4.9118977e-12 -1.6082646e-05 3.8522357e-06 -4.3162366e-12

tensor_network.2.running_mean f4 [16]
000000 7d fb 18 3f e7 34 0e 40 00 00 00 00 0f f3 8d 3e
       0.5975874 2.221979 0.0 0.27724501
000010 57 b5 c8 3f 9c 1c 56 3d 67 52 c1 3e 47 05 92 3f
       1.568034 0.052273378 0.3775818 1.140786
000020 7f b7 ca 3f 00 00 00 00 00 00 00 00 c0 fd 1c 3f
       1.5837249 0.0 0.0 0.6132469
000030 00 00 00 00 e9 a7 c7 3f ce 95 41 3e 00 00 00 00
       0.0 1.5598117 0.18904802 0.0

tensor_network.2.running_var f4 [16]
000000 c0 e3 a5 3e 42 11 ca 3f c1 bb e8 1b f8 d1 44 3d
       0.32400322 1.5786517 3.8502514e-22 0.048051804
000010 a1 7a ee 3e b6 72 23 3c 3b cf 90 3e 28 a4 b1 3e
       0.46577933 0.00997608 0.28283104 0.34695554
000020 be 30 a7 3f c1 bb e8 1b c1 bb e8 1b 73 3b f1 3d
       1.306175 3.8502514e-22 3.8502514e-22 0.11778917
000030 c1 bb e8 1b 09 12 a2 3f 58 0d 12 3d c1 bb e8 1b
       3.8502514e-22 1.2661754 0.035657257 3.8502514e-22

worker_network.0.weight f4 [16, 1]
000000 30 d1 b2 2b 8d f1 ad bc 2f 75 45 3d a3 15 09 3f
       1.2705722e-12 -0.021233344 0.048207458 0.5354864
000010 85 53 9e be c7 ee b7 3c d2 38 93 be 01 c9 c5 3d
       -0.30923095 0.022452725 -0.28754288 0.09657479
000020 b0 58 12 bf 56 e7 bb 3d c3 01 40 be 7b e0 93 3d
       -0.57166576 0.09174983 -0.18750672 0.072205506
000030 25 a4 46 bd c8 3c 05 3f 0f 90 e6 3e 04 cc cb 3d
       -0.048496384 0.5204587 0.45031783 0.09951022

worker_network.0.bias f4 [16]
000000 11 b8 08 bf 04 6d be be 98 1d 84 3e b4 0a 7e bd
       -0.53405863 -0.37192547 0.25803828 -0.062021926
000010 6a ad ab 3e 99 da d0 3e 42 11 e0 3b d2 ee 9d 3d
       0.33530742 0.40791777 0.006837995 0.07711567
000020 f5 8f af be 87 ad 67 3e 20 db dc 2c 6a 38 03 3d
       -0.34289518 0.22624789 6.277104e-12 0.032036223
000030 f1 88 03 bf 1e 13 dd 3e 0e 5b 9f 35 8e ea e4 be
       -0.5138083 0.43178648 1.1872924e-06 -0.447102

worker_network.2.weight f4 [16]
000000 74 6c 20 3f 74 6c 20 3f de 4f 76 3f cb 6a 79 3f
       0.62665486 0.62665486 0.9621562 0.9742858
000010 74 6c 20 3f f6 bf 6f 3f 74 6c 20 3f 84 6b 7c 3f
       0.62665486 0.93652284 0.62665486 0.98601556
000020 74 6c 20 3f 37 6d 7e 3f 74 6c 20 3f aa 12 80 3f
       0.62665486 0.993854 0.62665486 1.0005696
000030 74 6c 20 3f 4e be 81 3f 6f 0c 76 3f a2 9a 75 3f
       0.62665486 1.0136201 0.9611272 0.95939076

worker_network.2.bias f4 [16]
000000 7a 54 1a ac 45 2c aa aa 09 ae 04 37 f8 cd 16 37
       -2.193161e-12 -3.0228784e-13 7.908334e-06 8.988653e-06
000010 69 f7 4d ac 73 16 17 38 aa fa c6 ac a6 99 5f b8
       -2.9269592e-12 3.6022113e-05 -5.6553278e-12 -5.331044e-05
000020 95 40 f7 2c 0c 8d ad 38 7f 7e 74 ab e9 ff 40 b8
       7.0273323e-12 8.275555e-05 -8.686176e-13 -4.6014702e-05
000030 de e3 9f ac 35 12 ff 37 ee 94 b6 37 a0 2a b6 b7
       -4.54435e-12 3.0406847e-05 2.1765441e-05 -2.171594e-05

worker_network.2.running_mean f4 [16]
000000 00 00 00 00 00 00 00 00 d3 1f fc 3e 40 85 1d 40
       0.0 0.0 0.4924303 2.461258
000010 00 00 00 00 39 3e 08 3f 00 00 00 00 6e 16 06 3f
       0.0 0.53219944 0.0 0.52377975
000020 00 00 00 00 39 5e 28 3f 00 00 00 00 82 3e be 3e
       0.0 0.6576877 0.0 0.37157065
000030 00 00 00 00 db f8 38 40 06 0c 08 40 71 e2 ee 3d
       0.0 2.890189 2.1257339 0.11664284

worker_network.2.running_var f4 [16]
000000 c1 bb e8 1b c1 bb e8 1b 2f 2f 7f 3c 1c f9 ed 3f
       3.8502514e-22 3.8502514e-22 0.015575214 1.8591647
000010 c1 bb e8 1b 82 db 8c 3b c1 bb e8 1b d5 3e 6c 3d
       3.8502514e-22 0.0042986283 3.8502514e-22 0.05767711
000020 c1 bb e8 1b ba 13 5b 3d c1 bb e8 1b 18 ab 08 3d
       3.8502514e-22 0.05348561 3.8502514e-22 0.033366293
000030 c1 bb e8 1b ae e1 e0 3f 3a a7 a8 3f 08 c6 e2 3c
       3.8502514e-22 1.7568872 1.3176033 0.02768232

batch_network.0.weight f4 [16, 1]
000000 e4 c1 86 ba ff a1 0f bf 82 54 bb be 7a 17 55 be
       -0.0010281173 -0.5610656 -0.36587912 -0.20809737
000010 cb 48 86 3e 2f 73 9c bc bf 0a 06 bd 4c 5b 86 be
       0.26227412 -0.019097893 -0.032725092 -0.2624153
000020 a5 bd 4c 3e 17 98 da bc 57 7c 5c 3d f7 cf 6f 3e
       0.19994219 -0.02668385 0.053829517 0.23419176
000030 10 01 86 be 45 d0 96 be ba 00 35 3e c0 50 f8 be
       -0.26172686 -0.29455772 0.17676058 -0.48499107

batch_network.0.bias f4 [16]
000000 34 99 ca be aa c0 07 3e f7 4f 01 3f 41 7d 31 be
       -0.3957001 0.1325709 0.5051264 -0.17332937
000010 57 f1 fd be 37 7a ea be 29 63 0f 3f a9 91 04 3f
       -0.4959819 -0.45796368 0.5601068 0.5178476
000020 c0 5b c0 3e 64 7f 81 3e 9e e9 16 ba 81 95 ea be
       0.3757 0.25292504 -0.00057568576 -0.45817187
000030 64 ce fe 3e 9b bf 2c 3e 97 9b 05 3f ff 37 89 be
       0.4976684 0.16869967 0.52190536 -0.26800534

batch_network.2.weight f4 [16]
000000 74 6c 20 3f 74 6c 20 3f 74 6c 20 3f 74 6c 20 3f
       0.62665486 0.62665486 0.62665486 0.62665486
000010 27 aa 7b 3f 74 6c 20 3f 85 a6 7e 3f 3a 7a 22 3f
       0.98306507 0.62665486 0.9947284 0.6346775
000020 02 9d 7d 3f ff fa 7a 3f 86 07 75 3f f8 71 76 3f
       0.990677 0.9803924 0.95714605 0.9626765
000030 c3 6a 20 3f 74 6c 20 3f 07 33 7d 3f 74 6c 20 3f
       0.62662905 0.62665486 0.98905987 0.62665486

batch_network.2.bias f4 [16]
000000 66 6c 1d 2c 6d cc a3 2c 7c 9f bd 2b 6c 25 f2 ab
       2.2371215e-12 4.6554345e-12 1.3473524e-12 -1.7205521e-12
000010 b6 0f f1 37 34 28 90 ac 15 2c de b7 d2 6d ec 36
       2.8736755e-05 -4.0971896e-12 -2.648499e-05 7.046133e-06
000020 d2 e0 e5 37 d0 54 09 b6 25 dd 04 38 12 0d 12 b8
       2.7403617e-05 -2.0463958e-06 3.167721e-05 -3.4821285e-05
000030 12 6d c0 b6 cf cd dd ab 3d 40 75 36 eb d7 98 2c
       -5.7347434e-06 -1.5760118e-12 3.6545237e-06 4.3440715e-12

batch_network.2.running_mean f4 [16]
000000 00 00 00 00 00 00 00 00 00 00 00 00 00 00 00 00
       0.0 0.0 0.0 0.0
000010 2c 59 a2 3f 00 00 00 00 51 9c b2 3e 85 73 86 1a
       1.2683463 0.0 0.34884885 5.560773e-23
000020 65 89 df 3f ba a1 96 3d d9 31 be 3e 60 fc 8e 3f
       1.7463804 0.07355066 0.37147406 1.1170769
000030 d9 55 72 21 00 00 00 00 3b a7 dc 3f 00 00 00 00
       8.210641e-19 0.0 1.7238535 0.0

batch_network.2.running_var f4 [16]
000000 c1 bb e8 1b c1 bb e8 1b c1 bb e8 1b c1 bb e8 1b
       3.8502514e-22 3.8502514e-22 3.8502514e-22 3.8502514e-22
000010 93 b3 5d 3e c1 bb e8 1b c5 3a 53 3b 2c cc e8 1b
       0.21650533 3.8502514e-22 0.0032231074 3.8513123e-22
000020 96 16 05 3e 02 ef 17 3b ed f9 1d 3c eb ae 30 3e
       0.12996897 0.0023183231 0.0096421065 0.17254226
000030 30 af af 1c c1 bb e8 1b c8 6c cc 3d c1 bb e8 1b
       1.1625813e-21 3.8502514e-22 0.09981686 3.8502514e-22

ps_network.0.weight f4 [8, 1]
000000 42 76 5e bd a8 06 16 bf 89 ed 72 be 8e e8 97 be
       -0.054312 -0.58603907 -0.23723425 -0.29669613
000010 4d 34 3e 3d dc bc 86 2a 1e 2f 09 bf c5 54 de 32
       0.046436597 2.393423e-13 -0.5358752 2.588275e-08

ps_network.0.bias f4 [8]
000000 26 2c 0b 3f 25 95 81 3e 3b 33 72 3e 8d 72 56 3e
       0.5436424 0.253091 0.23652355 0.20942135
000010 b5 97 0c 3e aa 17 98 be f2 86 18 3f 26 0e 37 bd
       0.13729747 -0.29705554 0.5958091 -0.044691227

ps_network.2.weight f4 [8]
000000 53 d5 80 3f f2 70 81 3f 08 05 80 3f fb 09 78 3f
       1.0065101 1.0112593 1.0001535 0.9689023
000010 6d 5b 73 3f 74 6c 20 3f a1 6d 7d 3f 74 6c 20 3f
       0.9506138 0.62665486 0.98995405 0.62665486

ps_network.2.bias f4 [8]
000000 4f 69 25 b8 5f 54 a0 37 fa bd 39 36 77 90 a7 37
       -3.9437142e-05 1.9112775e-05 2.767773e-06 1.9975223e-05
000010 8e 99 15 b8 9f 87 78 2b 0f af c3 b4 e0 21 0e 2d
       -3.5667377e-05 8.829551e-13 -3.6448952e-07 8.079287e-12

ps_network.2.running_mean f4 [8]
000000 f8 aa de 3e c5 be 0c 3e af 15 03 3e 8a 7d e8 3d
       0.43489814 0.13744648 0.1280124 0.1135207
000010 a9 6d 76 3e 00 00 00 00 62 e8 a5 3e 00 00 00 00
       0.2406527 0.0 0.32403857 0.0

ps_network.2.running_var f4 [8]
000000 92 b6 ba 3c f4 74 83 3c 47 0b 64 3c 56 53 33 3c
       0.022792134 0.016046979 0.013918704 0.010945162
000010 ca a4 95 3c c1 bb e8 1b 6e a8 b6 3d c1 bb e8 1b
       0.018267054 3.8502514e-22 0.08918844 3.8502514e-22

main_network.0.weight f4 [128, 104]
000000 e9 03 54 3d 51 3e b4 3c a7 77 01 3d 7a 9e 32 3c
       0.05176154 0.022002371 0.03160825 0.010902042
000010 79 29 8b 3c 20 f7 8c b9 00 99 4c 3d 85 e7 a1 bd
       0.01698755 -0.00026887003 0.0499506 -0.07905487
000020 9b 8f a0 3d b3 8a 2d bc c4 f1 82 bd 90 6d 8d bd
       0.078398906 -0.0105921505 -0.063937694 -0.06905663
000030 e1 d6 8c bd b1 60 84 3c 86 14 63 3d b4 19 2a bc
       -0.068769224 0.016159387 0.055439495 -0.010382105
000040 0e 67 bb ba 16 12 9b 3d 29 23 c8 3b 42 4d 48 bb
       -0.001429768 0.07571809 0.006107707 -0.0030563627
000050 fc c8 84 3d 99 cb 2b bd 74 3d 13 bc 74 03 11 bc
       0.06483647 -0.041942213 -0.00898682 -0.008850921
000060 26 d7 dd 3c 53 d9 a5 bd c1 61 02 3d 0b 6d 95 3d
       0.02708013 -0.08098092 0.031831507 0.07296189
000070 82 ec 83 bc 73 7c ed bd 94 8d 3f 3d e5 99 ac bd
       -0.016103987 -0.115960024 0.04676588 -0.084277906
000080 b0 12 84 3b 19 7d ab 3d 12 cb 93 bc ef 62 f2 bd
       0.004030548 0.0837347 -0.018041167 -0.11835276
000090 93 74 a0 bd 65 47 de bd 65 8e 48 3d 77 12 da bd
       -0.07834735 -0.10853461 0.048963923 -0.10648053
0000a0 e3 f7 7b bd 69 1d d7 bd 6d 76 12 bd a5 81 28 bd
       -0.0615157 -0.105036564 -0.03575747 -0.041139264
0000b0 63 6d 26 bd df 3e 1e bc 62 05 b7 bd 45 83 d6 3b
       -0.040631663 -0.009658544 -0.089365736 0.0065464103
0000c0 0f a3 72 3b 34 d5 08 bd 70 d8 0b 2a f2 1b e6 3d
       0.003702346 -0.03340645 1.2420772e-13 0.11235799
0000d0 3c 30 08 be a2 b9 7d 3d b0 36 59 3d 65 23 11 bd
       -0.1329965 0.06194461 0.05303067 -0.035434145
0000e0 42 fa 0c be 25 1c 02 aa 57 4e 26 2b 9e cb 84 bd
       -0.13767341 -1.1556084e-13 5.9083765e-13 -0.064841494
0000f0 da b2 07 2d 27 4a cb bd a9 90 d7 3d d8 69 94 2b
       7.713575e-12 -0.09926253 0.105256386 1.054541e-12
000100 bc 40 46 a9 8b e0 09 ad 21 d7 05 3d b3 e0 43 bd
       -4.402098e-14 -7.837407e-12 0.032675866 -0.04782171
000110 2f 0b 9b b1 a6 34 01 3d 4d 86 b0 2a 65 11 1f bd
       -4.512365e-09 0.03154435 3.135707e-13 -0.038834948
000120 da 90 78 2a 42 7b 20 3c 73 cc f5 27 42 e5 f1 3c
       2.207708e-13 0.009795012 6.8222825e-15 0.029528264
000130 a5 55 81 aa 85 78 8b bd 72 4b 1b bd 8d 13 1c 3d
       -2.297443e-13 -0.06810097 -0.037913747 0.038104583
000140 95 c8 94 30 a4 94 54 2b de 27 17 2f 43 b0 05 2d
       1.0825426e-09 7.552381e-13 1.3747534e-10 7.599313e-12
000150 53 05 41 3d ed e0 dc b2 29 be 92 3a 9d ca e1 bb
       0.04712422 -2.5713655e-08 0.0011195588 -0.0068906085
000160 14 5a bb 3c 5c 7a 75 3d f8 70 2e bb 6b 7f 88 3d
       0.022870101 0.059931144 -0.0026617628 0.06664928
000170 b8 45 0b 31 d5 73 58 30 5a 7f 14 bd ce 11 b0 2a
       2.0266793e-09 7.874495e-10 -0.036254264 3.1276235e-13
000180 1c 6c e6 3d ad 0d 76 3d 1f e7 c8 3b 64 1e 51 3c
       0.11251089 0.060071636 0.0061310674 0.012763593
000190 35 6c 0f 3d e8 e3 fb af fe 5c 81 bd da f6 54 ab
       0.035015304 -4.581857e-10 -0.06316565 -7.5660105e-13
0001a0 30 a0 61 bd 45 aa 86 bd b6 83 95 bc a2 53 81 3d
       -0.055084407 -0.06575445 -0.018251281 0.0631478
0001b0 0f f1 82 bc 93 88 9f bd e0 64 70 bd 90 6f 6b ba
       -0.015984086 -0.07789721 -0.058689952 -0.00089811627
0001c0 84 99 07 3e 65 5a d3 bc 0b 3f 9f bd d5 32 7d 3d
       0.13242155 -0.02579994 -0.07775696 0.061816055
0001d0 0a 54 13 bd 46 4a 9d 3d 59 d2 f0 bd b5 19 53 3b
       -0.035968818 0.07680182 -0.11758871 0.0032211368
0001e0 4d 09 8e bd 93 d0 84 bd d4 4c 17 be 6d 88 7c bd
       -0.06935368 -0.06485095 -0.14775401 -0.061653543
0001f0 4d a1 9a 3b 3c 98 89 bd e7 0e 28 3d 81 2f f8 3c
       0.0047189356 -0.067184895 0.041029837 0.03029609
000200 2f 2d a2 bc 3f a5 de bc 36 c3 6c bd aa 9b 8e b9
       -0.019796936 -0.027178405 -0.057803355 -0.0002720033
000210 a2 0b 1c 3d c7 2f 07 3c 74 b6 43 3d 4f 29 29 3d
       0.03809703 0.008251137 0.047781423 0.04129916
000220 06 33 6d bd 45 d8 95 3d 91 d6 82 bc d5 5c ea bd
       -0.057909988 0.07316641 -0.015971454 -0.114434876
000230 3a dd a6 3c 54 b7 25 3d f7 db 59 bd 41 92 88 bd
       0.02036916 0.04045804 -0.05318829 -0.06668521
000240 92 86 0a 3c 4b a3 95 3a fc 55 7b bd 96 ee 19 3c
       0.008454936 0.0011416463 -0.061361298 0.009395262
000250 a8 95 c9 bd 1e f4 ff 3d 46 3c 95 bd b8 24 28 3d
       -0.09842998 0.124977335 -0.07286887 0.041050643
000260 dd 0c 0f 3d b0 1b 76 bd 58 a5 ce 2e 24 b9 18 3d
       0.034924377 -0.060085 9.3971664e-11 0.03728594
000270 c5 98 b7 3d e3 17 a0 bc 5d 65 8e 3c f1 3b c4 bd
       0.08964685 -0.01954264 0.017382318 -0.095817454
000280 65 8d 02 3d a0 59 c8 aa c1 d9 33 2d c1 d1 5c bd
       0.031873126 -3.5589327e-13 1.0223323e-11 -0.053910974
000290 1c 20 46 ad e4 de 7e bd ab cb a5 bd 36 cf 91 2a
       -1.1262127e-11 -0.062224284 -0.08095487 2.5900956e-13
0002a0 bd 89 18 b0 78 48 db 2a fa 25 52 3d 92 0e 3b bd
       -5.5493016e-10 3.89525e-13 0.05130575 -0.045668192
0002b0 0f f2 0e ac 85 76 6d bc 14 de 58 ab 14 8f 05 bc
       -2.0313783e-12 -0.014493589 -7.704681e-13 -0.008151788
0002c0 ed 18 45 b0 d8 17 14 3d 9d a2 73 ab d4 b4 2b bd
       -7.1703604e-10 0.03615555 -8.6556614e-13 -0.041920498
0002d0 a1 82 11 32 de 41 31 bc f4 20 98 3c a2 a6 a8 bd
       8.469812e-09 -0.010818927 0.0185704 -0.08234908
0002e0 55 78 07 2d fe 9b bd 2b c2 5c f8 2b 1a 10 d8 28
       7.700581e-12 1.3472554e-12 1.7647205e-12 2.39878e-14
0002f0 5a d7 98 3c 36 b4 aa 26 ac 5e 20 3c 28 4b 84 bc
       0.018657375 1.1844966e-15 0.0097881965 -0.016149119
000300 88 1c 1c 3b 26 d6 13 3c 74 5b 20 bc 41 c1 b5 3c
       0.0023820717 0.009023225 -0.009787429 0.022186877
000310 6a 0a fd bb 18 2e e8 2f 57 07 b8 bb b4 ff 0c af
       -0.0077221887 4.2233306e-10 -0.0056161094 -1.282377e-10
000320 50 de f1 3d 53 ce ed 3d eb 1a 0b 3d 45 65 db 3d
       0.11809981 0.11611619 0.033961218 0.10712675
000330 9d c9 8f bd 2e 96 f7 ab 53 6c 31 bd 65 02 1c af
       -0.070208766 -1.7592089e-12 -0.043316197 -1.4188968e-10
000340 ca c4 8e bd 92 ab d8 3d da 89 ce bc 29 fa 42 bc
       -0.06971128 0.105795994 -0.025212217 -0.011900463
000350 51 56 ca 3d ec 81 a7 3d 36 29 83 bd 24 67 96 3d
       0.09879745 0.081790775 -0.06404345 0.07343891
000360 ef 45 a7 bd 8b fb dc 3c 7a ab 32 bd 89 fe 79 bc
       -0.08167636 0.026975414 -0.043620564 -0.01525844
000370 50 f0 17 bd 2c a3 66 3d b7 80 7f 3d 65 ec 2f bd
       -0.037094414 0.056307957 0.06237861 -0.042950053
000380 f7 f8 84 bc 69 45 3a 3d 80 b5 83 bd 3c e4 ba bd
       -0.016231997 0.04547635 -0.06431103 -0.091255635
000390 c5 06 09 3d b8 dc 67 3d 18 a3 d5 3b ea 7b 4c 3c
       0.03345372 0.05660698 0.0065196864 0.012480715
0003a0 d0 49 4c bd 77 46 00 be 91 d4 9c bd 8e ac 12 3d
       -0.04987508 -0.1252688 -0.07657731 0.035809092
0003b0 5a 6a f3 3d 19 21 0d bb 35 28 85 3d a9 c4 35 bd
       0.11885519 -0.002153462 0.065018095 -0.044377003
0003c0 14 c9 b7 bd 6b 7d b0 3b 67 21 50 3c 50 38 c4 bd
       -0.089738995 0.0053860447 0.012703276 -0.09581053
0003d0 06 c2 a0 3d e8 05 50 bd 4b 10 d2 bd 46 ea b6 3c
       0.07849507 -0.050786883 -0.10257014 0.022328507
0003e0 c8 79 a9 3d 64 c0 47 3d 85 48 3f bd 77 6c 54 bd
       0.08275181 0.048767462 -0.04670002 -0.051861253
0003f0 ed 25 2a 3d 6d 97 ab 3c 22 2b 73 bd 18 09 ac bd
       0.041540075 0.020946229 -0.059367307 -0.08400172

main_network.0.bias f4 [128]
000000 5b e2 6f 35 73 40 74 36 a0 fe 23 b6 e5 88 8c 37
       8.936383e-07 3.6396348e-06 -2.4437104e-06 1.6753047e-05
000010 85 8f 03 37 85 2c fd b6 d5 d5 bb 36 1e a4 30 b7
       7.841624e-06 -7.5451703e-06 5.5979276e-06 -1.0528629e-05
000020 37 f8 45 37 89 d7 0a b6 a1 bd a1 37 7b 5b f2 b5
       1.1799907e-05 -2.068906e-06 1.9280998e-05 -1.8057029e-06
000030 e9 cd 0a 37 f2 6f c1 34 96 b6 be b5 7a 65 aa b7
       8.273383e-06 3.6030502e-07 -1.4209243e-06 -2.0312833e-05
000040 d3 76 18 37 5a b3 03 b7 f8 1f a4 35 3b b4 bd b6
       9.087572e-06 -7.849967e-06 1.2228256e-06 -5.6536205e-06
000050 f8 39 48 b7 c6 dd 9f 37 7f 67 5a 35 99 ba dc 37
       -1.1934426e-05 1.9057548e-05 8.1361935e-07 2.6312935e-05
000060 8c ec af b7 b9 06 2c b6 28 95 df b5 59 35 3a 35
       -2.0971776e-05 -2.563391e-06 -1.6658205e-06 6.936803e-07
000070 92 44 41 b6 74 8c 2b b6 5e d1 8e b7 d6 71 26 37
       -2.8799154e-06 -2.556274e-06 -1.7025213e-05 9.9208755e-06
000080 d8 55 03 b7 85 4d 3e b6 39 10 1c 37 f4 43 5b 36
       -7.8281955e-06 -2.8357329e-06 9.302102e-06 3.2673097e-06
000090 05 11 5f 37 6c 38 5d b6 e7 36 83 b7 49 5a 59 37
       1.3295798e-05 -3.2964408e-06 -1.5641983e-05 1.2955229e-05
0000a0 57 a8 78 36 ff a1 2f 37 5c bd e9 b6 19 96 6f b6
       3.7052866e-06 1.04685305e-05 -6.9659854e-06 -3.5701144e-06
0000b0 4b 3d f1 35 5f 3c db 36 92 6f 96 b6 4c 91 94 36
       1.7973738e-06 6.5337367e-06 -4.483337e-06 4.4276585e-06
0000c0 cb 82 e3 b6 b2 fd e3 b3 e1 48 5f b7 e3 ad 77 b6
       -6.7803535e-06 -1.0616658e-07 -1.3308804e-05 -3.6907084e-06
0000d0 06 72 97 36 ec 09 2c b7 0a 11 85 37 ee 24 ba 36
       4.5134248e-06 -1.0254309e-05 1.586277e-05 5.547531e-06
0000e0 7d 6d 0b b7 e4 cc ac b7 80 e4 64 b3 b3 09 6f 36
       -8.310538e-06 -2.0599407e-05 -5.3293206e-08 3.561942e-06
0000f0 f4 1e 68 37 20 49 51 37 48 26 d5 36 1d ac d2 b4
       1.3835484e-05 1.24743965e-05 6.352351e-06 -3.9240777e-07
000100 2e 71 04 37 14 3c a0 37 db f1 0e b6 3c 88 59 b5
       7.894165e-06 1.9101462e-05 -2.1300427e-06 -8.1037047e-07
000110 4b 2e 65 35 9d d0 08 b6 f5 57 0c 36 2f 2f 20 37
       8.5376513e-07 -2.0387008e-06 2.0912823e-06 9.547729e-06
000120 b5 95 9d 36 d9 38 a2 b6 9f e2 67 b6 de b0 b4 b6
       4.696393e-06 -4.834594e-06 -3.4553593e-06 -5.385008e-06
000130 85 c5 1f b4 1e 05 4b 36 8a ca ff 36 24 7a 9d 36
       -1.4879886e-07 3.0252336e-06 7.623171e-06 4.6931837e-06
000140 bc ef 9a 35 ce 98 7b 36 aa a4 15 b8 71 ae 6d 36
       1.1543666e-06 3.7490859e-06 -3.5677724e-05 3.541729e-06
000150 3f 71 5b 36 53 02 b7 b5 41 dc 9c 36 d4 9c ab b6
       3.269946e-06 -1.3635239e-06 4.674803e-06 -5.1144543e-06
000160 4f e8 fa b6 f1 ed 8a 35 e1 96 15 37 d4 54 42 b7
       -7.477625e-06 1.0351051e-06 8.916221e-06 -1.1583052e-05
000170 d5 58 ba b5 43 7a a6 37 45 7b cc 36 0f 9c bb 37
       -1.3883933e-06 1.9845675e-05 6.0940242e-06 2.2364808e-05
000180 f8 4e a2 34 fd 13 ca b7 44 ca 2f 37 59 e3 b1 36
       3.023231e-07 -2.4089584e-05 1.04779065e-05 5.301478e-06
000190 5b 32 0e b7 0f 9b 3c b7 1d 48 0d 36 1c 17 c2 b6
       -8.475584e-06 -1.1241776e-05 2.1052613e-06 -5.784341e-06
0001a0 82 16 0d b8 03 57 dc 35 ca f9 0f 36 42 28 70 b7
       -3.363798e-05 1.6416601e-06 2.1454057e-06 -1.4314488e-05
0001b0 4a 06 ec 35 f1 10 90 b6 c9 34 b6 36 08 6f 73 b4
       1.75852e-06 -4.2935067e-06 5.4301677e-06 -2.2671531e-07
0001c0 3f a0 36 b6 46 a1 91 b5 c8 38 92 37 53 d9 49 35
       -2.721339e-06 -1.0850279e-06 1.7430997e-05 7.5194583e-07
0001d0 29 8f 55 b6 66 41 ea 36 0b ed 71 b5 cd d0 10 36
       -3.1822804e-06 6.981357e-06 -9.012444e-07 2.157921e-06
0001e0 aa 1a 9d 36 84 38 02 b7 2c a4 05 b7 8f cd cf 36
       4.6820687e-06 -7.761762e-06 -7.965642e-06 6.193011e-06
0001f0 ef d7 84 b6 bb 2c 6f b6 8a a2 49 b7 d0 32 cc b5
       -3.9590445e-06 -3.5639812e-06 -1.2018378e-05 -1.5213973e-06

main_network.1.weight f4 [128]
000000 a8 34 83 3f 88 d1 7c 3f 46 2a 7b 3f ad 60 84 3f
       1.0250444 0.9875722 0.9811138 1.0342003
000010 5b 81 7d 3f 3f 27 77 3f 35 44 87 3f 40 8f 7c 3f
       0.99025506 0.9654426 1.056769 0.9865608
000020 2f 6f 78 3f 4a 54 7f 3f 20 e3 81 3f 04 db 77 3f
       0.9704465 0.9973799 1.0147438 0.96818566
000030 b8 6e 80 3f 7d dc 74 3f 09 c7 71 3f de 48 83 3f
       1.0033789 0.9564894 0.9444433 1.0256612
000040 ba 4e 86 3f 20 b3 7d 3f 1d 88 78 3f a8 ac 75 3f
       1.0492775 0.9910145 0.9708269 0.9596658
000050 0e b7 7c 3f 92 13 80 3f e9 16 74 3f c9 69 7b 3f
       0.9871682 1.0005972 0.9534746 0.9820829
000060 c4 99 75 3f 82 be 7e 3f 7f 37 80 3f 26 07 7f 3f
       0.9593775 0.9950944 1.0016936 0.9962028
000070 43 e2 81 3f 77 a7 75 3f 13 7b 81 3f 7c 6f 74 3f
       1.0147175 0.95958656 1.0115684 0.9548261
000080 1b 0a 7a 3f 90 41 83 3f 95 82 78 3f 28 f9 72 3f
       0.9767167 1.0254383 0.9707425 0.9491143
000090 af 17 78 3f 1c 68 7f 3f f2 cd 8a 3f ff d5 84 3f
       0.9691114 0.99768233 1.08441 1.0377806
0000a0 f4 81 87 3f 53 53 7a 3f 94 e6 83 3f 7a 5e 7e 3f
       1.0586534 0.9778339 1.0304742 0.9936291
0000b0 8f da 83 3f d6 11 82 3f 55 74 75 3f d6 e7 82 3f
       1.0301074 1.0161693 0.95880634 1.0227001
0000c0 98 2c 7f 3f b1 0d 7c 3f 0a 0e 81 3f 6e 33 7c 3f
       0.9967742 0.9845839 1.0082409 0.98515975
0000d0 76 e5 77 3f cd 7f 82 3f c9 fb 7d 3f b2 28 7e 3f
       0.96834505 1.0195252 0.9921232 0.99280846
0000e0 5f 02 82 3f 6b e5 87 3f d2 6a 81 3f 96 9c 7a 3f
       1.0156974 1.0616888 1.0110724 0.9789518
0000f0 d4 8d 7f 3f 8b ea 81 3f 10 49 82 3f f1 43 83 3f
       0.9982579 1.0149702 1.0178547 1.0255109
000100 9e c0 81 3f c9 80 85 3f 3b 7c 7c 3f f9 c7 7f 3f
       1.0136907 1.0429927 0.9862706 0.9991451
000110 95 0c 81 3f 4b a8 7d 3f 0d fb 84 3f bb be 84 3f
       1.0081965 0.9908492 1.0389115 1.0370706
000120 ce 24 81 3f ad 3d 80 3f 65 79 7f 3f b2 6f 7a 3f
       1.0089357 1.0018822 0.9979461 0.97826684
000130 b7 00 7a 3f 80 4f 7e 3f 34 e0 82 3f 72 87 7c 3f
       0.9765734 0.9934006 1.0224671 0.98644173
000140 cf ee 81 3f 65 8b 72 3f 8f 8b 7e 3f 8f c1 76 3f
       1.0151004 0.9474395 0.994317 0.96389097
000150 eb 76 84 3f 52 07 74 3f 20 00 83 3f b8 da 76 3f
       1.0348791 0.9532367 1.0234413 0.9642749
000160 0a 69 79 3f 2c d0 79 3f c0 8c 83 3f 92 6e 79 3f
       0.974259 0.9758327 1.0277328 0.9743434
000170 9b 1a 74 3f c8 0d 7a 3f e5 27 83 3f 62 ea 7c 3f
       0.95353097 0.9767728 1.024655 0.9879514
000180 91 d3 83 3f 17 0d 80 3f 54 6e 7e 3f f1 72 74 3f
       1.029894 1.0003995 0.993871 0.95487887
000190 fa 0e 85 3f 70 b4 7f 3f 99 72 79 3f 55 8b 74 3f
       1.0395195 0.998847 0.9744049 0.95525104
0001a0 ff 1a 80 3f 83 b9 78 3f a7 60 78 3f 48 63 83 3f
       1.0008239 0.9715807 0.9702248 1.0264673
0001b0 76 60 81 3f 81 05 81 3f a5 18 85 3f ed 49 84 3f
       1.0107563 1.0079805 1.0398146 1.033506
0001c0 37 8a 75 3f 3e f7 7c 3f 1a 26 6f 3f 48 fc 83 3f
       0.95914024 0.9881476 0.93417513 1.0311365
0001d0 fd 8a 7b 3f 88 7a 7b 3f 9c 1e 78 3f ae df 7e 3f
       0.98258954 0.9823384 0.96921706 0.9956006
0001e0 ed a3 7e 3f 40 cc 81 3f a5 2e 81 3f b3 03 7c 3f
       0.9946888 1.0140457 1.009236 0.98443145
0001f0 9a 00 7a 3f b5 72 80 3f 49 0c 84 3f 4d 04 8c 3f
       0.9765717 1.0035006 1.0316249 1.0938812

main_network.1.bias f4 [128]
000000 0d aa b8 3c 9e cc 84 bc 0c 62 9d bc f0 a1 7e 3d
       0.022542024 -0.01621085 -0.019211791 0.062166154
000010 5e b2 8f bc 8a 06 ce bc a4 cd 8e 3c 77 e9 0c bd
       -0.017541107 -0.025149602 0.017432041 -0.034402337
000020 9f 66 a7 bc 21 cc e5 38 ba c1 47 3d ff 1c 4a bc
       -0.020434676 0.00010957593 0.048768736 -0.012336015
000030 ab a5 9b 3c a9 74 b4 bc 4a 58 c9 bc 09 c4 b7 3c
       0.018999895 -0.022028284 -0.024578232 0.022432344
000040 4e b3 3b 3d bf 26 c0 3a 65 6f 03 bd ad db 34 bd
       0.045825295 0.0014659985 -0.032088656 -0.04415481
000050 53 13 20 3d ec be 40 3b 36 67 00 bd 16 66 3f bc
       0.03908093 0.0029410673 -0.03134843 -0.011682054
000060 cb 2f b8 bb c6 2a e1 3c 16 58 0a 3d 70 62 2b 3d
       -0.0056209317 0.027486216 0.03377541 0.041841924
000070 c7 8c 0a 3d 53 bf 16 bc 05 13 99 3b 27 ab 96 3b
       0.033825662 -0.009200889 0.0046714568 0.0045980397
000080 8a 24 57 bc 8e 80 24 3d df af 4c bc d4 32 3a bd
       -0.01313127 0.04016166 -0.012493103 -0.04545863
000090 c1 c2 33 bd ce 59 00 3d 69 e4 48 3d a2 eb b7 3c
       -0.043886904 0.031335644 0.049045954 0.022451226
0000a0 28 b7 3f 3d c2 99 be bc 4c 47 86 bb 88 2a c4 3c
       0.04680553 -0.023266677 -0.0040978547 0.023946062
0000b0 0d 30 73 3b ef 7c d5 3c b9 48 86 bd 99 39 20 3d
       0.0037107498 0.02606055 -0.065568395 0.03911743
0000c0 17 2c 03 3c 59 26 10 bb 70 2e ac 3a cb d2 c0 bc
       0.008006117 -0.0021995513 0.0013136398 -0.023538014
0000d0 e0 8c 26 bd 9d 31 83 bb a1 32 d1 3c 80 36 3e 3d
       -0.040661693 -0.004003717 0.025536837 0.046438694
0000e0 49 06 4d 3c be 0a 9a 3d 6e ec 30 3b 9c 51 ad 3b
       0.0125137055 0.0752158 0.0026996392 0.0052892696
0000f0 26 99 09 b9 e2 ba 99 3c d7 91 d4 3c 8f 3d 8e 3c
       -0.0001312239 0.01876587 0.025948448 0.017363338
000100 60 8d d3 3c 60 55 18 3d 9b d8 b3 bc 44 e5 1d 3c
       0.025824249 0.037190795 -0.021953871 0.009637181
000110 b4 19 a0 3c 08 3d 2e bd 81 1a 37 3d 59 64 c7 bc
       0.019543506 -0.042538673 0.04470301 -0.024339842
000120 d4 3e 10 bd d3 c5 2a 3d 0b 64 7f 3a 12 a3 af bc
       -0.035216168 0.041692566 0.00097423856 -0.021440063
000130 76 21 fc bc 8f b3 bb 38 2c 6b 1d 3b 7a 43 46 3c
       -0.030777674 8.9503e-05 0.0024020178 0.012101049
000140 ac 6f 87 39 64 8d 18 bd b3 b9 8e bc 28 98 11 bd
       0.0002583241 -0.037244216 -0.017422533 -0.035545498
000150 79 00 85 3d 10 83 39 bd d7 9b 10 3d ed 68 24 3c
       0.06494231 -0.045291007 0.03530487 0.010034782
000160 3e 8b da bc 65 ef 34 bc 31 68 89 3c b3 bd 1d bc
       -0.026677724 -0.011043404 0.016773315 -0.009627747
000170 08 11 6f bd fc ff 2f bd 52 9b 28 3c 39 51 f1 bc
       -0.05836585 -0.042968735 0.0102909375 -0.029457675
000180 27 76 85 3d 1d 43 62 3d 8f e3 0c 3c a4 05 22 bd
       0.065166764 0.055239785 0.008599176 -0.03955616
000190 6c 73 b4 3c f8 0c 05 3d c9 d8 b5 bb 98 ae de bc
       0.022027694 0.03248307 -0.0055495244 -0.027182862
0001a0 00 66 50 bc 6b 68 0a 37 4e 9e 39 3c 8b a7 95 3d
       -0.012719631 8.249753e-06 0.011329247 0.07307347
0001b0 64 27 27 3d c0 08 e6 3c ca fb d5 bb b7 1b 7a 3d
       0.04080905 0.028080344 -0.0065302597 0.061061587
0001c0 19 37 62 bc 6f 6b 7c 3b f1 18 da bc 6d d3 45 3c
       -0.013807082 0.0038516184 -0.026623221 0.012074334
0001d0 e0 68 c4 bc d9 16 5b 3d 43 95 36 bd 64 ab 3d ba
       -0.02397579 0.053488586 -0.04457594 -0.0007235317
0001e0 82 dd 18 3d ba ba 9c 3c 00 99 d6 ba 76 01 5b 3c
       0.03732062 0.019132007 -0.0016372502 0.0133670475
0001f0 5b f9 2d bc 36 82 13 3d c8 c7 95 bb ad bf 75 3d
       -0.010618533 0.03601285 -0.004570935 0.05999725

main_network.1.running_mean f4 [128]
000000 4f 94 0f 3e a2 5f 8c 3d 00 6f a0 bc 5a f4 79 bd
       0.14021419 0.06854178 -0.019584179 -0.061024047
000010 2a 58 1c 3e 19 86 14 3d 1b 46 79 3d af 00 f7 bc
       0.15268007 0.036260698 0.060857873 -0.030151693
000020 aa 8b d2 bd bc c7 69 3d a3 d0 df bd ad a4 1d 3d
       -0.10280545 0.057075247 -0.10928466 0.038487125
000030 5e 81 93 b8 0e 93 3a bc 79 34 01 3d ff 58 27 bd
       -7.033603e-05 -0.0113876 0.031544182 -0.040856358
000040 d8 3e 65 3b e8 28 c9 3d a9 fa d0 3c 68 22 87 bc
       0.0034980085 0.098222554 0.02551015 -0.016495898
000050 ce c8 8b 3c 16 49 c4 3d 06 10 7b bd 95 0d 3f 3d
       0.017063525 0.095842525 -0.061294578 0.046643812
000060 37 46 a7 3b 00 2c 86 3c 95 95 20 3e c8 c9 b6 bc
       0.005104806 0.016378403 0.15682061 -0.022313014
000070 9a 15 17 3a f7 ba 17 3e db 5f c5 bc e3 76 03 bc
       0.0005763412 0.14817415 -0.024093559 -0.00802395
000080 be 07 9b 3d 24 e3 6a 3d 41 a4 bf 3c 43 1e f8 3b
       0.07569836 0.057345524 0.023393752 0.007571967
000090 43 72 2b 3d 92 2e dc bd 7f 64 9d 3d bf 25 83 3d
       0.041857015 -0.1075107 0.07685184 0.06403684
0000a0 18 09 98 bc ca bf c7 bc 7b ca bd 3d 87 4a 82 3c
       -0.018559024 -0.024383444 0.09267136 0.015904678
0000b0 5b 02 15 3e 76 3a 11 3a ea 45 e2 bc 9e 47 25 be
       0.1455168 0.00055400224 -0.027621228 -0.16140601
0000c0 b7 df 1a 3d df 69 ae 3c 8a 1d 09 3e fd fa a3 bd
       0.037811007 0.021290718 0.13390175 -0.080068566
0000d0 e4 89 c8 3d 02 c9 d9 bc be 34 5a bd 0e ea a0 bc
       0.097919255 -0.026585106 -0.053272955 -0.019642856
0000e0 18 9e cd 3c e3 28 56 be 1f 05 97 bd 13 7b b3 bc
       0.025099799 -0.20914035 -0.07374024 -0.021909272
0000f0 ab 4a 2c 3c 9b 03 28 3e d2 31 0c 3e 83 d0 aa 3d
       0.010515849 0.16407625 0.1369088 0.08340552
000100 60 ad e7 3d b7 56 cf 3c 7f 91 a0 bb 6e 6e 6a 3d
       0.113123655 0.025309904 -0.004900157 0.05723422
000110 9b 98 66 3e 47 a4 af bd 77 99 2b 3e 2b da c6 3d
       0.22519152 -0.08576255 0.16757761 0.09709581
000120 85 b0 70 bd 04 b8 8a 3d 33 f2 5a 3d d2 26 24 3d
       -0.058762092 0.067733794 0.053453635 0.040076084
000130 f2 c2 07 bd a8 fa 66 3c 46 14 0c be 5d 5b cd bc
       -0.0331449 0.014097847 -0.13679609 -0.02506798
000140 d8 39 f2 bb cb 8d fe bb 74 e7 ad bd 05 1f e8 3d
       -0.0073921494 -0.007768368 -0.08491412 0.113340415
000150 94 dd d6 ba 32 ea ff 3c 94 81 2b bc 43 b5 56 bd
       -0.001639294 0.031239603 -0.010467906 -0.05241896
000160 a0 e1 1a 3d 0b e9 09 3c d5 62 56 3d 65 40 50 3d
       0.03781283 0.008417378 0.052340347 0.05084266
000170 95 dc 9e bd 73 f1 63 bc 7c d8 95 bd c9 b6 c1 3d
       -0.077569164 -0.013912546 -0.07316682 0.094586916
000180 67 25 ae bd 62 ed 1c bd e5 fb 85 3d 3b 15 a0 3c
       -0.08503228 -0.038312323 0.06542186 0.019541373
000190 eb 08 1a bc fd 0e e9 3c 80 3b b8 3c 59 c3 7b bd
       -0.00940154 0.02844953 0.02248931 -0.061465595
0001a0 82 98 d1 bc 22 e1 bf 3d e8 7a fa bc c4 74 6e bd
       -0.025585417 0.093691126 -0.030576184 -0.058216825
0001b0 8a 6a 14 bd c5 72 c4 3d 48 90 97 bd c2 c8 88 bd
       -0.036234416 0.09592203 -0.07400566 -0.066789165
0001c0 10 a3 3d 3c 6a 01 83 3c ce 41 98 3d a6 78 c7 bc
       0.011574522 0.015991885 0.07434426 -0.024349522
0001d0 5c 36 7d 3d 08 d8 ec bd 82 ca bd 3d cc 3e 5f 3d
       0.06181942 -0.11564642 0.09267141 0.054503247
0001e0 83 a0 9c bc bf 66 11 3e 39 83 23 ba 70 bd 0e 3e
       -0.019119507 0.14199351 -0.000623751 0.13939452
0001f0 0a 45 e8 3d 3b 89 88 3d 80 50 93 3d 65 7a b3 bb
       0.11341293 0.066668 0.071930885 -0.005477237

main_network.1.running_var f4 [128]
000000 52 b2 3a 3f 95 6b 4e 3e b3 e9 de 3e ed 70 63 3e
       0.72928345 0.20158227 0.43537673 0.22211047
000010 83 66 be 3e 22 16 bb 3e 89 db 6f 3e 75 32 1d 3e
       0.37187585 0.36540323 0.2342359 0.15351279
000020 96 b8 e9 3d 29 d2 c5 3e c0 ca d2 3e 80 fb a5 3e
       0.1141216 0.38636902 0.4117031 0.32418442
000030 32 d2 96 3e 9f af 38 3e 3d d2 d8 3e 98 c6 4c 3e
       0.2945724 0.18035744 0.423479 0.19997633
000040 6f da f1 3e 9a 9e 15 3e 04 41 8f 3e 6f ae 8d 3e
       0.47236964 0.14611283 0.2797929 0.27672145
000050 a1 d2 8f 3e 29 4f 6c 3e 54 77 8e 3e 98 ce 07 3d
       0.28090385 0.23077072 0.27825415 0.033156008
000060 ea 6d 51 3e 6c fe 4d 3e bd 6d 15 3e 2f 4e b5 3e
       0.20452085 0.20116585 0.14592643 0.35411212
000070 1e d0 1d 3f 57 18 80 3e 62 7b b3 3d 31 6d 9d 3e
       0.61645687 0.2501857 0.08763768 0.3074737
000080 7d 1d c9 3e 13 5b f6 3d 63 a3 38 3e 6b a9 3d 3e
       0.3928031 0.1202909 0.18031077 0.18521659
000090 f8 11 88 3e c6 a0 0f 3e 0d 96 18 3e 31 83 88 3e
       0.2657621 0.14026174 0.1490099 0.2666259
0000a0 a0 c5 cb 3e b0 1a 82 3e 6f 30 16 3e cb d1 20 3e
       0.39799213 0.25410986 0.14666913 0.1570503
0000b0 2c 5b 90 3e 2f b4 ac 3e 05 37 77 3e d8 0b ab 3e
       0.2819456 0.3373122 0.24142082 0.33407474
0000c0 6a de 3a 3e 28 91 8c 3e ab be 00 3e 2f 72 b9 3e
       0.18248907 0.27454495 0.12572734 0.36219928
0000d0 0c d7 67 3e 90 41 12 3e 59 cc 7a 3e 16 5f 9c 3e
       0.22640628 0.14282823 0.24492015 0.30541295
0000e0 81 30 a6 3d 08 ee 53 3e 66 f6 01 3e 7a 86 be 3e
       0.0811472 0.2069627 0.1269165 0.37211972
0000f0 b0 9b ea 3e e6 ff e3 3e 0f a1 af 3e e1 bb cb 3e
       0.45821905 0.44531173 0.34302565 0.39791778
000100 bb 9a 87 3d 47 e9 7d 3e bf 69 97 3e ac b7 38 3f
       0.06621309 0.2479602 0.29572865 0.7215526
000110 cf d5 30 3f 94 af 84 3e 3a e3 62 3f e1 ed b9 3d
       0.69076246 0.25915205 0.8862797 0.09078575
000120 d6 b7 de 3d b6 40 11 3f 14 4b d3 3e d1 5c 02 3f
       0.10874908 0.56739366 0.41268218 0.50922877
000130 1c 68 2d 3e ab ae 6e 3e a6 db 8d 3e 57 47 f9 3d
       0.16934246 0.23308818 0.2770664 0.1217181
000140 6e 15 19 3f 32 aa b0 3e 34 69 8b 3d 37 78 08 3e
       0.59798324 0.3450485 0.06807175 0.13327108
000150 df 8d 4c 3f 24 ce 14 3e d0 d3 43 3e ad fb 05 3e
       0.7990398 0.14531761 0.19123769 0.13084288
000160 48 a1 4a 3e 65 22 b3 3e ad 79 ce 3e 62 a9 3a 3e
       0.19788086 0.34987178 0.40327206 0.18228677
000170 f2 61 ab 3e f2 0f 25 3f f6 65 46 3e 1b fb fb 3e
       0.33473164 0.64477456 0.19374833 0.49215016
000180 55 f4 da 3e 6f 02 65 3e ed dd aa 3d c2 19 99 3e
       0.42764536 0.2236421 0.0834311 0.29902464
000190 07 f1 a1 3e 3e 7f dc 3e 3d 64 b5 3e 87 ce 97 3d
       0.31629202 0.43065828 0.35428038 0.07412439
0001a0 14 f9 0f 3e 28 89 a1 3e 06 5c d1 3e 1b 4d 9d 3e
       0.1405986 0.31549954 0.4089052 0.3072289
0001b0 e2 cb 2d 3e 67 a1 9a 3e f7 13 5b 3e 23 3b 0e 3e
       0.16972306 0.30201265 0.21394335 0.13889746
0001c0 65 ea 35 3e 5a e2 01 3f 88 19 53 3e e5 75 c2 3e
       0.17765196 0.5073601 0.20615208 0.3798057
0001d0 41 a7 93 3e 30 e4 88 3e 61 e5 4f 3f d1 ce 96 3e
       0.28838542 0.26736593 0.8120938 0.29454663
0001e0 54 05 6c 3e 57 b0 18 3e 57 01 d8 3e 58 01 dc 3e
       0.23048908 0.14911018 0.42188522 0.42969775
0001f0 be 80 5a 3e c6 46 71 3f 2a f2 d4 3d 3b 4f 57 3e
       0.21338174 0.94248617 0.10397752 0.21026318
