MLP/best_model_resnet56.pth (torch, 120949 bytes, 47 tensors)

model_embedding.weight f4 [32, 12]
00000000: 1e98 7fbe 8564 c93d 6832 3a3e 3974 7abe
00000010: 5080 693d a29b d23a 3ff3 70be 88b7 c83d
00000020: 89a6 823e 11c7 ae3c 46e7 1bbd 841e 2cbd
00000030: 8a3f 6a3e ae4a b23d 1460 66be 57ba 83be
00000040: df5d c13d d2c1 17be f806 5ebe c538 71bd
00000050: e25f 24be c009 563e abed a7b2 480a ccbd
00000060: 54ec e13d fde3 c3bd ca5b 44be 1075 58bd
00000070: 0398 d5bd ab6e 573e 5284 0b3e fd19 88be
00000080: 5207 453e 9439 f5bd be75 b63c a288 64be
00000090: 84cc 0e3e 4f59 073e 30e2 963d 4470 ae3e
000000a0: 5ab5 173e f07c 58be 4d92 b2bc e8da 1cbe
000000b0: b01c 973d 4f83 9e3d 6211 983d e1c3 c33d
000000c0: d610 873d 10b4 49bc fb27 5e3e 044b d6bc
000000d0: e548 cd3d 10f2 28bd a913 4f3e 340d 78be
000000e0: 1c4e 9fbd e3a0 8c3d 43e2 eab0 efe5 a13e
000000f0: 542b f23d 5ff4 1e3d 0ced 093e 3933 123d
00000100: b86e 20be d814 773e 776e 9cbe 5ebd 833b
00000110: c30c 8abe 71be 63be 3e37 8db5 94b5 6f3e
00000120: c16c 033e f436 84be 6d47 8a3e 0ff3 23bd
00000130: b344 bd3b ea89 e0bd 1f7e dd3c fcda f3bc
00000140: c534 bdbd 70e5 52be b7b8 8d37 560b 813e
00000150: 0413 5fbe 40d3 753e 7398 59bd a95e f93c
00000160: 31d4 833e 86db ff3d f7f3 283e 5027 183e
00000170: 5aeb 51bc 9813 00bc 18a5 fcb4 aac1 5b3e
00000180: 21eb 3cbd 3a37 7cbe 3dac 3ebd 8346 46be
00000190: 1938 823c 55a2 6a3e acac 8d3e 188f 37be
000001a0: 1d5a 87be 0f57 36be 25a6 a1b9 d064 533e
000001b0: 28d7 abbd 4b82 b53d edc9 7d3e e7e3 acbe
000001c0: ce94 5bbd adbd 0f3e c55c af3b dffa 28bc
000001d0: 3edc 253e 496d 923e 9203 4bbc 7a2d 093e
000001e0: a0ea 443e f04a 79be 1a45 393c bf8a 7e3c
000001f0: 0ffe 4dbe 28d0 893e ec43 20be 9965 17be
00000200: f1fb 06be 2984 07be fe75 aab4 3a6b 8cbe
00000210: c666 8e3e 62b3 823e 23f6 f3bd 9f02 7fbe
00000220: 3aaf bbbd 6363 483d 152a 063e a048 16be
00000230: 08f7 b2bd d00e 093e 319c 5d33 ff2c 89be
00000240: 8627 0cbd 88d3 00be 20ae 903d 0f3e 6f3d
00000250: 8800 523d 74b8 04bd 7bc2 12be 4618 db3d
00000260: b5b0 b83d 9980 6e3e 8cea 4e3d 690d dbbd
00000270: f1ed 3f3e a3f3 0bbd a19c 3fbe fbde c4bd
00000280: f3e4 053e c2c9 6abe ba05 1c3e b951 4a3e
00000290: 3763 adbd 1d2e 3c3d d4e5 283d 351a 133c
000002a0: 901a afbd 25af 1abe a632 3c3e 31f8 cabd
000002b0: 281c d4bc d025 4e3e a0ff 643e a60b 46bc
000002c0: 2eb3 233d c076 40be 576a 07b8 11e4 08be
000002d0: 1c31 103e 1ccc de3d 6b30 233e 1517 be3e
000002e0: bb1b 8cbd 086e 213e 6eb2 273e c993 8fbe
000002f0: 2c17 4dbe 2c9c 48bd 930a d03c 667c 263e
00000300: 9849 5e3e caf6 91bd 1d03 f3bb 1286 6e3e
00000310: 5e7f d43d 9832 f13d 81f7 223e bd6e 1a3e
00000320: 0f15 8e3c 581a 163e cdf9 0fb0 c167 8cbc
00000330: 3380 89be b9ce 243e 71ac c13c 8acd 20be
00000340: 93bf b33c 6f78 e5bd 8393 a9bd d5c8 1f3e
00000350: 599e 433d 30a4 553e 7c74 3835 d191 87be
00000360: 4cda d1bd abec 5c3e 5987 75be c073 2ebe
00000370: 27bd 443e e7e1 7fbd befa b63d a7ac 093e
00000380: ea60 43be b6ea 6f3e 23a7 7cba 284d 6abe
00000390: 83d4 8cbc 47e5 86be f36e eabd 7bb7 d93d
000003a0: 238a 99be d13d 0cbd 9ea7 3a3e 7ba6 69bd
000003b0: 0c18 61bd 4f75 313e 3af9 0333 e560 823e
000003c0: 0331 fd3c bf49 623e 0d32 87be 1ba5 1abe
000003d0: 008a 12be c8d8 403e 525d 173e 16ff 1b3e
000003e0: d766 1a3d fe3c 2cbe 2f32 debb 86a5 b63d
000003f0: 803a 033e 8b47 39be 68c6 44be 5dd7 973e
-0.24960372 0.09833626 0.18183291 -0.24458398 0.057007134 0.0016068111 -0.23530291 0.09800631
0.2551768 0.021335157 -0.038062356 -0.04202129 0.228758 0.0870565 -0.22497588 -0.25728104
0.094417326 -0.1482003 -0.21682346 -0.05889203 -0.16052201 0.20902157 -1.9549438e-08 -0.099628985
0.11031404 -0.0956497 -0.1917564 -0.052846014 -0.104293846 0.2103831 0.13624695 -0.26582327
0.19241074 -0.11973873 0.02227294 -0.22317746 0.13945204 0.13217662 0.073673606 0.34070027
0.14815274 -0.2114141 -0.021798277 -0.15317881 0.073785186 0.07739889 0.074251905 0.09558845
0.06595008 -0.012310997 0.21694939 -0.026158817 0.10023669 -0.041246474 0.20222344 -0.24223787
-0.0777857 0.06866624 -1.7090048e-09 0.31620738 0.118246704 0.03880727 0.13469332 0.03569338
-0.15667236 0.24129045 -0.30553028 0.004020377 -0.2696286 -0.22240616 -1.0521396e-06 0.2340911
0.12834455 -0.25823176 0.2700762 -0.04002672 0.005776012 -0.10963805 0.027037678 -0.029767506
-0.092385806 -0.20595336 1.6894524e-05 0.2520396 -0.21784598 0.24006367 -0.053123903 0.030440645
0.25747827 0.12493043 0.16499315 0.14858747 -0.01281246 -0.0078171715 -4.705878e-07 0.21460596
-0.046122674 -0.24630442 -0.046550978 -0.19362836 0.01589589 0.22913487 0.276708 -0.1792568
-0.26435938 -0.17806648 -0.000308321 0.20643926 -0.08390647 0.08862742 0.2478406 -0.33767626
-0.053608708 0.140372 0.005351635 -0.010313719 0.16197297 0.28599003 -0.012390988 0.13396254
0.19230127 -0.24344993 0.011307979 0.015536009 -0.20116447 0.26916623 -0.1565091 -0.1478485
-0.13182046 -0.13234009 -3.1750818e-07 -0.27425557 0.27812785 0.25527483 -0.11912181 -0.24903344
-0.09164281 0.048922908 0.1310199 -0.14676142 -0.08738524 0.13384557 5.1597628e-08 -0.26792142
-0.03421738 -0.12580693 0.07064462 0.058408793 0.051270038 -0.03240247 -0.14332001 0.10697989
0.09018079 0.23291244 0.05051665 -0.10695917 0.18743111 -0.034167897 -0.18712093 -0.09612843
0.13075618 -0.22928527 0.1523656 0.19757737 -0.08466189 0.045942415 0.041234806 0.008978416
-0.08549988 -0.15105875 0.18378696 -0.0991062 -0.025892332 0.20131612 0.22363138 -0.012087738
0.0399658 -0.187953 -3.2285545e-05 -0.1336825 0.14081234 0.108787745 0.15936439 0.37126985
-0.06841227 0.1576463 0.1637666 -0.2804244 -0.2002837 -0.048977062 0.025395667 0.16258392
0.21707761 -0.071271494 -0.0074161426 0.23293331 0.10375856 0.11777228 0.15914728 0.15081306
0.017344026 0.14658487 -5.2378085e-10 -0.017139317 -0.2685562 0.16094483 0.023641797 -0.15703407
0.021941936 -0.112046115 -0.08280089 0.15603955 0.047758434 0.20863414 6.871485e-07 -0.26478437
-0.10246715 0.21574657 -0.23977412 -0.17036343 0.19212781 -0.062471297 0.08934544 0.13444768
-0.19079939 0.23429379 -0.00096379424 -0.22880995 -0.017191177 -0.263468 -0.11446943 0.10630699
-0.29988202 -0.03423864 0.18228003 -0.057043534 -0.054954574 0.17329906 3.0727485e-08 0.2546455
0.03090716 0.22098444 -0.26405373 -0.15102045 -0.14310455 0.18832695 0.14781693 0.15234026
0.037695732 -0.16820142 -0.0067808847 0.0891829 0.12815285 -0.18093698 -0.19216311 0.29656497

model_embedding.bias f4 [32]
00000000: d7af 033d 6083 3e3c de83 7635 b021 0cbc
00000010: 4eab 283c 1e29 833d c64a 3e3d f6c4 84b8
00000020: ae0a 183d 7aca 8938 459f 8a3d f8bf 943d
00000030: a38a 4fbd e240 3e3c 7ac8 1fb9 2e91 52bd
00000040: 7e6c 8b3b dc04 0d3d a35e 13b7 5673 8e37
00000050: 2861 8cbc a47b a03c d9f8 65b7 e211 03bd
00000060: 6fc7 173d c427 5db9 01d7 94bd 80f5 61bd
00000070: 2a27 a0b9 b234 eb3a f6da 03bc 461e a03b
0.032150116 0.011628002 9.1834033e-07 -0.008552954 0.0102947485 0.06404327 0.04645803 -6.330937e-05
0.03711956 6.570383e-05 0.067686595 0.07263178 -0.050669324 0.011612149 -0.00015238105 -0.051407985
0.0042548766 0.034428462 -8.783917e-06 1.6981427e-05 -0.017136171 0.019590206 -1.3707403e-05 -0.031999476
0.03705543 -0.00021091016 -0.07267571 -0.055165768 -0.00030546758 0.0017944782 -0.00804781 0.0048864214

dataset_embedding.weight f4 [16, 3]
00000000: 281c f2be b82e e6be 129c 3a3e 47b1 80be
00000010: 48ca 203f bea1 0bbe 03c1 693e 14f1 f2bd
00000020: 705e a43d c402 1bbe 094d 06bd 87f9 c7bd
00000030: 9e7e 70be a155 c2be 7acb eb3d 230b d3be
00000040: 2c94 d6be 170f 0cbf 440e babe 1e4d 59be
00000050: 07e3 863d f754 d43e 98e6 1839 6f99 fcbe
00000060: 0596 99be dd90 363e 6aa7 bb3d 40c7 f3be
00000070: 620a 073f fdfd 70bd d4ac dd3d 6f80 823e
00000080: b624 21be 4254 c93e 4be4 4b3d 4664 503e
00000090: c7f1 82be 1ad3 f5be 4d0a 47be cf79 ddbe
000000a0: 0b0d 6ebe 4f52 fbbe 940c 7c3e f0f8 993c
000000b0: 35a8 723e 55d1 a5be 9e92 c3bd 5597 01bf
-0.47287107 -0.4495752 0.18223599 -0.25135252 0.62808657 -0.13635918 0.22827534 -0.11862388
0.08025825 -0.15137774 -0.03278831 -0.097643904 -0.234858 -0.37955955 0.115134194 -0.41219434
-0.4190992 -0.54710525 -0.3633901 -0.21220824 0.06586271 0.41471073 0.00014581752 -0.4933581
-0.29997268 0.17828698 0.09162791 -0.47612953 0.5275022 -0.058835972 0.1082398 0.25488612
-0.1573666 0.39322096 0.049778264 0.20350751 -0.25575086 -0.4801262 -0.19437523 -0.43256995
-0.23247163 -0.49086234 0.24614173 0.01879546 0.23696978 -0.3238627 -0.095494494 -0.5062154

dataset_embedding.bias f4 [16]
00000000: af94 9cbd d68c 5b3c c8bd 1d3a 6728 203d
00000010: c7a6 21b7 9b7b f9b7 faa7 91bd 59e5 a23e
00000020: 3f0d 5cbe 80c1 6a3d 264f 8336 dead 913e
00000030: 1225 1d3d 7bb5 283b 02b4 80be 6265 98be
-0.07645547 0.013400277 0.00060173543 0.03910103 -9.635179e-06 -2.9740671e-05 -0.07112117 0.31815603
-0.21489428 0.057313442 3.9133183e-06 0.28452963 0.03836543 0.0025742936 -0.25137335 -0.2976485

tensor_network.0.weight f4 [16, 1]
00000000: 1217 00bf d9bb 59bd c4c4 b2bc 0b66 ebbd
00000010: 280f eb3e db4e 05bf c2cc 3abc be3e bebd
00000020: 1c5f 343f 0faa 0fbf 9896 2c3f 62cc 373e
00000030: 7c9a 173f 22cf 7a3e ef45 a43e 1062 cf3d
-0.500352 -0.05315766 -0.02182234 -0.114940725 0.4591 -0.5207345 -0.011401357 -0.09289311
0.70457625 -0.56118864 0.6741729 0.1794906 0.592201 0.24493077 0.32084605 0.10126126

tensor_network.0.bias f4 [16]
00000000: 7b69 1ebf dae1 ac3c e4e8 49be 40dc 9d3e
00000010: d83b 7cbf cadd 52bb 1b75 19bf b53c 5fbd
00000020: 8de7 063e 7ac6 953e 3481 72bd 31fa 06bf
00000030: 3943 3537 1497 22bf bf2b 2fb7 e85b e43a
-0.618797 0.021103788 -0.19717747 0.308321 -0.98528814 -0.0032175654 -0.59944314 -0.054501254
0.13174267 0.29252988 -0.05920525 -0.5272551 1.0804092e-05 -0.63511777 -1.0440998e-05 0.001742241

tensor_network.2.weight f4 [16]
00000000: f004 3c3f f004 3c3f f004 3c3f 9d6e 8c3f
00000010: 3c8d 863f f004 3c3f f004 3c3f f004 3c3f
00000020: a6ee 803f f004 3c3f df1b 803f 0cb6 7f3f
00000030: ba86 813f b057 803f a55d 843f 41f6 813f
0.73445034 0.73445034 0.73445034 1.0971256 1.0511851 0.73445034 0.73445034 0.73445034
1.007283 0.73445034 1.0008506 0.99887156 1.011924 1.002676 1.0341078 1.0153276

tensor_network.2.bias f4 [16]
00000000: e3b1 79b2 8796 bf32 1845 9d30 1b42 bb37
00000010: 95da ab38 e32a 8832 de5d 3ab1 0908 5a32
00000020: 303f f7b7 95f1 d7b1 aa76 bbb8 745f 3a38
00000030: 625d 0fb8 8959 d7b7 a933 a8b7 ca0d 85b8
-1.4534154e-08 2.2303778e-08 1.1442891e-09 2.232292e-05 8.1946295e-05 1.5851986e-08 -2.711992e-09 1.2691097e-08
-2.9474118e-05 -6.2847882e-09 -8.938958e-05 4.4434753e-05 -3.4180826e-05 -2.567169e-05 -2.0051217e-05 -6.3445026e-05

tensor_network.2.running_mean f4 [16]
00000000: 0000 0000 0000 0000 0000 0000 9092 683d
00000010: 6583 3c3f 0000 0000 0000 0000 0000 0000
00000020: 4381 2840 0000 0000 ebd0 1440 63ea 643e
00000030: bf7c 0640 2bef b43e 9908 933f aed5 b73e
0.0 0.0 0.0 0.056780398 0.7363799 0.0 0.0 0.0
2.6328895 0.0 2.3252513 0.22355036 2.101364 0.3533872 1.1486999 0.35905212

tensor_network.2.running_var f4 [16]
00000000: 0cb8 e329 0cb8 e329 0cb8 e329 d8a9 a63b
00000010: d0de 493f 0cb8 e329 0cb8 e329 0cb8 e329
00000020: e271 1940 0cb8 e329 ee9e 0c40 577b ba3d
00000030: 79a3 d93f aff4 4e3e 1414 023f 40ec 483d
1.0112752e-13 1.0112752e-13 1.0112752e-13 0.005086165 0.7885561 1.0112752e-13 1.0112752e-13 1.0112752e-13
2.3975759 1.0112752e-13 2.1972003 0.091055565 1.7003013 0.20210527 0.50811887 0.04905343

worker_network.0.weight f4 [16, 1]
00000000: ad9d 763d c12f 073e 53c1 c73e 2814 b9bd
00000010: 1280 263e 8e4d 8a3d 5037 343f 287d ff3d
00000020: dbb1 883e 8c5f 35bf 8c4e 6bbe 8451 123e
00000030: 5418 7abc e937 a2b4 0319 40be 69f7 24b6
0.060208965 0.1320181 0.39014682 -0.090370476 0.16259792 0.06753074 0.703969 0.124750435
0.26698193 -0.7084892 -0.22979182 0.14288908 -0.015264589 -3.021553e-07 -0.18759541 -2.4581916e-06

worker_network.0.bias f4 [16]
00000000: 0a50 4ab7 5ffd 03bf 69e6 12be ac79 e2b0
00000010: e601 3a3d 40f7 5f38 a033 1abc 4056 68bf
00000020: 3bed e4be f1e2 1dbf 2ce0 32be dc82 983b
00000030: 9ed7 0ebf 68b9 04bf 9496 b33e e452 95bd
-1.2058774e-05 -0.5155849 -0.14345707 -1.6478245e-09 0.045411967 5.3397613e-05 -0.009411722 -0.9075661
-0.44712242 -0.6167441 -0.17468327 0.0046542715 -0.55797756 -0.5184541 0.3507582 -0.07291201

worker_network.2.weight f4 [16]
00000000: 9cf8 7b3f 12a2 7b3f 945f 803f f004 3c3f
00000010: ff5d 7f3f 55ae 7c3f a133 7b3f 3824 6f3f
00000020: 698d 7d3f f004 3c3f f004 3c3f 47d5 7d3f
00000030: f004 3c3f f004 3c3f ff5c 3d3f f004 3c3f
0.9842622 0.98294175 1.0029168 0.73445034 0.997528 0.9870351 0.98125654 0.9341464
0.990439 0.73445034 0.73445034 0.9915356 0.73445034 0.73445034 0.73970026 0.73445034

worker_network.2.bias f4 [16]
00000000: ab67 9bb8 63ff 2bb8 5b3a ba35 b482 ebb2
00000010: dacb 2d39 18c1 33b8 99df 4138 811f 3b37
00000020: 3d7e 0937 a28a 0cb2 e36e 8d30 746d 9db7
00000030: c274 f831 0b33 8731 9084 1736 ff5c 82b2
-7.4102856e-05 -4.1007424e-05 1.3875064e-06 -2.7417038e-08 0.00016574506 -4.285676e-05 4.6223027e-05 1.1153404e-05
8.1952285e-06 -8.180594e-09 1.0290616e-09 -1.8766827e-05 7.231024e-09 3.93482e-09 2.2577915e-06 -1.5176282e-08

worker_network.2.running_mean f4 [16]
00000000: b7bc 923e 952c 2a3e 48ee d83f 0000 0000
00000010: 61f9 543f c3b5 a33e 179d 5240 adb9 053d
00000020: 7c12 513f 0000 0000 0000 0000 09d6 2f3f
00000030: 0000 0000 0000 0000 129d 0426 0000 0000
0.28659603 0.16618569 1.6947718 0.0 0.8319302 0.3197461 3.290838 0.032647777
0.8166883 0.0 0.0 0.68685967 0.0 0.0 4.600957e-16 0.0

worker_network.2.running_var f4 [16]
00000000: cee7 c73c 955a 6e3d 9a51 813f 0cb8 e329
00000010: a87f 3a3e f5d3 f83c b234 4f40 c4bf 143b
00000020: 5f12 f63e 0cb8 e329 0cb8 e329 e241 0d3e
00000030: 0cb8 e329 0cb8 e329 0db8 e329 0cb8 e329
0.024402525 0.058191855 1.0103028 1.0112752e-13 0.1821276 0.030374506 3.2375913 0.002269731
0.4806089 1.0112752e-13 1.0112752e-13 0.13794664 1.0112752e-13 1.0112752e-13 1.0112753e-13 1.0112752e-13

batch_network.0.weight f4 [16, 1]
00000000: 016c c73e 09b0 a4be 47c8 7c3e d78a 5a3e
00000010: fdf5 da3d 8bf5 c53d bd97 cdbe ff9c bf3d
00000020: 0625 6d3e e7b1 1b3f b22b 983d 8e19 6a31
00000030: e3e3 303f e656 01bd fd6f 873e f20f 58be
0.38949588 -0.32165554 0.24685775 0.21342026 0.1069145 0.09665974 -0.4015483 0.093561165
0.23158655 0.6081833 0.07430209 3.4066008e-09 0.6909773 -0.031577013 0.26452628 -0.21099833

batch_network.0.bias f4 [16]
00000000: d132 aa3c f3f1 653a cc3d 01bf ccdd 793e
00000010: beea 2abf 6624 3b3f feb1 34bf 3ca4 99b6
00000020: 2259 ed3c 56a8 503d aaa6 183f 8a74 cebe
00000030: ceec 7e3d f9c4 b53e d999 63be b144 21b1
0.020776184 0.000877171 -0.5048492 0.24401015 -0.6676444 0.73102415 -0.70584095 -4.5788747e-06
0.028973166 0.050941788 0.5962931 -0.40323287 0.062237553 0.3550184 -0.22226657 -2.346763e-09

batch_network.2.weight f4 [16]
00000000: 8b3c 7c3f f004 3c3f f091 773f a856 7b3f
00000010: 683d 813f 7ac6 7a3f f004 3c3f 5b34 803f
00000020: ce53 7a3f 2ea5 813f 0528 813f f004 3c3f
00000030: 543d 7f3f e6a1 7f3f 255a 7e3f f004 3c3f
0.9852988 0.73445034 0.9670706 0.981791 1.0096865 0.979591 0.73445034 1.0015978
0.97784126 1.0128534 1.0090338 0.73445034 0.99702954 0.9985641 0.993563 0.73445034

batch_network.2.bias f4 [16]
00000000: 3e91 44b8 20d3 f5b1 4b67 22b8 45a0 2038
00000010: fac2 d737 7190 20b8 32a7 8f32 1c4a 07b8
00000020: b957 45b7 5c44 90b7 5fa2 ee37 5dc8 6732
00000030: 316d 3f38 e94f 9fb6 cd59 6a37 0d22 06b1
-4.686531e-05 -7.1544406e-09 -3.872001e-05 3.8296235e-05 2.572079e-05 -3.8281494e-05 1.6723423e-08 -3.2255528e-05
-1.17625395e-05 -1.719797e-05 2.844742e-05 1.3491527e-08 4.563964e-05 -4.747872e-06 1.3968395e-05 -1.9518922e-09

batch_network.2.running_mean f4 [16]
00000000: a4a4 2f40 0000 0000 5917 9d3f 5a2f e13f
00000010: 786f e63d c11d b63f 0000 0000 606c 233f
00000020: 935f d53f a7d9 8840 db2a 903f 0000 0000
00000030: a665 9b40 7638 0e3e 0510 d13f 0000 0000
2.7444239 0.0 1.227275 1.7592576 0.1125173 1.422783 0.0 0.6383724
1.6669792 4.276569 1.1263078 0.0 4.8561583 0.13888726 1.6333014 0.0

batch_network.2.running_var f4 [16]
00000000: 89d3 163f 0cb8 e329 fac7 763e d560 393e
00000010: 6d51 833c 5907 183d 0cb8 e329 cdd7 043d
00000020: 86d2 593e 7585 b53f b88d b13c 0cb8 e329
00000030: 13a6 e93f f1b1 733b 3053 8d3e 0cb8 e329
0.5891653 1.0112752e-13 0.24099723 0.18103345 0.016030038 0.037116382 1.0112752e-13 0.032432366
0.21271715 1.4181353 0.021674022 1.0112752e-13 1.8253807 0.0037184919 0.2760253 1.0112752e-13

ps_network.0.weight f4 [8, 1]
00000000: 0230 883c b009 d8b3 685f f63e ade0 5abe
00000010: 5337 0b3e 398b aabd f4e2 5e3d c7f9 c43d
0.016624454 -1.0060046e-07 0.48119664 -0.2137477 0.13595323 -0.08327336 0.054415658 0.09617954

ps_network.0.bias f4 [8]
00000000: ea64 4b3e 0186 28bf 68de 293f 3c37 0d3f
00000010: 85be 193f 6966 2a3c 43e0 673e 9eb9 843d
0.19862714 -0.65829474 0.6635499 0.55162406 0.60056335 0.010400393 0.22644143 0.06480716

ps_network.2.weight f4 [8]
00000000: d896 733f f004 3c3f f064 723f 8dd3 763f
00000010: 3ae9 7d3f 2b4d 713f a1fd 7a3f e448 7f3f
0.95152044 0.73445034 0.9468527 0.9641655 0.99184 0.94258374 0.98043257 0.997206

ps_network.2.bias f4 [8]
00000000: 8e73 83b8 0daf 0d33 1638 a037 8ce6 9d37
00000010: 74a3 4838 9fcd 3638 be0e ce37 99a4 5e38
-6.2680905e-05 3.298833e-08 1.9099603e-05 1.8823215e-05 4.7835943e-05 4.358368e-05 2.4563979e-05 5.3082218e-05

ps_network.2.running_mean f4 [8]
00000000: 9513 763e 0000 0000 2ad2 d93f 971f a43e
00000010: 9f9f 663f 7710 c93b f0f2 b33e 97b0 8e3e
0.24030907 0.0 1.7017262 0.3205535 0.9008731 0.006135996 0.35146284 0.27869102

ps_network.2.running_var f4 [8]
00000000: aded 183b 0cb8 e329 7901 0140 040f 8a3d
00000010: eeea 253e 8bc1 0938 3193 d93c 29dd aa3d
0.0023335025 1.0112752e-13 2.015715 0.06741145 0.162029 3.2843596e-05 0.026559444 0.08342964

main_network.0.weight f4 [128, 104]
00000000: 86ac 2abd 50e8 9c3d 0560 5fbd d63d 4fbd
00000010: d75f 36bc 254a 713d f101 433d 8ac9 c6bd
00000020: 5ac5 d23d f151 8f3d 450d ddbc eb6b 6ebd
00000030: 50b0 8abc a17e 8cbd b058 25bd db5c 613d
00000040: d34e 4f3d fa6f cbbc 5193 723c 4a81 61bd
00000050: fc52 d5bb ef70 153c e628 8dbd a331 00bd
00000060: 0520 673d d3ae 5f3d 491b 44bd fbb2 c6bd
00000070: d38b f03a 6d71 d6bc 537b 903d fa8f febc
00000080: 1092 d5bd d96d b73d b449 093d 0dd8 863d
00000090: c2cb 3b3c 53ea 18bb e139 833b c216 4cbc
000000a0: 6aca a4bd f76c 923c 7e88 803d 11ae abbd
000000b0: b431 b1bd 3019 c93d 1483 40bd 3422 8fbd
000000c0: 57b4 b931 cdf3 ce31 7a47 39af f843 b4bd
000000d0: 3046 d9bc bde2 c1b3 0a11 2332 d420 77b2
000000e0: d0b4 5b3d 9c4d 2633 2c89 903c 59a8 2fbd
000000f0: f0b8 a43d f7e3 a83d 19d6 df3c b455 21bc
00000100: 51c1 f33c d3d4 84bc 7310 603d cf6f 0736
00000110: f408 85bd 159a e43d 2582 773d 8cb6 4fbd
00000120: b182 903d 60a2 bcb1 f8bb a233 6db3 1e3d
00000130: 3eeb 54b3 0bc3 1a2f ac02 90bb 1ab2 e5b5
00000140: b683 a9bd 2727 e8b5 ffcd e4bc 1c7c a7bd
00000150: 1688 6fbc 2eec ab3b 4064 54b2 4ef2 163c
00000160: 6c4a be3c 54ee 643d 5536 bb3c 9427 83b2
00000170: e393 cf3d cfb7 183d f337 ddbc c636 4137
00000180: ba78 a2bd 4c8a be31 3cce 953d c931 a43d
00000190: c174 0cbb a725 aebd 1fd7 8dbd 3bd3 36bc
000001a0: 91d3 a03a 1bda ad3c 2826 833d 3df2 0c3d
000001b0: 15e5 c83c f36b bcbd 45e1 963d cfe6 4bbd
000001c0: 1f05 8a3b ed54 95bd a363 683d 51d1 eb3c
000001d0: d51d abbb 0571 713d d00a 8c3c adf8 e7bc
000001e0: bf12 4c3c f60a 4bba 8cce aabc 490f 2b3d
000001f0: 4bf4 64bb 02fd a0bb 1213 f13d 3573 bd3d
00000200: b8d8 503c d287 68bd 5ea5 dfbd cd32 5d3d
00000210: a9b3 28bc 7fe4 b93c c70e babd d51e f93d
00000220: 1aba 3e3c 6e74 15bd 8378 273d c3ce 5c3d
00000230: 4de8 e2bd 3eb6 2d3d 13c1 123c efc8 143d
00000240: 5897 71bd 5743 8f3d 8510 ff3d 1cb1 d2bd
00000250: d7ea 6f3d 8f94 bd3c 4ad7 8fbd 8e2a f13c
00000260: e0c4 69b3 7b24 f0b2 9f65 fcb7 152c c1bd
00000270: 5f3a 713d 8211 a5b1 d7e1 9033 85bd 08b6
00000280: 8467 c53c 274e 8331 fd91 0dbd 45b0 9a3c
00000290: b7c5 933c 6338 f5ba b4ca 62bc 30d2 e7bd
000002a0: ad6a 57bc 7d0c 883d 73ce 873d f36f 3db0
000002b0: 8312 de3d eb72 05bd 0cf7 39bd b7b9 bb3d
000002c0: 02e5 aabd 49d3 7eb1 2a97 a8b1 e50b 983d
000002d0: 6d0b 91b5 f4cf fd37 b670 d13b c1ae fb35
000002e0: 9781 a0bd a9a7 03b6 0c05 32bb dbe0 56bc
000002f0: bbc1 07be ffff b23d bd46 11b2 20ba 673c
00000300: 83c5 a5bd 8be1 c73d 446f 52bd 6d40 a431
00000310: c43f ddbc 5195 82bd 2544 64bc 5f64 9c32
00000320: 5a9a c53d ebba ed34 3a60 383d c80f 47bd
00000330: ab8e a63d 09b3 2c3d a294 3a3c 3d56 20bd
00000340: 7868 de3c 6a10 b13d 933c debc 241f 32bd
00000350: b892 7c3d e0c8 b6bd 910d b03d 444c 213d
00000360: 1bc2 843d 660a 013d eccb 9abd 487d acbc
00000370: d1cd d33c 8769 b53d dfd0 80bd 11f3 62bb
00000380: 48f7 9d3b dde1 c93d 505b 90bb a538 46bd
00000390: 7d88 043d e468 b23c 92b3 893d 0587 6b3d
000003a0: 18f6 623b f261 cc3c 90a1 aa3b 4b85 a4bd
000003b0: 670b 5f3d a391 fe3d dd07 d7bd 129c 6c3d
000003c0: b211 5bbd 1dfd 9e3d c1f6 06bd a028 1c3c
000003d0: 1d7a ba3c 6676 ea3c 87a8 1abc ebe6 b0bd
000003e0: 8f96 7ebd 5b1d 853d fd70 d83d 0ca0 9a3d
000003f0: 53e6 7ebd 0d82 5e3c 1e21 5b3c 3185 d83c
-0.041668437 0.076614976 -0.05453493 -0.05059608 -0.011131248 0.0589086 0.047609273 -0.09706409
0.10291548 0.06998051 -0.026983866 -0.058208387 -0.016929775 -0.0686009 -0.040367782 0.055020195
0.050612282 -0.024833668 0.014805631 -0.05505494 -0.0065101366 0.009121164 -0.068925664 -0.031297337
0.05642702 0.054610085 -0.047877584 -0.097021066 0.0018352218 -0.026177133 0.07054772 -0.031074513
-0.1042825 0.08956499 0.033517554 0.06584177 0.011462154 -0.0023333027 0.0040047024 -0.012456598
-0.0804642 0.017874224 0.06276034 -0.0838281 -0.08652058 0.09819257 -0.047000006 -0.069889456
5.404711e-09 6.023106e-09 -1.6851046e-10 -0.088020265 -0.026522726 -9.028506e-08 9.491723e-09 -1.43847565e-08
0.053639233 3.8720472e-08 0.017643534 -0.04288516 0.080430865 0.08246606 0.02732377 -0.009847093
0.029755266 -0.016214764 0.054703187 2.0181649e-06 -0.06495848 0.11162201 0.06042685 -0.0507112
0.070561774 -5.48998e-09 7.577904e-08 0.038745333 -4.9574048e-08 1.4075512e-10 -0.0043948498 -1.7113664e-06
-0.08277075 -1.7296742e-06 -0.027930258 -0.08177969 -0.014619848 0.0052466607 -1.2362818e-08 0.009213043
0.023228846 0.05589135 0.022853056 -1.5268405e-08 0.10135629 0.03728467 -0.027004218 1.1516449e-05
-0.07933183 5.5454503e-09 0.07314727 0.08017308 -0.0021431895 -0.08503275 -0.06925797 -0.01115876
0.0012270083 0.021222165 0.06403762 0.034410704 0.024523297 -0.09200277 0.073671855 -0.049780663
0.0042120363 -0.07291589 0.056735646 0.028786333 -0.005222062 0.058945674 0.017095 -0.02831682
0.012455641 -0.0007745469 -0.020850442 0.041762624 -0.003493565 -0.0049129734 0.117712155 0.092504896
0.012746982 -0.056770153 -0.10920213 0.054003526 -0.010296741 0.022691963 -0.0908485 0.12164084
0.01164105 -0.03648799 0.040886413 0.05390812 -0.11079464 0.042410128 0.008957165 0.036324438
-0.058982223 0.06995266 0.12454323 -0.10287687 0.05857357 0.023142127 -0.07023485 0.029439237
-5.4428597e-08 -2.7956267e-08 -3.0088062e-05 -0.09432236 0.058893558 -4.8041224e-09 6.7466026e-08 -2.0375894e-06
0.024097212 3.8214867e-09 -0.034563053 0.01888288 0.018038614 -0.0018708821 -0.0138422735 -0.11319387
-0.013147992 0.06643007 0.06631174 -6.891689e-10 0.108433746 -0.032580297 -0.045401618 0.09166282
-0.08344461 -3.7081966e-09 -4.906629e-09 0.07424144 -1.0806667e-06 3.0256786e-05 0.00639161 1.8751817e-06
-0.07837217 -1.9618112e-06 -0.0027163653 -0.013115133 -0.13257496 0.08740234 -8.456195e-09 0.014143497
-0.08094313 0.09759816 -0.051375642 4.7803526e-09 -0.027007945 -0.06376136 -0.013932263 1.8206434e-08
0.09648581 4.428069e-07 0.045013644 -0.048599035 0.081326805 0.04216293 0.011387976 -0.039144743
0.027149424 0.08645709 -0.027128493 -0.04348673 0.06166336 -0.089250326 0.085963376 0.039379373
0.06482335 0.031504057 -0.07558426 -0.021055833 0.025854977 0.08858018 -0.06289839 -0.0034629742
0.004820738 0.09857533 -0.0044054165 -0.048393864 0.032356728 0.021778531 0.067237034 0.05750181
0.0034631547 0.024949048 0.005207248 -0.08033236 0.054454233 0.12430122 -0.10499547 0.057766028
-0.053483672 0.07763121 -0.032950167 0.00953117 0.022763306 0.02862091 -0.009439594 -0.08637794
-0.062155303 0.0649974 0.10568426 0.07550058 -0.062231373 0.013580811 0.013374595 0.026430698

main_network.0.bias f4 [128]
00000000: 54f4 0538 6120 f537 0222 35b7 6785 aeb7
00000010: d0a2 1137 a40c 6537 ffbc b5b6 f1c2 e836
00000020: 5935 d7b5 c919 87b5 3195 0237 82b2 af37
00000030: e0c0 bdb7 8f4c abb7 0924 dd35 93d8 df37
00000040: 540f fcb5 2048 edb6 eefe 6f37 e03e ae36
00000050: 85ad 3436 6f30 2ab7 b447 3c37 4ffd e636
00000060: c9d3 2937 e455 c637 b5d4 0436 feeb 92b7
00000070: ae29 2336 12f3 2537 615f bab7 e457 c4b6
00000080: d7de 9934 1fa8 e7b4 95c4 98b7 7a5d aab5
00000090: 45a3 93b7 7b9e 14b6 698a 20b6 5383 b3b7
000000a0: d582 4d37 fa10 bdb5 a940 5eb5 ef27 9e34
000000b0: b836 e535 0d59 4637 db9c 3cb6 46f2 dfb7
000000c0: a06e c937 9bba 9537 ad58 91b6 38ae 42b7
000000d0: 37e9 3fb7 36e1 6736 8a35 7bb7 7839 1035
000000e0: 5162 7235 737c 1db6 0326 0436 1cf8 1a37
000000f0: 3643 3d37 fe03 1eb8 8c25 01b7 a632 07b6
00000100: 2973 6236 bee5 edb5 c215 92b5 8816 0eb8
00000110: 56f4 c3b6 4033 1d37 2386 b2b7 5fe8 1bb7
00000120: e045 d535 f791 82b6 a253 cab6 542c 01b7
00000130: 3780 78b4 8be4 a936 4bdb adb7 2e83 feb7
00000140: dcb3 2d37 3eca cb37 b69d 2236 6f4e b936
00000150: 34dd a1b7 c794 96b7 09d0 1038 b274 49b7
00000160: af5f 7538 5d24 f2b5 ce51 77b6 df80 3c37
00000170: 883e b437 8740 c3b6 c807 8e37 4f88 2cb6
00000180: adbb f0b6 1b15 dd37 3a9d 8b35 4341 b3b6
00000190: 72eb 0a38 6f9c 1b36 e4d6 0834 3801 02b5
000001a0: b3f8 a737 8cf0 99b7 71bd 5f37 d945 1bb5
000001b0: 0872 5db6 6599 3236 ccde f1b0 df63 c4b7
000001c0: 4e63 19b7 12f3 08b7 14c6 dd36 a932 b1b7
000001d0: fdeb 53b5 d3d1 dfb7 a013 2837 bfe5 08b7
000001e0: 42c4 e9b5 1758 7837 919d 6fb7 a7ec 9d36
000001f0: 05a5 c037 dc8c 6537 ccde 1337 52f5 eab7
3.193722e-05 2.9221354e-05 -1.0796359e-05 -2.0804537e-05 8.680581e-06 1.3652407e-05 -5.4162224e-06 6.936833e-06
-1.6034274e-06 -1.0065788e-06 7.78334e-06 2.094475e-05 -2.262037e-05 -2.0420439e-05 1.6476271e-06 2.6684522e-05
-1.8779924e-06 -7.071547e-06 1.43048655e-05 5.1929237e-06 2.6923092e-06 -1.0144066e-05 1.1222368e-05 6.884023e-06
1.0122495e-05 2.3643435e-05 1.9793345e-06 -1.7514449e-05 2.4313154e-06 9.891361e-06 -2.2217342e-05 -5.851487e-06
2.8660608e-07 -4.3149427e-07 -1.8211353e-05 -1.2693192e-06 -1.7599794e-05 -2.2145966e-06 -2.3922423e-06 -2.1399615e-05
1.2249414e-05 -1.4086538e-06 -8.279554e-07 2.945885e-07 1.7077755e-06 1.1822453e-05 -2.8105485e-06 -2.6696489e-05
2.4012581e-05 1.7849079e-05 -4.33166e-06 -1.1603865e-05 -1.1438787e-05 3.4552772e-06 -1.4973231e-05 5.372781e-07
9.0295094e-07 -2.3467262e-06 1.9691659e-06 9.236883e-06 1.1280927e-05 -3.7673854e-05 -7.697741e-06 -2.014605e-06
3.3743656e-06 -1.772474e-06 -1.088418e-06 -3.3876422e-05 -5.8398973e-06 9.369862e-06 -2.1281716e-05 -9.292823e-06
1.5890073e-06 -3.8912945e-06 -6.0298053e-06 -7.69932e-06 -2.3143444e-07 5.0631984e-06 -2.0725323e-05 -3.0340245e-05
1.035348e-05 2.4293662e-05 2.423168e-06 5.5225605e-06 -1.9295701e-05 -1.7950673e-05 3.4526023e-05 -1.2007704e-05
5.8501664e-05 -1.8040988e-06 -3.6853485e-06 1.1235678e-05 2.148679e-05 -5.818965e-06 1.6931343e-05 -2.570934e-06
-7.1744057e-06 2.6355081e-05 1.0402066e-06 -5.342213e-06 3.312104e-05 2.3187856e-06 1.2744164e-07 -4.843055e-07
2.0023761e-05 -1.8351035e-05 1.3335944e-05 -5.784364e-07 -3.2997941e-06 2.6613354e-06 -1.759838e-09 -2.3411527e-05
-9.142632e-06 -8.162826e-06 6.6093726e-06 -2.1123635e-05 -7.8947033e-07 -2.6681379e-05 1.001815e-05 -8.159724e-06
-1.7416971e-06 1.4802462e-05 -1.4282196e-05 4.7065146e-06 2.2965027e-05 1.368226e-05 8.813757e-06 -2.800921e-05

main_network.1.weight f4 [128]
00000000: fac5 783f e75a 803f 0a63 793f 899b 7c3f
00000010: 5a53 823f e06c 843f 8332 893f 298b 7b3f
00000020: 1f67 7c3f ba17 7a3f d6cd 823f 4a90 803f
00000030: 8f10 813f c862 813f 8dc7 7e3f 9a0c 833f
00000040: b03a 763f 6ef7 773f 66b9 7e3f 7419 783f
00000050: 1e24 883f 2bad 793f 4670 7c3f 1e8c 863f
00000060: 8306 783f b69d 7a3f 5e81 753f 95ee 8a3f
00000070: 2f69 7e3f 9efb 753f e8b4 733f 86a7 783f
00000080: c457 803f ac29 7b3f 7fa7 813f 369a 7b3f
00000090: b907 853f fde2 7c3f 6f20 843f ef32 853f
000000a0: fbb5 7e3f 4a39 7b3f dc12 7c3f ab84 773f
000000b0: 50c7 793f aea5 803f fdd5 843f dc71 7a3f
000000c0: 5a57 7d3f a2fb 7c3f 5acf 863f c32e 7b3f
000000d0: 94dd 7b3f aac6 7a3f c87d 793f c5b7 813f
000000e0: 7dc8 7e3f 808d 733f 89c1 7d3f daf4 7b3f
000000f0: 90f2 7e3f 2926 803f 4ae6 753f 6c21 793f
00000100: 9775 7d3f 1e8c 813f 9b12 793f 9430 813f
00000110: 2973 843f b540 763f 7a03 873f d557 803f
00000120: 3851 763f dbfd 793f b6bf 7c3f 3500 783f
00000130: 43e6 7b3f e53e 803f 3cab 7d3f 8b02 813f
00000140: 4ecf 803f f4cf 783f ce8e 813f f405 783f
00000150: 31d2 7e3f 5782 843f df09 843f b8b4 883f
00000160: 9a56 833f 9eb8 883f d8ac 863f e5d7 853f
00000170: c54d 7e3f 2ad9 793f feb1 803f 8d82 7c3f
00000180: 3182 7f3f f1be 7a3f aec8 7c3f de6d 7d3f
00000190: 538e 853f a79b 823f 978a 823f d845 7c3f
000001a0: 97fb 803f 83bb 793f 0a57 823f b451 773f
000001b0: 1c01 783f f350 7e3f 1eb7 733f f3c8 803f
000001c0: a442 843f 368d 7d3f e9cb 7f3f 82b2 853f
000001d0: b62b 783f a856 7d3f b2ad 813f 17f2 843f
000001e0: eb68 763f 5912 823f ba24 713f 421a 823f
000001f0: 4c65 823f 10a9 7e3f 2194 7c3f 6470 813f
0.9717709 1.0027741 0.97416747 0.9867483 1.0181687 1.0345726 1.071854 0.98259217
0.9859485 0.97692454 1.0219066 1.0044034 1.0083178 1.0108271 0.9952324 1.0238221
0.961833 0.9686192 0.99501646 0.9691384 1.0636022 0.9752986 0.98608816 1.051151
0.96884936 0.978969 0.95900524 1.085406 0.9937925 0.9608706 0.95197916 0.9713062
1.0026784 0.9811046 1.0129241 0.9828218 1.0392982 0.98783857 1.0322398 1.0406169
0.9949643 0.9813429 0.9846628 0.9668681 0.9756975 1.0050561 1.0377804 0.97829986
0.9896141 0.9882146 1.0532029 0.9811823 0.98384976 0.9795939 0.9745755 1.0134207
0.9952467 0.95137787 0.99123436 0.9842049 0.9958887 1.0011646 0.9605452 0.9731662
0.9900755 1.0120885 0.97294015 1.009295 1.0347644 0.96192485 1.0547936 1.0026804
0.9621768 0.9765298 0.9873003 0.96875316 0.98398226 1.0019194 0.9908941 1.0078901
1.0063264 0.9719231 1.0121706 0.96884084 0.99539477 1.0352277 1.0315512 1.0680151
1.0260804 1.0681341 1.0521498 1.0456511 0.99337417 0.9759699 1.0054319 0.98636705
0.9980803 0.97947603 0.9874371 0.9899577 1.0434059 1.0203751 1.0198544 0.98544073
1.0076779 0.97551745 1.0182812 0.96609044 0.9687669 0.9934227 0.9520129 1.0061325
1.0332837 0.99043596 0.9992052 1.0445101 0.969417 0.9896035 1.0131133 1.038638
0.9625384 1.0161849 0.94196665 1.0164263 1.0187163 0.9947672 0.98663527 1.0112424

main_network.1.bias f4 [128]
00000000: 07e2 3f39 bb75 173d 33a1 bbbc e1f0 0d3b
00000010: e4d8 bc3b 1e4e 833d bdbe 1a3d bb27 b0bb
00000020: 251c 03bd 7015 a8bc 8b77 263c 08a0 6b39
00000030: e715 43b9 2d09 43bc 610c 0d3c be46 053d
00000040: f9fd 84bc 6bc8 ebbc d901 3f3c 3b9b 90bc
00000050: 4fb9 993d 8890 6e3c 7808 013d b9c8 513d
00000060: d682 99bc 224f 49bc 231f 4bbd c15b 9a3d
00000070: d010 3d3c 770c c0bc 6015 68bc bb7f 0bbc
00000080: 90a2 a03c 55f0 a63b f49d ee3b e5b9 abbc
00000090: 1432 25bd 0f8a 7d3b ba06 c03c 6c94 1f3d
000000a0: 6b5c 033c 8fd5 38bc bd01 9ebc 4284 b3bc
000000b0: 77c6 c9bb 9994 6dbc 5328 2d3d 439e 003b
000000c0: b3b5 7f3c 2d5b 543c 7fd5 533d de69 c3bc
000000d0: 291f 0d3d 672a 01bb 4e41 f43c e956 123c
000000e0: 2608 30bb 4c10 4bbd 6921 203c fbce 9fbc
000000f0: 6d02 81bc 1789 ad3c 44df 24bd af3d 303c
00000100: 998a f33b 2912 793c 0c58 3c3b eb62 6f3b
00000110: eafb 063d 716c 27bc 862a 883d ede4 133d
00000120: 70ad aabc a253 b4bb 2f7f a9bc 748a 01bd
00000130: 474c 5dbc 6319 8e3c 4427 f43a b543 1f3c
00000140: 4da6 0d3d 466a 86bc 58a1 803d 4c78 d4bc
00000150: 54f6 c6bc 60da 8a3c cfe4 643d 330c 323d
00000160: f352 883c e339 6a3d 33af 433d 4b4d 793d
00000170: 8b95 86ba fad0 c43b f261 ad3c 4c54 beba
00000180: 8e05 cbbc 7835 fdbc ec60 c8bb f2dc e83c
00000190: 79a9 883d 0368 a53c 63d1 373d 4284 bdbb
000001a0: 4855 bc3c a963 1bbd bb7d 283d 1eb1 babc
000001b0: 428d 23bd 4860 243d c482 17bd 59d3 bf3c
000001c0: dde9 563d 6442 89bc acaf c8ba aa9b 873d
000001d0: 736b d3bc aa9f 8f3c 340d cd3c dfb9 973c
000001e0: 84b2 e0bc 2a48 2d3d 13a3 07bd e836 d73c
000001f0: efb6 dd3c 49a2 533b 8061 8e3a 2f8d 113d
0.00018299381 0.03697751 -0.022904014 0.0021658468 0.00576316 0.06411384 0.03777956 -0.00537583
-0.032009263 -0.020518035 0.010160337 0.00022470963 -0.00018604808 -0.011904043 0.008608908 0.032538168
-0.016234385 -0.02878209 0.011658155 -0.017652145 0.07506048 0.014560826 0.031502217 0.051216815
-0.018739145 -0.012286933 -0.04959024 0.07537032 0.011539653 -0.023443444 -0.014165252 -0.00851434
0.019608766 0.005094568 0.007282013 -0.020962665 -0.04033096 0.0038687026 0.023440707 0.038959906
0.00801764 -0.011281385 -0.019287938 -0.021913651 -0.006157692 -0.0145007605 0.042274784 0.0019625581
0.015607285 0.012961191 0.051717278 -0.023854192 0.034453545 -0.0019709112 0.029816296 0.008931854
-0.0026860326 -0.04957609 0.009773591 -0.019507876 -0.015748227 0.021183534 -0.040251985 0.010756894
0.0074322936 0.015202084 0.0028739003 0.0036527466 0.032955088 -0.010218726 0.06648736 0.036106993
-0.020834655 -0.005503134 -0.020690529 -0.03162618 -0.0135069555 0.01734609 0.0018627425 0.009720732
0.034582425 -0.016408097 0.06280774 -0.025936268 -0.02428738 0.016949832 0.05588227 0.043468665
0.016641116 0.05718411 0.047774505 0.060864728 -0.0010267956 0.0060063573 0.021164868 -0.0014520972
-0.024782922 -0.030909285 -0.0061150696 0.028425667 0.06672949 0.020191198 0.04487742 -0.0057835886
0.022989884 -0.03793684 0.04113553 -0.022789534 -0.039929636 0.040130883 -0.036989942 0.023416208
0.052469123 -0.01675529 -0.0015311143 0.066214874 -0.025808072 0.017532188 0.02503071 0.018521247
-0.027428873 0.04230515 -0.033114504 0.026271299 0.027064769 0.0032292774 0.0010862797 0.035535034

main_network.1.running_mean f4 [128]
00000000: 09b0 af3d 8f7c 19bd 2c6d 893d f935 b73c
00000010: fa4f 3a3c 4b14 693e 85d7 3dbe 17cb cabd
00000020: bfd4 3abd 9f76 a4bd 694d e8bd 140e f83d
00000030: 7e7a d93a 06a6 893d 0f50 203e 5061 9ebc
00000040: b7bc 9e3d 705f e4bc 6a29 27bd b58f 0c3d
00000050: bb0c 0dbd 8cbe 393c 093b fbbd a7d9 cb3d
00000060: bf91 6a3d baff c13d 6cf8 5f3d f0f8 82bd
00000070: 0db7 02be 0544 20be 0552 16be 50e5 773c
00000080: fc16 803b e246 98bd 9631 e7bc dd28 3cbe
00000090: b073 15bd 8270 e03c 2791 d23c 2962 da3d
000000a0: f6ec 0c3d ef81 7cbd 9668 d0bd 41ee 463c
000000b0: e092 21bd 2b06 f43d 659c ab3c b988 873d
000000c0: a0ac 25bd fa13 eabd 50af 703d 879b d3bd
000000d0: c714 65bc dab5 c4bd 7624 cd3c ae3f e83d
000000e0: e97c 2abe e6dd 823d d313 0dbe 84c4 3d3c
000000f0: d322 113d e56d bb3d 5a30 21bd 4bd7 c43d
00000100: 2067 16bc c27e ccbc 8182 e63d 809c 2b3e
00000110: 5aa6 803d cfda 80bd 3a35 a43d 0574 6a3d
00000120: b0a8 553c 8b39 223d 96fe d83c 1a50 a1bd
00000130: 9379 b2bd ae29 0fbe 0c32 783d c43e 9d3d
00000140: df0c 0c3d 37cd 053e 5ecc ff3b 321f 0e3d
00000150: 66b6 1b3e e6e9 853c 83b7 023e 8e5d 16bd
00000160: 6e93 8dbd 6897 1d3e d180 a53d 3ad2 19be
00000170: 5d1f 7ebd fbea 05be 862e 93bd 67f9 13be
00000180: 7ffb 3e3d d60b 3bbc 1b31 183d e0e0 2abd
00000190: 58e9 2b3d b600 b3bc 5792 1d3e c0a9 a2bd
000001a0: 9f96 3d3d 444b 6dbc 9453 143e 5799 d33b
000001b0: bc1c a9bd 2bcd cfbd 6e7d e1bd 244a b63c
000001c0: e2ce 8bbc 11b0 f1bd 9a42 9f3d a29b c6bc
000001d0: 10ff 113e d002 acbc 980f 7c3d 57c6 17bd
000001e0: a1d6 e13d 0dd8 083e d469 14be 2516 c93d
000001f0: bbe7 f4bc a09e 15be 4f06 7e3d 31af 80bd
0.08578498 -0.037472304 0.06710276 0.022364603 0.011371607 0.22761647 -0.18539245 -0.099020176
-0.045613047 -0.08030438 -0.1134289 0.1211206 0.0016592292 0.067211196 0.1565554 -0.019333512
0.07750838 -0.02787754 -0.04081098 0.034316737 -0.03443597 0.011336934 -0.122671194 0.09953623
0.0572679 0.09472604 0.054680273 -0.06395137 -0.12765141 -0.15650947 -0.14679725 0.015130356
0.00390899 -0.07435395 -0.028221887 -0.18374963 -0.03648728 0.027397398 0.02570398 0.10663254
0.03440567 -0.06164735 -0.10176198 0.012141765 -0.03944671 0.11915239 0.020948598 0.06617875
-0.04044783 -0.114295915 0.05876094 -0.10332399 -0.0139820045 -0.09604998 0.0250418 0.11340271
-0.16649212 0.0638998 -0.13777094 0.0115824975 0.0354336 0.0915182 -0.039352752 0.096113764
-0.00917986 -0.024962787 0.112553604 0.16758919 0.06281729 -0.062917344 0.08017965 0.05723955
0.0130407065 0.03960566 0.026488584 -0.07876606 -0.08714595 -0.13980743 0.060594603 0.07677987
0.034191962 0.13066565 0.007806345 0.03469772 0.15206298 0.016346883 0.12765317 -0.036710314
-0.069128856 0.15389788 0.080812104 -0.15021601 -0.06204163 -0.13077919 -0.07186608 -0.14450608
0.046626564 -0.011416396 0.037156206 -0.041718364 0.04197058 -0.021850925 0.15387855 -0.079425335
0.04628622 -0.014483277 0.14485008 0.0064574885 -0.08257434 -0.101465546 -0.11010252 0.02225215
-0.017066423 -0.1180116 0.07776375 -0.024244133 0.14257455 -0.020997435 0.06153831 -0.037054386
0.11027265 0.13363667 -0.14493495 0.09818677 -0.029895654 -0.14611292 0.062017735 -0.06283415

main_network.1.running_var f4 [128]
00000000: a7d1 273e 7c17 2c3e ab79 0f3e 6a4f d73e
00000010: a65c 0f3e d0db 283f d795 5e3e cea7 8f3e
00000020: 3c4b 483e 535f dd3e b2a3 633e e5ee 083e
00000030: a23b a13e 0865 053f e51b ed3e 25ce e63e
00000040: b887 e63e 79c0 333e e03c ad3d b81f 6a3e
00000050: c397 3b3f 7c79 9a3e d44a 2e3f 06b8 8a3e
00000060: 2d77 ab3e 0f7e 4f3e e874 633e 8350 7a3f
00000070: 3607 bf3e 5a34 843e f26d 943e bbbd 4e3e
00000080: 14bc 353e f1f5 023f fdd4 593e 87ef 063f
00000090: 0a24 4f3e 6478 ed3e 286b a43e eb18 db3e
000000a0: 85dc cc3e b9ad 563e 2fc4 a73e a56a 173e
000000b0: d550 003e 8bf7 4a3e e820 733f 27f6 be3e
000000c0: cd06 8c3e 6ad3 fd3e a4ce b93e da22 b63d
000000d0: 58c9 5b3e 49e5 f83e f1ed e23d b81d 9f3e
000000e0: f193 093e 217a d63d c64d 653e f7b8 983e
000000f0: 9904 863d 9b63 703e 18b7 d13e a540 4e3f
00000100: 4f86 583e 924b 363e 1909 073e 7482 9f3d
00000110: 87fe 693e e7a2 b83e 6059 463f 4f96 843e
00000120: c796 053e f8f9 973e bd50 653e b62e 913e
00000130: c018 f23d b787 173f 117e 613e 61c9 963d
00000140: ff4f 483e 875c be3e bb39 063f e4b3 e53e
00000150: 7d74 743d 1534 393e d25b 533f 271c eb3e
00000160: 858b e13d de5a d13e e7c7 803e 0841 b53e
00000170: ab20 e63d d830 913e 8aa7 043e 24a8 923e
00000180: a43d 133e eb0b 363d a053 a23e 074f 343e
00000190: 60d8 803e cb46 623e 8d42 0d3f f061 c63e
000001a0: a404 9b3e 3b7a 8d3e 97f8 a03e dbeb 3a3e
000001b0: 7a50 533e b1aa 1a3f 9866 6b3e 7c91 f53e
000001c0: b5a6 ca3e d0f2 a13d 3c49 333e 89ca 233e
000001d0: 3d43 193e 9924 2f3e 1fb4 033f 2a83 d83e
000001e0: 113d 933e cba5 233f 7113 123e b894 943f
000001f0: 6d77 993d 4a92 9c3d a735 6e3d 57cd 2b3e
0.1638857 0.16805834 0.14011256 0.42052776 0.14000186 0.6596041 0.21736847 0.28057712
0.1955995 0.4323679 0.22230414 0.13372381 0.3149081 0.52107286 0.46310344 0.4507915
0.4502542 0.17553891 0.084588766 0.22863662 0.73278445 0.3017081 0.6808293 0.27093524
0.3348936 0.20262931 0.22212565 0.977791 0.3731019 0.2582119 0.28990132 0.20189564
0.17747527 0.51156527 0.21272655 0.5270924 0.20228592 0.46380913 0.32113004 0.42792448
0.40011993 0.20964707 0.32766864 0.14786775 0.12530835 0.19820993 0.94972086 0.37297174
0.2734894 0.4957536 0.36290467 0.08893366 0.21463525 0.4861243 0.1108054 0.3107736
0.13435341 0.10472513 0.2239295 0.29828617 0.06543846 0.23475496 0.40960002 0.8056739
0.21144985 0.17802265 0.13187064 0.07788554 0.22851 0.36061785 0.77480125 0.25895926
0.13045798 0.296829 0.2239408 0.2835595 0.11821127 0.5919146 0.22020747 0.07362629
0.19561766 0.37179968 0.5243184 0.44863808 0.059681404 0.18086274 0.8256198 0.45919916
0.11012939 0.4088964 0.25152513 0.35401177 0.112367 0.28357577 0.12954536 0.28643906
0.14378983 0.04444496 0.31704426 0.17608272 0.2516508 0.22097318 0.55179673 0.38746595
0.30276978 0.27632317 0.3143966 0.18254034 0.20636168 0.60416704 0.22988355 0.47962558
0.39580312 0.07907641 0.17508405 0.1599523 0.14967056 0.17103805 0.5144672 0.4228757
0.28757527 0.63924855 0.14265229 1.1607885 0.07493482 0.0764509 0.058156636 0.1677755

main_network.4.weight f4 [64, 128]
00000000: 3273 0d3c 7dff b8bd e132 50bd 851a b33c
00000010: 451c a0bd 4b64 59bc 53bd d93c b141 40bc
00000020: adb9 c1bc b435 9e3c c347 c73d 8512 b03b
00000030: aa3c 783c 2175 493d 4d5f a7bd 6467 3a3d
00000040: 4a31 613d 643b d83c 7bd1 e4bd a0b9 a3bc
00000050: 1d7f 2c3c b1cd 76bc dcc9 49bb 6022 03bd
00000060: 2e7c fbbc 63e4 833d 0553 c53c 54c0 a83d
00000070: 3211 f23b 7a61 cfbc 3e46 0dbd b23c 8c3b
00000080: a4f8 f93c aa13 d73b a1f0 4d3c ca18 ddbd
00000090: 9f70 a33d cf20 a63d b0b8 2ebd 104c 583d
000000a0: 0e52 b13c 2148 3cbd 1477 74bd cc9f 98bd
000000b0: 4d58 63bd 9e51 553d cea8 843d d00c 713c
000000c0: 18b7 8ebd ba51 5fbd 07db fbbc ce6c 393d
000000d0: 33b8 ab3c fb3f 11bd 3807 3ebd 83f8 70bd
000000e0: 6e79 813c bcfd cebc 97b1 c4bd 3277 7d3d
000000f0: 0b58 3b3d 43a4 f53d a8d2 74bd 0808 17bd
00000100: ab37 a0bb a964 47bd f099 12bd 08f9 ab3c
00000110: 3722 bf3d 0559 91bd f002 cb3d 6de7 ba3c
00000120: 443d 9bbd 5457 033d 617b b0bc cda0 413d
00000130: 6388 213d 50b7 713d 077e 47bc 861b a3bd
00000140: f23b e6bc 3a3b 21bd 928c bebd c1ab 8f3c
00000150: d6a1 693d 8b0a 90bd 3ee5 50bd b25e 5e3c
00000160: aaf1 d13d 0d23 07ba 53ca 873d d557 c3bc
00000170: 6846 703d f3e9 55bd 5ddd 84bd bc10 a83c
00000180: ad2c 7abd a3f2 dbbc 3d8d a4bb 5d2e c7ba
00000190: 0e35 95bd 6e42 393b 94de c53c f807 9e3c
000001a0: 4429 30bd 753e b93a cb54 553d d244 55bd
000001b0: 5a9b bc3d 6e07 82bd cc0b 5d3d dc5b 0c3d
000001c0: 6f32 4a3d 6b26 bb3c dad2 433c 0fdc e5bd
000001d0: 92a1 713d ac19 66bd 6c77 623b d832 6f3c
000001e0: 8b5e 6f3d c59f b53c 9589 a7bc 5b26 053d
000001f0: f956 6c3d 3724 503d 8e8b 843d 461f bbbb
00000200: 62f5 a33d a8a8 a7bc af51 00b9 2246 5fbd
00000210: b3e6 453c ad30 19bd 63d8 87bd 77dd 083d
00000220: 1911 233c d6c1 a63c c19b 4cbd 4c04 033d
00000230: 3ac9 4dbc ffa8 32bd 4984 1cbd bcff 423b
00000240: 5310 c3bd 8d5d 43bd 482a 643d c2f1 d73d
00000250: cc42 74bd e2f0 acbb 2f64 09bd 9a8d ff3b
00000260: 32a9 4d3d c0b2 e03c 1ff6 0dbd 1915 dcbd
00000270: 2c42 bebc b804 babd 80ee 3c3d 456f 423d
00000280: 30fe 133d a07d fb3c f859 293c 140f 993d
00000290: e44a 233c cbce 64bd 8d67 19be 9e2d a43c
000002a0: 169c 68bd af0b 133c 76ed 843d 68de 42bd
000002b0: 1bb3 9ebb 7d79 123c 5116 443c 266a 063d
000002c0: 3813 60bc 261a 833d b883 64bc 3067 9fbd
000002d0: 24a4 8dbd cb8b febc e91c b53c 94a6 c0bd
000002e0: 0510 1c3a 7bf8 24bd 9c78 11bc 133b 45bd
000002f0: ce27 e3bd a67b 4abd d68d a63b fe9b 133d
00000300: 8648 a3bc bb6a 93bd aa4b f03b fa3b 903c
00000310: 06cb 5b3c a602 913c bc48 07be 4c42 a63d
00000320: 6f5e e0bc b233 81bd 7444 873d f01f 1d3d
00000330: 7ede 15bd 1b05 a4bd d3de 6fbb a021 c33c
00000340: f4c9 893b 7457 af3c 22ac c63c 6848 513c
00000350: 69fb bdbd e838 d0bd 4210 2fbd aa0b cabd
00000360: 5677 943c 7774 19be 4b29 66bd 328c 88bc
00000370: 3765 a8bd a273 6e3d b0d7 70bd 2a55 1f3d
00000380: 5d42 34bd f14d 853d 6924 49bb 9d57 0a3d
00000390: 8d80 213d aa6b 84bc f1c9 3fbc d807 9dbb
000003a0: b971 5a3d 3cae 9a3d c3dc a5bd 773d 553c
000003b0: 49d2 673d 5e19 6ebd 1946 ce3c 5472 a9bd
000003c0: 7a0d 05be d8ca 4fbd 3b20 dfbc 2f82 5bbd
000003d0: 95ff a1bb 6288 6abd 6358 9bba 8196 503d
000003e0: f7c4 19ba ccea 223d a339 583d 2703 e93c
000003f0: 05de b3bb 7095 67bc ba3e d5bc e476 b53c
0.008633422 -0.090331055 -0.050829772 0.021863231 -0.07817892 -0.013268541 0.026579535 -0.011734412
-0.023648107 0.019312717 0.09730484 0.0053733015 0.015151182 0.04918397 -0.08172474 0.045508757
0.054978646 0.026395507 -0.11172768 -0.019985974 0.010528353 -0.015063689 -0.0030790484 -0.032015204
-0.030698862 0.06440046 0.024087438 0.08239809 0.0073873037 -0.025315035 -0.034490816 0.0042796964
0.030514069 0.0065636234 0.012569577 -0.10795744 0.07980465 0.081117265 -0.0426566 0.052806914
0.021645572 -0.045967225 -0.059683874 -0.07452354 -0.055504132 0.05207979 0.064775094 0.014712527
-0.06968516 -0.0545213 -0.030744089 0.04526978 0.020961856 -0.035461407 -0.046393603 -0.05883075
0.015804972 -0.025267474 -0.09604185 0.06188125 0.04573826 0.11994221 -0.05977121 -0.036872894
-0.0048894486 -0.04867998 -0.035791337 0.02099277 0.09332698 -0.07097057 0.0991267 0.02281543
-0.07580045 0.032065704 -0.021543207 0.047272492 0.03943671 0.05901271 -0.012176043 -0.07964234
-0.028104756 -0.039363123 -0.093041554 0.017537953 0.057039104 -0.07033261 -0.050999872 0.013572382
0.10251172 -0.0005155064 0.06630387 -0.023845593 0.058660895 -0.052225064 -0.06487534 0.020515792
-0.061077762 -0.026849097 -0.0050217197 -0.0015196312 -0.0728551 0.0028268355 0.024153985 0.01929091
-0.043008104 0.0014132994 0.052082818 -0.052067585 0.092093185 -0.06349073 0.05396633 0.03426729
0.049364503 0.022845468 0.011952126 -0.112236135 0.058991976 -0.056176826 0.0034556044 0.014599524
0.058439773 0.02217091 -0.020451346 0.03250728 0.05770013 0.050815787 0.064719304 -0.005710515
0.080057874 -0.020466164 -0.00012237461 -0.054510243 0.012078929 -0.037399936 -0.06633069 0.03341433
0.009952807 0.0203561 -0.049953226 0.03198652 -0.012560183 -0.0436182 -0.038212094 0.002975448
-0.09524598 -0.04769664 0.055704385 0.105441585 -0.059634015 -0.005277739 -0.03354281 0.0077988626
0.050210185 0.027428985 -0.034658547 -0.107462116 -0.023224913 -0.09082931 0.04612589 0.047469396
0.036131084 0.030699551 0.010336392 0.07473579 0.009966586 -0.055861276 -0.14980908 0.020041283
-0.05678948 0.008974954 0.064906046 -0.047575384 -0.0048431284 0.008940098 0.011968211 0.032816075
-0.013676457 0.06401472 -0.01394742 -0.07783353 -0.06916073 -0.031072518 0.022108512 -0.09406772
0.0005953315 -0.040276032 -0.008878853 -0.04815204 -0.110915765 -0.049434327 0.005082826 0.036037438
-0.019932043 -0.071980916 0.0073332386 0.017606724 0.013415104 0.017701458 -0.1321134 0.08118114
-0.02738878 -0.06308688 0.06604853 0.038360536 -0.03658914 -0.08008786 -0.003660132 0.023819745
0.004204983 0.021404006 0.024252001 0.012773611 -0.09276468 -0.10167104 -0.042740114 -0.09865506
0.01812331 -0.14985834 -0.056191724 -0.016668413 -0.0822243 0.058215745 -0.058799446 0.03889958
-0.0440086 0.06509007 -0.0030691868 0.03377496 0.039429236 -0.01616462 -0.011705861 -0.004792195
0.05333111 0.07552764 -0.080987476 0.013015143 0.056597028 -0.05812966 0.02517991 -0.082737595
-0.12993422 -0.050730556 -0.027237048 -0.05359095 -0.004943798 -0.05725897 -0.0011851903 0.05092478
-0.0005865837 0.0397747 0.05278934 0.028443886 -0.0054891133 -0.01413475 -0.026030887 0.022151418

main_network.4.bias f4 [64]
00000000: 2ec9 9937 a575 38b6 e335 30b7 b14c ef35
00000010: 8d2b 5ab7 519b a3b6 6c97 2937 5f9a 9ab7
00000020: 5945 a936 ae28 9737 fa9b c837 ca98 b2b7
00000030: 208f edb6 9900 8fb6 9b1a 85b6 6773 cfb6
00000040: a439 73b7 3624 6d37 b7fb f7b5 ef5c b8b7
00000050: 2c08 1fb8 658e 4437 6ce3 56b6 32ee ba36
00000060: 1010 50b5 e826 bab6 4d9a 28b6 c872 b137
00000070: b9af b6b5 4cff 3b36 c686 03b7 1954 b936
00000080: 1224 9fb5 021d 18b7 8554 0ab7 1eb1 92b4
00000090: da55 cf36 7899 1536 e849 bbb7 c6d3 08b8
000000a0: a41b 8a36 982c 14b8 8d31 1137 2146 a3b8
000000b0: 72aa 2636 155d a2b6 2f6a 55b6 ab2e 26b7
000000c0: e4ee 47b6 57c7 a136 7659 ba36 36e6 3eb6
000000d0: 7ff2 6937 542d 7437 1cae 8136 417b 9137
000000e0: a113 f8b6 5d53 9036 3ed1 b136 33e9 1d37
000000f0: b494 f4b6 e572 f4b5 a8a4 3536 b14a bab5
1.8332703e-05 -2.7486615e-06 -1.0502964e-05 1.7829208e-06 -1.30039525e-05 -4.8758598e-06 1.0108441e-05 -1.8430115e-05
5.0446656e-06 1.8019546e-05 2.391449e-05 -2.1290401e-05 -7.0798123e-06 -4.2618017e-06 -3.966806e-06 -6.1825153e-06
-1.4497349e-05 1.4134732e-05 -1.8476193e-06 -2.1977785e-05 -3.7916165e-05 1.1715664e-05 -3.2020862e-06 5.5709615e-06
-7.750941e-07 -5.5477612e-06 -2.5123766e-06 2.1153493e-05 -1.3611199e-06 2.8013774e-06 -7.839588e-06 5.52322e-06
-1.1856921e-06 -9.06666e-06 -8.24512e-06 -2.732349e-07 6.179075e-06 2.229206e-06 -2.2326552e-05 -3.2622156e-05
4.1159383e-06 -3.532748e-05 8.65421e-06 -7.785508e-05 2.483514e-06 -4.8388124e-06 -3.180128e-06 -9.905237e-06
-2.9792363e-06 4.82138e-06 5.5536466e-06 -2.8446207e-06 1.3944343e-05 1.4554087e-05 3.8647686e-06 1.7342742e-05
-7.393261e-06 4.301239e-06 5.29937e-06 9.412225e-06 -7.289078e-06 -1.8212855e-06 2.7066944e-06 -1.3879818e-06

main_network.5.weight f4 [64]
00000000: 2b32 843f 0d3d 803f 27af 783f 5d07 7b3f
00000010: e050 763f dae4 773f 2d58 763f b663 823f
00000020: 47af 7d3f eb27 893f 5e70 733f f308 7b3f
00000030: 88c5 7a3f 1d61 853f 271a 783f d71a 6e3f
00000040: bdba 7c3f 12a4 753f 23a9 6f3f c4a6 873f
00000050: 3657 853f 20c2 843f 1201 853f 6949 823f
00000060: 8477 793f 7d74 7d3f f308 7c3f 08e5 813f
00000070: 920c 7d3f 2410 793f b20f 783f ba7e 783f
00000080: 8e54 873f 639f 783f 623d 833f cbab 753f
00000090: 64b0 703f 9fd3 813f f2c4 7f3f 0b5f 833f
000000a0: a50a 743f 5c3e 843f 842d 803f 66c4 803f
000000b0: 6531 873f 0af5 883f 3edb 823f c470 843f
000000c0: 8d2a 7f3f 25b5 713f 191f 813f 29b1 753f
000000d0: b357 793f 477f 743f 4257 813f 24ca 873f
000000e0: 6faf 753f 9f0a 853f 944c 883f 5cbf 813f
000000f0: 9233 803f 6561 803f b012 863f 1986 833f
1.032781 1.0018631 0.9714226 0.9805811 0.96217155 0.96833575 0.96228296 1.0186679
0.99095577 1.0715307 0.95093334 0.9806053 0.9795766 1.0420262 0.96914905 0.93009704
0.9872244 0.95953476 0.9361746 1.0597768 1.041724 1.0371742 1.0390952 1.0178653
0.9744799 0.9900587 0.98451155 1.014802 0.98847306 0.97290254 0.9689895 0.9706837
1.0572679 0.97118205 1.0253108 0.9596526 0.9401915 1.0142707 0.9990989 1.026338
0.9532874 1.033153 1.001389 1.0059936 1.0561949 1.069978 1.0223157 1.0346913
0.996743 0.9441703 1.0087615 0.9597345 0.97399443 0.9550671 1.0104754 1.0608563
0.95970815 1.0393866 1.064837 1.0136523 1.0015738 1.0029722 1.0474453 1.0275298

main_network.5.bias f4 [64]
00000000: 29d6 ee3c 9661 8f3d 52d2 ef3c 2ec1 413d
00000010: 8169 35bc 2d38 cbbc eaeb 6ebd 5e60 623c
00000020: 1938 d03c 0863 9c3d d2f1 68bc 6f81 843b
00000030: 67c2 313c dc5d 573d 8b3f 87bc 4b33 f93b
00000040: 3bee b53c e284 293c 1e38 f9bc 84e4 843d
00000050: 52ce 383d 70d8 6d3d c519 c53d 35c4 833d
00000060: 70aa 3c3c e99f c3bb c865 023d b484 9b3d
00000070: 7d2d de3c fbb2 613c 4644 f53c 0149 9b3c
00000080: 575e ba3d 4608 8e3c 273d 853d 8824 303c
00000090: 29bf 4abc 4e63 5b3d cea3 2d3d 67db 093c
000000a0: fa07 eabb 8f11 613d f0d2 e53c 0e6a c6bc
000000b0: 065b a03d 4025 c23d 05b8 6d3d 6398 dc3c
000000c0: e445 2c3d 5acc d9bc b7f9 df3c a58c 26bd
000000d0: 1609 07bb 5d7e d9bc c87a 163d dae9 0c3d
000000e0: efd9 f0bb 69d3 943d 7a7b 983d 92c9 a03b
000000f0: 73de 863b e691 893d e2b0 923d 83f8 1d3c
0.029154854 0.07001035 0.029275093 0.04730337 -0.011072517 -0.02480706 -0.058330454 0.013816921
0.025417374 0.07636076 -0.014217811 0.00404375 0.010849572 0.052579746 -0.016509792 0.0076049916
0.022208324 0.010346623 -0.030422267 0.064888984 0.045118637 0.05806774 0.09624056 0.06433908
0.011515245 -0.0059699905 0.031835347 0.075936705 0.0271213 0.013775582 0.029939782 0.01895571
0.09100025 0.01733793 0.065058045 0.010750897 -0.012374678 0.0535615 0.042392544 0.008414126
-0.007142064 0.054948386 0.028054684 -0.024220493 0.07829861 0.09479761 0.058036823 0.026928132
0.04205884 -0.0265867 0.027340753 -0.040661473 -0.002060478 -0.026549513 0.036738187 0.034402706
-0.0073501985 0.07266886 0.07445426 0.0049068416 0.0041158735 0.06717281 0.07162644 0.009641769
