MLP/best_model_densenet40_k12.pth (torch, 121367 bytes, 47 tensors)

model_embedding.weight f4 [32, 12]
000000 4d ea 55 be db 95 ac bc a0 e1 29 3d c2 62 d6 3c
       -0.2089016 -0.02106755 0.04147494 0.026170138
000010 03 4d 08 be 87 2e db bd cf 46 3c 3c 18 6b 04 bd
       -0.13310628 -0.10702234 0.011491491 -0.032328695
000020 f8 a9 1e be 78 b2 4f 3e b8 d1 3d 3d a3 d8 f9 3c
       -0.15494525 0.20282924 0.04634258 0.030498808
000030 67 cd e3 bc c6 f6 e9 bc 87 6f a0 3e f6 6d 85 3b
       -0.027807904 -0.028560054 0.3133509 0.0040719463
000040 ea 1e 03 be 54 fc 8c 3e b7 6c 8e be 98 78 00 3e
       -0.12804762 0.2753626 -0.27817318 0.12546003
000050 c8 f4 f2 3c d2 9c ac be f7 62 cc 3d 91 cb a7 be
       0.029657736 -0.33713394 0.099798135 -0.32772496
000060 09 cd 51 be d6 92 c1 3d 93 73 9e be a7 42 c0 3c
       -0.20488371 0.09451835 -0.3094755 0.023469282
000070 08 90 9d be 05 9c 5d bd 3a eb 2a bd fa a0 a1 bc
       -0.3077395 -0.05410387 -0.041728236 -0.01973008
000080 d2 0f 78 be 00 9b 67 3e 64 ee ea bd 04 f9 60 be
       -0.24224785 0.22617722 -0.11471251 -0.21969992
000090 11 8f f6 bd 7e dc c4 3d 34 42 93 bd c2 42 06 b0
       -0.120390065 0.09612368 -0.071903616 -4.8843785e-10
0000a0 ab a3 94 bd 1e f6 88 3e a4 59 35 be 99 b0 c4 3d
       -0.0725778 0.26750273 -0.17709976 0.09603996
0000b0 da 7c bc bc 45 31 1b 3e aa 27 25 3e 61 6f 96 3d
       -0.023008753 0.15155514 0.16128412 0.073454626
0000c0 fe 7d 94 3e 58 9f ee bd 9c f4 fb bd 4a 0f fe 3a
       0.29002374 -0.11651486 -0.12302515 0.0019383219
0000d0 f0 cf a9 be 48 2c 41 3e 1e 2e 25 be bd cc 66 bc
       -0.33166456 0.18864548 -0.16130874 -0.014086899
0000e0 23 6e 38 3e aa 1a 62 3e 39 dd a8 bd d4 f3 53 3e
       0.18010764 0.22080484 -0.0824532 0.20698482
0000f0 d1 e8 96 3d e3 62 de bd 50 77 78 be 09 6c 0a 28
       0.07368625 -0.10858705 -0.24264264 7.683965e-15
000100 b2 64 72 3e 62 d7 39 3e 6c 11 26 3e bf 05 b8 3d
       0.23671225 0.18148568 0.16217583 0.08985471
000110 0f 80 70 3e d7 15 a3 bd 9a fc 16 bd 23 55 d2 bd
       0.2348635 -0.0796315 -0.036861993 -0.10270145
000120 d8 0e ae 3d 4e b2 45 3d d5 1e 00 3d f2 43 b4 bc
       0.08498925 0.048265748 0.031279404 -0.022005055
000130 3b 63 8a be a7 33 6e bd 05 43 77 bd 71 27 a5 3d
       -0.27028832 -0.05815473 -0.06036665 0.080641635
000140 7e e4 74 be 8d f3 eb 3d f5 43 83 be 05 7d 4d 3e
       -0.23915288 0.11521063 -0.25637785 0.20067222
000150 5f 87 21 3e 53 d9 44 be 9b c2 90 bc 2e a4 f5 37
       0.15774296 -0.19223528 -0.01767092 2.9282728e-05
000160 c2 40 04 3e 24 3d b9 3d 04 85 5b 3e 85 0a d6 3b
       0.12915328 0.09044865 0.2143746 0.0065320157
000170 d6 a2 e1 bd 24 17 2d 3e ae c6 27 be f6 26 74 bc
       -0.110173866 0.16903359 -0.16384384 -0.014901867
000180 8c 65 40 be 70 3c 11 3c 0a 69 77 3c 62 0b ac 2e
       -0.18788737 0.008864507 0.015100727 7.8236764e-11
000190 f5 7a 25 be 12 ef 81 3d 00 9d 80 3e 9c 49 10 bd
       -0.16160186 0.06344427 0.25119781 -0.03522645
0001a0 00 f3 25 bd 8d 3b 8a be 06 cb 91 bd 0c d9 93 be
       -0.040514946 -0.2699856 -0.07118802 -0.2887653
0001b0 56 b9 82 bc f4 66 7c be 19 a8 b8 bd 51 8e 6e 39
       -0.015957516 -0.24648649 -0.09016437 0.00022750466
0001c0 78 ed 06 be 70 0e 95 be 2f 57 d3 3d 65 de 11 be
       -0.13176525 -0.29112577 0.10319363 -0.14244993
0001d0 ff 99 08 be f2 6b 5f 3e 2c 69 80 3e fc 17 b1 3d
       -0.13339995 0.21818522 0.2508024 0.08647153
0001e0 e6 d5 62 3c a9 d8 a0 3c 64 52 92 3d ad 40 3d 3c
       0.013844943 0.019634562 0.07144621 0.011551064
0001f0 00 40 74 be 98 79 37 be 06 0a 1a 3e c0 95 be bd
       -0.23852539 -0.17917478 0.15042886 -0.09305906
000200 c1 3e 6b be f2 b7 87 be 4e 5b a6 3d 13 5d 36 be
       -0.22973157 -0.26507527 0.08122884 -0.17808942
000210 03 3b 20 3e 7f 15 61 be ea 67 70 3e 7e a0 17 b4
       0.15647511 -0.21980856 0.2347714 -1.4121358e-07
000220 0d 1e 0b 3e cd a7 74 be 3d 23 91 bd 26 c8 7e 3e
       0.13585682 -0.23892136 -0.07086799 0.24881038
000230 c4 9b 2a bd 6e 8a 11 be c0 20 3f 3e 60 3d 93 be
       -0.041652456 -0.14212963 0.18664837 -0.28757763
000240 4a 86 07 3e 43 fd 4f 3e 25 f8 d6 3c cc 00 69 39
       0.13234821 0.20311455 0.026241371 0.00022220908
000250 52 12 64 3e 3a c4 a1 3c 83 2e 16 3d fd 89 bc 3d
       0.22272614 0.019746888 0.03666545 0.09206007
000260 7d 0f 3e be 3f 9f 8c 3e 07 48 82 3d ed 38 93 3e
       -0.18560596 0.27465245 0.063613944 0.28754368
000270 40 1c 5b 3b 7e 93 c7 bd db c9 80 be bf 3d cb 26
       0.0033433586 -0.09744929 -0.25154004 1.4102691e-15
000280 7c bd 1a bc c0 be 26 bd 72 f3 ed 3d 9d d7 9e 3d
       -0.009444591 -0.040709257 0.11618699 0.07755969
000290 49 74 ea 3c 54 18 86 bd f8 d9 d7 3d 03 2b 20 3e
       0.028619902 -0.06547609 0.10539621 0.15641408
0002a0 87 82 00 3e f0 03 a3 3d e7 c9 3c 3d e7 63 b9 3c
       0.12549792 0.079597354 0.046090987 0.022630645
0002b0 56 78 57 3e a8 7b 2a 3d 3c 77 60 be cd cb 2c 3e
       0.21041998 0.041621834 -0.21920484 0.16874619
0002c0 8f 8f 80 3e 81 1a 8a be 91 ef 2b bd 68 ea 10 be
       0.25109527 -0.26973346 -0.041976515 -0.14151919
0002d0 7c 13 43 3e 21 b1 60 be 57 a6 20 be 30 a7 65 bb
       0.19050401 -0.2194257 -0.15688454 -0.0035042278
0002e0 dd a7 4d 3e b0 b5 2d 3e 25 02 44 be 86 1d 0e 3d
       0.20083566 0.1696384 -0.19141443 0.034696124
0002f0 c4 73 59 bd ab ac cf 3d a2 0e 85 3e 96 01 a2 bc
       -0.05308892 0.10140356 0.25987726 -0.019776147
000300 d8 91 7c be 88 7d 8f bd 91 9e 22 3e 53 9d cc 29
       -0.2466501 -0.07006365 0.15880801 9.086711e-14
000310 a9 db 43 3c 8e 33 69 be 2a 49 ff bd 0c 4d 8f 3d
       0.0119542265 -0.22773573 -0.12465127 0.069971174
000320 bd 44 3a 3e 7a 33 62 3d ba dd 41 3e ef 66 98 be
       0.18190284 0.055224873 0.18932238 -0.29766032
000330 81 a3 2d 3e 78 20 48 bc d1 0b 07 3e b7 57 f0 2a
       0.16956903 -0.012214772 0.13188101 4.2693429e-13
000340 cc 29 a1 3e 17 99 0f 3e f4 d1 e2 bd d1 50 44 be
       0.314772 0.14023243 -0.11075202 -0.19171454
000350 0c 5c 88 3e ed 54 e1 bc 39 31 d4 bd ed 1b 88 bb
       0.26632726 -0.027506316 -0.10360951 -0.0041537196
000360 09 ec 5f 3e 02 7e d0 bb c8 37 b0 3d e5 18 8a 2d
       0.21867384 -0.0063626776 0.086043894 1.5699839e-11
000370 be 76 a5 be ca 66 3f be 10 5f 82 3e de a4 59 be
       -0.32317156 -0.18691555 0.25463152 -0.21254298
000380 52 76 35 3e 5a 7b 94 be a1 8d 8f bc fd 66 83 3e
       0.17720917 -0.2900036 -0.017523589 0.2566451
000390 48 3d 6c bd 9b 26 a0 3d 94 9a 06 ba 20 32 60 39
       -0.05767563 0.078198634 -0.0005134728 0.00021380978
0003a0 88 c9 e2 3d 5a 06 56 be 4b e8 3d 3e e9 13 0c be
       0.11073595 -0.2090086 0.18545644 -0.1367947
0003b0 51 e5 a6 3c 26 38 71 be 68 f5 b7 3c 4d 0e 65 3e
       0.020373018 -0.23556575 0.022455886 0.22368737
0003c0 72 60 4c be bf 45 71 be cf 4a 4b be ed 61 94 ba
       -0.19958666 -0.23561762 -0.19852756 -0.0011320688
0003d0 fc f8 7b be 39 58 4d be 61 f9 81 3e 48 b8 64 be
       -0.24606699 -0.20053186 0.25385574 -0.22335923
0003e0 aa ef 89 3d f2 47 46 bd 34 8f 03 3e 68 c5 3b 3e
       0.067351654 -0.048408456 0.12847596 0.18337023
0003f0 21 d8 0b bd 35 d5 8b be 7a 9f 3e 3c 43 08 68 3c
       -0.034141663 -0.27311102 0.011634702 0.014162126

model_embedding.bias f4 [32]
000000 99 2f 58 37 2e 87 88 ba 91 d2 5e b6 c7 06 58 bb
       1.28856855e-05 -0.0010416263 -3.3203144e-06 -0.0032963024
000010 6b 23 46 35 90 85 b3 36 09 35 77 37 3e dc 22 b7
       7.381229e-07 5.3501644e-06 1.47346955e-05 -9.707232e-06
000020 32 63 98 39 33 b4 56 b5 8d d3 82 39 9d ff 0d 3b
       0.00029065605 -7.9983437e-07 0.0002495315 0.002166725
000030 fe 47 18 36 05 cb bf 3c 5f ec 36 b9 81 e5 09 37
       2.269167e-06 0.023412237 -0.00017444928 8.219272e-06
000040 1e 67 18 36 93 10 20 b7 42 49 03 3c 16 4d a1 37
       2.2709787e-06 -9.540602e-06 0.0080130715 1.9228592e-05
000050 a7 89 34 3c a3 0e 10 b8 70 66 09 35 11 0e 09 38
       0.011019147 -3.4345907e-05 5.1185543e-07 3.2676446e-05
000060 bb 26 9f ba ec 8e 98 b6 dd 0e 6d 39 5e 69 95 3c
       -0.001214228 -4.5465913e-06 0.00022607618 0.01823872
000070 ea 6f 19 b7 93 6c 5c 39 95 ea 30 37 ff e7 27 3c
       -9.145568e-06 0.00021021282 1.0545035e-05 0.010248183

dataset_embedding.weight f4 [16, 3]
000000 1b 62 1e bf 1b bc e6 3e 70 f4 8e 3e b4 3d f0 3e
       -0.6186845 0.45065388 0.27920866 0.46922076
000010 d7 5a b6 bd 38 d7 ce be 94 d7 41 bd 1f ab e4 be
       -0.08904045 -0.40398574 -0.047324732 -0.44661805
000020 3b 02 c8 3e 25 f8 c4 be 80 b4 bc 3b 19 b1 2d 3d
       0.39064202 -0.3847057 0.005758822 0.04240522
000030 fc 43 47 3d 70 78 1d 3f c3 75 2b 3e eb 68 1e 3e
       0.04864882 0.615119 0.16744141 0.1546971
000040 6f a9 f2 3e d3 8d a3 3e 77 b7 70 3e 54 76 2c be
       0.47394893 0.3194414 0.23507486 -0.16842014
000050 9d 9b 0c bf 78 8c 32 3e 40 3a 1e be 5d cc a3 be
       -0.5492495 0.17436397 -0.15451908 -0.31991854
000060 31 48 64 3d 48 10 0f 3f c3 f5 ca be 9f a1 03 bf
       0.05573291 0.5588422 -0.39640626 -0.5141849
000070 a5 21 17 3f 0e ce 85 bc 28 7c 1a 3f cc f6 04 3f
       0.5903571 -0.016333606 0.603457 0.5193908
000080 50 1c c9 3e e0 ba 9c bd 94 a3 a9 be 65 ca 3b 3d
       0.39279413 -0.07652831 -0.33132613 0.045847315
000090 df 68 3b 3e 8e e2 f5 bb ac 2d ce be a4 db 26 3e
       0.18301724 -0.007503814 -0.4026922 0.16294724
0000a0 45 5d b8 be fb 98 40 3e 8d ad 93 3e 2b 12 9a be
       -0.3600866 0.18808357 0.28843346 -0.30091986
0000b0 b4 7b f6 3e 36 80 ce 3d 65 f5 2f bc 6b 3e 72 be
       0.48141253 0.10083048 -0.010739659 -0.23656623

dataset_embedding.bias f4 [16]
000000 7b eb 4d b5 fa 1b 95 3d 4d 78 e9 b5 4a dd 4a 3c
       -7.671112e-07 0.07280727 -1.7394865e-06 0.012381861
000010 83 61 ba b6 51 21 f8 36 85 64 2d 37 c1 23 30 b7
       -5.554584e-06 7.3948545e-06 1.0335008e-05 -1.0498742e-05
000020 66 7e f2 3d ee f2 e1 bd f3 07 78 3c b7 05 0d 36
       0.11840515 -0.11032663 0.015138614 2.1013964e-06
000030 24 f3 0b bd 6b 87 81 3d c5 5e ef 36 74 23 76 b7
       -0.034167424 0.06324657 7.1337877e-06 -1.4670997e-05

tensor_network.0.weight f4 [16, 1]
000000 af fd 13 bf a2 00 60 bd 86 a1 7a 3e 2f 6c 07 be
       -0.57808965 -0.054688103 0.24475679 -0.13224863
000010 b5 b7 d6 be 14 0e f1 3e 4c ee 16 bf ec 9f 26 b7
       -0.41937032 0.47081053 -0.5895736 -9.931606e-06
000020 21 c2 ed be 43 9e 12 bf 82 61 07 3f 71 aa fa 3d
       -0.4643717 -0.5727274 0.5288316 0.1223954
000030 35 95 06 3e 5c cf b0 3e 96 dc c7 be 5b 8e 1e 3e
       0.13142855 0.34533203 -0.3903548 0.15483992

tensor_network.0.bias f4 [16]
000000 ea 4b c9 be df d1 06 3e fa f7 75 bf ea 4d 3e 3d
       -0.3931573 0.13165997 -0.9608151 0.046461023
000010 ab e5 53 be 16 e8 4c 3e 94 9d 31 3e 49 c5 d1 be
       -0.2069308 0.20010409 0.17345268 -0.4097083
000020 9a dc 3d be 10 b0 31 3f db f9 4a be a7 73 d0 3b
       -0.18541184 0.69409275 -0.19821875 0.006361443
000030 86 67 28 bf 41 f9 9a be 82 64 4c 25 df 88 07 bf
       -0.65782964 -0.3026829 1.7728233e-16 -0.52943224

tensor_network.2.weight f4 [16]
000000 60 56 1b 3f 1c 98 86 3f 74 1a 80 3f 60 56 1b 3f
       0.6067867 1.051517 1.0008073 0.6067867
000010 60 56 1b 3f ea b8 83 3f 60 56 1b 3f 60 56 1b 3f
       0.6067867 1.0290806 0.6067867 0.6067867
000020 60 56 1b 3f 04 7b 7b 3f bb b9 84 3f 19 d9 84 3f
       0.6067867 0.9823458 1.036918 1.0378753
000030 81 8d 71 3f ca ff 81 3f 60 56 1b 3f 27 2c 79 3f
       0.9435654 1.0156186 0.6067867 0.97332996

tensor_network.2.bias f4 [16]
000000 e7 e8 74 2a 76 79 06 b8 1e ab 4c b7 94 15 dd aa
       2.1752358e-13 -3.206121e-05 -1.2199189e-05 -3.927246e-13
000010 e4 53 64 ab 56 06 c1 37 1b 45 f3 aa 9c ef 68 aa
       -8.1118294e-13 2.3010343e-05 -4.3213423e-13 -2.068887e-13
000020 28 ff 58 ab a7 b4 45 b7 de 59 4c 37 92 f5 22 b8
       -7.7092716e-13 -1.1784176e-05 1.2180271e-05 -3.8852515e-05
000030 36 ae 1b 35 51 f6 bd 37 f6 87 8f aa 14 94 d2 36
       5.799551e-07 2.2645256e-05 -2.5496245e-13 6.2757263e-06

tensor_network.2.running_mean f4 [16]
000000 00 00 00 00 0a 5e 8c 3c a8 ac 38 3e 00 00 00 00
       0.0 0.017134685 0.18034613 0.0
000010 00 00 00 00 8c 8e f0 3f 00 00 00 00 00 00 00 00
       0.0 1.8793502 0.0 0.0
000020 00 00 00 00 40 2f fd 14 35 8f d7 3f 31 68 e3 3e
       0.0 2.5565108e-26 1.6840578 0.4441543
000030 84 00 57 3d 9d 6d 6d 3f 00 00 00 00 4b 3e 15 3e
       0.052490726 0.9274538 0.0 0.14574544

tensor_network.2.running_var f4 [16]
000000 b4 7d 0c 17 26 72 09 3a 76 50 c5 3d b4 7d 0c 17
       4.53951e-25 0.00052431447 0.09634487 4.53951e-25
000010 b4 7d 0c 17 80 46 7c 3f b4 7d 0c 17 b4 7d 0c 17
       4.53951e-25 0.98545074 4.53951e-25 4.53951e-25
000020 b4 7d 0c 17 a9 9f 0c 17 95 05 9f 3f 32 47 89 3d
       4.53951e-25 4.543796e-25 1.2423579 0.067030326
000030 b6 f1 66 3c ad ff 07 3f b4 7d 0c 17 cb 05 51 3d
       0.014095714 0.53124505 4.53951e-25 0.051030915

worker_network.0.weight f4 [16, 1]
000000 50 d8 c5 ba 98 cd 07 be 86 1f e1 3c 6d 84 46 2a
       -0.0015094373 -0.13262022 0.027480852 1.7631877e-13
000010 a1 7c 83 be ad 9f e0 3d c5 bb bf be 3c c8 0a 3f
       -0.25681022 0.10967956 -0.37447944 0.54211783
000020 4e c0 fe 2f 22 d2 c0 be 0d 84 fe 3d 2d 82 7d 3c
       4.6338972e-10 -0.3766032 0.124275304 0.015472931
000030 ee 4b 02 be a1 10 ad 3e f4 da e7 bd ff 55 0b bf
       -0.12724277 0.3380175 -0.11321059 -0.54428095

worker_network.0.bias f4 [16]
000000 c3 62 84 bd 87 ee 3f be b5 fe 02 3f e4 4f 94 bd
       -0.0646415 -0.18743335 0.511699 -0.072418004
000010 83 71 d7 be 01 b4 88 3a e6 53 21 3d 9a 39 8d bd
       -0.4207879 0.0010429622 0.039386652 -0.06895752
000020 f5 7a 00 bf 19 a4 15 bf 5d c5 58 bf 09 46 fe b7
       -0.5018762 -0.5845352 -0.8467615 -3.0311772e-05
000030 d6 f5 02 bf 79 1a d8 be e0 2d c7 b6 3f b5 b1 be
       -0.51156366 -0.42207697 -5.9360027e-06 -0.34708592

worker_network.2.weight f4 [16]
000000 60 56 1b 3f 60 56 1b 3f 9f ec 80 3f 60 56 1b 3f
       0.6067867 0.6067867 1.0072211 0.6067867
000010 60 56 1b 3f 26 28 84 3f 60 56 1b 3f 93 59 81 3f
       0.6067867 1.0324752 0.6067867 1.0105461
000020 60 56 1b 3f 60 56 1b 3f aa 04 78 3f bc 30 30 3f
       0.6067867 0.6067867 0.96882117 0.6882436
000030 60 56 1b 3f a8 98 80 3f 60 56 1b 3f 60 56 1b 3f
       0.6067867 1.0046587 0.6067867 0.6067867

worker_network.2.bias f4 [16]
000000 6d e3 c1 2b 7e 25 d4 2b 06 02 ea 37 d8 6f ba a7
       1.3776598e-12 1.5073912e-12 2.7895916e-05 -5.174663e-15
000010 d3 e9 3b aa 25 a4 ea 37 9b 34 ff aa 50 47 a5 b6
       -1.669006e-13 2.797141e-05 -4.5333602e-13 -4.925685e-06
000020 3a 43 86 aa d5 41 99 2a 8f 1a 08 38 f4 6c 54 b6
       -2.384983e-13 2.722394e-13 3.244966e-05 -3.165388e-06
000030 fe 7c c8 2a 34 f5 1d 38 f7 cc 38 28 da 35 98 aa
       3.5613868e-13 3.766008e-05 1.02584965e-14 -2.703799e-13

worker_network.2.running_mean f4 [16]
000000 00 00 00 00 00 00 00 00 8a 7b 24 3f 00 00 00 00
       0.0 0.0 0.64251006 0.0
000010 00 00 00 00 e4 e9 02 3f 00 00 00 00 6b 04 1e 40
       0.0 0.5113814 0.0 2.4690197
000020 00 00 00 00 00 00 00 00 51 f5 46 3d 82 e7 94 3d
       0.0 0.0 0.048573796 0.07270719
000030 00 00 00 00 2b b5 94 3f 00 00 00 00 00 00 00 00
       0.0 1.1617788 0.0 0.0

worker_network.2.running_var f4 [16]
000000 b4 7d 0c 17 b4 7d 0c 17 02 ed 99 3b b4 7d 0c 17
       4.53951e-25 4.53951e-25 0.004697443 4.53951e-25
000010 b4 7d 0c 17 71 e2 96 3d b4 7d 0c 17 6f 74 e9 3f
       4.53951e-25 0.07367409 4.53951e-25 1.8238658
000020 b4 7d 0c 17 b4 7d 0c 17 2c 13 96 3b 44 37 c4 3a
       4.53951e-25 4.53951e-25 0.004579922 0.0014970084
000030 b4 7d 0c 17 55 22 36 3f b4 7d 0c 17 b4 7d 0c 17
       4.53951e-25 0.71146137 4.53951e-25 4.53951e-25

batch_network.0.weight f4 [16, 1]
000000 5c 29 48 bd b1 35 7d be d9 bc 11 bf bd 7f 14 3f
       -0.04886757 -0.24727513 -0.56928784 0.58007413
000010 8a a5 0a be 72 fc 01 bc 6b 10 47 2a f3 9b 7d bc
       -0.1353971 -0.007933723 1.7680447e-13 -0.015479076
000020 95 4d fc be 47 63 0c be f4 8d 58 be 1f 69 51 bd
       -0.4927794 -0.13709746 -0.21147901 -0.051125642
000030 ae c7 88 3d f8 68 ac 3e 93 11 09 3f 0d a9 a9 bb
       0.06678711 0.33673835 0.5354244 -0.005177623

batch_network.0.bias f4 [16]
000000 73 b2 0f bf a9 13 55 3f da 01 3c 2c 3c a7 8d 3e
       -0.56131667 0.83233124 2.6717435e-12 0.27666652
000010 16 c3 22 3f 44 a5 fd bb 55 58 00 bb 7e 6f aa bc
       0.6357893 -0.0077406485 -0.00195839 -0.020805117
000020 1c 1e 0d 3a 53 f2 55 3e 48 fc 1c 2f 98 b2 d1 3d
       0.000538321 0.2089322 1.4277746e-10 0.10239142
000030 f0 1b 06 be 7c 25 15 3f ff 10 c2 b6 61 46 3e ad
       -0.13096595 0.5826032 -5.783629e-06 -1.0815877e-11

batch_network.2.weight f4 [16]
000000 60 56 1b 3f c5 17 7e 3f 60 56 1b 3f be b4 80 3f
       0.6067867 0.9925502 0.6067867 1.0055158
000010 0f 12 74 3f c5 27 1c 3f 60 56 1b 3f 60 56 1b 3f
       0.95340055 0.60998183 0.6067867 0.6067867
000020 60 56 1b 3f 60 56 1b 3f 60 56 1b 3f 60 56 1b 3f
       0.6067867 0.6067867 0.6067867 0.6067867
000030 70 d9 73 3f 5c f5 7b 3f 22 7b 7a 3f 60 56 1b 3f
       0.9525366 0.98421264 0.97844136 0.6067867

batch_network.2.bias f4 [16]
000000 f0 f3 21 ab 2c f9 ac 36 55 ef 0d 2b e3 d0 8c 37
       -5.753722e-13 5.155007e-06 5.0425403e-13 1.6786571e-05
000010 89 44 a6 37 51 0f 48 35 07 99 5d ab 57 92 6a 2b
       1.9820656e-05 7.4528094e-07 -7.872734e-13 8.333659e-13
000020 fe 3b b7 aa f6 49 9d aa af 70 e1 2a bc 24 54 2a
       -3.2548958e-13 -2.7940123e-13 4.004622e-13 1.8842127e-13
000030 bb c8 7d 35 de 40 b9 b7 83 41 4e 36 cc d8 87 ab
       9.4541946e-07 -2.2083925e-05 3.0734525e-06 -9.6525e-13

batch_network.2.running_mean f4 [16]
000000 00 00 00 00 b0 1e 79 3c 00 00 00 00 1a 97 88 40
       0.0 0.01520507 0.0 4.268445
000010 1c ff d3 3c 9f 3e 39 11 00 00 00 00 00 00 00 00
       0.025878482 1.4613223e-28 0.0 0.0
000020 00 00 00 00 00 00 00 00 00 00 00 00 00 00 00 00
       0.0 0.0 0.0 0.0
000030 5a 5d a7 3e 16 ec 39 40 1e c5 6b 40 00 00 00 00
       0.3268841 2.9050345 3.683906 0.0

batch_network.2.running_var f4 [16]
000000 b4 7d 0c 17 00 74 7e 3b b4 7d 0c 17 2e 7c a1 3f
       4.53951e-25 0.0038826466 4.53951e-25 1.2616022
000010 d3 9a e1 3b b4 7d 0c 17 b4 7d 0c 17 b4 7d 0c 17
       0.0068849116 4.53951e-25 4.53951e-25 4.53951e-25
000020 b4 7d 0c 17 b4 7d 0c 17 b4 7d 0c 17 b4 7d 0c 17
       4.53951e-25 4.53951e-25 4.53951e-25 4.53951e-25
000030 6d 16 88 3c 45 73 da 3e b5 a6 89 3f b4 7d 0c 17
       0.016612256 0.4266607 1.0754 4.53951e-25

ps_network.0.weight f4 [8, 1]
000000 80 35 7c be d0 1a ad be 1b a2 71 3f 28 2f 46 3f
       -0.24629784 -0.3380952 0.9438798 0.77415705
000010 9a e6 7f 3e 81 03 a1 3e 58 9c 00 bf 0e 00 96 be
       0.24990311 0.31447986 -0.5023856 -0.29296917

ps_network.0.bias f4 [8]
000000 4e f3 e0 be 3b 63 1b 3e 39 e6 41 bf b4 0c ef be
       -0.43935627 0.15174572 -0.75741917 -0.4668938
000010 75 79 22 be a2 ea 69 bf d8 c2 02 3e a6 34 cc 3c
       -0.15866645 -0.91373646 0.1276964 0.024927448

ps_network.2.weight f4 [8]
000000 60 56 1b 3f ba dd 71 3f 37 ad 74 3f 22 99 7e 3f
       0.6067867 0.9447895 0.95576805 0.9945241
000010 68 39 7b 3f 72 ad 7d 3f 72 b0 75 3f 1b f6 6e 3f
       0.9813447 0.9909278 0.9597236 0.9334428

ps_network.2.bias f4 [8]
000000 13 ce 05 ab 21 62 c1 b7 0e e9 0c b8 ec d2 53 35
       -4.753708e-13 -2.3053088e-05 -3.359565e-05 7.8910557e-07
000010 c5 42 ca 37 c1 81 f3 b7 ab 01 9b b6 d6 91 b3 b6
       2.4111368e-05 -2.9028279e-05 -4.619554e-06 -5.3515932e-06

ps_network.2.running_mean f4 [8]
000000 00 00 00 00 5f 7e aa 3d 4c 90 d5 3f 0b 39 b8 3f
       0.0 0.083248846 1.6684661 1.4392408
000010 5e 81 ec 3e c8 49 99 3e 19 ac 90 3d 7c 5c 5d 3c
       0.4619245 0.29939103 0.07064075 0.0135108195

ps_network.2.running_var f4 [8]
000000 b4 7d 0c 17 d8 de c1 3b 19 ea c2 40 70 3c 8b 40
       4.53951e-25 0.0059164576 6.0910764 4.3511276
000010 3a cd e6 3e d2 95 ab 3e ba 99 8b 3b 56 6d 23 39
       0.4507845 0.3351274 0.004260269 0.00015585622

main_network.0.weight f4 [128, 104]
000000 dc 07 a2 bd 2d a3 85 3d be fb a3 bd 47 36 bd bd
       -0.07911655 0.06525264 -0.080070004 -0.09238868
000010 b1 94 01 bd e3 fb e4 bc 73 b4 39 bc d7 10 29 3d
       -0.031635944 -0.02795214 -0.011334526 0.041275825
000020 48 85 98 3d a5 22 75 bd 85 65 45 bd bc 40 ac 3d
       0.074472964 -0.059847493 -0.04819252 0.084107846
000030 ae 67 4a 3d e3 8b 1d bd 3d 64 9f 3d 45 a8 e7 3d
       0.049415283 -0.038463484 0.07782791 0.11311392
000040 26 e2 fa 3c 7b 54 d3 3d db 1a 0d bd b6 e5 43 3d
       0.030625414 0.10318848 -0.03444944 0.04782649
000050 24 68 df 3b af 8c 40 3c 99 85 14 bd 2b 19 e0 bd
       0.0068178345 0.011752292 -0.03626022 -0.109423004
000060 25 6f c8 3c 8e 25 a4 3d 08 79 8b 3d ba 6e 8d bd
       0.02446706 0.080149755 0.06810194 -0.06905885
000070 8b eb 4c bd d9 a5 da bc 62 86 cf 3d 2e 52 a2 bb
       -0.05002932 -0.02669041 0.10133053 -0.0049536442
000080 9a a1 c9 bd 31 3b 1e 3d 33 6c b2 3c 03 2a 4a bc
       -0.09845276 0.038630668 0.021780109 -0.012339118
000090 0a 06 63 3d d2 86 e1 bd 51 bb b8 3d 93 74 e8 3d
       0.05542568 -0.11012043 0.09020103 0.1135036
0000a0 e1 81 f1 bc 0a 21 ee bd f0 70 56 bd 69 09 68 3c
       -0.029480876 -0.116273955 -0.0523538 0.0141624
0000b0 be 8d c6 3d 7e 5d ce 3c 9b 71 8e bd 2f fc f8 bb
       0.09695004 0.025191065 -0.06955262 -0.007598422
0000c0 f1 2c 94 a9 7d a7 06 bd 81 38 51 3c bc 7c 06 a9
       -6.5803164e-14 -0.032874573 0.012769819 -2.9862167e-14
0000d0 b0 b8 1c b1 b3 6c 49 bd 1d 75 b4 27 55 97 4d 27
       -2.280597e-09 -0.04917593 5.008701e-15 2.8531502e-15
0000e0 af da fb a6 70 73 af bd 18 fc 2f bd b2 f5 7a bd
       -1.7475898e-15 -0.0856694 -0.042965025 -0.06126947
0000f0 6f 76 ff ba a1 71 83 bd 07 6d 07 a9 34 3f f2 3c
       -0.0019490252 -0.06418157 -3.0070588e-14 0.029571153
000100 48 f8 b9 28 9b e3 24 a9 ec 65 41 3d c5 7c 5b aa
       2.06468e-14 -3.661273e-14 0.04721634 -1.9494396e-13
000110 20 eb ae b0 fc 97 d2 3d 65 a6 09 b0 3e 56 47 bd
       -1.2726993e-09 0.10282895 -5.007677e-10 -0.04866623
000120 29 73 08 28 85 95 6d a5 db e7 19 3c ee a6 38 3b
       7.574488e-15 -2.0607132e-16 0.009393658 0.002817567
000130 3b 6a e3 28 a8 2b 4a bd 0d cc 0c 29 6e bf 80 a8
       2.5248133e-14 -0.04935804 3.126323e-14 -1.4293874e-14
000140 9b f3 47 27 33 b4 c3 3c db 2b 11 2b 8f 89 c3 3d
       2.7748857e-15 0.023889637 5.157521e-13 0.095477216
000150 81 b6 50 3d cf 1c 6e 2c d5 38 d3 aa 87 ac 47 28
       0.0509553 3.3837826e-12 -3.7520564e-13 1.108413e-14
000160 f3 eb 8f a7 8d 85 ac 2b 62 8b 32 a6 6c 33 33 a8
       -3.994629e-15 1.2258403e-12 -6.1945055e-16 -9.947646e-15
000170 db f3 6d 3d af 4c 41 bd 03 5d 3b bd 94 71 55 28
       0.058093887 -0.04719227 -0.045743 1.18485035e-14
000180 6c fd 03 32 6a 8a 80 3b 94 3d c0 3c ad 07 88 bd
       7.682825e-09 0.0039227502 0.023466863 -0.06642089
000190 0b dd e5 3d 7f 24 22 3d 27 d2 4c 3d 43 a3 31 bb
       0.11223801 0.039585587 0.050005104 -0.0027105368
0001a0 ee ad 38 3d fb a9 62 3d 4a 4b d4 bd 57 a8 57 3c
       0.045087747 0.055337887 -0.10365923 0.013162694
0001b0 c5 3a d0 bd 62 1e d3 3c a4 cc 86 bd d8 dd 79 bd
       -0.101674594 0.025771324 -0.06582001 -0.061002582
0001c0 c4 ec 9e 3c f2 c7 5e 3d e7 a5 9b 3d 00 f3 af 3d
       0.019400008 0.0543899 0.07600003 0.085912704
0001d0 71 e8 71 3c e8 cb e1 bd e2 f9 85 bd 16 14 fa 3c
       0.014764891 -0.1102522 -0.06541802 0.030527156
0001e0 c0 5f 18 3d 1f 31 fc 3d dd 59 c6 bd 7a 89 56 bd
       0.03720069 0.123140566 -0.09685109 -0.0523772
0001f0 93 2f 1a 3c bf 91 0f be 7d ca 36 bd 4d 04 d9 bd
       0.009410757 -0.14020441 -0.0446267 -0.105965234
000200 21 a8 09 3d 4e e0 a2 3d 56 7c ad bd 4c 91 de 3c
       0.033607606 0.07952939 -0.08470981 0.027168892
000210 00 c4 98 bc e0 d1 34 3b f8 e6 54 3b 91 a7 43 bd
       -0.018648148 0.0027590916 0.00324863 -0.047767226
000220 09 fd b7 3d 21 8a 86 bd 52 60 91 bd d9 41 50 bd
       0.089838095 -0.06569315 -0.0709845 -0.050844047
000230 dd bd 88 bd a9 22 9d bd f5 f6 ba 3d 77 3c 8d 3d
       -0.066768385 -0.076726265 0.091291346 0.068962984
000240 b9 c4 7f bb c1 fc 63 bc 6e fe 32 bc b4 c8 88 3d
       -0.0039027168 -0.013915242 -0.010924919 0.06678906
000250 11 91 94 bd c4 9c 46 bd 64 c8 63 bd 30 1b fd 3c
       -0.07254232 -0.048489347 -0.05561103 0.030896753
000260 08 c0 0a af 2b e8 b5 3d 32 79 0e 3d 24 cf 92 a6
       -1.261925e-10 0.08882173 0.03478355 -1.0186931e-15
000270 4f f9 bc ab d5 bb 9a 3d 06 e3 9c a8 70 47 5c 28
       -1.34274e-12 0.07555357 -1.7417935e-14 1.2227944e-14
000280 1a 39 61 28 54 c0 23 bc 9c ec e7 bd 02 51 3f 3c
       1.2502391e-14 -0.009994585 -0.113244265 0.011677029
000290 7e 1a d4 3b 99 5a b0 bd 21 1c b9 29 a2 17 63 3c
       0.0064728847 -0.0861103 8.22053e-14 0.013860615
0002a0 f1 6b 1a 29 0d 44 14 a8 57 d0 89 bd 33 19 40 a8
       3.4288493e-14 -8.2304065e-15 -0.06729191 -1.0663605e-14
0002b0 24 4c 94 ab 5f b1 de 3c e8 99 eb 26 2b 76 06 bd
       -1.0537166e-12 0.027184187 1.6348117e-15 -0.032827538
0002c0 31 ca 01 30 6c 8d 95 a8 e1 db b9 bd bb 0e 91 bc
       4.721726e-10 -1.6603655e-14 -0.09075142 -0.01770722
0002d0 bf 7b 40 2a 64 a2 22 bd 4c 50 05 ae 68 73 bb 30
       1.7095959e-13 -0.03970565 -3.0312017e-11 1.3638841e-09
0002e0 99 4a 35 2f 78 9b ba 3d bd 70 cb 28 81 c2 99 3c
       1.6488357e-10 0.091116846 2.258642e-14 0.018769505
0002f0 08 d1 61 bd 1f a7 ad ba a0 11 45 2c 1f d1 e8 2b
       -0.05513099 -0.0013248659 2.8005168e-12 1.6542634e-12
000300 35 ee 2a a9 14 9a 50 2a 85 5f 04 2a 76 d5 6e 28
       -3.7954195e-14 1.8527568e-13 1.1757095e-13 1.3257941e-14
000310 a5 aa 89 bc c2 10 3a bd 51 68 3e 3c 34 fe 58 af
       -0.016805002 -0.045426138 0.011621551 -1.9735397e-10
000320 60 2b 9d af 1a 6b 1b 3c fa 8c 96 bd 38 70 b8 3c
       -2.8588953e-10 0.009485984 -0.07351108 0.022514448
000330 25 39 b5 bc ed a0 4d 3d 29 f8 d1 bd 71 7f fc 3c
       -0.022121975 0.0502023 -0.10252411 0.030822488
000340 2b ee 85 3c 01 e4 6c 3d db 9d a1 bd 43 0d 9e bd
       0.016348919 0.05783463 -0.07891437 -0.07717373
000350 26 61 c6 3b df ec 55 bd c0 06 97 3c 28 40 2c 3d
       0.0060540615 -0.05222785 0.018435836 0.04205337
000360 54 03 85 3d 8c 1d db 3d 20 78 29 3d d5 1c 00 3d
       0.064947754 0.10698995 0.041374326 0.031277496
000370 31 31 1d 3d e3 ff 92 3d 4d d0 42 bb 5b 73 7d bb
       0.03837699 0.07177713 -0.0029726208 -0.0038673494
000380 b7 f0 3e bc 71 f0 9c bd aa 09 c7 bc 3b 41 19 3d
       -0.011654071 -0.07663048 -0.0242966 0.037415724
000390 ae ad 44 bd 01 6c 88 3c 35 bd 7d 3d 70 d2 8f bd
       -0.048017196 0.016653063 0.06194802 -0.0702256
0003a0 14 6d 61 bd 60 1c ff bd 3f 53 94 bb 6b 86 b8 3d
       -0.055035666 -0.12456584 -0.0045265253 0.09010013
0003b0 5b 82 06 bc fb 5b 38 bd 8c 18 8f 38 9a 2f 90 bb
       -0.00820979 -0.045009594 6.8233436e-05 -0.004400206
0003c0 9e 24 26 bd f4 2c 3a 3d 0e fc d8 3c 36 90 58 bc
       -0.040562265 0.045453027 0.026487377 -0.013217976
0003d0 16 f8 16 bd 76 c3 e9 bb ef 03 b7 bd 71 ab d8 3c
       -0.036857687 -0.0071338965 -0.08936297 0.026448937
0003e0 e4 7c 80 3d d3 34 1a 3d 8f 58 b4 bd c9 22 61 bc
       0.06273821 0.037648033 -0.08805954 -0.013741204
0003f0 7b 96 35 3d 70 76 80 bc a7 c0 ab 3c 6a e6 63 3d
       0.044332962 -0.015681475 0.020965887 0.05563966

main_network.0.bias f4 [128]
000000 19 79 5e b4 aa e1 7d 37 ee 40 0a b5 16 0f 3f 35
       -2.0719416e-07 1.5132517e-05 -5.150349e-07 7.1175e-07
000010 21 bc 86 36 8d 46 ae b7 84 d8 c4 b6 8c e9 7a b6
       4.0154123e-06 -2.077527e-05 -5.866461e-06 -3.7388845e-06
000020 5c c0 95 36 15 79 b4 35 05 f1 34 b7 41 1f a3 36
       4.4629396e-06 1.3446285e-06 -1.0784953e-05 4.861417e-06
000030 f1 13 19 b6 fd cf b5 b7 a4 5d 8c b6 4a 4c aa 37
       -2.2810384e-06 -2.1673733e-05 -4.1832263e-06 2.0301104e-05
000040 ec ad fb 36 04 9e 94 b5 26 11 c9 35 93 70 c5 36
       7.50063e-06 -1.1072848e-06 1.4980658e-06 5.884163e-06
000050 62 4d 82 35 21 e4 3f b6 a4 61 9a b6 a2 72 06 b6
       9.708276e-07 -2.8594006e-06 -4.6009245e-06 -2.003428e-06
000060 14 88 0a b4 c3 6b 6e 36 f6 d5 17 b5 df de 55 35
       -1.2901756e-07 3.552749e-06 -5.656324e-07 7.9673003e-07
000070 af 2c 6e b6 ec c5 ca 35 f1 fb ec 35 2e 4a 13 b6
       -3.5490773e-06 1.5107776e-06 1.7656695e-06 -2.1947885e-06
000080 00 84 2e 37 4c b7 90 b6 be 76 fa 36 8e 16 8f 37
       1.0401942e-05 -4.312873e-06 7.464404e-06 1.7057431e-05
000090 7a ad 99 b6 5b cc f9 b4 a6 ae 61 37 1e 18 1b b7
       -4.5799507e-06 -4.6528552e-07 1.3451709e-05 -9.244335e-06
0000a0 4b 5d 27 b5 41 8c ae b6 c6 2c 2a 36 4c 8b 82 37
       -6.2348107e-07 -5.201932e-06 2.5358036e-06 1.5562073e-05
0000b0 86 78 33 36 4c 1d 92 b6 03 78 15 37 bf f0 a7 b6
       2.6743232e-06 -4.3545497e-06 8.9090345e-06 -5.0050144e-06
0000c0 61 d0 31 b5 70 ea fd b5 86 40 ff b5 a5 3b c4 32
       -6.624087e-07 -1.8918199e-06 -1.9017759e-06 2.2844526e-08
0000d0 67 95 34 37 3c c5 29 36 a4 95 c1 b6 5f 75 4c 36
       1.07636215e-05 2.5297768e-06 -5.7692687e-06 3.0466688e-06
0000e0 70 04 70 b6 7e 70 ed b5 5a 36 e8 b7 46 fe 23 b6
       -3.576537e-06 -1.7690616e-06 -2.7681865e-05 -2.44369e-06
0000f0 8f fb 7b 36 4c 0e de b6 c4 e0 9e b5 ef d4 0e b8
       3.754834e-06 -6.61778e-06 -1.1837333e-06 -3.4053748e-05
000100 c6 8e 5d 36 9f 95 0d b8 2e 43 0f b6 d1 fa 3d 37
       3.3014671e-06 -3.3756365e-05 -2.1347764e-06 1.1323676e-05
000110 fc 26 49 b3 22 7e 03 b5 ec f8 11 b7 1c bd 5c 35
       -4.6834415e-08 -4.898485e-07 -8.70063e-06 8.2231577e-07
000120 e6 eb 3e b6 d7 58 96 b4 b0 83 f0 36 2d dd 0a b7
       -2.8449517e-06 -2.8004317e-07 7.167888e-06 -8.2769375e-06
000130 35 f2 7a 37 09 f3 69 34 b3 1f ad 35 4f 9c 78 36
       1.4957554e-05 2.1788232e-07 1.289873e-06 3.7045863e-06
000140 d1 ef 0d b4 c8 3f 28 b7 f4 b6 32 b5 7f cd 74 b6
       -1.3218893e-07 -1.0028431e-05 -6.65764e-07 -3.6478448e-06
000150 b3 d8 15 37 6f 93 05 b7 f4 e0 42 b6 05 27 bf 36
       8.931546e-06 -7.961745e-06 -2.9039193e-06 5.696786e-06
000160 f1 3e 14 34 61 74 97 b5 77 65 6b 35 ec 41 39 36
       1.3806472e-07 -1.1284247e-06 8.769197e-07 2.760552e-06
000170 9e b1 c0 36 6d 5d b6 b5 0a 9f d3 b6 7c 96 e2 b5
       5.7427233e-06 -1.3587247e-06 -6.3068046e-06 -1.6882109e-06
000180 ee 2b a6 35 4e cc 3c 36 08 1e 0d 37 53 70 f3 35
       1.2380749e-06 2.8133104e-06 8.411247e-06 1.8137602e-06
000190 ec 20 d9 36 87 30 2e 36 bc f7 53 b6 42 d3 4c 37
       6.4709366e-06 2.5956267e-06 -3.158565e-06 1.2208535e-05
0001a0 af 82 3b b6 7c 1a fa b2 9e 97 00 b5 5a 84 e4 34
       -2.794124e-06 -2.9115874e-08 -4.790435e-07 4.2564608e-07
0001b0 7e 49 9b 36 2f b7 0f 36 cf 8a 9f b5 bf f6 83 36
       4.6279156e-06 2.1415287e-06 -1.1886822e-06 3.9328293e-06
0001c0 9f 0d 97 b6 77 d2 de b4 40 39 2c 36 ef c9 e0 b6
       -4.5017364e-06 -4.1503856e-07 2.5663321e-06 -6.6992284e-06
0001d0 8f f2 35 b7 24 35 ca b4 34 1c 17 36 a5 34 a5 b6
       -1.0844916e-05 -3.7664097e-07 2.251717e-06 -4.923512e-06
0001e0 8f 40 19 b7 46 cf 94 36 96 e8 00 b5 cf a7 33 37
       -9.134542e-06 4.4348735e-06 -4.8022173e-07 1.0708302e-05
0001f0 29 70 b1 34 1f ef 45 36 25 87 97 b6 bc 33 a6 b6
       3.3050426e-07 2.9494474e-06 -4.5158836e-06 -4.953208e-06

main_network.1.weight f4 [128]
000000 f1 20 76 3f 21 2b 7c 3f b9 06 74 3f 54 81 87 3f
       0.96144015 0.9850331 0.9532276 1.0586343
000010 9d c2 80 3f c1 e4 82 3f d9 9c 7a 3f c5 69 7e 3f
       1.0059391 1.022606 0.9789558 0.9938014
000020 40 93 7b 3f 6f a0 86 3f 9b 5c 79 3f 66 20 7b 3f
       0.9827156 1.051771 0.9740693 0.9809631
000030 0e f3 81 3f 0e 21 75 3f 3d 14 84 3f 98 79 7f 3f
       1.01523 0.9575356 1.0318676 0.9979491
000040 7e 59 7e 3f e1 00 83 3f fd 3c 79 3f da a1 7c 3f
       0.99355304 1.0234643 0.97358686 0.98684466
000050 00 45 80 3f f1 f8 79 3f d5 36 73 3f a7 32 7b 3f
       1.0021057 0.9764548 0.9500554 0.98124164
000060 f1 97 78 3f 51 b8 87 3f 6d 06 70 3f 12 d7 80 3f
       0.97106844 1.0603124 0.93759805 1.0065634
000070 13 99 76 3f 42 c1 81 3f 7c 3f 80 3f ba 2b 73 3f
       0.9632732 1.0137103 1.0019374 0.94988596
000080 17 ee 7e 3f e8 b1 7d 3f 33 0d 87 3f 15 0a 72 3f
       0.99582046 0.9909959 1.0550903 0.94546634
000090 5a 64 88 3f 63 12 74 3f 6d c6 85 3f 1f 29 80 3f
       1.0655625 0.95340556 1.045118 1.0012549
0000a0 88 91 7f 3f 20 30 7a 3f 48 be 7d 3f 24 c3 86 3f
       0.9983144 0.9772968 0.9911847 1.0528302
0000b0 9d 5c 7c 3f a6 1c 84 3f 43 10 82 3f b1 44 73 3f
       0.98578817 1.0321243 1.0161213 0.9502669
0000c0 7d b3 7c 3f b5 1d 85 3f ae 83 7a 3f dc f6 83 3f
       0.9871138 1.0399691 0.9785718 1.030971
0000d0 89 3e 7b 3f 6a 78 8c 3f a3 e2 82 3f 2f f6 7f 3f
       0.98142296 1.0974247 1.0225414 0.9998502
0000e0 5b b7 83 3f f3 ce 7d 3f d2 a4 81 3f 83 ef 83 3f
       1.0290331 0.99143904 1.0128424 1.0307468
0000f0 f5 7e 7e 3f 6a 83 80 3f 09 9c 75 3f 83 e9 7e 3f
       0.9941247 1.0040104 0.95941216 0.9957506
000100 3b 37 8a 3f 7b fb 83 3f eb fc 80 3f ff cb 80 3f
       1.0798105 1.0311121 1.0077184 1.0062255
000110 de d8 77 3f 3f 79 73 3f 7a 83 75 3f 7c 88 71 3f
       0.9681529 0.9510688 0.9590374 0.94348884
000120 7e 34 70 3f d6 b6 7a 3f 9e ca 82 3f 71 1c 7c 3f
       0.93830097 0.97935236 1.0218084 0.984809
000130 28 77 80 3f 4a cd 76 3f 9b d6 7d 3f df 8c 80 3f
       1.0036364 0.96406996 0.99155587 1.004299
000140 39 01 78 3f f3 ee 81 3f c1 83 7f 3f fe 40 88 3f
       0.96876866 1.0151047 0.99810416 1.0644834
000150 aa 75 85 3f de 21 7d 3f cb 6c 70 3f e5 3b 7b 3f
       1.0426533 0.988798 0.93916005 0.98138267
000160 d1 4f 7f 3f f5 96 81 3f 33 b1 7c 3f 81 d7 6e 3f
       0.99731165 1.0124193 0.98707885 0.9329758
000170 cb be 79 3f 81 30 7b 3f 72 b8 7a 3f b5 30 81 3f
       0.9755675 0.98120886 0.9793769 1.0092989
000180 3a 5c 83 3f be 80 84 3f 3f 84 72 3f 0e 95 84 3f
       1.026252 1.0351789 0.9473304 1.0357988
000190 02 3e 80 3f cb 29 7f 3f 2b 9f 80 3f 13 84 80 3f
       1.0018923 0.99673146 1.0048574 1.0040306
0001a0 e3 9a 6f 3f eb 0b 7d 3f f7 9e 81 3f db 2c 78 3f
       0.93595713 0.9884631 1.0126637 0.96943444
0001b0 7e ff 84 3f 41 f6 7d 3f b4 e9 80 3f 96 14 7e 3f
       1.039047 0.9920388 1.007132 0.9925016
0001c0 e7 20 80 3f ef 36 72 3f 61 f7 81 3f a3 2e 76 3f
       1.0010041 0.9461507 1.0153619 0.9616491
0001d0 82 fb 82 3f 46 62 7c 3f 7f 2c 72 3f 3a 4f 86 3f
       1.0233004 0.98587453 0.94599146 1.0492928
0001e0 03 36 83 3f 9c df 84 3f 83 40 84 3f 16 14 84 3f
       1.0250858 1.038074 1.0332187 1.031863
0001f0 75 2e 75 3f d6 5b 81 3f f2 0c 80 3f 2b 2c 7f 3f
       0.9577401 1.0106151 1.000395 0.9967677

main_network.1.bias f4 [128]
000000 f0 87 67 bc df 5e 37 bc ca 54 06 3c a1 4b 42 3d
       -0.014131531 -0.011192053 0.008198926 0.047435407
000010 1f c3 29 3c 89 39 60 3c 28 40 04 3c b3 af c2 3c
       0.010361462 0.013685592 0.008071937 0.02376542
000020 3d 39 5c bd 86 15 af 3c f1 6f a6 3c 3c 58 0a bd
       -0.053765524 0.021372568 0.02031705 -0.033775553
000030 6d 1c 01 3d 3b ec c0 bc 2d 46 ce 3c df ca 6f bc
       0.03152125 -0.023550143 0.025179947 -0.014635771
000040 86 2a 2c 3c fb 3f de 3c 59 2a 36 3d 5b a7 e8 bc
       0.010508185 0.027130118 0.04447398 -0.028400114
000050 2c 36 81 3c f9 65 15 bc 3d 21 00 bd 57 53 2a 3d
       0.015772901 -0.00911855 -0.0312817 0.041583385
000060 54 88 a8 bc e3 fc 9c 3d ac 80 30 bd 4e 6c aa bb
       -0.020572819 0.07665422 -0.04309146 -0.005200899
000070 05 1c c5 bb 93 e7 fe 3c 49 2c 65 3c 28 02 8d bc
       -0.006015303 0.031116283 0.013987609 -0.017212942
000080 3a da a6 3c 2d 0b 61 bc 82 37 b8 3d a7 12 82 bd
       0.02036773 -0.013735575 0.08994962 -0.06351214
000090 5c 6b 97 3d f6 3a 13 bd 92 ca 48 3d 52 19 1a 3d
       0.07393524 -0.0359449 0.04902131 0.037621804
0000a0 f1 b8 28 bb dd d6 6b bc a5 bf 78 bb de 12 14 3d
       -0.0025745 -0.014394489 -0.0037956026 0.036150806
0000b0 7d df f2 bb 3b 00 b6 3c 02 03 d9 3c 79 0f 1d bd
       -0.007411896 0.022216907 0.026490692 -0.038344834
0000c0 4f 39 0c 3c 0f 70 ed 3c 88 bc 8d bd 37 17 a5 3b
       0.008558585 0.028984098 -0.06920725 0.005038168
0000d0 a4 63 c1 3c 64 c7 3c 3d 87 72 9a 3c 14 25 8f bc
       0.023607083 0.04608859 0.018853439 -0.017473735
0000e0 94 ba 6a 3c a6 a7 97 b8 db 33 a5 3b 4f 4f 3e 3d
       0.01432671 -7.231468e-05 0.005041582 0.046462353
0000f0 53 2e 11 bc 59 45 dc 3b 58 9c 55 bc 98 28 23 3d
       -0.008861142 0.006722134 -0.013037764 0.039833635
000100 e3 04 c8 3c 6e 35 bf 3c b3 3e 18 3d 24 cc 5d 3d
       0.024416393 0.023340907 0.03716917 0.05414976
000110 46 b4 89 bc b6 90 3c bd 2f 30 4f bc 88 48 20 bd
       -0.016809594 -0.046036445 -0.012645765 -0.03913167
000120 23 8a 8d bd 83 b3 e9 bc 46 ab 39 3d 5c 5e ac bc
       -0.06911113 -0.02852798 0.045329355 -0.021041088
000130 90 0c 47 3c da 9c 13 bd 2c 1c 5f 3c bd 4f fc 3c
       0.012148991 -0.036038257 0.013617557 0.03079974
000140 2f 21 0f ba 54 8f 8e bd 85 43 ac bb a8 2d c2 3d
       -0.0005459962 -0.069609314 -0.0052570724 0.094813645
000150 bb a3 27 3d 1a 20 d9 3b 25 81 0a bd b8 65 b0 bc
       0.04092763 0.0066261413 -0.033814568 -0.021532878
000160 9a 7a 8f 3c 8e b8 a5 3c c4 53 d5 bc 93 00 6a bd
       0.017514516 0.020229604 -0.02604092 -0.057129454
000170 71 e9 9b bc 08 fd b7 3b eb 47 d8 bc e2 6c 31 3a
       -0.019032212 0.0056148805 -0.02640148 0.0006768239
000180 86 ce 3c bd b5 37 82 3d 65 47 b2 bc 9e a1 45 3d
       -0.046095394 0.063582815 -0.02176256 0.048249833
000190 a6 bc 59 3b 80 fd 60 3d a4 44 28 ba d9 be 96 bc
       0.0033224015 0.054929256 -0.00064189197 -0.01840155
0001a0 f8 0e 66 bd 18 59 af 3a b7 64 b9 b9 ea da b0 bc
       -0.05616662 0.0013377992 -0.00035360988 -0.021588761
0001b0 ff 67 9f 3d 02 f8 6c 3d 3b 32 cb 3c 1a da 17 bd
       0.077835076 0.057853706 0.024804225 -0.037073232
0001c0 ce 75 f2 bb 0f 49 34 bd bc 3d 07 3d b0 e5 f2 bb
       -0.0073992973 -0.044014987 0.03301786 -0.007412635
0001d0 b7 b3 90 3d 2b 3f ca bc 62 14 0f bd 42 1d 83 3d
       0.07065528 -0.024688324 -0.034931548 0.06402065
0001e0 5a 3a e5 3c 4b 55 79 3d 06 e0 09 3d ec 2e 27 3d
       0.027981926 0.060872357 0.03366091 0.040816233
0001f0 70 69 36 3c b0 57 47 3b 3c 92 f8 3c e1 79 a0 3c
       0.011133537 0.0030417256 0.030343167 0.019589366

main_network.1.running_mean f4 [128]
000000 64 79 a7 3a ed 89 8e bd e3 67 03 bd 79 ad ca bc
       0.0012777266 -0.06959901 -0.032081496 -0.024740921
000010 5f 9d 8e 3d 98 b4 5a bc a0 e3 01 3d 04 7f 85 bd
       0.0696361 -0.013348721 0.03171122 -0.06518367
000020 28 28 e5 3c 92 59 b7 3d 24 39 b5 bc f4 a6 94 3c
       0.02797325 0.08952631 -0.022121973 0.018146016
000030 05 40 5b 3d e7 54 be bd 5d 55 df 3d 6f f5 29 3d
       0.05352785 -0.092935376 0.10904954 0.04149383
000040 4e b0 c0 3c c4 aa 94 bc bb f2 0a 3b f7 30 07 3d
       0.023521569 -0.018147834 0.0021201808 0.03300568
000050 e1 4b 3d 3c a2 54 9a 3c 4e e2 0d 3d 21 26 0c ba
       0.0115537355 0.018839184 0.03463965 -0.0005346258
000060 69 9f 69 bc bd 53 e6 3c ff d4 6b 3d 3e 86 4b 3c
       -0.014259198 0.028116101 0.057576176 0.012422143
000070 71 da 13 bc 2c 84 39 3d fb 79 8e 3d 10 59 29 3e
       -0.009024248 0.045292065 0.0695686 0.16537881
000080 0c fd 8b 3d 6d 3d 75 3d 78 cd b4 bc b8 1d 8b bd
       0.06835374 0.059873033 -0.022070631 -0.06792778
000090 d0 81 01 3d 1b 52 a8 3c ca 3e 20 3e 52 57 5d bd
       0.03161794 0.020546963 0.15648952 -0.054038353
0000a0 2f 00 7d bd 46 7a 4a bd 4e cd c3 3c 5a 1c 4d 3c
       -0.061767753 -0.049433015 0.023901608 0.012518967
0000b0 a9 32 7c bd ac 16 09 bd f1 d3 39 bd 76 14 fe 3c
       -0.06157175 -0.033468887 -0.04536814 0.031015616
0000c0 3a 86 b0 3d ee c2 1c 3d e2 c7 fc bc 1d d8 07 bd
       0.08619352 0.038271837 -0.03085703 -0.033165086
0000d0 d8 e6 c9 3c 19 a0 7b 3c 6c 4f 08 be ad fc 0c bd
       0.024646208 0.0153579945 -0.13311547 -0.034420658
0000e0 5f ec a3 3d 06 eb e0 3d 02 c3 b3 3d a3 82 62 3d
       0.080040686 0.10982327 0.08777429 0.055300366
0000f0 2c 0d 0c 3d f9 66 4a bd ac f5 df bd 1e 7b 33 bd
       0.03419225 -0.04941461 -0.1093553 -0.043818586
000100 af f7 01 bd 76 31 5a 3d 04 64 64 bd 85 2e b5 bc
       -0.03173035 0.053269826 -0.055759445 -0.022116909
000110 e5 5c 29 bd 68 b1 6a bd f6 62 e3 3c 15 63 e0 3c
       -0.041348357 -0.057298094 0.02775715 0.027390996
000120 b8 92 c8 3c 6a 01 81 3d f1 49 0e bd 82 de a7 3d
       0.024484023 0.06299098 -0.034738485 0.08196737
000130 54 f2 c1 3d 75 91 b2 bd 6f 96 0c bc 08 56 2e bd
       0.094700485 -0.0871915 -0.008580788 -0.042562515
000140 33 15 c2 3c ee a0 bb bc 81 eb ff 3c 32 17 6e 3d
       0.02369175 -0.022903886 0.031240227 0.05812759
000150 3c fa 80 3d c5 79 3c 3d 7a da e5 bd 15 31 67 bd
       0.062977284 0.046014566 -0.11223312 -0.056443293
000160 35 7c 9c bd 16 84 79 3c 14 29 60 3b 3b 5d 96 bd
       -0.07640878 0.015229246 0.0034204172 -0.07342001
000170 cd 19 10 bd 3d 09 b0 3c 00 35 27 bd 71 a8 0a 3c
       -0.035180856 0.02148878 -0.04082203 0.008463011
000180 bf c7 37 bd bd 14 b5 3d 84 f6 9c ba 84 7a e4 3c
       -0.044868227 0.08841846 -0.0011975323 0.027890451
000190 26 ae 2f 3d 6f 56 7f 3d 0b 8c 3d 3d 76 f5 03 3d
       0.04289069 0.06233829 0.046276134 0.03221651
0001a0 90 5e a2 3c c4 0c c5 bb 55 c4 e7 bd f2 82 89 3d
       0.019820482 -0.0060134847 -0.11316744 0.06714429
0001b0 1f bb d5 bc 2a ec 43 bc 56 c6 77 3d 2c 57 16 3d
       -0.026090203 -0.011958161 0.060491882 0.036704227
0001c0 6d bf 66 3d 9f 0c f3 3c 1d 19 84 3d 04 54 46 3d
       0.0563349 0.029669104 0.064501025 0.048419967
0001d0 85 5e 57 3d 65 2a ba 3d 4e 43 62 bc 87 a7 bd bc
       0.052580375 0.09090117 -0.013809992 -0.023151172
0001e0 7b fe 25 3d 34 1c 9b bd 73 3c 53 bd 7a a9 70 3c
       0.040525895 -0.07573739 -0.05157132 0.014688844
0001f0 6d ed a2 3d 76 c8 c0 3d cf 10 69 bd d0 ea a9 3d
       0.079554416 0.09413235 -0.056900796 0.0829674

main_network.1.running_var f4 [128]
000000 44 6f 48 3e a6 f9 b7 3d 77 e7 98 3e 61 ac dc 3e
       0.19573694 0.089831635 0.29864094 0.43100265
000010 82 2d 35 3e 99 4d 2d 3e ab 67 17 3e 78 a2 f9 3e
       0.17693141 0.16924132 0.1478564 0.48756766
000020 23 e1 77 3e cb 60 71 3e 9c bd 43 3e ce 44 bc 3d
       0.24206977 0.2357208 0.19115299 0.09192811
000030 b4 c9 46 3e 4c eb d1 3d 2c 1c ce 3e 5d e7 19 3e
       0.19412881 0.102499574 0.40255868 0.15029664
000040 ee 54 6b 3e c9 72 18 3f 15 82 47 3e 5b de 33 3e
       0.22981617 0.5955015 0.19483216 0.1756529
000050 06 68 d0 3d 48 06 d3 3e 53 91 40 3e a4 81 f2 3d
       0.10176091 0.4121573 0.18805437 0.11841133
000060 07 75 82 3e b5 5c c1 3e 06 aa 82 3d 6a 4b 05 3f
       0.2547991 0.37766042 0.06380086 0.520682
000070 15 a2 ca 3e 8d 3c b4 3e e6 22 d6 3e e7 43 18 3e
       0.39576784 0.35202447 0.418235 0.14869653
000080 47 95 b5 3d 90 46 b0 3d 19 43 8a 3e ef 65 ec 3d
       0.08866363 0.08607209 0.27004316 0.1154288
000090 20 36 66 3e 57 e2 d2 3e 17 e1 de 3d c0 43 a1 3d
       0.22481585 0.4118831 0.10882776 0.078742504
0000a0 d8 96 70 3e f0 c2 43 3e 60 89 a2 3e 51 83 6f 3e
       0.23495042 0.19117332 0.31745434 0.23389937
0000b0 a5 85 09 3e 10 74 9a 3e a9 07 97 3e 3b 00 95 3e
       0.13429888 0.30166674 0.29498032 0.29101738
0000c0 86 88 f2 3e 03 13 17 3e 96 fc 1d 3e e1 10 70 3e
       0.47369784 0.14753346 0.15428385 0.23443939
0000d0 79 5c 46 3e 0d 92 36 3e 97 30 2e 3e bd ee 52 3d
       0.19371213 0.17829151 0.17010723 0.05149721
0000e0 e3 37 58 3e 8b 8c 9d 3e 3a 7b 08 3e 54 0a ee 3e
       0.21115069 0.30771288 0.13328257 0.46492255
0000f0 83 f5 58 3e 21 b7 b6 3e a1 bc 85 3e 43 04 eb 3d
       0.21187405 0.3568659 0.26120475 0.11475422
000100 9b 87 b1 3e 5e 5f 52 3e ae 6c 9e 3e 06 01 29 3e
       0.3467377 0.20544192 0.3094229 0.16504297
000110 4d e8 c7 3e 1e e2 80 3e ca 06 8c 3e b5 a8 36 3e
       0.3904442 0.25172514 0.2734893 0.17837794
000120 16 15 7c 3e f9 56 e7 3c 69 ae ec 3d 16 c1 b4 3d
       0.24617419 0.028239714 0.115567036 0.08825891
000130 37 9f 14 3e 72 d5 dd 3d f0 51 cc 3e 7c a6 b0 3e
       0.1451386 0.10831727 0.39906263 0.34502017
000140 e0 b1 63 3e f9 ab cb 3d 3f b6 d1 3e d8 64 6f 3e
       0.22235823 0.099449106 0.40959355 0.23378313
000150 29 db c3 3e b2 00 9d 3d ee 3e bf 3e 93 c3 99 3e
       0.38253143 0.07666148 0.373527 0.30032024
000160 a1 ad 1e 3e fe 31 f0 3e 27 d0 7e 3e 1e 3b 5d 3e
       0.15495922 0.4691314 0.24884091 0.21604583
000170 9a c7 72 3e 5e f7 44 3e 29 37 45 3e c6 d3 b4 3e
       0.23708954 0.19234988 0.19259323 0.3531782
000180 ba ad f8 3d 5d 23 8d 3e 13 be c9 3d 3c 02 0b 3e
       0.12142511 0.27566043 0.09850707 0.13575071
000190 32 bc 95 3e 5f 13 16 3e 1f ff 3f 3e 37 36 49 3e
       0.29245144 0.14655827 0.18749665 0.19649588
0001a0 07 73 0f 3e 2e b5 71 3e d7 a5 11 3e e5 97 0c 3e
       0.14008723 0.23604271 0.14223419 0.13729818
0001b0 27 0b b8 3e d6 6e a6 3e b1 36 19 3e be cd 6f 3e
       0.3594601 0.32506436 0.1496227 0.23418328
0001c0 38 7c 8c 3e b3 29 81 3e 4f e2 f3 3e c4 88 9c 3e
       0.2743852 0.25227126 0.47633597 0.30573094
0001d0 aa 74 3d 3e 63 00 50 3e f1 ea a1 3e 32 c6 61 3e
       0.18501535 0.20312648 0.3162456 0.22048262
0001e0 36 21 53 3e 30 bb 99 3e b1 6f c3 3e 8d df 90 3e
       0.20618138 0.30025625 0.3817115 0.28295556
0001f0 93 b5 90 3e 63 20 4f 3e c4 52 a0 3e bb 50 ca 3d
       0.2826353 0.20227198 0.31313145 0.09878679
