MLP/best_model_inception3.pth (torch, 121067 bytes, 47 tensors)

model_embedding.weight f4 [32, 12]
000000 db af 52 3e b9 b1 6b bd cc aa ac bd 8e d6 3f 3d
       0.20574896 -0.057542536 -0.084310144 0.046835475
000010 92 c3 95 be 4c c4 85 be 44 11 b6 bc 31 44 90 3e
       -0.2925077 -0.26126325 -0.02222503 0.28177026
000020 de da 27 bc ac ff 20 3d b7 51 91 3d be f6 0c 3e
       -0.010245053 0.039306328 0.07095664 0.13766
000030 fc 86 dc 3d fb ec 13 3e 11 68 09 be 08 d9 ca 3c
       0.10767934 0.1444587 -0.13418604 0.024761692
000040 04 af 4c be 34 51 1b 3e 2e e6 3c ae c2 ec 91 3e
       -0.19988638 0.15167695 -4.295069e-11 0.28500944
000050 14 3e 40 3e 01 d4 16 bd 8c 3a f6 3d fb 46 f7 bd
       0.18773681 -0.036823276 0.12022886 -0.12074085
000060 3a 79 6d bc 57 8b 9d 3d 72 cf 71 be b7 f6 35 be
       -0.014494235 0.076925926 -0.2361429 -0.17769895
000070 a8 39 81 be 7a 35 99 bd ad 4f 67 3c 66 ea dd bd
       -0.252393 -0.07480903 0.014118117 -0.108357236
000080 50 65 99 3e c4 91 c8 bd ff d4 0b 3e f3 03 4c bd
       0.29960108 -0.097934276 0.1365547 -0.049808454
000090 18 45 4a 3e b1 7d 6b 3e 8a d1 9a be 90 73 87 3e
       0.1975292 0.22997166 -0.3023799 0.26455355
0000a0 56 48 03 bd f4 4f 28 3e 16 88 b2 3c b0 fb ef bd
       -0.032051407 0.1643675 0.021793406 -0.117179275
0000b0 ac 18 3c be 0d d0 12 be b4 8b 46 3e 6a 66 83 3e
       -0.18368787 -0.14337178 0.1938923 0.25664073
0000c0 92 b8 e8 3d bd 7f 42 be 6d b7 46 be 60 55 40 3e
       0.11363329 -0.18994041 -0.19405909 0.18782568
0000d0 82 10 d1 3c 3f c2 24 3e 5f 50 a8 39 73 01 8a be
       0.025520567 0.16089724 0.00032103338 -0.2695423
0000e0 0a 85 4e be 19 d6 9f bd a9 9d 21 be f7 31 c0 bd
       -0.20167938 -0.07804508 -0.15782799 -0.0938453
0000f0 23 e8 89 3c 36 ac a8 3d c7 46 7e be 22 78 ab be
       0.016834324 0.08235972 -0.24831687 -0.33490092
000100 de 15 9f 3e b4 8c 47 be 5b ff b9 bb bb 85 91 3e
       0.3107137 -0.19487268 -0.0056761927 0.2842234
000110 5f ba 5c 3c c4 57 78 be 7b 22 34 be d8 2d 8a be
       0.013472169 -0.2425223 -0.17591278 -0.269881
000120 ab 5f d1 3d 55 e1 af bd 48 49 87 3e 56 26 8d bd
       0.10223325 -0.085879005 0.26423097 -0.068920776
000130 20 7b 84 3e 88 c2 38 3e 48 5b 8d ad 54 70 2b be
       0.25875187 0.18042958 -1.6070381e-11 -0.16742069
000140 88 8a dc bd 69 1e 96 be 52 b6 59 be 5a 97 46 3c
       -0.1076861 -0.29320076 -0.21260956 0.012121046
000150 6a e2 5a bb 10 4a 2b be 85 5f c9 bd a5 a8 9d 3e
       -0.0033399113 -0.16727471 -0.09832672 0.30792728
000160 e8 bc 56 be 6d 9d 88 3e c4 f4 38 b8 03 8d e4 3d
       -0.209705 0.26682606 -4.4096974e-05 0.11159708
000170 d5 05 f6 3d 4f 29 cf 3d f7 e1 c9 bd 9f 01 1b 3e
       0.12012831 0.10115301 -0.098575525 0.15137337
000180 91 6b 2b 3c 39 cf d6 bd 89 7f c2 bd 3a 65 78 be
       0.010462658 -0.10488743 -0.09496982 -0.24257365
000190 89 66 97 3e 6c 2d 60 3d 0d 03 2f b0 16 98 7b be
       0.29570416 0.054730818 -6.3668965e-10 -0.24569735
0001a0 e1 0c b4 3d 76 4e 87 3e 76 1d f8 bd a3 db 17 be
       0.08791519 0.26427048 -0.12114994 -0.14829879
0001b0 19 de 01 3e 9f 54 80 3e 39 46 c6 bd 5b 0a f3 3b
       0.1268238 0.2506456 -0.09681363 0.007417006
0001c0 c2 d9 52 be 71 47 81 be cc 73 5e 3b 3c 0f 3d be
       -0.2059088 -0.25249818 0.0033943532 -0.18462843
0001d0 55 d2 c0 bd 73 e1 07 be 7d 20 60 3d 68 41 e3 3d
       -0.09415118 -0.13269596 0.054718483 0.110964596
0001e0 e6 3a 62 be 54 5a 07 3e 60 33 81 be 61 15 99 3d
       -0.2209278 0.13218051 -0.2523451 0.07474781
0001f0 81 89 65 3d e0 58 84 be 86 29 2c 38 57 04 90 be
       0.056039337 -0.25849056 4.1046667e-05 -0.2812831
000200 26 2e 59 3d 45 16 2d be 03 80 2c be 4f 18 73 3e
       0.053022526 -0.16903026 -0.16845708 0.23739742
000210 02 09 69 3d 46 1f 5d 3e 76 a9 09 3d b1 c2 a4 3e
       0.056893356 0.21593961 0.033608876 0.32179788
000220 59 54 30 be 22 1f 66 3d 95 7a 8f 3c 38 c2 c6 bd
       -0.17219676 0.056182034 0.017514506 -0.09705013
000230 11 c6 a5 3c 40 84 11 3e 1b e6 e3 bd 61 21 c8 bd
       0.020236047 0.14210606 -0.111278735 -0.097719915
000240 27 8f 32 be dc ab 58 3e 30 bb f8 3d 19 7a 9e be
       -0.17437421 0.21159309 0.12145078 -0.30952528
000250 37 e2 d8 3d f5 e8 3c bc 20 c9 d3 bb 97 db 3f bd
       0.10590022 -0.011530151 -0.006463185 -0.046840277
000260 dd 27 5e be 1f 89 6e bd c8 0c 1f 3e d5 41 37 be
       -0.21694894 -0.058236238 0.1553222 -0.17896207
000270 5e 1e 8e be 57 bf 3e bd 05 f8 8b bd 37 57 73 3e
       -0.27757543 -0.046569195 -0.06834415 0.23763739
000280 bd dc e3 3d 48 17 90 bd 9f 71 06 bd 91 94 6e bd
       0.11126087 -0.070356905 -0.0328232 -0.058247153
000290 5d a3 99 be 19 78 58 3d f8 f6 a5 3c 7e 79 79 3c
       -0.3000745 0.05284891 0.020259365 0.01522672
0002a0 ba 31 5d 3e 02 b0 84 bd 89 7b 74 3e 6d b4 1c 3e
       0.21601 -0.06478883 0.2387525 0.15303202
0002b0 f5 ec 50 be 2d b8 57 3e e4 09 31 ba b6 19 1b bd
       -0.20402892 0.21066351 -0.0006753488 -0.037866317
0002c0 b9 1b 3c bc 75 9a c4 3c a1 2d 35 3e 44 40 68 3e
       -0.011481219 0.023999432 0.17693187 0.22680765
0002d0 e9 5c 85 be a7 10 8b 3c 6a 90 aa 3e 69 a2 31 3d
       -0.26047447 0.016975714 0.33313304 0.043367777
0002e0 f8 97 4b be d4 e2 80 be 8a cc 34 3d 3d 81 56 3e
       -0.1988219 -0.25173056 0.044140376 0.20947738
0002f0 73 39 44 bd 17 16 90 3d 38 62 cf 3d 4e 62 27 3e
       -0.04790635 0.07035463 0.101261556 0.16346094
000300 80 e0 64 3d d4 79 3b 3e 16 6e 99 be 09 94 8a 3d
       0.055878162 0.18308192 -0.299668 0.06766517
000310 88 a1 1a 3e f2 da 84 3e 85 7d c4 2c 61 1d 8b bc
       0.15100682 0.25948292 5.5845905e-12 -0.016981782
000320 61 88 59 3e c2 22 0a be b6 ab 38 be 5f c1 64 be
       0.2124343 -0.13489822 -0.18034253 -0.2233939
000330 1d 37 55 be dc 16 62 3e 69 38 77 3d 71 7d 2e be
       -0.20821805 0.22079033 0.06035653 -0.1704004
000340 8a cb 94 be f7 5c 37 be ba 4e d5 31 11 be dc bc
       -0.29061538 -0.17906557 6.208066e-09 -0.0269461
000350 ed 1b ce 3d f3 ac cf 3d 6b c9 66 3e 05 6b 87 bd
       0.1006392 0.10140409 0.22537772 -0.06612209
000360 72 36 50 3d fc e0 86 3d c6 10 9c 3d 8a 49 c0 3d
       0.050833173 0.06585881 0.07620387 0.093890265
000370 25 77 7d be 06 e0 5e bc 78 ad 82 3c c1 03 e5 bd
       -0.24752481 -0.013603216 0.015951857 -0.111823566
000380 a6 10 25 be f4 fc c7 bd e3 c2 3a bc 2d 54 83 be
       -0.16119632 -0.09765044 -0.011399004 -0.2565016
000390 ec 5c af bd 6f 56 af bd ac 6b 39 3e b5 c0 ba 3d
       -0.08562645 -0.08561408 0.1810748 0.09118787
0003a0 c7 4d 23 be 32 32 a3 3d 02 b4 8f b4 19 f5 fc bd
       -0.15947638 0.07968558 -2.6766799e-07 -0.12351436
0003b0 ec 7e 84 be 75 59 77 be 53 f3 06 bd c2 38 9d be
       -0.25878084 -0.24155219 -0.032946896 -0.30707365
0003c0 6f bf 58 be 5d e0 e4 bd 14 da 4f be 32 da 82 be
       -0.21166776 -0.111756064 -0.20298034 -0.25557095
0003d0 8b 54 fe bd 7c 39 1a be f2 94 06 37 32 f6 81 3e
       -0.12418469 -0.15060991 8.021701e-06 0.25383145
0003e0 bf b3 9f bd 7e e1 13 be 12 e3 69 3e 7f 90 0c be
       -0.07797956 -0.14441487 0.22840527 -0.13726996
0003f0 c4 9d d6 3c 36 d8 e0 bd 7b b7 df bd 97 2d e7 3a
       0.026198275 -0.10978739 -0.10923668 0.0017637488

model_embedding.bias f4 [32]
000000 90 a8 09 3c c0 51 ac 3b e8 e1 a6 37 51 eb 19 b8
       0.008402005 0.005258769 1.9893938e-05 -3.6697198e-05
000010 85 be 2e 3a c2 10 84 b7 29 0d 61 b7 bf 0d f4 37
       0.0006665963 -1.574343e-05 -1.3414109e-05 2.9093468e-05
000020 4a fc a5 3c 7b 6c 8e 3b 78 7e 13 3c 07 23 c3 3c
       0.020261902 0.004346428 0.0090023205 0.023820413
000030 42 a0 84 37 49 b4 47 b7 73 e0 2a 3d 72 fb 33 39
       1.5810252e-05 -1.19033e-05 0.041717958 0.00017164441
000040 24 4a 0a b6 52 81 a1 bc 69 dd 53 bc b8 c0 fa 36
       -2.0606758e-06 -0.019714985 -0.012931206 7.473016e-06
000050 95 a5 d9 ba c8 dc 8e b6 49 c6 10 3a 41 25 94 38
       -0.0016605133 -4.257632e-06 0.0005522711 7.064129e-05
000060 31 93 24 3d c0 ce a1 36 88 1a ca b6 33 ca 0e b6
       0.040179435 4.8222428e-06 -6.0231578e-06 -2.1277344e-06
000070 a5 54 fe 36 26 ee 36 3d c2 47 c7 36 63 96 26 3d
       7.579644e-06 0.04466071 5.939016e-06 0.040670764

dataset_embedding.weight f4 [16, 3]
000000 f5 68 08 bf c3 c4 e1 be 83 fe a8 3e 81 1d c5 be
       -0.5328515 -0.4409543 0.33006677 -0.38499072
000010 d2 65 0c 3e 7e e3 e1 3d b3 a5 5c 3d 34 ad ee 3e
       0.13710716 0.11029719 0.05386896 0.46616518
000020 aa 94 df be e3 2b db be 5d 8a f5 3d 7b 51 94 3d
       -0.4366811 -0.4280692 0.11989281 0.07242104
000030 a8 b2 b2 be db 64 0b 3f 3b 13 af 3e b2 73 5f bd
       -0.3490193 0.5445077 0.3419436 -0.054553695
000040 4a df c4 3e 6f ef 6d 3e e0 d2 bb 3e cf be ad 3e
       0.38451606 0.23235868 0.36684322 0.33934638
000050 6f 15 b1 3e 93 20 ea 3e e1 a9 d4 be e4 db 74 3d
       0.34586665 0.45727977 -0.41535857 0.059780017
000060 10 51 11 be 90 55 fc be 80 77 90 3e 13 b4 0f 3f
       -0.14191079 -0.4928403 0.2821617 0.56134146
000070 a1 16 f0 3b dd c8 b9 3e 75 58 c5 3d a7 7b 0d 3e
       0.0073269163 0.3628606 0.096360125 0.13816701
000080 46 9d 97 be f6 c2 13 3f 00 25 91 bc af cb 2a be
       -0.29612178 0.5771936 -0.017717838 -0.16679262
000090 70 e2 71 be 70 41 07 3f e8 02 02 bf 9a 39 98 be
       -0.23621535 0.52834225 -0.50785685 -0.29731447
0000a0 59 c1 51 3e 17 6e d3 be 6c 05 df 3d c7 3d 51 be
       0.20483913 -0.4129493 0.10889706 -0.20433722
0000b0 61 e0 d7 bc 73 1e 97 3d cd 7c f7 bd 0b aa 66 be
       -0.02635211 0.073788546 -0.12084351 -0.22525804

dataset_embedding.bias f4 [16]
000000 df 8a 31 3d f5 b6 84 3a d7 02 1b be a0 3b 54 be
       0.04334533 0.0010125326 -0.15137802 -0.2072587
000010 d4 21 8e be 73 2f 54 bd ad fa 03 3d a3 52 28 3e
       -0.27760184 -0.051803064 0.032221485 0.16437773
000020 d7 62 20 be eb 7e 35 be 94 11 8a b6 46 8e 39 37
       -0.15662704 -0.17724197 -4.114767e-06 1.1059985e-05
000030 64 75 1f b7 12 ab 6c 3e 39 a4 65 3c 3e c6 ad b9
       -9.504471e-06 0.23112133 0.0140162045 -0.00033144833

tensor_network.0.weight f4 [16, 1]
000000 23 70 c1 3e f1 48 84 3e db d3 ae 3e 3e 33 c0 be
       0.37780866 0.258369 0.34146008 -0.37539095
000010 45 b7 46 3f c7 e2 f1 3d 49 5d 9a 3c b7 a1 81 3f
       0.776234 0.118108325 0.01884331 1.0127476
000020 84 97 88 3e 6a d0 d7 be 84 a6 2c 3f e2 80 1d 3f
       0.26678097 -0.42151195 0.6744158 0.61524785
000030 1c 35 08 bd 7d 03 48 be aa 8f c9 3e 52 5c 1c 3f
       -0.033253774 -0.1953258 0.3936742 0.6107837

tensor_network.0.bias f4 [16]
000000 a2 51 ec be f0 bf f1 3c b7 6d 82 bd 49 a6 16 bf
       -0.4615603 0.029510468 -0.06368583 -0.5884748
000010 25 db 22 bf 58 c3 af 36 e9 ae 5b 3e 51 f1 63 bf
       -0.6361564 5.2381474e-06 0.21453442 -0.89040095
000020 59 7e 91 36 c1 51 e0 be 37 ee 3c bc 21 a5 9e ba
       4.3360455e-06 -0.43812373 -0.011531404 -0.0012103656
000030 fe 7a 53 be c7 83 56 be 6d 69 4a bd ec ab d4 3b
       -0.20652387 -0.20948707 -0.049416948 0.0064902212

tensor_network.2.weight f4 [16]
000000 de e4 81 3f 98 43 79 3f 2d db 81 3f 66 2d 2e 3f
       1.014797 0.97368765 1.0145012 0.6803802
000010 62 2e 7f 3f 70 d3 83 3f 56 46 81 3f 3e 98 84 3f
       0.9968015 1.0298901 1.009959 1.0358961
000020 df 88 7f 3f 66 2d 2e 3f e7 30 7e 3f 27 87 81 3f
       0.99818224 0.6803802 0.9929337 1.011937
000030 66 2d 2e 3f 66 2d 2e 3f 90 0d 7b 3f 89 3f 7e 3f
       0.6803802 0.6803802 0.9806757 0.99315697

tensor_network.2.bias f4 [16]
000000 ed 13 2a b8 a9 e4 da 37 d6 82 cd b6 61 ef 40 2f
       -4.0549716e-05 2.6094103e-05 -6.1247074e-06 1.7547343e-10
000010 de 26 50 b7 f1 76 a7 37 9b 71 a6 38 d9 2b e6 38
       -1.2406816e-05 1.9963338e-05 7.9366575e-05 0.00010975422
000020 a8 35 57 37 68 16 81 af 21 5b b2 37 08 6a 43 38
       1.2827491e-05 -2.3480884e-10 2.1261689e-05 4.6590372e-05
000030 57 7d 91 ae 3d 11 52 af 8a 6d 61 38 48 df ab 37
       -6.6161014e-11 -1.9105513e-10 5.3746196e-05 2.0488762e-05

tensor_network.2.running_mean f4 [16]
000000 9b e2 3f 3f f2 1d 5c 3f b3 84 83 3f 00 00 00 00
       0.7495515 0.8598319 1.0274872 0.0
000010 19 4f e9 3f cb 4d c2 3e b2 f7 8d 3e 2e 83 14 40
       1.8227264 0.37949976 0.2772804 2.3205066
000020 f4 12 5b 3f 00 00 00 00 e5 c7 08 40 52 f1 fa 3f
       0.85575795 0.0 2.1372006 1.9604895
000030 00 00 00 00 00 00 00 00 3f 9a 9a 3f 9d 31 fa 3f
       0.0 0.0 1.2078322 1.9546391

tensor_network.2.running_var f4 [16]
000000 01 98 31 3f 26 f7 b0 3e 23 d8 19 3f ad 70 2f 23
       0.69372565 0.3456356 0.60095423 9.510629e-18
000010 1d aa 42 40 4c 4f 94 3d 6f bf e9 3a 2d bd a4 40
       3.041633 0.07241687 0.0017833541 5.1480927
000020 82 8f bc 3e ad 70 2f 23 a4 b7 14 40 b5 c6 f7 3f
       0.36828238 9.510629e-18 2.3237085 1.9357516
000030 ad 70 2f 23 ad 70 2f 23 fe 10 4c 3f 34 36 f4 3f
       9.510629e-18 9.510629e-18 0.7971343 1.9079041

worker_network.0.weight f4 [16, 1]
000000 8f 4c 2b bf cd 9d ce 3e 3d 5d 31 3e 78 3a ec be
       -0.66913694 0.40354767 0.17320724 -0.46138358
000010 86 b2 16 bf 9d 8b bc 3d 18 70 e5 3d 0a e4 70 3d
       -0.58866155 0.092063166 0.11203021 0.058811225
000020 18 77 c2 3e 2f d2 b6 3e e8 62 2c 3f 2e 36 95 3e
       0.37981486 0.35707232 0.6733842 0.29142898
000030 38 bf 1b 3f 4d b5 91 3e a2 94 ef be 68 19 12 bf
       0.6083865 0.28458634 -0.46793085 -0.57070017

worker_network.0.bias f4 [16]
000000 c4 30 92 3e 90 ea ef bb b1 bb ea bd 0c 82 3b 3c
       0.2855283 -0.007321663 -0.114615805 0.01144458
000010 3e 70 cd 3e 6d 6f 14 3f e1 7b 35 bf 8b 44 3c b9
       0.40124696 0.5798252 -0.7089215 -0.00017954611
000020 2f f1 94 be d4 3b c6 3d 4d 48 9b 3e b2 3a 0b bf
       -0.29090258 0.0967938 0.303286 -0.54386437
000030 cf 6d 8d be 37 9f 57 bf 28 b5 34 b9 a1 1b 09 3f
       -0.2762284 -0.8422732 -0.00017233624 0.53557783

worker_network.2.weight f4 [16]
000000 66 2d 2e 3f 65 ba 7c 3f 96 7c 7a 3f 66 2d 2e 3f
       0.6803802 0.98721915 0.97846353 0.6803802
000010 66 2d 2e 3f 88 ad 7a 3f aa 36 7e 3f fd 5e 80 3f
       0.6803802 0.9792104 0.9930216 1.0028988
000020 7f 1c 7d 3f 91 bd 78 3f 81 6b 77 3f fd 84 82 3f
       0.98871607 0.97164255 0.9664841 1.0196835
000030 e2 51 77 3f 61 5d 81 3f 66 2d 2e 3f 66 2d 2e 3f
       0.9660932 1.0106622 0.6803802 0.6803802

worker_network.2.bias f4 [16]
000000 d6 e7 44 af 17 15 38 b8 f3 05 f4 37 75 e2 5d af
       -1.7908461e-10 -4.388866e-05 2.9089837e-05 -2.0180287e-10
000010 87 20 de 2e 18 86 e3 35 c0 0d 7c b7 86 77 22 38
       1.0101169e-10 1.6951844e-06 -1.5023572e-05 3.8735125e-05
000020 b1 29 01 b8 2c 08 08 b8 d1 e9 10 b8 74 18 af b7
       -3.0794825e-05 -3.2432537e-05 -3.4550034e-05 -2.0873013e-05
000030 b7 54 8c b7 20 93 6c b7 28 16 e7 2d 2c 82 35 2e
       -1.6728749e-05 -1.4100951e-05 2.6271499e-11 4.127025e-11

worker_network.2.running_mean f4 [16]
000000 00 00 00 00 c5 ad f1 3f a6 ac 33 3f 00 00 00 00
       0.0 1.8881155 0.70185316 0.0
000010 00 00 00 00 24 0f 83 3f 04 10 7d 3d aa b2 8e 3e
       0.0 1.0238996 0.06178285 0.27870685
000020 ef d3 be 3f 7a a4 e3 3f 2c 77 5d 40 57 01 50 3f
       1.4908427 1.7784569 3.4603987 0.81252044
000030 df 8b 24 40 5a 22 13 3f 00 00 00 00 00 00 00 00
       2.571037 0.5747429 0.0 0.0

worker_network.2.running_var f4 [16]
000000 ad 70 2f 23 f0 1f 84 3f be 5d 45 3e ad 70 2f 23
       9.510629e-18 1.0322247 0.19274041 9.510629e-18
000010 ad 70 2f 23 dc 07 64 3d 75 9d fd 3b 47 0d b7 3c
       9.510629e-18 0.055671558 0.0077397176 0.022345198
000020 0b 4d 6a 3f fc 50 4f 3f aa b9 36 40 53 30 07 3f
       0.9152381 0.8098295 2.855082 0.5280811
000030 8a 52 15 40 a9 b0 c3 3e ad 70 2f 23 ad 70 2f 23
       2.3331628 0.38220719 9.510629e-18 9.510629e-18

batch_network.0.weight f4 [16, 1]
000000 ee b5 ce be e1 36 ae be 1c f4 e2 be b0 9d 29 bf
       -0.40373176 -0.34026244 -0.44326866 -0.6625624
000010 fc 70 41 b8 ae 12 71 3e ea b2 4b ae d4 1b 97 bd
       -4.612001e-05 0.23542282 -4.6315764e-11 -0.07378355
000020 35 d3 66 bb 03 3d 2d bf b0 53 d6 be cf 38 90 3c
       -0.0035221104 -0.6767122 -0.41860723 0.017605213
000030 d2 3f 0e 3f cf a6 19 bc 4b 00 0f 3f d1 4f ef b2
       0.5556613 -0.009378149 0.5585982 -2.7859558e-08

batch_network.0.bias f4 [16]
000000 4b a9 f3 b0 c3 31 82 3e 10 cf f0 3d 0e 86 79 3d
       -1.7728693e-09 0.2542859 0.11758244 0.06091886
000010 4c 8e 5d be 25 d9 62 bf da 7e 0c bf 32 c1 50 3f
       -0.21636313 -0.88612586 -0.5488106 0.8154479
000020 91 75 a0 be 30 36 ad 3d 75 ec d0 be cc 13 52 3d
       -0.31339696 0.08457601 -0.40805402 0.05128841
000030 73 0d 21 3f d7 cc 3e bb de cc 1b 3f 94 f8 07 bf
       0.62911147 -0.0029113793 0.6085948 -0.53113675

batch_network.2.weight f4 [16]
000000 66 2d 2e 3f 66 2d 2e 3f 66 2d 2e 3f 66 2d 2e 3f
       0.6803802 0.6803802 0.6803802 0.6803802
000010 66 2d 2e 3f 78 57 82 3f 66 2d 2e 3f 26 2c 7e 3f
       0.6803802 1.0182943 0.6803802 0.99286115
000020 66 2d 2e 3f 66 2d 2e 3f 66 2d 2e 3f 3a 21 80 3f
       0.6803802 0.6803802 0.6803802 1.001014
000030 b0 02 81 3f 75 56 2e 3f 68 95 7d 3f 66 2d 2e 3f
       1.0078945 0.6810067 0.990561 0.6803802

batch_network.2.bias f4 [16]
000000 9b 25 15 2f 8e db 2a 2d 8b c4 bb ad 9d 3f b6 ad
       1.3564831e-10 9.712132e-12 -2.1346721e-11 -2.0719254e-11
000010 ff bd 6f 2e c4 43 8c b7 4d 35 8b af 9d 43 0c b8
       5.451106e-11 -1.6720856e-05 -2.5321825e-10 -3.344157e-05
000020 6c a8 ff 2e 5d 51 af 2d 39 9e 0b 2f 9d df 27 38
       1.1625975e-10 1.993133e-11 1.2698188e-10 4.002416e-05
000030 a5 b4 42 b8 91 79 05 b6 d2 e9 3f 38 12 c3 bb 2e
       -4.6421443e-05 -1.9889305e-06 4.575571e-05 8.538427e-11

batch_network.2.running_mean f4 [16]
000000 00 00 00 00 00 00 00 00 00 00 00 00 00 00 00 00
       0.0 0.0 0.0 0.0
000010 00 00 00 00 f8 81 53 3f 00 00 00 00 f9 29 93 3e
       0.0 0.8262019 0.0 0.2874296
000020 00 00 00 00 00 00 00 00 00 00 00 00 63 3a 31 3e
       0.0 0.0 0.0 0.17307429
000030 bd 75 94 40 26 16 91 37 12 79 94 40 00 00 00 00
       4.6393723 1.729566e-05 4.639779 0.0

batch_network.2.running_var f4 [16]
000000 ad 70 2f 23 ad 70 2f 23 ad 70 2f 23 ad 70 2f 23
       9.510629e-18 9.510629e-18 9.510629e-18 9.510629e-18
000010 ad 70 2f 23 60 50 28 3e ad 70 2f 23 28 76 a7 3c
       9.510629e-18 0.1643691 9.510629e-18 0.020442083
000020 ad 70 2f 23 ad 70 2f 23 ad 70 2f 23 c6 c7 8b 3a
       9.510629e-18 9.510629e-18 9.510629e-18 0.0010664396
000030 c3 8f 96 3f 47 4e d0 30 ee 23 98 3f ad 70 2f 23
       1.1762623 1.515624e-09 1.1885965 9.510629e-18

ps_network.0.weight f4 [8, 1]
000000 21 aa 8d be 6f 3e 22 3e e4 6f de 3e cc 08 23 bd
       -0.2766886 0.15844129 0.4344474 -0.03980331
000010 be 47 cd 3e ad ad 67 3f 73 33 99 be 36 2c 80 bd
       0.40093797 0.90499383 -0.29922065 -0.062584326

ps_network.0.bias f4 [8]
000000 72 1e a2 bb 0a da 80 3d 39 1b 20 3e d1 79 8c be
       -0.004947477 0.06291588 0.15635385 -0.2743669
000010 24 ca a4 bd d4 ec 07 bf 56 7a 11 3f 52 85 0e 3f
       -0.08046368 -0.53095746 0.56827295 0.5567218

ps_network.2.weight f4 [8]
000000 08 16 7a 3f 6b ad 77 3f 5a 8f 77 3f 66 2d 2e 3f
       0.97689867 0.9674899 0.9670311 0.6803802
000010 7e 6c 73 3f 60 d5 76 3f 79 c8 74 3f 17 10 77 3f
       0.9508742 0.96419334 0.95618397 0.96508926

ps_network.2.bias f4 [8]
000000 bc 32 40 37 25 a2 e6 b5 eb f8 34 b8 ba e8 a4 ae
       1.1455904e-05 -1.7183526e-06 -4.3147167e-05 -7.499197e-11
000010 f9 f8 37 38 7c 8f 14 38 c3 f0 50 37 9c b4 ad 38
       4.3862474e-05 3.541958e-05 1.2453823e-05 8.282924e-05

ps_network.2.running_mean f4 [8]
000000 4e e7 2c 1e f6 df cd 3e 9f c3 89 3f 00 00 00 00
       9.153437e-21 0.4020993 1.0762824 0.0
000010 95 66 4e 3f ed be d3 3f 24 06 a1 3e 4c 02 da 3e
       0.8062528 1.6542641 0.31449997 0.42579877

ps_network.2.running_var f4 [8]
000000 c0 70 2f 23 fc b6 62 3e e3 9b d1 3f ad 70 2f 23
       9.510645e-18 0.22140115 1.6375698 9.510629e-18
000010 5d 2e a7 3f ea 10 bd 40 73 03 a4 3d f6 ca 08 3d
       1.3061024 5.9083147 0.080084704 0.033396684

main_network.0.weight f4 [128, 104]
000000 26 a1 15 bd 90 c3 b6 3d 7e b8 02 bd 70 4f f8 3d
       -0.036530636 0.08924019 -0.031914227 0.121245265
000010 9b 5e 5c 3d 6a b2 8b bc 4e e9 53 3d f2 d6 32 bc
       0.05380116 -0.017052848 0.05173617 -0.010915505
000020 76 49 aa 3c 03 a3 b7 3c 99 ba 45 bd 20 29 7a bc
       0.020786982 0.022416597 -0.048273657 -0.015268594
000030 15 19 3a bd d2 d6 c9 3c f0 14 aa ba de 23 8c bd
       -0.045434076 0.024638567 -0.001297621 -0.068427786
000040 80 f1 8f 3b ba d6 c5 3d 74 4c 0f bc 6d d6 47 3c
       0.0043928027 0.096600965 -0.008746255 0.012197119
000050 a5 c6 8a 3d 27 64 6c bd 39 49 9a bd 80 b8 e1 3c
       0.0677617 -0.0577127 -0.07533497 0.027553797
000060 fa 7a cb bd 54 7a 98 bd 95 f8 a0 3b 1c f5 21 bd
       -0.09935565 -0.07445207 0.004912446 -0.039540395
000070 31 4b ff bc 8f 34 2c 3c 76 74 16 3d d9 80 6e 3d
       -0.031163784 0.010510578 0.03673216 0.058228347
000080 b9 45 48 bd 75 3c b4 bd b1 82 b6 bb 21 dc 4e 3d
       -0.048894618 -0.08800594 -0.005569779 0.0505029
000090 ac 84 2b 3d 70 f1 91 3c c5 9a bc 3d b8 da 13 3d
       0.041874573 0.017815322 0.092092074 0.03609726
0000a0 60 3d ea bc 08 ed e3 3d 8b a2 60 3d 40 76 0e 3e
       -0.028593719 0.111291945 0.054842513 0.13912296
0000b0 45 84 a3 3c 85 9f 5b bc c4 3b 24 bd fb bb d5 3d
       0.019960532 -0.013404732 -0.04009606 0.10436245
0000c0 bf 8f 5d bd d1 aa c8 bd 09 69 0a bd be 7e 9c b2
       -0.054092165 -0.09798206 -0.033791576 -1.8218426e-08
0000d0 42 06 05 be 28 17 92 3c 46 66 97 3a 68 50 ee 3b
       -0.12990668 0.017833307 0.0011550866 0.0072727688
0000e0 ad 8e ac bd a1 73 97 34 fc 4e 2f bc 67 a0 b5 bd
       -0.08425651 2.8210073e-07 -0.010699984 -0.08868485
0000f0 d0 4a 6d b2 c3 83 ac 2b dd 29 a5 3c 72 f5 8a bd
       -1.3812226e-08 1.2257906e-12 0.020161564 -0.06785096
000100 f5 88 56 aa 52 81 65 3d 23 3b a7 3b 5c 61 cf 2e
       -1.9054535e-13 0.056031533 0.005103485 9.430565e-11
000110 2f 53 f4 2d d5 2a cb 3d 3b 3a 6a bd 6e b8 7b 3d
       2.777653e-11 0.09920279 -0.05718444 0.061455183
000120 e2 23 16 bd 11 63 2b 3c 38 94 e4 bc 6b 8d a6 3b
       -0.036655314 0.010460631 -0.027902707 0.0050827763
000130 d5 25 b7 bc 3c c3 23 3d 91 8d 7a ae 66 45 a7 2f
       -0.022356907 0.039981112 -5.6969155e-11 3.0426434e-10
000140 3b c8 3b af 28 0b 9c af 5d 0b d7 2f b2 ab fd b0
       -1.7078687e-10 -2.8384162e-10 3.9116346e-10 -1.8456972e-09
000150 df cc b6 b1 3b 8c a9 3d 28 a6 67 b2 ef be c1 3a
       -5.3201883e-09 0.082787 -1.3483749e-08 0.0014781634
000160 29 03 08 b2 7c 42 ac 31 21 b2 51 af d0 c1 a1 3d
       -7.91696e-09 5.0134172e-09 -1.9071723e-10 0.07898295
000170 9d 9f 51 bc 66 0d 8d bb 34 20 86 3d 5a 6c 15 af
       -0.012794402 -0.0043045757 0.06549111 -1.3589965e-10
000180 3d be 87 3d a5 d9 4a 3d 3e 64 3f bc 30 c1 9c ac
       0.06628082 0.04952397 -0.011681614 -4.455235e-12
000190 b7 f0 81 3d 8b d1 5c 3c 70 fa d2 3d af ba 05 bd
       0.06344741 0.013477693 0.103016734 -0.03264874
0001a0 6d aa 31 3c 9c 12 f4 bd a4 6b 47 3c a7 62 d2 3d
       0.010843855 -0.11917612 0.01217166 0.10272723
0001b0 0b c7 c0 3d 78 3d f0 bc 89 e5 19 3d 7c ab d1 bd
       0.094129644 -0.029326186 0.037572417 -0.10237786
0001c0 25 a4 d6 3d e0 aa 33 3d e4 7f de 3c 43 dc 0c bd
       0.10480527 0.04386413 0.027160592 -0.034389745
0001d0 62 b1 73 3d 4d 15 96 3d 24 8f f6 3c 6e 85 35 bc
       0.059495337 0.073282816 0.030097552 -0.011079175
0001e0 e9 96 bc bb 87 c4 66 bd 0c 8a 0c be f2 7d 10 be
       -0.0057552946 -0.056339767 -0.13724536 -0.14110544
0001f0 c7 6d 90 3c f0 50 09 bc 19 95 38 bd dd 7a de 3d
       0.01763047 -0.008381113 -0.045064066 0.10863278
000200 70 d5 a1 bd 79 51 ab 3d 0a e1 6a bd 1f d1 ea 3d
       -0.07902038 0.08365149 -0.05734352 0.11465668
000210 12 a5 9b bd 9f 35 21 3d e2 82 b3 3d ed d9 a9 bd
       -0.07599844 0.039357778 0.08765198 -0.08293519
000220 bf 2b a6 bc 72 1d e0 3d b4 74 cc ba a8 1f 35 3c
       -0.020284532 0.10943116 -0.0015598745 0.011054911
000230 82 e3 44 3d c5 b2 50 3d 08 e3 d9 3b 1d f1 42 bd
       0.04806853 0.050951738 0.0066493787 -0.047593225
000240 c9 6c 1a 3d af e9 06 be ad 35 81 3c 94 24 5a bd
       0.0377014 -0.1317508 0.015772665 -0.05325754
000250 0c 75 51 3d ee 08 3a bd 01 a7 2a bd 33 4b 68 3d
       0.051137015 -0.045418672 -0.041663174 0.05671234
000260 05 c0 8c 3d ec 11 6c bb c7 a7 98 3c 2f bb 8c ab
       0.06872562 -0.0036021424 0.01863469 -9.999552e-13
000270 33 37 0f 3c a6 c6 38 bd 2c 8b 6e 3d 52 3c 87 3d
       0.008741188 -0.04511132 0.058238193 0.06603302
000280 36 a1 f0 bc a9 ab e3 32 f1 6e f5 3c ac 78 b1 3d
       -0.029373746 2.650434e-08 0.029960128 0.086655945
000290 50 32 c7 30 5e 8e 6d 2c 88 6f dd bc fb 8a 3f bc
       1.4493455e-09 3.3758755e-12 -0.027030721 -0.01169085
0002a0 11 2d 06 ae 40 42 37 bd 49 06 5e bc 5d d8 a1 30
       -3.05081e-11 -0.044740915 -0.013551303 1.1775786e-09
0002b0 3a 41 f9 b0 42 95 cc bc 6e 79 9a 3d b7 0c 15 bd
       -1.8135673e-09 -0.024973515 0.07542692 -0.03638908
0002c0 e5 11 5e 3d ee 6c a9 bd 25 b3 86 3d 9d df ab bd
       0.054216284 -0.0827273 0.06577138 -0.0839226
0002d0 4c d2 b7 bc 2b cc d2 ba a0 09 90 2e ae ef be b1
       -0.022439145 -0.0016082575 6.5500716e-11 -5.556976e-09
0002e0 fb 5d ad b2 af 59 05 2f 9c 13 aa ad bf 6b cf ad
       -2.0182588e-08 1.2128142e-10 -1.933547e-11 -2.3581024e-11
0002f0 39 e3 0f ae 99 0a 7c bd 82 b9 19 af e8 2f a8 bc
       -3.271625e-11 -0.061533544 -1.3981175e-10 -0.020530656
000300 97 51 46 2f ac 72 97 34 c2 92 32 2b 5e ad d6 3d
       1.8036982e-10 2.8209377e-07 6.344197e-13 0.10482286
000310 00 14 89 bd 46 ef 57 3c 28 ee fc 3c c2 63 d1 2c
       -0.06693268 0.013179606 0.03087528 5.9512126e-12
000320 e5 01 22 3d 29 03 87 3d 1d 90 0b bd 1f 8b d4 31
       0.039552588 0.065923996 -0.034072984 6.1858283e-09
000330 c9 52 8f 3d 73 69 eb bc 87 56 5a bc 26 07 0b bb
       0.06998212 -0.028736806 -0.013326294 -0.0021213978
000340 42 7a 43 bd f3 b5 8e 3d 53 7f 94 3d 5a fe 9b bd
       -0.047724016 0.06968298 0.07250848 -0.07616873
000350 05 05 9a 3d 15 30 4c 3d 62 33 1e 3d 77 c4 03 3e
       0.07520489 0.049850542 0.03862322 0.12867914
000360 61 bb ff 3b 20 f8 c7 bd 99 55 45 bd 31 d5 c1 3d
       0.0078043197 -0.09764123 -0.048177335 0.09464491
000370 f4 8e 72 bd ef be a8 3d 1d 52 82 3b 21 b4 c7 3d
       -0.059218362 0.08239543 0.003977074 0.09751154
000380 a8 39 29 bd 50 44 fa bc 56 3c c1 3c 03 45 be bd
       -0.04131475 -0.030550152 0.02358834 -0.09290507
000390 4f 8c 67 3d 84 72 2e bd 0f 0f 38 3d 50 10 c0 3d
       0.056530293 -0.04258968 0.044936236 0.09378111
0003a0 12 03 91 bb 05 84 99 bd 09 cd a9 3d 3f 83 f2 3d
       -0.004425415 -0.07495884 0.082910605 0.118414395
0003b0 e0 12 b7 bb c2 3c 2a bd 94 f5 23 3d 71 75 06 bd
       -0.005586967 -0.04156185 0.040029123 -0.032826845
0003c0 ff 9b 0c bd e7 22 05 3c 93 f6 ab bd e0 67 e2 3c
       -0.034328457 0.008125997 -0.0839664 0.027637422
0003d0 c0 67 be bb b6 89 b6 3d f0 06 a2 3d df 10 53 bd
       -0.005810708 0.08912985 0.079114795 -0.05152976
0003e0 b1 34 0b 3d 52 0a 8d 3d 2a 08 15 bd 36 6a 59 bd
       0.033985797 0.06886734 -0.03638474 -0.053079806
0003f0 f7 47 55 bd fe 7f 98 3d 61 84 9c 3d 9c 9b 24 bc
       -0.052070584 0.074462876 0.07642437 -0.010046866

main_network.0.bias f4 [128]
000000 26 54 34 36 99 8c 5d b7 e2 20 48 38 53 61 8f b5
       2.687107e-06 -1.3205362e-05 4.771434e-05 -1.0682655e-06
000010 d0 a5 34 36 ba c0 7f 35 6e e6 0a 37 8e 70 a7 b5
       2.6918606e-06 9.5275357e-07 8.279092e-06 -1.2475227e-06
000020 4a 6e a9 37 3b e8 84 36 1c d2 5d 37 0a e9 d9 b5
       2.0197727e-05 3.9609417e-06 1.3221546e-05 -1.6235583e-06
000030 c3 31 5f b6 55 dd 7e 34 13 42 05 36 38 47 ca 36
       -3.3258555e-06 2.3736114e-07 1.9857005e-06 6.02836e-06
000040 ce 18 ac 36 9e ef a9 b6 1b 9b 87 36 db 13 2c 36
       5.128887e-06 -5.0644876e-06 4.04137e-06 2.5641555e-06
000050 d2 df 31 37 64 f9 41 36 68 96 0b b7 5d 06 31 36
       1.0602134e-05 2.8904406e-06 -8.320065e-06 2.637876e-06
000060 c6 e9 ae b6 70 1f cc 34 dc 53 86 35 6d 3a 5c 37
       -5.212819e-06 3.8020835e-07 1.0008184e-06 1.3126625e-05
000070 af 19 66 b7 cc 25 e8 b7 d3 7f c0 37 99 02 f1 34
       -1.3715048e-05 -2.7674156e-05 2.2947706e-05 4.4891638e-07
000080 95 7a f8 36 db 2c af b7 60 b3 87 b4 36 1e 82 35
       7.4052464e-06 -2.0882513e-05 -2.5276222e-07 9.694547e-07
000090 f2 73 14 b8 f4 c3 2c b7 2b ce c9 b5 da 52 61 b7
       -3.5393932e-05 -1.0297623e-05 -1.503567e-06 -1.34303355e-05
0000a0 be 2c 29 b6 f2 28 ee 36 8c 7f af 36 0c 21 ab 37
       -2.5209006e-06 7.0977194e-06 5.230255e-06 2.0400177e-05
0000b0 4a e4 26 35 e6 1f d8 b4 68 81 9b b3 22 cd ff b6
       6.2172023e-07 -4.0256344e-07 -7.241289e-08 -7.623473e-06
0000c0 62 c7 fa b5 30 7c 6b b7 e2 ef 86 37 27 8c 6d 36
       -1.868448e-06 -1.4036006e-05 1.6085749e-05 3.5397331e-06
0000d0 0b 91 d3 34 d6 6a a2 36 e0 d7 8d b6 a5 2c 8d b7
       3.9407345e-07 4.8404136e-06 -4.2272586e-06 -1.6829299e-05
0000e0 53 71 e1 36 6e 6a 01 b6 16 df cc 37 a6 80 36 b5
       6.718715e-06 -1.9284448e-06 2.4422578e-05 -6.798749e-07
0000f0 c4 d9 9b 37 08 8b d7 b6 21 91 9f 36 a4 b1 40 b6
       1.8578845e-05 -6.4236847e-06 4.7554645e-06 -2.871363e-06
000100 53 b4 53 b7 d9 08 33 37 25 e6 c5 34 42 37 4f 35
       -1.2618565e-05 1.0671291e-05 3.6861562e-07 7.719392e-07
000110 b6 fe ef 36 ad 20 8f b6 47 5b 43 b7 12 15 0f 37
       7.1524073e-06 -4.265536e-06 -1.1644158e-05 8.52837e-06
000120 b0 14 cb 37 38 df 91 37 19 b8 72 b7 43 cd 9b b6
       2.420912e-05 1.7389291e-05 -1.4467188e-05 -4.6432556e-06
000130 79 d2 47 37 e9 27 ba 32 63 a9 24 37 25 e3 a6 35
       1.1910329e-05 2.1671399e-08 9.8146e-06 1.2434072e-06
000140 42 ed 4e b7 12 f0 c7 34 7d 2f 84 b6 59 41 97 b6
       -1.2333798e-05 3.7241313e-07 -3.939435e-06 -4.507758e-06
000150 4d ea 44 b7 ac f6 26 37 a7 b4 bf 36 d5 82 ab b6
       -1.1737063e-05 9.951804e-06 5.7132743e-06 -5.111428e-06
000160 6a 93 99 b7 40 57 12 b7 dd e2 14 36 ae 05 0b 36
       -1.8307666e-05 -8.722593e-06 2.218577e-06 2.071592e-06
000170 6e be 8a 35 38 45 00 37 b6 af 48 b8 70 86 02 36
       1.0337224e-06 7.645511e-06 -4.784736e-05 1.9449762e-06
000180 51 e0 a1 36 00 99 e4 b6 c4 ab 96 37 26 6f 9e b6
       4.8242878e-06 -6.812741e-06 1.7961378e-05 -4.7217063e-06
000190 20 f5 18 b7 63 eb 39 37 2e 31 bd 36 5b 0d 7b b6
       -9.116979e-06 1.10816645e-05 5.638364e-06 -3.7409689e-06
0001a0 23 25 42 b6 ef 7b 09 b6 79 2e d1 b7 ae 72 25 38
       -2.892987e-06 -2.048673e-06 -2.4936382e-05 3.944587e-05
0001b0 96 34 2b b6 c2 8b c3 36 d9 dc 35 b7 0d 7c 64 36
       -2.5511595e-06 5.827723e-06 -1.0839861e-05 3.4046855e-06
0001c0 8e 74 84 b7 e3 fe cc 34 4c 13 03 37 c4 2e 98 35
       -1.5789901e-05 3.8183416e-07 7.812701e-06 1.1338493e-06
0001d0 e4 23 81 36 40 e1 ba b6 03 04 a5 36 2f 94 82 b6
       3.848678e-06 -5.5694545e-06 4.91785e-06 -3.8915528e-06
0001e0 aa 0e 9d 36 3c fd 8f 37 75 a5 f2 b5 60 ee f8 36
       4.6806717e-06 1.716485e-05 -1.8078559e-06 7.4187265e-06
0001f0 38 6d 52 b6 b5 ee 7b 36 a4 e3 89 36 0e cd 5c 37
       -3.1356012e-06 3.754086e-06 4.109419e-06 1.3160765e-05

main_network.1.weight f4 [128]
000000 34 de 7c 3f d7 ae 75 3f 3e fe 74 3f f9 59 7e 3f
       0.98776555 0.9596991 0.9570044 0.9935604
000010 a6 41 6e 3f 99 6e 7b 3f 2d 8e 85 3f ad 41 81 3f
       0.9306892 0.98215634 1.0434014 1.0098168
000020 9f 78 79 3f e5 b7 7e 3f 48 22 89 3f cc 12 7f 3f
       0.9744968 0.9949935 1.0713587 0.99638057
000030 ee 4e 6f 3f 91 0b 72 3f b9 aa 81 3f ea f3 84 3f
       0.9347981 0.945489 1.0130225 1.0386937
000040 be 3f 80 3f 7c cd 81 3f 4f a2 81 3f 32 79 81 3f
       1.0019453 1.0140834 1.0127658 1.0115111
000050 e0 f0 87 3f b8 50 84 3f 77 98 7e 3f 0f 72 86 3f
       1.0620384 1.0337133 0.9945139 1.0503558
000060 f3 58 7b 3f e2 dd 79 3f 0f ec 7b 3f e5 a5 7b 3f
       0.981826 0.9760419 0.9840707 0.9830001
000070 b5 e2 77 3f d1 ec 81 3f 4f 25 7c 3f c6 44 84 3f
       0.968303 1.0150396 0.9849443 1.0333488
000080 03 78 86 3f 0a 11 84 3f 02 2b 77 3f 07 54 7b 3f
       1.0505375 1.03177 0.9655 0.9817509
000090 cb bb 85 3f ac 52 7e 3f 4d 73 86 3f 64 31 7c 3f
       1.0447935 0.993449 1.0503937 0.98512864
0000a0 23 3c 78 3f 7b 2c 7a 3f d2 6a 8a 3f 5c 90 7e 3f
       0.9696676 0.9772412 1.0813849 0.99439025
0000b0 66 2e 79 3f b4 77 85 3f 59 f4 85 3f 9c 69 85 3f
       0.97336423 1.0427155 1.0465194 1.0422854
0000c0 2f 28 75 3f 8a 19 7c 3f b1 94 7c 3f b7 ad 81 3f
       0.9576444 0.9847647 0.98664385 1.0131139
0000d0 ba 73 7b 3f ba df 80 3f 39 f8 81 3f 74 51 81 3f
       0.9822346 1.0068276 1.0153877 1.0102983
0000e0 9c 56 7d 3f d3 44 7f 3f f0 cd 7d 3f df 20 71 3f
       0.9896028 0.9971439 0.9914236 0.9419078
0000f0 49 a2 7a 3f 8d 31 80 3f 12 a1 74 3f 1e 54 80 3f
       0.9790388 1.0015122 0.95558274 1.002567
000100 73 ad 7e 3f 6c 9b 81 3f 73 ad 86 3f 4e df 78 3f
       0.9948341 1.0125556 1.0521683 0.97215736
000110 6b 3d 83 3f d4 70 76 3f c8 50 8b 3f 5e d8 81 3f
       1.0253118 0.9626591 1.0884027 1.0144155
000120 d2 56 79 3f b9 d9 86 3f e1 73 75 3f 08 44 79 3f
       0.973981 1.0535194 0.9587994 0.9736943
000130 52 f1 8b 3f f7 a0 86 3f 7a b2 87 3f e8 2b 81 3f
       1.093302 1.0517873 1.0601342 1.0091524
000140 5c 13 7b 3f b3 bf 7b 3f cc d8 77 3f 6f 5a 83 3f
       0.98076415 0.98339385 0.9681518 1.0261973
000150 29 7d 81 3f 0f b8 81 3f ea 3e 79 3f e9 18 7c 3f
       1.0116321 1.0134295 0.97361624 0.9847551
000160 f5 41 7f 3f 29 ec 82 3f f8 12 78 3f 0e 9c 7c 3f
       0.9971002 1.022832 0.96903944 0.9867562
000170 28 0f 7d 3f a0 b7 80 3f 99 d2 81 3f 00 80 72 3f
       0.9885125 1.0056038 1.0142394 0.9472656
000180 62 c5 7c 3f e4 72 83 3f 2b 77 75 3f b4 5f 7e 3f
       0.9873868 1.0269437 0.9588496 0.9936478
000190 08 d2 7c 3f 46 a7 74 3f 31 c9 84 3f 9f 67 82 3f
       0.9875798 0.9556774 1.0373899 1.0187873
0001a0 c6 94 7f 3f 3d 9d 7b 3f b5 c5 80 3f 91 d0 7b 3f
       0.99836385 0.982868 1.0060335 0.9836512
0001b0 e2 a0 81 3f fe b9 78 3f 93 db 87 3f 5a ab 71 3f
       1.0127223 0.971588 1.0613884 0.94402087
0001c0 62 c2 84 3f ef 7d 80 3f 10 49 80 3f f8 6f 73 3f
       1.0371821 1.0038432 1.0022297 0.95092726
0001d0 6c 7e 84 3f e3 f8 81 3f 3a 75 77 3f e7 7c 82 3f
       1.0351081 1.0154079 0.9666325 1.0194367
0001e0 de ff 6e 3f a0 6a 7f 3f b4 80 79 3f ea 62 77 3f
       0.9335917 0.9977207 0.9746201 0.96635306
0001f0 c6 6e 87 3f 22 f2 78 3f 15 78 7b 3f 5a 5c 80 3f
       1.058068 0.97244465 0.98230106 1.0028183

main_network.1.bias f4 [128]
000000 93 09 d5 bc 74 16 8f bc 5a fd 0a bd 1b 2c 34 3c
       -0.026005542 -0.017466761 -0.03393302 0.010996844
000010 7f d7 82 bd 10 e5 ba 3c 74 10 7e 3d b0 f0 49 3c
       -0.06388759 0.022814304 0.06202741 0.012325451
000020 60 23 94 3c 9d b6 bb bb e8 4b e3 3c e1 18 85 3c
       0.018083274 -0.0057285563 0.027746156 0.016247215
000030 fb bb 93 bd c1 80 31 bd ed 2f ff 3b b2 8e d7 bb
       -0.07213589 -0.04333568 0.0077876956 -0.00657829
000040 6e 1b bf 3c 24 c9 f9 3c 00 b9 10 3d 47 39 68 3c
       0.02332851 0.03049142 0.03533268 0.014173812
000050 23 28 f3 3c 8c 47 a7 3b 98 52 91 bc 61 3e 1b 3c
       0.029682225 0.0051049646 -0.01773958 0.0094753215
000060 06 50 8c bb 61 b1 6c bc df 21 21 bd 2c 97 01 bc
       -0.0042820005 -0.014446587 -0.039338943 -0.007909577
000070 31 bf 1c bd e3 1f 0b bd 8b 30 ff bc 37 d1 27 3b
       -0.03826827 -0.033965956 -0.031151077 0.002560688
000080 5f b4 91 3d 1d 9f 8d bc 48 ff 38 bd dd e9 33 bd
       0.07114481 -0.017287785 -0.04516533 -0.0439242
000090 70 e2 bb 3b df 04 e2 bc 37 24 04 3d a6 50 bc bb
       0.0057337806 -0.027590213 0.0322611 -0.0057469187
0000a0 0e 10 99 bc 9f 78 e8 3c eb bc ff 3c 1f fd b5 ba
       -0.018684413 0.02837783 0.031218013 -0.001388464
0000b0 db 6d 0c bd ba 42 6c 3c e4 e7 ff 3c 72 bd 0b 3d
       -0.034284454 0.014420206 0.031238504 0.034116216
0000c0 5d 80 c0 bc 91 70 54 bc f3 53 9b bc 95 20 b7 3b
       -0.023498708 -0.012966291 -0.018960929 0.005588601
0000d0 17 84 aa bc 3a ab ac 3c 92 4c 0a bc bc ce 0d bb
       -0.020814938 0.021077741 -0.008441107 -0.0021638116
0000e0 8c 8d 19 3d ee a0 10 bc 2d a2 94 3c 74 a7 40 bd
       0.037488505 -0.008827431 0.018143738 -0.047034696
0000f0 06 b6 6b bd 15 c7 4a 3d 65 fa 18 bd 23 8a c8 3b
       -0.057546638 0.049506266 -0.03734817 0.006119983
000100 e8 69 1d bd d8 1d d4 bb d5 0b cb 3c 28 02 0f bc
       -0.03843108 -0.006473284 0.024785915 -0.008728541
000110 22 bd 90 3c 2a f8 08 bd 6b b7 f9 3c e6 ef 10 3d
       0.01766831 -0.033439793 0.030482968 0.035385035
000120 91 cd 2a bd b9 7a 7f 3d 00 de 81 bc 36 ed 40 bd
       -0.04169995 0.062372897 -0.015852928 -0.047101222
000130 b7 c1 07 3d 34 e1 1d 3d 6a ae 91 3d 8a d1 4a bc
       0.033143725 0.03854485 0.07113345 -0.01237906
000140 19 f1 ba bb f9 79 13 bc 1e a0 b0 bc 9c 2f bc 3c
       -0.0057050106 -0.0090012485 -0.021560725 0.02297192
000150 6d 99 dc bb ff 21 93 bc 9e 8c 5d bd 07 44 96 bc
       -0.006732157 -0.017960547 -0.05408918 -0.018342985
000160 b3 b7 d5 bc 6b 22 80 bc bd 43 05 3c c0 e2 79 bc
       -0.026088571 -0.015641412 0.008133826 -0.015251815
000170 3e 93 3a bc 81 00 b6 3b e7 c8 89 3c e4 c3 11 bd
       -0.011387644 0.0055542593 0.01681943 -0.035587206
000180 24 57 61 bd 71 75 c0 3c 73 97 bc bc 93 9c 2e 3c
       -0.055014744 0.0234935 -0.023021435 0.010657447
000190 f3 c8 c8 bb c5 7c 3a bd 7c fa 5a 3c ba 30 6c bc
       -0.0061274706 -0.045529146 0.013365384 -0.014415914
0001a0 67 c7 e0 bc da f7 00 bd 22 09 6d 3c 51 df 06 3b
       -0.027438832 -0.03148637 0.014467509 0.0020579884
0001b0 e9 b5 32 bc c7 4f dd bc e7 b5 a0 3c 4f c2 3f bd
       -0.010907629 -0.02701558 0.019617988 -0.046816166
0001c0 2e ae 8f bc e6 af e5 bb ab 5e 9a bc f2 50 d2 bc
       -0.01753911 -0.007009494 -0.01884397 -0.025673363
0001d0 72 8b a6 3c 04 e7 f6 bc 54 c6 e4 bc 12 2a ca 3c
       0.020330165 -0.030139454 -0.027926601 0.024678264
0001e0 16 09 88 bd 18 d5 e0 ba a8 82 98 bc 01 ff 1a 3c
       -0.06642358 -0.0017153351 -0.01861699 0.009460212
0001f0 eb 49 fb bb 0c 9b 16 bd 0e 46 34 bd d8 dd 87 3b
       -0.007668724 -0.036768958 -0.04401212 0.004146319

main_network.1.running_mean f4 [128]
000000 69 73 04 3e 24 2c b6 bd 87 45 96 3c f9 5e ad 3c
       0.1293465 -0.08895138 0.0183437 0.02116345
000010 04 fb 92 3b f8 74 9c bd d4 5b af 3d 61 5b 26 bd
       0.00448549 -0.076394975 0.08562437 -0.04061449
000020 a3 60 33 3c 6f c1 46 3a d5 7a 8d 3d 69 73 04 be
       0.010948333 0.00075819244 0.06908194 -0.1293465
000030 a4 03 f5 3d fd 9b 7f bd 74 44 f5 bc 44 a1 93 3d
       0.11963585 -0.06240462 -0.029939868 0.07208493
000040 d0 f0 89 3d dd 7a 6f 3d ac b8 89 3d 25 63 9a 3d
       0.067353845 0.05846678 0.067246765 0.075384416
000050 ac 63 64 3c 9b a9 04 3e e1 9e 05 3d 60 db 95 3b
       0.013939779 0.12955324 0.03262222 0.0045732707
000060 b5 a6 0a bd c0 5f 34 3d e2 9f c0 bb 1e 25 36 ba
       -0.03385039 0.044036627 -0.0058784345 -0.000694828
000070 84 34 0c be c2 b3 81 bc 7a 00 75 ba de 7b 49 3d
       -0.13691908 -0.015832786 -0.00093460793 0.049190395
000080 7a 55 2f 3d 6d 6a 99 3d 1a 40 75 bd 00 08 9c 3d
       0.042806126 0.07491002 -0.059875585 0.076187134
000090 e2 53 e0 bd e0 eb 73 3d e3 55 e4 ba 7b 20 8c 3d
       -0.109534994 0.05955112 -0.0017420616 0.06842133
0000a0 5a 26 e2 bd 50 21 5a 3d 5a ba 06 3e c3 04 a9 3d
       -0.11042471 0.053254426 0.13157025 0.08252861
0000b0 0f 6a b1 3c ae af a0 3c 4b 62 26 3e ba 66 2f ba
       0.021657018 0.01961502 0.16248433 -0.00066910277
0000c0 8a 64 27 bd 1d 47 20 3d 6d 31 15 3d 5e 80 c6 3c
       -0.040867366 0.03913032 0.03642409 0.024231132
0000d0 ca 87 6a 3d b7 33 c9 3d 11 21 83 bc d8 a7 bb 3b
       0.057258405 0.09824317 -0.016006978 0.0057267956
0000e0 3c c6 05 3d 22 bf af 3d 3b bd 83 bc 75 fb cb 3d
       0.032659754 0.085813776 -0.016081443 0.09960071
0000f0 23 9f e1 bd 9f 3e b6 bd 4a 94 4a 3d 7f 09 14 bc
       -0.11016681 -0.08898663 0.049457826 -0.009035467
000100 cc 24 01 3d 19 d1 b1 bd 4d 56 a4 3d 22 0b 8c 3d
       0.031529233 -0.0868246 0.08024273 0.06838061
000110 fb 39 84 bc 08 16 19 b9 86 d8 d4 3c 8d a0 71 3d
       -0.016140928 -0.00014599424 0.025982153 0.058991004
000120 02 1c fd bd fd 3c 8c bb 54 c8 4c 3d c0 4d f5 3d
       -0.12358858 -0.0042797313 0.049995735 0.1197772
000130 b7 7f be 3d 97 74 ac 3c 5c e2 44 3d c5 68 86 bc
       0.093017034 0.021051688 0.048067436 -0.01640738
000140 83 74 25 bd 25 cd 98 bc df 37 6d 3d 56 1c 5c 3d
       -0.040394317 -0.018652508 0.05791461 0.05373796
000150 ff 60 a6 bd fa e1 03 3c 90 4c 74 bd 80 3c 29 3c
       -0.08123969 0.0080494825 -0.05964333 0.010329366
000160 03 71 9f ba f4 6a 95 3d ae 1d 26 bc b9 42 db 3d
       -0.0012164417 0.0729579 -0.010138912 0.10706086
000170 21 a3 d2 3c b9 59 90 3d 0f 0b 19 3d 0d 75 bd bc
       0.025712552 0.07048363 0.037364062 -0.023127103
000180 e0 a6 f1 bc d1 f0 9c 3d 82 24 94 bc 73 cc e9 bd
       -0.029498518 0.076631196 -0.018083815 -0.11415949
000190 c5 b0 e2 bc 50 8f 45 3d a2 f8 5c 3d 11 a2 0c be
       -0.02767218 0.048232377 0.053948052 -0.13733698
0001a0 46 fa 05 3c 5c a8 ae 3d d3 74 45 3e 23 5b ac 3d
       0.008177346 0.08528206 0.19282846 0.084158204
0001b0 c5 64 e9 3c c2 4b 98 3c 30 67 75 bd ec f8 bd bc
       0.028490433 0.018590812 -0.05991286 -0.023189984
0001c0 cc 55 a1 3d 7e 10 92 3d ce d9 53 bb 9e 4c a0 3d
       0.078776926 0.07132052 -0.0032325867 0.078271136
0001d0 24 1d 9c 3d fa a0 2e bd a3 a4 c7 3c c0 ad 35 bd
       0.07622746 -0.042633988 0.024370497 -0.044355154
0001e0 ac fd a9 3d c5 bf 94 bb 75 02 74 bd e8 2b 2d bd
       0.08300337 -0.0045394623 -0.059572656 -0.0422782
0001f0 4d db 18 3d ba 34 9b bd 0a e3 0a 3e 31 63 e1 3b
       0.037318517 -0.07578416 0.13563171 0.0068782796

main_network.1.running_var f4 [128]
000000 3f e8 3d 3f 88 50 27 3e 53 9c d2 3d a4 51 e4 3e
       0.74182504 0.16339314 0.10283723 0.44593537
000010 41 03 a3 3e 4b 4f b8 3e 48 d5 a3 3e e2 a8 cc 3e
       0.3183842 0.35997996 0.31998658 0.39972597
000020 f0 58 25 3e eb e9 86 3e 38 97 d2 3e fa 43 6c 3d
       0.16147208 0.2635034 0.41130996 0.057682015
000030 ce 28 1d 3e cd 70 bf 3e 14 b8 33 3e e5 fd 33 3e
       0.15347597 0.37390748 0.17550689 0.17577322
000040 41 ea 28 3f b2 1f 60 3e f4 e1 d5 3e bb 8a 17 3f
       0.65982443 0.21887091 0.4177395 0.5919606
000050 ff c2 17 3e 77 d4 b6 3e ce 2d 14 3e 71 05 3e 3f
       0.14820479 0.35708973 0.14470598 0.7422705
000060 a9 4a 90 3e 3a 09 ac 3e da 46 c0 3e 0f 19 0b 3e
       0.2818196 0.3360079 0.37554055 0.13583778
000070 5b 1d d4 3d c7 1a e3 3d ec 49 11 3f dd 5d cd 3e
       0.103571616 0.11089092 0.5675342 0.40110675
000080 28 47 dd 3e 0d c6 00 3e 76 e0 59 3e 80 77 43 3e
       0.4321835 0.1257555 0.21277031 0.19088554
000090 c7 df 06 3e 20 cb 29 3e b4 be da 3e 2f dc 02 3e
       0.13171302 0.16581392 0.4272362 0.12779306
0000a0 06 08 1e 3f 3f cc 88 3e 9c a9 2b 3f 3f 26 c9 3e
       0.6173099 0.26718327 0.6705568 0.39286992
0000b0 8d 31 41 3e 74 6e e4 3e 33 cd 26 3f 1b d9 dd 3e
       0.18866558 0.4461552 0.6515686 0.433297
0000c0 30 94 4f 3e fa 3a 1e 3e e8 80 ec 3d 94 24 a3 3e
       0.20271373 0.15452185 0.115480244 0.31863844
0000d0 b2 f4 64 3e ae 65 c0 3e b6 ce 73 3e 92 a1 2d 3f
       0.22358969 0.37577575 0.23809323 0.6782466
0000e0 1f 2d 30 3e 63 c2 e3 3e 9f 6a a2 3d e5 77 10 3f
       0.17204712 0.44484243 0.079304926 0.56432945
0000f0 7d bb a9 3d 22 c5 91 3e 7b dd c4 3e 61 e8 82 3e
       0.08287714 0.28470713 0.38450226 0.25567916
000100 a0 95 88 3e 7a 25 a6 3d 3e c2 2e 3f f6 30 f7 3d
       0.26676655 0.08112617 0.6826514 0.120698854
000110 9f d5 f2 3e 62 79 28 3e a4 4f 91 3f 62 93 a3 3d
       0.47428605 0.16452554 1.1352429 0.079870954
000120 1e e3 03 3e 2d 6d 15 3f 7e 9a 02 3f 58 80 ac 3e
       0.12879607 0.58369714 0.51016986 0.3369167
000130 bd 03 e4 3e d4 10 11 3f 06 4e 28 3f e3 b3 09 3f
       0.44534102 0.566663 0.65744054 0.5379011
000140 cd a2 08 3d 7d e3 d4 3d e9 a4 38 3e 73 0e 66 3e
       0.033358384 0.103949524 0.18031658 0.2246645
000150 fa 6b 2d 3d 2f 76 1d 3f a6 38 37 3f 2a 1a 41 3e
       0.042339303 0.6150846 0.71570814 0.18857637
000160 4b 14 c2 3e da d4 a3 3e f0 ae ed 3e 9d 7c 03 3f
       0.37906107 0.3199833 0.4642253 0.5136202
000170 30 7b 8a 3d 04 14 01 3f dc 6f 52 3e 3b 89 1d 3f
       0.067617774 0.50421166 0.20550483 0.6153752
000180 87 63 e0 3e 88 b3 17 3f 43 44 07 3f 3b 8c ac 3e
       0.43825933 0.5925832 0.52838534 0.33700737
000190 31 e4 0e 3e 0b 62 71 3e 33 33 d6 3d 64 a4 5f 3e
       0.13954236 0.23572557 0.10458984 0.21840054
0001a0 7a 85 6d 3f df 74 b6 3e 75 2a 16 3f 2c e2 d7 3d
       0.92781794 0.3563604 0.58658534 0.10541186
0001b0 46 3c 3c 3e 9d 4f 41 3e 66 1b ba 3e 94 79 d7 3e
       0.18382367 0.18878026 0.36349028 0.42084944
0001c0 88 ab fa 3e fe 54 ac 3e 7d d9 6a 3e 78 5b 5c 3e
       0.48958993 0.33658594 0.22934528 0.21519268
0001d0 38 77 47 3e 10 c3 54 3e 9c b4 92 3e 30 66 b2 3e
       0.19479072 0.20777535 0.2865342 0.34843588
0001e0 7d 15 9e 3e ee 98 52 3e 2c 8a e8 3e 45 5e 88 3e
       0.3087577 0.2056615 0.45417917 0.26634422
0001f0 9e 89 71 3e b5 e7 e2 3d c2 da 22 3e 76 95 2d 3e
       0.23587653 0.11079351 0.15903762 0.16951546
