MLP/best_model_resnet44.pth (torch, 120949 bytes, 47 tensors)

model_embedding.weight f4 [32, 12]
0	0xbc5c729d	-0.01345506
1	0x3e57ce8e	0.21074888
2	0xbd8b08c8	-0.06788784
3	0x3e1655ae	0.14681122
4	0x3d40b644	0.047048822
5	0x3bcc002b	0.006225606
6	0xbe7f744b	-0.24946706
7	0x3e008cc8	0.12553704
8	0xbc665612	-0.014058607
9	0xbe348b1f	-0.17631195
10	0xbdcba2ed	-0.09943185
11	0x3e6acdec	0.22930115
12	0xbe892195	-0.26783434
13	0x3e0c601d	0.1370854
14	0xbd41125c	-0.04713665
15	0xbe8abec9	-0.27098683
16	0xbced845c	-0.028993778
17	0x3d223383	0.039599907
18	0x3d39783e	0.045280688
19	0xbe750e59	-0.23931254
20	0xbbabb0a3	-0.0052395626
21	0xbe4d5253	-0.20050935
22	0xbe04eb39	-0.12980355
23	0xbd87c2be	-0.06628941
24	0x3c09aa96	0.008402487
25	0xbe5b2bd5	-0.2140344
26	0x3dfd4324	0.12366322
27	0x3dcd69e1	0.100299604
28	0xbe86d5cb	-0.26334986
29	0x3e2590ba	0.1616849
30	0xbda90ee8	-0.08254796
31	0xbdb707f2	-0.08937062
32	0xae0a1917	-3.139985e-11
33	0xbde7d7e8	-0.11320478
34	0xbde9b4db	-0.114114486
35	0x3e0d2bb2	0.137862
36	0xbe0846a3	-0.13308196
37	0x3dd776e2	0.10520722
38	0x3e37cec3	0.17949967
39	0xbe8ac33e	-0.27102083
40	0xbcd728ae	-0.026264515
41	0xbe2e0890	-0.16995454
42	0xbd44f2f7	-0.04808327
43	0xbe0c8243	-0.13721566
44	0xba93c2bc	-0.0011273245
45	0x3e062816	0.13101229
46	0xbd9c6825	-0.076370515
47	0xbdddae70	-0.10824287
48	0xbcde397d	-0.027127022
49	0xbe3d45a5	-0.18483599
50	0xbe6de809	-0.23233046
51	0x3da0659c	0.078318805
52	0x3e9e316b	0.30897078
53	0x3e607c9f	0.21922539
54	0x3ddb6298	0.10712165
55	0xbe875e0e	-0.26438946
56	0x3807029f	3.218895e-05
57	0xbe6b32ca	-0.22968593
58	0xbe3a7dbe	-0.1821203
59	0xbe67f6d0	-0.22652745
60	0xbe994c3f	-0.29940984
61	0xbdb5ab95	-0.08870617
62	0x3e18d426	0.14924678
63	0x3e14c1d0	0.14527059
64	0xbe9e4ab8	-0.3091638
65	0x3dea0f28	0.11428672
66	0xbe8a27d7	-0.2698352
67	0x3db5498b	0.08851918
68	0x3b2aae4d	0.0026043833
69	0xbe165df6	-0.14684281
70	0x3c08d277	0.00835096
71	0xbdcf8596	-0.10132901
72	0x3e3e350f	0.18574928
73	0xbe44a46b	-0.19203345
74	0x3e9f7c83	0.31149682
75	0xbdc45872	-0.09587182
76	0xbdd6dca7	-0.10491305
77	0x3d4fd403	0.0507393
78	0x3e42f8fd	0.19040294
79	0x3e102112	0.14075115
80	0xb228daf5	-9.828672e-09
81	0xbe480c7c	-0.19536012
82	0x3cfe6d5a	0.031058002
83	0x3e2a3ce7	0.16624795
84	0xbe07371e	-0.1320462
85	0xbd34abf7	-0.04410931
86	0xbe15f255	-0.14643224
87	0x3c1b9e2c	0.00949816
88	0x3e77e29a	0.24207535
89	0xbdbf4e23	-0.09341075
90	0xbe801ccc	-0.2502197
91	0xbd31b5ec	-0.043386385
92	0x3b4d492a	0.0031324127
93	0xbdc37ace	-0.095449075
94	0x3dcbba9e	0.09947704
95	0xbcb5718a	-0.022148866
96	0xbdca54d8	-0.09879464
97	0x3d3c0d1b	0.045910936
98	0xbb88f780	-0.004179895
99	0x3dbab8c3	0.09117272
100	0x3e9165b1	0.28397897
101	0xbcd045e9	-0.02542396
102	0xbe9a64a5	-0.3015491
103	0xbe2861ce	-0.1644356
104	0xbc265956	-0.010153135
105	0xbe542042	-0.2071543
106	0x3ba26237	0.004955556
107	0x3ce0e22a	0.027451593
108	0xbd37e71c	-0.044898137
109	0xbd39696d	-0.045266557
110	0xbe7eecc4	-0.24895006
111	0xbe37d66f	-0.17952894
112	0xbdc84a33	-0.097797774
113	0x3c87f53e	0.016596433
114	0xbce0d155	-0.027443567
115	0x3dfcb0b5	0.12338392
116	0x2a754de4	2.1787395e-13
117	0x3e569b61	0.2095771
118	0xbe88e288	-0.2673533
119	0xbdb91340	-0.09036875
120	0xbdb6f41b	-0.08933278
121	0xbe0a72b8	-0.13520324
122	0x3e08912a	0.13336626
123	0xbe39324f	-0.18085597
124	0xbe83e996	-0.2576415
125	0x3d5651fa	0.052324273
126	0xbe384f9c	-0.17999119
127	0xbe36d624	-0.17855126
128	0x3b9d4101	0.004799009
129	0xbc5fb9f3	-0.013655174
130	0xbe96a38a	-0.29421645
131	0xbd520f00	-0.051283836
132	0x3e65108b	0.22369592
133	0x3e8c00e4	0.2734443
134	0x3df43909	0.11924941
135	0xbe16359f	-0.14668892
136	0xbe112afd	-0.14176555
137	0x3d3269f9	0.043558095
138	0x3e6a243d	0.22865386
139	0xbc3f7f01	-0.011687995
140	0xb976e66b	-0.00023546226
141	0xbdab2ce5	-0.08358172
142	0x3e4663fe	0.19374081
143	0x3e8af8b6	0.27142876
144	0xbe7cc3c8	-0.2468406
145	0xbe51cac7	-0.2048751
146	0xbd074540	-0.033025026
147	0x3e4b5ea7	0.19860326
148	0xbe1d7d36	-0.15379795
149	0x3e5de267	0.21668397
150	0xbe112a0f	-0.141762
151	0xbe4ebe35	-0.20189746
152	0x27b24988	4.9484647e-15
153	0xbe5d9462	-0.21638635
154	0xbc91cd28	-0.017798021
155	0xbe662c09	-0.22477736
156	0x3e2801ea	0.1640698
157	0xbe7786bb	-0.2417249
158	0x3e8ec011	0.2788091
159	0xbd811a97	-0.063039
160	0x3e831e92	0.2560926
161	0xbe033456	-0.12812933
162	0xbdd5fed4	-0.10448995
163	0x3e12629f	0.14295433
164	0x3b5ec8d3	0.0033994212
165	0xbe963ab2	-0.29341656
166	0x3e5497dd	0.20761056
167	0x3e2f71fd	0.17133327
168	0x3e88d5b6	0.26725549
169	0xbe845c74	-0.25851786
170	0xbd95ef22	-0.073210016
171	0xbdd1814b	-0.10229739
172	0x3e765204	0.24054724
173	0x3c1c8e6c	0.00955544
174	0x3e5f8310	0.2182734
175	0xbe993f14	-0.29930937
176	0x2857f2a3	1.1987511e-14
177	0xbcbd92bd	-0.02314126
178	0xbe60b337	-0.21943365
179	0x3e32ab77	0.17448221
180	0xbe002c61	-0.12516929
181	0x3e4aabc3	0.19792084
182	0xbdd68c48	-0.10475975
183	0x3d260b4b	0.040538114
184	0xbd9770b3	-0.073945425
185	0x3d8b3753	0.06797662
186	0xbdff7d20	-0.124750376
187	0x3e32bc1a	0.17454568
188	0x3b18e7f8	0.0023331624
189	0xbe21854c	-0.15773505
190	0x3e3c1088	0.18365681
191	0x3cdfada8	0.027304485
192	0x3dfb457e	0.12269114
193	0x3e670218	0.22559392
194	0xbdaa0ba0	-0.083029985
195	0xbdb119a8	-0.08647472
196	0x3e9c2cae	0.30502838
197	0xbe71aaa6	-0.23600253
198	0xbe03a57a	-0.12856093
199	0x3db8f058	0.09030217
200	0x27473ab0	2.7648612e-15
201	0xbe941ab3	-0.2892662
202	0x3e03257c	0.12807268
203	0xbe56e989	-0.20987524
204	0xbe0f058a	-0.13966957
205	0x3e74ff81	0.23925592
206	0xbe9014af	-0.2814078
207	0x3e38204c	0.1798107
208	0x3e29b1b6	0.16571698
209	0x3e155c79	0.14586057
210	0xbdaa0517	-0.08301752
211	0xbdef3a5f	-0.11681055
212	0x2fd774ef	3.9191358e-10
213	0x3e4ef3a5	0.2021013
214	0x3da2adb2	0.07943286
215	0x3e7900cc	0.2431671
216	0x3e3242e5	0.1740833
217	0x3db4c4df	0.08826613
218	0x3e1b8614	0.15187865
219	0x3e26428a	0.1623632
220	0xbea266c7	-0.31719038
221	0x3d67e0d7	0.05661091
222	0x3e2d11f5	0.16901381
223	0xbe918af1	-0.28426316
224	0x357b3e0f	9.3595094e-07
225	0xbd53a919	-0.051674936
226	0xbdb7da9c	-0.08977243
227	0xbe2c63fc	-0.16835016
228	0xbdff7506	-0.12473492
229	0xbe791827	-0.2432562
230	0xbc3fcdfc	-0.011706825
231	0x3ddc22aa	0.10748799
232	0x3dc922b4	0.09821072
233	0xbe43997f	-0.19101523
234	0x3e9188da	0.28424722
235	0x3da1e288	0.079045355
236	0xb940377d	-0.00018331218
237	0x3d202159	0.039094303
238	0x3e6600a9	0.2246119
239	0x3d02d0c1	0.031937364
240	0xbdb97bba	-0.09056802
241	0xbe083d3a	-0.13304606
242	0xbea067cc	-0.3132919
243	0x3d4bfdba	0.04980252
244	0xbce1d065	-0.02756519
245	0xbe5797f4	-0.2105406
246	0xbc848a13	-0.01617912
247	0xbe9f95af	-0.31168887
248	0xbc447e80	-0.011993051
249	0x3df099cf	0.11748087
250	0x3e78a454	0.24281436
251	0xbd017f38	-0.031615466
252	0xbe2baf1f	-0.16766022
253	0xbdce9388	-0.10086733
254	0xbdc79c6b	-0.09746631
255	0xbdf53649	-0.11973245

model_embedding.bias f4 [32]
0	0xb7077c70	-8.0756e-06
1	0xb7fe5207	-3.0317357e-05
2	0xbaca8f03	-0.0015453998
3	0x3612f743	2.189962e-06
4	0x36ac6b60	5.1384995e-06
5	0xbad28ab7	-0.0016063069
6	0xbad1a922	-0.001599584
7	0x3bb49441	0.0055108373
8	0x3c84b825	0.016201088
9	0x33983d41	7.0891936e-08
10	0xb8e90af4	-0.00011112346
11	0x3bf7ee4d	0.0075662495
12	0xb784f75f	-1.5850817e-05
13	0xb6504c3f	-3.1038796e-06
14	0x39964e2b	0.0002866847
15	0xb6f0e24f	-7.178903e-06
16	0xba3ba7fa	-0.00071585143
17	0xb56cdc3a	-8.8237323e-07
18	0x36c415d3	5.843796e-06
19	0x3c3c3ee2	0.011489602
20	0xbc87f9ff	-0.0165987
21	0x3712c704	8.748615e-06
22	0x3c218020	0.009857208
23	0xb80eabe9	-3.4015542e-05
24	0x3b48cbd5	0.0030639071
25	0x3a70d9e4	0.00091877417
26	0xb7146d64	-8.846957e-06
27	0xb68786fc	-4.0390278e-06
28	0xb5d57024	-1.5902374e-06
29	0xbab034a8	-0.0013443427
30	0x3ae40358	0.0017396016
31	0x395249d4	0.00020054664

dataset_embedding.weight f4 [16, 3]
0	0xbefd14e6	-0.49430007
1	0x3f0f1b29	0.5590082
2	0x3f04037e	0.5156783
3	0x3e827393	0.254788
4	0xbe14cc4c	-0.14531058
5	0x3eb4d0ec	0.35315645
6	0x3d4160e7	0.047211554
7	0x3e798a8d	0.24369259
8	0xbedeb128	-0.43494534
9	0xbe8f63af	-0.2800574
10	0x3e957eb9	0.29198244
11	0x3ec6a81e	0.38800138
12	0xbf18811e	-0.5957202
13	0x3da76690	0.08173859
14	0x3e326730	0.17422175
15	0xbe9dfc6d	-0.30856648
16	0x3e80232f	0.25026843
17	0xbee7b6e8	-0.45256734
18	0x3f207bf3	0.6268913
19	0x3e1508d9	0.14554156
20	0x3d23b287	0.03996518
21	0xbe8e6ddd	-0.27818194
22	0x3f02b9b0	0.51064587
23	0x3f153a93	0.582925
24	0x3e541972	0.20712832
25	0xbc11a3ee	-0.008889182
26	0x3f0c4ed4	0.5480778
27	0xbf17cdc2	-0.59298337
28	0x3e7b99fb	0.24570458
29	0x3e571b62	0.2100654
30	0xbeb88718	-0.36040568
31	0xbbe000c2	-0.006836028
32	0xbe0cf40f	-0.13764976
33	0xbec8d52c	-0.39225137
34	0x3cf8b3f1	0.03035924
35	0x3c69a364	0.014260147
36	0x3eb1cab9	0.34724978
37	0x3e8cc22a	0.27491885
38	0x3de067d4	0.10957304
39	0xbec43774	-0.38323557
40	0x3e69b788	0.22823918
41	0x3d888705	0.06666378
42	0xbe7b93c1	-0.24568082
43	0xbf12e1fa	-0.5737606
44	0xbec4e42f	-0.3845534
45	0x3eebc09d	0.4604539
46	0xbef460e1	-0.47730163
47	0xbeeae4ec	-0.4587778

dataset_embedding.bias f4 [16]
0	0x3e136f5f	0.14397953
1	0x36920fd3	4.3529813e-06
2	0xbdb72091	-0.089417584
3	0xbcb9063d	-0.022585982
4	0x3c40098e	0.011721028
5	0x3cedeb18	0.029042765
6	0xb69e7fa4	-4.7236263e-06
7	0xbe3c215b	-0.18372099
8	0x391df420	0.0001506363
9	0xbe2ca661	-0.16860344
10	0xbafc71e8	-0.0019260021
11	0xbe040e3f	-0.1289606
12	0xbe09fe5e	-0.1347594
13	0x382f66c2	4.1818952e-05
14	0x3b5e9b01	0.0033966901
15	0x361dbdfd	2.350541e-06

tensor_network.0.weight f4 [16, 1]
0	0xbd6e7f31	-0.058226768
1	0xbeb1235a	-0.34597284
2	0xbe46a42c	-0.19398564
3	0x3e46ea6e	0.19425365
4	0x3e5e5c08	0.21714795
5	0x3e0bed51	0.13664748
6	0xbdfe783d	-0.124252774
7	0x3d9d3122	0.07675387
8	0x3e91a0c9	0.28442982
9	0x3dbd5f33	0.092466734
10	0x3deb7612	0.114971295
11	0xbf14e85a	-0.5816704
12	0xbeb447be	-0.35210985
13	0xbf0d7d89	-0.55269676
14	0x3da420f9	0.080141015
15	0x3e0fc102	0.1403847

tensor_network.0.bias f4 [16]
0	0xbeba231c	-0.3635491
1	0xba9bca1f	-0.0011885798
2	0xbf153737	-0.58287376
3	0xb785c163	-1.5944888e-05
4	0x3acb3ec7	0.001550638
5	0xbf233940	-0.6375923
6	0x3f0a3b85	0.5399707
7	0x3c121252	0.008915501
8	0xbf48f7aa	-0.78502905
9	0x3f12cec2	0.5734674
10	0x3ea63105	0.32459274
11	0x3f42701c	0.75952315
12	0x3f5fd566	0.87434995
13	0xaf26d9e5	-1.5175024e-10
14	0x3e39da1a	0.18149605
15	0xbf6535ec	-0.89535403

tensor_network.2.weight f4 [16]
0	0x3f15b9ac	0.5848644
1	0x3f15b9ac	0.5848644
2	0x3f15b9ac	0.5848644
3	0x3f8278e6	1.0193145
4	0x3f857007	1.0424813
5	0x3f769094	0.9631436
6	0x3f884d97	1.0648679
7	0x3f8166b1	1.0109464
8	0x3f810d02	1.0082095
9	0x3f8828ac	1.0637412
10	0x3f840030	1.0312557
11	0x3f86ada7	1.0521744
12	0x3f8603c6	1.0469902
13	0x3f15b9ac	0.5848644
14	0x3f81706d	1.0112435
15	0x3f80b4e2	1.0055201

tensor_network.2.bias f4 [16]
0	0xa83c7400	-1.046125e-14
1	0x2998ff6a	6.794463e-14
2	0x29b051a0	7.83013e-14
3	0xb80d6fbc	-3.372108e-05
4	0x37ec27e4	2.8151968e-05
5	0x371f091e	9.479261e-06
6	0x3820b6f0	3.8317346e-05
7	0x380261e4	3.1085583e-05
8	0xb856523f	-5.1098174e-05
9	0x36127b37	2.1827416e-06
10	0x383d8521	4.5185097e-05
11	0xb7a90f81	-2.015359e-05
12	0x37353513	1.0800798e-05
13	0xa892999c	-1.6275874e-14
14	0xb7928c02	-1.7469752e-05
15	0xb5dac34d	-1.6299106e-06

tensor_network.2.running_mean f4 [16]
0	0x00000000	0.0
1	0x00000000	0.0
2	0x00000000	0.0
3	0x3f30849d	0.6895235
4	0x3f4592f2	0.77177346
5	0x3d85a6b6	0.06525938
6	0x3e31bc11	0.17356898
7	0x3e8f7b03	0.28023538
8	0x3ebb8033	0.36621246
9	0x3f673364	0.9031279
10	0x3f3bc020	0.73340034
11	0x3cdc2f1d	0.026877934
12	0x3e08e7ba	0.13369647
13	0x00000000	0.0
14	0x3eeeb606	0.46623248
15	0x3ca06906	0.01958133

tensor_network.2.running_var f4 [16]
0	0x1756216b	6.918931e-25
1	0x1756216b	6.918931e-25
2	0x1756216b	6.918931e-25
3	0x3e3a3e8c	0.18187922
4	0x3e68575c	0.22689575
5	0x3ca46765	0.020068834
6	0x3cd87e96	0.026427548
7	0x3ce646b3	0.028109884
8	0x3e7a1d8c	0.24425334
9	0x3d2840a1	0.04107726
10	0x3d81d5ee	0.06339632
11	0x3bdbf38c	0.0067123827
12	0x3d1016dc	0.03517805
13	0x1756216b	6.918931e-25
14	0x3cfb8f83	0.03070808
15	0x3b862b80	0.004094541

worker_network.0.weight f4 [16, 1]
0	0x3e2d0267	0.16895448
1	0x3e5dd5fb	0.21663658
2	0xbee7b162	-0.4525252
3	0x3dd37c7e	0.103264794
4	0xbe8cd287	-0.2750437
5	0x3e028b22	0.12748387
6	0xbd962b0e	-0.07332431
7	0xbc53c93e	-0.012926398
8	0x3f150618	0.58212423
9	0x3eb5060e	0.35356182
10	0xbf09904e	-0.53735816
11	0x3e8fc696	0.28081197
12	0xbeddbce4	-0.43308175
13	0x3d13eb0e	0.036112837
14	0xbc271bf8	-0.010199539
15	0xbe63ae63	-0.22234492

worker_network.0.bias f4 [16]
0	0xbea95215	-0.33070436
1	0x3ef43f19	0.4770439
2	0xbee36706	-0.44414538
3	0x3dbdaf42	0.092619434
4	0xbe501137	-0.20319067
5	0x3f089f2c	0.53367877
6	0xbda609ca	-0.08107336
7	0x2d8bf49a	1.5911095e-11
8	0xbe42e62e	-0.19033119
9	0xbed6602c	-0.41870248
10	0x3f02f6a0	0.5115757
11	0xbf0ca6f4	-0.5494225
12	0xad5605be	-1.2165767e-11
13	0x3eb73398	0.3578155
14	0xb1cd684c	-5.9781424e-09
15	0x3ec84b51	0.39119962

worker_network.2.weight f4 [16]
0	0x3f7c08f9	0.9845119
1	0x3f81f815	1.0153834
2	0x3f15b9ac	0.5848644
3	0x3f803c3e	1.0018384
4	0x3f15b9ac	0.5848644
5	0x3f813e8f	1.0097216
6	0x3f15b9ac	0.5848644
7	0x3f15b9ac	0.5848644
8	0x3f80ad71	1.005293
9	0x3f81860e	1.0119035
10	0x3f15b9ac	0.5848644
11	0x3f7a0c76	0.97675264
12	0x3f15b9ac	0.5848644
13	0x3f7c0c75	0.9845651
14	0x3f15b9ac	0.5848644
15	0x3f15adc2	0.5846826

worker_network.2.bias f4 [16]
0	0xb782968b	-1.556731e-05
1	0xb8382716	-4.390542e-05
2	0x27b99874	5.1513105e-15
3	0xb66ceb0c	-3.5303556e-06
4	0xa916a309	-3.34481e-14
5	0xb84b5c3b	-4.8484868e-05
6	0x28dc64a0	2.4468546e-14
7	0xa921a130	-3.588899e-14
8	0x375ba3a8	1.3091521e-05
9	0xb702c541	-7.794531e-06
10	0xa9e337f9	-1.0090535e-13
11	0xb7bd70a7	-2.2583014e-05
12	0xa99c04ba	-6.9286116e-14
13	0x375854d8	1.28943575e-05
14	0x299e2c07	7.024247e-14
15	0x34e5cf0c	4.280522e-07

worker_network.2.running_mean f4 [16]
0	0x3ee9e347	0.4568121
1	0x3fbf66bf	1.4953231
2	0x00000000	0.0
3	0x3f13dc48	0.57758
4	0x00000000	0.0
5	0x3f916939	1.1360236
6	0x00000000	0.0
7	0x00000000	0.0
8	0x4021f7c4	2.5307474
9	0x3f9e2719	1.2355682
10	0x00000000	0.0
11	0x3f43df2e	0.7651242
12	0x00000000	0.0
13	0x3f07bd0a	0.53022826
14	0x00000000	0.0
15	0x2928a667	3.7447825e-14

worker_network.2.running_var f4 [16]
0	0x3e3cce29	0.18438019
1	0x3e9d3cc0	0.3071041
2	0x1756216b	6.918931e-25
3	0x3d8e92ae	0.06961571
4	0x1756216b	6.918931e-25
5	0x3ddb7a25	0.107166566
6	0x1756216b	6.918931e-25
7	0x1756216b	6.918931e-25
8	0x400d05c6	2.2034774
9	0x3f50b9eb	0.8153369
10	0x1756216b	6.918931e-25
11	0x3f03e604	0.5152285
12	0x1756216b	6.918931e-25
13	0x3c0ddbbc	0.008658346
14	0x1756216b	6.918931e-25
15	0x206cc33d	2.0054576e-19

batch_network.0.weight f4 [16, 1]
0	0x3db87364	0.09006384
1	0xbeab2188	-0.3342402
2	0xbd23d6bd	-0.039999712
3	0xbf01575f	-0.5052394
4	0x3da4371d	0.080183245
5	0x3e674618	0.22585332
6	0x3e906211	0.2819982
7	0x3db2cea5	0.087308206
8	0x2e59b349	4.9499325e-11
9	0xa5c93ef1	-3.4910593e-16
10	0xbe17607c	-0.147829
11	0x3e64e8f5	0.22354491
12	0x3cb6e656	0.02232663
13	0x3eb8444e	0.35989612
14	0x3d2c89c3	0.042123567
15	0xbe183b4d	-0.14866371

batch_network.0.bias f4 [16]
0	0x36a6791e	4.9612854e-06
1	0x3f491575	0.78548366
2	0x3e56a826	0.20962581
3	0xbd2f92d1	-0.042864624
4	0x3e1164c8	0.14198601
5	0x3f13502e	0.5754422
6	0xbee7f36e	-0.4530291
7	0xbdee02ae	-0.11621605
8	0xbea44e20	-0.32090855
9	0xbde36f25	-0.111051835
10	0x3f3625fa	0.711517
11	0xb7919f3d	-1.7359498e-05
12	0x3f0b9bb3	0.54534453
13	0xbf3d844f	-0.7403001
14	0xbc9370d8	-0.017998144
15	0x3f6b5d16	0.9193891

batch_network.2.weight f4 [16]
0	0x3f77205b	0.96533746
1	0x3f80c889	1.0061198
2	0x3f78a390	0.97124577
3	0x3f15b9ac	0.5848644
4	0x3f700868	0.93762827
5	0x3f71b6bd	0.9441946
6	0x3f75a579	0.95955616
7	0x3f76f32e	0.9646481
8	0x3f15b9ac	0.5848644
9	0x3f15b9ac	0.5848644
10	0x3f71fe55	0.94528705
11	0x3f7a7c72	0.9784614
12	0x3f730632	0.9493133
13	0x3f75ddc0	0.9604149
14	0x3f778e28	0.9670129
15	0x3f723f0c	0.9462745

batch_network.2.bias f4 [16]
0	0xb7e0f3ee	-2.681647e-05
1	0x37a37e34	1.9489882e-05
2	0x37a4f910	1.9666302e-05
3	0x29161250	3.3322574e-14
4	0xb7907339	-1.7219792e-05
5	0xb678ebf9	-3.7092234e-06
6	0xb6dd0c74	-6.587763e-06
7	0x37af9c38	2.093437e-05
8	0x28bd7750	2.1034959e-14
9	0x29e1dbde	1.0030148e-13
10	0x3473d81c	2.2709759e-07
11	0xb6aa4953	-5.074931e-06
12	0xb7224009	-9.670862e-06
13	0xb798924c	-1.8187937e-05
14	0xb819ff2e	-3.6715697e-05
15	0xb72e3522	-1.0383579e-05

batch_network.2.running_mean f4 [16]
0	0x3f1e7abe	0.6190604
1	0x3b402c8e	0.0029323432
2	0x3c2715a0	0.010198027
3	0x00000000	0.0
4	0x3f31bef0	0.6943197
5	0x4008c5d2	2.137074
6	0x3fbebe94	1.490191
7	0x3ef874d3	0.4852663
8	0x00000000	0.0
9	0x00000000	0.0
10	0x3cee59ef	0.029095618
11	0x3fc57f8b	1.5429548
12	0x3f336af7	0.7008509
13	0x3fdd3274	1.7281022
14	0x3e8ed872	0.2789951
15	0x3d8dee05	0.06930164

batch_network.2.running_var f4 [16]
0	0x3cfb6d2c	0.030691706
1	0x3988e81a	0.0002611287
2	0x3a741d5a	0.0009312235
3	0x1756216b	6.918931e-25
4	0x3cc7447b	0.024324646
5	0x3e4789b6	0.19486126
6	0x3e9b2997	0.30305168
7	0x3cee5050	0.02909103
8	0x1756216b	6.918931e-25
9	0x1756216b	6.918931e-25
10	0x3c101bbb	0.008795674
11	0x3e434965	0.19070967
12	0x3af78dbf	0.0018886848
13	0x3ef9d909	0.48798397
14	0x3be86a4e	0.0070927506
15	0x3cc5311c	0.024071269

ps_network.0.weight f4 [8, 1]
0	0xbd098913	-0.03357799
1	0xbe6407a5	-0.22268541
2	0xbce065b7	-0.027392251
3	0xbe89d590	-0.26920748
4	0xbe89d087	-0.26916906
5	0xbdef8614	-0.11695495
6	0x3e79d7a1	0.24398662
7	0xbeefebf1	-0.46859697

ps_network.0.bias f4 [8]
0	0x3d4dc290	0.050234377
1	0xbf009651	-0.50229365
2	0xb59a90cd	-1.1516037e-06
3	0xbdc41dfd	-0.09576032
4	0xbe984ae9	-0.29744652
5	0x3e575cde	0.2103152
6	0x3d095cd4	0.033535793
7	0x3c8bc5b1	0.01706204

ps_network.2.weight f4 [8]
0	0x3f7119b9	0.94179875
1	0x3f15b9ac	0.5848644
2	0x3f15b9ac	0.5848644
3	0x3f15b9ac	0.5848644
4	0x3f15b9ac	0.5848644
5	0x3f7559bf	0.95840067
6	0x3f6e9151	0.93190485
7	0x3f49ab56	0.7877706

ps_network.2.bias f4 [8]
0	0x36377016	2.7334368e-06
1	0xa8224206	-9.007123e-15
2	0x29a506e4	7.328667e-14
3	0xa85108df	-1.1603754e-14
4	0xa9921ec2	-6.489038e-14
5	0x37b5dc25	2.1679394e-05
6	0x365eea58	3.3216984e-06
7	0x36ab6a5a	5.108578e-06

ps_network.2.running_mean f4 [8]
0	0x3ce1ccad	0.027563417
1	0x00000000	0.0
2	0x00000000	0.0
3	0x00000000	0.0
4	0x00000000	0.0
5	0x3dec2514	0.115305096
6	0x3f0d666f	0.55234426
7	0x3c190ad1	0.009340958

ps_network.2.running_var f4 [8]
0	0x3a2a450a	0.0006495273
1	0x1756216b	6.918931e-25
2	0x1756216b	6.918931e-25
3	0x1756216b	6.918931e-25
4	0x1756216b	6.918931e-25
5	0x3c3a3cb5	0.011367013
6	0x3f0035ac	0.50081897
7	0x389c6318	7.457117e-05

main_network.0.weight f4 [128, 104]
0	0x3da92d82	0.08260633
1	0x3c060ae7	0.00818131
2	0x3c42c88a	0.011888633
3	0x3cf2964f	0.029612688
4	0xbd5ad80c	-0.053428695
5	0xbda04e24	-0.07827404
6	0x3da2944c	0.07938442
7	0x3de24b05	0.11049465
8	0x3dd89dea	0.10576995
9	0x3d51a693	0.05118425
10	0xbcbc61b9	-0.022995817
11	0xbd634d79	-0.055493806
12	0x3d2868b2	0.04111547
13	0x3dc2ebdf	0.09517645
14	0x3dc6045b	0.096687995
15	0x3d37ac2f	0.04484194
16	0xbba431f3	-0.005010837
17	0x3d18753f	0.03722119
18	0xbd6dd9f5	-0.05806919
19	0xbda42550	-0.08014929
20	0xbd20c7a3	-0.03925289
21	0xbda538b7	-0.08067458
22	0x3c4f1e3c	0.012641486
23	0xba929dfa	-0.0011185997
24	0x3d8953fd	0.067054726
25	0x3d0deb2e	0.034648113
26	0x3ddfd56c	0.10929379
27	0xbcd352d2	-0.025796328
28	0xbdc3d071	-0.095612414
29	0x3c825de1	0.015913906
30	0xbd3bf405	-0.045887012
31	0xbc64b3e8	-0.013958909
32	0x3dd57bef	0.10424029
33	0xbdf25b9e	-0.11833881
34	0xbc81b577	-0.0158336
35	0xbd02c3ea	-0.03192512
36	0x3d1ce3c6	0.03830316
37	0x3d63d578	0.0556235
38	0x3d325d71	0.043546144
39	0x3d494042	0.049133547
40	0xbd029f5d	-0.031890262
41	0x3a449788	0.00074993866
42	0xbd99ca32	-0.07509269
43	0x3d858283	0.06519034
44	0xbc2b2fa5	-0.010448371
45	0xbcacb67f	-0.021083115
46	0x3cb468aa	0.022022564
47	0xbd5cdd9b	-0.053922277
48	0x28177964	8.408506e-15
49	0x280c2483	7.779478e-15
50	0xad452248	-1.12057655e-11
51	0xbda7cf62	-0.08193852
52	0xbd824cb8	-0.06362289
53	0x3d43db9b	0.047816854
54	0xbd45fbc3	-0.0483358
55	0x3dcad646	0.09904151
56	0xbc793c8a	-0.015212188
57	0x3d904b5f	0.07045626
58	0xbd2f9ad1	-0.042872254
59	0x3d19b29c	0.03752385
60	0x3cb53e57	0.022124453
61	0xa682865b	-9.056979e-16
62	0xbc3144f7	-0.010819665
63	0xbd5d5e2a	-0.05404488
64	0xbd0d999d	-0.034570325
65	0xbd151836	-0.036400042
66	0xa7e8d4a2	-6.4623472e-15
67	0x3d7c614b	0.061616223
68	0xaccf290b	-5.8878505e-12
69	0x3ddbdafe	0.10735129
70	0xb00c7988	-5.110441e-10
71	0x289e36f8	1.7565363e-14
72	0x3dfe6041	0.12420703
73	0x3cb85521	0.02250153
74	0xa7bc2a6e	-5.2226485e-15
75	0xbd806c70	-0.06270683
76	0xab3d411b	-6.723664e-13
77	0x3da4992f	0.0803703
78	0x286f949b	1.3299389e-14
79	0xbb099ffa	-0.0020999894
80	0x3d2890e6	0.04115381
81	0x3d14a1b2	0.036287017
82	0xbd7b92d9	-0.06141934
83	0xa7709581	-3.3387737e-15
84	0x3da187a0	0.078871965
85	0xbd7333e8	-0.059375674
86	0x3c33f24c	0.010983061
87	0x3dcb165d	0.09916375
88	0x2a9ed82c	2.8216437e-13
89	0x281a6549	8.57068e-15
90	0xbcdf5f32	-0.027267072
91	0x3dc4aa92	0.09602846
92	0xbd0252d4	-0.031817272
93	0xbd854008	-0.065063536
94	0x3d96e9cd	0.07368813
95	0xbd03d6f4	-0.032187417
96	0xbd88b7a0	-0.06675649
97	0x27d60033	5.9397148e-15
98	0xaa39e484	-1.6510583e-13
99	0x2af6d6a0	4.3847304e-13
100	0x261dc9ee	5.4743983e-16
101	0x3d8c2f49	0.068449564
102	0x3d98500b	0.07437142
103	0x3ce4da34	0.027936079
104	0x3c8d0e56	0.01721875
105	0xbd3f2fde	-0.04667651
106	0xbbdde4c2	-0.006771655
107	0xbdc2051b	-0.0947363
108	0x3da7c355	0.081915535
109	0x3cf14175	0.029450158
110	0x3d04a8e9	0.032387648
111	0x3a97dd8e	0.0011586414
112	0x3d0db59f	0.034597035
113	0x3bd9a588	0.0066420473
114	0xbd8fda87	-0.07024103
115	0x3d9247b3	0.07142582
116	0xbe04ab19	-0.12955894
117	0xbd85cea5	-0.06533555
118	0x3dbf1820	0.09330773
119	0xbc144ad9	-0.009051048
120	0x3dd9efeb	0.10641464
121	0x3da52c3a	0.08065076
122	0xbdc23a99	-0.09483833
123	0xbd4ccb3c	-0.049998507
124	0xbd39b52f	-0.045338806
125	0x3d34532d	0.044024635
126	0x3b700b2c	0.0036627753
127	0xbda517bb	-0.08061167
128	0xbd04f6f9	-0.032462094
129	0xbd144e45	-0.036207456
130	0xbd81058b	-0.06299885
131	0xbb920bbb	-0.004456965
132	0x3caec1d0	0.021332651
133	0xbd1c7d92	-0.03820569
134	0x3cf70c5a	0.030157257
135	0xbdb9a3eb	-0.09064468
136	0x3cb3a669	0.021929936
137	0xbdc8ca7d	-0.098042466
138	0x3be84c54	0.007089177
139	0x3db087a6	0.08619623
140	0x3d940748	0.07227951
141	0x3d61ca13	0.055124354
142	0x3cbf6016	0.023361247
143	0x3d4c0f08	0.049819022
144	0x3d25a6f0	0.040442407
145	0x3db0246c	0.08600697
146	0xbdaf2a2b	-0.08552965
147	0x3d417f6b	0.047240656
148	0x3d6f0fff	0.058364864
149	0xbd74cb77	-0.05976435
150	0x3cca49d9	0.024693416
151	0xbd5d6ade	-0.054056995
152	0xa6de254f	-1.5414457e-15
153	0x2815d279	8.3168005e-15
154	0xaea70f55	-7.597004e-11
155	0xbc1996ba	-0.009374315
156	0x3d6de9ee	0.05808442
157	0xbd94a237	-0.072575025
158	0x3dcb3356	0.09921901
159	0x3b69a02b	0.0035648446
160	0xbd4f59e9	-0.050622854
161	0x3c5a60f4	0.0133287795
162	0x3c9370f5	0.017998198
163	0xbdcab6fc	-0.09898183
164	0xbc57ebad	-0.013178748
165	0xa7236aee	-2.267876e-15
166	0x3cb94db0	0.022620052
167	0x3d3bf21e	0.045885198
168	0xbc9c6e78	-0.019095644
169	0x3dd0ce33	0.101955794
170	0x28b3f3db	1.9978748e-14
171	0xbd802a32	-0.06258048
172	0xab218e07	-5.7395793e-13
173	0x3d193fda	0.03741441
174	0x2e108959	3.28638e-11
175	0x270dd130	1.9681082e-15
176	0x3dba0dfa	0.09084697
177	0xbbb689c0	-0.0055706203
178	0xa968e1b8	-5.1710128e-14
179	0xbd812f14	-0.063078076
180	0xaea0f8a6	-7.3201264e-11
181	0xbd40d5f1	-0.04707903
182	0xaadae4de	-3.8883388e-13
183	0x3b51d483	0.0032017536
184	0xbc937b8b	-0.018003246
185	0xbde05f3c	-0.109556645
186	0xbd47aa68	-0.048746496
187	0x2e1e9aab	3.6062413e-11
188	0x3d48456e	0.04889434
189	0x3d0bceef	0.034132894
190	0x3dc8e1e1	0.09808708
191	0x3dffe505	0.12494854
192	0xa919ea18	-3.417587e-14
193	0xa7f33ca6	-6.7511804e-15
194	0xbd340726	-0.04395213
195	0xbc21fda3	-0.009887132
196	0x3c0e9abb	0.008703883
197	0x3d406fb4	0.04698153
198	0x3df73e5d	0.12072442
199	0x3cf01812	0.029308353
200	0x3d488987	0.04895928
201	0x29e391b7	1.01061026e-13
202	0x2d646afd	1.2984056e-11
203	0x291b2048	3.4444913e-14
204	0xa8e2a6a8	-2.5163316e-14
205	0x3dfc8fbb	0.12332102
206	0xb88be3d1	-6.6704706e-05
207	0x3d774e09	0.060377154
208	0x3c34ae91	0.011027948
209	0xbbf20e86	-0.0073869852
210	0xbd3a8787	-0.045539405
211	0x3db99963	0.09062459
212	0xbdc4cb19	-0.0960905
213	0x3dc8cc91	0.09804643
214	0x3e0b2725	0.13589151
215	0xbd02c5c6	-0.031926893
216	0x3d5e8f1c	0.0543357
217	0xbdc5825c	-0.09644005
218	0x3d35c705	0.044379253
219	0xbc60ff48	-0.013732739
220	0x3ce1bf02	0.0275569
221	0xbd08d183	-0.03340293
222	0x3d21e20a	0.03952221
223	0x3bd97bb1	0.0066370596
224	0x3ccaf7bc	0.024776332
225	0xbb6f7254	-0.003653665
226	0xbd317d6a	-0.043332495
227	0x3d10512e	0.03523367
228	0x3d319c3d	0.04336189
229	0xbd752ba8	-0.059856087
230	0x3d3b8430	0.04578036
231	0x3ca92f5e	0.02065247
232	0x3d8971d4	0.06711164
233	0x3d070c11	0.03297049
234	0x3af88993	0.0018961899
235	0xbd110b93	-0.03541143
236	0x3cef7782	0.02923179
237	0x3d3b31b3	0.045701694
238	0x3b9ebaf3	0.0048440634
239	0x3dd4a8ab	0.10383733
240	0x3d655395	0.055987913
241	0x3d898311	0.06714452
242	0x3db14667	0.08656006
243	0xbe0666de	-0.13125178
244	0xbd7a2434	-0.061069682
245	0x3c926b95	0.017873565
246	0x3dc2fcb9	0.09520859
247	0xbdd85841	-0.10563708
248	0x3da09af1	0.07842053
249	0xbdeac631	-0.11463583
250	0xbd61aba8	-0.055095345
251	0xbcec4b99	-0.028844642
252	0x3da1c89e	0.07899593
253	0xbd90cd26	-0.07070379
254	0x3d989cff	0.0745182
255	0x3bd925ee	0.006626836

main_network.0.bias f4 [128]
0	0xb6c587bb	-5.8868586e-06
1	0x35b72a4f	1.3646876e-06
2	0xb465ba5c	-2.1395084e-07
3	0xb5edf321	-1.7728636e-06
4	0xb61ba105	-2.3190526e-06
5	0x359f3307	1.1861274e-06
6	0xb6452eec	-2.93826e-06
7	0x371217ab	8.707789e-06
8	0x368d981b	4.219835e-06
9	0xb58d1067	-1.0510092e-06
10	0x3483496a	2.4454067e-07
11	0xb5bd3419	-1.409676e-06
12	0x369e237f	4.712899e-06
13	0xb6d14b97	-6.237485e-06
14	0x368630ad	3.999178e-06
15	0x37e82cfb	2.76775e-05
16	0xb682f5bb	-3.9029087e-06
17	0xb6e89015	-6.930912e-06
18	0xb5eca300	-1.763081e-06
19	0xb690aa15	-4.3113346e-06
20	0xb50b46d5	-5.188461e-07
21	0x37e2c906	2.7034908e-05
22	0xb57d0214	-9.425287e-07
23	0xb7763cd8	-1.4676909e-05
24	0x35a9a835	1.2640436e-06
25	0xb66fb0b7	-3.5716637e-06
26	0xb5260170	-6.184191e-07
27	0x35c016d8	1.4311763e-06
28	0x36210165	2.3991681e-06
29	0xb6181d96	-2.2666986e-06
30	0x3663753d	3.3893878e-06
31	0x372e48cb	1.0388157e-05
32	0xb6eddb0e	-7.0886517e-06
33	0xb679bef5	-3.7215043e-06
34	0xb4753e5e	-2.2840092e-07
35	0x35eda1af	1.7704932e-06
36	0x37790a69	1.484398e-05
37	0x36b1c31d	5.2977252e-06
38	0xb5b1d806	-1.3250399e-06
39	0xb6de4750	-6.6244174e-06
40	0xb5da5c2f	-1.6269095e-06
41	0xb6d2be87	-6.280668e-06
42	0x36bba0ec	5.591768e-06
43	0x36036f02	1.9585136e-06
44	0xb558a12a	-8.0700795e-07
45	0x35959d70	1.1147185e-06
46	0x36516332	3.1201166e-06
47	0x3580a2b2	9.584094e-07
48	0x36b09c2b	5.263389e-06
49	0xb62390bf	-2.4373146e-06
50	0xb6846529	-3.945683e-06
51	0x368bbce6	4.1645135e-06
52	0xb5540a7e	-7.899142e-07
53	0xb6c456a8	-5.8513433e-06
54	0x3773cecb	1.4532076e-05
55	0x35deabb4	1.6590261e-06
56	0xb619c5c5	-2.2913894e-06
57	0x36cf055d	6.169705e-06
58	0x34d278b6	3.9203377e-07
59	0xb5b712a4	-1.3639988e-06
60	0xb5f6268c	-1.8339647e-06
61	0xb5a62b7d	-1.238062e-06
62	0xb6e8c432	-6.936979e-06
63	0xb6b75a86	-5.4643633e-06
64	0xb6d0f0de	-6.2269237e-06
65	0x351ca39d	5.835262e-07
66	0x35a916ae	1.2598082e-06
67	0xb75fc643	-1.3337997e-05
68	0x36d278c2	6.2725458e-06
69	0x359a949a	1.1517143e-06
70	0xb4ab80e0	-3.1945e-07
71	0x36881b18	4.05627e-06
72	0xb5b14582	-1.3207757e-06
73	0xb5ab35ca	-1.2756147e-06
74	0xb78aec11	-1.6560809e-05
75	0xb6b5ed41	-5.4218403e-06
76	0xb65a0f1b	-3.2493324e-06
77	0xb5eee95e	-1.7800301e-06
78	0xb6390cec	-2.757467e-06
79	0x33773391	5.755607e-08
80	0xb69c1703	-4.651841e-06
81	0xb586e698	-1.005089e-06
82	0x355fb579	8.333805e-07
83	0xb6e11d5a	-6.7089395e-06
84	0x3703ae67	7.848815e-06
85	0x35ed13ae	1.7663604e-06
86	0x36a3c598	4.8807815e-06
87	0x36fe9bc9	7.5879257e-06
88	0xb672fca8	-3.6207875e-06
89	0x36d7c28c	6.4301476e-06
90	0xb7a0e0cd	-1.9178167e-05
91	0xb5de444e	-1.6560168e-06
92	0x360a1696	2.057675e-06
93	0xb6db0888	-6.5277018e-06
94	0x35024d5a	4.8541335e-07
95	0x36e88855	6.93001e-06
96	0xb5e2f31e	-1.6909069e-06
97	0x372041c3	9.5520545e-06
98	0xb4f0b198	-4.48327e-07
99	0xb511dba8	-5.433635e-07
100	0x37d3cc63	2.5248335e-05
101	0x370495c6	7.902685e-06
102	0xb612649e	-2.1814262e-06
103	0xb786e279	-1.6079504e-05
104	0xb75d51ed	-1.3191701e-05
105	0x35e2b6b2	1.6891483e-06
106	0xb6e6af3c	-6.874934e-06
107	0xb7ae24a7	-2.0759484e-05
108	0xb716118d	-8.944783e-06
109	0x36381868	2.7432343e-06
110	0xb694ddf1	-4.436581e-06
111	0xb5d34913	-1.5741992e-06
112	0x36bd60aa	5.643892e-06
113	0xb6faffe2	-7.4803693e-06
114	0xb718e4de	-9.113193e-06
115	0x371497ba	8.856814e-06
116	0x3668af3f	3.46727e-06
117	0xb526be50	-6.211676e-07
118	0x3685d416	3.988399e-06
119	0x36000b6a	1.908013e-06
120	0xb5a480a6	-1.2256394e-06
121	0xb52abf03	-6.3607894e-07
122	0xb52f2407	-6.5245007e-07
123	0xb6dfe351	-6.672381e-06
124	0xb6cf82fa	-6.1843284e-06
125	0x36fd92f8	7.557097e-06
126	0xb6982921	-4.534741e-06
127	0xb6a0f9d4	-4.7974554e-06

main_network.1.weight f4 [128]
0	0x3f765899	0.9622894
1	0x3f7c380f	0.9852304
2	0x3f77002b	0.9648463
3	0x3f7f14bc	0.99641013
4	0x3f76de33	0.964328
5	0x3f76b3b8	0.9636798
6	0x3f750785	0.957146
7	0x3f819481	1.0123445
8	0x3f8b13bf	1.0865401
9	0x3f87a5a0	1.059742
10	0x3f7f4e20	0.99728584
11	0x3f834fde	1.0258749
12	0x3f778008	0.96679735
13	0x3f87cbf7	1.060912
14	0x3f7ab5c6	0.97933614
15	0x3f816cae	1.0111291
16	0x3f74b037	0.9558138
17	0x3f70f44b	0.9412276
18	0x3f7c2cc0	0.98505783
19	0x3f7c177d	0.9847334
20	0x3f78cde3	0.9718916
21	0x3f828d85	1.0199438
22	0x3f8198d2	1.0124762
23	0x3f856a36	1.0423038
24	0x3f815a2a	1.0105641
25	0x3f7ba417	0.98297256
26	0x3f7838ae	0.96961486
27	0x3f78bae4	0.9716017
28	0x3f823cb8	1.017478
29	0x3f7ee282	0.99564373
30	0x3f7b5d2a	0.9818903
31	0x3f865e41	1.0497514
32	0x3f863c1d	1.0487095
33	0x3f725349	0.94658333
34	0x3f86df07	1.0536813
35	0x3f821a66	1.0164306
36	0x3f84bafa	1.0369561
37	0x3f7eb741	0.99498373
38	0x3f6f79c1	0.93545157
39	0x3f7ba38a	0.98296416
40	0x3f7dac97	0.99091476
41	0x3f7eeee9	0.995833
42	0x3f83a922	1.028599
43	0x3f774e1d	0.96603566
44	0x3f8098dc	1.0046649
45	0x3f8064aa	1.003072
46	0x3f7f086a	0.99622214
47	0x3f75d33f	0.9602546
48	0x3f84d8e3	1.0378689
49	0x3f77e460	0.9683285
50	0x3f84b0a9	1.0366412
51	0x3f806260	1.0030022
52	0x3f7d5458	0.98956823
53	0x3f82c22d	1.0215508
54	0x3f7ba3a8	0.98296595
55	0x3f81fdd7	1.0155591
56	0x3f8614af	1.0475062
57	0x3f7a6ee0	0.9782543
58	0x3f8373c8	1.0269709
59	0x3f79454c	0.97371364
60	0x3f7d3f36	0.9892458
61	0x3f8197cc	1.012445
62	0x3f7f56be	0.99741733
63	0x3f86524b	1.0493864
64	0x3f77e9f6	0.9684137
65	0x3f7cb6b7	0.987163
66	0x3f799970	0.9749975
67	0x3f80d874	1.0066056
68	0x3f7b6eaa	0.98215735
69	0x3f7f9168	0.9983125
70	0x3f791f73	0.9731361
71	0x3f7d41ed	0.9892872
72	0x3f71226b	0.9419314
73	0x3f7777ab	0.96666974
74	0x3f7e7fcf	0.9941377
75	0x3f83e1ba	1.0303261
76	0x3f811c31	1.0086728
77	0x3f824220	1.017643
78	0x3f7b8cfe	0.9826201
79	0x3f799cb3	0.9750473
80	0x3f8620fc	1.0478816
81	0x3f8269c2	1.0188525
82	0x3f819526	1.0123641
83	0x3f80ff55	1.0077921
84	0x3f8027c9	1.0012141
85	0x3f7b4c32	0.9816314
86	0x3f8546d6	1.0412242
87	0x3f7d4b5b	0.9894311
88	0x3f7ac1cb	0.97951955
89	0x3f716956	0.94301355
90	0x3f7ebb7e	0.9950484
91	0x3f7b49ef	0.9815969
92	0x3f775edf	0.96629137
93	0x3f7922f3	0.97318953
94	0x3f83da57	1.0301007
95	0x3f7ccf4f	0.9875383
96	0x3f801f9f	1.000965
97	0x3f81d763	1.0143856
98	0x3f7c27c1	0.9849816
99	0x3f74f822	0.9569112
100	0x3f8123c8	1.0089045
101	0x3f801662	1.0006831
102	0x3f73b19d	0.9519289
103	0x3f7f8a42	0.9982034
104	0x3f855831	1.0417539
105	0x3f791c96	0.97309244
106	0x3f75e7e9	0.9605699
107	0x3f8599dc	1.0437579
108	0x3f84d0ec	1.0376258
109	0x3f7d2707	0.98887676
110	0x3f85a18a	1.0439923
111	0x3f7e4dee	0.9933766
112	0x3f737382	0.95098126
113	0x3f86a9c7	1.0520562
114	0x3f802e0a	1.001405
115	0x3f7b64bd	0.9820059
116	0x3f82f4f6	1.0231006
117	0x3f7b274e	0.9810685
118	0x3f76edbe	0.96456516
119	0x3f7bacdd	0.98310643
120	0x3f8137dc	1.0095172
121	0x3f86e8a3	1.0539745
122	0x3f857a8b	1.0428022
123	0x3f81ed5a	1.0150559
124	0x3f80f284	1.007401
125	0x3f7c1a9d	0.9847811
126	0x3f80aa2f	1.0051936
127	0x3f7a10cf	0.976819

main_network.1.bias f4 [128]
0	0xbcc47b86	-0.023984682
1	0x3cb19244	0.02167619
2	0xbcdbecc0	-0.02684629
3	0xbcde9b57	-0.027173681
4	0xbc90df74	-0.017684676
5	0xbcc91248	-0.02454485
6	0xbcc2adac	-0.023764454
7	0x3cb5bf53	0.022185957
8	0x3d1f9691	0.03896195
9	0x3d548820	0.05188763
10	0x3d1d7191	0.038438383
11	0xbcd30d17	-0.025763078
12	0xbd0a279d	-0.033729184
13	0x3d617c05	0.055049915
14	0xbac72aed	-0.0015195288
15	0x3cc169c7	0.023610009
16	0xbd3532b0	-0.044237792
17	0xbc28c8d3	-0.0103017865
18	0x3c1f56fa	0.009725327
19	0xbccfbbfb	-0.02535819
20	0x3b1cac6a	0.0023906478
21	0xbcded8c2	-0.027202968
22	0xbc0e7108	-0.008693941
23	0x3c029508	0.007970102
24	0x3d904ccf	0.070459
25	0x3cca2efc	0.024680607
26	0xbc8e67a9	-0.017383413
27	0x3ce9c2f7	0.02853535
28	0x3c45bc5a	0.012068832
29	0xbc935aab	-0.01798757
30	0xbb5e3b88	-0.0033909995
31	0x3d971c9b	0.07378503
32	0x3ccd7c19	0.025083588
33	0xbd75cdfa	-0.060010888
34	0x3c999052	0.018745575
35	0xbce679fc	-0.028134339
36	0x3b888be3	0.0041670664
37	0xbc763e9d	-0.015029577
38	0xbd051dc0	-0.032499075
39	0xbbd94677	-0.0066307145
40	0x3cb56816	0.022144359
41	0x3c76e4ac	0.015069168
42	0x3c9f1207	0.019417776
43	0xbc8043d0	-0.015657336
44	0xbbe28af3	-0.0069135367
45	0xbbf0f363	-0.0073532327
46	0x3bdd229e	0.0067485115
47	0xbbdecdde	-0.0067994436
48	0x3c99379f	0.01870328
49	0xbd2fad67	-0.04288998
50	0xbb2bfad9	-0.0026242046
51	0x3c8ab5cf	0.016932396
52	0x3c1611e9	0.009159544
53	0xba824a9e	-0.000994045
54	0x3bb538dc	0.00553046
55	0x3d59cbf7	0.05317303
56	0x3cdf8290	0.027283937
57	0xbc0c1208	-0.008549221
58	0xbc245e9b	-0.010032321
59	0x3b87d8fe	0.0041457405
60	0x3c75c9e8	0.0150017515
61	0x3c64e248	0.013969965
62	0x3c98aa4f	0.018635897
63	0x3d62ec1c	0.055400953
64	0x3adec913	0.0016997181
65	0x3cdac3fb	0.026704779
66	0xbc48edd0	-0.01226373
67	0x3cc7966a	0.024363715
68	0x3bbbee56	0.005735199
69	0xbd1ef1ec	-0.038804933
70	0xbcde8a73	-0.027165627
71	0x3cd7a8f8	0.026325688
72	0xbd16b8b8	-0.036797255
73	0xbc660a6d	-0.014040572
74	0x3b7417c6	0.0037245615
75	0x3cb3c2a7	0.021943403
76	0x3c13352b	0.008984844
77	0x3b5df90f	0.0033870374
78	0xbbfe329d	-0.0077574984
79	0xbcdc288b	-0.026874801
80	0x3c5d18e0	0.0134947
81	0x3d573715	0.052542765
82	0x3d002d61	0.031293277
83	0x3d042b94	0.03226812
84	0x3c59644f	0.013268544
85	0x3cd60170	0.026123732
86	0x3d8e9ea3	0.06963851
87	0xbca1385f	-0.0196802
88	0xbcc503a8	-0.024049595
89	0xbd235604	-0.039876953
90	0x3c2afd3d	0.010436353
91	0x3d62dc9e	0.05538618
92	0xbd11378b	-0.03545336
93	0xbd51a814	-0.051185682
94	0x3d008ab2	0.03138227
95	0xbc49ac74	-0.012309182
96	0x3a8383db	0.0010033803
97	0xbc3c19c1	-0.01148075
98	0xbcbf7e8d	-0.023375774
99	0xbd0ea92e	-0.03482931
100	0xbc946eb5	-0.018119195
101	0x3b50df79	0.0031871481
102	0xbd0bbe17	-0.03411683
103	0xbc5f4982	-0.0136283655
104	0x3ccc0419	0.024904298
105	0xbc59af23	-0.013286385
106	0xbc43e04e	-0.011955334
107	0x3d1ba296	0.03799685
108	0x3c85a10b	0.016312143
109	0x3bd97e2b	0.006637355
110	0x3b8dc47e	0.004326402
111	0xbc848ea2	-0.016181294
112	0xbc945d05	-0.018110761
113	0x3d298333	0.041384887
114	0xbcb2d728	-0.02183111
115	0xbc57e183	-0.013176325
116	0xbd17a778	-0.037024945
117	0xbbc25e25	-0.005931633
118	0xbc4d9926	-0.01254872
119	0xbbcf6018	-0.006328594
120	0xbd2165d8	-0.039403766
121	0x3da11a74	0.07866374
122	0xbb9573f4	-0.004560942
123	0x3d1d009c	0.03833066
124	0x3b2ebd92	0.0026663286
125	0x3d429896	0.0475088
126	0xbbf88e79	-0.0075853434
127	0xbc2dbac1	-0.010603608

main_network.1.running_mean f4 [128]
0	0xbc6839ab	-0.014173905
1	0x3b3e91ce	0.0029078606
2	0x3e08c52f	0.1335647
3	0x3c9f9d2a	0.019484121
4	0xbdb66555	-0.08906046
5	0xbdd85fec	-0.10565171
6	0xbd3197dc	-0.043357715
7	0x3d76db1e	0.06026756
8	0x3d696c41	0.056988005
9	0x3df13f07	0.117796
10	0xbc373fd1	-0.011184649
11	0x3de46ebf	0.11153936
12	0x3d8b4131	0.06799544
13	0xbd08b162	-0.03337229
14	0xbd4b1efb	-0.049590092
15	0xbd407189	-0.046983276
16	0x3dd3aff5	0.103362955
17	0xbd4c7df1	-0.049924795
18	0xbd989293	-0.07449832
19	0xbdbf4874	-0.09339991
20	0x3a0d8b41	0.00053994736
21	0xbd160601	-0.03662682
22	0x3d177d8d	0.03698497
23	0x3bda28de	0.006657704
24	0x3be8718f	0.0070936154
25	0xbcda802f	-0.02667245
26	0x3dd2d95b	0.102953635
27	0xbd3865a1	-0.045018796
28	0x3da1b70b	0.07896241
29	0x3dc5fb51	0.096670754
30	0x3d5a85aa	0.05335013
31	0xbad15820	-0.0015971698
32	0x3d90387a	0.07042022
33	0x3ced79ac	0.028988682
34	0x3da907f5	0.08253471
35	0xbc92f570	-0.0179393
36	0x3df1d7b2	0.11808719
37	0x3c057037	0.00814443
38	0xbc85fea8	-0.016356781
39	0x3db7f63a	0.08982511
40	0x3e0b6ad3	0.13614969
41	0xbe0dcfdc	-0.13848823
42	0x3ca13e59	0.01968305
43	0x3bea8e7d	0.007158099
44	0x3dcaedee	0.09908663
45	0xba6c0d32	-0.0009004652
46	0x3d00f9b2	0.031488128
47	0x3aab2e49	0.0013060059
48	0xbc4ecf9d	-0.012622741
49	0x3da9b4e3	0.082864545
50	0x3c4f2fd6	0.012645682
51	0x3cd7ee1d	0.026358658
52	0x3cd88aa4	0.026433297
53	0xbd413fb9	-0.04717991
54	0x3daa66fd	0.08320425
55	0x3d382a1c	0.044962034
56	0xbcef8a36	-0.029240709
57	0x3c1cccf5	0.00957035
58	0xbb5b210e	-0.003343645
59	0x3db92482	0.090401664
60	0xbe1adce9	-0.15123333
61	0xbcab6d22	-0.020926062
62	0x3ad73319	0.0016418427
63	0xbc6c23c0	-0.01441282
64	0xbc7807f1	-0.015138612
65	0xbd735c8f	-0.059414443
66	0xbc4bc18b	-0.012436281
67	0x3c8570db	0.016289165
68	0x3dd78391	0.10523141
69	0x3da786c0	0.081799984
70	0x3bcdb1a1	0.0062772785
71	0xbdffd1ca	-0.12491186
72	0xbd0157b0	-0.031577766
73	0x3ca6b826	0.02035148
74	0xbc3d842d	-0.011567158
75	0x3d834533	0.06409683
76	0xbda0e5ff	-0.07856368
77	0xbcd55584	-0.026041754
78	0x3d141166	0.036149405
79	0xbcba0e0c	-0.022711776
80	0xbd3b9419	-0.045795534
81	0x3d1684c8	0.036747724
82	0xbc8096b4	-0.01569686
83	0x3d10f8ec	0.03539364
84	0xbe16d64e	-0.14730188
85	0xbc4b410e	-0.012405647
86	0x3d339bf2	0.043849893
87	0x3ce923ce	0.028459456
88	0x3d721bf7	0.0591087
89	0x3d831aeb	0.064016186
90	0x3dc40183	0.09570601
91	0xbd29352f	-0.041310485
92	0x3dcce1b5	0.10003988
93	0x3cdd70fe	0.027031418
94	0x3d873a49	0.06602914
95	0x3c3a0d25	0.011355673
96	0x3dacb7ba	0.084334806
97	0x3c7c5f10	0.015403524
98	0x3d3e3f3e	0.04644703
99	0x3d26f774	0.040763333
100	0x3caccb90	0.02109316
101	0xbd8e21d0	-0.06940043
102	0xbdd5d0f2	-0.10440244
103	0x3d81b442	0.063332096
104	0xbd3b6083	-0.045746338
105	0xbd9d6139	-0.076845594
106	0x3c91de9b	0.017806342
107	0x3ca7ddbb	0.020491472
108	0x3dcf473f	0.10121011
109	0x3d0b2b11	0.03397662
110	0x3db17870	0.0866555
111	0x3dab9a58	0.08379048
112	0xbd4bf658	-0.04979548
113	0xbae98313	-0.0017815552
114	0x3b850779	0.0040597287
115	0x3ca86830	0.020557493
116	0xbd449e33	-0.048002433
117	0x3d728d4a	0.059216775
118	0x3c190f3f	0.009342014
119	0xbc9bb785	-0.019008407
120	0xbcf1d0ec	-0.029518567
121	0xbdd0e337	-0.10199588
122	0x3c7fdc8a	0.015616545
123	0x3d3d80a7	0.04626527
124	0x3b9dd29b	0.004816366
125	0x3d3bed4b	0.045880597
126	0x3e14aef2	0.14519861
127	0x3d275508	0.040852576

main_network.1.running_var f4 [128]
0	0x3e834ad3	0.25643024
1	0x3e84a025	0.2590343
2	0x3e528127	0.2055708
3	0x3f111965	0.56679374
4	0x3eb0a66d	0.34501973
5	0x3e25f69e	0.16207358
6	0x3ee9d824	0.45672715
7	0x3ef3adac	0.4759344
8	0x3f02c816	0.51086557
9	0x3e96e3fd	0.29470816
10	0x3e67719a	0.2260193
11	0x3e84a2fc	0.25905597
12	0x3ef7098b	0.48249468
13	0x3ececc6a	0.4039033
14	0x3ef1c7cd	0.47222748
15	0x3f0ca0eb	0.5493304
16	0x3ede3f3d	0.43407622
17	0x3f02ebc2	0.5114099
18	0x3ecee73a	0.40410787
19	0x3e436dd6	0.19084868
20	0x3e9e4e7b	0.3091925
21	0x3e5cfce8	0.21580851
22	0x3f94cd64	1.162518
23	0x3ef6859a	0.48148805
24	0x3eec79c2	0.46186644
25	0x3e4db3bf	0.20088099
26	0x3f264564	0.6494963
27	0x3e8c939e	0.27456373
28	0x3e977c66	0.29587096
29	0x3f00b1c1	0.5027123
30	0x3dcdd350	0.1005007
31	0x3eda009a	0.42578584
32	0x3ef3cbeb	0.47616515
33	0x3e5d9a7d	0.21640964
34	0x3f34bdf6	0.7060236
35	0x3e846727	0.2585995
36	0x3e4015f4	0.18758374
37	0x3df0c4ca	0.117562845
38	0x3e2fbe85	0.17162521
39	0x3ebd7750	0.3700509
40	0x3ed6d76e	0.41961235
41	0x3e0eedb3	0.13957863
42	0x3f29b585	0.662926
43	0x3ea9998d	0.33124962
44	0x3f2e5d61	0.68111235
45	0x3e7e5c79	0.24839963
46	0x3f2dcf0a	0.6789404
47	0x3e087278	0.13324916
48	0x3ea048fa	0.31305677
49	0x3e0de950	0.13858533
50	0x3e008c61	0.1255355
51	0x3f540ea7	0.8283486
52	0x3f0bc660	0.5459957
53	0x3e5abc7d	0.21360965
54	0x3e21bdc1	0.15795042
55	0x3e9a97c9	0.30193928
56	0x3f0b2d60	0.5436611
57	0x3e945952	0.28974396
58	0x3e30319c	0.17206424
59	0x3ec7b1f5	0.39002958
60	0x3f1ec086	0.6201252
61	0x3eec7572	0.46183354
62	0x3ebbbaf3	0.36666068
63	0x3f179d21	0.59224135
64	0x3e8809ef	0.2657008
65	0x3e433d60	0.19066381
66	0x3f02b04d	0.51050264
67	0x3e4507eb	0.19241302
68	0x3e024e15	0.12725098
69	0x3f19e92d	0.60121423
70	0x3ee61a68	0.4494202
71	0x3ed41051	0.41418698
72	0x3f1f85f1	0.62313753
73	0x3ee8b37e	0.45449442
74	0x3e147baa	0.14500299
75	0x3e5019a2	0.20322278
76	0x3eb451cc	0.35218656
77	0x3ef0e434	0.47049105
78	0x3ecae0ae	0.39624542
79	0x3e91ccd9	0.284766
80	0x3ebe4546	0.37162226
81	0x3e777977	0.24167429
82	0x3ef66768	0.48125768
83	0x3dda1920	0.106493235
84	0x3e31d5df	0.17366742
85	0x3ec79b8d	0.38985863
86	0x3f3eda8e	0.7455224
87	0x3ed4e2c5	0.4157926
88	0x3e712629	0.23549713
89	0x3e2a6a49	0.16642107
90	0x3e62d602	0.2215195
91	0x3f39c990	0.72573185
92	0x3eca8653	0.39555606
93	0x3e424a34	0.18973619
94	0x3f1f840f	0.6231088
95	0x3ef0421e	0.46925443
96	0x3e95eeea	0.2928384
97	0x3e9971d7	0.29969665
98	0x3f966e47	1.1752404
99	0x3ee7abf6	0.45248383
100	0x3e4c017d	0.19922443
101	0x3eab009e	0.33398908
102	0x3efad980	0.48994064
103	0x3e07b648	0.13253129
104	0x3e22628e	0.15857908
105	0x3e99e3e1	0.3005667
106	0x3e8f5cb1	0.28000405
107	0x3ed778a5	0.42084232
108	0x3f0165e2	0.50546086
109	0x3e2ba830	0.16763377
110	0x3e7cb56d	0.24678583
111	0x3ec12e46	0.37730616
112	0x3e8c8ecb	0.27452692
113	0x3e817d22	0.2529078
114	0x3e42ded8	0.1903032
115	0x3e93bf75	0.28857008
116	0x3e2a7784	0.16647154
117	0x3ec024af	0.37527987
118	0x3e211191	0.15729357
119	0x3e2bb023	0.1676641
120	0x3e5b5f7c	0.21423143
121	0x3ecccbf8	0.39999366
122	0x3e231c31	0.15928723
123	0x3e25acbb	0.16179173
124	0x3e802776	0.25030106
125	0x3eafd97f	0.34345624
126	0x3ea07455	0.31338754
127	0x3ee96984	0.45588315

main_network.4.weight f4 [64, 128]
0	0xbd164bd5	-0.036693413
1	0x3c923df2	0.017851803
2	0xbd12e881	-0.035866264
3	0xbcb98076	-0.022644263
4	0x3988eaa8	0.00026114774
5	0xbb9cef4c	-0.0047892686
6	0xbc2ee100	-0.010673761
7	0x3d36f6e4	0.044669047
8	0x3d8f521b	0.06998082
9	0x3d9656dd	0.073407866
10	0xbd9b9784	-0.07597259
11	0x3db2ef77	0.087370805
12	0xbd972f96	-0.07382123
13	0xbcde0ac4	-0.027104743
14	0xbdb1f2c8	-0.08688885
15	0xbd08128d	-0.033220816
16	0x3d05b5d1	0.032644097
17	0xbd891f34	-0.06695405
18	0xbd6fcf59	-0.05854735
19	0xbd30dddc	-0.04318033
20	0x3cbd1b66	0.023084354
21	0xbd57100d	-0.05250554
22	0x3d638fa8	0.055556923
23	0x3cd4f138	0.025993928
24	0xbd2610a7	-0.040543225
25	0xbdc319ba	-0.09526391
26	0x3d1986c6	0.037482046
27	0x3d85d206	0.065341994
28	0xbc4b6542	-0.012414278
29	0xbcf2d130	-0.029640764
30	0xbcdeee13	-0.027213132
31	0x3daca747	0.08430343
32	0xbc7fd922	-0.015615733
33	0x3d6e6c89	0.058208976
34	0x3d480151	0.04882938
35	0xbd3a0a26	-0.045419835
36	0xbd935d08	-0.07195479
37	0xbc38129f	-0.011234908
38	0x3c3c1e21	0.011481793
39	0x3d2f592a	0.042809643
40	0xbb62966e	-0.0034574526
41	0xbcf16dc0	-0.029471278
42	0xbd7a8779	-0.061164353
43	0xbceaac65	-0.028646657
44	0x3d0249bf	0.03180861
45	0xbcafe781	-0.021472694
46	0x3cd9deea	0.026595552
47	0xbd378595	-0.044805128
48	0x3cd52a3c	0.026021115
49	0x3d2b350f	0.041798647
50	0x3c3d0867	0.011537648
51	0x3d598493	0.05310495
52	0xbd2514ba	-0.04030297
53	0xbcbcdc13	-0.023054158
54	0xbdc50dd7	-0.0962178
55	0xbda15b2a	-0.07878716
56	0x3d238f82	0.03993178
57	0x3db7d878	0.08976835
58	0x3cd7b66e	0.026332106
59	0xbd4ff002	-0.050766
60	0x39c8a4fe	0.000382699
61	0xbd7c9e8b	-0.061674636
62	0xbd23051b	-0.03979979
63	0x3dc0fd87	0.094233565
64	0xbb599895	-0.0033202518
65	0xbdec626a	-0.115422085
66	0x3d5374d9	0.051625106
67	0xbd2ee3e0	-0.042697787
68	0x3de23169	0.110445805
69	0xbd662ff1	-0.056198064
70	0x3cbf0f3c	0.023322694
71	0xbcd40cf0	-0.025885075
72	0xbdae5419	-0.08512134
73	0xbd52c3d5	-0.05145629
74	0x3cb747d8	0.022373125
75	0x3c4be0a9	0.0124437
76	0xbd8cebb0	-0.06880891
77	0x3e00fa90	0.12595582
78	0xbd45ca02	-0.048288353
79	0x3cbdb206	0.023156177
80	0xbd72d07c	-0.059280857
81	0xbe013830	-0.1261909
82	0xbd9c6663	-0.07636716
83	0xbd5dff1c	-0.05419837
84	0x3d9344bf	0.07190847
85	0x3bed6591	0.0072447737
86	0x3d09ba5e	0.033625
87	0xbd85b2e7	-0.065282635
88	0xbc815441	-0.015787246
89	0x3ccc4f24	0.024940081
90	0xbd3a71f4	-0.04551883
91	0xbdc2e9b4	-0.095172316
92	0xbdb2ffd5	-0.08740202
93	0x3ae6660b	0.0017578019
94	0x3d72d036	0.059280597
95	0xbd31026f	-0.04321521
96	0x3c90ab67	0.017659856
97	0xbbaef9a0	-0.005339816
98	0xbd2f0fb8	-0.0427396
99	0x3b46e5a2	0.0030349274
100	0x3d089a2f	0.033350166
101	0xbdc8af32	-0.09799041
102	0xbdac4b08	-0.084127486
103	0x3d952ac0	0.072835445
104	0xbd9d4bbc	-0.07680461
105	0xbd870441	-0.06592608
106	0xbd16bb57	-0.036799755
107	0x3d62d7f1	0.05538172
108	0xbc68f558	-0.014218651
109	0xbcffd1e2	-0.03122801
110	0xbc48a6c4	-0.012246791
111	0x3d8e26c4	0.06940988
112	0xbc90b497	-0.017664237
113	0x3d1bd239	0.03804228
114	0x3caf2293	0.021378791
115	0x3d13fe4c	0.03613119
116	0x3d14f2a3	0.03636421
117	0xbbb3173d	-0.0054654167
118	0xbca02e59	-0.01955335
119	0x3d2232d8	0.03959927
120	0x3dbf42ea	0.09338935
121	0xbd642b4a	-0.055705346
122	0xbd21eb39	-0.039530966
123	0xbda0e535	-0.07856218
124	0xbce40d99	-0.027838515
125	0xbd1c0fbe	-0.03810095
126	0x3d97f537	0.07419818
127	0x3d5ccf71	0.05390877
128	0x3d989b37	0.0745148
129	0xbb67e540	-0.0035384446
130	0xbc8b2f17	-0.016990228
131	0xbd7fbfb4	-0.06243868
132	0x3ccde610	0.025134116
133	0x3c0ffcc4	0.008788291
134	0xbd7a2b12	-0.06107623
135	0xbc506cf1	-0.012721286
136	0xbd299a5c	-0.041406974
137	0xbd5edbcd	-0.054408837
138	0x3d8d13d2	0.06888546
139	0xbd8a13f0	-0.06742084
140	0x3d456c51	0.048199
141	0x3c5ae3ae	0.013359947
142	0x3d8b9135	0.068148054
143	0xbd6901f8	-0.056886643
144	0x3b98661c	0.0046508443
145	0x3ce88492	0.028383527
146	0xba1630b6	-0.00057293044
147	0xbbdd7976	-0.006758864
148	0x3dbc993d	0.092089154
149	0x3d2af69e	0.0417391
150	0xbdde5c05	-0.10857395
151	0xbdc5fc5e	-0.09667276
152	0x3d82331d	0.06357405
153	0x3d9c378f	0.076277845
154	0xbb93d1c6	-0.004511091
155	0x3d3b40fd	0.045716275
156	0x3d67356e	0.05644744
157	0x3ced7ab7	0.028989179
158	0xbd087a70	-0.03331989
159	0xbc002fe8	-0.007823922
160	0xbcf08664	-0.029360957
161	0xbd70528b	-0.05867247
162	0xbd8c988f	-0.06865036
163	0xbd8fdb2a	-0.07024224
164	0x3cf3371c	0.029689364
165	0xbd0dd496	-0.034626566
166	0xbd047e9b	-0.032347303
167	0xbd55bc6b	-0.052181643
168	0xbde10e82	-0.10989095
169	0xbc58559e	-0.0132040065
170	0xbd44e642	-0.048071153
171	0x3d6aff5e	0.057372443
172	0xbdc096c0	-0.09403753
173	0x3c472c08	0.012156494
174	0xbda152d0	-0.07877123
175	0xbceddbe7	-0.029035522
176	0x3cc170a3	0.02361328
177	0x3da401e9	0.08008177
178	0xbdaa7afa	-0.08324237
179	0xbac0d3e2	-0.0014711583
180	0xbd9c8dce	-0.076442346
181	0xbd62a3e8	-0.055332094
182	0x3cafa688	0.021441713
183	0x3d44cda2	0.04804767
184	0xbdb11a8c	-0.086476415
185	0x3d4fb94f	0.050713833
186	0xbda2e46f	-0.079537265
187	0x3d360974	0.04444261
188	0x3db56a1b	0.08858129
189	0xbd859d22	-0.06524111
190	0x3ce09a5e	0.027417358
191	0xbd151d5c	-0.036404952
192	0x3dafafb1	0.08578432
193	0x3ddc3ee7	0.10754185
194	0x3d283c08	0.041072875
195	0xbcfc2233	-0.030778026
196	0xbdbef9a5	-0.0932496
197	0x3cce97a9	0.025218802
198	0xbda73d87	-0.08166032
199	0xbce323bd	-0.027727002
200	0xbd9a0d45	-0.07522062
201	0xbdc66127	-0.09686499
202	0x3d21f278	0.039537877
203	0x3c523b74	0.012831558
204	0x3d66b6aa	0.056326546
205	0x3d115a96	0.03548678
206	0xbc075a7f	-0.008261322
207	0xbca62c41	-0.020284774
208	0xbd9f9135	-0.07791368
209	0x3d883441	0.06650592
210	0x3d87ad19	0.06624813
211	0x3da9f3a2	0.082984224
212	0xbdd7f1dd	-0.10544179
213	0x3cd5e992	0.026112352
214	0x3c8fc774	0.017551161
215	0x3d8a16c9	0.06742627
216	0x3d62ac46	0.055340074
217	0xbcc4f1e3	-0.024041122
218	0x3d0cee16	0.034406744
219	0xbd7f0ac2	-0.06226612
220	0x3cab4cdf	0.020910678
221	0x3d0b8420	0.03406155
222	0xbcb454aa	-0.022013027
223	0xbd977373	-0.07395067
224	0x3d808803	0.06275942
225	0x3cf9a878	0.03047584
226	0xbd2a0170	-0.041505277
227	0xbd9c9633	-0.07645836
228	0x3c92b5c1	0.017908933
229	0x3d3ba1d0	0.045808613
230	0xbc60287c	-0.013681527
231	0x3d56defa	0.05245874
232	0xbd698c94	-0.05701883
233	0x3db26aa8	0.08711749
234	0xbaa928ce	-0.0012905838
235	0x3d1f9bca	0.03896693
236	0x397b37e5	0.00023958048
237	0xbc2473cc	-0.010037374
238	0xbdc42aa3	-0.09578445
239	0x3c3e4dc0	0.011615217
240	0x3d3e430d	0.046450663
241	0xbdff3958	-0.12462109
242	0xbdda957f	-0.10673045
243	0xbd136880	-0.03598833
244	0xbd8693ff	-0.06571197
245	0xbc858afa	-0.01630162
246	0x3dbe468c	0.092907995
247	0x3c7da534	0.015481282
248	0xbc3da401	-0.011574746
249	0x3c915e85	0.017745266
250	0xbc547d5d	-0.012969342
251	0x3cfd2bf6	0.030904751
252	0xbc4b1a82	-0.012396457
253	0x3dbc9c40	0.0920949
254	0x3d5422db	0.051791053
255	0xbd274345	-0.040835638

main_network.4.bias f4 [64]
0	0x37533c16	1.259057e-05
1	0xb683cd1d	-3.9279826e-06
2	0xb5a5371d	-1.2309498e-06
3	0x35fc7d5f	1.8811951e-06
4	0x351e67ed	5.901082e-07
5	0x35936259	1.0980976e-06
6	0xb5274167	-6.230752e-07
7	0xb6e92eb3	-6.9493776e-06
8	0x36a26fde	4.8409993e-06
9	0x358c7744	1.0465524e-06
10	0xb5a7160b	-1.2448885e-06
11	0xb6404e6f	-2.8655884e-06
12	0xb669e2fc	-3.4851828e-06
13	0xb69232ec	-4.357067e-06
14	0xb643604f	-2.9113323e-06
15	0xb64c5ef1	-3.0453632e-06
16	0x37d434f6	2.5297031e-05
17	0xb71431ad	-8.8330535e-06
18	0x35834084	9.779037e-07
19	0xb5839f02	-9.806538e-07
20	0x3690c02a	4.3139053e-06
21	0x3627680f	2.494551e-06
22	0xb51e4b64	-5.8969295e-07
23	0xb665c63b	-3.4239044e-06
24	0x360588ad	1.98981e-06
25	0x3665c28f	3.4236907e-06
26	0xb6404c27	-2.8654556e-06
27	0x353f705f	7.1316566e-07
28	0xb6bfcb51	-5.7159127e-06
29	0xb803f1e1	-3.14581e-05
30	0x356254a5	8.4314735e-07
31	0xb72eda40	-1.04220235e-05
32	0x34c5f453	3.687188e-07
33	0x35b9ee3b	1.3852908e-06
34	0x3608d180	2.0387524e-06
35	0xb6aff1b3	-5.243544e-06
36	0x38039d43	3.1379295e-05
37	0x36551c80	3.1756063e-06
38	0xb77bfed3	-1.5020097e-05
39	0xb71f1258	-9.4814095e-06
40	0xb5c262f7	-1.4482929e-06
41	0x35c63c95	1.4769781e-06
42	0xb7021bbe	-7.755063e-06
43	0x365ddf10	3.3061406e-06
44	0xb5e00595	-1.6690925e-06
45	0x36c6a511	5.920076e-06
46	0x37842c56	1.5756272e-05
47	0xb54bcb89	-7.5919576e-07
48	0xb72000d5	-9.536937e-06
49	0x368d29ec	4.207008e-06
50	0x36de4d8b	6.6251428e-06
51	0x369cb666	4.6703963e-06
52	0xb52957c0	-6.30851e-07
53	0xb5485bbe	-7.463931e-07
54	0x3617f5c2	2.2643803e-06
55	0xb71a4a81	-9.196462e-06
56	0x3595f871	1.1173671e-06
57	0x3646a2a1	2.9598962e-06
58	0xb6acd934	-5.151285e-06
59	0x35290698	6.2967e-07
60	0xb6a9df50	-5.0625895e-06
61	0x37136523	8.7854305e-06
62	0x35eb2cb0	1.752187e-06
63	0x3606c7ed	2.0083928e-06
