MLP/best_model.pth (torch, 120418 bytes, 47 tensors)

model_embedding.weight f4 [32, 12]
000000 ef 76 e0 bd 54 63 a2 be e0 7c 2d be 67 34 80 be
       -0.10960185 -0.31716406 -0.16942167 -0.2503998
000010 8c 07 2e be 6d 10 7e 3d ab 92 b9 3d f9 c6 a5 bd
       -0.16995066 0.062027384 0.09061178 -0.08094592
000020 5d ac 73 38 fd 5d e4 3c 58 11 2f 3d 99 0c 58 bd
       5.809624e-05 0.027876848 0.04274115 -0.05274639
000030 1e 5d e4 3d 40 c8 98 3d 29 0a 84 be f6 97 ba bd
       0.11150573 0.0746007 -0.25789002 -0.091110155
000040 d4 01 ff bd 6c ff 6f 3d e2 08 86 3e 78 eb 4e 36
       -0.124515206 0.0585932 0.26178652 3.0833453e-06
000050 9f d1 16 bb 31 14 72 be 78 c4 47 b2 2a d7 b5 bd
       -0.0023013128 -0.23640515 -1.1627996e-08 -0.0887893
000060 df 05 04 be 3c 6c 78 be ba a1 79 be b9 e4 05 3e
       -0.12892865 -0.24260038 -0.243781 0.13075532
000070 ab 91 3e 3e 78 08 88 be e6 6e 25 be 1f 2a 53 3d
       0.18610255 -0.2656896 -0.16155586 0.05155384
000080 3a 40 4c 35 1b ad 23 bd 66 e5 84 32 f9 72 99 3d
       7.6089384e-07 -0.039960008 1.547114e-08 0.074926324
000090 83 70 5b 3e 7b b3 29 be e2 ee 1a be f2 c4 07 be
       0.21429639 -0.16572373 -0.15130189 -0.13258722
0000a0 e0 60 cf bd 01 22 ad bb 0b d4 65 be a0 1e 8f 33
       -0.10125899 -0.0052835946 -0.22444169 6.664527e-08
0000b0 33 60 c7 bc c7 14 ab 3d f5 f6 a4 bc 90 43 88 3d
       -0.024337864 0.08353572 -0.02013729 0.066535115
0000c0 cc 1a 55 3e 90 49 46 3e ae 35 35 3e 04 94 81 be
       0.20811003 0.19364 0.17696258 -0.2530824
0000d0 f6 3e 99 bd eb 4f 17 3e 0c f9 af 3c 89 fe 98 b2
       -0.07482712 0.1477658 0.02148106 -1.7810878e-08
0000e0 13 38 8e 36 f6 15 59 3e 57 15 c4 bc d6 a4 5d 3e
       4.2384577e-06 0.21199784 -0.023935957 0.21644911
0000f0 6f fa 80 3e 73 ed 82 be 44 44 2d be 9a 9b 78 be
       0.25191066 -0.25571784 -0.16920573 -0.24278107
000100 2a 00 e8 3d 74 ec 72 3e df e1 51 3e b8 4a 95 bd
       0.11328156 0.23723012 0.20496319 -0.07289642
000110 70 22 2b 31 0a 88 06 bd 1c 2f 40 3d ba f6 87 3d
       2.490335e-09 -0.03284458 0.046919927 0.06638856
000120 ba 40 8d 3e ab 1e 31 be 28 d0 f6 bd dd 37 4a be
       0.27588445 -0.17296855 -0.120514214 -0.19747873
000130 4a 61 f6 3c 02 04 d2 3d 4e 56 1e bd 23 f6 a6 bc
       0.030075688 0.10254671 -0.038656525 -0.020381039
000140 4e f8 9e 3c bf a9 54 bd da 22 33 3d 4e 53 3f be
       0.01940551 -0.051919695 0.04373441 -0.18684122
000150 17 c4 da bd c8 30 09 be 89 4b 3c 3e 5e 45 8e be
       -0.106819324 -0.13397515 0.1838819 -0.27787298
000160 35 60 71 3e 44 8b 0a 3d 37 5c a9 bb 34 fe 89 b1
       0.23571856 0.03382422 -0.0051684636 -4.0161243e-09
000170 6b 7c 11 bd 5b c6 6c be 2a 83 82 bd 9d a0 06 b9
       -0.035519045 -0.23122542 -0.06372674 -0.00012839069
000180 59 2c 37 bd d2 39 83 be dc 0c 0f be 6c b4 1e be
       -0.044720028 -0.2563005 -0.13969749 -0.15498513
000190 41 76 43 be 56 a1 63 be 91 59 71 bd bf a2 45 3d
       -0.19088079 -0.22229514 -0.058923308 0.04825091
0001a0 87 44 94 bd da 93 4f be dd 11 9d bb b4 3d 64 bd
       -0.07239633 -0.20271245 -0.0047933892 -0.055722907
0001b0 e6 79 36 be 5e 50 49 3e 80 80 f2 bd 47 c2 8f be
       -0.17819938 0.19659564 -0.11840916 -0.2807791
0001c0 69 88 33 3e 10 86 97 3d f2 20 40 bd c5 81 5d 3d
       0.17532505 0.07398617 -0.04690642 0.054078836
0001d0 d1 a6 e7 bb 8d cc ad 3d da 42 11 32 56 0c 70 3e
       -0.0070694466 0.084862806 8.455311e-09 0.23442206
0001e0 cc 13 8d 3e 62 b5 20 3e 0c 9c 54 be 68 39 a3 3d
       0.27554166 0.15694192 -0.20762652 0.07969934
0001f0 d6 d5 b7 3c f2 5f 44 3e 2e 64 5f be 3a d9 7e 31
       0.022440832 0.19177225 -0.2181556 3.7085344e-09
000200 25 02 4f 3d 85 83 b3 bc 80 55 4e 3a dd 25 25 be
       0.050539155 -0.0219133 0.0007871017 -0.16127725
000210 e1 66 4c 3e 47 46 03 be d5 4a 81 be 0a 51 71 be
       0.1996112 -0.12819777 -0.25252405 -0.2356607
000220 b5 23 76 3e 81 d1 96 be 91 59 63 3e 13 36 fd 3a
       0.24037059 -0.29456714 0.22202136 0.0019318484
000230 4c f6 50 3c f8 6c 87 3d 78 fb 53 3d e2 1d 1c bc
       0.012754034 0.06612581 0.05175349 -0.009528609
000240 89 c6 0f 3e 3e 9e 81 3e 4f c6 ea 3d be f3 a6 bd
       0.14040579 0.25316042 0.114636056 -0.08151959
000250 29 a4 fe bd e4 fa 1d 3e dc 0d 34 3e c4 7c 56 b9
       -0.12433655 0.15427738 0.17583412 -0.00020455109
000260 cc e7 87 bd f0 97 4b 3e 91 9b 93 3d f2 77 ae bd
       -0.066360086 0.19882178 0.07207406 -0.085189715
000270 7d 8b 30 be 3d c3 80 3d e3 b9 2f 3e 5f 03 3f 3e
       -0.1724071 0.06287239 0.17160754 0.1865363
000280 6b e5 56 bd 85 6d 47 3e 70 9d 0c 3e fd 0b 44 3d
       -0.052464884 0.19475372 0.13731933 0.047862995
000290 3d 4d bd 32 93 b7 6e 3e 36 2b 83 3d 5a 1a 0b be
       2.203762e-08 0.23312216 0.06404726 -0.13584271
0002a0 60 73 7a be 6e cd de 3d 02 51 44 be 9c 88 72 3e
       -0.24458075 0.10879026 -0.19171527 0.23684925
0002b0 33 62 46 bd e9 0e f6 bd a8 38 14 3e c4 1b 07 3a
       -0.048433494 -0.12014563 0.14474738 0.0005153979
0002c0 83 56 01 b5 85 2e cf bd 86 6f 59 bb 83 f5 0d 3e
       -4.8182136e-07 -0.10116295 -0.0033178045 0.13863187
0002d0 49 a7 7a 3e 6f ad 5e 3e 48 05 95 3e f0 5d 45 3e
       0.24477877 0.21745847 0.29105592 0.19274116
0002e0 16 24 ca 3d 6e 0a c6 3d ff c2 15 bb 24 1d 9b 31
       0.09870164 0.09669958 -0.0022851822 4.5144066e-09
0002f0 4e 53 bc 3c e0 f4 70 3e bb 13 28 39 d2 f9 57 3e
       0.022988942 0.23530912 0.00016029079 0.21091393
000300 01 69 db 3d 0f 9e 4a 3e 40 75 e5 3d 01 c6 3d bd
       0.10713387 0.19786857 0.11204004 -0.04633141
000310 54 ae ae bd ec ac 84 3e 04 cb da bd 20 57 ae 3d
       -0.08529344 0.2591318 -0.106832534 0.085127115
000320 52 dc 41 35 94 8a a8 bd 46 8a 83 38 f9 96 f4 3d
       7.221871e-07 -0.08229557 6.272322e-05 0.11942858
000330 9c b6 81 bd 30 9d 3f 3e 0c f5 79 bd 4a 89 4d bd
       -0.06333658 0.18712306 -0.06102471 -0.050179757
000340 fe 49 5e be 6d 8c 2a be f9 61 36 3e db 71 a3 3c
       -0.21707913 -0.1665513 0.17810811 0.019951751
000350 45 ef a4 3c 41 0e 3d bd 9d df 15 b5 25 37 66 be
       0.020133624 -0.04615617 -5.5832226e-07 -0.22481973
000360 91 5c 4f bd db 7e dc 3d ec 05 64 bc 7e 64 68 3e
       -0.050625388 0.10766383 -0.0139174275 0.22694585
000370 b3 cf 5a be 00 5d 18 be 54 83 06 3e c4 a7 9f 32
       -0.21368293 -0.14879227 0.13136035 1.8586327e-08
000380 d9 52 3d 3d 47 6f bf bd da 4f 5a 31 5f 7f 46 3e
       0.046221588 -0.09347396 3.1768566e-09 0.19384526
000390 13 94 af 3d 5f 43 59 3e ae c4 6f bd 36 e0 71 3d
       0.08573165 0.21217106 -0.058537178 0.059051715
0003a0 cc 1b 1e be ba 5f 52 bd 8e 48 0e bd a5 6f cc b1
       -0.15440291 -0.051360823 -0.034737162 -5.949874e-09
0003b0 85 ff e4 3b 44 43 e2 bc 04 a8 35 32 ef e8 01 3e
       0.006988468 -0.027619965 1.0573789e-08 0.12686513
0003c0 25 ca c7 3d 5c 8c 16 3c 88 d4 17 be 12 bc 72 3e
       0.09755353 0.009188738 -0.14827168 0.23704556
0003d0 07 31 27 3c ee 11 43 3e 66 85 f0 bd 5c 40 1f bc
       0.01020456 0.19049808 -0.11744194 -0.009719934
0003e0 47 e7 99 bb 2f 66 2d 3d 13 c2 83 3d bf 01 11 3e
       -0.00469676 0.042333778 0.06433501 0.14160822
0003f0 4a 22 a4 bb 18 5a 9b be d0 f0 20 3e c3 eb f4 bc
       -0.0050089704 -0.30342174 0.15716863 -0.029897576

model_embedding.bias f4 [32]
000000 3b 37 d0 3a 78 4a 57 36 39 45 cf bc 74 7c 58 3d
       0.0015885601 3.2080843e-06 -0.025301563 0.052853063
000010 e4 4e 33 36 0b af 12 35 dd b4 d6 bc a7 a8 91 3a
       2.6719e-06 5.464396e-07 -0.02620929 0.0011112884
000020 3b 44 56 37 46 65 d3 ba 11 59 25 3c 1a bf 83 3c
       1.277128e-05 -0.0016128204 0.010092036 0.016082335
000030 ad d2 51 bd 4e a8 48 b7 79 8e a2 3d 76 2b 8d 3d
       -0.051226307 -1.1960115e-05 0.07937331 0.06893055
000040 bf 35 72 bc 49 20 1d 3c 68 77 19 b6 47 0c 03 bd
       -0.014783322 0.009590217 -2.286828e-06 -0.03199413
000050 50 92 66 bd 17 d4 92 bd d1 af a4 35 d8 be e4 36
       -0.05629188 -0.07169359 1.2270121e-06 6.8171466e-06
000060 f0 53 0e 3b bd 99 60 b6 99 db 02 b6 99 32 6d bd
       0.002171751 -3.3468089e-06 -1.9499332e-06 -0.05790958
000070 b0 12 17 b7 4b d6 44 b7 75 46 33 bc 38 10 5c b6
       -9.004652e-06 -1.1732404e-05 -0.010942091 -3.2791995e-06

dataset_embedding.weight f4 [16, 3]
000000 33 e6 01 3f f4 02 00 be 08 19 f1 3d 0d 19 5a be
       0.5074188 -0.12501127 0.117723525 -0.21298619
000010 5b 80 da bd b4 b4 fe 3e fe f9 f3 3e a8 ef 9a 3e
       -0.10669013 0.4974724 0.47651666 0.30260968
000020 a3 e6 62 3c 3f 02 bf 3e 94 33 bc be 07 65 a5 bd
       0.013848933 0.373064 -0.367581 -0.0807591
000030 b6 8c b5 be e2 04 9d be 5d b0 05 3f 24 7b e5 3d
       -0.35458916 -0.30667788 0.52222234 0.11205128
000040 58 75 cd be b0 3f 10 3f e6 e5 df be 39 8b 8a be
       -0.4012859 0.5634718 -0.43730086 -0.27059343
000050 67 44 14 bf b8 6e 04 3f 09 b6 a8 be 02 8c 7a 3e
       -0.57916874 0.51731443 -0.32951382 0.24467471
000060 09 03 c8 3d 59 76 f9 be 53 6e d2 be ab 04 a2 3e
       0.09766204 -0.48723105 -0.41099796 0.31644186
000070 3d 73 db be df 79 b6 be b7 6d ac 39 52 2f 7a be
       -0.42861357 -0.35639855 0.0003288814 -0.24432114
000080 b7 6e b7 3e e4 b5 1e 3e 61 0c 95 bd 7e b2 45 3e
       0.35826656 0.15499073 -0.07277752 0.1930637
000090 25 3d ae bd 53 5f c5 bb 4f 92 9f bc 7d 21 b1 3e
       -0.08507756 -0.0060233264 -0.019478945 0.34595862
0000a0 0e ec bc 3e 92 d0 c7 be 2c 3a 6a 3e 11 6d 65 bd
       0.36898845 -0.39026314 0.22873753 -0.056012217
0000b0 17 e8 9c be 99 2d e6 bc ae 94 f7 ba 38 ef 2c 3e
       -0.3064582 -0.028097915 -0.0018888914 0.1688813

dataset_embedding.bias f4 [16]
000000 3b ce 3d 3c ff cc 64 bc f0 32 58 36 9e 8b 88 3e
       0.011584814 -0.0139648905 3.2216158e-06 0.2666902
000010 e8 95 4b be 3e c5 fe 37 54 6f cb bd 14 97 a4 be
       -0.19881403 3.0371008e-05 -0.099333435 -0.32146513
000020 da 3f 5f 3e a1 81 a8 be fa 8f 7a be b4 b8 a2 36
       0.21801701 -0.329114 -0.24468985 4.8494785e-06
000030 0d fb 67 bd e5 f7 da 36 45 0f b5 3d fd 03 0f 3e
       -0.056635905 6.525765e-06 0.08840803 0.13966365

tensor_network.0.weight f4 [16, 1]
000000 07 c6 39 bf 64 e6 da 3d 92 1e 96 3e c7 6f 0b bf
       -0.7256779 0.10688475 0.29320198 -0.54467434
000010 4d 73 c0 3e e2 a4 5a be 1f 2f 25 3f 25 4f 2a 3e
       0.37587968 -0.2135196 0.64525026 0.16631754
000020 93 13 ee be 1d 98 10 3f 1d ee 45 3e 53 91 1d bf
       -0.4649931 0.56482106 0.19329114 -0.6154987
000030 ea 27 46 be 76 a7 1c 3f 3e d6 ed be bb 50 df 3e
       -0.19351164 0.61193025 -0.46452516 0.4361628

tensor_network.0.bias f4 [16]
000000 e6 6d f8 bc 05 5c b9 3e 89 7f 75 3e 8c fd 0b be
       -0.030325841 0.36203018 0.23974432 -0.13670939
000010 9c 3d cc 37 89 3a 6b 3e 12 e2 4d bf 2c e1 03 3f
       2.4347384e-05 0.22971548 -0.8042308 0.5151546
000020 d7 72 9e 3c ff a3 0e 35 5f cd 33 3e 86 ec c3 be
       0.01934187 5.313777e-07 0.17558812 -0.3826639
000030 11 c1 75 be d1 9b 39 3f b8 ec 2d 3f db 52 ff be
       -0.2399943 0.7250338 0.6793933 -0.498679

tensor_network.2.weight f4 [16]
000000 7c cc 41 3f aa a4 7b 3f c3 59 78 3f 7c cc 41 3f
       0.75702643 0.9829813 0.97011966 0.75702643
000010 b2 73 7e 3f 6d 2a 81 3f e7 c1 76 3f d6 06 77 3f
       0.9939529 1.0091072 0.9638962 0.96494806
000020 7c cc 41 3f 74 51 7d 3f 2b 49 82 3f 7c cc 41 3f
       0.75702643 0.9895241 1.0178579 0.75702643
000030 7c cc 41 3f 0e 87 80 3f 6c 4e 83 3f ec ff 79 3f
       0.75702643 1.0041215 1.0258307 0.9765613

tensor_network.2.bias f4 [16]
000000 11 2a 6c b0 72 33 b0 b6 2a 6a 3e 36 b9 64 bc b0
       -8.591608e-10 -5.2511978e-06 2.8374002e-06 -1.3707427e-09
000010 aa c2 d4 b7 33 b3 bf b6 d6 24 9f b7 71 94 bd b4
       -2.5363017e-05 -5.713105e-06 -1.897143e-05 -3.5312e-07
000020 8d 10 d4 32 25 b4 88 37 3e 57 16 38 2e a6 f8 32
       2.4687575e-08 1.629635e-05 3.5844037e-05 2.894657e-08
000030 01 77 af b1 bd 91 fc b7 a3 ad 79 b8 b9 2a d1 b7
       -5.1066995e-09 -3.0108606e-05 -5.9527938e-05 -2.4934636e-05

tensor_network.2.running_mean f4 [16]
000000 00 00 00 00 0d 86 4b 3f 7e 3b b7 3f 00 00 00 00
       0.0 0.7950142 1.431503 0.0
000010 6f 91 c1 3f de 3d f1 3b 33 5b e4 3f 70 a0 9a 3f
       1.5122508 0.0073621115 1.7840332 1.2080212
000020 00 00 00 00 e9 8a 10 40 0f bf 78 3f 00 00 00 00
       0.0 2.2584784 0.9716653 0.0
000030 00 00 00 00 a0 67 4b 40 b5 28 16 3d 95 37 9d 3f
       0.0 3.1781998 0.036659915 1.2282587

tensor_network.2.running_var f4 [16]
000000 92 47 dc 2b 25 45 63 3d f2 77 dc 3e 92 47 dc 2b
       1.5651805e-12 0.055485863 0.4306026 1.5651805e-12
000010 99 99 33 3f f2 02 cf 39 f0 44 ef 3f 48 7f 13 3e
       0.70156246 0.0003948431 1.8692913 0.14404023
000020 92 47 dc 2b 69 34 c8 3f 95 06 44 3e 92 47 dc 2b
       1.5651805e-12 1.5640994 0.19143136 1.5651805e-12
000030 92 47 dc 2b 7e 82 ea 3f c5 38 1f 3c 60 eb 59 3f
       1.5651805e-12 1.8321073 0.009718125 0.8512478

worker_network.0.weight f4 [16, 1]
000000 78 d0 b4 be ec e7 ac be c9 a2 0b bf 5a b3 b9 be
       -0.353153 -0.33770692 -0.54545265 -0.36269647
000010 0a e9 5f be 80 8c d4 3d a2 cb f8 3e 64 5d f4 3e
       -0.21866241 0.10378361 0.4859286 0.477275
000020 7e 65 0a 3f 61 fb 04 bf f7 e1 70 3e a8 0c e1 be
       0.54061115 -0.51946074 0.23523699 -0.43954968
000030 fd 58 fc 3d e0 79 da be ef 74 34 3f 5b e6 b0 bd
       0.12321661 -0.42671108 0.70490927 -0.08637687

worker_network.0.bias f4 [16]
000000 95 8c e2 be 64 0f 0b be cd 50 a2 be dc 38 42 3f
       -0.4424788 -0.1358009 -0.3170227 0.7586801
000010 06 4e f3 be f7 e7 f7 be bb 41 5e b7 96 96 2f bf
       -0.47520465 -0.48419163 -1.3247535e-05 -0.6858915
000020 92 57 fe be 5f d3 8b 3d 78 d8 32 bf 08 77 94 33
       -0.49676186 0.06827425 -0.69861555 6.913439e-08
000030 12 3e 5f 3d 3b 19 4c 3e 6c 84 1f 3f a5 fa 0c bf
       0.054502554 0.199315 0.62311435 -0.55069953

worker_network.2.weight f4 [16]
000000 7c cc 41 3f 7c cc 41 3f 7c cc 41 3f 86 79 6b 3f
       0.75702643 0.75702643 0.75702643 0.91982305
000010 7c cc 41 3f 4f fd 81 3f 9a bb 83 3f 44 7a 81 3f
       0.75702643 1.0155429 1.0291626 1.0115438
000020 2b 9f 7f 3f 7c cc 41 3f c7 c1 80 3f 7c cc 41 3f
       0.99852246 0.75702643 1.0059136 0.75702643
000030 a8 2e 80 3f 7c cc 41 3f 41 2e 81 3f 7c cc 41 3f
       1.0014238 0.75702643 1.009224 0.75702643

worker_network.2.bias f4 [16]
000000 cc 33 1f b2 91 0b 69 32 83 20 0e 33 70 56 10 37
       -9.266795e-09 1.3565015e-08 3.309152e-08 8.603194e-06
000010 81 0a 79 32 41 0f 3f 38 3b 3a 34 b8 9d 96 87 37
       1.4496096e-08 4.5552155e-05 -4.2969576e-05 1.6163389e-05
000020 a4 6a 96 b6 59 85 15 b3 a3 0b 8f 36 78 dd 1b 31
       -4.482763e-06 -3.4813045e-08 4.263087e-06 2.268136e-09
000030 c7 7d 4a 34 f0 31 c6 31 a1 76 d6 36 ba 75 98 b0
       1.8858474e-07 5.7682357e-09 6.391507e-06 -1.1092915e-09

worker_network.2.running_mean f4 [16]
000000 00 00 00 00 00 00 00 00 00 00 00 00 73 80 35 3c
       0.0 0.0 0.0 0.011077988
000010 00 00 00 00 c5 d0 e7 3d 48 83 12 40 58 fe c6 3f
       0.0 0.113191165 2.2892628 1.554637
000020 d4 71 02 40 00 00 00 00 1c 49 ec 3e 00 00 00 00
       2.0381975 0.0 0.46149528 0.0
000030 d5 9f 28 3f 00 00 00 00 03 fe 7b 40 00 00 00 00
       0.65868884 0.0 3.9373786 0.0

worker_network.2.running_var f4 [16]
000000 92 47 dc 2b 92 47 dc 2b 92 47 dc 2b a9 53 77 39
       1.5651805e-12 1.5651805e-12 1.5651805e-12 0.00023586921
000010 92 47 dc 2b 62 9c d5 3c 27 3e bc 3f c1 b8 b5 3f
       1.5651805e-12 0.026075546 1.4706467 1.4197007
000020 1c 50 e8 3f 92 47 dc 2b 65 e3 7d 3e 92 47 dc 2b
       1.8149447 1.5651805e-12 0.24793775 1.5651805e-12
000030 d9 9f cf 3d 92 47 dc 2b 7b 30 44 40 92 47 dc 2b
       0.101379104 1.5651805e-12 3.065459 1.5651805e-12

batch_network.0.weight f4 [16, 1]
000000 e8 88 a5 3d c9 1f 92 3e 67 46 b5 be c3 a6 70 3e
       0.080827534 0.28539875 -0.35405275 0.23501115
000010 e1 05 94 3e bf d4 00 3f 75 c1 8f be 7b 36 09 b3
       0.28910735 0.50324625 -0.28077284 -3.1947348e-08
000020 53 47 31 bf b8 02 1a 3f 1b b0 f2 be 46 90 41 3f
       -0.6924946 0.601604 -0.47399983 0.7561077
000030 8d 71 1c 3f 96 0c 88 be dc 6d 92 3d ec 12 e7 be
       0.61110765 -0.26572102 0.0714986 -0.45131624

batch_network.0.bias f4 [16]
000000 e1 92 24 3e b1 4e 1a ba 8b 19 3e 3c 27 d7 d9 37
       0.16071655 -0.000588636 0.01160277 2.5968604e-05
000010 37 f8 2f 3f 8f 8f 51 3c 83 30 0f 3f c3 00 6b be
       0.6873812 0.012790575 0.559334 -0.2294951
000020 9c 9b 1f b0 fd 4d 9a 3e ed 19 dd be de 66 2f 3f
       -5.8065e-10 0.30137625 -0.43183842 0.6851634
000030 b9 d7 2e bf 60 ea 38 bf b3 50 00 3e cf c5 e8 3e
       -0.68297917 -0.7223263 0.12530784 0.45463416

batch_network.2.weight f4 [16]
000000 7b 04 82 3f fe 45 7d 3f 7c cc 41 3f c8 f7 7a 3f
       1.0157617 0.98934925 0.75702643 0.98034334
000010 5a 16 81 3f 20 6e 80 3f d9 82 58 3f 7c cc 41 3f
       1.0084946 1.0033607 0.8457466 0.75702643
000020 7c cc 41 3f bc 80 7a 3f 7c cc 41 3f aa f4 7d 3f
       0.75702643 0.97852683 0.75702643 0.9920145
000030 3b 47 80 3f 7c cc 41 3f 4a a3 7f 3f 7c cc 41 3f
       1.0021738 0.75702643 0.99858534 0.75702643

batch_network.2.bias f4 [16]
000000 42 83 98 36 28 3c 87 b8 05 33 b1 b2 16 da 8d b6
       4.5452334e-06 -6.4485066e-05 -2.0628713e-08 -4.227516e-06
000010 7a c8 0a 38 3a a4 8a b6 e2 af 2c 36 fd 6a f7 b0
       3.3088472e-05 -4.131839e-06 2.5732375e-06 -1.8002023e-09
000020 18 9e d4 32 6a a1 56 37 41 b7 b7 b1 f7 b5 26 b8
       2.4751941e-08 1.2792976e-05 -5.3468345e-09 -3.9746952e-05
000030 18 da 43 38 1d 58 8b 32 c9 ad 4c 36 26 f6 c8 b2
       4.669474e-05 1.6221799e-08 3.0499525e-06 -2.3395e-08

batch_network.2.running_mean f4 [16]
000000 47 23 35 3f cd 84 f3 3f 00 00 00 00 b7 60 c9 3f
       0.70756954 1.9024903 0.0 1.573264
000010 d5 e3 27 40 58 a8 55 40 37 1a 08 29 00 00 00 00
       2.6232808 3.3384 3.0220804e-14 0.0
000020 00 00 00 00 bb bc 88 40 00 00 00 00 4e 39 b5 40
       0.0 4.2730384 0.0 5.663245
000030 bc 63 55 40 00 00 00 00 7c b8 13 3f 00 00 00 00
       3.3342123 0.0 0.57703376 0.0

batch_network.2.running_var f4 [16]
000000 8e 2a e0 3c f0 c2 ad 3e 92 47 dc 2b 01 7f 6d 3e
       0.027364042 0.33937788 1.5651805e-12 0.2319298
000010 7a 22 b2 3e c8 5e 84 3f 39 49 dc 2b 92 47 dc 2b
       0.3479193 1.0341425 1.5652264e-12 1.5651805e-12
000020 92 47 dc 2b 9e 47 bc 3f 92 47 dc 2b cf ec 13 40
       1.5651805e-12 1.4709356 1.5651805e-12 2.3113286
000030 69 32 c2 3f 92 47 dc 2b b0 47 98 3c 92 47 dc 2b
       1.5171634 1.5651805e-12 0.01858887 1.5651805e-12

ps_network.0.weight f4 [8, 1]
000000 7d 22 e6 bd 53 ad 17 bf 97 79 5d 3e a9 6f 56 3f
       -0.11237047 -0.59248847 0.21628414 0.8376413
000010 0d e4 a5 bd 47 01 35 bf eb ce c7 be ef 1a 16 3f
       -0.08100138 -0.70705074 -0.39025053 0.5863485

ps_network.0.bias f4 [8]
000000 1d 44 bd bd a7 97 d4 3e 41 f9 06 3d 4e 3d 73 bf
       -0.09241507 0.41521952 0.03295255 -0.9501542
000010 6e c9 2e 3f b8 fa b6 b9 21 d4 a3 3e e1 21 8f 3d
       0.6827611 -0.00034900545 0.3199778 0.06988884

ps_network.2.weight f4 [8]
000000 7c cc 41 3f 3a c9 85 3f c4 a8 80 3f 07 43 7f 3f
       0.75702643 1.0452034 1.0051503 0.9971165
000010 a1 cb 76 3f 7c cc 41 3f 54 6f 81 3f 47 78 84 3f
       0.96404463 0.75702643 1.01121 1.0349206

ps_network.2.bias f4 [8]
000000 31 5f 9d b2 93 97 22 38 51 32 12 b7 b8 c6 a8 b7
       -1.8320494e-08 3.8764974e-05 -8.713993e-06 -2.0119696e-05
000010 ed 65 f7 b7 c3 b9 f3 32 60 a7 2c 38 31 e2 48 38
       -2.9492157e-05 2.8373398e-08 4.1163876e-05 4.7894373e-05

ps_network.2.running_mean f4 [8]
000000 00 00 00 00 91 b3 71 3e 4f ad fd 3e d4 f1 a5 3f
       0.0 0.23603655 0.49546286 1.2964425
000010 c7 36 04 3f 00 00 00 00 e8 b2 3a 3e b3 f6 a5 3f
       0.51646084 0.0 0.1823231 1.2965912

ps_network.2.running_var f4 [8]
000000 92 47 dc 2b 1a 1c 33 3d e1 92 cc 3e 27 b3 7e 40
       1.5651805e-12 0.04372797 0.3995581 3.9796846
000010 28 82 56 3d 92 47 dc 2b 7b c4 d5 3c de e3 34 40
       0.05237022 1.5651805e-12 0.026094666 2.826408

main_network.0.weight f4 [128, 104]
000000 4e 1b f6 bd 19 f7 a8 bd ef d1 5f bc b8 41 86 bd
       -0.12016927 -0.08250255 -0.013660892 -0.065555036
000010 67 e2 a6 bd af 92 1f 3d 0d a5 8f 3d 34 f5 82 bd
       -0.081486516 0.038958248 0.07013903 -0.06394425
000020 97 9a c6 39 b4 61 5f 3c b6 52 07 bd cf fa 49 3d
       0.0003788068 0.013634134 -0.033037864 0.049311455
000030 4f ec 52 bd 71 f2 7c bc 8e e5 f7 bb 11 41 87 3d
       -0.051494893 -0.015438662 -0.007565207 0.06604207
000040 34 3b 6c bd c8 3e 8d 3d 6b bc d1 bc 3e d5 a5 3d
       -0.057673648 0.0689674 -0.02560254 0.08097313
000050 bb 92 84 bb b6 8d 5a bc 48 a9 1c bd 74 ea 9f bd
       -0.004045812 -0.013339451 -0.038247377 -0.0780839
000060 77 57 2e 3d 65 07 c7 bd e1 a5 a5 bc 3e 0b a0 bd
       0.04256388 -0.09718207 -0.020220699 -0.07814644
000070 51 b4 e2 3c 41 35 9f 3d db 64 6d 3d 79 35 c7 3c
       0.027673872 0.07773829 0.05795751 0.02431749
000080 5b f2 99 bc 4a 2f 74 bd 04 a5 42 3d cb 5c 20 bd
       -0.018792322 -0.05961541 0.047520652 -0.039150994
000090 31 7b 5d 3d f7 f3 32 bc b9 c6 9a bc e4 41 8e 3c
       0.054072563 -0.010922424 -0.018893586 0.017365403
0000a0 6f c0 49 bd ca 18 99 3d a0 7a 88 3d 3d 9a 92 3d
       -0.049255785 0.07475431 0.06664014 0.07158325
0000b0 16 ea 37 3d 10 7e 8a 3d 11 21 a3 bd 48 f3 83 3d
       0.044900976 0.06762326 -0.07965291 0.064428866
0000c0 6e 96 03 b6 d6 6a f4 bc 59 c7 9b 3d f8 c3 31 b5
       -1.9608083e-06 -0.0298361 0.07606382 -6.622281e-07
0000d0 bf 83 64 bd a9 42 df 3d 30 69 3f 3d 33 23 71 bd
       -0.055789705 0.10901386 0.046731174 -0.05887146
0000e0 30 d2 73 30 3a f1 bf bd d7 f0 1a bd ab 30 06 33
       8.870158e-10 -0.09372182 -0.03782734 3.124357e-08
0000f0 4e 87 9e 32 42 6d 14 3c 9a aa b1 3d 37 99 3b 3d
       1.845515e-08 0.009059252 0.08675118 0.045800414
000100 7a 52 43 33 00 b1 8c b5 63 fd 39 b3 25 34 24 3c
       4.5476988e-08 -1.0482327e-06 -4.3304123e-08 0.010022198
000110 5c 35 30 b1 8c 54 b1 bd ba 00 84 3c 1d d5 65 3d
       -2.5641702e-09 -0.08658704 0.016113628 0.056111444
000120 be 41 62 3d 12 ba 89 b8 0c 93 a2 bd 2b 87 87 36
       0.055238478 -6.5673274e-05 -0.07938203 4.039049e-06
000130 78 14 52 bd 37 79 8b b4 8c 2c 34 3d 1c 9b ce 32
       -0.05128905 -2.5978963e-07 0.043987796 2.4052092e-08
000140 42 f6 1a 3b 4b 0c 4e bd 66 8a 81 b3 e9 d6 ca bc
       0.0023645316 -0.050304692 -6.032205e-08 -0.02476068
000150 09 4e 96 3c 93 2b ce bd 95 29 05 bc 87 49 64 32
       0.018347757 -0.10066905 -0.00812759 1.3288065e-08
000160 a8 01 92 b4 29 17 48 3b 79 83 b0 33 58 2f 28 bd
       -2.7195824e-07 0.0030531383 8.2195534e-08 -0.041060776
000170 78 03 00 bd 10 44 78 b2 b4 a9 bb 3d 15 16 89 36
       -0.031253308 -1.44509755e-08 0.09163228 4.085489e-06
000180 b2 bb 86 36 98 44 5e 3d f9 78 24 3d d9 8f 62 bd
       4.015362e-06 0.054264635 0.04015443 -0.055312965
000190 20 d4 24 bd ea b4 99 b0 f3 d5 58 bd 6c 05 50 bc
       -0.04024136 -1.1183634e-09 -0.052938413 -0.012696605
0001a0 5c 9c 62 bd 36 65 86 3d ff b6 e9 3c ec fe 94 bc
       -0.055324897 0.06562273 0.028529642 -0.018187962
0001b0 b2 64 9e 3d 82 8c 99 3d 2f c2 f5 3c d2 5e 5f bc
       0.0773405 0.07497503 0.02999982 -0.013633447
0001c0 9a 07 87 3d c3 6c ea 3c 63 30 9c 3c 6c 29 16 bd
       0.06593247 0.028616315 0.019066041 -0.036660597
0001d0 09 fa bb 3d 00 13 89 bc 16 c6 8f 3d 42 3b 5b 3c
       0.0917855 -0.016732693 0.07020204 0.013380827
0001e0 68 a1 56 bd 11 74 d0 3a ae 54 33 bd 62 ed 94 3d
       -0.052400023 0.0015903731 -0.04378193 0.0727184
0001f0 2c b6 a9 3d 58 7c 68 bd ec 3b 02 be 3a 34 07 3d
       0.082867 -0.05675921 -0.12718171 0.03300879
000200 75 58 de 3c 34 c0 7f 3d 8b 94 8c bc d2 fc 5c bd
       0.027141789 0.06243916 -0.017160675 -0.053952046
000210 6e 37 76 3d 85 b3 3f 3d 94 dc fa bc 60 24 c5 3a
       0.060111456 0.046802063 -0.030622758 0.0015040748
000220 a0 2b 1b bd 40 40 a9 3d d4 d8 ef 3c 66 2d a4 bd
       -0.0378834 0.08264208 0.029278196 -0.080164716
000230 c8 18 ba bd 42 7e a9 bc 49 83 19 3d cd 34 e8 bc
       -0.09086758 -0.020690087 0.03747872 -0.02834549
000240 2a ac e5 bd 67 e2 49 3d 17 de 43 bd 05 0c fb 3b
       -0.11214478 0.04928818 -0.047819223 0.007661345
000250 11 4a d3 3d 1b d6 19 3d 13 3f 90 bd 6e 04 f2 3c
       0.103168614 0.037557703 -0.070432805 0.029543128
000260 47 71 c4 33 c7 c3 5b bd 4a be fe 3c f8 99 4b 35
       9.147566e-08 -0.053653505 0.031096596 7.5847447e-07
000270 8c 89 e9 bc c6 97 bf 3d de 2f 38 bd ad 29 95 bd
       -0.02850797 0.0935512 -0.044967525 -0.0728334
000280 19 6b 2f 33 78 8b 9f 3d 03 6b 5d bd e9 dc 22 36
       4.0842767e-08 0.077902734 -0.054057132 2.4268468e-06
000290 a5 8d 8a b6 f7 48 42 bd b9 4a 90 3d 8e 9b 68 3d
       -4.12921e-06 -0.047432866 0.07045502 0.056788974
0002a0 3e ec 05 b1 26 7f 4e 35 b8 07 c4 b3 4d a5 32 bd
       -1.9488335e-09 7.6926005e-07 -9.128365e-08 -0.043614674
0002b0 b9 7f 11 32 63 9c bf bd 40 76 92 bd 56 bc 97 bd
       8.469152e-09 -0.09356 -0.07151461 -0.07408969
0002c0 fd ac 6b bd 3d 55 1b 34 a6 07 26 3d 01 f0 e2 b1
       -0.05753802 1.446651e-07 0.040534638 -6.604751e-09
0002d0 96 fb d3 3d fc cf 83 34 a1 24 51 3c d9 50 24 31
       0.103507206 2.455198e-07 0.012765081 2.3911098e-09
0002e0 28 0a 42 3d af 6f 18 bd 92 bf ec b3 f8 2b d9 3d
       0.047372967 -0.037215885 -1.1024453e-07 0.106040895
0002f0 a5 bb 04 3d 70 5e 7c bc 73 e9 0f bc 9b b5 0c b3
       0.032405514 -0.015403375 -0.008783686 -3.276146e-08
000300 6e 89 52 31 72 ba 46 3c 9e 25 4b b3 ec a9 71 3d
       3.0637142e-09 0.012129413 -4.7298833e-08 0.05899994
000310 96 a2 0e bd 58 a9 23 b2 e4 f0 2e 3d f8 aa 8d b0
       -0.034823023 -9.526353e-09 0.0427102 -1.0307692e-09
000320 d1 9e 85 34 e5 76 9f 3d eb a2 af bd f7 cb 26 bd
       2.4888735e-07 0.07786349 -0.08575996 -0.04072186
000330 9a 65 b2 bd d9 ea 20 35 98 a4 cc 3d e2 8d 64 bd
       -0.08710785 5.9946393e-07 0.09992331 -0.055799372
000340 8b 9e 08 3d d6 7f 02 3d 8d 46 94 bd 3c d2 42 3d
       0.033354323 0.031860195 -0.07240019 0.047563776
000350 54 b2 ac 3d cf 1a f8 3c a1 83 ad bd 11 b2 0c bd
       0.08432451 0.03028622 -0.08472372 -0.034349505
000360 a7 f4 95 bc 68 24 88 bd e5 67 d1 bd 01 c7 26 3c
       -0.018305136 -0.06647569 -0.102248944 0.010179282
000370 e3 db f2 3c 4b 64 9f bd 0b 0c 9c 3d 56 94 99 3d
       0.029645866 -0.07782801 0.076194845 0.07498996
000380 b9 3b dc bc ba 1e 88 3d 88 9f a2 bc 99 fb 8b bd
       -0.026883947 0.066464856 -0.019851461 -0.06835098
000390 14 b8 a2 bd f4 65 a6 3d 0d c8 8f bd ab d6 9e bd
       -0.07945266 0.08124915 -0.070205785 -0.077557884
0003a0 f3 fe 00 bb ab 20 61 3d d3 f4 ba bd 06 0a 6a bc
       -0.0019683212 0.054962795 -0.09128728 -0.014284616
0003b0 d8 b7 96 bc 6c b3 1c bd 67 a1 b0 bc 5f 4a 4f bd
       -0.01839821 -0.038257048 -0.021561338 -0.050608035
0003c0 fb 23 aa 3d 68 6a 12 bd a9 a5 fd 3d 7a 51 5a 3d
       0.08307644 -0.03574601 0.12385113 0.05330036
0003d0 10 11 05 3d b2 1f 42 bd 22 3d d4 3c 22 09 50 3b
       0.032486975 -0.04739351 0.025908057 0.0031743725
0003e0 e6 c2 63 bd 5a e0 9e 3d 6a 4e d6 bc 7b 91 75 bc
       -0.05560579 0.077576354 -0.026160438 -0.0149882985
0003f0 54 cb 3d bd 6d be bf 3d 39 7f 1f bd 5c 05 df bb
       -0.046336487 0.09362493 -0.03893969 -0.006806059

main_network.0.bias f4 [128]
000000 38 64 69 37 a3 43 80 b7 83 6e 94 36 19 6a e5 36
       1.3911216e-05 -1.5290285e-05 4.423609e-06 6.837083e-06
000010 93 fd 3b 37 67 37 56 36 ed e3 27 35 72 9f 27 36
       1.1205108e-05 3.1920733e-06 6.2544024e-07 2.4977749e-06
000020 2c 71 80 36 a6 9f e2 b6 5d f7 a4 35 4f 9a 37 37
       3.827872e-06 -6.7539104e-06 1.2290944e-06 1.0943578e-05
000030 af 7a bc 36 7e 05 80 36 86 c2 11 37 02 a9 aa 37
       5.617119e-06 3.8153366e-06 8.6879645e-06 2.034428e-05
000040 47 2a 64 37 e3 f7 2a 37 3e 9b 01 b6 64 81 1f 37
       1.35997025e-05 1.0190505e-05 -1.931286e-06 9.507265e-06
000050 36 24 05 36 4e 34 9c b8 da fe c3 34 c2 0d 05 36
       1.9839622e-06 -7.448402e-05 3.650701e-07 1.9826552e-06
000060 c4 ba 10 b6 54 ba df b5 b6 1c f6 b6 ef 3e 13 38
       -2.1566384e-06 -1.6669023e-06 -7.3347137e-06 3.5106143e-05
000070 54 29 41 b7 e0 91 c6 b8 82 c8 13 b6 82 29 b0 b5
       -1.1513319e-05 -9.468547e-05 -2.2021418e-06 -1.3125102e-06
000080 f4 a7 36 b6 90 c8 a8 35 87 85 99 37 91 cd 3a 36
       -2.7217875e-06 1.2575347e-06 1.83012e-05 2.7835815e-06
000090 93 bd b9 b6 b1 0f d4 34 ad a2 36 b7 49 2e c6 b6
       -5.535499e-06 3.9499494e-07 -1.0885921e-05 -5.906248e-06
0000a0 cb 63 18 37 3e 7c 0d 37 db d4 fb 35 f4 26 02 37
       9.083141e-06 8.433182e-06 1.8762906e-06 7.757673e-06
0000b0 ae c6 eb b8 df e3 d7 b5 f9 b7 ca 36 c6 e7 54 b7
       -0.0001124268 -1.6085068e-06 6.0414864e-06 -1.2690149e-05
0000c0 f8 dc 6f b7 12 71 0b b7 d7 57 0a 35 b6 b9 26 b6
       -1.4296958e-05 -8.311372e-06 5.153683e-07 -2.4844026e-06
0000d0 60 ae 07 b7 ea b9 86 36 6b 46 0f b6 d3 6b f7 36
       -8.087227e-06 4.0151544e-06 -2.134965e-06 7.373726e-06
0000e0 17 cb 1b 36 6b c8 91 b6 a7 97 83 36 e4 88 b8 b7
       2.3215014e-06 -4.3446685e-06 3.921759e-06 -2.1998254e-05
0000f0 64 0d 74 b7 e6 60 63 38 32 fb b3 b6 6f 76 72 b7
       -1.4546651e-05 5.421126e-05 -5.3638587e-06 -1.4451899e-05
000100 90 2d b2 b8 84 1f 2d b6 68 3f 85 36 1d e9 f4 35
       -8.496188e-05 -2.5797353e-06 3.9710903e-06 1.8247262e-06
000110 54 1a 3c b7 e8 d3 85 37 d7 6c 9d 36 b6 ad 62 36
       -1.1211803e-05 1.5953512e-05 4.6916352e-06 3.3777737e-06
000120 7d a7 c9 38 4a b2 13 b7 b3 3c 2d b7 ad 26 22 b6
       9.615624e-05 -8.803394e-06 -1.0325736e-05 -2.4162393e-06
000130 48 cb 04 36 3b d9 61 36 98 46 8e 37 d9 6d 70 37
       1.9787858e-06 3.3654057e-06 1.6960592e-05 1.4330691e-05
000140 5b 10 3d b8 59 5b 4f 37 c3 6a 73 b4 1b ac dc 36
       -4.5076344e-05 1.235943e-05 -2.2669978e-07 6.5765466e-06
000150 b8 f7 32 b6 a9 35 01 b6 74 42 30 b7 d9 ca db 36
       -2.6668258e-06 -1.9253732e-06 -1.050589e-05 6.550323e-06
000160 ac d0 f4 b6 0a 97 6d 37 34 cb e1 b6 75 a1 29 36
       -7.2960593e-06 1.4161467e-05 -6.7291785e-06 2.5276943e-06
000170 cd 0b ba b7 31 4f bf b8 aa 32 89 b7 77 b8 13 37
       -2.2178423e-05 -9.12234e-05 -1.6355265e-05 8.804832e-06
000180 ab 6d 11 37 c5 bb 2f b7 fb c8 8a b6 c8 37 ca b6
       8.668208e-06 -1.0474531e-05 -4.1361177e-06 -6.026563e-06
000190 e1 62 f0 b6 1b fd ab b6 92 49 7e b5 35 93 26 b7
       -7.1640684e-06 -5.1256625e-06 -9.472943e-07 -9.928645e-06
0001a0 bd 56 c6 b6 05 43 17 38 39 0d f6 b5 9f b7 5f b4
       -5.9109575e-06 3.6063622e-05 -1.8332277e-06 -2.0835294e-07
0001b0 66 84 5b b7 51 fe bc 36 4b 3b 72 b8 26 be a0 37
       -1.3084244e-05 5.632443e-06 -5.7752517e-05 1.9162031e-05
0001c0 05 0b ce b6 3b 1a 94 35 c5 bc 02 b8 8f 9f 90 b7
       -6.1405613e-06 1.1034493e-06 -3.117022e-05 -1.7240438e-05
0001d0 47 22 74 b6 05 60 31 b7 7c 88 69 b6 5c b8 fd 36
       -3.6378785e-06 -1.0572378e-05 -3.479915e-06 7.56145e-06
0001e0 7a 13 06 b9 02 f1 95 b6 30 3a 8e 36 72 e3 41 b6
       -0.00012786491 -4.468603e-06 4.2387037e-06 -2.8891632e-06
0001f0 ca d9 4c b8 a9 22 30 b6 fe 6b 52 b6 8d 05 10 36
       -4.8840222e-05 -2.6246219e-06 -3.1355298e-06 2.1460903e-06

main_network.1.weight f4 [128]
000000 76 af 7d 3f e4 54 84 3f 6f 7c 7c 3f 5d 66 81 3f
       0.9909586 1.0338407 0.9862737 1.0109364
000010 37 2b 83 3f af 34 7b 3f bc 19 7f 3f c6 b2 7f 3f
       1.0247563 0.98127264 0.9964864 0.9988216
000020 e8 ef 7b 3f d4 36 83 3f ac db 81 3f 88 35 7a 3f
       0.9841294 1.0251107 1.0145164 0.9773793
000030 11 62 81 3f bf d5 88 3f 3c d4 82 3f 9e 84 7b 3f
       1.0108052 1.069023 1.0221019 0.9824923
000040 b5 79 7c 3f 2e 0b 7c 3f 9e 2a 7b 3f 5b a0 83 3f
       0.9862321 0.9845456 0.98111904 1.0283312
000050 2d 4b 78 3f e8 f4 81 3f a9 9c 79 3f 8b a4 78 3f
       0.9698971 1.0152864 0.9750467 0.9712607
000060 5d 41 80 3f b4 8d 85 3f a5 e0 7d 3f 2d 64 7b 3f
       1.0019947 1.0433869 0.99170905 0.9819973
000070 a9 3f 81 3f 67 18 80 3f 5b dc 81 3f 16 66 7a 3f
       1.0097553 1.0007447 1.0145372 0.9781202
000080 98 ed 80 3f b4 f1 7f 3f 9f a0 83 3f d1 4f 80 3f
       1.0072508 0.99978185 1.0283393 1.0024358
000090 94 f2 7c 3f 6d 15 80 3f 22 d9 82 3f f0 eb 79 3f
       0.98807645 1.0006539 1.0222514 0.9762564
0000a0 26 c0 78 3f 40 56 7a 3f ea 78 7f 3f 86 b9 83 3f
       0.97168195 0.9778786 0.99793875 1.0290992
0000b0 13 57 77 3f 2a af 80 3f ff 29 7f 3f 78 74 7e 3f
       0.9661724 1.0053456 0.99673456 0.9939647
0000c0 26 2d 76 3f 83 e5 81 3f 96 de 79 3f 89 39 7b 3f
       0.9616264 1.0148166 0.97605264 0.98134667
0000d0 13 ae 77 3f c9 73 82 3f bc 24 82 3f 3e 1d 78 3f
       0.9674999 1.0191585 1.016746 0.9691962
0000e0 d6 bd 7d 3f 13 22 81 3f cc ec 7d 3f af ec 7d 3f
       0.9911779 1.0088524 0.9918945 0.99189276
0000f0 20 d7 80 3f e4 71 83 3f af 55 7f 3f 24 4f 7f 3f
       1.0065651 1.0269132 0.9974012 0.99730134
000100 5a 86 81 3f 93 93 7c 3f 0d 27 79 3f f3 42 82 3f
       1.0119126 0.9866268 0.9732521 1.0176681
000110 44 f2 81 3f 95 03 7e 3f 5e 24 76 3f 10 b0 7e 3f
       1.0152059 0.99224216 0.9614924 0.994874
000120 36 84 7c 3f 69 0e 81 3f 27 b6 82 3f 46 6c 80 3f
       0.9863924 1.0082523 1.0211838 1.0033042
000130 b8 10 82 3f 0b fa 81 3f 6d e8 80 3f 86 1a 79 3f
       1.0161352 1.0154432 1.0070931 0.97306097
000140 6f 3b 7b 3f 58 8b 7b 3f f1 65 80 3f aa 0a 7c 3f
       0.98137563 0.98259497 1.003111 0.9845377
000150 cc a0 7e 3f db 0c 7d 3f 73 67 7c 3f 08 6d 7e 3f
       0.99464107 0.9884774 0.9859535 0.9938512
000160 19 b8 81 3f 2e 6c 7c 3f e8 7d 79 3f d0 4e 81 3f
       1.0134307 0.9860257 0.9745774 1.0102177
000170 7d 86 7e 3f 82 4e 80 3f 83 8c 7b 3f 01 d4 77 3f
       0.9942396 1.0023959 0.9826128 0.9680787
000180 67 ce 82 3f 87 7d 7f 3f 0a 99 7f 3f 19 5c 7e 3f
       1.0219239 0.99800915 0.99842894 0.9935928
000190 bd 67 7f 3f 77 30 82 3f c5 b8 7d 3f 7f 6f 81 3f
       0.9976767 1.017104 0.9911006 1.0112151
0001a0 83 5c 77 3f 0b 3e 80 3f 5e 30 7d 3f 3f 5e 7d 3f
       0.96625537 1.0018934 0.9890193 0.98971933
0001b0 d6 04 7d 3f 3d b0 80 3f 84 a9 7e 3f 64 20 7d 3f
       0.98835504 1.0053784 0.9947741 0.9887755
0001c0 14 8b 7d 3f 64 d3 7d 3f e2 74 81 3f f0 97 81 3f
       0.9904034 0.9915068 1.0113795 1.0124493
0001d0 74 4d 81 3f 54 59 84 3f 26 52 83 3f b5 4b 82 3f
       1.0101762 1.0339761 1.0259445 1.0179354
0001e0 95 75 81 3f 16 cf 7b 3f 44 3c 7d 3f 1b 81 80 3f
       1.0114008 0.98362863 0.98920083 1.00394
0001f0 48 75 83 3f 2e 52 80 3f cd e6 79 3f c1 76 7b 3f
       1.0270166 1.0025079 0.976178 0.9822808

main_network.1.bias f4 [128]
000000 66 0a 9e bc 7f 80 30 3d 8c 4e f6 bc a5 34 58 3c
       -0.019292068 0.043091293 -0.030066751 0.013196145
000010 66 0f 96 3c ac ed 74 3b d9 2e 02 bc c3 06 b2 3c
       0.01831789 0.0037373109 -0.00794574 0.02173174
000020 0a af 89 3a 05 5f a7 3c 8d cb a4 3c cb 78 08 bc
       0.0010504436 0.020431051 0.020116592 -0.008329581
000030 02 d4 f9 3c e6 3f 60 3d 3f fc 17 3d d0 0f 81 bc
       0.030496601 0.05474844 0.037105795 -0.01575461
000040 49 36 84 ba 64 49 70 3c d2 c4 0d 37 07 ac fb 3c
       -0.0010086979 0.014665935 8.450081e-06 0.030721677
000050 dd 43 a0 bb b4 61 01 3d ae 4b af bc 16 6f 54 3b
       -0.0048909024 0.031587318 -0.021398392 0.0032414845
000060 49 d7 8f 3c e8 2f 8f 3d 55 52 76 bc 74 7f 43 3b
       0.01755871 0.06991559 -0.015034278 0.0029830607
000070 65 1d a2 3a 79 77 d3 ba 51 90 ff 3c ff 14 ec 38
       0.0012368379 -0.0016133628 0.031196745 0.00011257268
000080 22 48 c6 3b cf d1 c3 3c b3 ab 30 3d 64 7f 79 3c
       0.0060510794 0.023903755 0.043132495 0.015228126
000090 43 92 a9 bc 00 a8 f8 3c d2 76 e6 3c 7c b8 3f 3c
       -0.020699626 0.030353546 0.02813283 0.011701699
0000a0 1c 67 4e bc 40 d8 35 3c 27 d5 e9 b8 54 ac 23 3d
       -0.012597825 0.011098921 -0.000111500085 0.039959267
0000b0 cb 86 b9 bc 9d b4 e2 3c 51 af 28 3c 35 b7 ab 3b
       -0.022647282 0.027674014 0.010295705 0.005240346
0000c0 46 d8 bb bc ca b5 a4 3c 60 f7 55 3b 67 d0 f1 3b
       -0.022930276 0.020106215 0.0032648668 0.00737958
0000d0 b0 34 0a bd f4 3b be ba d3 c7 f9 3b 23 69 ce bc
       -0.033741653 -0.0014513717 0.007622698 -0.025196617
0000e0 e3 92 5b 3c 5d 81 7e 3c 46 62 f7 3b bc e0 43 bc
       0.01340172 0.015533772 0.007549557 -0.011955436
0000f0 56 88 d9 3c 5b c0 eb 3c f3 11 e7 bc 84 20 2d 3c
       0.026554268 0.028778246 -0.028206801 0.010566834
000100 4e c5 2e 3c 91 11 d2 bc 1e 23 3d bc f4 c3 a4 3c
       0.010667158 -0.025643142 -0.011544017 0.020112969
000110 d3 38 cd 3c 25 e3 14 bd 5f 79 7c bc 45 65 42 3b
       0.02505151 -0.036349434 -0.0154097965 0.0029662412
000120 35 d7 8b 3b a6 2d e9 3c 3b 37 ef 3c 73 7d a8 39
       0.004267598 0.02846415 0.02920114 0.00032136924
000130 ef 9c 08 3d 5d 2e e6 3c 0d 2f f7 3b 37 58 44 bb
       0.03335279 0.02809828 0.0075434507 -0.0029959807
000140 1e 2e 1b bd 53 45 f5 3b b8 77 ab 3b e1 8b ff bb
       -0.037885778 0.0074850707 0.0052327774 -0.0077986573
000150 26 52 b3 bc d8 2b cd bb 64 38 cb 3b 4c d4 77 3b
       -0.021889757 -0.00626133 0.0062017906 0.0037815748
000160 55 34 f5 bb 99 18 75 bc b1 f4 90 bc 9b 63 96 3c
       -0.007483045 -0.014959478 -0.017694803 0.018358042
000170 7a 5e 2f bc 9e 71 99 3c 8c 03 d1 bb 9e 38 88 bc
       -0.010703677 0.018730935 -0.0063785966 -0.01662856
000180 d3 6d 8f 3c 7e b4 81 bb 00 2e d8 3c d7 84 14 bb
       0.017508423 -0.003958284 0.026389122 -0.0022662187
000190 78 16 61 bb a1 bd 0d 3b 2e cf 24 bc 1c 56 8c 3c
       -0.0034345668 0.002162792 -0.010059161 0.017130904
0001a0 a5 55 55 bd 3a dc 79 3c c7 f4 1e bd f6 b1 bf 3b
       -0.05208363 0.01525026 -0.038807657 0.005850072
0001b0 3e ff 37 bc 94 22 68 3c cb a8 3a bc 51 c4 f5 3b
       -0.011230288 0.0141684 -0.011392782 0.0075002094
0001c0 d1 0e c1 3b a2 52 c7 3c 65 27 85 3c a9 19 96 39
       0.005891659 0.024331395 0.016254136 0.00028629348
0001d0 72 6d 6a 3c da 48 02 3d e2 35 2b 3d 83 62 70 bb
       0.01430832 0.031807758 0.041799434 -0.0036679811
0001e0 7b 1f 99 3c e9 0d 40 3b c2 73 86 3b 2c 48 16 3b
       0.018691769 0.0029305166 0.004103155 0.0022931201
0001f0 93 43 1d 3d e9 52 12 3b 04 30 62 bc 06 1a 1b bb
       0.038394522 0.002232725 -0.013805393 -0.0023666634

main_network.1.running_mean f4 [128]
000000 3c f0 18 bd 28 f9 53 bc db 79 84 3d 8d e5 d0 3c
       -0.03733848 -0.012937821 0.064685546 0.025500083
000010 1f cb 33 3d 58 a2 ac bd 01 2d ab bd 87 3d f1 3c
       0.043894883 -0.08429402 -0.08358193 0.029448284
000020 04 31 f2 3d f9 b3 27 bc e8 fa 19 be 5a 5f 4f 3d
       0.11825755 -0.01023578 -0.1503712 0.050628044
000030 f7 11 25 bd e6 6b bb 3d ad a2 b0 bc 31 20 c7 3d
       -0.040300336 0.09151439 -0.021561945 0.09722937
000040 67 a9 3f 3d ab bd 76 3d 19 b8 c2 bd 73 18 7b bd
       0.046792414 0.060239475 -0.0950777 -0.061302613
000050 80 de 2d 3d 43 2a 96 3d 01 69 ca bc 45 a1 c6 3d
       0.04244852 0.073322795 -0.024708273 0.096987285
000060 f9 48 73 bd 75 9a 98 3d be 97 1a bd ed 2e 43 bc
       -0.059395764 0.07451335 -0.03774237 -0.011913043
000070 6d 81 85 3d 10 be 15 3c 29 47 5b 3d 76 16 0d bd
       0.06518827 0.009139553 0.05353466 -0.03444525
000080 50 d9 bd 3b 8d 67 28 3c 86 a4 71 3d 96 c2 7b 3d
       0.005793728 0.010278595 0.058994792 0.06146487
000090 4c 88 e3 bd cc eb 03 bc b5 20 12 3e e2 c1 92 bd
       -0.11109981 -0.008051824 0.14270289 -0.071658865
0000a0 67 b3 24 bd 27 b2 3c 3d ef 58 16 3c 62 f3 18 3e
       -0.040210154 0.046068337 0.009176477 0.14936593
0000b0 07 bb 48 3d c9 e3 47 3d e9 5c 0c bd 98 04 10 3d
       0.04900649 0.048801217 -0.034268294 0.03516063
0000c0 c9 f2 87 3d ad 1c e8 3d 43 a6 b2 3d d8 60 da 3c
       0.066381045 0.113335945 0.08723118 0.026657507
0000d0 45 23 3d bc 31 dd 26 3d 47 9d 19 3c 0f 77 5b be
       -0.011544053 0.04073829 0.009375877 -0.21432136
0000e0 99 d1 dc bc e5 25 69 bc 73 ed 41 bc 39 2b d0 bc
       -0.026955413 -0.014230226 -0.011836397 -0.025411235
0000f0 3a f2 d1 bd e2 46 10 3e 9a ef e8 bd 24 79 91 bd
       -0.10251279 0.1408954 -0.11373825 -0.07103184
000100 d8 97 b9 bd a7 e3 6a bd 29 8d cc bc af e2 56 3e
       -0.09062165 -0.057346012 -0.024969654 0.2098491
000110 d0 4f 88 3d c0 09 f0 bd b8 fe eb 3d 94 49 ea 3c
       0.06655848 -0.1172061 0.11523193 0.028599538
000120 60 4c b6 3c b8 cb 6c bc 21 89 87 bc 5e 1b b3 bc
       0.022253215 -0.014452867 -0.01654488 -0.021863636
000130 0f 00 e0 3d de f6 a7 bd ac 61 01 3e 95 63 48 bd
       0.10937511 -0.08201383 0.12634915 -0.048923094
000140 ec 65 a8 bd 14 fe 49 bc a6 e5 50 3d f5 d0 ac 3d
       -0.08222565 -0.012328643 0.05100026 0.08438293
000150 04 7f 70 bc 72 23 fd 3d 68 69 7c bc 3a f4 ef 3b
       -0.01467872 0.12360276 -0.01540599 0.0073228152
000160 dd 7e be bc 74 e6 ff bb f7 a6 62 bd 88 7c 5c bd
       -0.023253853 -0.0078094546 -0.05533501 -0.0538297
000170 2c 20 ac bd 44 5a 17 3d 26 04 1f bd 57 d6 09 bc
       -0.08404574 0.03695132 -0.038822316 -0.008412919
000180 af f7 01 bd 63 fc 84 bc 0e ef 9f 3d bc 2f ff 3c
       -0.03173035 -0.016233629 0.07809268 0.031150691
000190 56 d7 29 3c 31 ee 81 3d 3e 08 cd bd 4d 92 bb bd
       0.0103662815 0.063442595 -0.10011338 -0.09158764
0001a0 bb fa 1d bd 44 88 12 bd eb f2 10 be c7 df d0 bd
       -0.038569193 -0.035774484 -0.14155166 -0.10198932
0001b0 0a 2e 7b 3d 44 cc 97 bc e7 46 5f 3c 94 04 fc 3c
       0.061323203 -0.018530019 0.013627744 0.030763902
0001c0 cc 63 a9 bd fc f0 3f bd 70 60 80 bd 7a 8b 5b 3b
       -0.08270988 -0.04686068 -0.06268394 0.0033499883
0001d0 09 51 aa bd e7 b6 7e bd 57 3e b7 bd 80 e7 8a 3d
       -0.083162375 -0.062186148 -0.08947437 0.06782436
0001e0 43 29 d0 bd 66 2a 70 bc 33 1c 69 3d 00 8a 58 3d
       -0.1016412 -0.014658546 0.05691166 0.052865982
0001f0 7f 2e cd 3a e2 f2 fe 3c e8 c7 95 3c b9 55 27 3a
       0.0015654116 0.031121675 0.0182838 0.0006383318

main_network.1.running_var f4 [128]
000000 21 a1 91 3d fa ad 36 3e 7f 0f 1d 3e 56 73 0b 3e
       0.07110811 0.17839804 0.15337943 0.13618216
000010 c3 cd 33 3e 33 02 d8 3e 69 6e 93 3e 16 40 cf 3d
       0.1755896 0.42189178 0.28795174 0.10119645
000020 02 64 0e 3e 45 4f 6a 3d 05 0e 2e 3e b7 64 95 3d
       0.13905337 0.057204504 0.16997536 0.072946005
000030 79 34 50 3e b1 e9 83 3e 21 0e e9 3d b8 47 cb 3e
       0.20332517 0.2576423 0.11379648 0.39703155
000040 9d 5c 67 3d 4e d5 87 3e 44 9d e2 3d 06 3b 9f 3e
       0.056484807 0.26529926 0.11065152 0.3109972
000050 73 a1 33 3e 45 1c 26 3e 3c e1 83 3e 9d a0 da 3d
       0.17542057 0.16221721 0.25757778 0.10675166
000060 07 9d ce 3e db 7d 6d 3e ee 63 4e 3e 99 e2 31 3e
       0.40354177 0.23192541 0.20155308 0.17371596
000070 8e 38 49 3e b4 b4 f4 3d 3c 63 16 3f bb d9 cb 3e
       0.1965048 0.11948529 0.5874517 0.39814553
000080 6d be 05 3e 70 f8 88 3e a5 ec 32 3e a1 0a a2 3d
       0.13060923 0.26752043 0.17473085 0.079121836
000090 33 42 4e 3e 9b b2 be 3e c1 6f de 3d ed d3 47 3e
       0.2014244 0.3724564 0.10861159 0.19514437
0000a0 fd bc 30 3e 41 84 83 3e 31 2b 0c 3e eb c4 ca 3d
       0.17259593 0.2568684 0.13688351 0.0990084
0000b0 41 92 a1 3e 09 7a d3 3d 5a 18 14 3e 64 83 45 3e
       0.31556895 0.10326011 0.14462414 0.19288403
0000c0 8e 24 92 3d 3f ad 9c 3e cf 9a 1b 3e 2b 57 d2 3e
       0.071358785 0.30600926 0.15195774 0.4108213
0000d0 9a 22 e5 3d ee 58 9a 3d 26 ff f0 3d e4 38 55 3e
       0.1118824 0.07536493 0.11767416 0.20822483
0000e0 0f 27 83 3e 81 17 91 3e 37 d7 11 3e bd 6b af 3d
       0.25615737 0.28338245 0.14242254 0.08565471
0000f0 84 45 5c 3e 58 c6 82 3e 9b 85 a9 3d 7f b5 2f 3e
       0.21510893 0.2554195 0.08277436 0.17159079
000100 aa e8 0d 3e 69 c7 57 3e db c0 29 3e 43 f7 84 3d
       0.13858286 0.21072163 0.16577475 0.06492474
000110 fa e3 c8 3d c0 c9 1b 3e 54 6e c0 3e 9a 5b f3 3d
       0.09809108 0.1521368 0.37584174 0.11882706
000120 c4 04 05 3e 8b 42 15 3e 24 96 55 3e d1 08 b0 3e
       0.12990099 0.14576165 0.20858055 0.34381726
000130 b8 8e c0 3d 75 db c9 3e b1 fd 5d 3e 29 62 3a 3e
       0.094022214 0.39425245 0.21678807 0.18201508
000140 36 f3 78 3e 4b 60 01 3e 17 44 9d 3e f6 37 24 3e
       0.24311528 0.12634389 0.3071601 0.16036972
000150 23 8d 06 3f 8d 74 c0 3e c9 78 5f 3e e4 44 d9 3d
       0.5255911 0.3758892 0.2182342 0.10608843
000160 44 04 0f 3e 6d 38 61 3e 40 e6 c9 3e d3 2c 4f 3e
       0.13966471 0.21994181 0.3943348 0.20231943
000170 ee e9 33 3e 6c 93 1c 3e 24 c4 f3 3e 60 9c 57 3e
       0.17569706 0.15290612 0.4761058 0.21055746
000180 de dd 54 3d a9 54 d1 3d 47 1f 91 3e d9 0b 08 3e
       0.0519694 0.10221226 0.28344175 0.1328577
000190 0a 76 4c 3e 6c 7c 88 3d 72 b8 db 3e a9 0d b9 3e
       0.19966903 0.066643566 0.42914158 0.36143234
0001a0 aa e4 0d 3e 56 0f 58 3e 98 cb 0b 3e 7e 13 6e 3e
       0.1385676 0.210996 0.13651884 0.23249623
0001b0 23 87 01 3e 5a d3 45 3e 12 97 6a 3e 0f 53 14 3e
       0.12649207 0.19318905 0.22909191 0.1448481
0001c0 21 bc db 3e c3 b3 13 3d df ec f6 3d e4 c4 1a 3e
       0.42916968 0.036060106 0.12056898 0.1511417
0001d0 23 78 81 3e b2 11 bd 3d 6d 55 37 3e 66 cc 11 3e
       0.2528697 0.09231891 0.17903681 0.14238128
0001e0 52 bb b9 3e f5 5a 38 3e a1 ed 33 3e 30 7a 54 3e
       0.36275727 0.18003447 0.17571117 0.20749736
0001f0 7a 68 04 3e a0 f0 d3 3e b5 01 ae 3e 47 44 46 3e
       0.1293048 0.4139452 0.33985677 0.19361983
