MLP/best_model_bert.pth (torch, 120713 bytes, 47 tensors)

model_embedding.weight f4 [32, 12]
000000 2b c3 6f be 1e a5 c2 39 eb d0 3e be 4b 4c de bd
       -0.23414294 0.00037125585 -0.18634383 -0.108543955
000010 80 be 62 be e9 01 9d be 76 80 6e 3e 27 de a1 3d
       -0.22142982 -0.3066552 0.23291191 0.079037
000020 70 f2 e9 3d e7 c9 9f 3e f8 a0 2f be ab 7f 23 bd
       0.114231944 0.31208727 -0.17151248 -0.039916676
000030 f8 c1 27 be 2f 0e 8e 22 e9 62 3a 3e 99 37 6e be
       -0.16382587 3.8504195e-18 0.18201794 -0.23263396
000040 bc 53 ff 3d e6 ef 19 3e 38 ab 88 3d 5a a1 dc 3d
       0.12467143 0.1503292 0.066732824 0.10772963
000050 6e ad 92 3e 85 1d 89 3d a0 d5 5e be d2 ec cf bb
       0.2864794 0.066950835 -0.21761179 -0.00634537
000060 c0 da 56 bd 07 97 8f b8 8c 44 95 be a6 1a 13 3d
       -0.05245471 -6.8469024e-05 -0.2915386 0.035914086
000070 d0 54 41 be 6d 0e 77 be 03 fb 07 3e 4a 0c 3f be
       -0.1888001 -0.24126597 0.13279347 -0.18657032
000080 9d 70 03 be b2 dc b8 bd 4d ac 5c be 9d 13 42 be
       -0.12835927 -0.09026469 -0.21550103 -0.18952794
000090 2f 95 78 be fe 48 27 31 8c b8 4b 3e b1 a6 48 be
       -0.24275659 2.434319e-09 0.19894618 -0.19594838
0000a0 71 b6 b1 3e 2b 95 3a be 1f b8 9f bd 8e 89 9b 3e
       0.34709504 -0.18220966 -0.0779879 0.30378383
0000b0 63 b4 dc 3d b8 e6 28 3e 1f b9 c3 ba 1b 81 92 be
       0.107765935 0.16494262 -0.001493249 -0.28614125
0000c0 1e b7 3d 3e 0f 06 15 3c 04 fe c1 3d 80 50 95 be
       0.18526885 0.009095683 0.09472278 -0.2916298
0000d0 d1 ca 0a be 65 72 69 3b c2 99 82 3e 8d bd 9f be
       -0.13553931 0.0035621163 0.25507933 -0.31199303
0000e0 b4 5c f0 3d d8 b1 08 3e c8 7f 3b be d9 83 12 be
       0.11736432 0.13349092 -0.18310463 -0.14308108
0000f0 1b a9 21 be e0 e3 11 3c bb 3a 4e 3c 6b ed 20 3e
       -0.15787165 0.008904427 0.012587245 0.15715568
000100 7d 08 00 be ed f5 0d 3e a2 31 38 be 8b 96 af be
       -0.12503238 0.13863344 -0.17987683 -0.34294543
000110 84 60 3f be 92 ea be 3d 27 71 00 be b3 75 bc bd
       -0.18689162 0.093220845 -0.12543164 -0.09202137
000120 4f 87 11 be 9c a2 12 23 ac ab 8d 3e fb be ac bc
       -0.14211772 7.94911e-18 0.27670038 -0.02108716
000130 53 c3 f3 bd a2 af c5 3d f4 c2 84 3e f8 7c fb 3c
       -0.119024895 0.0965264 0.25929987 0.030699238
000140 24 3a 00 bd 95 87 01 be b5 28 79 3e cf 91 de 3d
       -0.031305447 -0.12649377 0.24331935 0.108676545
000150 72 92 8f 3d f9 c0 39 a4 bd b5 96 3e 01 46 42 be
       0.07010354 -4.0278935e-17 0.2943553 -0.18972017
000160 7e f4 90 3e ad 72 20 3d 19 3c 7f 3e 19 80 34 be
       0.28311533 0.039171863 0.24925269 -0.1762699
000170 59 40 17 be d9 9f a7 be f8 3c 1e be fc aa b6 bb
       -0.1477064 -0.32739142 -0.15452945 -0.005574582
000180 dc 03 c9 3d 3f 68 27 25 f1 91 99 bd 8b d7 35 be
       0.09815189 1.4520261e-16 -0.07498539 -0.17758004
000190 5c 2c 3d be 36 82 8f bd 56 1d 17 be e6 98 89 3d
       -0.18473953 -0.07007258 -0.14757285 0.06718616
0001a0 64 49 25 3d d0 3a 48 3e a1 45 0b be f6 bd 54 3e
       0.040353194 0.19553685 -0.1360078 0.2077559
0001b0 a9 7e 95 3d 83 3f e3 ad 66 8c 96 3e 1f ac 90 3e
       0.07299549 -2.5835117e-11 0.2940399 0.28256318
0001c0 0e 3b be 3d ec e7 65 be ea 91 e4 bc 58 67 72 3e
       0.092886075 -0.22451752 -0.027901608 0.23672235
0001d0 a0 5a 87 3e 2d 8a 96 be 9f 12 7f bd 3f e0 3e 3e
       0.2643633 -0.29402295 -0.062273618 0.1864023
0001e0 b6 79 7c be 02 2a c4 2e 71 0c 85 be 07 b6 bd be
       -0.24655804 8.92051e-11 -0.25986055 -0.37052938
0001f0 02 c1 18 be 7e 20 ba 3d 84 a7 3a 3e 7a db 7a be
       -0.14917377 0.09088229 0.18227965 -0.24497786
000200 32 17 ad bc 0e d6 4e 3e 92 da 1a be 8b d7 d8 3b
       -0.021129224 0.20198843 -0.1512244 0.0066174916
000210 46 58 45 3e a2 58 20 3c 57 d9 2f 3e 02 28 93 3e
       0.19271955 0.009786757 0.17172752 0.2874146
000220 7a bb 87 3e 65 7b 70 bd 11 17 7e be a3 50 6b be
       0.2651022 -0.05871143 -0.24813487 -0.22979979
000230 5f 63 d4 3d 2b 82 83 be 0c fe 1b bd e5 6c 9f bd
       0.10370516 -0.25685248 -0.038084075 -0.07784442
000240 39 76 57 be 3c 87 d9 ba 72 cd d3 39 46 4c 35 ba
       -0.21041192 -0.0016596089 0.00040398125 -0.00069159677
000250 d4 f6 a3 be ca b7 a2 3e ea 75 0a be dc 3b 1b be
       -0.32024252 0.31780845 -0.13521543 -0.15159553
000260 bd 52 0c 3d 80 b6 4c be 19 02 6b 3e 12 85 b6 3d
       0.034258593 -0.19991493 0.22950019 0.089121
000270 53 cb 4e 3d ac ef e5 35 bc 95 81 3d bd 24 38 be
       0.050486874 1.7131583e-06 0.06327388 -0.17982765
000280 cd a6 5b 3e bf 7f 7d bd 54 9e 2d 3e 48 83 33 be
       0.21450348 -0.061889406 0.16954929 -0.17530549
000290 69 b7 54 be 9d 66 a8 bc cd 3e 2f 3e 45 76 91 3e
       -0.2077309 -0.020556742 0.171138 0.28410545
0002a0 84 54 d7 bd dd 11 da 2c fd d3 3b be f7 ed 89 3e
       -0.10514167 6.197916e-12 -0.18342586 0.26939365
0002b0 a0 18 a4 be 7e de 44 3e b7 d8 12 3e 98 f3 02 bd
       -0.32050037 0.19225499 0.14340483 -0.03197059
0002c0 3b 42 dc 3d 71 73 63 3e 30 a0 6c 3d 37 6c 5c be
       0.1075482 0.22212006 0.057769954 -0.21525656
0002d0 99 9a d2 bd 92 22 0c 25 60 7d a9 be f1 05 90 bd
       -0.102833934 1.2154777e-16 -0.33103466 -0.07032383
0002e0 90 c1 bb be 5f 59 fa 3d d5 b2 c8 3d 28 d7 1f be
       -0.36671114 0.122240774 0.097997345 -0.1560942
0002f0 9e c5 0c be b8 4f 65 be b2 ab e7 bd a3 ea 96 3e
       -0.1374726 -0.22393692 -0.11312045 0.2947589
000300 3d 18 3e be 34 47 8a 3a 3f 80 7d 3e 53 c1 99 3e
       -0.18563934 0.0010549785 0.24755953 0.30030307
000310 33 80 94 3e c3 c1 13 3e f6 84 a2 3d 57 e5 99 be
       0.29004058 0.14429383 0.079355165 -0.30057785
000320 bc f5 30 3e 66 b7 8b be 21 de 93 be d0 b1 c7 3b
       0.1728124 -0.2728836 -0.28880408 0.006094195
000330 f0 72 fc 3d ed d5 2b a2 e8 2d 9a 3e 05 79 98 be
       0.1232661 -2.3288073e-18 0.3011315 -0.2977983
000340 b4 5d 9b bd 9e 1c 7e bd 3a 87 a4 be 3f 37 2f 3e
       -0.07586232 -0.06203901 -0.3213442 0.17110918
000350 5a b3 80 bd f3 f5 a2 bd cf 04 1d be 3b e9 be bd
       -0.062842086 -0.07957067 -0.15333866 -0.09321829
000360 11 ef f4 3d 8f b4 ee 2c 3a 5a 83 be 1d 45 2b 3e
       0.11959661 6.784413e-12 -0.25654775 0.16725583
000370 bb 1d 23 3d 6f 04 ef bc ce 81 6d 3e c1 84 13 be
       0.039823275 -0.029176919 0.23194048 -0.1440611
000380 b9 31 90 bc e9 3f c3 bd 7d 6b a6 bd cf df 1e be
       -0.017601835 -0.09533674 -0.081259705 -0.15515064
000390 1c 67 95 3e d4 b5 95 b8 b9 d6 7e 3e 4f 51 97 3e
       0.2918023 -7.138742e-05 0.24886598 0.2955422
0003a0 9a 89 4a be e4 98 06 3e a0 ad 8b be 69 47 db bd
       -0.19779053 0.1314426 -0.27280903 -0.1070698
0003b0 1a 9e 57 3e 57 e2 0a 3e a1 87 96 3c 49 3f 29 be
       0.21056405 0.13562904 0.01837522 -0.16528048
0003c0 f1 7a 72 3e b8 de 56 ae 6e c0 38 be 7f 34 37 3c
       0.23679711 -4.885578e-11 -0.18042156 0.01118195
0003d0 32 d8 43 be 87 91 89 be ed 5d 2c 3d 16 1b ef 3c
       -0.1912544 -0.2686884 0.042081762 0.02918772
0003e0 4a cc 25 3d a0 46 53 be f6 14 10 be 09 76 34 3e
       0.04047803 -0.2063241 -0.14070496 0.17623152
0003f0 fe 21 85 3d 7d c3 b6 b8 05 61 48 be 95 e2 5f be
       0.06500624 -8.714849e-05 -0.1956826 -0.21863778

model_embedding.bias f4 [32]
000000 9f b4 99 bb 5d 44 4d 38 1b ab 1c b7 54 66 ad 36
       -0.004690721 4.8939477e-05 -9.338163e-06 5.1677143e-06
000010 c6 42 c1 bb 32 1a 2d b5 26 7f 6d 35 e1 ba 54 ba
       -0.0058978526 -6.448564e-07 8.8474405e-07 -0.00081150053
000020 17 de 19 b7 14 54 12 3c 8f 70 4d bb 5e 01 5b ba
       -9.17122e-06 0.008931179 -0.0031347608 -0.0008354391
000030 a7 7d 3f b6 57 e8 ac 38 da ef 03 bc 9b fc af ba
       -2.8534357e-06 8.244876e-05 -0.008052791 -0.0013426723
000040 4e 4a a9 35 b8 29 dc b6 81 03 0b bb b8 35 f1 b6
       1.2613107e-06 -6.5613676e-06 -0.0021211805 -7.1886134e-06
000050 40 f5 30 b7 24 c0 4e b7 6d 8c 0f 3b 2b 49 01 b5
       -1.0547519e-05 -1.2323293e-05 0.0021903769 -4.816272e-07
000060 1d b5 c3 b6 c8 39 e8 b6 76 1c 35 3a 0b 67 86 3b
       -5.832537e-06 -6.9208654e-06 0.0006908843 0.004101639
000070 6f 1d 25 37 31 8e a0 bb 59 8e f0 bb 3e 80 7f 36
       9.841619e-06 -0.004899763 -0.007341188 3.8072608e-06

dataset_embedding.weight f4 [16, 3]
000000 70 4a cb be 07 d8 00 bd 95 3b c0 3e f0 10 d8 3e
       -0.3970523 -0.03145602 0.37545457 0.42200422
000010 d4 e5 a2 bd e2 31 bc 3e 8b fb ab be ab 32 f3 be
       -0.079539925 0.36756808 -0.3359035 -0.47499594
000020 ad f8 0e bf e8 80 82 3e e1 5c 08 be 29 b8 ff 3e
       -0.558482 0.25488973 -0.1331668 0.4994519
000030 52 01 17 3f 82 be d3 3e 49 dd 06 3e cb ef b9 3e
       0.5898639 0.41356283 0.13170351 0.3631576
000040 c9 c8 bb be c4 80 ea be a2 ed 93 3e 25 9c dd 3e
       -0.36676624 -0.45801365 0.28892237 0.4328319
000050 ff be ad 3d a9 c6 10 bf c2 e0 8c bd 02 68 7d 3e
       0.08483695 -0.5655313 -0.06878807 0.24746707
000060 27 b0 7c bd 1e c8 d0 be e0 23 8e be 91 3f 51 be
       -0.06169143 -0.40777677 -0.27761745 -0.20434405
000070 6f 46 c1 3e 9b c1 8a 3c 8b 80 a2 bd 5a 21 9c be
       0.3774905 0.016938021 -0.07934674 -0.30494195
000080 99 2f 02 bf f6 3f dc 3d dd 01 19 bf 68 f3 3e bd
       -0.5085388 0.10754387 -0.5976847 -0.04661885
000090 d5 df 1a bf b7 c2 3d 3e 64 18 83 3e ba 34 12 3e
       -0.6049779 0.18531309 0.25604546 0.14277926
0000a0 8e eb 29 bf 4f b8 92 3e c8 d9 ed 3e b1 89 9c 3e
       -0.6637505 0.2865624 0.46455216 0.305738
0000b0 f1 60 71 be 08 9e 1c bf 68 dc 76 be f5 d2 1a bf
       -0.23572136 -0.61178637 -0.24107516 -0.60478145

dataset_embedding.bias f4 [16]
000000 ae 49 ae 37 5c cd 0e 3e 92 e8 0b bd 4a 66 9a 3a
       2.0776726e-05 0.13945526 -0.034157343 0.0011779752
000010 28 95 f6 bd 5d 7d 4a bd 67 e6 b0 bd 2c 22 3c b7
       -0.12040168 -0.049435962 -0.08637696 -1.12136295e-05
000020 09 c5 6b bd 61 df 5d b6 27 61 dc 3a c7 da 68 38
       -0.057560954 -3.306159e-06 0.0016813622 5.5516863e-05
000030 fd 62 7c bd 53 ea 80 bd 4a 45 c1 37 e6 08 c5 b6
       -0.06161784 -0.06294694 2.3039658e-05 -5.8720934e-06

tensor_network.0.weight f4 [16, 1]
000000 7c 4b 19 3f ad 67 c3 be 2b 52 e7 ba 96 4c 64 3e
       0.59880805 -0.38165036 -0.0017648389 0.2229484
000010 3d 85 0d bf 71 38 a4 bd 99 11 d2 be e0 13 80 3d
       -0.5528143 -0.08018578 -0.4102905 0.06253791
000020 51 1d 1b bf 3b 31 ba 23 77 dd 7c 3e b7 3d ff 3c
       -0.6059161 2.018701e-17 0.24693857 0.031157358
000030 6a bf a5 bd a4 fb fd 3d d1 c6 a3 3e 39 d3 60 3f
       -0.0809315 0.12401512 0.31987622 0.878223

tensor_network.0.bias f4 [16]
000000 41 6a 70 bf f7 5a bb bd ff 2b 3c be 97 4c 3e bf
       -0.9391213 -0.091482095 -0.18376158 -0.74335617
000010 a3 1c 7c 3f 47 1d 0d 3d db 5f 06 35 57 75 41 3e
       0.98481196 0.03445175 5.005838e-07 0.18892418
000020 e4 fa 1c 3f 74 e2 0c be f4 e2 ea 3d 02 be 88 3b
       0.6132033 -0.1375826 0.11469069 0.0041730413
000030 40 ab 3d 39 45 aa ce b7 de 19 53 3c 81 95 3a bf
       0.0001808824 -2.4636402e-05 0.012884585 -0.72884375

tensor_network.2.weight f4 [16]
000000 d7 67 7f 3f d6 a9 06 3f d6 a9 06 3f 3c 92 83 3f
       0.9976782 0.526029 0.526029 1.0279002
000010 57 5c 80 3f d6 a9 06 3f d6 a9 06 3f c7 66 81 3f
       1.002818 0.526029 0.526029 1.010949
000020 65 02 85 3f d6 a9 06 3f c1 dc 83 3f 53 0c 7d 3f
       1.0391356 0.526029 1.0301744 0.9884693
000030 d6 a9 06 3f 36 6e 80 3f 9d ba 84 3f 02 03 82 3f
       0.526029 1.0033634 1.036945 1.0157168

tensor_network.2.bias f4 [16]
000000 6e 8f 0e b8 ad b2 47 26 6b 3d 8e 24 e0 dd 9d 38
       -3.3989018e-05 6.9284145e-16 6.168673e-17 7.527671e-05
000010 db f7 38 b6 c3 d7 30 a5 66 c1 dd a3 77 3d c0 b7
       -2.7562407e-06 -1.533867e-16 -2.4042775e-17 -2.2916805e-05
000020 56 25 9b 37 3d 6f 09 27 a2 1a 3b 37 56 26 fe 37
       1.8494826e-05 1.9072872e-15 1.11522695e-05 3.0297011e-05
000030 2a f1 31 a5 45 ff ad b7 27 83 86 37 82 6a ee b6
       -1.5434012e-16 -2.0742076e-05 1.6035117e-05 -7.105352e-06

tensor_network.2.running_mean f4 [16]
000000 d8 1d 7f 3f 00 00 00 00 00 00 00 00 f9 b5 2c 3e
       0.9965491 0.0 0.0 0.16866292
000010 f7 d9 c1 3d 00 00 00 00 00 00 00 00 3d b8 c7 3e
       0.094654016 0.0 0.0 0.3900775
000020 63 d1 26 3c 00 00 00 00 dd ff 64 3f f0 41 d4 3d
       0.010181758 0.0 0.89452916 0.10364139
000030 00 00 00 00 35 e8 c9 3e 3c 83 82 3f 11 e4 00 40
       0.0 0.39434972 1.01963 2.01392

tensor_network.2.running_var f4 [16]
000000 76 ae ac 3f 45 44 35 0e 45 44 35 0e f6 15 b8 3d
       1.3490741 2.2342843e-30 2.2342843e-30 0.08988564
000010 68 b6 f3 3c 45 44 35 0e 45 44 35 0e ee c8 8b 3c
       0.029750064 2.2342843e-30 2.2342843e-30 0.017063584
000020 02 7b 86 3a 45 44 35 0e bd 65 85 3e 98 e1 8a 3b
       0.0010260048 2.2342843e-30 0.26054183 0.0042383187
000030 45 44 35 0e 16 f9 88 3d 49 0d df 3e 42 38 4f 40
       2.2342843e-30 0.06688134 0.43564823 3.2378087

worker_network.0.weight f4 [16, 1]
000000 74 69 74 3d f0 bd 12 3d 04 0f 01 3f 59 e6 83 3e
       0.05967088 0.03582567 0.5041354 0.2576168
000010 ad 57 a5 3e 7c e1 b2 3e db 1e 1f 3e 07 86 9d 3d
       0.32293454 0.34937656 0.15539114 0.07691579
000020 af 9c 9a 3e 25 f4 dd 3c 82 24 9e 3e 87 4a 22 bb
       0.30197665 0.027093956 0.30887228 -0.002476366
000030 b5 15 e3 b9 85 65 93 3d a5 f1 13 3e f8 dd 19 3e
       -0.00043312987 0.07197098 0.14447649 0.1502608

worker_network.0.bias f4 [16]
000000 2f 21 8d 3d a5 1d 0c 38 14 8b 8a be 3f 3b 6e 3b
       0.06891095 3.340621e-05 -0.27059233 0.0036351231
000010 87 bb 8c 3d 36 bb 94 3d fe 3f fa be ec cf 9e 3e
       0.068717055 0.0726227 -0.48876947 0.31018007
000020 68 f2 bd 38 35 9d 88 3d 43 a9 d5 bd df e7 03 bd
       9.057374e-05 0.0667061 -0.10432675 -0.03220355
000030 9f a2 ae be 63 a9 9d 37 03 aa e9 b7 21 b3 55 be
       -0.34108445 1.8794735e-05 -2.7854932e-05 -0.20869114

worker_network.2.weight f4 [16]
000000 5f 49 7a 3f 97 22 7b 3f 0b ae 77 3f a6 4d 7a 3f
       0.97768205 0.98099655 0.96749943 0.9777473
000010 5f 81 7c 3f 7a 1a 79 3f 03 9d 7a 3f e0 09 77 3f
       0.98634905 0.97306025 0.9789583 0.96499443
000020 e8 52 7c 3f fd a2 76 3f d6 4c 7d 3f d6 a9 06 3f
       0.98564005 0.9634245 0.9894537 0.526029
000030 d6 a9 06 3f 7d 47 7d 3f df eb 7d 3f a3 3f 78 3f
       0.526029 0.9893721 0.99188036 0.969721

worker_network.2.bias f4 [16]
000000 62 43 43 b7 38 52 b6 b7 f6 2a 6c 36 dd 05 ba b7
       -1.16385945e-05 -2.1734377e-05 3.5191747e-06 -2.2175658e-05
000010 d3 1d d0 37 e4 32 cf b5 e6 23 f5 37 6a fc 93 b7
       2.480942e-05 -1.5437513e-06 2.9222992e-05 -1.7641305e-05
000020 1b 05 86 36 68 18 5a b7 47 08 5b b7 df 81 ad a4
       3.9941056e-06 -1.2999495e-05 -1.3055344e-05 -7.52468e-17
000030 0a dc 01 a7 49 1d 13 b6 a0 8a 1e 37 6a 38 9a b7
       -1.802163e-15 -2.1921753e-06 9.44981e-06 -1.83845e-05

worker_network.2.running_mean f4 [16]
000000 b4 e9 b1 3e 81 5c 2e 3e b4 20 06 40 32 e3 9b 3f
       0.34748614 0.17027475 2.095746 1.217871
000010 6d 8f cb 3f 9d e7 db 3f 55 d6 97 3e 5e be 2e 3f
       1.5903145 1.7180058 0.2965571 0.6825923
000020 ed 06 b6 3f 71 8b 4b 3e c2 9a ac 3f 00 00 00 00
       1.4220864 0.19877411 1.3484728 0.0
000030 00 00 00 00 98 5c ac 3e 2d de 2e 3f 18 50 00 3f
       0.0 0.33664393 0.68307763 0.50122213

worker_network.2.running_var f4 [16]
000000 ab 5b b6 3c a6 46 09 3c 83 b0 cf 3f 5d 45 da 3e
       0.022260508 0.00837866 1.6225742 0.42631045
000010 63 26 2b 3f 52 25 48 3f fc e4 dd 3d f9 49 22 3d
       0.6685545 0.78181946 0.10834691 0.039621327
000020 46 b7 15 3f df 87 a2 3b 4f 99 1c 3f 45 44 35 0e
       0.5848278 0.0049600448 0.6117143 2.2342843e-30
000030 45 44 35 0e 45 46 06 3d 0d 39 0a 3e a3 1c 16 3e
       2.2342843e-30 0.032781858 0.13498326 0.14659362

batch_network.0.weight f4 [16, 1]
000000 93 e4 02 3e 32 c0 97 be 71 2f a7 be fc d1 22 3d
       0.12782507 -0.2963882 -0.32653382 0.039751038
000010 08 db a9 bd 9d a0 b1 be 66 7e f6 3e cc 6d f9 3d
       -0.0829373 -0.3469285 0.4814331 0.12179145
000020 14 5a 6d 23 64 1c 1f 3e 1a f6 9c 3d e3 51 ea 3d
       1.28668705e-17 0.15538174 0.07664128 0.114414
000030 08 44 ae bd bf 09 dd be 20 f3 e9 bd 11 90 22 3e
       -0.0850907 -0.43171498 -0.114233255 0.1587527

batch_network.0.bias f4 [16]
000000 0c 8e 86 3d 33 b0 b9 3d 81 0c 63 39 8f 68 5b 3a
       0.06570062 0.090668105 0.00021653065 0.00083697675
000010 ca 5e 18 3e 7e d7 49 bd 75 a4 b3 be c6 ba 64 bf
       0.14879909 -0.049277775 -0.35086408 -0.89347494
000020 5e f6 a0 bc 59 59 40 b9 43 fa 67 be 74 35 27 b9
       -0.019648727 -0.00018343831 -0.22654061 -0.00015946274
000030 25 72 a8 be 7e 25 c2 3c 59 99 9c 3e 01 11 40 be
       -0.32899585 0.023699518 0.30585745 -0.18756486

batch_network.2.weight f4 [16]
000000 a8 11 7c 3f d6 a9 06 3f d6 a9 06 3f 66 7b 79 3f
       0.9846444 0.526029 0.526029 0.97453916
000010 d6 a9 06 3f d6 a9 06 3f 7d 5a 79 3f d5 92 81 3f
       0.526029 0.526029 0.974037 1.0122935
000020 d6 a9 06 3f 6d 19 7e 3f 41 4f 7a 3f c7 6d 7b 3f
       0.526029 0.99257547 0.9777718 0.9821438
000030 d6 a9 06 3f d6 a9 06 3f 79 47 7f 3f e0 9a 72 3f
       0.526029 0.526029 0.99718434 0.9476757

batch_network.2.bias f4 [16]
000000 b4 17 2e b5 45 53 e6 a5 3f bb 54 a4 fa f9 77 b7
       -6.4854544e-07 -3.9955066e-16 -4.6128776e-17 -1.47805495e-05
000010 a3 49 fe 25 38 45 7e 26 0a fc 0f b8 9a be 32 b8
       4.4111874e-16 8.821776e-16 -3.4328586e-05 -4.261602e-05
000020 05 cb b1 25 d1 1d 95 b7 ff b0 5d b7 8e ab 64 b8
       3.0842177e-16 -1.7776068e-05 -1.3213837e-05 -5.451921e-05
000030 46 8c c9 25 3d 25 fa a5 34 eb b6 b7 ea 0b 42 b7
       3.4962995e-16 -4.339332e-16 -2.1805616e-05 -1.1566075e-05

batch_network.2.running_mean f4 [16]
000000 ab 8b 7f 3f 00 00 00 00 00 00 00 00 48 f2 8f 3e
       0.9982249 0.0 0.0 0.28114533
000010 00 00 00 00 00 00 00 00 dd 32 48 40 e5 9d 96 3d
       0.0 0.0 3.1281044 0.07354335
000020 00 00 00 00 80 b9 90 3f 17 e0 a6 3e e1 3f 51 3f
       0.0 1.130661 0.32592842 0.81738096
000030 00 00 00 00 00 00 00 00 bb 76 97 3a 6d bf 77 3f
       0.0 0.0 0.001155577 0.9677647

batch_network.2.running_var f4 [16]
000000 a0 c4 4f 3d 45 44 35 0e 45 44 35 0e 66 12 97 3b
       0.050724626 2.2342843e-30 2.2342843e-30 0.0046103476
000010 45 44 35 0e 45 44 35 0e a1 87 35 3f 22 4c 2c 3c
       2.2342843e-30 2.2342843e-30 0.7091008 0.010516198
000020 45 44 35 0e fd 24 99 3d a1 43 89 3c d7 58 20 3d
       2.2342843e-30 0.07477758 0.01675588 0.039147224
000030 45 44 35 0e 45 44 35 0e f2 02 a5 38 0e 62 a0 3d
       2.2342843e-30 2.2342843e-30 7.868362e-05 0.078312024

ps_network.0.weight f4 [8, 1]
000000 95 be ec a5 f6 08 9d 23 8f 2f d7 be 84 89 bc be
       -4.1068617e-16 1.702577e-17 -0.42028472 -0.36823666
000010 54 9d 70 3d 5f 2e 1f 3e fb a9 0c 3c 46 02 9b be
       0.05874379 0.15545033 0.008585448 -0.30275172

ps_network.0.bias f4 [8]
000000 99 2b 12 be 1e ae e2 bd 15 b6 f7 bb cf 57 2b b6
       -0.14274444 -0.110683665 -0.0075595477 -2.5532097e-06
000010 2c e5 2f 3d fb f0 09 bf 9f 6b 63 3e 45 8c 1b 3f
       0.042943165 -0.5388333 0.22209023 0.6076091

ps_network.2.weight f4 [8]
000000 d6 a9 06 3f d6 a9 06 3f 94 13 75 3f d6 a9 06 3f
       0.526029 0.526029 0.95733 0.526029
000010 7a 15 71 3f 28 16 6b 3f 03 49 77 3f d9 b0 72 3f
       0.94173396 0.9183068 0.9659578 0.948011

ps_network.2.bias f4 [8]
000000 53 15 6e a5 18 06 38 27 9f 8f 5b b8 ea 30 80 25
       -2.0650434e-16 2.5538433e-15 -5.2347426e-05 2.2237606e-16
000010 a4 78 82 b7 b2 d3 ae 37 f4 8f fa b7 e5 4d d2 b7
       -1.5553385e-05 2.0840995e-05 -2.9869356e-05 -2.5070223e-05

ps_network.2.running_mean f4 [8]
000000 00 00 00 00 00 00 00 00 2a 0b 10 17 00 00 00 00
       0.0 0.0 4.6543e-25 0.0
000010 ae c7 31 3e 0d 09 fc 3d 87 e2 78 3e 20 a6 a4 3e
       0.17361328 0.12306414 0.24305163 0.32157993

ps_network.2.running_var f4 [8]
000000 45 44 35 0e 45 44 35 0e 91 ae 9a 13 45 44 35 0e
       2.2342843e-30 2.2342843e-30 3.90472e-27 2.2342843e-30
000010 07 4a f0 3c 8f bd 82 3d c2 17 23 3a 2c 4a bf 3d
       0.029332174 0.06383812 0.0006221497 0.09340319

main_network.0.weight f4 [128, 104]
000000 78 a0 3b 3c 74 75 f0 bd 9b ec 4c 3d d4 05 8e bd
       0.011451833 -0.117411524 0.050030332 -0.069347054
000010 44 3e 56 bc cf 18 cf 3d c1 d4 6d 3c 8c b6 57 3d
       -0.013076369 0.10112154 0.0145160565 0.052664325
000020 12 7c bd 3a 8e 78 6e 3d 4b 46 21 3b 3f 4b 66 3b
       0.0014456531 0.05822044 0.0024608548 0.0035140065
000030 01 eb 9d bd 35 3d 4a bd 08 90 b3 3d 3a 81 5a bd
       -0.07710839 -0.049374778 0.08767706 -0.053345896
000040 dc fc c7 3c ea 13 c5 bd 98 31 aa 3d 26 d8 35 3d
       0.024412565 -0.09622939 0.083102405 0.04439559
000050 3d e9 2a bb 14 52 3c bd d1 54 55 3d 44 2c 34 ba
       -0.0026078962 -0.045976713 0.05208284 -0.0006873051
000060 52 87 cd bc 8d f2 b0 bc ee 00 9b bd a7 1f 88 3c
       -0.02508894 -0.021600032 -0.07568537 0.016616656
000070 70 c2 48 3d d6 93 a8 3c fa 02 b1 bd 1b 69 80 bd
       0.049013555 0.020578306 -0.08643146 -0.06270047
000080 85 af 4b 3c 98 af c8 3c 9e 22 f4 bc bd 06 bb 3b
       0.012431984 0.024497792 -0.029801663 0.0057075904
000090 0c a8 4f 3c 61 2d 14 bd 80 7f 02 bd 92 4f 28 3d
       0.012674343 -0.03617609 -0.031859875 0.04109151
0000a0 3b 25 86 bd e5 1b 67 bd 75 f1 f1 bc 15 5f e9 bc
       -0.0655007 -0.056423087 -0.029534081 -0.028487721
0000b0 e7 80 c6 bc 9b 7a 11 3a f7 1c ac bd 3c ec a2 3b
       -0.024231387 0.00055495807 -0.08403962 0.004972009
0000c0 2f 8a 50 bd 95 51 83 28 95 8a c0 25 39 77 71 3d
       -0.050913032 1.4579302e-14 3.3400598e-16 0.05895159
0000d0 fa 9a 61 3d c1 73 a8 23 f8 76 fe 23 62 56 1a bc
       0.055079438 1.826362e-17 2.758912e-17 -0.009420009
0000e0 5f 27 bc 3c 21 07 0d a4 38 7f 0f 3d df 1b 72 bc
       0.022967992 -3.058054e-17 0.035033435 -0.014777153
0000f0 96 ee e5 25 12 9b 11 bd 99 2a 78 bd 8a 6b b9 bd
       3.988684e-16 -0.035548277 -0.0605875 -0.090537146
000100 c0 8a 93 3d 41 21 a8 bd e7 9e 9a bd 2b 74 64 3d
       0.07204199 -0.08209468 -0.075498395 0.05577485
000110 1b 06 8c 3d 57 09 dc 3b bb 7d 07 3d e8 fe 42 bd
       0.06837102 0.0067149806 0.03307889 -0.04760638
000120 ad bd e3 3d 90 97 8f 3d 00 76 9e 3d 18 8b 38 a3
       0.11120162 0.0701133 0.077373505 -1.0004114e-17
000130 fc 4d a6 a3 d0 e5 b5 3d 72 66 f1 3c 90 bf 1f 3d
       -1.8030784e-17 0.08881724 0.029467795 0.039001048
000140 3c 3b 81 3d 7c 7a 33 25 ce f8 39 25 d0 99 ab 3b
       0.06310126 1.5567274e-16 1.613049e-16 0.0052368417
000150 5e 7c 99 22 0d 78 c7 a5 c7 c6 61 3d 08 e2 8b 3d
       4.160241e-18 -3.4602347e-16 0.05512121 0.068302214
000160 49 d2 f7 a4 ae 04 9b bd 0d 51 20 3d c2 89 8e bd
       -1.0747541e-16 -0.07569252 0.039139796 -0.06959869
000170 42 d3 9e 24 aa 58 83 27 d6 04 b4 3d 55 44 18 3d
       6.887946e-17 3.6455934e-15 0.08789985 0.03717454
000180 6d 17 2e a4 7c 4a 45 26 f1 b8 9e bc 22 be ea 24
       -3.7750078e-17 6.844905e-16 -0.019375296 1.0180342e-16
000190 81 94 8b 3d 7c 18 75 bd 0a 6d bd 3d 82 06 bf bc
       0.06815434 -0.059837803 0.09249313 -0.023318533
0001a0 05 56 a6 bb 3b 14 74 3d 59 7b 9a bd 81 42 04 3e
       -0.0050761723 0.059589606 -0.07543058 0.12915994
0001b0 45 37 be bd 65 af 41 bd ac f1 84 3d a9 ad 25 3e
       -0.092878856 -0.04728641 0.06491408 0.16179527
0001c0 00 da 2e 39 52 87 13 3e 3a 2e 9b b8 e5 6e bf 3d
       0.00016675144 0.1440709 -7.399586e-05 0.09347323
0001d0 e8 22 cb bc 9e 34 5c bc ce df e5 bd 39 5a 1b be
       -0.024796918 -0.013440279 -0.11224328 -0.15171136
0001e0 4d 1f 04 3e cd d4 f1 3d 2e 32 06 be 54 f7 3e bc
       0.12902565 0.11808167 -0.1310508 -0.011655647
0001f0 08 55 d1 bd 2e a7 14 be 3f 1f 9a 3c ff fa 37 3d
       -0.102212965 -0.14516899 0.018813727 0.044917103
000200 62 5c e5 bd 08 63 b6 bd 4d fd 04 3d 13 3e ed bd
       -0.11199261 -0.089056075 0.03246813 -0.11584105
000210 4c 0f f5 bd a4 c2 f9 3d 69 38 37 3e cb 0d ad 3d
       -0.11965808 0.12195328 0.17892613 0.084498964
000220 83 b9 3f 3c a4 af 4b 3d 60 ab d3 3d 38 a7 a8 bd
       0.011701944 0.04972805 0.103354216 -0.082350194
000230 f7 59 ac bd ca 46 94 bd 3b 1c ab bd ce d7 46 bd
       -0.08415597 -0.072400644 -0.08354994 -0.04854565
000240 1d ef c1 bc 31 82 11 3c 5a 04 27 bd 52 2c 8f bd
       -0.023673588 0.008881138 -0.040775634 -0.06990875
000250 2f ad 24 bd 8e 80 b3 3d e0 26 16 3d 3d b8 29 bc
       -0.040204223 0.08764754 0.036658168 -0.010358867
000260 2f 17 df bd 2d 00 3c a5 6d b4 19 a7 16 95 d2 bc
       -0.10893094 -1.630646e-16 -2.1330824e-15 -0.025705855
000270 64 a8 09 be 17 61 0a 2d 4a ed 77 a4 96 3f 9d bd
       -0.13443142 7.86595e-12 -5.376058e-17 -0.07678144
000280 5c aa ad bd b5 22 91 25 3f e0 41 bd 21 c2 90 3c
       -0.08479759 2.517701e-16 -0.047333 0.017670693
000290 55 10 3b a8 e1 15 82 3d 89 02 d3 3c 41 e4 bd bd
       -1.0384127e-14 0.06351829 0.025758045 -0.092720516
0002a0 44 5b a0 bd 8f ca 5e 3d 34 36 6e bd 72 21 94 bd
       -0.078299075 0.054392394 -0.05815716 -0.07232942
0002b0 be 2c 37 3d cd b9 a0 bd bf 5b a6 3d 97 e0 d0 3d
       0.044720404 -0.07847939 0.08122968 0.10199087
0002c0 ab 1e 69 bd 4f a8 31 3d d4 4a a1 bd be 26 b9 25
       -0.056914013 0.043373402 -0.078756005 3.2118637e-16
0002d0 68 c0 31 a2 7b c6 90 3c f0 1d c7 bb 33 b3 c8 3c
       -2.4089832e-18 0.017672768 -0.006076567 0.024499511
0002e0 a5 39 b8 3d 6a d7 3f 28 d0 d1 01 ab fb c4 97 3d
       0.0899537 1.064934e-14 -4.612118e-13 0.07410618
0002f0 aa cc b9 a3 8a a1 e7 a5 80 b8 04 bd 27 9d a8 bc
       -2.0144419e-17 -4.0181575e-16 -0.032402515 -0.020582749
000300 c7 b1 92 a0 f4 9d b6 bd ba be b5 bd d2 1f ba 3d
       -2.4851005e-19 -0.08916846 -0.08874269 0.090881005
000310 6b 18 5c a7 55 35 76 25 07 5d 4f 3d ce 51 c9 bd
       -3.054437e-15 2.1355168e-16 0.050625827 -0.09830056
000320 5e 89 b2 2c c2 06 09 ad cc 50 92 3d ea b9 1d a6
       5.074315e-12 -7.789049e-12 0.07144317 -5.472228e-16
000330 f8 0c 53 bd f2 78 20 bb a9 47 c1 ba db 86 32 bd
       -0.05152604 -0.0024486152 -0.0014746088 -0.04358564
000340 de fa f0 bd a7 af ff bd 35 62 85 bd fc f4 88 bd
       -0.11766599 -0.12484675 -0.06512872 -0.06687352
000350 37 d0 98 3d 2d 3d 91 bc a9 7a 88 bd 14 8d 8f bc
       0.07461589 -0.017729366 -0.066640206 -0.017523326
000360 21 b2 c6 bc c5 10 d5 3c 04 38 da bd 7c 21 d5 3d
       -0.02425486 0.026008973 -0.106552154 0.10406777
000370 23 03 94 bd f3 a2 2d bd ae 1b 31 3d 0e e8 c1 bd
       -0.07227161 -0.04239173 0.043239288 -0.09468089
000380 ed 7b d5 bc e3 38 e6 bc 45 5c da bb 74 ff 0f bd
       -0.026060069 -0.028103298 -0.0066638314 -0.03515573
000390 fb 23 47 bd 98 2b 13 bd 42 4b 30 bd 0c 3e 4f bd
       -0.048618298 -0.035930246 -0.04304052 -0.050596282
0003a0 08 65 ad 3d e2 1d 8e bd 74 b8 a8 bc 08 50 14 be
       0.08466536 -0.069392934 -0.020595767 -0.14483654
0003b0 75 74 bf 3c dd 00 1e bd 28 ab a8 3c 2b fd a3 bb
       0.02337096 -0.038575042 0.020589426 -0.005004545
0003c0 3b 95 8a bd 27 ec dd 3b a8 38 64 3d ec 47 ad 3d
       -0.06766745 0.0067725363 0.055718094 0.08460984
0003d0 54 10 5f 3c a1 7c 12 3b d5 48 ad 3d 1a b8 b2 bd
       0.013614733 0.0022352117 0.08461157 -0.08726521
0003e0 70 89 3b bd 9e 84 c2 3c 61 6a bb bd 8e 51 6e 3d
       -0.045785367 0.023744877 -0.091511495 0.058183245
0003f0 14 72 84 bd be 7f 1f 3d cd d9 5f 3c 03 6f f3 3b
       -0.06467071 0.038940184 0.013662768 0.007429005

main_network.0.bias f4 [128]
000000 5d d9 1a 37 57 13 1e 36 ef 07 cf b4 0c 93 70 b4
       9.229724e-06 2.3555092e-06 -3.8562527e-07 -2.2405237e-07
000010 fb 56 10 b7 85 58 e0 b5 3d 6f 14 36 13 b5 f8 36
       -8.603321e-06 -1.6715063e-06 2.2118468e-06 7.4120558e-06
000020 49 b3 7a 37 18 c9 79 36 07 12 c6 35 cc ae f3 b5
       1.4942904e-05 3.7220943e-06 1.4757396e-06 -1.8155783e-06
000030 7d 15 03 b6 d7 fb 3c b5 39 f8 98 35 b5 8d b1 37
       -1.953303e-06 -7.040193e-07 1.1397125e-06 2.1166032e-05
000040 ff 27 a2 b6 2a 03 23 34 c3 a6 c0 b6 82 0c 30 36
       -4.8326324e-06 1.5181709e-07 -5.7414595e-06 2.6233324e-06
000050 4f 87 5c b6 54 40 d0 b6 0b 70 df b5 fc 84 2f 37
       -3.2861315e-06 -6.206372e-06 -1.6647404e-06 1.0461776e-05
000060 7f ea ed b6 f7 b4 a6 b6 bb 5c 7e b5 bd 8e 4e 36
       -7.0904493e-06 -4.9682526e-06 -9.4757314e-07 3.0779477e-06
000070 a2 d7 a6 b6 32 dc 90 35 8a a6 f0 36 5a c5 cb 35
       -4.9722885e-06 1.0792921e-06 7.171945e-06 1.5182115e-06
000080 ad 6b de 32 dc e6 fd 36 d9 b0 7a 36 42 61 c5 36
       2.5893167e-08 7.566863e-06 3.7355842e-06 5.88238e-06
000090 9b 6e 18 b6 bf 69 26 b5 41 75 a6 36 39 84 0a 35
       -2.2714146e-06 -6.19937e-07 4.9608357e-06 5.1601415e-07
0000a0 ba ae 3c 36 b0 98 41 36 d3 dd e4 b6 cb 18 56 35
       2.8115887e-06 2.8848117e-06 -6.8207532e-06 7.975729e-07
0000b0 28 de 6a b7 c8 1b b9 36 5a e3 07 b5 58 cb af b5
       -1.3999212e-05 5.516664e-06 -5.062226e-07 -1.3097697e-06
0000c0 01 87 c5 b5 a3 f1 a3 b6 32 c6 6b 37 20 ef 7a b5
       -1.4716935e-06 -4.8859088e-06 1.40532375e-05 -9.348023e-07
0000d0 b1 a4 f3 b5 fb 67 a2 b6 5c 7c 13 b7 25 32 b3 37
       -1.8152842e-06 -4.840081e-06 -8.7908375e-06 2.1361813e-05
0000e0 df 2a cd 36 05 94 66 b6 f1 85 d0 35 cd 20 e6 36
       6.114467e-06 -3.435883e-06 1.553619e-06 6.8583527e-06
0000f0 c0 04 70 b7 95 da e6 b5 46 3a 15 b7 1e f8 9b 35
       -1.4306221e-05 -1.7199951e-06 -8.89466e-06 1.1620612e-06
000100 bd c9 9e 37 fa 90 b2 36 1e b5 b1 35 34 b1 18 b7
       1.892901e-05 5.321691e-06 1.324024e-06 -9.101164e-06
000110 3e c3 8b b6 d5 53 9c b7 c8 3a 6b 37 73 b5 e6 b5
       -4.165252e-06 -1.8635687e-05 1.4020778e-05 -1.7189144e-06
000120 6e 11 55 36 46 b0 83 b6 3c f8 ee b6 68 6d 84 37
       3.1749619e-06 -3.924625e-06 -7.121851e-06 1.5786572e-05
000130 2a 47 a3 35 82 c8 33 b4 d0 ba 4d b4 59 86 95 b6
       1.2165158e-06 -1.6743618e-07 -1.9160075e-07 -4.456186e-06
000140 e9 0d 2f 37 a7 84 12 b7 ed e0 b1 b6 76 56 06 38
       1.0434052e-05 -8.733164e-06 -5.301196e-06 3.2028613e-05
000150 c4 1c 24 36 1a 4a 99 b6 36 34 0c b5 48 65 6b b6
       2.4454648e-06 -4.568382e-06 -5.223004e-07 -3.5076682e-06
000160 8b 9c 4e b5 5b 61 87 b6 46 5c a9 37 37 28 c9 b6
       -7.696878e-07 -4.034647e-06 2.0189338e-05 -5.9949484e-06
000170 02 77 0b 37 e6 62 cb 36 90 d7 59 36 6d 28 18 b7
       8.312754e-06 6.0613847e-06 3.2460994e-06 -9.069318e-06
000180 19 35 8e 35 62 bf 28 37 cf 56 c7 b6 db 87 ff b6
       1.0595278e-06 1.005814e-05 -5.940768e-06 -7.615408e-06
000190 30 7a c4 36 8f e4 0b b6 d1 d8 f1 36 5a 58 7b b7
       5.8554797e-06 -2.0845653e-06 7.2076004e-06 -1.4981337e-05
0001a0 54 f2 9c 35 2e 0c c7 b6 21 bb 31 b6 44 3d 6f b6
       1.1693432e-06 -5.93208e-06 -2.6483979e-06 -3.5649437e-06
0001b0 83 0b 5f b4 a6 74 c0 36 53 1b 55 37 cd 1b 56 35
       -2.0772681e-07 5.7356256e-06 1.2702151e-05 7.976167e-07
0001c0 21 45 16 37 58 a7 2c b6 6b f2 7a 35 9b 86 b1 36
       8.956792e-06 -2.5727404e-06 9.348502e-07 5.290681e-06
0001d0 eb 2e 3c 37 ed 6a e3 37 c0 89 35 b7 66 1f f1 b6
       1.1216597e-05 2.71103e-05 -1.0820513e-05 -7.186015e-06
0001e0 34 83 e1 36 3c 75 99 b7 59 f6 be b6 58 33 cf 36
       6.7207966e-06 -1.8293613e-05 -5.69112e-06 6.175058e-06
0001f0 3d 68 a8 36 41 86 99 b6 bb 4b 0c 35 65 ab 29 37
       5.018925e-06 -4.5753845e-06 5.2264267e-07 1.0113091e-05

main_network.1.weight f4 [128]
000000 a9 4f 7d 3f a1 0d 8f 3f 26 fb 75 3f bb e4 74 3f
       0.98949677 1.1176034 0.9608635 0.95661515
000010 be 04 7c 3f 43 ec 88 3f a9 28 80 3f a0 b3 83 3f
       0.98444736 1.0697101 1.0012408 1.0289192
000020 ea b2 80 3f d7 f8 77 3f 53 81 80 3f 42 26 71 3f
       1.00546 0.96864074 1.0039467 0.94199
000030 21 25 87 3f 54 5d 81 3f 3e d7 7a 3f c0 bb 87 3f
       1.0558206 1.0106606 0.97984684 1.0604172
000040 b3 d3 72 3f 2e 8b 75 3f 0d 84 71 3f 6a 54 7b 3f
       0.9485428 0.95915496 0.9434212 0.9817568
000050 fd ca 79 3f 0a ba 79 3f 96 6f 84 3f 64 c6 84 3f
       0.9757536 0.975495 1.0346553 1.0373044
000060 b8 fa 76 3f b3 e2 76 3f c1 71 7f 3f 65 5b 78 3f
       0.96476316 0.96439666 0.9978295 0.97014457
000070 ac e0 7d 3f 5e 20 89 3f 85 ff 7b 3f b7 4e 87 3f
       0.9917095 1.0713003 0.98436767 1.0570897
000080 a3 dc 87 3f 57 39 82 3f 7a 80 79 3f 9d 59 73 3f
       1.0614208 1.0173749 0.97461665 0.95058614
000090 e9 3e 8c 3f 6f 9a 76 3f 9b 69 81 3f b8 07 75 3f
       1.0956699 0.96329397 1.0110353 0.957149
0000a0 f1 60 76 3f bc 63 84 3f 45 f6 71 3f a5 0f 70 3f
       0.9624167 1.0342937 0.945164 0.9377387
0000b0 0a 14 88 3f 1f da 8b 3f 23 e4 79 3f d0 35 7c 3f
       1.0631115 1.092594 0.97613734 0.9851961
0000c0 77 7b 76 3f 42 f0 7b 3f 94 1c 74 3f 94 74 72 3f
       0.9628214 0.9841348 0.95356107 0.94709134
0000d0 31 93 7a 3f 3e b9 72 3f 9c 14 86 3f 9d 30 80 3f
       0.97880846 0.9481391 1.047504 1.0014836
0000e0 f1 88 85 3f 4c 30 76 3f 11 b9 78 3f 10 1b 82 3f
       1.0432416 0.96167445 0.9715739 1.0164509
0000f0 5c 90 7a 3f d9 93 7d 3f bc 64 7e 3f ec 4a 83 3f
       0.97876525 0.9905372 0.9937246 1.0257239
000100 3b 5a 7d 3f 08 0c 87 3f 98 ac 85 3f 1d 63 87 3f
       0.98965806 1.0550547 1.0443296 1.0577122
000110 6a 60 83 3f 1b f8 82 3f b1 be 78 3f 32 89 7c 3f
       1.0263798 1.0231966 0.9716597 0.98646843
000120 3b 13 82 3f 6c b6 85 3f 32 fb 7a 3f 50 55 7c 3f
       1.0162119 1.0446296 0.98039544 0.98567677
000130 8a db 72 3f bb 53 86 3f 2d 64 7b 3f d3 ca 7a 3f
       0.9486624 1.0494303 0.9819973 0.97965735
000140 da e9 70 3f 08 9d 83 3f 13 2f 7d 3f 64 4d 82 3f
       0.9410683 1.0282297 0.98899955 1.0179868
000150 67 46 7e 3f 86 2c 83 3f 06 be 77 3f c8 80 6f 3f
       0.99326175 1.0247962 0.9677433 0.9355588
000160 b4 e1 85 3f 27 d3 68 3f 0a 29 88 3f 80 65 7e 3f
       1.0459504 0.9094719 1.0637524 0.99373627
000170 d1 c9 87 3f 71 87 86 3f a4 ba 89 3f aa eb 84 3f
       1.0608464 1.0510083 1.0760083 1.0384419
000180 0c 13 87 3f 24 2a 75 3f 4a d2 78 3f 03 af 84 3f
       1.0552688 0.95767426 0.97195876 1.0365909
000190 a1 75 7e 3f ac 64 6b 3f 5d 3b 83 3f 2e 47 7c 3f
       0.9939824 0.9195049 1.0252491 0.9854611
0001a0 46 ef 78 3f 31 46 84 3f dc 9e 79 3f c2 ea 77 3f
       0.972401 1.0333921 0.97508025 0.96842587
0001b0 5a 84 8a 3f 66 2f 80 3f de b7 7f 3f fe d5 82 3f
       1.082164 1.0014465 0.99889934 1.0221555
0001c0 99 2f 77 3f ae ff 6e 3f 55 9d 70 3f d5 ef 7d 3f
       0.96557003 0.93358886 0.9399007 0.9919408
0001d0 ea 57 85 3f e4 c1 7d 3f 43 31 82 3f bd a2 76 3f
       1.0417454 0.9912398 1.0171283 0.9634207
0001e0 c5 38 81 3f 5e a4 81 3f 7e d6 82 3f e3 cf 79 3f
       1.009545 1.0128286 1.0221708 0.97582835
0001f0 d7 0d 7f 3f 53 05 7a 3f 7b 57 6c 3f 8f ae 8b 3f
       0.9963049 0.97664374 0.92320985 1.0912646

main_network.1.bias f4 [128]
000000 8a 59 0d bd 53 7f db 3d 1c 10 38 bd ac 4f 5e bd
       -0.03450922 0.107176445 -0.044937238 -0.0542752
000010 f0 79 8f 3c b7 fe 4c 3d e9 d1 38 3c f3 d2 49 bc
       0.017514199 0.050047603 0.011280515 -0.012318361
000020 3b c3 2b bd bc cc 1a bd 5d d8 9b bc fc d5 06 bd
       -0.041934233 -0.037792906 -0.019024068 -0.032918915
000030 bd a3 72 3d 04 9a ff bc a0 e8 14 3d 52 82 9d 3d
       0.059238184 -0.03120137 0.03635466 0.07690872
000040 a3 f8 e2 bc 75 1a 2e bc 1f 01 07 bd f4 ce b1 bb
       -0.02770645 -0.010626425 -0.032960054 -0.005426282
000050 b5 d2 89 bc 03 82 17 bd 7f cc 62 3c 4e 6a c5 bc
       -0.016824106 -0.036989223 0.013842701 -0.024098542
000060 ea 16 c3 bc 76 9e cd bc 9d d1 0e 3c bd cd 76 3c
       -0.023814637 -0.025099974 0.008716968 0.0150637
000070 aa 46 0b bd 22 10 94 3c 93 c9 f3 3c 7a b9 5f 3c
       -0.034002937 0.018074099 0.029759204 0.013655061
000080 42 7d 01 3d 13 dc 5b 3d dc 79 b0 bc 85 d3 63 bd
       0.031613596 0.053676676 -0.021542482 -0.055621643
000090 30 aa 6b 3d c4 33 6f bd 11 1d ba bc c5 18 7c bc
       0.05753535 -0.058398977 -0.022718938 -0.015386765
0000a0 36 82 d6 bc 0b 81 8d 3c 6c 06 29 bd a8 ac 36 bd
       -0.026185136 0.017273447 -0.04126589 -0.04459825
0000b0 c2 5e 9d bc 2c 76 6b 3d 42 fc 67 bd aa 57 df bc
       -0.019210223 0.057485744 -0.056637056 -0.027263481
0000c0 15 67 f7 bb 13 21 49 bc ed 7a 7b bc df 5b 06 bd
       -0.00755013 -0.012275952 -0.015349132 -0.03280246
0000d0 d9 6c 3b bc 75 09 5e bd 7a 24 31 3d b5 d3 25 bd
       -0.0114395255 -0.054208238 0.043247677 -0.040485103
0000e0 96 4f dd 3c c0 03 19 3c 68 a7 86 bd 5f 2c 22 3d
       0.027015489 0.009339273 -0.06574899 0.039593097
0000f0 35 27 89 ba 26 5c fc bc ae c2 d4 3b 00 5d 32 3a
       -0.0010463955 -0.030805659 0.006492934 0.0006804019
000100 55 d0 bf bc 3a 66 0f bc 63 1c 1c 3d 06 0a 44 3d
       -0.02341477 -0.0087524 0.03811301 0.04786112
000110 3d b9 3a 3d 7c 83 28 3c c5 e8 a9 bc b0 0d 7f bc
       0.045586813 0.010285255 -0.020740876 -0.015567228
000120 82 37 4c bc 8c 93 9d 3c ce 0f b6 3b 73 89 56 3c
       -0.012464406 0.019235395 0.0055560833 0.013094294
000130 ad 3f 31 3c 3b df 07 3d e9 32 91 bc a8 af 53 3b
       0.010818404 0.033171874 -0.017724471 0.0032300744
000140 64 87 da bc e6 d5 99 bc 82 f2 ba 3c 37 86 d4 bb
       -0.026675887 -0.018778753 0.022820715 -0.006485726
000150 3e 43 ec bc 47 65 80 3c df f4 cc 3b c6 3e f0 bb
       -0.028840657 0.015673293 0.006254777 -0.007331702
000160 4b 70 0a 3d 9c 58 86 bd 55 fc 67 3c 89 23 1d bd
       0.033798497 -0.0655987 0.014159282 -0.038363967
000170 41 bb 9e 3c 77 be cb 3c 85 1e 95 3d eb b6 18 bc
       0.019376399 0.024871094 0.07281212 -0.009320955
000180 8b 0e be 3d 0e 38 a7 bd f7 1c 47 bc 53 78 0f 3d
       0.092801176 -0.081649885 -0.012152902 0.03502686
000190 a4 9b 8a 3c b2 43 4d bd 06 af 4f 3c 3d 97 01 3d
       0.016919918 -0.050113387 0.012676006 0.031638373
0001a0 b9 23 b3 bd b1 06 4b bc 78 f9 02 3d e7 4e 49 bd
       -0.08747048 -0.012391732 0.031976193 -0.049147513
0001b0 4b 13 a3 3d 8d da ff bc f3 9e 3e bd be 94 8f 3b
       0.07962664 -0.031232143 -0.046538305 0.004381745
0001c0 24 ae 63 bd 00 aa ca bc 7e af 86 bd 51 72 bc 3c
       -0.055585995 -0.024739265 -0.06576441 0.023003729
0001d0 57 c5 0a 3d f3 ad 22 3c 25 e2 00 3d f2 8f 1f bb
       0.033879604 0.009929168 0.03146567 -0.0024347273
0001e0 48 d1 ec bc 04 4d 37 3a 75 28 ed 3c 26 f5 b2 3a
       -0.028908387 0.0006992372 0.028949955 0.0013653382
0001f0 6d 5b 4d bc 10 41 8c bd c6 4a 8e bd 87 7b 8b 3d
       -0.012534005 -0.06848347 -0.06947856 0.0681067

main_network.1.running_mean f4 [128]
000000 28 79 7c 3b 32 5e 24 3d 07 41 fb 3d f9 1d 5d 3d
       0.0038524363 0.040128894 0.12268262 0.053983662
000010 ec 99 b8 3d c7 b2 51 3d 40 29 f9 3d 0c fa cf bc
       0.09013733 0.051195886 0.12166071 -0.025387786
000020 72 e9 2c 3e b8 d0 b5 bd ef 91 e3 3d f1 69 15 3d
       0.16885927 -0.088777006 0.11111819 0.036477987
000030 df a9 50 3c b3 03 72 3d c8 dd 54 3d a6 ca ba 3d
       0.012735813 0.05908556 0.05196932 0.09120683
000040 a0 7f c8 bc d8 f6 1a bd e1 77 84 3d 03 1f 9e 3d
       -0.024474919 -0.037833065 0.064681776 0.07720759
000050 04 ec 25 be 2c 45 3a bd 50 3d c6 3d e2 2e ba 3d
       -0.16203314 -0.045476124 0.09679663 0.090909734
000060 5b ca 4c bd 14 40 e1 bd b6 d9 f6 3d d6 33 4e bd
       -0.04999767 -0.1099855 0.12053244 -0.050342403
000070 15 7e 19 3e 6f 7e aa 3d 4f ad 15 bd e8 c6 75 3d
       0.14989503 0.083248965 -0.036542233 0.060004145
000080 b3 b4 8f 3d 5c ff e5 3c c3 ca 9f bc 41 b3 38 3c
       0.070168875 0.028075866 -0.019505864 0.011273206
000090 b0 8d 23 3c 22 db 96 3c d6 53 7a bd 75 43 68 bd
       0.009982511 0.018415038 -0.06111511 -0.056704957
0000a0 92 80 01 3e 20 77 7d 3d 50 68 de bc 0d 56 32 bc
       0.12646702 0.061881185 -0.02714935 -0.010884774
0000b0 7d b8 9c bd c0 4e 14 3e ad 65 10 3c d3 09 45 3b
       -0.07652376 0.14483166 0.008813304 0.003006567
0000c0 b7 77 d3 bd ac c6 68 bd 06 de 2e bd ae d6 10 3e
       -0.10325568 -0.056830093 -0.042692207 0.14144394
0000d0 77 00 b3 3c 81 19 17 3e 3a 8e 34 bd bc b2 b9 bb
       0.021850808 0.14755823 -0.04408095 -0.0056670588
0000e0 e1 8c 2a 3e 23 5e 2c 3c 92 f7 d3 3d 80 65 c7 3d
       0.16655304 0.010520491 0.10349955 0.097361565
0000f0 a7 e7 f5 3d d6 e4 24 bd e4 fe 88 bd 3b 40 3d 3d
       0.12007075 -0.040257297 -0.066892415 0.046203833
000100 40 3d e4 3d 36 ec a9 bd bb 3b b7 bb 43 a7 7c 3d
       0.11144495 -0.08297007 -0.005591837 0.06168295
000110 8b 1a 9d bc 06 0e 94 bc 97 c7 82 bd f7 84 ef 3c
       -0.019177696 -0.018073093 -0.06385725 0.029238207
000120 0b 58 ea 3c 84 6e 9e 3d 64 71 8c 3d d6 4f f0 3d
       0.028606435 0.07735923 0.06857565 0.117339775
000130 25 b3 e2 bd 95 97 b0 bb d2 9c ce bd 52 28 92 bc
       -0.11069325 -0.0053891637 -0.10088505 -0.017841492
000140 7a ac 56 bd 78 cc fc bc 50 37 9b bc 23 b5 f7 3d
       -0.05241058 -0.030859217 -0.018947273 0.12095096
000150 7c 51 85 bc b2 30 7c 3c 84 c6 ff bd bf 39 7c 3d
       -0.016274206 0.015392469 -0.12489036 0.06157851
000160 95 df 36 3e c5 d5 14 3d 8e 8c bf 3c 7a 9b 14 3c
       0.17858727 0.03633668 0.023382451 0.009070272
000170 5e 14 27 3c 36 9f 94 bc 6d 0e c9 bc ec 86 cf bc
       0.010197727 -0.018142324 -0.024543012 -0.02533289
000180 a1 0e c5 3d 88 38 21 3e 99 7a 51 3c a1 c0 f1 3d
       0.09621931 0.15744221 0.012785577 0.11804319
000190 99 fc 4b 3d f7 c8 aa 3d 64 63 91 3b 06 f5 29 bd
       0.049801443 0.08339112 0.004436897 -0.04149344
0001a0 bb 47 28 bb 92 d1 8c 3d 3d 33 0b be fb 4e 72 3b
       -0.002567752 0.0687591 -0.13593765 0.0036973346
0001b0 2b 79 36 3e 95 7e b7 bd c0 cd c6 3d 63 76 0d 3e
       0.1781966 -0.089596905 0.097072124 0.13814692
0001c0 3e eb fe bd 50 27 af bc e6 6b 28 3e 3f 6c 5a 3d
       -0.12447213 -0.02138105 0.1644741 0.053325888
0001d0 37 d1 fe 3d 9d 53 a7 3b 16 b6 0b 3e 9f 9e 19 bd
       0.12442248 0.005106403 0.13643679 -0.03750479
0001e0 34 aa 0e bd a4 d5 7a 3d c3 b9 83 3d 0d cc 65 bd
       -0.034830287 0.0612389 0.064319156 -0.0561028
0001f0 eb 26 2d be 7e 8e 8b 3c d2 49 1d be 0f a7 83 3c
       -0.16909377 0.017035719 -0.15360191 0.01607087

main_network.1.running_var f4 [128]
000000 40 18 cd 3e 1b 76 33 3e 54 ac fd 3e c2 64 be 3e
       0.40057564 0.17525522 0.49545538 0.37186247
000010 88 fe 2a 3e e4 5f 9d 3e d4 dd bb 3e 0e 35 f2 3e
       0.16698658 0.3073722 0.3669268 0.47306103
000020 82 97 67 3e b8 0b 02 3e 2f de aa 3e c8 c3 64 3e
       0.2261639 0.12699783 0.33372638 0.2234031
000030 51 7d 85 3f 62 76 d0 3e 23 e9 d5 3e 22 03 9f 3e
       1.0428869 0.4071532 0.41779432 0.31057078
000040 55 c6 d0 3e ca 5d 24 3f d2 17 7e 3e ce 7b 78 3e
       0.40776315 0.6420561 0.24813774 0.24265978
000050 13 e6 54 3e 5a 3c dd 3d c8 bd 38 3f e7 9a 02 3f
       0.20790891 0.10802527 0.72164583 0.5101761
000060 2d 45 88 3e 59 c9 ad 3d a0 d9 41 3f 09 35 4d 3e
       0.26615277 0.0848567 0.75722694 0.20039763
000070 74 40 03 3f 56 a4 3b 3f af 70 b6 3e 46 30 dd 3e
       0.5127022 0.7329763 0.35632846 0.43200892
000080 b0 f0 72 3f 38 42 29 3f 4d c8 0d 3f 0a 3b 40 3e
       0.9489851 0.66116667 0.5538376 0.18772522
000090 f6 ee f0 3e 29 f0 49 3f ce 6c 1f 3f eb 75 84 3e
       0.47057313 0.7888208 0.622754 0.25871214
0000a0 9f 3b 03 3e c8 df 46 3f 80 53 6e 3e c5 c0 42 3f
       0.12815712 0.77685213 0.2327404 0.7607539
0000b0 b3 9a 29 3e ec ce b3 3e 21 8e 94 3e e6 fc 5f 3e
       0.1656292 0.35118806 0.29014686 0.21873817
0000c0 49 dd 69 3e 38 5f 4a 3e 1c 69 04 3e 8a b2 48 3e
       0.2283832 0.19762886 0.12930721 0.19599357
0000d0 19 b2 f2 3e d0 95 51 3f e3 7c 00 3f db c0 83 3e
       0.47401503 0.8186922 0.5019056 0.25733075
0000e0 73 1e 41 3f 24 d3 fe 3e 9f e3 c6 3e 6b 04 01 3f
       0.75437087 0.49770463 0.38845536 0.50397366
0000f0 01 92 8e 3e a4 e8 bb 3e 57 22 6e 3e 03 bb ca 3e
       0.27845767 0.36700928 0.23255287 0.39595804
000100 ca c3 c6 3e 08 f0 08 3f 0c cc 77 3f fc 5e a3 3d
       0.3882125 0.5349126 0.96795726 0.07977101
000110 3d dd e7 3e 2e bc 25 3e 18 e0 02 3f 3c e2 d3 3e
       0.4528598 0.16185066 0.5112319 0.4138354
000120 de 6e 6f 3e f7 bf 1c 3f 73 9a f0 3d 2c 3c da 3d
       0.23382136 0.61230415 0.11748209 0.10656008
000130 cf a2 5e 3e 7d 90 4a 3f 61 3a a7 3e 80 50 a0 3e
       0.21741794 0.7912672 0.32661727 0.31311417
000140 a1 c1 58 3e 1c bf 8c 3e c1 58 04 3f d6 48 8e 3e
       0.21167614 0.27489555 0.5169793 0.27789944
000150 15 d8 53 3f cb 04 0c 3f 79 7f eb 3e 5b 72 03 3f
       0.8275159 0.54694813 0.4599569 0.5134637
000160 ed a2 9a 3e 07 20 b0 3e b7 12 06 3f d9 53 53 3e
       0.30202428 0.34399435 0.52372307 0.20637454
000170 b7 1e d2 3e ba e6 b2 3e a1 59 15 3f 7e 30 b8 3e
       0.4103906 0.34941655 0.5833989 0.35974497
000180 7f a3 d3 3e 09 ef 72 3e 0c 15 cd 3d aa db 49 3e
       0.41335675 0.23723997 0.1001378 0.19712701
000190 10 0e 8d 3e a2 c1 62 3f 38 b9 71 3e 60 e3 78 3e
       0.2754979 0.8857671 0.23605812 0.24305487
0001a0 91 97 b8 3d b1 e7 d7 3d 0a f5 f0 3d 59 06 93 3e
       0.09013284 0.105422385 0.117654875 0.2871578
0001b0 ce e4 6d 3f a6 9b 71 3e c3 28 8b 3e 55 d3 07 3f
       0.92927253 0.23594531 0.27179536 0.5305684
0001c0 a9 69 f2 3e be cb bc 3e 2f bd 08 3f 20 3d 10 3e
       0.47346237 0.36874193 0.5341367 0.14085817
0001d0 66 2f 5a 3f b6 a9 98 3e bb 0c fa 3d 43 a3 b2 3e
       0.85228574 0.2981698 0.122094594 0.34890184
0001e0 4f 82 c9 3d 7f c3 b0 3e ae 20 33 3f 78 f1 a1 3e
       0.098393075 0.34524152 0.6997174 0.3162954
0001f0 51 f8 84 3e a3 e0 2a 3f 43 8f 12 3f a4 71 c3 3e
       0.259707 0.6674902 0.5724985 0.38172638
