MLP/best_model_resnet50.pth (torch, 120949 bytes, 47 tensors)

model_embedding.weight f4 [32, 12]
000000 87 30 7e be cc e7 11 3e c6 12 94 3e 5c 8a 9c 3d
       -0.24823199 0.1424858 0.28920573 0.076435775
000010 00 a8 82 3e 17 d2 70 3e ae 20 85 be 38 cf de 3d
       0.255188 0.23517643 -0.26001495 0.108793676
000020 eb 53 83 be a8 57 19 b9 e0 4d 1d 3d ae 40 85 3e
       -0.25649962 -0.00014623872 0.038404346 0.2602591
000030 84 fa 03 bd 6a 79 00 3e 71 59 dc bd 5f c8 6b be
       -0.032221332 0.12546316 -0.10759247 -0.23025654
000040 ef 8b 4b 3e 92 bd 40 3e df e3 04 3e 06 31 c5 3d
       0.19877599 0.18822315 0.12977551 0.09628491
000050 92 c2 8c be dc 66 1f b5 34 a2 54 be 8e 1f c3 bd
       -0.27492195 -5.9381796e-07 -0.20765 -0.09527503
000060 ab f7 8c be 05 98 e1 b9 ae 65 86 3e 00 5a bd 3a
       -0.27532706 -0.00043028608 0.2624945 0.0014446378
000070 96 7d 14 3d 33 98 12 3e 70 b2 8f 3e 5b 7a 10 be
       0.03625258 0.14315872 0.28065825 -0.14109175
000080 61 92 08 be 5a 9c cf 3a 04 80 32 be a0 c9 78 3e
       -0.13337089 0.0015839443 -0.17431647 0.24295664
000090 fc 5f 4a be 47 a2 af bd 32 b6 9f 3e b5 91 85 3d
       -0.19763178 -0.08575874 0.31193691 0.06521932
0000a0 4c 7b 9b 3d 53 f9 13 be 07 65 1a be 2b d5 c8 3d
       0.075918764 -0.14450578 -0.15077601 0.098062836
0000b0 b6 a8 6a be 7d bb 05 ac 9b 36 8b 3e 40 95 d2 bc
       -0.2291592 -1.9004514e-12 0.27190098 -0.025705934
0000c0 03 12 7c 3d 18 c9 17 be 74 b9 02 3d f0 3a 94 be
       0.061540615 -0.14822805 0.031915143 -0.28951216
0000d0 53 67 a2 bd 5f 9b 86 be 22 2f fc bd 03 67 65 be
       -0.07929864 -0.26290414 -0.12313677 -0.22402577
0000e0 39 92 9d 3d dc fa d7 39 25 2f 37 be 95 8d 55 3d
       0.076939054 0.000411949 -0.17889078 0.052136976
0000f0 29 06 28 3e 30 52 8e 3e 12 8d f7 3d 17 87 33 3e
       0.164086 0.2779708 0.12087454 0.17532001
000100 d7 11 99 3e 90 e9 78 3e 1d 38 a2 bc 8d c6 0a be
       0.29896423 0.24307847 -0.019802148 -0.13552304
000110 ad 85 da bd c1 53 e9 bb a2 47 6c be d8 34 52 3e
       -0.10670028 -0.00712058 -0.23074201 0.20527971
000120 88 6d 0b be dc aa ab 3a 63 69 5c be a9 23 30 3c
       -0.13616002 0.0013097185 -0.21524577 0.01075069
000130 32 ee 89 3e 6d 0d 7a 3e 3e 76 b1 bb 0a e5 c8 bd
       0.2693954 0.24419184 -0.005415707 -0.09809311
000140 c4 92 bf bd 57 67 73 bb 45 5f fc 3c d8 d7 3a 3c
       -0.09354165 -0.0037140453 0.030807147 0.011404
000150 6e 54 78 be 6e 1e 02 be e8 f7 78 3d bb ea 53 be
       -0.24250957 -0.1270692 0.060783297 -0.20695011
000160 6d 80 2c 3e f3 eb 73 3e 4f a7 5a 3d 67 67 39 be
       0.16845866 0.23820476 0.053382214 -0.18105851
000170 5c 39 90 3e a6 b4 a0 b2 19 79 92 3d 4f 4d 93 3e
       0.28168762 -1.8708601e-08 0.07152004 0.2876992
000180 a4 4b f1 3d 5c 3f 30 bd 78 81 71 be 07 5e 0c 3e
       0.117820054 -0.043029174 -0.23584545 0.13707744
000190 48 29 c4 3c d8 ca fb 3d 83 5d 56 3e eb ea bd bc
       0.023945466 0.12294549 0.2093411 -0.023183307
0001a0 d6 39 8b 3e 35 5d 8f bc 8f de 74 3e ce 88 2e bd
       0.27192563 -0.0175005 0.23913024 -0.042610936
0001b0 5f 3d 0e be cb 5e 57 bc 86 64 9d bd cc 9e 49 be
       -0.13890599 -0.013145159 -0.07685189 -0.19689482
0001c0 aa c8 7d bd a6 b8 78 3e 26 b9 66 3e 40 d7 2c be
       -0.061958946 0.24289188 0.22531566 -0.16878986
0001d0 32 0e 48 be 50 ea 14 2f 83 e0 2c bd db 96 46 3e
       -0.19536665 1.3543766e-10 -0.0422063 0.19393484
0001e0 1b 3a 4c 3e 39 2e dd 3d dd 5c bc 3d 94 da 69 3e
       0.1994404 0.10799832 0.091974 0.22837287
0001f0 7a 81 79 3e 5c a7 03 be 93 d8 98 3d 2d 33 d4 3d
       0.24365798 -0.12856811 0.07463183 0.103613235
000200 af be f0 3d e5 49 05 af c9 a3 6d 3e 68 23 72 3d
       0.1175512 -1.2122532e-10 0.2320701 0.059115797
000210 60 0e 82 bd 1c 48 06 bc 4e 8e b2 ba 6c 57 30 be
       -0.06350398 -0.008195903 -0.0013622732 -0.17220849
000220 39 35 ed bd 32 53 01 3e 3a 47 02 3e 49 d0 43 3e
       -0.11582417 0.12629393 0.12722483 0.19122423
000230 78 15 cf bd ec 71 05 ad c6 ff d6 bd 0a 97 36 bc
       -0.10111517 -7.5854704e-12 -0.10498004 -0.011144409
000240 65 13 8b 3d f4 c3 4f be 08 e0 a6 3e 5b 00 99 be
       0.067908086 -0.20289594 0.32592797 -0.29883084
000250 06 73 3e 3e be ca b9 bc 4e 41 82 be e1 52 68 be
       0.18598565 -0.022679683 -0.2544045 -0.22687866
000260 eb 3a 41 be 47 2d 68 bc d1 5c 1d be 8c 1a 0a be
       -0.18870132 -0.014170951 -0.15367438 -0.1348669
000270 69 5e 0f be f2 04 20 3d bd f6 83 3e ad 76 5d be
       -0.14000858 0.039067216 0.25774184 -0.21627302
000280 57 f6 1d be 35 19 e5 bd 41 e2 36 3e bf 8f a3 bd
       -0.15426002 -0.111864485 0.17859747 -0.07986402
000290 59 88 3a be e0 74 e2 af 66 77 52 3e 53 c3 3e 3d
       -0.18216075 -4.1192205e-10 0.2055336 0.046572994
0002a0 bb a3 14 be 44 72 91 3e bf bb 93 be dc 73 76 be
       -0.14515583 0.2840749 -0.28854176 -0.24067634
0002b0 61 71 07 3e d7 97 fd 3d be e0 56 3e eb 0a 85 3e
       0.13226844 0.12382477 0.2098417 0.25984892
0002c0 d5 57 0f 3e 30 ec f3 ad 6b be 3e 3d 45 ca 95 3e
       0.13998349 -2.773079e-11 0.046568315 0.29255882
0002d0 05 65 67 3c 1f 66 e4 3d 0e 37 74 be 96 d8 19 be
       0.014123206 0.111522906 -0.23849127 -0.15024027
0002e0 bf 9f 31 3d 55 81 1d be 7a 00 40 bd 86 4d 7b 3e
       0.043365236 -0.15381368 -0.046875454 0.24541292
0002f0 6c fa 8f 3e 49 54 94 b0 6f 4a 85 be 05 9e 9a bd
       0.28120744 -1.0792373e-09 -0.2603335 -0.07549671
000300 96 c7 54 3e f3 e6 cc 3d 93 5a d3 3d 54 89 22 bd
       0.20779261 0.100049876 0.1032001 -0.039681748
000310 6a 57 cd bd 1e 37 e0 bd 43 74 74 bc c6 c4 9a 3e
       -0.100264385 -0.10948013 -0.014920297 0.3022825
000320 76 86 06 be d1 5c 1f 3b cb 19 ab 3a 73 0e 6b 3e
       -0.1313723 0.0024316797 0.0013053952 0.2295473
000330 84 08 99 be b8 98 2e 3e 03 a3 64 be 1f 68 10 be
       -0.2988931 0.17050445 -0.22327809 -0.14102219
000340 de 05 53 be 6b 1e 3c bd d9 2e 55 3e 48 19 20 bd
       -0.20607707 -0.045927446 0.20818652 -0.03908661
000350 0a 13 07 3e ea 52 a6 bc 53 78 02 be 24 99 30 bd
       0.13190857 -0.020303208 -0.12741213 -0.043114796
000360 41 b9 f3 3d b0 70 fb 3d f6 03 01 bc ae 2e 2f 3e
       0.11900569 0.12277353 -0.0078744795 0.1710765
000370 82 cb 89 be ab 8f 1e be cb 88 31 bb 60 21 28 bd
       -0.26913077 -0.15484492 -0.0027089592 -0.041047454
000380 54 9d 75 3e a7 5d 24 3b 05 e3 5a be 6f 7f 72 be
       0.23985797 0.0025080235 -0.21375664 -0.23681425
000390 4c de 2b be cd 04 b4 3d 9e 1e f3 3d 91 6f 87 be
       -0.16784018 0.08789978 0.11871074 -0.26452306
0003a0 08 3b 0d be d7 50 63 3d 74 f4 db 3c 83 d6 79 bd
       -0.1379205 0.055497017 0.026849963 -0.06099559
0003b0 41 6a 8d be 14 cb f4 b3 87 f8 78 be a9 9b 4c 3e
       -0.27620128 -1.1399075e-07 -0.24313556 0.19981255
0003c0 f9 ce 2d 3e 56 04 83 3d b0 4d 7a 3e 5d 99 a9 bd
       0.16973485 0.063973114 0.24443698 -0.08281205
0003d0 66 e0 95 be e8 67 0d be ac a9 5f 3e e1 36 00 bd
       -0.29272765 -0.13809168 0.21842068 -0.031302337
0003e0 54 01 b2 3c d7 1b 24 bd 0d f4 52 3c 27 7b ff bd
       0.021729149 -0.040065613 0.012875569 -0.12474661
0003f0 51 fb 71 be 33 83 06 bd d7 d0 88 be e4 35 8d 3e
       -0.23631026 -0.032839965 -0.26721832 0.27580178

model_embedding.bias f4 [32]
000000 eb ff b8 bb a0 c2 2c b9 fb 41 d1 3b 84 2f c5 b6
       -0.005645742 -0.00016475702 0.0063860393 -5.876589e-06
000010 10 13 b9 bc 91 a3 c0 b6 92 55 5c bc 08 e3 1e bd
       -0.022592098 -5.7410875e-06 -0.013448136 -0.038790733
000020 b0 2d c7 3c 83 36 8e 3b 75 3d 59 3c d2 4c 50 37
       0.024313778 0.0043399944 0.013259281 1.2415652e-05
000030 d2 b4 ee bb 1d dd 07 38 97 49 75 b7 c8 46 51 b6
       -0.007284739 3.2392436e-05 -1.4620272e-05 -3.1184627e-06
000040 f6 68 f7 3c e9 cd 2b 39 d3 e0 dd b7 4a c8 e6 36
       0.030201416 0.00016384538 -2.6449945e-05 6.877851e-06
000050 71 d3 e6 39 a9 8e a8 b8 41 97 9c bb cf fe 40 37
       0.00044026555 -8.037437e-05 -0.004778773 1.1503419e-05
000060 e0 f5 30 38 bb 5f b2 3b 1e cb 48 36 86 c6 e1 bc
       4.219066e-05 0.005443541 2.9920552e-06 -0.027560484
000070 47 5b 5c 38 eb f8 bc b6 f8 6b ae 3b 4f d3 49 3c
       5.2537096e-05 -5.6318145e-06 0.0053229295 0.012318446

dataset_embedding.weight f4 [16, 3]
000000 e0 a9 a2 be 4e 62 38 3e 1a 61 a4 3e 0e 92 c5 be
       -0.3177023 0.1800625 0.32105333 -0.38587993
000010 6e 41 1f 3f 45 e0 43 be 25 79 0f bd 35 82 76 3e
       0.6220921 -0.19128521 -0.03502764 0.24073108
000020 e9 70 03 3f da ad 6a 3e b5 1b 2f 3d fd 58 f8 be
       0.5134416 0.22917882 0.042751033 -0.48505393
000030 15 fb 17 bf d3 5e 40 be a2 a6 0a bf 9d fd 03 bf
       -0.59367496 -0.18786173 -0.5416051 -0.5155886
000040 47 f6 94 be a3 e3 0c 3f e6 4a 0f bf d4 d5 ee be
       -0.29094145 0.55034846 -0.5597366 -0.46647513
000050 35 ba c9 3e a6 62 7a be 5f 41 c0 be 27 ed fe 3e
       0.39399877 -0.24451694 -0.37549874 0.49790308
000060 61 34 41 be 21 e4 9a 3e 25 a9 84 3d 6e 18 b1 3e
       -0.18867637 0.30252174 0.06477574 0.3458895
000070 b2 e6 0c be 1e 03 12 bf 7a d6 8b be 1e 45 d5 be
       -0.13759878 -0.57036006 -0.2731207 -0.41654295
000080 24 39 c5 3e 84 72 e5 3e 5c d8 4b 3d 54 96 c7 3e
       0.38520157 0.4481393 0.049766883 0.3898188
000090 e5 8b bf 3d a2 6d 1c 3f 64 19 f7 3e c1 c5 85 be
       0.09352855 0.61104786 0.4826156 -0.26127437
0000a0 9a 8c ef 3e 50 3e d0 bc a1 a9 a5 bd ab 3f 5d be
       0.46786958 -0.025420338 -0.08088995 -0.21606319
0000b0 8a b9 af be 02 3d 85 3e ae bb d4 3e 3b a9 c1 3e
       -0.34321243 0.26023108 0.41549438 0.37824425

dataset_embedding.bias f4 [16]
000000 ab 7a a2 3c 05 59 01 be 3c 46 b7 39 91 2e 53 be
       0.019833883 -0.12631615 0.0003495681 -0.20623232
000010 51 36 a0 bd 5d 0d 83 be b4 03 e5 3a 11 c7 1b 3d
       -0.0782286 -0.25596133 0.0017472417 0.03803164
000020 87 3f 12 3e a6 f1 1f 3d 79 8e 0b 3e 77 37 27 37
       0.14282046 0.039048813 0.13628568 9.96689e-06
000030 59 d4 08 b8 e1 cd 79 3d b5 15 ea 3d ab b9 72 37
       -3.262269e-05 0.060987357 0.114299215 1.4467553e-05

tensor_network.0.weight f4 [16, 1]
000000 f5 2e 42 bf ea 93 1e 3e 0b 4d 04 3f 72 99 49 bf
       -0.758529 0.15486112 0.5168006 -0.78749764
000010 77 54 db be 0c 1b 8f 3e fb 85 64 be 86 94 65 3d
       -0.4283788 0.27950323 -0.22316734 0.056049846
000020 3d 12 57 3e 88 f7 0c bd 05 35 06 bf 24 a9 9d 3e
       0.21003051 -0.03441575 -0.5242465 0.30793107
000030 66 38 10 bf 10 ff 2a bf c2 6a c6 3e a2 0d e9 bd
       -0.5633606 -0.66795444 0.38753325 -0.113795534

tensor_network.0.bias f4 [16]
000000 21 3b 36 3f d4 d1 fa be 1e a5 fd be 82 26 47 3f
       0.71183974 -0.4898821 -0.49540037 0.77793133
000010 ae 73 c7 3e 25 0c 48 38 08 8e 5d 3f 2d d2 1a 3f
       0.38955444 4.7695026e-05 0.8654485 0.6047695
000020 f2 e2 2d be 7e 87 f3 bd 87 62 ca bd d0 ce 6e bf
       -0.16981104 -0.118910775 -0.09882074 -0.9328432
000030 b7 91 50 be ea 37 1b 3f 79 60 cc 3e db 03 76 2f
       -0.20368086 0.60632193 0.39917353 2.237494e-10

tensor_network.2.weight f4 [16]
000000 20 13 79 3f cb d8 79 3f 7c 0c 82 3f b8 2c 84 3f
       0.9729481 0.97596425 1.016006 1.0326147
000010 cd 75 7b 3f 45 bb 84 3f de 82 86 3f 14 22 82 3f
       0.98226625 1.036965 1.0508687 1.016665
000020 46 d6 82 3f 90 d0 2a 3f 90 d0 2a 3f 11 73 7a 3f
       1.0221641 0.6672449 0.6672449 0.9783183
000030 90 d0 2a 3f 58 97 80 3f dd 92 84 3f 90 d0 2a 3f
       0.6672449 1.0046186 1.0357319 0.6672449

tensor_network.2.bias f4 [16]
000000 ce 29 89 38 c7 2f f9 b8 66 f7 03 b9 cf ca 82 38
       6.540456e-05 -0.000118821445 -0.00012585297 6.236659e-05
000010 89 7c 30 37 27 a0 d7 b6 a5 38 dd 38 ea ea 38 38
       1.0519413e-05 -6.4261435e-06 0.00010548652 4.40878e-05
000020 1b 81 81 38 91 5b 0b 2f 0a 64 8c af ab f2 ef b7
       6.175247e-05 1.2674507e-10 -2.5536934e-10 -2.8604021e-05
000030 dc 48 90 af f3 54 af 38 72 e8 74 37 25 76 c7 2c
       -2.6245217e-10 8.360473e-05 1.4597654e-05 5.669037e-12

tensor_network.2.running_mean f4 [16]
000000 a0 13 ff 3b 38 a3 13 3e b2 04 96 3f b9 ec 3d 3c
       0.007784322 0.14417732 1.1720183 0.011592084
000010 dc c9 5b 3b 53 3b 6c 3f 82 74 9b 3e 0f 98 4b 3f
       0.0033537066 0.9227802 0.30362326 0.795289
000020 ec e3 01 3f 00 00 00 00 00 00 00 00 6d 15 9f 3e
       0.50738406 0.0 0.0 0.31071034
000030 00 00 00 00 b6 e1 97 3b 5b fc d6 3f 00 00 00 00
       0.0 0.004635061 1.6795763 0.0

tensor_network.2.running_var f4 [16]
000000 e4 aa 15 3a b3 36 7a 3d 06 7c aa 3f f1 f6 a5 3a
       0.00057093636 0.06108732 1.3319099 0.0012662095
000010 02 33 de 38 6e d5 d4 3e cc c7 7c 3d b0 fa 84 3c
       0.00010595286 0.41569084 0.06171398 0.016232818
000020 cd 25 65 3e 60 c7 cb 23 60 c7 cb 23 a3 ef 87 3e
       0.22377701 2.2093743e-17 2.2093743e-17 0.26550016
000030 60 c7 cb 23 43 18 55 39 90 76 4a 3f 60 c7 cb 23
       2.2093743e-17 0.00020322301 0.7908716 2.2093743e-17

worker_network.0.weight f4 [16, 1]
000000 d8 2c 85 2c fd 31 00 be 65 97 35 bd 66 07 29 bb
       3.785066e-12 -0.12519069 -0.044333834 -0.0025791763
000010 95 5d d4 3d 47 b9 8f bc 3a 70 78 30 64 70 c1 3e
       0.10369412 -0.017544402 9.038136e-10 0.3778106
000020 93 2b 97 3d ab 90 28 bf 10 66 74 be cc 76 dd 3e
       0.07381358 -0.65845746 -0.23867059 0.43254697
000030 fb 53 15 3f c6 50 6c be 36 d7 c6 be fc d3 5b 3e
       0.5833127 -0.23077688 -0.38836068 0.21467584

worker_network.0.bias f4 [16]
000000 9e 69 19 bf f5 f1 14 bf 90 85 7b be 36 64 0d bf
       -0.59926784 -0.581817 -0.24562669 -0.55231035
000010 99 12 ca b4 71 d7 97 36 30 7a 0b bf 4f 0c 5d bf
       -3.7638964e-07 4.5252314e-06 -0.5448332 -0.86346906
000020 44 1d 55 b7 87 f7 05 bf a3 18 86 30 f5 ff 05 bf
       -1.2702603e-05 -0.5233082 9.756785e-10 -0.52343684
000030 55 7d 22 bf 52 bb 23 3d ed ab 64 bd f2 b6 a4 b8
       -0.6347249 0.039973564 -0.055828024 -7.8542056e-05

worker_network.2.weight f4 [16]
000000 90 d0 2a 3f 90 d0 2a 3f 90 d0 2a 3f 90 d0 2a 3f
       0.6672449 0.6672449 0.6672449 0.6672449
000010 3f 14 80 3f c1 0a 3b 3f 90 d0 2a 3f 1d 9f 80 3f
       1.0006179 0.73063284 0.6672449 1.0048558
000020 9c 6a 7e 3f 90 d0 2a 3f 90 d0 2a 3f b6 1b 81 3f
       0.99381423 0.6672449 0.6672449 1.0086582
000030 b9 84 7b 3f 90 d0 2a 3f 90 d0 2a 3f 24 9f 82 3f
       0.98249394 0.6672449 0.6672449 1.0204816

worker_network.2.bias f4 [16]
000000 aa c3 6a 2d 39 87 3b 2e 07 89 72 2f c2 b9 9a ad
       1.3344806e-11 4.263898e-11 2.2058454e-10 -1.7590266e-11
000010 41 9d 39 b8 7e ff 0a b7 42 ba 9a ae fd 42 e1 b8
       -4.425389e-05 -8.284927e-06 -7.036195e-11 -0.000107413136
000020 7a 6c c1 b8 ff 29 b2 ae e3 c2 8d 2f 5d 67 00 b8
       -9.2231625e-05 -8.101963e-11 2.5786226e-10 -3.0613843e-05
000030 0c 96 41 37 91 7c 4a 2f 9c 53 97 2f 58 e0 90 b8
       1.1538632e-05 1.8416048e-10 2.7526148e-10 -6.908242e-05

worker_network.2.running_mean f4 [16]
000000 00 00 00 00 00 00 00 00 00 00 00 00 00 00 00 00
       0.0 0.0 0.0 0.0
000010 dc 82 f5 3e 07 51 8a 39 00 00 00 00 ef 84 66 3f
       0.479514 0.0002638178 0.0 0.9004659
000020 c1 59 b1 3e 00 00 00 00 00 00 00 00 db 74 c1 3f
       0.3463879 0.0 0.0 1.5113786
000030 52 82 06 40 00 00 00 00 00 00 00 00 40 2c 83 3f
       2.1017041 0.0 0.0 1.0247879

worker_network.2.running_var f4 [16]
000000 60 c7 cb 23 60 c7 cb 23 60 c7 cb 23 60 c7 cb 23
       2.2093743e-17 2.2093743e-17 2.2093743e-17 2.2093743e-17
000010 3d a2 88 3d dc 43 23 36 60 c7 cb 23 55 75 49 3f
       0.066715695 2.4328392e-06 2.2093743e-17 0.7869466
000020 65 cf 0e 3d 60 c7 cb 23 60 c7 cb 23 d8 0b 9b 3f
       0.034865756 2.2093743e-17 2.2093743e-17 1.211299
000030 7f ed 0b 40 60 c7 cb 23 60 c7 cb 23 71 36 9c 3e
       2.1863706 2.2093743e-17 2.2093743e-17 0.30510285

batch_network.0.weight f4 [16, 1]
000000 01 d7 8f be 18 18 c6 bd 92 79 1d 3f b3 58 6e b7
       -0.28093722 -0.09672564 0.61513627 -1.4206557e-05
000010 06 8a 36 3e ba 0a c4 3e 9e 52 d5 3d 7e 2b bf b9
       0.1782609 0.38289434 0.104161486 -0.00036462763
000020 9c 0f 96 be e4 7d f0 3d 04 8e 96 be 53 6f 85 bc
       -0.29308784 0.11742762 -0.29405224 -0.016288435
000030 17 f4 23 bf 8e e5 e4 3e 56 d0 98 be fe 96 9e 3e
       -0.64044327 0.44706386 -0.29846448 0.30974573

batch_network.0.bias f4 [16]
000000 95 cb ba bd 65 13 ea bb 81 d5 17 3f 38 92 a8 be
       -0.091208614 -0.0071434253 0.59310156 -0.32924056
000010 0e 89 05 bf 97 3f 9f bd 1e 43 98 3d 2e 1d 88 37
       -0.52162254 -0.07775801 0.074346766 1.6226051e-05
000020 50 e0 06 bf 19 c7 10 b8 49 fd c6 3e b3 16 81 be
       -0.52686024 -3.45177e-05 0.38865116 -0.2521263
000030 fb 92 9c 3e 47 2d 7e b9 c7 28 64 39 d1 04 70 3e
       0.30580887 -0.00024240195 0.00021758965 0.23439337

batch_network.2.weight f4 [16]
000000 90 d0 2a 3f 90 d0 2a 3f a2 38 80 3f 90 d0 2a 3f
       0.6672449 0.6672449 1.0017283 0.6672449
000010 b4 0f 75 3f ca 10 7c 3f 2d 90 7a 3f 90 d0 2a 3f
       0.95727086 0.9846312 0.97876245 0.6672449
000020 90 d0 2a 3f 5c 25 81 3f 90 d0 2a 3f 90 d0 2a 3f
       0.6672449 1.0089526 0.6672449 0.6672449
000030 90 d0 2a 3f 0c f4 80 3f 90 d0 2a 3f 3a 33 7d 3f
       0.6672449 1.0074477 0.6672449 0.9890629

batch_network.2.bias f4 [16]
000000 7b 0e 8d 2f 6f ec 1d af 62 0a 3f 37 91 70 20 30
       2.565804e-10 -1.4363065e-10 1.1386905e-05 5.836763e-10
000010 9a 11 79 b8 36 18 4c b8 19 e2 a4 38 ba 60 98 2d
       -5.938262e-05 -4.865994e-05 7.8622434e-05 1.7323355e-11
000020 9f bc 65 af b4 f2 10 37 26 b2 9a 2f 41 b6 7f ae
       -2.089444e-10 8.639578e-06 2.813902e-10 -5.814216e-11
000030 aa bb 35 af 27 7a bb b7 c5 44 b5 2f 39 47 60 b8
       -1.6528526e-10 -2.2349019e-05 3.2972572e-10 -5.3472093e-05

batch_network.2.running_mean f4 [16]
000000 00 00 00 00 00 00 00 00 0e 48 9f 40 00 00 00 00
       0.0 0.0 4.9775457 0.0
000010 14 b4 3a 3f f8 1d 2a 40 7a 25 58 3f 00 00 00 00
       0.7293103 2.6580791 0.84432185 0.0
000020 00 00 00 00 e2 0d 54 3f 00 00 00 00 00 00 00 00
       0.0 0.82833683 0.0 0.0
000030 00 00 00 00 a2 4c 4c 40 00 00 00 00 41 e0 1d 40
       0.0 3.1921773 0.0 2.4668124

batch_network.2.running_var f4 [16]
000000 60 c7 cb 23 60 c7 cb 23 c5 1c c5 3f 60 c7 cb 23
       2.2093743e-17 2.2093743e-17 1.5399405 2.2093743e-17
000010 b5 87 ea 3d 6f 95 1a 3f 97 4c 41 3d 60 c7 cb 23
       0.11451665 0.6038427 0.047192182 2.2093743e-17
000020 60 c7 cb 23 5e 5c 62 3d 60 c7 cb 23 60 c7 cb 23
       2.2093743e-17 0.05526387 2.2093743e-17 2.2093743e-17
000030 60 c7 cb 23 23 d2 51 3f 60 c7 cb 23 d3 11 cc 3e
       2.2093743e-17 0.8196127 2.2093743e-17 0.3985735

ps_network.0.weight f4 [8, 1]
000000 c3 49 83 af 8f 51 e2 be a3 7a d0 be 39 43 29 3f
       -2.3881172e-10 -0.4420285 -0.40718564 0.661182
000010 60 62 88 be 20 51 14 bd ee 7c ad 3e aa c7 5d 34
       -0.26637554 -0.03621018 0.33884376 2.0654866e-07

ps_network.0.bias f4 [8]
000000 81 84 cc be 3e fb 99 3e 88 d6 39 bc 56 71 12 3b
       -0.39944842 0.30074495 -0.011342652 0.0022345386
000010 5f e0 9b bd 08 57 d0 3d ad b9 1c 3f 37 95 20 bf
       -0.07611155 0.1017285 0.6122082 -0.62727684

ps_network.2.weight f4 [8]
000000 90 d0 2a 3f 07 b4 73 3f a0 d0 2a 3f 64 1a 7b 3f
       0.6672449 0.95196575 0.66724586 0.98087144
000010 90 d0 2a 3f 1f 32 70 3f 4d 80 76 3f 90 d0 2a 3f
       0.6672449 0.9382648 0.9628952 0.6672449

ps_network.2.bias f4 [8]
000000 e5 89 71 2f fc a6 20 b7 06 b5 a1 33 1e a5 1f 37
       2.1967812e-10 -9.575622e-06 7.530075e-08 9.515583e-06
000010 c6 95 b8 2e 4b a7 16 38 65 c7 c0 37 4b 2e aa af
       8.3939564e-11 3.591859e-05 2.2981034e-05 -3.0955713e-10

ps_network.2.running_mean f4 [8]
000000 00 00 00 00 28 4e 2f 3e e8 fb db 22 a6 b6 b3 3f
       0.0 0.17119658 5.9626785e-18 1.4040115
000010 00 00 00 00 ab 3a 7b 3d ac 2f ac 3f 00 00 00 00
       0.0 0.061335247 1.3452048 0.0

ps_network.2.running_var f4 [8]
000000 60 c7 cb 23 9c d9 b2 3c 75 c7 cb 23 28 58 5b 40
       2.2093743e-17 0.02183228 2.2093777e-17 3.4272556
000010 60 c7 cb 23 d9 07 06 3b 5e d3 6a 3f 60 c7 cb 23
       2.2093743e-17 0.0020451455 0.9172877 2.2093743e-17

main_network.0.weight f4 [128, 104]
000000 97 3a 27 3d b6 40 87 bd 0e 64 ea bb 6d 36 94 3b
       0.04082736 -0.066041395 -0.0071530407 0.0045230896
000010 8e e7 89 3d df a6 4b 3d 78 51 43 bc dc b8 ce bd
       0.06733619 0.049719688 -0.011921279 -0.10093853
000020 17 fd c5 bd f8 f8 f2 3b 74 01 11 3d 48 a2 72 3d
       -0.09667414 0.0074149333 0.035401776 0.059236795
000030 c7 25 3e 3d 98 0b 3a 3d 5f f1 f6 3d 30 fc b3 3d
       0.046422746 0.045421213 0.12057757 0.08788335
000040 07 a9 4f bd 8e 70 80 bc c2 d2 b9 bd 61 5b a1 3c
       -0.050698306 -0.01567867 -0.09073402 0.019696893
000050 b9 51 8f bd 2b 25 32 3c 18 56 b3 3d a4 c3 e4 bc
       -0.06998009 0.010873119 0.087566555 -0.02792532
000060 7e 72 49 3d 3f c2 7b bd 7d 77 94 3c c7 e2 26 bc
       0.049181454 -0.061464544 0.018123383 -0.010185904
000070 b3 d5 6d 3d e1 7c 9e 3d 10 6e af bc e1 1f 1f bd
       0.058065128 0.077386625 -0.021414787 -0.03884876
000080 f2 76 f1 3d 03 db 9b bc 28 7b 22 bd 90 6d be bd
       0.11790265 -0.019025331 -0.039668232 -0.09298241
000090 2b e7 76 bc 10 8a a8 3d b9 c5 84 3d e1 12 ef bc
       -0.015069763 0.08229458 0.06483025 -0.029183807
0000a0 eb fb e4 3d 93 56 bd bd 71 9b dc bc dd 7d a1 bd
       0.11180862 -0.09245028 -0.026929589 -0.07885335
0000b0 79 72 77 bd aa 06 fa 3c 9f ee 61 bc 21 09 91 bc
       -0.060411904 0.030520756 -0.013789802 -0.017704548
0000c0 b5 a7 ab 3c 49 26 9a 3d 2e c8 8e bd 98 87 9f bd
       0.020953992 0.075268336 -0.06971775 -0.07789534
0000d0 64 27 a8 3d 98 22 52 3d 9d 39 76 bd 6c 33 eb 3d
       0.08210638 0.051302522 -0.060113538 0.11484417
0000e0 61 5b 7e 3d 95 b6 d2 32 62 54 a0 af e6 37 24 3d
       0.062098864 2.4530246e-08 -2.9163788e-10 0.04009237
0000f0 c3 4f 80 aa 16 6c b5 bd 2f eb 87 bd 3b 94 f0 ae
       -2.2792713e-13 -0.088585064 -0.066366546 -1.09402674e-10
000100 8f 7a fc 2f 55 43 ce af 35 bc 2a af 93 8d 18 b4
       4.5925616e-10 -3.7519024e-10 -1.5528274e-10 -1.4207608e-07
000110 50 72 39 bd 7d 99 34 3c 3b 19 24 af ec cb fd ba
       -0.045275033 0.011022923 -1.4924677e-10 -0.0019363142
000120 f8 b8 65 bd 83 da a1 32 f0 c8 f0 2e 39 ba 65 3d
       -0.056084603 1.8842234e-08 1.094963e-10 0.0560858
000130 50 04 b0 3d c4 93 96 2e 90 7c 40 34 5e 90 db 3d
       0.085945725 6.847459e-11 1.7926709e-07 0.10720895
000140 e2 fa 8e af 74 4c 90 ad 21 a0 3b 3d 80 f7 70 af
       -2.6007912e-10 -1.6404857e-11 0.045807008 -2.1915803e-10
000150 95 b1 57 bd 30 41 21 3d 45 f4 2b bd 64 d6 24 af
       -0.05265959 0.03936881 -0.041981 -1.499188e-10
000160 2f f2 bd 31 c3 af 92 3d 87 44 83 af d9 5a cc af
       5.528157e-09 0.0716243 -2.3877453e-10 -3.7171935e-10
000170 39 05 dc b1 60 fc 1e bd 19 68 cd 30 04 df 77 3d
       -6.4034364e-09 -0.038814902 1.4945299e-09 0.06051542
000180 23 83 cb 32 6f 25 b4 3d a7 af 38 3a 92 9d ed 3c
       2.3691944e-08 0.087962024 0.0007045217 0.0290058
000190 43 73 d2 2e 0f 1d be 3c cf 11 d4 bb a4 87 91 b2
       9.570169e-11 0.023207216 -0.0064718495 -1.6941904e-08
0001a0 5b 96 5c bd 2c 29 7d bd 33 17 0f bd dc 9f f2 bd
       -0.053854328 -0.061806843 -0.034934234 -0.11846897
0001b0 f0 e2 41 3d 39 70 81 bd 64 42 99 3d 5d 32 8e 3d
       0.047335565 -0.06320233 0.07483366 0.069432
0001c0 32 c4 8c 3d ef 5a 81 3d 24 0f f6 bd c0 77 46 3d
       0.06873359 0.06316172 -0.120146066 0.048454046
0001d0 9a 6f b8 3c 6a 9e a7 bd c3 e6 4d bc 73 ad 6e 3d
       0.022514153 -0.08184512 -0.012567225 0.058270883
0001e0 44 a8 49 bd e3 52 ac 3d cf 1a 3d 3d 5e ef ae bd
       -0.049232736 0.08414247 0.046168145 -0.085417494
0001f0 7d e1 8a 3d ea de a3 3d e5 aa 73 3d 8e 8e ac bd
       0.0678129 0.08001502 0.05948915 -0.08425628
000200 2f ba df bc c8 29 bb 3d a9 55 81 bc 63 46 89 3c
       -0.027310459 0.091388285 -0.015787916 0.016757196
000210 d3 7c 19 39 74 d6 3a 3d 81 3c dc bd 28 23 9b 3c
       0.00014637718 0.045614675 -0.10753728 0.018937662
000220 09 7b 60 bd 69 ea 79 3d 58 01 b5 3d 31 fb 6e 3d
       -0.054804835 0.061014567 0.08838147 0.058345024
000230 68 ce 8e 3d 25 dd c8 3d 2c bd a6 bd 33 64 be 3d
       0.069729626 0.09807805 -0.081415504 0.09296455
000240 bd f2 a5 bd 41 93 b3 bd 8f ff 3f 3d 03 a6 f5 3c
       -0.08102939 -0.08768321 0.04687458 0.029986387
000250 44 71 d8 bc c9 9c e4 bd 1c 8e 97 bd ca e5 82 3d
       -0.026421197 -0.11162717 -0.07400152 0.06391485
000260 7a b6 c7 3d de 91 b5 bd 1e e2 58 bb 8b 31 cc 3c
       0.097516015 -0.088657126 -0.003309376 0.024925968
000270 c2 a7 20 bd fb b9 a4 bc d5 0d b7 3d d4 3d 14 3d
       -0.039222486 -0.020108214 0.08938185 0.036191776
000280 c2 66 38 3c 76 c2 a6 b1 03 23 83 b4 5f 6c a6 3d
       0.011254968 -4.8533435e-09 -2.4426126e-07 0.08126139
000290 f4 46 e8 31 43 db b2 3d 4e 1c 64 bd c7 ee 8b ad
       6.760155e-09 0.08733227 -0.055691056 -1.5908509e-11
0002a0 af 5f 8c 30 79 d9 7c af 25 91 e2 2f 41 52 77 b2
       1.0213536e-09 -2.2996528e-10 4.1212292e-10 -1.4395995e-08
0002b0 f8 ac c1 bd 9c 0d b1 bc 8f ea 32 2c 99 4b 7e bc
       -0.09456819 -0.021612935 2.5425528e-12 -0.015520954
0002c0 97 9d 1d 3d e3 c2 80 34 55 2d 52 2f 82 8e 0c 3d
       0.038480368 2.3983657e-07 1.9115494e-10 0.034315594
0002d0 2c f4 f6 3c a1 70 83 b4 36 50 ce 2e 89 54 30 3d
       0.030145727 -2.44826e-07 9.382044e-11 0.04304937
0002e0 a0 59 a3 31 1e 9b a0 2f b0 e9 c5 bd e9 81 8b 32
       4.7541135e-09 2.9214048e-10 -0.09663713 1.6240806e-08
0002f0 e4 92 ea 3c 66 92 74 bd 60 ed c2 bd 64 e0 ea 32
       0.028634496 -0.05970993 -0.09517932 2.7343226e-08
000300 54 fa ff 33 60 37 33 3d 1d 54 8d af 99 4a a7 aa
       1.1919897e-07 0.04375398 -2.5707517e-10 -2.9716922e-13
000310 fb a5 c5 b1 eb bf 55 bc 47 45 0a 2f a8 57 0a bc
       -5.7523244e-09 -0.013046245 1.2575639e-10 -0.00844375
000320 f7 7f 9e b0 30 98 87 3d 45 ad d2 34 16 6b 41 bd
       -1.1532383e-09 0.06620824 3.9241618e-07 -0.047221266
000330 2e d0 85 ad e9 c5 34 3d a2 e2 81 3d ac 6d 82 34
       -1.52128e-11 0.044134054 0.06342055 2.4294184e-07
000340 31 4e 7f 3d d5 fc ce 3d 45 2b c0 3c 3f ae d9 3c
       0.06233043 0.10106818 0.023458133 0.026572345
000350 2a a6 dd 3d 38 d2 a6 bd a3 78 08 3b 88 42 4b bd
       0.10822709 -0.08145565 0.0020823858 -0.049623996
000360 3c 78 8e bc e7 a8 8f 3d 2f 8e 82 bd d1 c0 ca bb
       -0.017391317 0.070146374 -0.063747756 -0.0061875363
000370 cb 8c 9e bc c8 3e 53 bd 5b 71 16 3d 30 41 ba 3c
       -0.019354245 -0.051573545 0.036729198 0.022736162
000380 13 59 9d bc 38 d4 2b 3c 10 09 92 bc 5e 81 86 3d
       -0.019207513 0.010487609 -0.017826587 0.065676436
000390 68 8f c7 3b f6 c4 9f bd 88 44 7f bd a0 52 91 3c
       0.0060900934 -0.07801239 -0.062321216 0.017739594
0003a0 b6 22 39 3d 65 c9 d3 bd bd 28 b3 3c c7 04 3b 3c
       0.04519912 -0.10341147 0.021870011 0.011414713
0003b0 35 9d 20 bd 30 5d 38 bc 1d 58 b0 3b b4 64 d4 bd
       -0.039212424 -0.011252686 0.0053815977 -0.1037077
0003c0 0f 06 c6 bc 83 df e9 3c ba 7f 9e 3d a3 27 59 bd
       -0.02417281 0.028548962 0.07739206 -0.053016316
0003d0 b7 2f a9 3d a4 a5 01 3c cd 38 41 3a 30 7d 96 bd
       0.08261054 0.007913027 0.00073708297 -0.07348096
0003e0 15 ff 88 3d f6 b1 8f bd ca 2e 66 bb cc 61 e8 bb
       0.06689278 -0.07016365 -0.0035123103 -0.0070917364
0003f0 80 90 f3 bc 3f 83 ac bc 68 1b ce 3b 51 63 d3 3c
       -0.029731989 -0.021058677 0.006289888 0.025804194

main_network.0.bias f4 [128]
000000 2e 25 12 37 98 ac 7f 33 ee 26 24 b7 e4 f8 b2 35
       8.710935e-06 5.9528787e-08 -9.784226e-06 1.333447e-06
000010 cf a7 8b b7 6d 83 43 37 ce 6b 74 36 fc 3a 72 36
       -1.6648233e-05 1.1653506e-05 3.6421584e-06 3.6095144e-06
000020 dc e1 8b b6 1c b1 03 37 fc b6 41 b7 17 56 e7 36
       -4.1688163e-06 7.849445e-06 -1.1546301e-05 6.8943586e-06
000030 11 f9 55 37 c9 c0 c4 b6 5c ca 3f b7 b7 ae fe 35
       1.275378e-05 -5.8636983e-06 -1.1431603e-05 1.8975323e-06
000040 09 cb 35 37 fc ff 60 b5 61 89 df 35 55 c1 67 b7
       1.08357135e-05 -8.381901e-07 1.6654777e-06 -1.3813687e-05
000050 75 c9 0d 36 7e 9e 93 36 99 e7 c6 b6 13 f0 af b7
       2.11279e-06 4.3993923e-06 -5.9278213e-06 -2.0973419e-05
000060 e7 ee 72 b7 bc 36 98 36 b9 13 82 b5 1b bc e9 37
       -1.4479948e-05 4.536325e-06 -9.691495e-07 2.7863358e-05
000070 50 8f 33 36 71 7d 04 38 6c fe 89 b7 2e d2 67 b7
       2.6756497e-06 3.158808e-05 -1.6450147e-05 -1.3817609e-05
000080 b3 c0 e8 36 38 a7 d7 b6 83 46 cb 37 db ca e9 35
       6.936572e-06 -6.426966e-06 2.423232e-05 1.7418892e-06
000090 a4 31 1c b7 c7 f7 0d b6 0f 1f ae b7 5a 95 ba b6
       -9.309882e-06 -2.1154863e-06 -2.075688e-05 -5.560619e-06
0000a0 94 5d 24 b7 f7 b2 a3 35 c2 89 b6 b7 f5 cf de b7
       -9.79695e-06 1.2196532e-06 -2.176024e-05 -2.65613e-05
0000b0 22 78 96 35 da 02 4c b7 35 2a 66 b6 33 55 92 b6
       1.1210834e-06 -1.21600115e-05 -3.4297238e-06 -4.3610576e-06
0000c0 53 9c 75 36 0c 5f 8d b7 67 b4 cc 36 23 7c 24 b7
       3.6598838e-06 -1.685277e-05 6.1006754e-06 -9.804065e-06
0000d0 9f 14 35 b7 2d be 08 b7 da 0f 3b b7 f0 71 17 b6
       -1.0793242e-05 -8.15051e-06 -1.1149759e-05 -2.2567074e-06
0000e0 b2 d2 ab b6 0a cd 5e 37 cd 2a 86 b7 69 52 02 36
       -5.1207253e-06 1.32799705e-05 -1.5993975e-05 1.9419479e-06
0000f0 ff b1 11 b7 10 1d e5 34 c5 4d 29 36 af 8b e9 36
       -8.684116e-06 4.267572e-07 2.522823e-06 6.9602024e-06
000100 53 9a d8 b7 fa da 53 36 fb 01 96 b6 51 ee ad 36
       -2.582107e-05 3.1568911e-06 -4.470579e-06 5.1835455e-06
000110 19 19 07 37 43 1c 8b b7 b6 ce e4 37 32 d4 5f 36
       8.052471e-06 -1.6583252e-05 2.7275975e-05 3.3353103e-06
000120 28 24 f7 36 34 68 8d 37 5d c7 84 37 da a9 27 b7
       7.3653828e-06 1.6857033e-05 1.5828462e-05 -9.993522e-06
000130 ac f0 d1 35 d6 b4 2e b8 9e 8e ba b6 48 e4 52 36
       1.5641758e-06 -4.165325e-05 -5.559835e-06 3.1425316e-06
000140 53 23 7f 38 f9 d9 17 b7 91 13 33 b8 a8 25 ac b7
       6.0829636e-05 -9.051052e-06 -4.269515e-05 -2.0521533e-05
000150 1d 16 e6 35 09 40 00 36 9e 8b c6 b5 ad 94 52 38
       1.7142771e-06 1.911076e-06 -1.4792784e-06 5.0206367e-05
000160 55 26 27 37 db 3d b2 b6 38 bb 41 b2 46 ee 10 35
       9.962901e-06 -5.3120143e-06 -1.1276647e-08 5.3990914e-07
000170 f6 a6 29 37 2b b2 77 36 a5 f6 9f b6 79 1d 2b b6
       1.0112059e-05 3.6909576e-06 -4.7672825e-06 -2.549814e-06
000180 00 52 4a b7 eb 01 4d b7 01 45 1e 36 9e 8c f4 36
       -1.205923e-05 -1.2219399e-05 2.3584e-06 7.2881367e-06
000190 ce d6 98 37 24 12 88 37 e6 d1 8e b6 eb 56 c0 36
       1.8219838e-05 1.622091e-05 -4.256365e-06 5.7321645e-06
0001a0 c6 fe 62 b7 52 94 15 37 54 fd cd 37 0a 8f ae 36
       -1.3529969e-05 8.915626e-06 2.455587e-05 5.202256e-06
0001b0 a2 a7 99 36 75 1a 37 36 c5 35 88 36 9d 98 3e 38
       4.5792704e-06 2.7284525e-06 4.0593754e-06 4.5441662e-05
0001c0 fb b8 5d b7 a1 a9 c6 37 61 80 af 35 61 10 e9 b6
       -1.3215696e-05 2.3682429e-05 1.3075879e-06 -6.945848e-06
0001d0 7c 57 8d 37 e2 0a 29 b7 b9 1c 3c 37 4a 8e 36 b7
       1.6849248e-05 -1.0075719e-05 1.1212361e-05 -1.0881175e-05
0001e0 9f 42 18 37 f6 21 bd 37 58 c7 1e 36 97 06 17 b5
       9.075417e-06 2.254637e-05 2.3659868e-06 -5.6261473e-07
0001f0 f8 37 cb 36 da ce 18 37 f4 b8 31 b6 a5 80 13 38
       6.056387e-06 9.108067e-06 -2.6482712e-06 3.516734e-05

main_network.1.weight f4 [128]
000000 e4 1f 7c 3f eb 2a 74 3f 47 72 7d 3f d3 3a 84 3f
       0.9848616 0.9537799 0.990025 1.0330452
000010 7f 2a 78 3f 75 97 76 3f 26 70 8a 3f 59 95 76 3f
       0.96939844 0.96324855 1.0815475 0.96321636
000020 d6 d3 77 3f 56 c1 75 3f b8 e6 7b 3f 4b df 80 3f
       0.9680761 0.9599813 0.98398924 1.0068144
000030 cd 19 80 3f a3 c9 81 3f 2b c0 7c 3f 19 46 81 3f
       1.0007874 1.013966 0.98730725 1.0099517
000040 19 a9 70 3f 99 26 81 3f 34 7e 74 3f 6b ea 88 3f
       0.9400802 1.0089904 0.9550507 1.0696539
000050 6c 2d 76 3f 4b 95 7b 3f 19 03 73 3f 08 36 81 3f
       0.9616306 0.9827468 0.949266 1.0094614
000060 13 31 84 3f 15 16 82 3f 19 3c 81 3f 03 06 81 3f
       1.0327476 1.0162989 1.0096465 1.007996
000070 08 ea 77 3f 90 f7 80 3f 99 4d 85 3f 6b 29 80 3f
       0.9684148 1.007555 1.0414306 1.001264
000080 cc 1e 86 3f d6 f3 7a 3f 83 fe 76 3f 60 7c 80 3f
       1.0478148 0.98028314 0.96482104 1.0037956
000090 f8 26 83 3f 9f a1 6b 3f 6f 8d 7f 3f 0f 3c 84 3f
       1.0246267 0.9204349 0.99825186 1.0330828
0000a0 12 df 84 3f 50 54 7f 3f 3b d4 7b 3f d1 a1 7e 3f
       1.0380576 0.99738026 0.98370713 0.9946566
0000b0 73 da 7b 3f b2 80 7f 3f 1c 2b 80 3f cc e0 6f 3f
       0.983802 0.9980575 1.0013156 0.9370239
0000c0 25 7e 7b 3f 17 af 83 3f ee a4 82 3f 97 95 7c 3f
       0.98239356 1.0287808 1.0206583 0.98665756
0000d0 de 9e 83 3f 3a 83 80 3f 96 01 7d 3f 95 8c 81 3f
       1.0282857 1.0040047 0.98830545 1.0121027
0000e0 9f df 76 3f fd 1e 7a 3f d2 9d 7a 3f 57 e9 7d 3f
       0.9643497 0.97703534 0.97897065 0.99184173
0000f0 09 93 7e 3f f2 c9 7a 3f a1 07 79 3f 8f 90 88 3f
       0.9944311 0.97964394 0.97277266 1.0669116
000100 b3 2c 84 3f c8 42 7e 3f d6 44 7c 3f 40 71 7d 3f
       1.0326141 0.9932065 0.98542535 0.9900093
000110 ed 16 81 3f 44 a6 81 3f de 8c 79 3f 6d 8d 7e 3f
       1.0085121 1.0128865 0.9748057 0.9943455
000120 77 4c 77 3f 8c 1c 6e 3f 39 a8 77 3f c2 12 71 3f
       0.9660105 0.9301231 0.9674106 0.9416925
000130 8b 7d 88 3f 83 0e 77 3f c4 46 73 3f c3 a3 7b 3f
       1.0663313 0.9650652 0.95029855 0.98296756
000140 50 bc 7f 3f 88 2c 81 3f fc 9f 86 3f bc a0 7e 3f
       0.9989672 1.0091715 1.0517573 0.9946401
000150 55 29 79 3f ae 13 81 3f 27 db 77 3f 9b 6c 81 3f
       0.9732869 1.0084131 0.96818775 1.0111269
000160 9b 3f 7e 3f 1f ef 7e 3f 9a b3 77 3f e9 d4 86 3f
       0.99315804 0.9958362 0.96758425 1.0533725
000170 ba b6 6f 3f 6b 24 7e 3f e6 63 87 3f 70 ca 80 3f
       0.93638194 0.9927432 1.0577362 1.0061779
000180 96 1e 86 3f 6b 15 84 3f 09 07 77 3f 2f 19 80 3f
       1.0478084 1.0319036 0.9649511 1.0007685
000190 a8 cd 7b 3f 51 2e 7f 3f dd e6 84 3f f1 18 8a 3f
       0.9836068 0.9968005 1.0382954 1.0788862
0001a0 46 3d 87 3f 39 5a 7c 3f 0c 1f 80 3f 6f 74 86 3f
       1.0565574 0.9857517 1.0009475 1.0504283
0001b0 4b 66 73 3f 04 29 83 3f 3e 65 7d 3f 09 33 78 3f
       0.9507796 1.0246892 0.9898261 0.96952873
0001c0 98 3e 82 3f d8 42 7a 3f 79 03 83 3f bf df 81 3f
       1.0175352 0.97758245 1.0235435 1.0146407
0001d0 ff 5d 79 3f b0 2c 77 3f ee 51 80 3f ea 87 88 3f
       0.9740905 0.9655256 1.0025003 1.0666478
0001e0 cf 60 7d 3f 22 3e 7a 3f 16 9b 81 3f 08 0d 82 3f
       0.98975843 0.9775106 1.0125453 1.0160227
0001f0 8b b3 7c 3f 31 db 80 3f ed a3 7a 3f 70 76 7f 3f
       0.9871146 1.0066892 0.9790638 0.99790096

main_network.1.bias f4 [128]
000000 8a 20 3d bc b8 9d cd bc c7 31 fc 3b aa 79 31 3c
       -0.011543402 -0.02509962 0.0076963636 0.01083223
000010 20 e7 15 bd 4f cc 8c bc d2 63 80 3d b4 d7 8d bc
       -0.03659737 -0.017187266 0.06269039 -0.01731477
000020 80 10 2f bd 52 99 40 bd 55 10 b1 3d b0 3b bc 3b
       -0.042740345 -0.047021218 0.08645693 0.00574442
000030 04 f0 d0 3c 62 2b 6a bc f5 ad a8 3b ee 27 8c 3c
       0.025505073 -0.01429257 0.0051476904 0.017108884
000040 1e f7 2e bd 9a cd ab 3c e0 72 44 bd 69 df 7c 3d
       -0.042716138 0.020972062 -0.047961116 0.061736498
000050 01 bb 21 bd 31 89 63 3c 06 5a d8 bc 6e dc c1 bb
       -0.03948498 0.013887689 -0.026410114 -0.00591617
000060 bc 69 f8 3c 62 c8 41 3c 14 25 4d 3d a3 7e 3b bc
       0.030323856 0.01182756 0.05008419 -0.011443767
000070 9b db b6 bb 3c 7d 23 3d ce 6e c7 3c 6e 2b db 3c
       -0.005580378 0.039914355 0.024344828 0.026754107
000080 4c a9 8f 3d 76 d8 30 bd df 8a 0c bd e5 49 9f bc
       0.07014713 -0.043175183 -0.034312125 -0.019444415
000090 9f 30 46 3c ed 6a 14 bd c5 00 bd bb ea 46 98 3c
       0.012096553 -0.036234785 -0.005767914 0.018588502
0000a0 27 d7 2b 3d 36 4f 4c 3d b2 fc 71 ba 3c c3 0d bd
       0.041953232 0.04988023 -0.0009231075 -0.034610018
0000b0 03 69 e7 3c d5 4b cd bb 25 5a 70 3d 18 7c 8c bd
       0.028248316 -0.0062651434 0.05867972 -0.068596065
0000c0 24 8a c9 bc be 6d 85 3d 77 4e a7 3d 37 66 d4 bc
       -0.024602003 0.06515072 0.08169263 -0.025927646
0000d0 d1 cf 3e 3d ab 56 18 3d a6 b0 a6 3c 27 b9 25 3c
       0.046584908 0.037192028 0.020347904 0.010114945
0000e0 4a fc d0 39 38 71 f0 bb 5f 61 d0 3b eb c3 f6 b8
       0.00039860822 -0.0073377155 0.006359264 -0.00011766687
0000f0 11 e3 03 3d 97 90 00 bd dc 83 11 3c 93 47 5b 3d
       0.03219897 -0.03138789 0.008881535 0.053535055
000100 b5 11 e1 3d d7 af 85 bc ef bf af 3b 7c 55 36 3c
       0.109897055 -0.016319199 0.0053634564 0.0111287795
000110 82 e7 91 3c ae 8a 0f bd 99 38 7a bc ef 80 3c bc
       0.017810587 -0.035044365 -0.015272283 -0.01150535
000120 75 c1 f1 bc 77 f8 c6 bd 54 58 8b bb fc c3 d5 bc
       -0.029511193 -0.0971536 -0.004252473 -0.02609443
000130 c3 37 9d 3d 45 25 df 3a 3a fa 6f bb 40 9f 7b 3c
       0.07676651 0.0017024657 -0.0036617653 0.015357792
000140 1b 9b 81 3b 08 16 d0 3c 1d 94 25 3d de 29 eb bb
       0.0039552576 0.02540113 0.040424455 -0.007176622
000150 e7 75 ad bc 56 17 57 3d d2 49 d8 bc 9d 88 5b bc
       -0.021174384 0.05251249 -0.026402388 -0.01339927
000160 18 b8 10 3b 96 33 ce bc 2c 49 ac bc 60 b3 5b 3d
       0.0022082385 -0.025171082 -0.021030985 0.053637862
000170 35 b7 3b bd 1f e1 d5 3c 22 45 76 3d ef 1f c0 3c
       -0.045829017 0.026108323 0.060124524 0.023452727
000180 c4 25 92 3c dd 8b a3 3c 5a dd 2e bd 4e 49 69 bc
       0.017840274 0.019964153 -0.042691566 -0.014238669
000190 9d 28 26 bc 6d b4 1a 3d 2f 4e 92 3d aa bf 92 3d
       -0.010141519 0.037769724 0.071438186 0.07165463
0001a0 36 1d 64 3d e5 53 ac 3c 8d 68 22 3c f6 59 7b 3d
       0.05569192 0.021036098 0.009912622 0.06136509
0001b0 2b b0 60 bd 0e e9 75 3c d8 65 70 3c 28 eb 76 bc
       -0.054855507 0.015009178 0.014672719 -0.015070714
0001c0 de 10 ee 3c a3 5b de bc 62 9f 8e 3c 1d 89 58 3b
       0.029060777 -0.027143305 0.017409984 0.003304071
0001d0 9a 5e eb bb 1b b2 e1 bc 30 f3 29 bd 81 1b 2a 3d
       -0.0071829082 -0.027550748 -0.041491687 0.041530136
0001e0 ef ec 3b bc 2a bf a6 bb 15 5c f9 3b af 03 dd bb
       -0.011470064 -0.0050887065 0.007609854 -0.006744824
0001f0 12 dd a2 bb 4e 28 cc 3a 8f 47 34 bc 20 1c c6 3c
       -0.0049702013 0.0015575977 -0.011003389 0.024183333

main_network.1.running_mean f4 [128]
000000 52 37 d0 bd 2c 40 fe bd 98 1c 86 bd 8b 5c 4a bc
       -0.101668015 -0.124145836 -0.065484226 -0.0123511655
000010 89 dd 6f 3d a4 8c 13 bd c3 09 e2 3d 8f 45 18 bd
       0.05856088 -0.036022797 0.11037018 -0.03717571
000020 23 0d 28 bc 84 4e ec 3a 65 3e 93 3c 2b 14 89 3c
       -0.010257038 0.001802877 0.017974088 0.01673325
000030 4e 57 87 bd fd 7a f0 3d 7d 2a 3f bd f2 09 0e bd
       -0.06608449 0.11742208 -0.04667138 -0.034677453
000040 5d 69 8c bd 81 cd 8a bd 9c a6 75 3d db 59 7e bd
       -0.06856034 -0.06777478 0.059973344 -0.06209741
000050 ea 60 a8 bc 19 e3 50 3d 0b 0e ac 3b e2 11 c7 3d
       -0.020554025 0.050997827 0.0052506975 0.09720208
000060 2f 5a 1f bd 9b 13 20 3d 66 74 f7 3d 32 cb c6 bd
       -0.038904365 0.039081197 0.12082748 -0.09706725
000070 e3 b0 5b 3d b2 f1 14 3e 92 5e e6 3c eb 2b 89 3b
       0.05363549 0.14545324 0.028121267 0.0041861436
000080 5b 93 73 bd e1 f1 8a 3d ee dd 0c be 35 b8 dc bb
       -0.0594667 0.06784416 -0.13756534 -0.0067358264
000090 86 bb ac bc 60 89 a9 bc 79 b8 89 3c d9 0e ac bd
       -0.021085512 -0.020695388 0.016811596 -0.084012695
0000a0 4c 0a 07 3e eb 2f 6b 3d 27 0d 15 bd b3 8f fe bc
       0.13187522 0.057418745 -0.036389496 -0.03107438
0000b0 c1 98 ec bd c7 51 84 3d ff 16 24 be 0d e8 24 be
       -0.11552573 0.0646091 -0.16024397 -0.16104145
0000c0 82 04 9c 3d 93 08 01 3c 46 82 68 bd 98 96 bd bd
       0.07618047 0.007875579 -0.056764863 -0.09257239
0000d0 2a c9 a7 3d c8 4f bf 3d 8a e6 4a 3d d8 eb f4 3c
       0.08192666 0.09341389 0.049536265 0.029897615
0000e0 87 ce ef bc e7 d0 9f bd a3 6b bb 3c af fc ea 3d
       -0.029273285 -0.07803517 0.022878474 0.11473977
0000f0 03 c1 58 bd 93 27 f3 3d 36 d6 bb bc 67 a6 19 3d
       -0.052918445 0.118727826 -0.022929292 0.03751221
000100 a9 1c 23 3e 52 f0 7b 3d a1 00 4c 3b dd 81 24 3e
       0.15928902 0.061508484 0.0031128305 0.16065164
000110 c7 46 6a bc c3 e0 4b bd f6 32 09 3e 54 ae bf 3d
       -0.014299101 -0.049774896 0.13398346 0.09359422
000120 f8 d9 49 bd b4 6e cb bd af 72 92 3d 61 b7 e6 3d
       -0.049280137 -0.09933224 0.071507804 0.112654455
000130 e8 94 b0 3d 3c 1d b9 3d c9 fc bc 3d 9d 47 32 bc
       0.086221516 0.09038779 0.092279024 -0.010881332
000140 43 3b a8 bd 13 8a 08 3e 1d 42 07 be 15 6e 72 3d
       -0.08214428 0.13333921 -0.13208814 0.059187014
000150 60 89 81 bd e2 e9 55 3d bb 2f 87 bd ce 9b 98 bc
       -0.0632503 0.052225 -0.06600901 -0.018628981
000160 cf 55 7b bd 6d fd 4a 3d eb 04 37 bd 09 72 1a 3a
       -0.06136113 0.049558092 -0.044682425 0.00058916264
000170 00 4f 48 3d 33 5b 24 3e df f9 b7 3d c7 17 65 bc
       0.048903465 0.16050415 0.08983206 -0.01398272
000180 60 1b 07 3e ba c9 2c 3d 41 99 5d 3d 34 5a 10 3e
       0.13194036 0.04218457 0.054101232 0.1409691
000190 14 58 0f 3e ce ca 28 3d 43 e8 9d 3d 1e b6 df 3a
       0.13998443 0.041209035 0.07710316 0.0017067825
0001a0 7a 18 80 3d d5 45 d0 bc 21 34 f5 bd 2a 28 fd bc
       0.062546685 -0.025423924 -0.119728334 -0.03090294
0001b0 c5 a2 ac bd 24 b8 d6 bd 84 9e 36 3d 51 ac 54 3e
       -0.08429483 -0.10484341 0.044584766 0.20768858
0001c0 cd 8e ec bc ce 69 35 bd 6b b8 17 3d 7c 44 6a 3d
       -0.028876686 -0.044290356 0.03704111 0.057194218
0001d0 67 a7 b3 3d c4 1b d8 3d 80 5d 69 3d 94 1f 29 bb
       0.08772164 0.10552171 0.056973934 -0.0025806176
0001e0 c3 96 a5 3d 88 50 af bc 48 6e fb bc 4b fe 99 bc
       0.08085396 -0.021400705 -0.030692235 -0.018798014
0001f0 df 31 d9 bc cf d9 f3 3d 46 b6 49 3d 2a fc 66 3d
       -0.026513038 0.11906778 0.049246095 0.056392826

main_network.1.running_var f4 [128]
000000 d6 17 43 3e b2 95 af 3d a4 11 df 3d 69 6f e4 3d
       0.19052061 0.08573474 0.108920366 0.11154062
000010 ce 21 19 3e 3a 18 15 3e 90 e9 f0 3e ef 08 98 3e
       0.14954302 0.14560023 0.47053194 0.29694316
000020 0e 89 ef 3d 11 35 43 3e da 37 c7 3e 78 db 89 3e
       0.11696063 0.19063212 0.389098 0.26925254
000030 33 c6 3a 3e bf a9 2f 3e e1 01 b0 3e 6b f3 b6 3e
       0.1823967 0.17154597 0.34376433 0.35732588
000040 ea c9 02 3e d5 7b ed 3e 51 27 3e 3e dd 13 d5 3e
       0.12772337 0.4638354 0.18569686 0.41616717
000050 43 0d 3e 3e 23 62 bf 3e 75 25 c5 3d 33 ef b0 3e
       0.18559746 0.3737956 0.09626285 0.34557495
000060 24 3a 09 3e 80 64 8d 3e b4 73 bc 3d 86 5e 6c 3d
       0.13401085 0.27615738 0.09201756 0.057707332
000070 93 54 18 3e f7 77 49 3e 97 23 78 3e e7 e9 df 3e
       0.14876013 0.19674669 0.24232326 0.4373314
000080 87 b1 e6 3d c9 03 6f 3e 59 88 05 3e c9 2a bf 3d
       0.112643294 0.23341288 0.13040294 0.093343325
000090 04 06 6b 3e b8 8b 05 3e e3 bd 5e 3e d9 db ed 3e
       0.22951514 0.1304158 0.21752124 0.46456793
0000a0 df f7 08 3f 2a a2 60 3e 23 42 fb 3d d1 9b c8 3d
       0.5350322 0.2193686 0.12268474 0.097953446
0000b0 73 a0 28 3f a4 f8 3c 3e 8e bf 2b 3e ed 34 66 3e
       0.65869826 0.18454224 0.16772291 0.22481127
0000c0 59 bf 15 3f 61 3e 56 3e e1 9c 11 3e d4 4d ef 3d
       0.584951 0.20922233 0.14220001 0.116847664
0000d0 c2 93 b0 3e 52 cb 2d 3f 8b b4 ba 3e 8f 08 d2 3d
       0.3448773 0.6788837 0.36465868 0.10255539
0000e0 9b 8d f9 3d 13 31 a7 3e e9 6f 18 3e c0 69 90 3e
       0.12185212 0.32654628 0.1488644 0.2820568
0000f0 5a 62 14 3f c1 ac 70 3e 27 fa a3 3e 7e e3 cf 3e
       0.5796257 0.235034 0.3202679 0.4060325
000100 88 03 3f 3e e3 15 cc 3e 2e 45 38 3e df 2b a1 3e
       0.18653691 0.39860448 0.1799514 0.31478783
000110 3d 53 71 3d 74 de 04 3e 6e b4 c1 3e a9 f8 34 3e
       0.058917273 0.12975484 0.3783297 0.17672981
000120 1d 13 01 3e 1c 9e 14 3e d4 2b 25 3e 5e ef 48 3e
       0.12604947 0.14513439 0.1613 0.19622561
000130 03 e9 97 3e 47 67 db 3d f0 e4 29 3e 8c 43 7c 3e
       0.2966996 0.10713058 0.16591239 0.24635142
000140 a8 fc 18 3e f5 17 23 3e 13 c7 5a 3e 8d 33 52 3e
       0.1494013 0.15927108 0.21365003 0.20527478
000150 29 79 14 3e d2 ed 96 3e e4 a0 61 3d 85 43 56 3e
       0.14499344 0.29478317 0.055085078 0.20924194
000160 ba e6 12 3f 45 e8 0f 3e 42 ac 20 3e cd a7 ff 3e
       0.5738331 0.14053448 0.15690711 0.4993271
000170 1c a0 52 3e 8f df 66 3f 47 61 d1 3e dd fb aa 3e
       0.2056889 0.90184873 0.4089453 0.3339528
000180 42 7d 87 3e d3 2d c6 3e 8e 00 9f 3e 37 7e f8 3d
       0.26462752 0.38706836 0.3105511 0.121334486
000190 98 88 0b 3e e8 28 69 3e d9 79 04 3f 69 2d 0e 3f
       0.13626325 0.22769511 0.51748425 0.5553804
0001a0 90 42 a3 3e 17 1c e1 3e 34 2f 46 3e 67 e3 08 3e
       0.3188672 0.43966743 0.19353944 0.13367997
0001b0 82 b9 8b 3e 0f cf 1c 3e 2e 04 76 3e 42 01 f1 3d
       0.2728997 0.15313362 0.24025032 0.11767818
0001c0 36 7b 25 3e 3b af 79 3e d1 5e a0 3e a7 ce 0d 3f
       0.16160282 0.24383251 0.3132234 0.5539345
0001d0 07 b5 a2 3d 04 78 36 3e 9d 95 cb 3d 2f 96 ef 3d
       0.079446845 0.1781922 0.09940646 0.11698567
0001e0 7d 6e 66 3e 10 cb 0a 3e 33 cd 94 3e 98 75 26 3e
       0.22503085 0.13554025 0.29062805 0.16255796
0001f0 53 e5 4e 3e 9f f2 fd 3e 58 30 9a 3d 29 1c 3c 3e
       0.20204668 0.49599168 0.07528752 0.18370117
