MLP/best_model_googlenet.pth (torch, 121008 bytes, 47 tensors)

model_embedding.weight f4 [32, 12]
000000 d6 12 2e 3e a2 8f 7b bd 78 ca 8c 3e 86 45 60 3d
       0.16999373 -0.061416276 0.2749822 0.054753803
000010 1d f6 a0 3c 81 98 72 3e 6d ea 25 3e 69 50 33 be
       0.019648606 0.23690988 0.16202708 -0.17511143
000020 bd f8 1a be a3 33 90 bd 7d dc be bd 10 9a 87 be
       -0.15133949 -0.07041099 -0.093193986 -0.26484728
000030 82 1b 6f 3e 6d b5 27 3e 08 87 80 3e d7 83 23 3e
       0.23350337 0.16377802 0.2510302 0.15968262
000040 63 05 85 bc 71 8b 1c be 7b 59 31 3e 52 69 cb bd
       -0.01623792 -0.15287568 0.1731929 -0.09932198
000050 8b d1 65 3d ad 37 86 3e 85 24 00 3e a3 65 89 3e
       0.05610804 0.26214352 0.12513931 0.26835355
000060 b1 d5 5d 3e 2d 4d 9c 3e 99 17 94 3c 2c c5 ed 3d
       0.21663548 0.3052763 0.018077658 0.11609873
000070 e8 10 1e bc 4d f1 99 3c 2d bc 48 bd 28 3a 5d bd
       -0.009647585 0.018791819 -0.049007583 -0.05401054
000080 09 1a 77 3e 00 cf 4a bd a1 88 26 3e db 13 1d be
       0.24131025 -0.049513817 0.16263057 -0.15339606
000090 71 6e 7f be 00 27 90 bc 2b 6c a9 be 87 a1 6b 3b
       -0.24944474 -0.017596722 -0.33090338 0.0035954432
0000a0 ee 33 8a 38 bf ee e8 bd 30 cc e7 bd d1 63 25 3e
       6.5900254e-05 -0.11373662 -0.113182425 0.16151358
0000b0 db c4 70 be c2 d3 9d 3c f2 75 f9 bd a1 eb b4 bc
       -0.23512594 0.019266013 -0.121806994 -0.022085013
0000c0 2d 28 6e 3e 14 7c 34 be 75 50 b9 3e 1e a3 0c 3d
       0.23257513 -0.17625457 0.36194196 0.03433525
0000d0 60 9b e6 29 86 3d 09 be b1 3b be 3d aa e6 be 3d
       1.0241005e-13 -0.13402376 0.09288729 0.093213394
0000e0 9e 5e f5 3d 97 1e 5f 3e b7 4d 89 be 97 9b f9 3d
       0.119809374 0.21789013 -0.26817104 0.121878795
0000f0 a9 69 27 be e2 b9 47 3d c9 a0 8e be 69 9e 5f bd
       -0.163489 0.048761256 -0.27857044 -0.05459443
000100 fb d5 c6 3b 68 e8 b4 bd b0 81 31 3e ca e0 50 be
       0.006067989 -0.088333905 0.17334628 -0.2039825
000110 e9 39 07 be e8 8a 0f be f7 22 81 be 62 1e 89 bd
       -0.13205685 -0.14017832 -0.2522199 -0.06695248
000120 5e df 8d 3d 27 70 59 3e 19 d2 5f 3d 4a 8e 86 3e
       0.069273695 0.21234189 0.054643724 0.26280433
000130 8c 78 46 b6 b6 1a 54 3e e6 87 34 bd 60 88 a5 bd
       -2.9574467e-06 0.20713314 -0.044074915 -0.08082652
000140 5b ea 83 be fd e4 ca 3d fb ac 16 be 23 b1 83 3e
       -0.25764737 0.09906957 -0.14714424 0.25721082
000150 0c ac 74 be 28 8d 45 3e e3 cc b9 3e 6b 3c 39 3d
       -0.23893756 0.19292128 0.3628913 0.045223635
000160 cc 2d 7d 2f 67 91 5c 3d 29 c6 33 be d4 0f 4e be
       2.3026486e-10 0.053849604 -0.17556061 -0.20123225
000170 16 dd 7d be 8e 68 e8 3d 42 a1 2b be fa 90 27 3e
       -0.24791369 0.11348067 -0.16760734 0.16363898
000180 df 2b 24 3e 48 cf ad bd b2 34 09 be db 21 10 bd
       0.1603236 -0.084868014 -0.13399008 -0.035188537
000190 f0 d0 d8 bc 4a c4 17 be ff 71 8c 3e c9 b2 21 be
       -0.026466817 -0.14820972 0.27430722 -0.15790857
0001a0 a9 d3 66 3e 70 8b f1 3c 75 f4 31 bd 7c 6e 5b 3e
       0.2254168 0.029485434 -0.043446023 0.21428865
0001b0 bb ac 01 be 9a da f5 bd 4e e7 da 3c 69 4f e5 3c
       -0.12663548 -0.120045856 0.026721623 0.027991967
0001c0 ac 6e cc 29 ff 39 a1 bd f6 73 d5 3d 1b 57 53 be
       9.0786184e-14 -0.0787239 0.104225084 -0.20638697
0001d0 24 cd dd bd dd 85 a9 3d 72 27 3c bd d3 6d db bc
       -0.10830143 0.082774855 -0.045936055 -0.026785767
0001e0 85 97 5f 3e ed f1 01 be 32 1c 9b 3e 36 ca f5 3d
       0.21835144 -0.12689944 0.3029495 0.12001459
0001f0 01 3a 7b bc e7 cc 1e bd 28 16 20 be 28 e8 03 be
       -0.015333653 -0.03876963 -0.15633452 -0.1288153
000200 f1 88 f4 bd 79 38 87 3d 47 01 33 3d 16 ea 18 3e
       -0.11940182 0.06602568 0.04370239 0.14933047
000210 eb ef 1b 3e 74 dc 6f be 0a 89 92 3e 5e b3 de bd
       0.1522824 -0.2342394 0.28620178 -0.10874055
000220 14 29 bc ad b5 d3 92 bd a3 28 cb 3d 51 d1 31 3e
       -2.1391368e-11 -0.07169286 0.0991986 0.17365004
000230 be 30 8b be 37 23 5f 3e 5e b1 40 3e 5d 99 19 bd
       -0.27185625 0.21790777 0.1881766 -0.037499774
000240 2e 35 80 3c e3 7e 1f be ce 7f 77 be b3 f4 88 bc
       0.015650358 -0.15575747 -0.24169847 -0.016718244
000250 d5 07 b9 3b e3 6e 89 3e 61 c3 03 3e f5 c2 c0 bd
       0.0056466856 0.26842412 0.128675 -0.09412185
000260 43 e5 78 3e 3b b9 d4 bc 75 ac 45 3d d8 f8 f6 3d
       0.24306206 -0.025967231 0.04826017 0.12059182
000270 fb 8a af 3d 8f 6a 90 bd 98 38 b5 3d 64 b7 a6 be
       0.0857143 -0.070515744 0.08848685 -0.3256179
000280 a3 74 43 b1 8e ab 80 3c e1 75 c5 bd da 83 07 3b
       -2.8442535e-09 0.015706804 -0.09641624 0.0020677955
000290 7d 0a 1a 3e ea 38 28 bd 76 b4 91 be 18 d5 f4 bc
       0.15043063 -0.041069902 -0.28457993 -0.029886767
0002a0 33 77 5b 3e 91 5b bf bd e9 dd 28 bd 72 5d 23 3e
       0.2143219 -0.09343637 -0.041227255 0.15953615
0002b0 8c 48 f1 2e 43 a6 ab 3d 5c 02 62 3e 44 78 63 3e
       1.0972298e-10 0.08381321 0.22071213 0.22213846
0002c0 c8 f9 59 be a0 4b 62 be c1 8b b0 3c 15 25 53 be
       -0.2128669 -0.22099161 0.021551015 -0.20619614
0002d0 ba d2 39 be 6b 2c 87 3d 13 eb 77 3d 1c 7b 72 3e
       -0.18146792 0.06600269 0.06052692 0.23679775
0002e0 99 a9 41 aa e1 c4 90 39 88 4e 54 be 16 e2 df bd
       -1.7200685e-13 0.00027612507 -0.20733082 -0.10931794
0002f0 09 b2 4d 3e b4 91 e5 bd 5d 35 7b bd 73 fb 87 3e
       0.20087446 -0.11209431 -0.061330188 0.26559028
000300 53 98 1c 3e 30 0d 0c 3e bc c5 9a be 58 b7 56 3d
       0.15292482 0.13676906 -0.30228984 0.052420944
000310 14 1a 5e b1 72 15 7b be 58 cd 1f be d4 86 25 3c
       -3.2320076e-09 -0.245199 -0.15605676 0.010102946
000320 2a a7 81 3d fd b6 88 be ef b4 3c 3e 87 89 d1 3d
       0.06330712 -0.2670211 0.18428396 0.102313094
000330 2c 31 02 bc 8f 82 1f 3e 30 42 94 3e 10 b9 6b be
       -0.007946294 0.15577148 0.28956747 -0.23019814
000340 46 4f 73 bc f1 57 64 be 82 20 35 be 85 74 8f 3e
       -0.014850443 -0.22299172 -0.17688182 0.28018585
000350 7b 47 84 3e b3 73 10 be 09 b3 19 3e 5a fd 90 3d
       0.25835785 -0.14106636 0.15009703 0.07079573
000360 a4 ee 2e bd b9 d5 96 be e7 a4 1e be 48 c6 74 3e
       -0.042708054 -0.29459932 -0.15492593 0.23903763
000370 20 05 83 bb c9 7e 98 3d 23 66 f2 bd 8c f9 e9 3d
       -0.0039984137 0.07446057 -0.11835887 0.114245504
000380 17 d6 ea 3c 37 1f a7 bd a4 48 28 3e fc e7 a5 bd
       0.02866654 -0.08160251 0.1643396 -0.08100888
000390 29 a6 89 bd 34 9a 70 3e d1 3d 91 be b6 29 19 3e
       -0.06721146 0.23496324 -0.28367475 0.14957318
0003a0 71 8a 07 b5 d3 0b 79 3e 68 54 79 bd 0f 06 c5 3d
       -5.049288e-07 0.24320917 -0.06087151 0.09620296
0003b0 2a 7a 31 3c e0 0f 08 be 6a b9 e8 3d fe d0 d5 bc
       0.010832349 -0.13287306 0.1136349 -0.026100632
0003c0 49 ba c7 bd 5c 76 ae bd 40 c3 d7 bc 91 5e 3e 3b
       -0.09752328 -0.08518669 -0.02633822 0.0029048065
0003d0 3b 3b a0 39 90 c6 80 3d fc ff 9f 3c c9 03 90 bc
       0.00030561708 0.06287873 0.019531243 -0.01757993
0003e0 7d eb 2f be 70 83 80 bd df 10 0f 3e 06 6f 15 3e
       -0.17179675 -0.0627507 0.1397128 0.14593133
0003f0 c2 e9 ca bd c4 e0 26 bc 5a 5e 1c 3e 7b 94 a3 be
       -0.09907867 -0.010185424 0.15270367 -0.3194922

model_embedding.bias f4 [32]
000000 97 82 75 3b ca c3 85 b8 ee 8d 22 3a 12 d4 51 36
       0.003746187 -6.378403e-05 0.0006200959 3.1266868e-06
000010 db 3e bd bc 52 73 7e 3c ec e8 0b 3a 71 23 c8 3b
       -0.02310126 0.015530424 0.0005337137 0.0061077406
000020 9d 78 13 b7 2b 94 37 bc 85 ff 3a 37 f7 f1 a0 3a
       -8.789965e-06 -0.01120476 1.1145957e-05 0.0012279142
000030 3f 5f c3 37 f1 d4 b4 b6 0d 8d 19 b7 1c 10 22 b7
       2.3290164e-05 -5.3892077e-06 -9.152352e-06 -9.659703e-06
000040 70 da 38 b7 a5 11 db 36 c6 4b 72 bc 04 b1 c8 3c
       -1.1018114e-05 6.5287627e-06 -0.014788574 0.02449847
000050 5b 46 54 bb 41 6f 06 37 26 63 76 36 c0 21 6a 36
       -0.0032390568 8.012926e-06 3.6714569e-06 3.4888362e-06
000060 94 e5 15 36 63 67 47 36 eb e1 d5 35 f4 81 8e b6
       2.2336362e-06 2.971349e-06 1.5935487e-06 -4.2470583e-06
000070 9f ab 17 bb 35 2c 07 bd 2e bf 1b bc f0 9d b8 ba
       -0.0023143066 -0.033001143 -0.00950603 -0.0014085155

dataset_embedding.weight f4 [16, 3]
000000 f7 87 e4 3e 19 c7 dd 3c d0 5c 8f bc cc 2a 91 bd
       0.44634983 0.027072476 -0.017500311 -0.07088241
000010 f3 bf 1b be 13 47 ce 3e 4b 3b 1c bf 29 a9 4e bb
       -0.15209942 0.402886 -0.61027974 -0.0031533933
000020 5a 8f a6 3e db a4 3f bc f9 3f 0b bf e9 42 6f bd
       0.32531244 -0.011697019 -0.5439449 -0.05841342
000030 0f bd 1d bd 61 db ce 3e 16 17 3c 3e 35 6a 07 bf
       -0.03851038 0.40401748 0.18368182 -0.52896434
000040 a0 dd 8a be 35 e1 8a be 3d 4f 37 bc 33 7c fb be
       -0.2712221 -0.27124944 -0.0111883255 -0.49118194
000050 38 df 1f be f2 6e f9 be 4e 60 53 3c 63 ec ee be
       -0.15612495 -0.48717457 0.012901379 -0.46664724
000060 cf 0a af be d3 df 98 3e b6 c3 5f 3e 5e 35 ec bd
       -0.34187934 0.29858264 0.21852002 -0.115336165
000070 85 be 08 bf 21 68 99 3e a5 1a af be 48 ab 84 bc
       -0.5341571 0.29962257 -0.34200016 -0.016194955
000080 53 b8 fe bd 18 3f 7b 3e 15 14 b4 be 92 37 5b 3c
       -0.12437501 0.24535787 -0.3517157 0.013379948
000090 b6 ed c0 be a1 75 cf be 6e ab 24 be e5 40 6c be
       -0.3768136 -0.4051943 -0.1608102 -0.2307163
0000a0 39 19 c7 3e b1 66 21 be 06 b8 02 3f 33 11 df 3c
       0.3888643 -0.1576183 0.5106205 0.02722988
0000b0 6d 0e f0 3e 9c 7a c6 be 33 0a 9c be df b2 01 3f
       0.46886006 -0.3876542 -0.3047653 0.5066356

dataset_embedding.bias f4 [16]
000000 54 32 e3 bd 4b 86 3f 3c 12 d9 37 b6 b8 2b 70 be
       -0.11093584 0.011689733 -2.7395477e-06 -0.23454177
000010 59 a9 0c 35 05 13 49 3e 7f 5f 6d bc ab cd b7 3d
       5.24005e-07 0.19636162 -0.0144881 0.08974775
000020 67 f1 a3 34 e1 18 1d be 5b d0 4a 3a dd 84 3d 3e
       3.053676e-07 -0.15341522 0.0007736736 0.18507715
000030 fd 60 52 36 5f d6 58 3d 07 b8 a1 b8 dc 83 94 bb
       3.1348893e-06 0.052938815 -7.711356e-05 -0.0045323204

tensor_network.0.weight f4 [16, 1]
000000 9e 2a 8e 3e 17 49 22 bf a6 97 b4 be 39 cf c8 be
       0.2776689 -0.63392776 -0.3527195 -0.39220598
000010 e1 64 41 be 0a c2 4c 3e cb 6b b2 3d 99 e0 00 be
       -0.18886138 0.19995895 0.08711966 -0.12585677
000020 7f db 33 bf 1c 5d 53 be 7b ef d6 bd 0f 43 c2 be
       -0.702568 -0.20640987 -0.10494896 -0.37941787
000030 f1 93 bb 3e 73 e8 07 be ee 64 30 bd 30 39 f6 be
       0.36636308 -0.13272266 -0.043065004 -0.48090506

tensor_network.0.bias f4 [16]
000000 79 3f b6 be e3 3f 99 3c 25 d7 5c 3d 1d 2d 29 3f
       -0.355953 0.018707221 0.053916115 0.6608446
000010 08 22 a2 3d fd df e8 ba 2c df b2 39 0f 92 f9 3e
       0.07916647 -0.0017766949 0.00034117082 0.48744246
000020 f3 fc 4d 3f 80 77 d3 be 5c c8 b5 be 63 1f bc be
       0.80464095 -0.4130211 -0.35504425 -0.36742696
000030 a4 1a f8 be 1d e4 c8 3c b3 72 c3 3b 9c e7 21 3f
       -0.48457825 0.024522835 0.005964601 0.6324403

tensor_network.2.weight f4 [16]
000000 dc a6 82 3f 5a 94 22 3f 5a 94 22 3f 8e 4b 79 3f
       1.0207171 0.63507617 0.63507617 0.9738091
000010 5a 94 22 3f ef 5f 80 3f 98 cf 80 3f b2 90 8a 3f
       0.63507617 1.0029277 1.0063353 1.0825408
000020 19 cf 7b 3f 5a 94 22 3f 5a 94 22 3f 5a 94 22 3f
       0.9836288 0.63507617 0.63507617 0.63507617
000030 c8 e9 83 3f 5a 94 22 3f 5a 94 22 3f cf 0a 82 3f
       1.0305719 0.63507617 0.63507617 1.0159549

tensor_network.2.bias f4 [16]
000000 80 14 85 38 b9 4e 64 ac e8 90 be 2c a9 4e 8d 37
       6.3457526e-05 -3.2444449e-12 5.4162126e-12 1.6845139e-05
000010 c8 f6 aa 2b a4 fb 22 b8 fa fc 9c b7 3b d7 fe 37
       1.2147722e-12 -3.885817e-05 -1.871445e-05 3.0379384e-05
000020 2c f9 10 38 dc 1a b8 2b 8b 52 05 ac 6a 8a b6 2c
       3.4564335e-05 1.3081441e-12 -1.8946257e-12 5.188118e-12
000030 7e 69 42 b7 37 1d 97 aa f5 4e 33 2c 2e 5f 25 37
       -1.1587863e-05 -2.684326e-13 2.548126e-12 9.856927e-06

tensor_network.2.running_mean f4 [16]
000000 d8 e9 12 3f 00 00 00 00 00 00 00 00 13 ae 72 3d
       0.5738807 0.0 0.0 0.05924804
000010 00 00 00 00 7b a6 29 3f 73 08 93 3e 99 72 2b 3e
       0.0 0.66269654 0.28717384 0.16742934
000020 2e 2d b1 3c 00 00 00 00 00 00 00 00 00 00 00 00
       0.021627989 0.0 0.0 0.0
000030 63 0f 3f 3f 00 00 00 00 00 00 00 00 0d aa d6 3c
       0.74632853 0.0 0.0 0.026204133

tensor_network.2.running_var f4 [16]
000000 ae 49 c4 3e 28 76 03 1b 28 76 03 1b ab b2 3f 3c
       0.38337463 1.0874244e-22 1.0874244e-22 0.011700313
000010 28 76 03 1b 7c 7e 57 3e 0f 9f 20 3d 4a 2a b3 3c
       1.0874244e-22 0.21044344 0.03921419 0.021870751
000020 79 ad 90 3b 28 76 03 1b 28 76 03 1b 28 76 03 1b
       0.004415211 1.0874244e-22 1.0874244e-22 1.0874244e-22
000030 67 f9 29 3f 28 76 03 1b 28 76 03 1b 6b df a1 3b
       0.6639618 1.0874244e-22 1.0874244e-22 0.0049399636

worker_network.0.weight f4 [16, 1]
000000 b1 fe 11 3e f7 67 9c 3e 4f a2 f7 3e 1f 5a 9f bc
       0.14257313 0.3054807 0.4836602 -0.019452153
000010 4b cd 76 bd af fd 0c 3f e5 43 f6 3e ac 30 bc 3c
       -0.060254376 0.5507459 0.48098674 0.022972427
000020 0e 35 cf 3e 42 29 80 bc d8 02 c9 3e 8a 98 1e bf
       0.40470165 -0.015644673 0.39259982 -0.61951506
000030 50 ba e7 bd 9e 39 e4 be cd a1 9d 3d 1b 32 cd be
       -0.11314833 -0.44575208 0.07696877 -0.4007729

worker_network.0.bias f4 [16]
000000 bc 14 ed 3e f5 38 bb 3e bc 15 e4 be 40 81 26 bc
       0.46304882 0.36566892 -0.44547832 -0.010162652
000010 b3 3b e3 bd 5e fc ee be 54 37 75 bf c7 37 af 3e
       -0.11095371 -0.46676916 -0.9578755 0.34222242
000020 48 d6 45 3e 73 80 b0 bc fb 70 81 be 4b ac f2 bb
       0.19320023 -0.021545624 -0.2528151 -0.007405793
000030 bc 30 e5 3d a0 14 1a 3d 53 39 06 be ea 8f ab 3e
       0.11190936 0.037617326 -0.13107805 0.33508235

worker_network.2.weight f4 [16]
000000 75 ba 79 3f 40 4e 83 3f be 8d 81 3f 5a 94 22 3f
       0.97550136 1.0258255 1.0121381 0.63507617
000010 5a 94 22 3f 7c 54 7c 3f ee 1e 80 3f 18 20 7c 3f
       0.63507617 0.9856641 1.0009439 0.9848647
000020 da 62 7b 3f 5a 94 22 3f 1b 5c 7e 3f 5a 94 22 3f
       0.9819771 0.63507617 0.9935929 0.63507617
000030 5a 94 22 3f 5a 94 22 3f f9 2d 7a 3f 5a 94 22 3f
       0.63507617 0.63507617 0.977264 0.63507617

worker_network.2.bias f4 [16]
000000 89 d5 44 b7 79 8f 3a 36 89 73 a7 37 f0 2d fc ab
       -1.1732228e-05 2.7799672e-06 1.9961752e-05 -1.7918427e-12
000010 96 9f 7d ac e0 3d 2a b8 21 0e d3 36 98 34 f0 b7
       -3.604205e-12 -4.0588784e-05 6.289935e-06 -2.863472e-05
000020 28 d6 2d 37 21 1b bf 29 ed a4 65 36 34 71 0a ad
       1.0361466e-05 8.48681e-14 3.4219659e-06 -7.869528e-12
000030 00 17 f3 a9 e2 68 2b ac 83 6b 51 37 a5 0d cd 2c
       -1.0795358e-13 -2.4358783e-12 1.2482403e-05 5.8279653e-12

worker_network.2.running_mean f4 [16]
000000 3c 84 91 3f 74 ce e6 3f ac 5b e9 3f 00 00 00 00
       1.136848 1.8031754 1.8231101 0.0
000010 00 00 00 00 48 69 07 40 96 68 a5 3f db 1b e7 3e
       0.0 2.1158009 1.2922542 0.4513844
000020 c8 13 06 40 00 00 00 00 59 79 cb 3f 00 00 00 00
       2.0949574 0.0 1.5896407 0.0
000030 00 00 00 00 00 00 00 00 c7 7c 6a 3e 00 00 00 00
       0.0 0.0 0.22899161 0.0

worker_network.2.running_var f4 [16]
000000 68 36 ff 3d d6 8c 11 3f da dc b5 3f 28 76 03 1b
       0.12461549 0.56855524 1.4208024 1.0874244e-22
000010 28 76 03 1b f9 a4 eb 3f 31 a1 b2 3f 5e 7e 51 3b
       1.0874244e-22 1.8409721 1.3955442 0.003196619
000020 9e ec 7e 3f 28 76 03 1b 31 f2 6f 3f 28 76 03 1b
       0.995798 1.0874244e-22 0.9372893 1.0874244e-22
000030 28 76 03 1b 28 76 03 1b 93 5e 12 3d 28 76 03 1b
       1.0874244e-22 1.0874244e-22 0.035734724 1.0874244e-22

batch_network.0.weight f4 [16, 1]
000000 a0 ea 0c 3f 55 e2 a8 3e c1 5b 8d 3d 21 c9 96 bd
       0.5504551 0.32985178 0.06902266 -0.07362581
000010 13 7e de be fb 9b 04 be b0 34 98 3e 5f 71 c3 be
       -0.43455562 -0.12950127 0.29727697 -0.38172433
000020 9c f8 f8 bb dc 38 03 3f e7 b8 d3 bd 4d 08 fc b7
       -0.007597996 0.51258636 -0.10338002 -3.0044606e-05
000030 36 0a c4 3d 44 b9 54 bd bc 4b 1e ba 16 f1 4f bd
       0.0957226 -0.051934496 -0.0006038507 -0.050767027

batch_network.0.bias f4 [16]
000000 9c d5 81 bc 1a a9 79 bf 34 24 b0 3c 55 63 89 bc
       -0.015848927 -0.97523654 0.021501638 -0.016770998
000010 d8 51 87 3d 81 aa a7 3e c3 a2 06 3f 23 e0 c7 3e
       0.06607407 0.32747272 0.52592105 0.3903819
000020 de 2d 34 3c cb a8 7f 3e c3 91 56 3f 6e 99 95 be
       0.010997264 0.24966733 0.83816165 -0.2921862
000030 8b 1c 99 3e 07 4b a9 bd a3 0d 20 bf 65 9e c5 be
       0.2990459 -0.082662635 -0.6252081 -0.38597408

batch_network.2.weight f4 [16]
000000 03 5c 82 3f de 7e 79 3f 46 41 76 3f 5a 94 22 3f
       1.018433 0.9745921 0.9619335 0.63507617
000010 5a 94 22 3f b3 f7 2b 3f 81 0c 7a 3f 5a 94 22 3f
       0.63507617 0.67174834 0.9767533 0.63507617
000020 7a 0e 7e 3f 80 56 7e 3f a0 a5 76 3f 5a 94 22 3f
       0.9924084 0.9935074 0.96346474 0.63507617
000030 40 57 83 3f 5a 94 22 3f 5a 94 22 3f 5a 94 22 3f
       1.0261002 0.63507617 0.63507617 0.63507617

batch_network.2.bias f4 [16]
000000 3f 09 f2 37 f2 b4 d4 37 48 5c 42 37 d6 cb bc ac
       2.8852954e-05 2.5356629e-05 1.1584787e-05 -5.3659117e-12
000010 d5 b7 93 29 eb 7d af b7 e8 eb 46 b7 de e2 99 ac
       6.560001e-14 -2.092026e-05 -1.1856646e-05 -4.373709e-12
000020 e5 12 a3 35 bf 40 90 37 cc 85 42 b7 60 d2 d1 2c
       1.2149945e-06 1.7196287e-05 -1.1594453e-05 5.9634936e-12
000030 1d 8f d9 b6 c9 32 1a ad 1e fc c9 2c 1d da c0 2b
       -6.4837645e-06 -8.765163e-12 5.7407542e-12 1.3702959e-12

batch_network.2.running_mean f4 [16]
000000 42 06 76 40 a1 97 ab 3f d4 e7 01 3f 00 00 00 00
       3.844132 1.3405648 0.50744367 0.0
000010 00 00 00 00 9c 0b e6 3a 85 70 27 40 00 00 00 00
       0.0 0.0017551067 2.6162426 0.0
000020 51 9b dd 1a 8d 2a 76 40 e1 a8 13 3e 00 00 00 00
       9.1654385e-23 3.846347 0.14419891 0.0
000030 7a b9 78 3f 00 00 00 00 00 00 00 00 00 00 00 00
       0.97158015 0.0 0.0 0.0

batch_network.2.running_var f4 [16]
000000 08 b9 9a 3f ff 12 cc 3e 39 a1 9c 3c 28 76 03 1b
       1.2087717 0.39858243 0.019119846 1.0874244e-22
000010 28 76 03 1b e2 88 d6 38 c4 2e b5 3e 28 76 03 1b
       1.0874244e-22 0.000102298116 0.35387242 1.0874244e-22
000020 15 9c 03 1b b3 35 86 3f 6c 7b f3 3c 28 76 03 1b
       1.0886499e-22 1.0485138 0.029721938 1.0874244e-22
000030 bd 9f 15 3d 28 76 03 1b 28 76 03 1b 28 76 03 1b
       0.03652929 1.0874244e-22 1.0874244e-22 1.0874244e-22

ps_network.0.weight f4 [8, 1]
000000 5a 53 1c be 2c 3b b5 bc ab 35 69 bd b5 04 06 bf
       -0.15266171 -0.022122942 -0.056935947 -0.5235093
000010 c0 58 32 be ff 9a 9a be 7d 07 17 bf 2c 7f a3 28
       -0.17416668 -0.30196378 -0.589958 1.8151787e-14

ps_network.0.bias f4 [8]
000000 4c 5b 8a 3e a1 73 30 bd ec 0e 76 3d f0 12 8b be
       0.2702278 -0.043079022 0.060072824 -0.27162886
000010 d9 41 f2 bb c6 e0 93 3e a7 bd 57 3e fb d0 93 be
       -0.0073931036 0.28882426 0.2106844 -0.28870377

ps_network.2.weight f4 [8]
000000 4a ab 73 3f 5a 94 22 3f 7a 40 6e 3f 5a 94 22 3f
       0.9518324 0.63507617 0.93067133 0.63507617
000010 5a 94 22 3f e4 16 6c 3f 1f 8b 6e 3f 5a 94 22 3f
       0.63507617 0.9222243 0.9318103 0.63507617

ps_network.2.bias f4 [8]
000000 d3 b8 0f 36 60 84 03 2c 8e f6 83 37 fb 3d 93 2c
       2.1416242e-06 1.8689703e-12 1.5731228e-05 4.1848725e-12
000010 9b 76 8e 2b 84 e5 79 b7 d2 2e 76 b7 29 5a 8a ac
       1.0122626e-12 -1.4894995e-05 -1.4673644e-05 -3.9322057e-12

ps_network.2.running_mean f4 [8]
000000 c9 0d 17 3e 00 00 00 00 4d 1c 07 3d 00 00 00 00
       0.14751352 0.0 0.032985974 0.0
000010 00 00 00 00 8f 1e 22 3e f4 00 ec 3d 00 00 00 00
       0.0 0.1583197 0.11523619 0.0

ps_network.2.running_var f4 [8]
000000 9a c5 96 3c 28 76 03 1b c8 41 71 3a 28 76 03 1b
       0.01840477 1.0874244e-22 0.00092032226 1.0874244e-22
000010 28 76 03 1b 3f ad ad 3c 0e 03 38 3c 28 76 03 1b
       1.0874244e-22 0.021200774 0.011231197 1.0874244e-22

main_network.0.weight f4 [128, 104]
000000 98 69 ca 3d b9 0f 8d 3a b8 1a 24 bc 02 b6 a4 bd
       0.09883422 0.0010762132 -0.010016136 -0.08042528
000010 e8 0f 5f 3c 2e 61 4b 3d fc 9e db bd a3 4e c0 3c
       0.013614632 0.049653225 -0.10723683 0.023474997
000020 e2 3f 01 3c f6 3b 87 bd e0 a0 90 3d 06 8b 73 bd
       0.007888766 -0.066032335 0.070619345 -0.059458755
000030 e9 10 2a bd c8 13 a7 3d 82 5d a7 3c 9b 83 cf bd
       -0.041520033 0.0815807 0.02043033 -0.101325236
000040 b8 46 bb 3d 97 e2 d7 bc f6 0a dd 3d 8a 2d 2e bd
       0.09144348 -0.026353164 0.10793106 -0.0425239
000050 d6 f7 1e 3d 11 a8 91 bd 34 8d 64 3d bd d0 f0 bd
       0.038810574 -0.07112134 0.055798724 -0.11758564
000060 23 c4 d3 bb 98 51 63 bc c9 d6 a2 3d 21 3d 18 3c
       -0.0064625903 -0.013874434 0.07951123 0.009291918
000070 90 28 94 3c 5b 86 a3 3c fa 3f ce bd e1 9e 93 3d
       0.018085748 0.019961527 -0.10070796 0.07208038
000080 f7 8c 31 bd 91 ed a1 3d f3 2a 1d 3d 90 e3 cf 3d
       -0.043347325 0.0790664 0.038371038 0.10150826
000090 02 81 69 bd 3e 39 af bd 51 59 9d 3d b6 c2 0d bd
       -0.057007797 -0.0855584 0.076830514 -0.03460952
0000a0 da bf 89 bd c5 df 6a bd 49 17 3d 3c bf 10 2a bc
       -0.06726046 -0.05734231 0.011541196 -0.010379969
0000b0 85 18 a0 bd 51 e8 72 3d 9a 9f 8b bd 80 31 6f 3d
       -0.07817177 0.059303585 -0.06817551 0.058396816
0000c0 1d c9 ed bd 4e 4c 07 29 5f 8e b1 ac 51 e3 36 3d
       -0.11610625 3.0042205e-14 -5.046449e-12 0.04465038
0000d0 74 e6 09 2d 97 d3 47 bd 64 ae cf 3c 57 8d 40 3d
       7.838719e-12 -0.048785772 0.02535171 0.047009792
0000e0 43 8d 44 bd 74 f9 c5 29 17 93 96 2c 14 83 3d ac
       -0.04798628 8.7918307e-14 4.2795867e-12 -2.6931278e-12
0000f0 07 41 c1 bd 3e 84 07 b0 4b b8 29 ad dd 0f a3 3d
       -0.09436231 -4.930064e-10 -9.647459e-12 0.0796201
000100 46 f5 41 3c a3 3d a1 bd 78 f7 99 bd 4e 5a f2 2b
       0.011838263 -0.078730844 -0.07517904 1.7220199e-12
000110 cf fe 7f 2a 84 fe b5 bc 98 a6 80 bd 3d d9 bc bd
       2.2736954e-13 -0.02221609 -0.06281775 -0.092211224
000120 9e 7b 89 bd 0c 4f 65 b2 68 e8 29 bd 8e 6d 90 2b
       -0.06713031 -1.33475275e-08 -0.041481405 1.0262223e-12
000130 4c 17 45 2d da ad 80 b2 40 51 24 3d c8 21 1c 2d
       1.12033265e-11 -1.498022e-08 0.04011655 8.875074e-12
000140 70 ff b9 bb 61 40 47 bd 95 d5 ba 3d 88 e3 7c 2e
       -0.0056762025 -0.04864538 0.09122769 5.7500255e-11
000150 1e 03 02 2b dd 7f ab 3c ae 42 7f bd d1 b2 05 2d
       4.6189604e-13 0.020934993 -0.06231945 7.59988e-12
000160 85 e9 0e 3d ff fc 2d bd 64 f6 a0 bd c1 68 cd aa
       0.03489067 -0.042477604 -0.07859495 -3.6488003e-13
000170 1c 5a 47 3d 0f 2b 49 2c c9 fb b1 ab 3c f4 4a b0
       0.04866992 2.858772e-12 -1.2646491e-12 -7.383425e-10
000180 05 aa 1c 3d bf 9b b6 2d db 02 28 bd 69 48 bc 2d
       0.03824808 2.076017e-11 -0.04101835 2.1405282e-11
000190 02 f9 84 ae 53 20 22 3d a9 d0 59 3c ec ed 0e ac
       -6.046898e-11 0.039581608 0.013294377 -2.0311487e-12
0001a0 56 f0 4c bd 0e 10 bb 3d 61 dc e7 3b 10 f4 2c 3d
       -0.05003389 0.091339216 0.0070758318 0.042224944
0001b0 d4 df 2f 3d d0 72 0e 3d fc 11 cb bc 2e eb be bd
       0.04293807 0.034777462 -0.024788849 -0.09322201
0001c0 95 d4 93 3b a3 1e 8a b9 36 10 b9 bd 1f 79 21 3c
       0.0045114257 -0.00026344237 -0.09036295 0.009855538
0001d0 8b a5 3c 3c 77 3e 3f bd e7 63 c6 bd de 26 6a 3d
       0.011514078 -0.04669043 -0.096870236 0.057165973
0001e0 f7 b4 72 bd 22 9f 8b 3c bc 75 14 bd 81 d7 b3 3d
       -0.059254613 0.017043654 -0.036245093 0.087813385
0001f0 73 88 86 3d a2 22 a5 3d d9 6b be 3a cd da c5 bc
       0.065689944 0.08063246 0.0014527991 -0.024152184
000200 c8 35 50 bd 57 d3 fe bd 07 50 12 3d 52 95 92 bd
       -0.05083254 -0.124426536 0.03572085 -0.07157387
000210 ec 59 06 3a b0 e9 e6 bd 93 9c 57 bb 4e 8e c8 3d
       0.0005125094 -0.11275041 -0.0032899722 0.097927675
000220 31 d5 cf 3c 91 8f f9 bd 2a dc 5e bc 3a f1 50 bd
       0.025370212 -0.12185586 -0.013602296 -0.0510113
000230 b3 ae c7 3d f0 1b 15 bc 74 39 0f be 5a 68 da 3d
       0.09750118 -0.009100899 -0.1398676 0.10664435
000240 ea f7 22 3b f7 cf de bc 26 2d b3 3d 1a db 07 be
       0.0024867007 -0.027198775 0.08748846 -0.13267174
000250 3f 04 66 3d c0 7f c7 3b 02 a4 9f bc 36 c2 70 3d
       0.056156393 0.006088227 -0.019487385 0.058778964
000260 f1 74 78 3d 22 4e f5 b1 35 ad cc 2a 27 b3 be bd
       0.0606584 -7.139321e-09 3.6357866e-13 -0.09311514
000270 8f dd 47 33 3a 9a 3b bc 79 60 c4 3d 5a f4 c4 bd
       4.6534804e-08 -0.011450345 0.09588713 -0.09616919
000280 8a 97 58 3d a1 bb 97 ae 57 29 b7 ac 94 30 c5 aa
       0.052878894 -6.9000146e-11 -5.2057625e-12 -3.5027938e-13
000290 d5 8f 5d bd e2 59 b0 a9 3e 39 6f 2a 7e d3 07 bd
       -0.054092247 -7.831562e-14 2.1247324e-13 -0.03316068
0002a0 ac 0a ee bc 69 62 ba bc fe d7 d8 3c 93 77 ec 2a
       -0.029057823 -0.022752004 0.02647018 4.2004993e-13
0002b0 73 00 95 a7 ee 6e 36 bd e9 d7 9e 3d c0 11 b9 3d
       -4.1356295e-15 -0.044539385 0.07756025 0.09036589
0002c0 fb fc cb bd d5 12 c0 2a de f1 08 bc a1 f8 74 32
       -0.099603616 3.411912e-13 -0.008358447 1.4259201e-08
0002d0 e4 29 c5 2a 35 f1 cf aa a3 88 91 3d 50 46 1f 31
       3.5023297e-13 -3.6937958e-13 0.071061395 2.3177513e-09
0002e0 49 ae f8 3c d6 7b 49 bd 0e b5 65 3d 9c 1c 9e 2a
       0.030356543 -0.049190365 0.05608087 2.808629e-13
0002f0 81 a0 eb 2a 84 24 5a bb 34 ec 9a bd 63 94 23 30
       4.1855758e-13 -0.0033285925 -0.075645834 5.9509925e-10
000300 63 cf 6d bd ce c9 64 3d 02 8b 36 3b 98 ee 40 33
       -0.058059108 0.05585652 0.0027853851 4.4920483e-08
000310 77 d9 80 bc 18 31 85 aa 44 c7 00 33 e9 c2 ab a8
       -0.015728695 -2.3659612e-13 2.9983553e-08 -1.9069343e-14
000320 c8 11 76 3d 86 4a 8f 2a d6 64 58 3d aa 48 46 b3
       0.06007555 2.5453614e-13 0.05283054 -4.6166555e-08
000330 45 60 8d 2c 59 5e 2c bd 67 e8 b6 bc 14 c5 af a6
       4.018149e-12 -0.042082164 -0.022327615 -1.2196482e-15
000340 4c fc d3 bc 5b d4 e4 bc 4d 79 ba 3c 68 56 b6 bd
       -0.02587714 -0.02793329 0.022762919 -0.089031994
000350 7a af 68 3d 18 ab f7 bd 45 6d 49 bd 32 c6 2c bd
       0.056807972 -0.120931804 -0.049176473 -0.0421812
000360 6f 2f 4f bb 4f 98 55 bd d5 4c 76 3d 96 01 c8 3c
       -0.0031613966 -0.052147206 0.060131866 0.024414819
000370 0e d8 46 3d 23 01 c8 3c 91 c3 b0 3c a6 85 46 3d
       0.04854589 0.024414605 0.021577628 0.0484673
000380 ab b9 67 bd 1c 81 b0 3b d7 a8 a9 bc 0b bd 0c 3c
       -0.05657355 0.005386485 -0.020710392 0.008589993
000390 63 30 03 3c f1 15 65 bd f0 21 87 3b ac 59 cd 3d
       0.008007142 -0.055929128 0.0041239187 0.10026869
0003a0 bd ae 9f 3d c0 eb 34 3e 1e 30 0b 3d cb 4c 2d bd
       0.077970006 0.17668056 0.033981435 -0.042309564
0003b0 e3 37 a8 3d de 8b d9 3c 71 a5 df 3c 0e 69 e1 bc
       0.082137845 0.026555952 0.027300568 -0.027515914
0003c0 8f 65 7d bd 63 f5 6b 3d 6c a5 a8 bd 92 1f af bc
       -0.061864432 0.057607066 -0.08234677 -0.021377359
0003d0 a0 a6 5d 3d 6a e5 39 bd 01 8a eb 3d ad 63 32 bd
       0.054113984 -0.045384802 0.115009315 -0.04355209
0003e0 b8 29 ca bc c2 2a 39 bc af 7f 67 3d 61 60 e3 3d
       -0.024678096 -0.011301698 0.056518253 0.11102367
0003f0 a7 51 50 bc a2 03 6d 3b e6 b6 d1 3d 3d c9 4e 3d
       -0.01271478 0.0036165495 0.10239963 0.050484885

main_network.0.bias f4 [128]
000000 d4 3a 3a b6 30 92 b3 36 39 cb 56 b5 c8 10 46 b7
       -2.7750402e-06 5.351634e-06 -8.001694e-07 -1.1805627e-05
000010 bb 9f 22 36 be 2a d5 b6 a1 0f c7 36 ca 4e 2c b7
       2.4232857e-06 -6.3528705e-06 5.9324816e-06 -1.0270343e-05
000020 cb d1 0a b7 2b 15 4e b6 71 ad 91 36 b5 97 27 36
       -8.274287e-06 -3.0708713e-06 4.341528e-06 2.4973244e-06
000030 06 e7 19 36 c8 6e 8b b7 7f 4e 19 b5 66 ed 94 b6
       2.293325e-06 -1.6621678e-05 -5.711117e-07 -4.4383805e-06
000040 2c 49 32 b6 ee 6d 97 34 52 38 c1 36 3a f0 55 b6
       -2.6566659e-06 2.8205926e-07 5.7584048e-06 -3.1879304e-06
000050 fb 72 0d 37 b2 84 4c 36 de 7d b9 36 49 73 8d 36
       8.431026e-06 3.0475608e-06 5.5280825e-06 4.2155484e-06
000060 08 a3 ad 36 fa f7 82 36 c4 cd 3f 37 4f 44 f1 36
       5.174781e-06 3.90317e-06 1.1432396e-05 7.190312e-06
000070 46 9a 5d b5 85 2b 3b b7 49 d6 5c b6 8b ab 93 b6
       -8.2553413e-07 -1.1156201e-05 -3.2907285e-06 -4.4009116e-06
000080 b3 3c b0 b3 d9 b4 9c 37 54 32 71 36 59 44 fb 34
       -8.20668e-08 1.8680863e-05 3.5941093e-06 4.6802123e-07
000090 15 13 ea b6 d1 d9 4a 37 0c a2 63 b6 83 ce d0 36
       -6.975965e-06 1.2090853e-05 -3.391996e-06 6.222924e-06
0000a0 69 ee 2c b7 ca 17 03 b7 10 c5 52 36 8e 90 75 32
       -1.0307508e-05 -7.813747e-06 3.1407144e-06 1.4293745e-08
0000b0 c8 14 27 36 d4 d5 08 b6 d7 88 f9 b5 b5 da bf 35
       2.4897035e-06 -2.0390044e-06 -1.8591771e-06 1.4294261e-06
0000c0 18 9d b9 35 13 c1 03 b7 21 28 b0 35 a4 70 13 b5
       1.3829294e-06 -7.853162e-06 1.3124701e-06 -5.492568e-07
0000d0 40 b5 47 35 e3 03 36 b5 bf 53 bf 36 6c 05 aa b5
       7.439703e-07 -6.780594e-07 5.701993e-06 -1.2667565e-06
0000e0 d2 81 be b6 0e 15 df b6 a2 a2 77 36 b9 d0 0a 37
       -5.6775543e-06 -6.648369e-06 3.6900533e-06 8.274038e-06
0000f0 c9 a3 62 36 f9 d5 6a 36 ca ad d1 35 ee f4 04 37
       3.377196e-06 3.4993266e-06 1.5622293e-06 7.92484e-06
000100 73 e6 8c 36 c1 21 bf 36 51 f9 25 35 b9 bc c9 b5
       4.199153e-06 5.696173e-06 6.1830093e-07 -1.5030593e-06
000110 a5 67 7e b3 f8 1a de b5 50 c6 f7 33 2e 9a 38 b5
       -5.9233248e-08 -1.6548138e-06 1.15379066e-07 -6.87697e-07
000120 8d 16 94 b7 56 39 ba 36 10 5c 0a b7 59 9c b4 b3
       -1.7653476e-05 5.5499067e-06 -8.246876e-06 -8.4103426e-08
000130 ff 78 c2 b6 1c 93 1b 36 c4 39 b6 36 b7 0d 0f b7
       -5.7957363e-06 2.3182429e-06 5.4307475e-06 -8.526657e-06
000140 ed 3e ad 37 a3 43 06 36 68 70 8f b7 37 ff 1a b7
       2.065251e-05 2.0006926e-06 -1.7099272e-05 -9.238537e-06
000150 56 bd e4 b6 ca 75 2a 37 9e 9a b3 b6 e8 71 09 36
       -6.816971e-06 1.01602145e-05 -5.3526155e-06 2.0480893e-06
000160 82 f0 05 34 3e 79 26 36 60 8f f7 36 8d 1f c3 b6
       1.2474086e-07 2.48065e-06 7.3778647e-06 -5.815126e-06
000170 89 a7 4b b6 9b 34 b1 36 e9 14 c9 b6 6e db 93 b6
       -3.0346876e-06 5.281135e-06 -5.992701e-06 -4.4064864e-06
000180 53 7f 03 b8 77 b7 a5 36 1b 39 5a 35 ed b1 b0 b5
       -3.1351414e-05 4.9387413e-06 8.129443e-07 -1.3164805e-06
000190 b9 f4 e8 b6 e1 5e 87 36 77 36 90 b5 5b 0c 54 b5
       -6.9426283e-06 4.034359e-06 -1.0744687e-06 -7.8994134e-07
0001a0 1c e0 2d 37 30 ca da b6 f3 72 28 36 be 44 14 b7
       1.0363783e-05 -6.520444e-06 2.510086e-06 -8.837493e-06
0001b0 18 0b a7 b6 50 3c 9c b4 16 7c 36 37 b2 f6 9b b6
       -4.9782793e-06 -2.9101147e-07 1.0876936e-05 -4.648079e-06
0001c0 7c c2 0d b7 a9 34 94 36 01 18 c7 b4 55 ce 78 b6
       -8.449537e-06 4.416874e-06 -3.7084104e-07 -3.707498e-06
0001d0 0f e3 13 37 1e 42 4a 36 19 08 49 b6 ba 6f 18 37
       8.814749e-06 3.013883e-06 -2.9956047e-06 9.085919e-06
0001e0 93 d2 31 36 85 8c a3 b6 2c 93 a4 35 5a 57 e2 b5
       2.6497626e-06 -4.874137e-06 1.2261785e-06 -1.6863735e-06
0001f0 7c 0e 11 37 dd f3 ac b5 ce 76 b1 37 75 c8 72 b7
       8.646046e-06 -1.2885972e-06 2.1155367e-05 -1.4470997e-05

main_network.1.weight f4 [128]
000000 24 4a 81 3f 66 b1 80 3f 03 d2 7c 3f 49 c7 6d 3f
       1.0100751 1.0054138 0.9875795 0.9288221
000010 d7 74 7f 3f 28 66 80 3f c8 41 78 3f 7a f8 82 3f
       0.9978766 1.0031176 0.96975374 1.0232079
000020 3f 4a 78 3f 19 75 73 3f 05 02 87 3f a9 1b 76 3f
       0.9698829 0.9510055 1.0547491 0.96135956
000030 13 08 7e 3f 94 c3 7e 3f a0 88 85 3f 38 13 7f 3f
       0.9923107 0.9951718 1.043232 0.996387
000040 57 1d 76 3f 54 0d 81 3f e3 03 83 3f de ba 8a 3f
       0.9613852 1.0082192 1.0235561 1.0838277
000050 2b 92 70 3f b9 f5 79 3f 4b 1d 7f 3f b1 da 81 3f
       0.93973035 0.9764057 0.9965407 1.0144864
000060 5e 05 7f 3f 8a 5d 74 3f f7 84 84 3f 3c cb 80 3f
       0.99617565 0.9545523 1.0353078 1.0062022
000070 be 91 7a 3f 69 f4 73 3f 83 68 85 3f e1 8a 73 3f
       0.97878635 0.95294815 1.042252 0.9513379
000080 ed 29 87 3f 29 00 7a 3f 80 19 78 3f 2d 5a 86 3f
       1.055967 0.97656494 0.9691391 1.049627
000090 be d4 86 3f 43 b2 81 3f 71 73 81 3f 7c 0c 86 3f
       1.0533674 1.0132526 1.0113355 1.047256
0000a0 68 f0 7f 3f 81 e2 77 3f 0b fd 80 3f f2 67 7a 3f
       0.99976206 0.9682999 1.0077223 0.9781486
0000b0 64 7d 80 3f 0b ca 86 3f 67 30 7d 3f 85 8b 73 3f
       1.0038266 1.0530409 0.9890198 0.95134765
0000c0 6d 57 76 3f 90 43 82 3f 8d b0 7c 3f 67 2c 80 3f
       0.9622715 1.0176868 0.98706895 1.001355
0000d0 26 ff 79 3f 09 05 80 3f 9d 80 88 3f 57 89 81 3f
       0.9765495 1.0001537 1.066425 1.0120038
0000e0 7b 5d 7f 3f 26 ad 80 3f 32 74 81 3f 23 4e 84 3f
       0.99752015 1.0052841 1.0113585 1.0336345
0000f0 f9 86 7f 3f 5b db 7f 3f 7e f1 7d 3f d3 ba 84 3f
       0.99815327 0.99944085 0.9919661 1.0369514
000100 6d 35 81 3f e0 66 80 3f 92 f2 82 3f 4a 48 79 3f
       1.0094429 1.0031395 1.0230277 0.9737593
000110 ef 65 78 3f 2a fb 75 3f dc f9 7f 3f 82 33 74 3f
       0.9703054 0.9608637 0.9999063 0.95391095
000120 9e 06 72 3f 27 ec 67 3f e8 61 85 3f 00 48 7b 3f
       0.9454135 0.90594715 1.0420504 0.9815674
000130 a5 00 7c 3f 6d ae 80 3f df 8d 6a 3f d6 a3 77 3f
       0.98438483 1.005323 0.9162273 0.9673437
000140 98 21 80 3f f7 7d 7f 3f a2 10 83 3f 2d 07 7f 3f
       1.0010252 0.9980158 1.0239451 0.99620324
000150 6e 03 82 3f cd 40 88 3f c6 d1 7b 3f c3 94 7e 3f
       1.0157297 1.0644776 0.98366964 0.9944574
000160 88 d3 7c 3f 31 29 84 3f e9 42 7b 3f 69 14 85 3f
       0.9876027 1.0325071 0.9814897 1.0396854
000170 42 9e 80 3f d4 6c 85 3f 56 cc 83 3f d6 7e 7e 3f
       1.0048296 1.0423837 1.0296733 0.99412286
000180 2b 50 82 3f f8 e6 6e 3f 1b 21 7e 3f 65 04 83 3f
       1.0180715 0.9332118 0.99269265 1.0235716
000190 13 7f 83 3f 4f 1e 7b 3f 41 fd 7c 3f 36 d5 80 3f
       1.0273155 0.9809312 0.98823935 1.0065067
0001a0 7d c9 72 3f 3b 86 78 3f 2a a3 84 3f ab ea 83 3f
       0.94838697 0.9707982 1.0362294 1.030599
0001b0 74 b6 86 3f ab 15 7b 3f a9 03 85 3f e4 12 7a 3f
       1.052443 0.9807994 1.0391742 0.97685075
0001c0 67 7e 80 3f 76 12 6b 3f 28 7a 71 3f ce 7c 80 3f
       1.0038575 0.91825044 0.9432702 1.0038087
0001d0 48 9f 83 3f 4d 58 7b 3f 52 e2 81 3f c7 f0 7e 3f
       1.0282984 0.9818161 1.0147192 0.9958615
0001e0 aa 08 7d 3f f0 e3 76 3f 33 36 78 3f 57 ef 6e 3f
       0.98841345 0.96441555 0.969577 0.93333954
0001f0 05 b7 82 3f 73 c7 6b 3f 4a aa 81 3f 8c 47 85 3f
       1.0212103 0.9210121 1.0130093 1.0412459

main_network.1.bias f4 [128]
000000 3d 0e 08 bd e1 5b d1 3c 88 3f 01 bd 16 88 21 bd
       -0.033216704 0.025556507 -0.03155473 -0.039436422
000010 d8 4c e1 bc d6 10 a7 ba 05 ee 48 bd 80 ee 71 bc
       -0.027502462 -0.0012746106 -0.049055118 -0.0147663355
000020 72 85 36 bd f9 c9 38 bc be 9f 59 3d 63 64 41 bc
       -0.044560857 -0.011278623 0.053130858 -0.011803719
000030 b0 cf ad 39 88 e7 4b bc ae b9 e0 3c 01 32 ce bc
       0.0003315187 -0.012445338 0.027432289 -0.025170328
000040 5e 7f 36 bc f0 18 20 bb 95 e1 3e 3d 0f 29 0a 3d
       -0.011138765 -0.0024428926 0.04660185 0.033730563
000050 ae b1 20 bd 03 8d 3d bb bb 82 48 3c 98 db 63 3d
       -0.03923195 -0.002892316 0.0122382 0.055629343
000060 77 84 04 bd 94 99 e8 bc 62 07 17 3d d5 03 36 bd
       -0.03235289 -0.028393544 0.036872275 -0.04443725
000070 40 c8 a4 bc c2 00 b6 bc 27 be bb 3c af f2 9f 3c
       -0.020115018 -0.022217158 0.02291782 0.0195249
000080 c5 da 76 3c 6f 9a a4 bc 87 39 94 3c d9 c1 09 3d
       0.015066807 -0.02009317 0.018093837 0.033632133
000090 4c 30 84 3d f3 eb 33 bb 3a fd b7 bc 58 9f 11 3d
       0.064545244 -0.002745387 -0.022459615 0.035552353
0000a0 7a 3f ae 3c 15 7e 64 bc 5a 37 f7 3c 40 9d f6 3b
       0.021270502 -0.013946076 0.03017776 0.00752607
0000b0 e3 33 01 bc 22 27 33 3d 1d 8a 19 bb e0 79 b4 bc
       -0.007885906 0.04373849 -0.002342827 -0.02203077
0000c0 7e 7e a0 bc d5 6e 6e 3b 1d a2 1e 3c 8e 39 60 3b
       -0.019591566 0.003638198 0.0096822055 0.0034213993
0000d0 f0 af 1f 3b 0f 80 15 3d 2f ea 45 3d 2c 5f 6d 3d
       0.0024366342 0.03649908 0.048319038 0.05795209
0000e0 27 38 2a 3c dc 6f 45 bc ad e5 a9 3a 30 3a c3 3c
       0.010389364 -0.012050595 0.0012962125 0.023831457
0000f0 47 7d 11 3c ec 2b d9 3c d0 18 e2 3c a1 ac 00 3d
       0.008879966 0.026510201 0.027599722 0.03141463
000100 c6 c7 24 bd 06 b0 ec bb e3 01 e6 3c 46 51 a2 3c
       -0.04022958 -0.007223132 0.028077072 0.019814145
000110 75 50 30 bd f0 86 38 bd fc be 19 3d 59 dd 70 bd
       -0.04304548 -0.04505056 0.037535653 -0.058804844
000120 08 a0 2d bd 6b b3 98 bd 4b 4d 8b 3c 5a 3e f6 bc
       -0.042388946 -0.07456096 0.01700463 -0.030059028
000130 b6 3b ca bb ca de 54 bd 17 7c b3 bd 72 2b 9c bc
       -0.006171669 -0.05197028 -0.08763903 -0.019063685
000140 06 f1 0a 3d ed 7b 47 3c f2 92 ff 3c 96 e3 2b bc
       0.033921264 0.012175542 0.031197999 -0.010491272
000150 1a 94 7c 3d 4d 49 16 3c e0 b7 39 bb 47 7c c5 bc
       0.06166468 0.00917275 -0.0028338358 -0.024107112
000160 bd 7b d8 3c eb 0e 0e bc 83 3e e5 bb 4b fc 0c 3d
       0.02642619 -0.008670549 -0.0069959774 0.034420293
000170 11 bb 8b 39 73 d8 37 3d 4d 6c 1d 3c ff 8e 75 bc
       0.0002665152 0.044884156 0.00960834 -0.014987706
000180 9d 80 44 3d 4e 65 2e bd 6e eb 45 bd 4a fd 4f 38
       0.047974218 -0.04257708 -0.048320226 4.958854e-05
000190 e5 5d 82 3c bc 81 66 bd 91 62 3c 3b df 96 0b 3d
       0.015913913 -0.056276068 0.0028745274 0.03407943
0001a0 1e 55 76 bd bf c2 b1 3c 59 28 93 3c 9b 2a f5 3c
       -0.060139768 0.021699307 0.017963575 0.029927542
0001b0 b0 08 19 bc a0 72 dc bc 7d f9 90 3d a0 48 dd bb
       -0.00934045 -0.026910126 0.07078836 -0.0067530423
0001c0 7f 02 98 3c 61 58 7f bd 5c 40 7a bd 27 30 88 3b
       0.018555878 -0.062340144 -0.061096534 0.004156131
0001d0 e4 1e d5 3c 73 a0 91 bb a2 0e 59 3c 76 1c a5 bc
       0.026015706 -0.004444176 0.013248118 -0.020155173
0001e0 86 a9 05 3d bf f4 dd bc 3e 33 e7 bb bf 4f b5 bc
       0.032632373 -0.027094243 -0.007055669 -0.022132752
0001f0 3a e9 17 3b d2 c6 aa bd 2a 19 fa bb d1 0d dd 39
       0.0023179785 -0.08338703 -0.0076323943 0.000421627

main_network.1.running_mean f4 [128]
000000 ab ad 3a bd 36 c3 3e bc 7f 5d e4 3d 43 f2 d0 bd
       -0.04557578 -0.011643222 0.111506455 -0.10202458
000010 b8 05 10 bd 55 23 84 3d 6f 32 79 3d a6 de af bd
       -0.035161704 0.064520516 0.060839113 -0.08587389
000020 16 4f 7c bd d7 39 0e 3d 14 3a 1a 3d 9c 08 7d 3c
       -0.06159886 0.03472313 0.037653044 0.015443947
000030 a1 4c 0b 3d 11 93 1b 3e dc cc 5d 3d 95 a4 5e bd
       0.034008626 0.1519282 0.054150447 -0.054356176
000040 eb 6a 0e bd 2e 61 7d 3d ee 71 ae bb c7 4f 91 3d
       -0.034769934 0.061860256 -0.00532364 0.070952944
000050 c4 fc fa 3b f0 25 a6 38 cd 22 87 3c ba e3 89 3b
       0.0076595265 7.922563e-05 0.016496086 0.0042080553
000060 47 a2 ed 3d dd eb 8a bd 03 55 07 bd 33 f6 2f bc
       0.116032176 -0.067832686 -0.033040058 -0.010739851
000070 ef 99 1d bd a5 ea 9e 3c 01 19 54 bd 96 a4 f8 bd
       -0.03847688 0.019398997 -0.051781658 -0.12140767
000080 2f 4f 33 bd 47 d3 29 3d 08 76 2e bc 15 4d 7f bd
       -0.043776687 0.041461255 -0.010648258 -0.06232937
000090 89 74 0d bc d0 36 d8 3d af 59 8a 3d 13 63 96 bd
       -0.008633741 0.1055733 0.06755387 -0.07343116
0000a0 ac 42 1a 3e 2f 83 bc 3d ba d3 65 bd 01 24 ce 3d
       0.15064496 0.09204709 -0.05611012 0.10065461
0000b0 de 1f 57 3d a8 f3 28 3e 95 98 f3 3b 95 37 00 bc
       0.052520625 0.16499197 0.0074339607 -0.007825752
0000c0 c0 e4 08 be 48 a3 eb bc 68 bb 92 bd 8e 87 96 bc
       -0.13368511 -0.028764382 -0.07164651 -0.018375184
0000d0 0d 0a 1c bd 41 27 e9 3d 62 13 7c 3d a1 d8 19 3b
       -0.038095523 0.1138444 0.061541922 0.0023475068
0000e0 94 8f a4 3c 34 05 4e 3d aa 03 75 bd 40 1c 76 3d
       0.020087995 0.05029793 -0.059817947 0.060085535
0000f0 c9 9d 00 3e 1c b0 28 bd 5e ac 4c bd 94 34 32 3d
       0.1256019 -0.041183576 -0.04996907 0.043507174
000100 47 7f e1 3d 6a f6 70 bd 65 0e 2f 3e b0 87 05 3d
       0.11010604 -0.05882875 0.17095335 0.032600105
000110 de 6e 85 3d 77 68 de 3c db 72 6a bd d4 a1 3c 3d
       0.06515287 0.027149422 -0.05723844 0.04605277
000120 d5 84 3d bd 64 3d 51 3b 48 05 2e bd a6 0f 79 3d
       -0.046269257 0.003192746 -0.042485505 0.06080594
000130 db 49 eb 3b b0 54 91 3d 2f d5 c6 3d 90 05 c4 3d
       0.007180435 0.07096231 0.0970863 0.095713735
000140 65 80 53 3d 6a 26 d5 bd 6b a5 0e 3e 1e a0 40 3d
       0.05163612 -0.104077175 0.1393029 0.0470277
000150 2e 15 b7 3d a2 6d a4 3d d8 b9 a3 bd 05 0c 14 bd
       0.089395866 0.08028723 -0.07994431 -0.036144275
000160 79 5b 06 bd 9e 2f 65 bd dd 90 cd 3d 27 1d 3d 3d
       -0.03280208 -0.055953614 0.10037396 0.04617038
000170 2a 9b 49 3d 45 05 a5 3d 9f 33 a2 3c f9 97 47 3c
       0.04922024 0.08057646 0.019800005 0.012182229
000180 b7 96 81 3b a4 b0 98 bc 66 91 73 bd 66 0f a4 3d
       0.003954734 -0.018638916 -0.059464835 0.080107495
000190 2e b7 8d bc f3 5d 10 bd 9b a9 13 3e ea c7 90 bb
       -0.017299261 -0.035245847 0.14420168 -0.004418363
0001a0 05 e6 77 bd ec 9e 47 3d 7f 73 9c 3d ab 05 e8 3d
       -0.060522098 0.048735544 0.07639217 0.11329206
0001b0 4a 1c e8 3a ea bc b4 3c 82 66 33 bc ff 00 e9 bc
       0.0017708626 0.022062737 -0.010949733 -0.028442858
0001c0 ee dd 11 bd 3f 79 99 bb ed 28 a8 3c e7 11 5a 3d
       -0.03561204 -0.004683643 0.020527327 0.05323973
0001d0 da 22 05 3d 07 db cc bc 79 03 ef 3d bc 62 86 3d
       0.03250394 -0.025006784 0.11670584 0.06561801
0001e0 35 07 01 3d 5b e4 7a 3c 31 1f 03 3d 57 08 85 bd
       0.031501014 0.015313233 0.03201217 -0.06495731
0001f0 49 90 9a 3d cf bd cc 37 3d cd b0 3b 0d a3 04 3e
       0.075470515 2.4407082e-05 0.00539556 0.12952824

main_network.1.running_var f4 [128]
000000 b1 73 b5 3e 26 25 36 3e 62 6b a4 3d 47 90 c2 3d
       0.35439828 0.17787609 0.08028294 0.09500175
000010 3c 7f 02 3e 50 14 cd 3e d6 c4 94 3e e2 c6 17 3e
       0.12743849 0.4005456 0.29056424 0.14821962
000020 bd a2 46 3e f7 5c 09 3e 28 65 90 3e 24 8b 70 3e
       0.19398017 0.1341437 0.28202176 0.23490578
000030 11 13 1d 3f b5 c4 8a 3e fd 3a 59 3e ff 0e 9c 3e
       0.6135722 0.271032 0.21213908 0.3048019
000040 6b 65 28 3e 41 73 34 3e 10 69 7e 3e 78 1d cb 3e
       0.16444938 0.17622091 0.24844766 0.3967092
000050 30 aa 34 3e 4b 02 09 3e 5a 17 18 3e a0 db cc 3e
       0.17643046 0.13379781 0.14852658 0.4001131
000060 06 d2 0c 3f 2b b7 12 3e c5 30 25 3e b6 a6 60 3e
       0.5500797 0.14327686 0.16131885 0.21938595
000070 5d 6a 1f 3e 1d 60 23 3f ca d9 a6 3e 37 d9 02 3e
       0.15567918 0.6381853 0.32588035 0.12778173
000080 ed 75 cb 3e 7f 28 4a 3e 41 1f 3d 3e cd 0e 9e 3e
       0.39738408 0.1974201 0.18468954 0.30870667
000090 31 bc 93 3e 94 e4 80 3e d7 f2 cf 3e 9a ae 2c 3f
       0.28854516 0.2517439 0.4061496 0.6745392
0000a0 74 38 28 3e ac 80 eb 3d f3 ae 81 3e ea e6 39 3e
       0.16427785 0.114991516 0.25328788 0.18154493
0000b0 2c 07 9e 3e 56 0b 98 3e be 8b e2 3e c3 bf b5 3e
       0.30864847 0.2969615 0.4424724 0.35497865
0000c0 bc d9 52 3e 15 1f 17 3e 9b 3d af 3e 07 92 7c 3e
       0.20590872 0.1475795 0.3422669 0.2466508
0000d0 75 5e f9 3e 47 eb 90 3e 1a 77 94 3e 50 92 98 3e
       0.48704877 0.28304502 0.28997117 0.29799128
0000e0 7f df 57 3e 2a 38 06 3f 59 5f e0 3d de ec 29 3f
       0.2108135 0.5242945 0.10955686 0.66377056
0000f0 2c d5 89 3e 7b 36 1d 3e 1f ac a4 3e bd 3d 45 3e
       0.2692045 0.15352814 0.32162568 0.19261833
000100 f5 23 9d 3e da 86 0e 3e 0a 7c d5 3e 5a 01 a9 3e
       0.30691496 0.1391863 0.41696197 0.33008844
000110 b9 ff 49 3e 8b a2 91 3e 58 e4 12 3f c6 12 24 3e
       0.19726457 0.28444323 0.57379675 0.16022786
000120 4c ab 20 3e 4a 10 69 3e 4f 2c 99 3e cd 29 f9 3d
       0.15690345 0.2276012 0.29916617 0.12166176
000130 ab 01 4b 3e c1 d9 08 3f f1 57 be 3e 80 bc 77 3e
       0.19824855 0.53457266 0.3717647 0.24193001
000140 23 0d 92 3d 17 b7 1e 3e c3 58 da 3e bf ee 70 3e
       0.07131412 0.1549953 0.42645845 0.23528574
000150 e5 fe 1f 3e b6 ee 00 3f 4e a9 56 3e e8 7e 17 3e
       0.15624578 0.50364244 0.20963022 0.14794505
000160 76 3e a0 3e 35 fc 80 3e d2 eb 23 3e 75 41 88 3e
       0.31297654 0.2519242 0.16007927 0.2661244
000170 94 32 e6 3e cf 81 ae 3e bd b5 dd 3d cc bb 49 3e
       0.44960463 0.3408341 0.108256795 0.19700545
000180 d1 1e 00 3e bd e3 03 3e d2 3a 82 3e db d0 88 3e
       0.12511756 0.12879844 0.254355 0.26721844
000190 47 96 22 3e 9b 89 85 3e 96 25 19 3e d6 fd 32 3e
       0.15877639 0.26081547 0.14955744 0.17479643
0001a0 2a 87 20 3e 02 ac 0f 3e a5 a7 9a 3d ee b0 c8 3e
       0.15676561 0.1403046 0.07551507 0.39197487
0001b0 54 96 f1 3d 37 d5 de 3d fe 22 c2 3e 6a 46 17 3e
       0.11796251 0.10880511 0.37917322 0.14772955
0001c0 c2 bf 9f 3d 88 80 f3 3d de fe 13 3e 41 c3 0a 3f
       0.07800247 0.1188975 0.14452693 0.54204184
0001d0 9b e9 ad 3e bb 8e 97 3e ef 56 96 3e 46 8e c3 3d
       0.3396729 0.29601082 0.293632 0.09548621
0001e0 71 d6 97 3e ab 7d 2c 3e 71 3f 60 3e ad dc 18 3e
       0.29655793 0.16844814 0.21899201 0.14927931
0001f0 77 16 4c 3e 1e 0d 38 3e fd 51 dc 3d be c0 23 3e
       0.19930445 0.17973754 0.107578255 0.15991494
