MLP/best_model.pth (torch, 120418 bytes, 47 tensors)

model_embedding.weight f4 [32, 12]
0	0x3e4d6d1e	0.20061156
1	0xbdf840b8	-0.12121719
2	0xbe8441a8	-0.25831342
3	0x3e80d662	0.2516356
4	0x3dc20e21	0.09475351
5	0x3e6ee383	0.23328976
6	0x3d85c075	0.06530849
7	0x334a78dc	4.714171e-08
8	0x35c918a3	1.4982837e-06
9	0x3e91fc8d	0.28512993
10	0x35369449	6.8016067e-07
11	0x3d18bd9d	0.037290204
12	0x3e2f5210	0.17121148
13	0xbe5a1603	-0.2129746
14	0xbe16e3b2	-0.14735296
15	0x3e06d629	0.13167633
16	0xbc40aec3	-0.011760416
17	0xbe2ddbd2	-0.16978386
18	0x3e61700a	0.22015396
19	0x34e8dab0	4.3372484e-07
20	0x3bfaf856	0.0076589985
21	0x3daaf538	0.08347553
22	0x3d970f72	0.07375993
23	0xbe1db6aa	-0.15401712
24	0x3e2ddef0	0.16979575
25	0x3e55acc6	0.20866689
26	0x3e8387aa	0.2568944
27	0xbdfc4b3e	-0.12319039
28	0xbe026a3d	-0.12735839
29	0x3e42c7ee	0.1902158
30	0x3de0b7b5	0.10972539
31	0xbc5e1838	-0.013555579
32	0xbcfa540d	-0.030557657
33	0xbe536cf1	-0.20647027
34	0xb400204f	-1.1932683e-07
35	0xbe1f0b6f	-0.15531705
36	0x3df9210a	0.12164505
37	0xbe21b221	-0.15790607
38	0xbe36dfd9	-0.17858829
39	0x3e92b27d	0.286518
40	0xbe4a12aa	-0.19733682
41	0x3e475364	0.19465405
42	0xbe2e0b32	-0.16996458
43	0xbd6dc158	-0.058045715
44	0xb56df9c4	-8.8652837e-07
45	0x3a6d3f61	0.0009050277
46	0xbc8d892f	-0.017277328
47	0xbe79296f	-0.24332212
48	0x3db1a09d	0.08673213
49	0xbe110814	-0.14163238
50	0x3d99046d	0.07471547
51	0xbe532d51	-0.20622756
52	0x3e780a2f	0.24222635
53	0xba8c5c43	-0.0010708648
54	0xbe73e966	-0.23819503
55	0xbd07fec7	-0.03320196
56	0x3d8002af	0.06250512
57	0xbd457289	-0.048204932
58	0xbd333dfb	-0.04376028
59	0x3e0318af	0.12802385
60	0x3d1cf7a0	0.03832209
61	0xbe91b2e4	-0.28456795
62	0x3e85c311	0.26125386
63	0x3daa114c	0.0830408
64	0x3de943e5	0.11389903
65	0x3d38d381	0.04512358
66	0xbdbd1e4a	-0.09234293
67	0x35ad0fe0	1.2894125e-06
68	0xbc8fe4a2	-0.017565075
69	0x3b92ff8a	0.004486029
70	0x326ff7f9	1.3968013e-08
71	0x3e31c850	0.1736157
72	0xbe93754a	-0.28800422
73	0xbd630acb	-0.055430215
74	0x3e8656af	0.2623801
75	0xbd840f4c	-0.0644823
76	0x3dc68594	0.09693447
77	0x3dc62706	0.09675412
78	0x3e776869	0.24160923
79	0x3d8f3d2d	0.0699409
80	0x3324a45d	3.8333713e-08
81	0xbd82a167	-0.06378441
82	0xbdc7fe1a	-0.09765263
83	0x3e9925e5	0.29911724
84	0x3d550e0f	0.05201536
85	0xbdecf7e5	-0.1157072
86	0xbb80ab39	-0.0039266613
87	0xbe0edfc2	-0.13952544
88	0x3e68c722	0.22732213
89	0xbdcdb1f0	-0.100437045
90	0xbe087263	-0.13324885
91	0xbdb15ac9	-0.08659894
92	0x3c3d6168	0.011558868
93	0x3e234bbc	0.15946859
94	0xbc61b41c	-0.013775852
95	0x3e926b73	0.28597602
96	0xbd61b507	-0.05510428
97	0x3e7a0b35	0.24418338
98	0xbe94e3e0	-0.29080105
99	0xbe309278	-0.17243373
100	0xbdce7cd3	-0.10082402
101	0xb77465a5	-1.4567199e-05
102	0x3e29b6c0	0.1657362
103	0x35373256	6.824606e-07
104	0x3b9c7823	0.0047750636
105	0x3e05a59f	0.1305146
106	0x3d4f7394	0.050647333
107	0x3e202312	0.15638378
108	0x3e45c380	0.19312859
109	0x3d74e44e	0.05978804
110	0x3df24952	0.11830391
111	0x3e741636	0.23836598
112	0xbe7cc065	-0.24682768
113	0xbddc7549	-0.10764558
114	0x3cf3b5bd	0.029749746
115	0x3d26d061	0.04072607
116	0xbade88e8	-0.0016978057
117	0xbe3961a3	-0.18103652
118	0x347273b8	2.2580105e-07
119	0xbe4b6bb6	-0.19865307
120	0xbd811579	-0.06302924
121	0xbe9ac6bf	-0.30229756
122	0xbe5d54c6	-0.2161437
123	0x3e573e29	0.21019806
124	0x3db5f160	0.08883929
125	0xbd750812	-0.05982215
126	0x3e29e02b	0.1658942
127	0xbd0379ef	-0.032098707
128	0xb470d0cf	-2.2427706e-07
129	0xbc8266c8	-0.01591815
130	0x34c77d98	3.715802e-07
131	0xbe22e113	-0.15906172
132	0x3dbcf9b8	0.092273176
133	0x3dffbfab	0.1248773
134	0xbde76569	-0.11298639
135	0x3e2be3d0	0.16786122
136	0x3dcb511d	0.099275805
137	0x3e5f4367	0.21803056
138	0xbe2c903a	-0.16851893
139	0x332e2df8	4.055434e-08
140	0xbdce61c3	-0.1007724
141	0xbd8d8185	-0.069094695
142	0xbd8b4d5f	-0.06801867
143	0xbe5d7720	-0.21627474
144	0xbe86ae0e	-0.26304668
145	0x3d1a7e0c	0.037717864
146	0x3e4a94a8	0.1978327
147	0xbe7cc7d7	-0.24685608
148	0x3e9a8722	0.30181223
149	0xbc16f0d9	-0.009212696
150	0x3e41ecda	0.18938008
151	0xbd7b85c2	-0.06140686
152	0xba962ce5	-0.0011457471
153	0xbe82544e	-0.25454944
154	0x3a16d50d	0.0005753793
155	0xbe59f0b2	-0.21283224
156	0xbcd3633c	-0.025804155
157	0x3d98cade	0.07460569
158	0xbde24178	-0.110476434
159	0xbe164425	-0.14674433
160	0x3e95db1e	0.29268736
161	0xbe8a65af	-0.27030703
162	0xbe1f9c8c	-0.15587062
163	0xba64c317	-0.00087265804
164	0x3cc54567	0.024080945
165	0xbdc3b541	-0.09556056
166	0x3b8a57aa	0.004221876
167	0x3e60830e	0.21924993
168	0x3d743f85	0.05963089
169	0x3c9c3da3	0.01907236
170	0xbe8c63a4	-0.2741977
171	0x3b497500	0.0030739903
172	0x3e811428	0.2521069
173	0x3d2819ed	0.04104035
174	0xbe0fe7d6	-0.14053282
175	0x3411ada8	1.3567353e-07
176	0xb4bf5ef0	-3.5645598e-07
177	0x3d127cdb	0.035763603
178	0xbccdf831	-0.025142761
179	0xbc9c9946	-0.019116055
180	0x3d89ed26	0.067346856
181	0x3e47821c	0.19483227
182	0x3e49221a	0.19641915
183	0xbe9026c3	-0.28154573
184	0xbe8503bc	-0.25979412
185	0x3cb3096a	0.021855075
186	0x3e4f3b53	0.20237474
187	0x3dc5cebe	0.096585736
188	0xb50ac954	-5.1701977e-07
189	0xbdd5e6a4	-0.10444382
190	0xbd4681ae	-0.048463516
191	0xbdcb9188	-0.09939867
192	0x3e5e3b18	0.2170223
193	0x3e7547e3	0.23953204
194	0xbdd6af50	-0.10482657
195	0xbe3644a9	-0.1779963
196	0x3cde0c4c	0.027105473
197	0xbe288cc5	-0.1645995
198	0x3e82d68c	0.2555431
199	0xb4774216	-2.302771e-07
200	0x3c0af499	0.008481168
201	0xbdd42777	-0.1035909
202	0xba9e794f	-0.0012090596
203	0x3d2cc4ca	0.04217986
204	0xbd458a21	-0.048227433
205	0x3e781065	0.24225004
206	0xbd9075d8	-0.07053727
207	0xbe81636b	-0.25271162
208	0x3ddbee82	0.10738851
209	0x3e37d412	0.17951992
210	0x3e5de348	0.21668732
211	0xbdc8609e	-0.09784053
212	0xbdaac498	-0.083382785
213	0x3e10d35a	0.14143124
214	0xbba460ba	-0.0050164135
215	0x3d225e42	0.039640673
216	0xbe4102d6	-0.18848738
217	0x3e59e67f	0.21279334
218	0x3e64b180	0.22333336
219	0xbe607b99	-0.21922149
220	0xbcbdffce	-0.023193266
221	0x3e3f83e6	0.18702659
222	0x3d36dc80	0.04464388
223	0x3d35c9a9	0.04438177
224	0x3ac5aa64	0.0015080688
225	0xbe37f037	-0.17962728
226	0xb5b2f5f2	-1.3333613e-06
227	0x3e061ba1	0.13096477
228	0x3e5dd9b4	0.21665078
229	0x3e167009	0.14691176
230	0xbe72ff3f	-0.23730181
231	0xbe7f371b	-0.24923365
232	0x3cadf4d8	0.021234915
233	0x3e0c9a62	0.13730767
234	0x3e7b3074	0.24530202
235	0xbdad6e30	-0.08468282
236	0x31ec9aec	6.8861166e-09
237	0x3e5f25bd	0.2179174
238	0x3d53a07f	0.051666733
239	0xbe0aec34	-0.13566667
240	0x3e6e52ae	0.23273727
241	0x3e6d2f3d	0.23162551
242	0xbe1fec58	-0.15617502
243	0x3e5f39db	0.21799414
244	0x3e39986b	0.18124549
245	0x3de80adf	0.113301985
246	0xbcc64f47	-0.024207724
247	0xb5ba900a	-1.3900001e-06
248	0x3b69c38d	0.0035669536
249	0xbe0f317b	-0.13983719
250	0x3dc1a66c	0.094555706
251	0x3d8d077e	0.06886195
252	0xbb7af1ea	-0.0038291165
253	0xbdd69445	-0.10477499
254	0x3ca0d251	0.019631537
255	0x3e0e6b93	0.13908224

model_embedding.bias f4 [32]
0	0x3b6d64ab	0.0036223333
1	0x3dbe96ae	0.093060836
2	0xba76784f	-0.00094020827
3	0x370f16e3	8.528793e-06
4	0x3d7bb99d	0.06145631
5	0xbd2d2c04	-0.042278305
6	0xbbd5f326	-0.0065292297
7	0x3c2d2eba	0.0105702225
8	0x365d6b35	3.299397e-06
9	0x395bbb4d	0.00020955243
10	0x3732e268	1.0662341e-05
11	0x376811a9	1.3832389e-05
12	0x3ccc48c3	0.02493704
13	0xb625c2d3	-2.4700319e-06
14	0x3c9a5e1b	0.018843701
15	0xbcb804b9	-0.02246319
16	0x3d52c88e	0.051460795
17	0x3d8cee67	0.06881409
18	0xbcf0be11	-0.029387506
19	0x3d82fcd3	0.06395879
20	0x3d9d571d	0.07682631
21	0x3ce962db	0.02848952
22	0x3c70431f	0.01466444
23	0xb6fdb67e	-7.5612325e-06
24	0x3bdd127a	0.0067465873
25	0xbd54409c	-0.05181943
26	0xb5d27f87	-1.5683335e-06
27	0x3cac33c9	0.021020787
28	0x37a2dfc6	1.9416108e-05
29	0x3c58e052	0.013237076
30	0xba9eec39	-0.0012124843
31	0x3d9ccb4a	0.07655962

dataset_embedding.weight f4 [16, 3]
0	0x3eaa904f	0.33313224
1	0xbeabd0f3	-0.33557853
2	0xbdd5672e	-0.104200706
3	0x3e985a74	0.2975651
4	0x3edb89d9	0.42878607
5	0xbe71e399	-0.23621978
6	0x3f116ea0	0.56809425
7	0x3e1e9751	0.1548741
8	0xbe69723c	-0.22797483
9	0xbe70f5df	-0.23531292
10	0x3d95ab72	0.07308091
11	0xbec2ff18	-0.38085246
12	0xbe226d9f	-0.1586213
13	0x3e574a02	0.21024325
14	0x3ee50c07	0.4473574
15	0x3eed0277	0.46290943
16	0x3d0ae17b	0.03390644
17	0xbe9c19d2	-0.3048845
18	0x3f02b09b	0.5105073
19	0xbf11b4e9	-0.5691667
20	0xbe2cd65c	-0.16878647
21	0xbe8d9f80	-0.2766075
22	0xbd7494c8	-0.0597122
23	0x3e12727f	0.1430149
24	0x3e9c1929	0.30487946
25	0xbde3b8cf	-0.11119234
26	0xbf097f0b	-0.5370948
27	0xbf00a065	-0.5024474
28	0x3eb5fd72	0.35544926
29	0xbe9e6a9c	-0.30940711
30	0x3e9242d9	0.28566626
31	0x3f0ee94a	0.5582472
32	0x3ed7650e	0.42069286
33	0xbde6c59f	-0.11268162
34	0xbeb9db21	-0.36299995
35	0x3e95df5e	0.29271978
36	0xbeda1e2a	-0.42601138
37	0xbe9c7bea	-0.3056329
38	0xbeb01d8f	-0.3439755
39	0x3ee34217	0.4438636
40	0x3eca7c75	0.39548078
41	0x3ee479c6	0.44624156
42	0x3e9aaa1d	0.3020791
43	0x3ee567ea	0.44805843
44	0x3e21dda3	0.15807204
45	0x3ea468db	0.32111248
46	0x3e80ae31	0.25132897
47	0x3e9e5054	0.3092066

dataset_embedding.bias f4 [16]
0	0xbe601e08	-0.21886456
1	0x3dd13b2a	0.10216363
2	0x3d0885d7	0.033330765
3	0xbe0e78e6	-0.13913307
4	0xbe3a8185	-0.1821347
5	0x3e9c4f8e	0.30529445
6	0xbe164652	-0.14675263
7	0xbc02c715	-0.007982035
8	0x3e3888ca	0.18020931
9	0xbe6bb2a0	-0.23017359
10	0x3e85dddd	0.2614583
11	0xbea4a49b	-0.32156834
12	0x3e2779f7	0.1635512
13	0xbd871ee4	-0.06597689
14	0x3e9b80aa	0.303716
15	0xbe764597	-0.24049984

tensor_network.0.weight f4 [16, 1]
0	0xb2c4c039	-2.2904816e-08
1	0x3ed2e8b8	0.41193175
2	0xb7084c97	-8.124064e-06
3	0x3ec9d75f	0.39422128
4	0xbf3a106e	-0.7268132
5	0xbe687be1	-0.22703506
6	0xbf0e1765	-0.5550445
7	0x3f1c411e	0.6103686
8	0x3e0d2b17	0.13785969
9	0x3f063d3d	0.5243719
10	0xbe33f3a8	-0.17573416
11	0xbe89edda	-0.2693928
12	0xbdd77de6	-0.1052206
13	0x3f3eef13	0.7458355
14	0xbf29832a	-0.66215765
15	0x3d7302d7	0.05932888

tensor_network.0.bias f4 [16]
0	0xbd7e3a81	-0.062067512
1	0xbf293ae6	-0.66105497
2	0xbf25c974	-0.6476052
3	0x3e95920d	0.2921299
4	0x3480f2f1	2.401862e-07
5	0x3f21b239	0.6316257
6	0xbe5cfc2a	-0.21580568
7	0xb63bf20b	-2.800606e-06
8	0xbe5a61cd	-0.2132637
9	0xbf456cf0	-0.7711935
10	0x3e74e21d	0.2391438
11	0xbf2deacb	-0.6793639
12	0xbf2e7c84	-0.68158746
13	0x3f1faab3	0.6236984
14	0xbec55e5b	-0.3854855
15	0x3f084786	0.53234136

tensor_network.2.weight f4 [16]
0	0x3f473704	0.7781832
1	0x3f7b7e07	0.9823918
2	0x3f473704	0.7781832
3	0x3f7d186f	0.9886541
4	0x3f473704	0.7781832
5	0x3f80f162	1.0073664
6	0x3f473704	0.7781832
7	0x3f80c723	1.0060772
8	0x3f7e3aa5	0.99308234
9	0x3f80a4e5	1.0050322
10	0x3f7cbd29	0.98726135
11	0x3f473704	0.7781832
12	0x3f473704	0.7781832
13	0x3f80c881	1.0061189
14	0x3f473704	0.7781832
15	0x3f7e6579	0.99373585

tensor_network.2.bias f4 [16]
0	0x3384117d	6.14991e-08
1	0x3789cc4a	1.6426802e-05
2	0x3382b640	6.086748e-08
3	0xb66d14cb	-3.5327855e-06
4	0xb367d9bb	-5.3981903e-08
5	0xb887b591	-6.471121e-05
6	0x309e6416	1.1524459e-09
7	0x37be3bba	2.2677577e-05
8	0x382eaeb6	4.1647545e-05
9	0x385a42b5	5.2037376e-05
10	0x379e9f95	1.8909379e-05
11	0xb3a470b4	-7.657346e-08
12	0x340d6387	1.3167856e-07
13	0xb81fea38	-3.8126687e-05
14	0x344d1d3a	1.9102745e-07
15	0xb8aea4fa	-8.327696e-05

tensor_network.2.running_mean f4 [16]
0	0x00000000	0.0
1	0x3f80b459	1.0055038
2	0x00000000	0.0
3	0x3ff21ff5	1.8916003
4	0x00000000	0.0
5	0x3dbbcca2	0.0916989
6	0x00000000	0.0
7	0x401cba4a	2.4488702
8	0x3eafd3ba	0.34341222
9	0x3fade15b	1.3584398
10	0x3c339228	0.010960139
11	0x00000000	0.0
12	0x00000000	0.0
13	0x40678cb9	3.617964
14	0x00000000	0.0
15	0x3f4848b7	0.78235954

tensor_network.2.running_var f4 [16]
0	0x2dac98ef	1.9622052e-11
1	0x3f3cfce6	0.7382339
2	0x2dac98ef	1.9622052e-11
3	0x3f4b2089	0.7934652
4	0x2dac98ef	1.9622052e-11
5	0x3cb3a9a3	0.021931475
6	0x2dac98ef	1.9622052e-11
7	0x3ff0621e	1.8779943
8	0x3daaaa08	0.08333212
9	0x3f9e92cc	1.2388549
10	0x3a67e96b	0.00088467327
11	0x2dac98ef	1.9622052e-11
12	0x2dac98ef	1.9622052e-11
13	0x4032a52e	2.7913318
14	0x2dac98ef	1.9622052e-11
15	0x3c95d2e0	0.01828903

worker_network.0.weight f4 [16, 1]
0	0xbe4732e4	-0.19453007
1	0x3f0391bf	0.51394266
2	0xbf1d628a	-0.61478484
3	0xbec3d82f	-0.38250872
4	0x3e34dde9	0.17662777
5	0xbea0b9fa	-0.3139189
6	0x3f471597	0.7776732
7	0x3f105b34	0.56389165
8	0x3d9ac354	0.07556787
9	0xbeb2acc4	-0.34897435
10	0xbed50186	-0.41602725
11	0xbea544cc	-0.3227905
12	0xbf1da2c2	-0.61576474
13	0x3e21403b	0.15747158
14	0xbedba6f7	-0.42900822
15	0x33aa9dfc	7.944979e-08

worker_network.0.bias f4 [16]
0	0xbeed4d3a	-0.46347982
1	0x3ad097d7	0.0015914392
2	0x3f3e46d5	0.7432683
3	0x3f2f828a	0.6855856
4	0xbe05081b	-0.12991373
5	0x3f34db8a	0.7064749
6	0xbe85f856	-0.26166028
7	0x3ed53521	0.41642097
8	0x3f231e25	0.6371787
9	0x3e2c7890	0.16842866
10	0xbebd4884	-0.36969388
11	0xbd2b1da9	-0.041776333
12	0xbf2665d6	-0.6499914
13	0x3e47107f	0.19439887
14	0x3f546f10	0.8298197
15	0xbf400b33	-0.7501709

worker_network.2.weight f4 [16]
0	0x3f473704	0.7781832
1	0x3f807f0a	1.0038769
2	0x3f473704	0.7781832
3	0x3f473704	0.7781832
4	0x3f7f0423	0.9961569
5	0x3f7b44a7	0.9815163
6	0x3f7fd05f	0.99927324
7	0x3f81ddde	1.0145833
8	0x3f830ba9	1.0237933
9	0x3f473704	0.7781832
10	0x3f473704	0.7781832
11	0x3f473704	0.7781832
12	0x3f473704	0.7781832
13	0x3f8371c4	1.0269094
14	0x3f493ac1	0.78605276
15	0x3f473704	0.7781832

worker_network.2.bias f4 [16]
0	0xb2f90ff8	-2.8994677e-08
1	0xb7036b7e	-7.833236e-06
2	0x33cd441b	9.558445e-08
3	0xb37679fa	-5.7387275e-08
4	0xb79824cc	-1.8136947e-05
5	0xb821586c	-3.846774e-05
6	0x381211d1	3.4825705e-05
7	0x38463c11	4.726282e-05
8	0xb909255b	-0.00013079254
9	0x342d5a39	1.6144703e-07
10	0x31acce24	5.0292943e-09
11	0xb186780f	-3.9135624e-09
12	0xb416690a	-1.4008052e-07
13	0x35ce668d	1.5378042e-06
14	0xb7213305	-9.608227e-06
15	0x33eac2c4	1.0931902e-07

worker_network.2.running_mean f4 [16]
0	0x00000000	0.0
1	0x401bcfaf	2.434551
2	0x00000000	0.0
3	0x00000000	0.0
4	0x3f372515	0.7154096
5	0x3d0b6813	0.0340348
6	0x405928eb	3.3931224
7	0x4045c474	3.0901155
8	0x3f800b5f	1.000347
9	0x00000000	0.0
10	0x00000000	0.0
11	0x00000000	0.0
12	0x00000000	0.0
13	0x3f74e257	0.9565787
14	0x2b87e5a2	9.656063e-13
15	0x00000000	0.0

worker_network.2.running_var f4 [16]
0	0x2dac98ef	1.9622052e-11
1	0x3fdad1d3	1.7095283
2	0x2dac98ef	1.9622052e-11
3	0x2dac98ef	1.9622052e-11
4	0x3e56b5fc	0.20967859
5	0x3b1ae41d	0.0023634501
6	0x40780765	3.8754513
7	0x400361cf	2.0528448
8	0x3d14b854	0.0363086
9	0x2dac98ef	1.9622052e-11
10	0x2dac98ef	1.9622052e-11
11	0x2dac98ef	1.9622052e-11
12	0x2dac98ef	1.9622052e-11
13	0x3e28cdd4	0.16484767
14	0x2dac9943	1.9622198e-11
15	0x2dac98ef	1.9622052e-11

batch_network.0.weight f4 [16, 1]
0	0x3e1b0a05	0.15140541
1	0x3e2301ee	0.15918705
2	0xbedc4f28	-0.4302914
3	0xbd4d5804	-0.050132766
4	0x3f1c6272	0.61087716
5	0xbf13f883	-0.57801074
6	0xbf2d638b	-0.67730016
7	0x3dc82ec1	0.097745426
8	0x36e4aee8	6.8152913e-06
9	0xbe691a55	-0.22763951
10	0xbee1004d	-0.43945542
11	0xbef1734b	-0.47158274
12	0x3e23ad58	0.15984094
13	0x3e92402e	0.2856459
14	0xbd88cb29	-0.06679375
15	0xbe175dbb	-0.14781849

batch_network.0.bias f4 [16]
0	0x3e0d1ace	0.13779756
1	0xbbc050e7	-0.0058690193
2	0xbebdf0a7	-0.37097666
3	0xbeeb367b	-0.45940003
4	0xbcaf3b9f	-0.021390734
5	0x3e2d1c0d	0.16905232
6	0x3eded0df	0.4351873
7	0xbe0d590b	-0.13803498
8	0xbe1a114f	-0.15045665
9	0xb358867d	-5.0413735e-08
10	0xbdc306c7	-0.09522777
11	0x3e58eb8b	0.21183603
12	0xbe8aeea7	-0.27135202
13	0xbe36d831	-0.17855908
14	0xbca8ea8c	-0.020619653
15	0x340d834c	1.3179414e-07

batch_network.2.weight f4 [16]
0	0x3f81a9b6	1.0129917
1	0x3f7f2d26	0.99678266
2	0x3f473704	0.7781832
3	0x3f473704	0.7781832
4	0x3f790de6	0.9728683
5	0x3f473704	0.7781832
6	0x3f473704	0.7781832
7	0x3f7ea721	0.9947377
8	0x3f473704	0.7781832
9	0x3f473704	0.7781832
10	0x3f473704	0.7781832
11	0x3f473704	0.7781832
12	0x3f7fef3d	0.99974424
13	0x3f7f2e7e	0.99680316
14	0x3f473704	0.7781832
15	0x3f473704	0.7781832

batch_network.2.bias f4 [16]
0	0xb780f7b9	-1.5374144e-05
1	0x37a61526	1.979859e-05
2	0x32f90b77	2.8992629e-08
3	0xb3dc183d	-1.0248957e-07
4	0x37938d0d	1.7589447e-05
5	0xb30795de	-3.156844e-08
6	0xb3cb0a97	-9.4548504e-08
7	0xb77bb2e1	-1.5002414e-05
8	0x32b2615a	2.0766198e-08
9	0xb3d859a0	-1.00745865e-07
10	0xb412fc62	-1.3689126e-07
11	0x33b9f6cc	8.659626e-08
12	0x37f14ce0	2.8765236e-05
13	0x378155e1	1.5417989e-05
14	0xb3ca3c67	-9.417345e-08
15	0xb4064843	-1.2506011e-07

batch_network.2.running_mean f4 [16]
0	0x3f963a8b	1.1736616
1	0x3f88cf7d	1.068832
2	0x00000000	0.0
3	0x00000000	0.0
4	0x40800be0	4.0014496
5	0x00000000	0.0
6	0x00000000	0.0
7	0x3f08eb96	0.53484476
8	0x00000000	0.0
9	0x00000000	0.0
10	0x00000000	0.0
11	0x00000000	0.0
12	0x3f4b39d2	0.793851
13	0x3fdc55f7	1.7213734
14	0x00000000	0.0
15	0x00000000	0.0

batch_network.2.running_var f4 [16]
0	0x3dd1dec8	0.1024757
1	0x3de54aad	0.11195884
2	0x2dac98ef	1.9622052e-11
3	0x2dac98ef	1.9622052e-11
4	0x3fc8a3df	1.567501
5	0x2dac98ef	1.9622052e-11
6	0x2dac98ef	1.9622052e-11
7	0x3d36e61c	0.044653043
8	0x2dac98ef	1.9622052e-11
9	0x2dac98ef	1.9622052e-11
10	0x2dac98ef	1.9622052e-11
11	0x2dac98ef	1.9622052e-11
12	0x3de3f5b4	0.111308485
13	0x3eb401b1	0.3515754
14	0x2dac98ef	1.9622052e-11
15	0x2dac98ef	1.9622052e-11

ps_network.0.weight f4 [8, 1]
0	0x3f58030b	0.84379643
1	0x3f2b1705	0.66832
2	0x3e37e8c7	0.17959891
3	0x3e2f01a2	0.17090467
4	0x3de0788f	0.10960495
5	0x3f63e8f2	0.8902732
6	0x3e8e5893	0.27801952
7	0x3f454d03	0.77070636

ps_network.0.bias f4 [8]
0	0xbe5083b5	-0.20362742
1	0x3ef5984d	0.4796776
2	0xbf034a5f	-0.51285356
3	0xbf1dee1c	-0.6169145
4	0xbde928ae	-0.11384712
5	0xbf6f68c1	-0.93519217
6	0x3d86ccc7	0.06582027
7	0xbf4c7280	-0.79862213

ps_network.2.weight f4 [8]
0	0x3f807375	1.0035235
1	0x3f79e5d6	0.97616327
2	0x3f7f22fb	0.9966275
3	0x3f7ed8e0	0.99549675
4	0x3f80bea9	1.0058185
5	0x3f7a3369	0.97734696
6	0x3f7dd2da	0.9914986
7	0x3f79a6a1	0.9751988

ps_network.2.bias f4 [8]
0	0x388e97a2	6.7993315e-05
1	0xb6f83fe2	-7.398413e-06
2	0x3760abd8	1.3391451e-05
3	0x3829fa1f	4.0525683e-05
4	0x37b43741	2.1483402e-05
5	0xb71f7124	-9.503481e-06
6	0x36983f9f	4.5373595e-06
7	0x3840ac05	4.5936573e-05

ps_network.2.running_mean f4 [8]
0	0x3fd0865c	1.6291003
1	0x3feea23d	1.8643261
2	0x3e2f8bdd	0.17143197
3	0x3de7cd39	0.1131844
4	0x3e2e97af	0.1705005
5	0x3fb3d5b2	1.404959
6	0x3f26bd13	0.65132254
7	0x3f9c92b5	1.2232271

ps_network.2.running_var f4 [8]
0	0x40b2e2af	5.5901713
1	0x40760691	3.8441508
2	0x3deb918a	0.11502369
3	0x3d88bd76	0.06676762
4	0x3d94426c	0.072392315
5	0x409cce2d	4.900168
6	0x3f2f279e	0.68419826
7	0x406cbab7	3.6988962

main_network.0.weight f4 [128, 104]
0	0x3dcddce0	0.10051894
1	0x3d821e8b	0.06353482
2	0xbd0fc07a	-0.03509567
3	0xbcc3d42d	-0.023904884
4	0x3cbc9871	0.023021908
5	0xbbd7049e	-0.0065618297
6	0x3a3963f1	0.00070720824
7	0x3ded0c63	0.11574628
8	0x3da7d33a	0.08194585
9	0xbd607349	-0.054797444
10	0xbdc64eed	-0.09683023
11	0x3c4a4e14	0.012347717
12	0xbd7a19e8	-0.061059862
13	0x3dc9a265	0.098454274
14	0x3c87ae8c	0.016562723
15	0xbc5e04c0	-0.013550937
16	0xbd21cdc1	-0.039502863
17	0xbcc23404	-0.023706444
18	0xbdb37168	-0.08761865
19	0x3dbedce7	0.093194775
20	0xbd5309f2	-0.051523156
21	0xbd06107a	-0.032730557
22	0xbdf16c44	-0.11788228
23	0x3d2ba53c	0.041905627
24	0x3c82da04	0.015973099
25	0xbc8dccb3	-0.017309522
26	0x3cf97e03	0.030455595
27	0xbda4ce55	-0.08047167
28	0x3d52cf1e	0.051467054
29	0x3d4a9155	0.049455006
30	0x3c9c928f	0.019112853
31	0x3cebf1e1	0.02880186
32	0xbc5a8534	-0.013337422
33	0x3da11a19	0.07866306
34	0xbdb7f623	-0.08982494
35	0x3c6abce8	0.014327265
36	0xbd53acd7	-0.051678505
37	0x3d9e8254	0.07739702
38	0xbd92193c	-0.07133719
39	0xbda54454	-0.08069673
40	0xbd8a7979	-0.0676145
41	0xbd77f561	-0.060536746
42	0x3dd90445	0.105965175
43	0x3d8b4111	0.0679952
44	0xbd1b70fa	-0.03794954
45	0x3da07a0c	0.078357786
46	0x3d9fc818	0.07801837
47	0x3d71063f	0.058843847
48	0x38dab6bd	0.00010429088
49	0xbd3ae884	-0.0456319
50	0xb12375df	-2.3786624e-09
51	0xbd84fc61	-0.0649345
52	0xb4169ac4	-1.4026142e-07
53	0x3d8c5770	0.06852615
54	0x36e92f0e	6.949419e-06
55	0x3c706625	0.014672791
56	0x3db4fe07	0.08837514
57	0x3dc33674	0.095318705
58	0x3da74306	0.081670806
59	0xb3910662	-6.75325e-08
60	0xb3e4322a	-1.0626202e-07
61	0x3ccdc5e2	0.025118772
62	0x33bab699	8.694514e-08
63	0x3d92536c	0.07144818
64	0x365bd197	3.275554e-06
65	0xbc7a4d0c	-0.0152771585
66	0xb396fb17	-7.030592e-08
67	0x3523ca50	6.1016635e-07
68	0x3dcad222	0.09903361
69	0x3d9d5527	0.07682257
70	0x3bb287b3	0.0054483055
71	0xbd868934	-0.06569138
72	0xbd77be98	-0.0604845
73	0xb5d54f1b	-1.5892759e-06
74	0x3890b1a0	6.89954e-05
75	0x32834166	1.5280147e-08
76	0x34661430	2.1427763e-07
77	0xbd0a71d0	-0.033799946
78	0xbc4b7e34	-0.012420226
79	0x34891b74	2.5538213e-07
80	0x3d657e8a	0.05602888
81	0xbd857b5d	-0.0651767
82	0x35c53389	1.4692642e-06
83	0x393703f2	0.0001745371
84	0x3de1bd96	0.11022489
85	0xb4356d8e	-1.6896794e-07
86	0x31cc1fa4	5.9407785e-09
87	0x3d353db1	0.044248287
88	0xb981471f	-0.00024657787
89	0xb4ce3dba	-3.8415402e-07
90	0x37c2444d	2.3158407e-05
91	0xb3941552	-6.895665e-08
92	0xbd0489b3	-0.032357883
93	0x3dbcf9bb	0.0922732
94	0xb6fe56c4	-7.5798907e-06
95	0x33452de1	4.5909363e-08
96	0xbaa5e01c	-0.0012655291
97	0xbcf6c2fa	-0.030122269
98	0x3ca42a9a	0.020039845
99	0x3d219f4c	0.039458558
100	0xbd5de3fe	-0.05417251
101	0x3d8641d9	0.06555528
102	0x3c61381e	0.01374629
103	0x3d39b901	0.04534245
104	0xbded7481	-0.11594487
105	0xbcff3bad	-0.031156385
106	0x3dc5d86f	0.09660422
107	0x3ce3c59e	0.027804192
108	0x3abf8875	0.0014612811
109	0xbc7d70c8	-0.015468784
110	0x3d37a162	0.04483164
111	0x3be68137	0.0070344466
112	0xb87990fe	-5.950126e-05
113	0x3d98af51	0.07455314
114	0xbd6d5cb3	-0.057949733
115	0x3b3718d8	0.0027938392
116	0x3d696b63	0.056987178
117	0x3b00b4c8	0.0019639004
118	0x3c991937	0.018688781
119	0xbcacb7d0	-0.021083742
120	0xbd9a9c1d	-0.075493075
121	0xbd83de2a	-0.06438859
122	0x3da97eb8	0.08276123
123	0x3d4b99fd	0.0497074
124	0xbdcce861	-0.1000526
125	0xbc5326cd	-0.012887669
126	0xbc283248	-0.010265894
127	0x3d5c677d	0.05380963
128	0xbac62211	-0.0015116354
129	0x3c32eb1c	0.010920312
130	0xbd15ce95	-0.036573965
131	0x3c2e63ba	0.010643894
132	0xbcf8e38c	-0.03038194
133	0x3c219e8a	0.009864459
134	0xbdb6d0a1	-0.089265116
135	0x3cb5b580	0.022181273
136	0x3dc590c1	0.0964675
137	0x3d052606	0.032506965
138	0xbc47ebf1	-0.012202249
139	0x3d50302e	0.050827198
140	0x3daf6648	0.085644305
141	0x3b0f9237	0.002190722
142	0xba2d608a	-0.0006613812
143	0xbdbb2c81	-0.09139348
144	0x3d3a2d7c	0.045453534
145	0xbcc189b9	-0.023625242
146	0xbd2ed3b6	-0.042682372
147	0x3db279c0	0.08714628
148	0x3d21121d	0.039323915
149	0xbdb128e2	-0.08650376
150	0xbce6cf48	-0.028175011
151	0xbc9bc245	-0.019013533
152	0xb5dfff5d	-1.6689115e-06
153	0xbd6ce323	-0.057833802
154	0xb48ab6d6	-2.5837534e-07
155	0xbbb59615	-0.005541573
156	0xac3c5e1b	-2.6768646e-12
157	0xbd3d813e	-0.046265833
158	0x34198b54	1.4299923e-07
159	0xbb644b91	-0.003483508
160	0xbc90315c	-0.017601661
161	0x3c7d0ee8	0.015445448
162	0xbce0c31f	-0.027436791
163	0xb32f550c	-4.0822712e-08
164	0xb993a4d7	-0.0002816084
165	0x3cd98a4e	0.026555207
166	0x35819339	9.654096e-07
167	0x3d3cee59	0.046125744
168	0x37056be7	7.952541e-06
169	0x3d3f556c	0.046712324
170	0x38d8f8f5	0.000103460545
171	0x316193aa	3.2825747e-09
172	0x3deb5162	0.11490132
173	0xbcf0b29d	-0.029382044
174	0xbb48ff17	-0.0030669624
175	0x3dbd9142	0.09256221
176	0xbcd7af60	-0.026328743
177	0xb92f25db	-0.00016703403
178	0x348755cd	2.5208138e-07
179	0x32e144cd	2.6224734e-08
180	0xb227bf8c	-9.764232e-09
181	0x3d9a459a	0.07532807
182	0xbb7cb7bf	-0.003856167
183	0x313404c5	2.6196159e-09
184	0x3db0b862	0.08628918
185	0x3c82b8ee	0.015957322
186	0x33447a2c	4.574592e-08
187	0x33d8954c	1.0085441e-07
188	0x3d15d16e	0.03657668
189	0xb4e3e8e0	-4.2451484e-07
190	0x35629473	8.440758e-07
191	0x3d54220b	0.05179028
192	0xb28c54de	-1.6336738e-08
193	0xb5e14610	-1.6784197e-06
194	0x39a92383	0.0003226065
195	0x328520f8	1.549823e-08
196	0x3b793106	0.0038023605
197	0xbd867c9b	-0.06566735
198	0xb39b5cb1	-7.2346104e-08
199	0x381cd250	3.7389167e-05
200	0x3cf0fa26	0.029416155
201	0x3cfb8431	0.030702682
202	0xbd095395	-0.033526976
203	0xbd40b486	-0.04704716
204	0x3bb647fc	0.0055627804
205	0xbd9b2336	-0.07575075
206	0xbc934e7a	-0.017981756
207	0x3d4feea7	0.050764706
208	0xbc32b0b3	-0.010906386
209	0xbc46f637	-0.012143663
210	0xbd980b42	-0.07424022
211	0x3d435c2a	0.047695316
212	0x3d6ff4d7	0.058583107
213	0x3dbc2fc8	0.09188801
214	0x3caa6eb1	0.020804735
215	0xbdecc27f	-0.11560535
216	0xbd3aa0e6	-0.0455636
217	0x3d85c166	0.065310284
218	0xbc78c52e	-0.01518373
219	0x3db5bc6b	0.088738285
220	0x3aebe3d9	0.0017996981
221	0x3d972987	0.073809676
222	0x3caba2c3	0.020951634
223	0xbda4f293	-0.0805408
224	0x3c427891	0.011869566
225	0xbca4c1af	-0.020111887
226	0xbdad568b	-0.084637724
227	0xbc3a15dc	-0.011357751
228	0xbdaae970	-0.08345306
229	0x3ddc9331	0.10770262
230	0x3db47507	0.08811384
231	0xbd859b95	-0.065238155
232	0x3d4598fd	0.048241604
233	0xba043b7b	-0.00050442637
234	0x3dc5115d	0.096224524
235	0xbd938b70	-0.0720433
236	0x3dbc0c1a	0.09181996
237	0x3d189217	0.037248697
238	0x3b4fa2d9	0.0031682758
239	0x3bd703c1	0.006561727
240	0xbc812c5f	-0.015768228
241	0xbde0c953	-0.109758995
242	0xbce0e6ca	-0.027453799
243	0xbd33fe4b	-0.043943685
244	0xbdc1e775	-0.09467975
245	0x3d84839d	0.06470416
246	0xbd63bff6	-0.05560299
247	0xbd9c0fa8	-0.07620174
248	0x3d1e0a2f	0.03858393
249	0xbd35a5fe	-0.044347756
250	0x3c2fea51	0.010737018
251	0x3d681942	0.056664713
252	0xbdc728fb	-0.09724613
253	0x3c6f383b	0.014600809
254	0xbc8b7ae0	-0.017026365
255	0x3d91db3b	0.07121893

main_network.0.bias f4 [128]
0	0x37666189	1.37317775e-05
1	0x36a9eb98	5.064019e-06
2	0x3751d901	1.2507896e-05
3	0x37602da7	1.336207e-05
4	0x36f1fdab	7.2118905e-06
5	0x362c2764	2.5652926e-06
6	0xb6cdaa16	-6.1292767e-06
7	0x34068fb7	1.2532006e-07
8	0xb7211e5a	-9.603415e-06
9	0x36ab4e30	5.1052994e-06
10	0x37b62d7f	2.1717276e-05
11	0x36b94ff5	5.522738e-06
12	0xb685a257	-3.9826077e-06
13	0xb7a9625c	-2.0192172e-05
14	0xb72df059	-1.0367564e-05
15	0xb9c04eef	-0.00036679904
16	0xb79ea929	-1.8913839e-05
17	0xb69704d7	-4.500714e-06
18	0xb732ec7a	-1.0664686e-05
19	0xb4c6d788	-3.7037194e-07
20	0xb828354c	-4.0103958e-05
21	0x36138867	2.1984104e-06
22	0xb6ebdba5	-7.0291157e-06
23	0x35a38f7f	1.2186209e-06
24	0xb6c70335	-5.9310355e-06
25	0xb6bb9cbc	-5.5912806e-06
26	0xb51ecb02	-5.9155e-07
27	0x374d7d59	1.2248137e-05
28	0xb5b8d986	-1.3772376e-06
29	0x36bbd6ee	5.5980554e-06
30	0x3986d211	0.00025714983
31	0xb6e71263	-6.886477e-06
32	0x359605d4	1.1177567e-06
33	0x396c8222	0.00022555192
34	0xb6bbc0f2	-5.595496e-06
35	0xb6b4ead0	-5.391754e-06
36	0xb69017d6	-4.2943093e-06
37	0xb4d1f76d	-3.910931e-07
38	0xb79a2233	-1.8374156e-05
39	0xb65053c3	-3.104317e-06
40	0xb6d11803	-6.2314807e-06
41	0x35b9201c	1.3792919e-06
42	0xb7b39dc2	-2.1411925e-05
43	0x3624dd9b	2.4566896e-06
44	0xb642ce77	-2.902843e-06
45	0xb5a1aea9	-1.2046268e-06
46	0xb6536934	-3.1502686e-06
47	0xb8bcc8d3	-9.001945e-05
48	0xb6755a90	-3.656056e-06
49	0xb6404cd5	-2.8654952e-06
50	0x367d6899	3.7760822e-06
51	0x37a282cb	1.937281e-05
52	0x369826dc	4.534477e-06
53	0x37447e39	1.1711899e-05
54	0x3609db3c	2.0542202e-06
55	0xb6bd7dfa	-5.6473045e-06
56	0x3714c563	8.867445e-06
57	0xb5ba9ed6	-1.3904307e-06
58	0x385de211	5.2901047e-05
59	0x36a039e8	4.7751128e-06
60	0x37540cff	1.2639211e-05
61	0xb6df3a15	-6.6526795e-06
62	0x39a59a1c	0.00031586073
63	0x37ae5b50	2.0784937e-05
64	0xb76fc63c	-1.4291665e-05
65	0x369d58f3	4.6893197e-06
66	0xb6a48fab	-4.904306e-06
67	0xb7962e8f	-1.7903074e-05
68	0x376f8c46	1.427817e-05
69	0x331b6a23	3.618528e-08
70	0x39820bfe	0.00024804467
71	0xb7224a46	-9.673246e-06
72	0xb7d3dd5b	-2.5256237e-05
73	0x376802c6	1.3828923e-05
74	0xb6c11e76	-5.7553943e-06
75	0x351e1f23	5.8904897e-07
76	0xb62f4d39	-2.6121982e-06
77	0xb7b8ed2b	-2.204495e-05
78	0x378ecf53	1.7024262e-05
79	0xb792c6d9	-1.7497152e-05
80	0xb6faf6c5	-7.4793084e-06
81	0x358eb64f	1.0632883e-06
82	0x35a8c56a	1.257443e-06
83	0xb6459a07	-2.9444943e-06
84	0x365bed35	3.2771616e-06
85	0xb641fb5f	-2.8905558e-06
86	0x36ec6790	7.0454043e-06
87	0x3609059f	2.0417863e-06
88	0xb740e0e1	-1.14964505e-05
89	0xb62eddbd	-2.605709e-06
90	0xb6e6dc64	-6.880191e-06
91	0x369c3481	4.6552746e-06
92	0x363ab341	2.78205e-06
93	0xb7342f07	-1.07397855e-05
94	0xb623c390	-2.4402725e-06
95	0xb538fd3b	-6.891384e-07
96	0x37318f7c	1.058343e-05
97	0xb800f310	-3.0743948e-05
98	0xb7af7ba6	-2.0919204e-05
99	0x36cbe866	6.076926e-06
100	0x3937b881	0.00017520973
101	0xb614ca5c	-2.2171507e-06
102	0xb6f30949	-7.2430453e-06
103	0xb63f7c5a	-2.85336e-06
104	0xb6ab0c14	-5.097603e-06
105	0x372ee7c7	1.0425173e-05
106	0xb78d2516	-1.682578e-05
107	0xb758b0c1	-1.2915757e-05
108	0xb89c0db3	-7.441211e-05
109	0xb6e51c6b	-6.82804e-06
110	0xb54f557f	-7.723792e-07
111	0x36105b19	2.1510698e-06
112	0x37e595d9	2.7368706e-05
113	0x37380d71	1.0970384e-05
114	0x36b44d92	5.3734484e-06
115	0x35e3f92c	1.6985337e-06
116	0x34df6582	4.1610843e-07
117	0x36c0ea43	5.7493176e-06
118	0xb7033e00	-7.822644e-06
119	0xb6c34507	-5.8194887e-06
120	0xb5ed4232	-1.7677141e-06
121	0xb6e2c832	-6.7586307e-06
122	0x37a77334	1.9961597e-05
123	0x399ac030	0.0002951636
124	0x3793671e	1.7571783e-05
125	0x3770fe14	1.4364272e-05
126	0xb73290de	-1.0643356e-05
127	0x36cb1dbc	6.053333e-06

main_network.1.weight f4 [128]
0	0x3f7794f1	0.9671164
1	0x3f818744	1.0119405
2	0x3f81e4dc	1.0147967
3	0x3f808030	1.003912
4	0x3f80ff4b	1.0077909
5	0x3f79097b	0.9728009
6	0x3f7ec55d	0.995199
7	0x3f8080e4	1.0039334
8	0x3f7cdde6	0.9877609
9	0x3f82521e	1.018131
10	0x3f813fbd	1.0097576
11	0x3f7ba196	0.98293436
12	0x3f82fa7a	1.0232689
13	0x3f807358	1.00352
14	0x3f82a9cb	1.0208067
15	0x3f7cb308	0.9871068
16	0x3f76eca0	0.9645481
17	0x3f7d1efa	0.9887539
18	0x3f80bc5f	1.0057486
19	0x3f80ce4a	1.0062954
20	0x3f7f8153	0.9980671
21	0x3f8183ab	1.0118307
22	0x3f8096ca	1.0046017
23	0x3f82a410	1.0206318
24	0x3f884926	1.0647323
25	0x3f81a217	1.0127591
26	0x3f7f32c3	0.9968683
27	0x3f834449	1.0255214
28	0x3f79d19c	0.97585464
29	0x3f79a413	0.9751598
30	0x3f80321e	1.0015295
31	0x3f7b136e	0.9807652
32	0x3f7ef841	0.99597555
33	0x3f82cf13	1.0219444
34	0x3f77bc73	0.96771926
35	0x3f8008ab	1.0002645
36	0x3f7f96f0	0.9983969
37	0x3f790b8d	0.9728325
38	0x3f7c3a98	0.98526907
39	0x3f7b766d	0.9822758
40	0x3f811d11	1.0086995
41	0x3f7ec365	0.995169
42	0x3f83bfd0	1.0292912
43	0x3f7bdb17	0.9838118
44	0x3f77f9f1	0.96865755
45	0x3f78ad35	0.9713929
46	0x3f7c4b56	0.98552454
47	0x3f8309a4	1.0237317
48	0x3f7eb3ca	0.99493086
49	0x3f7c40b0	0.98536205
50	0x3f83efd6	1.0307567
51	0x3f824102	1.0176089
52	0x3f819369	1.0123111
53	0x3f80a164	1.0049253
54	0x3f836984	1.0266576
55	0x3f7d9aed	0.99064523
56	0x3f805751	1.0026647
57	0x3f822bc9	1.0169612
58	0x3f81f66a	1.0153325
59	0x3f7a89d8	0.9786658
60	0x3f7b14bb	0.9807851
61	0x3f8039d3	1.0017647
62	0x3f7f562c	0.9974086
63	0x3f7ca0a0	0.98682594
64	0x3f7b92c1	0.98270804
65	0x3f7c09d7	0.98452514
66	0x3f7f14f1	0.9964133
67	0x3f85a201	1.0440065
68	0x3f77bd98	0.9677367
69	0x3f80f95d	1.00761
70	0x3f794c20	0.9738178
71	0x3f724e22	0.9465047
72	0x3f7f93d4	0.9983494
73	0x3f7e8470	0.99420834
74	0x3f81b149	1.0132228
75	0x3f8049be	1.0022504
76	0x3f7c0112	0.98439133
77	0x3f77ce66	0.96799314
78	0x3f7cfd8b	0.98824376
79	0x3f7d6d00	0.98994446
80	0x3f82a8cf	1.0207766
81	0x3f78dc08	0.9721074
82	0x3f7a72fc	0.978317
83	0x3f8059d7	1.0027417
84	0x3f80ffee	1.0078104
85	0x3f808ecf	1.0043582
86	0x3f8224d2	1.0167487
87	0x3f84f931	1.0388547
88	0x3f77914a	0.9670607
89	0x3f8001ae	1.0000513
90	0x3f81381b	1.0095247
91	0x3f80f34a	1.0074246
92	0x3f7dc9b3	0.99135894
93	0x3f80f315	1.0074183
94	0x3f7ef770	0.9959631
95	0x3f7db85d	0.9910944
96	0x3f7b05eb	0.98055905
97	0x3f82e082	1.0224764
98	0x3f7c3114	0.9851239
99	0x3f7c3d45	0.9853099
100	0x3f82892f	1.0198115
101	0x3f836a4d	1.0266815
102	0x3f828778	1.0197592
103	0x3f8453e7	1.0338105
104	0x3f7a7ab5	0.97843486
105	0x3f7b800d	0.98242265
106	0x3f7e9669	0.9944826
107	0x3f8025d9	1.001155
108	0x3f8699e4	1.0515714
109	0x3f7fe1fe	0.9995421
110	0x3f78ae8c	0.9714134
111	0x3f764668	0.9620118
112	0x3f8548ee	1.0412881
113	0x3f7cfda6	0.98824537
114	0x3f782adb	0.9694039
115	0x3f81ba31	1.0134946
116	0x3f786c62	0.9704038
117	0x3f7e6087	0.9936604
118	0x3f7f74ee	0.99787796
119	0x3f76b2a1	0.96366316
120	0x3f7d6d11	0.9899455
121	0x3f83ae9a	1.0287659
122	0x3f77893e	0.9669379
123	0x3f7b369f	0.9813022
124	0x3f7d6682	0.9898454
125	0x3f7eec01	0.99578863
126	0x3f823337	1.017188
127	0x3f7fafc1	0.99877554

main_network.1.bias f4 [128]
0	0xbc69f616	-0.014279863
1	0x3cbb14ff	0.02283716
2	0x3c91ee84	0.017813928
3	0x3cc6f76a	0.024287898
4	0x3d0e660b	0.034765285
5	0xbc1c84b9	-0.009553128
6	0x3c9c5fe2	0.01908869
7	0x3c7a0958	0.015261017
8	0xba2e9f5e	-0.0006661321
9	0x3d0c3236	0.034227572
10	0x3b6e662a	0.0036376812
11	0xbcb8ceb4	-0.022559501
12	0x3cf20699	0.029544162
13	0xbb75b800	-0.0037493706
14	0x3c9fca3c	0.019505613
15	0xbc909789	-0.017650383
16	0xbd1a3e66	-0.037657164
17	0xbbd2cb40	-0.0064329207
18	0xbc30a312	-0.0107810665
19	0x3b6a0a50	0.0035711713
20	0x3c3edf70	0.011649951
21	0x3c9d6730	0.019214243
22	0xbc95f910	-0.018307239
23	0x3c1d882c	0.009614985
24	0x3d033076	0.032028638
25	0x3d128e9f	0.035780545
26	0x3ac6f1a3	0.0015178215
27	0x3cbde257	0.023179216
28	0xbd14e1f1	-0.036348287
29	0xbcfc0010	-0.030761749
30	0x3befb478	0.0073152147
31	0xbc19ee65	-0.009395217
32	0x3bb25079	0.005441722
33	0x3c200b6c	0.009768348
34	0xbd22cd7f	-0.039746758
35	0x3bbc884c	0.0057535525
36	0xbb6756e7	-0.00352996
37	0xbce642ef	-0.028108088
38	0xbb1cd982	-0.0023933356
39	0x3bf4521a	0.0074560763
40	0xbae60b00	-0.0017550886
41	0xbd0a9c2b	-0.03384034
42	0x3d3f1780	0.04665327
43	0xbca2b795	-0.01986293
44	0xbc5e94ee	-0.013585312
45	0xbc663fd0	-0.0140533
46	0xbc02c344	-0.007981125
47	0x3c292d0e	0.010325683
48	0x3cbb3535	0.02285252
49	0xbd29e24f	-0.04147559
50	0xbb64eccc	-0.003493118
51	0x3b5db496	0.0033829561
52	0x3c9798a8	0.01850541
53	0xbbd54aa5	-0.0065091425
54	0x3cd1a93a	0.025593389
55	0xbbc92723	-0.0061386987
56	0x3be7c89f	0.0070734764
57	0x3ca1ebbc	0.019765727
58	0x3c46278d	0.012094391
59	0x3c18056e	0.009278638
60	0xbd00f0a9	-0.03147951
61	0x3d19b785	0.037528533
62	0xbc7fc70b	-0.01561142
63	0xbcc94e55	-0.024573484
64	0xbc9a4605	-0.018832216
65	0xbc8f7817	-0.017513318
66	0xbc86c671	-0.016452046
67	0x3d04e981	0.03244925
68	0xbcf7ad15	-0.0302339
69	0x3bdeedd4	0.0068032537
70	0xbb9825d4	-0.0046431813
71	0xbcee0bb1	-0.02905831
72	0x3cf73c97	0.030180259
73	0xbb87bfc9	-0.0041427356
74	0x3c03ed70	0.008052215
75	0x3cc91072	0.024543975
76	0xbc158d50	-0.00912793
77	0xbcabca9f	-0.02097064
78	0xbbd17aa4	-0.0063927937
79	0x3b8584a0	0.004074648
80	0x3d06457c	0.03278111
81	0xbcce907e	-0.025215384
82	0xbc9ace44	-0.018897183
83	0xbadc48e1	-0.0016806388
84	0x3c96ae0b	0.018393537
85	0x3bd21e62	0.0064123133
86	0x3d119656	0.035543762
87	0x3d0098b0	0.031395614
88	0xbd26bb34	-0.040705875
89	0x3bdc57d0	0.0067243353
90	0x3c2538a2	0.010084303
91	0x3b3d8be8	0.0028922502
92	0xba805996	-0.0009792324
93	0x3c79d988	0.015249617
94	0xbbc29025	-0.0059375935
95	0xbb1772c3	-0.0023109175
96	0x3be32583	0.006931962
97	0x3c9c9e67	0.0191185
98	0x3baa07c4	0.005188914
99	0xbc53d680	-0.012929559
100	0x3cbdabdb	0.023153236
101	0x3cb48436	0.0220357
102	0xbca68efe	-0.020331856
103	0x3c8bc2b2	0.017060611
104	0xbc2339ef	-0.009962543
105	0xbb85dd9b	-0.0040852553
106	0x3b76431b	0.003757662
107	0xbc4382f0	-0.011933073
108	0x3d1a1486	0.03761723
109	0x3c086683	0.008325222
110	0xbc910a04	-0.017704971
111	0xbc1e5fca	-0.009666393
112	0x3d4b8371	0.0496859
113	0x3c33cefd	0.010974643
114	0xbcdbfca7	-0.026853872
115	0x3b9c0bc7	0.004762146
116	0xbc85760c	-0.01629164
117	0x3ca6264e	0.020281937
118	0x3c0971f1	0.008388982
119	0xbc6f2790	-0.014596835
120	0x3c5d69f7	0.0135140335
121	0x3d159643	0.036520254
122	0xbcf78b22	-0.03021771
123	0x3b969c28	0.004596252
124	0x3c50c188	0.012741454
125	0x3c337cf6	0.010955086
126	0x3d4d55b9	0.05013058
127	0xbb15a5b4	-0.0022834362

main_network.1.running_mean f4 [128]
0	0x3e6c766c	0.2309205
1	0xbe2c0088	-0.16797078
2	0x3ce04583	0.027376896
3	0x3e412217	0.1886066
4	0x3de77d9d	0.11303256
5	0x3d7477f5	0.059684712
6	0x3c59b8b0	0.013288662
7	0x3c333acf	0.010939314
8	0xbdd3329e	-0.10312389
9	0x3dea03f8	0.11426538
10	0x3df7728e	0.120823964
11	0x3db161fb	0.086612664
12	0x3b16c265	0.0023004052
13	0xbdbdc69d	-0.09266398
14	0x3cb47d63	0.022032445
15	0xbdeb78a2	-0.11497618
16	0xbd8c27a6	-0.068435
17	0x3dff49e6	0.12465267
18	0x39ed1fb5	0.00045227786
19	0x3c2d7262	0.010586353
20	0x3db5bfd4	0.08874479
21	0x3d718749	0.05896691
22	0xbe8e9e09	-0.27854946
23	0x3e3efdae	0.18651459
24	0x3e138916	0.14407763
25	0x3c8f2174	0.017472006
26	0x3d8830a7	0.06649905
27	0xbe1cff53	-0.15331773
28	0x3dc1cbcf	0.094627015
29	0x3cec8f83	0.028877025
30	0x3dff85d6	0.12476699
31	0x3d183ce7	0.037167456
32	0x3c36d001	0.01115799
33	0xbd7128c0	-0.058876753
34	0x3e61ad98	0.22038877
35	0xbc02ff13	-0.007995385
36	0xbe22e051	-0.15905882
37	0x3de4d7f9	0.11174006
38	0x3c57e6b0	0.013177559
39	0xbe13bb4d	-0.14426918
40	0xbe06827b	-0.13135712
41	0xbd8e7958	-0.06956738
42	0x3e16694b	0.14688604
43	0xbe0bcbdd	-0.13651986
44	0xbe25dee0	-0.16198301
45	0xbdd231a9	-0.10263378
46	0xbdd05dc5	-0.10174135
47	0xbd8a3432	-0.06748237
48	0x3c83d261	0.016091527
49	0xbce97d76	-0.028502207
50	0xbcfdb23b	-0.030968776
51	0x3db692e6	0.089147374
52	0x3d2e3c78	0.042538136
53	0x3d835da9	0.06414349
54	0x3b61c8ad	0.0034451887
55	0xbd7954f9	-0.060872052
56	0x3e004e4f	0.12529872
57	0xbdadea54	-0.0849196
58	0x3e1a1cc1	0.15050031
59	0x3e5bd189	0.2146665
60	0xbe68656b	-0.22694938
61	0xbd9ba294	-0.07599369
62	0xbddd8ef6	-0.10818283
63	0xbd7143e1	-0.058902625
64	0x3ddf443a	0.10901685
65	0x3db9f925	0.09080724
66	0xbd3c7a3d	-0.046015013
67	0x3d98aab5	0.07454435
68	0x3e2a563d	0.1663446
69	0xbd78ab94	-0.060710505
70	0x3d87c55e	0.06629442
71	0x3e220e8a	0.15825859
72	0xbd44ee41	-0.04807878
73	0xbcd6c290	-0.026215822
74	0xbe28c839	-0.16482629
75	0x3d34c09c	0.044129
76	0xbd5c1899	-0.053734396
77	0x3d86900f	0.06570446
78	0xbe33ba7a	-0.17551604
79	0x3e2e532b	0.17023914
80	0xbdaab7bf	-0.08335828
81	0x3e2727c9	0.1632377
82	0xbe1301e4	-0.1435619
83	0xbd490703	-0.049078953
84	0x3e1d3cb5	0.15355189
85	0x3ca6aa9d	0.020345027
86	0x3c0f8073	0.008758652
87	0xbd513410	-0.05107504
88	0x3e207fb8	0.15673721
89	0xbcaf068d	-0.021365428
90	0xbd6f2e63	-0.058393847
91	0xbdc34c33	-0.09536018
92	0x3d6cfc58	0.05785784
93	0x3e018cc0	0.12651348
94	0x3d73f7c3	0.059562456
95	0x3d01a9c7	0.031656053
96	0xbd95d4df	-0.073159926
97	0xbe124565	-0.14284284
98	0x3e06d3e1	0.13166763
99	0xbd9ee3dc	-0.077583045
100	0xbdaabd04	-0.08336833
101	0xbdae2964	-0.085039884
102	0xbe1b35b3	-0.15157203
103	0xbd43229c	-0.047640428
104	0xb9a0b37e	-0.0003065131
105	0xbd7ad23a	-0.061235644
106	0x3cea4352	0.028596554
107	0xbda2f365	-0.0795658
108	0xbbe992f5	-0.0071281143
109	0xbd5a9025	-0.053360123
110	0x3d325d9b	0.0435463
111	0xbd6bddfc	-0.057584748
112	0x3d63b9a4	0.055596963
113	0x3bb98958	0.0056621246
114	0x3c027e43	0.007964673
115	0xbd325db2	-0.043546386
116	0xbd171470	-0.036884725
117	0xbe09a8d7	-0.13443314
118	0x3d44c803	0.04804231
119	0xbe24a2f7	-0.16077791
120	0xbe1c68dc	-0.15274376
121	0xbde8f425	-0.11374692
122	0x3db289d7	0.08717697
123	0x3db76315	0.08954445
124	0xbe597e2c	-0.21239537
125	0x3e1c0113	0.15234785
126	0x3d835ce6	0.06414203
127	0x3deed58c	0.116618246

main_network.1.running_var f4 [128]
0	0x3d5374fd	0.05162524
1	0x3e064a46	0.1311427
2	0x3e58607f	0.2113056
3	0x3e0677a8	0.13131583
4	0x3f0d9ae5	0.55314475
5	0x3e2bc76e	0.16775295
6	0x3dec138c	0.11527166
7	0x3d3bdb1e	0.045863263
8	0x3e5be61a	0.21474496
9	0x3d7f448d	0.062321234
10	0x3d96b32e	0.073583946
11	0x3e89c052	0.2690454
12	0x3eeead32	0.46616513
13	0x3dabb662	0.08384396
14	0x3e1a7c2d	0.15086432
15	0x3d904c96	0.070458576
16	0x3ddc3dfe	0.107540116
17	0x3df029f9	0.11726756
18	0x3e8a5c10	0.27023363
19	0x3de1c596	0.11024015
20	0x3e17134e	0.14753458
21	0x3dc4b5ad	0.096049644
22	0x3df2c31c	0.118536204
23	0x3e28aa24	0.16471153
24	0x3e61ed5f	0.22063206
25	0x3e13fac6	0.14451131
26	0x3df66034	0.12030068
27	0x3de64f9c	0.11245653
28	0x3e2d89b3	0.1694706
29	0x3e38a165	0.18030317
30	0x3dee9aa7	0.11650591
31	0x3e934b6c	0.2876848
32	0x3e58a616	0.21157107
33	0x3e1c106d	0.15240641
34	0x3e09fb59	0.13474788
35	0x3e114b29	0.14188828
36	0x3e59c46a	0.21266332
37	0x3e97d8f2	0.29657704
38	0x3e1a533d	0.15070815
39	0x3d9a690e	0.07539569
40	0x3e3fb7e5	0.18722494
41	0x3e2e5de6	0.17028007
42	0x3df32741	0.118727215
43	0x3e456e14	0.19280273
44	0x3dce9197	0.10086363
45	0x3d13cda4	0.036084786
46	0x3e20a615	0.15688355
47	0x3e8abba5	0.27096286
48	0x3da13907	0.07872205
49	0x3e2d8ccb	0.1694824
50	0x3e84b487	0.2591898
51	0x3ddeeead	0.108853675
52	0x3e5ee8cf	0.21768497
53	0x3dcdb23c	0.10043761
54	0x3e18c47c	0.14918703
55	0x3e35b162	0.17743447
56	0x3e4ae141	0.1981249
57	0x3e290148	0.16504395
58	0x3d271cc7	0.04079893
59	0x3e2c1325	0.16804178
60	0x3deb6a1e	0.114948496
61	0x3e34ab12	0.17643383
62	0x3ddff23e	0.10934876
63	0x3e8e8c4e	0.2784142
64	0x3e7f4ff9	0.24932851
65	0x3e24bb07	0.1608697
66	0x3e047e88	0.12938893
67	0x3de7e55b	0.11323043
68	0x3e40a6bf	0.18813609
69	0x3e86ad74	0.2630421
70	0x3df680b1	0.12036265
71	0x3dd66013	0.104675435
72	0x3e573ed9	0.21020068
73	0x3e472ea5	0.19451387
74	0x3e026787	0.12734805
75	0x3e8a1117	0.26966164
76	0x3e1f70b0	0.1557033
77	0x3dd89b78	0.10576528
78	0x3e4230c1	0.1896391
79	0x3e912b2a	0.28353244
80	0x3de87230	0.113499045
81	0x3dc5f1ed	0.09665284
82	0x3ef0ba21	0.47017005
83	0x3df67340	0.12033701
84	0x3e27b526	0.16377696
85	0x3db37230	0.08762014
86	0x3e5020a4	0.20324951
87	0x3dcb8b4c	0.09938678
88	0x3d618922	0.05506242
89	0x3e002506	0.12514123
90	0x3d9ec9e3	0.077533506
91	0x3ec63cea	0.3871835
92	0x3e842f36	0.2581727
93	0x3e5b65be	0.2142553
94	0x3e5064de	0.20350978
95	0x3e708438	0.23487937
96	0x3dec069a	0.11524697
97	0x3e1d6bcc	0.15373152
98	0x3d8f45ce	0.06995736
99	0x3e54c5f9	0.20778646
100	0x3e0becd5	0.13664563
101	0x3de94520	0.11390138
102	0x3df09916	0.11747949
103	0x3da8e5ca	0.08246954
104	0x3d9a86e5	0.0754526
105	0x3e8d92bb	0.2765101
106	0x3da927d3	0.08259549
107	0x3e8e0b42	0.27742964
108	0x3d56e980	0.052468777
109	0x3d3a0b0d	0.045420695
110	0x3e0f7fb0	0.14013553
111	0x3deb904b	0.11502131
112	0x3d33efde	0.043929927
113	0x3e672438	0.2257241
114	0x3e05600d	0.13024922
115	0x3dccd61b	0.10001775
116	0x3e4cc7d8	0.1999811
117	0x3dbc24ff	0.09186744
118	0x3ee129eb	0.43977293
119	0x3e4a851a	0.19777337
120	0x3e8add53	0.27121982
121	0x3e45aa82	0.19303325
122	0x3e28d2c9	0.16486658
123	0x3e6921b9	0.2276677
124	0x3e05e3e9	0.13075222
125	0x3dc5e4c4	0.09662774
126	0x3e17e544	0.14833552
127	0x3e46bc2b	0.19407718

main_network.4.weight f4 [64, 128]
0	0xbbc7a253	-0.0060923486
1	0xbd8945e3	-0.06702783
2	0xbdc39979	-0.09550757
3	0x3d8ae304	0.06781581
4	0xbc45d065	-0.012073611
5	0xbd83b636	-0.06431238
6	0x3d1a2775	0.037635285
7	0xbb51fe86	-0.0032042577
8	0xbbe0956c	-0.00685375
9	0xbd7cbe1b	-0.061704736
10	0xbcf664cc	-0.03007736
11	0x3d84d4d5	0.06485907
12	0xbd790fd6	-0.060806118
13	0xbd8408dc	-0.06447002
14	0x3c491ec0	0.012275398
15	0x3d169b8a	0.036769427
16	0x3d98c562	0.07459523
17	0xbdb174fe	-0.086648926
18	0xbdb3a0d8	-0.08770913
19	0xbb280407	-0.0025637166
20	0xbd82212c	-0.06353983
21	0xbd0cf271	-0.034410898
22	0x3d7a422f	0.061098274
23	0xbdd31f33	-0.10308685
24	0x3c8c9cf5	0.017164687
25	0xbd2d36a8	-0.042288452
26	0xbd1590e7	-0.036515143
27	0x3b1d1a90	0.0023972131
28	0x3c994ea5	0.018714258
29	0x3d93b723	0.07212665
30	0x3bc3fcfa	0.005981085
31	0xbdb560c7	-0.088563494
32	0x3d24368e	0.04009109
33	0x3cc97c22	0.024595324
34	0x3ce3aff2	0.027793858
35	0xbc9060ae	-0.017624225
36	0xbd5a225e	-0.05325543
37	0x3c6d2e93	0.014476436
38	0xbd3eed76	-0.04661318
39	0x3d1dc917	0.038521852
40	0xbc8df403	-0.017328268
41	0x3d322d8c	0.043500468
42	0x3dbeee6f	0.09322821
43	0xbdb98e7a	-0.090603784
44	0x3cbde88b	0.023182174
45	0x3d8b036e	0.067877635
46	0x3d6a8762	0.057258017
47	0x3db96381	0.09052182
48	0x3d09e391	0.03366429
49	0x3d7f9ba9	0.06240431
50	0x3c75908e	0.014988078
51	0xbdc1b128	-0.09457618
52	0xbba55057	-0.0050449776
53	0xbb0a5fc1	-0.0021114203
54	0xbcae98d8	-0.021313116
55	0xbb8842b3	-0.004158342
56	0xbcb62aee	-0.022237267
57	0x3dbfb598	0.09360808
58	0x3d0dc153	0.034608196
59	0x3d12a792	0.03580434
60	0x3d7f2a6d	0.06229632
61	0x3dcbb650	0.09946883
62	0xbd3bf656	-0.04588922
63	0x3db7d36b	0.08975872
64	0xbd39ab26	-0.045329235
65	0x3c8d1b52	0.017224941
66	0xbd888198	-0.06665343
67	0x3cfdbb8b	0.030973217
68	0x3c03bc79	0.008040541
69	0x3d454ada	0.048167087
70	0x3d07dabd	0.03316759
71	0xbd2913cc	-0.041278645
72	0xbc0c69d8	-0.008570157
73	0xbba8084e	-0.005127943
74	0x3d85983a	0.065231755
75	0xbd21742e	-0.03941744
76	0x3d6cfb77	0.057857003
77	0x3d13527f	0.035967346
78	0xbd7c0547	-0.06152847
79	0xbd4a1389	-0.049335036
80	0xbd856165	-0.06512717
81	0xbd7e80d2	-0.06213457
82	0x3d4bd4fb	0.04976366
83	0xbbc8132f	-0.0061058025
84	0xbd92465c	-0.07142326
85	0x3c8e816f	0.017395703
86	0xbba4980e	-0.005023009
87	0x3dafd104	0.085847884
88	0x3d916bb9	0.071006246
89	0x3ac4c330	0.0015011784
90	0xbbead757	-0.007166784
91	0xbd5ad90c	-0.05342965
92	0x3d6213af	0.055194553
93	0x3d84362e	0.064556465
94	0xbdcbe027	-0.09954863
95	0xbdb4f17e	-0.088351235
96	0xbd9b96d6	-0.07597129
97	0x3da1eaa7	0.079060845
98	0x3ac66708	0.0015136907
99	0xbd3ee6fc	-0.046607003
100	0x3d484886	0.04889729
101	0xb95d1306	-0.00021083289
102	0x3d258c04	0.040416732
103	0xbcfec603	-0.031100279
104	0xbdb7f59e	-0.08982395
105	0x3dc56e0a	0.09640129
106	0x3d0d2fe5	0.034469504
107	0xbd8832b7	-0.06650298
108	0x3b920df7	0.004457231
109	0x3d76f399	0.060290907
110	0xbdb152dd	-0.08658383
111	0xbca49742	-0.020091657
112	0x3cb170ad	0.021660173
113	0xbb26ed5d	-0.002547107
114	0xbdbd662e	-0.09248005
115	0xbd840013	-0.06445327
116	0xbd13f791	-0.03612477
117	0xbd3b0fde	-0.04566943
118	0x3c9de538	0.01927434
119	0x3c91ebc1	0.017812612
120	0xbcec57b5	-0.028850416
121	0xbd29a188	-0.041413814
122	0xbce94ef2	-0.028480027
123	0x3d499b25	0.049220223
124	0xbd8d247f	-0.06891727
125	0xbd979e75	-0.0740327
126	0x3ce0eb8a	0.027456064
127	0xbdadffca	-0.084960535
128	0x3d8f56e7	0.06998997
129	0x3d64d1b6	0.05586406
130	0xbd86d548	-0.06583649
131	0xbd6553fd	-0.0559883
132	0xbd6bb9b2	-0.05755014
133	0x3d2dac25	0.042400498
134	0xbcf30ed6	-0.02967016
135	0x3d8784b9	0.06617112
136	0x3cd125c4	0.025530703
137	0x3d47af26	0.04875102
138	0xbd2a14b1	-0.04152364
139	0x3c94aa8f	0.018147735
140	0xbc59b250	-0.013287142
141	0x3d8a4433	0.06751289
142	0xbd9f4cb6	-0.07778303
143	0xbd133850	-0.035942376
144	0xbd153fbb	-0.03643773
145	0x3da39270	0.07986915
146	0x3d8924d3	0.06696477
147	0x3d50c679	0.05097053
148	0xbd879f81	-0.0662222
149	0xbca5349d	-0.02016669
150	0xbda99431	-0.082802184
151	0x3c180924	0.009279523
152	0xbdb0ae7b	-0.086270295
153	0xbcd7a130	-0.026321977
154	0x3c8b9c66	0.01704235
155	0xbca99155	-0.020699183
156	0x3bc38ca4	0.0059676934
157	0x3d36dd43	0.044644605
158	0xbc36ec9f	-0.011164813
159	0xbd0edba5	-0.034877438
160	0x3d1f5813	0.038902353
161	0x3d046cb8	0.032330245
162	0x3c700ecf	0.014651968
163	0x3d15d600	0.03658104
164	0x3d41c4b3	0.047306728
165	0x3d72460b	0.05914883
166	0x3d260d4c	0.040540025
167	0x3d12ae11	0.035810534
168	0xbdbe7ca2	-0.093011156
169	0xbdda7154	-0.10666147
170	0x3d8b9266	0.06815033
171	0xbd878dea	-0.06618865
172	0x3d5f8053	0.05456574
173	0xbbe33cfa	-0.006934759
174	0x3d56b9ef	0.052423414
175	0xbcfb7fa7	-0.030700518
176	0xbc539ddb	-0.012916054
177	0x3c810890	0.015751153
178	0xbd62013a	-0.05517695
179	0x3dbd9e21	0.09258676
180	0x3d8ea2b1	0.06964625
181	0x3d1b91b0	0.037980735
182	0xbc4363e6	-0.011925673
183	0xbdbc39cc	-0.091907114
184	0xbd329e10	-0.04360777
185	0xbdcdb691	-0.100445874
186	0x3d934067	0.07190018
187	0x3d46afd0	0.04850751
188	0xbb46bcd7	-0.003032496
189	0xbd91902f	-0.07107579
190	0xbdafaf9b	-0.08578416
191	0x3d7c27c7	0.061561372
192	0xbbaf44be	-0.005348771
193	0xbcc7199f	-0.02430421
194	0xbbced303	-0.0063117757
195	0x3d6f7502	0.058461197
196	0x3d48559a	0.04890976
197	0xbc8fbe4b	-0.017546793
198	0xbc53ac45	-0.01291949
199	0x3d221081	0.03956652
200	0xbd21fcd2	-0.03954775
201	0xbdcd3cd8	-0.10021371
202	0x3cc8f4cf	0.024530796
203	0x3c25a19f	0.010109334
204	0x3c7bd47f	0.015370487
205	0x3d61267f	0.054968353
206	0x3d9cb016	0.07650773
207	0x3d2f262e	0.04276102
208	0x3bac0976	0.0052501513
209	0x3d4f9d3e	0.050687067
210	0xbb3488a7	-0.0027547271
211	0x3c15ef1d	0.009151247
212	0x3d8c761a	0.068584636
213	0xbc105509	-0.008809336
214	0xba858884	-0.001018778
215	0xbd7859bf	-0.060632464
216	0x3cb7f60c	0.022456191
217	0xbd98e8b3	-0.07466259
218	0x3d5e7af7	0.054316487
219	0x3c949584	0.0181377
220	0x3db12ca0	0.0865109
221	0xbc258144	-0.01010162
222	0xbc99e072	-0.018783782
223	0xbd25b70e	-0.040457778
224	0xbbebb28a	-0.0071929144
225	0x3da57ac3	0.080800556
226	0xbd0b19c3	-0.033960115
227	0x3cc2aa10	0.023762733
228	0xbd85e464	-0.06537703
229	0x3aece200	0.0018072724
230	0x3d40d695	0.04707964
231	0xbdb1a0b8	-0.08673233
232	0x3de0ecfd	0.10982702
233	0xbdb19b17	-0.08672159
234	0xbc2426ee	-0.010019047
235	0xb92aeb1a	-0.00016300046
236	0x3d64b141	0.055833105
237	0xbd93dc45	-0.072197475
238	0x3de73a97	0.11290472
239	0x3d38f123	0.04515184
240	0xbcf6b268	-0.030114368
241	0x3c270597	0.010194204
242	0xbda5eeb9	-0.08102173
243	0x3d3262aa	0.043551125
244	0xbc9f1802	-0.019420628
245	0x3d309a7f	0.04311609
246	0xbcf84b8b	-0.03030946
247	0xbce676de	-0.028132852
248	0x3cd68e56	0.026190918
249	0xbdcba071	-0.09942711
250	0xbd035fdf	-0.03207385
251	0xbc889f3f	-0.016677497
252	0x3ca47432	0.020074937
253	0x3cc33864	0.0238306
254	0x3d86a7bd	0.06574962
255	0x3d35b5f8	0.044362992

main_network.4.bias f4 [64]
0	0x3591b195	1.0855025e-06
1	0x366d50a4	3.536269e-06
2	0x3721f543	9.653452e-06
3	0xb6353fe2	-2.7008286e-06
4	0xb6c68218	-5.9160047e-06
5	0x3735331a	1.0800339e-05
6	0x37c51fe3	2.3499078e-05
7	0xb5bec6ec	-1.4213997e-06
8	0x3693a5e6	4.4002545e-06
9	0xb751786f	-1.2485411e-05
10	0xb6cab128	-6.040693e-06
11	0x362d3719	2.581108e-06
12	0x378f8e40	1.7113169e-05
13	0x367d98c6	3.7788864e-06
14	0x377c3688	1.5033067e-05
15	0x34e8c627	4.3357542e-07
16	0x37195bd4	9.140891e-06
17	0xb5cc606d	-1.5227248e-06
18	0xb755bb57	-1.2739408e-05
19	0x368b5d15	4.153359e-06
20	0x36ff9567	7.616985e-06
21	0x36b4d6c1	5.3894187e-06
22	0xb54e83d1	-7.69328e-07
23	0x36f9a94c	7.440487e-06
24	0xb71eef61	-9.473269e-06
25	0x370265b7	7.772286e-06
26	0x374b0a84	1.2102191e-05
27	0x379ff335	1.906753e-05
28	0xb6ab17bb	-5.0989597e-06
29	0x353a0131	6.9292133e-07
30	0xb6a53c75	-4.9244213e-06
31	0x379bb0e3	1.855981e-05
32	0xb88e9c16	-6.800161e-05
33	0x37ac28be	2.052297e-05
34	0x36d7680a	6.419611e-06
35	0x374da1ed	1.22566535e-05
36	0xb89f508f	-7.596716e-05
37	0xb5ef5b0b	-1.7833385e-06
38	0xb71d1b92	-9.364348e-06
39	0xb46aab1e	-2.18552e-07
40	0xb78eef29	-1.7039087e-05
41	0xb7395557	-1.1046729e-05
42	0xb81d2084	-3.7462e-05
43	0xb6907851	-4.305541e-06
44	0x373069e5	1.0515073e-05
45	0xb594bfe7	-1.108271e-06
46	0x37921d01	1.7418062e-05
47	0x36dea538	6.6353496e-06
48	0xb7959f67	-1.7836412e-05
49	0x361b6141	2.315341e-06
50	0x3702e90c	7.802864e-06
51	0x36f0c10d	7.1750314e-06
52	0xb71781e0	-9.03054e-06
53	0x364d3747	3.0579556e-06
54	0xb726f64e	-9.951718e-06
55	0x36532d3e	3.1467785e-06
56	0x386db7a7	5.6676243e-05
57	0xb75bae45	-1.30939925e-05
58	0xb778151d	-1.4786868e-05
59	0x36ef6cd2	7.1354234e-06
60	0x35097054	5.1199936e-07
61	0x379770e1	1.8053166e-05
62	0xb80cbcbd	-3.3554377e-05
63	0x3836de07	4.359896e-05
