MLP/best_model_gpt2.pth (torch, 120713 bytes, 47 tensors)

model_embedding.weight f4 [32, 12]
0.0056972657 0.26071882 -0.16300428 0.09124595 0.06635977 -6.076764e-11 0.09709918 -0.034336153
0.056662906 -0.12517838 -0.039306663 -0.17580238 0.12439791 0.01780945 -0.004150906 -0.06577011
0.12194614 0.0022982466 0.20472129 0.13622616 0.06710908 -0.21764758 -0.19131926 -0.27552015
0.13602807 0.09258563 -0.3065188 -0.07828548 -0.1218699 -3.6266417e-09 -0.25386366 0.2924616
0.13190804 0.08635671 0.084039144 0.10173879 0.20915197 0.005279804 0.079632446 -0.22614437
-0.006194024 0.033780914 -0.074657686 0.2666327 0.054166414 0.18307805 0.21395825 0.12779015
0.029732509 0.23528124 0.21087354 -0.12643793 0.28951797 -6.3361226e-06 0.20989709 -0.22913112
0.25320652 -0.17376684 0.14005119 0.2753278 -0.14099708 -0.15904874 0.14564836 -0.055116255
0.2674809 0.008678287 -0.21333732 -0.06529579 -0.084937066 -0.15670289 0.14638144 -0.25679424
0.18589528 0.16985294 -0.2875208 0.14258671 -0.19450589 -3.751011e-05 -0.16283779 0.07719418
0.23953283 -0.032255374 0.16219588 0.14396212 -0.22525576 -0.2025477 0.14843471 -0.21751207
0.07401584 0.008691706 -0.0063837185 0.1882578 0.21809243 -0.114655614 0.19926333 0.0005442599
-0.24540958 0.17815186 -0.09126362 0.2382535 0.17034951 -3.3845922e-09 0.12485921 0.22017035
-0.032579176 0.27428308 -0.19126743 -0.1673344 0.15378682 0.2784768 0.21188931 -0.24038096
0.08844257 -0.022011295 0.12778129 0.13329202 -0.20325905 -0.051770475 -0.14845169 -0.22725195
-0.2745488 0.17295377 0.12179003 -0.3183154 0.06227278 1.0565228e-05 0.18214051 0.1656111
0.05642965 0.07964305 -0.24100196 0.14295541 0.01321475 -0.0654582 -0.08135294 -0.06584853
-0.11110138 3.5679957e-06 -0.2660985 -0.011511149 -0.010194782 0.1812877 0.26190382 -0.101869114
0.036496602 0.10383705 0.20041235 0.07271681 -0.12366584 -0.00831102 -0.1908189 -0.25446823
0.080625966 -0.19265972 -0.07089278 -0.019382033 0.15476763 -0.16534773 0.10494909 -0.08268628
-0.23546866 0.00055112736 0.035835754 0.0340198 0.007338553 0.22743078 -0.020687914 0.1625663
-0.04168746 0.016032236 -0.31000075 -0.19625868 -0.29597813 2.4423336e-05 0.09351893 0.096314475
0.06808266 -0.20665887 0.028282972 -0.25446537 -0.12954387 -0.068377815 0.17132343 -0.1404814
0.15450792 3.8556034e-05 -0.19728254 0.19112533 -0.2554853 0.06071691 0.09031093 0.1345473
-0.097229786 0.2095818 -0.1343691 -0.22738746 0.21366104 -0.017141823 0.1335621 0.12453444
0.18889803 -0.21076772 0.114017226 0.1411905 -0.25836375 0.18635404 -0.2515753 0.033422563
-0.2565594 -0.019023927 0.18623626 0.27828857 -0.23097709 0.0013173277 0.26528984 0.021520322
-0.2672898 0.24663606 -0.015521844 0.2266394 -0.2186817 0.03931841 -0.1001832 0.046714015
0.043716893 0.07016102 -0.093230516 -0.17947257 -0.12881048 -0.20825538 0.04367227 -0.23690735
-0.2092963 2.932069e-09 0.04124015 0.020142324 -0.123201616 -0.17702144 0.05172572 0.007225149
0.07184318 0.24144153 0.32856658 -0.008913899 0.33689553 -0.031402744 -0.069274716 0.11209579
0.0027663142 0.091065176 -0.1868229 -0.28452945 -0.17484707 0.04023637 0.06142894 -0.14919397
00000000: 21b0 ba3b f07c 853e 98ea 26be 28df ba3d
00000010: a2e7 873d 24a1 85ae efdb c63d 11a4 0cbd
00000020: 5d17 683d c32e 00be 0600 21bd 8a05 34be
00000030: 55c4 fe3d 20e5 913c 5304 88bb 7bb2 86bd
00000040: e6be f93d 2e9e 163b 75a2 513e df7e 0b3e
00000050: 7c70 893d 02df 5ebe 32e9 43be fa10 8dbe
00000060: f14a 0b3e 899d bd3d 08f0 9cbe 2354 a0bd
00000070: ed96 f9bd 8e38 79b1 6bfa 81be 87bd 953e
00000080: e712 073e c9db b03d b71c ac3d 6d5c d03d
00000090: ef2b 563e 3502 ad3b 5616 a33d 6492 67be
000000a0: 3df7 cabb db5d 0a3d 21e6 98bd 1584 883e
000000b0: 9add 5d3d d078 3b3e df17 5b3e 6cdb 023e
000000c0: 9791 f33c 91ed 703e 3cef 573e f278 01be
000000d0: b33b 943e e19a d4b6 43ef 563e 59a1 6abe
000000e0: 49a4 813e efef 31be 9469 0f3e c4f7 8c3e
000000f0: 8a61 10be acdd 22be d824 153e 95c1 61bd
00000100: 42f3 883e 602f 0e3c 1975 5abe cdb9 85bd
00000110: 7cf3 adbd b976 20be 04e5 153e 897a 83be
00000120: 555b 3e3e eeed 2d3e ed35 93be 4002 123e
00000130: 8d2c 47be 2d54 1db8 f3be 26be fb17 9e3d
00000140: 1848 753e 361e 04bd ad16 263e ce6a 133e
00000150: 72a9 66be aa68 4fbe 45ff 173e 7cbb 5ebe
00000160: 9e95 973d a867 0e3c 832e d1bb a7c6 403e
00000170: 9f53 5f3e 90d0 eabd b00b 4c3e aaac 0e3a
00000180: a64c 7bbe 716d 363e 6ce8 babd baf8 733e
00000190: 1a70 2e3e 6096 68b1 2fb6 ff3d 5674 613e
000001a0: be71 05bd d56e 8c3e 9cdb 43be b559 2bbe
000001b0: 4b7a 1d3e 8394 8e3e 83f9 583e 6d26 76be
000001c0: 6121 b53d 0851 b4bc 19d9 023e b47d 083e
000001d0: 2423 50be 470d 54bd b803 18be bcb4 68be
000001e0: a991 8cbe cb1a 313e 0d6d f93d 3cfa a2be
000001f0: be11 7f3d 4f41 3137 0b83 3a3e f595 293e
00000200: c722 673d e51b a33d 38c9 76be e762 123e
00000210: ae82 583c f30e 86bd 5f9c a6bd 98db 86bd
00000220: 1f89 e3bd b371 6f36 103e 88be 4299 3cbc
00000230: 0408 27bc 7ca3 393e 4218 863e c1a0 d0bd
00000240: 767d 153d 85a8 d43d e538 4d3e 8dec 943d
00000250: 8444 fdbd f22a 08bc 0866 43be a949 82be
00000260: 3a1f a53d 9748 45be 3c30 91bd 12c7 9ebc
00000270: 687b 1e3e ea50 29be 8cef d63d 6d57 a9bd
00000280: b21e 71be 8879 103a 83c8 123d 5958 0b3d
00000290: 3f78 f03b 9de3 683e b379 a9bc c877 263e
000002a0: 78c0 2abd 0956 833c 6bb8 9ebe 09f8 48be
000002b0: 728a 97be b7e0 cc37 da86 bf3d 8640 c53d
000002c0: ec6e 8b3d 629e 53be b1b1 e73c 4949 82be
000002d0: 26a7 04be ab09 8cbd 696f 2f3e 5bda 0fbe
000002e0: 5337 1e3e 3ab7 2138 6f04 4abe 5cb6 433e
000002f0: f8ce 82be 4bb2 783d f0f4 b83d c4c6 093e
00000300: 6920 c7bd 9d9c 563e 0e98 09be 42d8 68be
00000310: f6c9 5a3e 026d 8cbc 81c4 083e ea0b ff3d
00000320: 7c6e 413e 7ed3 57be dd81 e93d 3e94 103e
00000330: 4148 84be 98d3 3e3e 7ace 80be 19e6 083d
00000340: c15b 83be 11d8 9bbc b8b4 3e3e d77b 8e3e
00000350: 4285 6cbe 2faa ac3a 12d4 873e 634b b03c
00000360: 35da 88be 2a8e 7c3e 554f 7ebc 2914 683e
00000370: 18ee 5fbe 570c 213d d92c cdbd 3257 3f3d
00000380: 7c10 333d 95b0 8f3d a4ef bebd a8c7 37be
00000390: e5e6 03be e640 55be b2e1 323d d797 72be
000003a0: c551 56be 817d 4931 6eeb 283d 8401 a53c
000003b0: 2151 fcbd 1c45 35be 59de 533d f1c0 ec3b
000003c0: 8422 933d 733c 773e e139 a83e 9a0b 12bc
000003d0: 927d ac3e 2aa0 00bd e7df 8dbd 7a92 e53d
000003e0: 0d4b 353b 6180 ba3d 814e 3fbe d8ad 91be
000003f0: 1c0b 33be e4ce 243d ea9c 7b3d 4ec6 18be

model_embedding.bias f4 [32]
2.6919955e-05 -4.1623192e-05 3.826446e-05 0.026593404 -1.8943805e-05 6.11971e-05 2.3012572e-05 1.2259993e-05
1.3457213e-05 -1.1190913e-05 -0.011355236 -9.365899e-06 -0.0073019736 1.5026324e-06 0.014895442 3.7953637e-06
-0.008040511 -0.014089398 2.2904243e-05 0.001202659 2.2673168e-05 -3.9748525e-06 0.030291138 1.6622457e-07
0.015770212 -0.035632465 -3.9802126e-06 -6.16518e-06 4.561888e-05 -0.017912421 -2.9148656e-05 -4.8528955e-06
00000000: 2ad2 e137 9094 2eb8 277e 2038 69da d93c
00000010: 83e9 9eb7 f156 8038 1f0b c137 45b0 4d37
00000020: 4ac6 6137 9bc0 3bb7 500b 3abc 3b22 1db7
00000030: 6545 efbb 0eae c935 030c 743c dab3 7e36
00000040: 59bc 03bc 38d7 66bc 7d22 c037 8aa2 9d3a
00000050: 4232 be37 b95f 85b6 1f25 f83c 767b 3234
00000060: 8830 813c 59f3 11bd c48d 85b6 7ede ceb6
00000070: e656 3f38 12bd 92bc 4384 f4b7 0ed6 a2b6

dataset_embedding.weight f4 [16, 3]
-0.48701268 -0.15323125 0.19569002 -0.52095354 0.13326275 -0.3524698 -0.3228048 -0.17283307
-0.35538566 -0.41681015 -0.25320646 -0.13841182 0.55890834 -0.10169814 -0.35025868 0.055737395
-0.2513897 0.41682675 0.17512709 0.32209334 0.012921597 0.44675973 0.1189786 -0.18308975
0.53949654 0.079676196 0.22029185 -0.42472503 -0.14166082 -0.09501018 0.23871386 -0.20394766
0.3584186 -0.15498206 0.16686231 0.31870794 0.029766861 -0.17505448 0.49861205 -0.51788056
0.32812274 -0.5250097 0.44512302 0.24182823 0.33484077 -0.12742664 0.038309988 0.53057563
00000000: ba59 f9be a7e8 1cbe f762 483e 365d 05bf
00000010: 0876 083e ec76 b4be ac46 a5be 27fb 30be
00000020: 1cf5 b5be 2468 d5be 47a4 81be d4bb 0dbe
00000030: 9e14 0f3f 1d47 d0bd 1b55 b3be e54c 643d
00000040: 27b6 80be 516a d53e 8454 333e 6be9 a43e
00000050: 1bb5 533c b1bd e43e 0dab f33d e17b 3bbe
00000060: 721c 0a3f 462d a33d 3094 613e 8f75 d9be
00000070: 890f 11be b294 c2bd 6871 743e a8d7 50be
00000080: a582 b73e 9eb3 1ebe f4dd 2a3e b02d a33e
00000090: a2d9 f33c 7b41 33be 144a ff3e d293 04bf
000000a0: b4ff a73e 0967 06bf 2ae7 e33e d2a1 773e
000000b0: 4070 ab3e 217c 02be efea 1c3d ced3 073f

dataset_embedding.bias f4 [16]
-0.11162035 1.4625425e-05 -0.0047315587 2.4270103e-06 -0.087546386 0.009883849 0.00017594075 -0.14541869
0.00031047416 0.0008267709 -0.22615305 -0.0067869504 0.25174555 0.12567897 0.17743756 0.081103235
00000000: 3699 e4bd b95f 7537 310b 9bbb b8df 2236
00000010: 854b b3bd deef 213c bc7c 3839 a3e8 14be
00000020: 23c7 a239 a8bb 583a aa94 67be 1165 debb
00000030: cbe4 803e fdb1 003e 31b2 353e 7419 a63d

tensor_network.0.weight f4 [16, 1]
-0.06050839 0.4032525 0.0846795 0.28060055 -0.1662857 0.24610911 0.14634751 -0.47891077
0.85418147 -0.014065207 0.25913605 -0.056986064 -0.18901558 -0.26739717 0.6128338 -0.75778073
00000000: a5d7 77bd 1d77 ce3e 726c ad3d e0aa 8f3e
00000010: cc46 2abe 0704 7c3e 1fdc 153e cb33 f5be
00000020: a3ab 5a3f c171 66bc 7bad 843e 386a 69bd
00000030: 4d8d 41be 48e8 88be ade2 1c3f ebfd 41bf

tensor_network.0.bias f4 [16]
0.17653093 2.0173587e-05 0.46244988 -4.623034e-05 -0.4972299 0.48671696 -0.74126494 -0.5937866
-0.74300426 -0.004451279 -0.85925853 -0.020435251 0.07873072 0.16903326 0.5726075 0.830389
00000000: 86c4 343e 733a a937 3bc6 ec3e 73e7 41b8
00000010: eb94 febe f732 f93e 8ac3 3dbf 6602 18bf
00000020: 8735 3ebf 09dc 91bb 5ef8 5bbf d467 a7bc
00000030: 923d a13d 0e17 2d3e 6896 123f 6094 543f

tensor_network.2.weight f4 [16]
1.0356011 1.0032351 1.0105882 1.0193646 0.6509807 1.0110735 0.9694581 0.6509807
0.9897186 0.6509807 1.0123137 0.6509807 0.6509807 0.6509807 1.029 1.0282975
00000000: 948e 843f 026a 803f f45a 813f 8a7a 823f
00000010: aca6 263f db6a 813f 682e 783f aca6 263f
00000020: 335e 7d3f aca6 263f 7f93 813f aca6 263f
00000030: aca6 263f aca6 263f 46b6 833f 419f 833f

tensor_network.2.bias f4 [16]
2.5215808e-05 -1.6735265e-05 -6.271217e-05 3.371565e-05 -5.4340945e-11 4.321272e-05 4.4881526e-05 -1.08980054e-10
5.082314e-05 2.104538e-10 0.00010129575 1.3243227e-10 6.543603e-11 3.5433666e-11 4.725597e-05 -6.9265006e-06
00000000: 8986 d337 b562 8cb7 5784 83b8 e769 0d38
00000010: 77fe 6eae 4e3f 3538 2c3f 3c38 51a6 efae
00000020: ee2a 5538 7a65 672f be6e d438 5f9c 112f
00000030: 36e5 8f2e c3d6 1b2e b634 4638 306a e8b6

tensor_network.2.running_mean f4 [16]
0.04539607 1.2601078 0.74049664 0.8822374 0.0 1.2700384 0.031356014 0.0
1.8777678 0.0 0.17852302 0.0 0.0 0.0 2.4858496 0.018076688
00000000: 3bf1 393d 364b a13f 3091 3d3f 4fda 613f
00000010: 0000 0000 9e90 a23f 2a6f 003d 0000 0000
00000020: b25a f03f 0000 0000 bdce 363e 0000 0000
00000030: 0000 0000 0000 0000 2918 1f40 9015 943c

tensor_network.2.running_var f4 [16]
0.0020916031 0.6066952 0.027973508 0.2975236 2.6860817e-18 0.22996575 0.0067471056 2.6860817e-18
2.6066272 2.6860817e-18 0.09135565 2.6860817e-18 2.6860817e-18 2.6860817e-18 1.3867276 0.0032629105
00000000: 4713 093b 6050 1b3f b328 e53c 0355 983e
00000010: a632 4622 247c 6b3e d316 dd3b a632 4622
00000020: fbd2 2640 a632 4622 ac18 bb3d a632 4622
00000030: a632 4622 a632 4622 4a80 b13f 8ed6 553b

worker_network.0.weight f4 [16, 1]
-0.043663964 0.36531743 -0.22765969 -0.06808419 0.27490383 -0.15620773 0.047778346 0.5564117
0.45957133 -0.58131236 1.7235666e-11 0.08155286 1.9316115e-10 -0.290542 0.20026483 0.17916445
00000000: fcd8 32bd e30a bb3e 9f1f 69be b96f 8bbd
00000010: 32c0 8c3e ebf4 1fbe 3ab3 433d ff70 0e3f
00000020: ef4c eb3e e3d0 14bf 459b 972d 3005 a73d
00000030: 0862 542f ecc1 94be 3912 4d3e e376 373e

worker_network.0.bias f4 [16]
-0.35288048 0.60918987 0.094990276 -0.49453798 0.010361366 -0.6033907 0.09621437 -5.5384386e-05
-0.14153212 0.47261086 -0.23822443 0.6415615 -0.51116693 -0.10188851 -0.45709115 -0.042307124
00000000: c0ac b4be def3 1b3f 438a c23d 1534 fdbe
00000010: b8c2 293c d077 1abf 0a0c c53d 884c 68b8
00000020: cced 10be 0dfa f13e 1bf1 73be 603d 243f
00000030: d6db 02bf ecaa d0bd da07 eabe 3c4a 2dbd

worker_network.2.weight f4 [16]
0.6509807 1.000332 0.6509807 0.6509807 1.010137 0.6509807 0.98254824 0.9600277
1.0121648 0.6509807 0.6509807 0.997136 0.6509807 0.6509807 0.9575826 1.0116367
00000000: aca6 263f e10a 803f aca6 263f aca6 263f
00000010: 2b4c 813f aca6 263f 4888 7b3f 60c4 753f
00000020: 9e8e 813f aca6 263f aca6 263f 4e44 7f3f
00000030: aca6 263f aca6 263f 2224 753f 507d 813f

worker_network.2.bias f4 [16]
7.591349e-11 6.207707e-05 7.699695e-11 6.1239756e-11 8.343653e-06 -1.0437483e-11 -3.597145e-06 2.8798942e-05
-1.8897528e-05 -9.949981e-11 -4.9604848e-11 -3.576264e-05 9.372058e-11 -1.1125525e-10 5.631188e-05 3.9095085e-05
00000000: 7fef a62e 602f 8238 6e51 a92e ebaa 862e
00000010: b7fb 0b37 3f9e 37ad 7b66 71b6 4295 f137
00000020: 2286 9eb7 6acd daae 182a 5aae d8ff 15b8
00000030: ff17 ce2e 23a7 f4ae 6c30 6c38 07fa 2338

worker_network.2.running_mean f4 [16]
0.0 2.3406987 0.0 0.0 1.3143846 0.0 0.32507673 2.6103446
2.0141678 0.0 0.0 1.0315281 0.0 0.0 0.46819663 0.81490636
00000000: 0000 0000 02ce 1540 0000 0000 0000 0000
00000010: c13d a83f 0000 0000 7570 a63e e30f 2740
00000020: 20e8 0040 0000 0000 0000 0000 1d09 843f
00000030: 0000 0000 0000 0000 78b7 ef3e b49d 503f

worker_network.2.running_var f4 [16]
2.6860817e-18 0.8671275 2.6860817e-18 2.6860817e-18 0.4955381 2.6860817e-18 0.014681097 1.9886482
1.363125 2.6860817e-18 2.6860817e-18 0.042572822 2.6860817e-18 2.6860817e-18 0.21633875 0.21628521
00000000: a632 4622 11fc 5d3f a632 4622 a632 4622
00000010: 2bb7 fd3e a632 4622 fc88 703c 068c fe3f
00000020: e17a ae3f a632 4622 a632 4622 d760 2e3d
00000030: a632 4622 a632 4622 e887 5d3e df79 5d3e

batch_network.0.weight f4 [16, 1]
-0.37341157 -1.2008486e-09 0.3901739 0.109174356 -0.3124522 -0.07189866 -0.18450648 0.116908975
-0.090740934 0.2247078 -0.01253223 -0.28016126 -0.1526052 0.09391322 3.9210756e-11 0.048487972
00000000: cd2f bfbe 1b0b a5b0 e0c4 c73e ce96 df3d
00000010: bcf9 9fbe 9b3f 93bd 44ef 3cbe f96d ef3d
00000020: 62d6 b9bd cd19 663e fb53 4dbc 4c71 8fbe
00000030: 8a44 1cbe 9355 c03d 6373 2c2e 539b 463d

batch_network.0.bias f4 [16]
0.0002053901 -0.15030837 0.26156384 0.18161486 0.68439007 -0.22600324 0.37823936 -0.32974726
-0.2724914 0.10118736 -0.089197986 0.37446997 0.00016077969 0.0819656 -0.5997085 -0.555473
00000000: fc5d 5739 70ea 19be b2eb 853e 3ff9 393e
00000010: 3034 2f3f 656d 67be 97a8 c13e a2d4 a8be
00000020: fe83 8bbe 523b cf3d 6fad b6bd 87ba bf3e
00000030: f896 2839 95dd a73d 7f86 19bf 7b33 0ebf

batch_network.2.weight f4 [16]
0.6509807 0.6509807 1.0067371 0.9997823 0.87371486 0.6509807 0.6509807 1.0115792
0.6509807 1.01753 0.6509807 0.6509807 0.6509807 0.96468955 0.6509807 1.0434473
00000000: aca6 263f aca6 263f c3dc 803f bcf1 7f3f
00000010: c7ab 5f3f aca6 263f aca6 263f 6d7b 813f
00000020: aca6 263f 6c3e 823f aca6 263f aca6 263f
00000030: aca6 263f e5f5 763f aca6 263f ae8f 853f

batch_network.2.bias f4 [16]
1.1574587e-10 9.1112305e-11 -6.6451785e-06 -8.425516e-05 -1.0932347e-05 -2.5017032e-11 -7.218876e-11 -1.6419492e-05
-1.2623269e-10 -8.9099805e-05 -1.1364604e-12 1.8062143e-10 -5.940425e-11 -7.4152325e-05 4.496243e-11 6.2290266e-05
00000000: 2287 fe2e ab5b c82e a6f9 deb6 25b2 b0b8
00000010: 136a 37b7 590d dcad a9be 9eae 97bc 89b7
00000020: 58cb 0aaf 18db bab8 4df1 9fab 6a98 462f
00000030: 9fa1 82ae 3a82 9bb8 32bf 452e d5a1 8238

batch_network.2.running_mean f4 [16]
0.0 0.0 3.127796 0.982956 0.00059589866 0.0 0.0 0.49510118
0.0 1.767382 0.0 0.0 0.0 0.7735557 0.0 0.00013684154
00000000: 0000 0000 0000 0000 cf2d 4840 01a3 7b3f
00000010: 1536 1c3a 0000 0000 0000 0000 e77d fd3e
00000020: 0000 0000 9339 e23f 0000 0000 0000 0000
00000030: 0000 0000 bf07 463f 0000 0000 1f7d 0f39

batch_network.2.running_var f4 [16]
2.6860817e-18 2.6860817e-18 0.46047223 0.035639048 2.2518327e-05 2.6860817e-18 2.6860817e-18 0.036602564
2.6860817e-18 0.15544301 2.6860817e-18 2.6860817e-18 2.6860817e-18 0.02660526 2.6860817e-18 1.0033388e-05
00000000: a632 4622 a632 4622 04c3 eb3e 40fa 113d
00000010: bde5 bc37 a632 4622 a632 4622 92ec 153d
00000020: a632 4622 742c 1f3e a632 4622 a632 4622
00000030: a632 4622 46f3 d93c a632 4622 1355 2837

ps_network.0.weight f4 [8, 1]
0.23773827 -0.3473919 -0.63621014 0.72000515 0.12193775 2.2136102e-11 0.74195427 -1.2183708e-09
00000000: a971 733e 5add b1be abde 22bf 4252 383f
00000010: 80ba f93d 12b6 c22d b7f0 3d3f 9d73 a7b0

ps_network.0.bias f4 [8]
-0.7658921 0.38496557 0.4241283 -0.4604937 0.004120994 -0.18444277 -0.59329236 -0.1997132
00000000: 8111 44bf 351a c53e 5827 d93e d5c5 ebbe
00000010: 6709 873b 91de 3cbe 02e2 17bf 9e81 4cbe

ps_network.2.weight f4 [8]
0.9868934 0.93419313 0.9664804 0.9552195 0.9814793 0.6509807 0.9508756 0.6509807
00000000: 0ca5 7c3f 4827 6f3f 426b 773f 4489 743f
00000010: 3a42 7b3f aca6 263f 956c 733f aca6 263f

ps_network.2.bias f4 [8]
4.145502e-05 -1.8182067e-05 1.0879621e-06 6.4219256e-07 1.8135339e-05 5.3865048e-11 -2.3894016e-05 -6.6605194e-11
00000000: fddf 2d38 b185 98b7 1806 9235 2363 2c35
00000010: 5821 9837 a7e6 6c2e 0270 c8b7 6477 92ae

ps_network.2.running_mean f4 [8]
0.21385287 0.20409545 0.22431043 1.3747296 0.28170565 0.0 1.3550073 0.0
00000000: 3ffc 5a3e 66fe 503e a2b1 653e 24f7 af3f
00000010: b93b 903e 0000 0000 e170 ad3f 0000 0000

ps_network.2.running_var f4 [8]
0.17731845 0.039563324 0.04778908 3.662701 0.13233125 2.6860817e-18 3.6925468 2.6860817e-18
00000000: f892 353e 270d 223d 7bbe 433d b169 6a40
00000010: d881 073e a632 4622 b052 6c40 a632 4622

main_network.0.weight f4 [128, 104]
-0.077802464 0.068009764 0.1193907 -0.072418235 0.00075842213 0.035199057 -0.015589697 0.015198962
0.016038647 0.011614462 -0.04941347 0.030469283 -0.04306993 0.0547929 0.07278447 0.0900752
0.119361825 0.0089331595 -0.007480081 -0.02945274 0.118232064 0.0080903685 0.049090102 -0.050653394
-0.067263454 0.0950846 -0.034043476 0.043382183 0.032303926 0.060751047 -0.03307264 0.047568496
0.022200385 -0.0065438556 0.045100074 -0.024372626 -0.06832162 0.01658024 0.04485865 0.06362667
0.059760194 -0.003976262 0.08880755 -0.08805617 0.11335428 -0.11577357 0.07923711 -0.062462524
0.07543915 -0.085263595 0.012212854 -0.053507328 -1.2551592e-08 -0.008892795 -0.029050795 2.0057525e-10
-0.10803286 7.549161e-11 -0.09971266 -4.515152e-11 -9.748913e-09 1.7404553e-10 -0.05868457 -0.118760854
6.5371792e-12 -0.017727274 -8.4995566e-10 -2.4283392e-10 -0.1217653 1.3927881e-10 0.0015160354 -0.05588308
-0.027283827 1.4231915e-07 1.2128221e-09 0.013160276 8.042778e-09 -3.1564185e-11 0.026852923 -0.043551084
-4.2378645e-08 8.525235e-11 -0.019092117 -0.019475527 0.026737463 -3.660456e-10 -1.0840434e-11 0.099465944
-6.5698974e-11 -0.034290932 4.2076143e-12 -6.6474846e-11 -3.403176e-11 -0.0022415905 5.8056316e-13 -0.03790946
0.039514944 0.040601887 -0.036021497 0.052612513 -0.044346932 6.5951293e-09 0.043797147 8.107213e-09
0.045263425 0.11191688 0.07151511 0.033657227 -0.06534417 -0.053787667 0.049592916 -0.025988866
0.06754882 0.02085724 -0.08049992 -0.022072684 0.079429425 -0.08793684 0.087581605 -0.034248516
-0.06388132 -0.03749174 0.0017998448 -0.096553355 -0.05288366 -0.0033128639 0.054685913 -0.06399373
-0.010483242 -0.08602953 0.09993535 -0.055426292 -0.087480105 -0.05584446 0.05131925 0.11194943
-0.0409229 -0.048296273 -0.09833301 -0.10919957 0.01774532 0.069138065 -0.012814778 -0.066386215
0.07628175 0.036144357 -0.009740116 0.023897968 0.09138767 0.060489137 0.08824032 0.060818374
0.07179767 0.010926472 0.06686147 0.044738587 -2.9660012e-09 -0.066772364 -0.017859293 2.8254945e-09
-0.10801007 1.2340389e-12 -0.013662923 2.889259e-11 8.452237e-09 1.0684819e-09 -0.049403835 0.021418622
-2.1398695e-11 0.05051553 1.4904918e-11 1.03369636e-07 -0.060055293 1.4569847e-08 -0.029263 0.049305223
-0.0851134 1.1450018e-10 -1.1621527e-11 -0.025337562 -7.932806e-11 2.1175081e-10 0.06304002 0.0065521197
-2.1242443e-10 -1.769026e-10 0.10818439 -0.0013348352 -0.015044734 -2.0247415e-11 -1.212159e-09 -0.03911575
-7.138683e-11 0.01974467 -7.307663e-10 3.0068524e-12 3.571732e-13 -0.024140453 -1.4351371e-11 0.052201122
0.0072566886 -0.031815067 -0.034959793 0.045752056 -0.06918037 -5.1515425e-10 -0.043902047 -3.219816e-10
-0.023615636 -0.06953039 -0.05509529 -0.006364468 -0.085729785 0.03365994 0.022458976 0.02666966
-0.038069572 -0.08706712 0.035284586 -0.057495803 -0.06852598 0.023592843 -0.010065581 -0.012518459
0.012502002 -0.05465955 0.08110973 0.06694516 -0.0003462193 -0.048634667 0.0009987998 -0.0056382623
0.05148937 0.059609007 -0.03731762 -0.02151545 0.036778547 -0.051313747 -0.09947909 -0.11468069
0.054564625 -6.168735e-05 0.0053669824 0.029060801 -0.03167538 0.027141633 -0.0031213665 0.0502484
-0.012240093 0.020577531 -0.09647962 -0.049911655 0.008738534 0.07224429 0.04608624 0.060343567
00000000: e656 9fbd b448 8b3d 1c83 f43d 0350 94bd
00000010: d9d0 463a e32c 103d ee6b 7fbc 1105 793c
00000020: 7b63 833c 964a 3e3c c765 4abd b89a f93c
00000030: 186a 30bd 856e 603d 0610 953d 5979 b83d
00000040: f973 f43d 635c 123c 781b f5bb df46 f1bc
00000050: a723 f23d 778d 043c b412 493d ef79 4fbd
00000060: 6cc1 89bd b7bb c23d 2c71 0bbd 84b1 313d
00000070: 1f51 043d 17d6 783d 2d77 07bd 2fd7 423d
00000080: 95dd b53c d76d d6bb dbba 383d 1aa9 c7bc
00000090: 35ec 8bbd 49d3 873c b4bd 373d b34e 823d
000000a0: 1bc7 743d 4e4b 82bb bce0 b53d cb56 b4bd
000000b0: 4a26 e83d b21a edbd 1147 a23d b4d8 7fbd
000000c0: d77f 9a3d ae9e aebd 6c18 483c 802a 5bbd
000000d0: 7ca2 57b2 16b3 11bc effb edbc ea88 5c2f
000000e0: 5540 ddbd 0002 a62e 2736 ccbd 1894 46ae
000000f0: 2c7c 27b2 765d 3f2f 3b5f 70bd e438 f3bd
00000100: ad01 e62c ca38 91bc 50a2 69b0 d67f 85af
00000110: 1660 f9bd 8023 192f b5b5 c63a a8e5 64bd
00000120: 5582 dfbc 64d0 1834 62b0 a630 339e 573c
00000130: 832c 0a32 1dd2 0aae a9fa db3c 9f62 32bd
00000140: d003 36b3 ce78 bb2e 1267 9cbc 248b 9fbc
00000150: 8608 db3c 573c c9af f9b4 3ead cdb4 cb3d
00000160: 3c79 90ae a674 0cbd d20a 942c 032e 92ae
00000170: 5bac 15ae a6e7 12bb fc69 232b f346 1bbd
00000180: 6cda 213d 2a4e 263d 478b 13bd 3880 573d
00000190: 21a5 35bd 5f9b e231 a364 333d e647 0b32
000001a0: 2466 393d ad34 e53d 8476 923d 29dc 093d
000001b0: 2ad3 85bd 7550 5cbd f121 4b3d 9ae6 d4bc
000001c0: 0957 8a3d cddc aa3c 24dd a4bd c6d1 b4bc
000001d0: e5ab a23d 3b18 b4bd fc5d b33d 2c48 0cbd
000001e0: 36d4 82bd f090 19bd c5e8 eb3a c4bd c5bd
000001f0: 899c 58bd a21c 59bb 56fe 5f3d 250f 83bd
00000200: e7c1 2bbc 4030 b0bd e8aa cc3d ae06 63bd
00000210: c528 b3bd 29bd 64bd 2234 523d be45 e53d
00000220: c59e 27bd 50d2 45bd d162 c9bd 06a4 dfbd
00000230: a25e 913c 4298 8d3d 13f5 51bc 7ff5 87bd
00000240: 9b39 9c3d 1b0c 143d 0295 1fbc acc5 c33c
00000250: 7529 bb3d 75c3 773d 57b7 b43d b01c 793d
00000260: a80a 933d f204 333c abee 883d cf3f 373d
00000270: 72d2 4bb1 f3bf 88bd a74d 92bc a02a 4231
00000280: 6234 ddbd f0ac ad2b 74da 5fbc 5424 fe2d
00000290: 5535 1132 ddd9 9230 ad5b 4abd 1b76 af3c
000002a0: 9439 bcad 5fe9 4e3d e41a 832d 0ffc dd33
000002b0: 8afc 75bd dd4e 7a32 f5b8 efbc 46f4 493d
000002c0: ef4f aebd dfc9 fb2e b472 4cad b890 cfbc
000002d0: ba71 aeae 8ed2 682f 201b 813d 2ab3 d63b
000002e0: 2990 69af a881 42af c78f dd3d a3f5 aeba
000002f0: 307e 76bc 2019 b2ad 0e99 a6b0 d637 20bd
00000300: 36fb 9cae 93bf a13c 1bdf 48b0 a396 532c
00000310: 1512 c92a 33c2 c5bc d478 7cad d8d0 553d
00000320: 84c9 ed3b 8450 02bd 0032 0fbd 8266 3b3d
00000330: 70ae 8dbd c29a 0db0 a2d2 33bd e202 b1af
00000340: 9475 c1bc f365 8ebd 99ab 61bd 078d d0bb
00000350: 1993 afbd 01df 093d e3fb b73c 557a da3c
00000360: d7ee 1bbd 3f50 b2bd 9286 103d b880 6bbd
00000370: 5957 8cbd c745 c13c 1bea 24bc 391a 4dbc
00000380: 32d5 4c3c b1e2 5fbd dc1c a63d 8b1a 893d
00000390: c584 b5b9 2535 47bd 29ea 823a 2cc1 b8bb
000003a0: 85e6 523d 9328 743d 5cda 18bd 2b41 b0bc
000003b0: 1aa5 163d 5d2e 52bd b1bb cbbd b6dd eabd
000003c0: 287f 5f3d 255e 81b8 83dd af3b eb10 ee3c
000003d0: 0bbe 01bd 2158 de3c d78f 4cbb 44d1 4d3d
000003e0: ac8a 48bc 3692 a83c 1b97 c5bd 2a70 4cbd
000003f0: 112c 0f3c d0f4 933d edc4 3c3d d12a 773d

main_network.0.bias f4 [128]
1.0207524e-05 1.509583e-06 8.247946e-06 3.9892435e-05 -1.0866818e-05 -1.2754339e-05 3.511013e-07 4.9346017e-06
2.5679228e-06 7.772348e-06 5.1108154e-06 2.2647068e-06 1.4243401e-05 4.293182e-06 1.0975239e-06 -1.3693294e-05
-8.967106e-06 -8.645238e-06 2.2703512e-07 -2.495021e-07 8.867061e-06 9.633691e-06 1.8949997e-05 4.571724e-06
5.861304e-06 -1.3534328e-06 6.3353127e-06 3.7249988e-06 -7.647071e-06 -4.6377467e-05 -3.983547e-05 8.312447e-06
-2.305983e-05 -3.4891884e-05 1.0353044e-06 3.5992373e-06 1.134253e-06 4.7348703e-06 2.5667098e-06 -2.0826008e-05
-2.838476e-07 -7.007089e-06 3.7318744e-06 3.38372e-05 9.616714e-06 -4.528836e-05 -5.036009e-07 1.4161141e-05
3.2418907e-06 7.2158236e-06 1.9397387e-06 -4.547529e-05 2.0677868e-05 8.617296e-06 9.1167385e-06 2.1424212e-05
-1.95343e-05 -5.945768e-06 -3.639172e-05 6.41133e-06 2.2842789e-05 1.0668176e-05 1.6786864e-05 3.4322638e-06
-1.0951193e-05 1.3153437e-05 -4.363684e-06 -1.4717629e-05 2.69885e-05 7.4148475e-06 -1.0228051e-05 -4.170883e-06
-1.7906388e-05 2.8958679e-05 -5.283942e-06 -1.0414044e-06 -1.0520404e-05 -1.6975435e-05 -2.3280884e-06 2.0839287e-05
5.9442455e-06 -4.544155e-06 -1.0135555e-05 -6.956273e-06 -5.383239e-06 2.2118327e-05 -4.290246e-05 -2.2508308e-05
9.088639e-06 -6.401826e-06 2.29149e-05 5.993628e-06 -1.2385905e-05 -2.7173155e-05 4.8433158e-06 8.836034e-07
1.02426875e-05 1.0375828e-05 -2.798347e-07 -1.9745898e-05 3.6470515e-06 -1.3980923e-05 5.0717226e-06 -7.542267e-06
-8.7067775e-08 1.997609e-05 1.8584731e-06 -3.5392761e-06 4.3703476e-06 -2.9292722e-05 2.0280742e-05 1.9012477e-05
-5.025019e-06 -1.981949e-05 2.9387302e-06 2.0489519e-05 -5.719582e-07 -2.4966988e-05 -1.0120394e-05 7.4032855e-06
-7.823672e-06 -7.2056827e-07 1.6712212e-06 2.064792e-05 -2.4060337e-06 3.9108277e-06 2.2049546e-05 -4.8380476e-05
00000000: fb40 2b37 e09c ca35 a960 0a37 2d52 2738
00000010: a150 36b7 78fb 55b7 ff7e bc34 e893 a536
00000020: 9454 2c36 fb65 0237 927d ab36 5efb 1736
00000030: f1f6 6e37 270e 9036 a24e 9335 40bc 65b7
00000040: 6d71 16b7 040b 11b7 f0c6 7334 4ff3 85b4
00000050: bdc3 1437 63a0 2137 cff6 9e37 cf66 9936
00000060: 38ac c436 99a7 b5b5 ec93 d436 fefa 7936
00000070: eb4b 00b7 6d85 42b8 0315 27b8 b075 0b37
00000080: 9c70 c1b7 e058 12b8 caf4 8a35 6d8a 7136
00000090: a33c 9835 3ae0 9e36 bd3f 2c36 83b3 aeb7
000000a0: b863 98b4 701e ebb6 1d71 7a36 6bec 0d38
000000b0: 7957 2137 02f4 3db8 312f 07b5 a395 6d37
000000c0: 428f 5936 741f f236 752c 0236 b9bc 3eb8
000000d0: 6275 ad37 0193 1037 18f4 1837 25b8 b337
000000e0: 97dd a3b7 c281 c7b6 50a3 18b8 e820 d736
000000f0: 849e bf37 78fb 3237 84d1 8c37 d855 6636
00000100: 04bb 37b7 95ad 5c37 c36b 92b6 bceb 76b7
00000110: 5d65 e237 0ecd f836 2599 2bb7 9df3 8bb6
00000120: ad35 96b7 4aec f237 b74c b1b6 62c6 8bb5
00000130: cb80 30b7 7866 8eb7 413c 1cb6 07d0 ae37
00000140: ae74 c736 ff79 98b6 e10b 2ab7 ee69 e9b6
00000150: aca1 b4b6 bf8a b937 2af2 33b8 39d0 bcb7
00000160: 687b 1837 44cf d6b6 5f39 c037 df1c c936
00000170: 0fcd 4fb7 e8f1 e3b7 c483 a236 c330 6d35
00000180: 02d8 2b37 d813 2e37 303c 96b4 fea3 a5b7
00000190: debf 7436 9b8f 6ab7 c42d aa36 9513 fdb6
000001a0: 04fa bab3 5492 a737 a670 f935 4d84 6db6
000001b0: 00a5 9236 a4b9 f5b7 9020 aa37 fc7c 9f37
000001c0: 969c a8b6 0842 a6b7 0037 4536 e8e0 ab37
000001d0: ab88 19b5 3370 d1b7 c3ca 29b7 bd69 f836
000001e0: 6a42 03b7 136d 41b5 b94e e035 1235 ad37
000001f0: 5877 21b6 c139 8336 0af7 b837 24ec 4ab8

main_network.1.weight f4 [128]
1.0103822 1.0304517 0.9955725 1.0711133 0.9991807 0.98522186 0.97875947 0.9823863
1.0276219 1.013306 0.9654322 1.1047881 0.9483087 0.96094286 0.9697309 0.97949326
1.028179 0.9945989 0.99113536 0.9815362 0.9486625 1.045231 0.9751699 0.99856985
0.97550035 1.0167698 0.9691096 1.0085409 1.0283074 1.0467783 1.0537486 0.9811209
0.9955968 0.991898 0.9795594 1.0317868 0.9706688 0.99132437 0.9968135 0.98462874
0.9819984 0.96709573 0.92928743 1.0016845 0.96136016 1.0354402 1.0039358 0.9926666
0.98773164 0.9622921 1.032961 0.9952297 1.0329427 0.9878978 0.97891134 1.0414909
1.0132077 0.9649891 1.0120577 0.9964783 0.97249466 1.0177299 1.0504209 1.0063479
0.99286103 1.0736796 0.96684206 1.0496802 0.98316014 1.0136931 0.9903707 1.0437407
0.985075 0.98207873 0.9847896 0.97771627 0.9558845 0.9913783 1.0042249 0.97813004
0.97970706 1.0502447 0.9858085 0.96798503 0.99550116 0.95652014 1.0262953 0.9892617
1.0092567 1.0321286 1.0223813 0.974806 1.0356227 0.9793774 0.9672071 0.99879444
1.0404154 1.0577537 1.0716006 1.0135347 0.95157486 0.9767633 1.0757983 1.0062898
0.99452657 1.0208564 0.99494797 1.0489507 0.98963 0.9754154 0.966443 0.99246377
0.9619642 0.9650658 0.959903 0.9549922 1.0169996 1.0120978 0.99828136 0.9963534
0.9663412 1.0461091 1.0511141 0.95273864 0.997298 0.99038136 0.97345406 1.001405
00000000: 3454 813f d7e5 833f d7dd 7e3f 3e1a 893f
00000010: 4eca 7f3f 8037 7c3f fb8f 7a3f ab7d 7b3f
00000020: 1d89 833f 03b4 813f 9126 773f b269 8d3f
00000030: 5cc4 723f 5a00 763f 4940 783f 12c0 7a3f
00000040: 5f9b 833f 099e 7e3f 0cbb 7d3f f545 7b3f
00000050: 8cdb 723f 21ca 853f bca4 793f 46a2 7f3f
00000060: 64ba 793f 8325 823f 9117 783f de17 813f
00000070: 949f 833f d5fc 853f 3ce1 863f bd2a 7b3f
00000080: 6fdf 7e3f 07ed 7d3f 68c4 7a3f 9711 843f
00000090: c07d 783f 6fc7 7d3f 2b2f 7f3f a110 7c3f
000000a0: 3f64 7b3f 9693 773f c8e5 6d3f 3337 803f
000000b0: b31b 763f 4e89 843f f880 803f 661f 7e3f
000000c0: fbdb 7c3f c658 763f 1138 843f 60c7 7e3f
000000d0: 7737 843f dfe6 7c3f ef99 7a3f 934f 853f
000000e0: cab0 813f 8709 773f 1b8b 813f 3419 7f3f
000000f0: 69f5 783f f944 823f 3174 863f 02d0 803f
00000100: 242c 7e3f 556e 893f f682 773f ec5b 863f
00000110: 62b0 7b3f b2c0 813f ef88 7d3f 4c99 853f
00000120: e02d 7c3f 8369 7b3f 2c1b 7c3f 9d4b 7a3f
00000130: d9b4 743f f8ca 7d3f 718a 803f bb66 7a3f
00000140: 15ce 7a3f 6b6e 863f f25d 7c3f decd 773f
00000150: 2ad9 7e3f 81de 743f a55d 833f 4140 7d3f
00000160: 532f 813f ca1c 843f 64dd 823f e38c 793f
00000170: 498f 843f 7ab8 7a3f e29a 773f feb0 7f3f
00000180: 552c 853f 7964 873f 352a 893f 81bb 813f
00000190: 699a 733f 290d 7a3f c2b3 893f 1bce 803f
000001a0: 4b99 7e3f 6cab 823f e9b4 7e3f 0444 863f
000001b0: 6458 7d3f d3b4 793f cf68 773f 1b12 7e3f
000001c0: 4943 763f 8d0e 773f 34bc 753f 5e7a 743f
000001d0: 0b2d 823f 6c8c 813f 5e8f 7f3f 0411 7f3f
000001e0: 2362 773f e7e6 853f e88a 863f aee6 733f
000001f0: ec4e 7f3f a289 7d3f 4934 793f 0a2e 803f

main_network.1.bias f4 [128]
-0.010830991 0.032672923 0.00589257 0.025248736 -0.020208012 -0.005545528 -0.0008071695 -0.009776889
0.025919197 0.012223559 -0.032061744 0.047685895 -0.054990504 -0.010142382 0.021678066 -0.008796698
0.027709957 -0.01217284 -0.0017598503 0.0110810865 -0.044009767 0.07944744 -0.014768409 0.0057570743
-0.010850082 -0.0087601505 -0.019774543 0.031993013 -0.013530403 0.0034381105 0.025035895 0.0062957346
-0.013690251 -0.0041274643 -0.016084986 0.0059855096 -0.01858999 -0.016850444 -0.023330333 0.0051800846
-0.025405861 0.010302164 -0.058345858 -0.008906489 -0.010549107 0.025457395 -0.01368625 0.04953145
0.014510577 -0.023694213 0.0032001776 0.011416198 0.016802654 -0.001286033 0.013655525 0.040795337
-0.034886576 -0.008852968 0.024902033 0.012093742 -0.027189251 0.026940249 0.044361122 -0.012342457
0.028845547 0.051346637 -0.020033648 0.059263475 -0.027078807 0.02881187 0.03757559 0.019149333
-0.045033917 -0.024084283 -0.01015414 -0.009809502 -0.057983153 0.024780363 0.010043966 -0.019226283
-0.020162124 0.05297339 -0.018202897 -0.019962488 0.022249224 -0.057039503 0.011474093 -0.047305416
-0.016028753 0.018183468 0.0057387026 0.009149373 0.034816943 0.0022981882 -0.020319074 0.0051608994
0.032222115 0.07306582 0.026792577 0.020028317 -0.07117478 -0.0024723222 0.057550997 -0.009608235
-0.024044627 0.060329825 -0.023219239 0.028883865 -0.021585269 -0.024384988 -0.014492458 -0.017604897
0.023827123 -0.0364124 -0.035635494 -0.01932503 -0.013944118 0.03531608 0.005417661 0.014105752
-0.041027382 0.0017968608 0.056226313 -0.038393952 0.023934562 0.0038794507 0.01524167 -0.024490803
00000000: 7874 31bc 0bd4 053d 7616 c13b 70d6 ce3c
00000010: 468b a5bc 43b7 b5bb 3a98 53ba 3f2f 20bc
00000020: 7f54 d43c 5345 483c 2d53 03bd 4952 433d
00000030: b93d 61bd 3c2c 26bc 3396 b13c 0720 10bc
00000040: feff e23c 9770 47bc c7aa e6ba 728d 353c
00000050: 9643 34bd 57b5 a23d 32f7 71bc d7a5 bc3b
00000060: 8bc4 31bc bc86 0fbc 39fe a1bc 1b0b 033d
00000070: a0ae 5dbc ec51 613b 1418 cd3c 734c ce3b
00000080: 134d 60bc ae3f 87bb a9c4 83bc 1822 c43b
00000090: 094a 98bc f109 8abc 411f bfbc b3bd a93b
000000a0: f41f d0bc 68ca 283c 11fc 6ebd 86ec 11bc
000000b0: 29d6 2cbc 078c d03c 4b3c 60bc 7de1 4a3d
000000c0: c5bd 6d3c 5e1a c2bc 12ba 513b 010b 3b3c
000000d0: b8a5 893c 1b90 a8ba 6cbb 5f3c 0319 273d
000000e0: 3ae5 0ebd 0a0c 11bc 59ff cb3c d524 463c
000000f0: febb debc ccb1 dc3c 02b4 353d 0438 4abc
00000100: 7f4d ec3c da50 523d 9b1d a4bc 42be 723d
00000110: 60d4 ddbc df06 ec3c dde8 193d 10df 9c3c
00000120: 7c75 38bd 674c c5bc 8d5d 26bc 09b8 20bc
00000130: be7f 6dbd 3000 cb3c 728f 243c 7080 9dbc
00000140: 0a2b a5bc a0fa 583d 3e1e 95bc 5f88 a3bc
00000150: 0144 b63c 41a2 69bd d6fd 3b3c 53c3 41bd
00000160: bb4e 83bc 7ff5 943c ba0b bc3b 40e7 153c
00000170: 369c 0e3d 339d 163b 3074 a6bc c31c a93b
00000180: 56fb 033d 88a3 953d 1b7c db3c 6d12 a43c
00000190: 15c4 91bd af06 22bb 98ba 6b3d dc6b 1dbc
000001a0: 3df9 c4bc 681c 773d 4636 bebc db9d ec3c
000001b0: 97d3 b0bc 07c3 c7bc c671 6dbc 2538 90bc
000001c0: 1931 c33c 2b25 15bd 86f6 11bd 864f 9ebc
000001d0: df75 64bc 98a7 103d a286 b13b d01b 673c
000001e0: 540c 28bd a584 eb3a 904d 663d fa42 1dbd
000001f0: 6a12 c43c 623e 7e3b 33b8 793c f0a0 c8bc

main_network.1.running_mean f4 [128]
0.06260331 0.15925787 0.013692643 0.06704789 0.049664564 0.06469337 0.020270055 -0.06697161
0.08915654 0.13363208 0.017589988 0.071158655 0.028323418 -0.023112759 0.02802005 0.06185638
0.09527092 -0.04630564 0.012325575 -0.028670052 0.104923345 0.029339474 -0.018721096 0.16462679
0.016577952 0.19770922 -0.020004014 0.0048828437 0.10482392 0.07543221 -0.0030871504 -0.033918485
0.06106203 -0.17522019 0.033668548 0.053420473 0.09450822 0.009903763 0.030203033 -0.0034678823
0.103793114 0.07256615 -0.09057795 -0.025495205 0.029028391 0.09937075 -0.036368825 0.0072445753
-0.0024490491 -0.019394407 0.14424877 0.16312088 0.049746685 0.013596183 -0.07493127 0.057453036
0.035733905 -0.073290914 -0.054372128 0.0043527544 -0.0030881094 0.034855176 -0.0052007018 0.041615043
0.040891495 0.09463162 -0.020944431 0.28309694 -0.019425191 -0.16037251 -0.003154441 -0.06382468
0.039598707 0.03693241 -0.054445583 -0.0019072191 -0.01695046 0.018907884 0.056670137 -0.023651628
0.082349285 0.09590329 -0.12089511 0.034436766 0.041899405 -0.05540185 0.14250296 0.10549497
0.14725813 0.047806457 0.034476954 -0.049711995 -0.037566613 -0.03193459 -0.13982889 0.105659574
0.061584394 0.11766415 0.064781725 -0.095375545 0.05415031 -0.044675693 0.14151736 0.028496765
0.004000136 0.13982007 0.06453347 0.000938303 -0.071105786 -0.014503562 0.06357912 0.0634674
-0.08515784 -0.044317357 0.06423858 0.10849344 0.19782431 -0.08544724 0.044330698 -0.049276456
-0.0019721834 0.021495258 0.14951918 0.0883447 -0.04026177 -0.1648296 -0.12467723 -0.06437511
00000000: 2a36 803d 7f14 233e 1b57 603c 6750 893d
00000010: 126d 4b3d f57d 843d 630d a63c 6928 89bd
00000020: b497 b63d d9d6 083e e118 903c a1bb 913d
00000030: 8306 e83c f856 bdbc 4e8a e53c 1e5d 7d3d
00000040: 661d c33d fcaa 3dbd 35f1 493c 75dd eabc
00000050: 0de2 d63d 5659 f03c fc5c 99bc ed93 283e
00000060: 7cce 873c 4974 4a3e 75df a3bc 4300 a03b
00000070: ecad d63d 347c 9a3d ca51 4abb 1cee 0abd
00000080: 2e1c 7a3d ec6c 33be 08e8 093d 6dcf 5a3d
00000090: 878d c13d 6543 223c 5a6c f73c 6945 63bb
000000a0: 7c91 d43d 909d 943d ef80 b9bd 52db d0bc
000000b0: f3cc ed3c e482 cb3d 7af7 14bd e763 ed3b
000000c0: 3a80 20bb 05e1 9ebc f3b5 133e 2909 273e
000000d0: 2ec3 4b3d 86c2 5e3c 9175 99bd e053 6b3d
000000e0: b75d 123d 8c19 96bd 4fb5 5ebd 8da1 8e3b
000000f0: e161 4abb 4dc4 0e3d a66a aabb 8974 2a3d
00000100: d77d 273d 39ce c13d a893 abbc 15f2 903e
00000110: 9421 9fbc b138 24be bdba 4ebb 84b6 82bd
00000120: 4132 223d 7046 173d 5502 5fbd a7fb f9ba
00000130: b1db 8abc b5e4 9a3c f21e 683d 0fc1 c1bc
00000140: bea6 a83d f268 c43d db97 f7bd 910d 0d3d
00000150: b69e 2b3d 0ded 62bd 4cec 113e bf0d d83d
00000160: d6ca 163e b4d0 433d b537 0d3d ce9e 4bbd
00000170: 73df 19bd d8cd 02bd 4e2f 0fbe 0c64 d83d
00000180: eb3f 7c3d e7f9 f03d 48ac 843d 4154 c3bd
00000190: b7cc 5d3d dcfd 36bd ede9 103e 0c72 e93c
000001a0: 9313 833b fe2c 0f3e 202a 843d 73f8 753a
000001b0: e99f 91bd 59a0 6dbc c535 823d 32fb 813d
000001c0: 3c67 aebd 1e86 35bd 848f 833d cf31 de3d
000001d0: 7592 4a3e f6fe aebd 1b94 353d 1cd6 49bd
000001e0: bf3f 01bb d316 b03c 8e1b 193e 11ee b43d
000001f0: 87e9 24bd 17c9 28be c756 ffbd 19d7 83bd

main_network.1.running_var f4 [128]
0.37641865 0.10427043 0.14258339 0.42147723 0.12785216 0.20485826 0.11250353 0.075852074
0.49031982 0.17822729 0.18094693 0.2697462 0.18187079 0.5053472 0.29133514 0.29289418
0.2506583 0.18447456 0.20538287 0.09868308 0.37599486 0.17021826 0.20583126 0.16804947
0.27137035 0.32818782 0.20366952 0.72602534 0.3146253 0.288258 0.21986236 0.21024777
0.08640541 0.07717386 0.08988247 0.26089427 0.2042121 0.056567423 0.10641025 0.116817854
0.1675925 0.18865056 0.16542825 0.18404146 0.18735237 0.09164523 0.15524857 0.10083533
0.19372126 0.19551979 0.1807367 0.07101328 0.080551215 0.11028524 0.10270248 0.68263936
0.16718136 0.1854914 0.1475021 0.1837873 0.2559894 0.18857573 0.18243425 0.30401704
0.29783303 0.36516955 0.050040532 0.41282728 0.15951629 0.34355718 0.25765538 0.20802286
0.267822 0.25780323 0.106428415 0.24700785 0.12825502 0.12600286 0.09626268 0.14556995
0.32813615 0.4182773 0.25363523 0.4883997 0.16190864 0.068197355 0.07613434 0.14182992
0.23629434 0.66027117 0.23792477 0.18531579 0.11347404 0.11057565 0.3595991 0.094515316
0.3064599 0.47594777 0.3949408 0.18472484 0.35022178 0.12773584 0.7102381 0.0836422
0.38241616 0.22857364 0.23511173 0.1779268 0.19757427 0.046620764 0.057057336 0.1468703
0.13969722 0.22391479 0.13536423 0.08066032 0.26411375 0.37044173 0.11806248 0.13766555
0.18011732 0.29883713 0.39863208 0.24076849 0.53430766 0.14921038 0.28640705 0.15300417
00000000: f2b9 c03e bc8b d53d 6101 123e ddcb d73e
00000010: adeb 023e 5dc6 513e 4068 e63d 5558 9b3d
00000020: 330b fb3e 3781 363e 274a 393e 2d1c 8a3e
00000030: 563c 3a3e 6f5e 013f e129 953e 3af6 953e
00000040: 4956 803e e6e6 3c3e e34f 523e 5b1a ca3d
00000050: 6682 c03e b24d 2e3e 6ec5 523e 2915 2c3e
00000060: 0ef1 8a3e 3c08 a83e be8e 503e ccdc 393f
00000070: 9116 a13e 8d96 933e 9923 613e 314b 573e
00000080: 52f5 b03d 540d 9e3d 4d14 b83d ef93 853e
00000090: fa1c 513e 3eb3 673d 9eed d93d 333e ef3d
000000a0: 5e9d 2b3e 9d2d 413e 0666 293e 5d75 3c3e
000000b0: 4dd9 3f3e 7fb0 bb3d 7bf9 1e3e c182 ce3d
000000c0: de5e 463e 5736 483e 0b13 393e 696f 913d
000000d0: 09f8 a43d 3add e13d ae55 d23d 74c1 2e3f
000000e0: 9731 2b3e 75f1 3d3e ca0a 173e bd32 3c3e
000000f0: 0b11 833e ff19 413e 0bd0 3a3e 1fa8 9b3e
00000100: 927d 983e 81f7 ba3e 4df7 4c3d 195e d33e
00000110: 3d58 233e bae6 af3e 68eb 833e f203 553e
00000120: f71f 893e c9fe 833e 24f7 d93d a0ef 7c3e
00000130: 4955 033e e506 013e 5e25 c53d 4a10 153e
00000140: 7601 a83e 7128 d63e 7adc 813e 870f fa3e
00000150: 61cb 253e 0eab 8b3d 52ec 9b3d dd3b 113e
00000160: 25f7 713e 8807 293f 8da2 733e 6cc3 3d3e
00000170: 1465 e83d 7d75 e23d 601d b83e 3f91 c13d
00000180: 50e8 9c3e 6daf f33e ae35 ca3e 8228 3d3e
00000190: 4550 b33e 2fcd 023e 2ad2 353f 9a4c ab3d
000001a0: 0dcc c33e 350f 6a3e 21c1 703e 7132 363e
000001b0: e950 4a3e 6af5 3e3d f4b4 693d 2b65 163e
000001c0: ca0c 0f3e eb49 653e ec9c 0a3e 3d31 a53d
000001d0: eb39 873e 8aaa bd3e beca f13d 33f8 0c3e
000001e0: ad70 383e 2e01 993e 8119 cc3e 048c 763e
000001f0: 63c8 083f 9bca 183e f2a3 923e 20ad 1c3e

main_network.4.weight f4 [64, 128]
0.014907176 -0.065833464 0.082887486 0.0374949 -0.06156709 -0.07012403 0.008755051 0.089299805
-0.045163132 0.015844498 0.1004986 -0.040773395 -0.04354881 0.040494006 0.010336858 -0.048427682
0.09157535 -0.020097513 0.0023191366 -0.0381725 -0.058735803 0.06829449 -0.029523863 0.10185096
0.03510208 0.025448347 -0.027763773 -0.06812578 -0.0020209851 0.008763994 -0.024211539 0.068806626
-0.009909732 0.06485419 0.012547733 0.0015232168 -0.0026625236 0.032603007 0.079369344 0.025572645
0.06271057 0.018869214 -0.033664603 -0.053184867 -0.015783668 0.056373734 -0.04198368 0.050323743
-0.07317052 0.032684546 0.024330089 -0.053282216 -0.08071992 0.07279175 0.057655305 -0.029230658
0.08772975 -0.054000966 0.07696042 -0.061617512 0.06752085 -0.09075489 0.062619776 0.01385034
0.048943516 0.01485744 0.033632293 0.067802474 0.0095521705 -0.12391854 -0.026815992 -0.006153418
0.026134722 0.017794304 0.058311455 -0.041917942 -0.074946016 0.05384694 -0.033310346 0.011585263
0.013453311 -0.05462501 0.019988397 0.07018344 0.06598796 0.06252182 0.10143746 -0.053284377
0.06947752 0.08629094 0.08527839 -0.029668495 0.12685344 0.02487172 -0.0019647973 0.03415002
0.00013225137 -0.0049700397 0.11275178 -0.03933041 0.04707151 0.02324963 0.08602227 -0.03456904
0.040602803 0.048204623 0.045120433 0.000949471 0.0074378476 -0.10869132 -0.00075801194 -0.058885604
-0.06593922 -0.015858624 -0.05346952 -0.05909262 -0.021552138 -0.017455148 0.024097532 -0.016554719
-0.06421821 -0.0024462256 0.09113862 -0.035098866 -0.04064424 0.06115289 -0.0007795834 -0.024555033
0.054046005 0.012790456 0.04816179 -0.052549534 -0.016286306 0.095777296 -0.07473561 -0.07216825
-0.07532577 -0.009776993 0.027035117 0.077839725 -0.06809927 -0.023462014 -0.0079412935 -0.028325304
-0.073502295 0.025787443 0.0062276796 -0.032402303 0.025780492 -0.067072265 0.06923031 0.01503978
0.044384778 -0.025078624 -0.11418031 -0.027267113 0.07424474 -0.07694039 -0.09281886 0.018507237
-0.06513244 -0.088869676 -0.026411833 0.021655854 -0.0010527552 0.011839488 -0.05927689 -0.048068564
0.016152961 -0.10325536 -0.018049795 -0.08855909 -0.044101145 0.023563469 -0.005137289 0.034369748
-0.047717202 -0.080722064 -0.04160074 -0.08827173 0.014608163 0.037030164 0.0068821358 0.025515009
-0.014746019 0.011143214 -0.06594783 0.0037594677 -0.07878442 0.026874932 0.046448804 -0.019761506
0.006110444 -0.09498108 -0.00499143 0.103394456 -0.12542996 -0.10162214 -0.029784434 0.109068036
-0.037484255 0.046927046 0.011601224 -0.028760837 -0.09867507 0.0192183 0.0697693 -0.054683022
-0.106762 0.02217339 0.010203359 -0.09746659 -0.008218079 -0.06552899 -0.08540937 0.010252093
-0.1246079 -0.019994983 0.03434568 -0.059038665 -0.094728224 0.04985105 -0.015972916 0.075996816
0.0022370063 -0.028438583 -0.027624408 0.07972788 -0.0052831713 0.046150975 -0.014627441 0.07457805
0.03858146 -0.017785363 -0.09697591 -0.06172081 -0.016411886 0.03668571 0.056306936 0.02860459
0.045517188 0.042442266 -0.04111471 -0.01137207 -0.013531241 -0.033346053 0.06643488 -0.10357379
-0.033153802 0.038014494 0.038538836 0.013518094 0.0005918259 -0.065682076 0.027903888 -0.10914241
00000000: 3a3d 743c b2d3 86bd eac0 a93d 4194 193d
00000010: c62d 7cbd 309d 8fbd 5871 0f3c d1e2 b63d
00000020: fafc 38bd 52cc 813c 36d2 cd3d 0102 27bd
00000030: 3d60 32bd 0bdd 253d ed5b 293c 1b5c 46bd
00000040: db8b bb3d 8aa3 a4bc a8fc 173b c45a 1cbd
00000050: f494 70bd fbdd 8b3d 07dc f1bc 3c97 d03d
00000060: 33c7 0f3d 0d79 d03c da70 e3bc 8785 8bbd
00000070: 8172 04bb db96 0f3c 4757 c6bc 7dea 8c3d
00000080: 6e5c 22bc 46d2 843d 0295 4d3c ada6 c73a
00000090: bc7d 2ebb bb8a 053d 658c a23d b97d d13c
000000a0: 666e 803d 9c93 9a3c e5e3 09bd 60d8 59bd
000000b0: c04c 81bc 25e8 663d 14f7 2bbd 4520 4e3d
000000c0: 6dda 95bd 3be0 053d e54f c73c 743e 5abd
000000d0: 7c50 a5bd d713 953d f827 6c3d 2275 efbc
000000e0: a8ab b33d 1e30 5dbd 6d9d 9d3d a562 7cbd
000000f0: 5f48 8a3d b3dd b9bd cc3e 803d 89ec 623c
00000100: ff78 483d 9f6c 733c 04c2 093d 06dc 8a3d
00000110: b580 1c3c 01c9 fdbd 36ad dbbc 9da2 c9bb
00000120: 7c18 d63c 5cc5 913c fed7 6e3d 26b2 2bbd
00000130: 4c7d 99bd 9c8e 5c3d 6e70 08bd 1dd0 3d3c
00000140: 476b 5c3c 79be 5fbd b5be a33c 56bc 8f3d
00000150: b224 873d 710b 803d 71be cf3d b840 5abd
00000160: 3b4a 8e3d 4eb9 b03d 70a6 ae3d 580b f3bc
00000170: dee5 013e c7bf cb3c d4c3 00bb e4e0 0b3d
00000180: f5ac 0a39 b7db a2bb 68ea e63d ed18 21bd
00000190: 0ece 403d 0276 be3c 722c b03d 4498 0dbd
000001a0: 204f 263d 3672 453d 34d0 383d ece5 783a
000001b0: 30b9 f33b 8e99 debd 52b5 46ba 0832 71bd
000001c0: 240b 87bd f2e9 81bc db02 5bbd 1a0b 72bd
000001d0: 1c8e b0bc 19fe 8ebc 3068 c53c c39d 87bc
000001e0: d684 83bd db50 20bb e3a6 ba3d d4c3 0fbd
000001f0: 937a 26bd 747b 7a3d f55c 4cba a327 c9bc
00000200: 585f 5d3d 108f 513c 4c45 453d 2e3e 57bd
00000210: dc6a 85bc e326 c43d fc0e 99bd f3cc 93bd
00000220: 6644 9abd ae2f 20bc c078 dd3c 6f6a 9f3d
00000230: a177 8bbd 6933 c0bc 331c 02bc 780a e8bc
00000240: 5f88 96bd 3040 d33c 9011 cc3b 47b8 04bd
00000250: 9c31 d33c 2f5d 89bd 9fc8 8d3d 6969 763c
00000260: d0cc 353d b071 cdbc 5ed7 e9bd 485f dfbc
00000270: a00d 983d ec92 9dbd d117 bebd 7d9c 973c
00000280: 2864 85bd 4e01 b6bd a15d d8bc 9e67 b13c
00000290: 9afc 89ba 69fa 413c 53cc 72bd 8be3 44bd
000002a0: 3753 843c 8c77 d3bd 2add 93bc 785e b5bd
000002b0: 67a3 34bd 2d08 c13c b456 a8bb 4bc7 0c3d
000002c0: 1d73 43bd 9c51 a5bd 8a65 2abd cfc7 b4bd
000002d0: 1457 6f3c f1ac 173d 8a83 e13b da04 d13c
000002e0: 4999 71bc 0792 363c a80f 87bd 6761 763b
000002f0: ba59 a1bd d128 dc3c 1a41 3e3d e2e2 a1bc
00000300: 1f3a c83b 7185 c2bd 268f a3bb 79c0 d33d
00000310: b670 00be 451f d0bd 7cfe f3bc 105f df3d
00000320: 1789 19bd 9336 403d 0f13 3e3c d99b ebbc
00000330: 2816 cabd b26f 9d3c 35e3 8e3d 4efb 5fbd
00000340: 09a6 dabd f8a4 b53c fd2b 273c 909c c7bd
00000350: 1fa5 06bc 1034 86bd 1ceb aebd 65f8 273c
00000360: 6d32 ffbd 85cc a3bc 0eae 0c3d 87d2 71bd
00000370: df00 c2bd 9d30 4c3d a2d9 82bc 38a4 9b3d
00000380: bd9a 123b 08f8 e8bc 954c e2bc 5f48 a33d
00000390: 741e adbb ce08 3d3d efa7 6fbc 60bc 983d
000003a0: 9807 1e3d 9cb2 91bc 4e9b c6bd f6ce 7cbd
000003b0: 3872 86bc c143 163d 1aa2 663d 2c54 ea3c
000003c0: 3b70 3a3d f1d7 2d3d e667 28bd eb51 3abc
000003d0: 23b2 5dbc df95 08bd 030f 883d 7f1e d4bd
000003e0: 48cc 07bd 16b5 1b3d e6da 1d3d ff7a 5d3c
000003f0: c424 1b3a 5384 86bd b296 e43c 0e86 dfbd

main_network.4.bias f4 [64]
-1.3296649e-05 2.0375597e-05 1.191019e-06 -1.851909e-08 -3.9328556e-06 4.9505547e-06 -3.8574686e-05 1.7817376e-05
5.1357583e-06 -1.047438e-05 2.596679e-05 -9.524578e-06 3.2681084e-05 1.5362817e-05 9.535768e-06 -1.0000099e-05
-1.8656692e-05 3.3983451e-06 -4.64082e-06 9.510841e-06 -2.3974693e-05 9.042076e-07 -3.2413154e-05 -5.9932745e-06
-3.5936242e-07 4.6670784e-06 1.578665e-05 -1.9968114e-05 -1.5201944e-05 -5.7342568e-05 9.037072e-06 8.276442e-06
-3.4549716e-06 -6.3491457e-06 -1.628418e-06 -1.3008588e-05 8.936925e-06 -3.8162372e-05 -6.9848766e-06 5.320214e-06
-1.0165502e-06 2.2688146e-05 2.666031e-05 -9.399975e-07 -2.9053212e-05 3.27527e-05 2.3419434e-05 7.98518e-06
-3.029331e-06 -1.0343898e-05 -2.4310048e-06 5.611259e-06 2.5072652e-06 -3.456663e-06 5.3891677e-06 -8.20005e-06
1.28315705e-05 1.5014059e-05 8.6331283e-07 1.548224e-06 -1.5230044e-05 -7.043809e-07 -3.1547224e-05 4.1843003e-05
00000000: ac14 5fb7 43ec aa37 1adb 9f35 e913 9fb2
00000010: f9f6 83b6 f11c a636 41cb 21b8 8676 9537
00000020: d453 ac36 1fbb 2fb7 42d3 d937 c0cb 1fb7
00000030: 0c13 0938 66df 8037 d0fb 1f37 19c6 27b7
00000040: f180 9cb7 200f 6436 57b8 9bb6 c090 1f37
00000050: 431d c9b7 acb8 7235 5cf3 07b8 d619 c9b6
00000060: 65ee c0b4 e699 9c36 936d 8437 3381 a7b7
00000070: da0b 7fb7 1d83 70b8 ee9d 1737 0cdb 0a37
00000080: f6db 67b6 bf0a d5b6 0490 dab5 763f 5ab7
00000090: cdef 1537 8910 20b8 a25f eab6 4a84 b236
000000a0: 6670 88b5 6c52 be37 94a4 df37 2354 7cb5
000000b0: 4cb7 f3b7 f25f 0938 da74 c437 16f8 0537
000000c0: 834b 4bb6 b48a 2db7 5824 23b6 5948 bc36
000000d0: 7d42 2836 05f9 67b6 99d4 b436 f292 09b7
000000e0: 2d47 5737 e4e4 7b37 68be 6735 92cc cf35
000000f0: 8a84 7fb7 b014 3db5 9351 04b8 9580 2f38

main_network.5.weight f4 [64]
1.0280027 0.99048215 1.0252486 0.9729661 0.9794099 0.99546546 0.97019595 0.94495046
0.9908089 1.0114471 1.0165441 0.98390913 1.0612434 1.0953339 1.0158585 0.98735625
0.9584246 0.9606151 0.97867507 0.96535707 1.0640743 0.9696555 1.0403391 0.9737155
1.0843546 1.0439215 0.98584116 0.9879326 0.99905366 0.9796919 0.98249114 1.0088067
1.0229747 1.0010306 0.9595548 0.98720527 1.0691833 0.99211234 1.0615686 1.0189899
0.9891321 0.9632079 1.0587375 0.9562134 0.93266886 0.9754035 0.9953966 0.972367
0.97335184 1.0462836 0.9742559 0.98068565 0.9971931 1.0025005 0.9000032 0.9943643
1.0818677 0.9822043 0.9522233 0.94169146 0.9961761 1.0763049 1.0023406 1.021639
00000000: 9895 833f 3d90 7d3f 593b 833f 4e14 793f
00000010: 9bba 7a3f d3d6 7e3f c35e 783f 46e8 713f
00000020: a7a5 7d3f 1977 813f 1e1e 823f 78e1 7b3f
00000030: d3d6 873f e733 8c3f a707 823f 61c3 7c3f
00000040: 515b 753f dfea 753f 738a 7a3f a421 773f
00000050: 9633 883f 583b 783f d529 853f 6b45 793f
00000060: 22cc 8a3f 389f 853f 1660 7c3f 27e9 7c3f
00000070: fbc1 7f3f 17cd 7a3f 8a84 7b3f 9420 813f
00000080: d6f0 823f c521 803f 62a5 753f 7cb9 7c3f
00000090: 00db 883f 13fb 7d3f 7be1 873f 436e 823f
000000a0: c337 7d3f cb94 763f b684 873f 67ca 743f
000000b0: 63c3 6e3f 0bb4 793f 50d2 7e3f 0bed 783f
000000c0: 962d 793f 9fec 853f d668 793f 370e 7b3f
000000d0: 0c48 7f3f f051 803f 9c66 663f a98e 7e3f
000000e0: a47a 8a3f be71 7b3f e8c4 733f b112 713f
000000f0: 6605 7f3f 5cc4 893f b24c 803f 11c5 823f

main_network.5.bias f4 [64]
0.03601463 0.029537719 0.07174927 0.013900684 -0.02433343 0.045244314 -0.063204825 -0.038193528
-0.0033122334 -0.0013144675 0.0051213526 -0.022192094 0.07302846 0.08037063 0.03676257 0.02326521
-0.02326348 0.016574083 -0.06576162 0.02278092 0.07165203 0.047512922 0.058992516 0.026463816
0.05707402 0.058694065 -0.01053505 -0.035865515 0.004673827 0.044929393 0.016641956 -0.00062708935
0.045988794 0.01959472 0.025312824 0.026285268 0.06640194 -0.062551744 0.05518012 0.030597392
-0.0071024573 -0.008943981 0.049984764 -0.011222838 -0.059464052 0.023853187 0.023742368 -0.009909298
-0.048954308 0.094844244 0.055261057 0.037954032 0.046357784 0.03870963 -0.058470305 0.028179228
0.077134944 -0.04348224 -0.014960317 -0.023011064 0.04105712 0.057712037 0.014127006 0.036832526
00000000: 1484 133d 16f9 f13c 48f1 923d b2bf 633c
00000010: e756 c7bc 1a52 393d 8871 81bd d170 1cbd
00000020: 0e12 59bb 364a acba 05d1 a73b 32cc b5bc
00000030: f28f 953d 5b99 a43d 5994 163d af96 be3c
00000040: 0e93 bebc 5fc6 873c 07ae 86bd 0d9f ba3c
00000050: 4dbe 923d e99c 423d 23a2 713d a5ca d83c
00000060: 73c6 693d 3069 703d 349b 2cbc b8e7 12bd
00000070: e726 993b e207 383d b654 883c 4163 24ba
00000080: bf5e 3c3d 1b85 a03c d75c cf3c 3454 d73c
00000090: befd 873d 211b 80bd 8d04 623d 62a7 fa3c
000000a0: bbbb e8bb c689 12bc d3bc 4c3d ffdf 37bc
000000b0: 9490 73bd c267 c33c 5b7f c23c 9c5a 22bc
000000c0: 5084 48bd b33d c23d 6b59 623d b075 1b3d
000000d0: a9e1 3d3d fd8d 1e3d 8f7e 6fbd 20d8 e63c
000000e0: edf8 9d3d 6f1a 32bd 1e1c 75bc b381 bcbc
000000f0: 832b 283d 7563 6c3d f574 673c b4dd 163d
