MLP/best_model_densenet100_k12.pth (torch, 121426 bytes, 47 tensors)

model_embedding.weight f4 [32, 12]
000000 b2 a1 87 be 8e 56 d1 3b d2 2f 90 3a 12 41 35 3e
       -0.2649055 0.006388492 0.001100058 0.17700604
000010 0f 17 61 be a6 57 75 be a4 98 d5 3d 81 cf 66 3e
       -0.21981452 -0.23959216 0.104295045 0.22540094
000020 f2 d4 10 be f4 f4 83 3e e2 ff 04 bd 9d 09 6d 3d
       -0.14143732 0.25772822 -0.03247059 0.057870496
000030 9f f2 1b be 87 03 3e 3d b0 a6 e8 bc b0 75 60 3e
       -0.15229271 0.046390083 -0.028399795 0.21919894
000040 8d c2 6f 3e 4a 98 0a bd 5e a4 4c 3e ee 9d ed 3d
       0.23414059 -0.03383664 0.19984576 0.11602388
000050 35 29 ee bd 35 85 a2 3c 82 03 c2 3d 6f 6f 0b 3d
       -0.11628953 0.019838909 0.09473325 0.03404182
000060 3e ae 61 be a8 17 00 3e 21 94 94 af 3d b8 73 3d
       -0.22039124 0.12509024 -2.7026295e-10 0.059501875
000070 ad 7c 76 3d 3b 18 7e 3d 07 39 12 be 85 1c 6d be
       0.060177494 0.062034827 -0.14279567 -0.2315541
000080 d0 50 df bd 52 46 4c be b1 0e f4 bc 7a 21 8c 3e
       -0.10904086 -0.199487 -0.029792162 0.2736929
000090 95 25 17 3e 79 dd b5 bd 1e 85 97 3a ef 29 55 3e
       0.1476043 -0.08880133 0.0011560058 0.20816778
0000a0 b6 e1 1c bd 15 df a3 bd 1b d0 a9 3d 58 73 23 be
       -0.038301192 -0.08001534 0.08291646 -0.15961969
0000b0 23 33 79 be df 5e e4 3d 95 bb 10 be fd 5a 26 3d
       -0.24335913 0.11150908 -0.14134057 0.040614117
0000c0 54 90 3d be 4c 98 95 3d 16 6a eb 2f cb 23 67 3e
       -0.18512088 0.07304439 4.282163e-10 0.22572248
0000d0 f3 e8 c4 bc e8 4a 8d be c8 6e d4 bd 4f 74 41 be
       -0.02403686 -0.2759621 -0.10372692 -0.18892024
0000e0 a9 45 2a be d6 cb 65 3e a0 8f 83 3e 42 ff 8a bc
       -0.16628136 0.22441038 0.25695515 -0.01696742
0000f0 2b 0e 8c 3d b8 2e 88 be f5 49 35 b5 5a 6b 75 3e
       0.0683864 -0.26598144 -6.7535376e-07 0.23966733
000100 5f a7 aa 3e c6 ee ff 3d a6 0d 88 be 08 ce b1 bc
       0.3333082 0.12496714 -0.26572913 -0.021704689
000110 1b 4d 3b be ab 00 8f 3c d5 12 00 be f7 b0 c2 bd
       -0.18291132 0.017456373 -0.12507184 -0.095064096
000120 66 22 8f 3e b6 71 67 bd df 81 3d 31 23 7b 82 bd
       0.2795593 -0.056504928 2.7576943e-09 -0.06371143
000130 ca af bf bd b3 ac ce bd 1c 5e 03 be cb 62 90 3c
       -0.09359701 -0.100915335 -0.12828869 0.017625233
000140 18 f1 b1 3d 9b 59 8c 3d 92 0f 6b be 06 60 2f 3e
       0.08688563 0.068530284 -0.22955158 0.17126474
000150 03 b1 95 3d f1 9c cf 3d 69 b8 39 3b bf 66 cb 3c
       0.07309153 0.10137356 0.0028338677 0.024829267
000160 2f 9a 18 3e 36 18 8e bd 08 63 6f 3e af 65 8d be
       0.14902566 -0.069382116 0.23377621 -0.2761664
000170 27 30 94 3d 5d 4b 73 3e e6 d2 96 3e d0 82 bf bd
       0.07235747 0.23759218 0.29457778 -0.093511224
000180 08 7c 37 bd f9 0a 40 3e 9e c4 8b 3b 72 7f 24 3e
       -0.04479602 0.18754186 0.004265382 0.16064242
000190 69 12 44 3d dc 9a 4a be bf 41 8e 3e 49 94 41 be
       0.04786912 -0.19785637 0.27784535 -0.18904223
0001a0 10 98 8a 3e 02 9e 68 3d d5 04 8a bd b6 b1 34 3e
       0.2706914 0.056791313 -0.06739203 0.17645916
0001b0 68 0d f8 bd ff ca 75 be cb f7 cd 3c 59 20 8e 3e
       -0.12111932 -0.24003218 0.025142571 0.27759054
0001c0 d8 42 72 3c b0 b0 f3 3d c4 50 88 be da 3c 8f 3e
       0.014786445 0.11898935 -0.2662412 0.27976114
0001d0 33 92 c6 bc a4 10 96 be f7 05 64 3e 5a 89 87 3e
       -0.024239635 -0.2930957 0.222679 0.26471978
0001e0 73 d1 6a be af bc c4 bd d8 fe 29 3d aa dc db 3d
       -0.22931461 -0.09606301 0.041502804 0.10735448
0001f0 ba 3c 29 3e 61 8f be bd ae 85 8e bd 80 04 60 3e
       0.16527072 -0.09304691 -0.06959091 0.21876717
000200 07 3f b7 bd cf de fc bd 2a cb 3c be 9c e4 21 be
       -0.089475684 -0.12347185 -0.18436876 -0.15809864
000210 c9 58 1d 3e ea 66 44 be 12 a5 8c 3c 12 3c 8e be
       0.153659 -0.19179884 0.017168555 -0.27780205
000220 ad e0 a8 3e ea 60 6f be bb ad 8d be 32 e8 6d be
       0.32983914 -0.23376814 -0.27671608 -0.23233107
000230 93 af 15 bc 61 0a 37 be ff 5c ef 3d b0 18 84 3e
       -0.009136098 -0.17875053 0.116876595 0.25800085
000240 06 94 ed bd b4 26 f4 bd 87 03 5d 35 11 89 5b 3d
       -0.11600499 -0.119214445 8.233405e-07 0.053597514
000250 20 01 32 3c 4d 49 88 3e be aa 9c be ec 95 0e be
       0.010864526 0.26618424 -0.30599016 -0.13924378
000260 d0 a5 12 3c 13 b1 88 be 84 aa d3 3d 0b 21 45 3d
       0.008950666 -0.26697597 0.10335258 0.048127215
000270 af 47 47 be 3c 1e 3f be 21 0e 6c b2 d6 54 84 be
       -0.19460939 -0.18663877 -1.37402205e-08 -0.25845975
000280 2e 06 3d be 18 8b 74 3e 11 f1 25 be 0b f2 bb bd
       -0.18459389 0.23881185 -0.16205241 -0.091770254
000290 a2 ab 52 be b7 74 c6 bb 20 58 32 be 81 10 84 3e
       -0.20573285 -0.006056394 -0.1741643 0.2579384
0002a0 52 33 25 3e f5 6e f8 3d a5 8e de bc 8a 1b cb bc
       0.16132858 0.121305384 -0.027167628 -0.024793405
0002b0 b8 8f 13 3d b6 70 6d bd 51 59 af bd 58 60 58 be
       0.036025733 -0.057968818 -0.08561958 -0.21130502
0002c0 22 22 b8 3d 25 ff 2f 3e e2 67 82 be af 50 b3 bd
       0.08990885 0.17187174 -0.2546988 -0.087556235
0002d0 21 05 62 be 17 ab 64 3e b0 55 98 b4 c3 7b 79 be
       -0.22072269 0.2233089 -2.8374552e-07 -0.24363618
0002e0 b7 42 bd bb b0 4b 2e 3e 69 84 41 3e 58 4b af be
       -0.0057757753 0.1702106 0.18898167 -0.3423717
0002f0 0e 25 21 be 02 e2 19 3e af 7a 0f be 8b 05 a5 3d
       -0.15736791 0.15027621 -0.14011644 0.08057698
000300 d7 d0 6b bd 3f 1f 5f be 33 b8 95 bb c9 1c 54 3d
       -0.057572212 -0.21789263 -0.0045690774 0.051785264
000310 35 1a 11 3e de 4d 58 bd 39 83 a3 bd 6a 15 32 bd
       0.14170153 -0.052808635 -0.07984013 -0.043477453
000320 7b 0c 58 3e f9 cd 47 3e e0 61 b9 bb e2 84 8b be
       0.21098511 0.19512166 -0.0056574196 -0.2724982
000330 a1 e7 70 3d dd 5a de 3d e3 77 16 38 33 74 35 bd
       0.05881465 0.108571745 3.587444e-05 -0.04430027
000340 4a 27 bc 3d 14 1a 83 bd c3 9f c5 bc 44 4d 9f bd
       0.09187181 -0.064014584 -0.024124032 -0.07778409
000350 44 92 14 be ea 8e 4f be 32 98 20 bd be 5f d5 3d
       -0.14508921 -0.20269361 -0.039207645 0.10418652
000360 5c 26 33 3e 17 6d b0 3b fc b8 33 33 41 4f 98 3e
       0.17495102 0.0053840983 4.1844928e-08 0.29747966
000370 4a 41 83 3e 59 bc 62 be 3b 48 44 3e 3f 86 a9 be
       0.2563575 -0.22142161 0.19168179 -0.33110234
000380 53 3b 74 3e 13 3e a1 3d 90 7d d0 bd af a1 85 3d
       0.23850755 0.07873168 -0.10180199 0.06524979
000390 6f 91 44 3d 10 45 2b bb cb ac 1e 2f 46 46 43 be
       0.04799026 -0.0026133694 1.4431405e-10 -0.19069776
0003a0 67 dc 2d 3e 84 85 51 be 6a 7f cc 3d a8 7d 33 3e
       0.16978608 -0.20461088 0.0998524 0.17528403
0003b0 22 ff 90 be 4c 0c 8c be cb df 23 3e 17 32 8f be
       -0.2831965 -0.27353132 0.16003339 -0.27967903
0003c0 ce af 6c 3e 78 09 64 3e 96 91 d0 b8 c9 22 bc bd
       0.23113939 0.22269237 -9.9453304e-05 -0.09186322
0003d0 95 e5 2f 3e 8f 1f 2e be 8c b8 04 be 10 d7 27 bd
       0.17177422 -0.17004226 -0.12961024 -0.040976584
0003e0 24 32 28 be 55 2b 3f 3e 95 17 5b bd 5e 2b a7 3a
       -0.16425377 0.18668874 -0.053489286 0.0012754013
0003f0 8f b6 ed bd a6 22 21 39 a8 46 fc 3c e9 cc 81 be
       -0.11607086 0.00015367064 0.03079541 -0.25351647

model_embedding.bias f4 [32]
000000 a1 95 35 bb b4 47 01 bd 8a 54 41 3b a6 bf 05 bd
       -0.0027707594 -0.031562522 0.0029499852 -0.032653473
000010 2d 0b b8 3b c9 3a b1 37 ac ec 65 34 39 4a 77 3d
       0.0056165666 2.1127418e-05 2.1413388e-07 0.06037352
000020 ab 8a 35 b7 7b 03 14 3d d2 55 8f bc 2f 38 66 bb
       -1.0820727e-05 0.03613613 -0.017496977 -0.0035128703
000030 f8 b2 fe b9 63 a5 29 bd 28 5e 3d b7 85 31 4e 3d
       -0.00048579997 -0.04141749 -1.12872e-05 0.050340194
000040 30 81 20 bb c2 3e 1a 3d 1e 03 75 3d 49 81 10 b8
       -0.0024491064 0.037657507 0.059817426 -3.445268e-05
000050 aa e6 41 b7 5e d6 60 3d 98 0c 3e b7 fb c1 01 b6
       -1.1557402e-05 0.054891936 -1.1327815e-05 -1.933541e-06
000060 f9 fc 4d 3d e8 92 d2 3b e1 69 0e 3c 9f af 79 3c
       0.05029008 0.006426204 0.008692236 0.015239625
000070 93 d0 e6 3c 5d a0 78 37 b3 6c d4 b7 62 34 8c 36
       0.028175628 1.4819289e-05 -2.5322986e-05 4.1784233e-06

dataset_embedding.weight f4 [16, 3]
000000 2e fa 12 be 9d be e8 be 0a db d8 be bf 21 29 3d
       -0.14353248 -0.45457926 -0.42354614 0.04129195
000010 a9 0b b0 3e e4 2f 42 3e 6e 0e 67 bd d6 05 fd 3e
       0.34383896 0.18963581 -0.056410246 0.49418515
000020 bb 05 73 3c 4a 61 d9 be 8d eb 1e 3e 02 85 34 3e
       0.014832909 -0.42457038 0.15519543 0.17628863
000030 fd 8c b9 be 5d 39 09 bf 4d 75 bb 3e 1d ad f3 3e
       -0.36240378 -0.53603154 0.3661293 0.47593012
000040 cb e2 d0 be 64 1b c2 be 6d 4a 14 bf b6 c6 c8 be
       -0.4079803 -0.37911522 -0.57926065 -0.39214104
000050 8d f8 df be 3b 41 d4 3e 3a 24 af ba b5 40 00 3f
       -0.43744317 0.41456017 -0.0013362237 0.50098735
000060 0d 84 f2 3e 2d 07 5d 3e 10 9e 0a 3f 21 8b 1a bf
       0.47366372 0.21584769 0.54147434 -0.60368544
000070 0b f5 b1 3e bb 80 8d be f7 03 74 be e9 be 04 bf
       0.34757265 -0.27637276 -0.23829637 -0.51853806
000080 f4 12 ab 3e a6 a2 1d 3e 94 2d c5 3e 04 16 ea be
       0.33412898 0.15394077 0.38511336 -0.45719922
000090 b2 b7 04 be 8e f8 e0 3e 37 6d 92 3d 08 23 a3 be
       -0.12960699 0.43939632 0.07149737 -0.31862664
0000a0 98 c0 e5 be ce d0 41 3c 9e be 13 3f f4 7e db 3e
       -0.448735 0.011829568 0.57712734 0.42870295
0000b0 d7 95 96 3d 15 05 fc be e6 05 84 be d8 a5 b8 3c
       0.073527984 -0.49222627 -0.2578575 0.022540018

dataset_embedding.bias f4 [16]
000000 f0 54 30 bc f1 d9 37 36 e5 5f bf b7 9b 39 fd ba
       -0.010762438 2.7395984e-06 -2.2813629e-05 -0.0019319536
000010 0f 29 be 38 85 d0 14 be f3 e8 bd bd ae 84 4b 3e
       9.067554e-05 -0.14532669 -0.09272947 0.19874832
000020 3d 17 49 be a7 1a 30 ba d1 ce 04 3e 86 9a 93 be
       -0.19637771 -0.00067178387 0.12969519 -0.2882883
000030 ec a3 76 3e 4d a5 ab b7 3d 5c e9 bd 80 ef 4b 3e
       0.24085969 -2.0461763e-05 -0.11394546 0.19915581

tensor_network.0.weight f4 [16, 1]
000000 14 37 ba 3e 70 ab 11 bf 81 a8 2a 3f 56 5f d8 3c
       0.36370146 -0.5690222 0.66663367 0.026412647
000010 b4 26 0f 3f 16 36 0e 3f f3 bf 5a bf 9f b4 ea 3d
       0.5591843 0.5555128 -0.8544914 0.11460232
000020 f1 df 62 be 3a f2 86 be 5c f0 07 bf 84 9b 13 3f
       -0.2215574 -0.2635668 -0.53101134 0.57659173
000030 ba 2a cc 3d 2c 48 86 3d cb bb 13 3f b8 03 29 3f
       0.09969087 0.065567344 0.57708424 0.660213

tensor_network.0.bias f4 [16]
000000 1c 1d 1e bb 1c 27 28 bf a4 d1 97 3e 67 86 4b 3d
       -0.0024126237 -0.65684676 0.2965213 0.049688723
000010 a8 79 15 3f cb ee 33 3f 64 53 5d 3f 9b ad 0c 3e
       0.5838876 0.70286244 0.8645537 0.137381
000020 92 fb 19 bf 07 8c 68 3f c7 39 0a 3f ab 6c 12 3f
       -0.6014949 0.90838665 0.5399441 0.57197064
000030 35 1c 4f 3e f8 c4 43 3b 6f 7d 0d 3f 2d 0a 9e 3e
       0.20225604 0.0029872041 0.5526952 0.30867139

tensor_network.2.weight f4 [16]
000000 db ef 81 3f 48 08 35 3f 18 7a 80 3f ac 3a 80 3f
       1.0151323 0.7071576 1.003726 1.0017905
000010 17 08 7f 3f df 5c 7f 3f 10 83 80 3f 0c 0a 81 3f
       0.9962172 0.99751085 1.0039997 1.0081191
000020 48 08 35 3f 08 1c 85 3f b7 93 84 3f e5 8a 81 3f
       0.7071576 1.039918 1.0357579 1.0120512
000030 0d 1a 84 3f 46 11 80 3f fc dd 84 3f 23 3c 81 3f
       1.032045 1.0005271 1.0380244 1.0096477

tensor_network.2.bias f4 [16]
000000 e8 af e6 b8 10 ca 4f b1 54 70 99 b7 11 d2 3c b8
       -0.0001100002 -3.0237324e-09 -1.8291328e-05 -4.5018332e-05
000010 b1 12 f0 b8 09 08 82 b8 2c bd b3 36 b1 fe 61 37
       -0.00011447573 -6.20038e-05 5.356638e-06 1.3470345e-05
000020 23 a2 99 b1 13 78 aa b7 f7 54 07 38 12 0f c4 b8
       -4.471319e-09 -2.0321493e-05 3.2265638e-05 -9.3488154e-05
000030 11 8f 85 38 4e 8e 0f b8 90 fa 25 b6 cf 64 8b 38
       6.3685824e-05 -3.422639e-05 -2.4732763e-06 6.6468136e-05

tensor_network.2.running_mean f4 [16]
000000 7d 2d a2 3f 00 00 00 00 30 3f 27 40 ee 5d 13 3e
       1.2670132 0.0 2.6132317 0.143913
000010 6b 21 22 40 b1 f4 28 40 3b c6 6d 3c 36 eb 0e 3f
       2.5332897 2.6399348 0.014512594 0.55827653
000020 00 00 00 00 e2 43 83 3e 6f ad 19 3c 6a 2f 25 40
       0.0 0.25637728 0.009379729 2.581019
000030 4b e3 0b 3f 1b 18 66 3e 63 0e 24 40 c0 9e 26 40
       0.54643697 0.22470133 2.563378 2.6034393

tensor_network.2.running_var f4 [16]
000000 ff 55 35 3f 69 36 7a 27 51 e2 15 40 dd 25 6c 3b
       0.70834345 3.4723965e-15 2.3419383 0.003603331
000010 9e c7 d3 3f 4d 0c d1 3f 21 13 04 3b c1 67 9b 3d
       1.6545293 1.6331879 0.0020153003 0.07588149
000020 69 36 7a 27 5e 4a 97 3d 56 7a 5c 3a 9f ff e0 3f
       3.4723965e-15 0.07387231 0.00084105635 1.7578009
000030 15 22 4d 3d 9f 96 af 3c 71 60 e1 3f 72 0a 13 40
       0.05008133 0.021434126 1.7607557 2.2975125

worker_network.0.weight f4 [16, 1]
000000 27 5b 03 3f 00 95 ae 3e 45 a4 27 3d 87 a9 05 3e
       0.5131096 0.34098053 0.040928144 0.13052951
000010 f8 6d 8c 3e c4 3d 25 3e ce 71 b3 3d de 94 18 3f
       0.2742765 0.16136843 0.08761941 0.59602153
000020 9b f0 0d 3e 29 1a c8 bc fc 98 29 3f 73 48 36 3e
       0.13861315 -0.024426537 0.6624906 0.17801075
000030 92 68 2d 31 8b 53 13 be 8f bf bb be cc 5e e3 be
       2.5234255e-09 -0.14387338 -0.36669585 -0.44408262

worker_network.0.bias f4 [16]
000000 6b 9f 92 3e ea ff 18 3f 41 bd 77 be 9c 6f 17 3f
       0.2863725 0.59765494 -0.24193288 0.5915468
000010 70 5b 08 bf 2a 33 99 be ba 4b 0f be ec 4c 08 3e
       -0.5326452 -0.29921848 -0.13993731 0.13310593
000020 1a 8d 39 3e 2d c1 e6 be 27 ed ea be 6e 93 b4 be
       0.18120232 -0.45069256 -0.45884058 -0.3526873
000030 58 29 c8 bc 1a e7 02 bf 9d 3b 90 bc 62 1a b6 3e
       -0.024433777 -0.51133883 -0.01760655 0.35567003

worker_network.2.weight f4 [16]
000000 d6 63 84 3f 9e 9a 7d 3f a0 b5 7a 3f cc bd 7b 3f
       1.0342968 0.9906405 0.9793339 0.9833648
000010 b0 af 7f 3f e0 30 81 3f 4f be 75 3f be fc 7c 3f
       0.9987745 1.009304 0.9599351 0.98823154
000020 31 88 77 3f 48 08 35 3f 53 61 80 3f 6f 07 7d 3f
       0.96692187 0.7071576 1.0029701 0.9883947
000030 48 08 35 3f 48 08 35 3f 48 08 35 3f 48 08 35 3f
       0.7071576 0.7071576 0.7071576 0.7071576

worker_network.2.bias f4 [16]
000000 27 49 d9 b7 30 e2 2a 38 0c 50 67 38 19 1c 9e 37
       -2.590248e-05 4.0741812e-05 5.514924e-05 1.8848152e-05
000010 0c fc fe 36 7a 2e 5f b8 4f b8 6a 35 b6 7f f8 b7
       7.599132e-06 -5.3210628e-05 8.744e-07 -2.9623374e-05
000020 39 37 1f 38 b9 d3 90 b0 02 03 0b 38 ff 33 16 b8
       3.7959984e-05 -1.0537554e-09 3.3142984e-05 -3.5811212e-05
000030 55 a1 a8 2f 17 e6 3a af 65 b4 52 31 ca 89 47 b1
       3.0673655e-10 -1.6998346e-10 3.0661564e-09 -2.9036635e-09

worker_network.2.running_mean f4 [16]
000000 4d ca 2e 40 25 11 0f 40 8d bd e2 3c d0 f2 9d 3f
       2.7310975 2.2354214 0.027678275 1.2339725
000010 18 01 40 3f f0 5d f2 3e ca 42 8a 3e 18 c4 3d 40
       0.7500167 0.47337294 0.2700408 2.9650936
000020 e0 be 5d 3f 00 00 00 00 0f f3 2a 40 bb af f5 3e
       0.8661938 0.0 2.6710851 0.47985634
000030 00 00 00 00 00 00 00 00 00 00 00 00 00 00 00 00
       0.0 0.0 0.0 0.0

worker_network.2.running_var f4 [16]
000000 31 70 dc 3f 23 16 45 3f eb e5 cd 3a d0 2f ef 3d
       1.7221738 0.769869 0.001570878 0.116790414
000010 e0 ff f3 3e f4 ad 34 3e e4 80 47 3d be 29 14 40
       0.47656155 0.17644483 0.048706904 2.3150477
000020 ed 0b 09 3e 69 36 7a 27 d1 9c 36 40 d6 9a 4d 3e
       0.13383456 3.4723965e-15 2.8533213 0.20078596
000030 69 36 7a 27 69 36 7a 27 69 36 7a 27 69 36 7a 27
       3.4723965e-15 3.4723965e-15 3.4723965e-15 3.4723965e-15

batch_network.0.weight f4 [16, 1]
000000 ec 1c 89 bb c2 d3 b4 3d 88 d8 a7 be 92 28 30 bf
       -0.004184356 0.08829452 -0.32782388 -0.68811905
000010 25 07 63 be 74 53 0e bf 52 d6 9d 3e ee 45 0a bf
       -0.22170694 -0.5559609 0.30827576 -0.54012954
000020 36 24 9a bd 86 7c ef 3e 4e 89 f1 3e 70 1b 24 bf
       -0.07526438 0.4677469 0.47175068 -0.64104366
000030 95 5b 38 bd bf 8f 8e be a7 2f 34 3f 15 57 ad be
       -0.045009214 -0.27844045 0.7038521 -0.338555

batch_network.0.bias f4 [16]
000000 f2 26 5d be e5 d0 40 3e a6 9f a2 3d 2a 04 d8 3d
       -0.21596888 0.18829687 0.07940607 0.10547669
000010 ad c0 06 3e 3e 08 0f bf 9a d5 00 3f f3 e0 91 3e
       0.13159437 -0.5587195 0.5032593 0.28491935
000020 d2 b3 d1 bc 7f 40 ff be 7e 5a b9 3e dc ca 1c 3f
       -0.02559844 -0.49853894 0.36201853 0.6124704
000030 11 6b f0 bc ae 19 aa b1 a7 47 08 bf 7e 00 27 3f
       -0.029347928 -4.9505706e-09 -0.5323433 0.65235126

batch_network.2.weight f4 [16]
000000 48 08 35 3f ce 64 7d 3f 48 08 35 3f 48 08 35 3f
       0.7071576 0.9898194 0.7071576 0.7071576
000010 48 08 35 3f 48 08 35 3f e3 0e 7d 3f 48 08 35 3f
       0.7071576 0.7071576 0.9885084 0.7071576
000020 48 08 35 3f 48 71 81 3f 68 2e 7b 3f 48 08 35 3f
       0.7071576 1.0112696 0.98117685 0.7071576
000030 48 08 35 3f 48 08 35 3f cb 32 7a 3f c0 1d 7b 3f
       0.7071576 0.7071576 0.97733754 0.9809227

batch_network.2.bias f4 [16]
000000 da 35 d7 b0 cf a2 82 b8 01 68 06 ae cf d5 3c 31
       -1.5658614e-09 -6.2292085e-05 -3.0560447e-11 2.7479137e-09
000010 e3 bc 5f b1 f9 45 9c 30 d6 e5 aa b7 f0 b7 e9 30
       -3.255814e-09 1.1370381e-09 -2.0372605e-05 1.7005259e-09
000020 2a 3d 06 31 7c 14 06 b8 aa 26 ee b6 bc 9d 4b b1
       1.9534334e-09 -3.1967167e-05 -7.097454e-06 -2.963005e-09
000030 41 47 dd 31 41 09 c3 b1 75 2c 8f 37 7e 35 51 b8
       6.440047e-09 -5.676299e-09 1.706763e-05 -4.98793e-05

batch_network.2.running_mean f4 [16]
000000 00 00 00 00 b5 73 57 3f 00 00 00 00 00 00 00 00
       0.0 0.8416093 0.0 0.0
000010 00 00 00 00 00 00 00 00 b1 96 2f 40 00 00 00 00
       0.0 0.0 2.7435725 0.0
000020 00 00 00 00 a8 d9 36 40 74 bb 70 40 00 00 00 00
       0.0 2.8570347 3.7614412 0.0
000030 00 00 00 00 00 00 00 00 2c df 8f 40 10 3c ab 36
       0.0 0.0 4.4959927 5.1031893e-06

batch_network.2.running_var f4 [16]
000000 69 36 7a 27 fa d6 0b 3d 69 36 7a 27 69 36 7a 27
       3.4723965e-15 0.034140565 3.4723965e-15 3.4723965e-15
000010 69 36 7a 27 69 36 7a 27 35 cd cf 3e 69 36 7a 27
       3.4723965e-15 3.4723965e-15 0.40586248 3.4723965e-15
000020 69 36 7a 27 2c e7 6b 3f 9c e2 6f 3f 69 36 7a 27
       3.4723965e-15 0.92149615 0.93705153 3.4723965e-15
000030 69 36 7a 27 69 36 7a 27 6d 3a 04 40 0a 2c 2b 34
       3.4723965e-15 3.4723965e-15 2.066066 1.5941637e-07

ps_network.0.weight f4 [8, 1]
000000 a4 ad a7 bd bd ca 49 3d f3 a3 81 3d f3 1a 0f 3f
       -0.08187416 0.049265612 0.06330099 0.55900496
000010 ad 62 aa ba 4c 64 07 bf 15 90 68 bd 18 7f 7e 3f
       -0.0012999378 -0.52887416 -0.056778032 0.9941268

ps_network.0.bias f4 [8]
000000 ac 2c 01 3e e0 fa be 3e dc 8c b6 3e 46 c0 8a 3e
       0.12614697 0.37300777 0.35654342 0.27099818
000010 36 65 91 be 69 01 41 be da 5f 77 3d 75 12 d5 be
       -0.2839753 -0.18848194 0.060394146 -0.41615644

ps_network.2.weight f4 [8]
000000 9c 14 7b 3f c5 a0 77 3f cb b9 78 3f c6 cf 7a 3f
       0.9807832 0.9672969 0.971585 0.9797329
000010 48 08 35 3f 48 08 35 3f 8a ae 6f 3f 1e ee 71 3f
       0.7071576 0.7071576 0.936257 0.94503963

ps_network.2.bias f4 [8]
000000 c2 57 86 38 69 1f ba 37 fb 61 51 b8 28 b3 00 39
       6.405964e-05 2.2187554e-05 -4.9920734e-05 0.00012273772
000010 cd f9 20 b0 c2 b5 44 30 90 78 58 b7 a5 f1 b3 b8
       -5.856265e-10 7.156268e-10 -1.2902674e-05 -8.580395e-05

ps_network.2.running_mean f4 [8]
000000 e6 11 8d 3d 75 57 f1 3e bc 34 ff 3e a4 ca b9 3f
       0.068881795 0.47137037 0.4984492 1.4514966
000010 00 00 00 00 00 00 00 00 53 30 0a 3d 93 78 ef 3f
       0.0 0.0 0.03373749 1.8708671

ps_network.2.running_var f4 [8]
000000 b4 e7 81 3b a2 df 84 3c 25 48 0f 3d 3f 95 2a 40
       0.0039643887 0.016219918 0.03498091 2.6653593
000010 69 36 7a 27 69 36 7a 27 79 23 7a 3a 1b 73 e8 40
       3.4723965e-15 3.4723965e-15 0.0009542029 7.264051

main_network.0.weight f4 [128, 104]
000000 96 b9 fb bc a3 a4 a8 bc f7 01 84 3d bf fe 3b 3c
       -0.030728143 -0.020586317 0.06445687 0.01147431
000010 9e d3 21 3c 39 c9 39 3d 0b 9e c6 3d 81 cd b0 bc
       0.009877114 0.045357917 0.09698113 -0.021582367
000020 a5 e2 43 3d 10 9b c2 3c 02 a0 e5 bc 22 7a f7 bd
       0.047823567 0.02375558 -0.0280304 -0.12083842
000030 ea e0 f1 bd 9d 0b c0 3d 35 0d c4 bc 11 1f 5b bd
       -0.11810477 0.09377215 -0.023932079 -0.053496424
000040 01 4a c6 bd 90 87 88 bd 62 a7 80 bd ac 3b 78 bc
       -0.09682084 -0.066664815 -0.06281926 -0.015150946
000050 d3 33 98 3d 59 a6 93 bc cf ec b9 bd dc 6f 3e bd
       0.0743176 -0.018023657 -0.09078371 -0.046493396
000060 79 7d 2f 3b 4e 44 14 3d 20 3d 44 3d b7 e3 05 bc
       0.0026777668 0.036197953 0.047909856 -0.008171967
000070 ff 06 09 bd fa 4e 70 bd ef 68 39 3c d4 31 2a bc
       -0.033453938 -0.058669068 0.011316522 -0.0103878565
000080 4a 9a 2c bd 56 19 c2 3c 57 cc 97 bd 47 a6 4d 3c
       -0.04213933 0.023693722 -0.074120216 0.012551851
000090 b3 9a 2f bc 9e 8d 96 bd e9 f0 9b 3d 73 12 bb bc
       -0.0107180355 -0.0735123 0.07614309 -0.022835946
0000a0 63 b5 e2 bd ef 88 17 bb 19 c6 e6 bc 1d db c7 bc
       -0.11069753 -0.002312239 -0.028170632 -0.024396474
0000b0 2d b9 ed 3d 2d 0c d2 bd aa 3a 49 3d 34 ea 8a bd
       0.11607585 -0.102562286 0.049128212 -0.06782952
0000c0 39 27 57 bb b9 df 02 b1 76 dd 9a ba e8 50 5a bd
       -0.0032829775 -1.9044661e-09 -0.0011815268 -0.053299814
0000d0 12 e4 95 3d da 3e be bc d7 23 c4 3c 43 81 8b 3d
       0.073188916 -0.02322333 0.023942871 0.06811764
0000e0 25 71 16 33 6c 8d a1 3b 2b 71 24 3d 9c 70 77 3d
       3.50275e-08 0.004930189 0.040146988 0.060410127
0000f0 0a 22 f4 3d 04 21 86 3c 5f df c1 3c 5a da 62 3d
       0.11920555 0.016373165 0.023666082 0.055384018
000100 1c 88 4a 3c 88 cd 88 bd bd 5a 66 3d 79 ca 5e 3d
       0.012361553 -0.06679827 0.05623888 0.05439231
000110 c4 df 8a bd de b4 c3 bd 1e 1a 35 3d 6b 78 dc bd
       -0.06780961 -0.09555982 0.04421436 -0.107651554
000120 66 c3 99 3d f9 c5 94 af 36 2f 4e 3b 9c 10 92 3d
       0.075079724 -2.706171e-10 0.0031461245 0.07132074
000130 6e d9 b6 2f a5 dc f0 ae 0a 85 30 33 17 5a 55 31
       3.32601e-10 -1.0953131e-10 4.109919e-08 3.104679e-09
000140 2f 39 56 32 c5 00 0c 3d 06 fe bf 32 24 ed a7 31
       1.24694415e-08 0.03418042 2.2350843e-08 4.8872995e-09
000150 e5 e4 df af 9c 95 16 33 4e b9 80 bd 1b 70 7a 2f
       -4.0726103e-10 3.5060665e-08 -0.06285344 2.2777195e-10
000160 32 06 b1 30 3c 5c e6 bd 92 37 a3 3d b1 80 bc 33
       1.2880206e-09 -0.11248061 0.079695836 8.777841e-08
000170 36 94 ab 2f a6 e1 36 30 b8 5e 41 3d 46 c0 82 3d
       3.121003e-10 6.653188e-10 0.04720947 0.063843295
000180 5a 2b c5 bc 41 dd 58 bb 98 0c 67 bd a1 ce 2c 3d
       -0.024068523 -0.0033090862 -0.056408495 0.042189244
000190 32 26 9f 31 97 98 17 b1 d0 41 81 3c 73 fb 82 ba
       4.6318513e-09 -2.206013e-09 0.015778452 -0.0009993151
0001a0 7e 62 9b bc d1 8f a7 3c 91 bd 66 bd ba a1 d1 bc
       -0.018967863 0.02045432 -0.05633313 -0.025589813
0001b0 5c 88 ea 3d c6 b5 c2 bc 24 00 72 bd 64 7c 98 3d
       0.1145179 -0.023768317 -0.059082165 0.07445601
0001c0 2e 3c 0f 3d 98 bc d6 3c 71 d6 7e 3d ad 1c a7 bd
       0.0349695 0.026212975 0.062216226 -0.08159766
0001d0 18 89 3e bd fb f5 3d 3d 19 2a 29 bc 62 61 a6 bd
       -0.04651746 0.046377163 -0.010324978 -0.08124043
0001e0 82 2c 02 bb 32 51 69 bd 9f 1d bf 3d 79 ed de bd
       -0.0019862955 -0.0569622 0.09331822 -0.10885138
0001f0 51 f8 cd bc 62 d7 fc bb 60 16 fe bc 51 35 56 3c
       -0.02514282 -0.0077161053 -0.031016529 0.013074235
000200 c8 0b a0 3d ae 93 8f bd 9b 81 3c 3d 2a 10 02 3d
       0.07814747 -0.070105895 0.04602204 0.031753697
000210 a9 ad 95 3d 39 e3 3d 3c 71 3e cc bd 85 00 bf bc
       0.07308514 0.011589819 -0.09972847 -0.023315677
000220 74 f2 80 3d 36 5e b2 3d be 99 84 3d a2 8f a2 bd
       0.06296244 0.087093756 0.064746365 -0.07937552
000230 0b b7 02 bd 7a db 54 bd 03 dc db bc 5f e9 80 3d
       -0.031912845 -0.05196712 -0.026838308 0.06294512
000240 b5 92 68 3c 50 c1 a3 bd f6 84 06 3c 7a 06 74 bc
       0.014195134 -0.07995856 0.008210411 -0.014894122
000250 f7 55 00 3d 8d 83 a0 3d b5 9f ae 3d 96 5a a7 3c
       0.031331982 0.07837591 0.085265554 0.020428937
000260 7e bf 8c 3d f4 7f 30 2f 40 79 69 bd ee e5 9c bd
       0.06872462 1.6052565e-10 -0.0570004 -0.07661043
000270 3d 43 16 3c 48 fe 84 bd fc 15 7b bc 99 f7 44 bd
       0.009171304 -0.06493813 -0.015325066 -0.04808769
000280 e0 65 9d 31 80 79 59 3d 69 64 de 3d 9f 32 ef 3b
       4.5808832e-09 0.053094387 0.108589955 0.0072997357
000290 e2 32 af bd 73 b1 f1 bc 23 f5 cf bc e2 e5 f6 3c
       -0.08554627 -0.02950356 -0.025385445 0.030138914
0002a0 b7 34 e7 bc 6c aa 1b bd 1f 71 12 bd a6 b0 84 3b
       -0.028223379 -0.038004324 -0.035752412 0.0040493784
0002b0 c4 dc 1e bd 56 e0 15 bd bc d8 9d bd 73 51 97 bd
       -0.038784757 -0.036590897 -0.077073544 -0.07388582
0002c0 8b bb 8b 3d d3 d4 8f b6 05 c0 05 3d 58 45 78 bd
       0.0682288 -4.286508e-06 0.032653827 -0.060613006
0002d0 7e 4b 69 b3 47 7a 55 31 cd d4 59 b5 3b 09 b2 b2
       -5.43182e-08 3.1065086e-09 -8.1148465e-07 -2.0726125e-08
0002e0 7e 85 aa b1 23 a4 97 3d 5f ef c9 32 87 6f 44 ad
       -4.9628275e-09 0.074043535 2.3508333e-08 -1.1166074e-11
0002f0 0c e5 56 af e4 4a a0 b4 54 d4 49 3c 4c 19 96 30
       -1.954456e-10 -2.9856812e-07 0.012318689 1.0921126e-09
000300 09 57 d3 b0 6a 3b 26 bd bd d0 8f 3d ae 75 ac b1
       -1.5377007e-09 -0.040584005 0.070222355 -5.0192375e-09
000310 fa f4 40 33 0f 9c 79 b0 68 7a 99 bd 27 d1 54 3d
       4.492629e-08 -9.0807445e-10 -0.0749405 0.051957276
000320 7d d4 ca bc 1d 86 83 3d 08 b8 97 3d 11 e2 55 bd
       -0.024759525 0.064220645 0.07408148 -0.052217547
000330 4a 41 65 b5 8a 1d f7 af 34 c9 19 bd 1b 25 b2 3d
       -8.5404156e-07 -4.4950027e-10 -0.037545398 0.086984836
000340 ec eb 81 bd 58 65 31 3d 96 d5 45 3a 8d b0 54 bd
       -0.06343827 0.04330954 0.00075467804 -0.051926184
000350 00 2a 1a bc 8e 38 73 3d c8 b3 26 bc a6 04 53 bc
       -0.009409428 0.059380107 -0.010174699 -0.012879526
000360 b7 c4 51 3d a6 89 bd 3d a0 34 48 3c 71 11 41 3d
       0.051212993 0.0925477 0.012219578 0.047135774
000370 ad af f1 bc 76 26 2b bc 43 f3 32 3d 94 1a b0 3d
       -0.029502714 -0.0104461815 0.043689024 0.085988194
000380 0b ee f6 bc ec ad 4f bd ab d0 72 bd da 4f 8a bc
       -0.030142805 -0.050702974 -0.059281033 -0.01688378
000390 4d f9 81 3d 38 25 84 3d ee ae f3 3c ba 7f e9 bd
       0.063463785 0.064524114 0.029746499 -0.11401315
0003a0 5f 2c 1f 3d 9b 76 8a 3d 27 18 44 3d 2f 21 d1 3c
       0.038860675 0.067609034 0.047874596 0.025528518
0003b0 7e 54 c3 bd 66 68 bc bc ff 3a 6e 3c 4c 4f 96 bc
       -0.095376 -0.022999 0.014540433 -0.018348359
0003c0 b9 65 25 bd 11 53 2a bc 2c e2 1f bc 69 85 02 bd
       -0.040380213 -0.010395781 -0.009758513 -0.03186551
0003d0 72 bf 43 3d e2 d9 91 bd 91 5c 2b bd e1 23 85 3b
       0.04779 -0.07121636 -0.041836325 0.004063115
0003e0 53 ef 80 bd 38 cc b0 bd 29 6f 06 3d c6 8e 8c bd
       -0.062956475 -0.08632702 0.032820854 -0.06863169
0003f0 3f 5b 0c bd 50 82 5b bd 76 6e 17 3d 14 a7 c0 3c
       -0.034266707 -0.053591073 0.036970578 0.023517169

main_network.0.bias f4 [128]
000000 94 11 be 37 06 df 78 37 2b ae 92 35 ad b4 1c b7
       2.265795e-05 1.4833879e-05 1.0928537e-06 -9.340391e-06
000010 c8 a2 2e b6 c8 b6 aa b7 16 b8 27 38 de aa 08 b6
       -2.6022772e-06 -2.0350693e-05 3.9987346e-05 -2.0365037e-06
000020 ff 98 0b b8 05 8a 18 36 ac 94 04 36 d1 49 00 b8
       -3.328267e-05 2.2730103e-06 1.9756071e-06 -3.0586325e-05
000030 c5 90 f3 b7 9b 84 96 36 7c d8 13 b8 ff 68 54 35
       -2.9035271e-05 4.4857857e-06 -3.5249148e-05 7.9128944e-07
000040 41 c8 b8 37 9d e6 4c 36 f1 c4 e5 36 12 b3 c9 b6
       2.202776e-05 3.0532603e-06 6.847659e-06 -6.0111133e-06
000050 0e 8d 8f b7 67 b4 2e 35 bf f9 b5 b8 d3 d3 9d b7
       -1.7112612e-05 6.508257e-07 -8.6772714e-05 -1.8814497e-05
000060 49 0c 68 34 83 f5 96 b8 dc b3 90 37 dd a9 0f b7
       2.1611153e-07 -7.1982875e-05 1.7249891e-05 -8.563014e-06
000070 70 7c 7c 35 ab 0f 12 b6 f3 4c 66 35 2d 9b 29 36
       9.4058396e-07 -2.1764815e-06 8.579365e-07 2.5273287e-06
000080 86 55 d2 b6 c0 22 ec 36 df 76 0e 38 f0 07 07 b8
       -6.268444e-06 7.0373935e-06 3.3966146e-05 -3.21939e-05
000090 f4 73 79 b7 5f 3d 06 b6 3a cd 66 37 cc 62 fe b7
       -1.4868554e-05 -2.0003279e-06 1.3756851e-05 -3.0325165e-05
0000a0 37 3c 42 37 e5 ef ff 37 85 9d 5f b7 81 5a 83 b7
       1.1577321e-05 3.0510078e-05 -1.3328511e-05 -1.5658561e-05
0000b0 31 45 da b5 eb e4 f4 36 0b a9 bd 37 63 a4 a8 b7
       -1.6262403e-06 7.298416e-06 2.2609272e-05 -2.010371e-05
0000c0 4f 2d c9 36 84 ae 86 b6 3d a7 f8 36 67 bb 22 38
       5.9955414e-06 -4.0138275e-06 7.410445e-06 3.8798342e-05
0000d0 95 d7 d1 36 bb de 7a 36 ea 89 e7 b3 4a 3b ab b5
       6.2537824e-06 3.738255e-06 -1.0781862e-07 -1.2757748e-06
0000e0 4c 42 a7 b6 11 34 0c 36 d5 9b c5 35 e2 61 ee b6
       -4.984706e-06 2.0891932e-06 1.4722997e-06 -7.104348e-06
0000f0 20 e8 09 37 ce 7d 79 36 63 b9 12 b7 15 5c a6 b7
       8.219882e-06 3.717712e-06 -8.745442e-06 -1.9831621e-05
000100 15 08 c3 b6 7d a9 90 37 02 51 f4 37 d1 53 8b b6
       -5.8123937e-06 1.7245062e-05 2.9124789e-05 -4.1522803e-06
000110 34 1a 28 b7 4c 56 c0 37 d0 66 88 b8 c9 28 59 35
       -1.0019681e-05 2.2928369e-05 -6.504136e-05 8.089815e-07
000120 e6 4b 2b 36 91 ec 21 b7 c6 2c 24 b6 34 5a 4f b6
       2.5525164e-06 -9.651428e-06 -2.4463966e-06 -3.0897909e-06
000130 4c 2c 0e b9 c0 71 cc 36 fe 8d d8 36 d5 23 5e b7
       -0.00013558677 6.092916e-06 6.4538317e-06 -1.3240574e-05
000140 ce 0e d7 b6 d5 7e 5b 36 a1 94 3d b7 d1 7c 34 37
       -6.409223e-06 3.270737e-06 -1.1299883e-05 1.0757897e-05
000150 b4 e2 b7 b7 77 2f db 36 29 a6 a7 36 fb 2c 21 37
       -2.1920867e-05 6.5322342e-06 4.9963314e-06 9.606821e-06
000160 e5 19 e3 36 ed d6 3e 38 5b 3e e8 b7 22 8c 76 37
       6.7681417e-06 4.5499695e-05 -2.7685592e-05 1.469537e-05
000170 a1 16 f5 b5 31 db c6 b6 15 f4 b6 b7 ee 2e 21 37
       -1.8260508e-06 -5.926377e-06 -2.180975e-05 9.6072745e-06
000180 33 c3 35 36 68 eb ae 37 7a 10 82 36 d1 4c d7 37
       2.7084723e-06 2.0852036e-05 3.87622e-06 2.5665768e-05
000190 58 0d da b7 ed 28 25 36 61 8f 50 b5 b0 73 3c 37
       -2.5993839e-05 2.4610738e-06 -7.769468e-07 1.1232609e-05
0001a0 30 9d 7b 37 f2 33 92 b7 94 87 bf b6 59 c6 4e b7
       1.4997364e-05 -1.7428745e-05 -5.708027e-06 -1.2324738e-05
0001b0 fd 08 06 37 28 df e1 b6 7b da c5 37 25 bf a1 b7
       7.989115e-06 -6.7315013e-06 2.3585968e-05 -1.9281704e-05
0001c0 8a e0 33 37 07 b8 1e b7 bb 5f d1 b7 f9 98 56 b7
       1.0721511e-05 -9.460381e-06 -2.495932e-05 -1.2791011e-05
0001d0 c3 61 9d 36 b9 4f b2 b7 5b a7 88 b6 4b f8 d5 b5
       4.6903456e-06 -2.1256377e-05 -4.0725986e-06 -1.5942e-06
0001e0 c5 c7 20 38 a9 07 13 b6 82 3d 8f 36 48 ae 41 38
       3.8333023e-05 -2.1909166e-06 4.2688926e-06 4.6177098e-05
0001f0 7f a7 4d 37 c3 d5 74 b7 cb cc 12 b5 63 9c 90 b7
       1.225795e-05 -1.4593304e-05 -5.468725e-07 -1.7238961e-05

main_network.1.weight f4 [128]
000000 a6 e0 7a 3f 12 53 82 3f 49 34 72 3f f7 3d 77 3f
       0.97999036 1.0181601 0.9461103 0.96578926
000010 c3 0e 80 3f ae 8e 79 3f 59 8d 7b 3f 49 9d 7f 3f
       1.0004505 0.97483337 0.98262554 0.99849373
000020 da 46 84 3f 15 af 77 3f ba ec 80 3f 74 5f 7c 3f
       1.0334122 0.9675153 1.0072243 0.9858315
000030 4f 94 7e 3f e9 57 82 3f e9 f2 78 3f 88 c5 81 3f
       0.9944505 1.0183078 0.9724565 1.0138407
000040 2b 00 80 3f 7b fb 83 3f fb 5a 7d 3f b1 b5 80 3f
       1.0000051 1.0311121 0.9896695 1.0055448
000050 43 b8 72 3f 1b f4 7d 3f 10 3d 83 3f 4a d8 77 3f
       0.9481241 0.992006 1.025301 0.96814406
000060 7d 3b 7b 3f 68 02 80 3f 78 8c 89 3f c4 9b 85 3f
       0.98137647 1.0000734 1.0745993 1.0438161
000070 39 22 82 3f 80 39 7a 3f ce a0 81 3f a4 79 81 3f
       1.0166694 0.9774399 1.0127199 1.0115247
000080 30 8c 7d 3f 4c 14 80 3f 69 4a 83 3f 84 68 80 3f
       0.99042034 1.0006194 1.0257083 1.0031896
000090 9c f5 73 3f 6a 38 83 3f ac db 73 3f cf 2f 81 3f
       0.95296645 1.0251591 0.9525707 1.0092715
0000a0 0e 38 7a 3f 85 dd 7c 3f 7f 4c 7a 3f e4 e6 80 3f
       0.9774178 0.9877551 0.97772974 1.0070462
0000b0 0c a7 80 3f a2 f5 81 3f 9a 63 7b 3f 9f 91 82 3f
       1.0050979 1.0153086 0.98198855 1.020069
0000c0 ca b6 84 3f 49 90 77 3f 16 91 80 3f 70 36 86 3f
       1.0368283 0.96704537 1.0044277 1.0485363
0000d0 36 e8 86 3f 14 1a 77 3f f6 a6 86 3f 0a 86 7f 3f
       1.0539615 0.9652417 1.0519702 0.998139
0000e0 f0 c1 82 3f 86 1c 83 3f d0 e1 7d 3f c0 82 84 3f
       1.0215435 1.024308 0.9917269 1.0352402
0000f0 a8 2b 7d 3f 49 ab 80 3f fe b4 82 3f e1 47 7e 3f
       0.9889474 1.0052272 1.0211484 0.9932843
000100 fc 61 75 3f e2 b9 82 3f 5b 53 7c 3f 19 89 7b 3f
       0.9585264 1.0212977 0.9856469 0.9825607
000110 fa 85 76 3f ff 82 80 3f 78 0f 7c 3f 99 85 78 3f
       0.9629818 1.0039977 0.98461103 0.97078854
000120 f1 f1 7b 3f 11 ad 82 3f fd f1 79 3f 4f de 72 3f
       0.9841605 1.0209066 0.9763487 0.94870466
000130 b4 fe 83 3f 40 8a 80 3f 12 43 7d 3f 90 11 7c 3f
       1.0312104 1.004219 0.98930466 0.984643
000140 5d f3 7f 3f 7c 3e 7c 3f 1b 2e 7d 3f dc 7d 86 3f
       0.9998072 0.98532844 0.98898476 1.0507159
000150 1b e7 83 3f 67 42 6f 3f a0 98 84 3f 56 77 84 3f
       1.0304903 0.93460697 1.0359077 1.0348918
000160 c1 f8 7c 3f b1 c2 80 3f 06 45 80 3f 11 b9 81 3f
       0.9881707 1.0059415 1.0021064 1.0134603
000170 d9 3a 86 3f 31 f4 7e 3f bd c3 88 3f 63 db 79 3f
       1.0486709 0.99591357 1.0684735 0.9760038
000180 31 1f 77 3f b9 d8 79 3f 62 4e 73 3f 26 ea 7a 3f
       0.9653197 0.9759632 0.9504148 0.9801353
000190 54 b9 82 3f 9a 97 75 3f 04 5c 7d 3f 14 24 87 3f
       1.0212808 0.9593445 0.9896853 1.0557885
0001a0 34 6b 77 3f 2e 44 73 3f 2a fd 7f 3f e4 fb 7b 3f
       0.96647954 0.9502591 0.9999567 0.9843123
0001b0 db e7 80 3f 7a 11 76 3f 8b 66 7a 3f 23 3b 82 3f
       1.0070757 0.9612042 0.9781272 1.0174297
0001c0 9b 8f 7a 3f f3 c0 84 3f 03 9a 79 3f 11 91 84 3f
       0.97875375 1.0371383 0.9750063 1.0356771
0001d0 bd 9e 75 3f ba d7 75 3f 27 bb 80 3f 50 ac 7b 3f
       0.9594534 0.960323 1.0057114 0.98309803
0001e0 bf 3f 83 3f ca 7a 78 3f 76 bc 72 3f 7a 14 7d 3f
       1.0253829 0.9706236 0.9481882 0.9885937
0001f0 bc 4f 84 3f bf 44 72 3f 50 77 83 3f dc 2f 82 3f
       1.0336833 0.9463615 1.0270786 1.0170856

main_network.1.bias f4 [128]
000000 9f 3a 39 bb a3 53 d7 bc d2 97 27 bd d2 68 e3 bc
       -0.00282637 -0.026284998 -0.04091627 -0.027759943
000010 a9 9a 28 3c 78 8c 55 3c 59 c3 a2 bc 3f 74 23 3d
       0.01029078 0.013033979 -0.01986854 0.039905783
000020 77 57 ee 3c af 31 db bc 9e d2 41 3b 6c 36 85 3c
       0.02909444 -0.02675709 0.0029575 0.016261302
000030 48 09 92 3b 63 9d b0 39 d4 7e 03 bd ca f1 99 3c
       0.004456673 0.00033686598 -0.032103375 0.018792052
000040 6e 46 8b bb de 0d 28 3d bc 82 00 3d ea 0c c0 3b
       -0.004250339 0.04102885 0.031374678 0.0058609145
000050 58 d0 c4 bc 4d 5f 6f 3c 22 b9 b8 3a e7 3f 03 bd
       -0.024025127 0.014610124 0.001409326 -0.032043364
000060 bc 12 06 3c ff df 9a 3c 99 31 6b 3d 43 0d 2a 3d
       0.008183178 0.018905638 0.057420347 0.041516554
000070 7b 44 68 bc 96 7e 73 bb 9e 87 06 bb 86 76 0f bd
       -0.014176483 -0.0037154309 -0.0020527611 -0.035025142
000080 35 3d c7 bc da a6 15 bd cf 1a 4f bc 8f f1 2b 3c
       -0.024321178 -0.036536075 -0.012640669 0.010494604
000090 82 2e 3e bd 12 b4 9b 3c 41 60 36 bd 1b b9 42 3c
       -0.046431072 0.019006763 -0.04452539 0.011884953
0000a0 7b 02 85 bc bc 69 22 bc a0 04 eb 3b 23 e0 3b 3c
       -0.016236534 -0.009912904 0.007172182 0.011467013
0000b0 b3 06 81 3c ae 8e 11 3d e6 d8 da bb b7 87 16 3d
       0.015750265 0.03553646 -0.0066786883 0.03675052
0000c0 26 40 a7 bb 20 c7 fb bc f3 1e 7d 3d 73 f8 54 3c
       -0.0051040826 -0.030734599 0.061797094 0.012998688
0000d0 ec 7d 87 3d 89 01 9b bc 7b 0c 12 3d ec 25 98 3b
       0.066158146 -0.01892163 0.035656434 0.0046431925
0000e0 44 39 c6 3c 57 4b 65 3c 9d 5d 72 bc b8 53 a9 3c
       0.024197228 0.013995013 -0.014792827 0.020669803
0000f0 4b 5a 6a 3b 25 fa 07 3c 86 5d 40 bb 81 38 24 3b
       0.0035759385 0.008299385 -0.002935262 0.0025058093
000100 d8 8b a7 bc 77 81 c2 3c 83 50 04 bd 38 c1 1f bc
       -0.020452425 0.023743374 -0.032303344 -0.009750657
000110 05 e4 b0 bc 95 af 41 bd 65 94 09 bc d3 16 6d bc
       -0.021593103 -0.04728659 -0.008397196 -0.014470774
000120 89 08 ca bc 9d 74 88 3c 0f fb 10 bd e2 b7 44 bd
       -0.024662273 0.016657168 -0.035395678 -0.048026927
000130 a9 61 20 3c d6 06 bd 3c 8f bc 09 bd 8f ab 29 bd
       0.009788909 0.023074549 -0.03362709 -0.041423377
000140 ae dd 8a 3c ea aa 93 3b 7f 9e 57 3c b7 45 a5 3c
       0.016951408 0.0045064585 0.013160347 0.020174844
000150 c8 0e 1d 3d 7a 1a 71 bd 5d 81 4d 3c fc 57 e8 3c
       0.038344175 -0.05886314 0.01254305 0.028362267
000160 92 16 20 3c 31 3a 3c 3a 45 e0 29 3c 10 3c 24 bd
       0.009771006 0.0007180302 0.010368411 -0.040096343
000170 ac cd e2 ba e5 a6 c6 3c 8f c4 82 3d f7 67 0b bb
       -0.0017303727 0.024249503 0.06385147 -0.0021271685
000180 79 15 51 bc f8 64 62 bc 49 a7 18 bc 5e cd c0 bb
       -0.012761467 -0.013818018 -0.009317228 -0.0058838567
000190 f1 e9 42 bd fd 3a 9f bc 45 7a 2f 3c 14 c0 74 3c
       -0.047586385 -0.019437307 0.010710304 0.014938373
0001a0 b1 9c 87 bc 4f b0 65 bd b6 d3 45 3d 82 84 70 bc
       -0.016554208 -0.056076344 0.048297606 -0.01468003
0001b0 b4 84 77 3c d4 e4 9b bc 78 ee 5e bc 35 64 28 3a
       0.0151073225 -0.019030012 -0.01360666 0.00064236234
0001c0 a3 af f8 bc c7 95 93 3c ec 98 7b bb 70 d3 89 3d
       -0.030357188 0.018015755 -0.003839071 0.06729782
0001d0 43 2f 8a bc 26 1d e3 bc 4b 34 01 bd 5f b3 63 3c
       -0.01686824 -0.02772386 -0.03154401 0.013897746
0001e0 3f 8e cf 3c 0c d2 b5 bc 72 eb c1 bc e0 01 da 3c
       0.025336383 -0.022194885 -0.02367184 0.026612222
0001f0 b8 28 56 bc c8 63 06 bd 46 28 cf bb 86 80 05 39
       -0.013071232 -0.032810003 -0.0063219396 0.00012731747

main_network.1.running_mean f4 [128]
000000 ec fe 0f 3d 60 f3 1d 3e 6c 58 76 3d 0c 0b 44 3d
       0.03515522 0.15424871 0.06014292 0.047862098
000010 1a f7 9f bb 7d 44 6a bd 82 d9 24 3e c7 80 16 3d
       -0.0048817517 -0.05719422 0.16098598 0.036743905
000020 65 4a ea bc a1 e1 4d bd a1 82 98 3d a1 b1 ae 3d
       -0.028599927 -0.050264005 0.074467905 0.08529974
000030 18 29 25 3c ec 36 88 3d 17 c6 aa bc 43 f2 f6 bd
       0.010080598 0.066511005 -0.02084641 -0.120579265
000040 84 f6 bf 3c 12 41 ba bd fc 71 c9 3a e4 54 44 bd
       0.023432977 -0.090944424 0.0015369053 -0.04793252
000050 8e da bf bd 86 fa fd bd a5 93 5b bd cf 26 01 3e
       -0.09367858 -0.12401299 -0.0536076 0.1261246
000060 2e bf be bc a0 14 8b 3d 53 be 7c bd bf 1a 0e bd
       -0.023284521 0.06791043 -0.061704945 -0.034693476
000070 58 31 1b 3d 4d d0 48 bd 8d e3 58 bd 5c 60 86 bd
       0.037888855 -0.049026776 -0.052951384 -0.06561348
000080 c6 c8 75 bd c7 1b 20 be 39 96 a8 bd 37 9e 81 bb
       -0.060005926 -0.15635596 -0.08231778 -0.0039556283
000090 03 be c9 3d d7 ca 98 bd 5e 8f 49 3d 23 cb 1b bc
       0.09850695 -0.07460564 0.04920899 -0.009508881
0000a0 ed 9a e7 bc 40 1f be 3d 29 fb 60 3d 8a 99 cf bd
       -0.028272117 0.09283304 0.054927025 -0.10136707
0000b0 3a 6f 68 bd 86 00 38 3d d0 89 27 bd ea c9 45 bd
       -0.0567467 0.044922374 -0.040902913 -0.048288263
0000c0 2b dd 75 3a 18 69 9b 3c 89 65 5f bd 54 05 08 bd
       0.0009378965 0.018971011 -0.05454019 -0.033208206
0000d0 f8 cd 18 3d c9 8b 59 3c 80 71 00 3e f6 d7 58 bb
       0.037305802 0.013277956 0.12543297 -0.0033087707
0000e0 92 fe c4 bc 6c 81 b4 bd a4 60 1b bd 51 a4 88 bd
       -0.02404717 -0.08813748 -0.03793396 -0.06671966
0000f0 8a 6c 0e bd 01 86 3e be c4 02 c3 3d f6 5b 91 3c
       -0.03477148 -0.18605806 0.09522012 0.017744046
000100 68 b2 87 bb d5 56 4b be 07 26 2d bd 69 8b 1a bd
       -0.0041411407 -0.19857343 -0.042272594 -0.037730608
000110 08 af eb bc ed 4b 16 be a7 0c 87 bd 3c 92 8a bc
       -0.028769985 -0.14677401 -0.0659421 -0.016915433
000120 25 4d 85 3d 91 50 dc 3d 1b e8 a2 bd a9 ae c4 bd
       0.06508855 0.10757554 -0.07954427 -0.09603626
000130 36 77 21 bd 12 c2 00 bb c2 58 60 be 05 42 d6 bd
       -0.03942033 -0.0019646925 -0.21908858 -0.10461811
000140 39 25 de 3c ce dd e9 bd 15 a6 17 3d fc 0e c1 bd
       0.027117359 -0.11419259 0.037023623 -0.09426686
000150 3e 4b 3f bc a1 30 4d bd da d4 37 3e 93 35 c0 3d
       -0.011675654 -0.050095204 0.1795229 0.093852185
000160 33 85 08 bd 49 5d 70 bd 54 87 bd bd b0 b1 66 3d
       -0.033330154 -0.058682714 -0.092543274 0.0563218
000170 25 8f 16 3c 1f 9e a7 bd ac 0d 87 bd 71 ba 3f bc
       0.009189402 -0.08184456 -0.065944046 -0.011702166
000180 f5 c3 14 3d 6f 19 02 bd b5 1b 1b 3e a2 bd e7 bc
       0.03631969 -0.031762537 0.15147288 -0.028288666
000190 43 2c e8 3c 1c b4 29 3c 0e dd be 3c aa ef b2 bd
       0.028341418 0.010357883 0.023298766 -0.087371185
0001a0 2c 49 a8 3d af 77 9b bd 67 8e 66 3b f5 ed 24 bd
       0.082170814 -0.07591187 0.0035180093 -0.040265996
0001b0 48 0c 26 3c 92 77 9a bd 84 ad 88 3b e4 a2 31 3e
       0.010134764 -0.075423375 0.0041710753 0.17347294
0001c0 6a af 1f 3d 5e 5c 27 3c da 92 b3 bd c0 32 d0 3d
       0.038985647 0.010214893 -0.08768244 0.1016593
0001d0 0a 7f 91 3d ca e0 ac 3c 13 e3 66 3c 10 5f 2e 3d
       0.07104309 0.021103282 0.014092225 0.042571127
0001e0 8e 44 a9 3d bd 1b 72 bd 47 4a 0e bd d7 99 b2 3d
       0.08265029 -0.059108485 -0.034738805 0.08720749
0001f0 97 13 93 3b 27 27 23 bb 11 0d 35 3b 31 19 1b bd
       0.0044884193 -0.0024895163 0.0027626196 -0.03786582

main_network.1.running_var f4 [128]
000000 de ca 2d 3e bb b0 b4 3e 82 94 8f 3e 40 4a 1f 3f
       0.16971919 0.35291085 0.2804299 0.6222267
000010 c5 bd 51 3e 03 87 6a 3e 8b 39 43 3f fc 68 9f 3e
       0.20482548 0.22903065 0.7625968 0.31134784
000020 7a 61 2e 3e 98 08 1f 3f 5c 0c 0c 3f db ce b7 3d
       0.17029372 0.6212249 0.5470636 0.089750014
000030 66 4e a6 3e c2 99 5f 3f 29 3f 28 3e 32 fa ed 3e
       0.32481688 0.8734399 0.16430344 0.46479946
000040 89 7c 50 3d 6b 62 82 3e be 50 68 3e 65 6f 48 3e
       0.050900016 0.25465712 0.2268705 0.19573744
000050 f7 e7 f7 3d 8a b3 5f 3e b9 e8 dd 3d b6 70 fe 3e
       0.12104791 0.21845832 0.10835404 0.49695367
000060 d4 a7 95 3e cf d4 9c 3e 7d 51 f4 3e fa 21 11 3f
       0.29229605 0.3063111 0.4771842 0.5669247
000070 7f 3b ae 3e 9b b1 bb 3e d9 d1 b8 3e 08 ff 6f 3e
       0.34029767 0.3665894 0.360976 0.2343713
000080 ca e2 3d 3e 38 00 11 3e d7 86 b3 3e 59 33 68 3e
       0.18543544 0.1416024 0.35063812 0.22675838
000090 ef f9 52 3f 4b 9d 14 3f 37 ee ba 3e 0a 9d e4 3e
       0.8241262 0.5805251 0.36509869 0.4465106
0000a0 65 16 85 3e 89 20 d0 3d 3f d2 40 3f d7 e5 42 3e
       0.25993648 0.101624556 0.7532081 0.1903299
0000b0 53 51 4d 3e 0c a1 be 3e c7 de 16 3e 95 b1 eb 3e
       0.20050554 0.37232244 0.1473342 0.46033922
0000c0 ef 75 0e 3f 4f 8d 0c 3f f8 4d 21 3f 53 66 79 3e
       0.556487 0.5490312 0.63009596 0.2435544
0000d0 87 ab 3f 3e fc 95 68 3e 19 9b 87 3e 41 1e 24 3e
       0.18717776 0.22713464 0.26485518 0.16027166
0000e0 49 37 84 3e 3d 79 0a 3f 30 15 af 3e 46 d0 0f 3f
       0.2582343 0.54091245 0.34195852 0.56177175
0000f0 67 72 63 3e 72 49 c3 3e 10 b6 9e 3d c3 ae 90 3e
       0.2221161 0.38141972 0.077495694 0.28258333
000100 44 e6 b7 3e ee 7b e3 3d 88 b0 d1 3d ec bd d5 3d
       0.35917866 0.11107622 0.10238749 0.10436615
000110 a8 be 1d 3e a4 ff b7 3d 13 4d 04 3e 9a 57 47 3e
       0.15404761 0.089843065 0.12920026 0.19467011
000120 06 f3 d8 3e 27 e4 e7 3d 03 73 7e 3e 41 2d 7b 3e
       0.42372912 0.113228135 0.24848561 0.24528982
000130 38 2b c2 3e 5e 46 b8 3e ee 4c f9 3e 18 b7 31 3e
       0.37923598 0.35991186 0.48691505 0.17355001
000140 f8 11 9a 3e fd ac 90 3e c4 0f 1d 3e ad 48 3e 3e
       0.30091834 0.2825698 0.15338045 0.18582411
000150 5a 53 09 3f 71 f5 06 3f fc 4c 88 3e 9b 9d 83 3e
       0.5364281 0.52718264 0.26621234 0.2570618
000160 ec 35 a6 3e 33 43 c4 3e d8 a3 cc 3e 10 db 34 3e
       0.32463014 0.3833252 0.39968753 0.1766169
000170 2d ea 0a 3f 92 0f 89 3e 2b e6 fa 3e cb 9e 39 3e
       0.54263574 0.26769692 0.4900373 0.18126981
000180 c9 d3 28 3f 33 fa e5 3d 02 84 d2 3e 42 97 14 3f
       0.6594816 0.11229362 0.4111634 0.580433
000190 d5 81 21 3e 44 2a e0 3e e3 ad 64 3e 10 b6 0b 3f
       0.15772183 0.43782246 0.22331958 0.5457468
0001a0 28 b1 81 3e a5 cf 2d 3e 41 bb fa 3d 17 fd 43 3f
       0.25330472 0.16973741 0.12242747 0.7655806
0001b0 d0 1a 5e 3f bf ef 87 3e 35 8e 04 3f fe ac 21 3e
       0.8675966 0.265501 0.5177949 0.15788648
0001c0 71 15 59 3e f0 f9 97 3e 54 52 a5 3d 90 8f d7 3d
       0.21199585 0.29682875 0.080723435 0.10525429
0001d0 0f e5 91 3e b5 92 63 3e ba 27 86 3e 01 c8 a5 3e
       0.2849507 0.22223933 0.26202184 0.32379153
0001e0 a4 6b cf 3e 31 42 0d 3e dc 0e 9f 3e cb f7 39 3e
       0.4051181 0.13794781 0.31066024 0.18160932
0001f0 26 2b 32 3f 50 42 be 3e 62 da df 3e b7 c7 a0 3e
       0.6959709 0.37159967 0.437213 0.3140237
