MLP/best_model_vgg16.pth (torch, 120772 bytes, 47 tensors)

model_embedding.weight f4 [32, 12]
-0.24975094 0.117028445 -0.13572313 0.088602245 -0.27095214 -0.21856573 -0.2453487 -0.1635875
0.045252096 0.029761981 0.08152201 -0.005266931 0.034475863 0.25013143 0.0448546 0.3262199
0.1709342 -0.063477464 -0.059246406 0.1136459 0.06571239 0.14627683 -0.23639339 -7.602012e-09
0.08164378 0.14314002 0.14183718 -0.22578381 0.18684416 0.05693977 -0.24774526 -0.11215988
-0.13257809 -0.12060766 0.20090802 3.6670606e-06 0.08334558 0.0686907 0.020556957 -0.21384937
0.13576749 -0.20732373 -0.17458427 -0.10666069 -0.22287655 0.05080988 0.060164865 2.836e-11
0.0858747 0.24660087 0.19776389 -0.33394894 -0.26985908 0.28354067 -0.1400567 0.05036966
0.14403547 -0.019451328 0.11856396 -0.0032193798 0.2757191 -0.27663952 -0.034159794 0.10384058
-0.28738844 0.2503156 -0.08981178 0.14324455 -0.22223626 -0.050450172 -0.03230923 -1.0782942e-05
0.026224675 0.03388377 -0.28264928 0.24879082 -0.28190064 0.30171242 0.23507571 -0.07077699
0.03707862 -0.22354679 0.24211644 -0.0020441646 0.1536589 -0.06546489 0.22573537 0.05204527
-0.36529118 -0.1770615 -0.03363903 0.22981723 -0.17946307 0.17544538 0.08597345 8.4789196e-11
0.088222936 -0.06161275 0.0865186 0.13149214 0.13851292 0.022853376 0.18888095 -0.13549706
0.19541673 -0.24757043 -0.18904185 -0.0045216097 -0.20631258 -0.06558983 -0.061959866 -0.028368317
0.360038 -0.23955624 -0.22164811 -0.031831052 0.02855013 -0.03670516 0.18681772 -0.006695209
-0.12621251 -0.02696697 -0.21539998 0.1322574 -0.24166627 0.15306447 -0.10245792 -0.12104506
-0.2785358 -0.26220492 -0.11053138 0.029625246 0.13542219 0.28073254 0.085928075 0.02144136
-0.13786662 0.15169722 -0.057111707 -0.014997704 0.2807172 0.038316097 -0.053567845 8.336411e-09
-0.032827757 -0.06551329 0.21496178 -0.07137268 0.17531116 0.24574198 0.06254556 -0.20400569
-0.25581554 0.18607607 0.17960152 -0.017064042 0.09467291 -0.030580316 0.2576845 -0.10373592
-0.34139845 0.0972307 0.13549311 0.010194046 0.09297142 0.010734923 0.09443704 -0.0017731579
-0.0011805298 -0.2512854 0.22347318 -0.10216326 0.19265378 0.21034886 -0.22588459 -0.17928115
-0.08762456 -0.088364415 -0.17360045 0.009649852 -0.17859913 0.07697616 0.10694283 -0.26068783
-0.23141408 -0.24444774 -0.05082897 0.06819961 0.051370032 0.17536443 -0.21269654 -0.0066581448
-0.12310027 0.15789054 0.061790377 -0.028305128 0.2580519 0.055708867 -0.17741922 0.2723128
-0.22996591 -0.19041555 0.15715618 -1.9178799e-10 -0.00955287 -0.20583306 -0.2691064 0.07063274
0.11324896 -0.19964801 -0.063435584 -0.12073514 -0.23527673 0.28736046 0.17901747 0.00046352792
-0.23266865 0.03588043 -0.16309895 -0.13061333 0.18657963 0.21019447 -0.04059804 -0.034826234
-0.29129767 0.2287264 -0.24508956 -0.0007062261 0.034676757 0.28935915 -0.20790966 0.3923878
0.23027577 0.24345736 -0.186169 -0.046507575 0.18283962 0.027326886 0.03624432 -2.5709676e-05
0.26248232 -0.07985068 0.11817259 0.18370433 0.28866148 -0.04341098 -0.093286976 -0.20304924
-0.24758318 -0.19634491 -0.27180406 5.0675303e-10 0.27073407 0.13103633 0.17678888 0.2475156
00000000: b6be 7fbe 9cac ef3d 01fb 0abe 1875 b53d
00000010: 3dba 8abe b2cf 5fbe b13c 7bbe 7b83 27be
00000020: 435a 393d 66cf f33c 03f5 a63d 3896 acbb
00000030: 9036 0d3d 3a11 803e 75b9 373d 4b06 a73e
00000040: 6009 2f3e 7900 82bd 5cac 72bd 2ebf e83d
00000050: 3894 863d 98c9 153e 1c11 72be 019a 02b2
00000060: db34 a73d 4c93 123e c43d 113e df33 67be
00000070: 1354 3f3e ad39 693d efb0 7dbe 14b4 e5bd
00000080: 8dc2 07be 2601 f7bd d5ba 4d3e 9f17 7636
00000090: 16b1 aa3d b6ad 8c3d 1067 a83c 54fb 5abe
000000a0: a206 0b3e ac4c 54be 38c6 32be eb70 dabd
000000b0: c039 64be 051e 503d 6f6f 763d 0b75 f92d
000000c0: 13df af3d f084 7c3e 9e82 4a3e 5bfb aabe
000000d0: f82a 8abe 3e2c 913e 066b 0fbe 6b50 4e3d
000000e0: 097e 133e 6458 9fbc a9d1 f23d 3bfc 52bb
000000f0: 0e2b 8d3e b2a3 8dbe 24eb 0bbd 5faa d43d
00000100: 9424 93be 5e29 803e 3def b7bd b3ae 123e
00000110: e791 63be d7a4 4ebd af56 04bd 62e8 34b7
00000120: 21d5 d63c b5c9 0a3d 68b7 90be 05c3 7e3e
00000130: 4855 90be 0d7a 9a3e b0b7 703e 87f3 90bd
00000140: c0df 173d 73e9 64be 5fed 773e 64f7 05bb
00000150: c258 1d3e 7512 86bd 2c27 673e 6c2d 553d
00000160: 7207 bbbe 9c4f 35be 14c9 09bd 3555 6b3e
00000170: 2bc5 37be f4a7 333e d912 b03d 1374 ba2e
00000180: 3aae b43d a75d 7cbd aa30 b13d e0a5 063e
00000190: 55d6 0d3e 0137 bb3c 026a 413e bebf 0abe
000001a0: 531b 483e 1a83 7dbe 3094 41be 032a 94bb
000001b0: 9b43 53be f653 86bd a1c9 7dbd ac64 e8bc
000001c0: e756 b83e 3b4e 75be b9f7 62be 4761 02bd
000001d0: f6e1 e93c 2658 16bd 254d 3f3e 7c63 dbbb
000001e0: da3d 01be d6e9 dcbc d091 5cbe 7c6e 073e
000001f0: 5d77 77be efbc 1c3e 75d5 d1bd 79e6 f7bd
00000200: 3f9c 8ebe b93f 86be 475e e2bd a5b0 f23c
00000210: 1dac 0a3e 2dbc 8f3e 0ffb af3d caa5 af3c
00000220: e82c 0dbe 8456 1b3e f7ed 69bd eeb8 75bc
00000230: 2aba 8f3e 57f1 1c3d f569 5bbd ec37 0f32
00000240: 6676 06bd d52b 86bd f11e 5c3e d72b 92bd
00000250: c584 333e c9a3 7b3e e317 803d dee6 50be
00000260: 41fa 82be ba8a 3e3e 76e9 373e e4c9 8bbc
00000270: dfe3 c13d 9283 fabc 39ef 833e 7f73 d4bd
00000280: c7cb aebe e420 c73d b5be 0a3e ee04 273c
00000290: cd67 be3d 88e1 2f3c 3568 c13d 4e69 e8ba
000002a0: 02bc 9aba 7ba8 80be 27d6 643e f93a d1bd
000002b0: 0847 453e b165 573e 4a4e 67be 7a95 37be
000002c0: 8174 b3bd 67f8 b4bd 51c4 31be 6a1a 1e3c
000002d0: b1e2 36be ada5 9d3d d804 db3d e078 85be
000002e0: d0f7 6cbe 8250 7abe 0a32 50bd 3dac 8b3d
000002f0: 6269 523d bc92 333e 1fcd 59be 912c dabb
00000300: ff1b fcbd 0fae 213e e817 7d3d 28e0 e7bc
00000310: 611f 843e fb2e 643d 62ad 35be 956c 8b3e
00000320: 2f7c 6bbe 4bfc 42be 8ded 203e 85df 52af
00000330: a483 1cbc e7c5 52be 50c8 89be e6a7 903d
00000340: 12ef e73d 8770 4cbe 84ea 81bd fc43 f7bd
00000350: 62ec 70be e920 933e 5b50 373e aa05 f339
00000360: b140 6ebe 5cf7 123d 6903 27be 80bf 05be
00000370: bb0e 3f3e 383d 573e 214a 26bd f4a5 0ebd
00000380: f824 95be 4137 6a3e c2f8 7abe 0822 39ba
00000390: 3709 0e3d e226 943e 45e6 54be 0ee7 c83e
000003a0: 69cd 6b3e e34c 793e 16a3 3ebe ba7e 3ebd
000003b0: 4f3a 3b3e a2dc df3c ed74 143d 1cab d7b7
000003c0: 1564 863e c188 a3bd 7904 f23d fd1c 3c3e
000003d0: 70cb 933e b6cf 31bd 3e0d bfbd 24ec 4fbe
000003e0: 7286 7dbe a40e 49be e729 8bbe 934b 0b30
000003f0: a89d 8a3e 632e 063e 2508 353e bb74 7d3e

model_embedding.bias f4 [32]
-1.7109149e-05 0.0014538943 -0.00047190936 0.03009464 0.009568984 -0.018001558 -1.1743457e-05 0.0002079699
0.030275676 0.0017323486 0.023864528 -5.2380114e-05 -5.768316e-06 0.0011901028 -0.015226366 0.0015865711
1.9677727e-05 0.0061658826 -5.361072e-05 -3.8792452e-05 0.031022156 1.5636102e-05 -0.025325539 9.036282e-06
-0.018276997 3.093109e-05 1.0188269e-05 0.0006439775 0.021326572 -1.10835335e-05 -0.031225253 -9.8164084e-05
00000000: 9e85 8fb7 9990 be3a 9a6a f7b9 0989 f63c
00000010: 3ac7 1c3c 0178 93bc c405 45b7 7f12 5a39
00000020: b204 f83c f90f e33a 8b7f c33c b8b2 5bb8
00000030: 758d c1b6 39fd 9b3a 0278 79bc 7ef4 cf3a
00000040: 9911 a537 2c0b ca3b 13dc 60b8 14b5 22b8
00000050: 2d22 fe3c 462a 8337 8177 cfbc 899a 1737
00000060: a4b9 95bc 01bc 0138 48ee 2a37 99d0 283a
00000070: 10b5 ae3c 6af3 39b7 1acc ffbc 71dd cdb8

dataset_embedding.weight f4 [16, 3]
0.4310914 -0.5202574 0.44480217 -0.10549503 0.029940551 0.31173548 0.5128343 -0.24579367
0.19071566 -0.45053896 0.11323647 -0.026730282 0.07212974 -0.12849814 -0.22075062 -0.5205903
0.28942725 -0.21152943 -0.6102019 0.3888827 0.21345675 0.11275915 -0.3107027 0.51849675
-0.09195945 -0.263787 0.1582443 -0.2335256 0.44090736 -0.013025263 0.2820015 0.5002354
0.10563052 -0.4039137 -0.5894908 -0.45279998 0.2282778 -0.5709752 -0.24114732 0.21059261
0.4800766 0.4264713 -0.50265175 -0.20311454 -0.38335088 0.36501393 -0.3815085 -0.32242772
00000000: 03b8 dc3e 972f 05bf 1cbd e33e c70d d8bd
00000010: e345 f53c cb9b 9f3e 1c49 033f 56b1 7bbe
00000020: f74a 433e 0bad e6be 86e8 e73d 77f9 dabc
00000030: c2b8 933d 0495 03be 730c 62be 6845 05bf
00000040: cf2f 943e 2c9b 58be 3136 1cbf a21b c73e
00000050: 6894 5a3e 45ee e63d 6d14 9fbe 34bc 043f
00000060: 3c55 bcbd 170f 87be cb0a 223e 5621 6fbe
00000070: 9cbe e13e ea67 55bc 8062 903e 6d0f 003f
00000080: d054 d83d c7cd cebe dee8 16bf 66d5 e7be
00000090: a8c1 693e 6e2b 12bf 53ef 76be 97a5 573e
000000a0: 9acc f53e 725a da3e c9ad 00bf 42fd 4fbe
000000b0: 9146 c4be 1be3 ba3e 1555 c3be 3f15 a5be

dataset_embedding.bias f4 [16]
0.13816668 2.9432936e-06 -0.22968414 0.0149978595 0.20750937 0.03952815 -0.14196096 -0.14595863
-1.9861427e-06 0.0014304688 1.2744728e-06 0.01839876 0.0074976953 -1.8176552e-05 0.16225456 0.0043467656
00000000: 917b 0d3e 6685 4536 5232 6bbe 95b9 753c
00000010: 567d 543e 45e8 213d 375e 11be 2e76 15be
00000020: ac49 05b6 917e bb3a 8d0e ab35 ffb8 963c
00000030: 3aaf f53b d979 98b7 0f26 263e 506f 8e3b

tensor_network.0.weight f4 [16, 1]
0.49753076 -0.39115968 0.17977762 -0.15103531 -1.6648787e-11 0.23618083 0.2539868 -0.047053743
0.37983918 -0.0277599 -0.16913043 0.5357272 -0.5932344 0.013568794 -0.4877686 0.122799695
00000000: 5abc fe3e 1546 c8be a017 383e 00a9 1abe
00000010: bc71 92ad 63d9 713e 8f0a 823e 6dbb 40bd
00000020: 487a c23e bb68 e3bc 8730 2dbe 6b25 093f
00000030: 36de 17bf a64f 5e3c cebc f9be 687e fb3d

tensor_network.0.bias f4 [16]
-0.3565044 -0.43287688 1.0668649e-05 0.7022948 -0.2337521 0.08405966 0.44718355 -8.4105424e-11
-0.30808553 -0.5833947 0.75406516 -0.8575966 0.07457094 0.009373976 -0.21076371 0.5468407
00000000: bf87 b6be 0aa2 ddbe 80fd 3237 98c9 333f
00000010: b65c 6fbe 7927 ac3d 3ef5 e43e 25f3 b8ae
00000020: 63bd 9dbe 5b59 15bf 6a0a 413f 738b 5bbf
00000030: a6b8 983d 4e95 193c 71d2 57be c1fd 0b3f

tensor_network.2.weight f4 [16]
1.0009984 0.62540793 0.9853853 1.0008011 0.62540793 1.0109036 1.0219997 0.62540793
0.9824784 0.62540793 1.0213628 0.99880844 0.62540793 0.80648404 0.62540793 0.9900706
00000000: b720 803f bc1a 203f 3642 7c3f 401a 803f
00000010: bc1a 203f 4a65 813f e3d0 823f bc1a 203f
00000020: b483 7b3f bc1a 203f 04bc 823f e9b1 7f3f
00000030: bc1a 203f bd75 4e3f bc1a 203f 4475 7d3f

tensor_network.2.bias f4 [16]
6.212002e-06 1.75397e-11 -2.9730983e-05 -7.481802e-05 1.0749021e-11 5.5364137e-05 4.9103288e-05 -1.8392518e-11
-6.655879e-05 -5.37561e-11 5.683641e-05 -5.3697713e-05 6.1832835e-12 8.151083e-06 1.4848301e-11 4.4176868e-05
00000000: b170 d036 e547 9a2d cd66 f9b7 9ee7 9cb8
00000010: 4919 3d2d ca36 6838 41f4 4d38 45c8 a1ad
00000020: 7a95 8bb8 fd6b 6cae a163 6e38 7b39 61b8
00000030: 118e d92c a3c0 0837 679b 822d 8d4a 3938

tensor_network.2.running_mean f4 [16]
1.1530961 0.0 0.55601984 0.30674437 0.0 0.81694657 1.2364444 0.0
0.8324428 0.0 0.30931482 0.81935763 0.0 0.05057112 0.0 0.9365818
00000000: a798 933f 0000 0000 5157 0e3f 990d 9d3e
00000010: 0000 0000 6923 513f cf43 9e3f 0000 0000
00000020: f91a 553f 0000 0000 835e 9e3e 6cc1 513f
00000030: 0000 0000 aa23 4f3d 0000 0000 d3c3 6f3f

tensor_network.2.running_var f4 [16]
1.0805115 9.2231485e-20 0.14529371 0.044478256 9.2231485e-20 0.24955162 0.28721714 9.2231485e-20
0.61106884 9.2231485e-20 0.05281801 1.0880643 9.2231485e-20 0.0007928103 9.2231485e-20 0.06857376
00000000: 334e 8a3f 83c6 d91f e0c7 143e d52e 363d
00000010: 83c6 d91f 768a 7f3e 200e 933e 83c6 d91f
00000020: 026f 1c3f 83c6 d91f b357 583d b145 8b3f
00000030: 83c6 d91f 99d4 4f3a 83c6 d91f 6670 8c3d

worker_network.0.weight f4 [16, 1]
0.15903941 0.11035929 -0.006099142 0.08987705 -0.13250755 -0.2815537 5.165146e-08 0.39979395
-0.2659905 0.30925155 0.43597162 0.07826539 0.58857304 -0.34138077 -0.42653185 0.38978702
00000000: 3adb 223e 0d04 e23d 50db c7bb 7511 b83d
00000010: 0fb0 07be ce27 90be 62d7 5d33 cbb1 cc3e
00000020: e82f 88be 3856 9e3e ac37 df3e 9b49 a03d
00000030: b9ac 163f 76c9 aebe 6262 dabe 2a92 c73e

worker_network.0.bias f4 [16]
-0.22424804 -0.5002176 -0.5882082 -0.07344426 0.3151405 -0.36017954 -0.3377932 -0.74730456
-0.18850617 2.1823993e-07 3.078756e-06 -0.030387938 0.5615188 -0.006627462 0.30804262 -0.8112806
00000000: 47a1 65be 430e 00bf d094 16bf f269 96bd
00000010: 185a a13e 7469 b8be 3bf3 acbe 5a4f 3fbf
00000020: c307 41be 5655 6a34 a09c 4e36 20f0 f8bc
00000030: b2bf 0f3f 2e2b d9bb c3b7 9d3e 16b0 4fbf

worker_network.2.weight f4 [16]
1.0075558 0.99718523 0.62540793 0.9861328 0.6792437 0.62540793 0.62540793 0.9976864
0.62540793 0.97702634 0.9747845 1.0050185 0.98236376 0.62540793 0.62540793 0.96701163
00000000: 97f7 803f 8847 7f3f bc1a 203f 3373 7c3f
00000010: eae2 2d3f bc1a 203f bc1a 203f 6068 7f3f
00000020: bc1a 203f 661e 7a3f 7a8b 793f 72a4 803f
00000030: 317c 7b3f bc1a 203f bc1a 203f 138e 773f

worker_network.2.bias f4 [16]
-5.115944e-05 1.3271777e-05 4.9708536e-12 -3.8306218e-05 4.3459495e-05 1.8204492e-11 6.7624476e-13 -4.3122385e-05
-3.876227e-11 -2.399185e-05 -1.4864338e-05 7.583348e-05 9.56194e-06 1.7237215e-11 -3.3020406e-11 1.6205417e-05
00000000: 0894 56b8 d9a9 5e37 78e5 ae2c fdaa 20b8
00000010: 4748 3638 df20 a02d 9258 3e2b 4fde 34b8
00000020: 707a 2aae 1b42 c9b7 d861 79b7 ca08 9f38
00000030: 386c 2037 c29e 972d ac39 11ae def0 8737

worker_network.2.running_mean f4 [16]
0.53410983 0.12883829 0.0 0.33775982 0.015491319 0.0 0.0 1.1090249
0.0 1.4672109 2.058356 0.36398077 3.3384106 0.0 0.0 0.9962491
00000000: 6cbb 083f 2fee 033e 0000 0000 dbee ac3e
00000010: 4dcf 7d3c 0000 0000 0000 0000 87f4 8d3f
00000020: 0000 0000 91cd bb3f 1bbc 0340 b05b ba3e
00000030: 85a8 5540 0000 0000 0000 0000 2e0a 7f3f

worker_network.2.running_var f4 [16]
0.17060533 0.035130765 9.2231485e-20 0.050240032 0.00050166686 9.2231485e-20 9.2231485e-20 1.0058248
9.2231485e-20 0.6279152 1.2354691 0.046107218 2.2355807 9.2231485e-20 9.2231485e-20 0.9139608
00000000: 2ab3 2e3e 47e5 0f3d 83c6 d91f 7ec8 4d3d
00000010: 4b82 033a 83c6 d91f 83c6 d91f debe 803f
00000020: 83c6 d91f 0dbf 203f da23 9e3f ecda 3c3d
00000030: c113 0f40 83c6 d91f 83c6 d91f 56f9 693f

batch_network.0.weight f4 [16, 1]
0.08899201 -0.38039455 0.52393275 0.21651551 -0.26514217 0.43469244 -0.4489077 0.2724385
0.54244685 -0.040497877 -0.25858396 0.070958674 -0.27936217 0.22627099 -0.23758522 -0.12661694
00000000: 7141 b63d 13c3 c2be 7520 063f 3eb6 5d3e
00000010: b7c0 87be 0290 de3e 3bd7 e5be 0f7d 8b3e
00000020: ccdd 0a3f 1ae1 25bd 1e65 84be c852 913d
00000030: 8f08 8fbe 95b3 673e 8a49 73be dfa7 01be

batch_network.0.bias f4 [16]
-0.4516468 0.8359279 -0.5687988 -0.15440026 0.5115471 0.00033007356 -0.031264737 -0.5964969
0.3393741 -0.18072172 2.087221e-11 0.043828897 1.3054383e-10 -0.079566576 -8.982235e-12 0.014000161
00000000: 403e e7be 5fff 553f cc9c 11bf 1a1b 1ebe
00000010: c0f4 023f b90d ad39 740f 00bd 05b4 18bf
00000020: 71c2 ad3e 1d0f 39be 0a98 b72d ee85 333d
00000030: d288 0f2f cdf3 a2bd 6404 1ead ee60 653c

batch_network.2.weight f4 [16]
1.0099609 0.9669658 0.99559855 0.96998614 0.6318327 0.9736836 0.62540793 0.99595743
0.9682113 0.62540793 0.62540793 0.961944 0.62540793 0.9685395 0.62540793 0.62540793
00000000: 6646 813f 128b 773f 8cdf 7e3f 0351 783f
00000010: cabf 213f 5443 793f bc1a 203f 11f7 7e3f
00000020: b2dc 773f bc1a 203f bc1a 203f f641 763f
00000030: bc1a 203f 34f2 773f bc1a 203f bc1a 203f

batch_network.2.bias f4 [16]
-9.717867e-06 -1.0535062e-05 -8.941552e-06 1.276507e-05 6.9163493e-06 -6.9692e-05 -4.626843e-13 3.4325745e-05
1.5720669e-05 5.2468624e-12 3.9356296e-11 2.5563697e-05 -1.7821218e-11 4.683478e-06 -9.854923e-12 1.7463185e-11
00000000: ec09 23b7 bfbf 30b7 ac03 16b7 8f29 5637
00000010: fd12 e836 9c27 92b8 eb3b 02ab fdf8 0f38
00000020: e1df 8337 899b b82c 4017 2d2e 9f71 d637
00000030: d1c1 9cad c526 9d36 a15e 2dad 999b 992d

batch_network.2.running_mean f4 [16]
0.19466913 0.0014717727 3.176999 1.4088897 5.045415e-18 3.1216176 0.0 1.3735782
4.2308717 0.0 0.0 0.5427735 0.0 1.5566822 0.0 0.0
00000000: 5857 473e 7fe8 c03a f453 4b40 7f56 b43f
00000010: 9924 ba22 95c8 4740 0000 0000 69d1 af3f
00000020: 4d63 8740 0000 0000 0000 0000 34f3 0a3f
00000030: 0000 0000 5d41 c73f 0000 0000 0000 0000

batch_network.2.running_var f4 [16]
0.018192455 6.271792e-05 1.1112887 0.1940976 1.1345614e-19 0.76835 9.2231485e-20 0.30397904
1.1901872 9.2231485e-20 9.2231485e-20 0.019431107 9.2231485e-20 0.21221237 9.2231485e-20 9.2231485e-20
00000000: 5808 953c 6d87 8338 b53e 8e3f 85c1 463e
00000010: 04f2 0520 96b2 443f 83c6 d91f 24a3 9b3e
00000020: 0e58 983f 83c6 d91f 83c6 d91f fc2d 9f3c
00000030: 83c6 d91f 334e 593e 83c6 d91f 83c6 d91f

ps_network.0.weight f4 [8, 1]
0.028706485 -0.16348347 -0.57232124 -0.097848535 -0.60921216 -0.052876167 0.06395007 -0.19749399
00000000: dd29 eb3c 3668 27be a583 12bf d064 c8bd
00000010: 54f5 1bbf ae94 58bd 41f8 823d dd3b 4abe

ps_network.0.bias f4 [8]
0.60436285 0.15985261 -0.5879486 0.16397227 0.14763454 -0.030732457 -0.32015 -4.999972e-05
00000000: 86b7 1a3f 67b0 233e cd83 16bf 59e8 273e
00000010: 822d 173e a2c2 fbbc b3ea a3be cab6 51b8

ps_network.2.weight f4 [8]
0.9730416 0.94125175 0.62540793 0.9295075 0.9216275 0.62540793 1.018178 0.62540793
00000000: 4119 793f e0f5 703f bc1a 203f 34f4 6d3f
00000010: c8ef 6b3f bc1a 203f a853 823f bc1a 203f

ps_network.2.bias f4 [8]
5.47561e-06 -2.4783092e-05 -2.0777824e-11 3.995425e-06 4.590478e-05 -3.2772958e-11 6.09024e-05 -9.679415e-09
00000000: 22bb b736 49e5 cfb7 80c3 b6ad 7010 8636
00000010: e289 4038 1223 10ae 7471 7f38 844a 26b2

ps_network.2.running_mean f4 [8]
0.6663172 0.08843836 0.0 0.08735192 0.07902591 0.0 0.033948004 3.611983e-13
00000000: c493 2a3f 2c1f b53d 0000 0000 90e5 b23d
00000010: 56d8 a13d 0000 0000 100d 0b3d 2956 cb2a

ps_network.2.running_var f4 [8]
0.005227303 0.00673545 9.2231485e-20 0.006578558 0.005393382 9.2231485e-20 0.0066113146 9.930895e-20
00000000: cc49 ab3b 0db5 dc3b 83c6 d91f f290 d73b
00000010: f8ba b03b 83c6 d91f baa3 d83b 947c ea1f

main_network.0.weight f4 [128, 104]
-0.026752302 0.016601024 -0.003533658 -0.08080387 0.06190028 0.072853416 0.03437856 -0.11086541
-0.07393701 -0.0226978 -0.040523548 -0.03203156 -0.0315637 -0.029933736 0.03303089 0.095327154
-0.04780949 -0.09520892 -0.022685256 0.047466513 -0.11176168 -0.0078086667 0.050832547 -0.027553177
-0.014742255 0.033616655 -0.122675374 0.043071743 0.14253217 0.087458625 0.03174983 0.024706075
-0.05938188 0.05002516 -0.109500974 0.071948424 -0.026647937 0.05034221 0.044280812 0.08512618
0.0716429 0.09986908 -0.054511804 -0.10869068 -0.08174666 0.03408244 -0.0493343 -0.049836528
-0.021939315 -4.8842916e-09 -0.04505385 -0.08704751 -8.4831005e-12 0.10361511 0.017455632 6.859699e-10
-0.026398756 4.4712853e-12 -0.053095073 -0.048725743 3.4564736e-12 0.045939393 -3.8020433e-12 0.09816507
0.07131568 -0.023965396 -3.201219e-11 -0.0046089035 0.024045829 -1.8177128e-12 -3.3864664e-10 -0.020813117
1.1179826e-11 0.02513422 0.029100468 -0.029366326 0.060415868 -6.7794897e-12 -5.034896e-11 -0.05565292
-0.09640162 -0.045301314 0.032770414 0.03768619 0.012076122 0.04951098 -2.3066992e-13 -0.05465477
-0.10223827 2.3823436e-11 -7.7863513e-13 0.062460057 3.638218e-11 -0.072876036 -2.0953166e-10 -8.921715e-12
0.00608511 0.05463557 -4.1214004e-10 -0.055750545 0.038975492 3.9298825e-10 0.049901985 -1.1047817e-07
-0.0072796764 -0.019350661 -0.036676183 0.009547067 -0.031868625 0.08048997 0.020962866 0.0026301125
0.014345625 -0.06978183 -0.042172942 -0.09072107 0.04281955 -0.03976232 -0.028241359 -0.06866706
0.033795174 0.09110668 0.005394045 0.07621973 0.044877436 0.07399517 0.058144048 -0.011809274
0.080331266 -0.04825414 -0.08069152 -0.05471157 -0.064998664 -0.02568642 -0.010696697 -0.08214981
0.006149069 -0.074448496 -0.12411628 0.09851547 -0.09052522 0.06520647 0.018179009 -0.11560326
-0.11519941 0.09903406 0.0772177 0.007076421 0.0011493422 0.069502085 0.058241673 0.0226092
0.06913471 -4.629239e-11 -0.055221785 0.021655492 3.918258e-11 0.055324607 0.022529116 3.918897e-12
0.037066426 -2.342981e-09 -0.01119039 -0.03756282 -8.78122e-12 -0.016595988 1.0753485e-13 0.019370288
-0.008814323 -0.0719489 -3.1015558e-11 -0.027067551 -0.0027786347 5.8292565e-11 4.271752e-11 0.094244815
-8.127594e-12 -0.0068973005 -0.06786975 0.11305824 -0.035180755 4.058261e-10 5.429973e-11 0.054068353
-0.012816662 -0.053573523 -0.082938045 -0.08071288 0.0059931357 0.009129123 -5.891091e-12 0.07232866
0.064278245 -2.1136773e-10 8.951029e-12 0.091191456 1.4296272e-10 0.035973072 5.413225e-09 -4.272819e-09
-0.060626913 0.08226402 1.3979399e-11 -0.019254668 -0.010173942 -7.386837e-10 0.08227673 2.1631463e-06
-0.030705253 -0.02081697 0.09726222 0.116196774 0.034996178 -0.11529282 -0.13896778 -0.029596256
-0.05931195 0.038110893 -0.10253941 0.05341246 -0.0810098 -0.12197519 0.071579695 -0.07154732
0.06452209 -0.054158717 0.012485825 0.023193857 0.017880095 -0.06460831 0.05828857 0.06177485
0.020879079 0.10185433 0.026316928 -0.06906318 0.10568973 0.0614969 0.037792325 -0.114560254
0.06600948 0.09715444 0.000537851 0.086084776 -0.109726466 -0.02023473 0.02029762 -0.058055066
0.016382257 0.03830018 -0.09643369 -0.09333018 0.0315091 0.037262317 0.024950275 0.02525296
00000000: a527 dbbc dffe 873c f294 67bb 807c a5bd
00000010: 268b 7d3d 2c34 953d 88d0 0c3d 670d e3bd
00000020: 496c 97bd bdf0 b9bc 05fc 25bd 8633 03bd
00000030: f048 01bd 9837 f5bc 664b 073d e23a c33d
00000040: e2d3 43bd e5fc c2bd 6ed6 b9bc 3f6c 423d
00000050: 4fe3 e4bd d8df ffbb ca35 503d 33b7 e1bc
00000060: 8089 71bc 9eb1 093d 3a3d fbbd ff6b 303d
00000070: f4f3 113e 821d b33d 1c0c 023d 6564 ca3c
00000080: 6a3a 73bd 2fe7 4c3d 0c42 e0bd b259 933d
00000090: c64c dabc a233 4e3d cc5f 353d a256 ae3d
000000a0: 83b9 923d 2988 cc3d c547 5fbd 3899 debd
000000b0: cb6a a7bd 079a 0b3d c312 4abd 6321 4cbd
000000c0: 14ba b3bc afd2 a7b1 638a 38bd f745 b2bd
000000d0: 7d3c 15ad 2934 d43d 1dff 8e3c d78e 3c30
000000e0: 3442 d8bc c251 9d2c 387a 59bd a594 47bd
000000f0: 4b3a 732c f22a 3c3d c3c5 85ac c50a c93d
00000100: f50d 923d 1453 c4bc 86ca 0cae 4906 97bb
00000110: c2fb c43c 01d2 ffab 472c baaf 4580 aabc
00000120: 76ad 442d 48e6 cd3c 1b64 ee3c a691 f0bc
00000130: a176 773d 3788 eeac e46f 5dae 51f4 63bd
00000140: 366e c5bd df8d 39bd 453a 063d d65c 1a3d
00000150: edda 453c 06cc 4a3d 0adb 81aa aedd 5fbd
00000160: 4c62 d1bd 9c8d d12d 932a 5bab 1ed6 7f3d
00000170: b102 202e 0840 95bd eb61 66af d5f3 1cad
00000180: 9a65 c73b 8cc9 5f3d 8e93 e2af af5a 64bd
00000190: c4a4 1f3d 2e0c d82f 0666 4c3d 0440 edb3
000001a0: 5a8a eebb 4785 9ebc c439 16bd 4d6b 1c3c
000001b0: ad88 02bd edd7 a43d 51ba ab3c f75d 2c3b
000001c0: ea09 6b3c c7e9 8ebd 89bd 2cbd f8cb b9bd
000001d0: 8d63 2f3d d1dd 22bd 6c5a e7bc 51a1 8cbd
000001e0: cf6c 0a3d 2496 ba3d 87c0 b03b 1719 9c3d
000001f0: 67d1 373d c88a 973d 7428 6e3d af7b 41bc
00000200: b884 a43d 22a6 45bd 9841 a5bd 3d19 60bd
00000210: 051e 85bd 546c d2bc 3341 2fbc 293e a8bd
00000220: 217e c93b 7478 98bd ad30 febd 7bc2 c93d
00000230: 4965 b9bd f88a 853d 25ec 943c 67c1 ecbd
00000240: abed ebbd 5fd2 ca3d 5024 9e3d 52e1 e73b
00000250: 86a5 963a 1c57 8e3d d28e 6e3d ee36 b93c
00000260: 8096 8d3d 9998 4bae 3d30 62bd dc66 b13c
00000270: aa53 2c2e 0e9c 623d fb8e b83c 49e2 892c
00000280: f7d2 173d 2802 21b1 e657 37bc 79db 19bd
00000290: 197b 1aad 4ff4 87bc 9f25 f229 70ae 9e3c
000002a0: f369 10bc f259 93bd 6a68 08ae c5bc ddbc
000002b0: c119 36bb cc2f 802e a7df 3b2e 6d03 c13d
000002c0: 6efb 0ead c002 e2bb 4cff 8abd 148b e73d
000002d0: b219 10bd f21a df2f 10d0 6e2e c776 5d3d
000002e0: fafc 51bc e96f 5bbd 6cdb a9bd cb4c a5bd
000002f0: 1162 c43b 5192 153c 3b46 cfac 0c21 943d
00000300: 50a4 833d ba66 68af da77 1d2d 96c2 ba3d
00000310: 6e30 1d2f 8058 133d 3bff b931 1dd0 92b1
00000320: ed53 78bd 0a7a a83d 9eed 752d f7bb 9dbc
00000330: 9bb0 26bc 3f0c 4bb0 b480 a83d 922a 1136
00000340: 9589 fbbc 5a88 aabc 6a31 c73d 93f8 ed3d
00000350: 2758 0f3d a41e ecbd 924d 0ebe d973 f2bc
00000360: 16f1 72bd 2b1a 1c3d 2f00 d2bd 06c7 5a3d
00000370: 77e8 a5bd 21ce f9bd 6098 923d 6787 92bd
00000380: 2824 843d 88d5 5dbd 5991 4c3c 0b01 be3c
00000390: 4779 923c 5d51 84bd ffbf 6e3d a007 7d3d
000003a0: 9a0a ab3c 0199 d03d 9996 d73c ff70 8dbd
000003b0: db73 d83d 2ce4 7b3d 20cc 1a3d 919e eabd
000003c0: fa2f 873d e8f8 c63d 92fe 0c3a 374d b03d
000003d0: 45b8 e0bd 4ec3 a5bc 3247 a63c 26cb 6dbd
000003e0: 1534 863c a6e0 1c3d 077f c5bd e523 bfbd
000003f0: b00f 013d 5fa0 183d 8564 cc3c 4cdf ce3c

main_network.0.bias f4 [128]
6.6727644e-06 1.8012344e-05 4.967865e-06 -3.468322e-06 1.5411046e-06 5.9918993e-06 -8.618748e-06 -4.0960035e-06
-4.073048e-06 2.3510385e-05 1.0156177e-05 2.2879862e-08 1.1655737e-06 3.4919802e-07 7.364672e-06 1.3557676e-05
-5.056052e-06 6.3450025e-06 -6.8008035e-06 1.3315693e-05 -2.9406909e-05 -2.6634561e-06 -1.0671625e-05 8.262564e-06
-1.7809269e-05 -5.653257e-08 4.747351e-06 5.003687e-06 -3.3664264e-06 -8.650538e-06 4.773342e-07 1.6273085e-06
-4.2299325e-05 -3.2290893e-06 8.42571e-06 -5.168774e-05 2.175586e-05 1.42777035e-05 9.883031e-06 6.9008083e-06
1.6359027e-06 1.9216611e-06 -1.9504883e-05 -4.066992e-06 -1.7736675e-06 -1.4020417e-06 -2.5274496e-05 -1.2339054e-06
7.1713525e-06 -3.7743341e-06 -1.6086711e-05 1.0572938e-06 -2.4443016e-06 2.6980326e-06 3.4975392e-06 1.7401093e-05
5.7050156e-06 -1.1916267e-05 -7.0939836e-07 -1.35899945e-05 3.524314e-06 -5.0231826e-08 4.271086e-06 2.19262e-06
1.8031077e-06 -1.0294582e-05 -5.847657e-05 1.6675203e-05 1.8506112e-06 -3.474209e-06 4.1323374e-06 -1.7873944e-06
-7.83198e-06 -1.0542962e-05 1.2729403e-05 7.4161217e-06 -2.3848822e-06 1.2177481e-06 9.224133e-06 5.8762134e-06
-1.0440273e-05 -1.800711e-05 -4.59684e-06 -5.8118926e-06 6.085615e-06 -4.1827075e-06 -4.9450464e-06 -3.3008569e-06
6.462325e-07 -1.3489127e-05 5.6942713e-06 3.937556e-06 -1.7172223e-06 -7.620174e-06 -6.216336e-06 -5.27846e-06
-9.810902e-06 -7.5166627e-06 -2.041382e-06 -6.751561e-06 1.3333208e-05 -2.1592564e-06 4.018553e-06 -2.9598309e-07
-2.5148884e-06 4.8605975e-06 4.3705454e-06 3.8574767e-06 5.2814407e-06 -2.7845988e-06 1.9167464e-06 6.32762e-06
-8.806386e-06 -1.6657349e-06 -8.033067e-06 -5.9399954e-06 4.003155e-06 3.6955626e-06 -3.9778633e-06 -3.5976547e-05
-4.761117e-06 -7.457659e-06 -1.6502318e-05 -2.791553e-06 4.8044893e-07 1.2512378e-05 7.723844e-06 3.3303627e-07
00000000: 9ce6 df36 3719 9737 a3b1 a636 51c1 68b6
00000010: f3d7 ce35 060e c936 3e99 10b7 6770 89b6
00000020: 37ab 88b6 2b38 c537 7364 2a37 5989 c432
00000030: cf70 9c35 6979 bb34 0d1e f736 c675 6337
00000040: 28a7 a9b6 28e7 d436 7532 e4b6 7766 5f37
00000050: dbae f6b7 d4bd 32b6 480a 33b7 719f 0a37
00000060: 1d65 95b7 38ce 72b3 6f4b 9f36 58e5 a736
00000070: c4ea 61b6 c721 11b7 2822 0035 e569 da35
00000080: 8e6a 31b8 55b3 58b6 265c 0d37 4acb 58b8
00000090: 5b80 b637 458a 6f37 4ccf 2537 7e8d e736
000000a0: 3091 db35 e3f5 0036 6b9e a3b7 3277 88b6
000000b0: c00e eeb5 c92d bcb5 9104 d4b7 ab9c a5b5
000000c0: 73a1 f036 914a 7db6 f3f1 86b7 57e8 8d35
000000d0: c808 24b6 d90f 3536 44b7 6a36 90f8 9137
000000e0: b66d bf36 faeb 47b7 7c6d 3eb5 9500 64b7
000000f0: 4183 6c36 7abe 57b3 5950 8f36 ed24 1336
00000100: 4f02 f235 e5b6 2cb7 bd44 75b8 bae1 8b37
00000110: 8462 f835 7526 69b6 82a8 8a36 67e6 efb5
00000120: 1966 03b7 ade1 30b7 5f90 5537 00d8 f836
00000130: f70b 20b6 8271 a335 59c1 1a37 4a2c c536
00000140: a228 2fb7 f90d 97b7 8e3e 9ab6 c703 c3b6
00000150: 0933 cc36 2f59 8cb6 a0ed a5b6 4a84 5db6
00000160: c278 2d35 5c4f 62b7 6b11 bf36 591f 8436
00000170: 4f7b e6b5 ccb0 ffb6 eb95 d0b6 a01d b1b6
00000180: 8199 24b7 a437 fcb6 adfe 08b6 788b e2b6
00000190: b1b1 5f37 bee7 10b6 1cd7 8636 9be7 9eb4
000001a0: 74c5 28b6 3718 a336 b3a6 9236 796f 8136
000001b0: 3b37 b136 0bdf 3ab6 74a1 0036 d851 d436
000001c0: 24bf 13b7 3792 dfb5 c3c5 06b7 2c50 c7b6
000001d0: d752 8636 4801 7836 9679 85b6 86e5 16b8
000001e0: afc1 9fb6 ce3c fab6 756e 8ab7 8456 3bb6
000001f0: 33f8 0035 41ec 5137 a895 0137 28cc b234

main_network.1.weight f4 [128]
0.9651722 0.9730808 0.9735663 1.0734116 1.0143054 0.94213194 1.0359992 0.9424039
0.98245186 1.0316626 1.0220122 0.94735134 1.0320569 1.090507 0.9561877 0.98081607
0.9871446 0.98396486 0.9713471 0.93631196 0.9807258 1.0129778 0.9734753 1.0443989
0.98770565 1.0140697 1.0948378 1.0449729 1.0061207 0.9965019 1.004676 1.0001936
1.0736889 0.9868212 1.0110114 1.0235761 1.0434777 0.96637934 0.9621142 0.99704576
0.9793993 1.0908588 0.98040396 1.0352598 1.0388926 0.9504066 0.992774 1.0250102
1.0217019 1.0124087 0.9977699 1.024884 1.0932188 1.0891769 1.0584922 1.0786182
0.9658593 0.9780444 0.96314186 1.004752 1.1069725 0.962065 0.97519785 0.97122943
0.9852067 0.9954213 1.0481126 1.0101198 1.0979228 1.0106347 0.9782219 0.97198945
0.9896023 0.978011 1.004156 1.0732625 0.93866414 0.9578352 0.9788827 0.93598527
0.99248385 1.0157753 1.0166687 0.9627836 0.9587487 0.9511749 0.96800596 0.98305595
0.99472344 0.97446936 0.9568161 0.9748173 0.9736559 0.9724029 0.9854129 1.0305419
0.97373945 0.9852168 0.99047375 1.0031375 1.0460513 0.9730138 1.0187696 0.99230707
1.0265429 1.0436044 0.98530847 0.97136134 1.0029261 0.94681394 0.9849857 0.9882147
0.9880686 1.0649805 1.0054258 0.9790516 0.959786 0.9796111 0.99261904 1.0217347
0.9917867 1.0277555 0.9418552 0.97894377 0.98728865 0.98130107 0.9950889 0.9693693
00000000: 8615 773f d31b 793f a43b 793f 8d65 893f
00000010: c2d4 813f 8f2f 713f 9f9b 843f 6241 713f
00000020: f781 7b3f 850d 843f 4cd1 823f 9e85 723f
00000030: 711a 843f bc95 8b3f b8c8 743f c316 7b3f
00000040: 82b5 7c3f 1fe5 7b3f 34aa 783f 24b2 6f3f
00000050: d910 7b3f 42a9 813f ad35 793f ddae 853f
00000060: 47da 7c3f 09cd 813f a523 8c3f acc1 853f
00000070: 90c8 803f c01a 7f3f 3999 803f 5806 803f
00000080: a36e 893f 50a0 7c3f d268 813f 8b04 833f
00000090: ad90 853f a364 773f 1e4d 763f 643e 7f3f
000000a0: eab9 7a3f 43a1 8b3f c1fb 7a3f 6583 843f
000000b0: 6ffa 843f d94d 733f 7026 7e3f 8933 833f
000000c0: 21c7 823f 9c96 813f d96d 7f3f 662f 833f
000000d0: 98ee 8b3f 266a 8b3f ac7c 873f 2910 8a3f
000000e0: 8e42 773f 1e61 7a3f 7790 763f b79b 803f
000000f0: 46b1 8d3f e449 763f 91a6 793f 7ea2 783f
00000100: 8236 7c3f eed3 7e3f 8e28 863f 9b4b 813f
00000110: bc88 8c3f 7a5c 813f c06c 7a3f 4dd4 783f
00000120: 9456 7d3f ee5e 7a3f 2f88 803f aa60 893f
00000130: 4b4c 703f b034 753f 0e98 7a3f bb9c 6f3f
00000140: 6c13 7e3f ed04 823f 3322 823f fc78 763f
00000150: 8e70 753f 3380 733f 3dcf 773f 8ea9 7b3f
00000160: 32a6 7e3f d376 793f e6f1 743f a08d 793f
00000170: 8341 793f 65ef 783f 0544 7c3f cce8 833f
00000180: fd46 793f 2b37 7c3f b08f 7d3f cf66 803f
00000190: 02e5 853f 6f17 793f 0b67 823f d607 7e3f
000001a0: c265 833f d494 853f 2d3d 7c3f 23ab 783f
000001b0: e25f 803f 6662 723f 0628 7c3f a3fb 7c3f
000001c0: 10f2 7c3f 4851 883f cbb1 803f 20a3 7a3f
000001d0: 89b4 753f cbc7 7a3f 481c 7e3f 34c8 823f
000001e0: bce5 7d3f 7e8d 833f 6c1d 713f 0f9c 7a3f
000001f0: f3be 7c3f 8c36 7b3f 25be 7e3f 9628 783f

main_network.1.bias f4 [128]
-0.010293478 0.013117065 -0.035117824 0.06342477 0.023343734 -0.017249092 0.009005245 -0.030751936
-0.010508222 -0.008232872 -0.019792665 0.03613802 0.008565074 0.05996756 -0.04026184 -0.037170775
0.010313132 0.011710931 -0.007925686 -0.043547668 0.021617226 0.0065050647 -0.039998922 0.021030102
0.048824202 -0.04353893 0.041782193 0.050139762 -0.02916709 -0.015840141 0.060501505 0.0868027
0.05680714 -0.033439312 0.0054572024 -0.033747602 0.0010345622 -0.0127522135 -0.03722174 0.006555378
-0.017522588 0.004924694 -0.032092556 0.023561392 -0.022940999 -0.018607223 -0.013246668 0.0077008503
-0.013673875 0.027274633 -0.01763399 0.01851903 0.071196355 0.0011066379 0.06364587 0.057692032
-0.010209494 0.013856885 -0.018783107 0.005841832 0.03917022 -0.039592136 0.013463998 0.040794097
-0.011219489 0.015344432 0.028015207 0.059771307 0.05565007 -0.036853936 -0.014709837 -0.0091359755
-0.015374276 -0.0052300803 -0.016736636 0.0052111438 -0.037948567 -0.020621762 -0.02924944 -0.013799891
-0.004140998 0.010161611 -0.02807282 -0.015272929 -0.046986233 -0.047550507 -0.006517452 -0.024248475
-0.0050098877 -0.033598695 -0.026231993 -0.014383031 0.009148108 0.031491198 0.026609814 0.0011571216
0.0009065068 -0.030513296 0.0032958786 -0.018004691 0.050935116 -0.026251744 -0.03360918 0.03886766
-0.0020840287 -0.008388813 -0.02177669 -0.01328325 0.0027596352 -0.020976428 -0.028376965 -0.0074742096
0.050527945 0.057185702 0.02164955 0.011847387 -0.0053110505 -0.010736719 -0.038385864 0.062112607
-0.036292143 -0.025760666 -0.036334097 -0.039670918 -0.002718818 -0.0045298287 0.007572145 0.0029091109
00000000: faa5 28bc f5e8 563c b5d7 0fbd d9e4 813d
00000010: 5c3b bf3c f84d 8dbc bc8a 133c 7ceb fbbc
00000020: ad2a 2cbc 2be3 06bc 3a24 a2bc 7605 143d
00000030: 8654 0c3c 8ba0 753d 99e9 24bd 6240 18bd
00000040: 69f8 283c 34df 3f3c bdda 01bc 0a5f 32bd
00000050: 9c16 b13c 7028 d53b e9d5 23bd 5247 ac3c
00000060: e3fb 473d e155 32bd ce23 2b3d 5a5f 4d3d
00000070: d2ef eebc 2fc3 81bc 6dd0 773d 9dc5 b13d
00000080: 9bae 683d a9f7 08bd 55d2 b23b ed3a 0abd
00000090: 269a 873a a9ee 50bc d375 18bd 7fce d63b
000000a0: 888b 8fbc 545f a13b 7c73 03bd d203 c13c
000000b0: c3ee bbbc 2d6e 98bc 8d08 59bc 6a57 fc3b
000000c0: 6308 60bc 0d6f df3c 2875 90bc 39b5 973c
000000d0: 65cf 913d 9b0c 913a c458 823d 7b4e 6c3d
000000e0: b945 27bc fd07 633c 08df 99bc d76c bf3b
000000f0: f470 203d 5d2b 22bd 1a98 5c3c b617 273d
00000100: f3d1 37bc 3667 7b3c 2680 e53c c2d2 743d
00000110: 54f1 633d 27f4 16bd 8701 71bc 0faf 15bc
00000120: 63e4 7bbc 1861 abbb 451b 89bc 3ec2 aa3b
00000130: f56f 1bbd f8ee a8bc 869c efbc f018 62bc
00000140: 35b1 87bb e37c 263c f8f8 e5bc 4f3b 7abc
00000150: a374 40bd 52c4 42bd 5a90 d5bb bda4 c6bc
00000160: fc29 a4bb c99e 09bd 7ae4 d6bc cea6 6bbc
00000170: f2e1 153c eafc 003d d3fc d93c 8faa 973a
00000180: a4a2 6d3a 05f7 f9bc abff 573b 937e 93bc
00000190: 57a1 503d e60d d7bc c8a9 09bd b233 1f3d
000001a0: 3394 08bb 3b71 09bc 0765 b2bc fda1 59bc
000001b0: ffda 343b c2d6 abbc cf76 e8bc 37ea f4bb
000001c0: 64f6 4e3d 8e3b 6a3d 665a b13c 8b1b 423c
000001d0: 5208 aebb 10e9 2fbc 7f3a 1dbd ca69 7e3d
000001e0: 12a7 14bd 0808 d3bc 10d3 14bd f97d 22bd
000001f0: 322e 32bb f56e 94bb c21f f83b c8a6 3e3b

main_network.1.running_mean f4 [128]
-0.055176318 0.0043102377 -0.027387124 0.17174354 0.08515738 0.030173104 0.053034022 0.050060306
-0.038791288 -0.026508762 -0.04711074 -0.046125967 0.048564136 -0.0110548865 0.0033522262 -0.03393683
0.03631412 -0.0076409774 -0.057705864 0.0024861498 -0.09269587 0.07418054 -0.12397541 0.0018829425
-0.14368784 0.07093895 -0.10332999 -0.017880175 -0.06511883 0.0072217886 -0.034718256 -0.04354465
0.087969676 -0.015829632 0.06551461 0.012272044 0.051139973 -0.07200326 0.041536693 0.041767877
-0.08768418 0.03485947 -0.011674689 0.08418733 -0.13911952 -0.0031835272 0.027729513 0.038597062
-0.019413587 0.01895806 -0.0148026915 0.113395266 0.03609415 0.018828163 -0.011400913 0.041103125
-0.09434443 0.021233337 0.056558076 -0.040068526 0.06338948 0.0001971167 -0.028202845 -0.054627277
-0.06573312 0.0041895295 0.06487174 0.009764085 0.071871035 0.046813723 -0.010180053 0.052059673
0.008591799 -0.12845048 -0.090339586 -0.03099646 -0.020987187 -0.039734725 0.052812856 0.0034440244
0.055022318 0.008453588 0.099216774 -0.000119676035 -0.03090697 0.017096795 -0.057726663 0.021487696
0.01913606 0.013778472 -0.011406572 -0.06834143 0.024179595 0.010066136 0.015693475 -0.08364809
0.0026971693 -0.046156455 -0.01688701 -0.03165862 0.011286945 -0.08899642 0.013461598 0.008759905
-0.052864667 0.023304572 0.107042596 0.032026745 0.050253227 0.0016258981 -0.0046232045 -0.105586335
0.047420762 0.077796675 0.0027438987 0.03554355 0.0004705407 -0.01396388 -0.050725542 -0.020490322
-0.029859547 -0.06439164 -0.09571234 -0.011913722 -0.09972936 -0.06198122 0.0032764117 0.00649249
00000000: 9000 62bd e53c 8d3b f65a e0bc 8add 2f3e
00000010: fe66 ae3d 962d f73c 343a 593d 090c 4d3d
00000020: 9de3 1ebd e728 d9bc 31f7 40bd 95ee 3cbd
00000030: 30eb 463d 8e1f 35bc 06b1 5b3b 5801 0bbd
00000040: 1dbe 143d 2a61 fabb fc5c 6cbd acee 223b
00000050: 55d7 bdbd f8eb 973d d2e6 fdbd 11cd f63a
00000060: e822 13be 7148 913d ac9e d3bd 7279 92bc
00000070: 055d 85bd c1a4 ec3b bb34 0ebd e05b 32bd
00000080: 7229 b43d 25ad 81bc 862c 863d af10 493c
00000090: 2678 513d 7276 93bd 6122 2a3d cb14 2b3d
000000a0: c393 b3bd cec8 0e3d 3247 3fbc 686a ac3d
000000b0: 5975 0ebe b9a2 50bb 0129 e33c f417 1e3d
000000c0: 3e09 9fbc ef4d 9b3c fd86 72bc c73b e83d
000000d0: 76d7 133d 853d 9a3c e5ca 3abc c05b 283d
000000e0: a737 c1bd 89f1 ad3c 71a9 673d e51e 24bd
000000f0: 58d2 813d 1cb1 4e39 a709 e7bc dac0 5fbd
00000100: 169f 86bd 5248 893b 7adb 843d 8af9 1f3c
00000110: 1f31 933d bfbf 3f3d 3dca 26bc 863c 553d
00000120: 9ec4 0c3c 8688 03be f603 b9bd 4aec fdbc
00000130: 52ed abbc e1c0 22bd 4b52 583d 24b5 613b
00000140: 155f 613d eb80 0a3c 2a32 cb3d 95fa fab8
00000150: 9d30 fdbc 940e 8c3c cb72 6cbd f706 b03c
00000160: 3ac3 9c3c 1abf 613c a1e2 3abc 97f6 8bbd
00000170: 4914 c63c 6fec 243c 9a8f 803c b14f abbd
00000180: fec2 303b 8d0e 3dbd a056 8abc 78ac 01bd
00000190: e1ec 383c c143 b6bd 098e 5c3c b485 0f3c
000001a0: 9f88 58bd 3be9 be3c 2639 db3d 7a2e 033d
000001b0: 54d6 4d3d 161c d53a 407e 97bb a63d d8bd
000001c0: 463c 423d dd53 9f3d fbd2 333b 1d96 113d
000001d0: e7b2 f639 c2c8 64bc 96c5 4fbd 52db a7bc
000001e0: 029c f4bc c4df 83bd d504 c4bd c631 43bc
000001f0: e83e ccbd 05e0 7dbd 11b9 563b f4be d43b

main_network.1.running_var f4 [128]
0.3233338 0.063712485 0.14144439 0.60330224 0.65123904 0.29877406 0.24701793 0.27193502
0.28313208 0.08588111 0.27295056 0.45120248 0.5962418 0.36019164 1.1915202 0.16284542
0.12289466 0.2186651 0.6056289 0.14195126 0.13112262 0.23080674 0.18210384 0.80278945
0.17777237 0.49467263 0.49760303 0.33907276 0.111786924 0.19864608 0.38066715 0.20600913
0.25366935 0.38939777 0.2537681 0.2308558 0.33269325 0.1268173 0.43499225 0.5436966
0.40327057 0.30073294 0.18679337 0.68397343 0.24383563 0.3779495 0.11221364 0.37677494
0.122476295 0.03878242 0.2580169 0.3622906 1.097315 0.50759727 0.8386024 0.65222156
0.42874587 0.23696265 0.42240953 0.14899832 0.905753 1.0292332 0.32438353 0.50629044
0.16678043 0.20360199 0.17366756 0.12540038 0.3554566 0.31517377 0.23093471 0.51449555
0.13466045 0.24412502 0.22367239 0.25534517 0.31514353 0.34288532 0.2021086 0.27907625
0.20177792 0.35512888 0.6521365 0.5430604 0.1398549 0.13291387 0.27625063 0.12602264
0.39913058 0.29125634 0.4619498 0.2753291 0.9838773 0.3134724 0.29237148 0.99710333
0.1317962 0.40043664 0.18169507 0.38333985 0.35106564 0.63138384 0.3711248 1.1157639
0.11976334 0.5154246 0.16515175 0.3371759 0.10215119 0.15752244 0.15887031 0.53301275
0.1122889 0.4066928 0.27948767 0.18108319 0.50660795 0.40084305 0.08810669 0.15139179
0.25195926 0.33716607 0.3925047 0.66022587 0.5265748 0.11645564 0.28817582 0.099903
00000000: 028c a53e b17b 823d ccd6 103e 0472 1a3f
00000010: 9ab7 263f eaf8 983e 45f2 7c3e 113b 8b3e
00000020: b0f6 903e 6fe2 af3d 2dc0 8b3e 0304 e73e
00000030: 4da3 183f 0a6b b83e bc83 983f f3c0 263e
00000040: 32b0 fb3d bee9 5f3e 7f0a 1b3f ac5b 113e
00000050: 0245 063e 9a58 6c3e 6e79 3a3e 9c83 4d3f
00000060: f609 363e bb45 fd3e d3c5 fe3e f29a ad3e
00000070: 8bf0 e43d e169 4b3e cee6 c23e 0ff4 523e
00000080: f3e0 813e 255f c73e e4ed 813e 7665 6c3e
00000090: c556 aa3e 65dc 013e 4eb7 de3e b32f 0b3f
000000a0: 7b79 ce3e abf9 993e c346 3f3e e218 2f3f
000000b0: 0cb0 793e 9982 c13e 44d0 e53d a5e8 c03e
000000c0: dad4 fa3d 51da 1e3d cb1a 843e 277e b93e
000000d0: d174 8c3f e5f1 013f a6ae 563f fef7 263f
000000e0: 9484 db3e 56a6 723e 1046 d83e 0493 183e
000000f0: 6edf 673f eabd 833f 9915 a63e 409c 013f
00000100: 7dc8 2a3e 0a7d 503e e9d5 313e f568 003e
00000110: 68fe b53e 755e a13e 267a 6c3e fbb5 033f
00000120: 6ee4 093e e9fb 793e 600a 653e 9abc 823e
00000130: 7e5a a13e aa8e af3e 8ff5 4e3e 15e3 8e3e
00000140: df9e 4e3e 74d3 b53e 6bf2 263f 0206 0b3f
00000150: 1f36 0f3e 931a 083e b970 8d3e 140c 013e
00000160: d85a cc3e 8d1f 953e af84 ec3e f0f7 8c3e
00000170: 62df 7b3f 747f a03e b7b1 953e 2a42 7f3f
00000180: 95f5 063e 0806 cd3e 460e 3a3e 1f45 c43e
00000190: e0be b33e 5fa2 213f 1204 be3e 5ad1 8e3f
000001a0: 7b46 f53d def2 033f 8a1d 293e 52a2 ac3e
000001b0: a534 d13d 904d 213e e6ae 223e 8673 083f
000001c0: b9f7 e53d 0a3a d03e 0219 8f3e df6d 393e
000001d0: 0fb1 013f 4d3b cd3e 4871 b43d 7306 1b3e
000001e0: ce00 813e 08a1 ac3e 60f6 c83e 9004 293f
000001f0: 9bcd 063f 4b80 ee3d c88b 933e f299 cc3d

main_network.4.weight f4 [64, 128]
0.011427214 0.008479937 -0.028536472 0.12823021 -0.038450498 0.035182066 0.11476166 0.08025195
-0.0031156826 -0.0125719225 0.078968585 -0.017720645 0.06096365 -0.021431973 -0.06328906 0.08143881
-0.035492223 -0.05134192 -0.02390904 0.08603285 -0.07402203 -0.031567514 0.039202947 0.07515457
-0.054102108 -0.04329364 0.016035667 0.06831514 0.058842644 0.044209745 -0.07413703 -0.077341184
0.08977598 0.009888409 -0.03562817 0.10280871 0.10375054 0.03018801 0.020373415 -0.03087241
-0.004576914 0.01142401 -0.067202725 -0.010658769 0.05488695 -0.0127991615 0.03733033 0.0715032
0.012891672 0.020010548 0.03367958 0.116982184 0.037498895 0.09713902 0.100108236 0.018886646
-0.033464186 -0.005006146 -0.046103664 -0.10283511 0.043510895 0.0062612607 0.0088233 0.032357384
-0.033438537 -0.016640216 -0.006099131 -0.0068209725 0.07315825 0.03919245 -0.0612531 -0.032079607
-0.060548496 0.093143165 0.09143685 0.10352347 0.030966371 0.011822798 -0.006002477 -0.06669332
0.01575161 -0.044058397 0.04172914 -0.057240862 -0.061265953 -0.020897437 -0.05601227 0.05727544
0.068450466 0.10021979 0.052096315 -0.012413882 -0.088432156 -0.0042083655 -0.041105263 0.09007827
0.07888147 -0.011274147 0.0986123 -0.007121678 0.057594415 0.029058283 0.098131314 -0.03033595
0.03879394 0.030424649 -0.034531936 -0.025671467 -0.013178166 -0.0143620465 -0.08502501 -0.076585196
-0.060868505 0.119316764 0.05024903 0.061487686 0.051390942 -0.031143285 -0.056205265 0.0002279721
-0.019632827 -0.08121647 -0.0859071 0.06141283 0.011423003 0.07436719 0.034895916 -0.06140795
-0.08243897 -0.035474274 -0.046988454 -0.008588639 0.010449467 0.027207876 0.087507285 -0.08247571
-0.08993822 -0.001220805 -0.008941333 -0.08921052 0.025805041 0.064695045 0.006444274 -0.003706039
0.007923204 0.053163428 -0.019425422 0.014697597 -0.14018588 -0.040773593 0.019244025 0.07501997
0.0077191023 -0.038245656 0.07381088 0.06868766 -0.060555525 -0.051291343 -0.082732916 -0.06743927
0.040864315 0.10658611 -0.054054838 -0.037580434 0.06651427 -0.0778522 0.0050765495 0.021054942
-0.063060194 0.10957558 0.04040041 -0.036200155 0.06407505 0.01596253 0.03846274 -0.06219047
-0.085092746 0.14000647 -0.05131856 -0.0078082774 -0.03240662 0.03775241 -0.080237046 0.005712281
-0.08939275 0.033865925 -0.017554246 -0.057203524 0.05374944 0.047357302 -0.036189586 -0.07371734
-0.077624045 -0.019389404 -0.001496378 -0.07665046 0.10756816 0.016497087 0.029738156 -0.0683929
0.006073928 -0.0007367667 0.041445088 0.032463595 -0.066802554 -0.040314965 0.054955445 -0.05304606
-0.06285062 -0.005622064 -0.087622926 -0.004500659 -0.07800612 -0.08413497 0.04253465 -0.0757158
0.08953154 -0.00065311306 -0.024316715 0.07667983 -0.043066006 -0.014021462 -0.12179002 0.012463631
-0.015726166 0.0003840054 -0.055099 0.021990543 -0.039856903 0.0040657576 -0.057421334 -0.002568132
-0.096568 0.08635554 0.017548146 -0.059976973 -0.0410599 0.0009055842 -0.047899418 -0.0047547007
0.049898252 0.02683444 -0.12245484 0.046345606 0.04527068 -0.09316986 -0.04614807 -0.082909085
0.051926002 -0.0515346 -0.02840204 0.023327693 -0.045115996 -0.09390652 0.04549327 0.0077384305
00000000: 3639 3b3c 6fef 0a3c 52c5 e9bc c84e 033e
00000010: 457e 1dbd 121b 103d 2908 eb3d 225b a43d
00000020: 7b30 4cbb 77fa 4dbc 48ba a13d e32a 91bc
00000030: 05b5 793d 1b92 afbc b29d 81bd 64c9 a63d
00000040: 4b60 11bd e84b 52bd e4dc c3bc fe31 b03d
00000050: dd98 97bd f04c 01bd 4593 203d a4ea 993d
00000060: 2c9a 5dbd ac54 31bd 3b5d 833c cfe8 8b3d
00000070: fc04 713d 4715 353d 28d5 97bd 0e65 9ebd
00000080: 78dc b73d fe02 223c d8ee 11bd 5f8d d23d
00000090: 2a7b d43d d84c f73c 26e6 a63c 23e8 fcbc
000000a0: f0f9 95bb c52b 3b3c 95a1 89bd 1ea2 2ebc
000000b0: 23d1 603d 93b3 51bc b0e7 183d 4570 923d
000000c0: 9737 533c 29ed a33c 99f3 093d 5b94 ef3d
000000d0: 7198 193d d3f0 c63d 8c05 cd3d 2bb8 9a3c
000000e0: be11 09bd 990a a4bb 32d7 3cbd 379b d2bd
000000f0: 7b38 323d 432b cd3b 9a8f 103c 2d89 043d
00000100: d9f6 08bd 1051 88bc 38db c7bb 7782 dfbb
00000110: fed3 953d 4388 203d 88e4 7abd e865 03bd
00000120: b301 78bd d8c1 be3d 3e43 bb3d 1d04 d43d
00000130: 30ad fd3c 69b4 413c 6db0 c4bb 8296 88bd
00000140: 8509 813c 9476 34bd 2dec 2a3d 6575 6abd
00000150: 02f2 7abd 1a31 abbc 1f6d 65bd a799 6a3d
00000160: c22f 8c3d 0940 cd3d f262 553d 9863 4bbc
00000170: eb1b b5bd 54e6 89bb fe5d 28bd f57a b83d
00000180: 9c8c a13d 33b7 38bc 3ff5 c93d f75c e9bb
00000190: 1fe8 6b3d a30b ee3c 12f9 c83d 1983 f8bc
000001a0: 65e6 1e3d 1d3d f93c 5c71 0dbd f84c d2bc
000001b0: 3ce9 57bc ca4e 6bbc 9821 aebd b3d8 9cbd
000001c0: 4151 79bd 595c f43d edd1 4d3d 83da 7b3d
000001d0: 4f7f 523d 3420 ffbc 7e37 66bd cb0b 6f39
000001e0: 06d5 a0bc d254 a6bd 10f0 afbd 058c 7b3d
000001f0: 8c27 3b3c d34d 983d 05ef 0e3d e786 7bbd
00000200: c3d5 a8bd 794d 11bd f776 40bd 5db7 0cbc
00000210: 3e34 2b3c 0de3 de3c 0537 b33d 06e9 a8bd
00000220: 8831 b8bd 6b03 a0ba ab7e 12bc 01b4 b6bd
00000230: 1865 d33c d67e 843d 7d2a d33b 04e1 72bb
00000240: 54d0 013c e5c1 593d 1022 9fbc 31ce 703c
00000250: e38c 0fbe 3602 27bd a5a5 9d3c 12a4 993d
00000260: 86f0 fc3b 7aa7 1cbd 292a 973d 1eac 8c3d
00000270: 1209 78bd df16 52bd e06f a9bd 9a1d 8abd
00000280: 5761 273d d249 da3d 9b68 5dbd f1ed 19bd
00000290: a238 883d f970 9fbd 2f59 a63b 6a7b ac3c
000002a0: b425 81bd 2969 e03d e67a 253d 9d46 14bd
000002b0: c839 833d dac3 823c 1b8b 1d3d 6fbb 7ebd
000002c0: 1b45 aebd db5d 0f3e 6933 52bd 94dc ffbb
000002d0: cebc 04bd 45a2 1a3d 5253 a4bd 162e bb3b
000002e0: 8c13 b7bd ffb6 0a3d eccd 8fbc 3e4e 6abd
000002f0: 5f28 5c3d bbf9 413d 883b 14bd 1ef9 96bd
00000300: 5bf9 9ebd 87d6 9ebc 1d22 c4ba ebfa 9cbd
00000310: b24c dc3d e624 873c 6f9d f33c 9411 8cbd
00000320: cd07 c73b 9423 41ba 53c2 293d 8cf8 043d
00000330: c7cf 88bd 4e21 25bd f618 613d d346 59bd
00000340: d3b7 80bd 4b39 b8bb a673 b3bd 447a 93bb
00000350: acc1 9fbd f54e acbd d038 2e3d e310 9bbd
00000360: 505c b73d ad35 2bba d933 c7bc 510a 9d3d
00000370: fb65 30bd 46ba 65bc 0c6d f9bd 4234 4c3c
00000380: 29d4 80bc 5554 c939 7daf 61bd 8325 b43c
00000390: fe40 23bd 0c3a 853b a232 6bbd 1b4e 28bb
000003a0: 72c5 c5bd 2cdb b03d 21c1 8f3c 6aaa 75bd
000003b0: 6d2e 28bd ba64 6d3a 2e32 44bd 52cd 9bbb
000003c0: 1c62 4c3d e6d3 db3c 9ac9 fabd e4d4 3d3d
000003d0: c06d 393d d7cf bebd c205 3dbd 3dcc a9bd
000003e0: 5cb0 543d f215 53bd 65ab e8bc b819 bf3c
000003f0: 8dcb 38bd 1052 c0bd 2757 3a3d a992 fd3b

main_network.4.bias f4 [64]
-2.1837484e-06 -1.7115368e-06 1.4042596e-06 -1.1645951e-05 9.863344e-06 -2.8225793e-06 4.5438108e-05 2.5922016e-06
1.556573e-05 -9.377198e-06 5.538401e-07 -8.039613e-06 -1.5087631e-06 1.3846595e-05 1.0625346e-07 9.512433e-06
7.9846e-06 3.2082721e-06 -1.2824345e-05 -1.1143227e-05 -1.8465958e-05 1.6221502e-05 1.1465835e-05 8.211576e-06
3.346887e-05 -1.467398e-05 5.231521e-06 -1.2136282e-05 6.9361437e-07 -1.5590102e-05 2.7412774e-05 4.4217354e-06
4.6130526e-06 1.211798e-05 -5.9290156e-05 2.8931615e-06 1.3594132e-05 -3.8134754e-06 -1.6973883e-05 -3.125752e-07
1.3992406e-05 1.1309751e-05 -1.8931994e-05 -6.6013995e-06 1.2100507e-05 1.1985758e-06 -2.80519e-05 -1.9263196e-05
2.3516752e-06 9.086894e-08 -1.9478293e-05 -1.8188925e-05 1.9736882e-07 -5.279068e-06 -1.5101433e-05 5.2877967e-06
1.5095019e-06 3.8468274e-06 5.2506304e-05 -9.352778e-06 7.868324e-06 1.1954596e-05 3.083788e-06 1.9356174e-05
00000000: 838c 12b6 f5b7 e5b5 fe79 bc35 fb62 43b7
00000010: bd7a 2537 8b6b 3db6 cc94 3e38 aff5 2d36
00000020: 2793 8237 c252 1db7 9aab 1435 e0e1 06b7
00000030: b580 cab5 ac4e 6837 752d e433 9797 1f37
00000040: 99f5 0537 b24d 5736 2428 57b7 ccf3 3ab7
00000050: 58e7 9ab7 6913 8837 635d 4037 73c4 0937
00000060: ed60 0c38 4430 76b7 6c8a af36 ef9c 4bb7
00000070: d130 3a35 7dc7 82b7 7cf4 e537 6b5e 9436
00000080: d2c9 9a36 544e 4b37 52ae 78b8 2328 4236
00000090: 5a12 6437 02eb 7fb6 2363 8eb7 02d0 a7b4
000000a0: edc0 6a37 03bf 3d37 26d0 9eb7 9781 ddb6
000000b0: 4803 4b37 c0de a035 ff50 ebb7 6697 a1b7
000000c0: 79d1 1d36 ba23 c333 5165 a3b7 6b94 98b7
000000d0: 54ec 5334 d922 b1b6 295c 7db7 d46d b136
000000e0: 179a ca35 ff13 8136 373a 5c38 e0e9 1cb7
000000f0: 3202 0437 9990 4837 13f3 4e36 115f a237

main_network.5.weight f4 [64]
1.0797263 1.0236017 0.9976886 0.9612223 1.0688355 1.0024354 1.0642202 1.0160699
0.9810007 0.9576992 1.0290244 1.0463403 0.96018887 1.0310873 1.0289052 1.0710409
0.9801738 0.948491 1.0228921 0.92257965 0.96138465 0.91613346 0.90849704 0.98734426
0.9504828 1.0372628 1.040341 0.95787334 0.9685364 1.0576541 0.9884959 1.045758
0.9199638 1.066954 1.0401726 0.9809235 0.9859274 1.0219102 0.97117895 0.9863397
1.1006389 1.0493052 1.0079705 0.9973611 0.963487 0.993367 1.0689619 1.0589244
1.030856 0.9591646 1.032203 1.0694711 0.9067559 0.95984334 0.96748894 0.97369015
0.9707248 0.9111317 1.0173533 1.0077281 0.910761 0.9466516 1.0018184 1.0703762
00000000: 7934 8a3f 6105 833f 8568 7f3f aa12 763f
00000010: 9acf 883f ce4f 803f 5e38 883f 940e 823f
00000020: dd22 7b3f c62b 753f 12b7 833f 7bee 853f
00000030: f0ce 753f abfa 833f 2ab3 833f de17 893f
00000040: acec 7a3f 4ed0 723f 21ee 823f 2e2e 6c3f
00000050: 4e1d 763f b987 6a3f 4393 683f 98c2 7c3f
00000060: d752 733f 07c5 843f e529 853f 3037 753f
00000070: 00f2 773f 3661 873f 110e 7d3f 66db 853f
00000080: bf82 6b3f f391 883f 6024 853f cd1d 7b3f
00000090: bd65 7c3f f4cd 823f 2f9f 783f c280 7c3f
000000a0: bce1 8c3f a24f 863f 2d05 813f 0f53 7f3f
000000b0: 16a7 763f 4d4d 7e3f bed3 883f d68a 873f
000000c0: 17f3 833f d08b 753f 3a1f 843f 6ee4 883f
000000d0: 2821 683f 4bb8 753f 5bad 773f c243 793f
000000e0: 6c81 783f ed3f 693f a238 823f 3cfd 803f
000000f0: a227 693f c257 723f 963b 803f 1602 893f

main_network.5.bias f4 [64]
0.04706862 -0.0015827266 0.034474913 0.026201943 0.059767377 0.008659032 0.05000156 0.03801876
0.05138674 0.026734173 0.019136269 0.05509111 -0.010858008 0.046339445 0.06320697 0.08528043
0.013893482 -0.034173094 0.03847449 -0.023209231 -0.020900253 -0.10298425 -0.06693158 0.041966368
-0.060710914 0.053693105 0.055025056 0.0009621588 0.028789071 0.040106125 0.010746307 0.09887346
-0.01599317 0.07722314 0.03156499 0.026209502 0.004743205 0.022470172 0.003977601 -0.020093204
0.1080685 0.017384065 0.041554194 -0.005405337 -0.02934992 -0.009199084 0.066685975 0.077196985
-0.011820828 0.053934596 0.04310664 0.06994123 -0.081201635 -0.044316053 0.022296885 -0.024112297
0.06323569 -0.072534904 0.010641943 0.06845176 -0.05143758 -0.016109904 0.05080658 0.053608183
00000000: 06cb 403d 7e73 cfba 9135 0d3d 75a5 d63c
00000010: a3ce 743d 9dde 0d3c 70ce 4c3d 8fb9 1b3d
00000020: e77a 523d a001 db3c aac3 9c3c 37a7 613d
00000030: c9e5 31bc 6ece 3d3d a872 813d 82a7 ae3d
00000040: 7da1 633c 16f9 0bbd 6d97 1d3d 4921 bebc
00000050: 0237 abbc 68e9 d2bd 6d13 89bd ede4 2b3d
00000060: 02ac 78bd 4ded 5b3d f461 613d 6239 7c3a
00000070: 0fd7 eb3c 5246 243d 4711 303c 2b7e ca3d
00000080: 1c04 83bc 2a27 9e3d 4a4a 013d 4fb5 d63c
00000090: e36c 9b3b 5e13 b83c 8956 823b 819a a4bc
000000a0: 0553 dd3d 0769 8e3c bb34 2a3d 411f b1bb
000000b0: 3e6f f0bc c1b7 16bc a892 883d 7419 9e3d
000000c0: 25ac 41bc 86ea 5c3d 9790 303d 593d 8f3d
000000d0: 0b4d a6bd c084 35bd f5a7 b63c 2787 c5bc
000000e0: b781 813d 2e8d 94bd 8b5b 2e3c 7030 8c3d
000000f0: 36b0 52bd ebf8 83bc 8f1a 503d 4194 5b3d
