MLP/best_model_resnet110.pth (torch, 121008 bytes, 47 tensors)

model_embedding.weight f4 [32, 12]
0	0xbe783666	-0.24239501
1	0x3d942118	0.07232875
2	0xbd8f0d41	-0.0698495
3	0x3e6240b3	0.22094993
4	0xbd225395	-0.03963049
5	0xbd98a74e	-0.07453786
6	0x3ddae6cd	0.10688553
7	0x3d2ebda9	0.042661343
8	0x3e287489	0.16450705
9	0xbe83321d	-0.2562417
10	0xbe3439bc	-0.17600149
11	0xbe44e3a7	-0.19227467
12	0x3d5e9cdb	0.054348808
13	0x3e8f227a	0.2795599
14	0x3e03e7ec	0.1288144
15	0x3ea39f99	0.319577
16	0xbe89b5df	-0.2689657
17	0x3e4739b8	0.19455612
18	0xbe29b9d4	-0.16574794
19	0xac34da59	-2.5700746e-12
20	0xbd7100dc	-0.05883871
21	0x3e203c05	0.15647896
22	0xbdfc2c2e	-0.12313114
23	0x3e992e27	0.29918024
24	0x3bb3eb02	0.0054906616
25	0xbd11048e	-0.035404734
26	0x3e25c258	0.16187418
27	0xbe1f7e3f	-0.15575503
28	0x3e94526a	0.28969127
29	0x3e13a74a	0.14419284
30	0x3e34a6cb	0.17641751
31	0x3ca29b49	0.019849436
32	0x3dbb4361	0.09143711
33	0x3ce36c93	0.027761733
34	0xbe66b59e	-0.22530219
35	0x3e69c571	0.22829224
36	0xbe529d17	-0.20567738
37	0xbe66a72b	-0.22524707
38	0x3b89ac2e	0.0042014336
39	0xbe4c5d9d	-0.19957586
40	0xbd86f24c	-0.06589183
41	0x3deef3bf	0.11667585
42	0x3e91f376	0.28506058
43	0x3c550abc	0.013003048
44	0x3e305c96	0.17222819
45	0xbe9195fc	-0.28434741
46	0xbdd74c32	-0.1051258
47	0x3c834b9d	0.016027266
48	0x3ceaac67	0.028646661
49	0xbcf5ba7b	-0.029996147
50	0x3e18cd57	0.14922081
51	0xbe425ba1	-0.18980266
52	0x3ebfd9a4	0.37470734
53	0xbe33a263	-0.17542414
54	0x3db6dab7	0.08928435
55	0xbb0c502c	-0.002141009
56	0xbde13a4a	-0.10997446
57	0xbe208840	-0.15676975
58	0xbe879051	-0.26477292
59	0x3d4edcec	0.050503656
60	0x3dd4c67e	0.10389422
61	0xbe90131b	-0.28139576
62	0xbe2f49da	-0.17118016
63	0x3e964bc7	0.2935469
64	0x3c5934b9	0.013257199
65	0x3e85a750	0.26104212
66	0xbc98c5a2	-0.018648926
67	0xba8d18b4	-0.0010764808
68	0x3e8e95d1	0.27848676
69	0xbc8ebac9	-0.01742305
70	0x3e8bf10e	0.27332348
71	0x3e149aff	0.14512251
72	0xbc4c4959	-0.012468659
73	0xbd5b0305	-0.053469677
74	0xbdf9318c	-0.121676534
75	0x3e6cb8f1	0.23117425
76	0xbd850ca6	-0.06496553
77	0xbe0ea3ef	-0.13929723
78	0xbe3e7300	-0.18598557
79	0xac089fce	-1.9415472e-12
80	0x3e0ac243	0.13550667
81	0x3e02ef17	0.12786518
82	0xbd92298b	-0.0713683
83	0xbe82c395	-0.25539842
84	0xbe803188	-0.2503779
85	0x3e587abe	0.21140572
86	0xbe271036	-0.16314778
87	0xbcdc29fd	-0.02687549
88	0x3e0ea34e	0.13929483
89	0xbde833ab	-0.1133798
90	0xbe910cc2	-0.28330046
91	0xbcac2448	-0.021013394
92	0x3d9884d1	0.07447208
93	0xbe810c3b	-0.25204644
94	0x3c8449ce	0.016148474
95	0x3d183477	0.03715941
96	0x3e176a46	0.14786634
97	0x3e7a161b	0.24422495
98	0xbe8f537e	-0.27993387
99	0x3e8b1d9d	0.2717103
100	0xbde7b8eb	-0.11314567
101	0xbe313bd3	-0.17307977
102	0x3b8f3f0e	0.0043715304
103	0x2e07abca	3.0848026e-11
104	0x3e76f00f	0.24115013
105	0x3e365a11	0.17807795
106	0xbe3d70c0	-0.18500042
107	0xbd9339b2	-0.07188739
108	0x3ddaf3cc	0.10691032
109	0x3e3f884f	0.18704341
110	0xbd4bc691	-0.049749915
111	0xbe9a8b88	-0.3018458
112	0x3d83212d	0.06402812
113	0xbd211f64	-0.039336577
114	0xbca5e015	-0.020248452
115	0x2d382966	1.0468381e-11
116	0xbd48479b	-0.048896413
117	0x3d53b848	0.051689416
118	0xbe5a7f6f	-0.21337675
119	0xbc89e83d	-0.016834373
120	0xbd77fd1f	-0.06054413
121	0xbd7e3228	-0.06205955
122	0xbe87e4dc	-0.26541793
123	0xbe8772e4	-0.26454842
124	0xbc10e516	-0.008843681
125	0xbcdb5c3d	-0.026777381
126	0xbdd58e61	-0.10427547
127	0x3c1620f0	0.009163126
128	0x3d01aad8	0.03165707
129	0xbd7ae020	-0.0612489
130	0xbe603174	-0.21893865
131	0x3cba521e	0.022744235
132	0x3e65c4ef	0.22438405
133	0xbe608339	-0.21925057
134	0xbcd06b89	-0.025441902
135	0xbdee63d9	-0.11640138
136	0x3e62946d	0.22126932
137	0xbe123cb7	-0.14280973
138	0x3e824705	0.2544481
139	0xac951073	-4.236661e-12
140	0xbe8022d9	-0.25026587
141	0x3d6d2a43	0.057901632
142	0x3e904aa1	0.28181937
143	0x3c737fa5	0.014861976
144	0xbe65e773	-0.22451572
145	0x3b5a2b0b	0.0033289816
146	0xbe3afc97	-0.18260418
147	0xbe59d10e	-0.21271154
148	0xbd532f91	-0.051559035
149	0x3e7dbe9c	0.24779743
150	0xbd9678b3	-0.0734724
151	0xac642fdb	-3.2427314e-12
152	0xbe775ff8	-0.24157703
153	0xbbd1e3bf	-0.0064053233
154	0xbe4a3cae	-0.1974971
155	0xbe5101e6	-0.2041088
156	0xbeb14adb	-0.34627423
157	0x3dea0961	0.1142757
158	0xbd8dd963	-0.06926229
159	0xbdb3c58d	-0.08777914
160	0x3d2aa12b	0.041657608
161	0xbe805ba0	-0.25069904
162	0x3db2661d	0.08710883
163	0x3b0463a1	0.0020200985
164	0xbe057842	-0.13034156
165	0x3e7ce1a9	0.24695458
166	0xbdf133aa	-0.11777432
167	0x3e169a08	0.14707196
168	0xbe05db6e	-0.13071987
169	0xbe04d522	-0.12971929
170	0x3eaa9969	0.33320168
171	0xbd538845	-0.05164363
172	0x3e5c8c6c	0.21537942
173	0x3e861900	0.26190948
174	0xbeaad1ef	-0.33363292
175	0xadebdc1b	-2.6814153e-11
176	0xbd292c63	-0.041302096
177	0x3cd17c26	0.025571894
178	0x3c267a20	0.010160953
179	0xbe098029	-0.13427795
180	0xbe16d9a1	-0.14731456
181	0xbe08f22c	-0.13373631
182	0xbd834fb1	-0.06411684
183	0x3e5457fe	0.20736691
184	0x3e6582d8	0.22413194
185	0xbe3fa2d2	-0.18714455
186	0x3e0290d4	0.1275056
187	0xb8a0059c	-7.630439e-05
188	0x3e2dbb9f	0.16966103
189	0xbe0a8c1b	-0.13530008
190	0x3d1bb5f7	0.038015332
191	0x3d8c0085	0.068360366
192	0xbe43836e	-0.19093105
193	0xbd1c3299	-0.03813419
194	0xbcb063c4	-0.021531947
195	0xbe8367c1	-0.25665095
196	0x3d70a626	0.0587522
197	0x3e2eff34	0.1708954
198	0x3e30b6cc	0.17257231
199	0xb81143f8	-3.4633995e-05
200	0xbe110023	-0.14160208
201	0xbdfe3a77	-0.12413495
202	0xbc674fa3	-0.014118108
203	0x3e7966c0	0.24355602
204	0xbdb39cda	-0.087701514
205	0x3e794a59	0.24344768
206	0x3e5ab5cd	0.21358414
207	0x3dcb9acb	0.09941634
208	0x3e887cab	0.26657614
209	0xbe40801f	-0.18798874
210	0xbe86d9b2	-0.26337963
211	0xb40355f9	-1.2231602e-07
212	0xbe9b55b7	-0.30338833
213	0x3cfc95fa	0.030833233
214	0x3cfdd623	0.030985897
215	0xbe87db23	-0.26534376
216	0xbe260747	-0.16213714
217	0x3d39b9f8	0.04534337
218	0xbe58de08	-0.21178448
219	0xbe405b22	-0.18784764
220	0x3db3cff8	0.08779901
221	0x3e98f9f7	0.29878208
222	0x3d753b81	0.0598712
223	0xbb06adec	-0.0020550443
224	0xbdc5c8f8	-0.09657472
225	0xbe2e139e	-0.16999671
226	0x3de74558	0.11292523
227	0xbe063870	-0.13107467
228	0x3ce05b87	0.027387394
229	0x3dcfa20f	0.10138332
230	0xbddd2b8b	-0.10799321
231	0x3d4ecdf0	0.050489366
232	0x3c937370	0.01799938
233	0xbcb06562	-0.021532718
234	0x3ce8ad04	0.028402813
235	0xbbe4d49b	-0.0069833524
236	0x3e57debc	0.2108106
237	0x3e715a95	0.2356971
238	0xbea22952	-0.3167215
239	0x3d52ffda	0.05151353
240	0x3e162dd4	0.1466592
241	0x3e8335c7	0.25626966
242	0x3cf8d118	0.030373141
243	0xbe31f440	-0.1737833
244	0xbe9cccc6	-0.3062498
245	0xbe2c28fa	-0.16812506
246	0x3cbf4111	0.023346456
247	0x3bbc6754	0.0057496224
248	0xbe6ab677	-0.22921167
249	0xbe2d258d	-0.16908856
250	0xbd579732	-0.052634425
251	0x3e4566ae	0.1927745
252	0xbe51fe63	-0.20507197
253	0x3e24b334	0.16083986
254	0x3ea0742e	0.31338638
255	0x3e1164dc	0.14198631

model_embedding.bias f4 [32]
0	0x362931c2	2.5211925e-06
1	0xbcd41336	-0.025888067
2	0x38870212	6.437687e-05
3	0x36b50312	5.394578e-06
4	0x3cc25867	0.023723794
5	0xb4bd907b	-3.5309117e-07
6	0xbbcc7505	-0.0062395358
7	0x3689a05a	4.1015855e-06
8	0xb7a8f40d	-2.0140806e-05
9	0x3cd2d9c3	0.025738603
10	0xb644ae78	-2.930783e-06
11	0xb792c4ba	-1.7496164e-05
12	0x364a67ac	3.016069e-06
13	0x3d21bd6d	0.03948729
14	0x362fbdd6	2.6187531e-06
15	0x3d432414	0.04764183
16	0x3ad1978e	0.0015990601
17	0x3cbe1439	0.023203002
18	0xb6899878	-4.100668e-06
19	0xbca4f304	-0.02013541
20	0x3a567698	0.0008181124
21	0xbc188190	-0.009308234
22	0x3b80e749	0.0039338213
23	0x34d5fe14	3.9859208e-07
24	0xbc1bd68d	-0.009511602
25	0xbd11a899	-0.035561178
26	0xb5aaf2da	-1.2736666e-06
27	0x3b91fc20	0.0044551045
28	0x36946dfd	4.423548e-06
29	0x3d08af76	0.033370458
30	0x35739107	9.0735597e-07
31	0xb79b202c	-1.8492421e-05

dataset_embedding.weight f4 [16, 3]
0	0x3e7a98e1	0.24472381
1	0x3ed894f1	0.42301133
2	0xbeac127b	-0.3360785
3	0xbeb2b196	-0.34901112
4	0xbd2283bb	-0.03967641
5	0xbeca6346	-0.39528865
6	0x3e376032	0.1790779
7	0x3e350040	0.17675877
8	0xbe7e69b0	-0.24845004
9	0xbe778cf4	-0.24174863
10	0x3dc511a5	0.09622506
11	0xbe8b840c	-0.2724918
12	0x3eb57308	0.35439324
13	0xbeff836e	-0.4990496
14	0xbe4bd342	-0.19904807
15	0xbe94ad8a	-0.2903865
16	0x3d81f29b	0.063451014
17	0xbf0a491b	-0.540178
18	0x3eb1a5ce	0.3469681
19	0xbeb1dd97	-0.34739372
20	0xbf0c9217	-0.54910415
21	0xbe64fdb9	-0.22362413
22	0x3e807aad	0.25093594
23	0x3ecfdc29	0.40597656
24	0xbe05e96c	-0.13077325
25	0x3cd3c7dc	0.025852136
26	0xbe946abc	-0.28987682
27	0xbd7ac8c6	-0.06122663
28	0x3dbd3ea8	0.09240466
29	0x3e4e9dfe	0.20177457
30	0x3ebcc467	0.36868593
31	0xbf28a4c8	-0.65876436
32	0x3eece2c7	0.46266767
33	0xbe9150da	-0.28381997
34	0xbed86130	-0.42261648
35	0x3f097fa2	0.5371038
36	0x3edc8441	0.43069652
37	0xbecb6839	-0.39727953
38	0x3ef33ac9	0.47505787
39	0x3eb0d5bd	0.3453807
40	0x3f1c667a	0.61093867
41	0xbf0edd69	-0.55806595
42	0x3edadd07	0.42746755
43	0xbdca3008	-0.098724425
44	0xbd88ce90	-0.06680024
45	0x3c88b8fa	0.016689766
46	0x3e78956a	0.24275747
47	0xbe154389	-0.14576544

dataset_embedding.bias f4 [16]
0	0x36d09b54	6.2169656e-06
1	0xbd377b91	-0.044795576
2	0x38c53803	9.404125e-05
3	0xb9bc53b4	-0.00035920518
4	0x3d21f310	0.039538443
5	0x3b86f9f1	0.004119151
6	0x3e873b27	0.26412317
7	0x38ae7e23	8.320461e-05
8	0x3d97b0ce	0.0740677
9	0x380ee1ca	3.406572e-05
10	0xbe423107	-0.18964015
11	0x380c70d4	3.348368e-05
12	0xbd05a801	-0.032630924
13	0x3d75ea77	0.060038056
14	0xbc34ef7c	-0.011043426
15	0x3e4715d9	0.19441928

tensor_network.0.weight f4 [16, 1]
0	0xbe800bc1	-0.25008968
1	0xbd906131	-0.07049788
2	0xbcdfda73	-0.027325844
3	0x3d819c3e	0.06328629
4	0x3e524125	0.20532663
5	0xbf38713a	-0.7204777
6	0x3f415b5c	0.7553003
7	0x3eed818e	0.46387905
8	0xbeea1522	-0.45719248
9	0xbde1ba23	-0.11021831
10	0xbcbdb63e	-0.023158189
11	0x3d8a3962	0.06749226
12	0xbe814bc0	-0.25253105
13	0x3edae193	0.42750224
14	0xbf0bf89e	-0.54676235
15	0xbe98ba5d	-0.29829684

tensor_network.0.bias f4 [16]
0	0xbd6d4ed3	-0.0579365
1	0x398e6b14	0.0002716413
2	0x33e8fb4f	1.08490546e-07
3	0x3c849f4d	0.016189242
4	0x3ebb292d	0.36554852
5	0x3f37db0f	0.7181863
6	0xbf6d7b50	-0.92766285
7	0xbf52712d	-0.8220394
8	0x3f0fc751	0.5616351
9	0xbe74e60c	-0.23915881
10	0xbf1a4509	-0.6026159
11	0x3c3f9bb1	0.011694835
12	0xbef89179	-0.48548487
13	0x3b8357f1	0.004008286
14	0xbef5c69b	-0.48003086
15	0x3e0bc28e	0.13648435

tensor_network.2.weight f4 [16]
0	0x3f2c7967	0.67372745
1	0x3f2c7967	0.67372745
2	0x3f2c7967	0.67372745
3	0x3f7e555f	0.99349016
4	0x3f83426f	1.0254649
5	0x3f7f3f4a	0.99705946
6	0x3f81143e	1.0084302
7	0x3f8251c9	1.0181209
8	0x3f81957c	1.0123744
9	0x3f2c7967	0.67372745
10	0x3f2c7967	0.67372745
11	0x3f817845	1.0114828
12	0x3f2c7967	0.67372745
13	0x3f7cbb20	0.9872303
14	0x3f2c7967	0.67372745
15	0x3f2c7967	0.67372745

tensor_network.2.bias f4 [16]
0	0xaec288e5	-8.846416e-11
1	0xae0731d4	-3.0739702e-11
2	0xad63ff25	-1.29601095e-11
3	0xb6bf6d00	-5.704933e-06
4	0x38182fd4	3.6284167e-05
5	0x37efdb22	2.8593062e-05
6	0x34d16ba9	3.9007617e-07
7	0x36a841dd	5.0144577e-06
8	0xb7a527fa	-1.9688148e-05
9	0xacb019ce	-5.0050858e-12
10	0x2d5681ec	1.219334e-11
11	0xb77c587a	-1.50409705e-05
12	0x2dc2b8dd	2.2137342e-11
13	0x3877f7a4	5.9120022e-05
14	0xadde26f3	-2.5255775e-11
15	0x2cfa9321	7.121762e-12

tensor_network.2.running_mean f4 [16]
0	0x00000000	0.0
1	0x00000000	0.0
2	0x00000000	0.0
3	0x3e723f8c	0.23657054
4	0x3f8b45bd	1.0880657
5	0x3c4a453c	0.012345608
6	0x3fdc01c5	1.718804
7	0x3f5d1534	0.8636048
8	0x3c987642	0.018611077
9	0x00000000	0.0
10	0x00000000	0.0
11	0x3e7e0972	0.2480829
12	0x00000000	0.0
13	0x3fbf4213	1.4942039
14	0x00000000	0.0
15	0x00000000	0.0

tensor_network.2.running_var f4 [16]
0	0x2202099f	1.7623379e-18
1	0x2202099f	1.7623379e-18
2	0x2202099f	1.7623379e-18
3	0x3cacef90	0.021110326
4	0x3e67bc6d	0.22630472
5	0x3ab5d303	0.001387209
6	0x4037ffd0	2.8749886
7	0x3f74321a	0.9538895
8	0x3b4ea210	0.0031529702
9	0x2202099f	1.7623379e-18
10	0x2202099f	1.7623379e-18
11	0x3cc7501d	0.024330193
12	0x2202099f	1.7623379e-18
13	0x3f78e7d2	0.9722873
14	0x2202099f	1.7623379e-18
15	0x2202099f	1.7623379e-18

worker_network.0.weight f4 [16, 1]
0	0x3f10696b	0.56410855
1	0x3d8877e9	0.06663496
2	0xbe6be6a3	-0.230372
3	0x3dbd4bd5	0.092429794
4	0xbe0df269	-0.13862003
5	0x3d072818	0.03299722
6	0xbb241050	-0.0025034137
7	0x3f2054af	0.62629217
8	0xbcdc5b81	-0.026899101
9	0x3e715936	0.23569188
10	0x30e53666	1.6677404e-09
11	0xbeaad04e	-0.3336205
12	0x3d907e32	0.0705532
13	0x3db2570e	0.087080106
14	0x3eb393a6	0.35073584
15	0xbe36413b	-0.17798321

worker_network.0.bias f4 [16]
0	0x3afdf503	0.0019375387
1	0xb88d8464	-6.7480636e-05
2	0xbf21dc6d	-0.6322697
3	0x3ef86c2f	0.48520038
4	0x3f0939e9	0.5360399
5	0x3e23acf9	0.15983953
6	0x3e8fc4d0	0.28079844
7	0x3eac9480	0.33707047
8	0x3ea9051e	0.33011717
9	0xbd7f4e99	-0.062330816
10	0xbe3e3a48	-0.1857692
11	0xbd72fa6b	-0.05932085
12	0x3f043ddb	0.51656884
13	0x3e04237c	0.12904161
14	0xbed8fa06	-0.42378253
15	0x3ea22fb8	0.31677032

worker_network.2.weight f4 [16]
0	0x3f798be5	0.9747909
1	0x3f814212	1.0098288
2	0x3f2c7967	0.67372745
3	0x3f7bcbf8	0.98358107
4	0x3f81f1f9	1.0151969
5	0x3f76d9b1	0.9642592
6	0x3f7d929c	0.99051833
7	0x3f81d222	1.0142252
8	0x3f772aee	0.9654988
9	0x3f77d762	0.96813023
10	0x3f2c7967	0.67372745
11	0x3f2c7967	0.67372745
12	0x3f7ebaad	0.99503595
13	0x3f7dfc0d	0.99212724
14	0x3f78e0dc	0.9721811
15	0x3f2c76a1	0.67368513

worker_network.2.bias f4 [16]
0	0xb60d2f83	-2.1038293e-06
1	0xb7f88f59	-2.9630655e-05
2	0x2efa61aa	1.13860324e-10
3	0xb7ae06a7	-2.0745514e-05
4	0xb7839856	-1.5687354e-05
5	0xb80d01a0	-3.3618533e-05
6	0x369cc771	4.6723803e-06
7	0xb6744c7e	-3.6403358e-06
8	0x37a1434b	1.9224031e-05
9	0xb7a83577	-2.0052057e-05
10	0xad234273	-9.280232e-12
11	0xae774ae1	-5.6227804e-11
12	0xb6a5876c	-4.9331484e-06
13	0xb80c6215	-3.3469947e-05
14	0xb82fe7a6	-4.193899e-05
15	0xb62e1963	-2.5942797e-06

worker_network.2.running_mean f4 [16]
0	0x402afa08	2.6715107
1	0x3ea1bd6b	0.31589827
2	0x00000000	0.0
3	0x3f6cecab	0.92548627
4	0x3daef1df	0.08542227
5	0x3ea2991b	0.31757435
6	0x3e8a9336	0.27065438
7	0x40535e21	3.3026202
8	0x3e51608a	0.20446983
9	0x3f878421	1.0587198
10	0x00000000	0.0
11	0x00000000	0.0
12	0x3f5a2149	0.8520704
13	0x3f0c4494	0.5479214
14	0x3f9e65a9	1.2374774
15	0x26b0cfea	1.2268808e-15

worker_network.2.running_var f4 [16]
0	0x400162f5	2.0216649
1	0x3ce825db	0.028338363
2	0x2202099f	1.7623379e-18
3	0x3d5d62a7	0.05404916
4	0x3c70b4fc	0.014691588
5	0x3bdf024e	0.0068056947
6	0x385f41bb	5.322856e-05
7	0x401f4d0e	2.489078
8	0x3b9b428a	0.0047381567
9	0x3eb72d93	0.35776958
10	0x2202099f	1.7623379e-18
11	0x2202099f	1.7623379e-18
12	0x3cff950c	0.031199
13	0x3d495430	0.049152553
14	0x3f495d49	0.78657967
15	0x221492e9	2.0135514e-18

batch_network.0.weight f4 [16, 1]
0	0xbf08d065	-0.53442985
1	0xbeac59a6	-0.33662146
2	0x3e466a9e	0.19376609
3	0x3eda1305	0.42592636
4	0x3f13c55c	0.5772302
5	0x3f29cdb5	0.6632951
6	0xbac18627	-0.0014764712
7	0xbb609f31	-0.0034274573
8	0xbe6076f4	-0.21920377
9	0x3f06d505	0.5266879
10	0xbeb6f4b4	-0.3573357
11	0x3ed8d469	0.42349556
12	0x3f0070b3	0.50171965
13	0xbe7c8d76	-0.24663338
14	0xbe69b8aa	-0.2282435
15	0x3e5e16da	0.21688405

batch_network.0.bias f4 [16]
0	0xbe9ac1b6	-0.30225915
1	0xbef02f15	-0.4691092
2	0xbf61d2e6	-0.8821243
3	0xbf2b5ee0	-0.6694164
4	0xbbccac57	-0.0062461304
5	0xb6e47c6b	-6.8094137e-06
6	0xbe9d7fdc	-0.3076161
7	0xbe415e94	-0.18883735
8	0x3efe3297	0.49647972
9	0xbdeb567e	-0.114911065
10	0x3f0151ae	0.5051526
11	0xbe0e553f	-0.13899706
12	0x3d891b53	0.06694665
13	0x3efce35e	0.49392217
14	0xbee44242	-0.445818
15	0xbdc83159	-0.09775037

batch_network.2.weight f4 [16]
0	0x3f2c7967	0.67372745
1	0x3f2c7967	0.67372745
2	0x3f800140	1.0000381
3	0x3f8081ee	1.0039651
4	0x3f824dee	1.0180032
5	0x3f8149a8	1.0100603
6	0x3f2c7967	0.67372745
7	0x3f2c7967	0.67372745
8	0x3f7eec51	0.9957934
9	0x3f7c5cb0	0.9857893
10	0x3f2c7967	0.67372745
11	0x3f7d84f0	0.9903097
12	0x3f7e751f	0.9939746
13	0x3f2c6a2c	0.67349505
14	0x3f2c7967	0.67372745
15	0x3f831509	1.0240794

batch_network.2.bias f4 [16]
0	0xae4df133	-4.682583e-11
1	0x2e9e725b	7.205322e-11
2	0xb7d9ea77	-2.5977597e-05
3	0xb82d58de	-4.132918e-05
4	0x38800b6c	6.105643e-05
5	0x3808b013	3.258891e-05
6	0xad2a326f	-9.67458e-12
7	0x2dc68d0d	2.2572633e-11
8	0xb5b73bc5	-1.3651958e-06
9	0xb74817e4	-1.1926491e-05
10	0x2f311ec5	1.6108988e-10
11	0xb8824e7b	-6.213501e-05
12	0xb7b721f1	-2.1831105e-05
13	0x368087f6	3.830525e-06
14	0xaca48ea1	-4.6769953e-12
15	0xb7db3fe2	-2.6136582e-05

batch_network.2.running_mean f4 [16]
0	0x00000000	0.0
1	0x00000000	0.0
2	0x3ef67fef	0.4814448
3	0x4011451a	2.2698426
4	0x407e5db6	3.9744697
5	0x40924832	4.571313
6	0x00000000	0.0
7	0x00000000	0.0
8	0x3ab1e149	0.0013571169
9	0x406117c6	3.517076
10	0x00000000	0.0
11	0x40323b6d	2.784877
12	0x40621276	3.5323768
13	0x36984b04	4.538686e-06
14	0x00000000	0.0
15	0x3fb44676	1.4084003

batch_network.2.running_var f4 [16]
0	0x2202099f	1.7623379e-18
1	0x2202099f	1.7623379e-18
2	0x3dcc9f76	0.09991352
3	0x3f3b904b	0.7326705
4	0x3fab8fd9	1.3403274
5	0x3fe230f1	1.7671186
6	0x2202099f	1.7623379e-18
7	0x2202099f	1.7623379e-18
8	0x386112f5	5.3661835e-05
9	0x3f8efcfd	1.1170956
10	0x2202099f	1.7623379e-18
11	0x3f396ddf	0.72433275
12	0x3f81d7ce	1.0143983
13	0x315defd2	3.2296055e-09
14	0x2202099f	1.7623379e-18
15	0x3e451878	0.19247615

ps_network.0.weight f4 [8, 1]
0	0xbddb6226	-0.1071208
1	0xbefece9f	-0.49767014
2	0x3f595fbe	0.84911716
3	0x3f5f5551	0.8723956
4	0xbcde2f2d	-0.027122105
5	0xbaa610b2	-0.001266977
6	0xbeecb92c	-0.46235025
7	0x3eb1384d	0.34613267

ps_network.0.bias f4 [8]
0	0x3e3d3785	0.1847821
1	0xbf2ab775	-0.66686183
2	0xbf0c75fe	-0.5486754
3	0xbe23e692	-0.16005924
4	0xbf19fb39	-0.6014896
5	0xbe2b01c1	-0.16699888
6	0x3e99fad0	0.30074167
7	0x3eae3043	0.34021196

ps_network.2.weight f4 [8]
0	0x3f77b139	0.96754795
1	0x3f2c7967	0.67372745
2	0x3f7141b8	0.94240904
3	0x3f74ccc7	0.95624965
4	0x3f2c7967	0.67372745
5	0x3f2c7967	0.67372745
6	0x3f7159ce	0.94277656
7	0x3f7a62e2	0.97807133

ps_network.2.bias f4 [8]
0	0x35e0ea78	1.675754e-06
1	0x2c873a4d	3.8434035e-12
2	0xb82b0fb5	-4.0784205e-05
3	0x3885f46a	6.38746e-05
4	0x2e11a8b5	3.3119025e-11
5	0xad830f76	-1.4899842e-11
6	0x37b6f0e6	2.1808268e-05
7	0x37a10ecf	1.9199591e-05

ps_network.2.running_mean f4 [8]
0	0x3dd4d202	0.10391618
1	0x00000000	0.0
2	0x3fbf1532	1.4928343
3	0x3fdb1d68	1.7118349
4	0x00000000	0.0
5	0x00000000	0.0
6	0x3e2e20d5	0.17004712
7	0x3f8756fc	1.057342

ps_network.2.running_var f4 [8]
0	0x3c0b2183	0.008491877
1	0x2202099f	1.7623379e-18
2	0x409f7c46	4.98392
3	0x40c0c334	6.0238285
4	0x2202099f	1.7623379e-18
5	0x2202099f	1.7623379e-18
6	0x3cba5447	0.022745265
7	0x3f8229a9	1.0168964

main_network.0.weight f4 [128, 104]
0	0xbd7ed695	-0.06221636
1	0xbd1c740d	-0.038196612
2	0x3d2b57ec	0.041831896
3	0xbd4a6b49	-0.04941872
4	0xbdac0298	-0.08398932
5	0x3c9f192a	0.019421179
6	0x3d9ffac7	0.07811504
7	0x3d288cd3	0.041149925
8	0xbcf752cf	-0.030190853
9	0x3cb74e94	0.022376336
10	0xbbedd79b	-0.007258368
11	0xbd91a2ae	-0.07111107
12	0xbd85dcc6	-0.0653625
13	0xbdc7380c	-0.09727487
14	0xbc7ae50e	-0.0153134
15	0x3d8b3e5b	0.06799003
16	0xbd63f0ee	-0.05564969
17	0x3d3a8632	0.045538135
18	0xbc0c5f7c	-0.008567687
19	0x3ca0a339	0.01960908
20	0xbd7dc3e7	-0.061954405
21	0xbdb83dd1	-0.089961655
22	0xbccb2491	-0.02479771
23	0x3d0bd249	0.03413609
24	0xbd9d1560	-0.076700926
25	0xbd83e1b5	-0.064395346
26	0xbde4ffda	-0.11181612
27	0x3d9d1fc8	0.076720774
28	0x3d5626e5	0.052283186
29	0xbdaa8576	-0.08326237
30	0x3da02b99	0.078208156
31	0xbd8d32dd	-0.06894467
32	0xbdd10f82	-0.10208036
33	0xbc47dc80	-0.012198567
34	0xbd6d45f2	-0.057928033
35	0xbdc016ca	-0.09379347
36	0x3c17ba90	0.009260789
37	0xbd406442	-0.046970613
38	0x3daf58d3	0.08561864
39	0x3b29f2be	0.002593204
40	0xbd8a1682	-0.06742574
41	0xbcbb5700	-0.022868633
42	0x3cc7bea1	0.024382891
43	0xbd3f72e8	-0.046740443
44	0x3df539ee	0.1197394
45	0x3c89f1eb	0.016838988
46	0x3d92805a	0.07153387
47	0xbd896931	-0.06709517
48	0x33c27bfb	9.056381e-08
49	0x3292bcf5	1.7082565e-08
50	0xad7491e4	-1.3902188e-11
51	0xbd52cc43	-0.05146433
52	0xbd9cd5d0	-0.07657969
53	0xbd080035	-0.033203322
54	0x3d2ca328	0.042147785
55	0xbd924e87	-0.07143884
56	0x3d843bce	0.06456719
57	0x308a7f72	1.0077044e-09
58	0xaf164a5a	-1.3668836e-10
59	0x3d54f7df	0.0519942
60	0x32a2cca2	1.8952338e-08
61	0xbde49e71	-0.11163033
62	0xab8a9784	-9.847544e-13
63	0xadf0e2ca	-2.7385556e-11
64	0xbd3a80ff	-0.045533177
65	0xbda13908	-0.07872206
66	0x33447678	4.5742553e-08
67	0x3de415b0	0.11136949
68	0xbd8e0389	-0.06934268
69	0x3d99a1a4	0.07501534
70	0xbdd7c669	-0.105358906
71	0x3d12f1e6	0.035875224
72	0x3b107b7e	0.0022046263
73	0x3d50294e	0.05082064
74	0xafe5e7ea	-4.1819642e-10
75	0xb04961a0	-7.326211e-10
76	0xbd7f737f	-0.062366005
77	0x3c5a8d45	0.013339345
78	0x3da7f494	0.082009465
79	0x3c0b7fa3	0.008514318
80	0x3040838d	7.003614e-10
81	0xb50ff5a5	-5.362911e-07
82	0x3d91c0d1	0.07116855
83	0xbcd7fc54	-0.026365437
84	0x3ce616dd	0.028087074
85	0x3df12765	0.11775092
86	0xb295970a	-1.7414568e-08
87	0xaea6302f	-7.557365e-11
88	0xbd4c5e4c	-0.049894616
89	0xbc94f2a2	-0.018182103
90	0xb376969d	-5.741332e-08
91	0xbd6d6d17	-0.057965364
92	0x3d5c70f2	0.05381865
93	0x3c086c0e	0.0083265435
94	0x2d2e7277	9.916171e-12
95	0xbd852ac7	-0.065023
96	0x3d6fccfa	0.05854509
97	0xb266cb30	-1.34339615e-08
98	0xbbd9c85b	-0.0066461987
99	0xbd24dd99	-0.040250394
100	0x328f9d6f	1.6718984e-08
101	0xad6f6f06	-1.3610229e-11
102	0xbdd3cd18	-0.10341853
103	0xbd0014c9	-0.031269822
104	0x3cc82bd0	0.024434954
105	0xbd1cefd4	-0.038314655
106	0xbd6e70f2	-0.05821318
107	0x3befafc9	0.0073146564
108	0xbdca1c15	-0.098686375
109	0x3db05d39	0.08611531
110	0xbd747d63	-0.05968989
111	0xbd6d144d	-0.05788069
112	0xbd32e11c	-0.043671712
113	0xbd82bfae	-0.06384216
114	0xbdaa5ea8	-0.083188355
115	0x3d629205	0.055315036
116	0xbb50b368	-0.0031845216
117	0xbddab231	-0.106785186
118	0xbdbd5496	-0.09244649
119	0x3d861485	0.065468825
120	0x3d444fd0	0.047927678
121	0x3b8fc392	0.0043873275
122	0x3da55a83	0.08073904
123	0xbc98a0cc	-0.018631361
124	0x3d983cb6	0.07433455
125	0x389d6bb8	7.5064076e-05
126	0x3d6c2222	0.05764974
127	0x3d520381	0.051272873
128	0x3d198517	0.03748044
129	0x3c6d79ab	0.01449434
130	0xbd99460b	-0.07484063
131	0x3d5f128a	0.05446104
132	0x3dfb2456	0.1226279
133	0xbc95830f	-0.01825097
134	0x3d0d1932	0.034447856
135	0xbd073dbb	-0.033017855
136	0xbc491720	-0.01227358
137	0xbdf5c7f4	-0.12001029
138	0xbb85fd62	-0.0040890435
139	0xbc22afa6	-0.009929573
140	0x3da07240	0.078342915
141	0xbd1516d8	-0.03639874
142	0x3df27646	0.11838965
143	0x3bab4a05	0.0052273297
144	0xbdfd0524	-0.12354496
145	0xbdcf55c1	-0.10123778
146	0x3e0d20bc	0.13782018
147	0x385bd908	5.2415795e-05
148	0x3c38ec29	0.011286774
149	0xbd861a58	-0.065479934
150	0x3c812cb6	0.01576839
151	0x3d111034	0.035415843
152	0xaea0ca41	-7.311885e-11
153	0x2e959130	6.801526e-11
154	0x2eb9c716	8.448191e-11
155	0x3cd17536	0.025568586
156	0xbd987ea5	-0.074460305
157	0xbd859fb8	-0.065246046
158	0xbd3597c4	-0.044334188
159	0xbd93a362	-0.07208897
160	0x3cd99169	0.026558595
161	0xb3ee6ab2	-1.11021464e-07
162	0xae0dda9d	-3.2253856e-11
163	0x3d081279	0.033220742
164	0xb1cfa61d	-6.043378e-09
165	0xbda594ae	-0.08084999
166	0xae24121b	-3.7305364e-11
167	0xb3fad9aa	-1.1681125e-07
168	0xbd8c521a	-0.06851597
169	0xbd8f5887	-0.06999307
170	0x3080837c	9.350596e-10
171	0x3da5f29f	0.08102917
172	0xbd46f463	-0.04857291
173	0xbd9df021	-0.077118166
174	0x3d125ac3	0.03573109
175	0x3db6a198	0.0891754
176	0xbd83e3d4	-0.06439939
177	0xbd8b8e6c	-0.06814274
178	0x310c7815	2.044094e-09
179	0xaf706fa7	-2.186754e-10
180	0x3d814663	0.06312253
181	0xbda5f9c6	-0.08104281
182	0x3dbf454e	0.09339391
183	0x3c4d11aa	0.0125164185
184	0xaca8132c	-4.7769757e-12
185	0xaf4c9eaa	-1.8610061e-10
186	0x3d449d81	0.04800177
187	0x3d1ed916	0.038781248
188	0x3c8beb1c	0.017079882
189	0x3c7fc405	0.0156107
190	0xaf3321a0	-1.6291901e-10
191	0x2d60e4d2	1.2783734e-11
192	0x3d83aa14	0.06428924
193	0xbd82a70d	-0.06379519
194	0x300e3a32	5.1742e-10
195	0x3cb67ae0	0.022275388
196	0x3cb736cd	0.022364998
197	0x3aacffe6	0.0013198822
198	0xb44da74c	-1.9152975e-07
199	0xbd060237	-0.032716956
200	0xbdc6656e	-0.09687315
201	0x3389d4f3	6.418295e-08
202	0x3c1e8839	0.009676033
203	0x3ca4bde6	0.020110082
204	0xb02d2258	-6.298584e-10
205	0xb223decd	-9.538508e-09
206	0x3d64ab6c	0.055827543
207	0x3da8a7e7	0.0823515
208	0x3d8b2f52	0.06796135
209	0x3d0a4825	0.03376021
210	0xbb7a9d29	-0.0038240647
211	0xbcb054ac	-0.02152475
212	0xbd4c0b51	-0.04981548
213	0x3c59dcd3	0.0132972775
214	0xbd81067b	-0.06300064
215	0x3d1fa628	0.03897682
216	0xbd92d02f	-0.07168614
217	0x3c95a6d2	0.018268023
218	0xbd61cb78	-0.055125684
219	0x3d42cded	0.047559667
220	0xbdaecdb7	-0.08535331
221	0xbd96b050	-0.07357848
222	0x3dccbf81	0.09997464
223	0x3d63e633	0.055639457
224	0xbd3a6f7c	-0.045516476
225	0xbc88c6e8	-0.016696408
226	0x3d9264fa	0.07148166
227	0xbd7e0ab8	-0.06202194
228	0xbd8b897f	-0.06813335
229	0x3dce46be	0.10072087
230	0xbd81da98	-0.063405216
231	0xbce1adb6	-0.027548652
232	0xbbe53834	-0.0069952253
233	0x3d0639cb	0.03276996
234	0x3d7995ad	0.060933758
235	0xbdd8dd53	-0.10589089
236	0x3d4b4eea	0.049635805
237	0x3dca3f49	0.09875352
238	0x3cd6bf37	0.026214225
239	0xbd445998	-0.047937006
240	0x3d3a8676	0.04553839
241	0xbdc6a8db	-0.097001754
242	0xbd3d7d8e	-0.046262316
243	0x3d0abe97	0.033873167
244	0x3da7bae2	0.08189942
245	0xbdbbf54d	-0.09177647
246	0x3e16bf29	0.1472136
247	0xbcfc5219	-0.030800866
248	0xbde07fbd	-0.10961864
249	0xbd4417ea	-0.04787437
250	0x3da39da5	0.07989053
251	0x3d07292c	0.03299825
252	0xbd093753	-0.033500027
253	0xbd2797a8	-0.040916115
254	0x3df1ec77	0.1181268
255	0x3d5ac76e	0.053412847

main_network.0.bias f4 [128]
0	0x3630765e	2.6294942e-06
1	0xb781ba8e	-1.546487e-05
2	0x37bdc5f6	2.2622738e-05
3	0xb6e33eb3	-6.7724263e-06
4	0x37176c51	9.025521e-06
5	0xb487717e	-2.5228286e-07
6	0x3639117a	2.757732e-06
7	0xb5a6380d	-1.2384277e-06
8	0xb5ce5425	-1.5372685e-06
9	0xb71ab03f	-9.220151e-06
10	0xb8bf0be5	-9.109805e-05
11	0x377ef231	1.5195969e-05
12	0x37bb0820	2.229592e-05
13	0x355934e3	8.091576e-07
14	0xb474403b	-2.2747638e-07
15	0x370b1d4b	8.291866e-06
16	0xb705d5c7	-7.977192e-06
17	0x348030fd	2.3877502e-07
18	0xb79a8665	-1.8420813e-05
19	0x36c4ca3a	5.8647975e-06
20	0xb6bfcecb	-5.7163174e-06
21	0x373a3232	1.1098151e-05
22	0xb6be09ff	-5.663605e-06
23	0x3534f850	6.741657e-07
24	0xb60d12ef	-2.1021658e-06
25	0xb712657f	-8.7259095e-06
26	0xb7c0191f	-2.2899882e-05
27	0x36d61ba0	6.380913e-06
28	0x36d119e1	6.231698e-06
29	0x373af33b	1.1143095e-05
30	0xb712c79a	-8.7487515e-06
31	0x36941a95	4.4138383e-06
32	0xb4aec998	-3.2556704e-07
33	0x36b7abfd	5.473847e-06
34	0x3620bfd2	2.3953512e-06
35	0x35faebba	1.8695057e-06
36	0xb6878343	-4.0385944e-06
37	0x3581093d	9.613938e-07
38	0xb6032e39	-1.9547426e-06
39	0xb5bdca1e	-1.4140421e-06
40	0xb41505b0	-1.3878775e-07
41	0xb7503a28	-1.2411307e-05
42	0x36610e08	3.353578e-06
43	0xb589df2d	-1.0272248e-06
44	0x360aee89	2.0702448e-06
45	0xb52738c7	-6.229497e-07
46	0x36a084b6	4.783821e-06
47	0xb6fc7a7c	-7.5244443e-06
48	0xb6860e55	-3.9951797e-06
49	0xb5d4caaa	-1.5854214e-06
50	0xb6a079e3	-4.782561e-06
51	0xb72010de	-9.54067e-06
52	0x3634f2c5	2.69634e-06
53	0xb689bd6e	-4.1049707e-06
54	0x37baf8e4	2.2288827e-05
55	0x32b04838	2.0521938e-08
56	0x358647f0	1.0004715e-06
57	0xb5bef383	-1.4226974e-06
58	0xb7ac20c3	-2.0519254e-05
59	0xb72fad3a	-1.0471145e-05
60	0xb562be49	-8.446846e-07
61	0xb7eb8008	-2.8073802e-05
62	0x3643ba88	2.916584e-06
63	0x37189457	9.094444e-06
64	0xb63d5770	-2.821409e-06
65	0xb6af5786	-5.2255955e-06
66	0x3744a459	1.1720776e-05
67	0xb63c9e5f	-2.8106367e-06
68	0xb708f4de	-8.163244e-06
69	0x36978e5c	4.5167235e-06
70	0xb5b60ef7	-1.3564412e-06
71	0x36baf016	5.5711816e-06
72	0xb5f26f9e	-1.806289e-06
73	0x362e2914	2.595193e-06
74	0x37487f75	1.1950605e-05
75	0xb6be66c0	-5.674403e-06
76	0xb6d9b585	-6.4882356e-06
77	0xb6defcc3	-6.645541e-06
78	0x37fff172	3.05108e-05
79	0x35243070	6.1165247e-07
80	0xb75c9c88	-1.3149467e-05
81	0x364acb55	3.02187e-06
82	0x343056a9	1.6422804e-07
83	0x37159671	8.916119e-06
84	0x362fcee6	2.6197463e-06
85	0xb76e252a	-1.4194558e-05
86	0xb68bdb26	-4.168035e-06
87	0xb7bbca6c	-2.2386397e-05
88	0x35310eeb	6.5959347e-07
89	0xb60c1d9f	-2.0878867e-06
90	0x353bffe8	7.003532e-07
91	0x366254cc	3.3725983e-06
92	0x37371494	1.0912441e-05
93	0x351ba53f	5.7982464e-07
94	0x355ad0ef	8.1515367e-07
95	0x3792a67b	1.748208e-05
96	0xb66b7741	-3.5087144e-06
97	0x36c3c1b1	5.8340015e-06
98	0xb6766159	-3.671352e-06
99	0x369927f8	4.5644083e-06
100	0x36aa3c62	5.0734243e-06
101	0xb449d85a	-1.8798292e-07
102	0xb6f0a5e7	-7.171871e-06
103	0xb70d64a2	-8.427685e-06
104	0x36e0f5d6	6.7043393e-06
105	0x368ebae0	4.253685e-06
106	0xb6b42786	-5.369019e-06
107	0xb70a2fe3	-8.2365905e-06
108	0x370035fa	7.641962e-06
109	0xb5cc0d03	-1.5202971e-06
110	0x364d2db3	3.057398e-06
111	0x36336727	2.673312e-06
112	0x35ec097b	1.7586129e-06
113	0x3673edfb	3.6348345e-06
114	0x37918f38	1.7352038e-05
115	0x36bb28e8	5.5777964e-06
116	0xb74774a4	-1.1888482e-05
117	0x348486e4	2.4685062e-07
118	0xb5788553	-9.258121e-07
119	0xb75b364e	-1.3066061e-05
120	0xb70ee93a	-8.518162e-06
121	0x36809548	3.832076e-06
122	0xb5f83aeb	-1.8494587e-06
123	0xb8269180	-3.971299e-05
124	0xb78cabbf	-1.6769276e-05
125	0xb71112c5	-8.647044e-06
126	0x368ee7e6	4.2589263e-06
127	0x3543c691	7.2932113e-07

main_network.1.weight f4 [128]
0	0x3f7f766c	0.9979007
1	0x3f857cf4	1.0428758
2	0x3f83f509	1.0309154
3	0x3f7e0b5c	0.99236083
4	0x3f787c80	0.9706497
5	0x3f8062d8	1.0030165
6	0x3f80b12e	1.0054071
7	0x3f7e2216	0.9927076
8	0x3f7d6cbf	0.9899406
9	0x3f763427	0.9617333
10	0x3f7e999f	0.9945316
11	0x3f829e5c	1.0204577
12	0x3f758c7c	0.9591749
13	0x3f764cdd	0.96211034
14	0x3f78fb71	0.9725867
15	0x3f84fb1b	1.0389131
16	0x3f7f1ebd	0.9965628
17	0x3f7dd09f	0.99146456
18	0x3f7fd899	0.99939877
19	0x3f7decd1	0.9918948
20	0x3f7d4035	0.989261
21	0x3f76917b	0.96315736
22	0x3f74d11f	0.95631593
23	0x3f7fbcdd	0.9989756
24	0x3f79e3c7	0.97613186
25	0x3f7a2149	0.9770704
26	0x3f8716ee	1.0553873
27	0x3f7e385e	0.9930476
28	0x3f7684c3	0.9629633
29	0x3f756733	0.95860595
30	0x3f81dea6	1.0146072
31	0x3f786e47	0.9704327
32	0x3f727c20	0.9472065
33	0x3f85b2f3	1.0445236
34	0x3f828fda	1.020015
35	0x3f8203eb	1.0157446
36	0x3f7e07f3	0.9923088
37	0x3f80e238	1.0069036
38	0x3f7e4d18	0.99336386
39	0x3f7616f0	0.9612875
40	0x3f79e5c8	0.97616243
41	0x3f8721f1	1.0557233
42	0x3f722757	0.9459128
43	0x3f7f14f3	0.9964134
44	0x3f7819ae	0.96914184
45	0x3f7d9b03	0.99064654
46	0x3f869857	1.051524
47	0x3f88518c	1.0649886
48	0x3f83a54c	1.028482
49	0x3f8259be	1.0183637
50	0x3f801188	1.000535
51	0x3f801103	1.0005192
52	0x3f7c35cf	0.98519605
53	0x3f843505	1.032868
54	0x3f861750	1.0475864
55	0x3f78daeb	0.9720904
56	0x3f7295eb	0.94760007
57	0x3f7ee033	0.9956085
58	0x3f809c20	1.0047646
59	0x3f852788	1.0402689
60	0x3f761e0d	0.96139604
61	0x3f830ba6	1.023793
62	0x3f7def34	0.9919312
63	0x3f7594fe	0.9593047
64	0x3f7a375a	0.9774071
65	0x3f80c690	1.0060596
66	0x3f7f0232	0.99612725
67	0x3f797f7c	0.9746015
68	0x3f8398f7	1.0281056
69	0x3f849c88	1.036027
70	0x3f7753c0	0.9661217
71	0x3f7cc417	0.9873671
72	0x3f7bbd98	0.9833617
73	0x3f7e1a98	0.9925933
74	0x3f88a701	1.0675966
75	0x3f7c9c5d	0.9867609
76	0x3f78bd0a	0.9716345
77	0x3f7fb8b2	0.998912
78	0x3f855374	1.0416093
79	0x3f7735ab	0.96566266
80	0x3f7f1994	0.99648404
81	0x3f76de38	0.9643283
82	0x3f7bb075	0.9831613
83	0x3f7eeb7a	0.9957806
84	0x3f7e67f5	0.99377376
85	0x3f81f326	1.0152328
86	0x3f80785c	1.0036731
87	0x3f80b285	1.005448
88	0x3f8a5d3b	1.0809702
89	0x3f74625a	0.9546257
90	0x3f770e67	0.9650635
91	0x3f776f12	0.96653855
92	0x3f7faa54	0.99869275
93	0x3f7ed15d	0.99538213
94	0x3f807605	1.0036017
95	0x3f804daf	1.0023707
96	0x3f80d497	1.0064877
97	0x3f8093d3	1.0045112
98	0x3f86105f	1.0473746
99	0x3f879a2a	1.0593922
100	0x3f78f82f	0.972537
101	0x3f834d14	1.0257897
102	0x3f80dc57	1.0067242
103	0x3f75f394	0.96074796
104	0x3f7ebdac	0.99508166
105	0x3f7863b2	0.9702712
106	0x3f7bb5b4	0.9832413
107	0x3f8344a8	1.0255327
108	0x3f75bb7c	0.95989203
109	0x3f837df7	1.0272816
110	0x3f77504a	0.96606886
111	0x3f83c1c4	1.0293508
112	0x3f85f43d	1.0465161
113	0x3f8085a9	1.004079
114	0x3f7533a9	0.9578195
115	0x3f8123e4	1.0089078
116	0x3f8459e7	1.0339936
117	0x3f7c10ff	0.98463434
118	0x3f80d00d	1.0063492
119	0x3f811642	1.0084918
120	0x3f7b6f78	0.9821696
121	0x3f80455c	1.0021167
122	0x3f7fa180	0.99855804
123	0x3f82350b	1.0172437
124	0x3f7ce561	0.98787504
125	0x3f81de23	1.0145916
126	0x3f74dbbe	0.956478
127	0x3f82a2e4	1.020596

main_network.1.bias f4 [128]
0	0xbc249fc0	-0.010047853
1	0x3ccb6faf	0.024833528
2	0x3d1009ea	0.035165705
3	0x3c855f96	0.01628093
4	0xbc2a626b	-0.010399441
5	0x3bc9a14c	0.0061532613
6	0x3d38d113	0.045121264
7	0x3cc8f5c9	0.024531262
8	0x3d12c5bf	0.035833117
9	0xbcd3c3e7	-0.02585025
10	0xbb734cf3	-0.0037124723
11	0x3cc4ca88	0.024022356
12	0xbcb9bd6e	-0.022673335
13	0xbaec346a	-0.0018020992
14	0xbc925af5	-0.017865637
15	0x3d15ebe2	0.03660191
16	0xbc77df94	-0.015128989
17	0x3d217ac1	0.039423708
18	0x3cdeeb4d	0.02721181
19	0xbcb60172	-0.022217486
20	0xbcfb52ca	-0.030679125
21	0xbc3c55b9	-0.011495047
22	0xbc8a5002	-0.016883854
23	0xbd3372e5	-0.043810744
24	0xbc562722	-0.013070853
25	0xbc8799ea	-0.016552884
26	0x3c817cba	0.015806545
27	0x3c3dcc3c	0.011584338
28	0xbd170b39	-0.036875937
29	0x3cdb4ea8	0.026770905
30	0x3c4b2f50	0.012401417
31	0xbcbd0ea7	-0.023078276
32	0xbc85ec42	-0.016348008
33	0x3c2ca51f	0.010537415
34	0x3cf299cc	0.029614352
35	0x3b9c0b4d	0.0047620893
36	0xbc60db4c	-0.013724159
37	0x3c3c3d1d	0.01148918
38	0xbc69c434	-0.01426797
39	0xbd535693	-0.051596235
40	0x3c87fe5d	0.016600782
41	0x3d079624	0.03310217
42	0xbd5a99b7	-0.05336925
43	0x3ccc946c	0.024973117
44	0xbc5d7baa	-0.013518253
45	0xbc8bc6bf	-0.017062543
46	0x3d00120b	0.031267207
47	0x3cd250da	0.025673319
48	0x3d187f73	0.03723092
49	0x3d08c56a	0.033391394
50	0x3c08860c	0.0083327405
51	0x3c0d753a	0.008633906
52	0xbca6d7f5	-0.020366648
53	0x3c3d7994	0.011564631
54	0xba0ea3ca	-0.00054412766
55	0xbc259aed	-0.010107738
56	0xbd39a9db	-0.045328002
57	0xbca4cd1d	-0.020117337
58	0xbc3ba0a2	-0.011451872
59	0x3cf91dff	0.030409811
60	0xba99b409	-0.0011726628
61	0xb8fa0901	-0.00011922606
62	0x3cb0bd14	0.021574534
63	0xbbee012b	-0.007263323
64	0xbc18e3ca	-0.009331653
65	0xbc5d0efd	-0.013492343
66	0x3be0628c	0.006847685
67	0xbaefa9f2	-0.00182849
68	0x3c9769da	0.018483091
69	0x3c662491	0.014046804
70	0xbc607626	-0.013700044
71	0x3a9d4b31	0.0012000558
72	0x3b30e955	0.0026994545
73	0xbc9f7cd3	-0.0194687
74	0x3d48c78e	0.049018435
75	0x3d26e1c8	0.040742666
76	0xbb2619e8	-0.0025345031
77	0x3b9191fc	0.0044424515
78	0x3c0626db	0.008187975
79	0x3b9a01c7	0.004699919
80	0xbd00ad6b	-0.031415384
81	0xbd0b32fb	-0.033984166
82	0x3b744fbe	0.0037278975
83	0xbcdd656b	-0.027025899
84	0x3c90b791	0.017665656
85	0x3c1f20f9	0.009712451
86	0x3cabda72	0.020978186
87	0x3d4a715c	0.049424514
88	0x3d6787f4	0.05652614
89	0xbd38ae05	-0.045087833
90	0xbcb67e44	-0.022277005
91	0xbd76c80b	-0.06024937
92	0xbc2b272a	-0.010446349
93	0x3cad6a2c	0.02116879
94	0x3d09b241	0.03361726
95	0x39951b1f	0.000284397
96	0xbc7aca89	-0.015307077
97	0x3c2388f5	0.009981384
98	0x3cd9e5ae	0.026598778
99	0x3d03efef	0.03221124
100	0xbc9b3782	-0.018947367
101	0xbae6c790	-0.0017607082
102	0x3b8d6edc	0.004316194
103	0xbc88df9c	-0.016708188
104	0xbce2fbf3	-0.02770803
105	0xbcf5731e	-0.029962119
106	0xbbea2737	-0.007145788
107	0x3c68eeab	0.014217059
108	0xbc3a9d9c	-0.011390116
109	0x3d29e1b3	0.04147501
110	0xbc709411	-0.014683739
111	0x3b39fa0b	0.0028377797
112	0x3cf56b40	0.029958367
113	0x3cb72ac1	0.022359254
114	0x3c1f5faf	0.009727403
115	0x3ce46228	0.027878836
116	0x3ce7168f	0.028208999
117	0xbd134bb3	-0.035960864
118	0x3c0ec393	0.008713621
119	0xbb478a03	-0.0030447252
120	0xbb8aa38c	-0.004230922
121	0xbb133b83	-0.0022465892
122	0xbc4b0cc9	-0.012393185
123	0xbcaf2c50	-0.021383435
124	0x3c109b5f	0.008826106
125	0xb88a3653	-6.5904715e-05
126	0xbb8f8fe8	-0.0043811686
127	0xbc87f0d2	-0.016594324

main_network.1.running_mean f4 [128]
0	0x3d5c16dd	0.05373274
1	0x3d17a0ff	0.037018772
2	0x3db66ebb	0.08907839
3	0x3db57efa	0.088621095
4	0x3d82cc98	0.063866794
5	0xbd0ce06a	-0.034393705
6	0xbdb3c2b2	-0.087773696
7	0xbd941399	-0.072303005
8	0x3d5024e1	0.05081642
9	0x3d9c55ac	0.07633528
10	0xbca08774	-0.01959584
11	0x3d8dceb4	0.06924191
12	0x3d069f22	0.032866605
13	0xbd339786	-0.043845676
14	0xbd7970be	-0.060898535
15	0xbd3719fc	-0.044702515
16	0xbd8a2029	-0.06744415
17	0x3cffbaee	0.031217065
18	0x3cae38f1	0.021267386
19	0xbd871463	-0.06595685
20	0xbd8665fd	-0.065624215
21	0xbdf350ba	-0.11880632
22	0x3d47d92d	0.0487911
23	0xbd22e383	-0.039767753
24	0xbdca04b6	-0.0986418
25	0xbb7303d0	-0.003708113
26	0xbcac9d5b	-0.021071127
27	0xbca8bb5a	-0.020597149
28	0x3c881542	0.016611699
29	0xbc4a358f	-0.012341871
30	0x3d968569	0.07349665
31	0x3b4d2e9d	0.0031308301
32	0xbd972c5d	-0.073815085
33	0xbc9c9435	-0.01911364
34	0xbd4258d0	-0.04744798
35	0x3d3a05ad	0.04541557
36	0x3d4b1921	0.04958451
37	0x3d0147f1	0.03156275
38	0xbd2bd425	-0.041950364
39	0xbd77004a	-0.06030301
40	0x3d35fa0b	0.044427913
41	0x3aa93177	0.0012908418
42	0xbc89b7d4	-0.016811289
43	0xbd074779	-0.033027146
44	0xbda02118	-0.07818812
45	0xbd17e5c0	-0.03708434
46	0xbc30e37a	-0.010796422
47	0xbd34b90d	-0.04412179
48	0x3ca9e950	0.020741135
49	0xbcbdcfb6	-0.023170333
50	0xbc7503cc	-0.0149545185
51	0xbd13a53c	-0.03604625
52	0x3c6d2ffd	0.014476773
53	0x3c8ddce8	0.01731725
54	0x3cf762f6	0.030198555
55	0xbca80c9f	-0.02051383
56	0x3a80ed8a	0.0009836417
57	0xbca0e24b	-0.019639155
58	0xbcc55cec	-0.02409216
59	0xbd25ce0c	-0.040479705
60	0xbc54343d	-0.012951908
61	0xbe2fd9fb	-0.17172997
62	0x3d8fd7ca	0.0702358
63	0xbc522549	-0.012826272
64	0x3d1ebe37	0.03875562
65	0x3d9cd7ae	0.07658325
66	0xbb1a0b04	-0.00235051
67	0x3bef34a9	0.0072999788
68	0x3cef6718	0.029223964
69	0xbd616139	-0.05502436
70	0x3c6bc26e	0.014389617
71	0x3d9171c2	0.07101776
72	0x3d646077	0.05575606
73	0x3caa738b	0.020807048
74	0x3dec2fc7	0.1153255
75	0x3dbb44e5	0.09144
76	0xbbfdfa6e	-0.007750801
77	0x3d884d92	0.0665542
78	0x38a3e269	7.814618e-05
79	0x3db4f619	0.08836002
80	0xbcbc5839	-0.022991287
81	0xbb973440	-0.004614383
82	0x3da744c9	0.081674166
83	0xbd8b4da2	-0.06801917
84	0x3cf302e6	0.029664468
85	0xbca4ba21	-0.020108284
86	0xbd85b0e4	-0.0652788
87	0x3c077ba0	0.008269221
88	0xbc34f7f3	-0.011045444
89	0x3c6415ff	0.01392126
90	0x3da93818	0.08262652
91	0xbd3223f0	-0.043491304
92	0x3d292d3e	0.041302912
93	0x3d131278	0.035906285
94	0x3c44e84c	0.0120182745
95	0xbd82b2ec	-0.06381783
96	0xbdb8506b	-0.089997135
97	0x3ca2174e	0.019786503
98	0x3b804312	0.0039142454
99	0x3d2ebced	0.042660642
100	0xbd897442	-0.067116275
101	0xbdb95f72	-0.09051408
102	0xbd53925f	-0.051653262
103	0xbd981b7c	-0.07427117
104	0x3b79cc29	0.0038116074
105	0xbb15fa2a	-0.0022884705
106	0x3da7f669	0.08201296
107	0xbb8a1034	-0.0042133573
108	0xbceb951e	-0.028757628
109	0xbd27aad7	-0.04093441
110	0x3bf41fd8	0.007450085
111	0x3d8d65f3	0.06904211
112	0x3c7546d2	0.014970498
113	0xbcc6d58d	-0.02427175
114	0x3d739844	0.059471384
115	0x3d440415	0.047855455
116	0x3d1f73be	0.03892874
117	0xbca881a3	-0.020569628
118	0x3def29ed	0.116779186
119	0xbc9653f3	-0.018350577
120	0x3bbbdd0b	0.0057331375
121	0x3c4a0637	0.012330583
122	0xbd03a057	-0.032135334
123	0xbd885b85	-0.06658081
124	0x3d13521c	0.035966977
125	0x3def5127	0.116854005
126	0xbba712a9	-0.00509866
127	0xbd98c5d0	-0.07459605

main_network.1.running_var f4 [128]
0	0x3eb62cd6	0.35581082
1	0x3e797818	0.24362218
2	0x3e4c9aaa	0.19980875
3	0x3e73db57	0.2381414
4	0x3e062d74	0.13103276
5	0x3e88ffe5	0.26757732
6	0x3e259420	0.16169786
7	0x3ee74ac8	0.4517424
8	0x3e4bb1cd	0.19892044
9	0x3e550242	0.20801643
10	0x3d2b4746	0.04181602
11	0x3db3e63f	0.0878415
12	0x3de92f39	0.1138596
13	0x3eaa6702	0.33281714
14	0x3e831a52	0.25606018
15	0x3e5b6992	0.2142699
16	0x3de58a12	0.112079754
17	0x3ebcb49d	0.36856547
18	0x3e731193	0.23737173
19	0x3e5f61ad	0.21814604
20	0x3e6c1653	0.23055391
21	0x3e9b8f13	0.30382594
22	0x3e227b5e	0.15867373
23	0x3f0447fe	0.5167235
24	0x3e3b8558	0.18312585
25	0x3df0facc	0.11766586
26	0x3e7dcb18	0.24784505
27	0x3e6bcafe	0.23026654
28	0x3e7de930	0.24795985
29	0x3dac0513	0.08399405
30	0x3ee282b0	0.44240332
31	0x3ef6c838	0.4819963
32	0x3e55d8c2	0.20883468
33	0x3f3f829c	0.7480867
34	0x3eef148d	0.46695367
35	0x3e208fbb	0.15679829
36	0x3e1be57d	0.15224262
37	0x3e91d8f2	0.2848583
38	0x3e821a39	0.2541063
39	0x3e919e6c	0.2844118
40	0x3ea54b2d	0.32283917
41	0x3f1f7070	0.6228094
42	0x3e0b5770	0.13607574
43	0x3e0a51d3	0.13507776
44	0x3e6a9b2a	0.22910753
45	0x3d8321ab	0.06402906
46	0x3ee37c44	0.44430745
47	0x3efc4bab	0.4927648
48	0x3e82d90c	0.2555622
49	0x3e5b8e9e	0.21441123
50	0x3ef26889	0.4734538
51	0x3ef23f2c	0.4731382
52	0x3eb780fb	0.35840592
53	0x3eb49dfc	0.35276783
54	0x3d907c03	0.07054903
55	0x3e73a0d7	0.23791824
56	0x3e6f45ce	0.23366472
57	0x3f0865dd	0.5328043
58	0x3df820f8	0.12115663
59	0x3eb4ecdb	0.35336956
60	0x3e9e9aa2	0.3097735
61	0x3e18a33b	0.14906017
62	0x3db89df7	0.090145044
63	0x3e787b7b	0.24265854
64	0x3ea174b6	0.31534356
65	0x3eb673a8	0.35635114
66	0x3e2d6951	0.16934706
67	0x3ed3ef63	0.41393575
68	0x3ef693a0	0.48159504
69	0x3e85eace	0.26155704
70	0x3e00d150	0.12579846
71	0x3df052fc	0.11734578
72	0x3e7bd13e	0.24591538
73	0x3edf3e35	0.43602148
74	0x3eb6eae5	0.35726085
75	0x3f4593e6	0.771788
76	0x3e0f7b50	0.14011884
77	0x3e5ffead	0.21874495
78	0x3d6ab4c5	0.0573013
79	0x3e062601	0.13100435
80	0x3d8c80f3	0.068605326
81	0x3e22a8de	0.1588473
82	0x3eea6ea6	0.45787543
83	0x3e08ea9e	0.1337075
84	0x3e6c747f	0.23091315
85	0x3d978a81	0.073994644
86	0x3e6245f2	0.22096995
87	0x3de7de84	0.11321738
88	0x3ee1dd46	0.4411413
89	0x3e1612b4	0.14655572
90	0x3e927918	0.28608012
91	0x3e81635b	0.25271115
92	0x3d879918	0.06620997
93	0x3da83dd1	0.082149155
94	0x3e16013d	0.1464891
95	0x3e30a889	0.17251791
96	0x3e9027e4	0.28155434
97	0x3e541a7a	0.20713225
98	0x3e546359	0.20741023
99	0x3f68aec0	0.9089165
100	0x3e51af8c	0.20477122
101	0x3e51bb1e	0.20481536
102	0x3e65e7a3	0.22451644
103	0x3e8db697	0.27678367
104	0x3eae9208	0.34095788
105	0x3e767794	0.24069053
106	0x3e5202a3	0.20508818
107	0x3ebd52a3	0.3697711
108	0x3e7f43a7	0.24928151
109	0x3e1e9b3c	0.15488905
110	0x3d6a124c	0.057146356
111	0x3f0074b1	0.50178057
112	0x3ed42e1f	0.41441438
113	0x3e72b2fa	0.23701087
114	0x3e8d205b	0.27563748
115	0x3e933301	0.2874985
116	0x3dda23d1	0.10651363
117	0x3eb85f77	0.36010334
118	0x3ee020bb	0.4377497
119	0x3e37e51b	0.1795849
120	0x3ea5eec8	0.32408738
121	0x3e3beada	0.18351308
122	0x3e614e91	0.22002627
123	0x3e4d57d1	0.2005303
124	0x3e91fef2	0.2851482
125	0x3e944696	0.28960103
126	0x3e156958	0.14590967
127	0x3e18e9c8	0.1493293

main_network.4.weight f4 [64, 128]
0	0x3c8bf413	0.017084157
1	0xbd9bc059	-0.07605047
2	0xbdaeddce	-0.085384
3	0xbd1b9d35	-0.03799172
4	0xbd47cb04	-0.048777595
5	0xbcccfe61	-0.025023641
6	0xbc0a3252	-0.008434849
7	0xbd113750	-0.03545314
8	0x3d780b79	0.060557816
9	0x3cfee671	0.031115742
10	0xbb5df04a	-0.0033865147
11	0x3dbb4ba8	0.0914529
12	0xbd788f89	-0.06068376
13	0xbd52178a	-0.05129198
14	0xbcdd6c9d	-0.02702933
15	0xbd20a62a	-0.039220966
16	0xbd7fbdc2	-0.062436827
17	0x3bc4d1c7	0.0060064527
18	0x3d8a8a99	0.06764717
19	0x3b710f1a	0.0036782683
20	0xbd05a3ac	-0.032626793
21	0x3d678ef6	0.056532823
22	0xbda8bcaa	-0.0823911
23	0xbda55eda	-0.08074732
24	0xbda666f9	-0.08125109
25	0xbc08dc64	-0.0083533265
26	0xbc7b4f75	-0.015338768
27	0x3d354efc	0.04426478
28	0x3c83b366	0.016076755
29	0xbcd3b0e1	-0.025841178
30	0xbd9d8b1d	-0.076925494
31	0x3c522773	0.012826788
32	0xbdc35f90	-0.095397115
33	0xbd5756a9	-0.05257288
34	0x3d420949	0.047372136
35	0x3d5a9f62	0.053374656
36	0x3aab5bd1	0.0013073628
37	0xbdedc029	-0.11608917
38	0xbb1dbcdf	-0.0024068875
39	0xbb312d6b	-0.0027035128
40	0xbd9c80d5	-0.0764176
41	0xbd8ba439	-0.06818432
42	0xbd82ce0c	-0.063869566
43	0xbcb615d5	-0.022227207
44	0xbd6d6cb3	-0.05796499
45	0xbdb05cb6	-0.08611433
46	0xbc4789a7	-0.012178815
47	0xbd19205f	-0.037384387
48	0x3c85c5e8	0.01632972
49	0xbd6d1376	-0.057879888
50	0xbd651240	-0.055925608
51	0xbdca6d81	-0.098841675
52	0x3cce5466	0.025186729
53	0xbd00f23d	-0.031481016
54	0x3d37cb82	0.044871815
55	0x3d367a0c	0.044549987
56	0x3d036d46	0.032086633
57	0xbd00f5ba	-0.031484343
58	0xbd4b6c1b	-0.049663644
59	0x3cf3d78e	0.02976587
60	0xbd8d6ff3	-0.06906118
61	0xbdb4f421	-0.088356264
62	0xbca5b6ae	-0.02022871
63	0xbd2add5f	-0.041715022
64	0xbd988279	-0.07446761
65	0xbd54f51a	-0.05199156
66	0xbb2f553c	-0.0026753685
67	0x3d93c822	0.07215907
68	0x3cfe5c3b	0.031049838
69	0xbda8f805	-0.08250431
70	0xbcbe6759	-0.02324264
71	0xbcfb25ff	-0.030657766
72	0x3d0febc9	0.03513697
73	0x3d31030b	0.043215793
74	0xbcd659d1	-0.026165875
75	0xbdd464af	-0.10370766
76	0x3d33198a	0.043725528
77	0x3d457362	0.04820574
78	0xbc28db7d	-0.010306236
79	0xbd9951d6	-0.07486312
80	0x3ca2967c	0.019847147
81	0xbd913434	-0.07090035
82	0x3d4d9752	0.05019314
83	0xbdbedcfa	-0.09319492
84	0x3c8adad1	0.016950043
85	0x3d0c2d27	0.034222748
86	0xbdabd83f	-0.08390855
87	0x3d17f0d7	0.037094917
88	0xbdea558a	-0.114420965
89	0x3d40b518	0.047047704
90	0x3ac6af5b	0.0015158461
91	0xbd4f4c78	-0.050610036
92	0x3daacdfe	0.08340071
93	0xbbfdb943	-0.007743032
94	0xbaf71376	-0.0018850404
95	0xbdc4c2cc	-0.09607467
96	0xbcd8ed4d	-0.026480341
97	0xbdaf2345	-0.08551649
98	0x3c1c894d	0.009554219
99	0xbdf2a0fe	-0.11847113
100	0x3cfc8311	0.030824216
101	0xbd9b496f	-0.07582366
102	0xbcdb92dc	-0.026803426
103	0x3d54a207	0.051912334
104	0x3d3f318e	0.04667812
105	0xbb9c8199	-0.0047761914
106	0x3d97a82a	0.074051216
107	0xbd84d36c	-0.06485638
108	0xbc5d8f2b	-0.013522903
109	0xbc494e45	-0.012286727
110	0x3d68f1d9	0.05687127
111	0xbdff98f4	-0.12480345
112	0xbbecfaa8	-0.007232029
113	0x3db6412f	0.088991515
114	0x3d7620b9	0.0600898
115	0x3cb65c25	0.022260735
116	0x3d5088c1	0.05091167
117	0xbd889c5e	-0.0667045
118	0xbcc1ba6a	-0.02364846
119	0xbdcf6e80	-0.10128498
120	0x3d612dac	0.054975197
121	0xbd26982e	-0.040672474
122	0x3d3590c7	0.044327524
123	0xbcf0287c	-0.02931618
124	0xbd5f31fe	-0.054491036
125	0xbd563aee	-0.052302293
126	0xbdaccaab	-0.08437093
127	0x3a99aacf	0.0011723879
128	0x3ddfbdfd	0.10924909
129	0x3d77513d	0.06038021
130	0x3d935c14	0.07195297
131	0x3c971d93	0.01844672
132	0xbc8c1156	-0.01709811
133	0x3c8fb0fb	0.017540446
134	0xbdb6993b	-0.08915945
135	0xb90ba34d	-0.00013316907
136	0xbda18ec3	-0.07888558
137	0xbc9d5215	-0.019204179
138	0xbd185918	-0.03719434
139	0xbd92db17	-0.07170694
140	0x3c35253b	0.01105624
141	0x3d2a853f	0.04163098
142	0x3d28baa6	0.041193627
143	0x3dcdfade	0.10057615
144	0xbc4fee37	-0.012691072
145	0x3d8c302d	0.06845126
146	0xbd6808fa	-0.056649186
147	0xbcd8833c	-0.026429765
148	0xbd896660	-0.067089796
149	0xbd9feb88	-0.07808596
150	0xbb967236	-0.0045912517
151	0x3d5f7ee4	0.05456437
152	0x3c7957bd	0.015218672
153	0xbd7a1fd4	-0.06106551
154	0x3b869583	0.0041071787
155	0xbdd7ddb5	-0.10540334
156	0x3d50ffcf	0.051025208
157	0xbd934ea9	-0.071927376
158	0x3d7ed298	0.062212557
159	0x397b6d2a	0.00023977892
160	0xbc8638fc	-0.016384594
161	0x3dd2ba00	0.10289383
162	0xbc30de2c	-0.010795157
163	0xbc8870ac	-0.016655289
164	0x3c9f616a	0.01945563
165	0x3d194e37	0.037428107
166	0x3dbb1afa	0.09136005
167	0x3d553fe1	0.052062873
168	0x3cb5a443	0.022173053
169	0x3d756ccd	0.059918214
170	0x3cbfd5ec	0.023417436
171	0x3d0efad2	0.03490717
172	0x3d6d91e7	0.05800047
173	0x3cb0cce8	0.021582082
174	0x3d350c65	0.044201273
175	0xbd726c9d	-0.059185613
176	0xbc1d969d	-0.009618429
177	0x3daa4da8	0.08315593
178	0x3c9218f9	0.017834174
179	0x3d7c4df8	0.061597794
180	0xbd86dba1	-0.0658486
181	0x3d4b3dbc	0.04961942
182	0xbda7a67d	-0.08186052
183	0xbd9e819f	-0.07739567
184	0x3d131adb	0.035914283
185	0xbd675ce9	-0.05648509
186	0x3d1883f6	0.037235223
187	0xbccb2e04	-0.024802215
188	0xbda9eb51	-0.08296836
189	0xbcea1132	-0.028572652
190	0xbdaeb517	-0.08530634
191	0x3cdc3e57	0.026885195
192	0xbd14a850	-0.036293328
193	0xbd63176e	-0.055442266
194	0x3d85d2a0	0.06534314
195	0xbdb93508	-0.09043318
196	0xbd91cb78	-0.07118887
197	0x3dd3ded6	0.10345237
198	0x3d815ce8	0.063165486
199	0xbd632a79	-0.055460427
200	0xbd10f4ef	-0.035389837
201	0x3d0a9ee2	0.03384293
202	0x3cd41ef6	0.02589367
203	0x3dd78a4b	0.10524424
204	0xbc22dba7	-0.0099400645
205	0x3c300b11	0.010744826
206	0xbcb2213e	-0.021744367
207	0x3d0b4f44	0.03401114
208	0x3d82e32b	0.06390985
209	0x3da38058	0.07983464
210	0x3cbb0cbe	0.022833224
211	0x3dc6772d	0.096907
212	0x3d13025e	0.03589093
213	0xbdb184b4	-0.08667889
214	0x3d9f3e69	0.07775576
215	0xbdb7b6ea	-0.08970435
216	0xbccc9220	-0.024972022
217	0x3c82c8e7	0.015964938
218	0x3da2d34a	0.079504564
219	0xbd005c53	-0.031338047
220	0xbd8f2512	-0.069894925
221	0xbcf40249	-0.029786246
222	0xbda0813e	-0.07837151
223	0xbaf67e5b	-0.0018805967
224	0x3da5aa05	0.08089069
225	0xbd299eff	-0.041411396
226	0xbd58bc1d	-0.052913774
227	0x3d9b5e59	0.07586355
228	0x3db40b6b	0.0879124
229	0x3dc5cd21	0.09658266
230	0xbd44a764	-0.0480112
231	0xbd957cb9	-0.072991796
232	0xbd83bfa2	-0.064330354
233	0x3c0bdd15	0.008536597
234	0xbd16e8a0	-0.036842942
235	0xbd57059d	-0.052495588
236	0xbd8bcfca	-0.06826742
237	0x3c812ac6	0.015767466
238	0x3c2d5ea9	0.010581651
239	0xbd0c4862	-0.034248717
240	0xbd265db9	-0.040616725
241	0x3cb4c36b	0.022065839
242	0xbd93d312	-0.07217993
243	0x3c851e9a	0.016249944
244	0x3dddf5d5	0.10837904
245	0xbcddf6bb	-0.02709519
246	0x3d97c6bd	0.07410953
247	0x3c3fd12f	0.011707588
248	0xbd8e2b5a	-0.069418624
249	0x3d866549	0.06562287
250	0x3d81bb73	0.06334581
251	0x3da8737d	0.08225153
252	0xbd83d352	-0.064367905
253	0x3d84c59c	0.064830035
254	0x3d922b38	0.071371496
255	0x3c9e3f1f	0.019317208

main_network.4.bias f4 [64]
0	0x351d36dd	5.8566894e-07
1	0x36ca3f8c	6.027467e-06
2	0x37090084	8.165956e-06
3	0x3629e194	2.5314266e-06
4	0xb79794de	-1.8069924e-05
5	0x3645c367	2.9469027e-06
6	0xb60a108f	-2.057324e-06
7	0x35f32d73	1.8118138e-06
8	0x35fc2f6e	1.8789267e-06
9	0xb51b25f6	-5.779724e-07
10	0xb71e686f	-9.441849e-06
11	0xb73dd6f4	-1.13153255e-05
12	0x36d3bb26	6.310077e-06
13	0xb5e6d677	-1.7198753e-06
14	0x3775be59	1.4647457e-05
15	0xb6d2dffc	-6.284563e-06
16	0xb67670f4	-3.6722604e-06
17	0x36711e91	3.592959e-06
18	0xb4b91df6	-3.4480735e-07
19	0x36d08a0d	6.2149543e-06
20	0xb8048433	-3.1594373e-05
21	0x3676f19d	3.6797494e-06
22	0x37b2d08d	2.1316368e-05
23	0x36f72286	7.3651927e-06
24	0xb6e2866c	-6.7509736e-06
25	0xb6be2585	-5.666809e-06
26	0x36c2e2ee	5.8080686e-06
27	0xb69d7185	-4.69218e-06
28	0x36ac0ca2	5.12747e-06
29	0x374cb3f4	1.2201246e-05
30	0x373c459c	1.122188e-05
31	0x378d7be8	1.6866208e-05
32	0x36bd0355	5.633027e-06
33	0xb71a31a8	-9.190677e-06
34	0xb5bd0db6	-1.4085588e-06
35	0x36914018	4.3287982e-06
36	0x36965501	4.480244e-06
37	0xb701a78f	-7.728012e-06
38	0xb70958a7	-8.186477e-06
39	0xb66c1cf4	-3.5183593e-06
40	0xb5c29e77	-1.4500246e-06
41	0xb79281ad	-1.7464941e-05
42	0x36ec6072	7.044576e-06
43	0x3509d0c3	5.1340265e-07
44	0x361e4ef4	2.3589791e-06
45	0xb78c1538	-1.6699181e-05
46	0xb7f5ca22	-2.9300401e-05
47	0x375379ca	1.2604936e-05
48	0xb59ce129	-1.1688436e-06
49	0x36cbcfc7	6.07406e-06
50	0x3735d176	1.083721e-05
51	0x372fa747	1.046976e-05
52	0xb738de9d	-1.1019086e-05
53	0x370dfb9a	8.4628355e-06
54	0xb5a1a4a9	-1.2043357e-06
55	0xb6db607b	-6.5379404e-06
56	0x36c86f95	5.9734543e-06
57	0x37795724	1.4861846e-05
58	0x35c27b15	1.4489948e-06
59	0x367fe38b	3.8130408e-06
60	0xb7524352	-1.253265e-05
61	0x363a8cde	2.7798155e-06
62	0x36a84c5c	5.0156796e-06
63	0xb721db91	-9.64747e-06
