results/bandwidth_predictor/run_20250307_100949/MLP_best.pth (torch, 62444 bytes, 19 tensors)

network.0.weight f4 [128, 18]
000000 1f fa a9 bd b6 5b 11 3e d4 26 5f 3d 82 63 30 be
       -0.0829966 0.14195141 0.05448039 -0.17225459
000010 54 82 04 bd cf 62 9f 3d a3 a2 29 3e 69 15 2a 3e
       -0.032350853 0.07782518 0.16565947 0.1660973
000020 95 e0 18 be e6 b7 db 3d 7d 24 44 be fb 45 1b be
       -0.14929421 0.10728435 -0.19154544 -0.15163414
000030 e6 7a 01 3e 49 53 d0 bd e7 7c d7 bd 4b e1 3e 3c
       0.12644538 -0.101721354 -0.1052187 0.011650394
000040 f8 c6 59 3d 9c f2 4e bd eb 8a 25 be 43 a7 44 be
       0.053168267 -0.05052434 -0.16166274 -0.1920443
000050 bc 2d fb bc 3d cc 1a be 37 1d b4 3d e8 77 23 3e
       -0.030661456 -0.15116973 0.08794635 0.1596371
000060 ed 84 a1 3c 2b 0f cf bc 44 e3 b0 bd f7 e1 97 bc
       0.019716704 -0.025275787 -0.086370975 -0.018540366
000070 36 ea 02 3e a4 41 81 bd 6a e3 66 be cd 91 63 3e
       0.12784657 -0.06311348 -0.22547689 0.22223587
000080 d2 6b e7 3c 97 59 96 be 24 2c fe bd 29 f3 a8 bc
       0.028249655 -0.29365227 -0.12410763 -0.02062376
000090 e4 2f cf bd 42 b0 46 be d2 f3 e0 3d 20 b0 e3 bd
       -0.10116556 -0.19403175 0.10984005 -0.111175776
0000a0 26 0b 7b 3e b1 d9 3e be 85 3d 06 be 85 c7 b1 3d
       0.24515972 -0.1863773 -0.13109405 0.086806335
0000b0 78 62 bb 3d 03 95 37 3e d3 52 2c 3e d7 3a 1e 3e
       0.09149641 0.17927937 0.1682847 0.15452133
0000c0 fe 66 23 be ac c1 10 bd 99 b9 0a 3e 47 59 2c bd
       -0.15957257 -0.03534095 0.13547362 -0.04207733
0000d0 4d ce d5 bd b0 a1 03 be df b4 5a 3d 9e d2 2d 3e
       -0.104397394 -0.12854648 0.05339515 0.16974875
0000e0 a6 e2 af ba fd 3e 1e bd 45 08 f7 3d e5 ec f5 3d
       -0.0013418987 -0.03863429 0.12062124 0.12008075
0000f0 cd b8 d7 3d b0 f3 32 bd 96 29 bf bd 8d f9 53 be
       0.10533295 -0.04368943 -0.09334104 -0.20700665
000100 8c d2 2d bd b2 65 42 be 10 75 79 bd a2 3f d3 3d
       -0.04243712 -0.18984106 -0.060902655 0.10314871
000110 9b a9 72 3e b7 e6 86 3d 5b aa 90 bd bb 26 a8 bb
       0.23697512 0.06586974 -0.07063743 -0.00513157
000120 c9 37 e1 3d a4 38 1f be 10 54 c3 bd 4e 2d 2a 3e
       0.10996968 -0.1554895 -0.09537518 0.16618845
000130 7a cc 2e 3e ef ee 5f bd 14 ba 66 3e e1 db 48 be
       0.17070189 -0.054671224 0.2253192 -0.19615127
000140 ab ec 51 3e 6e 4d 24 3e 21 bb ec 3c 63 46 86 3d
       0.20500438 0.16045162 0.028897824 0.06556394
000150 45 9e c6 3d f6 1e 1e bd cb f6 76 bd 6c 96 69 3e
       0.09698156 -0.038603745 -0.060293954 0.22811288
000160 0e f7 01 3e b5 f4 6e 3e fc 56 34 bd f5 18 83 bc
       0.126919 0.23335536 -0.044028267 -0.016003111
000170 6e 4a 94 bd 61 a4 a5 3d d0 e3 c1 3d 5b e0 4f be
       -0.07240759 0.080879934 0.0946728 -0.20300429
000180 08 ac de 3d 2f 59 12 3c 5a 75 16 be fe 09 00 3e
       0.10872656 0.008932396 -0.14693204 0.12503812
000190 7b d4 25 bd fe 3d 9b 3d f9 a6 83 be 91 77 ad 3c
       -0.04048584 0.075801834 -0.25713328 0.021175178
0001a0 df 24 69 be 01 d9 bd 3d 3d 73 05 be 3e e3 04 3e
       -0.22767971 0.09269906 -0.13032241 0.12977311
0001b0 57 96 c3 3a 52 32 d6 3d d7 cb 18 be 93 76 0d 3d
       0.0014922124 0.104588166 -0.14921509 0.03453691
0001c0 82 f5 f4 3c 99 e0 c8 3d 5e 99 18 bd 95 27 28 3e
       0.029902223 0.098084636 -0.037255637 0.1642135
0001d0 87 c4 05 bd 7a 2e 52 3e fc dd 9d 3d eb f8 1a 3e
       -0.032658126 0.20525542 0.07708356 0.15134017
0001e0 ec 8b 0a bd 24 7c 2a be 46 98 80 bd 8e f3 5c be
       -0.033824846 -0.16648918 -0.06279044 -0.21577284
0001f0 80 5e 91 bd 14 7a 9e bd b0 2f 20 3e 59 51 4f be
       -0.070981026 -0.07738128 0.15643191 -0.20245875
000200 65 3f 14 3e 6a 99 e6 3d 88 75 f9 bc 79 1c e3 bd
       0.14477308 0.1125973 -0.030451551 -0.11089415
000210 bd 05 ae bd 43 1e 81 be b6 ae 3b bd 8d 59 11 be
       -0.08497188 -0.252184 -0.045820914 -0.14194317
000220 98 a6 32 3d fc a5 0d 3c 9e 6a c3 3d 45 2a 80 3e
       0.043615907 0.008645531 0.0954182 0.2503225
000230 71 9a 18 3e 7e dd 58 be 89 c0 48 be b8 d9 03 bd
       0.14902665 -0.21178243 -0.19604696 -0.032190055
000240 3a 79 43 be 97 6d 03 3e 3f de 0f 3e ee 12 ad bd
       -0.19089213 0.12834774 0.14049624 -0.08450876
000250 e2 de 99 bd 3d 12 04 3e 70 03 96 3c b7 6c 9a bc
       -0.07513215 0.12897582 0.018312186 -0.018850667
000260 f2 f7 3b 3e 33 13 e7 bc 30 95 6b bd 6a d3 30 3d
       0.18356302 -0.028207397 -0.057515323 0.04317037
000270 41 7c ab 3d fd 58 57 be fd da 0b be 79 fc b8 3d
       0.08373309 -0.2103004 -0.13657756 0.0903253
000280 bb 96 3a 3e 6d 68 49 bd 1e 3d 47 be b3 0b 1e 3e
       0.18221562 -0.049171854 -0.19456908 0.1543415
000290 c7 38 26 be ac ab 40 3e 2e 6d fe 3d c2 b7 0b 3b
       -0.16232596 0.18815488 0.12423168 0.0021319245
0002a0 96 50 69 3e 27 26 64 3e 52 c3 be bd 98 95 38 3e
       0.22784647 0.22280179 -0.09314598 0.18025815
0002b0 9e 0c c3 3d 4b 89 8c 3d 58 65 88 3d 2a 92 45 be
       0.09523891 0.06862124 0.06659955 -0.19294038
0002c0 f3 53 fd bc 15 27 f9 bd 82 f1 3b 3e d3 6e 42 be
       -0.03092382 -0.121656574 0.18353847 -0.18987589
0002d0 3c ab 46 3e 61 5d 92 3d 59 21 05 3d 40 f0 02 bd
       0.19401258 0.07146717 0.032502506 -0.0319674
0002e0 d7 b7 2a bd d7 e8 39 3e 34 c4 14 be ca c6 57 3e
       -0.04167923 0.18155228 -0.1452797 0.21071926
0002f0 1b 78 06 3e 0d f5 87 bc 15 a0 43 be 53 1b 2c 3e
       0.13131754 -0.016596342 -0.19104035 0.16807298
000300 29 e9 62 be 91 f3 4a 3e 68 b2 d5 3d 33 52 64 be
       -0.22159256 0.19819476 0.10434419 -0.22296982
000310 d8 7d fc 3c c5 c2 06 bd 86 79 cd bc cf 7b 71 be
       0.030821726 -0.03290059 -0.025082361 -0.23582385
000320 96 46 9a 3d 74 a9 eb bd 5f bd 24 bd 87 9b 0c 3e
       0.075329944 -0.1150693 -0.04021966 0.13731204
000330 da 03 45 be 54 9c ac 3d 54 ac 0e be 7f e0 23 be
       -0.1923975 0.08428255 -0.13932925 -0.16003607
000340 17 df e2 3c e6 bf de 3d 9a 9e 16 be 13 69 12 3d
       0.027694268 0.108764455 -0.14708939 0.035744738
000350 85 60 aa bd ba df 9a 3d ef 31 22 3e fa 62 9d 3d
       -0.08319191 0.07562204 0.1583936 0.07684894
000360 3d fe bc 3b 95 b9 0f be b1 5d 47 3e 59 32 54 3d
       0.0057676123 -0.14035638 0.19469334 0.051805828
000370 68 6d 13 bd 55 6b 34 3e ad a8 8a 3a 34 d6 71 3a
       -0.03599301 0.17619069 0.0010578834 0.0009225339
000380 5b 47 cd bd 84 df 6c 3e 74 2a d3 bd 89 69 44 bc
       -0.100233756 0.2313214 -0.10310832 -0.011988052
000390 50 56 1c be 36 9a d9 bd 74 7a 89 3c ac ae 17 3e
       -0.152673 -0.106251165 0.016782023 0.14812726
0003a0 b2 14 f9 bd 2f 3e 36 be f1 f0 1e bd f4 de 06 bb
       -0.121621504 -0.17797159 -0.038804 -0.0020579668
0003b0 ae 31 1d 3e 67 db 1d be 44 bf 06 bd 01 5e dc 3d
       0.15350983 -0.15415727 -0.03289725 0.10760117
0003c0 0e 3b 08 3d 3b 16 fa 3d e8 05 0f be 15 8a e0 bd
       0.033259444 0.122112714 -0.13967097 -0.10963837
0003d0 1a 3b e3 3c 64 51 71 3c d2 c6 76 bd e5 0c 40 3e
       0.027738143 0.014728878 -0.060248204 0.18754919
0003e0 ce d3 68 bd 6c eb 80 be 93 f8 66 be 86 79 dd bd
       -0.056842618 -0.25179613 -0.22555761 -0.108141944
0003f0 12 f0 31 3d a1 4f 5a 3e 15 7c 03 3d fa 38 44 3e
       0.04344184 0.21319439 0.032100756 0.1916236

network.0.bias f4 [128]
000000 d7 04 80 36 df b6 d5 3a fc 82 70 b7 8b 5a 0e bc
       3.8152607e-06 0.001630511 -1.4335612e-05 -0.008688579
000010 42 b9 b1 37 9d 29 2c b7 61 c2 d6 b7 12 40 d9 37
       2.1186312e-05 -1.0261688e-05 -2.5601303e-05 2.589825e-05
000020 ed c7 be 38 be 60 2e b5 59 0c a3 b6 e5 93 48 37
       9.097145e-05 -6.496083e-07 -4.859216e-06 1.1955363e-05
000030 97 fe d5 bc 14 b0 ad b7 26 c8 e1 ba b2 ac b4 37
       -0.026122374 -2.07052e-05 -0.0017225787 2.153809e-05
000040 73 4b eb 37 e2 24 18 bc c4 9e 88 37 46 2d 21 37
       2.8049317e-05 -0.009286137 1.6286394e-05 9.606889e-06
000050 eb f6 2b 3b 77 d3 0c b7 42 6a 9a bb 99 16 c7 38
       0.0026239704 -8.393886e-06 -0.004712374 9.4932686e-05
000060 15 14 08 ba 7b b7 02 38 9d b9 b7 32 8c cf 3a 39
       -0.0005190981 3.1165295e-05 2.1388411e-08 0.0001781566
000070 dc 29 ab b7 28 93 08 b7 54 cb 6e 3c 32 83 b7 bc
       -2.040428e-05 -8.140494e-06 0.014574844 -0.022401426
000080 5f 39 59 bb 61 15 e7 36 fb 14 60 38 44 e6 b8 39
       -0.0033145768 6.8868253e-06 5.34253e-05 0.00035266776
000090 ee a3 d4 ba 88 c3 18 35 ae 99 53 b5 73 fa 53 b7
       -0.0016223171 5.690895e-07 -7.882726e-07 -1.2634892e-05
0000a0 2e 3a 0f 37 b7 f8 66 36 c4 92 24 38 c4 7b ac 3c
       8.53701e-06 3.4417442e-06 3.9237333e-05 0.02105511
0000b0 13 36 97 38 18 81 b6 b7 d9 b8 cc 35 80 44 d0 37
       7.210313e-05 -2.1756205e-05 1.5252982e-06 2.482743e-05
0000c0 71 24 9e bc 57 a3 3f b7 b0 21 a6 bc 79 cb 49 b7
       -0.019304486 -1.1422518e-05 -0.020279735 -1.2027908e-05
0000d0 73 b1 e3 3b 89 6b a9 37 75 cf 4b bc 9a 7e fd 36
       0.006948644 2.0196445e-05 -0.012439598 7.554726e-06
0000e0 42 6a ae 3c d1 7b ab b5 93 54 12 b6 1a f5 3b bc
       0.021290902 -1.2776528e-06 -2.1804924e-06 -0.011472011
0000f0 be b9 e6 bc 9a 02 b2 b7 b5 98 c7 bb e5 62 49 3b
       -0.02816474 -2.1220465e-05 -0.006091202 0.0030729112
000100 e2 3c 88 b7 24 5e 0e b7 cf a3 7b 37 d9 10 98 bc
       -1.6240814e-05 -8.485778e-06 1.49989055e-05 -0.018562721
000110 db c6 31 3c 0d 37 77 b8 8e 6b 9d 36 be 99 18 b7
       0.0108506335 -5.894066e-05 4.6914856e-06 -9.095702e-06
000120 d4 ac da 3a b5 24 37 b7 70 6f 81 37 d4 45 78 bc
       0.0016683587 -1.09161965e-05 1.542989e-05 -0.015153367
000130 28 a4 57 38 c3 50 b8 3c 2d de 8e bc ef 3f 28 3c
       5.1412877e-05 0.022499448 -0.017439926 0.010269149
000140 e6 16 6c 38 80 07 69 b7 98 6a 8c bc 88 16 4f ba
       5.628811e-05 -1.38896285e-05 -0.017140672 -0.0007899781
000150 14 87 12 3a 9f 30 0e 38 ad 9f 72 36 2e d7 a5 37
       0.0005589586 3.390072e-05 3.6153754e-06 1.9769734e-05
000160 ef 0f 86 39 7c 25 cf 37 72 ad 3b 3c 1a 22 fe 35
       0.00025570343 2.4693778e-05 0.011454927 1.89344e-06
000170 6a 14 80 b7 13 34 0a bc 5d 7b e5 bb 8b 55 b0 3b
       -1.5268295e-05 -0.008435267 -0.0070032314 0.0053812913
000180 4f e3 2e b8 50 72 6d 3c 6d 90 5a 37 a0 4a 82 3c
       -4.169653e-05 0.014492586 1.3027439e-05 0.015904725
000190 fa 59 0a 3c 12 2c a1 bc 8d ea e1 b6 07 c9 c0 36
       0.008444304 -0.019674335 -6.732828e-06 5.7454486e-06
0001a0 14 71 a0 b7 f8 12 31 ba b6 8c fc 3a e8 69 ec 38
       -1.9126142e-05 -0.0006754841 0.0019268009 0.000112730835
0001b0 81 75 89 35 4f 04 9f bc 5e 18 57 b8 bf 68 16 38
       1.0241494e-06 -0.019411234 -5.128269e-05 3.586034e-05
0001c0 29 80 d7 36 1b d5 1d 3b ce fd b4 bc 90 0c f9 b6
       6.422419e-06 0.002408332 -0.02209368 -7.4222407e-06
0001d0 e8 18 69 ba 3d 5d ea 3c ef 25 0a bb b4 10 83 37
       -0.0008891956 0.028608913 -0.002107974 1.5624195e-05
0001e0 b0 02 22 36 f6 3c 76 b7 ed 57 92 37 8f 8d a0 b6
       2.4141445e-06 -1.4676936e-05 1.74455e-05 -4.784851e-06
0001f0 48 56 7f 3a 6c 88 a6 3b e4 a9 64 3c 5c f5 3d 39
       0.0009740335 0.0050821807 0.013956521 0.00018115848

network.1.weight f4 [128]
000000 3e 50 81 3f 8e 9b 88 3f 0a 4f 7c 3f 3c 76 7a 3f
       1.0102613 1.0672472 0.98558104 0.9783666
000010 46 0c 7e 3f 61 5d 82 3f c0 9e 77 3f 62 b3 81 3f
       0.9923748 1.0184747 0.9672661 1.0132868
000020 d4 c5 79 3f ea b8 73 3f 45 df 80 3f d6 eb 80 3f
       0.97567487 0.9520403 1.0068136 1.0071971
000030 2c 13 78 3f 05 ac 88 3f 9b 3a 71 3f 4b 46 75 3f
       0.96904254 1.0677496 0.9423005 0.95810384
000040 85 14 7f 3f ef 04 83 3f d5 88 74 3f fb 49 82 3f
       0.99640685 1.0235881 0.9552129 1.0178827
000050 ba 86 80 3f 2b 2e 79 3f 79 b4 82 3f 5f b2 83 3f
       1.0041115 0.9733607 1.0211326 1.028881
000060 7f 90 75 3f 19 ae 7d 3f cf cc 81 3f 52 9a 78 3f
       0.9592361 0.99093777 1.0140628 0.97110474
000070 7f 72 77 3f eb 0c 74 3f 82 d1 78 3f c5 c1 78 3f
       0.9665908 0.9533221 0.97194684 0.9717067
000080 51 f0 7c 3f 58 01 86 3f b0 15 7e 3f 48 74 80 3f
       0.98804194 1.046916 0.9925184 1.0035486
000090 96 4e 80 3f a3 60 80 3f 56 32 81 3f 8d a7 81 3f
       1.0023983 1.0029491 1.0093486 1.0129257
0000a0 14 f8 7b 3f 1f f5 82 3f 3d ec 78 3f c1 62 75 3f
       0.9842541 1.0231055 0.9723547 0.9585381
0000b0 7e 69 7a 3f ef 30 7f 3f 6b 8e 82 3f 7c 71 7f 3f
       0.9781722 0.9968404 1.0199713 0.9978254
0000c0 04 2a 82 3f 75 de 84 3f 53 a3 72 3f ea 73 81 3f
       1.0169072 1.0380388 0.94780463 1.0113499
0000d0 77 dc 85 3f 42 b8 81 3f 3c 72 82 3f be d4 72 3f
       1.0457906 1.0134356 1.0191112 0.9485587
0000e0 0c 9f 76 3f 6f 3e 77 3f 04 bb 81 3f db ff 81 3f
       0.96336436 0.9657964 1.0135198 1.0156206
0000f0 28 71 81 3f f2 ab 80 3f a3 9e 84 3f 72 ef 79 3f
       1.0112658 1.0052474 1.0360912 0.9763099
000100 69 bb 81 3f 11 75 7b 3f e1 05 78 3f 3e 57 7c 3f
       1.0135318 0.98225504 0.9688397 0.9857062
000110 5a 7a 78 3f 81 21 7c 3f 4a bc 7b 3f f7 a0 7e 3f
       0.97061694 0.9848862 0.9833418 0.9946436
000120 3e cd 88 3f fe d6 80 3f 74 91 7b 3f 84 ce 7e 3f
       1.0687635 1.006561 0.9826882 0.9953387
000130 ee 85 81 3f ec 5f 81 3f cb d8 75 3f de a3 77 3f
       1.0118997 1.0107398 0.96033925 0.96734416
000140 80 17 81 3f 42 50 7d 3f 8e 51 76 3f 5d f5 80 3f
       1.0085297 0.9895059 0.9621819 1.0074879
000150 4e 97 80 3f 85 ba 7e 3f 27 7d 83 3f e5 20 7a 3f
       1.0046175 0.99503356 1.0272568 0.97706443
000160 07 69 80 3f bb cb 82 3f a3 8a 77 3f a0 49 80 3f
       1.0032052 1.0218424 0.9669592 1.0022469
000170 25 2a 81 3f a2 70 79 3f 71 de 7e 3f e5 7d 7d 3f
       1.0090986 0.9743749 0.9955817 0.99020225
000180 06 14 8d 3f 55 5a 7d 3f 77 09 83 3f 5f e3 80 3f
       1.1021736 0.9896596 1.0237263 1.0069388
000190 83 2f 82 3f 4e 65 80 3f 3e 67 81 3f eb 2e 81 3f
       1.017075 1.0030916 1.0109632 1.0092443
0001a0 cc 21 83 3f c3 5c 7c 3f c1 01 77 3f 92 f3 80 3f
       1.0244689 0.98579043 0.9648705 1.0074332
0001b0 3e 50 7a 3f fa fa 76 3f a5 94 78 3f 1e 09 78 3f
       0.9777869 0.9647671 0.97101814 0.9688891
0001c0 70 21 8a 3f 85 f2 81 3f 86 4a 80 3f f0 07 86 3f
       1.0791454 1.0152136 1.0022743 1.0471172
0001d0 cf 1f 83 3f 66 06 82 3f 66 2c 83 3f db e7 7b 3f
       1.0244082 1.0158203 1.0247924 0.9840066
0001e0 97 69 82 3f f8 0d 84 3f 1e 10 80 3f 81 51 7c 3f
       1.0188473 1.0316763 1.0004919 0.98561865
0001f0 20 5e 7e 3f 54 5d 7e 3f e6 12 83 3f 83 3d 7c 3f
       0.99362373 0.9936116 1.0240142 0.9853136

network.1.bias f4 [128]
000000 ee 9a f0 3a a2 e6 71 3d f1 a8 f2 3b 9e 24 93 bc
       0.001835672 0.05905784 0.0074053933 -0.017961796
000010 ef 40 09 3d e8 5f 8b 3a 11 f6 2b bd 46 16 33 3d
       0.03350919 0.0010633441 -0.041982714 0.043722413
000020 64 6e 99 3c a2 5e 19 bd 1c f8 4c 3c 9b 4d 02 bc
       0.018729396 -0.037443765 0.012510326 -0.007953073
000030 64 0f 89 ba 67 a4 91 3d 08 06 a5 bc 09 df 88 bc
       -0.0010456857 0.071114354 -0.020144477 -0.016707914
000040 98 9d af 3b 79 f6 44 3d 91 ea 1f bd dd e5 b4 ba
       0.005359363 0.048086617 -0.03904206 -0.0013801415
000050 d3 69 ab bb 0a bb 21 bc c5 65 e6 3c e4 b1 d1 3c
       -0.005231121 -0.009871254 0.0281247 0.02559752
000060 74 b4 2c bd 1f 33 1e 3c 98 61 96 3b f2 72 0b bd
       -0.04216428 0.009655743 0.004589271 -0.034045167
000070 7a 4d f7 bb 82 99 1b bd 0f e6 1e bc 1c 73 6a bc
       -0.0075470777 -0.037988193 -0.009698405 -0.014309671
000080 07 f0 d4 3c 14 1d de 3c d4 be 7c ba c9 2d 3c ba
       0.02599336 0.027113475 -0.0009641473 -0.00071784534
000090 c4 9e 0a bc 8d 72 87 3c d1 a2 44 3a b5 50 8a 3a
       -0.008460704 0.016534114 0.0007501068 0.0010552617
0000a0 81 21 e7 bc 4e dd a0 3b b7 cf 01 bd 0a b2 f7 bc
       -0.028214218 0.004909194 -0.031692233 -0.030236263
0000b0 2e 3a 12 bc d6 e7 1c 3c d6 8e 19 3d d6 3e 00 3c
       -0.008925004 0.009576758 0.037489735 0.007827481
0000c0 fb f5 3e 3c da 6a 95 bb 09 8a 9e bc 52 7a 8b 3c
       0.011655326 -0.004559857 -0.01935293 0.0170261
0000d0 d8 eb ca 3c 37 8d a9 3b ab 70 90 3c b0 32 51 bd
       0.024770662 0.005174305 0.01763185 -0.05107373
0000e0 6c 9c f2 bc b4 28 01 bd cf 61 53 3d 23 cd dd 3c
       -0.029615603 -0.03153296 0.05160695 0.027075356
0000f0 e4 8a 97 bc f7 74 1d 3c 4e bc 3c 3d 55 c4 b7 3c
       -0.018498845 0.009610406 0.04607802 0.022432486
000100 cd ea 07 3c 88 e6 c7 bb 3c b2 99 bc b5 1f 9e 3b
       0.008295727 -0.0061004795 -0.018761747 0.004825557
000110 d0 70 21 bd 9e 7b d4 3b 5d 22 98 bc 53 10 5c 3c
       -0.039414227 0.006484463 -0.018571073 0.013431626
000120 2a b6 43 3d 0e 80 eb bc fd 4f a4 bc 5f 0a c8 3c
       0.047781147 -0.028747585 -0.020057673 0.024419008
000130 78 84 e4 3c 92 b3 e8 3c b2 a6 3f bd 93 05 2e bd
       0.027895197 0.028405938 -0.046789832 -0.042485785
000140 73 e1 38 3d 8a 77 69 bb 77 12 0e bd 7d 82 bc 3c
       0.04513688 -0.003562423 -0.03468558 0.02301144
000150 53 6f 02 bc 08 42 fe 3c 1b 71 0e bb 33 d0 e0 bb
       -0.007961112 0.031037346 -0.0021734897 -0.006860757
000160 47 8b 1c 3c 7a 78 bc 3a c2 6c 15 bc ca c0 f4 3b
       0.009554691 0.0014379167 -0.009120168 0.0074692713
000170 5b c8 54 3c e8 fe 0c bd df 93 8f 3b fd cc a2 bb
       0.012987222 -0.034422785 0.0043816413 -0.004968284
000180 ee 0d 65 3d 2c 35 8f bc e1 56 d8 3c 6b c5 f7 3b
       0.055921488 -0.017481409 0.026408615 0.007561376
000190 e3 dd 2e 3d a8 7f 00 3c 3e a6 17 3b f0 fc d9 bb
       0.042692076 0.007842936 0.002313986 -0.006652467
0001a0 65 c1 4f 3c 94 84 99 bc e6 d3 9e bc 8e 70 98 3c
       0.012680386 -0.018739976 -0.01938815 0.018608358
0001b0 b6 b0 4d 3d ac 0e 5b bc 37 e7 00 bd 74 d2 b4 bc
       0.050217353 -0.013370197 -0.031470504 -0.022073008
0001c0 47 86 e9 3c 8a 0a ea 3b 5e 8e fb 3c 83 8a 7c 3c
       0.028506411 0.0071423696 0.030707534 0.015413883
0001d0 00 2e 15 3d 84 cd 4b 3c 6c 4d 1c 3d ac b3 53 3c
       0.036420822 0.012439135 0.038159773 0.012921255
0001e0 56 98 2f 3c f3 3e c7 3c e7 af 37 bc 4f 5b 43 bb
       0.010717472 0.024322009 -0.011211372 -0.0029809063
0001f0 ba 47 91 3c 65 cb 9b 3c 15 44 cc bb 89 2d c9 b9
       0.017734397 0.019017885 -0.006233702 -0.00038371634

network.1.running_mean f4 [128]
000000 23 d6 96 bb b0 45 da bc 17 f9 05 bd 90 bd 80 bc
       -0.004603164 -0.026644558 -0.032708254 -0.01571539
000010 99 1d 65 3d 04 a0 0b bd 78 f8 60 bc 72 3e 04 3d
       0.05593643 -0.03408815 -0.013731115 0.032286115
000020 2d d6 a7 3c 23 45 93 bd af 4a 44 3c 27 0a 1a bd
       0.02048787 -0.07190921 0.011980697 -0.03760734
000030 b3 11 0a 3c 69 8c 83 bc 05 8d 60 3d 56 40 8c bc
       0.008427071 -0.016058164 0.054821987 -0.017120522
000040 63 55 4d 3d 31 c4 8e bc 08 a5 53 bd b6 c4 7c 3c
       0.05013026 -0.017427536 -0.051671058 0.015427759
000050 1a c3 4e 3d ba 9c 3c bb 5a 85 31 3d 06 e4 3d bd
       0.050479032 -0.002877994 0.043340065 -0.04636004
000060 ca a3 35 3d 0e 41 ee 3c b9 a7 c8 bc bb e5 21 bd
       0.044345655 0.029083755 -0.024494039 -0.03952573
000070 6a 8a 88 bc fa 48 16 3d 93 33 23 3d ab 78 48 bd
       -0.016667563 0.03669069 0.039844107 -0.048943203
000080 ed b3 c9 3c 45 5a c5 bc f2 61 04 3d 80 07 d2 bb
       0.024621928 -0.024090895 0.03231997 -0.0064095855
000090 3e db c4 3a b6 c1 ab bd 03 01 52 3d e5 94 65 bb
       0.0015018953 -0.08386557 0.051270496 -0.0035031375
0000a0 c9 52 f9 bc 0a 86 29 3c 29 a2 01 bd e2 c2 97 3d
       -0.030434983 0.010346899 -0.03164879 0.07410218
0000b0 b9 cc b1 3c d1 bf 3a 3d 7c 71 af bc 98 b0 08 bc
       0.021704065 0.045593087 -0.021416418 -0.0083428845
0000c0 45 09 54 3b 88 aa c3 bc 7f 6e 0d 3d 67 e0 18 3c
       0.0032354158 -0.023885027 0.034529205 0.009330845
0000d0 55 57 25 bd 22 06 81 3c 52 b6 48 bc 4c 90 b2 3d
       -0.04036649 0.015749995 -0.0122505 0.08718929
0000e0 1e 36 b6 3c d0 24 44 bb 63 9b c7 bc 80 8e 9b bd
       0.022242602 -0.0029929169 -0.024366086 -0.07595539
0000f0 ea bb 35 bd ad af 07 3d 33 3e cc bc d4 51 5f bc
       -0.044368662 0.03312652 -0.024932003 -0.013630349
000100 9d 7f f4 3c 81 44 9e 3c a6 73 92 3d 97 7f 02 be
       0.029846007 0.019319775 0.071509644 -0.12743984
000110 f8 8d 26 bc d4 72 3f 3d 6e a0 ee bc 09 57 a6 bb
       -0.010165684 0.046740368 -0.029129233 -0.0050762934
000120 85 8e b1 bd 0a 6c 28 3d f0 8e 98 3c ba 49 fe 3c
       -0.086697616 0.04111866 0.018622845 0.031041015
000130 55 ca 19 bc ff 24 06 bc 16 c7 08 3c cc 33 32 bc
       -0.009386619 -0.0081875315 0.008348247 -0.010876607
000140 7e ed 7b 3d dd 74 ba bc d0 70 0a 3c 88 3a 21 bc
       0.061505787 -0.022760803 0.008449748 -0.009840615
000150 30 c3 32 3d f3 9e fe 3c 16 8c f5 bc e9 97 1b 3d
       0.043643177 0.031081652 -0.029974025 0.03798667
000160 2c c4 82 bd 7a 41 ab 3d d4 68 e9 bc 33 ea df 3c
       -0.06385073 0.08362098 -0.028492369 0.027333355
000170 89 20 94 bc 60 f7 9a 3b 72 b1 b2 bd c3 fd 6b bc
       -0.01808192 0.0047291964 -0.08725251 -0.014403763
000180 b5 fd 46 3c a7 b9 97 3c 06 40 b5 3c b8 ed 6d 3d
       0.012145449 0.018521143 0.022125255 0.058088034
000190 d8 90 82 3c a7 1b 7a bc a1 a4 35 bd 49 92 43 bd
       0.015938208 -0.015265382 -0.044346455 -0.04774693
0001a0 57 58 94 bc ec 9f 65 3d 21 0e ab bc 1e 27 d1 3c
       -0.01810853 0.056060717 -0.02088076 0.025531348
0001b0 d6 ab 96 3c 2b fc 22 bb db d4 2c bd 13 5d 2a ba
       0.018392485 -0.0024869542 -0.042195182 -0.00064988545
0001c0 6e 1a 4f bd ba 3b e6 bc e8 49 02 3d f2 4c 5c bd
       -0.050562315 -0.028104652 0.031808764 -0.05378432
0001d0 95 aa 70 bd dc 02 01 3d a8 6e 8f 3b 84 27 d8 3b
       -0.05875643 0.031496868 0.004377205 0.0065965075
0001e0 1a 52 94 3b 6d 55 64 3c 23 98 85 bc 44 36 5e bd
       0.004526389 0.013936383 -0.016307896 -0.05425097
0001f0 e4 a2 fa 3b de 0a 95 3d 33 05 fa bc 03 18 f1 bc
       0.0076488126 0.072774634 -0.030520057 -0.029430395

network.1.running_var f4 [128]
000000 4b a3 f3 3e 19 c5 0b 3f 87 0c f3 3d b8 b7 95 3e
       0.4758552 0.5459762 0.11867624 0.2924173
000010 a6 48 82 3e da 4d 0f 3e c5 2d 99 3e 02 84 01 3f
       0.2544605 0.13994542 0.29917732 0.5059205
000020 7d 97 b9 3d ee 11 40 3f 42 94 e7 3e 3a 94 39 3e
       0.09062097 0.7502736 0.452303 0.1812295
000030 ad 0b 6d 3e c3 4d 98 3e 0b fb fb 3e 6d 09 8e 3e
       0.23148985 0.29746827 0.49214968 0.27741566
000040 36 81 33 3e 1c f5 62 3e 97 f4 4b 3e 07 14 69 3e
       0.17529759 0.22163814 0.19917522 0.22761546
000050 07 a5 96 3e 87 79 24 3f 41 84 41 3e 9b 20 0c 3f
       0.2942278 0.64247936 0.18898107 0.5473725
000060 27 df 3a 3e 9c 38 11 3e 5f 15 e6 3e f1 8c 96 3e
       0.18249188 0.14181751 0.4493818 0.29404405
000070 89 60 17 3e 77 00 e1 3e 78 25 30 3f 58 99 d9 3e
       0.14782919 0.43945667 0.6880717 0.42499804
000080 b9 00 7d 3e b2 9e 9c 3e cb 87 71 3e 62 36 20 3e
       0.24707307 0.30589825 0.23586957 0.15645745
000090 9c 25 51 3e 5f 9e 34 3f b6 55 28 3f bc de 0c 3e
       0.20424503 0.70554155 0.65755785 0.13756841
0000a0 9b 60 32 3e fe 52 42 3e 0b f7 ef 3e 8c 0d 29 3f
       0.17419665 0.18976972 0.46868166 0.66036296
0000b0 3b 4a 1c 3e 07 18 17 3e a3 67 26 3e 74 39 19 3f
       0.15262692 0.1475526 0.16250472 0.5985329
0000c0 11 81 8c 3d c3 9f f6 3e 7a 09 94 3e 43 23 78 3e
       0.06860555 0.48168764 0.2891348 0.24232201
0000d0 28 d4 bb 3d 5b e4 90 3e f5 33 b1 3d c0 d0 36 3f
       0.09171325 0.2829922 0.08652488 0.7141228
0000e0 43 b8 e2 3d 0d 5f f5 3e 28 1e 47 3f 4d e9 28 3e
       0.110703014 0.4792408 0.7778039 0.16495247
0000f0 1a 50 f5 3d f1 dc 95 3e 82 c1 28 3f a5 74 7e 3e
       0.11978169 0.29270127 0.6592027 0.24849184
000100 1d 99 44 3e c3 67 b4 3d 13 60 1f 3f ba 33 18 3f
       0.19199033 0.088088535 0.6225597 0.5945393
000110 aa 59 e7 3e be 6e fd 3d cc d3 b8 3e 84 50 19 3f
       0.45185596 0.12374638 0.36099088 0.5988848
000120 15 83 10 3f 24 72 bf 3e db ad 0a 3f 8e 68 c0 3e
       0.56450015 0.3739177 0.5417153 0.3757977
000130 e8 d3 ca 3e a7 6a ca 3e 4c 84 c2 3e 56 27 b6 3e
       0.39614797 0.39534494 0.3799156 0.35576886
000140 f6 be 07 3f 3b 21 32 3e 89 48 8a 3e e5 1d 2f 3e
       0.5302576 0.17395489 0.27008465 0.17101248
000150 4b 2a ad 3e a5 9d 4f 3e 77 39 f9 3e 9e 05 8d 3e
       0.3382133 0.2027498 0.48676655 0.27543348
000160 0e e4 37 3f 25 8f 02 3f 8f 83 60 3e 4e 3d 0d 3f
       0.7183236 0.5099967 0.21925186 0.5517167
000170 2c b4 0d 3f eb 76 1e 3e fc 53 0e 3f f0 24 b0 3e
       0.55353045 0.15475051 0.555969 0.3440318
000180 b0 57 6a 3e ca 56 25 3e 3e 90 5b 3d 8e a5 9c 3e
       0.22885013 0.16146389 0.053604357 0.30595058
000190 5b 0a 37 3f f9 31 d5 3d 77 8d 43 3f 69 88 31 3e
       0.71500176 0.10409922 0.76387733 0.17337193
0001a0 30 f6 d7 3e ef cb 0d 3e 5d 33 0d 3e d7 c6 d2 3e
       0.42180014 0.13847326 0.13789125 0.41167328
0001b0 8e 46 e4 3e b8 bd b2 3e 95 9f b6 3e 2b 38 f3 3e
       0.4458508 0.3491037 0.35668626 0.4750379
0001c0 a4 02 f4 3d 1a 13 0c 3f 1c 62 7a 3e 79 9e 07 3f
       0.11914566 0.54716647 0.24451488 0.52976185
0001d0 e8 68 57 3e c8 5c dd 3e 87 11 a7 3e 0c 58 03 3e
       0.21036112 0.4323485 0.3263056 0.12826556
0001e0 65 3c 36 3e d7 1b f8 3e 9b de e8 3e e5 05 bb 3f
       0.17796476 0.4845874 0.45482334 1.4611174
0001f0 8a 3b 07 3f 4f be 43 3e 78 da 60 3e 06 c1 b6 3e
       0.52825224 0.19115566 0.21958339 0.3569414

network.4.weight f4 [64, 128]
000000 90 72 18 bd e2 a8 e7 3d 94 e6 97 3d b6 88 1b 3d
       -0.03721863 0.11311509 0.07417026 0.037972175
000010 2e 5f 2b 3d df 75 58 bd fa c4 ce 3c a0 58 f9 3d
       0.041838817 -0.052846786 0.02524041 0.12175107
000020 3b d7 6c bd 48 ce 50 3c 13 92 20 bc cf 11 89 3d
       -0.057822447 0.012744494 -0.009800452 0.0669285
000030 63 7d fe bb 04 17 cc 39 41 10 ed 3c 86 c1 38 bd
       -0.007766412 0.0003892706 0.028938415 -0.045106433
000040 42 01 3b bc 3e e4 14 3d 8e 2a dc bc 67 91 be 3b
       -0.011413874 0.03635048 -0.02687576 0.005815673
000050 0b 1d ae 3d cf 7e 81 3d ce e4 9d 3c bf 74 8c bb
       0.08501633 0.06323015 0.019274142 -0.004286378
000060 e0 df 3d 3d ca 80 42 3d b6 bc 18 bd c0 a8 7b 3d
       0.046356082 0.047486104 -0.037289344 0.06144023
000070 2c d0 24 bb d4 02 4b 3d 85 6c 12 3d 4b 7d 03 bd
       -0.0025148494 0.049563244 0.035748024 -0.03210191
000080 f3 af f3 bc ca e3 78 3d f5 50 3f 3d 05 ac 02 bc
       -0.029746985 0.06076411 0.046708066 -0.007975583
000090 de 4d 9b bd 5f 26 b8 3b a0 37 ae bd ae 8c 54 bd
       -0.07583211 0.0056198086 -0.085067034 -0.051891975
0000a0 49 13 52 bd 48 92 23 bd 07 f6 18 bd 67 82 52 bd
       -0.051287923 -0.039934427 -0.037344005 -0.051393893
0000b0 3f b7 70 3d 45 34 89 bd 88 4a 46 3d 0f 09 e9 3c
       0.058768507 -0.06699423 0.048410922 0.028446702
0000c0 8c e9 f7 bc 41 bb 94 3d 11 86 36 bd b9 34 0f bb
       -0.030262731 0.07262278 -0.04456145 -0.0021851494
0000d0 fc a5 59 3d e0 77 be 3d d3 2a 28 bd c7 1e aa 3d
       0.05313681 0.09300208 -0.041056465 0.083066516
0000e0 a5 e4 59 bd c0 ae 87 3d 21 1b 7a bc a0 09 85 bd
       -0.053196568 0.06625128 -0.015265257 -0.064959764
0000f0 07 39 ed 3d a2 63 6c bd 33 c9 e2 3d 49 0b 57 bd
       0.11583143 -0.057712205 0.11073532 -0.052500997
000100 05 3a b8 3b c7 11 1b 3c 4f d0 c8 3c e0 a9 0c 3c
       0.005622151 0.009464688 0.024513392 0.008585423
000110 dd e0 35 3c 86 ad ff bc 85 cb ec bc 8e ad f5 bc
       0.011100975 -0.031210672 -0.02890564 -0.029989984
000120 2e a3 17 3e 5c 01 26 bd 10 9c 71 bd 7f 13 73 bc
       0.14808342 -0.04052864 -0.058986723 -0.014836191
000130 b4 c4 8d 3d a0 2a 7c 3d 58 57 a9 bd 95 18 98 3c
       0.06922284 0.061564088 -0.082686126 0.01856641
000140 50 83 7f 3c 28 b0 f9 bc e7 ba 1f 3d 36 a0 53 bd
       0.015595272 -0.030479506 0.038996603 -0.05166646
000150 0b a9 a6 bd fe a1 bf bc 0a 99 6b 3d 31 70 1f bd
       -0.08137711 -0.023392674 0.057518996 -0.038925353
000160 11 bd 03 3c 0a 38 cc bd d2 9c 12 bd 88 44 af bd
       0.008040682 -0.09971626 -0.035794087 -0.08557993
000170 72 82 36 bd a6 20 56 3c 8c 0b 7f bd ac c4 c6 bc
       -0.044557996 0.013069307 -0.06226687 -0.024263702
000180 3d 3a eb 3b 3a 7a 1d bd 04 65 c7 bd 5a 53 94 bd
       0.0071785734 -0.038446642 -0.09736064 -0.072424605
000190 2c e4 c3 3d 45 76 cc bc e2 1a aa 3d 97 00 0d bd
       0.09565005 -0.024958739 0.08305909 -0.03442439
0001a0 c4 da 86 3d 5a f9 82 3c db a9 56 bd c3 27 1e 3c
       0.06584695 0.01598804 -0.05240808 0.009653035
0001b0 5d f9 d2 3c 65 94 4f bc 84 a5 0a 3d d5 56 30 3d
       0.025753671 -0.012669657 0.033849254 0.04305156
0001c0 46 91 0e 3e af c8 3c 3d 4b 56 dd bc 79 b0 a6 3c
       0.13922605 0.046089824 -0.027018687 0.02034782
0001d0 79 01 b9 3d 9e c5 a0 bd 79 17 c0 3d df fb 71 bd
       0.09033484 -0.078501925 0.09379477 -0.059078094
0001e0 74 2e 93 bc df bc c3 bc b6 a6 37 3d 20 b9 3f 3d
       -0.017966487 -0.023893772 0.044836722 0.04680741
0001f0 a5 98 b1 bd be 12 8a bd ee 2b a9 3d a9 95 8a bc
       -0.08671693 -0.06741856 0.08260332 -0.016917067
000200 62 7f 05 bd cc 40 82 3d cf 00 3b 3d d3 41 56 3d
       -0.032592185 0.06360015 0.045655068 0.05230887
000210 41 52 19 bd b1 91 ab 3c 49 06 d4 3c 15 3d bb 3b
       -0.03743196 0.020943495 0.025881903 0.0057140687
000220 f9 ec e9 3b 26 75 b5 3c e4 7b ff 3c 14 06 64 bd
       0.007138845 0.022150587 0.031187005 -0.05566986
000230 1e 10 49 3c ab 96 94 bb 44 3d bf bd 1c 58 48 bb
       0.012271909 -0.0045345626 -0.09337857 -0.0030570095
000240 af 2b a8 bc 03 26 ae bd a9 61 86 bc a8 17 90 bd
       -0.020528642 -0.08503344 -0.01640399 -0.07035762
000250 c4 91 e2 bd 1c 4d 5b bd c8 72 55 3d bf fa 32 3d
       -0.11062959 -0.053540334 0.052111417 0.04369616
000260 87 bf ca 3b 42 14 29 3c c7 a0 7b 3d 10 1d ed bb
       0.0061873826 0.010319771 0.061432626 -0.0072361305
000270 6c 17 cc 3c bc 9c b4 3b bb 96 8b bb dd 57 9f 3b
       0.024913512 0.0055118483 -0.004259912 0.004862769
000280 25 78 be 3d 77 4a 08 3d dc 04 95 3c 0d f0 cb 3c
       0.093002595 0.03327414 0.018190794 0.024894739
000290 03 94 7d 3c d4 73 d0 bc de a8 b4 bd 46 8b d7 3b
       0.015477183 -0.025445856 -0.08821271 0.006577882
0002a0 a5 3c a1 3d 5a 48 b1 bd c9 60 8e bc c4 1e 51 3d
       0.07872895 -0.08656378 -0.017380135 0.05105473
0002b0 c6 37 83 bc 6a d4 79 bc 87 44 a4 3d 9a 46 10 bd
       -0.016017806 -0.015248397 0.08020883 -0.03522358
0002c0 35 c3 19 bc 6e 69 31 3d 9c 1f 1f bb 67 ba 5a bd
       -0.00938492 0.043313436 -0.0024280315 -0.053400423
0002d0 a0 ca 6f bd d5 0d d6 bd 03 61 0b be f1 57 7c 3d
       -0.058542848 -0.10451857 -0.13611226 0.061607305
0002e0 a8 74 a1 bc 57 d9 88 bd 3a 58 80 3b 7f 12 05 bc
       -0.019708946 -0.06682079 0.0039167674 -0.008122086
0002f0 11 5d 17 3b a5 ab 5d 3d ee 9d 44 3d f5 dc 8c 3d
       0.0023096243 0.05411877 0.048002176 0.06878082
000300 ef ee f5 bd ad 60 e5 bc c7 48 4f 3d e0 fa 2b bb
       -0.120084636 -0.0280002 0.050606515 -0.0026242062
000310 8a 5f b1 3c b6 08 95 bd 5e 1f a6 3c d7 58 c0 3c
       0.021652002 -0.07277052 0.020278629 0.023479862
000320 b0 a6 ed 3c e9 c3 49 3c dc eb 2f bd f5 0d b3 bc
       0.029010147 0.012314775 -0.042949542 -0.021857241
000330 6d c7 22 3d b0 69 9a 3d 48 ef a9 bd af da 55 3d
       0.03974097 0.075396895 -0.082975924 0.052210506
000340 00 03 5f bd 55 99 86 3d 32 48 4f 3d 5c 98 a5 3d
       -0.05444622 0.065722145 0.05060596 0.08085701
000350 50 95 00 3d 37 62 c8 3c 58 c5 b1 bd 7e b6 24 3c
       0.031392395 0.024460895 -0.086802185 0.010053275
000360 37 4b 31 3d 00 81 c8 bd cb 2c 24 3d da 64 8e bd
       0.04328462 -0.0979023 0.04008178 -0.0695283
000370 c3 4e cb 3d fe 29 4a bd 96 78 1c 3d 1a 28 20 3d
       0.09927132 -0.049356453 0.038200937 0.039100744
000380 82 2e 55 3c 54 e2 0c 3d 57 5b 8d bd 2b 60 0e 3d
       0.013011577 0.03439553 -0.06902187 0.03475968
000390 60 1e da bc 4d 57 89 3d c4 a3 01 bd 3a 6c 81 bc
       -0.026625812 0.067061044 -0.03165032 -0.015798677
0003a0 7c ac 49 bc d4 98 4d bd c1 0f d3 3c 83 4f e5 bc
       -0.01230919 -0.050194576 0.025764348 -0.027992016
0003b0 13 7a 95 3d ad 9b ac bc 2b 1b 82 3d 27 25 38 3d
       0.072986744 -0.021070326 0.06352838 0.044957306
0003c0 19 d3 5b 3d fa 15 cd 3d 4e 92 19 bd 58 94 81 3b
       0.053668115 0.10013957 -0.037493043 0.0039544515
0003d0 2a e6 63 bd ce 10 90 3d a5 0b 81 bc bb a7 5f 3c
       -0.055639423 0.07034455 -0.015752623 0.01365083
0003e0 f1 de 4e bd 1c b7 6f 3d 9c 55 b1 bc a4 cc 9b 3d
       -0.050505582 0.058524236 -0.021647267 0.076073915
0003f0 1a 33 fd 3c 84 ea 0a bd 32 9a 96 3d a9 46 27 3d
       0.030908156 -0.033915058 0.07353629 0.04083887

network.4.bias f4 [64]
000000 1f 33 19 b7 d4 3a 01 38 48 b8 34 37 20 51 af 37
       -9.131413e-06 3.0810785e-05 1.0771742e-05 2.0899402e-05
000010 82 90 d9 b5 b7 59 00 b8 cc 5d 64 37 f4 96 9a b7
       -1.6209817e-06 -3.060113e-05 1.3611698e-05 -1.8428524e-05
000020 a7 48 cb b6 16 cb 00 37 82 61 06 b7 ad f2 00 b8
       -6.0583293e-06 7.676679e-06 -8.009725e-06 -3.0743588e-05
000030 8f a3 4f b7 84 11 4a 36 58 2b 8a 37 cc 7d fb b6
       -1.2376243e-05 3.011054e-06 1.6471065e-05 -7.4950276e-06
000040 9b 1d 23 37 d8 a7 40 38 f6 69 ec 37 35 22 89 37
       9.72245e-06 4.5932684e-05 2.8182734e-05 1.6347602e-05
000050 90 c3 e5 33 37 9e 8e b6 f4 9e 85 36 00 a0 30 b7
       1.0699216e-07 -4.2503484e-06 3.9822135e-06 -1.052767e-05
000060 c6 2a 15 b8 ae 40 23 36 52 be 9a 36 47 95 d4 b6
       -3.5564204e-05 2.4326541e-06 4.611714e-06 -6.3354705e-06
000070 8c bc 09 b8 95 d3 d2 b5 5e 66 99 b7 2d 25 88 b6
       -3.2838943e-05 -1.5707798e-06 -1.828669e-05 -4.0574437e-06
000080 89 84 8c 36 f1 ef c4 37 ec 07 08 b7 d9 31 5d 37
       4.1877543e-06 2.3476752e-05 -8.108076e-06 1.3184233e-05
000090 6f 0b 18 37 9a 33 51 36 89 70 08 38 69 8d f6 b7
       9.062568e-06 3.1173463e-06 3.2529733e-05 -2.9391334e-05
0000a0 86 0e a7 b6 73 52 91 37 10 63 1a 37 bf 7a c3 36
       -4.9786786e-06 1.732374e-05 9.20218e-06 5.8257424e-06
0000b0 aa 95 19 b8 95 66 b9 35 21 5e 6c b7 e7 8a 0a 37
       -3.6617428e-05 1.3813429e-06 -1.4088612e-05 8.257782e-06
0000c0 86 b3 d2 b6 17 cc 9d 36 ce 96 f5 b6 1c 0f 60 36
       -6.279387e-06 4.702724e-06 -7.319125e-06 3.3387396e-06
0000d0 db e7 46 37 19 8b 4c b6 d6 19 7c 38 e3 aa b5 36
       1.1855703e-05 -3.0479334e-06 6.0105544e-05 5.414114e-06
0000e0 ad b6 e4 b6 3e cc 5d b3 ae 7c fd b6 ad 54 ec b5
       -6.8161958e-06 -5.164133e-08 -7.554502e-06 -1.7608014e-06
0000f0 22 37 0e b5 15 0e 4f 36 70 26 9d b7 98 ff 1b 37
       -5.297935e-07 3.08536e-06 -1.8733757e-05 9.29823e-06

network.5.weight f4 [64]
000000 0b d7 88 3f bd 84 7a 3f a4 ad 81 3f 5b 95 76 3f
       1.0690626 0.9785879 1.0131116 0.9632165
000010 47 7c 82 3f ef 44 80 3f 78 08 90 3f b9 7f 80 3f
       1.0194176 1.0021037 1.1252584 1.0038978
000020 d7 57 80 3f 91 47 7b 3f 03 95 74 3f 97 e2 77 3f
       1.0026807 0.98156077 0.95539874 0.96830124
000030 ce 01 8a 3f 93 b5 77 3f 07 fd 81 3f d3 05 7e 3f
       1.0781801 0.96761435 1.0155343 0.9922764
000040 cf 99 7b 3f 4d 2b 87 3f 9e cd 84 3f 34 4d 79 3f
       0.9828157 1.0560089 1.0375249 0.9738343
000050 b9 1a 82 3f af b4 7a 3f ef 88 84 3f d9 35 7f 3f
       1.0164405 0.9793195 1.0354289 0.9969154
000060 7c ca 80 3f b0 d0 8a 3f 37 14 74 3f 1b 71 80 3f
       1.0061793 1.0844936 0.95343345 1.0034517
000070 78 d9 85 3f 0c 7d 6c 3f 7a b8 85 3f 48 bb 6a 3f
       1.0456991 0.92378306 1.0446923 0.9169202
000080 9a e3 78 3f 8a 1f 7d 3f 42 e9 71 3f 6e b0 75 3f
       0.9722229 0.9887625 0.9449655 0.95972335
000090 97 ab 86 3f fe 25 8a 3f b7 96 82 3f 55 da 7e 3f
       1.0521115 1.0792844 1.0202245 0.995519
0000a0 76 71 81 3f 5e ca 72 3f fa cb 86 3f dc 32 74 3f
       1.011275 0.9484004 1.0530999 0.95390105
0000b0 30 6e 7b 3f 96 70 81 3f 77 e6 83 3f d2 45 80 3f
       0.9821501 1.0112484 1.0304707 1.0021307
0000c0 2f d7 76 3f 95 0e 77 3f ea cc 7c 3f 3e c5 78 3f
       0.96422094 0.96506625 0.98750174 0.9717597
0000d0 d4 3c 7a 3f 27 f0 77 3f aa b5 7d 3f 03 ec 7b 3f
       0.97749066 0.9685082 0.9910532 0.98407
0000e0 26 c7 71 3f 7b b8 77 3f 64 9b 7a 3f ac 22 7d 3f
       0.944445 0.9676587 0.9789336 0.9888103
0000f0 c2 c2 73 3f 78 dc 85 3f 02 14 84 3f ed 75 85 3f
       0.9521905 1.0457907 1.0318606 1.0426613

network.5.bias f4 [64]
000000 a0 7e 43 3d b8 7e 7c 3c 9e 93 08 3c 78 72 17 3c
       0.04772818 0.0154110715 0.008335976 0.0092436
000010 9a 82 80 3a 6c 22 c7 3c 6a 4b e7 3d 71 10 9d bb
       0.0009804547 0.024308406 0.11293681 -0.0047932197
000020 c1 57 18 ba ea 40 9e bc da a1 28 bd 87 cf 17 3c
       -0.0005811416 -0.019318063 -0.04116998 0.009265787
000030 4b a7 83 3d 72 9b 5b bc 4f 42 87 3c f1 86 88 bc
       0.06428393 -0.01340376 0.01651111 -0.016665908
000040 a8 20 96 bb 31 5a 5d 3d d5 df 8d 3c db a9 1f bc
       -0.0045815296 0.05404109 0.017318645 -0.009745087
000050 86 ab a7 3a 94 3c 61 3a 63 27 b0 3c 00 bf bd 3b
       0.0012792207 0.00085920957 0.021503156 0.0057905912
000060 c8 4e 54 3c cd 62 83 3d ef 5a 84 bc d5 5f 10 3c
       0.012958236 0.06415329 -0.016156642 0.008811911
000070 dc e1 6f 3d 96 29 c0 bc ca 9b 25 3d ba b9 73 bd
       0.058565006 -0.02345733 0.040431775 -0.059503295
000080 9c a3 25 3b 1e d1 6f 3c d5 9d bc bc 10 3c 33 bc
       0.002527452 0.01463726 -0.023024479 -0.010939613
000090 fd 1d 98 3d b1 cb 56 3b 4e f4 3e bd 16 5f 7f 3b
       0.07427595 0.0032775218 -0.046619706 0.0038966588
0000a0 10 a3 91 3c 5b 55 37 bd c8 81 26 3d 97 1a aa bb
       0.01777795 -0.044759136 0.040651113 -0.005191158
0000b0 ee a2 fe 3c d1 72 26 ba 4c 3b fb 3c d2 ba cc 3c
       0.03108355 -0.00063495064 0.030667923 0.024991427
0000c0 e6 f8 fb bc bf e6 c0 bc 6d e3 8d 3c 64 c0 90 bb
       -0.030758332 -0.023547528 0.01732036 -0.004417466
0000d0 f0 c1 d6 3b a1 3d b5 3c e2 f5 d6 3c fb 4a ec 3b
       0.006553881 0.022124114 0.026240293 0.007211087
0000e0 6f 56 94 bc 95 5b de bc d5 78 76 3c 14 5e 28 3d
       -0.018107621 -0.02714328 0.015043457 0.041105345
0000f0 09 34 12 3c 34 9c 57 3d 43 24 47 3d 9f 22 d6 3c
       0.008923539 0.0526392 0.048618566 0.026139555

network.5.running_mean f4 [64]
000000 1b ea 9b 3e 2f 22 1a 3e dc c4 e6 3e f1 a6 e1 be
       0.30452046 0.15052103 0.45072067 -0.4407268
000010 41 bf aa bd 6a 8b f6 be 07 6c 41 be 0c b4 5b 3e
       -0.0833726 -0.4815324 -0.18888865 0.21455401
000020 fb 98 71 be 5b 40 56 3c 4a 23 59 bf 2f dd 79 bf
       -0.23593514 0.013076867 -0.8481947 -0.97603124
000030 21 4e 81 bd 3c 8c a8 be 2a 5e ec be bf 35 b7 bd
       -0.0631373 -0.3291949 -0.4616559 -0.08945798
000040 51 70 46 bf fa 63 7b 3d e8 8c 56 be 67 7d 01 bf
       -0.7751513 0.061374642 -0.20952189 -0.50581974
000050 eb c8 22 3e d4 1e 9c be f1 12 67 3e 2d 91 87 bf
       0.15896957 -0.3049227 0.2256582 -1.0591179
000060 01 97 32 3f fb 72 3e be a1 74 5f 3e 71 4c 48 bf
       0.69761664 -0.18598549 0.21821834 -0.7824164
000070 2b a1 00 be bc dd 9f be 8e 44 68 bd 2d c2 cf 3e
       -0.1256148 -0.31223857 -0.056706004 0.40577832
000080 6d 9b 8d bf cf 98 d2 3e 14 43 37 bf 79 c3 40 bf
       -1.1063057 0.4113221 -0.7158673 -0.7529827
000090 e0 7b 74 be 28 3e 03 3f 24 d6 7a 3f 7e 27 37 bf
       -0.2387538 0.5126672 0.97983 -0.71544635
0000a0 22 09 b2 3e 19 56 4e 3e e6 13 fd 3d 19 f2 e4 3d
       0.34772593 0.20150031 0.12357311 0.11178989
0000b0 bd 30 83 bf a4 44 d3 3a 43 f2 e9 be 2e b1 a5 be
       -1.0249249 0.0016118479 -0.45692644 -0.3236174
0000c0 1d cb 22 be 1c f5 4e be b7 66 18 bf 45 52 7e 3e
       -0.15897794 -0.2021069 -0.5953173 0.24836071
0000d0 47 1d 4e be 99 c4 b7 be b2 cf 4a bf 2f a5 f5 bb
       -0.20128356 -0.3589218 -0.7922317 -0.007496498
0000e0 d7 53 87 bd ff 02 ac bd 63 2d 31 bf a8 7d 22 bf
       -0.06607788 -0.08399009 -0.6920988 -0.63472986
0000f0 b2 76 a9 be 13 87 18 3e 0c ee 36 be 97 67 e6 3e
       -0.3309837 0.14895277 -0.17864245 0.45000908

network.5.running_var f4 [64]
000000 59 f5 a6 3f 2b 54 ff 3e 4f dd 3c 3f 7b 72 93 3f
       1.3043624 0.49868903 0.7377519 1.1519312
000010 5e c2 34 3f 2b 89 fb 3e 51 e0 91 3f 68 47 41 3f
       0.7060908 0.49128088 1.1396581 0.7549958
000020 be f0 d3 3e cc 93 58 3f 2b cb b9 3e 60 27 e1 3e
       0.4139461 0.8460052 0.36287817 0.43975353
000030 ac 19 08 3f 09 d1 ce 3e 17 6a 45 3f f4 8a 7a 3f
       0.5316417 0.40393856 0.77115005 0.97868276
000040 75 3d 4d 3f 90 00 35 3f 74 7f 1f 3f d7 52 08 3f
       0.801719 0.70703983 0.62303853 0.53251404
000050 17 38 09 3f b7 af 15 3f e1 6f 5b 3f 13 6c 48 3f
       0.5360121 0.58471245 0.8571759 0.7828991
000060 e2 8c 63 3f ee c2 8d 3f 4d ae f4 3e 27 d2 15 3f
       0.88886845 1.1075113 0.4778923 0.5852379
000070 d1 c2 05 3f 60 76 7f 3e 7f 3d 5b 3f ff af 34 3e
       0.5225039 0.249475 0.8564071 0.17645262
000080 b1 2b 43 3f 60 83 2b 3f 2e 43 2e 3f 65 20 0c 3f
       0.7623854 0.6699734 0.6807126 0.5473693
000090 e4 50 bc 3f 45 ae 8b 3f d1 b0 4a 3f 0a da 1c 3f
       1.4712186 1.0912558 0.7917605 0.612702
0000a0 4e e7 82 3f 84 85 b9 3e 82 d2 26 3f 22 cb e9 3e
       1.0226839 0.36234677 0.6516496 0.4566279
0000b0 f2 89 1b 3f f5 be 00 3f 7e cd 05 3f 59 40 74 3f
       0.6075736 0.5029138 0.5226668 0.95410687
0000c0 83 fe 10 3f 49 9b be 3e 1c a5 d0 3e 94 fd 3d 3f
       0.56638354 0.37227848 0.40750968 0.74215055
0000d0 1a ca bf 3e 84 07 11 3f 65 2d 49 3f f8 ce 7a 3f
       0.3745888 0.5665209 0.7858489 0.9797206
0000e0 4c 84 68 3f 33 57 0a 3f 29 ae 03 3f a0 0d 16 3f
       0.9082687 0.54039305 0.5143762 0.5861454
0000f0 aa 60 c4 3e fd cf 7b 3f d3 89 73 3f 64 01 66 3f
       0.38355 0.9836424 0.9513218 0.8984587

network.8.weight f4 [32, 64]
000000 77 83 10 bd f6 53 28 be 67 80 f8 bc 1a 1b ed 3c
       -0.035281625 -0.16438279 -0.030334665 0.028943587
000010 07 87 2c 3c 6d 57 76 bd 97 61 3f bd f9 47 27 3e
       0.01053024 -0.06014197 -0.04672393 0.16336049
000020 0c 52 d7 3c 3e c7 fb bb a5 ae 54 bd 7c 73 85 bd
       0.02628424 -0.0076836636 -0.051924367 -0.065161675
000030 a7 18 a4 bc f9 d1 25 bd 9a 96 44 3d 5a 6c 50 3d
       -0.020031286 -0.04048345 0.047995187 0.050884582
000040 41 18 04 3e 7f b5 1b bd 63 25 0e be 49 86 23 3d
       0.12899877 -0.038014885 -0.1388145 0.039922986
000050 fc 2f c6 bd d6 68 11 bd ae 04 7e 3b 67 5f a8 3c
       -0.09677121 -0.03550037 0.0038760114 0.020553304
000060 dc de a8 3d fe c9 eb 3c d8 72 6f 3c 15 d1 e7 3c
       0.08245632 0.02878284 0.014614783 0.02829794
000070 43 40 3f bd cc 70 53 bd 5f 52 37 3d 75 66 9d 3d
       -0.046692144 -0.051621243 0.04475629 0.07685558
000080 ce f1 1e be 7c 39 18 be 2f ba 4a 3c 39 c0 cd bc
       -0.15521929 -0.14865679 0.012373491 -0.025116073
000090 74 dc 10 3d ec df 82 bd d1 79 c5 bd 20 42 a2 bc
       0.03536649 -0.06390366 -0.09642375 -0.019806921
0000a0 43 0a 6e 3d 25 6b 95 bd 94 fb 09 3c 2e 40 b3 3d
       0.058115255 -0.07295827 0.008421797 0.08752476
0000b0 6f b2 9c bc c2 64 11 3d 1b c7 94 bd 0f 74 85 3c
       -0.019128053 0.03549648 -0.07264539 0.016290693
0000c0 dd d6 03 bd 6a 17 3e bc 5a d7 41 bd 6b 09 e5 bd
       -0.03218733 -0.011602262 -0.047324516 -0.11183437
0000d0 3c 02 2f 3b fd e4 41 be a8 93 59 bd 05 0d 88 3b
       0.0026704213 -0.18935008 -0.05311933 0.0041519427
0000e0 d7 3e 3b 3d 4c e8 03 be 16 3d a3 3d fd 3c 74 bd
       0.045714226 -0.12881583 0.079706356 -0.059628475
0000f0 1e 2a 4d 3d c1 9e cd 3b f0 39 3e be bf fb 23 bd
       0.050088994 0.0062750285 -0.18576789 -0.040035006
000100 f3 8f b8 3b fd cc 1f bd 9e 8a dc bd 7d 90 66 3d
       0.0056323945 -0.03901385 -0.10768627 0.05629014
000110 49 18 86 3d 04 99 bc bc fa a0 03 3e 5d 67 11 bd
       0.06547601 -0.023022182 0.12854376 -0.035498966
000120 ff c2 58 bc f8 58 be bd 50 ad a0 3c 43 1d 5e 3d
       -0.013230084 -0.09294313 0.019613892 0.054227125
000130 75 c5 17 3e 31 41 42 3d 21 25 98 3c ab 20 f8 bd
       0.14821418 0.047425453 0.018572392 -0.12115606
000140 30 5f 1e be b8 f6 9b 3d 36 40 c1 3c 10 35 0f 3c
       -0.15465999 0.07615417 0.023590188 0.008740678
000150 15 bf 17 be ad 09 a2 3d 8d f9 83 3d 1b 0f dd 3c
       -0.14818986 0.07912002 0.064440824 0.026984742
000160 9a b7 1a bd 2c 0b a5 bd ea 3a a4 3d f5 da c4 bd
       -0.037772752 -0.080587715 0.080190495 -0.09612075
000170 0a 52 3b be 92 5a 50 3c c7 5c 14 be dd 93 11 be
       -0.18293014 0.012716906 -0.14488517 -0.14216562
000180 cc 39 2b 3d b7 71 a1 bd d1 cd da bd df 6a 92 bd
       0.041803166 -0.078830175 -0.106837876 -0.0714929
000190 98 af 32 3d c7 bc f8 bb 63 99 45 3c 7e df 41 3d
       0.04362449 -0.0075908634 0.012060496 0.04733228
0001a0 c7 34 80 3d b5 24 03 be 41 49 32 be 7a 34 a7 3b
       0.062600665 -0.12806971 -0.17410757 0.0051026912
0001b0 d3 f4 d6 3d ed ca f7 bc a5 aa 21 3d 30 25 f2 3c
       0.10495915 -0.03024813 0.03946938 0.029558748
0001c0 25 a5 36 bd 25 6a 33 3d e0 13 c7 3c a0 7f 9b 3d
       -0.044591088 0.0438024 0.02430147 0.07592702
0001d0 56 85 a8 3d e4 21 b9 bc 10 5d 72 bc 84 37 b7 bd
       0.08228557 -0.022599168 -0.014792696 -0.08946136
0001e0 92 30 26 be 4a 59 cd bd bd 6f 9e bc 91 e6 af bd
       -0.16229466 -0.10026796 -0.01934039 -0.08588899
0001f0 8d 76 90 3c 92 7e 29 bd 70 b7 b8 bc da 14 e1 bd
       0.017634654 -0.041380472 -0.022548407 -0.10990305
000200 75 72 b8 bd fd 25 1a bd 0f c3 15 bd e9 5c 5f 3c
       -0.09006206 -0.037633885 -0.036562975 0.013632991
000210 24 d1 fe bd 08 84 00 3e 73 28 35 be 64 49 d9 bd
       -0.12442234 0.12550366 -0.17691211 -0.10609701
000220 e6 95 b2 bd 6b 91 86 bd 63 e5 9a bc 93 f5 da bd
       -0.08719997 -0.06570705 -0.018908208 -0.10691371
000230 1c 9a 5f 3d 09 6b b4 3c 92 1b 96 3d 39 f9 2c bd
       0.05459033 0.022023695 0.07329477 -0.042229865
000240 e7 f5 87 3d c2 b6 46 bc f7 a4 86 bd 54 b6 8d bd
       0.06638699 -0.012128534 -0.06574433 -0.06919542
000250 ee 49 3b 3d 0c e2 01 be e8 73 26 be 0c e6 b6 3d
       0.0457248 -0.12683886 -0.16255152 0.08930597
000260 45 26 5c b9 ab 1b 90 3d 52 05 a7 3d e6 b7 0c 3e
       -0.00020995091 0.07036527 0.08155312 0.13742027
000270 8f 32 b7 3c c6 2b ab bd 8f d4 51 bd 2e e1 cd 3c
       0.022362975 -0.083579585 -0.051228102 0.025131788
000280 26 32 1b 3d 40 35 d3 bd 91 ef bc bd 02 02 ce bb
       0.037889622 -0.10312891 -0.09225381 -0.0062868604
000290 f8 6c e7 3b e5 9d 64 bb 77 c5 25 bb 43 a4 c1 3d
       0.0070625506 -0.0034884152 -0.00252947 0.094551586
0002a0 eb 8c a3 bd 70 e2 1c 3d eb 1d 8a 3d 1a 4c d4 bc
       -0.07985862 0.038301885 0.06743988 -0.025915194
0002b0 93 43 b8 3d 70 40 ce bd 48 18 fc bd 93 fd 05 3d
       0.08997264 -0.10070884 -0.12309319 0.03271253
0002c0 8e d5 d8 bd 78 0f d9 bd 52 cb d5 3d ba 09 8c 3c
       -0.10587607 -0.105986536 0.10439171 0.017094482
0002d0 f1 90 ec bd 21 5a d5 bc 8f 00 e3 3d f4 48 82 bc
       -0.11551083 -0.026043953 0.11084091 -0.015903927
0002e0 f3 a8 60 3c 96 92 bf 3d d0 14 8e 3d 2d 04 9d 3d
       0.013712156 0.09354131 0.069375634 0.07666812
0002f0 d7 20 9a bd a2 98 23 be bc c2 9a bd 91 6a 17 be
       -0.07525795 -0.15976194 -0.07556674 -0.14786746
000300 b5 62 ae 3c 17 52 64 bd 84 c8 00 bd 62 3f 8a 3d
       0.021287302 -0.05574235 -0.031441227 0.067503706
000310 86 4b 48 bd dc 4c 19 bd 19 41 1b bd e7 84 3d bd
       -0.04890015 -0.037426814 -0.03790388 -0.046269324
000320 8d c6 aa bc 4b a8 a4 3d 5d a8 52 3d 08 68 a9 bd
       -0.02084663 0.08039912 0.051430095 -0.082717955
000330 86 05 f2 3d 72 11 ae 3d e8 5e 7d 3d 59 09 ad 3d
       0.1181746 0.08499421 0.061858088 0.084490485
000340 eb a1 6b bd 71 d6 49 bc 85 eb 99 bb 26 de 50 be
       -0.057527464 -0.012319193 -0.0046972656 -0.20397243
000350 af bf 21 be 60 61 01 be 79 03 21 bd b8 b7 e6 bd
       -0.15795778 -0.12634802 -0.039309952 -0.1126551
000360 86 1b 17 3d 95 95 1b 3e 42 52 a8 3b 27 fe f9 3d
       0.036891483 0.1519378 0.005136759 0.12206679
000370 24 6f ea bd 93 8e 2e 3d ad 00 47 3d 2a 78 04 3d
       -0.1144698 0.042616438 0.04858463 0.03234116
000380 06 09 1d be af 3a 98 3d 81 b7 f2 3b 3b 8b e1 bb
       -0.15335473 0.07433068 0.0074071293 -0.0068830526
000390 d3 b1 27 bd cd 11 2a 3e bd ce 96 bd f0 03 91 bc
       -0.04094107 0.16608353 -0.07363651 -0.017702073
0003a0 14 d5 2c bc b8 55 89 3b c8 45 01 be 57 5f 8e bb
       -0.010548849 0.0041911267 -0.12624276 -0.0043448615
0003b0 1c 17 de 3c 9f ad 53 3d 54 9b b1 3c b4 9f 1a be
       0.027110629 0.05167925 0.021680512 -0.15099984
0003c0 f9 75 a9 3b c6 ef 6d bd 22 c1 1a 3d 83 c1 b4 3d
       0.005171534 -0.058089994 0.037781842 0.08825972
0003d0 80 3a a4 bd 25 fe 65 bd f8 cc 85 bd 34 7d 04 be
       -0.080189705 -0.056150574 -0.06533235 -0.12938386
0003e0 9e 76 9e 3d b1 b7 5c bc fc 3a dc bd 51 41 c9 bd
       0.07737468 -0.01347153 -0.10753438 -0.09826911
0003f0 9b 5c 3a be b4 51 1b bd 95 7c 10 be 7b d5 bc 3d
       -0.18199389 -0.037919715 -0.14110024 0.09220406

network.8.bias f4 [32]
000000 e1 fa a9 38 81 83 6a b8 1f 7e 41 b9 71 81 36 37
       8.105278e-05 -5.591242e-05 -0.00018452898 1.0878183e-05
000010 a2 de 37 b7 26 e7 90 38 97 55 6c b8 cf 04 9c 38
       -1.0959486e-05 6.90951e-05 -5.6346496e-05 7.439555e-05
000020 a5 cc 4f b9 33 2f df 38 7d d1 8e 37 8e dc b1 36
       -0.00019817294 0.0001064226 1.702527e-05 5.300687e-06
000030 0e 8d ad b8 55 5d 06 36 f5 ff 54 38 5a 13 db 36
       -8.275556e-05 2.0021882e-06 5.0783117e-05 6.5289614e-06
000040 fb d9 0f 38 e8 68 95 38 e9 d7 a6 b9 2c 6d e8 b5
       3.4296867e-05 7.124414e-05 -0.00031822853 -1.731712e-06
000050 97 0d 1c 37 a2 e5 ed 38 79 8f f8 37 27 37 03 b6
       9.301489e-06 0.00011343813 2.9630713e-05 -1.9552624e-06
000060 f1 cb 26 37 e2 34 66 37 3a 66 64 b8 1d 1a a2 36
       9.941855e-06 1.3721381e-05 -5.4454642e-05 4.831016e-06
000070 d2 c1 bd b8 65 b8 81 b7 9f d9 ef 36 bb 6e e2 b8
       -9.048324e-05 -1.5463864e-05 7.1480895e-06 -0.00010797145

network.9.weight f4 [32]
000000 d4 d4 a4 3f 1d 7d a7 3f 98 fb a0 3f 34 49 a3 3f
       1.287745 1.3085057 1.257678 1.2756715
000010 9e 88 a1 3f ea b0 a4 3f 77 22 a2 3f 84 bd a6 3f
       1.2619817 1.286649 1.2666768 1.3026586
000020 d4 da a5 3f e6 2c a3 3f 40 99 a4 3f fb 67 aa 3f
       1.2957406 1.2748077 1.2859268 1.3312982
000030 e5 23 74 3f 85 ed 66 3f 6a 49 a6 3f d7 db a2 3f
       0.9536727 0.90206176 1.2991154 1.272334
000040 dd 1a aa 3f e0 b0 a3 3f 3c 2f a1 3f 86 dd 62 3f
       1.3289448 1.2788353 1.259254 0.8861927
000050 65 10 6c 3f 57 64 a1 3f 13 34 a8 3f 52 ee 85 3f
       0.92212516 1.2608746 1.3140892 1.0463355
000060 a5 88 a2 3f be 75 8e 3f eb 08 a4 3f 41 9a 93 3f
       1.2697951 1.1129682 1.2815222 1.153145
000070 2d 2c a2 3f 14 e1 77 3f c9 d3 a6 3f ec 88 aa 3f
       1.2669731 0.96827817 1.3033382 1.3323035

network.9.bias f4 [32]
000000 f1 a0 97 3e c5 07 aa 3e cc 66 93 3e 2a 03 97 3e
       0.29614976 0.33209053 0.28789365 0.294946
000010 94 00 8e 3e 10 88 96 3e 2e 68 95 3e b2 db a1 3e
       0.27734816 0.29400682 0.29181045 0.31612927
000020 8a bc a4 3e 88 92 94 3e 5b b7 9c 3e ef 4a b0 3e
       0.32175094 0.29018044 0.3060864 0.3443217
000030 dd b3 36 bd 2a 2f c9 bd d8 7f a6 3e e6 82 97 3e
       -0.044605125 -0.09823449 0.32519412 0.29592055
000040 28 5c b3 3e e2 c7 95 3e 34 4a 8d 3e e3 bb eb bd
       0.35031247 0.2925406 0.27595675 -0.11510446
000050 e1 bc 96 bd b4 42 8e 3e 86 94 a8 3e fe 9f 38 3d
       -0.073602445 0.27785265 0.32925814 0.045074455
000060 54 d4 93 3e 2f e0 e9 3d 55 9a 96 3e bf 4e 20 3e
       0.2887293 0.11419713 0.2941462 0.15655039
000070 97 aa 8d 3e ed b2 fa bc c9 8b a9 3e 67 48 ac 3e
       0.27669212 -0.030602897 0.3311446 0.3364899
