results/bandwidth_predictor/run_20250307_100208/MLP_best.pth (torch, 62444 bytes, 19 tensors)

network.0.weight f4 [128, 18]
-0.09421209 0.11256737 0.22582072 -0.13932967 0.1482686 -0.1323541 0.21387006 -0.025918692
-0.14042051 0.107847095 -0.20761952 -0.21832302 0.17253728 -0.118014045 -0.17923547 -0.091853656
-0.035946574 -0.18146296 -0.10982345 -0.2061332 -0.0025239468 -0.21606815 0.076664336 0.24496901
-0.21244103 0.22005732 -0.18093035 -0.12408418 0.1734034 0.24495514 -0.09624151 -0.12147652
-0.14027293 -0.22299355 0.021331908 -0.037449814 -0.13989238 -0.15752591 0.116417065 0.23622699
0.18817236 0.19623746 -0.22429746 0.04877529 -0.1670362 -0.23035021 0.15093865 -0.03502196
0.14282155 -0.12517904 -0.09015251 0.25989944 -0.14836587 0.04406445 -0.18018475 -0.13110843
-0.17146465 -0.14115429 0.13099147 0.0032123555 -0.20673144 0.004391443 -0.09435505 0.002190396
0.20445253 -0.13605772 -0.11215395 -0.083499976 0.17283037 -0.19844979 -0.15357967 0.14053224
-0.0060811443 0.0642826 -0.09972975 -0.015145945 -0.19873121 0.1815953 -0.17978585 0.08811783
0.19387962 -0.07245558 0.16293657 0.20184682 0.19209105 0.045618657 -0.1439022 0.1707771
0.045644626 -0.045240376 0.13378777 -0.1054762 0.10535715 0.013882929 0.21802734 -0.12726794
0.038422342 -0.15914832 -0.15588552 -0.095375635 -0.07921584 -0.10722042 -0.029958572 -0.04605908
0.018995963 0.15650871 0.093282975 0.08225001 0.052348215 0.17917028 -0.095825806 0.10931082
-0.1933205 -0.064299315 0.18609507 -0.103715256 -0.17668456 0.064565904 -0.09776679 -0.1577086
0.21400583 -0.23985896 -0.087513976 -0.042413663 -0.0176355 -0.14708783 -0.10211417 -0.20377691
0.02250359 -0.039018188 -0.13910133 -0.13091794 -0.26198563 -0.11490545 0.1757054 -0.043756165
0.1783941 -0.15269324 0.082766555 0.038098313 -0.11508579 -0.1607654 -0.14674811 -0.052581668
-0.052715365 -0.11857869 0.15320408 -0.011072924 0.08414021 0.0050598476 -0.17466559 0.15989514
-0.057423312 -0.16081764 -0.02445919 -0.073433265 -0.18700838 -0.019217435 -0.02491542 -0.29835603
0.0068536503 0.017780818 0.16307528 -0.23692375 -0.23782785 -0.17342642 -0.25769302 -0.013448491
0.043467533 0.11838677 -0.0016227715 0.16787541 0.13238594 0.045970473 0.012394776 0.041323584
0.19100837 0.119560406 0.025076017 0.095912665 0.08143607 0.041881878 0.17237253 -0.1269295
0.06683727 -0.24452315 -0.11677866 -0.21223783 0.1707015 0.13757877 0.0911073 0.20024593
-0.2042476 0.08686837 -0.083856 -0.26148802 -0.03919939 0.06302371 -0.19359285 0.12070031
0.17745589 -0.070647 -0.104758084 -0.1472634 -0.057202388 -0.14386353 0.16235189 -0.16029346
-0.023952028 0.026422597 -0.10819195 -0.024754759 -0.26640087 0.016920479 -0.05945773 0.2573424
0.2351487 -0.22071306 -0.09433847 -0.06129888 -0.09751776 -0.18836404 -0.012822632 -0.109915026
-0.040772986 -0.17812559 -0.060830574 0.094117634 -0.21501148 0.10783174 -0.0029288924 0.05907613
0.010074515 0.041075274 0.037829373 -0.05862366 0.031108959 -0.13086188 0.0549864 0.056547277
-0.09876564 -0.13671485 -0.23865776 0.026120625 -0.080557674 -0.14925951 0.061459854 -0.1934807
0.2465936 -0.098993026 -0.03307545 -0.061957594 0.22059494 -0.013738588 0.21090357 -0.24924326
00000000: 45f2 c0bd b989 e63d 8c3d 673e 70ac 0ebe
00000010: b9d3 173e d587 07be c100 5b3e 7053 d4bc
00000020: 65ca 0fbe f0de dc3d 369a 54be 1290 5fbe
00000030: 9dad 303e 59b1 f1bd 8189 37be c51d bcbd
00000040: b73c 13bd 6dd1 39be 1eeb e0bd 9514 53be
00000050: cd68 25bb f840 5dbe 3102 9d3d 28d9 7a3e
00000060: 248a 59be b556 613e ce45 39be d91f febd
00000070: a990 313e 85d5 7a3e 451a c5bd afc8 f8bd
00000080: b5a3 0fbe 6c58 64be 41c0 ae3c fa64 19bd
00000090: f33f 0fbe 794e 21be 126c ee3d 7de5 713e
000000a0: 41b0 403e 79f2 483e 3cae 65be 99c8 473d
000000b0: 8a0b 2bbe ede0 6bbe a98f 1a3e 3073 0fbd
000000c0: d03f 123e ef2e 00be e1a1 b8bd 8a11 853e
000000d0: 39ed 17be ed7c 343d 5a82 38be 4a41 06be
000000e0: 6e94 2fbe c08a 10be a122 063e 6286 523b
000000f0: 68b1 53be 18e6 8f3b 383d c1bd bf8c 0f3b
00000100: 015c 513e b752 0bbe f8b0 e5bd 0902 abbd
00000110: 72fa 303e 6c36 4bbe fd43 1dbe afe7 0f3e
00000120: 5644 c7bb 99a6 833d 1c3f ccbd b326 78bc
00000130: 3280 4bbe 1ef4 393e c819 38be 1f77 b43d
00000140: 6188 463e 9763 94bd d8d8 263e efb0 4e3e
00000150: 84b3 443e a1da 3a3d 195b 13be 31e0 2e3e
00000160: dcf5 3a3d f94d 39bd a9ff 083e e803 d8bd
00000170: 7dc5 d73d 3a75 633c 8f42 5f3e 8752 02be
00000180: bf60 1d3d c7f7 22be 74a0 1fbe 4d54 c3bd
00000190: ea3b a2bd 6196 dbbd ae6b f5bc 72a8 3cbd
000001a0: 6c9d 9b3c d243 203e 250b bf3d b172 a83d
000001b0: 156b 563d 6a78 373e 5240 c4bd 5ade df3d
000001c0: cff5 45be 5caf 83bd b58f 3e3e aa68 d4bd
000001d0: ccec 34be 213b 843d f439 c8bd 5d7e 21be
000001e0: 5824 5b3e 969d 75be 873a b3bd f3b9 2dbd
000001f0: 5378 90bc 319e 16be 3c21 d1bd e5aa 50be
00000200: 7359 b83c 89d1 1fbd 9470 0ebe 5a0f 06be
00000210: fb22 86be 8c53 ebbd 1eec 333e aa39 33bd
00000220: f1ac 363e 9e5b 1cbe 8381 a93d fa0c 1c3d
00000230: 19b2 ebbd af9f 24be 2345 16be e05f 57bd
00000240: 11ec 57bd 62d9 f2bd 88e1 1c3e 366b 35bc
00000250: b451 ac3d 14cd a53b 89db 32be 8dbb 233e
00000260: b534 6bbd 61ad 24be a45e c8bc 2e64 96bd
00000270: 207f 3fbe e26d 9dbc 6c1b ccbc 1fc2 98be
00000280: 9694 e03b 14a9 913c 35fd 263e 249c 72be
00000290: 2589 73be b296 31be 57f0 83be 0f57 5cbc
000002a0: 030b 323d c374 f23d 2db3 d4ba 88e7 2b3e
000002b0: 2e90 073e 894b 3c3d 7513 4b3c eb42 293d
000002c0: b397 433e 16dc f43d 386c cd3c dc6d c43d
000002d0: f4c7 a63d 558c 2b3d 6d82 303e cff9 01be
000002e0: fbe1 883d 4764 7abe a629 efbd e054 59be
000002f0: 60cc 2e3e 73e1 0c3e 7796 ba3d 450d 4d3e
00000300: 4826 51be 0be8 b13d b2bc abbd c2e1 85be
00000310: 8a8f 20bd 9312 813d 343d 46be b931 f73d
00000320: ffb6 353e 60af 90bd 688b d6bd 37cc 16be
00000330: 0d4d 6abd f650 13be 933f 263e f823 24be
00000340: 0b37 c4bc 3474 d83c be93 ddbd 7eca cabc
00000350: b265 88be d19c 8a3c f389 73bd 62c2 833e
00000360: d2ca 703e 9b02 62be 8734 c1bd 8914 7bbd
00000370: 64b7 c7bd 81e2 40be 0416 52bc 211b e1bd
00000380: 9301 27bd 8e66 36be 7b29 79bd bfc0 c03d
00000390: f82b 5cbe e3d6 dc3d a9f2 3fbb d0f9 713d
000003a0: 940f 253c 8c3e 283d f9f2 1a3d 5d1f 70bd
000003b0: 37d8 fe3c a800 06be 6b39 613d 1e9e 673d
000003c0: a445 cabd fafe 0bbe b362 74be ecfa d53c
000003d0: 6cfb a4bd 7cd7 18be 54bd 7b3d ce1f 46be
000003e0: 0883 7c3e dbbc cabd 207a 07bd 3fc7 7dbd
000003f0: a4e3 613e d117 61bc 1bf7 573e a039 7fbe

network.0.bias f4 [128]
4.119355e-06 -1.21335515e-05 -0.0032670423 0.0013315142 0.026044236 -1.7107914e-06 -0.0024251987 0.006581153
2.7913375e-05 0.012160134 -4.8051884e-06 -0.026847305 -0.00076703087 0.00081255124 0.034426812 0.033694226
-0.03235407 0.0007625638 0.0036149062 1.03112525e-05 7.1289505e-05 -0.0028328917 -0.0057542124 -0.01591383
-0.011449958 -0.006474493 -0.003062437 6.836124e-05 -0.012958081 0.002994563 5.84498e-06 0.031931378
-0.0043525845 6.4222145e-06 -0.015997076 0.025651542 2.9781078e-05 -2.3174649e-05 0.0004359061 6.9962202e-06
-1.6371541e-05 -0.0012726322 0.00024247511 -0.03497343 -0.00053572556 -2.066792e-05 -3.543659e-05 -8.497121e-06
-2.8119513e-05 -0.0040103425 0.028806126 -1.4807554e-05 -0.0033882537 -0.00022605962 0.0017290632 -4.2475344e-06
-1.6906659e-05 0.0024467378 -2.6886342e-05 -1.2157427e-05 -1.1047457e-06 5.4293846e-06 0.029698897 0.01230115
-0.0014050273 1.0028063e-05 -0.00030481457 1.8833527e-05 0.024116008 0.015699565 0.022616386 1.1313282e-06
1.7851105e-05 5.846534e-05 3.2542695e-05 -0.012562878 -0.0029924233 0.00413179 1.1593323e-05 0.030907447
0.008318996 -7.5203825e-06 -0.0052393456 0.0059137056 -2.9780892e-06 -2.2960223e-06 -3.8561353e-05 3.162274e-06
-8.320186e-06 9.775093e-06 -0.0042626997 -0.023660785 6.274048e-05 0.0038306094 -3.0319588e-05 0.023550117
2.3153401e-05 0.012051065 -0.0070362478 0.0024301715 -1.4922216e-06 0.022545423 0.013556224 -2.4847883e-05
0.0009239261 -0.023654321 3.2971602e-06 0.005540384 -0.014933969 -0.02554175 0.028967684 -0.025731366
-8.386263e-05 0.011153195 -0.020866387 -8.313408e-05 0.0013018675 -1.0176747e-05 -6.9444155e-05 -0.025492147
3.3376948e-06 -0.008031513 -1.3528035e-05 0.0023019053 -1.1079591e-05 0.022098199 -0.0078015635 -0.031208651
00000000: fd38 8a36 3591 4bb7 e01b 56bb 3486 ae3a
00000010: b95a d53c 589e e5b5 15f0 1ebb b6a6 d73b
00000020: 8427 ea37 4c3b 473c 413c a1b6 e1ee dbbc
00000030: 9212 49ba 6401 553a 2103 0d3d f502 0a3d
00000040: b485 04bd cae6 473a 10e8 6c3b 7efe 2c37
00000050: 4381 9538 09a8 39bb d58d bcbb b85d 82bc
00000060: 9b98 3bbc fc27 d4bb 2bb3 48bb 295d 8f38
00000070: 224e 54bc 6e40 443b ff1f c436 7aca 023d
00000080: 20a0 8ebb 677e d736 4d0c 83bc 2f23 d23c
00000090: 61d2 f937 2e67 c2b7 548a e439 13c1 ea36
000000a0: 9e55 89b7 73ce a6ba eb40 7e39 4d40 0fbd
000000b0: ef6f 0cba 0560 adb7 c0a1 14b8 db8e 0eb7
000000c0: 32e2 ebb7 3169 83bb d3fa eb3c f66d 78b7
000000d0: 770d 5ebb 6b0a 6db9 bca1 e23a 0b86 8eb6
000000e0: c6d2 8db7 7359 203b fb89 e1b7 c0f7 4bb7
000000f0: c646 94b5 0f2e b636 1a4b f33c c38a 493c
00000100: e528 b8ba 343e 2837 85cf 9fb9 b1fc 9d37
00000110: ef8e c53c 609c 803c 0046 b93c 24d8 9735
00000120: f5be 9537 ae38 7538 747e 0838 88d4 4dbc
00000130: 881c 44bb f763 873b f180 4237 9d31 fd3c
00000140: 664c 083c 9857 fcb6 d1ae abbb c2c7 c13b
00000150: 2fdb 47b6 5d15 1ab6 f0bc 21b8 7437 5436
00000160: ed96 0bb7 b4ff 2337 1eae 8bbb 43d4 c1bc
00000170: 8a93 8338 f60a 7b3b d256 feb7 2dec c03c
00000180: 8d39 c237 d571 453c 5390 e6bb 8343 1f3b
00000190: 5848 c8b5 2eb1 b83c ed1a 5e3c 6c70 d0b7
000001a0: a233 723a b5c6 c1bc c844 5d36 1c8c b53b
000001b0: 9bad 74bc ef3c d1bc a34d ed3c 96ca d2bc
000001c0: 68df afb8 e4bb 363c fcef aabc 4558 aeb8
000001d0: 6da3 aa3a ccbc 2ab7 8ca2 91b8 e8d4 d0bc
000001e0: 29fd 5f36 9b96 03bc 78f6 62b7 90db 163b
000001f0: 7be2 39b7 4807 b53c 42a4 ffbb 49a9 ffbc

network.1.weight f4 [128]
0.9739522 1.0051516 1.0094126 0.9793055 0.9844755 0.96994096 0.9951908 0.9656717
1.031976 0.96854067 1.0157909 0.9951893 1.006721 0.9469536 0.9964298 0.9876623
0.9540583 1.0086159 0.9824993 1.0053903 1.0123204 0.9972001 0.9802031 1.0451466
0.99696976 1.0145675 0.97755355 1.0094333 0.98152035 1.0164145 1.0195146 1.0727793
1.0137624 0.97190416 0.99386555 1.0059937 1.031967 1.0303422 0.98311716 0.9433232
1.0650617 1.0085715 1.0056869 0.9708579 0.9855305 0.9994027 1.0024104 0.98666465
0.9643968 0.9978538 0.9860123 1.072174 1.0045787 1.0345683 0.95397127 0.967437
0.9649966 0.9933148 0.9937862 0.97679615 0.97684807 1.0202773 1.029997 1.0285999
0.9898228 0.97842723 0.95966846 0.9935188 1.0288938 1.0110656 0.98371524 0.96731186
0.9994561 0.9887475 1.0194525 0.9788095 1.0056362 0.9804994 1.0127366 0.946228
1.0605255 1.0114137 1.049696 1.0036913 1.0117474 1.0050228 1.0051914 0.976903
1.0325799 1.0025827 0.99070734 1.0056198 1.0124354 1.009396 0.9969284 0.9760081
1.0037494 1.0154399 0.9868669 0.9942844 0.99992436 1.0042495 0.9785749 1.0087743
1.005234 0.9781085 1.0230635 0.9922059 0.9891987 0.9586746 0.96562785 1.0503224
0.98343277 1.0217192 0.9749371 0.99438226 1.0535343 0.9796793 0.9829051 0.9906798
0.97704864 1.0761608 1.0436524 1.041975 0.97977865 0.9973881 0.9525462 0.94824994
00000000: ee54 793f cfa8 803f 6f34 813f c4b3 7a3f
00000010: 9606 7c3f 0d4e 783f d3c4 7e3f 4336 773f
00000020: ca17 843f 48f2 773f 7005 823f bac4 7e3f
00000030: 3cdc 803f 8d6b 723f 0616 7f3f 70d7 7c3f
00000040: 2a3d 743f 531a 813f 1385 7b3f a1b0 803f
00000050: b793 813f 8148 7f3f 97ee 7a3f 5dc7 853f
00000060: 6939 7f3f 59dd 813f f340 7a3f 1c35 813f
00000070: eb44 7b3f df19 823f 747f 823f d550 893f
00000080: f7c2 813f b6ce 783f f96d 7e3f 67c4 803f
00000090: 7f17 843f 41e2 833f 91ad 7b3f a17d 713f
000000a0: f153 883f df18 813f 59ba 803f 258a 783f
000000b0: ba4b 7c3f dbd8 7f3f fc4e 803f 0e96 7c3f
000000c0: b5e2 763f 5973 7f3f 4d6b 7c3f ff3c 893f
000000d0: 0996 803f bc6c 843f 7637 743f f4a9 773f
000000e0: 040a 773f e149 7e3f c668 7e3f 500f 7a3f
000000f0: b712 7a3f 7298 823f f1d6 833f 29a9 833f
00000100: 0765 7d3f 357a 7a3f d5ac 753f 4057 7e3f
00000110: cbb2 833f 996a 813f c3d4 7b3f c0a1 773f
00000120: 5bdc 7f3f 8e1e 7d3f 6b7d 823f 4293 7a3f
00000130: b0b8 803f 0202 7b3f 5aa1 813f 003c 723f
00000140: 4dbf 873f 0176 813f 705c 863f f578 803f
00000150: f080 813f 96a4 803f 1daa 803f 5116 7a3f
00000160: 942b 843f a154 803f ff9e 7d3f 26b8 803f
00000170: 7c97 813f e333 813f b336 7f3f abdb 793f
00000180: dc7a 803f eff9 813f 4fa3 7c3f 6c89 7e3f
00000190: 0bfb 7f3f 3f8b 803f e283 7a3f 841f 813f
000001a0: 82ab 803f 5265 7a3f bff3 823f 3501 7e3f
000001b0: 203c 7d3f b36b 753f 6333 773f f770 863f
000001c0: 40c2 7b3f b2c7 823f 7a95 793f d68f 7e3f
000001d0: 36da 863f 43cc 7a3f ab9f 7b3f 319d 7d3f
000001e0: dc1f 7a3f a3bf 893f 6796 853f 705f 853f
000001f0: c6d2 7a3f d454 7f3f 11da 733f 82c0 723f

network.1.bias f4 [128]
-0.002324711 -0.019158231 0.0015118915 -0.022411477 -0.005506414 -0.011728981 0.03078793 -0.028282233
0.011366634 0.006877511 0.02710728 0.008273801 -0.009453747 -0.017842758 0.0061608157 0.023370164
-0.043460973 0.019742914 0.015842779 0.036617473 0.017370187 -0.00022652032 -0.033398 0.040752586
0.008389341 0.0320673 0.019863999 0.029503897 -0.010452245 0.0057101687 0.039074603 0.023937123
-0.008745799 -0.019150002 -0.009336209 0.026814353 0.0038741196 0.025427848 0.0017925004 -0.03299897
0.044105567 0.02527617 0.007426928 -0.0018676502 0.0169444 0.013428422 -0.0127470065 -0.030621203
-0.017296715 -0.0003291285 -0.013797668 0.08128068 -0.02247766 0.03151877 -0.01202434 -0.067119144
-0.049628135 -0.008072706 0.018445361 0.0018961438 8.475454e-05 0.018668259 0.03821246 0.04453768
-0.005606778 -0.023337912 -0.048784245 -0.013970809 0.006861184 0.019252578 0.01737352 0.0070641325
-0.018912284 -0.013820243 0.010296782 -0.021301433 0.020544851 -0.018016033 -0.0027664194 -0.03297042
0.038203467 0.05641857 0.016275411 0.006848393 0.028338049 0.030082904 0.027750077 -0.033129998
0.046024863 -0.0016566103 0.007929881 -0.00038251388 0.009869146 0.0030041619 0.005159048 -0.03295612
0.015007302 0.0030955432 -0.026439952 0.009446856 -0.028358297 0.0036679758 -0.010314267 0.008447725
0.015990352 -0.025726467 0.04946757 0.03895647 -0.00029756382 -0.011745522 -0.016590837 0.03570338
0.0045848317 0.028639104 -0.0063762576 0.0077816998 0.071023144 0.0026846465 0.011707281 -0.011097609
-0.008119064 0.06999 0.051887523 0.039286748 -0.0016870511 0.024474895 -0.037782874 -0.05414324
00000000: 2e5a 18bb b9f1 9cbc a92a c63a 4698 b7bc
00000010: 266f b4bb e92a 40bc f836 fc3c 24b0 e7bc
00000020: 1e3b 3a3c be5c e13b 1610 de3c d68e 073c
00000030: e4e3 1abc fa2a 92bc abe0 c93b c972 bf3c
00000040: 2204 32bd e4bb a13c b7c8 813c 34fc 153d
00000050: ec4b 8e3c 1686 6db9 57cc 08bd 2fec 263d
00000060: 7273 093c 0059 033d d3b9 a23c 28b2 f13c
00000070: e53f 2bbc 5e1c bb3b b10c 203d c917 c43c
00000080: 8a4a 0fbc 77e0 9cbc e6f6 18bc c6a9 db3c
00000090: f1e4 7d3b 104e d03c 55f2 ea3a ee29 07bd
000000a0: 0aa8 343d f80f cf3c 965d f33b f1cb f4ba
000000b0: fbce 8a3c e202 5c3c d2d8 50bc 51d9 fabc
000000c0: d7b1 8dbc e18e acb9 9d0f 62bc 7c76 a63d
000000d0: 1223 b8bc d319 013d bd01 45bc c375 89bd
000000e0: df46 4bbd 6243 04bc ba1a 973c 0788 f83a
000000f0: 3fbe b138 2dee 983c ab84 1c3d 246d 363d
00000100: 10b9 b7bb 262f bfbc fdd1 47bd d2e5 64bc
00000110: c8d3 e03b 95b7 9d3c ea52 8e3c 3d7a e73b
00000120: efed 9abc 4d6e 62bc d5b3 283c 5880 aebc
00000130: ad4d a83c 5c96 93bc d14c 35bb fe0b 07bd
00000140: 3d7b 1c3d 2917 673d 0354 853c 7c68 e03b
00000150: 3225 e83c 6c70 f63c 2154 e33c 52b3 07bd
00000160: 9184 3c3d 9e22 d9ba 55ec 013c 258c c8b9
00000170: 33b2 213c 79e1 443b 3b0d a93b fffc 06bd
00000180: 30e1 753c 99de 4a3b 9998 d8bc fcc6 1a3c
00000190: a94f e8bc 6c62 703b 2cfd 28bc 5468 0a3c
000001a0: 33fe 823c 50c0 d2bc 829e 4a3d d290 1f3d
000001b0: 5702 9cb9 4a70 40bc 82e9 87bc b53d 123d
000001c0: 5b3c 963b 8e9c ea3c edef d0bb a1fd fe3b
000001d0: 9574 913d e5f0 2f3b e5cf 3f3c bfd2 35bc
000001e0: d305 05bc eb56 8f3d 0388 543d 24eb 203d
000001f0: 0b20 ddba 937f c83c 37c2 1abd 4dc5 5dbd

network.1.running_mean f4 [128]
-0.018753847 -0.025387404 -0.020906774 -0.033384327 0.08068119 -0.015528888 0.026325025 -0.0066499375
-0.08958487 0.08013416 -0.010457097 -0.047557257 -0.010959632 0.02300596 0.07158287 0.0903826
-0.021985611 0.020640297 -0.008598776 -0.0007918802 0.0023098048 0.004838128 -0.0002777084 -0.051153265
-0.047527492 -0.0029580898 0.013627112 0.013477768 -0.0008550555 0.023131479 -0.092834815 -0.035534803
-0.018446952 -0.006424576 -0.07159567 0.03740022 0.0059302207 0.0023400302 -0.044909377 -0.022555022
-0.08616404 0.0052307686 0.008041152 -0.054594375 0.05097912 0.049241845 0.06761716 0.08329638
-0.018470623 -0.030992271 0.09786146 -0.042037804 -0.08452511 -0.019943126 0.014574396 0.05462174
-0.017424855 -0.008835753 -0.04338118 0.07793507 -0.030225761 0.03230024 0.06511014 -0.03664982
0.04798678 0.008903752 0.04815109 -0.013198079 0.06649203 0.075664274 0.08415223 -0.026265591
-0.018712968 -0.018127888 0.047728132 0.017293291 -0.01518247 -0.024022212 0.09062445 -0.036340278
-0.029784326 0.032716826 -0.035183433 -0.0044094464 0.0059087174 0.012626346 0.015723413 0.03661557
-0.0077026705 -0.02219629 -0.017424861 -0.010956497 -0.019599924 -0.006421047 0.052199144 -0.031438045
-0.014918978 0.0679484 -0.011585318 0.03717415 -0.026123961 0.06493964 0.009818409 -0.10158415
-0.0047965497 -0.080547884 0.029499648 0.0059581865 -0.03218318 0.024390893 0.015770124 -0.028451232
0.0054107746 0.055911753 -0.0011199286 0.051652078 -0.0044682804 0.06856263 -0.005611477 -0.05188202
0.02799057 -0.0072024222 -0.03340527 -0.03597494 0.057306338 0.023144115 0.008816337 -0.022586469
00000000: aba1 99bc 3ff9 cfbc af44 abbc 01be 08bd
00000010: 2e3c a53d e16c 7ebc 94a7 d73c b8e7 d9bb
00000020: 4678 b7bd 611d a43d 3e54 2bbc 66cb 42bd
00000030: 0790 33bc ff76 bc3c 0a9a 923d 831a b93d
00000040: 2b1b b4bc d715 a93c e1e1 0cbc 2e96 4fba
00000050: 1860 173b 2989 9e3b 6499 91b9 1686 51bd
00000060: 30ac 42bd 83dc 41bb 4044 5f3c dbd1 5c3c
00000070: ce25 60ba 3a7e bd3c 2e20 bebd f18c 11bd
00000080: 101e 97bc 4085 d2bb c0a0 92bd f930 193d
00000090: 4c52 c23b 315b 193b e5f2 37bd 4fc5 b8bc
000000a0: c676 b0bd de66 ab3b 09bf 033c 5a9e 5fbd
000000b0: 7bcf 503d d1b1 493d de7a 8a3d 4b97 aa3d
000000c0: b44f 97bc 81e3 fdbc 976b c83d d52f 2cbd
000000d0: 801b adbd c45f a3bc 73c9 6e3c 0cbb 5f3d
000000e0: 92be 8ebc d6c3 10bc 77b0 31bd 6c9c 9f3d
000000f0: 049c f7bc 424d 043d 7758 853d 1f1e 16bd
00000100: c98d 443d 0be1 113c 143a 453d c13c 58bc
00000110: f92c 883d dff5 9a3d 0158 ac3d f02a d7bc
00000120: f04b 99bc f080 94bc 937e 433d a9aa 8d3c
00000130: e5bf 78bc 3bca c4bc 5099 b93d 8bd9 14bd
00000140: 42fe f3bc 1402 063d 811c 10bd 1e7d 90bb
00000150: ea9d c13b bcde 4e3c 63ce 803c 35fa 153d
00000160: af66 fcbb fed4 b5bc 95be 8ebc e182 33bc
00000170: 0590 a0bc a567 d2bb c5ce 553d 2ec5 00bd
00000180: bb6e 74bc 8828 8b3d 58d0 3dbc ec43 183d
00000190: eb01 d6bc 13ff 843d 64dd 203c 5a0b d0bd
000001a0: 602c 9dbb 4af6 a4bd 3fa9 f13c e43c c33b
000001b0: 83d2 03bd 69cf c73c 5930 813c 8f12 e9bc
000001c0: de4c b13b b903 653d 91ca 92ba 2191 533d
000001d0: a76a 92bb 906a 8c3d 7be0 b7bb 3e82 54bd
000001e0: 7b4c e53c 4c02 ecbb f7d3 08bd 755a 13bd
000001f0: 0dba 6a3d ba98 bd3c 6672 103c 4207 b9bc

network.1.running_var f4 [128]
0.6280954 0.5601162 0.23213267 0.48419037 0.34584057 0.19730812 0.3497704 1.2895821
0.5130677 0.25600663 0.4805768 1.0988175 0.20348723 0.27050173 0.3853407 0.4750658
0.349776 0.5334585 0.17304586 0.38677862 0.6460355 0.7035652 0.30549762 0.524998
0.50631416 0.20140791 0.5994661 0.17786331 0.2228595 0.09001882 0.28636155 0.4803354
0.34055942 0.8415222 0.6421744 0.28232294 0.11064175 0.2051157 0.43711933 0.5397158
0.43207285 0.22461036 0.1691582 0.27207044 0.13613021 0.15162085 0.15524967 0.57962996
0.37772462 0.23406766 0.8606634 0.19416377 0.3716075 0.34020326 0.18582022 0.20546424
0.2719184 0.4534497 0.43586636 0.4544063 0.22799104 0.44505385 0.14197592 0.40378442
0.5457581 0.369789 1.0304835 0.25724956 0.15840891 0.19595592 0.42046437 0.92210925
0.21493977 0.40294278 0.18839733 0.2436779 0.15112428 0.16578135 0.47794142 0.16558376
0.5445228 0.708665 0.48245433 0.0512666 0.7141257 0.62791854 0.3670304 0.2502274
0.11874657 0.2517434 0.1579414 0.1492487 0.033399228 0.60302216 0.14070699 0.22095637
0.23187806 0.48914477 0.15567376 0.37035012 0.2550529 0.44047418 0.09227116 0.5326247
0.14316067 0.44572714 0.6433065 0.22198273 0.26552162 0.76070815 0.18796696 0.19316348
0.2871601 0.33705476 0.15175728 0.23198515 0.64393306 0.34795594 0.112168096 0.3671371
0.16629627 0.40526643 0.18244864 0.48923644 0.3086491 0.83786947 0.13773248 0.15519345
00000000: dcca 203f c663 0f3f 30b4 6d3e cde7 f73e
00000010: 0412 b13e 240b 4a3e 1b15 b33e 0711 a53f
00000020: 6858 033f 4d13 833e 2a0e f63e 0da6 8c3f
00000030: f55e 503e 347f 8a3e 604b c53e d33b f33e
00000040: d715 b33e bc90 083f ef32 313e d907 c63e
00000050: 9562 253f d91c 343f 2f6a 9c3e 4566 063f
00000060: ce9d 013f e03d 4e3e 9c76 193f cd21 363e
00000070: 4835 643e c95b b83d fb9d 923e 86ee f53e
00000080: ce5d ae3e 006e 573f 8b65 243f a28c 903e
00000090: 2498 e23d da09 523e 1bce df3e d12a 0a3f
000000a0: a738 dd3e 4200 663e cf37 2d3e d14c 8b3e
000000b0: b865 0b3e 7f42 1b3e c5f9 1e3e a162 143f
000000c0: 1f65 c13e 6faf 6f3e 7054 5c3f ded2 463e
000000d0: 5743 be3e 1f2f ae3e a847 3e3e 3865 523e
000000e0: e338 8b3e 8f2a e83e e029 df3e f1a7 e83e
000000f0: 7c76 693e 19de e33e 2362 113e d5bc ce3e
00000100: ceb6 0b3f fc54 bd3e e2e6 833f 37b6 833e
00000110: f235 223e aba8 483e 1b47 d73e 5a0f 6c3f
00000120: 2c19 5c3e 844e ce3e 3beb 403e b386 793e
00000130: 53c0 1a3e 96c2 293e bdb4 f43e ca8e 293e
00000140: d965 0b3f 126b 353f 4104 f73e edfc 513d
00000150: f1d0 363f 45bf 203f 69eb bb3e ce1d 803e
00000160: 6731 f33d 83e4 803e 64bb 213e a7d4 183e
00000170: a1cd 083d a95f 1a3f 7e15 103e 6342 623e
00000180: 7171 6d3e 2f71 fa3e f168 1f3e 889e bd3e
00000190: 4b96 823e d585 e13e a9f8 bc3d 185a 083f
000001a0: b698 123e 5936 e43e bcaf 243f 714f 633e
000001b0: 73f2 873e c5bd 423f 697a 403e a6cc 453e
000001c0: a606 933e 7192 ac3e 4366 1b3e 848d 6d3e
000001d0: ccd8 243f 4827 b23e 63b8 e53d 65f9 bb3e
000001e0: 9249 2a3e 157f cf3e d1d3 3a3e 337d fa3e
000001f0: 4107 9e3e 9d7e 563f be09 0d3e 08eb 1e3e

network.4.weight f4 [64, 128]
0.051961403 -0.07535764 -0.052484214 0.076019295 -0.049944352 0.018712828 0.033074018 0.095881075
0.1181121 -0.004373881 0.009194897 0.06618671 -0.045988448 0.015402752 -0.029154707 -0.063500576
-0.083859675 0.005337153 0.0056945737 0.0081167435 -0.002780666 -0.035347536 -0.09419799 -0.0834211
-0.07794138 0.05934537 0.07715085 -0.084679514 -0.07418576 -0.084674306 0.01674665 0.094223924
0.048026945 -0.0086724255 0.014632681 0.049548984 -0.02326222 -0.069572896 -0.06727023 0.0558462
0.08211222 -0.095305935 0.07538993 0.05871289 0.045297746 0.06292553 -0.07521457 0.056496568
-0.06433012 0.049974423 0.034058157 0.08509341 0.026568616 -0.029542355 0.011630197 0.042141747
-0.03387053 0.10766734 -0.02360263 -0.02401927 0.020654486 -0.08999497 -0.0853795 -0.057550784
-0.03866367 0.025878854 -0.02011306 -0.021656457 0.057794012 -0.066906296 -0.045634355 -0.05223607
0.0081307255 -0.018921826 -0.07105154 -0.04650359 0.025603421 -0.06251906 -0.0045996252 0.0066691563
0.02344718 -0.033282187 -0.03790403 -0.08581558 0.034296554 0.026952319 0.038030826 -0.073504075
0.017821614 -0.012619878 0.032097913 -0.10550144 0.003470398 0.06895916 -0.08010829 -0.082805246
-0.09499137 -0.022915855 0.009192618 0.010208969 -0.018965827 0.05902287 -0.021082046 0.08867413
-0.026252361 -0.086592 0.06953477 0.025138924 0.020730125 -0.08090331 0.05461473 0.0991107
-0.0074314782 0.033594895 -0.06176143 -0.029004246 0.093856655 0.05550599 -0.045575846 0.0755185
0.06969238 0.12898488 -0.05877984 0.036208358 -0.010627414 0.0072210087 0.024273051 0.0504795
0.019677164 -0.033762272 0.026160369 0.015921758 0.06593349 -0.08380765 -0.11079218 0.067335956
-0.06483927 0.032739885 0.018293379 -0.011479534 -0.0880729 -0.0850874 0.07931644 -0.066914715
0.016068917 0.08718773 -0.02877728 -0.05506052 -0.06382362 -0.024920048 0.078230426 0.025926616
0.04632204 -0.012527675 -0.061771344 0.012237789 0.075628914 -0.02524577 0.015923316 -0.059461474
0.0208328 -0.032425147 0.086617425 -0.04459596 0.06641001 0.008791012 0.037667863 0.0032928875
0.03822341 0.069310874 -0.062160835 0.034294207 0.03176134 -0.124562174 -0.022964712 0.013254432
-0.06976284 0.061377335 -0.07536081 -0.016660566 0.03413205 0.0027199492 0.07184467 -0.051134005
0.040660094 0.06838269 0.050736073 -0.07698828 -0.02080184 -0.12052257 0.03680794 -0.046441615
0.050041635 0.023412308 -0.045536894 -0.0029868162 -0.01678067 0.07634961 0.04971825 -0.03197536
0.06025883 -0.016158996 0.016152222 0.06318004 0.038650632 0.027877353 0.021368498 0.03801081
-0.11614046 0.043189757 -0.062581174 -0.089388564 -0.07873177 -0.006238009 -0.03128749 -0.04233211
-0.044006575 0.08204379 0.0014561068 -0.049384467 -0.03410904 -0.07140053 0.034070127 0.07252627
-0.06313909 0.007600416 -0.012961051 -0.0888192 -0.09625223 -0.020544637 0.08222303 -0.070932925
0.005962985 -0.045613017 -0.0048661577 -0.018040232 0.0866129 0.02027979 0.036054384 -0.009064576
0.071652226 -0.04250517 -0.040413726 0.07761854 0.089087576 -0.023247546 0.06648878 0.035009585
0.067702 -0.04919262 0.0065001585 -0.008384021 0.06541957 -0.06344339 0.048386656 0.071344934
00000000: 7bd5 543d 1b55 9abd b0f9 56bd 01b0 9b3d
00000010: 7392 4cbd a54b 993c 9f78 073d 4c5d c43d
00000020: c2e4 f13d c652 8fbb 31a6 163c e68c 873d
00000030: 625e 3cbd d35b 7c3c dad5 eebc 970c 82bd
00000040: 9fbe abbd 49e3 ae3b 8c99 ba3b 17fc 043c
00000050: d63b 36bb 94c8 10bd e0ea c0bd afd8 aabd
00000060: bb9f 9fbd 2114 733d 4401 9e3d 746c adbd
00000070: b4ee 97bd b969 adbd 4530 893c 79f8 c03d
00000080: e7b7 443d ca16 0ebc eabd 6f3c e0f3 4a3d
00000090: 6990 bebc 3c7c 8ebd f9c4 89bd fcbe 643d
000000a0: 742a a83d c22f c3bd 0966 9a3d ed7c 703d
000000b0: 218a 393d 1adf 803d 190a 9abd f268 673d
000000c0: 83bf 83bd fbb1 4c3d 9180 0b3d 7445 ae3d
000000d0: 6da6 d93c cf02 f2bc 958c 3e3c d39c 2c3d
000000e0: d3bb 0abd b280 dc3d 4d5a c1bc 0fc4 c4bc
000000f0: 9933 a93c 484f b8bd 73db aebd 5fba 6bbd
00000100: cc5d 1ebd e4ff d33c 25c4 a4bc e268 b1bc
00000110: 6ab9 6c3d 2b06 89bd 17eb 3abd 7df5 55bd
00000120: bc36 053c f201 9bbc 7883 91bd 8c7a 3ebd
00000130: 44be d13c fe09 80bd 74b8 96bb f088 da3b
00000140: 4d14 c03c e752 08bd 4241 1bbd 14c0 afbd
00000150: 8b7a 0c3d 1ccb dc3c 36c6 1b3d 4e89 96bd
00000160: a2fe 913c 9bc3 4ebc 1a79 033d 2411 d8bd
00000170: 9e6f 633b 763a 8d3d d10f a4bd cc95 a9bd
00000180: d68a c2bd 08ba bbbc a29c 163c 8543 273c
00000190: 395e 9bbc f7c1 713d 41b4 acbc c89a b53d
000001a0: 310f d7bc 2657 b1bd 3f68 8e3d 25f0 cd3c
000001b0: 39d2 a93c a2b0 a5bd b2b3 5f3d 8dfa ca3d
000001c0: c283 f3bb cd9a 093d 8ef9 7cbd 509a edbc
000001d0: eb37 c03d 405a 633d bdad 3abd 71a9 9a3d
000001e0: e1ba 8e3d 9d14 043e 21c3 70bd 374f 143d
000001f0: 9b1e 2ebc 369e ec3b 47d8 c63c 98c3 4e3d
00000200: 0132 a13c 4f4a 0abd 454e d63c 596e 823c
00000210: 2308 873d 58a3 abbd 03e7 e2bd 6fe7 893d
00000220: 74ca 84bd 421a 063d ffdb 953c a814 3cbc
00000230: 915f b4bd 4e42 aebd a870 a23d 950a 89bd
00000240: f6a2 833c 7b8f b23d 55be ebbc 2487 61bd
00000250: f5b5 82bd 2125 ccbc 4637 a03d 0e64 d43c
00000260: 2ebc 3d3d e140 4dbc f303 7dbd 0281 483c
00000270: 55e3 9a3d 38d0 cebc 9d71 823c e08d 73bd
00000280: 8ca9 aa3c 3bd0 04bd 7a64 b13d 41aa 36bd
00000290: f901 883d 2d08 103c 9e49 1a3d 7ccd 573b
000002a0: 2690 1c3d dcf2 8d3d 5c9c 7ebd 1578 0c3d
000002b0: 2e18 023d 741a ffbd 7e20 bcbc 1e29 593c
000002c0: d2df 8ebd cd66 7b3d c556 9abd bd7b 88bc
000002d0: 0cce 0b3d 2d41 323b 4c23 933d e471 51bd
000002e0: 338b 263d 390c 8c3d a1d0 4f3d 08ac 9dbd
000002f0: 9f68 aabc 8ad4 f6bd ecc3 163d 9039 3ebd
00000300: 75f8 4c3d 2bcb bf3c e584 3abd 76be 43bb
00000310: 9e77 89bc 2f5d 9c3d 5da5 4b3d 98f8 02bd
00000320: f7d1 763d df5f 84bc aa51 843c 8964 813d
00000330: 2050 1e3d 0c5f e43c fd0c af3c 39b1 1b3d
00000340: 0ddb edbd bee7 303d 8f2a 80bd 5a11 b7bd
00000350: 1f3e a1bd 3668 ccbb 5027 00bd 6f64 2dbd
00000360: 3d40 34bd 9306 a83d d6da be3a 5e47 4abd
00000370: ecb5 0bbd 713a 92bd 1e8d 0b3d a788 943d
00000380: 114f 81bd e90c f93b 975a 54bc d7e6 b5bd
00000390: e41f c5bd 3a4d a8bc 8c64 a83d 4845 91bd
000003a0: 2565 c33b b7d4 3abd 4a74 9fbb 1cc9 93bc
000003b0: 1b62 b13d cd21 a63c c3ad 133d 9683 14bc
000003c0: 67be 923d e719 2ebd dd88 25bd 78f6 9e3d
000003d0: 8c73 b63d a371 bebc 452b 883d 3666 0f3d
000003e0: 59a7 8a3d 337e 49bd 48ff d43b 225d 09bc
000003f0: b2fa 853d 9cee 81bd 1631 463d 4b1d 923d

network.4.bias f4 [64]
8.626182e-06 2.61618e-06 -1.2253177e-05 -1.3656185e-06 -7.0212204e-06 -2.9017674e-06 8.678656e-06 6.9039243e-06
1.2698483e-05 1.4464017e-05 1.2420719e-07 2.0203472e-05 -4.0836335e-07 -3.5387543e-06 -6.2429676e-06 -4.3457365e-07
2.617223e-06 1.3658469e-05 1.6065519e-06 -1.00433335e-05 9.351743e-06 2.5351713e-07 2.510046e-05 1.14306695e-05
5.6035196e-07 9.377759e-06 2.7729604e-05 -1.1159619e-05 -1.6705552e-07 8.299755e-06 -2.1496362e-06 1.187418e-05
-3.545317e-06 -8.118624e-06 2.0963413e-05 7.99069e-06 5.677012e-06 -1.02808535e-05 -1.792235e-05 -5.004342e-06
2.4018587e-05 -1.8076442e-05 1.0222615e-06 -4.533655e-06 2.5763666e-05 -1.3604329e-05 6.435849e-08 -3.2397002e-06
-1.2672987e-05 1.2498846e-05 -4.7458925e-06 3.546487e-05 1.9159586e-06 1.4633756e-05 -3.455837e-06 -7.968209e-06
2.8463373e-06 1.8789138e-05 -8.4704325e-06 5.0794283e-06 -5.2594045e-05 1.8245166e-05 3.3969347e-05 1.8366444e-06
00000000: 2bb9 1037 a191 2f36 ff92 4db7 4b4a b7b5
00000010: d397 ebb6 fcbb 42b6 8b9a 1137 42a8 e736
00000020: 920b 5537 7baa 7237 d05d 0534 a07a a937
00000030: 083d dbb4 567b 6db6 af7a d1b6 594f e9b4
00000040: 8ca3 2f36 ad26 6537 b4a0 d735 ca7f 28b7
00000050: 6ee5 1c37 211b 8834 d48e d237 5ac6 3f37
00000060: 186b 1635 2b55 1d37 df9c e837 333a 3bb7
00000070: df5f 33b4 2d3f 0b37 7842 10b6 3737 4737
00000080: 15ec 6db6 3935 08b7 96da af37 c10f 0637
00000090: 297d be36 ee7b 2cb7 f457 96b7 f8ea a7b6
000000a0: 867b c937 dda2 97b7 a334 8935 cd1f 98b6
000000b0: 0d1f d837 263e 64b7 7435 8a33 a069 59b6
000000c0: 119e 54b7 23b2 5137 e83e 9fb6 1dc0 1438
000000d0: eb93 0036 8183 7537 d4ea 67b6 32af 05b7
000000e0: b403 3f36 5e9d 9d37 3b1c 0eb7 f56f aa36
000000f0: 6d98 5cb8 320d 9937 4f7a 0e38 9f82 f635

network.5.weight f4 [64]
1.0667986 0.956204 1.0638614 0.97566175 0.984897 0.99670243 1.0426971 0.9761087
0.9471509 0.962839 0.9981823 0.98277193 0.9568307 1.0092027 0.9762407 0.9129456
0.9634329 1.0161344 0.9532875 1.0016129 0.9953185 0.9741785 0.9856532 1.0277399
1.0294328 1.0321494 1.019088 1.0346993 1.0031697 1.042229 0.9636356 1.0608435
1.0374011 1.0096694 1.0161463 1.002815 0.95884544 1.0333803 0.9668053 0.9608512
1.0307474 0.93309927 0.968771 0.9474725 1.0425936 0.98273957 0.98323476 1.0586172
0.9951993 1.0402641 0.9718959 1.0399959 1.0574031 0.9354591 1.0392812 1.0853456
1.028811 0.9780666 0.96585274 1.0178152 0.96453875 1.0429959 1.0393336 0.96465236
00000000: db8c 883f c9c9 743f 9c2c 883f f8c4 793f
00000010: 3622 7c3f e427 7f3f 1977 853f 42e2 793f
00000020: 7b78 723f 9e7c 763f e088 7f3f f196 7b3f
00000030: dbf2 743f 8e2d 813f e9ea 793f ceb6 693f
00000040: 8aa3 763f b110 823f a60a 743f da34 803f
00000050: 31cd 7e3f c363 793f c553 7c3f fb8c 833f
00000060: 74c4 833f 791d 843f 7a71 823f 0771 843f
00000070: dd67 803f c367 853f d3b0 763f b8c9 873f
00000080: 8fc9 843f d93c 813f 1511 823f 3e5c 803f
00000090: e576 753f ce45 843f 8d80 773f 58fa 753f
000000a0: 88ef 833f 98df 6e3f 6001 783f 8f8d 723f
000000b0: b573 853f d294 7b3f 46b5 7b3f c580 873f
000000c0: 62c5 7e3f 6027 853f 2bce 783f 961e 853f
000000d0: fc58 873f 3f7a 6f3f 2b07 853f 9bec 8a3f
000000e0: 14b0 833f 9362 7a3f 2042 773f c547 823f
000000f0: 03ec 763f e480 853f e208 853f 75f3 763f

network.5.bias f4 [64]
0.06722215 -0.027441222 0.056192927 0.018942706 -0.018734625 0.025251823 0.015829002 -0.03709893
-0.059867237 -0.0017919935 -0.02960613 -0.014309018 -0.014448942 0.03347744 -0.031497054 -0.051494353
0.018781262 0.06465859 -0.0447031 0.01162156 -0.011100515 -0.009144276 2.3457389e-05 0.015971815
0.05832073 0.02824953 0.050593372 0.046768777 -0.017003834 0.03713675 -0.010767455 0.044167418
0.03528494 0.0022557578 0.034844406 -0.0021727013 -0.0017977584 0.055231407 0.00834274 -0.01199386
0.03438769 -0.04378197 -0.006863504 -0.009145939 0.009102912 -0.008929083 0.0070070224 0.0348492
0.03531369 0.048415005 -0.02700924 0.066758536 0.07213347 -0.053238787 0.02688355 0.05119547
0.021348342 -0.0017565767 -0.004722126 0.058463875 -0.026186325 0.027397718 0.065689385 -0.030894386
00000000: c4ab 893d 6acc e0bc 8e2a 663d bc2d 9b3c
00000010: 5b79 99bc e9dc ce3c d3ab 813c 0cf5 17bd
00000020: 5937 75bd 53e1 eaba 8e88 f2bc 5f70 6abc
00000030: 41bb 6cbc a41f 093d 0e03 01bd beeb 52bd
00000040: 29db 993c b96b 843d 991a 37bd 5b68 3e3c
00000050: efde 35bc e0d1 15bc 5cc6 c437 53d7 823c
00000060: b8e1 6e3d 8f6b e73c ff3a 4f3d 9e90 3f3d
00000070: a04b 8bbc b41c 183d fb69 30bc e5e8 343d
00000080: f186 103d 56d5 133b 02b9 0e3d e163 0ebb
00000090: c3a2 ebba 543a 623d fdaf 083c e581 44bc
000000a0: 1bda 0c3d b954 33bd 3fe7 e0bb d9d8 15bc
000000b0: 6124 153c 4a4b 12bc 2a9b e53b 09be 0e3d
000000c0: 16a5 103d d04e 463d 7b42 ddbc b3b8 883d
000000d0: b6ba 933d ea10 5abd e43a dc3c 57b2 513d
000000e0: b8e2 ae3c ef3c e6ba 10bc 9abb d177 6f3d
000000f0: b484 d6bc 2e71 e03c 2888 863d 3916 fdbc

network.5.running_mean f4 [64]
-0.017896606 -0.08478466 -0.01589202 -0.37416044 -0.41413876 -0.1612771 0.12608217 0.07315089
-0.37885314 -0.5555937 0.06857908 0.07847294 -0.054183017 -0.3712876 0.04104439 0.4889497
0.2736706 -0.3357393 -0.06221779 -0.0951628 -0.5588445 0.30666056 -0.22632773 -0.82808346
-0.09888012 -0.22828029 0.13664365 0.4665791 -0.13171351 -0.16356367 -0.28750613 -0.38376996
-0.47446 -0.72109276 -0.9332896 0.005885655 0.10409914 -0.019986516 0.006980972 -0.07665669
0.18972996 -0.47907838 -0.4732289 -0.07061346 0.07248029 -0.7299514 -0.6883641 -0.34448388
-0.11112858 -0.113073565 0.39818072 -0.6470144 -0.6406013 0.085320346 -0.7227146 -0.10552033
-0.003987104 0.48655722 -0.26683986 -0.4039305 -0.65237164 0.07550658 -0.3491022 0.46694848
00000000: e79b 92bc 94a3 adbd fb2f 82bc f591 bfbe
00000010: ff09 d4be d325 25be af1b 013e 22d0 953d
00000020: 0af9 c1be 643b 0ebf 3073 8c3d 6cb6 a03d
00000030: 03ef 5dbd 6919 bebe 2a1e 283d 9d57 fa3e
00000040: 8e1e 8c3e 06e6 abbe 15d8 7ebd b7e4 c2bd
00000050: 6f10 0fbf 9d02 9d3e 75c2 67be 47fd 53bf
00000060: a981 cabd 4fc2 69be 50ec 0b3e 75e3 ee3e
00000070: e8df 06be 3c7d 27be 0134 93be 7f7d c4be
00000080: 6cec f2be 8999 38bf 11ec 6ebf 74dc c03b
00000090: ee31 d53d c3ba a3bc a3c0 e43b 2ffe 9cbd
000000a0: 9248 423e c349 f5be 0f4b f2be ca9d 90bd
000000b0: 8c70 943d 18de 3abf a138 30bf 3160 b0be
000000c0: 6297 e3bd 1d93 e7bd 58de cb3e bca2 25bf
000000d0: 72fe 23bf 6fbc ae3d d303 39bf 0b1b d8bd
000000e0: 41a6 82bb 071e f93e 3c9f 88be facf cebe
000000f0: d401 27bf 32a3 9a3d 86bd b2be df13 ef3e

network.5.running_var f4 [64]
0.8431338 0.38774943 0.85397637 0.7688283 0.37101763 0.5400451 0.6978139 0.61198217
0.45320773 0.39377666 0.43257824 0.35119626 0.8318535 1.1310736 0.7712852 0.9404322
0.7466984 1.3276098 0.64820945 0.90998876 1.2667885 0.63152176 0.5409289 0.8831878
0.65938485 0.62939787 0.8039997 0.6985561 0.41223818 0.90016377 0.5640364 0.8841421
0.7025643 0.36936593 0.42284942 0.5422499 0.39425853 0.7425569 0.4059096 0.7293932
1.0814269 0.3685571 0.6363099 0.35130927 0.9401923 0.63141775 0.5257261 1.0453805
0.6331349 1.248825 0.75871676 0.4296785 0.9129212 0.28175768 0.92663676 1.0107006
1.0613351 0.5845747 0.74015397 1.1666934 0.3690876 0.7444847 1.0761777 0.7670487
00000000: 9ed7 573f 1887 c63e 329e 5a3f eed1 443f
00000010: 06f6 bd3e 6540 0a3f efa3 323f ddaa 1c3f
00000020: d80a e83e 189d c93e e57a dd3e ffcf b33e
00000030: 5af4 543f 05c7 903f f272 453f 2ac0 703f
00000040: a027 3f3f 1eef a93f 0ef1 253f 06f5 683f
00000050: 2026 a23f 69ab 213f 517a 0a3f 9818 623f
00000060: 72cd 283f 3820 213f edd2 4d3f 93d4 323f
00000070: e210 d33e 2271 663f b164 103f 2357 623f
00000080: 41db 333f 881d bd3e b87f d83e e4d0 0a3f
00000090: 41dc c93e 3618 3e3f 62d3 cf3e 83b9 3a3f
000000a0: 326c 8a3f 84b3 bc3e 35e5 223f cfde b33e
000000b0: 71b0 703f 98a4 213f fc95 063f 07cf 853f
000000c0: 2115 223f 7fd9 9f3f 433b 423f d2fe db3e
000000d0: 34b5 693f 8b42 903e 1138 6d3f a35e 813f
000000e0: d4d9 873f b0a6 153f bb7a 3d3f 3656 953f
000000f0: 0df9 bc3e 8d96 3e3f 31c0 893f 4e5d 443f

network.8.weight f4 [32, 64]
-0.13773236 -0.035020992 -0.10801896 -0.020541817 -0.058211762 0.059407227 0.016945817 -0.06500212
0.0641575 0.015019067 -0.03164793 0.027548376 0.013758462 0.00635639 -0.00842463 -0.09799916
0.06839495 -0.115385674 0.002047219 0.01569258 -0.05503722 0.05964755 0.03172678 -0.16130957
0.063010305 0.070042945 -4.7748068e-05 -0.121498056 -0.014814772 0.039811954 0.009566196 -0.055649407
-0.112495705 -0.054024056 -0.05133917 -0.09438957 0.010824257 -0.005238561 -0.011070851 -0.041808795
-0.12955424 -0.020959299 0.021821538 -0.09471439 0.07282856 -0.043156113 0.057268158 -0.10691643
-0.1080499 -0.123469934 -0.045736264 -0.039751712 -0.016171206 0.046842143 -0.1125379 -0.17101184
-0.05374192 0.09286158 0.11382634 -0.061739262 -0.0473092 -0.16388004 -0.064004324 -0.044860765
-0.07947239 -0.09276355 -0.008344062 0.032781698 0.087815635 0.023433238 0.070585676 -0.07484973
0.003916637 -0.06932159 0.13608658 0.021829719 -0.07837075 -0.13312772 -0.0004409131 0.027322007
0.013668466 -0.024858546 0.03085193 -0.15801737 -0.117612 -0.004999627 -0.060393773 -0.06695442
0.07523154 -0.16667542 -0.018122122 -0.00842385 -0.071692616 0.033906654 0.0014726691 0.04382761
-0.04660417 -0.08677059 -0.042597692 -0.017746365 0.017908415 0.011441171 -0.060513455 -0.04800071
-0.081378065 -0.009732704 0.08644292 -0.02995922 -0.10350715 -0.10158579 -0.03410955 0.10070333
-0.1520514 -0.2083979 -0.011586868 -0.15275992 0.017622096 -0.02613366 0.066097125 -0.011331169
-0.15495798 -0.1286983 -0.061199054 0.007984541 -0.008409929 0.027018555 -0.16087584 0.0054063876
-0.15330157 0.070646696 -0.050692953 0.12522571 0.050911505 -0.028853549 0.0080138985 -0.08715502
0.06350466 0.08955291 -0.02579119 -0.07177565 0.06093017 0.006957036 0.016357226 -0.014075537
-0.040505562 -0.023356754 0.0538217 0.026232582 -0.04440787 -0.06996379 -0.110091545 -0.15926896
-0.03704947 0.01433105 0.047789384 -0.100071736 0.09165492 0.01986904 0.0847959 0.009714444
0.060475506 -0.14672884 -0.094065756 0.027299048 -0.107472345 -0.15512498 -0.054121982 0.029957386
-0.054920875 0.106299676 0.07090169 0.095999025 -0.15134393 -0.07402392 0.0070750345 -0.14854732
0.07425083 0.05973122 0.029254818 0.08771747 0.106964126 0.03830861 0.089856915 0.013043215
-0.12338373 0.10431905 -0.09737757 0.07799589 0.027962856 0.027065335 0.038409345 0.041378893
-0.06332502 -0.025692688 0.088678285 -0.038698792 0.07328798 -0.11873535 0.09217331 0.089467
-0.13495354 -0.017680353 0.027711414 0.0004208427 0.005812472 -0.055942133 0.078187294 -0.031137928
-0.04739129 -0.09785774 0.0067978795 -0.14764206 0.03493313 0.009110001 0.037065316 0.08261158
0.028410189 -0.017568009 0.033171453 0.06139731 0.006263831 -0.09619844 -0.06782566 -0.03866111
0.054679796 0.11513778 0.11394728 0.11004322 -0.06423136 0.0918134 -0.022132345 0.08252599
0.1425353 -0.060610373 -0.1394032 0.03518394 0.096437685 -0.0734273 -0.0031326183 -0.06739116
0.09239205 0.10453484 0.10065697 -0.043960217 0.004090627 -0.021541672 -0.07047382 0.1348608
-0.02768136 -0.032686487 -0.13517153 0.06663121 -0.06775359 0.00090677623 0.10731512 -0.003572939
00000000: b609 0dbe 2c72 0fbd 0b39 ddbd 5047 a8bc
00000010: 756f 6ebd fe54 733d f4d1 8a3c d51f 85bd
00000020: 0265 833d 8812 763c 43a1 01bd 22ad e13c
00000030: 2c6b 613c 4449 d03b 7607 0abc c9b3 c8bd
00000040: a712 8c3d 534f ecbd a32a 063b ba8d 803c
00000050: b56e 61bd fd50 743d f1f3 013d 562e 25be
00000060: 8c0b 813d ad72 8f3d 1945 48b8 f9d3 f8bd
00000070: a8b9 72bc dc11 233d 89bb 1c3c a2f0 63bd
00000080: 2664 e6bd 5448 5dbd 0649 52bd 524f c1bd
00000090: 3958 313c 3ca8 abbb 8462 35bc b33f 2bbd
000000a0: dea9 04be d6b2 abbc 15c3 b23c 9ef9 c1bd
000000b0: 2427 953d 77c4 30bd 0492 6a3d 00f7 dabd
000000c0: 4449 ddbd cedd fcbd f355 3bbd b1d2 22bd
000000d0: 7a79 84bc 8cdd 3f3d 457a e6bd ba1d 2fbe
000000e0: 7d20 5cbd 362e be3d c91d e93d 4fe2 7cbd
000000f0: 4bc7 41bd 2bd0 27be b314 83bd ecbf 37bd
00000100: 6cc2 a2bd d1fa bdbd 88b5 08bc 1a46 063d
00000110: afd8 b33d 10f7 bf3c 398f 903d d14a 99bd
00000120: 2257 803b 7af8 8dbd 485a 0b3e 3dd4 b23c
00000130: d880 a0bd a252 08be 5b2a e7b9 67d2 df3c
00000140: b4f1 5f3c 26a4 cbbc 30bd fc3c 4ecf 21be
00000150: 8fde f0bd e9d3 a3bb 765f 77bd 661f 89bd
00000160: fe12 9a3d f6ac 2abe d874 94bc 3004 0abc
00000170: 94d3 92bd b4e1 0a3d 9306 c13a 9484 333d
00000180: 04e4 3ebd c7b4 b1bd eb7a 2ebd d360 91bc
00000190: abb4 923c c073 3b3c f5dc 77bd 649c 44bd
000001a0: 8ba9 a6bd eb75 1fbc fc08 b13d 0a6d f5bc
000001b0: 8ffb d3bd 360c d0bd 75b6 0bbd 8c3d ce3d
000001c0: 5db3 1bbe 4266 55be d9d6 3dbc 196d 1cbe
000001d0: 375c 903c 4216 d6bc ee5d 873d 5ea6 39bc
000001e0: 4ead 1ebe 7dc9 03be dcab 7abd 98d1 023c
000001f0: cdc9 09bc 0456 dd3c a3bc 24be 1128 b13b
00000200: 16fb 1cbe 37af 903d 6aa3 4fbd 2b3b 003e
00000210: 9588 503d 475e ecbc ba4c 033c 557e b2bd
00000220: bb0e 823d 8467 b73d 0c48 d3bc 1dff 92bd
00000230: ea91 793d d9f7 e33b 97ff 853c 159d 66bc
00000240: 29e9 25bd aa56 bfbc 2574 5c3d b6e5 d63c
00000250: 07e5 35bd 2d49 8fbd ad77 e1bd 6717 23be
00000260: 2fc1 17bd c8cc 6a3c cdbe 433d 69f2 ccbd
00000270: 93b5 bb3d 66c4 a23c 79a9 ad3d 5529 1f3c
00000280: 2ab5 773d 1640 16be 8ca5 c0bd 41a2 df3c
00000290: 761a dcbd 15d9 1ebe 03af 5dbd 3169 f53c
000002a0: b6f4 60bd a5b3 d93d e834 913d 239b c43d
000002b0: e7f9 1abe da99 97bd b1d5 e73b ca1c 18be
000002c0: d210 983d b9a8 743d cda7 ef3c 38a5 b33d
000002d0: 0210 db3d 7de9 1c3d e706 b83d 35b3 553c
000002e0: 9cb0 fcbd 3aa5 d53d e46d c7bd 4fbc 9f3d
000002f0: 5c12 e53c 1fb8 dd3c 1e53 1d3d ea7c 293d
00000300: 8cb0 81bd 7979 d2bc f69c b53d a082 1ebd
00000310: 0218 963d 852b f3bd 5cc5 bc3d 793a b73d
00000320: 4331 0abe 63d6 90bc 0c03 e33c 8da4 dc39
00000330: 8d76 be3b 9423 65bd a920 a03d f814 ffbc
00000340: 5f1d 42bd a469 c8bd bfc0 de3b 7b2f 17be
00000350: 0b16 0f3d 1d42 153c cdd1 173d 4330 a93d
00000360: 7cbc e83c c9ea 8fbc cade 073d bf7b 7b3d
00000370: d340 cd3b b003 c5bd 2ee8 8abd 1d5b 1ebd
00000380: ecf7 5f3d 5bcd eb3d 315d e93d 575e e13d
00000390: bb8b 83bd aa08 bc3d e44e b5bc 6303 a93d
000003a0: c6f4 113e 9542 78bd b6bf 0ebe 091d 103d
000003b0: 1f81 c53d 0d61 96bd 9d4c 4dbb 6004 8abd
000003c0: 0b38 bd3d 5d16 d63d 3e25 ce3d a10f 34bd
000003d0: ab0a 863b 2978 b0bc 9454 90bd f318 0a3e
000003e0: 05c4 e2bc 44e2 05bd 686a 0abe f275 883d
000003f0: 65c2 8abd b9b4 6d3a 08c8 db3d f827 6abb

network.8.bias f4 [32]
0.00014614746 1.6594831e-05 -4.9588607e-06 3.4091534e-06 2.8882818e-05 -0.00069275714 5.3838903e-05 1.1957147e-05
2.0136338e-06 4.549353e-05 -8.13283e-05 -3.5829606e-05 1.4791401e-05 8.710935e-07 -3.7844734e-06 -7.697014e-06
0.00024952457 2.1221396e-05 3.4221353e-05 3.7533732e-06 1.7759357e-05 -0.00022249867 0.00012149999 -0.0005730782
1.704345e-05 2.7326978e-05 4.9779836e-05 -0.00016860862 5.1380516e-06 5.814108e-05 -1.4590007e-05 -4.6375848e-05
00000000: 293f 1939 2135 8b37 4a64 a6b6 cfc8 6436
00000010: 6149 f237 259a 35ba 15d1 6138 8e9b 4837
00000020: f721 0736 4ed0 3e38 cc8e aab8 bf47 16b8
00000030: 9528 7837 17d5 6935 c2f8 7db6 6c22 01b7
00000040: 9fd2 8239 9a04 b237 e688 0f38 76e2 7b36
00000050: eef9 9437 884e 69b9 cfcd fe38 a13a 16ba
00000060: 88f8 8e37 3d3c e537 b1ca 5038 88cc 30b9
00000070: 8767 ac36 82dc 7338 9ac7 74b7 b083 42b8

network.9.weight f4 [32]
1.2830887 1.3216441 1.2712761 1.0646876 1.3297688 0.8979521 1.281245 1.151843
1.2401378 1.283883 1.3078189 1.3082333 1.2791182 0.9177167 1.3128625 1.2881622
1.2744724 1.2903074 0.89549464 1.2503012 1.0572114 1.2742032 1.2819871 1.2885495
1.2179288 1.2840703 1.2428184 1.2903765 1.1217909 1.330675 1.347067 1.291405
00000000: 403c a43f a22b a93f 2db9 a23f af47 883f
00000010: dd35 aa3f 30e0 653f d6ff a33f 976f 933f
00000020: d6bc 9e3f 4756 a43f 9c66 a73f 3074 a73f
00000030: 25ba a33f 7bef 6a3f e10b a83f 80e2 a43f
00000040: e921 a33f cb28 a53f 233f 653f df09 a03f
00000050: b452 873f 1719 a33f 2718 a43f 31ef a43f
00000060: 17e5 9b3f 6a5c a43f ac14 9f3f 0f2b a53f
00000070: d896 8f3f 8f53 aa3f b16c ac3f c24c a53f

network.9.bias f4 [32]
0.29368687 0.33486742 0.3025611 0.054382443 0.35071984 -0.09499068 0.28992802 0.14141922
0.24502459 0.28857505 0.31615123 0.3139605 0.2918187 -0.08368907 0.32091287 0.30255812
0.29792598 0.30547434 -0.106741466 0.2597535 0.069069885 0.2975827 0.30022675 0.3022942
0.23325731 0.28610212 0.26002485 0.29918146 0.12563784 0.3389621 0.35704446 0.30041844
00000000: 205e 963e be73 ab3e 4ae9 9a3e 20c0 5e3d
00000010: 8d91 b33e 798a c2bd 7271 943e 33d0 103e
00000020: bae7 7a3e 1cc0 933e 93de a13e 6ebf a03e
00000030: 4369 953e 2d65 abbd b14e a43e e6e8 9a3e
00000040: c189 983e 2267 9c3e 459b dabd 69fe 843e
00000050: 8374 8d3d c25c 983e 52b7 993e 4ec6 9a3e
00000060: 01db 6e3e fa7b 923e fa21 853e 502e 993e
00000070: 35a7 003e 718c ad3e 88ce b63e 72d0 993e

network.9.running_mean f4 [32]
-0.9150457 -0.9653538 -0.113825396 0.21598282 -0.73666453 -0.11965956 -0.85615313 -0.11747414
-0.1460578 -0.5426787 -0.41172528 -0.37287158 -0.754517 0.054686002 -0.33104247 -0.6392525
-0.6300729 -0.83252454 -0.2383616 -0.5436796 0.025407594 -0.41981998 -0.6462819 -0.7415461
-0.44622916 -0.37656772 -0.9501182 -0.7019306 -0.14424555 -0.6324661 -0.4594598 -0.43688887
00000000: 6f40 6abf 6d21 77bf 4a1d e9bd 9a2a 5d3e
00000010: 0c96 3cbf 1210 f5bd da2c 5bbf 4896 f0bd
00000020: 2d90 15be feec 0abf a8cd d2be 06e9 bebe
00000030: 0728 41bf 6efe 5f3d 667e a9be 0da6 23bf
00000040: 754c 21bf 5420 55bf 1015 74be 962e 0bbf
00000050: 9623 d03c a5f2 d6be bb72 25bf f7d5 3dbf
00000060: 2678 e4be 7ccd c0be f23a 73bf b9b1 33bf
00000070: 1bb5 13be 4ce9 21bf 513e ebbe e6af dfbe

network.9.running_var f4 [32]
0.83604777 1.2798371 0.90216637 0.63838476 0.69397026 0.42028672 0.7953045 1.1094776
0.70582634 1.4880438 1.5522308 0.60056716 0.92105305 0.37006557 0.8807536 0.47788176
0.54381835 0.83323944 0.19801846 0.42583996 0.35462415 0.40568635 0.389723 0.39522022
0.29740685 1.3246839 0.34803993 1.0644141 0.36300856 1.2081991 0.5237558 1.0273038
00000000: 3a07 563f b4d1 a33f 60f4 663f 2f6d 233f
00000010: 09a8 313f d22f d73e 1399 4b3f 5d03 8e3f
00000020: 09b1 343f 3878 be3f 80af c63f c5be 193f
00000030: 22ca 6b3f 3c79 bd3e 1179 613f ebac f43e
00000040: ae37 0b3f 2e4f 553f 5ac5 4a3e b207 da3e
00000050: 4c91 b53e 1fb6 cf3e c689 c73e 4e5a ca3e
00000060: b645 983e 3e8f a93f 4a32 b23e b93e 883f
00000070: 42dc b93e 45a6 9a3f dc14 063f b17e 833f

network.11.weight f4 [1, 32]
0.39079717 0.29000005 0.38468513 0.1381754 0.27043664 0.058518097 0.38106024 0.17575406
0.20768505 0.41179213 0.31252787 0.35667685 0.3788124 0.06394303 0.24891572 0.34348786
0.3861604 0.36575174 0.053368438 0.21412383 0.12955092 0.42864656 0.4018413 0.38093525
0.20145318 0.39277378 0.21141437 0.349206 0.15822244 0.29066816 0.28510466 0.36440295
00000000: 9116 c83e e37a 943e 73f5 c43e da7d 0d3e
00000010: ac76 8a3e acb0 6f3d 541a c33e dff8 333e
00000020: 64ab 543e 6bd6 d23e a703 a03e 599e b63e
00000030: b3f3 c13e 90f4 823d c3e3 7e3e a4dd af3e
00000040: d1b6 c53e d043 bb3e dd98 5a3d 4743 5b3e
00000050: ffa8 043e 9077 db3e 25be cd3e f209 c33e
00000060: be49 4e3e a519 c93e 027d 583e 21cb b23e
00000070: 1005 223e 75d2 943e 3df9 913e 0693 ba3e
